checkpoints/GNNNoCNN_Epoch46_valmse2.1507_testmse2.2909_ndcg0.9344.model (torch, 249600 bytes, 52 tensors)

Pair_embedding_types.weight f4 [106, 16]
0	0x3ceaff2a	0.028686125
1	0xbdb78b6a	-0.08962138
2	0xbecf98cf	-0.4054627
3	0xbf5edcca	-0.8705565
4	0x3f5d670e	0.86485374
5	0xbec08e53	-0.37608585
6	0x3e040459	0.12892283
7	0xbfa63450	-1.2984715
8	0x3def4eb6	0.11684935
9	0xbbc6aabb	-0.006062833
10	0xbf9e7cb5	-1.2381808
11	0x3f0a8bc1	0.541195
12	0xbfcabf6a	-1.5839665
13	0x3ebb97b6	0.36639184
14	0x3e8a997f	0.27070233
15	0x3f36fd63	0.7148039
16	0x3eed6690	0.4636731
17	0xbf96d866	-1.178479
18	0x3ff753f4	1.9322495
19	0xbed47c14	-0.41500914
20	0xbe83cebc	-0.25743663
21	0x3e3e3dc2	0.18578246
22	0xbf18ffb7	-0.5976519
23	0x3f2c5cad	0.6732891
24	0xbf848e94	-1.0356011
25	0x3d38399b	0.04497681
26	0xbf07b794	-0.53014493
27	0x4053d741	3.310013
28	0xbf4f8efb	-0.81077546
29	0xbf0fdd02	-0.56196606
30	0xbf8e5ccf	-1.1122073
31	0x3f8172b1	1.0113126
32	0x3fdbf57c	1.7184291
33	0x40129b6f	2.290737
34	0xbf83fd61	-1.03117
35	0x3e1399e8	0.1441418
36	0x3f61f330	0.882617
37	0xbfa90690	-1.3205128
38	0xbf91110f	-1.1333331
39	0x3d95bc14	0.07311264
40	0x3f22cba7	0.63592
41	0x3dfc4b13	0.12319007
42	0x3f81b75d	1.0134083
43	0x3dda3e7b	0.106564485
44	0xbf73e5af	-0.95272344
45	0x3dc0a5c8	0.0940662
46	0x3f9147e4	1.1350064
47	0xbd9f7130	-0.07785261
48	0xbf291cc8	-0.6605954
49	0x3f97b38f	1.1851672
50	0xbec4f558	-0.38468432
51	0xbf94f4c4	-1.1637197
52	0xbfd65fba	-1.6747963
53	0x3f5a3c7f	0.8524856
54	0xc0001ccc	-2.0017576
55	0x3c44db64	0.012015197
56	0x3c8e2c6b	0.017355165
57	0x3f8776a8	1.0583086
58	0xbfab6881	-1.3391267
59	0x3fa366ee	1.2765787
60	0x3c493cbd	0.012282548
61	0x3f7892f5	0.9709924
62	0x3f9c53ff	1.2213134
63	0x3d447fdc	0.0479735
64	0xbdc58e89	-0.09646327
65	0x3e3c34e3	0.1837955
66	0x3f548868	0.8302064
67	0xbfd2a7b6	-1.6457431
68	0x4008a9b2	2.1353574
69	0xbf8a80c8	-1.0820551
70	0x3e5034bb	0.20332615
71	0xbfac4227	-1.3457688
72	0xbe9ce490	-0.3064313
73	0x3e12a066	0.14319
74	0x3e2c5724	0.16830117
75	0x3f70a566	0.9400238
76	0x3ec2fea9	0.38084915
77	0xbe215a53	-0.15757112
78	0x3e71b29f	0.23603295
79	0x3e494686	0.19655809
80	0xbea7733b	-0.327051
81	0x3e19c231	0.15015484
82	0x3e942d50	0.2894082
83	0x3f87c6df	1.0607566
84	0xbeab7226	-0.33485526
85	0xbf9504b2	-1.1642058
86	0xbe2b961d	-0.16756482
87	0xbed228fa	-0.41046888
88	0x3f2a939b	0.6663148
89	0x3fc5bf45	1.5448996
90	0xbf38c742	-0.72179043
91	0xbf50c4f3	-0.8155052
92	0xbf591481	-0.8479691
93	0x3f1fb207	0.62381023
94	0x3f64f8cb	0.8944213
95	0x3fbdb106	1.4819648
96	0xbfb17272	-1.3863051
97	0x3e65ec06	0.22453317
98	0x3fe70404	1.80481
99	0x3e10eee2	0.14153627
100	0x3f39d821	0.7259541
101	0x3e5e423c	0.21704954
102	0xbf629786	-0.88512456
103	0x400bc71f	2.1840284
104	0xbf8dfdff	-1.1093138
105	0x3f9beec6	1.2182243
106	0x3e625fad	0.2210681
107	0xbf7c66aa	-0.9859415
108	0xbeef5a43	-0.46748552
109	0x3e74cb59	0.23905696
110	0xbef35976	-0.4752919
111	0xbcab3a28	-0.020901754
112	0x3f394763	0.7237455
113	0x3fc54c31	1.5413877
114	0x3e80c7dd	0.25152484
115	0xbec19724	-0.37810624
116	0xbf2800ef	-0.65626425
117	0x3e4b009c	0.19824451
118	0xbe9a41df	-0.3012838
119	0xbe2d1c67	-0.16905366
120	0x3f8e8bab	1.1136373
121	0xc02683cb	-2.601794
122	0x3e852303	0.26003274
123	0xbe8b8ef7	-0.2725751
124	0xbe25edc5	-0.16203983
125	0xbfc0557e	-1.502609
126	0xbdd7929e	-0.10526012
127	0x3d90b127	0.07065039
128	0x3e8f844e	0.28030628
129	0x3fc6178f	1.547594
130	0x3ebdd7e2	0.37078768
131	0x3f7817d0	0.96911335
132	0xbe4f20e4	-0.2022739
133	0x3f902089	1.1259929
134	0xbfa36026	-1.2763717
135	0x3f1c592f	0.61073583
136	0x3e5e11ef	0.21686529
137	0xbf809b3e	-1.0047376
138	0x3fbafef4	1.4609056
139	0xbf09fddc	-0.53902984
140	0xbce23b25	-0.027616093
141	0x3fa409de	1.2815511
142	0xbd3308df	-0.043709632
143	0x3eae139e	0.33999342
144	0x3f719887	0.94373363
145	0x3d9478b9	0.072495885
146	0x3edec45c	0.43509185
147	0xbf7c1c91	-0.9848109
148	0xbece96de	-0.40349478
149	0x3f6fb775	0.9363931
150	0x3ec2b5b6	0.3802926
151	0xbf1a22f0	-0.6020956
152	0x3f1e15d5	0.61752063
153	0xbd222b88	-0.039592296
154	0x40107a17	2.2574518
155	0x3fb81572	1.4381545
156	0x3fbc4c19	1.4710723
157	0x3e0910af	0.1338527
158	0x3ed34247	0.41261503
159	0xbe98b9f6	-0.29829377
160	0xbd701d31	-0.05862159
161	0xbdfdc6d4	-0.12391439
162	0x3e145734	0.1448639
163	0x3e8f6098	0.28003383
164	0xbf892674	-1.071486
165	0xbf43e446	-0.7652019
166	0x3f980ff6	1.1879871
167	0x3f877fd5	1.0585886
168	0xbfb8a553	-1.4425453
169	0x3f373281	0.7156144
170	0xbe5a6256	-0.21326575
171	0x3fab00a6	1.3359573
172	0x3fb386ea	1.4025548
173	0x3d4a3f81	0.04937697
174	0x3e9e7cd2	0.30954605
175	0x3ed40060	0.41406536
176	0xbf9cf40b	-1.2261976
177	0xbf1d0f3d	-0.61351377
178	0xbe1633cc	-0.14668196
179	0x3f6d3c7f	0.92670435
180	0xbe695b5e	-0.2278876
181	0xbf9e7b6a	-1.2381413
182	0x3f4bceda	0.79612505
183	0x3f249f20	0.64305305
184	0x3ea5205c	0.3225125
185	0x3f4e5920	0.80604744
186	0x3ffea226	1.9893234
187	0x3e5e70d9	0.21722735
188	0x3d4ffd2a	0.050778545
189	0x3fb58e4a	1.4184048
190	0xbe91aaf7	-0.28450748
191	0x3e6f9ee9	0.23400463
192	0x3ee407b9	0.44537142
193	0xbfc771ca	-1.5581601
194	0x3df7c059	0.12097234
195	0xbea6a507	-0.3254778
196	0x3fd9f172	1.7026808
197	0xbf821f0b	-1.0165724
198	0x3f078e09	0.52951103
199	0x3fc2c342	1.5215838
200	0xbe279400	-0.16365051
201	0xbfbca1e3	-1.4736904
202	0xbf3b50f8	-0.73170424
203	0x3f19cbd6	0.60076654
204	0x3f643ac9	0.891522
205	0x3e4ab284	0.19794661
206	0x3dcbaa3e	0.099445805
207	0x3eb8b9a6	0.3607914
208	0xbf4d3e80	-0.8017349
209	0x3fd5c728	1.6701403
210	0xbeb4ffad	-0.35351315
211	0x400b8088	2.17972
212	0x3fa37183	1.2769016
213	0x3ec91741	0.39275554
214	0xbfaa17d8	-1.3288527
215	0x3e994aa2	0.29939753
216	0xbec64cf0	-0.38730574
217	0x3e84cecd	0.25939026
218	0xbf274b3b	-0.6534917
219	0x3f102944	0.56312966
220	0xbfa672c3	-1.3003772
221	0x4052dbdc	3.2946692
222	0x40038815	2.0551808
223	0xc005047c	-2.0783987
224	0xbf660d6a	-0.8986422
225	0xbd6cbdee	-0.05779832
226	0xc0155ee2	-2.3339162
227	0x3faea16e	1.3643014
228	0xbf867a67	-1.0506104
229	0xbeb33323	-0.34999952
230	0x3ecb3593	0.3968931
231	0xbf7abff5	-0.97949153
232	0xbee1d3b2	-0.44106823
233	0xbf2168ae	-0.63050354
234	0xbf40826b	-0.75199
235	0x3ebf2336	0.3733155
236	0xbfae7dbc	-1.3632121
237	0xbf6b9821	-0.92029005
238	0xbec7b377	-0.39004108
239	0xbfc4ff07	-1.5390328
240	0xbf8cc367	-1.0997132
241	0x3eddc909	0.4331744
242	0xbfc64d18	-1.5492277
243	0x3d28b908	0.041192085
244	0x3eb0c3ec	0.34524477
245	0x3fb79984	1.4343724
246	0x3f6647e6	0.8995346
247	0xbfad5af0	-1.3543377
248	0x3f720ccc	0.94550776
249	0xbf8be980	-1.0930634
250	0xbe921f8d	-0.28539696
251	0xbe9cf6b6	-0.30656976
252	0x3fd2fa7a	1.6482689
253	0xbedcb0ef	-0.4310374
254	0xc0001735	-2.0014164
255	0x3e032e66	0.12810668

embedding_Pair_distances.weight f4 [7, 8]
0	0x3f0117b6	0.50426805
1	0xbf56659f	-0.8374881
2	0x3f6fc630	0.93661785
3	0x403da4e5	2.9631894
4	0x3f2a80d4	0.66602826
5	0x3fb43260	1.4077873
6	0xbeae4990	-0.340405
7	0x3e9733e0	0.29531765
8	0x4000c699	2.0121214
9	0x400eacf9	2.2293074
10	0x3f53f734	0.8279908
11	0xbdd3253a	-0.10309835
12	0x3fbe16fc	1.4850764
13	0xbf760345	-0.9609874
14	0x3fcbc3da	1.5919144
15	0x40235557	2.5520837
16	0xbf36cdae	-0.7140759
17	0xbf634e42	-0.88791287
18	0xbf7715b4	-0.9651749
19	0xbd8f6759	-0.07002134
20	0xbfb58a68	-1.4182863
21	0xbf04b9a2	-0.51845753
22	0x3dfb74f5	0.12278167
23	0xbfc8dee1	-1.5693017
24	0xbed4a994	-0.41535628
25	0x3eca33f4	0.39492762
26	0xbff30426	-1.8985641
27	0xbe56747b	-0.20942871
28	0xc0058c66	-2.0866942
29	0xbff0ab79	-1.8802329
30	0xbf77d1fd	-0.9680479
31	0xbefd058f	-0.49418303
32	0x3f850b0e	1.0393999
33	0x3f97ce83	1.1859897
34	0xbeca31a4	-0.39490998
35	0xc00258f5	-2.0366795
36	0xbfa6d400	-1.3033447
37	0xbe33db7c	-0.17564195
38	0xbf2d0d35	-0.6759828
39	0xbf8ee575	-1.1163775
40	0xbd6d1a96	-0.057886682
41	0x3ed54645	0.41655174
42	0xbf08fe92	-0.53513443
43	0x3e3a190f	0.18173622
44	0xbfb49b61	-1.4109918
45	0xbf47c771	-0.780387
46	0xbfd4f27c	-1.66365
47	0xbf0ae660	-0.54257774
48	0x00000000	0.0
49	0x00000000	0.0
50	0x00000000	0.0
51	0x00000000	0.0
52	0x00000000	0.0
53	0x00000000	0.0
54	0x00000000	0.0
55	0x00000000	0.0

embedding_Pair_prices.weight f4 [6, 5]
0	0x3dc6c7f9	0.097061105
1	0x3ee97508	0.455971
2	0x3ed0f9fe	0.4081573
3	0xbe8265b0	-0.25468206
4	0x3f9b62de	1.2139547
5	0x3f5c7359	0.86113507
6	0x3d2cee05	0.04221918
7	0x3f651182	0.8947984
8	0x3f3b7629	0.73227173
9	0x3f509728	0.81480646
10	0xbe1a6596	-0.15077814
11	0xbf1e1cd3	-0.6176273
12	0xbf2543e2	-0.64556706
13	0x400c9589	2.196627
14	0xbf463ac5	-0.77433425
15	0xbf9de3f9	-1.2335197
16	0xc00204e6	-2.031549
17	0xbefa1fcf	-0.48852393
18	0x3e325d6e	0.17418453
19	0x40000455	2.0002644
20	0xbd1f41c0	-0.038881063
21	0xbfbacb1e	-1.4593236
22	0xbdbe78b8	-0.09300369
23	0x3f804812	1.0021994
24	0xbdb30d46	-0.08742766
25	0x00000000	0.0
26	0x00000000	0.0
27	0x00000000	0.0
28	0x00000000	0.0
29	0x00000000	0.0

Pair_shop_mlp.fc_layers.0.weight f4 [64, 32]
0	0x3cee2516	0.029070418
1	0xbd3dbe32	-0.046323963
2	0x3e2532c2	0.16132644
3	0x3e40d51e	0.18831298
4	0xbe70d62a	-0.23519197
5	0x3d4bf2e9	0.049792204
6	0x3d994486	0.07483773
7	0xbe010f5b	-0.12603514
8	0x3d8de19c	0.06927797
9	0x3e240ccd	0.16020508
10	0xbe1cb8b3	-0.15304832
11	0x3cd238b4	0.025661804
12	0xbe070076	-0.1318377
13	0xbe4eec95	-0.20207436
14	0x3d93d031	0.07217444
15	0x3d85becf	0.065305345
16	0x3ddf70e5	0.10910205
17	0x3c5ca4df	0.013467043
18	0xbb8a6128	-0.0042230077
19	0x3d9875bf	0.07444333
20	0x3c875cd6	0.01652376
21	0x3dc0637a	0.09393974
22	0x3c872df8	0.016501412
23	0x3e7a9393	0.24470358
24	0xbe05b6cd	-0.13058014
25	0x3ca36481	0.019945385
26	0x3c4df175	0.012569775
27	0x3db38f9b	0.08767625
28	0x3db7ddfa	0.089778855
29	0x3d5d6521	0.054051522
30	0xbdbdfca5	-0.09276704
31	0xbe4abd02	-0.19798663
32	0xbe3f8af1	-0.18705346
33	0x3dca6626	0.098827645
34	0xbda0792c	-0.07835612
35	0x3e10cbca	0.1414024
36	0x3dad7701	0.08469964
37	0x3e79f0ef	0.24408315
38	0x3e94194b	0.28925547
39	0xbe0480c6	-0.12939748
40	0xbe0d91a8	-0.13825095
41	0xbd940421	-0.0722735
42	0xbdc7264f	-0.09724104
43	0x3bee9d3a	0.0072819265
44	0xbcb75ae1	-0.022382202
45	0xbd1f134a	-0.038836755
46	0x3cb48cfb	0.022039881
47	0x3e703a2f	0.23459695
48	0x3d24d78f	0.040244635
49	0xbe2f5a7b	-0.1712436
50	0x3c8eb0d6	0.017418306
51	0x3e4b0ea2	0.198298
52	0x3d76ff9f	0.060302373
53	0xbdbf8591	-0.09351648
54	0xbc54cb39	-0.012987905
55	0x3dd56b88	0.104209006
56	0xbdcef37f	-0.10105037
57	0x3daeb80f	0.085312
58	0xbc762d08	-0.015025385
59	0xbe21229b	-0.15735857
60	0x3e22d0e1	0.15899993
61	0xbda579b3	-0.08079853
62	0x3e48afc8	0.19598305
63	0x3d4354d2	0.047688313
64	0x3d755843	0.059898626
65	0x3d3301cc	0.043702886
66	0xbca5ca45	-0.020238051
67	0xbd8553be	-0.06510113
68	0x3e033da8	0.12816489
69	0x3e0da82d	0.13833685
70	0x3d87a45c	0.06623146
71	0x3de43b9e	0.111441836
72	0x3e5d344b	0.2160198
73	0xbe43f602	-0.19136813
74	0xbde2712a	-0.110567406
75	0x3df79fc9	0.120910235
76	0xbda6c678	-0.08143324
77	0xbe0cddd6	-0.13756499
78	0xbd49b39b	-0.04924355
79	0x3df6cc16	0.12050645
80	0xbe228807	-0.15872203
81	0xbe1fcf57	-0.15606438
82	0x3e0ff748	0.14059174
83	0x3e1e7b9f	0.15476845
84	0xbde03c71	-0.10949028
85	0x3de2a4ca	0.11066587
86	0x3c081bd7	0.008307419
87	0xbc4cc551	-0.012498216
88	0xbdb26290	-0.087102056
89	0x3dd2a185	0.10284714
90	0x3dcded88	0.10055071
91	0xbdf5f2d0	-0.120092034
92	0x3df800a0	0.12109494
93	0xbdfabacb	-0.12242659
94	0x3de6b7d6	0.11265533
95	0x3d2fec2b	0.042949837
96	0xbdb2be0c	-0.08727655
97	0xbdd682a0	-0.104741335
98	0xbd15a259	-0.03653178
99	0xbcdb0636	-0.02673636
100	0x3d8ac1e0	0.0677526
101	0x3e0a8771	0.1352823
102	0x3e251dbb	0.16124623
103	0x3c50e3f6	0.012749663
104	0xbcf5b49e	-0.029993352
105	0x3e47495b	0.19461577
106	0xbe16d008	-0.14727795
107	0x3ddceaaf	0.1078695
108	0x3de86076	0.113465235
109	0x3df904a1	0.12159086
110	0xbe454fe8	-0.19268763
111	0x3e2d1e24	0.16906029
112	0xbdae3750	-0.08506644
113	0x3debbbdb	0.1151044
114	0xbe35f603	-0.17769627
115	0xbd7172f1	-0.058947507
116	0x3dfb80a3	0.12280395
117	0xbd9ff29c	-0.07809946
118	0x3ac795c6	0.0015227131
119	0x3e1ba155	0.15198262
120	0x3e272223	0.16321616
121	0x3d986800	0.074417114
122	0x3e26c69a	0.16286698
123	0x3d9ef620	0.07761788
124	0xbe4e3b83	-0.2013989
125	0xbca6f0ad	-0.020378435
126	0xbe22a5fd	-0.15883632
127	0xbdc085e0	-0.09400535
128	0x3d19a12b	0.037507217
129	0x3d9979e7	0.07493954
130	0x3d0e6d3b	0.03477214
131	0x3e1e0f10	0.15435433
132	0x3ca68180	0.020325422
133	0xbe30b6a8	-0.17257178
134	0x3d48b8e0	0.049004436
135	0xbddd408e	-0.108033285
136	0xbd995dc3	-0.07488587
137	0xbdd7c413	-0.10535445
138	0x3d567bb9	0.052364085
139	0xbd6b0258	-0.057375282
140	0xbc678e87	-0.014133102
141	0xbe053f70	-0.1301248
142	0xbd329e95	-0.043608267
143	0x3db17c8f	0.08666336
144	0xbe014834	-0.126252
145	0xbde8ba93	-0.11363711
146	0xbcbfcfe1	-0.023414554
147	0xbc48c95c	-0.012255039
148	0x3e09a8e9	0.1344334
149	0x3d7270af	0.059189495
150	0xbe127759	-0.1430334
151	0x3d65cb21	0.056101922
152	0xbe325b0a	-0.17417541
153	0xbde6345b	-0.11240455
154	0xbdbd33d5	-0.09238402
155	0xbdb332d8	-0.08749932
156	0x3cd0f747	0.025508536
157	0xbe19b61f	-0.1501088
158	0x3d82ea7c	0.063923806
159	0xbe089831	-0.13339306
160	0x3d257fc1	0.04040504
161	0x3db9637f	0.090521805
162	0xbd8a0b26	-0.06740408
163	0xbb8ca428	-0.00429203
164	0xbc05d1b6	-0.008167675
165	0x3dc120c0	0.09430075
166	0x3e27f386	0.1640149
167	0x3daf1a7d	0.08549974
168	0xbe3d9d8d	-0.18517132
169	0xbe473ddc	-0.19457191
170	0xba505685	-0.0007947463
171	0xbdf2cf35	-0.11855928
172	0x3d58a0b1	0.052887622
173	0xbe541808	-0.20712292
174	0xbdfc5567	-0.12320977
175	0x3cc6934d	0.02424016
176	0x3b34298f	0.0027490591
177	0x3e2d1bfe	0.1690521
178	0xbe0ea9c7	-0.13931952
179	0x3dddb583	0.10825636
180	0xbdc40974	-0.095721155
181	0x3e14bcb7	0.14525114
182	0x3e062589	0.13100256
183	0xbe1285f2	-0.14308909
184	0x3e398673	0.18117695
185	0x3e43abcf	0.19108509
186	0x3d96d590	0.073649526
187	0xbd6aacbf	-0.05729365
188	0xbdc5ac93	-0.096520565
189	0x3e0f68c3	0.14004807
190	0x3cc2e6f0	0.02379176
191	0xbe38527c	-0.18000215
192	0x3d80dd8c	0.06292257
193	0xbe306aee	-0.1722829
194	0xbdd9f9fe	-0.10643385
195	0xbd310b51	-0.043223683
196	0x3c9506cc	0.018191718
197	0xbe2800ac	-0.16406506
198	0xbd91e28e	-0.0712329
199	0xbe0debd7	-0.13859497
200	0xbcc4edc2	-0.024039153
201	0xbe3ebca6	-0.18626651
202	0xbd206b81	-0.039165024
203	0xbe03e3dc	-0.1287989
204	0x3da78033	0.08178749
205	0x3d076f5b	0.03306518
206	0xbd7471fa	-0.05967901
207	0x3dd5fbdf	0.10448431
208	0xbce9431f	-0.028474389
209	0x3de97461	0.11399151
210	0xbd7548ab	-0.059883755
211	0x3dfe6f92	0.12423624
212	0x3d1a68e7	0.0376977
213	0xbe163a1a	-0.14670601
214	0xbda4dac8	-0.08049542
215	0xbd4f2bd7	-0.05057892
216	0x3e3f6817	0.18692051
217	0x3c8ea051	0.01741043
218	0x3dd6f76d	0.104964115
219	0xbe41bf70	-0.18920684
220	0xbe371c43	-0.17881875
221	0xbd41a1c6	-0.04727342
222	0x3dd4203d	0.103577115
223	0xbd3f6018	-0.0467225
224	0xbc341e02	-0.010993483
225	0xbd32f8ab	-0.04369418
226	0xbd835aa9	-0.064137764
227	0xbba7c1ec	-0.005119553
228	0x3e1b85a0	0.15187693
229	0x3d4cfbe3	0.050044905
230	0x3dbb9433	0.09159126
231	0x3dd727bb	0.10505625
232	0xbdc5c141	-0.09656001
233	0x3cf1184b	0.02943053
234	0x3d49a316	0.049227796
235	0xbd0313dd	-0.032001365
236	0x3e286dd6	0.16448149
237	0x3e45fa2b	0.19333713
238	0x3d0afcfa	0.033932664
239	0x3df2dbb4	0.11858311
240	0xbe2ad71b	-0.16683619
241	0xb982d35d	-0.0002495301
242	0xbd56b976	-0.052422963
243	0xbe396629	-0.18105377
244	0xbdc590b5	-0.09646741
245	0x3d27e4cf	0.040989693
246	0xbe250457	-0.16114937
247	0xbe11cdbd	-0.14238639
248	0x3dbac51b	0.09119626
249	0x3dab53e3	0.083656095
250	0x3e57ea57	0.21085487
251	0x3dd3ea4d	0.10347424
252	0xbb52a4fb	-0.0032141793
253	0x3d4b640c	0.04965596
254	0xbcd895ce	-0.02643862
255	0x3d99ddb5	0.075129904

Pair_shop_mlp.fc_layers.0.bias f4 [64]
0	0x3e3b4599	0.18288268
1	0xbc935415	-0.01798443
2	0xbde3930a	-0.1111203
3	0xbdb00394	-0.085944325
4	0xbdc289dc	-0.09498951
5	0xbc95a366	-0.018266391
6	0x3dd02091	0.101624615
7	0xbdbbde95	-0.091733135
8	0xbde5f1c4	-0.11227754
9	0x3db52fa5	0.08846978
10	0x3dc10d5f	0.094263785
11	0x3e225bc4	0.15855318
12	0xbdcdccb8	-0.10048813
13	0x3dce42a9	0.10071308
14	0x3db28d90	0.08718407
15	0xbd52840b	-0.051395457
16	0xbdde7d5c	-0.10863754
17	0xbdad9f81	-0.084776886
18	0xbda4f9dc	-0.080554694
19	0x3da4e98b	0.08052357
20	0x3e3c814d	0.184087
21	0x3e133d84	0.14378935
22	0xbdc3a4d3	-0.09552922
23	0xbd62aed8	-0.055342525
24	0xbd588b65	-0.052867312
25	0xbdb41884	-0.087937385
26	0xbcaefb5d	-0.021360094
27	0x3d0ed00c	0.034866378
28	0xbe2b1393	-0.16706686
29	0x3dec2a2b	0.115314804
30	0x3d6137c8	0.054984838
31	0x3ce93075	0.028465489
32	0x3d556c07	0.052104976
33	0x3d48d2ec	0.049029276
34	0xbd10863f	-0.035284277
35	0xbd7c47a8	-0.061591774
36	0xbcabfe3c	-0.020995252
37	0x3ddd6bcd	0.10811577
38	0xbda044ab	-0.078255974
39	0x3ddb7860	0.10716319
40	0xbcda31c4	-0.026635058
41	0x3d31a8ac	0.04337375
42	0x3d9cad5b	0.076502524
43	0x3e259de5	0.16173513
44	0x3db50eec	0.08840737
45	0xbd228b20	-0.03968346
46	0x3e3ee1c4	0.1864081
47	0xbd60bccd	-0.054867554
48	0xbdaa8d1a	-0.08327694
49	0xbda3c14a	-0.07995851
50	0xbc81ffa7	-0.015868975
51	0x3d9548f5	0.07289306
52	0x3e071fda	0.13195744
53	0x3d9eb8ff	0.07750129
54	0xbdf0c666	-0.117565915
55	0xbd91956c	-0.07108578
56	0x3cebddd7	0.028792305
57	0xbe12a296	-0.14319834
58	0x3d15e203	0.036592495
59	0x3e3667bf	0.17813013
60	0xbde7d8ac	-0.11320624
61	0x3d779ba6	0.060451172
62	0xbe168992	-0.14700916
63	0xbd55f915	-0.052239496

Pair_shop_mlp.fc_layers.1.weight f4 [16, 64]
0	0xbe85dcad	-0.26144925
1	0xbd113d48	-0.035458833
2	0x3b637cdb	0.003471187
3	0x3da31c70	0.079644084
4	0x3d4f526c	0.050615713
5	0xbca7351a	-0.020411063
6	0x3dda8b04	0.106710464
7	0xbdb44272	-0.08801736
8	0xbd1dd072	-0.038528867
9	0xbc3f8c1c	-0.0116911195
10	0xbba551a7	-0.005045134
11	0x3de13d3d	0.109980084
12	0xbdad910e	-0.084749326
13	0xbda35a83	-0.07976248
14	0xbe24c0e4	-0.16089207
15	0x3e11ca0d	0.14237233
16	0x3dd058a0	0.10173154
17	0x3e132403	0.14369206
18	0xbcc36a59	-0.023854421
19	0xbc993a9a	-0.018704701
20	0x3e1cb867	0.15304719
21	0xbcfcaf4b	-0.030845305
22	0x3da17285	0.07883171
23	0x3d2cdb7e	0.04220151
24	0x3bd9d1bb	0.0066473163
25	0x3daf5db3	0.085627936
26	0xbe2767ee	-0.1634824
27	0x3e32f29e	0.17475364
28	0x3e14c3f3	0.14527874
29	0x3db2d0e3	0.08731248
30	0xbdd6ac23	-0.10482051
31	0xbd92f1a4	-0.071749955
32	0x3e2a01fd	0.16602321
33	0xbdda27fa	-0.10652156
34	0x3de81b3b	0.11333319
35	0x3c228288	0.009918816
36	0x3e025de0	0.12731123
37	0x3e578bf5	0.21049483
38	0x3d8a1da0	0.06743932
39	0x3ccc7dbe	0.024962302
40	0x3d418a3a	0.047250964
41	0x3d93dbb5	0.0721964
42	0x3d41fec3	0.0473621
43	0xbd8b79d5	-0.06810347
44	0xbe171d50	-0.14757276
45	0xbd092dbb	-0.033490878
46	0x3ccd3faf	0.02505478
47	0x3dd6ab83	0.10481932
48	0x3d22d813	0.039756846
49	0x3d2e64d1	0.042576615
50	0x3e39acb9	0.18132295
51	0x3cb73438	0.022363767
52	0x3def0612	0.1167108
53	0x3da5741d	0.080787875
54	0xbdffc3d7	-0.12488525
55	0xbd6b4a03	-0.05744363
56	0x3de2037b	0.1103582
57	0xbdcec730	-0.10096586
58	0x3e5a27e9	0.21304287
59	0x3c5f65b3	0.013635087
60	0x3d09d9a8	0.03365484
61	0xbc9466f6	-0.018115502
62	0x3dc73677	0.09727185
63	0x3bdfddd5	0.0068318644
64	0x3e6716e6	0.22567329
65	0xbc515a9c	-0.012777951
66	0x3c5068dc	0.012720313
67	0x3df637a2	0.1202233
68	0xbd383a2c	-0.044977352
69	0x3db9405a	0.09045477
70	0x3ddd93e2	0.10819222
71	0xbda99141	-0.08279658
72	0x3da17fbf	0.07885694
73	0x3d0793dc	0.033099994
74	0x3daeabff	0.085288994
75	0x3dd34f75	0.103178896
76	0x3da80cdd	0.082055785
77	0x3da41bcd	0.08013115
78	0xbd042c15	-0.032268602
79	0x3dfe7aa7	0.12425738
80	0x3ca07d93	0.019591128
81	0xbd972c27	-0.07381468
82	0x3e0900a8	0.13379157
83	0xbd4dc661	-0.050238017
84	0xbc3ff048	-0.011715002
85	0xbda074d5	-0.07834784
86	0x3db923e3	0.09040048
87	0xbdb80e7d	-0.089871384
88	0x3d32765e	0.043569915
89	0x3c852273	0.016251778
90	0xbd80017f	-0.06250285
91	0xba5f49ce	-0.00085177727
92	0xbd836015	-0.064148106
93	0x3dcd5b54	0.10027185
94	0x3c345a24	0.011007819
95	0x3dbfaa29	0.09358627
96	0xbd371d2e	-0.044705562
97	0xbd5d46dc	-0.054022655
98	0xbded997a	-0.11601539
99	0x3d8ed3df	0.06974005
100	0x3c326062	0.010887237
101	0xbd97df9a	-0.074156955
102	0xbd627df8	-0.055295914
103	0x3d955a03	0.07292559
104	0xbd8a857d	-0.06763742
105	0x3cd28c7b	0.025701752
106	0x3e09cc65	0.13456877
107	0x3e1ca623	0.15297751
108	0xbce8f40b	-0.028436681
109	0x3bab51b5	0.005228246
110	0x3dfcba0d	0.12340174
111	0xbc63093b	-0.013857181
112	0xbe2a0629	-0.16603912
113	0xbcae21c7	-0.02125634
114	0x3bea6251	0.0071528335
115	0x3bb6c52f	0.0055777053
116	0xbd2a767a	-0.041616894
117	0xbce6305e	-0.028099235
118	0x3d7625d2	0.060094662
119	0xbd8d00db	-0.06884929
120	0xbbed1ce7	-0.0072361114
121	0x3dc9d6ac	0.098553985
122	0xbdf3362d	-0.118755676
123	0x3e0bb542	0.13643363
124	0x3dcec45e	0.10096048
125	0xbdd7f9b5	-0.10545675
126	0xbdba19ef	-0.09086978
127	0x3daab133	0.08334579
128	0x3e70a3bc	0.2349996
129	0x3d890c6e	0.06691824
130	0x3d9d9394	0.07694164
131	0x3ac07a09	0.0014684807
132	0xbde62464	-0.1123741
133	0x3d601b02	0.054713257
134	0xbc10eb2e	-0.008845134
135	0xbd89aadd	-0.06722043
136	0x3d392642	0.0452025
137	0x3de076f9	0.10960192
138	0x3c58304c	0.013195109
139	0xbd02d64a	-0.031942643
140	0xbd2655ba	-0.0406091
141	0x3d0021be	0.03128218
142	0x3c8a6d2e	0.016897764
143	0xbd8a0a9b	-0.06740304
144	0xbcaf1270	-0.021371096
145	0x3cbe7eff	0.023253916
146	0x3ddb4590	0.10706627
147	0x3e0c5274	0.13703328
148	0x3d49f32d	0.049304176
149	0x3bc0cc57	0.005883734
150	0xbd00f193	-0.031480383
151	0x3d999037	0.0749821
152	0xbc2bc9bf	-0.010485112
153	0xbd90ff85	-0.070799865
154	0x3e6d39c4	0.23166567
155	0xbd54b46d	-0.05192988
156	0xbceadca7	-0.028669668
157	0x3e29c00f	0.16577171
158	0x3e4b4191	0.1984923
159	0xbdd6a2b3	-0.10480251
160	0x3da74e98	0.081692874
161	0x3c969251	0.018380316
162	0xbd91f423	-0.071266435
163	0xbd0d6132	-0.03451652
164	0xbca3ecc0	-0.020010352
165	0xbdd289d0	-0.10280192
166	0x3e1b01b1	0.15137364
167	0x3dc61d03	0.09673502
168	0x3db7f9fd	0.08983228
169	0xbcc164c8	-0.023607627
170	0x3bf7f101	0.0075665717
171	0xbbd00884	-0.0063486714
172	0x3e194564	0.14967877
173	0x3cc013eb	0.023446998
174	0x3d310e5e	0.043226592
175	0xbdcf3e0a	-0.10119255
176	0xbe26a44c	-0.16273612
177	0x3daf54b9	0.085610814
178	0xbe341fd5	-0.17590268
179	0x3b0a0531	0.0021060223
180	0xbe1b0583	-0.15138821
181	0x3dfb8aa1	0.12282301
182	0x3d30b166	0.04313793
183	0x3dcaedee	0.09908663
184	0x3c9bbf63	0.019012159
185	0xbd55a4cb	-0.052159112
186	0x3d5af9c4	0.05346085
187	0xbc029fb6	-0.007972648
188	0x3d8d6b7c	0.06905267
189	0x3ddb9b8f	0.1072303
190	0xbdbb15ce	-0.09135018
191	0x3db38481	0.087655075
192	0x3e346cf4	0.17619687
193	0x3d843788	0.06455904
194	0x3bd3b225	0.0064604455
195	0xbdcc27c8	-0.09968525
196	0x3d3da678	0.046301335
197	0xbca36d9d	-0.019949729
198	0x3deca770	0.11555374
199	0x3e070069	0.1318375
200	0x3dfeab26	0.12434988
201	0x3e46f2fc	0.19428629
202	0x3e14a3cf	0.14515613
203	0x3c7d7bbc	0.015471395
204	0x3d1c3068	0.0381321
205	0xbd8c7a09	-0.06859214
206	0x3bbcca0c	0.0057613906
207	0xbdbf2e5a	-0.09335013
208	0x3d8aa93d	0.06770561
209	0xbd4d6d54	-0.05015309
210	0x3d3c98ac	0.046044037
211	0x3cffbc1d	0.03121763
212	0xbd4207c2	-0.04737068
213	0x3deba80c	0.11506662
214	0x3e04635d	0.12928529
215	0x3dde6e8a	0.108609274
216	0x3e27b3cd	0.16377182
217	0xbe418859	-0.18899669
218	0x3e6363ac	0.2220599
219	0x3d98a2f9	0.074529596
220	0x3ccad8ab	0.024761518
221	0x3de7805b	0.11303779
222	0x3e2fd182	0.17169765
223	0x3e1637a3	0.14669661
224	0x3db9511a	0.09048672
225	0x3d0cce28	0.034376293
226	0x3d0a9272	0.033831067
227	0xbd42f851	-0.047600094
228	0xbdfd6d53	-0.123743676
229	0xbdd52221	-0.104069
230	0xbda3f039	-0.08004803
231	0xba3792d3	-0.00070027745
232	0xbc03abeb	-0.008036594
233	0x3d8b2879	0.06794829
234	0x3d91b307	0.07114225
235	0x3b388d96	0.0028160564
236	0x3d74d615	0.059774477
237	0xbcc7c8b7	-0.0243877
238	0xbd0d002c	-0.034423992
239	0x3d53392b	0.05156819
240	0xbe83339b	-0.2562531
241	0xbdef4099	-0.11682243
242	0xbe430911	-0.19046427
243	0x3df1acac	0.11800513
244	0xbe05e7eb	-0.13076751
245	0xbd774790	-0.06037098
246	0xbda4a1fe	-0.0803871
247	0x3d6a91e7	0.05726805
248	0x3dcd7595	0.100321926
249	0xbd6a6820	-0.057228208
250	0x3db912e0	0.09036803
251	0x3e0c730e	0.13715765
252	0xbd209842	-0.039207704
253	0x3d748e91	0.059706274
254	0x3cd1ef6a	0.025626857
255	0x3e1b0160	0.15137243

Pair_shop_mlp.fc_layers.1.bias f4 [16]
0	0xbb51f7ac	-0.0032038493
1	0x3c271687	0.010198242
2	0x3e0a6252	0.13514069
3	0x3d256e61	0.04038847
4	0xbdab5bb8	-0.08367103
5	0x3b465509	0.0030263087
6	0x3c86683c	0.016407125
7	0xbda8a88d	-0.082352735
8	0x3d4e9cfb	0.050442677
9	0xbda73c82	-0.08165838
10	0xbd58e578	-0.052953213
11	0x3d9275bb	0.071513616
12	0x3dcc8915	0.09987084
13	0x3c84b69c	0.016200356
14	0xbdb89365	-0.09012488
15	0x3e0e2169	0.13879932

Pair_score_mlp.fc_layers.0.weight f4 [64, 32]
0	0xbe1139d5	-0.14182217
1	0xbdccffe6	-0.10009746
2	0x3e294a23	0.16532187
3	0xbd25ddbe	-0.040494673
4	0xbd9903bf	-0.07471418
5	0xbdbe56ff	-0.09293937
6	0x3e58d1d3	0.21173792
7	0x3ca6fea0	0.020385087
8	0xbbd3333d	-0.006445317
9	0xbdfcc0a0	-0.12341428
10	0xbd45ce48	-0.04829243
11	0xbdcb55e8	-0.09928495
12	0xbe04d8c8	-0.1297332
13	0xbe0b93cc	-0.13630599
14	0x3d8f3374	0.06992236
15	0x3c4014c4	0.011723701
16	0xbe3e5319	-0.18586387
17	0xbdbb9b8f	-0.0916053
18	0x3e8354ee	0.25650734
19	0xbd8026e8	-0.06257421
20	0x3ddf134b	0.10892352
21	0xbe4cf95c	-0.20016998
22	0x3d371f52	0.044707604
23	0x3dfce82e	0.12348972
24	0xbe22a1de	-0.1588206
25	0xbd700d69	-0.05860654
26	0x3e26074b	0.1621372
27	0xbdcf4228	-0.1012004
28	0x3da5950a	0.080850676
29	0xbd283664	-0.041067496
30	0xbe7cbc9c	-0.24681324
31	0xbe94291c	-0.28937614
32	0xbe3a77ee	-0.18209812
33	0xbd8ea616	-0.06965272
34	0x3e4e8d62	0.20171121
35	0x3e40bdf0	0.18822455
36	0xbdacf279	-0.084446855
37	0x3e3445eb	0.17604797
38	0x3e311213	0.17292051
39	0xbdea5b63	-0.11443212
40	0x3df27d7d	0.11840341
41	0xbd702ce5	-0.058636565
42	0xbdaff8aa	-0.08592351
43	0x3d1a07d3	0.037605118
44	0x3d97533c	0.073889226
45	0xbd1b96a3	-0.037985455
46	0xbdd1d848	-0.102463305
47	0xbc8f08de	-0.017460283
48	0xbda4fdc6	-0.08056216
49	0xbdf1ac7f	-0.11800479
50	0x3d435f19	0.047698114
51	0x3e1de954	0.15421039
52	0xbb88d4f1	-0.004175775
53	0xbdfb781c	-0.122787684
54	0x3d38ffea	0.045165934
55	0xbdf3ec38	-0.119102895
56	0xbe2ca212	-0.168587
57	0x3e382e4f	0.17986415
58	0x3c14092e	0.009035392
59	0xbe07da59	-0.13266887
60	0xbd3ae442	-0.04562784
61	0xbcbadc46	-0.022810113
62	0x3e1b378f	0.15157913
63	0x3da66eb3	0.08126583
64	0xbdfbbf1b	-0.1229231
65	0xba897ae6	-0.0010488897
66	0xbd383d15	-0.044980127
67	0xbdcfc47f	-0.101449005
68	0x3d2aa80b	0.041664165
69	0xbc6a4ecb	-0.014301012
70	0x3dca7814	0.09886184
71	0xbcff99f5	-0.031201342
72	0x3e07e3ee	0.13270542
73	0xbe20bc00	-0.15696716
74	0x3c64cc86	0.013964778
75	0x3e33bd2c	0.17552632
76	0x3ce23dac	0.027617298
77	0xbd3d1b08	-0.046168357
78	0x3db0ba30	0.086292624
79	0x3a0b92ea	0.0005324321
80	0xbe8b862c	-0.27250803
81	0x3d1594de	0.036518924
82	0x3d0b75d0	0.0340479
83	0x3e671856	0.22567877
84	0x3e5ffd59	0.21873988
85	0x3d82f91a	0.063951686
86	0x3e5114bd	0.20418067
87	0x3d7991ba	0.06092999
88	0x3e34c343	0.17652611
89	0xbd86c201	-0.06579972
90	0xbd5cbbd5	-0.053890068
91	0xbc08c025	-0.008346592
92	0xbe1b4d78	-0.1516627
93	0xbdf3c305	-0.119024314
94	0xbdb5df18	-0.088804424
95	0x3e05d528	0.13069594
96	0xbe2b5151	-0.16730238
97	0x3e032e09	0.1281053
98	0x3e69bf4f	0.22826885
99	0x3d349d62	0.044095404
100	0x3e340f4f	0.17583965
101	0xbe12c7a7	-0.14333974
102	0xbdeafc1d	-0.11473868
103	0x3d7b1964	0.06130351
104	0x3e1a861b	0.1509022
105	0x3d8a0e43	0.067410015
106	0xbe069b12	-0.13145092
107	0x3e3bfbf2	0.18357828
108	0xbdac036c	-0.0839909
109	0x3d891667	0.06693726
110	0xbdbf46f2	-0.093397036
111	0x3e374754	0.17898303
112	0x3d019304	0.031634346
113	0xbde42093	-0.111390255
114	0x3ddeb0a3	0.108735345
115	0x3d9cfebd	0.07665775
116	0x3cddf9d3	0.027096665
117	0x3d8548d0	0.065080285
118	0x3dfab459	0.1224143
119	0xbd6880bb	-0.056763392
120	0x3e12917c	0.1431331
121	0xbe59cf79	-0.21270551
122	0x3d10533b	0.035235625
123	0xbd879548	-0.0662027
124	0x3d17c261	0.03705061
125	0x3d5ad9a3	0.05343021
126	0x3e35b194	0.17743522
127	0x3d3047b4	0.04303713
128	0xbe4726b4	-0.19448358
129	0xbcf4bcc7	-0.029875172
130	0x3b2b215b	0.002611241
131	0xbde96b80	-0.11397457
132	0x3e0b22c4	0.13587481
133	0xbd01e036	-0.031707965
134	0xbe05b935	-0.13058932
135	0xbe7e5787	-0.24838077
136	0x3e145e19	0.1448902
137	0xbd858361	-0.06519199
138	0xbe428245	-0.18995006
139	0xbe48e86e	-0.19619915
140	0xbd1c33b0	-0.03813523
141	0x3c47b245	0.012188499
142	0xbe01b6f3	-0.12667446
143	0xbe20b5d8	-0.15694368
144	0x3e491aa6	0.19639072
145	0x3e4db137	0.20087133
146	0xbe118283	-0.14209943
147	0xbdd73f8d	-0.10510168
148	0xbdc26fe4	-0.09493998
149	0x3dd07aee	0.10179697
150	0x3b8bc455	0.004265348
151	0x3aaa6424	0.0012999815
152	0xbe431c17	-0.19053684
153	0x3d9607aa	0.073256806
154	0xbcbe9a98	-0.023267075
155	0x3e68849d	0.22706838
156	0xbcc9a6da	-0.024615694
157	0xbe08eb3e	-0.13370988
158	0x3d3a42a5	0.045473713
159	0xbe1ad482	-0.15120128
160	0xbdfe0d25	-0.12404851
161	0x3d11b106	0.035569213
162	0x3e192a3f	0.14957522
163	0x3d951b3f	0.072805874
164	0x3dc90503	0.09815409
165	0x3e0f8fef	0.1401975
166	0xbdbd3ea5	-0.09240464
167	0xbde13822	-0.109970346
168	0xbdcbf14a	-0.099581316
169	0xbc6e9488	-0.01456178
170	0x3e3ac837	0.18240438
171	0x3d869704	0.06571773
172	0x3bd72898	0.0065661184
173	0x3dc78441	0.09742022
174	0xbe21ff95	-0.15820153
175	0xbd877ec7	-0.06615978
176	0x3e2f130d	0.17097111
177	0x3e24afbb	0.16082661
178	0x3db73c28	0.08947021
179	0xbbc5ad65	-0.006032633
180	0x3df38938	0.11891407
181	0xbe08845c	-0.13331741
182	0x3cb54a06	0.022130024
183	0x3dc06428	0.09394103
184	0x3d8bfdaa	0.06835492
185	0x3d927d08	0.07152754
186	0x3e4c9b4d	0.19981118
187	0xbe351323	-0.17683081
188	0x3e26910c	0.16266268
189	0xbe1138de	-0.1418185
190	0x3e1e3952	0.15451553
191	0xbd8752ba	-0.06607576
192	0xbe014761	-0.12624885
193	0x3e59bcb9	0.21263398
194	0xbd40ed2f	-0.047101196
195	0xbd7bbc60	-0.061458945
196	0xbe150ebc	-0.14556402
197	0xbdaf89d1	-0.08571208
198	0x3d17420e	0.03692823
199	0x3e0c6461	0.13710167
200	0x3aace114	0.0013189637
201	0x3d8dc829	0.06922943
202	0xbdcbac7d	-0.09945009
203	0x3e1b5dde	0.15172526
204	0xbd3120d4	-0.043244198
205	0xbdc94993	-0.09828486
206	0x3e0b17a4	0.13583237
207	0x3cdb5a18	0.026776358
208	0xbbbfef45	-0.0058573806
209	0x3e073be1	0.13206436
210	0xbdbbca5d	-0.09169457
211	0xbc180514	-0.0092785545
212	0xbd8fe742	-0.07026531
213	0x3d82d773	0.0638875
214	0x3e3c75b2	0.18404272
215	0x3e2aca7c	0.16678804
216	0x3da4c4cf	0.08045351
217	0xbd74b890	-0.059746325
218	0x3d390d65	0.04517879
219	0x3e5ce576	0.21571907
220	0xbdf529bd	-0.119708516
221	0x3dfa8edf	0.12234282
222	0x3e1a1734	0.15047914
223	0xbe1314d6	-0.14363417
224	0x3c262c15	0.010142346
225	0xbd8f43ba	-0.0699534
226	0x3e543241	0.20722295
227	0x3e0b1855	0.135835
228	0x3d141c66	0.036159895
229	0x3c98f955	0.018673578
230	0xbdb010b1	-0.08596934
231	0xbdb70efc	-0.08938405
232	0x3e3df5de	0.18550822
233	0x3e700800	0.23440552
234	0xbe5c2fa4	-0.21502548
235	0xbdf8ae63	-0.121426366
236	0x3d8901a5	0.06689767
237	0xbd6eda3e	-0.0583136
238	0xbddb369b	-0.107037745
239	0x3e008b8f	0.12553237
240	0xbe446a83	-0.19181256
241	0xbe0ad456	-0.13557562
242	0x3caff411	0.021478685
243	0xbc92bb8b	-0.017911693
244	0xbd8dc892	-0.069230214
245	0x3e6f89a1	0.23392345
246	0x3d406f5c	0.0469812
247	0xbba01efb	-0.0048865057
248	0xba5b47be	-0.00083648774
249	0xbddd69dc	-0.10811207
250	0xbdbcfbeb	-0.09227737
251	0xbdf643fd	-0.120246865
252	0xbddd53ef	-0.10807025
253	0xbda1e051	-0.07904113
254	0x3e316d75	0.17326911
255	0x3d921cd0	0.07134402

Pair_score_mlp.fc_layers.0.bias f4 [64]
0	0x3d7c1afc	0.06154917
1	0xbd52ca20	-0.051462293
2	0xbe0aaa2c	-0.13541478
3	0xbdc7c947	-0.097551875
4	0x3e23295c	0.15933746
5	0x3e2544d7	0.16139542
6	0xbdc3efcf	-0.09567224
7	0xbdcc8ba9	-0.099875756
8	0xbd84b669	-0.064801045
9	0xbdb98858	-0.09059209
10	0x3e1ef42e	0.15522835
11	0x3c5608cd	0.013063622
12	0x3d2a427d	0.041567314
13	0x3ddac9ab	0.10682996
14	0xbd7fc158	-0.062440246
15	0x3d1793fc	0.037006363
16	0x3e3f7387	0.18696414
17	0xbd8e47c1	-0.0694728
18	0x3dd8b58e	0.10581504
19	0x3d8fb842	0.07017566
20	0xbda0d2e0	-0.07852721
21	0xbd0395da	-0.03212533
22	0x3d93d08a	0.0721751
23	0xbd396efc	-0.04527186
24	0x3dd2d7be	0.10295056
25	0xbd318c81	-0.043346886
26	0xbbe4be9d	-0.0069807307
27	0x3dd9fddc	0.10644123
28	0x3e22afeb	0.1588742
29	0xbd18e19c	-0.037324533
30	0xbda20279	-0.07910628
31	0x3e1d6724	0.15371376
32	0x3da22037	0.07916301
33	0xbe1a1b60	-0.15049505
34	0x3c38102d	0.011234325
35	0x3e6bc440	0.23024082
36	0x3e2f1491	0.17097689
37	0x3e139fdb	0.14416449
38	0xbdb7115c	-0.08938858
39	0xbd22304f	-0.039596852
40	0xbde009b6	-0.10939352
41	0x3dcb3ad4	0.0992333
42	0xbe1fd2af	-0.15607713
43	0xbdf8ba13	-0.12144866
44	0x395b923c	0.00020939944
45	0x3e005c02	0.12535098
46	0xbd23b21b	-0.039964776
47	0xbdc795b0	-0.097453475
48	0xbd68d05b	-0.05683933
49	0xbd8a1aa4	-0.067433625
50	0x3d297952	0.041375466
51	0xbd972393	-0.07379832
52	0xbd3035cb	-0.04302005
53	0xbdeaf04d	-0.11471615
54	0xbd6dc49b	-0.058048826
55	0x3e104d29	0.14091934
56	0xbcce511e	-0.025185164
57	0x3de59460	0.11209941
58	0x3df7f642	0.12107517
59	0x3df1391b	0.1177847
60	0x3d9a5dbf	0.07537412
61	0x3e2a35aa	0.16622034
62	0x3dd55ed2	0.10418476
63	0xbd908d6e	-0.070582256

Pair_score_mlp.fc_layers.1.weight f4 [8, 64]
0	0x3dd7ce48	0.10537392
1	0x3dfb3515	0.12265984
2	0x3e059160	0.13043737
3	0x3d86089e	0.06544612
4	0x3e5207d3	0.20510797
5	0x3e19ee5e	0.15032336
6	0x3d788b97	0.06068
7	0x3ddc8b15	0.10768715
8	0x3e115edf	0.14196347
9	0x3e190ec4	0.14947039
10	0xbddfd17a	-0.10928626
11	0x3d001dbd	0.03127836
12	0x3cf83c08	0.030302063
13	0xbe1eab68	-0.15495074
14	0xbcc6c32d	-0.024262989
15	0xbb89ea3d	-0.0042088316
16	0x3dff2bcd	0.12459526
17	0x3c1683ba	0.0091866795
18	0xbd1e5ffb	-0.038665753
19	0x3d55007d	0.05200242
20	0x3e082569	0.13295521
21	0xbcbce91a	-0.02306037
22	0x3dc756f6	0.09733383
23	0x3c8a1e60	0.016860187
24	0x3dd06b9d	0.101767756
25	0x3e15a302	0.14612964
26	0x3e22d8b5	0.1590298
27	0x3d59fc25	0.05321898
28	0xbd369fc0	-0.044585943
29	0xbd194bfd	-0.037425984
30	0x3de612e0	0.11234069
31	0x3c4c6943	0.012476268
32	0x3cd359a0	0.025799572
33	0x3de67f38	0.11254734
34	0x3de5026b	0.11182102
35	0xb9aa84e5	-0.0003252394
36	0x3e3bb8fa	0.18332282
37	0x3d21041b	0.039310556
38	0x3d24216d	0.04007094
39	0x3dd63bad	0.10460601
40	0xbd2ff521	-0.042958383
41	0x3d2c266d	0.042028833
42	0xbcc05d3d	-0.02348196
43	0x3da5993f	0.0808587
44	0xbe433c39	-0.19065942
45	0x3dc8fec7	0.0981422
46	0x3e158562	0.14601663
47	0x3dde24dd	0.10846875
48	0xbdd742cd	-0.10510788
49	0x3da8fe93	0.08251681
50	0xbdc8bb56	-0.098013565
51	0x3daf72fc	0.085668534
52	0x3e770c47	0.24125777
53	0x3c9cef31	0.019157024
54	0x3daa2198	0.08307189
55	0xbdaeeb12	-0.0854093
56	0x3d44b598	0.048024744
57	0xbdb2482d	-0.08705173
58	0xbd7101b5	-0.05883952
59	0x3dd17e06	0.10229115
60	0xbb76b8d1	-0.003764678
61	0x3da08089	0.07837016
62	0xbd8bab16	-0.068197414
63	0x3e34822f	0.17627786
64	0xbddf047e	-0.10889529
65	0x3ddca796	0.10774152
66	0xbdf371a8	-0.118869126
67	0xbe0d8cfa	-0.1382331
68	0xbddfaf53	-0.10922112
69	0xbd6bd825	-0.05757918
70	0xbcc56f07	-0.024100794
71	0xbd97a2b0	-0.07404077
72	0xbd8b35f7	-0.06797402
73	0x3cf1ead2	0.029530916
74	0xbe37f970	-0.17966247
75	0x3be4c759	0.006981772
76	0xbe3aaeb1	-0.18230702
77	0x3e3e0592	0.18556812
78	0xbe3b68e6	-0.18301734
79	0xbe315dd9	-0.17320956
80	0xbbcaebfa	-0.0061926814
81	0x3d372182	0.04470969
82	0xbd7bf8d4	-0.061516598
83	0x3cd50659	0.026004003
84	0xbe07e62f	-0.13271402
85	0xbdeedd89	-0.11663348
86	0xbd50a559	-0.050938938
87	0x3d91a24a	0.07111032
88	0xbdacb4bd	-0.084329106
89	0xbddaba23	-0.10680034
90	0x3df150d3	0.11782994
91	0xbce82e17	-0.02834229
92	0xbdca16fb	-0.098676644
93	0x3da88453	0.08228364
94	0x3de79b0f	0.11308872
95	0xbc3894ec	-0.0112659745
96	0xbd823c3e	-0.063591465
97	0xbe02c786	-0.12771425
98	0x3d678ba3	0.056529652
99	0x3de4090f	0.1113454
100	0xbdc9ce11	-0.09853757
101	0x3d90adf8	0.07064432
102	0x3d391579	0.045186494
103	0x3d5981ec	0.05310242
104	0xbddedbea	-0.10881789
105	0xbd1ff0a2	-0.039047845
106	0xbd92b27a	-0.07162948
107	0xbdee5430	-0.11637151
108	0x3e44a406	0.19203195
109	0x3e0591a5	0.1304384
110	0xbdb466be	-0.08808659
111	0xbda35ab0	-0.07976282
112	0x3d1ffc55	0.039059002
113	0xbdfacab7	-0.12245696
114	0x3de51e48	0.11187416
115	0xbde02d87	-0.10946184
116	0xbb90d152	-0.004419484
117	0xbe1920e8	-0.14953959
118	0xbe0fe32f	-0.14051507
119	0x3e59c4b0	0.21266437
120	0x3cf3f431	0.029779525
121	0xbddc87bd	-0.107680775
122	0xbd220309	-0.039553676
123	0xbd7f7949	-0.062371526
124	0x3e2452be	0.16047189
125	0x3db79ec7	0.08965831
126	0x3d64cbd7	0.05585846
127	0x3d685220	0.056718946
128	0x3daf112b	0.085481964
129	0x3de2707a	0.110566095
130	0x3e666388	0.22498906
131	0x3e2a7d39	0.16649331
132	0x3d230e9b	0.03980885
133	0x3d93048d	0.07178602
134	0x3e45062d	0.19240637
135	0x3c47039a	0.012146855
136	0x3e3e3128	0.18573439
137	0x3d26e839	0.04074881
138	0x3db406c6	0.087903544
139	0xbc3708ca	-0.011171529
140	0xbcd97aba	-0.026547778
141	0xbe5fe876	-0.2186602
142	0x3d7bae0b	0.061445277
143	0x3d83eca6	0.064416215
144	0x3e824d34	0.25449526
145	0x3e1c1255	0.15241368
146	0x3e038c04	0.1284638
147	0x3d10f5ea	0.035390772
148	0x3dd2704d	0.10275326
149	0xbd46ae4d	-0.04850607
150	0x3df2913b	0.11844107
151	0x3d8d2a00	0.068927765
152	0x3d4a66ac	0.04941432
153	0x3d4068dc	0.046975
154	0x3df00563	0.117197774
155	0x3e6d747b	0.23188965
156	0xbc0f29da	-0.0087380055
157	0x3e0a17e8	0.13485682
158	0x3d89927f	0.06717395
159	0x3e510819	0.20413245
160	0x3dcbd8f2	0.099534884
161	0x3cbb4f52	0.022864971
162	0x3ddadd0a	0.10686691
163	0xbcf0f1b4	-0.029412128
164	0x3e33f2a2	0.17573026
165	0x3bacb9be	0.0052711656
166	0xbe0fd18e	-0.14044783
167	0x3e231061	0.15924217
168	0xbd8146d5	-0.06312338
169	0x3dcf2d1a	0.10116024
170	0x3de94b4c	0.11391315
171	0x3e209c61	0.15684654
172	0xbd967eeb	-0.073484264
173	0x3e0a6c76	0.13517937
174	0x3dc44796	0.095839664
175	0xbc855ef5	-0.01628063
176	0x3e16cf5f	0.14727543
177	0xbd176274	-0.036959127
178	0x3e293b18	0.16526449
179	0xbcb324c7	-0.021868123
180	0x3d8c03b9	0.068366475
181	0xbdcc2c10	-0.09969342
182	0x3da1e160	0.07904315
183	0xbc618f76	-0.013767114
184	0xbd1c6e13	-0.038190912
185	0x3ca2e0be	0.019882556
186	0x3dc51654	0.096233994
187	0x3e633876	0.22189507
188	0x3dd9c7ac	0.106337875
189	0x3c472101	0.012153865
190	0x3dca677f	0.098830216
191	0x3e8a39dd	0.2699727
192	0xbd401f0b	-0.046904605
193	0x3d9be114	0.076112896
194	0x3d76845e	0.06018483
195	0x3b4333be	0.002978548
196	0x3c8c5d21	0.017134251
197	0xbdd5d743	-0.104414485
198	0x3c205844	0.009786669
199	0x3c8cc027	0.01718147
200	0xbe1d5052	-0.15362671
201	0xbbb5cf30	-0.0055483803
202	0x3d8ce2ee	0.06879221
203	0x3d0ba5e2	0.034093745
204	0xbcc3fe7c	-0.023925059
205	0x3dc43b49	0.0958162
206	0xbdee6e73	-0.1164216
207	0xbe12fe99	-0.14354934
208	0xbd5d9743	-0.054099333
209	0xbdbd4483	-0.09241583
210	0x3c01aa27	0.007914103
211	0xbd5d2a8d	-0.053995658
212	0xbd92e5e0	-0.071727514
213	0xbc4c3c48	-0.012465544
214	0x3d7eba14	0.062189177
215	0x3dac9c15	0.08428208
216	0x3e0254cc	0.1272766
217	0x3ad5f6af	0.0016324128
218	0xbd0f57e1	-0.034995917
219	0x3e02513b	0.127263
220	0xbd6db240	-0.05803132
221	0x3d818e52	0.063259736
222	0x3d86bd76	0.065791056
223	0xbda17925	-0.078844346
224	0xbd463057	-0.048385944
225	0xbdc41f32	-0.095762625
226	0xbca7feea	-0.020507295
227	0xbc4c3abd	-0.012465176
228	0x3e1cdf64	0.15319592
229	0xbe2ec61d	-0.17067762
230	0xbbb30393	-0.0054630726
231	0x3cb4fe00	0.022093773
232	0x395eb5d3	0.00021239305
233	0x3d942882	0.07234289
234	0xbdb02aad	-0.0860189
235	0x3d39fa8d	0.04540496
236	0xbcdab2e0	-0.026696622
237	0xbde5ae9b	-0.11214944
238	0xbe045851	-0.12924315
239	0xbd98b0a9	-0.0745557
240	0x3dce9e15	0.100887455
241	0xbe175485	-0.14778335
242	0xbc105362	-0.0088089425
243	0xbdbe356c	-0.09287533
244	0x3d69860a	0.057012595
245	0xbde2cda8	-0.11074382
246	0x3aaee55c	0.0013343501
247	0x3e170149	0.14746584
248	0xbdca9baf	-0.098929755
249	0x3cd085c0	0.025454402
250	0x3ddc5c42	0.10759784
251	0x3dbed730	0.093183875
252	0xbd56f8c2	-0.052483328
253	0xbde17bf7	-0.110099725
254	0x3d3e2ec0	0.046431303
255	0x3c968840	0.018375516

Pair_score_mlp.fc_layers.1.bias f4 [8]
0	0xbaf599bb	-0.0018737832
1	0x3dd34b55	0.10317103
2	0xbdb3f3b3	-0.08786716
3	0x3d8b357c	0.06797311
4	0x3e0c7297	0.13715588
5	0x3defef26	0.11715536
6	0xbd792f9e	-0.060836427
7	0xbd800c8b	-0.062523924

CNN_embedding_types.weight f4 [106, 16]
0	0x3e143153	0.1447194
1	0xbf4692f5	-0.7756799
2	0xbefccff1	-0.49377397
3	0x3f73deb2	0.9526168
4	0xbed09b39	-0.40743425
5	0xbc5a8c02	-0.0133390445
6	0x3fe274eb	1.769193
7	0xc039a005	-2.9003918
8	0x3dfc5115	0.12320153
9	0xbf5da16c	-0.86574435
10	0xbf08f5e7	-0.5350022
11	0x3f89da9c	1.0769839
12	0x3ef88eef	0.4854655
13	0x3eca84ba	0.39554387
14	0x3f3c5e1c	0.735811
15	0xbf441104	-0.76588464
16	0xbd081c46	-0.03323009
17	0xbff69467	-1.9264039
18	0x3f2a366a	0.6648928
19	0xbf3b0b97	-0.7306456
20	0x3eea6946	0.45783442
21	0xbf271944	-0.6527293
22	0x3ed42d18	0.41440654
23	0xbe81a860	-0.25323772
24	0xbd1e84ea	-0.038700975
25	0xbf678b1c	-0.9044664
26	0xbfad792f	-1.3552607
27	0x3ef2b3dd	0.4740285
28	0x3f82d8ea	1.0222447
29	0x3eda8399	0.42678526
30	0xbeb908dc	-0.36139572
31	0xbe020d0c	-0.1270029
32	0xbf0ebd64	-0.5575774
33	0x3fd58d45	1.6683737
34	0x3f1fd949	0.62440926
35	0xbebd701e	-0.369996
36	0xbc9e5695	-0.019328395
37	0x3f8b485b	1.0881456
38	0x3ee14e57	0.4400508
39	0xbf8490a3	-1.035664
40	0x40071326	2.1105437
41	0xbfc67729	-1.5505115
42	0xbf88e723	-1.0695537
43	0x3f160fc1	0.5861779
44	0xbd8b8fc4	-0.068145305
45	0x3de1a1bd	0.11017177
46	0xbf021388	-0.5081105
47	0x3fa2344a	1.2672207
48	0xbe9b3a95	-0.30318132
49	0xbf1b255d	-0.60603887
50	0xbe9f647e	-0.31131357
51	0x3d8fa0bc	0.070130795
52	0xbee7fe52	-0.45311219
53	0x4005d9f4	2.0914278
54	0xbd9ca96f	-0.076495044
55	0x3f9f61a3	1.2451671
56	0xbfae8ee5	-1.3637358
57	0xbf44ee9f	-0.76926607
58	0x3eaa21da	0.33228952
59	0x3f9221ae	1.1416528
60	0x3dc3b5d6	0.09556167
61	0xc00868ec	-2.131404
62	0x3f0c59e1	0.54824644
63	0x3f6fa283	0.9360735
64	0x3ff43fa4	1.9081922
65	0x3f762790	0.9615412
66	0x3f0d9f19	0.5532089
67	0x3f719704	0.94371057
68	0x3eaed50b	0.34146914
69	0xbd13fef5	-0.036131818
70	0x3fbfbb4d	1.4979035
71	0xbf46f262	-0.77713597
72	0x3f48d184	0.78444695
73	0xbd3a7e52	-0.045530625
74	0xbe26cc1d	-0.162888
75	0x3fab587c	1.3386378
76	0xbe26b621	-0.16280414
77	0xbe8393cb	-0.25698695
78	0x3d5617c7	0.05226877
79	0xbec7f693	-0.3905531
80	0x3e6be23b	0.23035519
81	0x3e889b18	0.26680827
82	0x3f8c904b	1.0981535
83	0xbf9f969d	-1.2467839
84	0xbf75929b	-0.9592683
85	0xbfe7475a	-1.806865
86	0x3c3a7b61	0.011381955
87	0xbde1e0c8	-0.11029202
88	0xbfa0bd6f	-1.255781
89	0x3f22858c	0.63485026
90	0x3e9e4d58	0.30918384
91	0x4036a2cd	2.8536866
92	0xbf9b7244	-1.2144246
93	0xbe5b1362	-0.21394113
94	0xbf06df26	-0.5268425
95	0x3e32fbf1	0.1747892
96	0x3f04b884	0.5184405
97	0xbec1d558	-0.3785808
98	0xbe66dbef	-0.22544836
99	0xbfc867aa	-1.5656636
100	0x3ef471e5	0.47743145
101	0xbf87e3ac	-1.0616355
102	0x3fe3cc19	1.7796661
103	0xbf0c7875	-0.548713
104	0x3ead86fe	0.33892053
105	0x3f473768	0.7781892
106	0x3bf7464e	0.007546223
107	0xbf157163	-0.5837614
108	0xbf6a5174	-0.9153054
109	0xbd578b67	-0.05262318
110	0x3fe4cf7a	1.7875817
111	0x3f936483	1.1515049
112	0x3dc723f1	0.09723652
113	0x3fcc4b39	1.5960456
114	0xbf1aa9bf	-0.6041526
115	0x3fb474a8	1.4098101
116	0x3df1c573	0.118052386
117	0x3f343ad3	0.7040226
118	0xbf0995c7	-0.5374417
119	0xbf3c7644	-0.7361796
120	0x3f0c0f17	0.54710525
121	0x3ff3d81d	1.9050328
122	0x3dcfe4e3	0.101510786
123	0x3ee6eae4	0.45101082
124	0x3ecd01d9	0.40040472
125	0xbf7faafa	-0.99870265
126	0x3e1b37cd	0.15158005
127	0xbf2177da	-0.63073504
128	0x403688c8	2.8520985
129	0xbdf34c03	-0.118797325
130	0x3ec510d2	0.38489395
131	0x3f79ebe5	0.9762557
132	0xbfac02aa	-1.3438313
133	0xbf558af8	-0.83415174
134	0xbe0659bd	-0.1312017
135	0xbdc276ec	-0.09495339
136	0xbe38437d	-0.17994495
137	0xbf8e5a3e	-1.112129
138	0x3eea8aed	0.45809117
139	0xbe5fadad	-0.21843596
140	0x3f0e5786	0.556023
141	0xbddfd709	-0.109296866
142	0x3fffb5b1	1.9977323
143	0x3e0392d2	0.12848976
144	0x3ce000f2	0.0273442
145	0x3e1ae42a	0.151261
146	0xbf544816	-0.82922494
147	0x40019540	2.0247345
148	0x3e7986c2	0.24367812
149	0x3d9a232a	0.07526238
150	0xbe90502d	-0.2818617
151	0x3d9bbbb9	0.07604165
152	0x3ed073a6	0.40713233
153	0xbe818f61	-0.25304702
154	0x3ecfde06	0.40599078
155	0x3f458049	0.7714887
156	0xbe6ce5ed	-0.23134585
157	0xbf8da606	-1.1066291
158	0x3d94100a	0.07229622
159	0xbf5dfcf0	-0.86714077
160	0xbf96c587	-1.177903
161	0x3f0ada34	0.542392
162	0xbe4d9245	-0.20075329
163	0xbf1895c9	-0.59603554
164	0x3eebd2f4	0.46059382
165	0x3f9dec36	1.2337711
166	0x3e9e5150	0.30921412
167	0x3f1b11fe	0.6057433
168	0x3f197376	0.59941804
169	0xbe9c0720	-0.30474186
170	0xbe9d517f	-0.3072624
171	0x3fd23489	1.6422282
172	0x3f858ae1	1.0433007
173	0xbfbde604	-1.483582
174	0x3f24b4c4	0.64338326
175	0x3fe5efd2	1.7963812
176	0x3cb3298e	0.0218704
177	0xbff36684	-1.901566
178	0xbde56c09	-0.11202247
179	0x3ebad3be	0.3648967
180	0xbfa6ff38	-1.3046637
181	0xbcca3a27	-0.024685932
182	0xbfa71c1a	-1.3055451
183	0xbe68b2f2	-0.22724512
184	0xbdd9c63b	-0.106335126
185	0xbf8c0395	-1.0938593
186	0xbe9247ec	-0.28570497
187	0x3fdb393d	1.7126843
188	0x3fa2bfe4	1.271481
189	0x3f81c583	1.0138401
190	0xbf3d8a2c	-0.7403896
191	0x3e842a79	0.25813654
192	0xbf6792d0	-0.90458393
193	0x40139f18	2.3065853
194	0xbf4b71e9	-0.7947069
195	0x3fdfe3a3	1.7491344
196	0xbda67cba	-0.081292585
197	0xbe3c7c84	-0.18406874
198	0xbf97356d	-1.1813179
199	0x3edd486d	0.4321932
200	0x3fa39ae2	1.2781641
201	0xbf454978	-0.7706523
202	0x3fdc8158	1.7226973
203	0xbe623e3e	-0.22094056
204	0x3f5c5ff8	0.86083937
205	0x3fe8b0fe	1.8179014
206	0x3f2f085f	0.6837215
207	0xbe85506e	-0.26037925
208	0x3ff4f6a8	1.9137774
209	0x3f9281ef	1.1445903
210	0x3fb148d3	1.3850349
211	0xbf936218	-1.1514311
212	0x3e027123	0.1273847
213	0x3f5d3f7b	0.8642499
214	0x3f582913	0.84437674
215	0xbfcc8846	-1.5979087
216	0x3f74a36a	0.9556185
217	0xbfb268b9	-1.3938209
218	0x3d7e879c	0.062141046
219	0xbf82d488	-1.0221109
220	0xbf0c1b52	-0.5472919
221	0x3f8c52bd	1.096275
222	0x3dfd9b7e	0.123831734
223	0x3ecc0790	0.3984952
224	0x3ca85c6c	0.020551883
225	0xbf898aa3	-1.0745434
226	0x3d88e188	0.06683642
227	0x402fd6e4	2.747491
228	0x4056b327	3.3546846
229	0x3fdb1a46	1.7117393
230	0xbfabaf7d	-1.341293
231	0xbe4a3bbc	-0.1974935
232	0xbf7a3799	-0.97741085
233	0x3d482d3e	0.04887127
234	0xbf59f5c2	-0.8514062
235	0xbf19c3b8	-0.6006427
236	0xbf6c296d	-0.9225071
237	0x3e11b1f2	0.14228037
238	0xbefeb176	-0.49744767
239	0xbea50f44	-0.3223821
240	0xbfee9f3f	-1.8642348
241	0x3edbc8db	0.42926678
242	0x3f1d58b0	0.6146345
243	0x3e3b6dba	0.18303576
244	0x3dcac399	0.099005885
245	0xbf0b41ec	-0.54397464
246	0x3f441052	0.765874
247	0xbfb0ceb6	-1.3813083
248	0x3e8548c5	0.2603208
249	0x3f29adce	0.6628083
250	0x3f3a5eae	0.7280072
251	0x3f15f030	0.5856962
252	0x3e7402d4	0.23829204
253	0x3ca9cb5b	0.02072685
254	0xbf4f0017	-0.8085951
255	0x3f5b8c50	0.85760975

embedding_CNN_distances.weight f4 [7, 8]
0	0x3f852bd7	1.0404004
1	0xbf93219e	-1.1494634
2	0x3e47355f	0.19453953
3	0x3eb8f470	0.3612399
4	0x3f7047f6	0.93859804
5	0xbf077fe4	-0.5292952
6	0x3f3c0bff	0.73455805
7	0x3f9e53ea	1.2369359
8	0xbf376e84	-0.7165301
9	0x3f371b02	0.71525586
10	0xc0375eba	-2.8651567
11	0xbe6e646e	-0.23280498
12	0xbf810d7c	-1.008224
13	0xc00d67ac	-2.2094526
14	0xbf82a058	-1.0205183
15	0x3d7f3f05	0.06231596
16	0x3e840553	0.25785312
17	0xbf95503b	-1.1665109
18	0x3d0217b9	0.031760905
19	0xbec3dcdd	-0.38254443
20	0x3f9d89b6	1.2307651
21	0x3f632776	0.8873209
22	0x3ff551c1	1.9165574
23	0x3ecfaf5b	0.40563473
24	0xbdf3052d	-0.118662216
25	0x3ebe863e	0.37211794
26	0x3f0b1e34	0.5434296
27	0xbfe030d5	-1.7514902
28	0x3f700d69	0.9377046
29	0xbf45e1cb	-0.7729766
30	0x3ed6127d	0.4181098
31	0xbf016102	-0.5053865
32	0xbf8cb613	-1.0993065
33	0xbe30e837	-0.17276083
34	0x3f1ef311	0.6208964
35	0x3fc64731	1.5490476
36	0x3e0afd81	0.13573267
37	0xbf376b59	-0.71648175
38	0x3e6b4713	0.22976331
39	0x3ebb073d	0.3652896
40	0x3dbd6c30	0.09249151
41	0xbed2eb34	-0.4119507
42	0xbe516ce7	-0.20451699
43	0x3fab4829	1.3381397
44	0x3ebb8c75	0.36630598
45	0xbf69c5a6	-0.9131721
46	0xbf361b36	-0.7113527
47	0x3f89c8f2	1.0764449
48	0x00000000	0.0
49	0x00000000	0.0
50	0x00000000	0.0
51	0x00000000	0.0
52	0x00000000	0.0
53	0x00000000	0.0
54	0x00000000	0.0
55	0x00000000	0.0

embedding_CNN_prices.weight f4 [6, 5]
0	0x3ff2cbe1	1.8968469
1	0x3fb12de2	1.3842127
2	0xbfa2e25c	-1.2725329
3	0xbfdcf856	-1.7263286
4	0xbf80f29e	-1.0074041
5	0xbee3ea78	-0.44514823
6	0x3f8e78d1	1.113062
7	0x3ff8e006	1.9443367
8	0x3eb20298	0.34767604
9	0xbe7c77b6	-0.24655041
10	0x400b6383	2.1779487
11	0xbf0f1083	-0.5588457
12	0xbfcd8a76	-1.605788
13	0xbf343e71	-0.7040778
14	0xbf93eafc	-1.1556087
15	0xbf997640	-1.1989212
16	0x3febbb34	1.8416505
17	0xbea57d78	-0.32322288
18	0xbfb52afa	-1.415374
19	0xbf5722b1	-0.8403731
20	0xbf1dfa3d	-0.6170996
21	0x3ea163d0	0.31521463
22	0x3d1dc8ae	0.03852146
23	0xbf470dbc	-0.7775533
24	0x3f6d468d	0.92685777
25	0x00000000	0.0
26	0x00000000	0.0
27	0x00000000	0.0
28	0x00000000	0.0
29	0x00000000	0.0
