checkpoints/GNNNoCNN_Epoch49_valmse2.1416_testmse2.2452_ndcg0.9343.model (torch, 249600 bytes, 52 tensors)

Pair_embedding_types.weight f4 [106, 16]
000000 03 84 e3 3c f8 e2 b9 bd fd c0 cf be 5a af 5e bf
       0.027772909 -0.09076494 -0.40576926 -0.86986315
000010 6b 03 5e 3f 9a 38 c0 be ac 4e 04 3e 89 7b a6 bf
       0.86723965 -0.37543184 0.12920636 -1.300645
000020 83 a9 f3 3d 33 f8 a2 bb 59 65 9e bf 80 60 0a 3f
       0.11897566 -0.0049734353 -1.2374679 0.540535
000030 c0 e3 ca bf 5d ef bb 3e 22 ab 8b 3e b7 13 37 3f
       -1.5850754 0.36706057 0.27279 0.7151446
000040 52 55 ee 3e f3 d6 96 bf 4c 45 f7 3f 65 bb d3 be
       0.4654947 -1.1784347 1.9318023 -0.41353908
000050 90 e8 84 be 72 4c 3e 3e 7b 0d 18 bf 93 83 2c 3f
       -0.2595868 0.18583849 -0.5939557 0.67388266
000060 02 65 84 bf 02 9a 37 3d f2 f9 07 bf b3 e7 53 40
       -1.0343325 0.044824608 -0.5311576 3.3110168
000070 c5 91 4f bf 42 6f 10 bf 14 61 8e bf 2a ab 81 3f
       -0.810818 -0.56419766 -1.1123376 1.013036
000080 39 01 dc 3f 0e c1 12 40 54 f3 83 bf 8a f4 12 3e
       1.7187873 2.2930331 -1.0308633 0.14351097
000090 7d 07 62 3f f9 6a a9 bf cd f9 90 bf 99 ce 98 3d
       0.88292676 -1.323577 -1.1326233 0.074612804
0000a0 d4 5c 22 3f 6b cf f7 3d da b0 81 3f 7e 23 da 3d
       0.63422894 0.12100109 1.0132096 0.10651301
0000b0 e5 99 73 bf 77 76 bd 3d d8 08 91 3f d9 1e a2 bd
       -0.951567 0.09251111 1.1330824 -0.0791604
0000c0 4c 13 29 bf 4a 96 97 3f b6 29 c5 be db e4 94 bf
       -0.6604507 1.184274 -0.38508385 -1.1632341
0000d0 71 42 d6 bf 82 4a 5a 3f da 26 00 c0 e6 3d 46 3c
       -1.6739026 0.8526994 -2.0023713 0.012099719
0000e0 27 db 7b 3c 7e 70 87 3f 86 46 ab bf e9 67 a3 3f
       0.015372074 1.0581205 -1.3380897 1.2766086
0000f0 04 02 76 3c fb cf 78 3f 55 e6 9b 3f d5 bf 41 3d
       0.015015129 0.97192353 1.2179667 0.047302086
000100 9a a7 c4 bd f8 32 3b 3e 8a 85 54 3f 66 ea d2 bf
       -0.0960228 0.18281162 0.83016264 -1.6477783
000110 88 94 08 40 f6 c2 8a bf 36 87 4d 3e 25 0f ac bf
       2.1340656 -1.0840747 0.2007111 -1.3442122
000120 5c 35 9e be bb 05 13 3e 2f a3 2b 3e 2b 19 70 3f
       -0.30900085 0.14357655 0.16761468 0.93788403
000130 ff 7b c2 3e 35 c2 1e be 42 c0 6e 3e 0b f2 4a 3e
       0.37985227 -0.15503772 0.23315528 0.19818895
000140 12 13 a6 be b5 16 1b 3e f3 c5 94 3e 4d a8 87 3f
       -0.32436424 0.15145381 0.29057273 1.0598236
000150 85 17 ad be a8 46 95 bf 17 29 2c be 95 fe d0 be
       -0.33807006 -1.1662188 -0.1681255 -0.4081923
000160 30 34 2a 3f 63 e8 c5 3f 53 5c 39 bf 54 60 50 bf
       0.6648588 1.5461544 -0.724065 -0.81396985
000170 66 ae 59 bf d7 bb 1f 3f d6 ba 64 3f 14 d7 bd 3f
       -0.85031736 0.62395996 0.8934759 1.4831262
000180 af 98 b1 bf 19 b1 60 3e b6 ff e6 3f 7f 08 12 3e
       -1.387472 0.21942557 1.8046787 0.14261054
000190 62 61 39 3f 7f 47 5c 3e 44 72 63 bf 31 ae 0b 40
       0.7241422 0.21511649 -0.8884623 2.1825068
0001a0 64 da 8d bf 62 60 9c 3f 31 ae 5f 3e 10 2c 7c bf
       -1.1082273 1.2216914 0.21843792 -0.98504734
0001b0 7b a4 ef be 88 26 77 3e 84 d5 f2 be cb e8 9c bc
       -0.46805176 0.24135792 -0.47428524 -0.019153973
0001c0 53 02 39 3f 5b 24 c5 3f ca 62 80 3e c0 10 c2 be
       0.7226917 1.540172 0.2507537 -0.37903404
0001d0 1c 79 28 bf a8 34 4b 3e 48 41 9a be b4 be 2d be
       -0.658098 0.19844306 -0.3012793 -0.16967279
0001e0 e6 9d 8e 3f af 8d 26 c0 37 ab 85 3e a3 cd 8b be
       1.1141937 -2.6023977 0.2610719 -0.27305326
0001f0 69 eb 23 be d6 44 c0 bf e0 45 d7 bd 7f 75 8f 3d
       -0.1600777 -1.5021007 -0.105113745 0.070048325
000200 8e 17 91 3e ed 75 c6 3f 28 dc bd 3e b0 2f 77 3f
       0.28338283 1.5504738 0.37082028 0.9655714
000210 b2 97 50 be 6e 2d 90 3f c4 03 a3 bf 45 d0 1c 3f
       -0.20370367 1.1263864 -1.2735524 0.61255294
000220 d4 d2 5e 3e 8d bd 80 bf 05 e2 ba 3f 49 a0 09 bf
       0.21760112 -1.0057846 1.4600226 -0.537602
000230 ff 7a ec bc 1b 27 a4 3f 73 74 36 bd 1a b1 ae 3e
       -0.028867243 1.2824434 -0.04454465 0.34119493
000240 ea 74 71 3f 3a 47 99 3d bf 2e de 3e 6f ea 7c bf
       0.9431902 0.074842885 0.4339504 -0.9879522
000250 eb 13 ce be b7 12 70 3f c0 66 c3 3e 6e 7d 1a bf
       -0.4024957 0.93778557 0.3816433 -0.6034764
000260 01 7b 1e 3f 11 65 1c bd a8 88 10 40 7d 75 b8 3f
       0.6190644 -0.038182322 2.2583408 1.4410855
000270 d4 5d bc 3f a7 11 09 3e 22 14 d4 3e 32 d0 98 be
       1.4716134 0.1338564 0.4142161 -0.2984634
000280 c2 e1 6b bd 93 65 fa bd a6 01 14 3e 40 ea 8f 3e
       -0.057588346 -0.12226405 0.14453754 0.28108406
000290 ec 28 89 bf 1d 8f 43 bf 17 22 98 3f fd 54 87 3f
       -1.0715613 -0.7639025 1.1885403 1.0572811
0002a0 e9 ca b8 bf 1a 57 37 3f bd af 57 be b1 32 ab 3f
       -1.4436923 0.7161728 -0.21063133 1.3374845
0002b0 3c d1 b3 3f 84 fb 42 3d 77 9f 9e 3e 7e 19 d3 3e
       1.4048228 0.047603145 0.30981037 0.41230386
0002c0 d3 ed 9c bf 66 97 1c bf 90 23 16 be 90 e5 6c 3f
       -1.2260078 -0.61168516 -0.14662004 0.92537785
0002d0 d4 a5 69 be db 78 9e bf 5a da 4b 3f 00 e0 24 3f
       -0.22817165 -1.2380632 0.79630053 0.64404297
0002e0 8b 7f a5 3e 68 5a 4e 3f 8e ae fe 3f 35 90 5d 3e
       0.3232387 0.806067 1.989702 0.21637042
0002f0 1a 5b 50 3d 41 ba b5 3f bd 87 91 be e1 4f 6f 3e
       0.05086813 1.4197465 -0.28423873 0.23370315
000300 34 f7 e3 3e b7 6f c7 bf 83 c9 f8 3d 2c cd a6 be
       0.4452454 -1.5580968 0.1214781 -0.3257841
000310 29 f0 d9 3f e7 83 82 bf ff 84 07 3f e9 cc c2 3f
       1.7026416 -1.0196503 0.5293731 1.5218784
000320 69 ce 26 be 74 e6 bc bf ea 02 3b bf b5 19 19 3f
       -0.16289677 -1.4757829 -0.7305132 0.5980485
000330 71 4a 64 3f 0c f1 4b 3e f0 88 c9 3d 3b 37 b8 3e
       0.8917609 0.19916171 0.09840572 0.35979638
000340 07 36 4c bf d7 e8 d5 3f d7 87 b7 be 4c 86 0b 40
       -0.7976994 1.6711682 -0.35845825 2.1800718
000350 18 8c a3 3f 0b d1 c9 3e 96 e8 a9 bf 98 53 9a 3e
       1.2777128 0.394173 -1.3274105 0.30141902
000360 18 25 c7 be e1 66 83 3e 33 de 26 bf e7 a8 10 3f
       -0.38895488 0.25664428 -0.651828 0.56507725
000370 d7 45 a6 bf 87 bd 52 40 f6 77 03 40 7b 0b 05 c0
       -1.2990063 3.2928178 2.0541968 -2.0788257
000380 9a 1e 66 bf c4 78 7b bd 5b 54 15 c0 24 b1 ae 3f
       -0.89890444 -0.061394468 -2.3332736 1.3647809
000390 b8 65 86 bf 8c 02 b3 be f3 f8 ca 3e 7a ef 7a bf
       -1.0499792 -0.3496288 0.39643058 -0.9802166
0003a0 50 b9 e1 be 4f 96 21 bf 82 71 40 bf aa c2 be 3e
       -0.44086695 -0.6311998 -0.751732 0.37257892
0003b0 61 34 ae bf e5 3f 6b bf 7f ca c7 be 7f 07 c5 bf
       -1.3609735 -0.9189437 -0.3902168 -1.5392913
0003c0 f9 8b 8c bf 5e 2c de 3e 96 92 c6 bf 3f 33 24 3d
       -1.0980216 0.43393224 -1.5513484 0.040087935
0003d0 b3 f6 b0 3e 21 96 b7 3f f7 29 66 3f 88 3f ad bf
       0.34563217 1.4342691 0.89907783 -1.3535013
0003e0 eb fd 71 3f 48 50 8c bf 53 25 93 be 69 e2 9b be
       0.94528073 -1.0962 -0.28739414 -0.30446175
0003f0 6d ea d2 3f 4c ab dd be 31 34 00 c0 82 56 06 3e
       1.6477791 -0.43294752 -2.0031855 0.13118938

embedding_Pair_distances.weight f4 [7, 8]
000000 6a 65 01 3f 9b 69 56 bf 0c b9 6f 3f 26 e5 3d 40
       0.5054537 -0.8375489 0.93641734 2.967111
000010 c2 08 2b 3f 1e 50 b4 3f 4b 70 ae be d5 9e 97 3e
       0.6681024 1.408695 -0.34070048 0.29613367
000020 8a d8 00 40 52 b0 0e 40 05 17 54 3f 98 8a d2 bd
       2.0132165 2.2295117 0.82847625 -0.10280341
000030 03 20 be 3f a9 be 75 bf 17 d0 cb 3f c8 72 23 40
       1.4853519 -0.9599405 1.5922879 2.5538807
000040 10 78 36 bf be e3 62 bf 51 3a 77 bf 9f 6e 93 bd
       -0.7127695 -0.88628757 -0.9657336 -0.07198834
000050 19 6d b5 bf ff d6 04 bf 02 0f f9 3d 3a e7 c8 bf
       -1.4173919 -0.5189056 0.12161066 -1.5695565
000060 e6 fb d3 be f3 9a c9 3e 52 08 f3 bf ed 9c 55 be
       -0.4140312 0.3937603 -1.8986914 -0.20860644
000070 a9 99 05 c0 c6 a4 f0 bf 91 d4 77 bf c1 f2 fc be
       -2.0875037 -1.8800285 -0.96808726 -0.49403957
000080 be 12 85 3f 31 ca 97 3f 78 a4 ca be 99 94 02 c0
       1.0396345 1.1858579 -0.39578605 -2.0403197
000090 0f fa a6 bf c0 8b 33 be e1 da 2c bf 42 0f 8f bf
       -1.3045062 -0.17533779 -0.6752148 -1.1176531
0000a0 3a a2 76 bd d6 8e d4 3e 9f 2d 09 bf 7d c1 3a 3e
       -0.060213305 0.41515225 -0.5358524 0.18237872
0000b0 99 87 b4 bf 1a 6a 48 bf bb ea d4 bf f6 2e 0b bf
       -1.4103881 -0.782869 -1.6634134 -0.5436853
0000c0 00 00 00 00 00 00 00 00 00 00 00 00 00 00 00 00
       0.0 0.0 0.0 0.0
0000d0 00 00 00 00 00 00 00 00 00 00 00 00 00 00 00 00
       0.0 0.0 0.0 0.0

embedding_Pair_prices.weight f4 [6, 5]
000000 2a 7b cf 3d 80 c4 eb 3e e7 8b d3 3e ab 2e 86 be
       0.101309136 0.46048355 0.41317675 -0.2620748
000010 52 bc 9b 3f 00 80 5b 3f ce 4a 19 3d e0 ff 63 3f
       1.2166846 0.8574219 0.037424855 0.8906231
000020 6f 75 3c 3f 36 5f 4f 3f f6 03 1a be 37 fb 1d bf
       0.7361669 0.81004655 -0.15040573 -0.6171145
000030 12 4b 25 bf 42 a2 0c 40 10 a3 46 bf 7e 0d 9e bf
       -0.64567673 2.1974034 -0.77592564 -1.2347867
000040 e9 14 02 c0 c1 96 fa be b5 d1 33 3e ad 16 00 40
       -2.0325263 -0.4894314 0.17560466 2.001384
000050 6f e1 27 bd ec fa ba bf 68 d6 c0 bd be 7f 80 3f
       -0.040986475 -1.4607825 -0.09415895 1.0038984
000060 c0 87 b1 bd 00 00 00 00 00 00 00 00 00 00 00 00
       -0.086684704 0.0 0.0 0.0
000070 00 00 00 00 00 00 00 00
       0.0 0.0

Pair_shop_mlp.fc_layers.0.weight f4 [64, 32]
000000 5a 8d ee 3c 8a fe 45 bd f2 25 26 3e 01 79 42 3e
       0.029120136 -0.04833845 0.16225412 0.18991472
000010 5b 2e 73 be fe ba 50 3d b8 c5 9e 3d 79 7d 01 be
       -0.23748152 0.05095958 0.077525556 -0.1264552
000020 a9 e4 87 3d b6 b6 26 3e d1 90 1c be 18 bd d9 3c
       0.0663541 0.16280636 -0.15289618 0.026579425
000030 e5 fa 05 be ee 38 50 be 80 ef 8f 3d 93 fe 85 3d
       -0.1308399 -0.20334217 0.07028103 0.06542697
000040 ac 2e e1 3d 9b 91 64 3c 88 5d 4d bb ea e6 99 3d
       0.1099523 0.013950731 -0.0031336267 0.075147465
000050 81 ed 8e 3c b5 c7 c0 3d dd 26 8c 3c 26 53 7b 3e
       0.017447235 0.09413091 0.017108375 0.24543437
000060 99 29 05 be 22 33 a1 3c ea ad 3c 3c cd 46 b9 3d
       -0.1300415 0.019677702 0.011516074 0.09046707
000070 c0 f7 b4 3d 22 4c 60 3d 22 10 bf bd c0 d0 4c be
       0.08836317 0.054760106 -0.09329249 -0.20001507
000080 18 7a 3f be d3 a9 c9 3d 40 90 a0 bd 26 a8 11 3e
       -0.18698919 0.098468445 -0.078400135 0.142243
000090 96 2d ae 3d 94 ca 7e 3e f9 2f 95 3e a5 d4 04 be
       0.085047886 0.24881965 0.29138163 -0.12971742
0000a0 44 1c 0d be 05 8c 98 bd ef 0b c6 bd 38 72 ed 3b
       -0.13780314 -0.074485816 -0.09670245 0.007246282
0000b0 f0 5f a1 bc 2a 7b 1c bd b5 c8 a9 3c 6f e3 71 3e
       -0.019699067 -0.038203396 0.020725587 0.23621915
0000c0 51 3f 1e 3d a0 2a 31 be 0f 85 81 3c b7 be 4b 3e
       0.038634602 -0.17301416 0.015810518 0.1989697
0000d0 de 62 6c 3d 48 21 c0 bd ba 90 86 bc 3d 7f d1 3d
       0.057711475 -0.09381348 -0.016426433 0.10229347
0000e0 0f 91 cd bd ae 06 b0 3d 36 59 7b bc 13 9f 1f be
       -0.10037433 0.08595024 -0.015341094 -0.15588026
0000f0 88 ea 22 3e 81 33 a7 bd 25 51 49 3e 31 af 40 3d
       0.15909779 -0.081641205 0.1965986 0.047042076
000100 e2 bc 7b 3d de 94 2c 3d 03 78 a7 bc b2 c2 87 bd
       0.06145943 0.04213416 -0.020442968 -0.06628932
000110 eb e7 04 3e c4 c3 0e 3e f0 f9 86 3d 76 15 e6 3d
       0.12979095 0.13941866 0.065906405 0.11234562
000120 00 b8 61 3e 7d d8 47 be 7d ba e2 bd e8 2d f5 3d
       0.22042847 -0.19516177 -0.11070726 0.119716465
000130 e8 0c a7 bd d7 72 0d be 50 06 4c bd 90 31 f6 3d
       -0.081567585 -0.13813339 -0.049810708 0.12021172
000140 dd 0f 1f be a6 ba 1e be 44 38 12 3e 07 c3 1f 3e
       -0.15533395 -0.15500888 0.14279276 0.15601741
000150 b3 32 dc bd 2b 66 e5 3d d0 b2 c6 3b f3 8a 17 bc
       -0.107518576 0.112011276 0.0060637966 -0.009249437
000160 cb 87 b1 bd e9 48 d2 3d 96 56 c7 3d c7 7a f5 bd
       -0.086684786 0.10267813 0.09733312 -0.119863085
000170 e4 9d f4 3d 0f c8 fe bd 43 8a e9 3d 66 de 2a 3d
       0.11944178 -0.12440502 0.114033245 0.041716002
000180 b5 ea b8 bd 13 9d d4 bd 7d 9f 1c bd 4e c8 d0 bc
       -0.09029142 -0.10381522 -0.038238037 -0.025486138
000190 5b 34 88 3d 0a 3f 0d 3e 96 6f 27 3e 0c 20 29 3c
       0.06650611 0.13793579 0.1635116 0.010322582
0001a0 c0 2b e1 bc e7 46 4a 3e 14 79 18 be a1 7c e1 3d
       -0.027486682 0.1975361 -0.14889938 0.11010099
0001b0 ee 9e e8 3d e7 09 00 3e f2 93 49 be 58 c8 2f 3e
       0.113584384 0.12503777 -0.19685343 0.17166269
0001c0 94 99 aa bd 80 08 f0 3d b1 ae 34 be 97 32 78 bd
       -0.08330074 0.11720371 -0.17644764 -0.06059512
0001d0 fe 01 fd 3d 3a 94 9f bd 74 85 0b 3b 56 6b 1c 3e
       0.123538956 -0.07791944 0.002128926 0.1527532
0001e0 bb 09 27 3e bc 59 98 3d 27 80 26 3e 15 c3 9e 3d
       0.16312306 0.074389905 0.16259824 0.07752053
0001f0 a1 34 4f be 20 4f a2 bc 4f 4c 23 be d6 cc c4 bd
       -0.2023492 -0.01981312 -0.15947078 -0.09609382
000200 2b a1 19 3d e7 79 99 3d 3b 6d 0e 3d 10 0f 1e 3e
       0.037507217 0.07493954 0.03477214 0.15435433
000210 80 81 a6 3c a8 b6 30 be e0 b8 48 3d 8e 40 dd bd
       0.020325422 -0.17257178 0.049004436 -0.108033285
000220 c3 5d 99 bd 13 c4 d7 bd b9 7b 56 3d 58 02 6b bd
       -0.07488587 -0.10535445 0.052364085 -0.057375282
000230 87 8e 67 bc 70 3f 05 be 95 9e 32 bd 8f 7c b1 3d
       -0.014133102 -0.1301248 -0.043608267 0.08666336
000240 34 48 01 be 93 ba e8 bd e1 cf bf bc 5c c9 48 bc
       -0.126252 -0.11363711 -0.023414554 -0.012255039
000250 e9 a8 09 3e af 70 72 3d 59 77 12 be 21 cb 65 3d
       0.1344334 0.059189495 -0.1430334 0.056101922
000260 0a 5b 32 be 5b 34 e6 bd d5 33 bd bd d8 32 b3 bd
       -0.17417541 -0.11240455 -0.09238402 -0.08749932
000270 47 f7 d0 3c 1f b6 19 be 7c ea 82 3d 31 98 08 be
       0.025508536 -0.1501088 0.063923806 -0.13339306
000280 44 e4 28 3d f4 e4 b6 3d d1 df 87 bd 0d 36 9e bb
       0.041233316 0.08930388 -0.066344865 -0.0048282207
000290 69 6f 11 bc e1 0f c5 3d 4b 1e 29 3e 63 e1 b1 3d
       -0.00887666 0.09622169 0.16515462 0.08685567
0002a0 49 35 3f be 26 aa 47 be dc e9 cd b5 71 18 f2 bd
       -0.1867267 -0.194985 -1.5341752e-06 -0.11821068
0002b0 06 ef 5a 3d ec d4 53 be 6f 94 fd bd b7 38 c4 3c
       0.053450607 -0.20686692 -0.12381827 0.023952825
0002c0 f0 91 2e 3b ff 0d 2d 3e e2 8d 0e be b1 33 df 3d
       0.0026637278 0.1689987 -0.13921311 0.10898531
0002d0 fa 3d c4 bd f3 bb 14 3e c9 29 05 3e 97 4c 12 be
       -0.095821336 0.14524822 0.13004221 -0.14287029
0002e0 79 98 39 3e 61 29 43 3e a2 87 93 3d 19 d3 67 bd
       0.1812457 0.19058754 0.07203604 -0.056597803
0002f0 36 3b c7 bd 21 a4 0e 3e d6 4a c8 3c 14 a5 39 be
       -0.097280905 0.13929798 0.024449747 -0.18129379
000300 90 fb 80 3d b6 c6 30 be b3 f0 db bd 80 30 28 bd
       0.06297982 -0.17263302 -0.10739269 -0.04106188
000310 75 97 8b 3c ab f3 29 be 8f 74 94 bd 80 c7 0f be
       0.017039994 -0.16596858 -0.07248794 -0.14040947
000320 5e 42 b4 bc 64 a7 3f be 3d d2 28 bd 77 83 05 be
       -0.022004303 -0.18716198 -0.041216124 -0.13038431
000330 d1 f4 a0 3d c2 89 00 3d 3c 88 6b bd e0 c7 d3 3d
       0.07859195 0.031381376 -0.05750297 0.103408575
000340 de 38 e5 bc 3f a5 e7 3d 98 77 6e bd 1d 00 00 3e
       -0.027981218 0.11310815 -0.058219522 0.12500043
000350 67 2b 20 3d 8c 03 14 be d2 9b a2 bd 33 c0 4c bd
       0.03910389 -0.14454478 -0.079398766 -0.049987983
000360 e0 fc 3e 3e 2a 22 90 3c 9b c4 d7 3d 40 c6 42 be
       0.18651152 0.017594416 0.105355464 -0.19020939
000370 5f 7a 38 be fa e1 3c bd 7d 0f d0 3d f6 3a 3f bd
       -0.18015431 -0.046113946 0.10159204 -0.04668709
000380 59 43 36 bc aa ff 38 bd 50 df 84 bd 69 48 83 bb
       -0.011124455 -0.045165695 -0.06487906 -0.0040064347
000390 71 f9 1b 3e f1 d9 43 3d d0 dd ba 3d 23 84 d5 3d
       0.15231873 0.047815267 0.091243386 0.10425594
0003a0 50 48 c4 bd b5 2e e5 3c 39 14 48 3d 16 6e 02 bd
       -0.09584105 0.027976373 0.04884741 -0.031843267
0003b0 06 ab 28 3e 62 87 46 3e 64 97 07 3d 38 ca f2 3d
       0.1647149 0.19387582 0.03310336 0.118549764
0003c0 fe 83 2a be 1c 7c 64 ba 1c 58 56 bd f0 7b 39 be
       -0.16651914 -0.00087160035 -0.05233012 -0.18113685
0003d0 28 6b c5 bd 2d c3 2a 3d 12 36 24 be 52 5c 12 be
       -0.09639579 0.04169004 -0.16036251 -0.1429303
0003e0 7d 2a bb 3d e5 17 ac 3d ef bd 5a 3e de e7 d5 3d
       0.09138963 0.08402995 0.21361516 0.10444616
0003f0 9b a9 96 b9 84 7b 4a 3d a0 84 d2 bc 1f 67 9a 3d
       -0.00028736595 0.0494342 -0.025698006 0.075392

Pair_shop_mlp.fc_layers.0.bias f4 [64]
000000 27 44 3c 3e e6 51 8d bc fd 1b e3 bd e3 0b b0 bd
       0.18385373 -0.017250966 -0.11089323 -0.08596017
000010 dc 89 c2 bd 65 41 94 bc 58 f4 ce 3d b4 6f bb bd
       -0.09498951 -0.018097589 0.101051986 -0.09152165
000020 11 b7 e5 bd e3 14 b5 3d 3c c8 c1 3d fa eb 21 3e
       -0.11216558 0.088418745 0.0946202 0.15812674
000030 ef 60 cd bd f8 5b ce 3d 4b a7 b4 3d db 70 53 bd
       -0.10028254 0.100761354 0.08820971 -0.0516213
000040 44 13 df bd 15 1e ae bd 5e 38 a4 bd 06 32 a5 3d
       -0.108923465 -0.085018314 -0.08018564 0.08066182
000050 2f f8 3b 3e b1 90 13 3e fb 22 c4 bd d8 ae 62 bd
       0.18356393 0.14410664 -0.095769845 -0.055342525
000060 12 fb 56 bd 67 dc b4 bd 33 fc a9 bc 8f 71 0a 3d
       -0.052485533 -0.08831101 -0.02075014 0.033799704
000070 e4 65 2b be 34 fd eb 3d c7 e8 6a 3d 5c ab eb 3c
       -0.16738087 0.11522904 0.0573509 0.028768234
000080 d8 a0 51 3d d5 79 49 3d b7 6a 12 bd 82 93 7b bd
       0.051178783 0.049188454 -0.035746302 -0.06141997
000090 fb 81 a8 bc 57 4f db 3d 5a 2c a0 bd a9 d4 db 3d
       -0.020569792 0.10708492 -0.078209594 0.10733921
0000a0 ef bc e1 bc ec 7c 30 3d b8 b3 9c 3d 32 9d 25 3e
       -0.02755591 0.043087885 0.07651466 0.16173247
0000b0 5b da b4 3d 2b b9 23 bd 98 e8 3e 3e f9 a4 61 bd
       0.088307105 -0.03997151 0.18643415 -0.05508897
0000c0 72 87 a9 bd 61 7f a0 bd 0d 79 86 bc 93 11 9b 3d
       -0.08277787 -0.078367956 -0.016415143 0.075717114
0000d0 0b 0f 07 3e b0 af 9c 3d 2a fa ef bd fe cd 90 bd
       0.13189332 0.07650697 -0.11717637 -0.0707054
0000e0 6f ec e9 3c 92 d4 12 be d8 6a 15 3d 4d af 36 3e
       0.028555123 -0.14338902 0.036478847 0.1784031
0000f0 e5 5e e8 bd de a1 78 3d 6f 07 17 be a8 b5 54 bd
       -0.11346225 0.060701244 -0.1474893 -0.051931053

Pair_shop_mlp.fc_layers.1.weight f4 [16, 64]
000000 f0 5f 88 be f8 11 14 bd 84 f2 49 3b ec 43 a3 3d
       -0.26635695 -0.03614995 0.0030814717 0.079719394
000010 6c 52 4f 3d df e8 a6 bc 83 5b da 3d 6d 72 b4 bd
       0.050615713 -0.020374713 0.10661986 -0.088108875
000020 55 58 1f bd 69 14 4f bc 60 1f c3 bb 8a c1 df 3d
       -0.0389026 -0.0126391435 -0.005954668 0.109255865
000030 5a fc ac bd 90 00 a3 bd 06 d7 26 be 46 8b 11 3e
       -0.0844657 -0.07959092 -0.16292962 0.14213285
000040 46 9e d0 3d e9 42 13 3e a0 82 cd bc fc f3 96 bc
       0.10186438 0.14380993 -0.0250867 -0.018426888
000050 f7 60 1c 3e a8 61 fe bc 34 6d a3 3d 7e db 2c 3d
       0.15271364 -0.031052426 0.07979813 0.04220151
000060 e8 ed dc 3b 0b bf af 3d 8d 55 2a be 08 76 33 3e
       0.006742228 0.085813604 -0.16634198 0.17525494
000070 03 bb 17 3e 02 7b b2 3d 7a 29 db bd 03 d7 92 bd
       0.14817433 0.08714868 -0.107012704 -0.071699165
000080 a2 16 2b 3e 43 87 da bd 66 b5 e8 3d a7 d6 25 3c
       0.16707852 -0.106703304 0.11362724 0.010121978
000090 42 cb 03 3e 62 c5 57 3e 06 89 88 3d c8 cb cc 3c
       0.12870505 0.2107139 0.0666676 0.024999514
0000a0 89 24 42 3d e4 af 93 3d 11 35 43 3d 42 18 8c bd
       0.047398124 0.07211283 0.04765803 -0.06840564
0000b0 83 0f 18 be cf 0b 0a bd b8 ce cd 3c fd 97 d7 3d
       -0.14849667 -0.033702668 0.025122985 0.10527036
0000c0 b6 93 39 3d 3e 5a 39 3d bb 9a 3a 3e 6f 0f 81 3c
       0.045306884 0.045252077 0.18223087 0.01575443
0000d0 a4 fc f4 3d 1a 84 a6 3d cc 1c 00 be 99 c1 6b bd
       0.1196225 0.08130665 -0.12510985 -0.057557676
0000e0 a3 01 e2 3d cd 69 ce bd da d5 5b 3e 82 d3 61 3c
       0.110354684 -0.10078774 0.21468297 0.013783338
0000f0 00 57 05 3d db 53 9c bc 33 64 ca 3d f3 ce c4 3b
       0.032553673 -0.019082954 0.09882393 0.0060061156
000100 b8 86 68 3e be 93 45 bc 16 d8 56 3c fc 0d f7 3d
       0.22707641 -0.01205915 0.013113042 0.12063214
000110 2c 3a 38 bd e8 f8 b8 3d 10 b9 dd 3d 2d 49 aa bd
       -0.044977352 0.0903185 0.108263135 -0.083147384
000120 bd 16 a1 3d 7e 20 08 3d c7 18 af 3d c6 f9 d3 3d
       0.07865665 0.033234112 0.08549648 0.10350375
000130 54 04 a8 3d f4 e0 a3 3d 4c d9 fd bc dc 5c ff 3d
       0.082039505 0.08001891 -0.030987404 0.124688834
000140 8e 2d a4 3c 04 d7 97 bd b3 e8 0a 3e f4 70 4f bd
       0.020041253 -0.07414058 0.1356533 -0.05064483
000150 b4 a1 33 bc 9e 19 a0 bd 51 c4 b8 3d 7d 0e b8 bd
       -0.010963846 -0.07817386 0.090218194 -0.089871384
000160 df 8f 32 3d 10 59 82 3c 00 b5 7d bd 0c 2e 2e ba
       0.043594237 0.015911609 -0.061940193 -0.0006644435
000170 a0 b1 8a bd 76 ae cb 3d 2b f8 47 3c 32 5b bf 3d
       -0.067721605 0.09945385 0.012205164 0.09343566
000180 b0 48 39 bd d9 77 5d bd ef 85 ee bd fc 33 8e 3d
       -0.045235336 -0.054069374 -0.116466396 0.06943509
000190 64 d6 14 3c bb 64 98 bd 18 93 63 bd e1 b5 95 3d
       0.009084318 -0.07441088 -0.0555602 0.07310081
0001a0 64 f0 8b bd 73 ff d0 3c 29 93 09 3e b2 0d 1d 3e
       -0.0683296 0.025512433 0.13435043 0.15337256
0001b0 44 b1 e6 bc e2 ab 98 3b 61 5f fc 3d 6b 26 60 bc
       -0.028160699 0.004659162 0.123228796 -0.013681035
0001c0 fb 10 2f be da ae d9 bc 0b 14 02 3c 2b da d6 3b
       -0.17096321 -0.026572634 0.007939349 0.0065567694
0001d0 d1 b7 2d bd 07 52 ea bc c2 be 76 3d b2 17 8d bd
       -0.04241163 -0.028603567 0.060240515 -0.06889285
0001e0 d6 4a e0 bb 97 95 c5 3d d6 b3 f4 bd 21 c9 0b 3e
       -0.0068448586 0.096476726 -0.119483635 0.13650943
0001f0 af 8d cf 3d 87 48 d7 bd 51 12 bc bd af 60 ab 3d
       0.10134446 -0.1051188 -0.09183181 0.0836805
000200 4f 3b 77 3e 08 62 8b 3d ee d5 9d 3d 69 88 bb 3a
       0.24143718 0.06805807 0.077068195 0.0014307621
000210 64 24 e6 bd 04 fa 5f 3d aa ea 0f bc e7 04 8a bd
       -0.1123741 0.054681793 -0.008783976 -0.06739216
000220 33 93 3a 3d 4b 9d e2 3d 9a 6c 66 3c c3 37 ff bc
       0.045550536 0.110651575 0.014063979 -0.031154519
000230 a2 92 27 bd e2 d1 fe 3c 56 c8 96 3c a8 ba 89 bd
       -0.040911324 0.03110594 0.018406074 -0.06725055
000240 33 ef af bc 5b de be 3c 5d df dd 3d 47 fa 0b 3e
       -0.021476364 0.023299387 0.10833619 0.13669692
000250 10 0d 4a 3d 6b da c6 3b e6 78 05 bd 37 90 99 3d
       0.049328864 0.006068518 -0.032586 0.0749821
000260 0f 2b 2a bc ce 5e 90 bd 38 94 70 3e 64 3b 54 bd
       -0.0103862425 -0.070493326 0.23494041 -0.05181445
000270 e6 12 04 bd 51 4e 2a 3e 38 e4 4d 3e 18 22 d7 bd
       -0.032244585 0.16631438 0.2010659 -0.1050455
000280 46 52 a5 3d b1 97 99 3c 03 be 91 bd b3 ed 0d bd
       0.08072333 0.01874909 -0.0711632 -0.034650516
000290 86 41 a7 bc ba aa d2 bd 30 00 1c 3e 0c 15 c6 3d
       -0.020416986 -0.1028647 0.15234447 0.09671983
0002a0 92 50 b8 3d d6 ba bf bc 60 7a e6 3b d6 7c c1 bb
       0.089997426 -0.02340452 0.007033631 -0.005904774
0002b0 ae 16 1a 3e 4f 5a c7 3c c8 f9 31 3d 4d 19 d0 bd
       0.15047714 0.024335055 0.0434511 -0.10161076
0002c0 19 b6 2c be 00 58 ab 3d fe 16 35 be d0 ac 08 3c
       -0.1686634 0.08366394 -0.17684552 0.008341983
0002d0 fc c6 1e be 3e 56 fb 3d ae 85 30 3d 95 10 cb 3d
       -0.15505594 0.12272309 0.043096237 0.09915272
0002e0 fc 5b 99 3c 18 1d 52 bd bb 36 55 3d 0a e0 05 bc
       0.01872062 -0.051297277 0.05205415 -0.008171091
0002f0 12 fa 8e 3d f8 1a de 3d d7 1e be bd 96 c4 b4 3d
       0.06981291 0.10844988 -0.09283226 0.08826558
000300 1f 23 3a 3e 23 3c 84 3d 5f f8 bf 3b 0b fe cc bd
       0.1817746 0.06456783 0.0058584656 -0.10009392
000310 78 a6 3d 3d 71 f1 a5 bc 8b 5a ec 3d f8 d0 06 3e
       0.046301335 -0.02025673 0.11540707 0.13165653
000320 7c 04 fd 3d 58 e4 47 3e f6 19 15 3e f8 32 82 3c
       0.12354371 0.195207 0.14560685 0.015893444
000330 30 cf 1a 3d 6d 5e 8d bd e7 a1 df 3b ed df be bd
       0.037795246 -0.06902776 0.00682472 -0.09320054
000340 70 a5 8b 3d d3 ee 4d bd 81 98 41 3d a5 e5 fc 3c
       0.06818664 -0.05027659 0.04726458 0.030871222
000350 50 ca 40 bd 86 7a eb 3d ec 0a 04 3e 8a 6e de 3d
       -0.04706794 0.11497979 0.12894791 0.108609274
000360 9f b3 27 3e 67 31 41 be bc 40 67 3e aa 95 99 3d
       0.16377114 -0.18866502 0.22583288 0.07499249
000370 15 45 9c 3c 8c d6 e6 3d ae 98 32 3e 15 f4 15 3e
       0.01907591 0.1127139 0.17441055 0.14643891
000380 c1 95 bb 3d b1 de 0b 3d 88 43 0a 3d 66 e2 43 bd
       0.09159423 0.034147922 0.03375581 -0.047823332
000390 12 c6 00 be 7a 2b d3 bd b5 8d a4 bd 67 00 8d ba
       -0.12575558 -0.10311027 -0.08034841 -0.0010757566
0003a0 9c 64 0c bc 80 30 8b 3d ee d9 91 3d dd 51 34 3b
       -0.008568909 0.0679636 0.07121645 0.0027514615
0003b0 1b 2d 76 3d ce 05 c8 bc a0 7c 0d bd 1a ca 53 3d
       0.06010161 -0.02441683 -0.03454268 0.05170641
0003c0 f6 78 87 be aa cc f5 bd ae b1 42 be 21 97 ff 3d
       -0.26459473 -0.12001927 -0.19013092 0.124799974
0003d0 94 6d 08 be 7f a4 78 bd 72 45 a4 bd ba 0f 6a 3d
       -0.1332305 -0.06070375 -0.08021058 0.057143904
0003e0 70 39 cd 3d c3 6e 6c bd 93 42 ba 3d e5 05 0c 3e
       0.10020721 -0.057722818 0.09094729 0.13674124
0003f0 bb 10 1d bd 7d 31 76 3d f0 f2 c8 3c 79 98 1c 3e
       -0.038346034 0.06010579 0.024529904 0.15292539

Pair_shop_mlp.fc_layers.1.bias f4 [16]
000000 fc a2 6b bb 6a 24 2c 3c 55 9b 0a 3e cf 3d 26 3d
       -0.00359553 0.010506729 0.13535817 0.04058629
000010 b8 5b ab bd 63 61 29 3b 86 f9 87 3c a2 a7 a7 bd
       -0.08367103 0.00258454 0.016598474 -0.0818627
000020 fb 9c 4e 3d e5 de a5 bd 18 e6 59 bd c4 fe 92 3d
       0.050442677 -0.080991544 -0.05319795 0.07177499
000030 b1 45 cb 3d 10 8e 85 3c 65 93 b8 bd 13 4e 0e 3e
       0.09925402 0.016303092 -0.09012488 0.1389697

Pair_score_mlp.fc_layers.0.weight f4 [64, 32]
000000 f5 ec 11 be 62 a6 cb bd f8 dd 2a 3e 37 be 23 bd
       -0.14250548 -0.099438444 0.16686237 -0.039976325
000010 bf 03 99 bd 8a 88 bd bd fe 4d 5a 3e 0f 88 ad 3c
       -0.07471418 -0.092545584 0.21318814 0.021183042
000020 3d 33 d3 bb 9b 66 00 be 54 0e 44 bd 90 f6 c9 bd
       -0.006445317 -0.12539141 -0.047865227 -0.09861481
000030 fd 41 04 be ea f3 0b be 74 33 8f 3d fe 79 49 3c
       -0.12915798 -0.13667265 0.06992236 0.012297152
000040 bf 24 3e be 8e 60 ba bd ab f2 82 3e 54 82 7e bd
       -0.18568705 -0.091004476 0.25575766 -0.06213601
000050 18 d1 df 3d f9 e4 4d be 58 dc 37 3d 3b 1c fc 3d
       0.10928553 -0.20106877 0.04488787 0.12310072
000060 8f b2 21 be 32 a1 6b bd 36 6d 26 3e 3c 34 cf bd
       -0.15790771 -0.057526775 0.16252598 -0.10117385
000070 d1 98 a6 3d e3 1d 1e bd 4c 5b 7c be d9 0a 94 be
       0.08134616 -0.03860272 -0.24644202 -0.28914526
000080 60 22 3a be f2 5b 8e bd a5 3c 4f 3e a8 07 41 3e
       -0.18177176 -0.06951131 0.20237978 0.18850577
000090 79 f2 ac bd c9 65 34 3e ca 5a 31 3e d4 7c e9 bd
       -0.084446855 0.17616953 0.1731979 -0.11400762
0000a0 7d 7d f2 3d 71 b1 7e bd a2 79 b2 bd f8 86 1a 3d
       0.11840341 -0.06218094 -0.08714606 0.037726372
0000b0 64 9f 97 3d 81 75 16 bd 48 d8 d1 bd 53 03 8e bc
       0.07403448 -0.036733154 -0.102463305 -0.01733557
0000c0 35 3c a6 bd 5b 13 f3 bd 14 6b 42 3d 51 a6 1e 3e
       -0.08116952 -0.11868926 0.0474654 0.15493132
0000d0 33 0a c4 bb 17 fa fb bd 6b 3a 31 3d 85 2c f5 bd
       -0.005982661 -0.1230356 0.043268602 -0.11971382
0000e0 26 36 2c be 01 d6 37 3e 76 03 13 3c 74 15 07 be
       -0.16817531 0.1795273 0.008972993 -0.13191777
0000f0 d9 f1 3d bd e9 92 bb bc 41 cd 19 3e 27 0e a9 3d
       -0.046373222 -0.0228972 0.15019704 0.082546525
000100 6a 63 fc bd 48 9e 85 ba 2f 9f 34 bd 1f 91 cf bd
       -0.12323649 -0.0010194266 -0.04409712 -0.101351015
000110 0b a8 2a 3d ff 91 6d bc 9f 10 cb 3d 53 72 fe bc
       0.041664165 -0.01450014 0.099152796 -0.031060373
000120 ee e3 07 3e 4b f6 22 be 06 ee 4c 3c 8c f5 33 3e
       0.13270542 -0.15914266 0.012507921 0.17574137
000130 a4 66 e3 3c 36 6a 3d bd 30 ba b0 3d ca 7c e2 39
       0.027758904 -0.04624387 0.086292624 0.00043199054
000140 ec a7 8b be 7c f3 14 3d a9 26 0a 3d 62 c9 65 3e
       -0.27276552 0.036365017 0.033728275 0.22440103
000150 ac 0f 61 3e 2b f9 80 3d 70 3c 4f 3e 1c 5e 74 3d
       0.21978635 0.06297525 0.20237899 0.059660062
000160 d1 6c 35 3e b3 75 86 bd 2f 19 5f bd c5 82 e7 bb
       0.17717291 -0.06565418 -0.054467376 -0.0070651495
000170 80 b5 1b be b3 9f f4 bd 72 32 b5 bd 43 6c 07 3e
       -0.15205956 -0.11944523 -0.08847512 0.13224892
000180 41 db 2b be cd 6f 03 3e fd 2f 6b 3e 9a 40 36 3d
       -0.16782857 0.12835617 0.22967525 0.044495203
000190 4f 0f 34 3e 01 e9 12 be e4 b2 e9 bd fd 14 7d 3d
       0.17583965 -0.14346696 -0.11411074 0.061787594
0001a0 1b 86 1a 3e 42 84 82 3d 73 09 08 be a3 70 3c 3e
       0.1509022 0.063728824 -0.13284855 0.18402342
0001b0 bf 8e ab bd c3 03 8a 3d f2 46 bf bd fa 44 37 3e
       -0.08376836 0.06738999 -0.093397036 0.17897406
0001c0 8a e9 06 3d f4 df e3 bd b0 43 de 3d 2d e6 9d 3d
       0.032937564 -0.111267 0.10852754 0.07709918
0001d0 53 f9 d9 3c 3a bf 83 3d 1c bf f6 3d e8 ed 6b bd
       0.026608145 0.06432958 0.1204817 -0.057599932
0001e0 54 1a 12 3e 38 bd 5a be a1 bc 0b 3d 6d f3 84 bd
       0.14267856 -0.21361244 0.034115437 -0.06491742
0001f0 c4 13 13 3d dc 30 5c 3d 96 4a 35 3e f2 6a 2d 3d
       0.03590752 0.053757533 0.17704234 0.04233832
000200 31 e4 45 be 55 b4 f6 bc 60 f1 c1 3a f9 89 e8 bd
       -0.1932533 -0.030115286 0.0014796667 -0.11354441
000210 c4 22 0b 3e ae 17 fd bc dd d4 05 be eb c5 7d be
       0.13587481 -0.03089508 -0.13069482 -0.24782531
000220 19 5e 14 3e 61 83 85 bd 45 82 42 be 63 63 49 be
       0.1448902 -0.06519199 -0.18995006 -0.1966682
000230 8e 96 17 bd 97 d4 4c 3c f3 b6 01 be 06 72 20 be
       -0.037008815 0.012501857 -0.12667446 -0.15668496
000240 c7 24 4c 3e 82 fc 51 3e cf 0b 13 be fd dc d0 bd
       0.19935904 0.2050648 -0.14359973 -0.101984
000250 4c 5c c5 bd 18 7c cf 3d 1c 72 79 3b 66 30 65 3b
       -0.09636745 0.10131091 0.00380624 0.0034971475
000260 3a bd 42 be 57 eb 94 3d a4 ee aa bc fd 38 68 3e
       -0.19017497 0.0727145 -0.020865746 0.2267799
000270 47 b9 bf bc ba c1 08 be a9 f0 3d 3d 86 3e 1c be
       -0.023403777 -0.13355151 0.04637209 -0.15258226
000280 d3 ca ff bd 1b c8 10 3d fb 52 1a 3e 09 e7 94 3d
       -0.124898575 0.035347085 0.15070717 0.07270629
000290 03 05 c9 3d 43 ca 0f 3e 8e 1d bc bd 13 7f e1 bd
       0.09815409 0.14042 -0.091853246 -0.110105656
0002a0 4a f1 cb bd 1f de 99 bc 80 aa 3a 3e 9b d7 86 3d
       -0.099581316 -0.018782673 0.18229103 0.06584092
0002b0 d7 44 d8 3b 31 f3 c8 3d 95 ff 21 be 93 ef 87 bd
       0.006600003 0.0981201 -0.15820153 -0.06637492
0002c0 a1 21 2f 3e 7f 02 25 3e 28 ab b8 3d 66 5a a3 bb
       0.17102672 0.16114233 0.090170205 -0.0049851416
0002d0 42 c4 f1 3d c2 0d 09 be 8e b4 b0 3c 78 e4 bf 3d
       0.11805011 -0.13384154 0.02157047 0.09369749
0002e0 47 0d 8b 3d 65 a0 92 3d c9 56 4c 3e 88 97 33 be
       0.06789642 0.07159499 0.19954981 -0.17538273
0002f0 76 99 26 3e 71 6f 11 be 08 fc 1c 3e 23 1c 88 bd
       0.16269478 -0.14202668 0.15330517 -0.06645992
000300 42 82 01 be 2e 39 5a 3e e7 bd 3b bd 49 87 79 bd
       -0.12647346 0.21310875 -0.045835402 -0.060920034
000310 bc 0e 15 be fb 58 af bd 14 7d 1a 3d a4 3e 0d 3e
       -0.14556402 -0.085618936 0.03771694 0.13793427
000320 14 e1 ac 3a 0d 01 88 3d 9c 25 ce bd 03 f5 1b 3e
       0.0013189637 0.066408254 -0.10065767 0.15230183
000330 83 f4 2f bd 7a d3 c7 bd a4 17 0b 3e 1e cb de 3c
       -0.042957794 -0.09757133 0.13583237 0.027196463
000340 5a 52 a7 bb 69 66 06 3e a5 7c b9 bd a2 6a 1c bc
       -0.0051062526 0.13125004 -0.09056977 -0.009546908
000350 a4 f7 92 bd 7d 6c 80 3d 8f 78 3c 3e 11 7e 2a 3e
       -0.0717614 0.062706925 0.18405364 0.16649653
000360 9a 48 a4 3d ab 16 78 bd 60 9d 34 3d 6b 96 5d 3e
       0.0802166 -0.060568493 0.044095397 0.21639411
000370 45 69 f6 bd eb 46 fb 3d 87 9c 19 3e ec 22 14 be
       -0.12031797 0.12269386 0.15001117 -0.14466447
000380 2e ae 25 3c e3 4b 8e bd 54 ee 54 3e 37 84 0b 3e
       0.010112328 -0.06948068 0.2079404 0.13624655
000390 66 1c 14 3d c7 15 99 3c 11 d5 ae bd 65 eb b5 bd
       0.036159895 0.018687142 -0.08536733 -0.088827886
0003a0 de f5 3d 3e 6b 8b 6d 3e f6 a9 5d be 5a c4 f7 bd
       0.18550822 0.23197715 -0.21646866 -0.12097998
0003b0 42 c7 89 3d f2 cb 70 bd 9b 36 db bd 87 db 00 3e
       0.067274585 -0.058788247 -0.107037745 0.12583743
0003c0 5f d0 42 be 39 1d 0b be 14 fb a7 3c 6c b1 93 bc
       -0.190248 -0.13585366 0.020505466 -0.018028937
0003d0 76 0a 8c bd bb 19 6e 3e 23 b6 3e 3d 30 27 c3 bb
       -0.06837933 0.23252003 0.046560418 -0.0059555992
0003e0 e3 83 e1 ba 91 f2 dc bd 51 8a be bd 57 58 f3 bd
       -0.0017205443 -0.10788453 -0.093037255 -0.11882084
0003f0 79 8c de bd 9e 0a a4 bd b6 36 31 3e 54 c3 93 3d
       -0.10866637 -0.080098376 0.17306027 0.0721499

Pair_score_mlp.fc_layers.0.bias f4 [64]
000000 4f 8f 7b 3d 00 ae 53 bd c6 96 0a be 0e 99 c6 bd
       0.061415967 -0.05167961 -0.13534078 -0.096971616
000010 ca b8 22 3e 29 1e 25 3e 47 12 c2 bd 66 f7 cb bd
       0.15890804 0.16124786 -0.094761424 -0.09959297
000020 ba 34 84 bd 49 80 bb bd 65 2d 1f 3e 11 4e 51 3c
       -0.06455369 -0.09155328 0.1554466 0.01277496
000030 f2 6c 29 3d 43 5c db 3d d9 65 7f bd 0e dc 17 3d
       0.041363664 0.10710957 -0.06235299 0.037075095
000040 90 9a 3f 3e 2d 0f 8e bd 6e bc d9 3d a1 91 8e 3d
       0.18711305 -0.06936488 0.10631643 0.0696137
000050 42 6c a1 bd fe 21 05 bd 9f 7b 95 3d 57 29 36 bd
       -0.07881977 -0.03250312 0.072989695 -0.04447302
000060 8f ba d0 3d 84 db 30 bd c3 9b e3 bb 02 d5 d9 3d
       0.10191833 -0.043178096 -0.0069460585 0.10636331
000070 1d 0f 23 3e 97 07 1c bd 96 38 a2 bd b1 8a 1d 3e
       0.15923734 -0.038093176 -0.07920949 0.15384938
000080 40 6d a1 3d b0 21 1a be 52 ef 30 3c ba 90 6b 3e
       0.07882166 -0.15051913 0.010799246 0.23004428
000090 6a af 2f 3e 5b 92 13 3e 47 72 b7 bd a4 6a 21 bd
       0.17156759 0.14411299 -0.089573435 -0.03940834
0000a0 18 9c e0 bd 07 b7 cb 3d 55 20 20 be 45 5f f8 bd
       -0.109672725 0.09947019 -0.15637334 -0.12127546
0000b0 ea 53 03 b9 c4 18 00 3e 43 fd 23 bd ff 09 c8 bd
       -0.00012524394 0.12509447 -0.04003645 -0.097675316
0000c0 8f cd 66 bd 4c 87 89 bd 4b 30 2a 3d 1a c1 97 bd
       -0.05634838 -0.06715259 0.041549962 -0.07409878
0000d0 28 97 34 bd 22 96 e9 bd c1 b1 6d bd ba 09 11 3e
       -0.044089466 -0.11405589 -0.058030847 0.14163867
0000e0 17 aa d1 bc 57 fc e6 3d bb b1 f7 3d 33 2f f0 3d
       -0.0255938 0.11278599 0.12094446 0.117277525
0000f0 6f 1a 9a 3d 37 7d 29 3e 22 9c d7 3d a9 1d 92 bd
       0.07524573 0.16551672 0.10527827 -0.071345635

Pair_score_mlp.fc_layers.1.weight f4 [8, 64]
000000 73 85 d7 3d 37 c2 fa 3d dd 4a 05 3e 06 46 85 3d
       0.105235 0.12244075 0.1301684 0.065074965
000010 12 85 54 3e 5b 12 1a 3e dd db 7b 3d b4 24 da 3d
       0.20753887 0.15046065 0.061488975 0.10651532
000020 b9 13 12 3e 12 4f 19 3e 7b d7 df bd 27 3d fd 3c
       0.14265336 0.14971569 -0.109297715 0.030912949
000030 77 59 f9 3c 09 f2 1f be 94 67 c4 bc 64 37 77 bb
       0.030438168 -0.15619673 -0.023975171 -0.0037722224
000040 ac b1 ff 3d 74 ec 09 3c 40 2e 1c bd aa 99 51 3d
       0.1248506 0.008418191 -0.038130045 0.051171936
000050 48 72 07 3e 6b ed bb bc 0a 3b c9 3d bc a8 85 3c
       0.13227189 -0.022940358 0.09825714 0.01631581
000060 74 b8 cf 3d cf 41 15 3e 64 c8 22 3e 1a 13 61 3d
       0.101426035 0.14575885 0.15896755 0.054949857
000070 36 25 38 bd 25 ff 1c bd 4f d5 e4 3d 72 51 53 3c
       -0.044957362 -0.038329262 0.11173498 0.012897836
000080 cc 6c ce 3c 27 32 e7 3d ba 66 e4 3d 45 b0 11 ba
       0.025198363 0.11288863 0.11152406 -0.0005557577
000090 17 70 3d 3e 42 79 21 3d e3 d5 12 3d 2f 57 d8 3d
       0.1849979 0.03942228 0.03584851 0.10563504
0000a0 47 88 37 bd 4f 2e 29 3d ae e3 bf bc 18 85 a6 3d
       -0.0448077 0.04130393 -0.023423996 0.08130854
0000b0 4b 75 43 be 19 ae c8 3d d8 dd 15 3e 04 29 dd 3d
       -0.19087712 0.097988315 0.14635408 0.10798839
0000c0 d6 90 d7 bd 12 f3 a8 3d b3 83 c9 bd 13 17 ad 3d
       -0.10525672 0.08249487 -0.09839573 0.08451667
0000d0 3d b7 76 3e b9 8a 9b 3c 87 e9 ac 3d 74 75 af bd
       0.24093337 0.018987047 0.08442979 -0.08567324
0000e0 89 26 48 3d ce c3 b3 bd 9c 7c 70 bd cf c4 d0 3d
       0.048864875 -0.08777581 -0.058712587 0.10193788
0000f0 9c d9 88 bb 28 2d 9f 3d 89 53 8e bd 93 e0 34 3e
       -0.0041763317 0.07772285 -0.06949527 0.17663793
000100 a7 0f df bd e8 4a dc 3d 06 f9 f4 bd 62 31 0e be
       -0.10891657 0.10756475 -0.1196156 -0.13886026
000110 7f b1 e2 bd 63 82 70 bd 74 ab da bc f1 d3 97 bd
       -0.11069011 -0.058718096 -0.026693083 -0.074134715
000120 35 6f 8d bd 72 9d f2 3c 8b b1 39 be 98 11 e1 3b
       -0.06905977 0.029616091 -0.18134134 0.0068685524
000130 1b 66 3b be 16 6b 3f 3e 11 ba 3c be 62 66 32 be
       -0.18300669 0.18693194 -0.18430354 -0.17421868
000140 5a aa de bb b1 fa 36 3d c7 75 81 bd 57 3a da 3c
       -0.00679521 0.04467267 -0.06321292 0.026639147
000150 6a 85 08 be 43 ea ee bd d3 66 5b bd 8e 78 92 3d
       -0.13332143 -0.116657756 -0.053564858 0.071519
000160 d6 0b af bd 14 ab db bd 46 89 ef 3d 0f 28 e9 bc
       -0.085471794 -0.1072599 0.11696105 -0.028461484
000170 25 63 cb bd f4 27 aa 3d bc 75 e8 3d 1f 5c 4f bc
       -0.0993102 0.08308402 0.11350581 -0.012656241
000180 e2 f7 82 bd bb 1a 03 be cb dc 67 3d 0a 26 e4 3d
       -0.06394936 -0.12803166 0.05660705 0.11140068
000190 b1 5b ce bd 9d 6e 8e 3d 01 4f 42 3d 1a 8d 56 3d
       -0.100760825 0.069546916 0.047438625 0.05238066
0001a0 6d e2 df bd 12 14 20 bd 36 3b 93 bd a7 37 f0 bd
       -0.10931859 -0.03908164 -0.07189028 -0.11729365
0001b0 4e a9 43 3e dc 8f 05 3e 05 5c b7 bd fc 7f a4 bd
       0.19107553 0.13043159 -0.08953098 -0.080322236
0001c0 55 36 1d 3d 27 37 fc bd 15 fe e4 3d f9 a5 e0 bd
       0.038381893 -0.12315207 0.11181275 -0.10969157
0001d0 43 42 a8 bb 17 14 1a be cd f7 10 be 0e 29 5a 3e
       -0.005134852 -0.15046726 -0.14157028 0.21304724
0001e0 6c a7 f2 3c e0 68 dc bd 7b e2 21 bd 99 e1 7f bd
       0.029620849 -0.10762191 -0.03952263 -0.062471006
0001f0 0c 76 24 3e de c5 b8 3d 46 73 66 3d 01 3a 6a 3d
       0.16060656 0.09022115 0.056262277 0.057184223
000200 e5 65 ae 3d 53 02 e3 3d 6e f7 65 3e c5 ae 2a 3e
       0.085155286 0.11084428 0.22457668 0.16668232
000210 c9 46 2b 3d 13 d2 91 3d ef 6b 45 3e ed e5 39 3c
       0.041815553 0.071201466 0.19279455 0.0113463225
000220 d9 31 3f 3e 53 cf 26 3d be c7 b3 3d 4e f5 38 bc
       0.18671359 0.040725064 0.08778332 -0.011288954
000230 3c 3b e0 bc 9b 6b 62 be 42 58 79 3d b1 9e 83 3d
       -0.027371995 -0.2211136 0.060875185 0.06426752
000240 2b 27 82 3e aa 26 1c 3e fe 75 03 3e 77 dc 0f 3d
       0.25420508 0.15249124 0.12837979 0.03512236
000250 73 8b cf 3d 7e e4 49 bd cc 47 f4 3d 44 39 8e 3d
       0.1013402 -0.049290173 0.11927757 0.06944516
000260 d2 e0 44 3d 43 c1 3e 3d 48 e1 ee 3d d5 46 6f 3e
       0.048065968 0.046571027 0.11664063 0.23366864
000270 52 5b 17 bc bd 26 09 3e cb 63 89 3d ee 28 50 3e
       -0.009238081 0.13393684 0.06708487 0.20328113
000280 5b 77 ca 3d e7 29 bc 3c bf 85 da 3d 65 b9 ef bc
       0.098860465 0.0229692 0.10670041 -0.029263208
000290 c5 58 35 3e 8a 25 9d 3b 90 8d 14 be cd d5 23 3e
       0.17709644 0.004795735 -0.14507127 0.15999527
0002a0 28 9f 85 bd 42 4d cd 3d 1a 36 e9 3d bb 81 20 3e
       -0.06524497 0.100245014 0.11387272 0.15674488
0002b0 e2 4d 9a bd 2f 77 0a 3e 70 52 c4 3d b0 da 8e bc
       -0.07534386 0.13522027 0.09586036 -0.017438263
0002c0 eb da 16 3e 21 08 18 bd 21 4c 29 3e ed 46 ba bc
       0.14731948 -0.037117127 0.16532947 -0.022738898
0002d0 6e 82 89 3d 25 67 cd bd b9 9b a1 3d cb 75 5d bc
       0.067143306 -0.10029439 0.0789103 -0.013516854
0002e0 22 86 19 bd 43 25 9a 3c 34 aa c4 3d 09 1b 63 3e
       -0.037481435 0.018816596 0.09602776 0.22178282
0002f0 c7 4f da 3d 15 62 49 3c de cc c9 3d 4d 52 8a 3e
       0.106597476 0.012291451 0.098535284 0.27015916
000300 b9 ed 39 bd 56 f7 9c 3d 5a 20 7d 3d 71 62 46 3b
       -0.045392726 0.07664363 0.06179843 0.0030271078
000310 66 77 8e 3c ad 34 d8 bd a3 fd 25 3c 9c 97 90 3c
       0.017390918 -0.10556922 0.0101312725 0.017650418
000320 5c 02 1d be 59 9f a3 bb 2a da 8e 3d 0d b9 15 3d
       -0.15332931 -0.004993361 0.06975205 0.03655343
000330 7e fa c5 bc 98 9f c4 3d 23 66 f1 bd 7f a7 13 be
       -0.024167296 0.096007526 -0.11787059 -0.14419363
000340 c9 22 56 bd 26 4b bb bd 92 3b 0e 3c 61 6d 59 bd
       -0.052279267 -0.09145193 0.008681195 -0.053082827
000350 00 74 92 bd 1f e8 4f bc e7 bf 82 3d 00 49 af 3d
       -0.071510315 -0.012689619 0.06384259 0.085588455
000360 4b 4f 03 3e 49 77 0f 3b 55 d6 0a bd b6 4b 03 3e
       0.12823217 0.0021891168 -0.03389581 0.1282185
000370 dd 81 6e bd 97 e4 7e 3d 0e be 87 3d f5 f1 9d bd
       -0.058229316 0.06222972 0.06628047 -0.07712165
000380 06 94 45 bd 5f 57 bc bd c9 d9 a2 bc 00 fd 39 bc
       -0.04823687 -0.09196352 -0.019879239 -0.011351824
000390 60 ed 1e 3e 01 08 30 be 8d 85 41 bb 75 13 c2 3c
       0.15520239 -0.17190553 -0.0029529065 0.023690918
0003a0 42 4b 92 3a 8a 35 94 3d 68 c7 b1 bd 7c 0c 4f 3d
       0.0011161345 0.07236774 -0.08680612 0.050549015
0003b0 a5 e8 d0 bc 9e 86 e4 bd bf 8e 04 be 76 94 99 bd
       -0.025501559 -0.11158489 -0.12945078 -0.0749902
0003c0 89 4e d0 3d 41 ad 17 be 31 76 06 bc cf 7b b8 bd
       0.101712294 -0.14812185 -0.00820689 -0.090079896
0003d0 62 2e 70 3d bb eb e8 bd 27 49 de 3a 4f ba 16 3e
       0.058637984 -0.11373087 0.0016959057 0.14719509
0003e0 17 67 c9 bd be f7 cd 3c ee 81 de 3d 44 d0 bf 3d
       -0.09834116 0.025142547 0.10864626 0.093658954
0003f0 23 a9 55 bd a8 df dd bd fb f2 42 3d d7 e1 aa 3c
       -0.052163254 -0.10833675 0.047595005 0.020859642

Pair_score_mlp.fc_layers.1.bias f4 [8]
000000 27 75 1d bb a9 ce d3 3d 6d c9 b4 bd 02 8a 8e 3d
       -0.0024026127 0.10342152 -0.088274814 0.06959917
000010 9e 24 0c 3e d8 e7 ee 3d 78 60 79 bd ad 11 81 bd
       0.13685843 0.116653144 -0.060883015 -0.063021995

CNN_embedding_types.weight f4 [106, 16]
000000 53 31 14 3e f5 92 46 bf f1 cf fc be b2 de 73 3f
       0.1447194 -0.7756799 -0.49377397 0.9526168
000010 39 9b d0 be 02 8c 5a bc eb 74 e2 3f 05 a0 39 c0
       -0.40743425 -0.0133390445 1.769193 -2.9003918
000020 15 51 fc 3d 6c a1 5d bf e7 f5 08 bf 9c da 89 3f
       0.12320153 -0.86574435 -0.5350022 1.0769839
000030 ef 8e f8 3e ba 84 ca 3e 1c 5e 3c 3f 04 11 44 bf
       0.4854655 0.39554387 0.735811 -0.76588464
000040 46 1c 08 bd 67 94 f6 bf 6a 36 2a 3f 97 0b 3b bf
       -0.03323009 -1.9264039 0.6648928 -0.7306456
000050 46 69 ea 3e 44 19 27 bf 18 2d d4 3e 60 a8 81 be
       0.45783442 -0.6527293 0.41440654 -0.25323772
000060 ea 84 1e bd 1c 8b 67 bf 2f 79 ad bf dd b3 f2 3e
       -0.038700975 -0.9044664 -1.3552607 0.4740285
000070 ea d8 82 3f 99 83 da 3e dc 08 b9 be 0c 0d 02 be
       1.0222447 0.42678526 -0.36139572 -0.1270029
000080 64 bd 0e bf 45 8d d5 3f 49 d9 1f 3f 1e 70 bd be
       -0.5575774 1.6683737 0.62440926 -0.369996
000090 95 56 9e bc 5b 48 8b 3f 57 4e e1 3e a3 90 84 bf
       -0.019328395 1.0881456 0.4400508 -1.035664
0000a0 26 13 07 40 29 77 c6 bf 23 e7 88 bf c1 0f 16 3f
       2.1105437 -1.5505115 -1.0695537 0.5861779
0000b0 c4 8f 8b bd bd a1 e1 3d 88 13 02 bf 4a 34 a2 3f
       -0.068145305 0.11017177 -0.5081105 1.2672207
0000c0 95 3a 9b be 5d 25 1b bf 7e 64 9f be bc a0 8f 3d
       -0.30318132 -0.60603887 -0.31131357 0.070130795
0000d0 52 fe e7 be f4 d9 05 40 6f a9 9c bd a3 61 9f 3f
       -0.45311219 2.0914278 -0.076495044 1.2451671
0000e0 e5 8e ae bf 9f ee 44 bf da 21 aa 3e ae 21 92 3f
       -1.3637358 -0.76926607 0.33228952 1.1416528
0000f0 d6 b5 c3 3d ec 68 08 c0 e1 59 0c 3f 83 a2 6f 3f
       0.09556167 -2.131404 0.54824644 0.9360735
000100 a4 3f f4 3f 90 27 76 3f 19 9f 0d 3f 04 97 71 3f
       1.9081922 0.9615412 0.5532089 0.94371057
000110 0b d5 ae 3e f5 fe 13 bd 4d bb bf 3f 62 f2 46 bf
       0.34146914 -0.036131818 1.4979035 -0.77713597
000120 84 d1 48 3f 52 7e 3a bd 1d cc 26 be 7c 58 ab 3f
       0.78444695 -0.045530625 -0.162888 1.3386378
000130 21 b6 26 be cb 93 83 be c7 17 56 3d 93 f6 c7 be
       -0.16280414 -0.25698695 0.05226877 -0.3905531
000140 3b e2 6b 3e 18 9b 88 3e 4b 90 8c 3f 9d 96 9f bf
       0.23035519 0.26680827 1.0981535 -1.2467839
000150 9b 92 75 bf 5a 47 e7 bf 61 7b 3a 3c c8 e0 e1 bd
       -0.9592683 -1.806865 0.011381955 -0.11029202
000160 6f bd a0 bf 8c 85 22 3f 58 4d 9e 3e cd a2 36 40
       -1.255781 0.63485026 0.30918384 2.8536866
000170 44 72 9b bf 62 13 5b be 26 df 06 bf f1 fb 32 3e
       -1.2144246 -0.21394113 -0.5268425 0.1747892
000180 84 b8 04 3f 58 d5 c1 be ef db 66 be aa 67 c8 bf
       0.5184405 -0.3785808 -0.22544836 -1.5656636
000190 e5 71 f4 3e ac e3 87 bf 19 cc e3 3f 75 78 0c bf
       0.47743145 -1.0616355 1.7796661 -0.548713
0001a0 fe 86 ad 3e 68 37 47 3f 4e 46 f7 3b 63 71 15 bf
       0.33892053 0.7781892 0.007546223 -0.5837614
0001b0 74 51 6a bf 67 8b 57 bd 7a cf e4 3f 83 64 93 3f
       -0.9153054 -0.05262318 1.7875817 1.1515049
0001c0 f1 23 c7 3d 39 4b cc 3f bf a9 1a bf a8 74 b4 3f
       0.09723652 1.5960456 -0.6041526 1.4098101
0001d0 73 c5 f1 3d d3 3a 34 3f c7 95 09 bf 44 76 3c bf
       0.118052386 0.7040226 -0.5374417 -0.7361796
0001e0 17 0f 0c 3f 1d d8 f3 3f e3 e4 cf 3d e4 ea e6 3e
       0.54710525 1.9050328 0.101510786 0.45101082
0001f0 d9 01 cd 3e fa aa 7f bf cd 37 1b 3e da 77 21 bf
       0.40040472 -0.99870265 0.15158005 -0.63073504
000200 c8 88 36 40 03 4c f3 bd d2 10 c5 3e e5 eb 79 3f
       2.8520985 -0.118797325 0.38489395 0.9762557
000210 aa 02 ac bf f8 8a 55 bf bd 59 06 be ec 76 c2 bd
       -1.3438313 -0.83415174 -0.1312017 -0.09495339
000220 7d 43 38 be 3e 5a 8e bf ed 8a ea 3e ad ad 5f be
       -0.17994495 -1.112129 0.45809117 -0.21843596
000230 86 57 0e 3f 09 d7 df bd b1 b5 ff 3f d2 92 03 3e
       0.556023 -0.109296866 1.9977323 0.12848976
000240 f2 00 e0 3c 2a e4 1a 3e 16 48 54 bf 40 95 01 40
       0.0273442 0.151261 -0.82922494 2.0247345
000250 c2 86 79 3e 2a 23 9a 3d 2d 50 90 be b9 bb 9b 3d
       0.24367812 0.07526238 -0.2818617 0.07604165
000260 a6 73 d0 3e 61 8f 81 be 06 de cf 3e 49 80 45 3f
       0.40713233 -0.25304702 0.40599078 0.7714887
000270 ed e5 6c be 06 a6 8d bf 0a 10 94 3d f0 fc 5d bf
       -0.23134585 -1.1066291 0.07229622 -0.86714077
000280 87 c5 96 bf 34 da 0a 3f 45 92 4d be c9 95 18 bf
       -1.177903 0.542392 -0.20075329 -0.59603554
000290 f4 d2 eb 3e 36 ec 9d 3f 50 51 9e 3e fe 11 1b 3f
       0.46059382 1.2337711 0.30921412 0.6057433
0002a0 76 73 19 3f 20 07 9c be 7f 51 9d be 89 34 d2 3f
       0.59941804 -0.30474186 -0.3072624 1.6422282
0002b0 e1 8a 85 3f 04 e6 bd bf c4 b4 24 3f d2 ef e5 3f
       1.0433007 -1.483582 0.64338326 1.7963812
0002c0 8e 29 b3 3c 84 66 f3 bf 09 6c e5 bd be d3 ba 3e
       0.0218704 -1.901566 -0.11202247 0.3648967
0002d0 38 ff a6 bf 27 3a ca bc 1a 1c a7 bf f2 b2 68 be
       -1.3046637 -0.024685932 -1.3055451 -0.22724512
0002e0 3b c6 d9 bd 95 03 8c bf ec 47 92 be 3d 39 db 3f
       -0.106335126 -1.0938593 -0.28570497 1.7126843
0002f0 e4 bf a2 3f 83 c5 81 3f 2c 8a 3d bf 79 2a 84 3e
       1.271481 1.0138401 -0.7403896 0.25813654
000300 d0 92 67 bf 18 9f 13 40 e9 71 4b bf a3 e3 df 3f
       -0.90458393 2.3065853 -0.7947069 1.7491344
000310 ba 7c a6 bd 84 7c 3c be 6d 35 97 bf 6d 48 dd 3e
       -0.081292585 -0.18406874 -1.1813179 0.4321932
000320 e2 9a a3 3f 78 49 45 bf 58 81 dc 3f 3e 3e 62 be
       1.2781641 -0.7706523 1.7226973 -0.22094056
000330 f8 5f 5c 3f fe b0 e8 3f 5f 08 2f 3f 6e 50 85 be
       0.86083937 1.8179014 0.6837215 -0.26037925
000340 a8 f6 f4 3f ef 81 92 3f d3 48 b1 3f 18 62 93 bf
       1.9137774 1.1445903 1.3850349 -1.1514311
000350 23 71 02 3e 7b 3f 5d 3f 13 29 58 3f 46 88 cc bf
       0.1273847 0.8642499 0.84437674 -1.5979087
000360 6a a3 74 3f b9 68 b2 bf 9c 87 7e 3d 88 d4 82 bf
       0.9556185 -1.3938209 0.062141046 -1.0221109
000370 52 1b 0c bf bd 52 8c 3f 7e 9b fd 3d 90 07 cc 3e
       -0.5472919 1.096275 0.123831734 0.3984952
000380 6c 5c a8 3c a3 8a 89 bf 88 e1 88 3d e4 d6 2f 40
       0.020551883 -1.0745434 0.06683642 2.747491
000390 27 b3 56 40 46 1a db 3f 7d af ab bf bc 3b 4a be
       3.3546846 1.7117393 -1.341293 -0.1974935
0003a0 99 37 7a bf 3e 2d 48 3d c2 f5 59 bf b8 c3 19 bf
       -0.97741085 0.04887127 -0.8514062 -0.6006427
0003b0 6d 29 6c bf f2 b1 11 3e 76 b1 fe be 44 0f a5 be
       -0.9225071 0.14228037 -0.49744767 -0.3223821
0003c0 3f 9f ee bf db c8 db 3e b0 58 1d 3f ba 6d 3b 3e
       -1.8642348 0.42926678 0.6146345 0.18303576
0003d0 99 c3 ca 3d ec 41 0b bf 52 10 44 3f b6 ce b0 bf
       0.099005885 -0.54397464 0.765874 -1.3813083
0003e0 c5 48 85 3e ce ad 29 3f ae 5e 3a 3f 30 f0 15 3f
       0.2603208 0.6628083 0.7280072 0.5856962
0003f0 d4 02 74 3e 5b cb a9 3c 17 00 4f bf 50 8c 5b 3f
       0.23829204 0.02072685 -0.8085951 0.85760975

embedding_CNN_distances.weight f4 [7, 8]
000000 d7 2b 85 3f 9e 21 93 bf 5f 35 47 3e 70 f4 b8 3e
       1.0404004 -1.1494634 0.19453953 0.3612399
000010 f6 47 70 3f e4 7f 07 bf ff 0b 3c 3f ea 53 9e 3f
       0.93859804 -0.5292952 0.73455805 1.2369359
000020 84 6e 37 bf 02 1b 37 3f ba 5e 37 c0 6e 64 6e be
       -0.7165301 0.71525586 -2.8651567 -0.23280498
000030 7c 0d 81 bf ac 67 0d c0 58 a0 82 bf 05 3f 7f 3d
       -1.008224 -2.2094526 -1.0205183 0.06231596
000040 53 05 84 3e 3b 50 95 bf b9 17 02 3d dd dc c3 be
       0.25785312 -1.1665109 0.031760905 -0.38254443
000050 b6 89 9d 3f 76 27 63 3f c1 51 f5 3f 5b af cf 3e
       1.2307651 0.8873209 1.9165574 0.40563473
000060 2d 05 f3 bd 3e 86 be 3e 34 1e 0b 3f d5 30 e0 bf
       -0.118662216 0.37211794 0.5434296 -1.7514902
000070 69 0d 70 3f cb e1 45 bf 7d 12 d6 3e 02 61 01 bf
       0.9377046 -0.7729766 0.4181098 -0.5053865
000080 13 b6 8c bf 37 e8 30 be 11 f3 1e 3f 31 47 c6 3f
       -1.0993065 -0.17276083 0.6208964 1.5490476
000090 81 fd 0a 3e 59 6b 37 bf 13 47 6b 3e 3d 07 bb 3e
       0.13573267 -0.71648175 0.22976331 0.3652896
0000a0 30 6c bd 3d 34 eb d2 be e7 6c 51 be 29 48 ab 3f
       0.09249151 -0.4119507 -0.20451699 1.3381397
0000b0 75 8c bb 3e a6 c5 69 bf 36 1b 36 bf f2 c8 89 3f
       0.36630598 -0.9131721 -0.7113527 1.0764449
0000c0 00 00 00 00 00 00 00 00 00 00 00 00 00 00 00 00
       0.0 0.0 0.0 0.0
0000d0 00 00 00 00 00 00 00 00 00 00 00 00 00 00 00 00
       0.0 0.0 0.0 0.0

embedding_CNN_prices.weight f4 [6, 5]
000000 e1 cb f2 3f e2 2d b1 3f 5c e2 a2 bf 56 f8 dc bf
       1.8968469 1.3842127 -1.2725329 -1.7263286
000010 9e f2 80 bf 78 ea e3 be d1 78 8e 3f 06 e0 f8 3f
       -1.0074041 -0.44514823 1.113062 1.9443367
000020 98 02 b2 3e b6 77 7c be 83 63 0b 40 83 10 0f bf
       0.34767604 -0.24655041 2.1779487 -0.5588457
000030 76 8a cd bf 71 3e 34 bf fc ea 93 bf 40 76 99 bf
       -1.605788 -0.7040778 -1.1556087 -1.1989212
000040 34 bb eb 3f 78 7d a5 be fa 2a b5 bf b1 22 57 bf
       1.8416505 -0.32322288 -1.415374 -0.8403731
000050 3d fa 1d bf d0 63 a1 3e ae c8 1d 3d bc 0d 47 bf
       -0.6170996 0.31521463 0.03852146 -0.7775533
000060 8d 46 6d 3f 00 00 00 00 00 00 00 00 00 00 00 00
       0.92685777 0.0 0.0 0.0
000070 00 00 00 00 00 00 00 00
       0.0 0.0
