checkpoints/GNNNoCNN_Epoch33_valmse2.0840_testmse2.2273_ndcg0.9352.model (torch, 249600 bytes, 52 tensors)

Pair_embedding_types.weight f4 [106, 16]
000000 a2 42 dc 3c 57 d4 b0 bd 81 a2 cf be d5 4f 5e bf
       0.026887242 -0.086342506 -0.40553668 -0.86840564
000010 a2 fe 5b 3f 5b c9 c0 be 09 f6 02 3e ac 8d a5 bf
       0.85935414 -0.37653622 0.12789167 -1.293386
000020 e7 f0 e3 3d ee 5f 2e bc 4e be 9e bf 56 4d 0b 3f
       0.11129933 -0.010642989 -1.2401826 0.5441488
000030 48 dd c9 bf ce da b9 3e 6f 9c 87 3e bc 1b 35 3f
       -1.5770655 0.36299747 0.26486537 0.70745444
000040 22 5d ed 3e e8 2b 96 bf 6e 00 f7 3f 6d d9 d9 be
       0.46360117 -1.1732149 1.9297006 -0.42548695
000050 29 76 81 be 2a 46 3f 3e c3 bc 1c bf a2 b8 2d 3f
       -0.25285462 0.18679109 -0.6122553 0.6785985
000060 dc ad 85 bf 11 e1 24 3d df 6f 06 bf c7 e5 53 40
       -1.0443683 0.040253703 -0.5251445 3.3108995
000070 b3 d4 4e bf 58 5c 0e bf 3a bc 8f bf 3b 6d 80 3f
       -0.80793303 -0.55609655 -1.1229317 1.0033334
000080 64 fe db 3f 74 ab 11 40 b2 9f 84 bf cc 32 14 3e
       1.7187009 2.2760897 -1.0361235 0.14472502
000090 6b 49 62 3f 13 5f a6 bf 71 cc 90 bf 8c e8 7f 3d
       0.88393277 -1.2997764 -1.131239 0.062477633
0000a0 b4 9f 25 3f a9 a0 04 3e 82 95 82 3f 57 5a dd 3d
       0.6469681 0.12951912 1.0201876 0.108082466
0000b0 2d fb 72 bf fa 39 c9 3d 86 be 92 3f 75 bf a3 bd
       -0.94914514 0.09825511 1.1464393 -0.07995502
0000c0 0a 38 27 bf cf c9 96 3f d2 98 c8 be d3 ab 95 bf
       -0.65319884 1.1780337 -0.39179093 -1.1693062
0000d0 0d 4c d7 bf 74 f3 5a 3f 05 88 ff bf 45 51 90 3c
       -1.6820084 0.8552773 -1.9963385 0.017616877
0000e0 4b 95 99 3c ee af 86 3f 4c 61 ab bf 4e f9 a3 3f
       0.018747946 1.052244 -1.3389068 1.2810457
0000f0 03 4c f1 3b 0e 62 76 3f 04 cf 9e 3f 94 2c 4e 3d
       0.0073637976 0.9624337 1.2406926 0.05033548
000100 17 eb c4 bd f2 fb 49 3e f5 b4 55 3f 3d 1f d1 bf
       -0.09615152 0.19725016 0.83479244 -1.6337658
000110 bd 41 09 40 c0 74 89 bf 7c 23 5f 3e 5f 35 ad bf
       2.1446373 -1.0738754 0.2179088 -1.3531913
000120 2f 78 9a be 2a 1f 10 3e 63 46 32 3e 2e 9c 72 3f
       -0.30169818 0.14074388 0.17409663 0.9476956
000130 bd d9 c6 3e ba 65 2c be 75 03 7b 3e 1e 8d 41 3e
       0.38837996 -0.1683568 0.24513038 0.18901488
000140 51 33 aa be 86 87 0d 3e dc 99 8e 3e 3f 2e 88 3f
       -0.33242276 0.1382123 0.2785176 1.0639113
000150 f1 cf a2 be 81 e6 93 bf a7 33 26 be 21 ea d0 be
       -0.31799272 -1.1554719 -0.16230641 -0.40803626
000160 a1 0a 2e 3f 08 bb c4 3f 95 90 35 bf ef e5 52 bf
       0.6798497 1.5369577 -0.7092374 -0.823821
000170 f8 0f 56 bf 1d 58 1f 3f 16 09 66 3f ae bc bd 3f
       -0.83618116 0.62243825 0.89857614 1.4823205
000180 5b 94 b1 bf 9b ae 74 3e b7 76 e7 3f af 0b 0f 3e
       -1.38734 0.23894732 1.8083104 0.139693
000190 5c a9 3b 3f 29 2b 66 3e 28 48 60 bf bf 1c 0c 40
       0.73305297 0.22477402 -0.876101 2.1892545
0001a0 02 8d 8e bf a9 94 9b 3f 9f 53 6a 3e af 75 7d bf
       -1.1136782 1.2154742 0.22883461 -0.99007696
0001b0 83 b8 ee be 45 48 6f 3e f3 6d f5 be b0 cf de bc
       -0.46625146 0.23367412 -0.47935447 -0.027198642
0001c0 4f a8 39 3f 78 0a c6 3f ea 1a 83 3e 3a 39 bc be
       0.72522444 1.5471945 0.2560647 -0.3676241
0001d0 85 63 26 bf dc 5b 49 3e 99 9e 9b be cb f5 2b be
       -0.64995605 0.19663948 -0.30394438 -0.16792981
0001e0 cd 6c 8e 3f a0 2b 26 c0 33 eb 83 3e 9d 90 8e be
       1.1126953 -2.5964127 0.2576538 -0.27844706
0001f0 73 c8 28 be 4e 2a c0 bf 38 ae da bd 15 eb 8e 3d
       -0.16482715 -1.501291 -0.10677761 0.06978432
000200 96 99 88 3e b7 3d c5 3f 83 2a c0 3e fb 46 7c 3f
       0.26679677 1.5409459 0.37532434 0.9854581
000210 81 5c 41 be 7a c5 8f 3f 66 a5 a4 bf 08 49 1a 3f
       -0.18882944 1.123214 -1.2862976 0.60267687
000220 18 a4 5b 3e 67 2d 80 bf bc 3f bb 3f dc d2 0b bf
       0.21449316 -1.0013856 1.4628825 -0.5461862
000230 2b 8c d2 bc 05 a2 a3 3f 2e 3b 27 bd 01 5a ad 3e
       -0.025701603 1.278382 -0.040827923 0.3385773
000240 48 97 71 3f 71 49 84 3d db 79 df 3e c9 2f 78 bf
       0.9437146 0.0645932 0.43647656 -0.96947914
000250 19 06 d2 be ae bf 6d 3f e5 9d c0 3e c2 54 18 bf
       -0.41020277 0.92870605 0.37620464 -0.5950433
000260 de 52 1c 3f a0 e0 32 bd f5 05 10 40 8c 81 b5 3f
       0.61063945 -0.04367125 2.2503636 1.418016
000270 d6 bb bb 3f 1e d3 05 3e 09 2c cf 3e be a3 97 be
       1.4666698 0.13068816 0.40463284 -0.29617113
000280 21 7f 82 bd 64 e5 04 be 0b 0c 12 3e f2 14 8f 3e
       -0.06371904 -0.1297813 0.14262407 0.27945668
000290 e9 b7 88 bf 05 ef 44 bf 16 1b 98 3f b3 2c 88 3f
       -1.0681125 -0.76927215 1.1883266 1.0638641
0002a0 74 ff b7 bf df 47 36 3f a9 ed 64 be 20 15 aa 3f
       -1.4374833 0.71203417 -0.22356285 1.3287697
0002b0 b5 22 b2 3f 50 d0 57 3d e2 e2 9d 3e 7b 19 d8 3e
       1.3916842 0.052688897 0.3083716 0.4220694
0002c0 30 41 9d bf 0f f8 1e bf d7 53 19 be 4a 27 6e 3f
       -1.2285519 -0.6209726 -0.14973389 0.930287
0002d0 fd 4a 67 be d1 41 9e bf 54 3e 4c 3f d8 31 24 3f
       -0.225872 -1.2363836 0.79782605 0.64138556
0002e0 59 a4 a3 3e 05 b0 4d 3f 83 c4 fe 3f f9 26 60 3e
       0.31961325 0.8034671 1.9903721 0.21889867
0002f0 fc 53 54 3d 72 c3 b4 3f 52 46 92 be a7 e2 6d 3e
       0.051837906 1.4122145 -0.28569275 0.23230992
000300 33 8b e1 3e 81 61 c7 bf ba ef ef 3d bb 4b a1 be
       0.44051513 -1.5576631 0.11715646 -0.3150309
000310 d1 0e da 3f 5d 8e 80 bf 5b 38 08 3f a2 63 c2 3f
       1.7035772 -1.0043446 0.5321099 1.5186656
000320 d3 48 26 be dc d0 bb bf 01 c2 3a bf 89 c1 1a 3f
       -0.16238718 -1.4673114 -0.72952276 0.6045156
000330 e4 4a 64 3f 84 4d 46 3e 7d 47 dc 3d e6 ac b9 3e
       0.89176774 0.19365507 0.10755823 0.36264724
000340 98 82 50 bf 3c a3 d5 3f f1 ff aa be f0 29 0b 40
       -0.8144927 1.669044 -0.33398393 2.1744347
000350 21 c6 a2 3f 2e 4b c7 3e f9 c3 aa bf a5 ca 98 3e
       1.2716714 0.38924545 -1.3341056 0.29842106
000360 c1 ac c6 be 08 cb 8a 3e bd 06 29 bf 09 96 0e 3f
       -0.38803676 0.27108026 -0.66025907 0.55697685
000370 c5 4b a7 bf d3 4f 53 40 67 a5 03 40 02 20 05 c0
       -1.3069998 3.301747 2.0569704 -2.0800786
000380 bf 86 65 bf 13 10 32 bd 0f 7a 15 c0 db 59 ae 3f
       -0.8965873 -0.04347236 -2.3355749 1.3621172
000390 7c bb 86 bf 2e 17 b4 be 7e 82 cc 3e 88 12 7a bf
       -1.0525966 -0.35173935 0.39943308 -0.97684526
0003a0 a1 2c e1 be 19 09 22 bf 65 ab 40 bf a1 2e c0 3e
       -0.43979362 -0.6329513 -0.7526153 0.37535575
0003b0 df 42 b0 bf 87 f0 6c bf fd 0b c7 be d5 b1 c4 bf
       -1.3770407 -0.92554516 -0.38876334 -1.536677
0003c0 27 85 8d bf b5 bd da 3e ba 37 c5 bf 6c 45 38 3d
       -1.105626 0.4272286 -1.5407631 0.04498808
0003d0 4e 74 b0 3e 84 b4 b7 3f aa 29 66 3f f3 b3 ad bf
       0.34463733 1.4351964 0.89907324 -1.3570541
0003e0 4a 8b 72 3f 09 2d 8a bf 6e 4b 8c be b6 33 a0 be
       0.9474379 -1.0794994 -0.27401298 -0.31289452
0003f0 cb 53 d3 3f 84 1a d9 be 43 32 ff bf 75 34 e8 3d
       1.6509947 -0.42403042 -1.9937214 0.113381304

embedding_Pair_distances.weight f4 [7, 8]
000000 42 ed 00 3f 2e 06 56 bf c2 88 6f 3f b8 64 3c 40
       0.50362027 -0.8360318 0.9356805 2.9436474
000010 25 e0 29 3f 3b 2d b3 3f 66 09 ad be b3 10 95 3e
       0.6635764 1.3998178 -0.33796233 0.29114303
000020 a0 a0 00 40 d4 aa 0e 40 4c db 53 3f 34 8a d2 bd
       2.0098038 2.2291765 0.82756495 -0.102802664
000030 58 26 be 3f dd 74 77 bf d6 9d cb 3f e5 33 23 40
       1.4855452 -0.96662694 1.5907543 2.5500424
000040 13 ae 38 bf e1 bf 66 bf d9 47 75 bf 3c c2 62 bd
       -0.72140616 -0.90136534 -0.95812756 -0.055361018
000050 1e c9 b5 bf 26 35 04 bf 3e 5f fe 3d f5 fa c7 bf
       -1.4202001 -0.516436 0.1242051 -1.5623461
000060 ea 79 d7 be 9e 52 cd 3e 1e 13 f3 bf 38 f3 5b be
       -0.420852 0.40102094 -1.8990209 -0.214795
000070 98 68 05 c0 04 41 f0 bf 57 39 77 bf 12 df fe be
       -2.084509 -1.8769841 -0.9657187 -0.49779564
000080 bb 30 85 3f 8f 00 98 3f 9f ed c7 be ac 69 01 c0
       1.0405496 1.187517 -0.39048478 -2.0220747
000090 7c 17 a6 bf ae 4d 38 be 9e 28 2e bf fc 27 8e bf
       -1.2975917 -0.17998382 -0.68030727 -1.1105952
0000a0 ad f1 4f bd 1c 70 d6 3e f6 1b 09 bf bb e6 39 3e
       -0.05076759 0.41882408 -0.5355829 0.18154423
0000b0 4d be b4 bf 45 2e 43 bf bc a9 d4 bf 02 09 0a bf
       -1.4120575 -0.76242477 -1.6614299 -0.53919995
0000c0 00 00 00 00 00 00 00 00 00 00 00 00 00 00 00 00
       0.0 0.0 0.0 0.0
0000d0 00 00 00 00 00 00 00 00 00 00 00 00 00 00 00 00
       0.0 0.0 0.0 0.0

embedding_Pair_prices.weight f4 [6, 5]
000000 c1 8e a0 3d 5d 2f df 3e 53 de c5 3e 68 0a 67 be
       0.07839728 0.43590823 0.38646182 -0.22562563
000010 e8 c9 99 3f c0 15 60 3f 12 d6 7c 3d 15 01 69 3f
       1.2014742 0.8753319 0.06172759 0.91017276
000020 4a 93 38 3f ab b9 55 3f 4d e4 1c be 5c e0 1e bf
       0.72099745 0.8348643 -0.15321465 -0.62061095
000030 af 48 25 bf bb 60 0c 40 0e 12 45 bf 66 c8 9c bf
       -0.6456403 2.193404 -0.76980674 -1.2248657
000040 bc a2 01 c0 10 22 f7 be 96 96 2a 3e 7e af ff 3f
       -2.0255575 -0.48268175 0.16659006 1.9975431
000050 26 d2 bd bc 56 19 b9 bf b4 89 a7 bd 1a e0 7d 3f
       -0.023171496 -1.4460857 -0.08180562 0.99170077
000060 55 e5 ae bd 00 00 00 00 00 00 00 00 00 00 00 00
       -0.08539835 0.0 0.0 0.0
000070 00 00 00 00 00 00 00 00
       0.0 0.0

Pair_shop_mlp.fc_layers.0.weight f4 [64, 32]
000000 23 7c 22 3d 3a 9e 15 bd ce 4e 22 3e 8f 2c 3c 3e
       0.039669167 -0.03652785 0.15850374 0.18376373
000010 f9 26 61 be ed 4f 3b 3d 6d 67 82 3d 2c 28 fe bd
       -0.21987523 0.04573052 0.06367383 -0.12410006
000020 1f b9 8f 3d 28 11 1c 3e 95 5b 1f be 02 f9 c2 3c
       0.07017731 0.1524092 -0.1556228 0.023800377
000030 d7 c0 0b be 8b 22 4c be ea 82 8c 3d 2f 97 88 3d
       -0.13647781 -0.19935052 0.068609074 0.06669461
000040 df 9c d9 3d 8b cb 40 3c 8c 29 06 bc bb 9d 94 3d
       0.10625624 0.011767278 -0.0081886165 0.07256647
000050 9a cc 51 3c 46 72 bf 3d 9f e0 65 3c 48 eb 77 3e
       0.0128051285 0.09347968 0.014030605 0.24210846
000060 93 b0 06 be 32 d6 b4 3c 99 40 9a 3c 9f 28 97 3d
       -0.13153295 0.022074793 0.01882963 0.07380795
000070 0c a4 c4 3d 62 bf 55 3d 6d 14 b9 bd 3f 76 42 be
       0.09601602 0.05218447 -0.09037099 -0.1899042
000080 1b ca 3c be ee cc d5 3d b7 cb a6 bd 83 8a 09 3e
       -0.18436472 0.10439478 -0.08144324 0.13431744
000090 31 2f af 3d 6c 90 60 3e 2f db 8e 3e b2 de 01 be
       0.08553923 0.21930093 0.279016 -0.12682608
0000a0 91 71 12 be 77 aa 88 bd 6b 2d d2 bd 72 45 42 3c
       -0.14301135 -0.066731386 -0.10262569 0.011857377
0000b0 b4 4d 06 bd d5 f5 2f bd d1 d9 e6 3c 8f 25 6c 3e
       -0.032788947 -0.042959053 0.028180035 0.23061202
0000c0 ba 03 43 3d ce 7d 29 be f0 80 db 3c c4 65 4b 3e
       0.047610976 -0.16551897 0.02679488 0.1986304
0000d0 37 b1 97 3d bf 3a b8 bd cd e2 f9 3a 4e 08 e9 3d
       0.07406848 -0.0899558 0.0019064784 0.11378537
0000e0 c5 bb d2 bd a9 29 a8 3d eb 55 57 bc 45 5a 27 be
       -0.102897204 0.08211071 -0.013143043 -0.16343029
0000f0 c1 c7 25 3e 63 53 a3 bd 7d df 48 3e ab e6 4f 3d
       0.16189481 -0.07974889 0.19616504 0.05075709
000100 2d b5 5f 3d 36 5d 4d 3d 5e c1 a9 bc d2 97 82 bd
       0.054616142 0.05013772 -0.020722087 -0.06376614
000110 29 b4 fe 3d e3 4a 03 3e cb f8 8b 3d c4 0c d8 3d
       0.124367066 0.12821536 0.06834563 0.1054931
000120 92 26 4d 3e bd b6 34 be 83 c8 ed bd 99 a6 01 3e
       0.20034245 -0.17647834 -0.1161051 0.12661208
000130 98 ad ae bd 95 bf 02 be 6c 08 3f bd b6 76 00 3e
       -0.08529204 -0.12768395 -0.04663889 0.12545285
000140 b8 70 2f be 5f fa 21 be 8c 08 06 3e 54 28 19 3e
       -0.17132843 -0.15818165 0.13089198 0.1495679
000150 98 e7 f2 bd ab 0e d5 3d 3e b5 62 3c cb 8d cf bc
       -0.11860579 0.10403188 0.013837157 -0.025336167
000160 60 d0 b4 bd 60 6f d4 3d f5 a1 ec 3d d9 25 fa bd
       -0.08828807 0.103728056 0.11554328 -0.1221425
000170 cd 79 05 3e 82 77 ea bd 7a 9a de 3d e4 aa 43 3d
       0.13034745 -0.114485756 0.10869308 0.047770396
000180 00 7c 98 bd 33 b3 d9 bd 2c 33 b6 bc 4b 80 e9 bc
       -0.07445526 -0.10629883 -0.022241198 -0.028503558
000190 17 44 87 3d e8 54 05 3e 78 dd 16 3e 1f 67 02 3d
       0.06604784 0.1302067 0.14732921 0.031836625
0001a0 ff 01 22 bd 7f 96 33 3e 0f 78 08 be 90 80 ce 3d
       -0.039552685 0.17537878 -0.13327049 0.10083115
0001b0 9d 43 f1 3d 8c a7 db 3d 44 23 39 be 0b f1 20 3e
       0.11780474 0.107253164 -0.18079859 0.1571695
0001c0 25 5b ba bd 19 f1 df 3d 97 c2 3c be ef 87 5f bd
       -0.09099416 0.109346576 -0.18433605 -0.054572996
0001d0 5c b4 ef 3d 7b c5 a5 bd 25 ad 9c bb bc 0a 17 3e
       0.11704323 -0.08094307 -0.0047813826 0.14750189
0001e0 96 2f 29 3e 9e 43 9a 3d c9 bf 26 3e b2 f6 9c 3d
       0.16522059 0.07532428 0.16284098 0.07664241
0001f0 fa 2e 45 be b3 61 d5 bc 2a cf 19 be f1 44 ae bd
       -0.19256201 -0.026047563 -0.15020433 -0.08509243
000200 2b a1 19 3d e7 79 99 3d 3b 6d 0e 3d 10 0f 1e 3e
       0.037507217 0.07493954 0.03477214 0.15435433
000210 80 81 a6 3c a8 b6 30 be e0 b8 48 3d 8e 40 dd bd
       0.020325422 -0.17257178 0.049004436 -0.108033285
000220 c3 5d 99 bd 13 c4 d7 bd b9 7b 56 3d 58 02 6b bd
       -0.07488587 -0.10535445 0.052364085 -0.057375282
000230 87 8e 67 bc 70 3f 05 be 95 9e 32 bd 8f 7c b1 3d
       -0.014133102 -0.1301248 -0.043608267 0.08666336
000240 34 48 01 be 93 ba e8 bd e1 cf bf bc 5c c9 48 bc
       -0.126252 -0.11363711 -0.023414554 -0.012255039
000250 e9 a8 09 3e af 70 72 3d 59 77 12 be 21 cb 65 3d
       0.1344334 0.059189495 -0.1430334 0.056101922
000260 0a 5b 32 be 5b 34 e6 bd d5 33 bd bd d8 32 b3 bd
       -0.17417541 -0.11240455 -0.09238402 -0.08749932
000270 47 f7 d0 3c 1f b6 19 be 7c ea 82 3d 31 98 08 be
       0.025508536 -0.1501088 0.063923806 -0.13339306
000280 1c 12 28 3d 13 a0 be 3d 56 b9 8e bd 6d 82 83 bb
       0.041032895 0.093078755 -0.06968944 -0.0040133507
000290 4f 1b a1 bb b4 17 b0 3d 85 4e 22 3e 3d e9 a4 3d
       -0.0049165855 0.08598271 0.15850265 0.08052299
0002a0 9d 75 39 be ef ca 47 be 10 50 a1 bb dc d8 f3 bd
       -0.18111272 -0.19511007 -0.0049228743 -0.11906597
0002b0 bf 78 4f 3d 5b 7e 58 be 24 42 f9 bd 0e f7 da 3c
       0.05065226 -0.21141951 -0.121708184 0.026729133
0002c0 1f 8d 82 3b c1 b7 2e 3e 0c 00 0f be 62 9d da 3d
       0.003984108 0.17062284 -0.13964862 0.1067455
0002d0 25 51 c3 bd 11 0d 14 3e 9f a5 08 3e ef 9a 11 be
       -0.095369615 0.1445811 0.1334443 -0.14219259
0002e0 da f2 39 3e 20 03 46 3e e5 5e a5 3d 2a d1 80 bd
       0.18159047 0.1933713 0.0807474 -0.06289895
0002f0 27 d4 bc bd a4 f1 12 3e 42 9a b1 3c 51 b8 32 be
       -0.09220152 0.14349991 0.021680001 -0.17453124
000300 f0 a2 72 3d 37 2c 2c be 23 01 d4 bd be 7b 3a bd
       0.05923742 -0.16813742 -0.10351779 -0.045528166
000310 3b b4 aa 3c aa ae 1e be 42 89 88 bd c6 18 01 be
       0.020837894 -0.15496317 -0.06666805 -0.12607107
000320 14 47 02 bd ef 93 3a be 1a e5 cd bc 3b 74 fb bd
       -0.031806067 -0.18220495 -0.025133658 -0.122780286
000330 73 21 c5 3d be f0 35 3d 55 07 8f bd a1 28 d7 3d
       0.096255206 0.044419043 -0.0698382 0.10505796
000340 d0 aa f9 bc 00 4a e9 3d 9e f8 81 bd 71 1d f8 3d
       -0.030476958 0.113910675 -0.06346248 0.121149905
000350 e8 92 0b 3d 9c 5f 1a be a2 55 a6 bd 1a 31 61 bd
       0.034075648 -0.15075535 -0.08121802 -0.054978468
000360 73 87 40 3e 28 f9 88 3c 33 22 d6 3d f1 25 3d be
       0.1880167 0.01672037 0.10455742 -0.18471505
000370 7d c1 30 be 32 72 53 bd 4b 71 e3 3d 77 bf 42 bd
       -0.1726131 -0.051622577 0.11105593 -0.047545876
000380 05 17 83 bc 4f d1 23 bd 36 1f 6e bd 68 42 cd bb
       -0.016002188 -0.039994534 -0.058135234 -0.0062640198
000390 f6 f1 19 3e 78 d3 68 3d 9c 1f c5 3d c4 30 d7 3d
       0.15033707 0.056842297 0.0962517 0.10507348
0003a0 86 11 ce bd 62 28 14 3d 1d b1 43 3d a6 d3 01 bd
       -0.10061936 0.036171325 0.04777633 -0.031695984
0003b0 23 76 26 3e cd 23 47 3e 11 da 0c 3d ce 43 f2 3d
       0.16256003 0.1944725 0.03438765 0.11829339
0003c0 11 03 2b be 4f 71 95 38 d0 98 4f bd 1c 0c 38 be
       -0.16700388 7.125979e-05 -0.050682843 -0.1797337
0003d0 b5 15 c4 bd 60 4f 2b 3d 27 51 26 be 6b a7 10 be
       -0.09574453 0.041823745 -0.16241895 -0.14126365
0003e0 f4 0c b9 3d fa e0 a7 3d a7 47 4b 3e 65 a1 cf 3d
       0.09035674 0.08197208 0.19851552 0.101382054
0003f0 16 e1 85 bc 29 68 50 3d db 37 ed bc 23 91 99 3d
       -0.01634268 0.050880585 -0.028957298 0.07498386

Pair_shop_mlp.fc_layers.0.bias f4 [64]
000000 57 61 38 3e dd 18 a1 bc fe c1 e3 bd 27 34 ad bd
       0.18005882 -0.019665176 -0.111209854 -0.08457213
000010 dc 89 c2 bd 7e f0 94 bc e1 c0 d3 3d 02 73 bd bd
       -0.09498951 -0.018181082 0.10339523 -0.092504516
000020 7c 25 e4 bd 4d 5f b7 3d 43 45 bf 3d a3 49 23 3e
       -0.11139962 0.08953724 0.093393825 0.15946059
000030 23 c2 cd bd 8b e8 ce 3d d9 bb ac 3d 8c 15 52 bd
       -0.10046794 0.10102948 0.084342666 -0.05129008
000040 d1 e1 de bd 29 23 ac bd dc b4 a7 bd 44 90 a5 3d
       -0.10882915 -0.08405144 -0.08188793 0.08084157
000050 bb 96 3d 3e 6f 7d 12 3e ec 91 bf bd d8 ae 62 bd
       0.1851453 0.14305662 -0.09354004 -0.055342525
000060 b9 e6 59 bd 30 04 b3 bd ea 84 d1 bc 57 b4 1a 3d
       -0.05319855 -0.08741033 -0.025576074 0.03776964
000070 91 d1 28 be 97 1a ec 3d aa 8e 48 3d 2f 8c e6 3c
       -0.16486193 0.11528509 0.04896418 0.028143017
000080 8b 7b 55 3d f9 b1 4a 3d aa 86 04 bd ea bd 7e bd
       0.052119773 0.049486134 -0.03235499 -0.062192835
000090 74 96 d8 bc bd fc e5 3d 19 b6 a0 bd b9 11 dc 3d
       -0.02643893 0.112298466 -0.07847232 0.10745568
0000a0 d8 ef b0 bc db bd 38 3d aa 60 9c 3d b9 f8 26 3e
       -0.021598741 0.045102935 0.07635625 0.16305818
0000b0 81 19 b5 3d 1c 24 1a bd 9d 20 3e 3e fb ed 5e bd
       0.08842755 -0.037632093 0.18567128 -0.054426175
0000c0 54 66 ac bd 33 71 ac bd 42 ed 6c bc 29 98 7a 3d
       -0.08417955 -0.084200285 -0.014460864 0.061180267
0000d0 f1 00 05 3e 22 f4 9f 3d b0 1e f2 bd d2 7a 92 bd
       0.1298864 0.078102365 -0.118222594 -0.07152332
0000e0 23 72 f3 3c a7 3e 11 be c3 57 1c 3d 27 47 35 3e
       0.02971751 -0.14184056 0.038169634 0.17702924
0000f0 77 27 e8 bd 97 7a 6b 3d 6e 67 19 be 33 c0 5c bd
       -0.11335652 0.057489958 -0.14980862 -0.053894233

Pair_shop_mlp.fc_layers.1.weight f4 [16, 64]
000000 8c 01 74 be 3b 33 13 bd c8 54 3f 3b aa 6a a1 3d
       -0.23828715 -0.03593753 0.002919482 0.07881673
000010 6c 52 4f 3d 8b 86 ad bc e0 0e d9 3d 25 4a b3 bd
       0.050615713 -0.02118232 0.1059854 -0.08754376
000020 e1 e7 14 bd 6d be ef bb 94 b4 11 bb 36 3e e5 3d
       -0.03635395 -0.0073164017 -0.0022232877 0.111935064
000030 42 04 b1 bd a0 a6 a6 bd 15 36 1c be e9 26 11 3e
       -0.0864339 -0.0813725 -0.15255006 0.14175
000040 f6 2b cd 3d 8f d4 12 3e 5b 3e 87 bc 4e fc a5 bc
       0.100181505 0.14338897 -0.016509226 -0.02026191
000050 4b 9e 1d 3e df 50 fa bc 78 36 9a 3d 7e db 2c 3d
       0.15392415 -0.03055614 0.0752992 0.04220151
000060 cd 66 c0 3b c1 96 ac 3d ea e7 18 be 98 cc 2f 3e
       0.00587163 0.084271915 -0.14932218 0.1716789
000070 50 cb 0e 3e 58 da b3 3d 88 ca c4 bd 23 ef 94 bd
       0.13944745 0.0878188 -0.09608942 -0.07272174
000080 6f ef 24 3e 25 e1 da bd 64 49 e4 3d d1 ea 07 3c
       0.16106962 -0.10687474 0.11146811 0.008295731
000090 80 b6 f4 3d 40 3c 55 3e cd 05 8f 3d ba 6e c5 3c
       0.119488716 0.20823765 0.06983528 0.02410065
0000a0 5c ca 3f 3d 74 05 93 3d 60 cf 3a 3d 6e 6c 88 bd
       0.046823844 0.071787745 0.045607924 -0.06661306
0000b0 bd 20 13 be 1f 0a 07 bd 11 d8 ca 3c 2e 30 d2 3d
       -0.14367957 -0.032968637 0.024761232 0.10263096
0000c0 cd 9b b7 3c ea 5d 27 3d 3a 3d 33 3e c4 08 45 3d
       0.022413159 0.040861048 0.17503825 0.048104063
0000d0 b7 11 cd 3d 42 8e 9c 3d 63 be fc bd 1d f9 6d bd
       0.100131445 0.07644321 -0.12341001 -0.0580989
0000e0 dd b2 e0 3d 77 52 d2 bd 11 77 51 3e c9 cd 45 3c
       0.109716155 -0.10269635 0.20455576 0.012072989
0000f0 79 37 1d 3d d1 77 78 bc a1 22 b5 3d 97 14 38 3c
       0.03838298 -0.015165285 0.088444956 0.011235378
000100 be 95 5a 3e 6b a9 71 bc 96 75 47 3c 6d 44 f0 3d
       0.21346185 -0.014749865 0.012174031 0.11731801
000110 2c 3a 38 bd 26 de ba 3d 07 81 db 3d 84 c0 a5 bd
       -0.044977352 0.09124403 0.107179694 -0.0809336
000120 84 6a a4 3d 60 c2 09 3d 0d 84 a8 3d 6a 25 d0 3d
       0.08028129 0.033632636 0.08228312 0.10163386
000130 a1 a1 a5 3d 92 b2 a5 3d ad 13 28 bd 5d df f9 3d
       0.08087469 0.080907 -0.04103439 0.12200806
000140 77 d8 8d 3c 00 bc 97 bd 45 05 fc 3d 9d ae 4b bd
       0.017315133 -0.07408905 0.123056926 -0.04972707
000150 05 e7 81 bc db 5f a2 bd dd a3 b5 3d 7d 0e b8 bd
       -0.015857229 -0.07928439 0.08869145 -0.089871384
000160 b9 88 31 3d 6a 2a 8f 3c 2a c8 74 bd f1 57 8a bb
       0.04334328 0.01747628 -0.059761204 -0.004221909
000170 f5 bb 6b bd 71 4d d7 3d 50 1b 55 3b b9 99 c0 3d
       -0.057552297 0.10512818 0.00325175 0.0940432
000180 c2 f5 2f bd 8f f9 5d bd 8f dd eb bd 25 93 8c 3d
       -0.042958982 -0.054193076 -0.11516868 0.06864003
000190 92 b3 96 3c d9 b4 95 bd 3f fc 63 bd c8 ae 91 3d
       0.018396173 -0.073098846 -0.055660482 0.07113415
0001a0 0a 82 82 bd a3 5f cb 3c e5 ec 04 3e c9 16 19 3e
       -0.06372459 0.024825877 0.12980993 0.14950098
0001b0 96 da f6 bc 99 1d 15 3c 31 27 ff 3d 8f 87 83 bc
       -0.030133527 0.009101295 0.12458647 -0.01605585
0001c0 84 72 19 be 8b 85 8d bc 9e 6c 49 3b af 2d 80 bb
       -0.1498509 -0.017275592 0.0030734907 -0.003911696
0001d0 e0 a0 05 bd 1f 5b 87 bc af 70 65 3d 99 7a 8b bd
       -0.032624125 -0.016522942 0.056015667 -0.06810493
0001e0 52 03 13 bc 63 34 de 3d 5a 1a ee bd 95 e2 09 3e
       -0.00897296 0.10849836 -0.1162612 0.1346534
0001f0 32 26 ce 3d 86 00 d7 bd 6a 11 a3 bd b7 d9 a6 3d
       0.10065879 -0.10498147 -0.07962306 0.081469946
000200 b6 06 54 3e 9a be 85 3d e6 0e a1 3d 85 41 91 3a
       0.20705685 0.06530495 0.0786417 0.0011082148
000210 64 24 e6 bd 16 11 60 3d 41 b0 15 bc 62 21 8c bd
       -0.1123741 0.054703794 -0.0091362605 -0.06842305
000220 9c bf 2e 3d 9f 2b d4 3d 16 92 32 3c 42 06 11 bd
       0.0426632 0.103598826 0.010899087 -0.03540636
000230 79 ed 22 bd 9b 55 03 3d be 6e 2c 3c 1d b3 89 bd
       -0.039777253 0.03206406 0.01052445 -0.06723616
000240 d5 d2 b1 bc 70 24 b1 3c 24 8d c7 3d c1 dd 0d 3e
       -0.021706978 0.02162382 0.09743717 0.13854124
000250 fb 91 44 3d 90 e3 94 3b e9 9d e5 bc 37 90 99 3d
       0.04799078 0.004543729 -0.028029399 0.0749821
000260 83 86 32 bc 9b 80 91 bd 89 d4 5b 3e 82 c2 54 bd
       -0.010896328 -0.07104608 0.21467794 -0.05194331
000270 9a f2 a2 bc 45 b0 26 3e 17 61 41 3e 33 70 d5 bd
       -0.019891072 0.16278179 0.18884693 -0.10421791
000280 f8 f3 a9 3d 25 60 8e 3c 3d d8 91 bd ba 4e 0c bd
       0.082984865 0.01737983 -0.07121322 -0.034254767
000290 a1 5b 8a bc 48 11 cd bd 69 31 18 3e 85 f9 c5 3d
       -0.016889395 -0.10013062 0.14862598 0.09666733
0002a0 6c 0d b5 3d d6 d9 c9 bc 0e 60 2f 3c b8 0c 11 bc
       0.08840451 -0.024640005 0.010704054 -0.00885313
0002b0 46 46 14 3e 89 85 9e 3c e7 ed 29 3d c7 36 cc bd
       0.14479932 0.019350784 0.041486647 -0.099713854
0002c0 4a 1e 13 be 7d 88 b0 3d 21 8f 2d be 2f 52 b1 bc
       -0.14367023 0.08619783 -0.1694913 -0.021645634
0002d0 be 05 08 be f5 b8 fa 3d 93 2f 2c 3d fa 6a cc 3d
       -0.1328344 0.12242309 0.042037558 0.09981342
0002e0 f3 86 a1 3c 3e 69 65 bd d6 83 78 3d 75 67 f1 bb
       0.01971767 -0.05600857 0.060672604 -0.0073670694
0002f0 11 64 84 3d ca 0e d0 3d 3c df ab bd a7 bf ab 3d
       0.06464399 0.10159071 -0.08392188 0.08386164
000300 0a 21 1a 3e 80 97 89 3d 66 3b 4f 3c 76 24 ca bd
       0.15051666 0.067183495 0.012648439 -0.098702356
000310 78 a6 3d 3d ea ca 95 bc 98 00 ee 3d d7 40 05 3e
       0.046301335 -0.018285234 0.11621207 0.13013016
000320 fe 60 02 3e 5d 33 42 3e 71 db 14 3e a6 7f 68 3c
       0.12732312 0.18964906 0.14536835 0.01419059
000330 f8 f2 21 3d d7 1b 86 bd f6 00 b0 3a 66 0b bd bd
       0.039538354 -0.06548279 0.0013428021 -0.0923069
000340 e6 ee 85 3d e0 6f 53 bd bf 26 1a 3d ac f0 07 3d
       0.06539707 -0.051620364 0.037634607 0.033188507
000350 5c 79 4b bd 34 77 ec 3d 35 b6 05 3e 8a 6e de 3d
       -0.049676284 0.11546174 0.13057788 0.108609274
000360 37 50 28 3e e9 d7 3f be 86 d3 51 3e 75 00 98 3d
       0.1643685 -0.18734707 0.20490846 0.07421962
000370 b4 79 1b 3d e3 f6 ea 3d 3b 98 23 3e db b8 16 3e
       0.037957862 0.11472871 0.1597604 0.14718954
000380 9f 2e a7 3d e0 ea 15 3d 8f 3a 10 3d ce 82 42 bd
       0.08163189 0.036600947 0.035212096 -0.047488026
000390 4d f3 e6 bd 3c 54 d1 bd 9a fe a0 bd 55 c4 b7 3a
       -0.11276875 -0.102211446 -0.078610614 0.0014020303
0003a0 f0 77 ae bb 1a b7 8a 3d 6f 94 91 3d c1 8c 6f 3b
       -0.0053243563 0.06773205 0.071083896 0.0036552402
0003b0 9d 4a 68 3d fb db c3 bc 69 66 0b bd 60 c8 56 3d
       0.05671178 -0.023908606 -0.034033213 0.052437186
0003c0 6b 41 6a be 60 29 f5 bd b9 82 40 be 49 59 b2 3d
       -0.22876517 -0.11970782 -0.18799867 0.08708436
0003d0 fc b0 eb bd 99 4c 6f bd 4a ee a9 bd 2d 19 76 3d
       -0.115083665 -0.05842266 -0.08297403 0.060082603
0003e0 24 7a cf 3d a1 52 65 bd 81 92 b9 3d 0d fa 0d 3e
       0.10130718 -0.055987004 0.090611465 0.13864918
0003f0 31 18 38 bd 60 9a 6c 3d 80 60 d7 3c d5 3d 14 3e
       -0.044944946 0.05776441 0.026291132 0.14476712

Pair_shop_mlp.fc_layers.1.bias f4 [16]
000000 4d 6d 14 bb 41 67 f9 3b 90 4e 09 3e 01 b6 22 3d
       -0.0022648156 0.007611186 0.13408875 0.039724354
000010 e4 1b ab bd f7 bb d4 3b 42 1a 89 3c 8f 16 aa bd
       -0.08354929 0.0064921337 0.016736154 -0.08305084
000020 bf 05 4d 3d dc 84 a7 bd 53 7b 55 bd 97 08 91 3d
       0.050054308 -0.08179638 -0.052119564 0.070817165
000030 58 fd cf 3d e9 36 7c 3c a2 9d b2 bd 4c de 0e 3e
       0.10155743 0.015393951 -0.08721472 0.13951987

Pair_score_mlp.fc_layers.0.weight f4 [64, 32]
000000 2a 1d 0d be 38 c9 cd bd a6 9e 23 3e 0f 38 28 bd
       -0.13780656 -0.10048145 0.15978488 -0.041069087
000010 bf 03 99 bd 30 47 bf bd d3 1f 55 3e 5c 3c 99 3c
       -0.07471418 -0.0933975 0.20812921 0.01870554
000020 3d 33 d3 bb ec 99 ea bd ba 66 47 bd 65 62 ce bd
       -0.006445317 -0.114551395 -0.048681952 -0.10077361
000030 df 24 05 be 6c 9c 0b be 74 33 8f 3d 02 a2 36 3c
       -0.13002346 -0.13633889 0.06992236 0.011147024
000040 fa 73 3d be 38 5c c1 bd ef 88 85 3e a4 62 84 bd
       -0.18501273 -0.094414175 0.26081035 -0.06464127
000050 35 79 e5 3d c0 7a 47 be 74 91 46 3d 0c 08 01 3e
       0.11204759 -0.19480419 0.04847856 0.12600726
000060 36 b0 20 be b8 24 86 bd 6e 96 26 3e 91 70 d2 bd
       -0.15692219 -0.06549972 0.16268322 -0.102753766
000070 b5 00 a6 3d ba ad 43 bd 54 5a 80 be 79 5d 95 be
       0.081056036 -0.0477731 -0.25068915 -0.29172876
000080 06 be 3a be 0a dd 8d bd ab 4f 4a 3e 05 93 40 3e
       -0.1823655 -0.069269255 0.19756953 0.18806084
000090 6b 36 b0 bd 8a 85 34 3e 25 79 30 3e 9e 36 eb bd
       -0.086041294 0.17629066 0.17233713 -0.11485027
0000a0 09 7f fa 3d d9 ea 47 bd ce 90 a5 bd d9 18 19 3d
       0.12231261 -0.048807953 -0.0808426 0.037377212
0000b0 cb 58 96 3d 0b 4e 2d bd eb 18 cd bd 49 f8 8b bc
       0.07341155 -0.042310756 -0.10014518 -0.017086165
0000c0 70 25 99 bd 61 57 e3 bd 40 96 51 3d 98 47 1e 3e
       -0.07477844 -0.111006506 0.05116868 0.15456998
0000d0 84 82 ec 3b 21 1d 01 be b4 1d 53 3d c6 74 ec bd
       0.007217707 -0.12608768 0.051542 -0.1154571
0000e0 37 fb 2e be 8a b6 35 3e fc ad 0b 3c 69 21 0e be
       -0.17088018 0.17745414 0.008525368 -0.13879932
0000f0 d0 3d 3d bd f8 7e ba bc 3d 1c 27 3e 32 de 92 3d
       -0.046201527 -0.022765622 0.16319366 0.07171287
000100 43 bc f7 bd 01 30 86 ba ce 57 46 bd f8 38 d0 bd
       -0.12096455 -0.0010237695 -0.04842358 -0.10167116
000110 75 b4 1e 3d d4 3f 5d bc 54 17 c8 3d 05 6a 02 bd
       0.038746316 -0.013503987 0.097700745 -0.03183939
000120 20 b0 05 3e d7 33 15 be 2e 74 a9 3c 7d cc 32 3e
       0.13055468 -0.14570557 0.020685282 0.17460819
000130 80 b9 dd 3c 04 5f 37 bd c0 50 b6 3d 81 de 83 3a
       0.027065992 -0.04476835 0.089021206 0.0010060818
000140 f9 89 8a be c9 25 14 3d 8b 02 14 3d 08 2b 6c 3e
       -0.2705839 0.036168847 0.036135238 0.2306329
000150 59 c8 5a 3e fd ad 8b 3d 38 0d 5a 3e 27 e8 86 3d
       0.21365489 0.06820295 0.21294105 0.06587248
000160 a5 2a 30 3e ec 35 89 bd 37 62 53 bd ea ec 52 bc
       0.17203768 -0.06699738 -0.051607337 -0.0128738675
000170 b2 5b 19 be c7 d5 ee bd e3 f2 b6 bd 61 9b ff 3d
       -0.14976385 -0.116618685 -0.08933046 0.12480808
000180 8f c3 28 be d4 be 02 3e 43 78 64 3e 6d de 2f 3d
       -0.1648085 0.12768108 0.22311501 0.04293673
000190 4a f1 30 3e f5 db 11 be 5e 34 ef bd 58 df 75 3d
       0.17279544 -0.14244063 -0.1167991 0.06002745
0001a0 33 9c 1d 3e 2f 75 ab 3d 2a 15 00 be 35 d4 3a 3e
       0.15391617 0.0837196 -0.12508073 0.18245013
0001b0 bf 6d ad bd a3 f0 89 3d 39 a5 b9 bd 5b a4 37 3e
       -0.08468198 0.06735351 -0.09064717 0.1793379
0001c0 a5 3f f7 3c 30 f8 de bd 4d 6c e0 3d 5e f1 9a 3d
       0.030181715 -0.10887182 0.10958157 0.075655684
0001d0 2a 92 f7 3c 61 db 86 3d 30 e7 05 3e 73 b3 61 bd
       0.030221064 0.06584812 0.13076472 -0.055102777
0001e0 6e 84 13 3e 0c 91 58 be e6 42 23 3d f5 ba 8e bd
       0.14405987 -0.21149081 0.03985872 -0.06969253
0001f0 e1 d1 24 3d 6d 47 49 3d 74 42 39 3e 11 8f 35 3d
       0.04023922 0.049140383 0.18091756 0.044325892
000200 60 58 48 be 70 3d a1 bc 90 54 b0 3c 4e 68 eb bd
       -0.19564962 -0.019682616 0.021524698 -0.11494504
000210 c4 22 0b 3e dc c1 1c bd 35 17 fe bd 3d c4 7e be
       0.13587481 -0.038270816 -0.1240677 -0.24879546
000220 19 5e 14 3e 61 83 85 bd 70 06 46 be 5b d4 3e be
       0.1448902 -0.06519199 -0.19338393 -0.18635695
000230 19 4a 30 bd 60 7c 57 3c f3 b6 01 be c5 dc 20 be
       -0.043039415 0.013152212 -0.12667446 -0.15709217
000240 97 8b 34 3e 1d 7a 3b 3e 15 ad ff bd 62 5a e8 bd
       0.17631374 0.18308301 -0.12484185 -0.11345364
000250 54 68 b7 bd 4c 56 ca 3d 5b ae 53 3c 3f 12 51 ba
       -0.08955446 0.09879741 0.012919988 -0.0007975436
000260 3e 2a 50 be 47 43 a5 3d 4a bf 01 bd 69 6a 6a 3e
       -0.20328614 0.08069473 -0.031676568 0.22892155
000270 8c 3e e5 bc 19 10 02 be 4f 0d 3d 3d f6 17 13 be
       -0.027983926 -0.12701453 0.04615527 -0.14364609
000280 88 c9 f6 bd 31 75 15 3d bd 1f 13 3e e9 c1 95 3d
       -0.12050158 0.036488716 0.14367576 0.07312376
000290 03 05 c9 3d 87 05 0e 3e 56 df c2 bd 33 81 df bd
       0.09815409 0.13869296 -0.09515254 -0.10913315
0002a0 24 95 c1 bd 32 ba 63 3b a5 92 38 3e 16 d0 84 3d
       -0.094522744 0.0034748432 0.1802469 0.06485002
0002b0 0b 1e c3 3b 00 82 c2 3d 95 ff 21 be a0 3a 86 bd
       0.005954509 0.09497452 -0.15820153 -0.065541506
0002c0 f9 f4 2f 3e b4 43 25 3e 5e 0d b6 3d 64 b8 e2 bb
       0.17183293 0.16139108 0.08889268 -0.0069189537
0002d0 d6 66 f8 3d 1c 67 08 be c8 28 cc 3c 15 97 c0 3d
       0.121289894 -0.13320583 0.02492179 0.094038166
0002e0 cb 90 94 3d fe c6 8f 3d f7 14 50 3e 61 ae 3a be
       0.072541796 0.070203766 0.20320497 -0.18230583
0002f0 36 47 27 3e d9 29 10 be f4 e8 21 3e bf 2e 82 bd
       0.16335759 -0.14078464 0.15811521 -0.06356572
000300 7b 91 00 be 9d ad 57 3e 8d fc 53 bd 58 2f 82 bd
       -0.12555496 0.21062322 -0.051754523 -0.06356686
000310 7f a0 17 be d7 41 af bd 48 5b 0a 3d 20 c7 08 3e
       -0.14807318 -0.0855748 0.03377846 0.1335721
000320 f6 3f 97 3b 28 6d a7 3d 4c 17 be bd 3c 66 19 3e
       0.004615779 0.08175117 -0.09281787 0.14980406
000330 bc a3 35 bd d3 ec ca bd a4 17 0b 3e 01 16 ce 3c
       -0.044345602 -0.09908452 0.13583237 0.025156977
000340 91 fc d6 bb a6 27 07 3e 44 a2 c1 bd 55 1c 16 bc
       -0.00656087 0.13198718 -0.09454778 -0.009162028
000350 d9 2f 7d bd fc 6b 8a 3d fe f4 3d 3e 17 7a 2a 3e
       -0.06181321 0.06758878 0.18550488 0.16648136
000360 c9 05 a4 3d ae 25 60 bd b1 2f 48 3d 52 db 5b 3e
       0.08008916 -0.054723434 0.048873607 0.21470383
000370 f5 bc f1 bd c9 0a fb 3d e0 dc 1a 3e 56 81 12 be
       -0.11803619 0.122579165 0.1512332 -0.1430715
000380 bd 5b 49 3c 56 f3 8e bd 05 d1 51 3e 9e 95 0a 3e
       0.0122899385 -0.069800064 0.20489891 0.13533637
000390 f2 05 0b 3d 9f f1 9c 3c 4b 3a b1 bd e9 75 b5 bd
       0.033941217 0.019158183 -0.086536966 -0.0886038
0003a0 15 0d 3c 3e c7 4c 79 3e 6f 1e 53 be 6d b2 f9 bd
       0.18364365 0.24345694 -0.20617078 -0.12192235
0003b0 ca bc 86 3d 8e a8 5c bd e1 f7 d5 bd 05 60 00 3e
       0.065789774 -0.053871684 -0.1044767 0.12536629
0003c0 5d 42 48 be 46 31 05 be d8 e7 cb 3c 56 b0 94 bc
       -0.19556566 -0.13007078 0.024890825 -0.01815049
0003d0 c0 a4 8e bd 42 0b 75 3e b0 7e 54 3d 2a 35 78 bb
       -0.06965017 0.23930076 0.05187863 -0.0037873485
0003e0 da ce 9d 3a 78 6e e8 bd b6 70 c0 bd 8b 33 fb bd
       0.0012039796 -0.11349195 -0.09396498 -0.122656904
0003f0 13 b2 dd bd 53 90 99 bd b9 e8 33 3e b7 0c 90 3d
       -0.108249806 -0.07498231 0.17569245 0.07033675

Pair_score_mlp.fc_layers.0.bias f4 [64]
000000 19 a9 7c 3d 9f 62 49 bd c2 cd 0a be b0 f8 ca bd
       0.0616847 -0.049166318 -0.13555053 -0.099107146
000010 8e 16 29 3e e2 7d 25 3e be d1 cb bd 66 1b cb bd
       0.1651251 0.16161302 -0.099521145 -0.09917335
000020 46 47 89 bd 81 51 b2 bd 63 92 1e 3e d1 9b 75 3c
       -0.067030475 -0.08706952 0.1548553 0.014990763
000030 b7 33 2e 3d 0d a7 d6 3d 3f 6a 81 bd 9c 3c 2c 3d
       0.042529788 0.10481081 -0.06319093 0.04204999
000040 91 3e 3e 3e a6 1c 92 bd f5 96 d3 3d 12 1b 93 3d
       0.18578555 -0.071343705 0.10331527 0.071828976
000050 58 9e 9f bd 9c 0c f6 bc 21 6e 8f 3d 91 d3 4a bd
       -0.077938735 -0.03003531 0.07003427 -0.04951817
000060 06 ed d7 3d 44 f5 31 bd d9 c8 9d bb cd da da 3d
       0.105432555 -0.043446794 -0.0048152027 0.10686264
000070 cb 29 21 3e 9e ac 15 bd e7 b8 a2 bd be 1a 1d 3e
       0.15738599 -0.036541574 -0.079454236 0.15342233
000080 18 08 a4 3d 8f ff 19 be fc 69 58 3c 79 f3 6b 3e
       0.08009356 -0.15038894 0.013208862 0.23042096
000090 23 21 2b 3e d1 f0 13 3e 84 34 ad bd c7 33 27 bd
       0.1671186 0.14447333 -0.08457282 -0.040820863
0000a0 3b c1 e2 bd 67 6c c9 3d 23 fe 1b be 31 2d fb bd
       -0.11072012 0.09835129 -0.15233664 -0.12264479
0000b0 07 62 b7 3a 7e e1 01 3e 23 75 1c bd f0 7d c6 bd
       0.0013991006 0.12683675 -0.038197648 -0.096919894
0000c0 0f 77 6a bd 4b 2a 8f bd 24 ab 25 3d e3 46 96 bd
       -0.05724245 -0.069904886 0.040446416 -0.07337739
0000d0 8b 8c 35 bd d4 ce f0 bd a2 63 70 bd bd 14 0f 3e
       -0.044323485 -0.11758199 -0.058688767 0.13972755
0000e0 6d 5b cc bc 0a 48 e1 3d 0c be f6 3d 31 6e f6 3d
       -0.024945939 0.110000685 0.12047967 0.12032736
0000f0 53 e8 9d 3d fc 24 2c 3e 20 8f cc 3d 12 37 8c bd
       0.07710328 0.16810983 0.099882364 -0.06846441

Pair_score_mlp.fc_layers.1.weight f4 [8, 64]
000000 65 8e db 3d 28 b0 fc 3d 13 84 04 3e 8d e9 88 3d
       0.10720519 0.12338287 0.12941007 0.06685171
000010 3c de 47 3e c3 8c 1a 3e 39 f2 67 3d 61 de e3 3d
       0.1951837 0.15092759 0.056627486 0.111264
000020 38 b5 0b 3e e2 22 16 3e 13 88 df bd 64 f8 09 3d
       0.13643348 0.14661744 -0.10914626 0.03368415
000030 c6 65 02 3d 9d b1 15 be 57 c8 c5 bc 29 49 9c bb
       0.03183534 -0.14618535 -0.024143381 -0.0047694636
000040 aa 64 f8 3d 03 06 4e 3c e7 a5 20 bd 0c 47 65 3d
       0.12128575 0.0125746755 -0.039220717 0.05597596
000050 75 bd 0a 3e 94 34 c5 bc 3d 87 c3 3d 08 d0 9c 3c
       0.13548835 -0.024072923 0.09547279 0.019142166
000060 34 65 d6 3d 20 5a 16 3e 3f 74 23 3e 5c 71 35 3d
       0.10468522 0.14682817 0.15962313 0.04429756
000070 49 01 31 bd 74 a3 05 bd 2b 8f eb 3d 34 3a 23 3c
       -0.043214116 -0.032626584 0.115019165 0.009962607
000080 a0 71 eb 3c 34 19 e7 3d 71 de e8 3d 3e 3a d6 3a
       0.028740704 0.11284104 0.11370552 0.0016344262
000090 92 d2 34 3e f8 51 20 3d 84 3d 61 3d 73 b8 d0 3d
       0.17658451 0.03914067 0.054990306 0.10191431
0000a0 03 d1 0c bd 08 73 2a 3d 0e 1a c2 bc 16 c7 a1 3d
       -0.034379017 0.04161361 -0.023694064 0.07899301
0000b0 1a 02 3d be e9 fd ca 3d 45 5a 13 3e 51 9c de 3d
       -0.18457833 0.09911711 0.14389904 0.10869659
0000c0 ef 30 d8 bd 6d 96 ac 3d af 9b c5 bd 28 71 b6 3d
       -0.10556208 0.08427129 -0.09648835 0.089083016
0000d0 73 fa 76 3e 14 05 ac 3c 8c 36 9f 3d 9d 12 ac bd
       0.24118976 0.020998515 0.07774076 -0.08401988
0000e0 2a 69 3d 3d 69 40 ab bd 64 48 7b bd 5f 0f d6 3d
       0.04624287 -0.08361895 -0.061348334 0.104521506
0000f0 ff 75 16 bb e7 d9 a6 3d ac f0 80 bd 4b 40 31 3e
       -0.0022958515 0.0814703 -0.062959045 0.17309682
000100 e1 ea dc bd 05 96 e1 3d 66 e4 e8 bd 4d 80 0d be
       -0.10786987 0.11014942 -0.113716885 -0.13818474
000110 d8 dc d4 bd c5 e4 68 bd ea c3 88 bc e2 76 95 bd
       -0.10393685 -0.056858797 -0.016694982 -0.07298066
000120 c7 7e 89 bd 6c 5f b5 3c 72 a7 33 be 03 70 0d 3c
       -0.06713634 0.022140227 -0.17544344 0.008632663
000130 eb a3 33 be 24 41 36 3e 56 3d 35 be 1d 6b 2b be
       -0.17542998 0.17798287 -0.17699179 -0.16740079
000140 61 d8 97 bb f2 05 31 3d 66 de 5d bd b6 36 bf 3c
       -0.0046339487 0.04321856 -0.054167174 0.023341518
000150 08 55 07 be a8 05 ea bd 84 93 33 bd 45 f6 8d 3d
       -0.1321603 -0.1142686 -0.043841854 0.06931738
000160 59 ff a2 bd d9 f7 d3 bd 30 ea f4 3d bc fe e2 bc
       -0.0795886 -0.103500076 0.1195873 -0.027709357
000170 06 bb c4 bd ff 09 95 3d aa 60 e6 3d ea f4 e3 bb
       -0.096059844 0.07277297 0.11248906 -0.0069566863
000180 c6 2e 7e bd 69 b0 02 be 64 e3 65 3d 1e b0 e3 3d
       -0.062056325 -0.12762608 0.05612506 0.11117576
000190 a1 fb bb bd cd b4 95 3d 28 0e 1e 3d f9 4f 61 3d
       -0.09178854 0.07309876 0.03858772 0.05500791
0001a0 e7 2a ca bd e9 bc 17 bd 67 1c 94 bd a2 66 eb bd
       -0.09871464 -0.037045393 -0.0723198 -0.11494185
0001b0 d4 e8 45 3e 88 72 06 3e f7 c7 a7 bd f3 b2 9c bd
       0.19327098 0.13129628 -0.08192437 -0.07651319
0001c0 1b 04 37 3d ee 97 fa bd 5c 58 e7 3d ab fb da bd
       0.04468165 -0.122360095 0.1129615 -0.10692533
0001d0 49 d2 34 ba b6 65 14 be 78 f5 0b be f6 3d 57 3e
       -0.000689779 -0.14491925 -0.13667858 0.2101973
0001e0 23 42 e7 3c 16 a2 d9 bd 5b 37 1f bd 9b e8 86 bd
       0.028229779 -0.106266186 -0.03887115 -0.06587335
0001f0 3c f7 23 3e a4 af b3 3d 04 da 5e 3d 7c b1 53 3d
       0.16012281 0.08773735 0.054407135 0.051682934
000200 ee 1d b9 3d de 57 e0 3d 58 9c 66 3e 22 b9 2a 3e
       0.09038912 0.10954259 0.22520578 0.16672185
000210 53 40 04 3d c6 91 9a 3d 41 34 42 3e bf 4b 73 3c
       0.032287907 0.07547335 0.18965246 0.014849602
000220 46 9b 39 3e 8b c5 23 3d f5 58 b5 3d 0e f8 43 bc
       0.18125638 0.039983314 0.08854858 -0.011960996
000230 15 28 c0 bc 85 ef 55 be 37 b8 82 3d 71 09 8a 3d
       -0.023456613 -0.2089215 0.063827924 0.06740082
000240 3a 51 81 3e 15 04 1c 3e 07 cf 02 3e a2 24 1b 3d
       0.25257283 0.15235932 0.12774287 0.037876733
000250 db fe de 3d 6e 5f 38 bd f4 f6 ee 3d 16 64 89 3d
       0.108884536 -0.045012884 0.11668196 0.06708543
000260 fb 5d 5e 3d b4 b3 47 3d 13 8b f1 3d 95 26 65 3e
       0.054288846 0.048755363 0.117941044 0.22377999
000270 73 e9 f5 bb 74 03 0f 3e ca 1a 8c 3d f0 23 52 3e
       -0.007504636 0.13966161 0.06841047 0.20521522
000280 da 67 d2 3d d9 60 c5 3c 5b 2b dc 3d 17 10 f1 bc
       0.10273714 0.024094032 0.10750457 -0.029426618
000290 aa ec 2f 3e de 0e 0a 3c 45 d2 f3 bd 76 1a 1e 3e
       0.17180124 0.008426396 -0.1190534 0.15439782
0002a0 da 5b 65 bd 58 17 d1 3d 8c 81 e9 3d fb 37 22 3e
       -0.0559958 0.102095306 0.11401662 0.15841667
0002b0 b6 86 86 bd fc a5 09 3e 14 5c c3 3d 74 e0 4a bc
       -0.06568663 0.13442224 0.09539047 -0.012382615
0002c0 e0 77 17 3e 91 66 0e bd a6 15 28 3e 46 68 93 bc
       0.14791822 -0.034765784 0.16414508 -0.017994057
0002d0 0c 8d 90 3d 7d 70 c4 bd 04 5a a7 3d 53 b7 64 bc
       0.070581526 -0.09591768 0.08171466 -0.0139597235
0002e0 70 fa 1d bd fc 9c c4 3c d5 ec c6 3d 1d f3 62 3e
       -0.038568914 0.024000637 0.09713141 0.22163053
0002f0 05 20 d5 3d 05 f6 40 3c 97 68 cb 3d b0 29 8a 3e
       0.10406498 0.011777406 0.09932058 0.2698493
000300 c7 37 4f bd 27 ab 9f 3d 4e 16 67 3d 46 e9 ca 3b
       -0.050590303 0.077963166 0.056417756 0.006192359
000310 2d ac 68 3c fc 30 cc bd ff 7d 37 3c fa c6 98 3c
       0.014201206 -0.099702805 0.011199473 0.018649567
000320 61 0b 1d be 0b 5f 08 bc b0 0c 88 3d db fd d6 3c
       -0.15336372 -0.008323441 0.06643045 0.026244095
000330 49 44 c3 bc ab f9 c3 3d 4f 12 dc bd 7b 4d 15 be
       -0.023836272 0.09569105 -0.107456796 -0.14580338
000340 4f 1c 79 bd 55 90 c0 bd dd 73 48 3b 13 85 5c bd
       -0.060818013 -0.09402529 0.0030586638 -0.053837847
000350 2f eb 96 bd d4 70 0e bc 7c f3 70 3d 39 9b aa 3d
       -0.073690765 -0.0086938925 0.058825955 0.083303876
000360 a6 a4 fd 3d 2b a0 42 3b c2 3b 27 bd f4 bc fc 3d
       0.1238492 0.0029697518 -0.040828474 0.123407274
000370 6c 43 5d bd 4e 61 89 3d d7 56 8a 3d 40 bc b1 bd
       -0.054019377 0.067080125 0.06754845 -0.08678484
000380 db 06 37 bd f3 e1 de bd d8 eb b4 bc 1b ca 6c bc
       -0.044684272 -0.1088294 -0.022085115 -0.014452483
000390 ff 01 12 3e 89 57 2a be e4 9a 43 bc aa cd 8a 3c
       0.14258574 -0.16634955 -0.011938784 0.016943771
0003a0 d7 d7 8a bb a6 c1 9b 3d 37 ff a4 bd f2 a3 ef 3c
       -0.004237156 0.07605295 -0.08056491 0.02925298
0003b0 c3 e9 1b bd ba d6 e3 bd 51 89 01 be 4f ed 90 bd
       -0.03806473 -0.1112494 -0.12650038 -0.07076513
0003c0 cc 05 cd 3d 03 1d 12 be 35 52 0b bc 76 3c ca bd
       0.10010871 -0.1426888 -0.008503486 -0.09874813
0003d0 bf 25 2f 3d b8 b4 c3 bd fb ab cb 3a 7c 88 17 3e
       0.042760607 -0.09555954 0.0015538925 0.14798158
0003e0 fa 50 ce bd 30 d1 e9 3c d1 e3 d5 3d 20 6c b4 3d
       -0.10074039 0.028542131 0.10443843 0.08809686
0003f0 39 ea 52 bd 8f 79 eb bd 5e 96 30 3d b7 57 ec 3b
       -0.051492903 -0.11497795 0.04311215 0.007212605

Pair_score_mlp.fc_layers.1.bias f4 [8]
000000 87 76 bd 39 4e 3b d1 3d aa 55 b0 bd b4 36 80 3d
       0.000361372 0.102163896 -0.08610089 0.06260434
000010 bb a8 0d 3e 6d f6 f3 3d 49 7e 74 bd c5 16 7c bd
       0.13833897 0.11912236 -0.059690747 -0.061545152

CNN_embedding_types.weight f4 [106, 16]
000000 53 31 14 3e f5 92 46 bf f1 cf fc be b2 de 73 3f
       0.1447194 -0.7756799 -0.49377397 0.9526168
000010 39 9b d0 be 02 8c 5a bc eb 74 e2 3f 05 a0 39 c0
       -0.40743425 -0.0133390445 1.769193 -2.9003918
000020 15 51 fc 3d 6c a1 5d bf e7 f5 08 bf 9c da 89 3f
       0.12320153 -0.86574435 -0.5350022 1.0769839
000030 ef 8e f8 3e ba 84 ca 3e 1c 5e 3c 3f 04 11 44 bf
       0.4854655 0.39554387 0.735811 -0.76588464
000040 46 1c 08 bd 67 94 f6 bf 6a 36 2a 3f 97 0b 3b bf
       -0.03323009 -1.9264039 0.6648928 -0.7306456
000050 46 69 ea 3e 44 19 27 bf 18 2d d4 3e 60 a8 81 be
       0.45783442 -0.6527293 0.41440654 -0.25323772
000060 ea 84 1e bd 1c 8b 67 bf 2f 79 ad bf dd b3 f2 3e
       -0.038700975 -0.9044664 -1.3552607 0.4740285
000070 ea d8 82 3f 99 83 da 3e dc 08 b9 be 0c 0d 02 be
       1.0222447 0.42678526 -0.36139572 -0.1270029
000080 64 bd 0e bf 45 8d d5 3f 49 d9 1f 3f 1e 70 bd be
       -0.5575774 1.6683737 0.62440926 -0.369996
000090 95 56 9e bc 5b 48 8b 3f 57 4e e1 3e a3 90 84 bf
       -0.019328395 1.0881456 0.4400508 -1.035664
0000a0 26 13 07 40 29 77 c6 bf 23 e7 88 bf c1 0f 16 3f
       2.1105437 -1.5505115 -1.0695537 0.5861779
0000b0 c4 8f 8b bd bd a1 e1 3d 88 13 02 bf 4a 34 a2 3f
       -0.068145305 0.11017177 -0.5081105 1.2672207
0000c0 95 3a 9b be 5d 25 1b bf 7e 64 9f be bc a0 8f 3d
       -0.30318132 -0.60603887 -0.31131357 0.070130795
0000d0 52 fe e7 be f4 d9 05 40 6f a9 9c bd a3 61 9f 3f
       -0.45311219 2.0914278 -0.076495044 1.2451671
0000e0 e5 8e ae bf 9f ee 44 bf da 21 aa 3e ae 21 92 3f
       -1.3637358 -0.76926607 0.33228952 1.1416528
0000f0 d6 b5 c3 3d ec 68 08 c0 e1 59 0c 3f 83 a2 6f 3f
       0.09556167 -2.131404 0.54824644 0.9360735
000100 a4 3f f4 3f 90 27 76 3f 19 9f 0d 3f 04 97 71 3f
       1.9081922 0.9615412 0.5532089 0.94371057
000110 0b d5 ae 3e f5 fe 13 bd 4d bb bf 3f 62 f2 46 bf
       0.34146914 -0.036131818 1.4979035 -0.77713597
000120 84 d1 48 3f 52 7e 3a bd 1d cc 26 be 7c 58 ab 3f
       0.78444695 -0.045530625 -0.162888 1.3386378
000130 21 b6 26 be cb 93 83 be c7 17 56 3d 93 f6 c7 be
       -0.16280414 -0.25698695 0.05226877 -0.3905531
000140 3b e2 6b 3e 18 9b 88 3e 4b 90 8c 3f 9d 96 9f bf
       0.23035519 0.26680827 1.0981535 -1.2467839
000150 9b 92 75 bf 5a 47 e7 bf 61 7b 3a 3c c8 e0 e1 bd
       -0.9592683 -1.806865 0.011381955 -0.11029202
000160 6f bd a0 bf 8c 85 22 3f 58 4d 9e 3e cd a2 36 40
       -1.255781 0.63485026 0.30918384 2.8536866
000170 44 72 9b bf 62 13 5b be 26 df 06 bf f1 fb 32 3e
       -1.2144246 -0.21394113 -0.5268425 0.1747892
000180 84 b8 04 3f 58 d5 c1 be ef db 66 be aa 67 c8 bf
       0.5184405 -0.3785808 -0.22544836 -1.5656636
000190 e5 71 f4 3e ac e3 87 bf 19 cc e3 3f 75 78 0c bf
       0.47743145 -1.0616355 1.7796661 -0.548713
0001a0 fe 86 ad 3e 68 37 47 3f 4e 46 f7 3b 63 71 15 bf
       0.33892053 0.7781892 0.007546223 -0.5837614
0001b0 74 51 6a bf 67 8b 57 bd 7a cf e4 3f 83 64 93 3f
       -0.9153054 -0.05262318 1.7875817 1.1515049
0001c0 f1 23 c7 3d 39 4b cc 3f bf a9 1a bf a8 74 b4 3f
       0.09723652 1.5960456 -0.6041526 1.4098101
0001d0 73 c5 f1 3d d3 3a 34 3f c7 95 09 bf 44 76 3c bf
       0.118052386 0.7040226 -0.5374417 -0.7361796
0001e0 17 0f 0c 3f 1d d8 f3 3f e3 e4 cf 3d e4 ea e6 3e
       0.54710525 1.9050328 0.101510786 0.45101082
0001f0 d9 01 cd 3e fa aa 7f bf cd 37 1b 3e da 77 21 bf
       0.40040472 -0.99870265 0.15158005 -0.63073504
000200 c8 88 36 40 03 4c f3 bd d2 10 c5 3e e5 eb 79 3f
       2.8520985 -0.118797325 0.38489395 0.9762557
000210 aa 02 ac bf f8 8a 55 bf bd 59 06 be ec 76 c2 bd
       -1.3438313 -0.83415174 -0.1312017 -0.09495339
000220 7d 43 38 be 3e 5a 8e bf ed 8a ea 3e ad ad 5f be
       -0.17994495 -1.112129 0.45809117 -0.21843596
000230 86 57 0e 3f 09 d7 df bd b1 b5 ff 3f d2 92 03 3e
       0.556023 -0.109296866 1.9977323 0.12848976
000240 f2 00 e0 3c 2a e4 1a 3e 16 48 54 bf 40 95 01 40
       0.0273442 0.151261 -0.82922494 2.0247345
000250 c2 86 79 3e 2a 23 9a 3d 2d 50 90 be b9 bb 9b 3d
       0.24367812 0.07526238 -0.2818617 0.07604165
000260 a6 73 d0 3e 61 8f 81 be 06 de cf 3e 49 80 45 3f
       0.40713233 -0.25304702 0.40599078 0.7714887
000270 ed e5 6c be 06 a6 8d bf 0a 10 94 3d f0 fc 5d bf
       -0.23134585 -1.1066291 0.07229622 -0.86714077
000280 87 c5 96 bf 34 da 0a 3f 45 92 4d be c9 95 18 bf
       -1.177903 0.542392 -0.20075329 -0.59603554
000290 f4 d2 eb 3e 36 ec 9d 3f 50 51 9e 3e fe 11 1b 3f
       0.46059382 1.2337711 0.30921412 0.6057433
0002a0 76 73 19 3f 20 07 9c be 7f 51 9d be 89 34 d2 3f
       0.59941804 -0.30474186 -0.3072624 1.6422282
0002b0 e1 8a 85 3f 04 e6 bd bf c4 b4 24 3f d2 ef e5 3f
       1.0433007 -1.483582 0.64338326 1.7963812
0002c0 8e 29 b3 3c 84 66 f3 bf 09 6c e5 bd be d3 ba 3e
       0.0218704 -1.901566 -0.11202247 0.3648967
0002d0 38 ff a6 bf 27 3a ca bc 1a 1c a7 bf f2 b2 68 be
       -1.3046637 -0.024685932 -1.3055451 -0.22724512
0002e0 3b c6 d9 bd 95 03 8c bf ec 47 92 be 3d 39 db 3f
       -0.106335126 -1.0938593 -0.28570497 1.7126843
0002f0 e4 bf a2 3f 83 c5 81 3f 2c 8a 3d bf 79 2a 84 3e
       1.271481 1.0138401 -0.7403896 0.25813654
000300 d0 92 67 bf 18 9f 13 40 e9 71 4b bf a3 e3 df 3f
       -0.90458393 2.3065853 -0.7947069 1.7491344
000310 ba 7c a6 bd 84 7c 3c be 6d 35 97 bf 6d 48 dd 3e
       -0.081292585 -0.18406874 -1.1813179 0.4321932
000320 e2 9a a3 3f 78 49 45 bf 58 81 dc 3f 3e 3e 62 be
       1.2781641 -0.7706523 1.7226973 -0.22094056
000330 f8 5f 5c 3f fe b0 e8 3f 5f 08 2f 3f 6e 50 85 be
       0.86083937 1.8179014 0.6837215 -0.26037925
000340 a8 f6 f4 3f ef 81 92 3f d3 48 b1 3f 18 62 93 bf
       1.9137774 1.1445903 1.3850349 -1.1514311
000350 23 71 02 3e 7b 3f 5d 3f 13 29 58 3f 46 88 cc bf
       0.1273847 0.8642499 0.84437674 -1.5979087
000360 6a a3 74 3f b9 68 b2 bf 9c 87 7e 3d 88 d4 82 bf
       0.9556185 -1.3938209 0.062141046 -1.0221109
000370 52 1b 0c bf bd 52 8c 3f 7e 9b fd 3d 90 07 cc 3e
       -0.5472919 1.096275 0.123831734 0.3984952
000380 6c 5c a8 3c a3 8a 89 bf 88 e1 88 3d e4 d6 2f 40
       0.020551883 -1.0745434 0.06683642 2.747491
000390 27 b3 56 40 46 1a db 3f 7d af ab bf bc 3b 4a be
       3.3546846 1.7117393 -1.341293 -0.1974935
0003a0 99 37 7a bf 3e 2d 48 3d c2 f5 59 bf b8 c3 19 bf
       -0.97741085 0.04887127 -0.8514062 -0.6006427
0003b0 6d 29 6c bf f2 b1 11 3e 76 b1 fe be 44 0f a5 be
       -0.9225071 0.14228037 -0.49744767 -0.3223821
0003c0 3f 9f ee bf db c8 db 3e b0 58 1d 3f ba 6d 3b 3e
       -1.8642348 0.42926678 0.6146345 0.18303576
0003d0 99 c3 ca 3d ec 41 0b bf 52 10 44 3f b6 ce b0 bf
       0.099005885 -0.54397464 0.765874 -1.3813083
0003e0 c5 48 85 3e ce ad 29 3f ae 5e 3a 3f 30 f0 15 3f
       0.2603208 0.6628083 0.7280072 0.5856962
0003f0 d4 02 74 3e 5b cb a9 3c 17 00 4f bf 50 8c 5b 3f
       0.23829204 0.02072685 -0.8085951 0.85760975

embedding_CNN_distances.weight f4 [7, 8]
000000 d7 2b 85 3f 9e 21 93 bf 5f 35 47 3e 70 f4 b8 3e
       1.0404004 -1.1494634 0.19453953 0.3612399
000010 f6 47 70 3f e4 7f 07 bf ff 0b 3c 3f ea 53 9e 3f
       0.93859804 -0.5292952 0.73455805 1.2369359
000020 84 6e 37 bf 02 1b 37 3f ba 5e 37 c0 6e 64 6e be
       -0.7165301 0.71525586 -2.8651567 -0.23280498
000030 7c 0d 81 bf ac 67 0d c0 58 a0 82 bf 05 3f 7f 3d
       -1.008224 -2.2094526 -1.0205183 0.06231596
000040 53 05 84 3e 3b 50 95 bf b9 17 02 3d dd dc c3 be
       0.25785312 -1.1665109 0.031760905 -0.38254443
000050 b6 89 9d 3f 76 27 63 3f c1 51 f5 3f 5b af cf 3e
       1.2307651 0.8873209 1.9165574 0.40563473
000060 2d 05 f3 bd 3e 86 be 3e 34 1e 0b 3f d5 30 e0 bf
       -0.118662216 0.37211794 0.5434296 -1.7514902
000070 69 0d 70 3f cb e1 45 bf 7d 12 d6 3e 02 61 01 bf
       0.9377046 -0.7729766 0.4181098 -0.5053865
000080 13 b6 8c bf 37 e8 30 be 11 f3 1e 3f 31 47 c6 3f
       -1.0993065 -0.17276083 0.6208964 1.5490476
000090 81 fd 0a 3e 59 6b 37 bf 13 47 6b 3e 3d 07 bb 3e
       0.13573267 -0.71648175 0.22976331 0.3652896
0000a0 30 6c bd 3d 34 eb d2 be e7 6c 51 be 29 48 ab 3f
       0.09249151 -0.4119507 -0.20451699 1.3381397
0000b0 75 8c bb 3e a6 c5 69 bf 36 1b 36 bf f2 c8 89 3f
       0.36630598 -0.9131721 -0.7113527 1.0764449
0000c0 00 00 00 00 00 00 00 00 00 00 00 00 00 00 00 00
       0.0 0.0 0.0 0.0
0000d0 00 00 00 00 00 00 00 00 00 00 00 00 00 00 00 00
       0.0 0.0 0.0 0.0

embedding_CNN_prices.weight f4 [6, 5]
000000 e1 cb f2 3f e2 2d b1 3f 5c e2 a2 bf 56 f8 dc bf
       1.8968469 1.3842127 -1.2725329 -1.7263286
000010 9e f2 80 bf 78 ea e3 be d1 78 8e 3f 06 e0 f8 3f
       -1.0074041 -0.44514823 1.113062 1.9443367
000020 98 02 b2 3e b6 77 7c be 83 63 0b 40 83 10 0f bf
       0.34767604 -0.24655041 2.1779487 -0.5588457
000030 76 8a cd bf 71 3e 34 bf fc ea 93 bf 40 76 99 bf
       -1.605788 -0.7040778 -1.1556087 -1.1989212
000040 34 bb eb 3f 78 7d a5 be fa 2a b5 bf b1 22 57 bf
       1.8416505 -0.32322288 -1.415374 -0.8403731
000050 3d fa 1d bf d0 63 a1 3e ae c8 1d 3d bc 0d 47 bf
       -0.6170996 0.31521463 0.03852146 -0.7775533
000060 8d 46 6d 3f 00 00 00 00 00 00 00 00 00 00 00 00
       0.92685777 0.0 0.0 0.0
000070 00 00 00 00 00 00 00 00
       0.0 0.0
