checkpoints/GNNNoCNN_Epoch46_valmse2.1849_testmse2.4029_ndcg0.9371.model (torch, 249600 bytes, 52 tensors)

Pair_embedding_types.weight f4 [106, 16]
00000000: 2738 833d 3c85 98bd 1cb5 d2be 22ac 5fbf
00000010: 1883 573f 1da5 cabe c27a f53d 9607 a2bf
00000020: 70dd c53d 6646 25bd de41 a1bf f366 113f
00000030: b4a1 cbbf e595 b63e a733 783e d7a5 383f
00000040: e990 e73e 095e 95bf 7918 f73f dcd2 d8be
00000050: ac0c 81be 2896 4a3e b6c0 21bf 7199 213f
00000060: 0315 87bf 1243 4a3d ad8c 00bf a916 5340
00000070: 43a2 4dbf c8fe 06bf 9dcf 8cbf 8353 823f
00000080: 0054 de3f 96dd 0f40 bcfb 87bf 1656 0a3e
00000090: c3e3 6a3f 1f37 9bbf e4c9 8ebf 4079 343d
000000a0: 9b6d 323f cd60 283e 954d 883f 6e8e e63d
000000b0: e536 68bf fa40 cd3d 7866 9a3f 9934 e5bd
000000c0: 7616 29bf 02dc 973f e29a d3be d5e8 98bf
000000d0: 5d7e d8bf 9663 603f 7026 fcbf 098e 0c3d
000000e0: a3ce f03b 2062 833f 939f a9bf 799c a53f
000000f0: f40e 753c 03da 6e3f 0ef7 a33f 118f 093d
00000100: 613b d4bd ae5c 783e 7df7 573f 7435 cebf
00000110: 5aac 0b40 662f 85bf 5772 893e 6c72 b1bf
00000120: 744c 87be 12d2 113e 477a 553e b5b4 733f
00000130: f6a0 dc3e 9c14 59be 4aae 8f3e 9b03 203e
00000140: 5699 d0be 1186 a53d 6e6a 783e e1d1 893f
00000150: ef89 76be e110 8cbf 4f1e e2bd 59c4 d5be
00000160: 2e73 3a3f 062a be3f f755 26bf bcb8 62bf
00000170: 369a 44bf 8641 143f 0c5d 753f 32d5 b63f
00000180: 15c5 aebf a7ae 903e 0c85 e63f e71e 133e
00000190: 79cc 3a3f 868f 5e3e 48b8 5bbf 4267 0c40
000001a0: 1012 8dbf c4ef 973f b11e 763e f117 7dbf
000001b0: ba12 efbe f6d4 723e d159 fabe 2d60 c0bc
000001c0: 6cd0 383f ecae c63f 194e 873e 69af b9be
000001d0: ea48 23bf 6426 4c3e 5e7b 9bbe d1d3 26be
000001e0: 36ca 8d3f cc04 25c0 7d15 843e df10 94be
000001f0: 81ad 2fbe 1a45 c0bf bf4d e1bd ad89 933d
00000200: 8b04 833e 51b6 c43f 9402 be3e 9434 823f
00000210: e5ad 20be 4ef3 8f3f ef38 a6bf b5b0 1a3f
00000220: 0ecc 693e 3abe 80bf c448 bc3f ecff 09bf
00000230: c703 8abc 3089 a13f b9b3 f9bc 381b af3e
00000240: 0192 763f d1cc 333d a07d df3e 6e50 6ebf
00000250: 7687 dbbe 35bb 643f 5d3a b93e cb37 0ebf
00000260: 6b2f 153f 84ee 9dbd f71e 0e40 8611 b03f
00000270: da56 b83f 4fba 083e e352 bd3e fce9 89be
00000280: 90b6 b4bd 22a9 04be dd20 e53d 1e01 a03e
00000290: 15f5 8bbf dfa1 42bf 66f5 973f 8054 863f
000002a0: 8b14 b4bf 1695 343f a3de 6bbe 1ddb a63f
000002b0: b3e2 b13f 36dd 833d 25d2 9f3e ee3e e03e
000002c0: 67d9 a0bf 0f3d 1bbf 08d7 36be c50f 773f
000002d0: ad17 4cbe 488f 9bbf 6973 523f bac6 273f
000002e0: 0387 a73e 4cd6 443f 96c6 0040 d55d 493e
000002f0: 2238 9a3d f191 af3f 9b39 a1be 7b54 563e
00000300: 0416 c23e 9782 c0bf 06b3 033e 7ea1 8ebe
00000310: f0f6 e03f 2f5a 6fbf 3549 123f dd61 c33f
00000320: af62 febd 8060 b5bf 1753 2ebf b455 143f
00000330: 697b 6c3f ad0d 3f3e baa7 393e fdc5 a43e
00000340: 1448 4ebf f0b9 d33f 1c6c a1be ce28 0840
00000350: afc3 a33f bcc3 cf3e 5891 a9bf fdd0 a83e
00000360: 5f43 bebe 1f58 963e dca1 25bf a08e 163f
00000370: 6657 a6bf 8fb0 5340 bd13 0740 58dc 06c0
00000380: 045a 5fbf f741 033d 9f08 15c0 bbe5 ab3f
00000390: 6825 89bf 1e2d bfbe 8b9c ca3e 2edc 72bf
000003a0: 5a36 e3be 6176 2abf 8076 46bf 2dfc ba3e
000003b0: 88c0 b7bf 131f 6ebf 986a cdbe 8f71 c1bf
000003c0: f8ee 91bf f2ab c63e cc12 c6bf 85be ac3d
000003d0: 3268 bd3e f94a bb3f bd26 6a3f e445 b2bf
000003e0: 9ebc 7a3f 9781 85bf 4d9e 6ebe 005a aabe
000003f0: 2ce3 d63f f5d9 d8be 32b1 f5bf c9e3 af3d
0.064071946 -0.074472874 -0.411538 -0.8737203 0.8418441 -0.39579096 0.11986305 -1.2658565
0.096613765 -0.04035034 -1.2598226 0.56797713 -1.5908723 0.35661235 0.24238454 0.7212805
0.45227745 -1.1669322 1.9304343 -0.42348373 -0.2520498 0.19783843 -0.6318468 0.6312476
-1.0553287 0.04938037 -0.50214654 3.298258 -0.80325717 -0.52732515 -1.1000859 1.0181736
1.7369385 2.2478995 -1.0623698 0.13509402 0.91753787 -1.2126197 -1.1155362 0.044060946
0.69698495 0.16443177 1.0648676 0.11257635 -0.9070876 0.10022159 1.2062521 -0.11191673
-0.660499 1.1864016 -0.41329104 -1.1946055 -1.6913563 0.87651956 -1.969923 0.034315143
0.0073488518 1.026432 -1.3251823 1.2938377 0.014957178 0.9330141 1.280977 0.033583704
-0.10362888 0.24254104 0.8436201 -1.6110063 2.1823945 -1.040509 0.26845047 -1.3863044
-0.26425517 0.14240292 0.20847426 0.9519761 0.43091553 -0.21199268 0.2806266 0.15626375
-0.40741986 0.08082212 0.2425935 1.0767175 -0.24076055 -1.0942651 -0.11040937 -0.41751364
0.72832 1.4856575 -0.6497492 -0.8856313 -0.7679781 0.5791248 0.95845103 1.4283812
-1.3653895 0.2825825 1.8009353 0.14367257 0.7296825 0.21734437 -0.85828066 2.1938024
-1.1021137 1.1870046 0.24035145 -0.98864657 -0.46693975 0.2371405 -0.4889665 -0.02348336
0.72193027 1.5522132 0.2642677 -0.3626664 -0.63783133 0.1993652 -0.3036756 -0.16291739
1.1077335 -2.5784178 0.25797644 -0.28919122 -0.1715603 -1.5021088 -0.11001157 0.07203994
0.25589404 1.5368139 0.37111342 1.0172296 -0.15691335 1.1246126 -1.2986125 0.60425884
0.22831747 -1.0058053 1.4709706 -0.5390613 -0.016847504 1.2619991 -0.030481206 0.34200454
0.96316534 0.0438965 0.43650532 -0.93091476 -0.42876786 0.89348155 0.3617734 -0.55553883
0.5827548 -0.07711509 2.22064 1.3755348 1.4401505 0.13352321 0.369773 -0.26936328
-0.088238835 -0.12955144 0.11187909 0.31250852 -1.0934168 -0.76028246 1.1871765 1.0494537
-1.4068769 0.7053999 -0.23034148 1.3035618 1.3897308 0.06438677 0.31215015 0.43798012
-1.2566346 -0.60640043 -0.17855465 0.9650844 -0.19930907 -1.2153101 0.8220735 0.6553761
0.32720193 0.7688949 2.0121207 0.196647 0.07530238 1.3716413 -0.31489262 0.20930664
0.37907422 -1.5039853 0.12861261 -0.27857584 1.7575359 -0.93496984 0.57142955 1.526424
-0.12421166 -1.4170074 -0.68095535 0.5794327 0.9237581 0.1865756 0.18130389 0.32182303
-0.8057873 1.6541119 -0.31527793 2.1274905 1.2794093 0.4057902 -1.324748 0.32971945
-0.37160775 0.29364106 -0.647001 0.5881138 -1.2995422 3.3076513 2.1105797 -2.1071987
-0.8724673 0.03204533 -2.3286512 1.3429483 -1.071454 -0.3733911 0.39572558 -0.9486722
-0.44377404 -0.6658688 -0.77524567 0.3652052 -1.4355631 -0.93016165 -0.40120387 -1.511278
-1.1401052 0.3880306 -1.5474486 0.08434776 0.36993557 1.4632255 0.9146536 -1.3927579
0.97944057 -1.0430173 -0.23302574 -0.3327179 1.6788077 -0.42353788 -1.9194701 0.085883684

embedding_Pair_distances.weight f4 [7, 8]
00000000: 4dd8 003f 55ba 51bf b990 6f3f 8c61 3740
00000010: 6916 323f 95d2 af3f 345e adbe 2acb 933e
00000020: 267f ff3f 8295 0e40 ef49 523f d61d afbd
00000030: cd46 be3f 82d2 7abf 4a7f cb3f 563e 2340
00000040: 0104 3bbf 7e09 6ebf 7f2c 6ebf 912e e0bc
00000050: c604 b5bf 4c65 00bf b35c fe3d 7091 c6bf
00000060: e0f9 dfbe 5398 d53e ff37 f3bf bb5d 6bbe
00000070: 685b 05c0 ad9c f1bf 7f27 76bf b70e 01bf
00000080: b345 853f d122 983f 190a bfbe 6f22 fcbf
00000090: d0e3 a6bf 6b3a 37be 6a08 30bf 90af 8cbf
000000a0: 8fe5 09bd 4c48 c93e 8913 0cbf 215a 443e
000000b0: 288f b7bf df25 38bf 4c83 d3bf 42f3 09bf
000000c0: 0000 0000 0000 0000 0000 0000 0000 0000
000000d0: 0000 0000 0000 0000 0000 0000 0000 0000
0.5033005 -0.81924945 0.93580204 2.8653288 0.69565445 1.373614 -0.33860934 0.2886594
1.9960678 2.2278752 0.82144064 -0.08550613 1.4865357 -0.9797746 1.589822 2.5506797
-0.73052984 -0.92983234 -0.93036646 -0.027365955 -1.4142082 -0.50154567 0.12420025 -1.5513134
-0.43745327 0.41717777 -1.9001464 -0.22984974 -2.083704 -1.8875939 -0.96154016 -0.5041308
1.0411896 1.1885625 -0.3731239 -1.9698008 -1.3038273 -0.17893378 -0.6876284 -1.0991077
-0.03366619 0.3931297 -0.5471731 0.19175006 -1.4340563 -0.71932787 -1.6524444 -0.53886807
0.0 0.0 0.0 0.0 0.0 0.0 0.0 0.0

embedding_Pair_prices.weight f4 [6, 5]
00000000: 0b10 103a 5426 b43e 0406 983e 60b2 e2bd
00000010: 2a9b 933f eb87 6a3f 4b2b c83d a6e8 6f3f
00000020: 772d 363f 6fc1 5f3f bcb9 1bbe df3c 1fbf
00000030: 8630 23bf 55de 0a40 3d9e 40bf 2766 96bf
00000040: 084a fdbf ca02 e6be 253d ff3d 9646 0040
00000050: bcfc fa3c 58a0 b2bf 205d 33bd 8f45 733f
00000060: 14b6 a8bd 0000 0000 0000 0000 0000 0000
00000070: 0000 0000 0000 0000
0.00054955547 0.35185492 0.2969209 -0.110691786 1.1531727 0.91613644 0.097738825 0.9371437
0.71163124 0.8740453 -0.15207571 -0.62202257 -0.63745916 2.16982 -0.7524145 -1.1749924
-1.9788218 -0.44924003 0.12462834 2.0043082 0.030638091 -1.3955183 -0.043789983 0.95028013
-0.08237854 0.0 0.0 0.0 0.0 0.0

Pair_shop_mlp.fc_layers.0.weight f4 [64, 32]
00000000: 7649 793d f48e 9bbc fbee 1c3e 8698 343e
00000010: 54b5 2bbe 7a25 053d f4bc 293d 030d f9bd
00000020: 3d55 463d 3ca4 073e 4fea 21be 9ac3 7d3c
00000030: 92c9 1dbe 8287 39be affd a23d ee5c 533d
00000040: 50f6 c63d c3ee 063c ee7b c8bc 4e43 7c3d
00000050: 568f ffba c870 b23d 65b3 793b 7ec2 6e3e
00000060: 137e 07be 006a cb3c dc0e 0e3d d2f4 063d
00000070: 294d e33d d76c 433d 0477 aebd 9bba 18be
00000080: 6881 34be 60ec 033e 77a2 94bd 880f 113e
00000090: 722e 923d 9476 2a3e b3c9 763e ad39 d8bd
000000a0: 0980 22be c3b1 35bd bc3c cabd 81c9 003c
000000b0: 551c 42bd 0e12 58bd c722 cf3c 3822 513e
000000c0: 898f 863d 2dcf 0dbe be8a 383d e40a 3e3e
000000d0: bf64 e03d 07e0 c4bd 656c 4e3d 5c16 113e
000000e0: 892d eabd 0f37 9a3d f9fa 20bd 811a 4bbe
000000f0: 7b62 063e 2cc4 9dbd 46e7 423e 37ee 923d
00000100: d306 213d a734 863d 3ad0 2ebd fe5d 58bd
00000110: b927 e83d f29b ce3d 8d97 643d c04e be3d
00000120: ba2a 203e 00f8 03be 0cc8 e4bd 1404 f83d
00000130: f8d5 b9bd 62ff f9bd 4bfc 9cbc 7f40 083e
00000140: c3a1 4dbe 1652 22be 6cc6 d13d bab6 093e
00000150: 1497 12be 054c a73d 2378 bc3c dfee 51bd
00000160: 1481 b8bd 83d8 df3d 9b97 183e 5cc7 13be
00000170: 4610 0e3e 90bd a6bd 549a b03d 4073 a83d
00000180: 0f9e 0dbd ef98 a4bd 3d6f baba b181 a9bc
00000190: 6022 4a3d 8390 023e 0c32 f83d 357b 873d
000001a0: 81de 89bd e684 df3d 5c87 a5bd 2c92 923d
000001b0: ecc0 0e3e ebef a63d c1be 12be ce6c db3d
000001c0: f8f7 ccbd b341 9a3d d14b 32be e30f d7bb
000001d0: 869c fa3d 9136 66bd 4e16 59bc a6e3 143e
000001e0: 5cc7 333e 1c9a a93d 7b42 263e 71b3 813d
000001f0: b776 2dbe 259a 0abd d5f3 fcbd 14e3 3abd
00000200: 2ba1 193d e779 993d 3b6d 0e3d 100f 1e3e
00000210: 8081 a63c a8b6 30be e0b8 483d 8e40 ddbd
00000220: c35d 99bd 13c4 d7bd b97b 563d 5802 6bbd
00000230: 878e 67bc 703f 05be 959e 32bd 8f7c b13d
00000240: 3448 01be 93ba e8bd e1cf bfbc 5cc9 48bc
00000250: e9a8 093e af70 723d 5977 12be 21cb 653d
00000260: 0a5b 32be 5b34 e6bd d533 bdbd d832 b3bd
00000270: 47f7 d03c 1fb6 19be 7cea 823d 3198 08be
00000280: 418c 393d 5aa4 f93d 43af 9bbd fed0 173c
00000290: 3bd1 533c f74f 923d ee11 003e 6325 6d3d
000002a0: e131 2cbe 75d6 3cbe 6921 2cbc 4fb9 06be
000002b0: f07b 4f3d 92e5 51be e2ad 04be d244 b23c
000002c0: bb6b 2e3c 5cc6 3b3e e849 11be 5329 c03d
000002d0: fc26 c7bd 7e0a 0e3e e184 0a3e 808c 11be
000002e0: 25e8 3c3e d63b 4c3e 7d8b a23d 3b23 c3bd
000002f0: e9d8 cbbd 8113 213e 0192 7d3c 5183 0ebe
00000300: 48a8 613d a56d 16be cc98 e7bd d568 9bbd
00000310: 99d4 233d ee80 02be 9114 2dbd a148 f9bd
00000320: e3e4 99bd 08ff 1dbe bf3e e3ba 7446 bdbd
00000330: 0993 123e f36e 853d 7a35 cebd 635c 073e
00000340: ae18 1ebd 9b61 003e c8ba b8bd 2d26 db3d
00000350: 366c 873c 673a 40be 7724 9cbd 36a1 74bd
00000360: 6fd6 483e 514b a93c d716 003e 2f24 21be
00000370: 1e25 16be 365f 5bbd a6c0 fb3d 0138 25bd
00000380: c10e 45bd df70 2ebd e135 4cbd 1fd9 aabc
00000390: 4a14 0f3e ac00 8c3d cd9f 0d3e dde8 e83d
000003a0: 7c14 eebd 6654 663d 94a4 b43c 8e33 8fbc
000003b0: 97ec 1a3e 089a 443e 0285 463d 7528 003e
000003c0: f00c 26be 4f65 973c 6b29 62bd 51cf 3ebe
000003d0: bef8 c7bd a549 ba3c 6b08 25be ee61 07be
000003e0: 462a be3d 0bb5 ae3d c7ca 2b3e ffba c73d
000003f0: b690 46bd 0b7a 663d b4f9 ffbc e0ed 893d
0.060861073 -0.018989064 0.15325539 0.17636308 -0.1676839 0.032506444 0.041439965 -0.12160685
0.048421133 0.13246244 -0.15812038 0.01548853 -0.15408924 -0.18118098 0.079585426 0.051602297
0.09714949 0.008235636 -0.024473157 0.061587624 -0.0019497673 0.087129176 0.0038101312 0.2331638
-0.13231687 0.024830818 0.03468214 0.032948323 0.110987015 0.04771122 -0.08518794 -0.14914934
-0.1762749 0.12883139 -0.0725755 0.14166081 0.07137765 0.16646796 0.2410038 -0.10557876
-0.15869154 -0.04435898 -0.098748654 0.007860542 -0.0473903 -0.052751593 0.025285138 0.2042321
0.06570346 -0.13848563 0.04505419 0.18558842 0.10956716 -0.09613042 0.05039634 0.14168686
-0.114344664 0.07530033 -0.039301846 -0.19834329 0.13123505 -0.077034324 0.19033536 0.07174342
0.03931315 0.065530114 -0.04267905 -0.052824013 0.113357015 0.10088338 0.055808593 0.09292364
0.15641299 -0.12887573 -0.111709684 0.12110153 -0.090740144 -0.122069135 -0.019163271 0.13305853
-0.20081238 -0.15851626 0.10242924 0.13448611 -0.14315444 0.081687964 0.023006504 -0.051253196
-0.09008995 0.10929968 0.14901583 -0.14431518 0.13873395 -0.08141625 0.08623186 0.08225107
-0.034574565 -0.08036982 -0.0014223825 -0.020691724 0.04934919 0.1275044 0.12118921 0.06615297
-0.067318924 0.1091402 -0.080824584 0.07156786 0.13940781 0.081512295 -0.1433058 0.10714112
-0.10008234 0.075320624 -0.17411734 -0.006563173 0.12236886 -0.056204382 -0.013249947 0.14539966
0.17556518 0.08281347 0.16236298 0.06333054 -0.16939817 -0.03383841 -0.12351195 -0.045626715
0.037507217 0.07493954 0.03477214 0.15435433 0.020325422 -0.17257178 0.049004436 -0.108033285
-0.07488587 -0.10535445 0.052364085 -0.057375282 -0.014133102 -0.1301248 -0.043608267 0.08666336
-0.126252 -0.11363711 -0.023414554 -0.012255039 0.1344334 0.059189495 -0.1430334 0.056101922
-0.17417541 -0.11240455 -0.09238402 -0.08749932 0.025508536 -0.1501088 0.063923806 -0.13339306
0.045299772 0.12189551 -0.07601788 0.009266136 0.012928302 0.07144158 0.1250684 0.057896983
-0.16815902 -0.18441184 -0.0105060125 -0.13156627 0.050655305 -0.2049773 -0.12956956 0.021761332
0.010645802 0.18337387 -0.14188349 0.09382882 -0.097242326 0.1387119 0.13527252 -0.14213753
0.18447931 0.199447 0.079367615 -0.09528204 -0.09953482 0.15730096 0.015476705 -0.1391728
0.055092126 -0.14690264 -0.113084406 -0.075883545 0.03999767 -0.12744495 -0.04225594 -0.12172056
-0.0751436 -0.15429318 -0.0017337425 -0.092419535 0.14313902 0.065153025 -0.100687936 0.13218836
-0.038597755 0.12537234 -0.09020001 0.10700641 0.016531091 -0.18772279 -0.076241426 -0.059724055
0.1961305 0.020665796 0.12508713 -0.15736459 -0.14662597 -0.053557597 0.12292604 -0.040336613
-0.048109774 -0.04258811 -0.04985607 -0.020855485 0.13972583 0.06836066 0.1383049 0.1137254
-0.11625001 0.056232832 0.022051133 -0.017480638 0.15129314 0.19199383 0.04846669 0.12515433
-0.16215873 0.018480925 -0.05521528 -0.18633772 -0.09764241 0.022740195 -0.16116492 -0.13220951
0.09285407 0.08530625 0.16776572 0.097524635 -0.04847785 0.056268733 -0.031246997 0.06734824

Pair_shop_mlp.fc_layers.0.bias f4 [64]
00000000: 40d0 303e 6c0f 0dbd 6bb4 e4bd e461 9dbd
00000010: dc89 c2bd 090c 93bc 01a2 e83d 2729 b6bd
00000020: 27b3 e8bd 9d54 c13d 51bc bd3d d4d2 273e
00000030: 5905 cfbd a790 ce3d 0b89 a23d d4a8 4abd
00000040: 453f e1bd 00e7 a5bd 6690 b9bd a892 a73d
00000050: 6bed 3f3e c37b 103e 9452 acbd d8ae 62bd
00000060: 3363 68bd 965c abbd 6758 46bd e4bc 433d
00000070: 4a78 24be 0d0f e13d 0804 283d e1f3 d83c
00000080: f942 283d 7c53 493d 92ce e5bc 13da 82bd
00000090: 1f89 09bd 1519 033e b803 94bd 8554 dc3d
000000a0: ea7a 15bb a2c2 483d 6fe5 993d 1582 233e
000000b0: 3893 b53d 08e5 08bd fa06 423e b540 62bd
000000c0: 0934 c6bd d9e2 a0bd c5b1 22bc 5900 843d
000000d0: a8af 063e 0be1 b33d 0bcf fbbd 7822 97bd
000000e0: df29 283d 8796 14be 1229 fc3c 2156 333e
000000f0: c156 e7bd 7064 493d c81e 1ebe 44ab 54bd
0.17266941 -0.034438536 -0.111672245 -0.07684687 -0.09498951 -0.017950075 0.11359025 -0.08894568
-0.113622956 0.09439967 0.09264434 0.16389018 -0.10108442 0.10086184 0.07936295 -0.049477413
-0.10998396 -0.081007004 -0.09060745 0.08182269 0.18742912 0.14109711 -0.08414188 -0.055342525
-0.05673523 -0.08367269 -0.04842415 0.047787562 -0.16061512 0.10989199 0.04101947 0.026483478
0.041079495 0.049151883 -0.028052602 -0.063892506 -0.033578034 0.12802537 -0.07227272 0.10758308
-0.0022808858 0.04901374 0.07514464 0.15967591 0.088659704 -0.033421546 0.18947974 -0.05523749
-0.09677894 -0.07855768 -0.009930079 0.06445379 0.13152945 0.08783158 -0.1229535 -0.07379621
0.041055556 -0.14510547 0.030781303 0.17513324 -0.11295844 0.04916805 -0.1544143 -0.051921144

Pair_shop_mlp.fc_layers.1.weight f4 [16, 64]
00000000: 7959 23be f606 37bd 9c00 493c b4e1 a03d
00000010: 6c52 4f3d c171 bcbc a76e d53d 3d81 b2bd
00000020: 9968 dcbc 9b1f 553c 860f 023c a275 ef3d
00000030: 53f6 bbbd 20ad aebd 0abb f5bd da53 103e
00000040: a903 ba3d 8e45 093e 43f6 d03b 90ff b3bc
00000050: 5969 1c3e be1b e2bc 818c 943d 7edb 2c3d
00000060: 56e6 413c 7a85 873d 4cb5 babd 6466 1d3e
00000070: 6623 ff3d 06af c23d 55cf 5fbd 1564 9abd
00000080: 139d 033e b088 debd 3ca6 d83d ec49 203c
00000090: 0ead de3d dc3d 3c3e 9974 a73d 1dfb d03c
000000a0: 8277 363d 27c0 883d 0b42 373d c56e 62bd
000000b0: 5cb8 01be d603 fbbc 3c19 d33c cb09 c03d
000000c0: b7b2 28bd 707b 7d3d 3982 0d3e 4b4d a93d
000000d0: b929 503d 50c8 893d 2975 ecbd 7696 71bd
000000e0: 1c25 e63d 86b7 d5bd cc9b 283e 4ede 603c
000000f0: 65e9 603d 7822 8dbb 7df9 9e3d bab6 a43c
00000100: 50a7 263e 1da8 59bc dc6e ff3b 8d1d e63d
00000110: 2c3a 38bd 50de c93d c39f da3d 337a b1bd
00000120: 8130 b43d 6c85 003d c196 aa3d d741 ca3d
00000130: 8bc3 a93d 2f6e b53d f003 95bd 7d5b fc3d
00000140: 4a62 873c ce7b 8cbd 05c8 c03d e5d3 29bd
00000150: 2992 ecbc d7c1 abbd 4b8d bd3d 7d0e b8bd
00000160: 96c3 3e3d 8889 313d 3372 b1bd 5a8f 5b3b
00000170: cd7a afbc 8fc3 ec3d 39b3 7cbc 4c75 bf3d
00000180: fa04 19bd 50f5 41bd 52b5 ccbd 1e75 833d
00000190: a8f4 433d 8c8f 0fbd 3748 51bd 556e 8f3d
000001a0: 9cae 4abd 567d f73c abde 053e d2e8 0d3e
000001b0: 843c 3cbd e585 b23c b6cd 083e 125b 03bc
000001c0: 15a6 9fbd e166 98bc 2221 a83c 2ba3 9dbc
000001d0: c511 b23c dd4b ac3a 054c 453d fe86 75bd
000001e0: cd7c 71bc f9fc 0b3e cbf2 abbd 51de 043e
000001f0: 5508 bd3d 0c36 e3bd b7b9 6cbd 2e47 b33d
00000200: d82d f33d 8a03 8c3d 1c98 963d de45 9c3a
00000210: 6424 e6bd e8ca 613d 5291 02bc 3624 88bd
00000220: a19b 103d e576 a53d 9149 e63a 8579 36bd
00000230: 3f42 0dbd 51f5 093d c80e f7bb d3f2 86bd
00000240: 7082 80bc 7649 d63c f46e aa3d 41ce 103e
00000250: 0bb0 4d3d 80cb 1439 7e1e adbc 3790 993d
00000260: c8fc 80bc aa8a 86bd fa56 233e 0a74 32bd
00000270: 517a 803a 12da 173e 1ba2 163e 75d0 cbbd
00000280: c802 d63d 3091 793c 598c 91bd 92ae 11bd
00000290: b5ce a9bc 606a abbd 5878 0e3e d413 c83d
000002a0: 6318 b03d 826a bbbc 4912 af3c 7010 98bc
000002b0: 9553 063e 5f93 883b 3b97 123d 83fe bfbd
000002c0: 3207 abbd bdce 853d 1ded 0bbe 10dc 56bd
000002d0: e942 b5bd 831c f53d df7d 303d 2f72 cd3d
000002e0: 81f5 a33c 4477 8cbd 88e0 b93d efcd e5bb
000002f0: 5823 543d 2d56 ae3d f73f afbd 0061 943d
00000300: faab 8b3d 66f6 9b3d 2a48 1f3c 132a b9bd
00000310: 78a6 3d3d b3a8 40bc 0c90 fa3d 35b5 0a3e
00000320: 958c 063e c5ed 333e 1ef8 113e caf9 3a3c
00000330: 623f 433d bd14 6dbd 36c6 9dbc e82b b7bd
00000340: 8b66 8a3d 6a9c 26bd 6dcf 5e3c aaaa 213d
00000350: a864 3fbd 7fb2 f23d e10b 073e 8a6e de3d
00000360: dd1c 243e ed5d 37be b5a2 0d3e 5b1c ab3d
00000370: 7d29 a53d 5b17 eb3d 41cb 023e f246 1c3e
00000380: 0edc a43d 6f4d 343d f806 2a3d 5f1e 38bd
00000390: 7109 c1bd 6358 c0bd 0ca5 97bd 298e b43b
000003a0: 8f2a 4d3b b076 983d 15b6 a03d 0184 32bb
000003b0: 7eb7 443d be91 bebc 4918 ebbc 1ac3 6a3d
000003c0: e134 debd c9c1 05be 9bab 1fbe f739 523d
000003d0: 5121 94bd 21fc 76bd 086c a9bd 3fb9 703d
000003e0: 2ff3 ce3d 1248 53bd 9f5e d83d 22d0 123e
000003f0: 71dc 5cbd 6d26 533d e4b0 2fbb 603c 073e
-0.159521 -0.044684373 0.012268212 0.078555495 0.050615713 -0.02300346 0.10421496 -0.087160565
-0.026905345 0.013008024 0.007938271 0.116923586 -0.09177842 -0.08529115 -0.119985655 0.14094487
0.09082729 0.1340544 0.006377013 -0.021972448 0.15274562 -0.02760112 0.072533615 0.04220151
0.0118347015 0.066172555 -0.09116611 0.1537109 0.124579236 0.09506039 -0.054641087 -0.075386204
0.12852888 -0.10865915 0.10578582 0.009783249 0.10872851 0.18382972 0.08176536 0.025510365
0.044547565 0.06677275 0.044740718 -0.05528142 -0.12667984 -0.030641478 0.025768869 0.09376868
-0.04118606 0.061885297 0.13819207 0.082666956 0.05082104 0.0672766 -0.11545784 -0.05898138
0.11237547 -0.10435395 0.16465682 0.013724877 0.054910082 -0.0043070875 0.0776243 0.020106662
0.16274762 -0.01328471 0.007795198 0.11236105 -0.044977352 0.09856856 0.106750034 -0.08665886
0.08798314 0.03137724 0.08329535 0.09875839 0.0828925 0.088589065 -0.07276142 0.123221375
0.01652636 -0.06859551 0.09413151 -0.041461844 -0.028878288 -0.083865814 0.09255465 -0.089871384
0.046573244 0.04334405 -0.0866436 0.0033502192 -0.02142086 0.11560737 -0.015423589 0.093485445
-0.03735826 -0.04735309 -0.099955216 0.06418823 0.047840744 -0.035049006 -0.05109426 0.07003466
-0.049482927 0.030211132 0.13073222 0.13858345 -0.04595615 0.021792362 0.13359722 -0.008017318
-0.077953495 -0.018603744 0.020523611 -0.019242844 0.021736989 0.0013145168 0.0481682 -0.05994319
-0.0147392275 0.1367072 -0.083959185 0.12975432 0.09230105 -0.11094293 -0.0577943 0.08753811
0.118739784 0.068366125 0.07353231 0.0011922678 -0.1123741 0.055125147 -0.007969217 -0.06647532
0.03530467 0.08079318 0.0017569532 -0.044549484 -0.034487005 0.033681218 -0.007539604 -0.06589284
-0.015687197 0.026158076 0.08321944 0.1414118 0.050216716 0.0001419019 -0.021132704 0.0749821
-0.015745535 -0.06569417 0.15951148 -0.043567695 0.0009802078 0.14829281 0.14710276 -0.099518694
0.10449749 0.015232369 -0.07106847 -0.035566874 -0.020728448 -0.08369899 0.13913095 0.09769407
0.085984014 -0.022877935 0.021371024 -0.018562526 0.13117822 0.0041679586 0.035788756 -0.09374716
-0.08350982 0.06533573 -0.1366467 -0.05245596 -0.08850653 0.11968329 0.04308879 0.100315444
0.020014526 -0.068586856 0.09076029 -0.0070130746 0.05179152 0.085125305 -0.08557122 0.07245064
0.06819911 0.07615356 0.009721795 -0.09041228 0.046301335 -0.011758971 0.12234506 0.13545687
0.13139565 0.1757117 0.14254805 0.011412093 0.04766787 -0.057881106 -0.019259553 -0.08943921
0.0675784 -0.04067651 0.013599259 0.0394694 -0.046726853 0.11850452 0.13188125 0.108609274
0.16026635 -0.17906924 0.13831599 0.08355018 0.08064554 0.11479064 0.12772848 0.15261438
0.080497846 0.04401916 0.041510552 -0.04495084 -0.09425629 -0.093918584 -0.07404527 0.005510111
0.0031305884 0.07444513 0.078472294 -0.0027239325 0.048026554 -0.023262855 -0.028698104 0.05731497
-0.108499296 -0.13062204 -0.15592806 0.05132481 -0.07232917 -0.060299043 -0.082725585 0.058770414
0.10104977 -0.051582403 0.105649225 0.14337209 -0.053921167 0.051550318 -0.0026808316 0.13206625

Pair_shop_mlp.fc_layers.1.bias f4 [16]
00000000: edca f83a de17 013b 5cfc 063e 90ad 213d
00000010: 7757 a5bd 0709 5e3c 15a6 863c da78 b1bd
00000020: 7eba 503d 7e6c 9fbd 1f60 4dbd 4e2d 903d
00000030: 2c6f d83d 8be7 753c a29d b2bd ad5d 103e
0.0018981375 0.0019698064 0.13182205 0.039472163 -0.08073323 0.013551957 0.016436616 -0.08665629
0.050959103 -0.07784365 -0.050140496 0.07039891 0.10568079 0.015008817 -0.08721472 0.14098234

Pair_score_mlp.fc_layers.0.weight f4 [64, 32]
00000000: 7d7d 05be 85f1 d7bd 91ec 163e 6f23 38bd
00000010: bf03 99bd e4a3 c1bd 0e22 483e 5de5 fe3b
00000020: 3d33 d3bb 312d 94bd b6e1 65bd daf6 d7bd
00000030: 4a65 08be 151f 11be 7433 8f3d 03e6 133c
00000040: 6e4e 49be 176a f5bd f575 823e 2b1c 54bd
00000050: 9e4c f23d a73f 3abe e5b9 aa3d 72e9 f73d
00000060: c8de 04be aa0a bdbd ee91 463e 1c25 c5bd
00000070: 089d a93d f549 acbd ff63 76be 0dd6 89be
00000080: 6f11 42be 17c9 95bd a6ca 363e 2b3d 393e
00000090: 62e1 afbd 9615 303e 7053 283e cfce f8bd
000000a0: dca2 fe3d 2f17 f43b 437f 94bd c9c2 f43c
000000b0: e6fb 8b3d f6f6 79bd eb18 cdbd 8f19 bcbc
000000c0: 2288 74bd 5d55 d4bd 9d05 5f3d 6c64 0b3e
000000d0: aa62 0e3d 112f 0bbe c41b 943d 90fd c3bd
000000e0: 8ac2 3bbe 721e 453e 9945 0a3d abcc 0bbe
000000f0: 16bf 13bd 0bb5 0bbd 7202 363e e112 5f3d
00000100: 13e5 e0bd 1e70 2abb 3efa 7fbd 74fa d1bd
00000110: 3ce5 203d 2453 18bc 6844 bc3d c73b 0dbd
00000120: 5229 033e a723 f3bd 8b28 423d 80da 2e3e
00000130: 8b77 dd3c 4641 1bbd c050 b63d 72ae aa3a
00000140: b35b 8bbe bf7f 863c 5acb 4c3d 86f0 683e
00000150: 0fa2 473e d459 8b3d dd3b 803e 513b c83d
00000160: 76a7 0f3e 1d8f 9ebd b37b f2bc ae62 04bd
00000170: 688b 05be 544c 01be bb61 cbbd 8668 d03d
00000180: b003 1bbe ab83 003e 2815 533e 7963 243d
00000190: c68e 313e 3de8 0ebe aed9 ffbd f4df 643d
000001a0: 1f00 1e3e dc17 fe3d ad1e d3bd a80d 353e
000001b0: 6c20 b2bd 87c4 8d3d 39a5 b9bd 43c3 373e
000001c0: f5d0 743c 136c d6bd a63b f43d 2243 9d3d
000001d0: 1ca3 2b3d 1eb3 8d3d 5e56 1f3e fc49 49bd
000001e0: 1ce8 0a3e 17be 47be fe60 893d f2c4 84bd
000001f0: 21fa 523d fbc9 893c 0973 363e 00ea 4a3d
00000200: c4d8 3fbe 1aca 983b a972 493d ab1f cbbd
00000210: c422 0b3e 5ed2 d6bc eb00 ccbd 9342 6fbe
00000220: 195e 143e 6183 85bd bb98 30be d88e 24be
00000230: bea5 fdbc 540a 013d f3b6 01be c2a6 0fbe
00000240: 8958 f83d 4397 083e 0539 b9bd 7606 2cbe
00000250: acf5 92bd 4d35 a93d de21 ff3c 59ba 0bbd
00000260: ea04 51be 6e78 523d 56d7 7bbd 37ab 483e
00000270: 5cd2 58bd 9d13 f1bd 3753 823d b44e 0bbe
00000280: 924e d7bd e888 333d a642 043e 1cd5 9f3d
00000290: 0305 c93d d811 0e3e 80a6 cabd 4fbd d3bd
000002a0: ee1c bdbd 14b5 883d 2e9c 2a3e 1aef 853d
000002b0: a641 183c 202f b33d 95ff 21be 644b 70bd
000002c0: ae0e 3d3e 6655 333e 4690 933d d8d8 20bc
000002d0: ec1b 033e 14dd 05be e05b 193d 1fbf c43d
000002e0: bf21 b13d ef63 913d 0f68 723e 6786 40be
000002f0: 1446 2d3e 9de9 12be b1bb 1a3e c176 54bd
00000300: ec12 fabd 42de 4e3e ffb3 90bd e284 95bd
00000310: 0744 17be 5671 b3bd 3a91 a73c a7ed f73d
00000320: bfd4 ba3b 31e1 ed3d 32f2 97bd 241c 0f3e
00000330: 1001 48bd 6430 ddbd a417 0b3e 2a11 893c
00000340: 2069 da3c ad0c 193e 34c1 bbbd ad0e 53bc
00000350: 8f7a babb 4b6b b53d 24f4 263e a8bf 363e
00000360: 6ba3 6c3d cea5 15bd bf5c a13d 6e9b 433e
00000370: 0ee2 ddbd 443d e13d fa8a 163e fffb 14be
00000380: 0bb4 cd3c 1a1d 95bd 9f99 463e 174a 083e
00000390: ed36 0c3d 9d84 b03c 1196 bfbd c874 bcbd
000003a0: 8ee8 393e fb01 4a3e 78ab 31be 058d 02be
000003b0: d316 803d a889 32bd e1f7 d5bd e541 fa3d
000003c0: eeca 6ebe e23d fdbd 0df7 383d 66ce d3bc
000003d0: 9791 abbd 0d2b 7b3e 40e5 613d a7a1 643b
000003e0: 9afe 1a3c 599d e6bd 3f5d b2bd 71e9 13be
000003f0: 1a42 dcbd 67ae 93bd ddfa 1f3e 9e6d 8d3d
-0.13036151 -0.10544113 0.1473868 -0.044955667 -0.07471418 -0.09455088 0.19544241 0.007778807
-0.006445317 -0.07235182 -0.056123458 -0.1054513 -0.13319889 -0.14172013 0.06992236 0.009027007
-0.19658825 -0.11983126 0.2548062 -0.051784676 0.1183102 -0.18188344 0.08336238 0.12105073
-0.1297561 -0.0923055 0.19391605 -0.09626219 0.082819045 -0.08412544 -0.24061583 -0.2692112
-0.18951963 -0.073137455 0.17850742 0.1808974 -0.0858791 0.17195734 0.16438079 -0.121488206
0.12433407 0.0074490528 -0.07250836 0.029878037 0.06835155 -0.061026536 -0.10014518 -0.022961406
-0.05970014 -0.10367844 0.054448713 0.13612527 0.034762062 -0.13592173 0.072318584 -0.095698476
-0.1833593 0.19249895 0.03375778 -0.13652293 -0.036070906 -0.034108203 0.1777437 0.054461364
-0.109811924 -0.0026006768 -0.06249451 -0.10252848 0.039281115 -0.009297166 0.09192735 -0.034480836
0.12808731 -0.118720345 0.047401946 0.17075539 0.027034542 -0.037904046 0.089021206 0.001302196
-0.27218398 0.016418336 0.04999862 0.22748002 0.19495414 0.06804243 0.25045672 0.09776939
0.14028725 -0.077421404 -0.0296 -0.03232067 -0.1304146 -0.12626773 -0.0993075 0.10176186
-0.15138125 0.12550227 0.20613539 0.040133927 0.1733962 -0.1395578 -0.12492691 0.05587764
0.15429734 0.124068946 -0.10308585 0.1768099 -0.0869759 0.0692225 -0.09064717 0.1794558
0.014942397 -0.10469832 0.119254395 0.0767882 0.0419036 0.069189295 0.1556029 -0.049142823
0.13565105 -0.19506107 0.06707953 -0.06482877 0.051508073 0.016819945 0.1781732 0.049539566
-0.18735033 0.0046627643 0.049181614 -0.099181496 0.13587481 -0.026223358 -0.099611126 -0.2336524
0.1448902 -0.06519199 -0.17245762 -0.16070116 -0.030962821 0.03150399 -0.12667446 -0.14028457
0.12126262 0.13338952 -0.09044079 -0.1679934 -0.071757644 0.082621194 0.031144079 -0.03411326
-0.20412031 0.051384382 -0.061484657 0.19596563 -0.05293499 -0.11771319 0.06363528 -0.13604242
-0.10513033 0.043831736 0.1291605 0.07804319 0.09815409 0.13873994 -0.098950386 -0.10338842
-0.092340335 0.06675163 0.1666114 0.06539746 0.009292996 0.08749223 -0.15820153 -0.058665648
0.18462631 0.17513046 0.07205252 -0.009817325 0.1280362 -0.13072616 0.037441134 0.09606766
0.08649015 0.07099139 0.23672508 -0.1880127 0.16921264 -0.14346929 0.15110661 -0.051871065
-0.1221064 0.20201972 -0.070655815 -0.07300736 -0.14772044 -0.087618515 0.020454992 0.121058755
0.005701631 0.116152175 -0.07419242 0.13975579 -0.04882914 -0.108002454 0.13583237 0.016731817
0.026661456 0.14946242 -0.0916771 -0.012881917 -0.0056908797 0.08858355 0.1630407 0.17846549
0.057773035 -0.036535077 0.07879018 0.1910226 -0.10834132 0.109980136 0.14701453 -0.14549254
0.025110265 -0.07280941 0.1939454 0.13309513 0.03423207 0.02154761 -0.09354795 -0.09201962
0.18155119 0.19727318 -0.17350566 -0.12749107 0.062543534 -0.04358831 -0.1044767 0.122196
-0.23319599 -0.12365319 0.04515748 -0.025855254 -0.083773784 0.24528141 0.05515027 0.0034886391
0.009460116 -0.112604804 -0.087091915 -0.1444452 -0.10754795 -0.07210999 0.1562304 0.069056734

Pair_score_mlp.fc_layers.0.bias f4 [64]
00000000: ed84 433d 447b 6bbd b763 0cbe e114 d1bd
00000010: ddb8 373e c983 263e fe41 eebd d3f1 c0bd
00000020: 6fc3 91bd 8ebb adbd acd9 1f3e 21ea a73c
00000030: 0f07 593d ee79 c93d f816 8dbd 7ff4 2c3d
00000040: 9018 393e b1b7 9cbd 609c c63d 0315 a23d
00000050: 1b69 98bd 3eb2 eabc e6d7 953d e584 65bd
00000060: 3070 bd3d 8364 36bd 0207 afbb 28db da3d
00000070: c61b 2a3e b5d5 0fbd 8f55 a8bd e3bd 183e
00000080: 6d4a ba3d 2b56 1dbe 3c78 923c 0a03 5e3e
00000090: 415c 193e 7ac9 0d3e 148e 90bd bce8 36bd
000000a0: d62d 08be fafe c23d 2b8e 10be e2df fdbd
000000b0: 06fd 3039 c993 063e 91b6 16bd 20ef b8bd
000000c0: 8df8 8bbd b430 a2bd 1441 cb3c 4a33 9bbd
000000d0: 2e99 78bd 29c5 ffbd e7f7 b4bd 650e 163e
000000e0: 8fd3 07bd 814d e43d 57e4 fe3d 6bbd fe3d
000000f0: a131 933d 249a 203e 33bd 913d 9f97 97bd
0.04773419 -0.057490602 -0.13709913 -0.102090605 0.17941613 0.1626121 -0.11633681 -0.09421124
-0.07117354 -0.08483039 0.15610379 0.020497384 0.052985247 0.09837709 -0.068891466 0.042225357
0.18075776 -0.07652224 0.09697795 0.07914164 -0.07441922 -0.028649446 0.0731657 -0.05603494
0.09249914 -0.04452945 -0.0053414116 0.10686332 0.16612157 -0.035115916 -0.08219444 0.14916186
0.09096227 -0.15364902 0.017879598 0.21680847 0.14976598 0.13846388 -0.07058349 -0.044655547
-0.13298735 0.09521289 -0.14116733 -0.12396218 0.00016878927 0.13142313 -0.036795203 -0.090299845
-0.06834517 -0.07919446 0.024811305 -0.07578142 -0.06069296 -0.12488777 -0.08836346 0.14653929
-0.033160742 0.11147595 0.12445896 0.12438472 0.071872 0.156838 0.07116165 -0.07401966

Pair_score_mlp.fc_layers.1.weight f4 [8, 64]
00000000: d2f9 bf3d bb8f 053e 588f f13d edc9 843d
00000010: 5b6c 163e 7834 263e 83ac 0f3d 5579 043e
00000020: 7667 f53d 502d d93d 59f3 cdbd c1d5 2a3d
00000030: 19e1 0f3d 2599 d2bd fb5e 84bc 95f2 ff3b
00000040: 63bb c83d fa96 c23c 194b 37bd d433 953d
00000050: 8017 1b3e d924 50bc 5ed2 bb3d f7af d83c
00000060: d74e 803d 3be9 163e 87f4 1c3e e20e 023b
00000070: b526 10bd 6f67 25bc 135f 053e 224e 95bb
00000080: eb23 423d 1e09 eb3d 20e5 fb3d f9e8 563c
00000090: 02cd 083e 40b4 393d 2c10 023e 79e1 a03d
000000a0: 1a62 9fbb d98e 3c3d 37a6 babc df5a a33d
000000b0: 7fe6 20be 60c5 d93d e9ff 143e a42b dd3d
000000c0: 68c3 c3bd 1596 d33d 9764 bebd e6ae ca3d
000000d0: 56b7 433e 99c2 133d 1887 c23c 0d4f b6bd
000000e0: 4a4a 373d 2285 8ebd 4d18 7fbd eb45 a93d
000000f0: d4f3 90b9 d4ef bd3d f6df 3cbd 4ea5 113e
00000100: 7488 dbbd 3a92 d63d 2b8a d8bd aa3b 00be
00000110: 4006 dcbd 39e9 6ebd 2714 023c 4e03 a1bd
00000120: a36f 84bd d4df 9bbc da09 23be 849a 1a3c
00000130: 2c18 13be f61b 073e f126 19be 5938 21be
00000140: 973f fa3b 4435 0f3d 2bb5 3ebd f6c4 3c3c
00000150: ccf1 07be 90c1 dcbd b6ba e9bc 6e5b 773d
00000160: 8238 e5bc de17 abbd 2ee5 e63d afd0 1abd
00000170: e110 b3bd 5f44 1c3d 4905 da3d 302e bb3b
00000180: ef9e 6cbd f4ed f0bd f37f 413d 426b c83d
00000190: 8f86 bcbd 1838 a63d 6f39 cc3c d9cd 873d
000001a0: 354a 9bbd be89 07bd 9877 87bd dc12 e0bd
000001b0: c9cd 323e 4df7 fe3d 07ff 9ebd ce01 7bbd
000001c0: 8229 6c3d 4f8a f6bd 4883 e73d 3f65 cdbd
000001d0: 8dab e53c b792 04be 5fb8 dcbd f1fd 3c3e
000001e0: cf5d c83c 37e3 cebd 68bf 03bd 7952 96bd
000001f0: 9642 193e a052 903d 2f50 313d 4970 2a3d
00000200: 3fd9 b23d 3b5d dd3d 7d28 5a3e 7a41 213e
00000210: df9b 6bbc aa71 b13d f171 293e 2751 ab3c
00000220: 7f6a 233e f179 c0ba 2f0f d63d 03b1 c2bb
00000230: c084 64bc a45f 29be 5089 983d 40ca b13d
00000240: 63cf 6a3e cb00 203e 8cf2 ff3d 2933 443d
00000250: c884 ff3d 6ba3 02bd d5bf e93d ec62 733d
00000260: 4507 a93c b32a 3d3d 0be9 de3d a354 323e
00000270: 9a12 afbb e92e 233e cb5f 9d3d 0bf4 503e
00000280: 148d f03d 3bd2 053d 5fcb e43d 7b04 d9bc
00000290: 6071 093e b685 683c 655c 1fbd 4161 083e
000002a0: c069 e0bc 3fc2 d13d 0e70 e63d e498 233e
000002b0: 33e5 fbbc 3fab 083e cf2a ca3d 048f 30bc
000002c0: b356 1d3e 8e4f 9bbc 738a 233e 739d 27bc
000002d0: ecf8 aa3c 3b44 a7bd 17c7 353d 5c06 11bd
000002e0: 081c 23bd 19c4 103d 68c8 c53d 7322 533e
000002f0: 581f bf3d cdfc 893c c3e6 d53d 8b66 763e
00000300: e04f 51bd 392e ac3d 9fe6 3f3d 7e88 973c
00000310: 224f 92ba 77d3 cabd 0728 593c 8a10 b13c
00000320: 0755 0abe 7eac 3fbc 516d 883d a424 e83a
00000330: 9bd4 efbc e407 cb3d d4d7 a2bd 1f26 04be
00000340: 2fec d1bd 5e8d bebd e382 643b f54b 4bbd
00000350: c4f8 99bd 7eb2 fd3b f2b3 783d 9aea 9d3d
00000360: c8ca ef3d 6fe5 0c3c 8aba b0bd 6382 d83d
00000370: a5e0 36bd 3f2c af3d d61d a43d c294 d4bd
00000380: a3b2 0cbd 34a1 d0bd 07d4 01bc df47 a3bc
00000390: ea49 dc3d 239c 0bbe 46af 2bbd 9a52 ecbc
000003a0: d929 2dbc 3340 b03d 3f8a 75bd ee59 e23c
000003b0: fb06 a0bd fcd9 dfbd beb8 e7bd 2ff1 8ebd
000003c0: 8008 cc3d fb90 05be 537d babb a61d cfbd
000003d0: 2bd5 263d 89c5 47bd 603a b43c 62cb 163e
000003e0: 9d56 abbd c4ea 1e3d 17cc e03d c8cc af3d
000003f0: d297 4cbd 0ed6 ffbd 1ad3 093d 7e57 b4bb
0.09373821 0.1304311 0.11794919 0.06483827 0.14689772 0.16230953 0.03507663 0.1293691
0.11982624 0.10604346 -0.100561805 0.041707758 0.03512678 -0.10283116 -0.016158571 0.0078109005
0.09801366 0.023753632 -0.044749353 0.07285276 0.15145683 -0.012704098 0.09170984 0.026451094
0.062650375 0.14737408 0.15327655 0.0019845297 -0.035193164 -0.010095461 0.13024549 -0.0045564333
0.047397535 0.11476348 0.122995615 0.013117068 0.13359454 0.045337915 0.12701482 0.078555055
-0.0048639895 0.046034668 -0.022784336 0.07976317 -0.15712927 0.106333494 0.14550747 0.107993394
-0.09558755 0.1033136 -0.0929653 0.098966405 0.19112906 0.036074255 0.023746058 -0.089017965
0.044748582 -0.06958987 -0.062279034 0.08265289 -0.00027647486 0.09274259 -0.046112023 0.14223215
-0.10719386 0.10477109 -0.105732284 -0.1252276 -0.107433796 -0.058327887 0.007939375 -0.078619584
-0.064666055 -0.019027628 -0.15921727 0.009436253 -0.1436469 0.1319426 -0.14956261 -0.15744151
0.007636975 0.034962907 -0.046559494 0.0115215685 -0.13275832 -0.107791066 -0.028531414 0.06038993
-0.027981047 -0.08354162 0.11274181 -0.037796672 -0.08743454 0.03815114 0.10645539 0.005712293
-0.05776876 -0.11764136 0.047241163 0.09786083 -0.092053525 0.08116168 0.02492973 0.06631059
-0.07582513 -0.033090346 -0.066146076 -0.10941097 0.17461313 0.12449513 -0.07763486 -0.061281018
0.057656772 -0.12038099 0.11304337 -0.10029077 0.028035903 -0.12946592 -0.107773535 0.18456246
0.024458794 -0.101019315 -0.03216496 -0.07339949 0.14966807 0.070470095 0.04328936 0.04161099
0.08732843 0.10808798 0.21304508 0.15747634 -0.014380424 0.08664258 0.16547371 0.02091272
0.15958594 -0.0014684779 0.10452115 -0.0059415116 -0.013947666 -0.1654039 0.07448065 0.08681154
0.22930674 0.15625302 0.12497434 0.047900353 0.12476498 -0.03189413 0.11413542 0.05942051
0.02063335 0.0461833 0.10884293 0.17415099 -0.0053427937 0.15935864 0.07684287 0.20405595
0.117456585 0.032671195 0.111716025 -0.026491394 0.13422155 0.014192035 -0.038906474 0.1331835
-0.027394176 0.102421276 0.112518415 0.15976292 -0.03074894 0.13346575 0.09871446 -0.010776285
0.15365104 -0.018958833 0.15970783 -0.01023041 0.020870648 -0.08167311 0.04437932 -0.035406455
-0.039821655 0.035343263 0.09657365 0.2061861 0.0933215 0.016844178 0.10444405 0.24062555
-0.051101565 0.08407254 0.046850797 0.018497702 -0.00111625 -0.09903615 0.013254172 0.021614332
-0.13508998 -0.01169884 0.066614754 0.0017711115 -0.029276183 0.099136144 -0.07951322 -0.12905167
-0.102501266 -0.093043074 0.0034868054 -0.049632985 -0.075181514 0.007742225 0.060718484 0.07710762
0.11708599 0.008599623 -0.086293295 0.10571744 -0.04464783 0.08553361 0.08013503 -0.10379936
-0.03435005 -0.10186997 -0.007924086 -0.019931732 0.107562855 -0.1363378 -0.0419152 -0.028847981
-0.010569059 0.08605995 -0.059946295 0.027630772 -0.078138314 -0.10930249 -0.11314534 -0.06979596
0.09962559 -0.13043587 -0.0056912093 -0.10113077 0.040730637 -0.04877237 0.022000492 0.14726022
-0.083661295 0.03879811 0.10976427 0.08583981 -0.049949475 -0.124919996 0.033648588 -0.005503594

Pair_score_mlp.fc_layers.1.bias f4 [8]
00000000: 5096 133c 7035 b33d f1b5 a9bd ac59 303d
00000010: 2dd5 133e 7e56 fe3d c479 71bd 5953 74bd
0.009008005 0.08750427 -0.08286656 0.043054268 0.14436789 0.12418841 -0.058954015 -0.0596498

CNN_embedding_types.weight f4 [106, 16]
00000000: 5331 143e f592 46bf f1cf fcbe b2de 733f
00000010: 399b d0be 028c 5abc eb74 e23f 05a0 39c0
00000020: 1551 fc3d 6ca1 5dbf e7f5 08bf 9cda 893f
00000030: ef8e f83e ba84 ca3e 1c5e 3c3f 0411 44bf
00000040: 461c 08bd 6794 f6bf 6a36 2a3f 970b 3bbf
00000050: 4669 ea3e 4419 27bf 182d d43e 60a8 81be
00000060: ea84 1ebd 1c8b 67bf 2f79 adbf ddb3 f23e
00000070: ead8 823f 9983 da3e dc08 b9be 0c0d 02be
00000080: 64bd 0ebf 458d d53f 49d9 1f3f 1e70 bdbe
00000090: 9556 9ebc 5b48 8b3f 574e e13e a390 84bf
000000a0: 2613 0740 2977 c6bf 23e7 88bf c10f 163f
000000b0: c48f 8bbd bda1 e13d 8813 02bf 4a34 a23f
000000c0: 953a 9bbe 5d25 1bbf 7e64 9fbe bca0 8f3d
000000d0: 52fe e7be f4d9 0540 6fa9 9cbd a361 9f3f
000000e0: e58e aebf 9fee 44bf da21 aa3e ae21 923f
000000f0: d6b5 c33d ec68 08c0 e159 0c3f 83a2 6f3f
00000100: a43f f43f 9027 763f 199f 0d3f 0497 713f
00000110: 0bd5 ae3e f5fe 13bd 4dbb bf3f 62f2 46bf
00000120: 84d1 483f 527e 3abd 1dcc 26be 7c58 ab3f
00000130: 21b6 26be cb93 83be c717 563d 93f6 c7be
00000140: 3be2 6b3e 189b 883e 4b90 8c3f 9d96 9fbf
00000150: 9b92 75bf 5a47 e7bf 617b 3a3c c8e0 e1bd
00000160: 6fbd a0bf 8c85 223f 584d 9e3e cda2 3640
00000170: 4472 9bbf 6213 5bbe 26df 06bf f1fb 323e
00000180: 84b8 043f 58d5 c1be efdb 66be aa67 c8bf
00000190: e571 f43e ace3 87bf 19cc e33f 7578 0cbf
000001a0: fe86 ad3e 6837 473f 4e46 f73b 6371 15bf
000001b0: 7451 6abf 678b 57bd 7acf e43f 8364 933f
000001c0: f123 c73d 394b cc3f bfa9 1abf a874 b43f
000001d0: 73c5 f13d d33a 343f c795 09bf 4476 3cbf
000001e0: 170f 0c3f 1dd8 f33f e3e4 cf3d e4ea e63e
000001f0: d901 cd3e faaa 7fbf cd37 1b3e da77 21bf
00000200: c888 3640 034c f3bd d210 c53e e5eb 793f
00000210: aa02 acbf f88a 55bf bd59 06be ec76 c2bd
00000220: 7d43 38be 3e5a 8ebf ed8a ea3e adad 5fbe
00000230: 8657 0e3f 09d7 dfbd b1b5 ff3f d292 033e
00000240: f200 e03c 2ae4 1a3e 1648 54bf 4095 0140
00000250: c286 793e 2a23 9a3d 2d50 90be b9bb 9b3d
00000260: a673 d03e 618f 81be 06de cf3e 4980 453f
00000270: ede5 6cbe 06a6 8dbf 0a10 943d f0fc 5dbf
00000280: 87c5 96bf 34da 0a3f 4592 4dbe c995 18bf
00000290: f4d2 eb3e 36ec 9d3f 5051 9e3e fe11 1b3f
000002a0: 7673 193f 2007 9cbe 7f51 9dbe 8934 d23f
000002b0: e18a 853f 04e6 bdbf c4b4 243f d2ef e53f
000002c0: 8e29 b33c 8466 f3bf 096c e5bd bed3 ba3e
000002d0: 38ff a6bf 273a cabc 1a1c a7bf f2b2 68be
000002e0: 3bc6 d9bd 9503 8cbf ec47 92be 3d39 db3f
000002f0: e4bf a23f 83c5 813f 2c8a 3dbf 792a 843e
00000300: d092 67bf 189f 1340 e971 4bbf a3e3 df3f
00000310: ba7c a6bd 847c 3cbe 6d35 97bf 6d48 dd3e
00000320: e29a a33f 7849 45bf 5881 dc3f 3e3e 62be
00000330: f85f 5c3f feb0 e83f 5f08 2f3f 6e50 85be
00000340: a8f6 f43f ef81 923f d348 b13f 1862 93bf
00000350: 2371 023e 7b3f 5d3f 1329 583f 4688 ccbf
00000360: 6aa3 743f b968 b2bf 9c87 7e3d 88d4 82bf
00000370: 521b 0cbf bd52 8c3f 7e9b fd3d 9007 cc3e
00000380: 6c5c a83c a38a 89bf 88e1 883d e4d6 2f40
00000390: 27b3 5640 461a db3f 7daf abbf bc3b 4abe
000003a0: 9937 7abf 3e2d 483d c2f5 59bf b8c3 19bf
000003b0: 6d29 6cbf f2b1 113e 76b1 febe 440f a5be
000003c0: 3f9f eebf dbc8 db3e b058 1d3f ba6d 3b3e
000003d0: 99c3 ca3d ec41 0bbf 5210 443f b6ce b0bf
000003e0: c548 853e cead 293f ae5e 3a3f 30f0 153f
000003f0: d402 743e 5bcb a93c 1700 4fbf 508c 5b3f
0.1447194 -0.7756799 -0.49377397 0.9526168 -0.40743425 -0.0133390445 1.769193 -2.9003918
0.12320153 -0.86574435 -0.5350022 1.0769839 0.4854655 0.39554387 0.735811 -0.76588464
-0.03323009 -1.9264039 0.6648928 -0.7306456 0.45783442 -0.6527293 0.41440654 -0.25323772
-0.038700975 -0.9044664 -1.3552607 0.4740285 1.0222447 0.42678526 -0.36139572 -0.1270029
-0.5575774 1.6683737 0.62440926 -0.369996 -0.019328395 1.0881456 0.4400508 -1.035664
2.1105437 -1.5505115 -1.0695537 0.5861779 -0.068145305 0.11017177 -0.5081105 1.2672207
-0.30318132 -0.60603887 -0.31131357 0.070130795 -0.45311219 2.0914278 -0.076495044 1.2451671
-1.3637358 -0.76926607 0.33228952 1.1416528 0.09556167 -2.131404 0.54824644 0.9360735
1.9081922 0.9615412 0.5532089 0.94371057 0.34146914 -0.036131818 1.4979035 -0.77713597
0.78444695 -0.045530625 -0.162888 1.3386378 -0.16280414 -0.25698695 0.05226877 -0.3905531
0.23035519 0.26680827 1.0981535 -1.2467839 -0.9592683 -1.806865 0.011381955 -0.11029202
-1.255781 0.63485026 0.30918384 2.8536866 -1.2144246 -0.21394113 -0.5268425 0.1747892
0.5184405 -0.3785808 -0.22544836 -1.5656636 0.47743145 -1.0616355 1.7796661 -0.548713
0.33892053 0.7781892 0.007546223 -0.5837614 -0.9153054 -0.05262318 1.7875817 1.1515049
0.09723652 1.5960456 -0.6041526 1.4098101 0.118052386 0.7040226 -0.5374417 -0.7361796
0.54710525 1.9050328 0.101510786 0.45101082 0.40040472 -0.99870265 0.15158005 -0.63073504
2.8520985 -0.118797325 0.38489395 0.9762557 -1.3438313 -0.83415174 -0.1312017 -0.09495339
-0.17994495 -1.112129 0.45809117 -0.21843596 0.556023 -0.109296866 1.9977323 0.12848976
0.0273442 0.151261 -0.82922494 2.0247345 0.24367812 0.07526238 -0.2818617 0.07604165
0.40713233 -0.25304702 0.40599078 0.7714887 -0.23134585 -1.1066291 0.07229622 -0.86714077
-1.177903 0.542392 -0.20075329 -0.59603554 0.46059382 1.2337711 0.30921412 0.6057433
0.59941804 -0.30474186 -0.3072624 1.6422282 1.0433007 -1.483582 0.64338326 1.7963812
0.0218704 -1.901566 -0.11202247 0.3648967 -1.3046637 -0.024685932 -1.3055451 -0.22724512
-0.106335126 -1.0938593 -0.28570497 1.7126843 1.271481 1.0138401 -0.7403896 0.25813654
-0.90458393 2.3065853 -0.7947069 1.7491344 -0.081292585 -0.18406874 -1.1813179 0.4321932
1.2781641 -0.7706523 1.7226973 -0.22094056 0.86083937 1.8179014 0.6837215 -0.26037925
1.9137774 1.1445903 1.3850349 -1.1514311 0.1273847 0.8642499 0.84437674 -1.5979087
0.9556185 -1.3938209 0.062141046 -1.0221109 -0.5472919 1.096275 0.123831734 0.3984952
0.020551883 -1.0745434 0.06683642 2.747491 3.3546846 1.7117393 -1.341293 -0.1974935
-0.97741085 0.04887127 -0.8514062 -0.6006427 -0.9225071 0.14228037 -0.49744767 -0.3223821
-1.8642348 0.42926678 0.6146345 0.18303576 0.099005885 -0.54397464 0.765874 -1.3813083
0.2603208 0.6628083 0.7280072 0.5856962 0.23829204 0.02072685 -0.8085951 0.85760975

embedding_CNN_distances.weight f4 [7, 8]
00000000: d72b 853f 9e21 93bf 5f35 473e 70f4 b83e
00000010: f647 703f e47f 07bf ff0b 3c3f ea53 9e3f
00000020: 846e 37bf 021b 373f ba5e 37c0 6e64 6ebe
00000030: 7c0d 81bf ac67 0dc0 58a0 82bf 053f 7f3d
00000040: 5305 843e 3b50 95bf b917 023d dddc c3be
00000050: b689 9d3f 7627 633f c151 f53f 5baf cf3e
00000060: 2d05 f3bd 3e86 be3e 341e 0b3f d530 e0bf
00000070: 690d 703f cbe1 45bf 7d12 d63e 0261 01bf
00000080: 13b6 8cbf 37e8 30be 11f3 1e3f 3147 c63f
00000090: 81fd 0a3e 596b 37bf 1347 6b3e 3d07 bb3e
000000a0: 306c bd3d 34eb d2be e76c 51be 2948 ab3f
000000b0: 758c bb3e a6c5 69bf 361b 36bf f2c8 893f
000000c0: 0000 0000 0000 0000 0000 0000 0000 0000
000000d0: 0000 0000 0000 0000 0000 0000 0000 0000
1.0404004 -1.1494634 0.19453953 0.3612399 0.93859804 -0.5292952 0.73455805 1.2369359
-0.7165301 0.71525586 -2.8651567 -0.23280498 -1.008224 -2.2094526 -1.0205183 0.06231596
0.25785312 -1.1665109 0.031760905 -0.38254443 1.2307651 0.8873209 1.9165574 0.40563473
-0.118662216 0.37211794 0.5434296 -1.7514902 0.9377046 -0.7729766 0.4181098 -0.5053865
-1.0993065 -0.17276083 0.6208964 1.5490476 0.13573267 -0.71648175 0.22976331 0.3652896
0.09249151 -0.4119507 -0.20451699 1.3381397 0.36630598 -0.9131721 -0.7113527 1.0764449
0.0 0.0 0.0 0.0 0.0 0.0 0.0 0.0

embedding_CNN_prices.weight f4 [6, 5]
00000000: e1cb f23f e22d b13f 5ce2 a2bf 56f8 dcbf
00000010: 9ef2 80bf 78ea e3be d178 8e3f 06e0 f83f
00000020: 9802 b23e b677 7cbe 8363 0b40 8310 0fbf
00000030: 768a cdbf 713e 34bf fcea 93bf 4076 99bf
00000040: 34bb eb3f 787d a5be fa2a b5bf b122 57bf
00000050: 3dfa 1dbf d063 a13e aec8 1d3d bc0d 47bf
00000060: 8d46 6d3f 0000 0000 0000 0000 0000 0000
00000070: 0000 0000 0000 0000
1.8968469 1.3842127 -1.2725329 -1.7263286 -1.0074041 -0.44514823 1.113062 1.9443367
0.34767604 -0.24655041 2.1779487 -0.5588457 -1.605788 -0.7040778 -1.1556087 -1.1989212
1.8416505 -0.32322288 -1.415374 -0.8403731 -0.6170996 0.31521463 0.03852146 -0.7775533
0.92685777 0.0 0.0 0.0 0.0 0.0
