checkpoints/GNNNoCNN_Epoch41_valmse2.1354_testmse2.3038_ndcg0.9310.model (torch, 249600 bytes, 52 tensors)

Pair_embedding_types.weight f4 [106, 16]
00000000: 43d5 ee3c c1d4 b2bd db7a cfbe f0c3 5ebf
00000010: 73ae 5c3f 2ca8 c0be 1ac3 033e 9dc7 a5bf
00000020: b81d ea3d 126f fdbb 0e81 9ebf 23b1 0a3f
00000030: 367e cabf 990d bb3e 10a2 883e 86be 363f
00000040: bcf5 ed3e 8687 96bf e91d f73f 41e0 d4be
00000050: 895f 82be 2e1e 3f3e c027 1abf 6a51 2c3f
00000060: d5ef 84bf c21b 343d af7f 06bf 86d3 5340
00000070: 9be1 4ebf 0111 0fbf 09d2 8ebf 6747 813f
00000080: 01f6 db3f fa35 1240 8f3c 84bf 26b9 133e
00000090: a820 623f 0a65 a8bf 1802 91bf 36e4 8d3d
000000a0: da23 243f 049e 013e 3ee9 813f 4246 dd3d
000000b0: c646 74bf 2a0a c43d 4cf5 913f f982 9bbd
000000c0: 49e6 28bf 1ea4 973f b53b c5be 8c0d 95bf
000000d0: 497a d6bf 3b38 5a3f f70e 00c0 26a6 4b3c
000000e0: fca9 9c3c 4759 873f 948e abbf f961 a33f
000000f0: f22a 203c 732b 783f abf5 9c3f 6265 4a3d
00000100: 7237 c3bd 5da1 413e ad87 543f b737 d2bf
00000110: d7d8 0840 f220 8abf aa95 563e b977 acbf
00000120: b851 9cbe fdc9 0f3e 38d9 2f3e bbab 713f
00000130: f1bc c43e 8ec1 25be 3868 733e 2f48 463e
00000140: 4ae0 a8be 8659 183e 79e8 923e dee3 873f
00000150: d580 a8be d398 94bf 1906 2abe 9f31 d3be
00000160: 1455 2b3f 3573 c53f acad 37bf f272 51bf
00000170: e304 58bf 5295 1f3f 1123 653f 247f bd3f
00000180: 6847 b1bf a28e 6b3e ca12 e73f 42eb 103e
00000190: 3a44 3a3f 9cc4 603e 5da6 61bf a7e1 0b40
000001a0: 0524 8ebf 7490 9b3f 0a80 653e 9297 7cbf
000001b0: fb44 efbe acc7 723e cc99 f3be 8aea b9bc
000001c0: a783 393f 938f c53f ab70 813e e878 c0be
000001d0: 1138 27bf 318b 4a3e f8a4 9abe 1b0f 2dbe
000001e0: 456e 8e3f af73 26c0 5c82 843e 00ea 8bbe
000001f0: f1a5 28be b942 c0bf 3a21 d8bd 6366 913d
00000200: bf5b 8d3e b0be c53f 94ac be3e 2678 793f
00000210: 153c 4cbe e813 903f a1ec a3bf 5eae 1b3f
00000220: 3142 5c3e df54 80bf 3e35 bb3f d894 0abf
00000230: 0767 d8bc c1ff a33f 50f0 31bd 6985 ad3e
00000240: ad8d 713f 1726 8e3d 20b1 de3e bfe9 7abf
00000250: 4fd6 cebe 794e 6f3f 557b c23e 77bd 19bf
00000260: 7fd7 1d3f a53f 28bd 7e67 1040 378d b73f
00000270: 234c bc3f 4b81 073e fd53 d23e f9fb 98be
00000280: 2efa 73bd 7fa6 01be e377 133e 79ce 8e3e
00000290: 241d 89bf ba86 44bf 74fc 973f 8de8 873f
000002a0: 0d62 b8bf 67b7 363f 00c7 5ebe 86b7 aa3f
000002b0: e720 b33f 75b9 523d ea0a 9e3e 939c d53e
000002c0: b43c 9dbf 9d6e 1dbf 23ba 17be ba37 6e3f
000002d0: 1006 68be c356 9ebf 40ff 4b3f 375e 243f
000002e0: 7df9 a43e ab00 4e3f 0ab1 fe3f 447b 5e3e
000002f0: 5eee 533d 730f b53f b175 92be 88cb 6e3e
00000300: f925 e33e 488d c7bf 6d1f f53d f9db a4be
00000310: 1b01 da3f d065 81bf 3193 073f a39e c23f
00000320: f6ca 26be 8d51 bcbf c827 3bbf f0f8 1a3f
00000330: 463f 643f bf16 493e cb49 d23d 06be b93e
00000340: 3fe9 4ebf 51c3 d53f d3cd b0be dc6a 0b40
00000350: be60 a33f 8952 c83e 914b aabf 835c 983e
00000360: 416f c5be 4b12 873e 0dd0 27bf e0af 0f3f
00000370: 94a3 a6bf f20c 5340 3e9b 0340 1310 05c0
00000380: adea 65bf 8bc7 55bd 966f 15c0 d189 ae3f
00000390: f99a 86bf cf89 b3be dfe9 cb3e aa73 7abf
000003a0: 20cc e1be fa71 21bf 93b6 40bf 28b7 bf3e
000003b0: 520f afbf 6a34 6cbf 2d70 c7be b9e2 c4bf
000003c0: 5517 8dbf e925 dd3e d6d2 c5bf b9d6 2f3d
000003d0: 9a85 b03e 99a3 b73f ee50 663f bd77 adbf
000003e0: 0d20 723f b230 8bbf cf02 90be e1b1 9ebe
000003f0: 9918 d33f 8f22 dbbe c8ef ffbf a319 fa3d
0.029154425 -0.08731986 -0.4052342 -0.87017727 0.8620369 -0.37628305 0.12867394 -1.2951542
0.1143145 -0.007734188 -1.2383134 0.5417654 -1.5819767 0.36533812 0.26686144 0.71384466
0.46476543 -1.1760108 1.9306003 -0.41577342 -0.25463513 0.18663856 -0.60216904 0.6731173
-1.0385691 0.043971784 -0.5253858 3.3097854 -0.80812997 -0.5588532 -1.1157848 1.0099915
1.718445 2.2845445 -1.0330981 0.14426097 0.8833108 -1.3155835 -1.1328764 0.069282934
0.64117205 0.12657934 1.0149305 0.10804416 -0.9542049 0.09572251 1.1402984 -0.075933404
-0.6597639 1.184696 -0.38522115 -1.1644759 -1.6756068 0.8524205 -2.0009134 0.01242975
0.019124024 1.057412 -1.3402886 1.2764274 0.009775864 0.969413 1.2262472 0.049413092
-0.0953206 0.18909211 0.83019525 -1.6423253 2.1382349 -1.0791304 0.2095553 -1.3474036
-0.30531096 0.14041896 0.17172706 0.94402665 0.384254 -0.16187117 0.23770225 0.19363473
-0.3298362 0.148779 0.28692988 1.0616415 -0.3291079 -1.1609138 -0.16603889 -0.41248795
0.66926694 1.5425783 -0.7174938 -0.8181602 -0.84382457 0.6233722 0.8950663 1.4804425
-1.3849916 0.23003629 1.8052609 0.14152244 0.72760355 0.2195 -0.88144475 2.1856477
-1.1104742 1.2153459 0.22412124 -0.9866878 -0.46732315 0.23708981 -0.47578275 -0.022694845
0.7246651 1.543444 0.2528127 -0.37592244 -0.65319926 0.1977966 -0.30203986 -0.16900294
1.1127402 -2.6008108 0.25880706 -0.27326965 -0.16469552 -1.5020362 -0.105532125 0.07099607
0.2760906 1.5448818 0.37241042 0.97448957 -0.19944794 1.1256075 -1.2806588 0.6081294
0.21509625 -1.0025901 1.4625623 -0.5413337 -0.026416315 1.2812425 -0.04344207 0.33890846
0.94356805 0.06940859 0.4349451 -0.9801292 -0.4039788 0.93479115 0.3798472 -0.60054725
0.61656946 -0.04107632 2.2563167 1.433997 1.4710735 0.13232915 0.41079703 -0.2987974
-0.05956476 -0.1266117 0.14401202 0.278919 -1.0712018 -0.76768076 1.1873918 1.0617844
-1.4404923 0.713736 -0.217556 1.3337257 1.3994416 0.051446397 0.30867702 0.4172102
-1.228415 -0.6149691 -0.148171 0.9305378 -0.22658563 -1.2370228 0.79686356 0.6420626
0.32221594 0.8046977 1.9897778 0.2172671 0.051740997 1.414534 -0.28605416 0.23319829
0.44364908 -1.5589991 0.119688846 -0.32199076 1.7031587 -1.0109196 0.5295897 1.5204662
-0.16288361 -1.4712387 -0.73107576 0.605361 0.8915905 0.19637583 0.10267981 0.3627779
-0.80824655 1.6700231 -0.3453203 2.1783972 1.2763898 0.3912547 -1.3304311 0.2975808
-0.38561442 0.26381144 -0.65551835 0.5612774 -1.301867 3.297665 2.0563502 -2.079106
-0.8981121 -0.052192252 -2.3349357 1.3635808 -1.0516044 -0.35066077 0.39826867 -0.9783274
-0.44101048 -0.6306454 -0.75278586 0.37444425 -1.367655 -0.9226748 -0.3895277 -1.538169
-1.1022745 0.43192986 -1.5454967 0.042929385 0.3447693 1.4346801 0.8996724 -1.3552166
0.94580156 -1.0874236 -0.28127143 -0.30995086 1.6491882 -0.42799804 -1.999505 0.12211921

embedding_Pair_distances.weight f4 [7, 8]
00000000: a69f 003f 983e 56bf 57b0 6f3f ef34 3d40
00000010: 2d1f 2a3f 3df9 b33f b1cd adbe ec3d 963e
00000020: 81b0 0040 4bb3 0e40 83c9 533f 59ae d3bd
00000030: e91a be3f 93bf 76bf 28bb cb3f d62f 2340
00000040: a84a 37bf 7b5b 64bf e445 76bf 96f5 84bd
00000050: 56a6 b5bf d94b 04bf d9ce fb3d 248d c8bf
00000060: e3f4 d5be e63c ca3e 6611 f3bf 6c6f 58be
00000070: 617b 05c0 3b69 f0bf 9699 77bf a08b fdbe
00000080: 1605 853f bdf1 973f c3ee c8be bae4 01c0
00000090: 6d84 a6bf 44c2 34be 247a 2dbf 4c84 8ebf
000000a0: 0ea1 5fbd 9ca9 d53e 02e1 08bf 6bcf 3a3e
000000b0: 35cc b4bf aa71 46bf 04e4 d4bf 838d 0abf
000000c0: 0000 0000 0000 0000 0000 0000 0000 0000
000000d0: 0000 0000 0000 0000 0000 0000 0000 0000
0.50243604 -0.8368926 0.9362845 2.9563558 0.6645382 1.4060436 -0.33945993 0.29344118
2.010773 2.2296932 0.8272936 -0.103359886 1.4851962 -0.9638607 1.591649 2.5497947
-0.7159829 -0.8920209 -0.96200395 -0.06492154 -1.4191387 -0.51678234 0.122953124 -1.5668073
-0.41788396 0.39499587 -1.8989685 -0.21136254 -2.0856555 -1.8782114 -0.9671873 -0.49520588
1.0392177 1.1870648 -0.3924466 -2.0295854 -1.3009163 -0.17652231 -0.67764497 -1.1134124
-0.054596953 0.41730964 -0.53468335 0.18243186 -1.4124819 -0.7751719 -1.6632085 -0.5412218
0.0 0.0 0.0 0.0 0.0 0.0 0.0 0.0

embedding_Pair_prices.weight f4 [6, 5]
00000000: 2e12 b93d ffcf e53e 7112 cd3e 1c50 78be
00000010: 30eb 9a3f a6d7 5d3f 6dcd 4b3d 5bad 663f
00000020: 6e06 3a3f 83bb 523f 1f31 1bbe 3766 1ebf
00000030: f84f 25bf a28b 0c40 b9c7 45bf 8e89 9dbf
00000040: 11e7 01c0 4e60 f9be c5c8 2f3e c3cd ff3f
00000050: b574 0bbd c154 babf c304 b8bd 617f 7f3f
00000060: c8c4 b4bd 0000 0000 0000 0000 0000 0000
00000070: 0000 0000 0000 0000
0.090366706 0.4488525 0.40053132 -0.2424931 1.2103024 0.8665718 0.049756456 0.9010827
0.7266606 0.8231737 -0.15155457 -0.6187472 -0.6457515 2.1960225 -0.7725788 -1.2307603
-2.0297282 -0.48706287 0.17166431 1.9984668 -0.034046847 -1.4557115 -0.08985283 0.9980374
-0.088265955 0.0 0.0 0.0 0.0 0.0

Pair_shop_mlp.fc_layers.0.weight f4 [64, 32]
00000000: b850 fa3c b16b 32bd 8a87 243e 1730 3e3e
00000010: 32e7 6abe 830e 443d 5f3f 913d 6367 00be
00000020: f79a 973d f81a 1f3e 1ace 1dbe daeb c93c
00000030: 0009 0abe 71af 4cbe 8a89 963d 08ef 863d
00000040: a6fc dc3d 5088 523c 3779 c2bb 714c 963d
00000050: 0d01 773c d578 bf3d 28bc 7e3c 2d85 793e
00000060: 0747 06be f053 a73c 1cc2 653c 2d9f a93d
00000070: b465 bc3d fc42 593d 74e5 bbbd 2f2b 47be
00000080: cbbd 3fbe d258 cc3d bad0 a1bd f690 0e3e
00000090: a33d ad3d 3271 703e df71 923e c2dc 03be
000000a0: f4c6 0ebe 1e58 90bd 7976 cabd 655b 103c
000000b0: 14db d7bc 8183 27bd 9ee6 cc3c fa87 6e3e
000000c0: a817 2f3d 1cef 2cbe 96e6 a43c 5d87 4a3e
000000d0: 1550 843d 654d bebd 6c70 eebb 59ed db3d
000000e0: f065 d0bd ad06 ad3d 2fcd 5ebc cd6b 23be
000000f0: 8912 243e 2374 a3bd 5d19 483e 8336 493d
00000100: e51d 6d3d 7ada 413d 0770 a5bc a16f 82bd
00000110: 12be 003e b0a0 093e bcba 853d 5328 e13d
00000120: 45a2 563e 5162 3ebe 3652 e2bd a3a9 fb3d
00000130: 756b a8bd 7c60 0cbe 97b6 41bd c04f f73d
00000140: baec 27be 60f8 21be 6869 0c3e e2f8 1c3e
00000150: 45df e6bd e39a de3d 4993 383c 1973 90bc
00000160: 40a6 b2bd e134 d43d 99cc da3d 96ab f6bd
00000170: 8b4a 003e dd65 f4bd 9aec e33d b1bc 383d
00000180: 11de abbd b912 d8bd d2d8 09bd ad32 e5bc
00000190: 5bde 8b3d 1c58 073e f490 203e 5965 873c
000001a0: f6b9 07bd 6f2d 403e d529 13be 1c7c d73d
000001b0: 2fe2 e83d 21cd eb3d 8aef 3fbe 721b 293e
000001c0: c4b1 b2bd c1da e53d 2e4e 37be 2d1d 63bd
000001d0: 23ed f93d 7313 a0bd e299 f837 3838 1b3e
000001e0: 048f 273e 82c7 983d c290 273e 7722 9e3d
000001f0: aa63 4bbe c2cf b1bc 559f 20be fcda b9bd
00000200: 2ba1 193d e779 993d 3b6d 0e3d 100f 1e3e
00000210: 8081 a63c a8b6 30be e0b8 483d 8e40 ddbd
00000220: c35d 99bd 13c4 d7bd b97b 563d 5802 6bbd
00000230: 878e 67bc 703f 05be 959e 32bd 8f7c b13d
00000240: 3448 01be 93ba e8bd e1cf bfbc 5cc9 48bc
00000250: e9a8 093e af70 723d 5977 12be 21cb 653d
00000260: 0a5b 32be 5b34 e6bd d533 bdbd d832 b3bd
00000270: 47f7 d03c 1fb6 19be 7cea 823d 3198 08be
00000280: 591c 223d ad6a bb3d 875f 8cbd b453 88bb
00000290: e38b e4bb 7d42 b93d ca21 263e c829 ab3d
000002a0: d133 3abe 3b84 47be 6f88 16bb bcc4 f4bd
000002b0: 7277 543d 93f4 55be 21c8 fabd 3348 cf3c
000002c0: 0df9 4e3b 196d 2d3e eb91 0ebe e1ee dc3d
000002d0: 3d5d c3bd 63d5 143e 1f10 073e 323e 12be
000002e0: fc8b 393e e465 443e f05d 9d3d e361 6fbd
000002f0: f47d c1bd af7d 103e 9cdb bc3c 3a36 36be
00000300: 8701 7c3d 8875 2ebe da83 d7bd e238 37bd
00000310: a772 a23c 1cac 23be 5a60 8cbd 4fa8 0abe
00000320: 9e20 eebc d881 3cbe 5045 0dbd d7ba 00be
00000330: 237e b43d 52ae 193d 9c0c 81bd 0d0f d73d
00000340: d41a ebbc 1531 ec3d ed09 7dbd 5c40 fb3d
00000350: 3a4d 133d 160b 19be 141d a6bd a291 53bd
00000360: 3138 403e 4897 8e3c 5389 d63d 4d14 40be
00000370: ada8 34be 9925 48bd a676 da3d 3c2a 3ebd
00000380: 0c56 34bc 9110 29bd 3d39 7cbd 9bd9 a8bb
00000390: 47d9 1a3e 3f64 583d 4e9e bc3d 3be5 da3d
000003a0: 47db cabd ad70 023d dfb8 493d 7668 fcbc
000003b0: 88b9 273e 8182 463e 86e4 0d3d c62e f33d
000003c0: 2419 2bbe 946e 0b39 cbc5 56bd e761 39be
000003d0: 8bf2 c5bd 04c3 253d 18af 25be d1b3 11be
000003e0: 71f8 ba3d 8fab aa3d bd1c 533e 937f d13d
000003f0: 66a1 02bc 0058 4d3d c8dd dcbc 85a4 993d
0.030556068 -0.043559734 0.16067329 0.18573032 -0.22939757 0.047865402 0.07092165 -0.12539439
0.07402604 0.15537632 -0.15410653 0.024648596 -0.13479996 -0.199888 0.07350452 0.0658856
0.10790376 0.012849882 -0.00593486 0.07338799 0.015075934 0.09349219 0.01554779 0.24367209
-0.13113032 0.020425767 0.01402333 0.082823135 0.09199086 0.053042397 -0.09174624 -0.19450067
-0.18724744 0.09977879 -0.079011396 0.13922486 0.08459022 0.2348068 0.28602502 -0.12877181
-0.13943082 -0.07048057 -0.09885878 0.008810853 -0.026349582 -0.040896896 0.02501231 0.23294058
0.04274717 -0.16888088 0.020129483 0.197782 0.06460587 -0.092921056 -0.0072765853 0.1073863
-0.10175693 0.08448539 -0.013598724 -0.15959091 0.16022696 -0.07981136 0.19540925 0.049124252
0.057889838 0.047327496 -0.02019502 -0.06368948 0.12572506 0.13440204 0.065297574 0.10994019
0.20960338 -0.18592192 -0.11050837 0.12288215 -0.08223621 -0.13708681 -0.047293272 0.12075758
-0.16398898 -0.15817404 0.13712084 0.15329316 -0.11273054 0.10869386 0.011265584 -0.017633008
-0.08723116 0.10361648 0.10683555 -0.12044446 0.12528436 -0.119334914 0.111291125 0.045101825
-0.08391965 -0.10550446 -0.03365404 -0.027978266 0.0682952 0.13217205 0.15680295 0.016527819
-0.03313633 0.18767332 -0.14371426 0.10521719 0.11371266 0.115137346 -0.1874372 0.16514376
-0.08725312 0.112233646 -0.17900917 -0.055447746 0.12203433 -0.0781621 2.9635561e-05 0.15158165
0.1636315 0.07459928 0.16363814 0.077214174 -0.19862238 -0.021705512 -0.1568578 -0.09074971
0.037507217 0.07493954 0.03477214 0.15435433 0.020325422 -0.17257178 0.049004436 -0.108033285
-0.07488587 -0.10535445 0.052364085 -0.057375282 -0.014133102 -0.1301248 -0.043608267 0.08666336
-0.126252 -0.11363711 -0.023414554 -0.012255039 0.1344334 0.059189495 -0.1430334 0.056101922
-0.17417541 -0.11240455 -0.09238402 -0.08749932 0.025508536 -0.1501088 0.063923806 -0.13339306
0.039577816 0.09151206 -0.06854158 -0.004160369 -0.0069746836 0.09045885 0.16223827 0.083575785
-0.18183829 -0.19484036 -0.0022969504 -0.119515866 0.051871724 -0.20894079 -0.12245203 0.025302982
0.0031581551 0.16936149 -0.13922851 0.1078775 -0.09539268 0.14534526 0.13189743 -0.14281538
0.18119806 0.19179493 0.07683933 -0.05844296 -0.09447852 0.14110444 0.023053937 -0.17794123
0.061524894 -0.17037022 -0.105231956 -0.044731982 0.019830061 -0.15983623 -0.06854315 -0.13540767
-0.029068287 -0.18408906 -0.03448993 -0.12571274 0.08813121 0.03751976 -0.06301233 0.105009176
-0.028699316 0.11532799 -0.061777044 0.12268135 0.03596232 -0.14945635 -0.08111015 -0.05165256
0.18771435 0.01740612 0.10475411 -0.18757744 -0.1764247 -0.04886398 0.10667162 -0.046426997
-0.011006843 -0.041275565 -0.061578024 -0.0051528937 0.15121947 0.052829977 0.09209882 0.106882535
-0.09905105 0.031845737 0.049248572 -0.03081153 0.16379368 0.19385721 0.034641765 0.11874156
-0.16708809 0.00013297267 -0.052434724 -0.18103753 -0.09665402 0.040469185 -0.16180074 -0.14228751
0.09129418 0.083335035 0.20616432 0.10229411 -0.007973051 0.05013275 -0.026961222 0.07502083

Pair_shop_mlp.fc_layers.0.bias f4 [64]
00000000: 94f7 393e 8745 99bc 0b31 e3bd 5b6f afbd
00000010: dc89 c2bd 4682 96bc 802f d23d f0b4 bbbd
00000020: 86ee e5bd 0f57 b53d e956 c03d 6df7 223e
00000030: c3f9 cdbd 7220 ce3d a0b1 af3d 99a2 51bd
00000040: 191e debd 79dd acbd 6fd2 a5bd 6adb a43d
00000050: fdff 3c3e 68e0 123e 621c c2bd d8ae 62bd
00000060: 0892 59bd 5cd1 b2bd 2d09 b1bc ccff 143d
00000070: faae 2abe ba53 ec3d aca4 563d 8279 e63c
00000080: bbb0 533d 57a8 483d 7a4d 0cbd 9d3d 7dbd
00000090: 2e8d b3bc dd4f e13d 35bc a1bd de94 db3d
000000a0: db2c cfbc 2007 353d a8a1 9c3d 23f3 253e
000000b0: 7439 b53d e36c 21bd ca6a 3e3e 2ff7 5ebd
000000c0: 39d0 aabd 5e93 a8bd e16f 76bc fe8c 893d
000000d0: 6b0d 053e e2a2 a03d be22 f2bd 8a66 92bd
000000e0: abd6 ee3c 795b 12be 25d1 173d fbf5 353e
000000f0: 4ad6 e7bd 37ef 743d 1cd2 15be 9332 58bd
0.1816085 -0.018709911 -0.110933386 -0.08566161 -0.09498951 -0.018372666 0.10262966 -0.091653705
-0.11227135 0.08854496 0.09391577 0.15914698 -0.10057404 0.10064782 0.08578801 -0.051180456
-0.108455844 -0.0844068 -0.08096778 0.080496624 0.18457027 0.14343417 -0.0947807 -0.055342525
-0.053117782 -0.087313384 -0.02161082 0.03637676 -0.16668311 0.11539407 0.052403137 0.028134111
0.051682215 0.048988666 -0.034253575 -0.061826337 -0.021917906 0.11001561 -0.07897226 0.107217535
-0.025289943 0.044196248 0.07648021 0.1620603 0.08848849 -0.039410483 0.18595424 -0.05443495
-0.083404966 -0.08231233 -0.015041322 0.06716345 0.129934 0.078435674 -0.11823033 -0.07148464
0.029155096 -0.14292707 0.03706469 0.17769615 -0.11320169 0.059798446 -0.14630932 -0.052782606

Pair_shop_mlp.fc_layers.1.weight f4 [16, 64]
00000000: f1a1 81be a768 0fbd 1111 6d3b 94e8 a23d
00000010: 6c52 4f3d 5b6a a8bc ef32 da3d a9c2 b3bd
00000020: b2fb 1bbd a767 1ebc 8cb8 81bb 73f2 e23d
00000030: 2690 aebd 8768 a4bd a2a0 21be 82d6 113e
00000040: 0cd7 cf3d ae0f 133e 4dcf afbc fbed 9dbc
00000050: de34 1d3e 2cd8 fbbc e7b7 9e3d 7edb 2c3d
00000060: 9cb2 d03b 1cf8 ae3d 68dd 22be b6fd 313e
00000070: f719 113e f9e9 b23d 3726 cfbd 205e 93bd
00000080: a7e6 253e 0308 dabd c41f e73d 5e47 153c
00000090: 3ef1 fd3d fb6e 563e b0d0 8c3d 9b98 cb3c
000000a0: 7820 413d 3bd4 933d 3cce 3f3d fedf 8abd
000000b0: bb87 15be 1d34 07bd 7873 ce3c 2b64 d53d
000000c0: 3dce ff3c a4a5 1f3d 52e1 373e b9d2 023d
000000d0: cd0a e23d cfbc a23d d732 febd d6ba 6bbd
000000e0: a6ba e13d 4707 d0bd 6641 573e 0f3b 573c
000000f0: a8aa 133d 274f 8abc 966c b93d d5c0 0c3c
00000100: bd73 643e 321c 5dbc a5bb 433c e999 f43d
00000110: 2c3a 38bd 7fd8 b93d 3c4e dd3d 2c83 a8bd
00000120: c81e a33d 262f 073d 8504 ad3d 2d51 d23d
00000130: 1e9e a73d 80a0 a43d eab0 10bd 21e5 fc3d
00000140: 40fd 993c c281 96bd 673a 053e d5e5 4bbd
00000150: f03d 55bc b23f a1bd 4cc1 b83d 7d0e b8bd
00000160: 7167 323d 1deb 883c d815 7ebd a35f beba
00000170: 1e15 70bd 7e89 d03d 661c 103c 583e c03d
00000180: c5d7 2ebd 4a2b 5dbd 7d46 ecbd 7bfd 8e3d
00000190: 27a0 6c3c e147 96bd bd8a 5fbd 367c 943d
000001a0: a1e8 87bd 3826 d23c e649 093e 0cc3 1b3e
000001b0: 1c11 ecbc 456e d53b 9b93 fd3d 80fc 6cbc
000001c0: 4a06 21be ffb3 73bc 71d4 b83b da18 453b
000001d0: e682 1cbd 3ce6 cebc d1fb 713d 2afb 8cbd
000001e0: 43c7 00bc 0b9b d13d 1a00 f1bd a778 0b3e
000001f0: dd84 cd3d 1303 d8bd cb8a b1bd 8c05 aa3d
00000200: f8bb 653e 462c 863d c8cc 9d3d bd60 a33a
00000210: 6424 e6bd 8949 5f3d 9e2b 12bc d837 8abd
00000220: 043b 363d dcd5 da3d a0ff 483c 9b1a 08bd
00000230: 940c 25bd 4008 013d 3418 763c 5742 8abd
00000240: d331 b0bc 76f1 ba3c 91c3 d53d 2aee 0c3e
00000250: 2720 483d 4539 b43b 31fd f5bc 3790 993d
00000260: 9ede 31bc 421a 92bd c433 673e 62ef 54bd
00000270: 9707 c4bc eba4 283e 9006 473e 7828 d6bd
00000280: b37c ae3d 77b5 913c f790 92bd f417 0bbd
00000290: 74bb 98bc 3e15 d1bd 3c3c 193e 0d0a c63d
000002a0: 468e b63d 00ad c3bc a15f 0c3c 9de8 debb
000002b0: ee56 173e 2aaf af3c 93fc 2c3d d428 cebd
000002c0: 5747 1ebe b54d b43d fa85 32be c0d5 e3bb
000002d0: 9580 13be d3bd fa3d 4f7f 2e3d c546 cb3d
000002e0: 6835 9e3c 1e9e 5bbd af28 653d e6bc f9bb
000002f0: e4d1 883d da76 d73d 71e2 abbd 4afd af3d
00000300: 1248 2b3e de68 853d ef6d fd3b 9258 cabd
00000310: 78a6 3d3d 3505 9ebc 40a7 ed3d f848 073e
00000320: dcb7 003e 7dfb 443e b8a5 143e d7de 783c
00000330: 3dbd 1e3d 006b 8abd 90e1 8d3b f4d7 bebd
00000340: b300 893d d4b1 4dbd 624b 333d 8b09 033d
00000350: 5a85 43bd 8b8b ec3d b1e0 043e 8a6e de3d
00000360: 08e7 273e 86df 41be a20d 5d3e fb3e 983d
00000370: 3230 023d 6881 e93d d53a 2b3e 42d0 163e
00000380: 1467 b83d 32c6 0f3d e0d4 0b3d cdbe 3fbd
00000390: a62e f4bd 2694 d6bd 2bfd a2bd 1671 1939
000003a0: 43eb ebbb 3572 8b3d c0fb 913d eba5 573b
000003b0: 614d 723d f976 c9bc a07f 0dbd e9a8 523d
000003c0: d239 7abe 6caf e8bd 16de 42be b241 da3d
000003d0: 6ec9 febd a789 74bd 37c9 a5bd e0cd 6b3d
000003e0: c625 ce3d 061e 67bd 53fc b73d a66b 0d3e
000003f0: 9f8a 29bd 413d 743d ec73 f93c 7cd6 173e
-0.25318864 -0.035011914 0.0036173502 0.07954517 0.050615713 -0.020558527 0.10654246 -0.08777363
-0.038081832 -0.009668267 -0.0039587673 0.110814 -0.08523588 -0.080277495 -0.15783933 0.14241984
0.10148439 0.1436145 -0.021461153 -0.019278517 0.15352198 -0.030742727 0.0774992 0.04220151
0.006368948 0.08543417 -0.15904772 0.1738194 0.14170061 0.08736033 -0.10114711 -0.07195687
0.16201268 -0.10646059 0.11285356 0.009111254 0.12399529 0.20940773 0.068757415 0.024853041
0.047150105 0.07218214 0.04682754 -0.06781004 -0.14602558 -0.033008683 0.025201544 0.10419496
0.031226272 0.038976327 0.17957047 0.031939242 0.11037216 0.07946169 -0.12412041 -0.057551228
0.110219285 -0.10157638 0.21021041 0.013136639 0.036051422 -0.016883446 0.09053914 0.008590897
0.22309776 -0.013495492 0.011946593 0.119434185 -0.044977352 0.090744965 0.10805938 -0.08228144
0.079648554 0.03300395 0.08448128 0.10269389 0.08184455 0.080384254 -0.03532497 0.1234839
0.018797517 -0.07348968 0.1301056 -0.04977973 -0.013015255 -0.07873477 0.090212435 -0.089871384
0.04355568 0.016713673 -0.06203255 -0.0014524352 -0.05861389 0.101824746 0.008795833 0.09386891
-0.042686243 -0.05399636 -0.11536882 0.06981941 0.01444248 -0.073379286 -0.05457567 0.07250254
-0.06636167 0.02565299 0.13407096 0.15211123 -0.028816752 0.0065133893 0.12381669 -0.014464498
-0.15725055 -0.014874457 0.0056405594 0.0030074627 -0.038210772 -0.025256269 0.05907804 -0.06883843
-0.007860008 0.1023465 -0.117675975 0.13620244 0.10035107 -0.10547461 -0.08669051 0.08301839
0.22434986 0.06551413 0.077050745 0.0012464743 -0.1123741 0.054513488 -0.008921532 -0.067489326
0.044489875 0.10685322 0.012267977 -0.033228498 -0.0402952 0.03150201 0.015020419 -0.067509346
-0.021508133 0.022820216 0.10437692 0.13762727 0.048858788 0.005499991 -0.030027958 0.0749821
-0.010856299 -0.071339145 0.22578341 -0.051986106 -0.0239294 0.16469161 0.19436097 -0.104569376
0.08519878 0.017786724 -0.07156556 -0.03395839 -0.018644072 -0.1020913 0.14964384 0.09669886
0.08913855 -0.023886204 0.008567722 -0.006802632 0.14779255 0.02144583 0.04223306 -0.10066381
-0.15456901 0.08803884 -0.1743392 -0.006952971 -0.14404519 0.12243237 0.04260188 0.099256076
0.019312575 -0.05361759 0.055947002 -0.0076213954 0.066806585 0.10520716 -0.083928 0.08593233
0.16726711 0.065141425 0.0077340524 -0.09880175 0.046301335 -0.019289592 0.11604166 0.13211429
0.12570137 0.1923656 0.14516342 0.015189848 0.03875469 -0.0675869 0.0043298677 -0.093185335
0.066895865 -0.05021842 0.043773063 0.031991523 -0.047734596 0.11550053 0.12976338 0.108609274
0.16396725 -0.18932924 0.21587232 0.074338876 0.031784244 0.114016354 0.16721661 0.14727882
0.090040356 0.035101123 0.03413856 -0.04681282 -0.1192296 -0.10477476 -0.07958444 0.00014633345
-0.0071996762 0.06808893 0.071280956 0.0032905291 0.059155826 -0.024592863 -0.03454554 0.051430617
-0.24436119 -0.11361584 -0.19030032 0.10657062 -0.124407634 -0.059701588 -0.08095019 0.057569385
0.100657985 -0.056425117 0.08983674 0.13810596 -0.041391965 0.05962873 0.030450784 0.14827913

Pair_shop_mlp.fc_layers.1.bias f4 [16]
00000000: 5d36 34bb 0211 1c3c 59f8 093e 752a 253d
00000010: b85b abbd d3e3 793b 80b0 853c 316b a9bd
00000020: fb9c 4e3d b083 a6bd ae18 57bd 6c86 913d
00000030: 71eb cd3d 99c0 843c 6593 b8bd 523c 0e3e
-0.0027498223 0.009525539 0.13473643 0.040323693 -0.08367103 0.0038130179 0.016319513 -0.08272398
0.050442677 -0.08130586 -0.05251377 0.07105717 0.100546725 0.016205119 -0.09012488 0.13890198

Pair_score_mlp.fc_layers.0.weight f4 [64, 32]
00000000: 559e 0fbe 2c16 cebd 29ae 263e 08ae 27bd
00000010: bf03 99bd 1642 bfbd 2bcc 563e 54b3 a13c
00000020: 3d33 d3bb ba70 f6bd 3352 49bd eb3c cdbd
00000030: d267 05be 7da5 0abe 7433 8f3d e7e0 353c
00000040: c013 3fbe d436 bdbd 26f9 833e b3a6 7fbd
00000050: e017 df3d 6c33 4bbe 7136 3b3d e6e3 fc3d
00000060: 4cd3 23be 42cb 79bd e404 273e 7f44 cfbd
00000070: bb51 a53d 631d 3bbd 05e9 7bbe 43f4 94be
00000080: f341 3bbe 8a73 8fbd 6909 4d3e a32a 403e
00000090: 79f2 acbd cff8 333e f884 303e 64df ebbd
000000a0: 7d7d f23d ef40 5bbd ea0a acbd 1b66 183d
000000b0: 1b38 963d cc79 23bd 48d8 d1bd 6a37 92bc
000000c0: 46f5 a0bd 3f29 eebd 29f2 473d 74ce 1d3e
000000d0: cbff 5eba bbe2 f9bd 4060 443d c94a f2bd
000000e0: 7e3d 2ebe feba 383e 05ca 263c 4a36 0abe
000000f0: 1d4f 3abd 763b c3bc 0a8f 1e3e 03bd 9e3d
00000100: 8856 fabd 933e 95ba ea70 3ebd df34 d0bd
00000110: 0ba8 2a3d 2f36 68bc 5856 c93d 2ef5 00bd
00000120: eee3 073e 2aec 1cbe d969 863c b947 333e
00000130: 069f df3c ca55 3bbd 30ba b03d f35f 0d3a
00000140: 1e05 8bbe d659 143d a723 0d3d e083 683e
00000150: e8ca 5e3e 0c0c 863d 119e 543e 20f3 7f3d
00000160: 5ae3 323e 6684 88bd bffa 58bd 856e 1dbc
00000170: 63f4 1abe bdce f2bd abf0 b4bd e4f5 023e
00000180: 1425 2abe 1416 033e c3bc 673e c822 333d
00000190: 4f0f 343e 5a57 12be e07a ecbd 557f 793d
000001a0: 1b86 1a3e bd1e 953d 7421 04be 298f 3b3e
000001b0: 5e7b acbd 7e4a 893d f246 bfbd be78 373e
000001c0: 7dbf f83c 906f e2bd 95ef df3d 7ccf 9c3d
000001d0: 9adb e73c bc3d 873d 6e1b ff3d a45d 64bd
000001e0: b4f6 123e 2866 59be 162d 1a3d 6833 8abd
000001f0: 7fc6 1b3d ebe7 533d efb1 373e ec69 323d
00000200: 01cb 46be b187 e1bc 0e31 c13b 8c0f e6bd
00000210: c422 0b3e 808c fabc 7968 03be d7ce 7cbe
00000220: 195e 143e 6183 85bd 4582 42be be39 46be
00000230: 9bfe 18bd 7787 643c f3b6 01be d8e5 1ebe
00000240: f33f 433e f110 493e 8d67 0dbe 916a debd
00000250: fa8f bdbd 4c74 d13d b1c5 be3b 4283 88ba
00000260: cf5e 46be 8fab 9a3d 6ac1 d4bc a4ec 663e
00000270: 9170 d2bc a0f9 09be a983 393d aec2 1abe
00000280: 3fd9 fabd 7b01 143d e2b6 163e dba8 953d
00000290: 0305 c93d 4dfd 0e3e c03f bfbd bdf3 dfbd
000002a0: 4af1 cbbd e3be 14bc 4ff0 393e 4c03 863d
000002b0: 099e d13b 7b18 c53d 95ff 21be 19dd 86bd
000002c0: 7dbf 2f3e 9071 243e ac21 b73d b6a0 e5bb
000002d0: 9ec8 f63d 11a4 08be fb28 c03c 21bf c03d
000002e0: d242 8e3d e0ef 903d 45fe 4d3e e919 37be
000002f0: 034e 263e 7f55 11be aed9 203e 3008 88bd
00000300: d113 01be d70e 593e 3b01 49bd ebc9 7ebd
00000310: bc0e 15be e89b afbd c2b0 123d 4732 0b3e
00000320: 14e1 ac3a e782 963d 5e0e c7bd 7ba2 1a3e
00000330: 8426 33bd e5dd cabd a417 0b3e ce0c d63c
00000340: ff38 c6bb bfba 083e cffb bdbd 703b 07bc
00000350: 3761 89bd f452 863d 80f1 3b3e a720 2b3e
00000360: df7c a33d ee18 70bd 1bed 403d 9a49 5c3e
00000370: 36a4 f4bd c68f f73d 9d56 1b3e 5aa1 12be
00000380: 6517 2d3c 6a06 90bd 57fa 523e be90 0a3e
00000390: 661c 143d 7444 983c 338f b1bd f420 b8bd
000003a0: def5 3d3e 079f 723e 2ab8 59be fbae f9bd
000003b0: 96d0 873d e8a0 6abd 9b36 dbbd 1114 003e
000003c0: 5633 46be 04d2 09be 8672 c03c 1454 95bc
000003d0: cd41 90bd a990 713e f38b 433d 21c8 5bbb
000003e0: 9fcc 7938 733e e1bd 3aff babd 8ca8 f9bd
000003f0: 2b6b dcbd c788 9fbd 6e7f 333e 870d 8f3d
-0.14025243 -0.10062823 0.16277374 -0.040937454 -0.07471418 -0.09338777 0.20976321 0.01973883
-0.006445317 -0.1203322 -0.049150657 -0.10021385 -0.13027886 -0.13539691 0.06992236 0.011100984
-0.18659878 -0.09238973 0.25776023 -0.062414836 0.10893226 -0.19843835 0.045706216 0.12348156
-0.15998572 -0.060984857 0.1631046 -0.101204865 0.080722295 -0.045682322 -0.24600609 -0.29092607
-0.18286876 -0.07004459 0.20023121 0.18766265 -0.084446855 0.17575382 0.17238224 -0.11517218
0.11840341 -0.053528722 -0.08400519 0.03720675 0.0733492 -0.039911076 -0.102463305 -0.01784869
-0.07859282 -0.11628961 0.048814926 0.15410787 -0.0008506744 -0.122014485 0.047943354 -0.118306704
-0.17015645 0.18040082 0.010180001 -0.13497272 -0.045485605 -0.023832064 0.15484253 0.07750895
-0.12223536 -0.0011386446 -0.046494402 -0.10166334 0.041664165 -0.014173075 0.09830922 -0.03148382
0.13270542 -0.15324464 0.016407894 0.17507829 0.027297508 -0.04573611 0.086292624 0.00053930207
-0.27152342 0.036218487 0.03445783 0.22706556 0.2175709 0.065452665 0.20763423 0.06248772
0.1746954 -0.06665878 -0.052973505 -0.009608869 -0.15132289 -0.118558384 -0.08834966 0.12789112
-0.16615707 0.12801391 0.226306 0.04373434 0.17583965 -0.14291134 -0.11546874 0.06091245
0.1509022 0.072812535 -0.12903386 0.1831633 -0.08421968 0.067036614 -0.093397036 0.17917153
0.030364746 -0.11056435 0.109343685 0.07656762 0.028302956 0.06603572 0.12456404 -0.055753365
0.14351922 -0.21230376 0.037640654 -0.06748086 0.038031098 0.051734846 0.1793897 0.043558046
-0.19413377 -0.027530523 0.0058957404 -0.11233434 0.13587481 -0.030584574 -0.12832822 -0.24688278
0.1448902 -0.06519199 -0.18995006 -0.19357964 -0.037352186 0.013948313 -0.12667446 -0.15517366
0.19067363 0.19635369 -0.13809033 -0.1086017 -0.09255977 0.1022726 0.0058219065 -0.0010415094
-0.19372104 0.075522535 -0.025971133 0.22551209 -0.025688441 -0.1347413 0.045291577 -0.15113327
-0.12248468 0.036134224 0.14718202 0.07307597 0.09815409 0.13963814 -0.09338331 -0.10935161
-0.099581316 -0.009078714 0.18158077 0.065435976 0.006397013 0.0962381 -0.15820153 -0.0658514
0.1716289 0.16058946 0.08941969 -0.0070076836 0.120499834 -0.13343836 0.023457041 0.09411455
0.06946339 0.070770025 0.20116527 -0.17880978 0.16240697 -0.1419277 0.15708038 -0.06642187
-0.12605216 0.21197067 -0.04907344 -0.062204283 -0.14556402 -0.08574659 0.0358131 0.13593398
0.0013189637 0.073491864 -0.09719537 0.15101044 -0.043737903 -0.09905604 0.13583237 0.026129153
-0.006049275 0.13352488 -0.09276544 -0.008253917 -0.067079954 0.06558791 0.18353844 0.16711675
0.07982802 -0.058617525 0.04710112 0.21512452 -0.11945383 0.120879695 0.15169759 -0.14319363
0.01056466 -0.070324734 0.2060331 0.13531777 0.036159895 0.018587328 -0.08669891 -0.0899066
0.18550822 0.23693477 -0.2126166 -0.12191578 0.066315815 -0.05728236 -0.107037745 0.12507655
-0.1935552 -0.13459021 0.023492109 -0.018228568 -0.070438005 0.2359034 0.047740888 -0.0033536034
5.9556794e-05 -0.10998239 -0.09130712 -0.12190351 -0.10762628 -0.0778976 0.1752908 0.06985002

Pair_score_mlp.fc_layers.0.bias f4 [64]
00000000: d79e 7d3d 9651 51bd adbf 0abe a5c5 c8bd
00000010: 7af1 243e 53c9 253e daae c6bd 2ad8 ccbd
00000020: 4710 86bd 16e3 b6bd 9c46 1e3e d284 633c
00000030: d39e 2c3d 8b76 d93d 7201 7fbd c2aa 193d
00000040: d12d 3f3e 27f3 8ebd 1145 d73d fd32 8f3d
00000050: a603 a0bd 6978 fcbc 5bdc 913d bf1a 3fbd
00000060: 3542 d53d c572 30bd 61a8 c8bb cdf5 d93d
00000070: 3432 223e 3a96 18bd b6fa a1bd 7998 1d3e
00000080: 2c87 a33d 1dc4 19be b557 3f3c bcc0 6b3e
00000090: 143a 2e3e ff7f 133e fbd7 b4bd f26f 21bd
000000a0: 1894 e0bd ead6 ca3d 8768 1ebe 0128 f9bd
000000b0: e80f adb9 18ea 003e a2bb 20bd 1559 c6bd
000000c0: 5d5d 6bbd a74c 8bbd 884a 293d bb50 96bd
000000d0: 657d 2bbd fc06 ecbd 8a40 6cbd 586d 103e
000000e0: 62f4 cabc f6bc e43d 3097 f83d ded1 f33d
000000f0: 02ff 9b3d e083 2a3e 0f0f d23d 550b 8fbd
0.06191906 -0.051103197 -0.13549681 -0.09803323 0.16107741 0.1619008 -0.09701319 -0.100021675
-0.065460734 -0.08930032 0.15456623 0.013886647 0.042143654 0.106183134 -0.062257238 0.037516363
0.18669821 -0.069799714 0.1051122 0.06992147 -0.07813196 -0.030819135 0.071221076 -0.046656366
0.104130186 -0.043078203 -0.006123588 0.10642586 0.15839463 -0.037252642 -0.079091474 0.15390195
0.07984766 -0.15016218 0.011678626 0.23022741 0.17014343 0.14404295 -0.088302575 -0.0394134
-0.10965747 0.09904273 -0.15469562 -0.12165833 -0.00033008982 0.125893 -0.03924144 -0.0968496
-0.057462085 -0.0680173 0.041330844 -0.07339617 -0.041867632 -0.1152477 -0.057678737 0.14104211
-0.024774734 0.11168854 0.12138212 0.11905263 0.07616998 0.16651869 0.102567784 -0.06984583

Pair_score_mlp.fc_layers.1.weight f4 [8, 64]
00000000: 4b48 d93d ab91 fb3d 02dd 043e af7d 873d
00000010: 2bb2 4e3e 0ad5 1a3e 2133 753d e0de e03d
00000020: 0f8d 103e 66f4 173e 612e dfbd 880d 023d
00000030: 9715 f83c 0a32 1cbe 563f c9bc 12d8 98bb
00000040: ee91 fd3d 1c02 2d3c 71b7 20bd 8857 5b3d
00000050: c11e 093e 896f c1bc f027 c63d 05e5 8f3c
00000060: 909d d13d 73a6 163e 044b 233e 57f0 4b3d
00000070: f666 36bd 7952 0ebd 0de1 e73d d970 4b3c
00000080: 3134 dc3c 8995 e63d 5818 e63d ca8e e339
00000090: 87b4 383e 593d 213d 8f68 3e3d bbc5 d33d
000000a0: eef0 28bd f872 2a3d e7ff c0bc 8ec2 a43d
000000b0: 5bc6 41be a32f c83d 2c97 153e e931 de3d
000000c0: 13c9 d8bd 1f5c aa3d 51e0 c8bd 5329 b33d
000000d0: 15bb 763e 43d6 a23c b26f a43d ea65 afbd
000000e0: df46 3f3d 5b9f b0bd f99a 74bd 6fb5 d33d
000000f0: 31c1 75bb e69c a23d 51bf 88bd 5b51 333e
00000100: 28b5 ddbd 8050 de3d 4cc4 efbd 3388 0dbe
00000110: 767f dbbd 6b3a 66bd c2ff acbc 046c 97bd
00000120: cc68 88bd af9a e63c fe82 37be 81da e93b
00000130: 086c 38be d992 3b3e 19d7 38be fa3c 2fbe
00000140: 57d1 91bb 7c52 343d ec97 6fbd 6bcf ca3c
00000150: 8777 06be 0321 ebbd 653c 47bd 2cd1 8f3d
00000160: 83f7 a6bd 610c d9bd f224 f33d 1466 e4bc
00000170: c271 c7bd cfff a13d 5f9c e63d 67a1 1dbc
00000180: ff8e 81bd 81a2 03be 6db3 663d 71ca e33d
00000190: c53a c4bd 479b 923d 8996 2d3d f562 5c3d
000001a0: 0adf dbbd 61b8 1cbd 1c64 92bd 3194 ecbd
000001b0: 28df 443e 2826 063e 21d0 afbd 1247 9fbd
000001c0: 4b36 283d 4ab0 fabd acd1 e53d 80ee debd
000001d0: be06 18bb bdb3 17be 6281 0dbe ae91 593e
000001e0: 1f60 f13c eb98 dbbd 25f5 1ebd 8571 83bd
000001f0: 1a56 243e 7828 b53d a9a1 613d 9331 653d
00000200: 5723 b13d 716b e13d 772f 663e da6c 2a3e
00000210: 7a20 143d 980a 963d a541 443e ff8a 643c
00000220: c8aa 3c3e 3d82 223d 9d4e b43d 918e 2ebc
00000230: 587c cdbc 399d 5bbe 84c9 7d3d adfa 843d
00000240: e6e2 813e bb69 1c3e 0f14 043e f542 143d
00000250: c973 d53d 1b11 45bd 5dd3 f13d 88c8 8b3d
00000260: 75ba 4d3d fda2 453d 491e f23d 39ff 693e
00000270: 5a22 11bc d25f 0c3e 17f9 893d cab2 523e
00000280: e3f7 cd3d 96aa be3c fea7 db3d a077 f1bc
00000290: ab4b 313e 8497 ca3b cb87 07be fb1d 223e
000002a0: c7aa 75bd 0e61 cf3d b842 e93d 553a 213e
000002b0: 905e 8dbd 61b1 093e fcee c43d ca9d 76bc
000002c0: fa35 163e 49fe 14bd 61c2 283e fd90 a5bc
000002d0: 78df 8b3d cf76 c9bd 67d7 9e3d 2a76 7abc
000002e0: 233a 21bd f190 ac3c 0150 c43d 2512 643e
000002f0: 66cc d73d 4820 443c 0676 ca3d b787 893e
00000300: 7d3c 43bd e2c1 9c3d 9770 6e3d fe31 8b3b
00000310: ab95 833c 6625 d6bd 469d 1a3c d6fe 903c
00000320: 7707 1cbe 8b25 cebb 2ec5 8a3d 8bbc fe3c
00000330: 754a c7bc da18 c53d ac3f e7bd d256 13be
00000340: 04d1 6abd 1b73 bdbd d212 f03b 6822 5dbd
00000350: 6bff 90bd 5b0d 31bc f3b8 7b3d 8934 ab3d
00000360: 2053 003e 569d 183b d8c0 19bd f5d8 003e
00000370: a8f8 69bd 593c 833d da16 883d 3f7a a5bd
00000380: ee0e 42bd 43f5 c8bd b6c2 abbc 87c0 67bc
00000390: d92d 193e 7be5 2bbe 6346 05bc fd5f a43c
000003a0: fc89 153b b19e 963d 7aff aabd b49b 2e3d
000003b0: 3bc6 f9bc f651 e5bd 1499 03be b5e6 96bd
000003c0: 1c4e ce3d eee6 17be 8fe7 0cbc d0cc c1bd
000003d0: 4a6e 613d bb41 d7bd 174f 0d3b 5153 173e
000003e0: 8076 c9bd b89a d93c e1d0 db3d e8a5 bb3d
000003f0: c834 56bd 6095 e4bd 0e7a 3a3d 8f0b 853c
0.10609492 0.12283643 0.12974933 0.06615769 0.20185153 0.1512033 0.059863213 0.1098001
0.1411631 0.14839324 -0.10897518 0.031751186 0.030283732 -0.15253463 -0.024566334 -0.0046644295
0.123813495 0.010559585 -0.039237443 0.053550273 0.13390638 -0.023612754 0.09675586 0.01756526
0.10235131 0.14711933 0.15946585 0.049789753 -0.044531785 -0.03474662 0.11322222 0.012417042
0.026880356 0.1125899 0.11235112 0.000434032 0.18037616 0.039365146 0.046486434 0.103404485
-0.041245393 0.04161355 -0.023559524 0.08044921 -0.18923323 0.09774711 0.14608449 0.10849363
-0.10585227 0.08318352 -0.0980841 0.08748116 0.24094804 0.019877559 0.08029117 -0.085643604
0.046698447 -0.08624145 -0.059718106 0.1033734 -0.0037499184 0.07940082 -0.06677116 0.17511503
-0.108255684 0.10855198 -0.117073625 -0.13821487 -0.107176706 -0.056208055 -0.021118049 -0.07393649
-0.066606134 0.02814993 -0.17921063 0.0071366434 -0.1800996 0.18317737 -0.18050803 -0.17113104
-0.004450004 0.044023976 -0.058494493 0.024757108 -0.13131534 -0.11480906 -0.04864158 0.07022318
-0.08152678 -0.10598064 0.11872281 -0.027880706 -0.097384945 0.0791012 0.11260294 -0.009621001
-0.063261025 -0.12854959 0.056323458 0.11122597 -0.09581522 0.07158523 0.04237989 0.05380531
-0.10735901 -0.038261775 -0.071480006 -0.11551703 0.19225752 0.13100493 -0.08584619 -0.077772275
0.041067403 -0.12240656 0.11221632 -0.10885334 -0.0023197378 -0.14814658 -0.13818887 0.21246979
0.02946478 -0.10722526 -0.038808007 -0.064181365 0.1604847 0.088456094 0.05508581 0.05595548
0.08649319 0.11006821 0.22479044 0.16643086 0.036163785 0.07326239 0.19165666 0.013949155
0.18424523 0.039674986 0.08804057 -0.010654108 -0.025083706 -0.21446694 0.06195976 0.06493125
0.25368422 0.15274708 0.12898277 0.036196668 0.10422475 -0.048112016 0.118078925 0.06825358
0.050226647 0.04825114 0.11822183 0.22851266 -0.008858288 0.13708428 0.06736963 0.20576015
0.10057046 0.023274701 0.10725401 -0.029475987 0.17314021 0.006182613 -0.13235395 0.15831749
-0.05997732 0.101259336 0.11389679 0.15744908 -0.06902802 0.13446571 0.09615895 -0.015052268
0.14669028 -0.036375318 0.164804 -0.020210737 0.06829733 -0.09837114 0.077559285 -0.015286962
-0.039362084 0.021065207 0.09585572 0.22272547 0.10537033 0.011970587 0.098857924 0.26861355
-0.047665108 0.07654168 0.058212843 0.004247903 0.016062578 -0.10456352 0.009436911 0.01769964
-0.15237223 -0.0062910966 0.0677589 0.031095764 -0.024327496 0.09623881 -0.11291441 -0.14388588
-0.05732824 -0.0925047 0.0073264623 -0.05398789 -0.07079967 -0.010806407 0.06145568 0.0835963
0.1253171 0.002328714 -0.037537426 0.12582763 -0.057121903 0.06407995 0.066449836 -0.08079957
-0.04737752 -0.09812405 -0.020966869 -0.014145023 0.14958896 -0.16786759 -0.008134457 0.020065302
0.002281784 0.07354487 -0.083495095 0.04262896 -0.030490031 -0.111972734 -0.12851363 -0.073682226
0.10073492 -0.14834186 -0.00860013 -0.09462893 0.05503682 -0.10510584 0.0021562034 0.14777876
-0.09837055 0.026563033 0.107332 0.091625035 -0.05229643 -0.111613035 0.045526557 0.016240863

Pair_score_mlp.fc_layers.1.bias f4 [8]
00000000: d502 90ba d144 d23d 61fa b2bd 4721 873d
00000010: 5118 0d3e 3b7e f13d 35f0 76bd 590f 7ebd
-0.0010987172 0.10267032 -0.08739162 0.06598144 0.13778807 0.11791655 -0.060287673 -0.062026355

CNN_embedding_types.weight f4 [106, 16]
00000000: 5331 143e f592 46bf f1cf fcbe b2de 733f
00000010: 399b d0be 028c 5abc eb74 e23f 05a0 39c0
00000020: 1551 fc3d 6ca1 5dbf e7f5 08bf 9cda 893f
00000030: ef8e f83e ba84 ca3e 1c5e 3c3f 0411 44bf
00000040: 461c 08bd 6794 f6bf 6a36 2a3f 970b 3bbf
00000050: 4669 ea3e 4419 27bf 182d d43e 60a8 81be
00000060: ea84 1ebd 1c8b 67bf 2f79 adbf ddb3 f23e
00000070: ead8 823f 9983 da3e dc08 b9be 0c0d 02be
00000080: 64bd 0ebf 458d d53f 49d9 1f3f 1e70 bdbe
00000090: 9556 9ebc 5b48 8b3f 574e e13e a390 84bf
000000a0: 2613 0740 2977 c6bf 23e7 88bf c10f 163f
000000b0: c48f 8bbd bda1 e13d 8813 02bf 4a34 a23f
000000c0: 953a 9bbe 5d25 1bbf 7e64 9fbe bca0 8f3d
000000d0: 52fe e7be f4d9 0540 6fa9 9cbd a361 9f3f
000000e0: e58e aebf 9fee 44bf da21 aa3e ae21 923f
000000f0: d6b5 c33d ec68 08c0 e159 0c3f 83a2 6f3f
00000100: a43f f43f 9027 763f 199f 0d3f 0497 713f
00000110: 0bd5 ae3e f5fe 13bd 4dbb bf3f 62f2 46bf
00000120: 84d1 483f 527e 3abd 1dcc 26be 7c58 ab3f
00000130: 21b6 26be cb93 83be c717 563d 93f6 c7be
00000140: 3be2 6b3e 189b 883e 4b90 8c3f 9d96 9fbf
00000150: 9b92 75bf 5a47 e7bf 617b 3a3c c8e0 e1bd
00000160: 6fbd a0bf 8c85 223f 584d 9e3e cda2 3640
00000170: 4472 9bbf 6213 5bbe 26df 06bf f1fb 323e
00000180: 84b8 043f 58d5 c1be efdb 66be aa67 c8bf
00000190: e571 f43e ace3 87bf 19cc e33f 7578 0cbf
000001a0: fe86 ad3e 6837 473f 4e46 f73b 6371 15bf
000001b0: 7451 6abf 678b 57bd 7acf e43f 8364 933f
000001c0: f123 c73d 394b cc3f bfa9 1abf a874 b43f
000001d0: 73c5 f13d d33a 343f c795 09bf 4476 3cbf
000001e0: 170f 0c3f 1dd8 f33f e3e4 cf3d e4ea e63e
000001f0: d901 cd3e faaa 7fbf cd37 1b3e da77 21bf
00000200: c888 3640 034c f3bd d210 c53e e5eb 793f
00000210: aa02 acbf f88a 55bf bd59 06be ec76 c2bd
00000220: 7d43 38be 3e5a 8ebf ed8a ea3e adad 5fbe
00000230: 8657 0e3f 09d7 dfbd b1b5 ff3f d292 033e
00000240: f200 e03c 2ae4 1a3e 1648 54bf 4095 0140
00000250: c286 793e 2a23 9a3d 2d50 90be b9bb 9b3d
00000260: a673 d03e 618f 81be 06de cf3e 4980 453f
00000270: ede5 6cbe 06a6 8dbf 0a10 943d f0fc 5dbf
00000280: 87c5 96bf 34da 0a3f 4592 4dbe c995 18bf
00000290: f4d2 eb3e 36ec 9d3f 5051 9e3e fe11 1b3f
000002a0: 7673 193f 2007 9cbe 7f51 9dbe 8934 d23f
000002b0: e18a 853f 04e6 bdbf c4b4 243f d2ef e53f
000002c0: 8e29 b33c 8466 f3bf 096c e5bd bed3 ba3e
000002d0: 38ff a6bf 273a cabc 1a1c a7bf f2b2 68be
000002e0: 3bc6 d9bd 9503 8cbf ec47 92be 3d39 db3f
000002f0: e4bf a23f 83c5 813f 2c8a 3dbf 792a 843e
00000300: d092 67bf 189f 1340 e971 4bbf a3e3 df3f
00000310: ba7c a6bd 847c 3cbe 6d35 97bf 6d48 dd3e
00000320: e29a a33f 7849 45bf 5881 dc3f 3e3e 62be
00000330: f85f 5c3f feb0 e83f 5f08 2f3f 6e50 85be
00000340: a8f6 f43f ef81 923f d348 b13f 1862 93bf
00000350: 2371 023e 7b3f 5d3f 1329 583f 4688 ccbf
00000360: 6aa3 743f b968 b2bf 9c87 7e3d 88d4 82bf
00000370: 521b 0cbf bd52 8c3f 7e9b fd3d 9007 cc3e
00000380: 6c5c a83c a38a 89bf 88e1 883d e4d6 2f40
00000390: 27b3 5640 461a db3f 7daf abbf bc3b 4abe
000003a0: 9937 7abf 3e2d 483d c2f5 59bf b8c3 19bf
000003b0: 6d29 6cbf f2b1 113e 76b1 febe 440f a5be
000003c0: 3f9f eebf dbc8 db3e b058 1d3f ba6d 3b3e
000003d0: 99c3 ca3d ec41 0bbf 5210 443f b6ce b0bf
000003e0: c548 853e cead 293f ae5e 3a3f 30f0 153f
000003f0: d402 743e 5bcb a93c 1700 4fbf 508c 5b3f
0.1447194 -0.7756799 -0.49377397 0.9526168 -0.40743425 -0.0133390445 1.769193 -2.9003918
0.12320153 -0.86574435 -0.5350022 1.0769839 0.4854655 0.39554387 0.735811 -0.76588464
-0.03323009 -1.9264039 0.6648928 -0.7306456 0.45783442 -0.6527293 0.41440654 -0.25323772
-0.038700975 -0.9044664 -1.3552607 0.4740285 1.0222447 0.42678526 -0.36139572 -0.1270029
-0.5575774 1.6683737 0.62440926 -0.369996 -0.019328395 1.0881456 0.4400508 -1.035664
2.1105437 -1.5505115 -1.0695537 0.5861779 -0.068145305 0.11017177 -0.5081105 1.2672207
-0.30318132 -0.60603887 -0.31131357 0.070130795 -0.45311219 2.0914278 -0.076495044 1.2451671
-1.3637358 -0.76926607 0.33228952 1.1416528 0.09556167 -2.131404 0.54824644 0.9360735
1.9081922 0.9615412 0.5532089 0.94371057 0.34146914 -0.036131818 1.4979035 -0.77713597
0.78444695 -0.045530625 -0.162888 1.3386378 -0.16280414 -0.25698695 0.05226877 -0.3905531
0.23035519 0.26680827 1.0981535 -1.2467839 -0.9592683 -1.806865 0.011381955 -0.11029202
-1.255781 0.63485026 0.30918384 2.8536866 -1.2144246 -0.21394113 -0.5268425 0.1747892
0.5184405 -0.3785808 -0.22544836 -1.5656636 0.47743145 -1.0616355 1.7796661 -0.548713
0.33892053 0.7781892 0.007546223 -0.5837614 -0.9153054 -0.05262318 1.7875817 1.1515049
0.09723652 1.5960456 -0.6041526 1.4098101 0.118052386 0.7040226 -0.5374417 -0.7361796
0.54710525 1.9050328 0.101510786 0.45101082 0.40040472 -0.99870265 0.15158005 -0.63073504
2.8520985 -0.118797325 0.38489395 0.9762557 -1.3438313 -0.83415174 -0.1312017 -0.09495339
-0.17994495 -1.112129 0.45809117 -0.21843596 0.556023 -0.109296866 1.9977323 0.12848976
0.0273442 0.151261 -0.82922494 2.0247345 0.24367812 0.07526238 -0.2818617 0.07604165
0.40713233 -0.25304702 0.40599078 0.7714887 -0.23134585 -1.1066291 0.07229622 -0.86714077
-1.177903 0.542392 -0.20075329 -0.59603554 0.46059382 1.2337711 0.30921412 0.6057433
0.59941804 -0.30474186 -0.3072624 1.6422282 1.0433007 -1.483582 0.64338326 1.7963812
0.0218704 -1.901566 -0.11202247 0.3648967 -1.3046637 -0.024685932 -1.3055451 -0.22724512
-0.106335126 -1.0938593 -0.28570497 1.7126843 1.271481 1.0138401 -0.7403896 0.25813654
-0.90458393 2.3065853 -0.7947069 1.7491344 -0.081292585 -0.18406874 -1.1813179 0.4321932
1.2781641 -0.7706523 1.7226973 -0.22094056 0.86083937 1.8179014 0.6837215 -0.26037925
1.9137774 1.1445903 1.3850349 -1.1514311 0.1273847 0.8642499 0.84437674 -1.5979087
0.9556185 -1.3938209 0.062141046 -1.0221109 -0.5472919 1.096275 0.123831734 0.3984952
0.020551883 -1.0745434 0.06683642 2.747491 3.3546846 1.7117393 -1.341293 -0.1974935
-0.97741085 0.04887127 -0.8514062 -0.6006427 -0.9225071 0.14228037 -0.49744767 -0.3223821
-1.8642348 0.42926678 0.6146345 0.18303576 0.099005885 -0.54397464 0.765874 -1.3813083
0.2603208 0.6628083 0.7280072 0.5856962 0.23829204 0.02072685 -0.8085951 0.85760975

embedding_CNN_distances.weight f4 [7, 8]
00000000: d72b 853f 9e21 93bf 5f35 473e 70f4 b83e
00000010: f647 703f e47f 07bf ff0b 3c3f ea53 9e3f
00000020: 846e 37bf 021b 373f ba5e 37c0 6e64 6ebe
00000030: 7c0d 81bf ac67 0dc0 58a0 82bf 053f 7f3d
00000040: 5305 843e 3b50 95bf b917 023d dddc c3be
00000050: b689 9d3f 7627 633f c151 f53f 5baf cf3e
00000060: 2d05 f3bd 3e86 be3e 341e 0b3f d530 e0bf
00000070: 690d 703f cbe1 45bf 7d12 d63e 0261 01bf
00000080: 13b6 8cbf 37e8 30be 11f3 1e3f 3147 c63f
00000090: 81fd 0a3e 596b 37bf 1347 6b3e 3d07 bb3e
000000a0: 306c bd3d 34eb d2be e76c 51be 2948 ab3f
000000b0: 758c bb3e a6c5 69bf 361b 36bf f2c8 893f
000000c0: 0000 0000 0000 0000 0000 0000 0000 0000
000000d0: 0000 0000 0000 0000 0000 0000 0000 0000
1.0404004 -1.1494634 0.19453953 0.3612399 0.93859804 -0.5292952 0.73455805 1.2369359
-0.7165301 0.71525586 -2.8651567 -0.23280498 -1.008224 -2.2094526 -1.0205183 0.06231596
0.25785312 -1.1665109 0.031760905 -0.38254443 1.2307651 0.8873209 1.9165574 0.40563473
-0.118662216 0.37211794 0.5434296 -1.7514902 0.9377046 -0.7729766 0.4181098 -0.5053865
-1.0993065 -0.17276083 0.6208964 1.5490476 0.13573267 -0.71648175 0.22976331 0.3652896
0.09249151 -0.4119507 -0.20451699 1.3381397 0.36630598 -0.9131721 -0.7113527 1.0764449
0.0 0.0 0.0 0.0 0.0 0.0 0.0 0.0

embedding_CNN_prices.weight f4 [6, 5]
00000000: e1cb f23f e22d b13f 5ce2 a2bf 56f8 dcbf
00000010: 9ef2 80bf 78ea e3be d178 8e3f 06e0 f83f
00000020: 9802 b23e b677 7cbe 8363 0b40 8310 0fbf
00000030: 768a cdbf 713e 34bf fcea 93bf 4076 99bf
00000040: 34bb eb3f 787d a5be fa2a b5bf b122 57bf
00000050: 3dfa 1dbf d063 a13e aec8 1d3d bc0d 47bf
00000060: 8d46 6d3f 0000 0000 0000 0000 0000 0000
00000070: 0000 0000 0000 0000
1.8968469 1.3842127 -1.2725329 -1.7263286 -1.0074041 -0.44514823 1.113062 1.9443367
0.34767604 -0.24655041 2.1779487 -0.5588457 -1.605788 -0.7040778 -1.1556087 -1.1989212
1.8416505 -0.32322288 -1.415374 -0.8403731 -0.6170996 0.31521463 0.03852146 -0.7775533
0.92685777 0.0 0.0 0.0 0.0 0.0
