checkpoints/GNNNoCNN_Epoch36_valmse2.2444_testmse2.5315_ndcg0.9246.model (torch, 249600 bytes, 52 tensors)

Pair_embedding_types.weight f4 [106, 16]
0	0x3d973ccf	0.07384645
1	0xbd9ded1f	-0.07711243
2	0xbed3c75b	-0.41363034
3	0xbf6034c2	-0.875805
4	0x3f58d277	0.84696144
5	0xbecc2964	-0.3987533
6	0x3df16573	0.11786928
7	0xbfa171e5	-1.2612883
8	0x3dc82361	0.09772373
9	0xbd3e16fc	-0.04640864
10	0xbfa1ab96	-1.2630489
11	0x3f130271	0.574256
12	0xbfcc663e	-1.5968702
13	0x3eb684a8	0.35648084
14	0x3e774579	0.24147595
15	0x3f3a37a4	0.7274115
16	0x3ee7b6f7	0.4525678
17	0xbf954996	-1.1663082
18	0x3ff68198	1.9258299
19	0xbed3ee70	-0.4139285
20	0xbe802f6a	-0.25036174
21	0x3e4badf5	0.19890578
22	0xbf1fb48c	-0.6238487
23	0x3f1d8fce	0.61547554
24	0xbf8697fd	-1.0515133
25	0x3d4544ec	0.048161432
26	0xbefff29a	-0.49989778
27	0x40529dcf	3.2908819
28	0xbf4defa7	-0.80443805
29	0xbf07ac67	-0.5299744
30	0xbf8aac22	-1.0833781
31	0x3f8354fc	1.026031
32	0x3fde5bc7	1.7371758
33	0x400fe974	2.2486238
34	0xbf883316	-1.064059
35	0x3e09f27c	0.13471407
36	0x3f6d29d3	0.92641944
37	0xbf99abc3	-1.2005543
38	0xbf8e7621	-1.11298
39	0x3d326101	0.04354954
40	0x3f3519c9	0.7074247
41	0x3e3811b2	0.179755
42	0x3f897a59	1.0740463
43	0x3ddf8a95	0.10915104
44	0xbf66a885	-0.9010089
45	0x3dcc9812	0.099899426
46	0x3f9cb1a1	1.2241708
47	0xbdf7c3d0	-0.12097895
48	0xbf2acf62	-0.6672269
49	0x3f98cf7e	1.1938322
50	0xbed6e4a7	-0.41971323
51	0xbf9a3ccc	-1.2049804
52	0xbfd8f0e7	-1.6948518
53	0x3f62a8ba	0.88538706
54	0xbffa9b19	-1.9578582
55	0x3d27231a	0.04080496
56	0xb91c5066	-0.0001490727
57	0x3f827204	1.0191045
58	0xbfa8c693	-1.31856
59	0x3fa59f8e	1.2939317
60	0x3ca62b0b	0.020284196
61	0x3f6beb2d	0.92155725
62	0x3fa5994b	1.2937406
63	0x3cc597b6	0.024120193
64	0xbdd2fec3	-0.10302498
65	0x3e80531e	0.25063413
66	0x3f57ce2c	0.8429897
67	0xbfccf7a1	-1.601307
68	0x400c1945	2.1890423
69	0xbf842c44	-1.0326009
70	0x3e8df19e	0.27723402
71	0xbfb23dfc	-1.3925166
72	0xbe853739	-0.26018694
73	0x3e12b832	0.14328077
74	0x3e5b80f5	0.21435912
75	0x3f72fe2a	0.94919074
76	0x3ee0ab09	0.4388049
77	0xbe5fa0a1	-0.21838619
78	0x3e92f895	0.28705278
79	0x3e19c3c2	0.15016082
80	0xbedaa95c	-0.42707336
81	0x3d96ffb1	0.07372988
82	0x3e7098c7	0.2349578
83	0x3f8a4d6a	1.0804875
84	0xbe5c9131	-0.21539761
85	0xbf89d5d2	-1.0768378
86	0xbdbe002f	-0.09277379
87	0xbed06c7b	-0.40707764
88	0x3f3f04d6	0.74616754
89	0x3fbd10f3	1.4770797
90	0xbf2201fa	-0.63284266
91	0xbf6788d0	-0.90443134
92	0xbf4032b6	-0.7507738
93	0x3f103fdc	0.5634744
94	0x3f7b6a1b	0.9820878
95	0x3fb4124c	1.4068084
96	0xbfad4f92	-1.3539908
97	0x3e8fc0db	0.28076825
98	0x3fe4b6de	1.7868307
99	0x3e1757f4	0.14779645
100	0x3f39a57a	0.7251812
101	0x3e57345d	0.21016069
102	0xbf5c0c63	-0.859564
103	0x400bf38d	2.1867402
104	0xbf8bb86d	-1.0915657
105	0x3f96c063	1.1777462
106	0x3e73101c	0.23736614
107	0xbf7b690c	-0.98207164
108	0xbeef7b7f	-0.46773908
109	0x3e732183	0.23743252
110	0xbefacdb8	-0.48985076
111	0xbc99c910	-0.018772632
112	0x3f379a10	0.71719456
113	0x3fc70ea2	1.555134
114	0x3e86f3f5	0.26358
115	0xbeb8a5ed	-0.3606409
116	0xbf230b45	-0.6368907
117	0x3e4f691c	0.2025494
118	0xbe9a7e3e	-0.3017444
119	0xbe29593b	-0.16537945
120	0x3f8de3a3	1.1085094
121	0xc024be00	-2.5740967
122	0x3e85c491	0.2612653
123	0xbe966e53	-0.29381046
124	0xbe2dfc35	-0.1699074
125	0xbfc071f6	-1.5034778
126	0xbddfd978	-0.10930151
127	0x3d8dc2d0	0.06921923
128	0x3e83fd2c	0.25779092
129	0x3fc56ea4	1.542439
130	0x3eb93095	0.36169878
131	0x3f82c2d7	1.021571
132	0xbe13b76d	-0.1442544
133	0x3f90795c	1.1287036
134	0xbfa5e41e	-1.2960241
135	0x3f1c0cbf	0.6095695
136	0x3e78a8be	0.2428312
137	0xbf8118bc	-1.0085673
138	0x3fbcba0a	1.4744275
139	0xbf09b7c7	-0.53796047
140	0xbc5654c0	-0.013081729
141	0x3fa06216	1.2529933
142	0xbc9b22ee	-0.018937554
143	0x3eae947c	0.3409766
144	0x3f798458	0.97467566
145	0x3d2bd7ad	0.04195373
146	0x3eddf1f0	0.43348646
147	0xbf6b86ed	-0.92002755
148	0xbedea34c	-0.4348396
149	0x3f62697d	0.8844221
150	0x3eb5e384	0.35525143
151	0xbf0a9ca1	-0.54145247
152	0x3f13d322	0.5774404
153	0xbdb6b101	-0.089204796
154	0x400d8b94	2.2116442
155	0x3fb08b8e	1.3792589
156	0x3fb75491	1.4322683
157	0x3e0addf2	0.13561228
158	0x3eb853aa	0.3600133
159	0xbe84cedf	-0.2593908
160	0xbdc9f6b5	-0.09861509
161	0xbdf8e6bc	-0.12153384
162	0x3dd3ce0a	0.10342033
163	0x3ea72798	0.32647395
164	0xbf8ac243	-1.0840534
165	0xbf3f96d9	-0.7483955
166	0x3f98ff19	1.195285
167	0x3f83fa7d	1.0310818
168	0xbfb3aea1	-1.4037668
169	0x3f36673b	0.7125127
170	0xbe626a22	-0.22110799
171	0x3fa5d691	1.2956105
172	0x3fb2f2cb	1.3980345
173	0x3d5f304a	0.05448941
174	0x3ea68c1a	0.32528764
175	0x3edc00cd	0.4296936
176	0xbfa20b40	-1.2659683
177	0xbf194aaf	-0.59879583
178	0xbe3d657e	-0.18495747
179	0x3f799b83	0.9750292
180	0xbe401314	-0.18757278
181	0xbf9a9ace	-1.2078493
182	0x3f552526	0.8325981
183	0x3f29aab6	0.6627611
184	0x3eaae493	0.33377513
185	0x3f42b4cc	0.76057124
186	0x40015ab6	2.0211616
187	0x3e3fa2d2	0.18714455
188	0x3daccb24	0.084371835
189	0x3fae3d57	1.361247
190	0xbea72130	-0.32642508
191	0x3e4b783e	0.19870088
192	0x3eb804db	0.35941204
193	0xbfbe7ea0	-1.4882393
194	0x3e037551	0.12837721
195	0xbe8c0cb8	-0.27353454
196	0x3fe36cb8	1.7767553
197	0xbf6a56b3	-0.9153854
198	0x3f16b263	0.58865947
199	0x3fc4eb40	1.5384293
200	0xbde048a5	-0.10951356
201	0xbfb3502a	-1.4008839
202	0xbf299963	-0.66249675
203	0x3f10a4c9	0.5650144
204	0x3f7026d7	0.93809265
205	0x3e378832	0.17923048
206	0x3e587881	0.21139719
207	0x3e99b776	0.30022782
208	0xbf4c0ff5	-0.7971185
209	0x3fd45e52	1.6591284
210	0xbea4cc7d	-0.32187262
211	0x4006c078	2.1054974
212	0x3fa50f04	1.2895207
213	0x3ed52d0d	0.41635934
214	0xbfa82be8	-1.3138399
215	0x3eaf94ba	0.34293157
216	0xbebf095e	-0.37311834
217	0x3e9d3998	0.30708003
218	0xbf22fb3c	-0.63664603
219	0x3f1b853a	0.6075016
220	0xbfa5603d	-1.2919995
221	0x40535e14	3.302617
222	0x4007db87	2.122774
223	0xc007aa95	-2.1197865
224	0xbf5d170f	-0.8636331
225	0x3d3cc96f	0.04609054
226	0xc0149651	-2.3216746
227	0x3fab0468	1.336072
228	0xbf8a7b46	-1.081887
229	0xbec35dee	-0.381576
230	0x3ec64ea9	0.38731888
231	0xbf6f03e6	-0.93365324
232	0xbee42621	-0.4456034
233	0xbf2d6b0d	-0.6774147
234	0xbf4877d5	-0.7830785
235	0x3ebb51e7	0.36585924
236	0xbfb88d92	-1.4418204
237	0xbf6cae1f	-0.9245319
238	0xbed3b69d	-0.4135026
239	0xbfc010fc	-1.5005183
240	0xbf9328d6	-1.1496837
241	0x3ec64f13	0.38732204
242	0xbfc708d6	-1.5549572
243	0x3dbb991d	0.091600634
244	0x3ec2ddf7	0.3805997
245	0x3fbca21d	1.4736973
246	0x3f6c7fe9	0.92382675
247	0xbfb3afe3	-1.4038051
248	0x3f7e770d	0.9940041
249	0xbf84bdb8	-1.0370398
250	0xbe660293	-0.2246192
251	0xbeac63eb	-0.3366998
252	0x3fd7ec9f	1.6869086
253	0xbedc60cb	-0.43042597
254	0xbff370b1	-1.9018766
255	0x3d9baa61	0.076008566

embedding_Pair_distances.weight f4 [7, 8]
0	0x3f001e93	0.5004665
1	0xbf51670c	-0.8179786
2	0x3f6f73f9	0.93536335
3	0x4036e6ea	2.8578439
4	0x3f35bb92	0.70989335
5	0x3faf9c81	1.3719636
6	0xbeabf5af	-0.3358588
7	0x3e912875	0.2835118
8	0x3ffef3b2	1.991812
9	0x400e9516	2.2278495
10	0x3f52233a	0.82085
11	0xbdaa9d0b	-0.08330735
12	0x3fbe550d	1.4869705
13	0xbf7b5aae	-0.9818524
14	0x3fcb795c	1.5896411
15	0x4023604b	2.5527523
16	0xbf3957f4	-0.7239983
17	0xbf6f631a	-0.9351059
18	0xbf6b0026	-0.917971
19	0xbd089780	-0.033347607
20	0xbfb43d6d	-1.4081246
21	0xbefe0931	-0.49616387
22	0x3dedb824	0.11607388
23	0xbfc60b4d	-1.5472199
24	0xbee1398e	-0.43989223
25	0x3ed62f30	0.41832876
26	0xbff3dfa0	-1.905262
27	0xbe6ebbe5	-0.23313864
28	0xc0054295	-2.0821888
29	0xbff20b28	-1.8909655
30	0xbf76198c	-0.9613273
31	0xbf0177e9	-0.50573593
32	0x3f84de2c	1.0380301
33	0x3f98b8e1	1.193142
34	0xbebd9689	-0.37028912
35	0xbffb94f5	-1.9654833
36	0xbfa72208	-1.305726
37	0xbe3a94b3	-0.18220787
38	0xbf2f8189	-0.6855703
39	0xbf8ca8d4	-1.0989022
40	0xbd19be12	-0.03753478
41	0x3ec8ee15	0.39244142
42	0xbf0eb2c6	-0.55741537
43	0x3e4654b5	0.1936825
44	0xbfb8acf1	-1.4427778
45	0xbf37c99e	-0.7179202
46	0xbfd28356	-1.644633
47	0xbf0c9a5c	-0.54923034
48	0x00000000	0.0
49	0x00000000	0.0
50	0x00000000	0.0
51	0x00000000	0.0
52	0x00000000	0.0
53	0x00000000	0.0
54	0x00000000	0.0
55	0x00000000	0.0

embedding_Pair_prices.weight f4 [6, 5]
0	0xbcd7bae6	-0.026334237
1	0x3ea9fc4d	0.33200303
2	0x3e88e859	0.26739767
3	0xbdc173aa	-0.09445889
4	0x3f91c175	1.1387163
5	0x3f69afe1	0.91283995
6	0x3db88f81	0.09011746
7	0x3f6dceb2	0.92893517
8	0x3f3652a2	0.7121984
9	0x3f5e6889	0.8687826
10	0xbe14c7ef	-0.14529394
11	0xbf1e61c4	-0.6186793
12	0xbf20eebb	-0.62864274
13	0x400aa5ab	2.1663616
14	0xbf3ece9a	-0.74534
15	0xbf93b1ed	-1.1538674
16	0xbffcb8c1	-1.9743882
17	0xbedf4ec7	-0.4361479
18	0x3df9902b	0.12185701
19	0x4000efbc	2.0146322
20	0x3d5c6113	0.053803515
21	0xbfb1367f	-1.3844756
22	0xbd0aa55f	-0.033849116
23	0x3f72f179	0.9489971
24	0xbda0cdca	-0.07851751
25	0x00000000	0.0
26	0x00000000	0.0
27	0x00000000	0.0
28	0x00000000	0.0
29	0x00000000	0.0

Pair_shop_mlp.fc_layers.0.weight f4 [64, 32]
0	0x3d912ac0	0.07088232
1	0xbc852f9a	-0.01625805
2	0x3e1e5712	0.15462902
3	0x3e31ef91	0.17376544
4	0xbe1eb7cc	-0.154998
5	0x3ca5a4ac	0.020220123
6	0x3d0a2e00	0.033735275
7	0xbdf74471	-0.12073601
8	0x3d05c5df	0.032659408
9	0x3e06e8c2	0.13174728
10	0xbe2a255a	-0.16615811
11	0x3c9d57d8	0.019206926
12	0xbe25d959	-0.16196193
13	0xbe285c97	-0.1644157
14	0x3d97f8f7	0.07420533
15	0x3d37aea0	0.04484427
16	0x3db7c9d3	0.08974042
17	0x3a741232	0.00093105726
18	0xbd0230c6	-0.031784795
19	0x3d7f9825	0.062400956
20	0xbc3473d6	-0.011013946
21	0x3db8a3d3	0.09015622
22	0xbbbebc94	-0.00582082
23	0x3e66a518	0.22523916
24	0xbe092b00	-0.1339531
25	0x3ca358c9	0.019939797
26	0x3d065b26	0.03280177
27	0x3cc568db	0.02409785
28	0x3de28ba3	0.1106179
29	0x3d43d2e5	0.047808547
30	0xbdaf6cfb	-0.08565708
31	0xbe098684	-0.1343022
32	0xbe345d8e	-0.17613813
33	0x3e06a38b	0.13148324
34	0xbd8f234a	-0.06989153
35	0x3e19b8dd	0.15011926
36	0x3d8aa45b	0.067696296
37	0x3e27464b	0.16335408
38	0x3e6fdaa8	0.23423254
39	0xbdc97ae3	-0.09837892
40	0xbe257767	-0.1615883
41	0xbd20c6fe	-0.039252274
42	0xbdc2ef6e	-0.09518324
43	0x3b9cfa18	0.0047905557
44	0xbd41eb48	-0.047343522
45	0xbd51bd14	-0.05120571
46	0x3ca17809	0.019710558
47	0x3e4d26f3	0.20034389
48	0x3d8d60b2	0.06903209
49	0xbe060fe0	-0.13091993
50	0x3d3cee46	0.046125673
51	0x3e399ef9	0.1812705
52	0x3de98700	0.11402702
53	0xbdd09a5e	-0.10185693
54	0x3d6ec256	0.058290802
55	0x3e16bbc0	0.14720058
56	0xbded753e	-0.11594628
57	0x3d986139	0.07440419
58	0xbd4dc3da	-0.050235607
59	0xbe5669d2	-0.20938805
60	0x3df58175	0.119875826
61	0xbd9eb69d	-0.077496745
62	0x3e442fb4	0.19158822
63	0x3da3b8b5	0.079942144
64	0x3d1c2133	0.0381176
65	0x3d91d3fe	0.071205124
66	0xbd39194b	-0.045190137
67	0xbd2a364c	-0.041555688
68	0x3ddf6e69	0.10909731
69	0x3dd23ee4	0.10265902
70	0x3d4f447d	0.050602425
71	0x3dbf2ecb	0.09335097
72	0x3e1553cc	0.14582747
73	0xbdf682d6	-0.12036674
74	0xbddd1172	-0.10794343
75	0x3dedc414	0.116096646
76	0xbdb77883	-0.08958533
77	0xbdfcfc6d	-0.12352834
78	0xbc771f2a	-0.015083114
79	0x3e0d80f0	0.13818717
80	0xbe4b2807	-0.19839488
81	0xbe1cd430	-0.15315318
82	0x3dce4c15	0.10073105
83	0x3e08b0d8	0.1334871
84	0xbe15e7b8	-0.14639175
85	0x3da2322b	0.07919725
86	0x3c77993b	0.015112217
87	0xbd4f843a	-0.05066321
88	0xbdb64562	-0.088999525
89	0x3de56728	0.11201316
90	0x3e11a80d	0.14224263
91	0xbe21ddc8	-0.15807259
92	0x3dff5404	0.124671966
93	0xbd911951	-0.07084907
94	0x3da23ea9	0.07922108
95	0x3dbdabac	0.092612594
96	0xbcef1b73	-0.029187893
97	0xbd9b1927	-0.07573157
98	0x3b3853ea	0.0028126189
99	0xbc946536	-0.018114667
100	0x3d39f286	0.045397304
101	0x3e07c28d	0.13257809
102	0x3debc6af	0.11512505
103	0x3d98ab17	0.07454508
104	0xbd96679e	-0.07343982
105	0x3dd6d459	0.10489721
106	0xbd909652	-0.07059921
107	0x3d8cc079	0.06872649
108	0x3e14c356	0.1452764
109	0x3da6ae8a	0.081387594
110	0xbe153c7b	-0.14573853
111	0x3dd0c095	0.10192982
112	0xbdcb971b	-0.099409305
113	0x3d9486b5	0.07252256
114	0xbe2fc225	-0.17163904
115	0x3856b51c	5.1190247e-05
116	0x3dfd43e8	0.12366468
117	0xbd546151	-0.05185062
118	0xbc88d223	-0.016701763
119	0x3e163b71	0.14671113
120	0x3e35d8c3	0.1775847
121	0x3dae1f99	0.085021205
122	0x3e1dd3d5	0.15412839
123	0x3d5fdef7	0.054655995
124	0xbe331dfb	-0.17491905
125	0xbd065be1	-0.032802466
126	0xbdf7c23f	-0.120975964
127	0xbd13b64c	-0.036062524
128	0x3d19a12b	0.037507217
129	0x3d9979e7	0.07493954
130	0x3d0e6d3b	0.03477214
131	0x3e1e0f10	0.15435433
132	0x3ca68180	0.020325422
133	0xbe30b6a8	-0.17257178
134	0x3d48b8e0	0.049004436
135	0xbddd408e	-0.108033285
136	0xbd995dc3	-0.07488587
137	0xbdd7c413	-0.10535445
138	0x3d567bb9	0.052364085
139	0xbd6b0258	-0.057375282
140	0xbc678e87	-0.014133102
141	0xbe053f70	-0.1301248
142	0xbd329e95	-0.043608267
143	0x3db17c8f	0.08666336
144	0xbe014834	-0.126252
145	0xbde8ba93	-0.11363711
146	0xbcbfcfe1	-0.023414554
147	0xbc48c95c	-0.012255039
148	0x3e09a8e9	0.1344334
149	0x3d7270af	0.059189495
150	0xbe127759	-0.1430334
151	0x3d65cb21	0.056101922
152	0xbe325b0a	-0.17417541
153	0xbde6345b	-0.11240455
154	0xbdbd33d5	-0.09238402
155	0xbdb332d8	-0.08749932
156	0x3cd0f747	0.025508536
157	0xbe19b61f	-0.1501088
158	0x3d82ea7c	0.063923806
159	0xbe089831	-0.13339306
160	0x3d30b9e0	0.043146014
161	0x3e02c33c	0.12769789
162	0xbd9597ef	-0.0730437
163	0x3c776e18	0.015101932
164	0x3c8e4941	0.017368915
165	0x3d9c6124	0.076357156
166	0x3dec4498	0.11536521
167	0x3d65ad6a	0.056073584
168	0xbe2d84a5	-0.16945131
169	0xbe3919ed	-0.18076296
170	0xbbe85c1e	-0.0070910593
171	0xbe085432	-0.13313368
172	0x3d5e7f10	0.054320395
173	0xbe4e76ac	-0.20162457
174	0xbe0be3e3	-0.1366115
175	0x3ca81072	0.020515654
176	0x3c6f88b0	0.014619991
177	0x3e42697f	0.18985556
178	0xbe109b5f	-0.1412177
179	0x3db9ca0b	0.0907174
180	0xbdc87c09	-0.09789283
181	0x3e0cf5cb	0.13765638
182	0x3e075d54	0.13219196
183	0xbe1059f9	-0.14096822
184	0x3e3e8b57	0.18607841
185	0x3e4e44a6	0.20143375
186	0x3d8e0340	0.06934214
187	0xbddf95cf	-0.109172456
188	0xbde4df82	-0.11175443
189	0x3e27070c	0.16311282
190	0x3c4c1906	0.012457138
191	0xbe02ecd3	-0.12785654
192	0x3d5e3093	0.054245543
193	0xbe1130d4	-0.14178783
194	0xbdeae592	-0.11469568
195	0xbda14491	-0.07874406
196	0x3d3642d5	0.04449733
197	0xbdfdb06d	-0.12387166
198	0xbd315407	-0.043293025
199	0xbdfd14be	-0.12357472
200	0xbda71922	-0.081590906
201	0xbe1597fe	-0.14608762
202	0x38c137d7	9.213358e-05
203	0xbdae744f	-0.08518278
204	0x3e17f465	0.14839323
205	0x3d850508	0.064951
206	0xbdda841c	-0.10669729
207	0x3e0f0fba	0.13970843
208	0xbd1a39c8	-0.03765276
209	0x3e03cf0a	0.12871948
210	0xbdbd9486	-0.09256844
211	0x3dd79ec1	0.10528327
212	0x3c6bc118	0.014389299
213	0xbe44b59f	-0.19209908
214	0xbd9cf0e8	-0.07663137
215	0xbd73e3b7	-0.059543338
216	0x3e4aece3	0.19816928
217	0x3cb79598	0.022410199
218	0x3df9e210	0.12201321
219	0xbe244377	-0.16041361
220	0xbe1c2f01	-0.15252306
221	0xbd49d5f2	-0.0492763
222	0x3df7e1d5	0.12103621
223	0xbd087bd7	-0.033321228
224	0xbd624f9c	-0.055251703
225	0xbd48485d	-0.048897136
226	0xbd3926bf	-0.045202967
227	0xbce2087a	-0.027591933
228	0x3e0e8511	0.13917948
229	0x3d810096	0.0629894
230	0x3e1c532d	0.15266104
231	0x3de64d0b	0.112451635
232	0xbdfe712d	-0.1242393
233	0x3d83a772	0.06428422
234	0x3c0b8b83	0.008517149
235	0xbc6c7eb0	-0.0144345015
236	0x3e14ea0a	0.14542404
237	0x3e3ec207	0.18628703
238	0x3d5b0424	0.053470746
239	0x3e010589	0.12599768
240	0xbe2840e0	-0.16430998
241	0x3cbd8fd7	0.023139877
242	0xbd77cc3d	-0.06049751
243	0xbe464bdc	-0.19364876
244	0xbdcd1c37	-0.10015147
245	0x3c4bb3e4	0.012433026
246	0xbe1fd419	-0.15608253
247	0xbe07dfb0	-0.13268924
248	0x3dbee87b	0.09321686
249	0x3db18785	0.086684264
250	0x3e2c2be8	0.16813624
251	0x3dcf3284	0.10117057
252	0xbd3d7053	-0.0462497
253	0x3d637c2c	0.05553834
254	0xbce18dd8	-0.027533457
255	0x3d82d6f4	0.06388655

Pair_shop_mlp.fc_layers.0.bias f4 [64]
0	0x3e2de492	0.16981724
1	0xbd1757ad	-0.03694885
2	0xbde2520f	-0.11050808
3	0xbd9b1181	-0.07571698
4	0xbdc289dc	-0.09498951
5	0xbc8d7655	-0.01726834
6	0x3deca76c	0.11555371
7	0xbdb3a60a	-0.08771904
8	0xbde6263d	-0.11237762
9	0x3dcc67fa	0.099807695
10	0x3dbd0cbc	0.092309445
11	0x3e27102b	0.16314761
12	0xbdcd83fd	-0.100349404
13	0x3dd1416b	0.102175556
14	0x3d9b0e8e	0.075711355
15	0xbd4cc2ae	-0.04999035
16	0xbde31896	-0.11088674
17	0xbda454f2	-0.080240145
18	0xbdbfb3ac	-0.093604416
19	0x3daa8b9b	0.08327409
20	0x3e3ff3ec	0.18745393
21	0x3e10b20a	0.14130417
22	0xbda75112	-0.0816976
23	0xbd62aed8	-0.055342525
24	0xbd6eb3b4	-0.058276847
25	0xbdad1a41	-0.08452273
26	0xbd572b46	-0.052531503
27	0x3d4049cc	0.04694538
28	0xbe223212	-0.15839413
29	0x3ddfda17	0.10930269
30	0x3d22b20c	0.03972058
31	0x3cd8a052	0.026443634
32	0x3d208b78	0.039195508
33	0x3d4b0934	0.049569324
34	0xbceb2282	-0.028702978
35	0xbd82dca3	-0.06389739
36	0xbd1a7b99	-0.03771553
37	0x3e081fa1	0.13293315
38	0xbd893f62	-0.067015424
39	0x3ddea0bc	0.108705014
40	0x3a805100	0.0009789765
41	0x3d49f199	0.04930267
42	0x3d97a9c3	0.07405426
43	0x3e22796a	0.15866628
44	0x3db583eb	0.08863052
45	0xbcf5f071	-0.030021878
46	0x3e45994d	0.19296761
47	0xbd6bfda3	-0.057614934
48	0xbdd4e6e4	-0.103956014
49	0xbd9875a0	-0.0744431
50	0xbc16ee63	-0.009212109
51	0x3d8abc31	0.06774176
52	0x3e085233	0.13312607
53	0x3db8478b	0.08998021
54	0xbdfd7b81	-0.12377072
55	0xbd954d89	-0.07290179
56	0x3d313dbb	0.04327176
57	0xbe148f77	-0.14507852
58	0x3ca73715	0.020412007
59	0x3e341fc1	0.17590238
60	0xbde44767	-0.111464314
61	0x3d4e5ec9	0.050383363
62	0xbe1e1ec8	-0.1544143
63	0xbd4783c7	-0.048709657

Pair_shop_mlp.fc_layers.1.weight f4 [16, 64]
0	0xbe0ae401	-0.13563539
1	0xbd4f6109	-0.05062965
2	0x3c90302b	0.017601093
3	0x3d9cc3e8	0.07654554
4	0x3d4f526c	0.050615713
5	0xbccce453	-0.025011217
6	0x3dd22bfc	0.102622956
7	0xbdb529f4	-0.088458925
8	0xbcb9044d	-0.022585059
9	0x3c89e3b1	0.016832205
10	0x3c0cb60f	0.008588328
11	0x3ded6e64	0.11593321
12	0xbdc05913	-0.093919896
13	0xbdb19659	-0.08671255
14	0xbddfe438	-0.10932201
15	0x3e0e58cf	0.13901065
16	0x3dafb141	0.085787304
17	0x3e050fc8	0.12994301
18	0x3c44efc1	0.012020052
19	0xbcb88083	-0.022522217
20	0x3e1afb11	0.15134837
21	0xbce44413	-0.027864492
22	0x3d96f385	0.073706664
23	0x3d2cdb7e	0.04220151
24	0x3c59d9b1	0.013296531
25	0x3d6105ef	0.0549373
26	0xbda11500	-0.078653336
27	0x3e146b0a	0.14493957
28	0x3dff50cd	0.124665834
29	0x3dc24d98	0.09487456
30	0xbd428c6d	-0.0474972
31	0xbd9ea111	-0.07745565
32	0x3e001ad8	0.1251024
33	0xbde2bd6d	-0.11071286
34	0x3dd319fe	0.10307692
35	0x3c40aef8	0.011760466
36	0x3ddf1157	0.10891979
37	0x3e340fa9	0.17584099
38	0x3da9040c	0.08252725
39	0x3ccc2e90	0.024924546
40	0x3d2dfde2	0.04247845
41	0x3d82ed4c	0.06392917
42	0x3d3bf047	0.045883443
43	0xbd4feeab	-0.05076472
44	0xbdfa07c3	-0.12208512
45	0xbd0290da	-0.031876422
46	0x3ccdd21a	0.025124598
47	0x3db81701	0.08988763
48	0xbd5ffaaa	-0.05468241
49	0x3d9400fe	0.07226752
50	0x3dfd0bfa	0.123558
51	0x3db39495	0.08768574
52	0x3d0be0c9	0.03414992
53	0x3d7c9b25	0.061671395
54	0xbde7bf08	-0.11315733
55	0xbd756a3f	-0.059915777
56	0x3de7d858	0.11320561
57	0xbdd76ec1	-0.105191715
58	0x3e1b089d	0.15140004
59	0x3c6b945b	0.014378632
60	0x3d6813c7	0.056659486
61	0xbbb4cda3	-0.005517678
62	0x3d9ef97d	0.0776243
63	0x3cb0eb37	0.021596534
64	0x3e176538	0.14784706
65	0xbc1006b9	-0.008790665
66	0x3bd8d340	0.00661698
67	0x3de979cb	0.11400183
68	0xbd383a2c	-0.044977352
69	0x3dd09160	0.10183978
70	0x3ddcac48	0.107750475
71	0xbdb5d47f	-0.08878421
72	0x3db4fb82	0.08837034
73	0x3cf84c43	0.030309802
74	0x3db0ce56	0.086331055
75	0x3dcd366f	0.10020148
76	0x3dadd1f6	0.084873125
77	0x3dbb9a1a	0.09160252
78	0xbda878a8	-0.08226138
79	0x3e01cf02	0.12676623
80	0x3ca12d45	0.019674907
81	0xbd895ac0	-0.06706762
82	0x3db8e91e	0.090288386
83	0xbd1be1b0	-0.03805703
84	0xbcfaeac2	-0.03062952
85	0xbdaacf61	-0.08340336
86	0x3dc0a21a	0.094059184
87	0xbdb80e7d	-0.089871384
88	0x3d4868aa	0.04892794
89	0x3d6a35ab	0.057180088
90	0xbdc23102	-0.09482004
91	0x3c404ce7	0.011737085
92	0xbc9f689a	-0.019459058
93	0x3df2da54	0.11858049
94	0xbc9cd749	-0.019145625
95	0x3dc1a506	0.09455304
96	0xbd227977	-0.03966662
97	0xbd32c66e	-0.04364627
98	0xbdc0a28f	-0.094060056
99	0x3d7f6d5d	0.062360156
100	0x3d5c23f6	0.053745233
101	0xbcaa1f9f	-0.020767031
102	0xbd4ed1c3	-0.050493013
103	0x3d93e40e	0.07221232
104	0xbd3c881d	-0.046028245
105	0x3d0720e4	0.03299035
106	0x3e07819f	0.1323304
107	0x3e0c9077	0.13726984
108	0xbd5bf5e5	-0.0537013
109	0x3cd5b9af	0.026089517
110	0x3e0b1edc	0.1358599
111	0xbab87031	-0.0014071522
112	0xbd929e3f	-0.07159089
113	0xbca64bfa	-0.0202999
114	0x3d1265a0	0.03574145
115	0xbcc41c36	-0.023939233
116	0x3d224453	0.03961594
117	0x3bc59566	0.0060297726
118	0x3d3da5f1	0.046300832
119	0xbd616a6b	-0.05503313
120	0xbc73e77a	-0.014886731
121	0x3e115d15	0.14195664
122	0xbd92bd7d	-0.07165048
123	0x3e04ca98	0.12967908
124	0x3db8503d	0.08999679
125	0xbddc761f	-0.10764717
126	0xbd6cb9b7	-0.0577943
127	0x3db80379	0.08985037
128	0x3dc7e248	0.097599566
129	0x3d9c142c	0.07621035
130	0x3d905f52	0.07049431
131	0x3b89608d	0.004192418
132	0xbde62464	-0.1123741
133	0x3d6c4323	0.057681214
134	0xbbb704bd	-0.0055852816
135	0xbd83fd62	-0.06444813
136	0x3d030e2f	0.03199595
137	0x3d9f297d	0.07771585
138	0x3b1f9a08	0.0024353284
139	0xbd316bd3	-0.04331572
140	0xbcffc53d	-0.03122198
141	0x3d122bf3	0.035686444
142	0xbc611859	-0.013738715
143	0xbd812d4b	-0.06307467
144	0xbc3696ce	-0.011144353
145	0x3cf640d9	0.030060219
146	0x3da63a69	0.081166096
147	0x3e12a615	0.14321168
148	0x3d58d02c	0.052932903
149	0x3a9cc9bb	0.0011961976
150	0xbca75cc5	-0.020429978
151	0x3d999037	0.0749821
152	0xbc7a18f3	-0.015264737
153	0xbd66c38a	-0.056338824
154	0x3e19827d	0.14991184
155	0xbd0f0d5e	-0.034924857
156	0x3afbdd52	0.0019215739
157	0x3e176438	0.14784324
158	0x3e1134af	0.14180253
159	0xbdc65875	-0.096848406
160	0x3dd633fa	0.104591325
161	0x3c9219e2	0.017834608
162	0xbd8a5972	-0.067553416
163	0xbd17698a	-0.036965884
164	0xbcbf8392	-0.023378167
165	0xbd9b8be8	-0.075950444
166	0x3e0f8eaf	0.14019273
167	0x3dccacaf	0.09993874
168	0x3db55d14	0.08855644
169	0xbca19350	-0.019723564
170	0x3cba8fb2	0.022773597
171	0xbcaa857b	-0.020815602
172	0x3e02dc35	0.12779315
173	0x3b9f2348	0.004856501
174	0x3d18c10c	0.03729348
175	0xbdb5f749	-0.088850565
176	0xbd8e7a43	-0.06956913
177	0x3d72f1fa	0.059312798
178	0xbdfa01f0	-0.12207401
179	0xbd66465d	-0.056219447
180	0xbd968811	-0.07350171
181	0x3df8f58f	0.121562116
182	0x3d332cba	0.043743826
183	0x3dd0acf6	0.1018924
184	0x3cad2029	0.0211335
185	0xbd8fb881	-0.07017613
186	0x3dcd937a	0.100378945
187	0xbbd12974	-0.0063831154
188	0x3d55c194	0.052186564
189	0x3db0d6f9	0.08634753
190	0xbdaf3ff7	-0.08557122
191	0x3d928c15	0.07155625
192	0x3d410afd	0.04712962
193	0x3da538de	0.08067487
194	0x3b99babc	0.00469145
195	0xbdb3c18a	-0.08777149
196	0x3d3da678	0.046301335
197	0xbc20f761	-0.009824605
198	0x3dfe177e	0.124068245
199	0x3e0c720f	0.13715385
200	0x3e036a60	0.12833548
201	0x3e30ca87	0.17264758
202	0x3e1236fd	0.14278789
203	0x3c49ccb1	0.012316869
204	0x3d4b3d66	0.0496191
205	0xbd68f0d5	-0.0568703
206	0xbcdb2e80	-0.026755571
207	0xbdb2c69c	-0.08729288
208	0x3d91a584	0.07111648
209	0xbd1a7464	-0.037708655
210	0x3c1ddee9	0.009635665
211	0x3d267c4d	0.040645886
212	0xbd388964	-0.0450529
213	0x3df36da4	0.11886147
214	0x3e063992	0.13107899
215	0x3dde6e8a	0.108609274
216	0x3e235a0f	0.15952323
217	0xbe2fada3	-0.17156081
218	0x3e00fc31	0.12596203
219	0x3dba3c6d	0.090935566
220	0x3dae6963	0.08516195
221	0x3ded5814	0.11589065
222	0x3df9ed58	0.12203473
223	0x3e1e22e2	0.15442994
224	0x3da12ab2	0.078694716
225	0x3d3c68a9	0.04599825
226	0x3d32d005	0.043655414
227	0xbd3d4311	-0.046206538
228	0xbdbb8266	-0.09155731
229	0xbdb4ec29	-0.088341065
230	0xbd947e0a	-0.072506025
231	0x3be59ebc	0.007007448
232	0x3ba9d92b	0.005183359
233	0x3d9cf7a2	0.0766442
234	0x3da20f97	0.0791313
235	0xbbd6c434	-0.006554151
236	0x3d3721c8	0.04470995
237	0xbcb94a42	-0.022618417
238	0xbce38a95	-0.027776042
239	0x3d7707ac	0.06031005
240	0xbdc60d4b	-0.09670504
241	0xbe0ed346	-0.13947782
242	0xbe10200c	-0.14074725
243	0x3d3c8ef9	0.046034787
244	0xbd6865b1	-0.056737605
245	0xbd69df7e	-0.057097904
246	0xbda96411	-0.08271039
247	0x3d703c5f	0.058651324
248	0x3dcd6b1d	0.10030196
249	0xbd5235fe	-0.051321022
250	0x3deb5152	0.1149012
251	0x3e133fb1	0.14379765
252	0xbd60940f	-0.0548287
253	0x3d5c4d7c	0.053784832
254	0xbb2fb0e4	-0.0026808316
255	0x3e0529db	0.13004248

Pair_shop_mlp.fc_layers.1.bias f4 [16]
0	0x3af7752c	0.0018879524
1	0x3b0e4c17	0.0021712834
2	0x3e089181	0.13336755
3	0x3d23b69e	0.03996908
4	0xbd9efb0e	-0.07762729
5	0x3c7954b7	0.0152179515
6	0x3c8331c0	0.016014934
7	0xbdb33343	-0.08750012
8	0x3d50ba7e	0.050959103
9	0xbda0cc8a	-0.07851513
10	0xbd511f6f	-0.051055368
11	0x3d918c1d	0.071068026
12	0x3dde44e4	0.108529836
13	0x3c6f3c6b	0.014601807
14	0xbdb29da2	-0.08721472
15	0x3e116ac3	0.14200883

Pair_score_mlp.fc_layers.0.weight f4 [64, 32]
0	0xbe0472c9	-0.12934412
1	0xbdd7aee3	-0.10531404
2	0x3e18ab2b	0.14909045
3	0xbd33d540	-0.043904543
4	0xbd9903bf	-0.07471418
5	0xbdbd0919	-0.09230251
6	0x3e48ee16	0.19622073
7	0x3bd6f479	0.006559905
8	0xbbd3333d	-0.006445317
9	0xbd7e9aa0	-0.06215918
10	0xbd5a8660	-0.053350806
11	0xbdd5c888	-0.10438639
12	0xbe06dbe8	-0.13169825
13	0xbe118c28	-0.14213622
14	0x3d8f3374	0.06992236
15	0x3c2d6e6f	0.010585411
16	0xbe496c3b	-0.19670193
17	0xbe017848	-0.1264354
18	0x3e7a168f	0.24422668
19	0xbd3a185b	-0.045433383
20	0x3df8f9e7	0.1215704
21	0xbe2f6b23	-0.17130713
22	0x3dc0605a	0.093933776
23	0x3df081e5	0.117435254
24	0xbded2921	-0.1158011
25	0xbdc01adf	-0.09380125
26	0x3e573fe7	0.2102047
27	0xbdca285a	-0.09870978
28	0x3db80f24	0.08987263
29	0xbdc076c4	-0.09397653
30	0xbe6b6543	-0.22987847
31	0xbe83b5e4	-0.2572471
32	0xbe409559	-0.18806972
33	0xbd95912c	-0.0730308
34	0x3e343b85	0.1760083
35	0x3e389e27	0.1802908
36	0xbdb022bf	-0.08600377
37	0x3e30777a	0.17233077
38	0x3e27481f	0.16336106
39	0xbdfa7d7b	-0.12230965
40	0x3dfea2dc	0.12433407
41	0x3c993069	0.018699842
42	0xbd862d6f	-0.065516345
43	0x3cec640e	0.028856304
44	0x3d8c611d	0.068544604
45	0xbd81ad7a	-0.06331916
46	0xbdcd18eb	-0.10014518
47	0xbcbda996	-0.023152154
48	0xbd5bdf6c	-0.05367987
49	0xbdcf681e	-0.10127281
50	0x3d52f435	0.051502425
51	0x3e0745bd	0.13210197
52	0x3d15681c	0.03647624
53	0xbe0e5b5f	-0.13902043
54	0x3d9a2bc7	0.07527881
55	0xbdb65e95	-0.08904759
56	0xbe3f2f64	-0.18670422
57	0x3e4645fc	0.19362634
58	0x3d29258d	0.041295577
59	0xbe05ca2b	-0.13065402
60	0xbd012cb1	-0.03153676
61	0xbd203aed	-0.039118696
62	0x3e31ea98	0.17374647
63	0x3d620da6	0.055188797
64	0xbddbe69f	-0.10737347
65	0xbb891855	-0.004183809
66	0xbd86eba1	-0.065879114
67	0xbdd4de65	-0.10393981
68	0x3d20e53c	0.039281115
69	0xbc0e0e5c	-0.008670416
70	0x3db7be2b	0.089718185
71	0xbd157ba0	-0.03649485
72	0x3e032952	0.12808731
73	0xbde4296e	-0.111407146
74	0x3d73e07e	0.059540264
75	0x3e2cf11c	0.16888851
76	0x3cd8dae4	0.026471563
77	0xbd15c697	-0.036566343
78	0x3db650c0	0.089021206
79	0x393365ad	0.00017108647
80	0xbe8a43d9	-0.2700489
81	0x3c23d421	0.009999306
82	0x3d555d80	0.05209112
83	0x3e5fef56	0.21868643
84	0x3e3f8bb0	0.1870563
85	0x3d8adf56	0.06780879
86	0x3e7d6841	0.24746801
87	0x3dd62ca1	0.10457731
88	0x3e0c3f9a	0.13696137
89	0xbda41323	-0.080114625
90	0xbca97ac1	-0.020688416
91	0xbd2053df	-0.039142486
92	0xbe0015dd	-0.1250834
93	0xbe0cc7aa	-0.13748041
94	0xbdd45d49	-0.10369355
95	0x3dc9d738	0.09855503
96	0xbe15ce5e	-0.14629504
97	0x3e00d634	0.12581712
98	0x3e515046	0.20440778
99	0x3d2486e9	0.040167723
100	0x3e312a72	0.17301348
101	0xbe0da62f	-0.13832925
102	0xbe00fd05	-0.1259652
103	0x3d63742c	0.055530712
104	0x3e1e001f	0.15429734
105	0x3e02cce8	0.12773478
106	0xbdc28c2b	-0.09499391
107	0x3e34634f	0.17616008
108	0xbdb1a031	-0.08673132
109	0x3d921287	0.0713244
110	0xbdb9a539	-0.09064717
111	0x3e382d47	0.17986022
112	0x3c47e55e	0.0122006815
113	0xbdd238a4	-0.102647096
114	0x3df0b362	0.117529646
115	0x3da14be2	0.078758016
116	0x3d256aad	0.040384937
117	0x3d8c4d1b	0.06850644
118	0x3e2273ba	0.15864459
119	0xbd479d9e	-0.0487343
120	0x3e05bc71	0.13060166
121	0xbe426e20	-0.18987322
122	0x3d964410	0.07337201
123	0xbd80fdb0	-0.06298387
124	0x3d6cbf99	0.05779991
125	0x3bc53a04	0.006018879
126	0x3e34d366	0.17658767
127	0x3d5314c6	0.051533483
128	0xbe42a645	-0.1900874
129	0x3bf1c052	0.0073776627
130	0x3d54fb5d	0.05199753
131	0xbdc6df41	-0.09710551
132	0x3e0b22c4	0.13587481
133	0xbcc68d4e	-0.024237301
134	0xbdc2e621	-0.0951655
135	0xbe6d6c35	-0.23185809
136	0x3e145e19	0.1448902
137	0xbd858361	-0.06519199
138	0xbe2397c7	-0.15975867
139	0xbe2055e0	-0.15657759
140	0xbcedbb6c	-0.029020034
141	0x3d10f7cf	0.03539258
142	0xbe01b6f3	-0.12667446
143	0xbe0d2764	-0.13784558
144	0x3dd8617f	0.10565471
145	0x3df7d760	0.121016264
146	0xbdc3ef2d	-0.095671035
147	0xbe37a0fe	-0.17932507
148	0xbd8b93ce	-0.06815301
149	0x3da20c9f	0.079125635
150	0x3d0c3334	0.03422852
151	0xbd331e9c	-0.043730363
152	0xbe4468c4	-0.1918059
153	0x3d4d119b	0.050065618
154	0xbd85e11b	-0.06537076
155	0x3e36a0dd	0.17834802
156	0xbd79bf33	-0.060973357
157	0xbde623f9	-0.1123733
158	0x3d94956d	0.07255063
159	0xbe095cdb	-0.13414328
160	0xbdcc3422	-0.09970881
161	0x3d3b8c48	0.04578808
162	0x3e03400c	0.128174
163	0x3da365eb	0.07978424
164	0x3dc7cfe9	0.097564526
165	0x3e0f0ccd	0.13969727
166	0xbdca9a92	-0.09892763
167	0xbdd0e1df	-0.101993315
168	0xbdbd1cee	-0.092340335
169	0x3da69888	0.08134562
170	0x3e27bd51	0.16380812
171	0x3d874f0a	0.066068724
172	0x3c320504	0.010865454
173	0x3db4964f	0.088177316
174	0xbe21ff95	-0.15820153
175	0xbd6769fc	-0.05649756
176	0x3e3da1e6	0.1851879
177	0x3e35e133	0.17761688
178	0x3d897f38	0.06713718
179	0xbbce0ab7	-0.0062878984
180	0x3dfc78dc	0.123277396
181	0xbe0514cd	-0.12996216
182	0x3d23af0b	0.039961856
183	0x3dcc1b81	0.099661835
184	0x3db6fec7	0.08935314
185	0x3d91717d	0.07101724
186	0x3e7e18ca	0.24814144
187	0xbe39fce0	-0.1816287
188	0x3e33d664	0.17562252
189	0xbe1998a7	-0.14999638
190	0x3e15cc4c	0.14628714
191	0xbd44f546	-0.048085473
192	0xbdfa7455	-0.1222922
193	0x3e4b0fc9	0.1983024
194	0xbd9a744e	-0.075417146
195	0xbd9deaaa	-0.07710774
196	0xbe17a6f2	-0.14809778
197	0xbdb8f9f9	-0.090320535
198	0x3c7a24ee	0.015267594
199	0x3dee7b7f	0.11644649
200	0x3bbad4bf	0.005701631
201	0x3df7d2a6	0.12100725
202	0xbd924475	-0.071419634
203	0x3e0a697c	0.13516802
204	0xbd54eb99	-0.051982496
205	0xbde3fc79	-0.1113214
206	0x3e0b17a4	0.13583237
207	0x3c500470	0.0126963705
208	0x3d1a0b83	0.037608635
209	0x3e1c99c9	0.1529304
210	0xbdb33e33	-0.08752098
211	0xbc44be03	-0.012008193
212	0x3c2d4700	0.01057601
213	0x3dbcf10b	0.09225663
214	0x3e1ecc2e	0.15507576
215	0x3e3dc9d2	0.1853402
216	0x3d469622	0.04848302
217	0xbcf2ed8f	-0.029654292
218	0x3dba1b3a	0.09087224
219	0x3e3ced24	0.18449837
220	0xbdcc32cc	-0.09970626
221	0x3ddf4b95	0.10903088
222	0x3e141902	0.14462665
223	0xbe17ce31	-0.1482475
224	0x3cfa1dd8	0.030531809
225	0xbd965c1e	-0.07341789
226	0x3e44b037	0.19207846
227	0x3e07d365	0.13264234
228	0x3d0c36ed	0.03423207
229	0x3cb75fc2	0.022384528
230	0xbdc3923b	-0.095493756
231	0xbdbedade	-0.09319089
232	0x3e39e88e	0.18155119
233	0x3e3e751a	0.18599358
234	0xbe246d0f	-0.16057228
235	0xbe0412ca	-0.12897792
236	0x3d7e029c	0.062014207
237	0xbd2559e5	-0.040368933
238	0xbdd5f7e1	-0.1044767
239	0x3df8e945	0.12153868
240	0xbe781f49	-0.24230684
241	0xbdf1e2c0	-0.11810827
242	0x3d3f7a63	0.046747576
243	0xbcd95dc3	-0.026533967
244	0xbdb66cd7	-0.08907478
245	0x3e7539c8	0.23947823
246	0x3d4110b4	0.04713507
247	0x3b40e40f	0.0029432809
248	0x3c8c27ec	0.01710888
249	0xbde7aadf	-0.11311888
250	0xbdb22a99	-0.08699531
251	0xbe1c183c	-0.1524362
252	0xbde058a3	-0.10954406
253	0xbd9f0031	-0.077637084
254	0x3e139d74	0.14415532
255	0x3d906316	0.07050149

Pair_score_mlp.fc_layers.0.bias f4 [64]
0	0x3d233516	0.03984555
1	0xbd76dbe4	-0.060268298
2	0xbe0ea79f	-0.1393113
3	0xbdd1ae79	-0.10238356
4	0x3e32868f	0.17434143
5	0x3e257afb	0.16160195
6	0xbdfbb22a	-0.122898415
7	0xbdbfcb17	-0.09364908
8	0xbd96b0c5	-0.07357935
9	0xbdbf0369	-0.09326822
10	0x3e20d016	0.15704378
11	0x3cb0535a	0.02152412
12	0x3d62b5df	0.055349227
13	0x3dc993d0	0.09842646
14	0xbd9457fb	-0.072433434
15	0x3d24d118	0.04023847
16	0x3e36bc41	0.1784525
17	0xbd9eaa2d	-0.07747302
18	0x3dbe799e	0.093005404
19	0x3da0d71f	0.07853531
20	0xbd9b5937	-0.07585376
21	0xbcfcb648	-0.030848637
22	0x3d9705ae	0.0737413
23	0xbd5e9d07	-0.05434897
24	0x3da21979	0.07915015
25	0xbd35c9e7	-0.044382002
26	0xbbc538db	-0.0060187406
27	0x3dd8cf1c	0.10586378
28	0x3e2de5fc	0.16982263
29	0xbd1049d8	-0.035226673
30	0xbdabfaa4	-0.08397415
31	0x3e171bd7	0.14756714
32	0x3dbb4715	0.09144417
33	0xbe1f9cae	-0.15587112
34	0x3c95a7b7	0.01826845
35	0x3e584556	0.211202
36	0x3e07fb46	0.13279447
37	0x3e0a7495	0.13521035
38	0xbd896221	-0.0670817
39	0xbd43d9b2	-0.047815032
40	0xbe155698	-0.14583814
41	0x3dc0a0ba	0.09405656
42	0xbe0e0331	-0.13868405
43	0xbdfdc43a	-0.12390943
44	0x3ad3f6c2	0.0016171562
45	0x3e06a178	0.13147533
46	0xbd123487	-0.035694625
47	0xbdb6d614	-0.08927551
48	0xbd8c6c4d	-0.06856594
49	0xbdab663f	-0.08369111
50	0x3cb14a34	0.021641828
51	0xbd980e2d	-0.07424579
52	0xbda7dba9	-0.08196194
53	0xbe01674d	-0.12637062
54	0xbdd26f2b	-0.1027511
55	0x3e161a4d	0.1465847
56	0xbd1c1952	-0.038110085
57	0x3de5312b	0.11191019
58	0x3dfb13d2	0.1225964
59	0x3dfb486f	0.12269675
60	0x3d8f7975	0.07005588
61	0x3e174bef	0.1477506
62	0x3d8603e4	0.06543711
63	0xbda54bea	-0.0807112

Pair_score_mlp.fc_layers.1.weight f4 [8, 64]
0	0x3d9be6d8	0.07612389
1	0x3e065c77	0.1312121
2	0x3de159fe	0.11003493
3	0x3d7edd05	0.0622225
4	0x3e027293	0.12739019
5	0x3e2921ac	0.16516751
6	0x3cf1052f	0.029421417
7	0x3e054201	0.1301346
8	0x3dd9872e	0.106214866
9	0x3db586fe	0.08863638
10	0xbdc6eb2c	-0.09712824
11	0x3d2fdad3	0.042933296
12	0x3d17f8f0	0.03710264
13	0xbdb3918f	-0.087679975
14	0xbc33367d	-0.010938284
15	0x3c3c8972	0.011507379
16	0x3dad32db	0.084569655
17	0x3cb3f506	0.021967422
18	0xbd3edbf1	-0.04659647
19	0x3d99fad4	0.07518545
20	0x3e1c7e57	0.1528257
21	0xbbe0ed82	-0.0068642506
22	0x3dba2e04	0.09090808
23	0x3cd88f57	0.026435537
24	0x3d26d06e	0.040726118
25	0x3e14a193	0.1451476
26	0x3e17718a	0.14789405
27	0xbc1faf51	-0.0097463885
28	0xbd03429c	-0.032045946
29	0xbb93c7b6	-0.0045098914
30	0x3e08881c	0.13333172
31	0xbc661902	-0.014044048
32	0x3d5683c2	0.052371748
33	0x3de8b564	0.113627225
34	0x3dffef0e	0.12496768
35	0x3c6ed007	0.014575965
36	0x3dd48f15	0.10378853
37	0x3d477abc	0.048701033
38	0x3e0bec82	0.1366444
39	0x3d8d8239	0.069096036
40	0xbc027c61	-0.007964225
41	0x3d49f6d3	0.049307656
42	0xbca6157f	-0.020273922
43	0x3da2ea6d	0.079548694
44	0xbe158f73	-0.14605503
45	0x3ddd8b96	0.108176395
46	0x3e161761	0.14657356
47	0x3ddfd9b3	0.10930195
48	0xbdbc4042	-0.09191944
49	0x3de31868	0.110886395
50	0xbdbc1131	-0.091829665
51	0x3dc63ca5	0.09679536
52	0x3e29db25	0.16587503
53	0x3d28f5b5	0.04124995
54	0x3b0a9f0e	0.0021151933
55	0xbdbb0439	-0.09131665
56	0x3d3f60dd	0.046723235
57	0xbd86a69f	-0.06574749
58	0xbd7b9f17	-0.061431017
59	0x3d85e663	0.065380834
60	0xb9a1cb78	-0.0003085991
61	0x3dbcb7b0	0.09214723
62	0xbd3f0991	-0.046639983
63	0x3df050ab	0.11734136
64	0xbdd90f7b	-0.10598656
65	0x3dccc742	0.09998943
66	0xbdce42e1	-0.1007135
67	0xbdf945d2	-0.1217152
68	0xbde00595	-0.10938565
69	0xbd624dbd	-0.05524992
70	0x3c52cfbe	0.012866912
71	0xbda76df8	-0.08175272
72	0xbd7aa6e5	-0.06119432
73	0xbcdb332b	-0.026757797
74	0xbe1d3022	-0.15350392
75	0x3bf27d61	0.0074002002
76	0xbe09714f	-0.1342213
77	0x3df34325	0.11878041
78	0xbe0ebb14	-0.13938552
79	0xbe1ffd7a	-0.15624037
80	0x3c888c70	0.016668528
81	0x3d011a45	0.031519193
82	0xbd40389d	-0.04692899
83	0x3bff5a66	0.0077927588
84	0xbe032b53	-0.12809496
85	0xbdd68345	-0.104742564
86	0xbce41e8c	-0.027846597
87	0x3d6be7b7	0.057594027
88	0xbcaf75bc	-0.021418445
89	0xbd9d4e15	-0.076809086
90	0x3de9eb1c	0.11421797
91	0xbd31ed32	-0.043439098
92	0xbdb2f7d5	-0.087386765
93	0x3d11547d	0.035480965
94	0x3dd5921d	0.104282595
95	0x3c2ffc7b	0.010741348
96	0xbd6af38a	-0.057361163
97	0xbde774f6	-0.113016054
98	0x3d3896ec	0.045065805
99	0x3dc0335f	0.09384798
100	0xbdba7304	-0.09103969
101	0x3dad3d2d	0.08458934
102	0x3cc8792a	0.024471838
103	0x3d91415e	0.07092546
104	0xbd7ec767	-0.062201884
105	0xbd0353a3	-0.032062184
106	0xbd82f7b9	-0.063949056
107	0xbdddc354	-0.108282715
108	0x3e277acf	0.16355442
109	0x3df945cf	0.12171518
110	0xbd9da8c8	-0.07698208
111	0xbd4e6307	-0.05038741
112	0x3d6f90f7	0.05848786
113	0xbdf13c98	-0.117791355
114	0x3de3ef6d	0.11129651
115	0xbdcc50b0	-0.099763274
116	0x3cf0814a	0.029358525
117	0xbdfeb69b	-0.12437173
118	0xbdcc7861	-0.09983898
119	0x3e2f84ae	0.17140457
120	0x3ccb8b12	0.024846587
121	0xbdcab247	-0.09897285
122	0xbd00e1be	-0.031465285
123	0xbd9182bd	-0.071050145
124	0x3e149ab1	0.14512135
125	0x3d83b1e6	0.06430416
126	0x3d221c80	0.03957796
127	0x3d27f9de	0.041009776
128	0x3d98c775	0.074599184
129	0x3ddb3c3b	0.107048474
130	0x3e51e842	0.20498756
131	0x3e1e8932	0.15482023
132	0xbced06e9	-0.02893396
133	0x3db5f40c	0.08884439
134	0x3e231a2b	0.15927951
135	0x3c99933d	0.018746966
136	0x3e170bc7	0.14750586
137	0xbc7c13a9	-0.015385547
138	0x3de0f163	0.10983541
139	0xbbb7efd4	-0.0056133065
140	0xbc596319	-0.013268256
141	0xbe1c91c8	-0.15289986
142	0x3da1aaef	0.07893931
143	0x3db80e36	0.089870855
144	0x3e5f8dd1	0.21831442
145	0x3e1d1714	0.15340835
146	0x3dfba14b	0.122866236
147	0x3d480ba5	0.04883923
148	0x3e01b133	0.12665252
149	0xbcdee7ca	-0.027210135
150	0x3de85b6f	0.113455646
151	0x3d6d8501	0.05798817
152	0x3ba0bcbb	0.004905311
153	0x3d2cb3e5	0.04216375
154	0x3dd2e000	0.10296631
155	0x3e25fcc4	0.16209704
156	0xbb75ce91	-0.0037507156
157	0x3e2743e6	0.16334495
158	0x3da053bc	0.07828471
159	0x3e49a6a5	0.19692476
160	0x3df740c5	0.12072901
161	0x3d06fb4b	0.032954495
162	0x3de64ab7	0.112447195
163	0xbcd7c93c	-0.026341073
164	0x3de3185d	0.11088631
165	0x3c86894e	0.016422894
166	0xbce5a682	-0.028033499
167	0x3dffc236	0.12488215
168	0xbcf9b818	-0.03048329
169	0x3dd33b5c	0.10314056
170	0x3de998f8	0.114061296
171	0x3e23367d	0.15938754
172	0xbca90767	-0.020633413
173	0x3e092a6e	0.13395092
174	0x3dcbb373	0.099463366
175	0xbc356373	-0.011071074
176	0x3e1f8633	0.15578537
177	0xbc54f6c6	-0.0129982885
178	0x3e232aae	0.1593425
179	0xbc4e2f07	-0.012584454
180	0xba9a07ff	-0.0011751651
181	0xbda09e10	-0.07842648
182	0x3d0140de	0.031556003
183	0xbd23bb04	-0.039973274
184	0xbd1b0528	-0.037846714
185	0x3d1ae2e6	0.037814043
186	0x3dc77c14	0.09740463
187	0x3e4591c0	0.1929388
188	0x3dbaf1c3	0.09128144
189	0x3c8464ca	0.016161341
190	0x3dd2fe39	0.103023954
191	0x3e611a00	0.21982574
192	0xbd5551b3	-0.052079868
193	0x3daf1da8	0.08550578
194	0x3d3ecdd1	0.046583
195	0x3cb2dc00	0.02183342
196	0xbc146840	-0.009058058
197	0xbde137dd	-0.10996983
198	0x3b35c787	0.0027737336
199	0x3caf6357	0.021409674
200	0xbe032a5d	-0.12809129
201	0xbc7b764f	-0.015348031
202	0x3d878c66	0.06618576
203	0x3b261be9	0.0025346226
204	0xbcfe67b7	-0.031055314
205	0x3dc81e26	0.09771375
206	0xbd93f855	-0.072251
207	0xbdff495b	-0.12465163
208	0xbdeb3f64	-0.114867
209	0xbdbd5406	-0.09244542
210	0x3af718cc	0.0018851995
211	0xbd44580f	-0.04793554
212	0xbda51c83	-0.08062079
213	0x3c50378c	0.012708556
214	0x3d873319	0.06601543
215	0x3da095e5	0.0784109
216	0x3de2caaf	0.11073815
217	0x3c1dab85	0.009623413
218	0xbdcda3ee	-0.10041033
219	0x3dd0a883	0.10188391
220	0xbd2bc410	-0.041935027
221	0x3da79d81	0.08184338
222	0x3dab655d	0.08368943
223	0xbdde1486	-0.10843758
224	0xbcff9c48	-0.03120245
225	0xbdcf7dc7	-0.10131412
226	0xbb938864	-0.004502343
227	0xbc7fd171	-0.0156139
228	0x3dc8daaf	0.098073356
229	0xbe059234	-0.13044053
230	0xbd502e68	-0.050825506
231	0xbd0b936b	-0.034076136
232	0xbbe0302f	-0.0068416814
233	0x3db3f608	0.08787161
234	0xbd62c770	-0.05536598
235	0x3d06ff59	0.032958362
236	0xbdb8ff19	-0.09033031
237	0xbdda2f95	-0.10653607
238	0xbded9ca0	-0.116021395
239	0xbd8f95fc	-0.07011029
240	0x3dcd93ef	0.10037982
241	0xbe0429d6	-0.12906584
242	0xbb96166c	-0.0045803096
243	0xbdcad0b1	-0.09903086
244	0x3d0f2b0b	0.03495316
245	0xbd1ae2fe	-0.037814133
246	0x3cc9fb85	0.024656067
247	0x3e100e91	0.14068057
248	0xbda4687b	-0.080277406
249	0x3d27a58e	0.04092937
250	0x3de4b332	0.11166991
251	0x3dab7378	0.08371633
252	0xbd4aedcd	-0.04954319
253	0xbe00cfe9	-0.12579311
254	0x3d08d3d8	0.033405155
255	0xbc346323	-0.011009964

Pair_score_mlp.fc_layers.1.bias f4 [8]
0	0x3c056628	0.008142032
1	0x3dac3345	0.084082164
2	0xbdaba067	-0.08380204
3	0x3d20d821	0.039268617
4	0x3e13ca26	0.14432582
5	0x3dfb9d3a	0.12285848
6	0xbd784e32	-0.060621448
7	0xbd7cf8a7	-0.06176057

CNN_embedding_types.weight f4 [106, 16]
0	0x3e143153	0.1447194
1	0xbf4692f5	-0.7756799
2	0xbefccff1	-0.49377397
3	0x3f73deb2	0.9526168
4	0xbed09b39	-0.40743425
5	0xbc5a8c02	-0.0133390445
6	0x3fe274eb	1.769193
7	0xc039a005	-2.9003918
8	0x3dfc5115	0.12320153
9	0xbf5da16c	-0.86574435
10	0xbf08f5e7	-0.5350022
11	0x3f89da9c	1.0769839
12	0x3ef88eef	0.4854655
13	0x3eca84ba	0.39554387
14	0x3f3c5e1c	0.735811
15	0xbf441104	-0.76588464
16	0xbd081c46	-0.03323009
17	0xbff69467	-1.9264039
18	0x3f2a366a	0.6648928
19	0xbf3b0b97	-0.7306456
20	0x3eea6946	0.45783442
21	0xbf271944	-0.6527293
22	0x3ed42d18	0.41440654
23	0xbe81a860	-0.25323772
24	0xbd1e84ea	-0.038700975
25	0xbf678b1c	-0.9044664
26	0xbfad792f	-1.3552607
27	0x3ef2b3dd	0.4740285
28	0x3f82d8ea	1.0222447
29	0x3eda8399	0.42678526
30	0xbeb908dc	-0.36139572
31	0xbe020d0c	-0.1270029
32	0xbf0ebd64	-0.5575774
33	0x3fd58d45	1.6683737
34	0x3f1fd949	0.62440926
35	0xbebd701e	-0.369996
36	0xbc9e5695	-0.019328395
37	0x3f8b485b	1.0881456
38	0x3ee14e57	0.4400508
39	0xbf8490a3	-1.035664
40	0x40071326	2.1105437
41	0xbfc67729	-1.5505115
42	0xbf88e723	-1.0695537
43	0x3f160fc1	0.5861779
44	0xbd8b8fc4	-0.068145305
45	0x3de1a1bd	0.11017177
46	0xbf021388	-0.5081105
47	0x3fa2344a	1.2672207
48	0xbe9b3a95	-0.30318132
49	0xbf1b255d	-0.60603887
50	0xbe9f647e	-0.31131357
51	0x3d8fa0bc	0.070130795
52	0xbee7fe52	-0.45311219
53	0x4005d9f4	2.0914278
54	0xbd9ca96f	-0.076495044
55	0x3f9f61a3	1.2451671
56	0xbfae8ee5	-1.3637358
57	0xbf44ee9f	-0.76926607
58	0x3eaa21da	0.33228952
59	0x3f9221ae	1.1416528
60	0x3dc3b5d6	0.09556167
61	0xc00868ec	-2.131404
62	0x3f0c59e1	0.54824644
63	0x3f6fa283	0.9360735
64	0x3ff43fa4	1.9081922
65	0x3f762790	0.9615412
66	0x3f0d9f19	0.5532089
67	0x3f719704	0.94371057
68	0x3eaed50b	0.34146914
69	0xbd13fef5	-0.036131818
70	0x3fbfbb4d	1.4979035
71	0xbf46f262	-0.77713597
72	0x3f48d184	0.78444695
73	0xbd3a7e52	-0.045530625
74	0xbe26cc1d	-0.162888
75	0x3fab587c	1.3386378
76	0xbe26b621	-0.16280414
77	0xbe8393cb	-0.25698695
78	0x3d5617c7	0.05226877
79	0xbec7f693	-0.3905531
80	0x3e6be23b	0.23035519
81	0x3e889b18	0.26680827
82	0x3f8c904b	1.0981535
83	0xbf9f969d	-1.2467839
84	0xbf75929b	-0.9592683
85	0xbfe7475a	-1.806865
86	0x3c3a7b61	0.011381955
87	0xbde1e0c8	-0.11029202
88	0xbfa0bd6f	-1.255781
89	0x3f22858c	0.63485026
90	0x3e9e4d58	0.30918384
91	0x4036a2cd	2.8536866
92	0xbf9b7244	-1.2144246
93	0xbe5b1362	-0.21394113
94	0xbf06df26	-0.5268425
95	0x3e32fbf1	0.1747892
96	0x3f04b884	0.5184405
97	0xbec1d558	-0.3785808
98	0xbe66dbef	-0.22544836
99	0xbfc867aa	-1.5656636
100	0x3ef471e5	0.47743145
101	0xbf87e3ac	-1.0616355
102	0x3fe3cc19	1.7796661
103	0xbf0c7875	-0.548713
104	0x3ead86fe	0.33892053
105	0x3f473768	0.7781892
106	0x3bf7464e	0.007546223
107	0xbf157163	-0.5837614
108	0xbf6a5174	-0.9153054
109	0xbd578b67	-0.05262318
110	0x3fe4cf7a	1.7875817
111	0x3f936483	1.1515049
112	0x3dc723f1	0.09723652
113	0x3fcc4b39	1.5960456
114	0xbf1aa9bf	-0.6041526
115	0x3fb474a8	1.4098101
116	0x3df1c573	0.118052386
117	0x3f343ad3	0.7040226
118	0xbf0995c7	-0.5374417
119	0xbf3c7644	-0.7361796
120	0x3f0c0f17	0.54710525
121	0x3ff3d81d	1.9050328
122	0x3dcfe4e3	0.101510786
123	0x3ee6eae4	0.45101082
124	0x3ecd01d9	0.40040472
125	0xbf7faafa	-0.99870265
126	0x3e1b37cd	0.15158005
127	0xbf2177da	-0.63073504
128	0x403688c8	2.8520985
129	0xbdf34c03	-0.118797325
130	0x3ec510d2	0.38489395
131	0x3f79ebe5	0.9762557
132	0xbfac02aa	-1.3438313
133	0xbf558af8	-0.83415174
134	0xbe0659bd	-0.1312017
135	0xbdc276ec	-0.09495339
136	0xbe38437d	-0.17994495
137	0xbf8e5a3e	-1.112129
138	0x3eea8aed	0.45809117
139	0xbe5fadad	-0.21843596
140	0x3f0e5786	0.556023
141	0xbddfd709	-0.109296866
142	0x3fffb5b1	1.9977323
143	0x3e0392d2	0.12848976
144	0x3ce000f2	0.0273442
145	0x3e1ae42a	0.151261
146	0xbf544816	-0.82922494
147	0x40019540	2.0247345
148	0x3e7986c2	0.24367812
149	0x3d9a232a	0.07526238
150	0xbe90502d	-0.2818617
151	0x3d9bbbb9	0.07604165
152	0x3ed073a6	0.40713233
153	0xbe818f61	-0.25304702
154	0x3ecfde06	0.40599078
155	0x3f458049	0.7714887
156	0xbe6ce5ed	-0.23134585
157	0xbf8da606	-1.1066291
158	0x3d94100a	0.07229622
159	0xbf5dfcf0	-0.86714077
160	0xbf96c587	-1.177903
161	0x3f0ada34	0.542392
162	0xbe4d9245	-0.20075329
163	0xbf1895c9	-0.59603554
164	0x3eebd2f4	0.46059382
165	0x3f9dec36	1.2337711
166	0x3e9e5150	0.30921412
167	0x3f1b11fe	0.6057433
168	0x3f197376	0.59941804
169	0xbe9c0720	-0.30474186
170	0xbe9d517f	-0.3072624
171	0x3fd23489	1.6422282
172	0x3f858ae1	1.0433007
173	0xbfbde604	-1.483582
174	0x3f24b4c4	0.64338326
175	0x3fe5efd2	1.7963812
176	0x3cb3298e	0.0218704
177	0xbff36684	-1.901566
178	0xbde56c09	-0.11202247
179	0x3ebad3be	0.3648967
180	0xbfa6ff38	-1.3046637
181	0xbcca3a27	-0.024685932
182	0xbfa71c1a	-1.3055451
183	0xbe68b2f2	-0.22724512
184	0xbdd9c63b	-0.106335126
185	0xbf8c0395	-1.0938593
186	0xbe9247ec	-0.28570497
187	0x3fdb393d	1.7126843
188	0x3fa2bfe4	1.271481
189	0x3f81c583	1.0138401
190	0xbf3d8a2c	-0.7403896
191	0x3e842a79	0.25813654
192	0xbf6792d0	-0.90458393
193	0x40139f18	2.3065853
194	0xbf4b71e9	-0.7947069
195	0x3fdfe3a3	1.7491344
196	0xbda67cba	-0.081292585
197	0xbe3c7c84	-0.18406874
198	0xbf97356d	-1.1813179
199	0x3edd486d	0.4321932
200	0x3fa39ae2	1.2781641
201	0xbf454978	-0.7706523
202	0x3fdc8158	1.7226973
203	0xbe623e3e	-0.22094056
204	0x3f5c5ff8	0.86083937
205	0x3fe8b0fe	1.8179014
206	0x3f2f085f	0.6837215
207	0xbe85506e	-0.26037925
208	0x3ff4f6a8	1.9137774
209	0x3f9281ef	1.1445903
210	0x3fb148d3	1.3850349
211	0xbf936218	-1.1514311
212	0x3e027123	0.1273847
213	0x3f5d3f7b	0.8642499
214	0x3f582913	0.84437674
215	0xbfcc8846	-1.5979087
216	0x3f74a36a	0.9556185
217	0xbfb268b9	-1.3938209
218	0x3d7e879c	0.062141046
219	0xbf82d488	-1.0221109
220	0xbf0c1b52	-0.5472919
221	0x3f8c52bd	1.096275
222	0x3dfd9b7e	0.123831734
223	0x3ecc0790	0.3984952
224	0x3ca85c6c	0.020551883
225	0xbf898aa3	-1.0745434
226	0x3d88e188	0.06683642
227	0x402fd6e4	2.747491
228	0x4056b327	3.3546846
229	0x3fdb1a46	1.7117393
230	0xbfabaf7d	-1.341293
231	0xbe4a3bbc	-0.1974935
232	0xbf7a3799	-0.97741085
233	0x3d482d3e	0.04887127
234	0xbf59f5c2	-0.8514062
235	0xbf19c3b8	-0.6006427
236	0xbf6c296d	-0.9225071
237	0x3e11b1f2	0.14228037
238	0xbefeb176	-0.49744767
239	0xbea50f44	-0.3223821
240	0xbfee9f3f	-1.8642348
241	0x3edbc8db	0.42926678
242	0x3f1d58b0	0.6146345
243	0x3e3b6dba	0.18303576
244	0x3dcac399	0.099005885
245	0xbf0b41ec	-0.54397464
246	0x3f441052	0.765874
247	0xbfb0ceb6	-1.3813083
248	0x3e8548c5	0.2603208
249	0x3f29adce	0.6628083
250	0x3f3a5eae	0.7280072
251	0x3f15f030	0.5856962
252	0x3e7402d4	0.23829204
253	0x3ca9cb5b	0.02072685
254	0xbf4f0017	-0.8085951
255	0x3f5b8c50	0.85760975

embedding_CNN_distances.weight f4 [7, 8]
0	0x3f852bd7	1.0404004
1	0xbf93219e	-1.1494634
2	0x3e47355f	0.19453953
3	0x3eb8f470	0.3612399
4	0x3f7047f6	0.93859804
5	0xbf077fe4	-0.5292952
6	0x3f3c0bff	0.73455805
7	0x3f9e53ea	1.2369359
8	0xbf376e84	-0.7165301
9	0x3f371b02	0.71525586
10	0xc0375eba	-2.8651567
11	0xbe6e646e	-0.23280498
12	0xbf810d7c	-1.008224
13	0xc00d67ac	-2.2094526
14	0xbf82a058	-1.0205183
15	0x3d7f3f05	0.06231596
16	0x3e840553	0.25785312
17	0xbf95503b	-1.1665109
18	0x3d0217b9	0.031760905
19	0xbec3dcdd	-0.38254443
20	0x3f9d89b6	1.2307651
21	0x3f632776	0.8873209
22	0x3ff551c1	1.9165574
23	0x3ecfaf5b	0.40563473
24	0xbdf3052d	-0.118662216
25	0x3ebe863e	0.37211794
26	0x3f0b1e34	0.5434296
27	0xbfe030d5	-1.7514902
28	0x3f700d69	0.9377046
29	0xbf45e1cb	-0.7729766
30	0x3ed6127d	0.4181098
31	0xbf016102	-0.5053865
32	0xbf8cb613	-1.0993065
33	0xbe30e837	-0.17276083
34	0x3f1ef311	0.6208964
35	0x3fc64731	1.5490476
36	0x3e0afd81	0.13573267
37	0xbf376b59	-0.71648175
38	0x3e6b4713	0.22976331
39	0x3ebb073d	0.3652896
40	0x3dbd6c30	0.09249151
41	0xbed2eb34	-0.4119507
42	0xbe516ce7	-0.20451699
43	0x3fab4829	1.3381397
44	0x3ebb8c75	0.36630598
45	0xbf69c5a6	-0.9131721
46	0xbf361b36	-0.7113527
47	0x3f89c8f2	1.0764449
48	0x00000000	0.0
49	0x00000000	0.0
50	0x00000000	0.0
51	0x00000000	0.0
52	0x00000000	0.0
53	0x00000000	0.0
54	0x00000000	0.0
55	0x00000000	0.0

embedding_CNN_prices.weight f4 [6, 5]
0	0x3ff2cbe1	1.8968469
1	0x3fb12de2	1.3842127
2	0xbfa2e25c	-1.2725329
3	0xbfdcf856	-1.7263286
4	0xbf80f29e	-1.0074041
5	0xbee3ea78	-0.44514823
6	0x3f8e78d1	1.113062
7	0x3ff8e006	1.9443367
8	0x3eb20298	0.34767604
9	0xbe7c77b6	-0.24655041
10	0x400b6383	2.1779487
11	0xbf0f1083	-0.5588457
12	0xbfcd8a76	-1.605788
13	0xbf343e71	-0.7040778
14	0xbf93eafc	-1.1556087
15	0xbf997640	-1.1989212
16	0x3febbb34	1.8416505
17	0xbea57d78	-0.32322288
18	0xbfb52afa	-1.415374
19	0xbf5722b1	-0.8403731
20	0xbf1dfa3d	-0.6170996
21	0x3ea163d0	0.31521463
22	0x3d1dc8ae	0.03852146
23	0xbf470dbc	-0.7775533
24	0x3f6d468d	0.92685777
25	0x00000000	0.0
26	0x00000000	0.0
27	0x00000000	0.0
28	0x00000000	0.0
29	0x00000000	0.0
