checkpoints/GNNNoCNN_Epoch140_valmse2.2269_testmse2.2996_ndcg0.9329.model (torch, 249600 bytes, 52 tensors)

Pair_embedding_types.weight f4 [106, 16]
0	0x3c954a9e	0.018224057
1	0xbdd0e209	-0.10199363
2	0xbed35fe1	-0.41284087
3	0xbf6148df	-0.8800182
4	0x3f60c65a	0.8780266
5	0xbec20507	-0.3789446
6	0x3e09756d	0.134237
7	0xbfabe692	-1.342974
8	0x3e1d6f91	0.1537459
9	0x3c23c4ed	0.009995681
10	0xbfa152f0	-1.2603436
11	0x3f0ad4d6	0.5423101
12	0xbfcf5b64	-1.6199765
13	0x3ec098e4	0.37616646
14	0x3ea50c5a	0.32235986
15	0x3f3ae314	0.73002744
16	0x3ef44da3	0.47715482
17	0xbf949f3e	-1.1611097
18	0x3ff3ae41	1.9037553
19	0xbed956d0	-0.42449045
20	0xbe7e0c3d	-0.24809356
21	0x3e4e058a	0.201193
22	0xbf11b74c	-0.56920314
23	0x3f30d98e	0.6908196
24	0xbf84c7d1	-1.0373479
25	0x3ca56d0f	0.020193605
26	0xbf036aba	-0.51334727
27	0x4053cf5b	3.309531
28	0xbf470933	-0.7774841
29	0xbf18d139	-0.5969425
30	0xbf8faebe	-1.1225202
31	0x3f81e205	1.0147101
32	0x3fdb36ca	1.7126095
33	0x4013cfa4	2.3095484
34	0xbf831954	-1.0242105
35	0x3e1c961f	0.15291642
36	0x3f63046c	0.8867862
37	0xbfad19d3	-1.3523506
38	0xbf8ff1f0	-1.1245708
39	0x3d91d261	0.07120205
40	0x3f1eb92b	0.62001294
41	0x3df9b9be	0.12193631
42	0x3f85851b	1.0431246
43	0x3dcd18cf	0.100144975
44	0xbf70e918	-0.9410567
45	0x3d8318b1	0.06401194
46	0x3f8e1892	1.1101248
47	0xbe1604a6	-0.1465021
48	0xbf29dcf5	-0.6635278
49	0x3f96fd8a	1.1796124
50	0xbed27008	-0.41101098
51	0xbf92ec4b	-1.1478361
52	0xbfd7dcf7	-1.6864308
53	0x3f5bfa24	0.8592856
54	0xbfff8093	-1.9961113
55	0x3add3d6a	0.0016879265
56	0xbc16159f	-0.009160428
57	0x3f854f1d	1.0414768
58	0xbfa72314	-1.305758
59	0x3fa33057	1.2749127
60	0x3d895fee	0.0670775
61	0x3f7a655d	0.9781092
62	0x3f8e4282	1.1114047
63	0x3cab4984	0.020909078
64	0xbdaf407e	-0.08557223
65	0x3e2da9f0	0.16959357
66	0x3f54a48f	0.83063596
67	0xbfd5e5ca	-1.6710751
68	0x40073ff5	2.1132786
69	0xbf892f86	-1.0717628
70	0x3e134d89	0.14385046
71	0xbfaa5051	-1.3305761
72	0xbec0e492	-0.37674385
73	0x3e212a07	0.15738688
74	0x3e2afa9d	0.16697164
75	0x3f5afabe	0.8553885
76	0x3ec4f3f1	0.38467363
77	0xbde85704	-0.11344722
78	0x3e5184ef	0.20460866
79	0x3e65c44c	0.22438163
80	0xbe6645b0	-0.22487521
81	0x3e1b55f3	0.15169506
82	0x3e85d8dd	0.26142016
83	0x3f8b7d10	1.0897541
84	0xbec5ff52	-0.38671356
85	0xbf96fa6d	-1.1795174
86	0xbe15c009	-0.14624037
87	0xbebc35c3	-0.36759767
88	0x3f2df37a	0.6794964
89	0x3fc4406a	1.5332158
90	0xbf3d6651	-0.7398425
91	0xbf50ed65	-0.81612235
92	0xbf5e2832	-0.86780083
93	0x3f16a860	0.5885067
94	0x3f65ecd1	0.8981448
95	0x3fbf327e	1.4937284
96	0xbfb2bb2b	-1.3963369
97	0x3e15cbcf	0.14628528
98	0x3fe6660b	1.7999891
99	0x3e22c605	0.15895851
100	0x3f32efcf	0.6989717
101	0x3e2fd00b	0.17169206
102	0xbf75ac91	-0.9596644
103	0x400988d1	2.1489756
104	0xbf8987ff	-1.0744628
105	0x3fa25d07	1.268464
106	0x3e2b180d	0.16708393
107	0xbf79057b	-0.9727399
108	0xbeeb35ac	-0.45939386
109	0x3e98afaa	0.2982152
110	0xbeeaef66	-0.45885772
111	0x3ce670ad	0.0281299
112	0x3f31c3bb	0.69439286
113	0x3fc4ebbe	1.5384443
114	0x3e74f041	0.23919775
115	0xbecf6eed	-0.40514317
116	0xbf3e4396	-0.7432188
117	0x3e56707c	0.20941347
118	0xbea4c947	-0.32184812
119	0xbe491d26	-0.19640025
120	0x3f904529	1.1271106
121	0xc027d6ba	-2.6224809
122	0x3e9c62d9	0.30544165
123	0xbe95fb3d	-0.29293242
124	0xbdd2ec87	-0.1029902
125	0xbfbae6e1	-1.4601709
126	0xbdc9ac02	-0.09847261
127	0x3d31cc76	0.04340788
128	0x3eb63e0e	0.3559422
129	0x3fcd3f28	1.6034899
130	0x3ece3b9e	0.4027986
131	0x3f5cd1f7	0.8625788
132	0xbe8dd585	-0.27701965
133	0x3f9102d9	1.1328994
134	0xbf99dc6a	-1.202039
135	0x3f2a43d4	0.6650975
136	0x3e84dbbf	0.25948903
137	0xbf7b6361	-0.98198515
138	0x3fba2657	1.454295
139	0xbeff6d60	-0.49888134
140	0xbda2fe9e	-0.079587206
141	0x3faa3272	1.3296645
142	0xbc9f2b1b	-0.019429734
143	0x3eb56742	0.35430342
144	0x3f76f8ed	0.9647358
145	0x3e125281	0.14289285
146	0x3ec30182	0.38087088
147	0xbf871498	-1.055316
148	0xbec8a2f9	-0.39186838
149	0x3f77f3be	0.96856296
150	0x3eea5dc5	0.45774665
151	0xbf1d0693	-0.61338156
152	0x3f1fdd9b	0.6244752
153	0xbd4c08fc	-0.049813256
154	0x400eb168	2.229578
155	0x3fbefff1	1.4921857
156	0x3fbc86ef	1.4728678
157	0x3dfd3520	0.123636484
158	0x3edb30b3	0.42810592
159	0xbe85bb0f	-0.26119277
160	0xbda82f33	-0.082121275
161	0xbde2fbc9	-0.110831805
162	0x3e46ce7b	0.19414704
163	0x3e97a4e8	0.29618
164	0xbf8a012f	-1.0781611
165	0xbf3986db	-0.724714
166	0x3f94ab43	1.1614765
167	0x3f81a505	1.0128485
168	0xbfba9b87	-1.4578713
169	0x3f49635b	0.7866723
170	0xbe4ab122	-0.19794133
171	0x3fabfa5c	1.3435779
172	0x3fb520ff	1.4150695
173	0x3da08737	0.0783829
174	0x3eb367ee	0.3504023
175	0x3ec1ce90	0.37852907
176	0xbf9aae16	-1.2084377
177	0xbf22c878	-0.6358714
178	0xbded6731	-0.11591948
179	0x3f665100	0.89967346
180	0xbe7c8284	-0.24659163
181	0xbfa101ff	-1.2578734
182	0x3f4837e2	0.7821027
183	0x3f26dba9	0.65178925
184	0x3ea78b3e	0.3272342
185	0x3f51fee4	0.8202956
186	0x3ffd2cca	1.9779294
187	0x3e472074	0.19445974
188	0x3d2332ff	0.039843556
189	0x3fbd210b	1.4775709
190	0xbe8c3b30	-0.27388906
191	0x3e7e62c0	0.24842358
192	0x3ecf0171	0.40430787
193	0xbfd2ad13	-1.6459068
194	0x3e4cc0d8	0.19995439
195	0xbe839e3f	-0.2570667
196	0x3fdc99b9	1.7234412
197	0xbf911870	-1.1335583
198	0x3f02f318	0.5115218
199	0x3fc3bc6f	1.529188
200	0xbe08382f	-0.13302682
201	0xbfc55c88	-1.5418863
202	0xbf47248b	-0.77790135
203	0x3f068789	0.5255056
204	0x3f6084af	0.8770246
205	0x3e69a711	0.22817637
206	0x3dd7f9c7	0.10545688
207	0x3ea7ca00	0.327713
208	0xbf39b1e0	-0.7253704
209	0x3fd418c7	1.6570061
210	0xbee2d22e	-0.4430098
211	0x400d1127	2.204172
212	0x3fa578e2	1.2927516
213	0x3ee09929	0.43866852
214	0xbfa47567	-1.2848328
215	0x3ea9794a	0.3310035
216	0xbed676de	-0.41887563
217	0x3e42ee63	0.1903625
218	0xbf1d50cf	-0.6145143
219	0x3f11897f	0.5685043
220	0xbfa24829	-1.2678272
221	0x405022df	3.2521284
222	0x4001f765	2.0307248
223	0xc006c14d	-2.1055481
224	0xbf61f873	-0.8826973
225	0xbe1d0ee6	-0.15337715
226	0xc013f2e1	-2.3116992
227	0x3fae606d	1.3623177
228	0xbf814bc5	-1.0101248
229	0xbeb1e0a1	-0.3474169
230	0x3edb505b	0.42834744
231	0xbf7c5f0a	-0.9858252
232	0xbedcd7aa	-0.4313329
233	0xbf3129e9	-0.69204575
234	0xbf4bbbbf	-0.7958335
235	0x3eb29847	0.34881803
236	0xbfaa80eb	-1.3320593
237	0xbf651ee0	-0.89500237
238	0xbece47a7	-0.4028904
239	0xbfbf83ee	-1.4962137
240	0xbf8a5dda	-1.0809891
241	0x3eeb6f29	0.45983246
242	0xbfcdac55	-1.6068217
243	0x3cf3b764	0.029750533
244	0x3ed077bb	0.40716347
245	0x3fba6771	1.4562818
246	0x3f670bb8	0.90252256
247	0xbfabeee6	-1.3432281
248	0x3f6ebc70	0.9325628
249	0xbf95cfc1	-1.1704026
250	0xbeadb8b9	-0.33929995
251	0xbe816db0	-0.25278997
252	0x3fd96e57	1.6986798
253	0xbefedddf	-0.4977865
254	0xc001c12c	-2.0274153
255	0x3e326d42	0.17424491

embedding_Pair_distances.weight f4 [7, 8]
0	0x3f0297a3	0.5101263
1	0xbf55de1d	-0.8354204
2	0x3f722600	0.94589233
3	0x403f849a	2.9924684
4	0x3f31f1d1	0.6950961
5	0x3fb5884f	1.4182223
6	0xbebd6743	-0.36992845
7	0x3ea29977	0.3175771
8	0x40016266	2.0216308
9	0x400e4413	2.222905
10	0x3f51d202	0.8196107
11	0xbdb8d1bc	-0.09024379
12	0x3fbe2b6c	1.4857001
13	0xbf747736	-0.954944
14	0x3fccb83e	1.5993726
15	0x4024a21b	2.5723941
16	0xbf3dab50	-0.7408953
17	0xbf637a3a	-0.8885838
18	0xbf8221ea	-1.01666
19	0xbdcc1c84	-0.099663764
20	0xbfb4abf8	-1.4114981
21	0xbf0415f9	-0.5159603
22	0x3df8e4f9	0.12153048
23	0xbfcc7939	-1.5974494
24	0xbec178ee	-0.37787575
25	0x3ec8596d	0.39130726
26	0xbff3630c	-1.9014602
27	0xbe22f94b	-0.1591541
28	0xc00801a2	-2.1250997
29	0xbff7d9ec	-1.936338
30	0xbf7c0988	-0.98452044
31	0xbef273bc	-0.47353923
32	0x3f8512bd	1.0396343
33	0x3f9f0a6e	1.2425058
34	0xbec31d3c	-0.38108242
35	0xc008134b	-2.1261775
36	0xbfa7a08e	-1.3095872
37	0xbdf6aa25	-0.12044171
38	0xbf26deff	-0.65184015
39	0xbf905391	-1.1275502
40	0xbda4bda9	-0.08043987
41	0x3ed6d65c	0.41960418
42	0xbf0c74ee	-0.5486592
43	0x3e1ef62b	0.15523593
44	0xbfb09821	-1.3796426
45	0xbf4f588b	-0.8099448
46	0xbfd7097c	-1.6799769
47	0xbf14691c	-0.57972884
48	0x00000000	0.0
49	0x00000000	0.0
50	0x00000000	0.0
51	0x00000000	0.0
52	0x00000000	0.0
53	0x00000000	0.0
54	0x00000000	0.0
55	0x00000000	0.0

embedding_Pair_prices.weight f4 [6, 5]
0	0x3e221a50	0.1583035
1	0x3f0537b9	0.5203815
2	0x3efb089c	0.49030006
3	0xbebd4145	-0.3696386
4	0x3f9dcc20	1.2327919
5	0x3f4cb8a7	0.7996926
6	0xbdacdbd5	-0.08440367
7	0x3f52f597	0.8240599
8	0x3f556d4e	0.8336991
9	0x3f386512	0.7202922
10	0xbe0e4d21	-0.1389661
11	0xbf1ab27a	-0.60428584
12	0xbf23654c	-0.6382644
13	0x400b7c6c	2.179469
14	0xbf4e07c1	-0.8048058
15	0xbf9febca	-1.2493832
16	0xc002b573	-2.0423248
17	0xbefe1357	-0.4962413
18	0x3e403508	0.1877023
19	0x40030014	2.0468798
20	0xbd91babc	-0.07115695
21	0xbfbb42f3	-1.4629806
22	0xbe001ccd	-0.12510987
23	0x3f87f0cb	1.0620359
24	0xbdadafb7	-0.084807806
25	0x00000000	0.0
26	0x00000000	0.0
27	0x00000000	0.0
28	0x00000000	0.0
29	0x00000000	0.0

Pair_shop_mlp.fc_layers.0.weight f4 [64, 32]
0	0x3ce711ed	0.02820679
1	0xbdb59e40	-0.088680744
2	0x3e2c5300	0.16828537
3	0x3e6182d7	0.22022568
4	0xbe8381f2	-0.25685078
5	0x3d62d0ce	0.055374913
6	0x3de8e477	0.11371701
7	0xbe0f6871	-0.14004685
8	0x3d2587e2	0.04041279
9	0x3e675190	0.22589707
10	0xbe284f70	-0.16436553
11	0x3cf27211	0.029595407
12	0xbdcb2420	-0.09919
13	0xbe5e4df0	-0.21709418
14	0x3d9ef020	0.07760644
15	0x3d59bdbe	0.053159468
16	0x3dfbab20	0.12288499
17	0x3cada851	0.021198424
18	0x3c554d98	0.013018988
19	0x3dade7ff	0.08491515
20	0x3cf89bac	0.030347668
21	0x3dca4f43	0.09878399
22	0x3cd2e2ca	0.025742907
23	0x3e82c3cf	0.25540015
24	0xbe01356d	-0.12618037
25	0x39b5e54e	0.00034693856
26	0xbce919c5	-0.02845467
27	0x3e15057b	0.14552872
28	0x3d475230	0.048662364
29	0x3d7e49e2	0.06208218
30	0xbdecad02	-0.11556436
31	0xbe82351e	-0.2543115
32	0xbe65e42c	-0.22450322
33	0x3dce7135	0.10080186
34	0xbde7dc47	-0.113213114
35	0x3e27ea33	0.16397934
36	0x3ddad717	0.106855564
37	0x3ead699e	0.33869642
38	0x3eaa337d	0.33242407
39	0xbe1afe39	-0.15136041
40	0xbe027cf5	-0.1274298
41	0xbd9fa05a	-0.077942565
42	0xbddaea55	-0.106892265
43	0xbc9c0242	-0.019044045
44	0x3d06cb7b	0.032908898
45	0xbd890611	-0.0669061
46	0xbcc75aff	-0.024335383
47	0x3e85872b	0.26079687
48	0x3ce663b0	0.028123707
49	0xbe30a8a6	-0.17251834
50	0x3bc6c0a3	0.0060654446
51	0x3e4f8107	0.20264064
52	0x3d4983f9	0.049198125
53	0xbdde1155	-0.108431496
54	0xbceebb74	-0.029142119
55	0x3de0806b	0.10961994
56	0xbdc8c6d0	-0.098035455
57	0x3db56f07	0.088590674
58	0xbd1286b4	-0.035772994
59	0xbe09247e	-0.13392827
60	0x3dfb7440	0.12278032
61	0xbda38943	-0.07985165
62	0x3e3b7d79	0.18309583
63	0x3d4d47e5	0.050117392
64	0x3dc4ae8a	0.09603603
65	0x3c1a61eb	0.0094227595
66	0x3ba76289	0.005108182
67	0xbd5b8903	-0.05359746
68	0x3e2d653b	0.16933148
69	0x3e001dc1	0.1251135
70	0x3d9b8e10	0.07595456
71	0x3e2b5bda	0.16734257
72	0x3e981726	0.2970516
73	0xbe8b5ca8	-0.2721913
74	0xbdcdd930	-0.10051191
75	0x3df9a441	0.12189532
76	0xbdab91d5	-0.08377425
77	0xbe08a5d1	-0.13344504
78	0xbd0f81bb	-0.03503583
79	0x3e080760	0.13284063
80	0xbde71cca	-0.11284788
81	0xbe166d13	-0.14690046
82	0x3e357a66	0.17722473
83	0x3e33ade7	0.17546807
84	0xbdad9f81	-0.084776886
85	0x3e10c374	0.1413706
86	0xbd5dfee1	-0.05419815
87	0x3cb96062	0.022628967
88	0xbda358a7	-0.079758935
89	0x3dbf5c65	0.09343795
90	0x3d209a15	0.039209444
91	0xbdfddfeb	-0.123962246
92	0x3d36ba60	0.044611335
93	0xbde73baa	-0.11290677
94	0x3dbf4c34	0.093407065
95	0x3d809cfc	0.062799424
96	0xbe0831b7	-0.13300215
97	0xbde65cab	-0.11248144
98	0xbd64b4e5	-0.055836577
99	0xbb16ae2c	-0.0022991998
100	0x3d23b3b2	0.039966293
101	0x3e4cfc8b	0.20018212
102	0x3e5b68c3	0.21426682
103	0xbd44ae7d	-0.048017967
104	0x3cb2d898	0.021831796
105	0x3ea1253e	0.31473726
106	0xbe17a605	-0.14809425
107	0x3d978db1	0.07400072
108	0x3df31b99	0.11870498
109	0x3e7bc823	0.24588065
110	0xbe860850	-0.26178217
111	0x3e27ab76	0.16374001
112	0xbd48e932	-0.049050517
113	0x3e1144cc	0.141864
114	0xbe164a08	-0.14676678
115	0xbdbab489	-0.091164656
116	0x3e0754b8	0.13215911
117	0xbd422727	-0.04740062
118	0xbacf8cca	-0.0015834805
119	0x3e172f0e	0.14764044
120	0x3e26c6a9	0.1628672
121	0x3da5d1df	0.0809667
122	0x3e01b488	0.12666523
123	0x3d8531d1	0.06503642
124	0xbe584d72	-0.21123293
125	0xbd089fd6	-0.033355556
126	0xbe0b338e	-0.13593885
127	0xbe01600f	-0.126343
128	0x3d19a12b	0.037507217
129	0x3d9979e7	0.07493954
130	0x3d0e6d3b	0.03477214
131	0x3e1e0f10	0.15435433
132	0x3ca68180	0.020325422
133	0xbe30b6a8	-0.17257178
134	0x3d48b8e0	0.049004436
135	0xbddd408e	-0.108033285
136	0xbd995dc3	-0.07488587
137	0xbdd7c413	-0.10535445
138	0x3d567bb9	0.052364085
139	0xbd6b0258	-0.057375282
140	0xbc678e87	-0.014133102
141	0xbe053f70	-0.1301248
142	0xbd329e95	-0.043608267
143	0x3db17c8f	0.08666336
144	0xbe014834	-0.126252
145	0xbde8ba93	-0.11363711
146	0xbcbfcfe1	-0.023414554
147	0xbc48c95c	-0.012255039
148	0x3e09a8e9	0.1344334
149	0x3d7270af	0.059189495
150	0xbe127759	-0.1430334
151	0x3d65cb21	0.056101922
152	0xbe325b0a	-0.17417541
153	0xbde6345b	-0.11240455
154	0xbdbd33d5	-0.09238402
155	0xbdb332d8	-0.08749932
156	0x3cd0f747	0.025508536
157	0xbe19b61f	-0.1501088
158	0x3d82ea7c	0.063923806
159	0xbe089831	-0.13339306
160	0x3d21cc03	0.0395012
161	0x3d9501ff	0.07275771
162	0xbd73ca94	-0.059519365
163	0xb911be75	-0.00013899228
164	0xbbbeb811	-0.0058202823
165	0x3e0333f0	0.12812781
166	0x3e41419c	0.18872684
167	0x3da7b07a	0.08187957
168	0xbe4fc521	-0.20290042
169	0xbe51c8b4	-0.20486718
170	0x3a21fdc0	0.00061794743
171	0xbe01d915	-0.12680466
172	0x3d65bd82	0.05608893
173	0xbe4d3654	-0.20040256
174	0xbe18cdef	-0.14922307
175	0x3b92c9f0	0.004479639
176	0xbba1dcb4	-0.00493964
177	0x3e3244c7	0.17409049
178	0xbe13dffe	-0.14440915
179	0x3dd8fc2f	0.10594975
180	0xbdcd8b8a	-0.100363806
181	0x3e060130	0.1308639
182	0x3df1775d	0.11790345
183	0xbe0f5452	-0.1399701
184	0x3e358c7b	0.1772937
185	0x3e349731	0.176358
186	0x3cfb1f47	0.030654563
187	0xbd6005ca	-0.05469302
188	0xbe0069ae	-0.12540314
189	0x3e005b75	0.12534888
190	0x3ccfbf52	0.025359783
191	0xbe454783	-0.19265561
192	0x3dae3882	0.08506872
193	0xbe3809c9	-0.17972483
194	0xbde14cf2	-0.11001004
195	0x3b2aedc6	0.0026081665
196	0xbb4d0013	-0.0031280562
197	0xbe449fd8	-0.192016
198	0xbda6b94c	-0.08140811
199	0xbe19451a	-0.14967766
200	0x3bb85a57	0.0056260037
201	0xbe6409d7	-0.22269379
202	0xbd9f9cec	-0.07793602
203	0xbe0bc806	-0.13650522
204	0x3c083cf0	0.00831531
205	0x3c2bd2e0	0.010487288
206	0xbcc01118	-0.023445651
207	0x3dc86b01	0.097860344
208	0xbb13fe44	-0.0022581974
209	0x3de7c509	0.11316878
210	0xbcc098f7	-0.02351044
211	0x3e04c6f1	0.12966515
212	0x3d85b410	0.06528485
213	0xbdd8f072	-0.10592736
214	0xbd718f5a	-0.0589746
215	0xbd11e008	-0.035614043
216	0x3e3ad03e	0.182435
217	0x3c9a45b7	0.01883207
218	0x3e05d8be	0.13070962
219	0xbe3e0f77	-0.18560587
220	0xbe3c3f25	-0.18383463
221	0xbcf6c679	-0.030123936
222	0x3d8f6e41	0.07003451
223	0xbd926978	-0.07149023
224	0xbd3dae10	-0.046308577
225	0xbdc73703	-0.097272895
226	0xbd6f88a0	-0.058479905
227	0x3caddf0a	0.021224517
228	0x3e055de3	0.13024096
229	0x3d1bf0f0	0.038071573
230	0x3df931c4	0.12167695
231	0x3df0f98a	0.11766346
232	0xbdfed94b	-0.12443789
233	0x3cc5a660	0.024127185
234	0x3d532a04	0.05155374
235	0xbd17942d	-0.037006546
236	0x3e4ce06f	0.2000749
237	0x3e569d46	0.20958433
238	0x3c545ead	0.012962026
239	0x3dfd63d1	0.12372554
240	0xbe1f62db	-0.15565054
241	0xbc39d1a0	-0.011341482
242	0xbd57b8ca	-0.052666463
243	0xbe3a9b36	-0.18223271
244	0xbdc84e5e	-0.09780572
245	0x3d6bb54a	0.057545938
246	0xbe18ed42	-0.14934257
247	0xbe1fe9e7	-0.1561657
248	0x3dc1b0e7	0.094575696
249	0x3dc2994b	0.095018946
250	0x3e8d214f	0.27564475
251	0x3e0194b2	0.12654379
252	0x3d82b28e	0.06381713
253	0x3d48cc0b	0.049022716
254	0xbc56ddd4	-0.013114411
255	0x3d6d264b	0.057897847

Pair_shop_mlp.fc_layers.0.bias f4 [64]
0	0x3e4ab90a	0.1979715
1	0xbc7213f7	-0.014775268
2	0xbde18250	-0.11011183
3	0xbdace6b6	-0.08442442
4	0xbdc289dc	-0.09498951
5	0xbcafea74	-0.0214741
6	0x3dc24b3e	0.094870076
7	0xbdafc1b3	-0.08581867
8	0xbde77083	-0.11300757
9	0x3db9ccb1	0.09072245
10	0x3dc07eb9	0.093991704
11	0x3e1d8b28	0.15385115
12	0xbdce2bdc	-0.10066959
13	0x3dca325d	0.09872887
14	0x3dc637f5	0.09678642
15	0xbd59a7b6	-0.053138457
16	0xbde995fb	-0.1140556
17	0xbdb6140f	-0.088905446
18	0xbd9636d4	-0.073346764
19	0x3d9f42a2	0.07776381
20	0x3e36164b	0.17781942
21	0x3e15ea6b	0.14640205
22	0xbdc97b9f	-0.09838032
23	0xbd62aed8	-0.055342525
24	0xbd674329	-0.056460533
25	0xbdc6d43e	-0.09708451
26	0xbc1a0955	-0.009401639
27	0x3cea5606	0.028605472
28	0xbe3637cf	-0.17794727
29	0x3dd52017	0.10406511
30	0x3d98f5c5	0.07468752
31	0x3cfa7745	0.03057445
32	0x3d4b315e	0.049607627
33	0x3d40e465	0.047092814
34	0xbd160dd5	-0.036634285
35	0xbd733ffb	-0.05938719
36	0xbcb59c3c	-0.022169225
37	0x3daef593	0.08542933
38	0xbd88eb1e	-0.0668547
39	0x3dd3d38f	0.10343086
40	0xbd24d7da	-0.040244915
41	0x3d0b1c87	0.033962753
42	0x3d9882e1	0.07446838
43	0x3e290892	0.16507176
44	0x3dbb64fb	0.0915012
45	0xbd385c7f	-0.045010086
46	0x3e436171	0.1908014
47	0xbd63c58f	-0.05560833
48	0xbdbfb63f	-0.093609326
49	0xbd89c4dd	-0.06727002
50	0xbcc96887	-0.024585975
51	0x3db49d44	0.088190585
52	0x3e0a3e6c	0.13500375
53	0x3d8f4b7b	0.06996819
54	0xbded8d28	-0.11599189
55	0xbd92b378	-0.07163137
56	0x3cd0d4bf	0.02549207
57	0xbe0dd8a1	-0.13852169
58	0x3d066d00	0.032818794
59	0x3e3c06fd	0.18362041
60	0xbdeab766	-0.11460762
61	0x3d8778a3	0.066148065
62	0xbe201dcc	-0.15636367
63	0xbd604d9d	-0.054761518

Pair_shop_mlp.fc_layers.1.weight f4 [16, 64]
0	0xbeb500c1	-0.35352138
1	0xbd6a25c2	-0.057164915
2	0x3c925c60	0.017866313
3	0x3da680d3	0.0813004
4	0x3d4f526c	0.050615713
5	0xbc7d59be	-0.015463291
6	0x3dd86090	0.10565293
7	0xbdb3c182	-0.08777143
8	0xbd2af1e6	-0.0417346
9	0xbcd4f4bf	-0.02599561
10	0xbc20bf6b	-0.009811263
11	0x3dced9a3	0.10100105
12	0xbda4b0d0	-0.08041537
13	0xbd92ec92	-0.071740285
14	0xbe36fd50	-0.17870069
15	0x3e108046	0.14111432
16	0x3dc9ca01	0.09852982
17	0x3e10124e	0.14069483
18	0xbd546520	-0.051854253
19	0xbc1ae41e	-0.009453801
20	0x3e123fa2	0.14282086
21	0xbcf699de	-0.030102666
22	0x3dc98d1f	0.0984137
23	0x3d2cdb7e	0.04220151
24	0x3c85a3a6	0.016313385
25	0x3db9e10e	0.09076129
26	0xbe53b9eb	-0.20676391
27	0x3e35229a	0.1768898
28	0x3e46d81e	0.1941838
29	0x3db36855	0.08760134
30	0xbdf2f1a0	-0.118624926
31	0xbd835128	-0.06411964
32	0x3e4284bf	0.18995951
33	0xbdd6fbf2	-0.104972735
34	0x3df9ddb6	0.12200491
35	0x3c678194	0.014130015
36	0x3e176605	0.14785011
37	0x3e5c5a0a	0.21518722
38	0x3d5a3eda	0.053282596
39	0x3d06b526	0.0328876
40	0x3d65b608	0.0560818
41	0x3d8ecba8	0.06972438
42	0x3d4ae060	0.049530387
43	0xbd985ad4	-0.07439199
44	0xbe2c2cc5	-0.16813953
45	0xbd0f4b18	-0.034983724
46	0x3cf38115	0.029724637
47	0x3de3f15b	0.11130019
48	0x3e160d3c	0.14653486
49	0x3dd0f4a7	0.10202914
50	0x3e35c094	0.17749244
51	0xbdad7fd9	-0.08471651
52	0x3e87e247	0.26539823
53	0x3dc5b185	0.09653
54	0xbe07fbf7	-0.1327971
55	0xbd5e046d	-0.05420344
56	0x3de9928f	0.11404907
57	0xbdc04dd6	-0.09389846
58	0x3e6fa1fa	0.23401633
59	0x3c9ad0db	0.018898418
60	0x3bba5e54	0.0056875143
61	0xbd02b151	-0.031907383
62	0x3e3ae74b	0.18252294
63	0xbc80b774	-0.015712477
64	0x3e4746a0	0.19460535
65	0x3b4d5f88	0.0031337459
66	0x3bc6da3e	0.006068497
67	0x3e073387	0.1320325
68	0xbd383a2c	-0.044977352
69	0x3db7156c	0.08939633
70	0x3deac0e8	0.11462575
71	0xbdc0485a	-0.093888
72	0x3d76221e	0.06009113
73	0x3d053741	0.032523397
74	0x3db7a980	0.089678764
75	0x3de7775d	0.113020636
76	0x3daaa787	0.083327346
77	0x3d96bde0	0.073604345
78	0xbcb13e8f	-0.021636276
79	0x3e0243af	0.12721132
80	0x3d273001	0.040817264
81	0xbd99f303	-0.07517054
82	0x3e3b4ac3	0.18290238
83	0xbd76a819	-0.060218904
84	0x3c070cee	0.008242829
85	0xbd9c9984	-0.07646468
86	0x3db91c5c	0.09038612
87	0xbdb80e7d	-0.089871384
88	0x3d328dbf	0.04359221
89	0x3cbee481	0.023302319
90	0xbdc1f5c3	-0.094707035
91	0x3c7844b5	0.0151531
92	0xbe23dd77	-0.16002451
93	0x3d9d97b7	0.07694953
94	0x3c3c25cc	0.011483621
95	0x3dae69b0	0.08516252
96	0xbcb7f95b	-0.02245777
97	0xbd67cde0	-0.056592822
98	0xbe00111e	-0.1250653
99	0x3d6e7a17	0.058221903
100	0xbcc3e75d	-0.023914034
101	0xbd972d1e	-0.07381652
102	0xbd8e4a8e	-0.06947814
103	0x3d99981a	0.07499714
104	0xbdae5cd2	-0.08513798
105	0x3d0687e3	0.032844435
106	0x3df92695	0.12165562
107	0x3e1ea93d	0.15494247
108	0xbccef0ec	-0.025261365
109	0xbc820a98	-0.015874192
110	0x3dfd270c	0.12360963
111	0xbb165eb2	-0.0022944626
112	0xbe6f8963	-0.23392253
113	0xbe15c061	-0.14624168
114	0x3d0fa7e1	0.03507221
115	0x3ca42042	0.020034913
116	0xbe160694	-0.14650947
117	0xbdb21b59	-0.086966224
118	0x3d8519b9	0.06499047
119	0xbd96dcac	-0.073663086
120	0xbb5d6ddf	-0.0033787412
121	0x3d4b005f	0.0495609
122	0xbdfb45f9	-0.122692056
123	0x3e080e26	0.13286647
124	0x3def79b2	0.116931334
125	0xbde77a80	-0.11302662
126	0xbe1d0650	-0.1533444
127	0x3da1a875	0.07893459
128	0x3ebd0662	0.36918932
129	0x3ddb5ace	0.10710679
130	0x3d90d4fa	0.07071872
131	0xbb304799	-0.0026898144
132	0xbde62464	-0.1123741
133	0x3d4419d5	0.047876198
134	0xbc4049ca	-0.011736343
135	0xbd9cd639	-0.07658047
136	0x3d7f7219	0.06236467
137	0x3dfa89a9	0.12233288
138	0x3c9bbc6d	0.019010747
139	0xbcc4849d	-0.023989016
140	0xbd402e5d	-0.046919215
141	0x3cc59770	0.024120063
142	0x3cd0d084	0.025490053
143	0xbd8f1f4a	-0.0698839
144	0xbccd44e6	-0.025057267
145	0x3cef3634	0.02920065
146	0x3dfa211f	0.122133486
147	0x3e02bb50	0.12766767
148	0x3d56f46e	0.0524792
149	0x3a79d205	0.00095298915
150	0xbd600580	-0.054692745
151	0x3d999037	0.0749821
152	0xbc98e8d7	-0.018665714
153	0xbd82b8e1	-0.06382919
154	0x3e8e37e5	0.2777702
155	0xbd327673	-0.043569993
156	0xbdb32712	-0.087476864
157	0x3e362d5f	0.17790745
158	0x3e68410a	0.2268106
159	0xbdea2103	-0.11432078
160	0x3d6239db	0.055230957
161	0x3cb49876	0.022045355
162	0xbd920a01	-0.07130814
163	0xbd243085	-0.040085334
164	0xbcbb9ddc	-0.022902422
165	0xbdcd46d2	-0.100232735
166	0x3e3596d0	0.17733312
167	0x3db6cd30	0.08925855
168	0x3db829b4	0.08992329
169	0xbca85c3d	-0.020551795
170	0x3bf6c365	0.007530617
171	0x3bdd1f4e	0.0067481166
172	0x3e249109	0.16070952
173	0x3d1e51e7	0.038652327
174	0x3d3c0733	0.045905303
175	0xbde0c3c8	-0.10974842
176	0xbe8c7764	-0.27434838
177	0x3d4f67c1	0.050636057
178	0xbe31ef97	-0.17376553
179	0x3dd92fec	0.106048435
180	0xbea379b1	-0.3192878
181	0x3de4c426	0.11170225
182	0x3d30fe14	0.043211058
183	0x3dd19064	0.102326185
184	0x3c02f8c2	0.007993879
185	0xbd21b299	-0.039476965
186	0x3d0aca1a	0.033884145
187	0xbc8d32e9	-0.01723619
188	0x3dae610e	0.085146055
189	0x3e0253cb	0.12727277
190	0xbe3e49ae	-0.18582794
191	0x3dea57c6	0.11442523
192	0x3e9d1f89	0.30688122
193	0x3d941bd0	0.07231867
194	0xbc2893c0	-0.010289133
195	0xbde86ea1	-0.11349226
196	0x3d3da678	0.046301335
197	0xbd04511d	-0.03230392
198	0x3de260bb	0.11053606
199	0x3dec1658	0.11527699
200	0x3ddcd5e4	0.10782984
201	0x3e47ad6f	0.19499753
202	0x3e14a9da	0.14517918
203	0x3cb16905	0.021656523
204	0x3d008fd8	0.03138718
205	0xbd9e111c	-0.07718107
206	0x3af17474	0.0018421547
207	0xbdb80b7b	-0.08986565
208	0x3da1705f	0.07882761
209	0xbd454c12	-0.04816825
210	0x3d946a2f	0.072468154
211	0x3cbe7919	0.023251103
212	0xbd23cce1	-0.03999031
213	0x3dd6f3ff	0.10495757
214	0x3df8723c	0.121311635
215	0x3dde6e8a	0.108609274
216	0x3e207d85	0.15672882
217	0xbe335b9f	-0.1751542
218	0x3e91c5f3	0.28471336
219	0x3dbff86c	0.093735546
220	0xbda8b1a2	-0.08237006
221	0x3ddd3447	0.10800987
222	0x3e6bbd6f	0.23021482
223	0x3e0c922b	0.13727634
224	0x3de52866	0.11189346
225	0x3cdc7968	0.02691336
226	0x3ce9565d	0.028483564
227	0xbd5fde87	-0.054655578
228	0xbe1d7bb9	-0.15379228
229	0xbd7e63c3	-0.06210686
230	0xbdb29999	-0.08720703
231	0xbc86cd65	-0.016455362
232	0xbc90a858	-0.017658398
233	0x3d9192df	0.071080916
234	0x3d9d1881	0.076706894
235	0x3be25a03	0.006907703
236	0x3d806c37	0.0627064
237	0xbcef57ac	-0.02921661
238	0xbd0c94cc	-0.03432159
239	0x3d7160f3	0.05893035
240	0xbed7ed84	-0.42173398
241	0xbe2e31ff	-0.1701126
242	0xbe25709c	-0.16156238
243	0x3e7efb57	0.24900566
244	0xbe86de80	-0.2634163
245	0xbd93a740	-0.07209635
246	0xbdb26317	-0.08710306
247	0x3d699420	0.05702603
248	0x3dc3498b	0.095355116
249	0xbdac4f27	-0.084135346
250	0x3dfa84bc	0.12232348
251	0x3e015230	0.12629008
252	0xbcf43c5b	-0.029813936
253	0x3d848493	0.06470599
254	0xbc8be746	-0.017078053
255	0x3e4f39ff	0.20236968

Pair_shop_mlp.fc_layers.1.bias f4 [16]
0	0xbbdbffd5	-0.006713847
1	0x3c88b7ef	0.016689269
2	0x3e097029	0.13421692
3	0x3d2585d6	0.04041084
4	0xbdab1be4	-0.08354929
5	0xbbbe4326	-0.0058063446
6	0x3c79842e	0.015229268
7	0xbd9852ef	-0.07437693
8	0x3d4d05bf	0.050054308
9	0xbd987007	-0.074432425
10	0xbd5fe71f	-0.054663774
11	0x3d98fd3c	0.074701756
12	0x3dbf765a	0.09348746
13	0x3c65a042	0.014015259
14	0xbdbf67b1	-0.093459494
15	0x3e0e9724	0.13924843

Pair_score_mlp.fc_layers.0.weight f4 [64, 32]
0	0xbe244118	-0.16040456
1	0xbdbaedfa	-0.09127422
2	0x3e407b82	0.18797114
3	0xbd0f3c73	-0.03496976
4	0xbd9903bf	-0.07471418
5	0xbdd0d652	-0.10197128
6	0x3e7132da	0.23554555
7	0x3d11443d	0.035465468
8	0xbbd3333d	-0.006445317
9	0xbe5c2b5b	-0.21500914
10	0xbd96626e	-0.07342993
11	0xbdc0fcca	-0.09423216
12	0xbe063b8a	-0.1310865
13	0xbe252698	-0.16128004
14	0x3d95a372	0.07306565
15	0x3c5ebe7f	0.0135952225
16	0xbe2ed10a	-0.1707193
17	0xbdb9c407	-0.090705924
18	0x3e704c6e	0.23466656
19	0xbd86ffd0	-0.06591761
20	0x3dd01b9f	0.10161518
21	0xbe574a6d	-0.21024485
22	0x3d295333	0.04133911
23	0x3de983be	0.11402081
24	0xbe01c406	-0.12672433
25	0xbd765703	-0.060141575
26	0x3e19204b	0.14953725
27	0xbdd58635	-0.104259886
28	0x3d84d454	0.06485811
29	0xbc85e309	-0.01634361
30	0xbe81d25d	-0.25355807
31	0xbe8bb929	-0.27289703
32	0xbe270d4b	-0.16313665
33	0xbd79bfa0	-0.060973763
34	0x3e53d1a6	0.20685443
35	0x3e46f9cd	0.19431229
36	0xbdb0366b	-0.086041294
37	0x3e2e490e	0.17020056
38	0x3e32a2b8	0.17444885
39	0xbdd1e4a7	-0.1024869
40	0x3dfa7f09	0.12231261
41	0xbe6190d7	-0.22027908
42	0xbdf6f2dc	-0.120580405
43	0x3d041341	0.032244924
44	0x3da18165	0.07886008
45	0xbc615836	-0.013753941
46	0xbdd060af	-0.10174691
47	0xbc8863fd	-0.01664924
48	0xbd9ef4e5	-0.07761554
49	0xbe04b853	-0.12960939
50	0x3d1d3fe2	0.038391
51	0x3e1e5880	0.15463448
52	0xbcf451d1	-0.02982417
53	0xbe1384b3	-0.1440609
54	0xbb021012	-0.0019846004
55	0xbdcaf181	-0.099093445
56	0xbe1f3f97	-0.15551601
57	0x3e3ad4ab	0.18245189
58	0x3aa44cda	0.001253511
59	0xbe057592	-0.13033131
60	0xbd436ea2	-0.04771293
61	0xbc9f9a0f	-0.01948264
62	0x3dee6cbe	0.11641835
63	0x3dcd04bc	0.10010669
64	0xbe018b0f	-0.12650703
65	0xbbb4a4f2	-0.005512827
66	0xbd032ecc	-0.03202705
67	0xbdce37b3	-0.100692175
68	0x3d1eb475	0.038746316
69	0xbc951df2	-0.018202756
70	0x3dc7eb09	0.09761626
71	0xbd03e588	-0.03220132
72	0x3e05b020	0.13055468
73	0xbe9a5deb	-0.3014978
74	0xbcaeff49	-0.021361964
75	0x3e342bc4	0.1759482
76	0x3cfb739c	0.030694775
77	0xbd5c6a9c	-0.053812608
78	0x3da78d37	0.081812315
79	0xbb83d398	-0.0040230267
80	0xbe89f01f	-0.2694101
81	0x3d3cf740	0.046134233
82	0x3d3a1988	0.045434505
83	0x3e562fd3	0.20916681
84	0x3e642d37	0.22282873
85	0x3d6abaa1	0.05730689
86	0x3e2cb0ac	0.1686427
87	0x3d48bff0	0.04901117
88	0x3e32185d	0.17392106
89	0xbd4411e8	-0.04786864
90	0xbd801926	-0.06254797
91	0x3c5bb5b4	0.013410021
92	0xbe222683	-0.15835004
93	0xbe0315aa	-0.12801233
94	0xbdcfc7a0	-0.10145497
95	0x3e2780b2	0.16357687
96	0xbe31dd7d	-0.17369647
97	0x3e064c5b	0.13115065
98	0x3e815a2c	0.25264108
99	0x3d59c08f	0.053162154
100	0x3e30f14a	0.17279544
101	0xbe189fa1	-0.14904644
102	0xbdda9490	-0.10672867
103	0x3d936fef	0.07199084
104	0x3e1d9c33	0.15391617
105	0xbdb1de69	-0.086849995
106	0xbe2e1700	-0.17000961
107	0x3e41986a	0.18905798
108	0xbda15c52	-0.07878937
109	0x3d98ef92	0.074675694
110	0xbdc4dcbc	-0.09612414
111	0x3e34d8f4	0.17660886
112	0x3d130d24	0.035901204
113	0xbde3e8e4	-0.11128405
114	0x3dd4bf95	0.10388104
115	0x3da27a6e	0.07933508
116	0x3c9e2df8	0.019309029
117	0x3d3e42fb	0.046450596
118	0x3ddda08a	0.10821636
119	0xbd8ac45b	-0.06775733
120	0x3e0840c7	0.1330596
121	0xbe5a3e65	-0.21312864
122	0x3cd5f8bf	0.026119588
123	0xbd3e8c60	-0.04652059
124	0x3ccb379a	0.024806786
125	0x3d718613	0.058965754
126	0x3e25b959	0.16183986
127	0x3d2e1616	0.04250153
128	0xbe42f2ff	-0.19038008
129	0xbd2f18b9	-0.042748187
130	0xbc85c568	-0.016329482
131	0xbe0a0fc1	-0.13482572
132	0x3e0b22c4	0.13587481
133	0xbc63a767	-0.013894892
134	0xbe1786e0	-0.14797544
135	0xbe8c565e	-0.27409643
136	0x3e145e19	0.1448902
137	0xbdc5dcd5	-0.09661261
138	0xbe000841	-0.12503149
139	0xbe626a4f	-0.22110866
140	0xbd2ba7c7	-0.04190805
141	0x3caa5d17	0.020796342
142	0xbe01b6f3	-0.12667446
143	0xbe2b7403	-0.16743474
144	0x3e6f640a	0.23378006
145	0x3e801867	0.25018618
146	0xbe228d43	-0.158742
147	0xbda50eb8	-0.08059448
148	0xbdfc514f	-0.12320196
149	0x3dc962c4	0.09833291
150	0xbb610b15	-0.003433888
151	0x3ca786af	0.020449964
152	0xbe4558ea	-0.192722
153	0x3d4f5e51	0.050627057
154	0xbbad7571	-0.005293541
155	0x3e635b95	0.22202905
156	0xbcce75b3	-0.025202608
157	0xbe080f68	-0.13287127
158	0x3d9251e3	0.07144525
159	0xbe235990	-0.15952134
160	0xbe126b9a	-0.14298859
161	0x3d1558a7	0.0364615
162	0x3e3237fa	0.17404166
163	0x3d8bd9e8	0.06828672
164	0x3dc90503	0.09815409
165	0x3e171f1f	0.14757966
166	0xbd944e1c	-0.07241461
167	0xbde025bb	-0.109446965
168	0xbdc19524	-0.094522744
169	0xbe19a045	-0.15002544
170	0x3e2fa411	0.1715243
171	0x3d8e8370	0.069586635
172	0x3b552e33	0.0032528758
173	0x3ddca4d6	0.107736275
174	0xbe1d654e	-0.15370676
175	0xbd8cdd1b	-0.0687811
176	0x3e329adc	0.17441887
177	0x3e2d4f65	0.16924818
178	0x3dbf060e	0.09327327
179	0x3c6194b2	0.013768362
180	0x3daf7302	0.08566858
181	0xbe0d5297	-0.13801037
182	0x3c1fa4db	0.009743894
183	0x3da43886	0.080185935
184	0x3d8d514d	0.069002725
185	0x3db58986	0.08864121
186	0x3e3d94b8	0.18513763
187	0xbe1dd60d	-0.15413685
188	0x3e27271d	0.16323514
189	0xbe1c5c09	-0.15269484
190	0x3df9fc03	0.122062705
191	0xbd811244	-0.06302312
192	0xbe009f38	-0.12560737
193	0x3e615f54	0.22009021
194	0xbcd9d8b4	-0.02659259
195	0xbd5de3aa	-0.054172195
196	0xbe17a07f	-0.14807318
197	0xbdaf92da	-0.085729316
198	0x3d416be7	0.047222044
199	0x3e17b6cf	0.1481583
200	0x3b973ff6	0.004615779
201	0xbdbc285d	-0.09187386
202	0xbe042d14	-0.12907821
203	0x3e200582	0.15627101
204	0xbd16e406	-0.036838554
205	0xbdb1ce85	-0.086819686
206	0x3e037c29	0.12840332
207	0x3cfdc7ae	0.030979004
208	0x3c976052	0.018478546
209	0x3dfd9e69	0.1238373
210	0xbd91f002	-0.07125856
211	0xbb878b11	-0.004136451
212	0xbdb2c4f6	-0.087289736
213	0x3d82e51f	0.06391358
214	0x3e439494	0.19099647
215	0x3e186b8b	0.14884774
216	0x3d99215d	0.07477067
217	0xbd995990	-0.07487786
218	0x3d31cc1b	0.04340754
219	0x3e5d2e63	0.21599726
220	0xbdff9eb9	-0.12481446
221	0x3dedc962	0.11610676
222	0x3e193783	0.14962582
223	0xbe1b7f29	-0.15185227
224	0x3c3dbd9f	0.011580854
225	0xbd8ce75a	-0.06880064
226	0x3e5f12c2	0.217845
227	0x3e104fda	0.14092961
228	0x3d0b05f2	0.033941217
229	0x3c861b95	0.016370574
230	0xbdaebf1d	-0.08532546
231	0xbda99964	-0.0828121
232	0x3e3c0d15	0.18364365
233	0x3e08170a	0.13290039
234	0xbe790546	-0.24318418
235	0xbdfc5daf	-0.12322556
236	0x3d938dd0	0.07204783
237	0xbd957b40	-0.07298899
238	0xbde4236f	-0.11139571
239	0x3e04182a	0.12899843
240	0xbe25fc63	-0.16209559
241	0xbe2093b0	-0.15681338
242	0xba5dc2a1	-0.0008459483
243	0xbcb9bd02	-0.022673134
244	0xbd80daab	-0.062917076
245	0x3e54e872	0.20791796
246	0x3d696b60	0.056987166
247	0xbd0b2c0f	-0.033977564
248	0xbca0273f	-0.019549964
249	0xbdeb7c15	-0.11498276
250	0xbdd611da	-0.10452624
251	0xbde76cff	-0.11300086
252	0xbdfaf44e	-0.12253629
253	0xbdc7d572	-0.09757508
254	0x3e1c20a2	0.15246823
255	0x3dacc004	0.084350616

Pair_score_mlp.fc_layers.0.bias f4 [64]
0	0x3d64b7c4	0.055839315
1	0xbd754e4c	-0.059889123
2	0xbe09b319	-0.13447227
3	0xbdb07977	-0.086169176
4	0x3e24495a	0.16043606
5	0x3e194796	0.14968714
6	0xbdaef2e5	-0.08542422
7	0xbdc1f9b5	-0.09471456
8	0xbd7eda20	-0.06221974
9	0xbdc142cd	-0.09436569
10	0x3e2d3f97	0.16918789
11	0x3bd2a1d7	0.006427984
12	0x3d0c25ae	0.03421562
13	0x3de6a77b	0.11262413
14	0xbd826d2b	-0.063684784
15	0x3d133ac4	0.035944715
16	0x3e471c43	0.19444375
17	0xbd8f051b	-0.06983396
18	0x3dd99526	0.10624151
19	0x3d78427d	0.060610283
20	0xbdbc87c4	-0.09205583
21	0xbd4da73a	-0.050208308
22	0x3da1807f	0.07885837
23	0xbd418517	-0.047246065
24	0x3da26a4c	0.07930431
25	0xbd151bb8	-0.036403388
26	0xbc58b8d3	-0.013227659
27	0x3de140eb	0.1099871
28	0x3e228c52	0.1587384
29	0xbd1c2549	-0.038121495
30	0xbd9940cf	-0.074830644
31	0x3e1916b8	0.14950073
32	0x3d9d91f2	0.076938525
33	0xbe1c36e7	-0.15255319
34	0x3c023d1b	0.007949139
35	0x3e6b3517	0.22969471
36	0x3e33b452	0.17549255
37	0x3e0b48ce	0.13601992
38	0xbdb2f419	-0.08737964
39	0xbd18c6bf	-0.037298914
40	0xbde8b630	-0.113628745
41	0x3dd4f560	0.10398364
42	0xbe1cf2dd	-0.1532702
43	0xbdf8657e	-0.12128733
44	0x3c5f2836	0.013620427
45	0x3de866b8	0.11347717
46	0xbd5a04f1	-0.05322737
47	0xbdde8e2c	-0.10866961
48	0xbd6026e8	-0.054724604
49	0xbd9a2ffc	-0.075286835
50	0x3d1bba97	0.038019743
51	0xbd9e4ca0	-0.07729459
52	0xbd7cc047	-0.061706807
53	0xbdedf3bd	-0.11618755
54	0xbda2e06c	-0.07952961
55	0x3e0dc1ce	0.13843462
56	0xbd12f090	-0.03587395
57	0x3de97bd6	0.11400573
58	0x3df817cc	0.12113914
59	0x3dd73c98	0.10509604
60	0x3d79eeaf	0.061018642
61	0x3e244698	0.16042554
62	0x3dd94b1d	0.1061003
63	0xbda66964	-0.081255704

Pair_score_mlp.fc_layers.1.weight f4 [8, 64]
0	0x3dbfae4c	0.09359416
1	0x3df52f8d	0.1197196
2	0x3dfde374	0.12396899
3	0x3d727f7c	0.05920361
4	0x3e80fdff	0.25193784
5	0x3e128f81	0.14312555
6	0x3d79d65e	0.060995452
7	0x3dcc8827	0.099869065
8	0x3e1cd149	0.15314211
9	0x3e2c6f7e	0.16839406
10	0xbe062e3f	-0.13103579
11	0x3cea9acf	0.028638272
12	0x3cfdfcdf	0.031004367
13	0xbe242ed0	-0.16033483
14	0xbcd58ca3	-0.026068037
15	0x3cafa344	0.021440156
16	0x3e045062	0.12921289
17	0xbbba0440	-0.005676776
18	0xbcd528e6	-0.026020478
19	0x3d19225f	0.037386294
20	0x3df106ec	0.11768898
21	0xbcc81e49	-0.024428504
22	0x3dd1a407	0.10236364
23	0x3c2b5ffd	0.010459897
24	0x3d965d27	0.07341986
25	0x3e0a39eb	0.13498656
26	0x3e1c4b83	0.1526318
27	0x3db3ef87	0.087859206
28	0xbd5dd01b	-0.054153543
29	0xbd806c06	-0.06270604
30	0x3dcac050	0.09899962
31	0x3c11e0f5	0.008903732
32	0x3c183ae7	0.009291387
33	0x3dedb521	0.11606813
34	0x3de32fff	0.11093139
35	0xbbeff6ac	-0.0073231068
36	0x3e6047ae	0.21902344
37	0x3d046e88	0.032331973
38	0xbd16fa5c	-0.036859855
39	0x3df6790e	0.12034808
40	0xbd9280f8	-0.07153505
41	0x3d14afce	0.036300473
42	0xbd0ffc08	-0.035152465
43	0x3da76d65	0.08175162
44	0xbe53d976	-0.20688424
45	0x3dd42759	0.103590675
46	0x3e0534f6	0.13008484
47	0x3dcca621	0.09992624
48	0xbdcbf645	-0.099590816
49	0x3d9a6e74	0.075405985
50	0xbdcade7f	-0.09905719
51	0x3d8b7aa8	0.06810504
52	0x3e6eb218	0.23310125
53	0x3c3c081f	0.011476546
54	0x3dea8767	0.11451607
55	0xbdb13001	-0.08651734
56	0x3d832df2	0.06405248
57	0xbdcd098b	-0.10011586
58	0xbd6851d4	-0.056718662
59	0x3d9aa9ee	0.07551943
60	0xbbd6f565	-0.006560015
61	0x3d8e6e4b	0.069546305
62	0xbdae3982	-0.085070625
63	0x3e35bea3	0.17748503
64	0xbdfc79ac	-0.123278946
65	0x3dbf0d05	0.09328655
66	0xbe08852b	-0.1333205
67	0xbe146634	-0.14492112
68	0xbe06999e	-0.13144538
69	0xbd759b05	-0.05996229
70	0xbd17a025	-0.03701796
71	0xbdc08d83	-0.09401991
72	0xbdca6e0b	-0.0988427
73	0xbd2f1cdf	-0.042752143
74	0xbe4f5625	-0.20247705
75	0x3c05cf2c	0.008167069
76	0xbe3b8024	-0.183106
77	0x3e5fb74f	0.2184727
78	0xbe3a406e	-0.1818864
79	0xbe558d8f	-0.20854782
80	0xbbf2a77a	-0.0074052187
81	0x3d2b6a08	0.041849166
82	0xbd9bd8e8	-0.07609731
83	0x3d2342bd	0.03985857
84	0xbe1bc9c8	-0.15213692
85	0xbde6ce35	-0.112697996
86	0xbdb1114b	-0.086458765
87	0x3d92221a	0.071354106
88	0xbdd90c33	-0.1059803
89	0xbdf25aa2	-0.11833693
90	0x3deb2f53	0.11483636
91	0xbd61f374	-0.055163816
92	0xbdd5bdec	-0.10436615
93	0x3e09d62b	0.13460605
94	0x3df86461	0.12128521
95	0xbca8b105	-0.020592222
96	0xbd797793	-0.06090505
97	0xbe083eaa	-0.13305154
98	0x3d76a628	0.060217053
99	0x3de78d30	0.11306226
100	0xbe3198b2	-0.17343405
101	0x3d7ff336	0.062487803
102	0x3d8ed686	0.06974511
103	0x3d6c4277	0.057680573
104	0xbdec8c84	-0.11550239
105	0xbd3aeb02	-0.045634277
106	0xbdb7ad33	-0.08968582
107	0xbe056a9b	-0.13028948
108	0x3e3c6ac5	0.18400104
109	0x3dff5498	0.12467307
110	0xbdd50d75	-0.10402957
111	0xbde6aeb1	-0.112637885
112	0x3c826d3d	0.01592123
113	0xbdf986b1	-0.121838935
114	0x3ddd5de2	0.10808922
115	0xbde43fe3	-0.11144998
116	0xbc460436	-0.012085965
117	0xbe1f24f6	-0.15541443
118	0xbe3756e0	-0.17904234
119	0x3e56385c	0.20919937
120	0x3c5c6d4e	0.013453795
121	0xbdc4638f	-0.09589302
122	0xbd3db48a	-0.046314754
123	0xbd89df11	-0.06732
124	0x3e210dcb	0.15727918
125	0x3dc7150a	0.0972081
126	0x3d6bc5f3	0.057561826
127	0x3d7f468e	0.062323146
128	0x3da6e8fd	0.08149908
129	0x3de6a44f	0.11261808
130	0x3e4cb2ad	0.19990034
131	0x3e28afd8	0.16473329
132	0x3d85defd	0.06536672
133	0x3d86394f	0.065538995
134	0x3e41b594	0.18916923
135	0xbc6b8f78	-0.014377467
136	0x3e4aeb56	0.19816336
137	0x3d1e3af5	0.038630445
138	0x3d90e595	0.07075039
139	0xbceb361b	-0.028712323
140	0xbd588ada	-0.052866794
141	0xbe8e0048	-0.2773459
142	0x3d5fc7c9	0.05463389
143	0x3da10a19	0.07863254
144	0x3e83771d	0.25676814
145	0x3e117b54	0.14207202
146	0x3df65b67	0.12029152
147	0x3cb8bdf7	0.02255152
148	0x3dc5bd08	0.096551955
149	0xbd379c83	-0.044826996
150	0x3df6d70b	0.12052735
151	0x3d8fc4bc	0.07019946
152	0x3bdc7b51	0.0067285676
153	0x3cd2ee66	0.025748443
154	0x3dc038e5	0.09385852
155	0x3e776378	0.24159038
156	0xbc824f56	-0.015906971
157	0x3df047db	0.11732455
158	0x3d77be01	0.060483936
159	0x3e2d43bd	0.16920371
160	0x3daa3f44	0.08312848
161	0x3c07f6df	0.008298605
162	0x3dcd49bc	0.10023829
163	0xbd09a0a6	-0.033600472
164	0x3e3568c5	0.17715748
165	0xbbcc9d05	-0.006244304
166	0xbe6662a2	-0.22498563
167	0x3e1e3d05	0.15452965
168	0xbdc3ddc8	-0.09563786
169	0x3dad9f09	0.08477599
170	0x3ddd70d3	0.10812535
171	0x3e13484c	0.14383048
172	0xbe19c1cc	-0.15015334
173	0x3e0e38be	0.13888833
174	0x3db1d7ed	0.08683763
175	0xbd1bd070	-0.03804058
176	0x3e1ec69e	0.15505454
177	0xbd25ab60	-0.04044664
178	0x3e229077	0.15875421
179	0xbd4c357f	-0.049855705
180	0x3d57c5b7	0.05267879
181	0xbded64f1	-0.11591519
182	0x3dc48e86	0.09597497
183	0xbc182427	-0.009285963
184	0xbc803b19	-0.01565318
185	0xb9c6503b	-0.0003782528
186	0x3dbf7456	0.09348361
187	0x3e4fa8fb	0.20279305
188	0x3dda28ce	0.10652314
189	0x3b882bbd	0.0041556046
190	0x3dab1c8c	0.08355054
191	0x3e8f49f4	0.2798611
192	0xbcaffff7	-0.021484358
193	0x3d88ebdd	0.06685612
194	0x3dbbe3d2	0.09174313
195	0x39e1c659	0.00043063125
196	0x3c2c999f	0.010534673
197	0xbdc6b9da	-0.09703417
198	0x3d3c1f7f	0.045928475
199	0xbbb58f1b	-0.005540741
200	0xbe423b7f	-0.18968008
201	0x3bb9e3f0	0.005672924
202	0x3dade6f1	0.08491314
203	0x3d353bf4	0.04424663
204	0xbc911f56	-0.017715137
205	0x3dc8ada6	0.09798746
206	0xbe1620b3	-0.14660911
207	0xbe27b175	-0.16376288
208	0xbcdff327	-0.027337624
209	0xbdcbd57d	-0.09952829
210	0x3c2a2212	0.0103841
211	0xbd5b1f0b	-0.0534964
212	0xbd09b7fb	-0.033622723
213	0xbc979040	-0.018501401
214	0x3d982549	0.074289866
215	0x3dbca479	0.09211058
216	0x3e2164c5	0.15761097
217	0xbc93dc07	-0.018049253
218	0xbd13b1f9	-0.0360584
219	0x3e05f689	0.13082327
220	0xbd8801e0	-0.06640983
221	0x3d475745	0.04866721
222	0x3d78a044	0.060699716
223	0xbd7f3bb4	-0.062312797
224	0xbd66660a	-0.056249656
225	0xbd1e7699	-0.038687322
226	0xbcd12d58	-0.025534317
227	0xbc5a52f9	-0.013325446
228	0x3e39b7dc	0.18136543
229	0xbe4c3274	-0.19941121
230	0x3d8a32c2	0.067479625
231	0x3cb894f0	0.022531956
232	0xbd0f56ac	-0.034994766
233	0x3d86df47	0.065855555
234	0xbe07d601	-0.1326523
235	0x3dab17e2	0.08354165
236	0xbc7ad426	-0.015309369
237	0xbdea5e73	-0.11443796
238	0xbe0fd22a	-0.14045015
239	0xbd9da555	-0.0769755
240	0x3dc526af	0.09626519
241	0xbe0a9942	-0.13535026
242	0xbc524248	-0.0128331855
243	0xbdb15337	-0.0865845
244	0x3d833826	0.06407194
245	0xbe39071f	-0.18069123
246	0xbb055d1e	-0.0020349692
247	0x3e11bff4	0.1423338
248	0xbdb9bfab	-0.09069761
249	0x3c73bfeb	0.0148773
250	0x3de39638	0.11112636
251	0x3dcfc658	0.10145253
252	0xbd60e70e	-0.05490785
253	0xbdce6336	-0.10077517
254	0x3d5536b9	0.05205414
255	0x3d2745a6	0.040837906

Pair_score_mlp.fc_layers.1.bias f4 [8]
0	0xbc61df34	-0.013786126
1	0x3ddf2b25	0.10896901
2	0xbdd1e2ea	-0.102483585
3	0x3d9cc24a	0.07654245
4	0x3e016baa	0.12638727
5	0x3ddcb0a4	0.10775879
6	0xbd80aa99	-0.06282539
7	0xbd9c65c1	-0.076365955

CNN_embedding_types.weight f4 [106, 16]
0	0x3e143153	0.1447194
1	0xbf4692f5	-0.7756799
2	0xbefccff1	-0.49377397
3	0x3f73deb2	0.9526168
4	0xbed09b39	-0.40743425
5	0xbc5a8c02	-0.0133390445
6	0x3fe274eb	1.769193
7	0xc039a005	-2.9003918
8	0x3dfc5115	0.12320153
9	0xbf5da16c	-0.86574435
10	0xbf08f5e7	-0.5350022
11	0x3f89da9c	1.0769839
12	0x3ef88eef	0.4854655
13	0x3eca84ba	0.39554387
14	0x3f3c5e1c	0.735811
15	0xbf441104	-0.76588464
16	0xbd081c46	-0.03323009
17	0xbff69467	-1.9264039
18	0x3f2a366a	0.6648928
19	0xbf3b0b97	-0.7306456
20	0x3eea6946	0.45783442
21	0xbf271944	-0.6527293
22	0x3ed42d18	0.41440654
23	0xbe81a860	-0.25323772
24	0xbd1e84ea	-0.038700975
25	0xbf678b1c	-0.9044664
26	0xbfad792f	-1.3552607
27	0x3ef2b3dd	0.4740285
28	0x3f82d8ea	1.0222447
29	0x3eda8399	0.42678526
30	0xbeb908dc	-0.36139572
31	0xbe020d0c	-0.1270029
32	0xbf0ebd64	-0.5575774
33	0x3fd58d45	1.6683737
34	0x3f1fd949	0.62440926
35	0xbebd701e	-0.369996
36	0xbc9e5695	-0.019328395
37	0x3f8b485b	1.0881456
38	0x3ee14e57	0.4400508
39	0xbf8490a3	-1.035664
40	0x40071326	2.1105437
41	0xbfc67729	-1.5505115
42	0xbf88e723	-1.0695537
43	0x3f160fc1	0.5861779
44	0xbd8b8fc4	-0.068145305
45	0x3de1a1bd	0.11017177
46	0xbf021388	-0.5081105
47	0x3fa2344a	1.2672207
48	0xbe9b3a95	-0.30318132
49	0xbf1b255d	-0.60603887
50	0xbe9f647e	-0.31131357
51	0x3d8fa0bc	0.070130795
52	0xbee7fe52	-0.45311219
53	0x4005d9f4	2.0914278
54	0xbd9ca96f	-0.076495044
55	0x3f9f61a3	1.2451671
56	0xbfae8ee5	-1.3637358
57	0xbf44ee9f	-0.76926607
58	0x3eaa21da	0.33228952
59	0x3f9221ae	1.1416528
60	0x3dc3b5d6	0.09556167
61	0xc00868ec	-2.131404
62	0x3f0c59e1	0.54824644
63	0x3f6fa283	0.9360735
64	0x3ff43fa4	1.9081922
65	0x3f762790	0.9615412
66	0x3f0d9f19	0.5532089
67	0x3f719704	0.94371057
68	0x3eaed50b	0.34146914
69	0xbd13fef5	-0.036131818
70	0x3fbfbb4d	1.4979035
71	0xbf46f262	-0.77713597
72	0x3f48d184	0.78444695
73	0xbd3a7e52	-0.045530625
74	0xbe26cc1d	-0.162888
75	0x3fab587c	1.3386378
76	0xbe26b621	-0.16280414
77	0xbe8393cb	-0.25698695
78	0x3d5617c7	0.05226877
79	0xbec7f693	-0.3905531
80	0x3e6be23b	0.23035519
81	0x3e889b18	0.26680827
82	0x3f8c904b	1.0981535
83	0xbf9f969d	-1.2467839
84	0xbf75929b	-0.9592683
85	0xbfe7475a	-1.806865
86	0x3c3a7b61	0.011381955
87	0xbde1e0c8	-0.11029202
88	0xbfa0bd6f	-1.255781
89	0x3f22858c	0.63485026
90	0x3e9e4d58	0.30918384
91	0x4036a2cd	2.8536866
92	0xbf9b7244	-1.2144246
93	0xbe5b1362	-0.21394113
94	0xbf06df26	-0.5268425
95	0x3e32fbf1	0.1747892
96	0x3f04b884	0.5184405
97	0xbec1d558	-0.3785808
98	0xbe66dbef	-0.22544836
99	0xbfc867aa	-1.5656636
100	0x3ef471e5	0.47743145
101	0xbf87e3ac	-1.0616355
102	0x3fe3cc19	1.7796661
103	0xbf0c7875	-0.548713
104	0x3ead86fe	0.33892053
105	0x3f473768	0.7781892
106	0x3bf7464e	0.007546223
107	0xbf157163	-0.5837614
108	0xbf6a5174	-0.9153054
109	0xbd578b67	-0.05262318
110	0x3fe4cf7a	1.7875817
111	0x3f936483	1.1515049
112	0x3dc723f1	0.09723652
113	0x3fcc4b39	1.5960456
114	0xbf1aa9bf	-0.6041526
115	0x3fb474a8	1.4098101
116	0x3df1c573	0.118052386
117	0x3f343ad3	0.7040226
118	0xbf0995c7	-0.5374417
119	0xbf3c7644	-0.7361796
120	0x3f0c0f17	0.54710525
121	0x3ff3d81d	1.9050328
122	0x3dcfe4e3	0.101510786
123	0x3ee6eae4	0.45101082
124	0x3ecd01d9	0.40040472
125	0xbf7faafa	-0.99870265
126	0x3e1b37cd	0.15158005
127	0xbf2177da	-0.63073504
128	0x403688c8	2.8520985
129	0xbdf34c03	-0.118797325
130	0x3ec510d2	0.38489395
131	0x3f79ebe5	0.9762557
132	0xbfac02aa	-1.3438313
133	0xbf558af8	-0.83415174
134	0xbe0659bd	-0.1312017
135	0xbdc276ec	-0.09495339
136	0xbe38437d	-0.17994495
137	0xbf8e5a3e	-1.112129
138	0x3eea8aed	0.45809117
139	0xbe5fadad	-0.21843596
140	0x3f0e5786	0.556023
141	0xbddfd709	-0.109296866
142	0x3fffb5b1	1.9977323
143	0x3e0392d2	0.12848976
144	0x3ce000f2	0.0273442
145	0x3e1ae42a	0.151261
146	0xbf544816	-0.82922494
147	0x40019540	2.0247345
148	0x3e7986c2	0.24367812
149	0x3d9a232a	0.07526238
150	0xbe90502d	-0.2818617
151	0x3d9bbbb9	0.07604165
152	0x3ed073a6	0.40713233
153	0xbe818f61	-0.25304702
154	0x3ecfde06	0.40599078
155	0x3f458049	0.7714887
156	0xbe6ce5ed	-0.23134585
157	0xbf8da606	-1.1066291
158	0x3d94100a	0.07229622
159	0xbf5dfcf0	-0.86714077
160	0xbf96c587	-1.177903
161	0x3f0ada34	0.542392
162	0xbe4d9245	-0.20075329
163	0xbf1895c9	-0.59603554
164	0x3eebd2f4	0.46059382
165	0x3f9dec36	1.2337711
166	0x3e9e5150	0.30921412
167	0x3f1b11fe	0.6057433
168	0x3f197376	0.59941804
169	0xbe9c0720	-0.30474186
170	0xbe9d517f	-0.3072624
171	0x3fd23489	1.6422282
172	0x3f858ae1	1.0433007
173	0xbfbde604	-1.483582
174	0x3f24b4c4	0.64338326
175	0x3fe5efd2	1.7963812
176	0x3cb3298e	0.0218704
177	0xbff36684	-1.901566
178	0xbde56c09	-0.11202247
179	0x3ebad3be	0.3648967
180	0xbfa6ff38	-1.3046637
181	0xbcca3a27	-0.024685932
182	0xbfa71c1a	-1.3055451
183	0xbe68b2f2	-0.22724512
184	0xbdd9c63b	-0.106335126
185	0xbf8c0395	-1.0938593
186	0xbe9247ec	-0.28570497
187	0x3fdb393d	1.7126843
188	0x3fa2bfe4	1.271481
189	0x3f81c583	1.0138401
190	0xbf3d8a2c	-0.7403896
191	0x3e842a79	0.25813654
192	0xbf6792d0	-0.90458393
193	0x40139f18	2.3065853
194	0xbf4b71e9	-0.7947069
195	0x3fdfe3a3	1.7491344
196	0xbda67cba	-0.081292585
197	0xbe3c7c84	-0.18406874
198	0xbf97356d	-1.1813179
199	0x3edd486d	0.4321932
200	0x3fa39ae2	1.2781641
201	0xbf454978	-0.7706523
202	0x3fdc8158	1.7226973
203	0xbe623e3e	-0.22094056
204	0x3f5c5ff8	0.86083937
205	0x3fe8b0fe	1.8179014
206	0x3f2f085f	0.6837215
207	0xbe85506e	-0.26037925
208	0x3ff4f6a8	1.9137774
209	0x3f9281ef	1.1445903
210	0x3fb148d3	1.3850349
211	0xbf936218	-1.1514311
212	0x3e027123	0.1273847
213	0x3f5d3f7b	0.8642499
214	0x3f582913	0.84437674
215	0xbfcc8846	-1.5979087
216	0x3f74a36a	0.9556185
217	0xbfb268b9	-1.3938209
218	0x3d7e879c	0.062141046
219	0xbf82d488	-1.0221109
220	0xbf0c1b52	-0.5472919
221	0x3f8c52bd	1.096275
222	0x3dfd9b7e	0.123831734
223	0x3ecc0790	0.3984952
224	0x3ca85c6c	0.020551883
225	0xbf898aa3	-1.0745434
226	0x3d88e188	0.06683642
227	0x402fd6e4	2.747491
228	0x4056b327	3.3546846
229	0x3fdb1a46	1.7117393
230	0xbfabaf7d	-1.341293
231	0xbe4a3bbc	-0.1974935
232	0xbf7a3799	-0.97741085
233	0x3d482d3e	0.04887127
234	0xbf59f5c2	-0.8514062
235	0xbf19c3b8	-0.6006427
236	0xbf6c296d	-0.9225071
237	0x3e11b1f2	0.14228037
238	0xbefeb176	-0.49744767
239	0xbea50f44	-0.3223821
240	0xbfee9f3f	-1.8642348
241	0x3edbc8db	0.42926678
242	0x3f1d58b0	0.6146345
243	0x3e3b6dba	0.18303576
244	0x3dcac399	0.099005885
245	0xbf0b41ec	-0.54397464
246	0x3f441052	0.765874
247	0xbfb0ceb6	-1.3813083
248	0x3e8548c5	0.2603208
249	0x3f29adce	0.6628083
250	0x3f3a5eae	0.7280072
251	0x3f15f030	0.5856962
252	0x3e7402d4	0.23829204
253	0x3ca9cb5b	0.02072685
254	0xbf4f0017	-0.8085951
255	0x3f5b8c50	0.85760975

embedding_CNN_distances.weight f4 [7, 8]
0	0x3f852bd7	1.0404004
1	0xbf93219e	-1.1494634
2	0x3e47355f	0.19453953
3	0x3eb8f470	0.3612399
4	0x3f7047f6	0.93859804
5	0xbf077fe4	-0.5292952
6	0x3f3c0bff	0.73455805
7	0x3f9e53ea	1.2369359
8	0xbf376e84	-0.7165301
9	0x3f371b02	0.71525586
10	0xc0375eba	-2.8651567
11	0xbe6e646e	-0.23280498
12	0xbf810d7c	-1.008224
13	0xc00d67ac	-2.2094526
14	0xbf82a058	-1.0205183
15	0x3d7f3f05	0.06231596
16	0x3e840553	0.25785312
17	0xbf95503b	-1.1665109
18	0x3d0217b9	0.031760905
19	0xbec3dcdd	-0.38254443
20	0x3f9d89b6	1.2307651
21	0x3f632776	0.8873209
22	0x3ff551c1	1.9165574
23	0x3ecfaf5b	0.40563473
24	0xbdf3052d	-0.118662216
25	0x3ebe863e	0.37211794
26	0x3f0b1e34	0.5434296
27	0xbfe030d5	-1.7514902
28	0x3f700d69	0.9377046
29	0xbf45e1cb	-0.7729766
30	0x3ed6127d	0.4181098
31	0xbf016102	-0.5053865
32	0xbf8cb613	-1.0993065
33	0xbe30e837	-0.17276083
34	0x3f1ef311	0.6208964
35	0x3fc64731	1.5490476
36	0x3e0afd81	0.13573267
37	0xbf376b59	-0.71648175
38	0x3e6b4713	0.22976331
39	0x3ebb073d	0.3652896
40	0x3dbd6c30	0.09249151
41	0xbed2eb34	-0.4119507
42	0xbe516ce7	-0.20451699
43	0x3fab4829	1.3381397
44	0x3ebb8c75	0.36630598
45	0xbf69c5a6	-0.9131721
46	0xbf361b36	-0.7113527
47	0x3f89c8f2	1.0764449
48	0x00000000	0.0
49	0x00000000	0.0
50	0x00000000	0.0
51	0x00000000	0.0
52	0x00000000	0.0
53	0x00000000	0.0
54	0x00000000	0.0
55	0x00000000	0.0

embedding_CNN_prices.weight f4 [6, 5]
0	0x3ff2cbe1	1.8968469
1	0x3fb12de2	1.3842127
2	0xbfa2e25c	-1.2725329
3	0xbfdcf856	-1.7263286
4	0xbf80f29e	-1.0074041
5	0xbee3ea78	-0.44514823
6	0x3f8e78d1	1.113062
7	0x3ff8e006	1.9443367
8	0x3eb20298	0.34767604
9	0xbe7c77b6	-0.24655041
10	0x400b6383	2.1779487
11	0xbf0f1083	-0.5588457
12	0xbfcd8a76	-1.605788
13	0xbf343e71	-0.7040778
14	0xbf93eafc	-1.1556087
15	0xbf997640	-1.1989212
16	0x3febbb34	1.8416505
17	0xbea57d78	-0.32322288
18	0xbfb52afa	-1.415374
19	0xbf5722b1	-0.8403731
20	0xbf1dfa3d	-0.6170996
21	0x3ea163d0	0.31521463
22	0x3d1dc8ae	0.03852146
23	0xbf470dbc	-0.7775533
24	0x3f6d468d	0.92685777
25	0x00000000	0.0
26	0x00000000	0.0
27	0x00000000	0.0
28	0x00000000	0.0
29	0x00000000	0.0
