checkpoints/GNNNoCNN_Epoch54_valmse2.2074_testmse2.2386_ndcg0.9361.model (torch, 249600 bytes, 52 tensors)

Pair_embedding_types.weight f4 [106, 16]
0.026123453 -0.09218104 -0.4060888 -0.87002546 0.8696761 -0.37549973 0.12898475 -1.3040862
0.121800214 -0.0023665826 -1.2382938 0.5403264 -1.5872175 0.36834338 0.27614263 0.71600014
0.46787015 -1.1772408 1.9311188 -0.41299072 -0.26074418 0.18631054 -0.5902657 0.67457193
-1.0333337 0.044403397 -0.5317899 3.3125463 -0.807874 -0.5671355 -1.1137642 1.015102
1.7188361 2.2963731 -1.0304763 0.14325051 0.883265 -1.3273371 -1.1314297 0.07639229
0.6315603 0.11967488 1.0132371 0.10599444 -0.9498456 0.08971854 1.130513 -0.08377672
-0.66086626 1.184895 -0.3850126 -1.162777 -1.6737069 0.85298914 -2.0029893 0.01218884
0.013547358 1.0584741 -1.3371522 1.27628 0.016771443 0.97387075 1.2133222 0.04668953
-0.09577039 0.17995203 0.830211 -1.6496993 2.1312642 -1.0858235 0.19540149 -1.3421004
-0.3129149 0.14495665 0.16630684 0.9338713 0.37827307 -0.15036532 0.23053889 0.2010141
-0.32012823 0.15365475 0.2922513 1.0595307 -0.34295952 -1.1691054 -0.16887277 -0.4054528
0.6630498 1.547954 -0.72691655 -0.8116279 -0.8536035 0.62422204 0.8923558 1.4855855
-1.3870682 0.21318509 1.8033845 0.1437224 0.72219133 0.21283165 -0.89125943 2.1801574
-1.1067805 1.2235748 0.21631612 -0.9842899 -0.46705407 0.24219579 -0.47249958 -0.016890725
0.7212268 1.539017 0.24930291 -0.3803374 -0.65923756 0.19903433 -0.3002983 -0.17034169
1.1153129 -2.6038613 0.26314366 -0.2723832 -0.15758494 -1.5017406 -0.10447424 0.069243275
0.28830257 1.5554441 0.37144852 0.95784163 -0.20751148 1.1273272 -1.2682217 0.61619514
0.21955189 -1.0064894 1.4581393 -0.53519523 -0.032031517 1.2845416 -0.044417527 0.3438686
0.9426013 0.07855201 0.43126217 -0.9938353 -0.40121734 0.94038236 0.38414934 -0.60595304
0.6213084 -0.037026998 2.2600112 1.4461794 1.4730614 0.13473654 0.41635692 -0.29893613
-0.05705042 -0.12100702 0.14515439 0.28223473 -1.0708224 -0.7623247 1.1876543 1.0545611
-1.444654 0.71852916 -0.20802389 1.3391782 1.4073728 0.04780122 0.31054926 0.40994588
-1.2232974 -0.6112588 -0.14409734 0.9219392 -0.23089837 -1.240014 0.7942489 0.64416766
0.32260203 0.80821836 1.9880046 0.21308835 0.048923943 1.423908 -0.28212506 0.23562817
0.44474995 -1.5582107 0.123998575 -0.3258984 1.7040901 -1.0265266 0.52810663 1.521383
-0.16203359 -1.4778485 -0.7298751 0.5943557 0.8936777 0.20182753 0.09692599 0.3578378
-0.7909654 1.6723067 -0.366706 2.1821833 1.2796689 0.3968711 -1.3248625 0.30391172
-0.38958302 0.25164443 -0.64844483 0.56887865 -1.2961508 3.2898142 2.0523984 -2.0796578
-0.89858127 -0.06655958 -2.33242 1.3650488 -1.0493187 -0.34937376 0.39667082 -0.9807747
-0.44091296 -0.63340163 -0.7528341 0.37181962 -1.3575681 -0.91696084 -0.390663 -1.538507
-1.0957154 0.43500793 -1.555322 0.038526524 0.34739098 1.4347161 0.8988487 -1.3525043
0.9454442 -1.1015645 -0.29095548 -0.29993746 1.6477503 -0.4368954 -2.004841 0.13601978
00000000: da00 d63c 6ac9 bcbd dfea cfbe fdb9 5ebf
00000010: 18a3 5e3f 8041 c0be 9414 043e 4cec a6bf
00000020: 6472 f93d ab18 1bbb 6980 9ebf d552 0a3f
00000030: f129 cbbf 8197 bc3e 9162 8d3e c94b 373f
00000040: ad8c ef3e d4af 96bf e72e f73f 8573 d3be
00000050: 4380 85be 31c8 3e3e a71b 17bf bfb0 2c3f
00000060: 4744 84bf 56e0 353d 6223 08bf c200 5440
00000070: d5d0 4ebf cb2f 11bf d38f 8ebf ddee 813f
00000080: d202 dc3f c7f7 1240 a6e6 83bf 43b0 123e
00000090: a81d 623f 2fe6 a9bf b0d2 90bf 9073 9c3d
000000a0: f0ad 213f 1a18 f53d c1b1 813f 9d13 d93d
000000b0: 1529 73bf 5bbe b73d a6b4 903f 2193 abbd
000000c0: 882e 29bf a4aa 973f 5f20 c5be e0d5 94bf
000000d0: 073c d6bf 7f5d 5a3f fa30 00c0 b3b3 473c
000000e0: bdf5 5d3c 147c 873f ce27 abbf 255d a33f
000000f0: 4464 893c 984f 793f 244e 9b3f 853d 3f3d
00000100: 4423 c4bd 5845 383e b588 543f 5929 d3bf
00000110: a266 0840 44fc 8abf 5417 483e f2c9 abbf
00000120: 6236 a0be 846f 143e 574c 2a3e 3112 6f3f
00000130: 02ad c13e 5ef9 19be 6312 6c3e a4d6 4d3e
00000140: d9e7 a3be ac57 1d3e f6a1 953e b49e 873f
00000150: 6498 afbe 3fa5 95bf fcec 2cbe 8297 cfbe
00000160: a2bd 293f 5b23 c63f 3417 3abf d9c6 4fbf
00000170: c285 5abf 04cd 1f3f 6e71 643f aa27 be3f
00000180: 738b b1bf 314d 5a3e 4ed5 e63f f72b 133e
00000190: 88e1 383f 8af0 593e 9429 64bf b387 0b40
000001a0: fcaa 8dbf 199e 9c3f f981 5d3e 6cfa 7bbf
000001b0: b621 efbe 2c02 783e 77eb f1be 6b5e 8abc
000001c0: 52a2 383f 82fe c43f 4349 7f3e 95bb c2be
000001d0: cbc3 28bf a8cf 4b3e b3c0 99be 0d6e 2ebe
000001e0: 93c2 8e3f aaa5 26c0 c4ba 863e d075 8bbe
000001f0: f25d 21be 0939 c0bf 97f6 d5bd 6bcf 8d3d
00000200: 659c 933e cb18 c73f 802e be3e 1c35 753f
00000210: e47d 54be 424c 903f 1755 a2bf f7be 1d3f
00000220: 36d2 603e a5d4 80bf 4fa4 ba3f 8e02 09bf
00000230: 7b33 03bd dc6b a43f 27ef 35bd 8c0f b03e
00000240: 524e 713f e0df a03d 65ce dc3e fd6b 7ebf
00000250: 5c6c cdbe e6bc 703f 39af c43e bd1f 1bbf
00000260: 110e 1f3f 9fa9 17bd 06a4 1040 681c b93f
00000270: 478d bc3f 60f8 093e bc2c d53e 280e 99be
00000280: b4ad 69bd 87d2 f7bd 5aa3 143e 1281 903e
00000290: b510 89bf b627 43bf 0e05 983f dcfb 863f
000002a0: 6cea b8bf 87f1 373f 3704 55be 316a ab3f
000002b0: cb24 b43f 36cb 433d 5000 9f3e 6de4 d13e
000002c0: 0295 9cbf 757b 1cbf 418e 13be 3504 6c3f
000002d0: 9f70 6cbe c7b8 9ebf e553 4b3f 2ce8 243f
000002e0: 182c a53e 66e7 4e3f ef76 fe3f d533 5a3e
000002f0: 7964 483d 9e42 b63f b272 90be 8348 713e
00000300: 44b6 e33e 7373 c7bf f7f2 fd3d 28dc a6be
00000310: a01f da3f 3965 83bf ff31 073f aebc c23f
00000320: 22ec 25be 242a bdbf 18d9 3abf b227 183f
00000330: 10c8 643f e0ab 4e3e 2281 c63d 8436 b73e
00000340: b57c 4abf 250e d63f e4c0 bbbe e4a8 0b40
00000350: 31cc a33f b032 cb3e 1895 a9bf 519a 9b3e
00000360: 6d77 c7be 8ad7 803e 7b00 26bf 08a2 113f
00000370: 45e8 a5bf 518c 5240 7f5a 0340 1d19 05c0
00000380: 6c09 66bf 6450 88bd 5f46 15c0 ebb9 ae3f
00000390: 1350 86bf 1ee1 b2be 7018 cb3e 0d14 7bbf
000003a0: 58bf e1be 9c26 22bf bcb9 40bf 245f be3e
000003b0: cbc4 adbf f2bd 6abf fb04 c8be cced c4bf
000003c0: 6740 8cbf 5cb9 de3e cb14 c7bf fdcd 1d3d
000003d0: 3bdd b13e c7a4 b73f f31a 663f dc1e adbf
000003e0: a208 723f 1100 8dbf 1ef8 94be 6791 99be
000003f0: 7be9 d23f c1b0 dfbe 514f 00c0 c548 0b3e

embedding_Pair_distances.weight f4 [7, 8]
0.5058481 -0.83806044 0.93676525 2.9716868 0.6698144 1.4097149 -0.34221092 0.2986292
2.0137644 2.2297525 0.82931846 -0.103543095 1.4853055 -0.9590798 1.5924258 2.5547664
-0.7116863 -0.8837227 -0.96802294 -0.07475691 -1.4166692 -0.5194743 0.12077687 -1.5715437
-0.41116428 0.39337835 -1.8976399 -0.20637296 -2.0890918 -1.8800241 -0.9688615 -0.49315676
1.0389824 1.1868049 -0.39771646 -2.0477712 -1.306276 -0.17406125 -0.6729633 -1.1206696
-0.06396494 0.4143779 -0.53709996 0.18225493 -1.4087205 -0.7861657 -1.6633934 -0.54637754
0.0 0.0 0.0 0.0 0.0 0.0 0.0 0.0
00000000: 437f 013f 218b 56bf d9cf 6f3f 1e30 3e40
00000010: f578 2b3f 8a71 b43f 4536 afbe ede5 983e
00000020: 84e1 0040 44b4 0e40 374e 543f 670e d4bd
00000030: 7e1e be3f 4186 75bf 9cd4 cb3f 4b81 2340
00000040: 1331 36bf a73b 62bf 5ad0 77bf 271a 99bd
00000050: 6b55 b5bf 45fc 04bf dd59 f73d 5828 c9bf
00000060: 2084 d2be e368 c93e dde5 f2bf 6f53 53be
00000070: aeb3 05c0 a1a4 f0bf 4f07 78bf 0b7f fcbe
00000080: 60fd 843f 39e9 973f 7ea1 cbbe af0e 03c0
00000090: 0d34 a7bf 1d3d 32be 5347 2cbf 1a72 8fbf
000000a0: 0d00 83bd 5729 d43e 627f 09bf 09a1 3a3e
000000b0: f450 b4bf 2842 49bf 13ea d4bf 66df 0bbf
000000c0: 0000 0000 0000 0000 0000 0000 0000 0000
000000d0: 0000 0000 0000 0000 0000 0000 0000 0000

embedding_Pair_prices.weight f4 [6, 5]
0.10703958 0.46685806 0.4201621 -0.27212614 1.2204155 0.8507722 0.027963914 0.8832734
0.7420993 0.8012288 -0.14950712 -0.6159924 -0.6454724 2.1976535 -0.77787817 -1.2366511
-2.0336926 -0.4904835 0.17843762 2.004052 -0.045471787 -1.4642147 -0.097344555 1.0081917
-0.08543557 0.0 0.0 0.0 0.0 0.0
00000000: 9137 db3d 0508 ef3e 7d1f d73e 1e54 8bbe
00000010: 9336 9c3f 35cc 593f 9414 e53c 351e 623f
00000020: 38fa 3d3f 551d 4d3f 6518 19be aeb1 1dbf
00000030: ae3d 25bf 5ba6 0c40 0623 47bf 954a 9ebf
00000040: 0528 02c0 a720 fbbe 5ab8 363e 6342 0040
00000050: a040 3abd 636b bbbf 955c c7bd 6d0c 813f
00000060: d8f8 aebd 0000 0000 0000 0000 0000 0000
00000070: 0000 0000 0000 0000

Pair_shop_mlp.fc_layers.0.weight f4 [64, 32]
0.028485375 -0.05092688 0.16316384 0.19302021 -0.24034277 0.05202495 0.081341706 -0.12782235
0.06359584 0.16659606 -0.15263832 0.026334034 -0.12829039 -0.20484547 0.06902129 0.06381535
0.110478364 0.013827014 -0.0019157166 0.07628428 0.018347476 0.09520019 0.017457625 0.24580923
-0.13013558 0.017757643 0.0086445585 0.09605232 0.08573919 0.05508815 -0.09433456 -0.2040252
-0.18869494 0.0978552 -0.07832398 0.14472541 0.084980294 0.25746465 0.2934691 -0.1293217
-0.13627179 -0.07782165 -0.09416413 0.0037073665 -0.015072626 -0.038714893 0.01794813 0.23746385
0.035635274 -0.17494835 0.013082504 0.19868644 0.05378275 -0.09488872 -0.021219006 0.099203385
-0.10068781 0.085801825 -0.0176966 -0.15373485 0.15688506 -0.083530374 0.19662082 0.045448616
0.063756675 0.038720634 -0.020506972 -0.06679283 0.13185589 0.14237426 0.06652889 0.11381139
0.22745565 -0.20045546 -0.111013114 0.118419625 -0.08088001 -0.13959794 -0.05203105 0.120082036
-0.15168345 -0.15270877 0.14468893 0.15647958 -0.105573304 0.11267288 0.0040367376 -0.0054627643
-0.08683845 0.101342775 0.09178962 -0.11972745 0.115656465 -0.12745975 0.11493887 0.039970547
-0.09422715 -0.10163124 -0.039782815 -0.023413017 0.06448897 0.1413853 0.16719587 0.006717832
-0.023611965 0.20291679 -0.15126042 0.110201806 0.11297296 0.13403682 -0.20149888 0.17397419
-0.08051252 0.11972868 -0.17362976 -0.06266624 0.12487673 -0.0760647 0.0021328193 0.15332015
0.16278033 0.07390702 0.1617815 0.07798265 -0.20309335 -0.019904008 -0.15931726 -0.099067986
0.037507217 0.07493954 0.03477214 0.15435433 0.020325422 -0.17257178 0.049004436 -0.108033285
-0.07488587 -0.10535445 0.052364085 -0.057375282 -0.014133102 -0.1301248 -0.043608267 0.08666336
-0.126252 -0.11363711 -0.023414554 -0.012255039 0.1344334 0.059189495 -0.1430334 0.056101922
-0.17417541 -0.11240455 -0.09238402 -0.08749932 0.025508536 -0.1501088 0.063923806 -0.13339306
0.04081191 0.08774439 -0.06484317 -0.005521176 -0.009772137 0.099355556 0.16570838 0.08826626
-0.18917772 -0.1957824 0.0017293862 -0.11850169 0.05370257 -0.20617397 -0.124198765 0.023292778
0.0020642108 0.16921523 -0.13987279 0.10841578 -0.09674107 0.14450225 0.12848252 -0.14359322
0.18106002 0.1894864 0.06777882 -0.055777676 -0.09992451 0.13794105 0.025345566 -0.1829377
0.0658708 -0.17336209 -0.108769596 -0.038670108 0.015785338 -0.16866863 -0.074212104 -0.14419462
-0.018158434 -0.18838425 -0.045798175 -0.13187057 0.07301536 0.027836826 -0.05578131 0.10222462
-0.026630422 0.11240492 -0.05519684 0.12673166 0.041771054 -0.14134042 -0.07773551 -0.047837593
0.18586093 0.017776852 0.10689691 -0.19136555 -0.18174005 -0.04405366 0.09810939 -0.047525283
-0.011343237 -0.04914866 -0.06548358 -0.002080124 0.1526852 0.044679835 0.09309656 0.10429534
-0.094900906 0.026324874 0.047646802 -0.030547187 0.16749027 0.19398572 0.031326186 0.11814824
-0.16647965 -0.0023073917 -0.052553594 -0.18014549 -0.096266046 0.042400304 -0.15919465 -0.14321907
0.091824636 0.084854394 0.21902516 0.10602388 0.005306129 0.049147617 -0.024512812 0.07551699
00000000: 295a e93c b498 50bd 6c14 273e 17a7 453e
00000010: 6a1c 76be 1d18 553d 7b96 a63d dde3 02be
00000020: 893e 823d 2898 2a3e 384d 1cbe 79ba d73c
00000030: 8e5e 03be 03c3 51be 095b 8d3d 9fb1 823d
00000040: 7b42 e23d b38a 623c c818 fbba ef3a 9c3d
00000050: 724d 963c 51f8 c23d 4b03 8f3c 6ab5 7b3e
00000060: 4342 05be 7a78 913c e8a1 0d3c 14b7 c43d
00000070: 0798 af3d 1da4 613d 7a32 c1bd fbeb 50be
00000080: 3f39 41be 4f68 c83d 5368 a0bd e632 143e
00000090: 260a ae3d 68d2 833e 9541 963e e86c 04be
000000a0: d58a 0bbe f560 9fbd 20d9 c0bd 4af7 723b
000000b0: 2df3 76bc 8293 1ebd f507 933c b929 733e
000000c0: 4bf6 113d a925 33be 0058 563c 7574 4b3e
000000d0: 4d4b 5c3d 0455 c2bd 7bd3 adbc 252b cb3d
000000e0: 6935 cebd deb8 af3d 76f8 90bc ab6c 1dbe
000000f0: 7aa6 203e f911 abbd f856 493e 5428 3a3d
00000100: dc92 823d 8799 1e3d 3dfe a7bc aeca 88bd
00000110: 3b05 073e 8fca 113e 4c40 883d f215 e93d
00000120: 22ea 683e 3244 4dbe d85a e3bd fd85 f23d
00000130: 6ba4 a5bd c3f2 0ebe 831e 55bd 92ed f53d
00000140: e852 1bbe b05f 1cbe 5629 143e 2f3c 203e
00000150: d136 d8bd 0ac1 e63d 9c46 843b fd00 b3bb
00000160: 5bd8 b1bd cd8c cf3d 32fc bb3d aa33 f5bd
00000170: 4cdd ec3d cf84 02be 1265 eb3d 28b8 233d
00000180: 2afa c0bd 0a24 d0bd 4ef3 22bd a8cc bfbc
00000190: cb12 843d 4fc7 103e 6535 2b3e 4221 dc3b
000001a0: e16d c1bc 6bc9 4f3e 03e4 1abe 7cb1 e13d
000001b0: 5e5e e73d f340 093e b955 4ebe 4a26 323e
000001c0: c0e3 a4bd 4f34 f53d 00cc 31be 2857 80bd
000001d0: 5fbf ff3d cfc7 9bbd c5c6 0b3b f5ff 1c3e
000001e0: e3af 263e 905c 973d 0daa 253e 5eb5 9f3d
000001f0: b4f7 4fbe bb0d a3bc 1024 23be 28e4 cabd
00000200: 2ba1 193d e779 993d 3b6d 0e3d 100f 1e3e
00000210: 8081 a63c a8b6 30be e0b8 483d 8e40 ddbd
00000220: c35d 99bd 13c4 d7bd b97b 563d 5802 6bbd
00000230: 878e 67bc 703f 05be 959e 32bd 8f7c b13d
00000240: 3448 01be 93ba e8bd e1cf bfbc 5cc9 48bc
00000250: e9a8 093e af70 723d 5977 12be 21cb 653d
00000260: 0a5b 32be 5b34 e6bd d533 bdbd d832 b3bd
00000270: 47f7 d03c 1fb6 19be 7cea 823d 3198 08be
00000280: 642a 273d 55b3 b33d 7fcc 84bd fbea b4bb
00000290: 501b 20bc ed7a cb3d 75af 293e f1c4 b43d
000002a0: ceb7 41be 2e7b 48be 92ac e23a 04b1 f2bd
000002b0: 3af7 5b3d 451f 53be ec5b febd 7fd0 be3c
000002c0: b647 073b c246 2d3e d03a 0fbe 1809 de3d
000002d0: 2f20 c6bd 66f8 133e ec90 033e 1a0a 13be
000002e0: cc67 393e b908 423e 9fcf 8a3d 2277 64bd
000002f0: 39a5 ccbd 6b40 0d3e 81a1 cf3c 0554 3bbe
00000300: 45e7 863d d585 31be 98c2 debd 8c64 1ebd
00000310: 4150 813c 78b7 2cbe 84fc 97bd c1a7 13be
00000320: ffc0 94bc cde7 40be de96 3bbd 1409 07be
00000330: 1489 953d 0e0a e43c f17a 64bd 245b d13d
00000340: 0b28 dabc 8d34 e63d 1516 62bd f2c5 013e
00000350: 2018 2b3d 8bbb 10be cc33 9fbd 5af1 43bd
00000360: 5452 3e3e c3a0 913c c4ec da3d 55f5 43be
00000370: 101a 3abe 9c71 34bd 93ed c83d dfa9 42bd
00000380: fcd8 39bc 1b50 49bd 411c 86bd b152 08bb
00000390: 8259 1c3e 3402 373d 69a9 be3d cc98 d53d
000003a0: 685b c2bd 43a7 d73c 4b29 433d 183e fabc
000003b0: 9282 2b3e 31a4 463e e34f 003d b4f7 f13d
000003c0: a479 2abe 9c37 17bb 7042 57bd 0f78 38be
000003d0: 2227 c5bd f1ab 2d3d ec03 23be 05a8 12be
000003e0: 8e0e bc3d 24c8 ad3d 2248 603e 0c23 d93d
000003f0: 09df ad3b 034f 493d 18cf c8bc a7a8 9a3d

Pair_shop_mlp.fc_layers.0.bias f4 [64]
0.18451633 -0.01760674 -0.11133038 -0.08613557 -0.09498951 -0.018120943 0.10016181 -0.091046
-0.11213188 0.08856803 0.09478031 0.15759373 -0.100232914 0.10068889 0.08921515 -0.051827345
-0.10931832 -0.085446954 -0.080005884 0.080610946 0.18292524 0.14442019 -0.09654348 -0.055342525
-0.05254918 -0.088485606 -0.019313574 0.03267475 -0.16836745 0.11458448 0.058591474 0.028899495
0.050853774 0.04919821 -0.036037844 -0.06137983 -0.020278072 0.105914354 -0.07787947 0.107245274
-0.028933492 0.042251658 0.07603411 0.16166756 0.08868069 -0.040388282 0.18618816 -0.05517328
-0.083930485 -0.07601124 -0.017026937 0.077590264 0.13267814 0.07543489 -0.11700974 -0.070728086
0.027828699 -0.14325379 0.03608655 0.17873672 -0.11341592 0.060975872 -0.14755344 -0.05118012
00000000: d9f1 3c3e 033c 90bc 2f01 e4bd d967 b0bd
00000010: dc89 c2bd 5f72 94bc a321 cd3d 5376 babd
00000020: 66a5 e5bd 2863 b53d 2e1c c23d 4060 213e
00000030: ea46 cdbd fa35 ce3d 6fb6 b63d e948 54bd
00000040: 49e2 dfbd d0fe aebd 20da a3bd 5a17 a53d
00000050: c150 3b3e e3e2 133e 97b8 c5bd d8ae 62bd
00000060: cf3d 57bd f137 b5bd 8037 9ebc f5d5 053d
00000070: 8468 2cbe 45ab ea3d 9dfd 6f3d a2be ec3c
00000080: 0c4c 503d 1084 493d 6b9c 13bd 6b69 7bbd
00000090: 331e a6bc a0e9 d83d 467f 9fbd 69a3 db3d
000000a0: ee05 edbc 1310 2d3d c5b7 9b3d 2e8c 253e
000000b0: 399e b53d 2f6e 25bd 1ca8 3e3e 61fd 61bd
000000c0: bfe3 abbd c8ab 9bbd 137c 8bbc a5e7 9e3d
000000d0: c7dc 073e 9c7d 9a3d cda2 efbd e3d9 90bd
000000e0: 03f9 e33c 1fb1 12be 7ecf 133d c206 373e
000000f0: 9b46 e8bd d6c1 793d 4018 17be 3fa2 51bd

Pair_shop_mlp.fc_layers.1.weight f4 [16, 64]
-0.2734338 -0.036304187 0.004165274 0.08011537 0.050615713 -0.020109085 0.106638 -0.08861323
-0.038946413 -0.014634485 -0.006596083 0.10827817 -0.0839313 -0.07887366 -0.1652999 0.14215998
0.10170734 0.14350863 -0.027510913 -0.01764695 0.15182616 -0.031123603 0.08140265 0.04220151
0.007569388 0.08623226 -0.16982001 0.17600517 0.1506037 0.08703884 -0.109424695 -0.07128042
0.16993009 -0.10648044 0.114436276 0.010444216 0.13083038 0.21175365 0.065460995 0.02540697
0.0476533 0.072002426 0.048323974 -0.06865836 -0.15082861 -0.034440633 0.024873186 0.10611538
0.050603304 0.048334796 0.18358603 0.005889905 0.12617065 0.08287297 -0.12580445 -0.056610074
0.11070228 -0.10027993 0.21714613 0.014304392 0.029789489 -0.020533258 0.10280677 0.004289527
0.22838849 -0.011126345 0.01261036 0.1208626 -0.044977352 0.08967481 0.108262524 -0.08388679
0.07724856 0.032863535 0.085691415 0.10390122 0.0818709 0.079203084 -0.02916501 0.12513182
0.02108375 -0.07428816 0.13904633 -0.051629964 -0.009554442 -0.07837609 0.08998143 -0.089871384
0.042898234 0.015997257 -0.06290605 0.00025896996 -0.07117684 0.09716738 0.0128300665 0.09269037
-0.04617561 -0.054554276 -0.117370695 0.06873468 0.0057758023 -0.07461814 -0.056635443 0.07309836
-0.07003137 0.025616866 0.13433376 0.15328099 -0.02781343 0.003450246 0.122843996 -0.013255234
-0.1752155 -0.033453263 0.009239906 0.010023742 -0.044908505 -0.031569824 0.06099224 -0.06947972
-0.0067310655 0.092426 -0.12015179 0.13615076 0.102093734 -0.10544853 -0.09517126 0.08454467
0.2511898 0.06924223 0.076125026 0.001111253 -0.1123741 0.054457642 -0.008812899 -0.06737471
0.04577909 0.11312728 0.0145723745 -0.030053418 -0.041429367 0.030484125 0.020128572 -0.06728699
-0.021166176 0.02378934 0.11061109 0.13586879 0.049841914 0.0061212694 -0.034272503 0.0749821
-0.0108535215 -0.07047265 0.23896661 -0.051624358 -0.035975423 0.16713725 0.20392619 -0.1056721
0.077868946 0.01885646 -0.0713763 -0.03478765 -0.02123972 -0.10399733 0.1538425 0.09646046
0.09016703 -0.023164732 0.006114283 -0.005341382 0.15262608 0.02619118 0.044145606 -0.10237596
-0.17436086 0.08144808 -0.17811352 0.017573671 -0.16253884 0.12262716 0.043432534 0.0981821
0.018159734 -0.05010381 0.049952738 -0.008599682 0.07231937 0.11037672 -0.09655144 0.08979344
0.1898361 0.06356338 0.0033580447 -0.100728914 0.046301335 -0.020973397 0.11499945 0.13155782
0.1218398 0.19732127 0.14537624 0.016200775 0.03719975 -0.07017129 0.007433414 -0.09326673
0.06925008 -0.050113518 0.049163472 0.02998049 -0.046429787 0.11460868 0.12834217 0.108609274
0.16327806 -0.18845348 0.23027354 0.07552255 0.010551077 0.11201815 0.1780923 0.14563473
0.09174698 0.033291355 0.033302236 -0.048366003 -0.12918435 -0.10244155 -0.08090554 -0.0019313144
-0.009505047 0.06778916 0.070869446 0.002343542 0.061210036 -0.02403549 -0.03438304 0.05191656
-0.27552533 -0.12550665 -0.18922447 0.13474226 -0.13908395 -0.061417762 -0.07975504 0.055840105
0.09967127 -0.05848708 0.0921283 0.13594851 -0.03601691 0.06073743 0.021739822 0.15541756
00000000: 84ff 8bbe b3b3 14bd da7c 883b 8713 a43d
00000010: 6c52 4f3d cfbb a4bc 0665 da3d da7a b5bd
00000020: 4686 1fbd 7bc5 6fbc f423 d8bb f2c0 dd3d
00000030: 2ce4 abbd 8388 a1bd 6144 29be 6392 113e
00000040: f04b d03d edf3 123e 915e e1bc 5690 90bc
00000050: 5178 1b3e edf6 febc 6fb6 a63d 7edb 2c3d
00000060: a108 f83b 8a9a b03d 4ce5 2dbe b33a 343e
00000070: db37 1a3e 6b41 b23d 0e1a e0bd 78fb 91bd
00000080: 2702 2e3e 6b12 dabd 915d ea3d 381e 2b3c
00000090: 66f8 053e f3d5 583e 6a10 863d 4722 d03c
000000a0: 1b30 433d 0276 933d 5cef 453d c19c 8cbd
000000b0: d172 1abe 9f11 0dbd dac2 cb3c 0553 d93d
000000c0: 6945 4f3d b5fa 453d fafd 3b3e 1b00 c13b
000000d0: e132 013e 4eb9 a93d e2d2 00be f7df 67bd
000000e0: e1b7 e23d 905f cdbd 8e5b 5e3e f85c 6a3c
000000f0: 1609 f43c 5d35 a8bc 5b8c d23d 298f 8c3b
00000100: acde 693e 464b 36bc af9b 4e3c d086 f73d
00000110: 2c3a 38bd 6da7 b73d beb8 dd3d d6cc abbd
00000120: 7e34 9e3d ea9b 063d fb7e af3d 2aca d43d
00000130: eeab a73d 3a35 a23d 76eb eebc 8e22 003e
00000140: d4b7 ac3c 6424 98bd 2962 0e3e f179 53bd
00000150: 3c8a 1cbc a583 a0bd 2f48 b83d 7d0e b8bd
00000160: 0fb6 2f3d ae0c 833c e3d4 80bd 5cc6 8739
00000170: 2ac5 91bd b1ff c63d 3335 523c 73d4 bd3d
00000180: a322 3dbd 4e74 5fbd 0c60 f0bd c5c4 8c3d
00000190: f142 bd3b 65d1 98bd 91fa 67bd 98b4 953d
000001a0: 9b6c 8fbd 76da d13c ca8e 093e b1f5 1c3e
000001b0: fed8 e3bc 861d 623b a295 fb3d 7b2c 59bc
000001c0: b16b 33be 4a06 09bd fa62 173c 9f3a 243c
000001d0: fbf1 37bd 5c4f 01bd 00d3 793d 624b 8ebd
000001e0: 4590 dcbb d849 bd3d 2412 f6bd 1b6b 0b3e
000001f0: 8516 d13d 66f5 d7bd 26e9 c2bd c225 ad3d
00000200: f39b 803e dfce 8d3d 70e7 9b3d 77a7 913a
00000210: 6424 e6bd fa0e 5f3d fa63 10bc c1fb 89bd
00000220: db82 3b3d 46af e73d f8c0 6e3c 9632 f6bc
00000230: d7b1 29bd d8b9 f93c ade4 a43c c3cd 89bd
00000240: b064 adbc dde1 c23c 1188 e23d 3021 0b3e
00000250: 0927 4c3d ee94 c83b 5361 0cbd 3790 993d
00000260: f8d2 31bc f753 90bd aab3 743e 1074 53bd
00000270: f75a 13bd 0726 2b3e 07d2 503e 9d6a d8bd
00000280: c179 9f3d dd78 9a3c bd2d 92bd 7f7d 0ebd
00000290: ecfe adbc 8dfc d4bd e388 1d3e 108d c53d
000002a0: 7ea9 b83d f7c3 bdbc 535a c83b c306 afbb
000002b0: 034a 1c3e e38e d63c 06d2 343d 7daa d1bd
000002c0: a78b 32be 40ce a63d 6463 36be a9f6 8f3c
000002d0: 9570 26be f323 fb3d 50e6 313d b213 c93d
000002e0: b9c3 943c a739 4dbd 3e9b 4c3d aee5 0cbc
000002f0: 2e1c 943d 310d e23d c3bc c5bd a0e5 b73d
00000300: 6564 423e 842d 823d a412 5c3b f64a cebd
00000310: 78a6 3d3d 67d0 abbc d584 eb3d 18b7 063e
00000320: 2587 f93d 960e 4a3e 82dd 143e 7db7 843c
00000330: c45e 183d f7b5 8fbd ff93 f33b a102 bfbd
00000340: fcd2 8d3d d543 4dbd a35f 493d a599 f53c
00000350: 292d 3ebd f5b7 ea3d 216c 033e 8a6e de3d
00000360: 5d32 273e f3f9 40be d4cc 6b3e 91ab 9a3d
00000370: 6dde 2c3c c669 e53d d45d 363e 4521 153e
00000380: d7e5 bb3d 845c 083d ed67 083d 6e1b 46bd
00000390: e748 04be e0cc d1bd ceb1 a5bd 2824 fdba
000003a0: 0fbb 1bbc 0bd5 8a3d 0024 913d 1c96 193b
000003b0: 60b7 7a3d 13e6 c4bc 3bd5 0cbd 75a6 543d
000003c0: a811 8dbe d184 00be 0fc4 41be e0f9 093e
000003d0: 066c 0ebe 3191 7bbd 9c56 a3bd 98b8 643d
000003e0: 7320 cc3d 2690 6fbd c3ad bc3d 1636 0b3e
000003f0: 7886 13bd d0c7 783d b617 b23c c825 1f3e

Pair_shop_mlp.fc_layers.1.bias f4 [16]
-0.004054269 0.010872862 0.13559555 0.040616427 -0.08367103 0.0016643471 0.016648855 -0.081324674
0.050442677 -0.08086685 -0.053394284 0.072022185 0.09851492 0.016344031 -0.09012488 0.1388619
00000000: acd9 84bb 1724 323c 8fd9 0a3e 695d 263d
00000010: b85b abbd 3926 da3a 2e63 883c 8d8d a6bd
00000020: fb9c 4e3d 859d a5bd f7b3 5abd 5e80 933d
00000030: 31c2 c93d ebe3 853c 6593 b8bd d031 0e3e

Pair_score_mlp.fc_layers.0.weight f4 [64, 32]
-0.14421925 -0.09916029 0.1690642 -0.03995341 -0.07471418 -0.092439756 0.21481034 0.02137175
-0.006445317 -0.12973769 -0.047715846 -0.09809927 -0.12889774 -0.13751256 0.06992236 0.012448837
-0.18603504 -0.09098622 0.25457382 -0.06207343 0.109046884 -0.202233 0.04410029 0.122468375
-0.15584502 -0.056569 0.16219956 -0.10183483 0.080334134 -0.036348194 -0.24583168 -0.2887346
-0.18087065 -0.06919262 0.20278497 0.18876554 -0.084446855 0.1760218 0.17322648 -0.113478616
0.11840341 -0.069646426 -0.0893647 0.037672702 0.074462794 -0.03517888 -0.102463305 -0.017294906
-0.08098184 -0.11910251 0.046067078 0.1555743 -0.008170187 -0.12430256 0.03966671 -0.120489664
-0.16676222 0.17906803 0.00953021 -0.13087328 -0.04764468 -0.022176953 0.14864051 0.08489013
-0.12363831 -0.0012009332 -0.04293009 -0.10138315 0.041664165 -0.014777746 0.0992195 -0.03125337
0.13270542 -0.1645192 0.01001015 0.175877 0.028089235 -0.04657515 0.086292624 0.00015487499
-0.27390504 0.03531342 0.034033194 0.22281218 0.22037154 0.062420864 0.19991921 0.058164448
0.17900237 -0.06530449 -0.054766778 -0.0058857393 -0.15254147 -0.12015589 -0.088524245 0.1348452
-0.16894098 0.12826435 0.23120143 0.044633538 0.17583965 -0.14423482 -0.11381151 0.06192661
0.1509022 0.05651628 -0.13557076 0.18412313 -0.08374108 0.06754029 -0.093397036 0.17842878
0.03384852 -0.11192008 0.107885346 0.07822125 0.025514686 0.06370027 0.118468165 -0.058840066
0.1429984 -0.21398373 0.03282754 -0.06377896 0.034874383 0.054734334 0.17537524 0.041428447
-0.19125083 -0.029697783 0.00092112797 -0.11243433 0.13587481 -0.028200578 -0.13006967 -0.24665591
0.1448902 -0.06519199 -0.18217063 -0.19669238 -0.03465952 0.013864363 -0.12667446 -0.15575208
0.20324369 0.21019803 -0.14550732 -0.09990101 -0.09782022 0.10087028 0.0015023331 0.005589673
-0.18851914 0.0709203 -0.018552946 0.22782664 -0.023521729 -0.1350751 0.047703404 -0.15304534
-0.12663491 0.035059575 0.15277146 0.072422646 0.09815409 0.14082788 -0.090893604 -0.11066497
-0.099581316 -0.026961647 0.18185334 0.06618371 0.0068057054 0.0985677 -0.15820153 -0.06660319
0.17146303 0.16157943 0.090634 -0.0036305638 0.11708752 -0.1344022 0.019890808 0.09338867
0.06804434 0.07196972 0.19877034 -0.17343424 0.1623896 -0.14235793 0.15132338 -0.06678692
-0.12666929 0.21359825 -0.04426312 -0.060467124 -0.14556402 -0.085907035 0.038490333 0.13877948
0.0013189637 0.060495004 -0.10304166 0.15266456 -0.042659786 -0.09697791 0.13583237 0.027454883
-0.0032401227 0.13063002 -0.08899434 -0.009964438 -0.073504925 0.06143864 0.18331249 0.16585086
0.08121315 -0.062327575 0.043113377 0.21658276 -0.1205924 0.12341678 0.14933974 -0.1463909
0.010003364 -0.06938538 0.2089144 0.13649929 0.036159895 0.018710978 -0.085027754 -0.0886722
0.18550822 0.22909668 -0.21812941 -0.120764814 0.06766953 -0.05910702 -0.107037745 0.12598711
-0.18909809 -0.1380577 0.01935056 -0.017808996 -0.067341596 0.23048481 0.045961086 -0.0077668605
-0.0026664257 -0.10619244 -0.093920186 -0.118003264 -0.109970585 -0.08197615 0.17088605 0.07321268
00000000: 36ae 13be 8d14 cbbd 2a1f 2d3e 30a6 23bd
00000010: bf03 99bd 0e51 bdbd 3ef7 5b3e cf13 af3c
00000020: 3d33 d3bb f5d9 04be b171 43bd 45e8 c8bd
00000030: c5fd 03be 18d0 0cbe 7433 8f3d 35f6 4b3c
00000040: f87f 3ebe fc56 babd 8057 823e b540 7ebd
00000050: f953 df3d 2b16 4fbe 81a2 343d b3d0 fa3d
00000060: d695 1fbe e5b4 67bd a417 263e c88e d0bd
00000070: 3986 a43d d8e1 14bd 4dbb 7bbe 06d5 93be
00000080: 2836 39be dcb4 8dbd dda6 4f3e c14b 413e
00000090: 79f2 acbd 0f3f 343e 4862 313e 7a67 e8bd
000000a0: 7d7d f23d c9a2 8ebd d704 b7bd b14e 1a3d
000000b0: f37f 983d bb17 10bd 48d8 d1bd 0cae 8dbc
000000c0: cfd9 a5bd 04ec f3bd d5b0 3c3d df4e 1f3e
000000d0: 3fdc 05bc 5792 febd 8f79 223d 49c3 f6bd
000000e0: b7c3 2abe 9c5d 373e 9924 1c3c a503 06be
000000f0: 1127 43bd 71ac b5bc 3835 183e e0da ad3d
00000100: 1536 fdbd a268 9dba 76d7 2fbd f8a1 cfbd
00000110: 0ba8 2a3d 5c1e 72bc 9833 cb3d 8903 00bd
00000120: eee3 073e b977 28be 9d01 243c 1a19 343e
00000130: 651b e63c 96c5 3ebd 30ba b03d f065 2239
00000140: 483d 8cbe cea4 103d 6466 0b3d e028 643e
00000150: 14a9 613e 05ad 7f3d 9fb7 4c3e d83d 6e3d
00000160: 664c 373e 5cbe 85bd 2153 60bd 29dd c0bb
00000170: d533 1cbe 4b14 f6bd 334c b5bd dc14 0a3e
00000180: ddfe 2cbe bb57 033e 11c0 6c3e a8d1 363d
00000190: 4f0f 343e 4bb2 13be 0216 e9bd c2a6 7d3d
000001a0: 1b86 1a3e 9d7d 673d 10d3 0abe c68a 3c3e
000001b0: 7180 abbd 9052 8a3d f246 bfbd 09b6 363e
000001c0: bfa4 0a3d 5b36 e5bd fef2 dc3d 7632 a03d
000001d0: 2d04 d13c 4a75 823d 709f f23d 4802 71bd
000001e0: 2c6e 123e 8d1e 5bbe 2c76 063d 8b9e 82bd
000001f0: 71d8 0e3d 1c31 603d 9195 333e e0b0 293d
00000200: 42d7 43be c448 f3bc da77 713a f843 e6bd
00000210: c422 0b3e e604 e7bc fc30 05be 5e93 7cbe
00000220: 195e 143e 6183 85bd f08a 3abe ba69 49be
00000230: 24f7 0dbd 5a27 633c f3b6 01be 797d 1fbe
00000240: 1d1f 503e 273e 573e dfff 14be e798 ccbd
00000250: f855 c8bd 1495 ce3d efe9 c43a 9329 b73b
00000260: 290b 41be aa3e 913d 59fc 97bc 634b 693e
00000270: a4b0 c0bc 2151 0abe a564 433d ebb7 1cbe
00000280: 95ac 01be a19a 0f3d 1f70 1c3e 5352 943d
00000290: 0305 c93d 2f35 103e 6d26 babd 51a4 e2bd
000002a0: 4af1 cbbd acde dcbc c337 3a3e 538b 873d
000002b0: 6502 df3b dddd c93d 95ff 21be 4167 88bd
000002c0: 0194 2f3e 1475 253e 529e b93d c1ee 6dbb
000002d0: 95cb ef3d bba0 09be 0cf2 a23c 8f42 bf3d
000002e0: d55a 8b3d dc64 933d 748a 4b3e bf98 31be
000002f0: 7649 263e 47c6 11be 84f4 1a3e 95c7 88bd
00000300: 98b5 01be 80b9 5a3e 3f4d 35bd 60ac 77bd
00000310: bc0e 15be 07f0 afbd 0aa8 1d3d 351c 0e3e
00000320: 14e1 ac3a 9cc9 773d 8107 d3bd 1954 1c3e
00000330: 07bc 2ebd 5b9c c6bd a417 0b3e 10e9 e03c
00000340: 3d58 54bb e0c3 053e aa42 b6bd e241 23bc
00000350: c089 96bd 15a7 7b3d 45b6 3b3e cfd4 293e
00000360: 1453 a63d 334b 7fbd a797 303d dfc7 5d3e
00000370: 26f9 f6bd f0c1 fc3d 84ec 183e 7fe7 15be
00000380: 26e5 233c ec19 8ebd a8ed 553e 78c6 0b3e
00000390: 661c 143d c447 993c 0823 aebd c599 b5bd
000003a0: def5 3d3e 5298 6a3e 515d 5fbe 8b53 f7bd
000003b0: 5396 8a3d 341a 72bd 9b36 dbbd c402 013e
000003c0: eea2 41be ff5e 0dbe 1185 9e3c 2ce4 91bc
000003d0: 64ea 89bd 3604 6c3e b141 3c3d 2681 febb
000003e0: 33bf 2ebb 6c7b d9bd 3a59 c0bd b2ab f1bd
000003f0: 4238 e1bd 1de3 a7bd c1fc 2e3e 88f0 953d

Pair_score_mlp.fc_layers.0.bias f4 [64]
0.060859952 -0.05207677 -0.1352163 -0.096553706 0.16011722 0.16076912 -0.09365515 -0.09924174
-0.06452162 -0.09126067 0.15556672 0.012451963 0.040932756 0.1073603 -0.06278946 0.03733052
0.18780816 -0.06940446 0.10730054 0.06900085 -0.07898463 -0.033429675 0.073102824 -0.04384033
0.10128484 -0.043094054 -0.007064516 0.10679431 0.15958647 -0.038196456 -0.07892104 0.15394342
0.07867809 -0.15058422 0.010414727 0.22978514 0.1721585 0.14431813 -0.09093387 -0.038709216
-0.110713124 0.09998372 -0.15653548 -0.121453404 0.0004070599 0.12486578 -0.039853346 -0.098133095
-0.055688124 -0.067408055 0.042184316 -0.074659035 -0.045059048 -0.11387959 -0.059360534 0.14229359
-0.026047638 0.11309416 0.120985754 0.11667017 0.07444837 0.16527006 0.1063211 -0.07264449
00000000: 4948 793d 744e 55bd 2476 0abe f3bd c5bd
00000010: c5f5 233e a9a0 243e 45ce bfbd 413f cbbd
00000020: e923 84bd e0e6 babd e24c 1f3e 5103 4c3c
00000030: 1ba9 273d b8df db3d c397 80bd e3e7 183d
00000040: c850 403e ed23 8ebd 63c0 db3d 5150 8d3d
00000050: b2c2 a1bd 8eed 08bd efb6 953d eb91 33bd
00000060: 6d6e cf3d 6483 30bd 757d e7bb fab6 da3d
00000070: a36a 233e e373 1cbd 5ba1 a1bd 58a3 1d3e
00000080: fa21 a13d c032 1abe 88a2 2a3c cc4c 6b3e
00000090: 514a 303e 22c8 133e 893b babd 8e8d 1ebd
000000a0: 90bd e2bd 44c4 cc3d d64a 20be 90bc f8bd
000000b0: a86a d539 a1b9 ff3d 433d 23bd 01fa c8bd
000000c0: 3b19 64bd 3c0d 8abd 76c9 2c3d d6e6 98bd
000000d0: d68f 38bd b439 e9bd 0824 73bd 69b5 113e
000000e0: db61 d5bc e99d e73d 61c7 f73d c5f0 ee3d
000000f0: 6378 983d 8e3c 293e e0be d93d a2c6 94bd

Pair_score_mlp.fc_layers.1.weight f4 [8, 64]
0.10549837 0.121915706 0.1304513 0.0645223 0.21144158 0.15042147 0.062159464 0.10561311
0.14315926 0.15138023 -0.10971283 0.030195732 0.030715896 -0.15771554 -0.023603575 -0.0030224526
0.1256526 0.0069613787 -0.03729882 0.04978423 0.13140441 -0.02299399 0.09892603 0.015555784
0.100652084 0.14473984 0.15860237 0.058698602 -0.04594287 -0.0401924 0.110418916 0.01391138
0.023935908 0.11286748 0.110931285 -0.0016412248 0.18806668 0.03945085 0.030795371 0.10734241
-0.046871256 0.040470082 -0.023541335 0.081994206 -0.1913175 0.09768144 0.14648071 0.10786111
-0.10498907 0.081620716 -0.09863235 0.08288381 0.24094255 0.018156286 0.08693792 -0.08546955
0.049914394 -0.08888334 -0.058136567 0.100892484 -0.0047503896 0.07658368 -0.07117494 0.17739357
-0.10963651 0.10672299 -0.1210849 -0.1391187 -0.113745525 -0.059888232 -0.028646253 -0.07528654
-0.07022732 0.028694477 -0.18290237 0.0068285335 -0.18370645 0.18936215 -0.1852701 -0.17665075
-0.00704024 0.044757172 -0.06540032 0.027421277 -0.13470417 -0.116966784 -0.055550493 0.072133094
-0.08580746 -0.10784107 0.1166732 -0.030437354 -0.09955597 0.08667956 0.113960974 -0.0144605385
-0.06377873 -0.12811016 0.056768294 0.111704454 -0.105321266 0.068383045 0.049477056 0.052148744
-0.11013105 -0.039307103 -0.07187504 -0.11828391 0.19012716 0.1303182 -0.09143322 -0.08219629
0.03665806 -0.1226562 0.11139478 -0.11035209 -0.005169094 -0.15113965 -0.14134029 0.21305203
0.02880355 -0.10737639 -0.04043422 -0.061868854 0.16051733 0.09087386 0.056633197 0.057545885
0.08445986 0.111104116 0.22438544 0.16686766 0.045553003 0.07084571 0.19293754 0.010869697
0.18724006 0.042527735 0.086654 -0.011863313 -0.028027324 -0.22364414 0.060602557 0.06392703
0.25447333 0.15163106 0.12863839 0.03429385 0.100408815 -0.049930204 0.11909007 0.07005711
0.046192795 0.045458037 0.11599867 0.23722209 -0.009968034 0.13235374 0.06639485 0.20213436
0.097876236 0.02162834 0.10644478 -0.029610392 0.1785925 0.0040670983 -0.15183607 0.16145366
-0.06737283 0.099543504 0.11429016 0.15605861 -0.077376135 0.13563353 0.09562247 -0.018362721
0.14767438 -0.038024317 0.16571033 -0.024419805 0.06608029 -0.10156693 0.07925643 -0.011514833
-0.036873188 0.017692214 0.09587027 0.2209534 0.10743303 0.011858947 0.09799941 0.26989725
-0.044631097 0.076661855 0.06364574 0.0018199235 0.016398756 -0.10658146 0.01071263 0.017303538
-0.15369686 -0.005926761 0.069333866 0.039339818 -0.025220077 0.09538219 -0.12189356 -0.14535755
-0.050841678 -0.09148574 0.009756909 -0.05242026 -0.07151847 -0.014918443 0.06416517 0.08646642
0.1292934 0.002140614 -0.03261124 0.12755781 -0.05989915 0.060359348 0.0664019 -0.076715454
-0.04887198 -0.08701889 -0.018386116 -0.010323862 0.15638897 -0.17528696 -0.00057011144 0.024513735
0.00025112796 0.07133099 -0.089275464 0.058857296 -0.022376193 -0.11181375 -0.12991723 -0.07686175
0.10190501 -0.14816183 -0.008397542 -0.08502952 0.059820976 -0.11935118 0.0003270155 0.14559422
-0.09985651 0.023565227 0.10886433 0.09345613 -0.052746974 -0.10707832 0.047773413 0.022163885
00000000: 880f d83d f1ae f93d 0795 053e 4524 843d
00000010: 2484 583e 1608 1a3e ec9a 7e3d b04b d83d
00000020: 5798 123e 6b03 1b3e 1fb1 e0bd 0a5d f73c
00000030: e79f fb3c 2f80 21be 495c c1bc 5714 46bb
00000040: 13ab 003e 471c e43b a6c6 18bd 8cea 4b3d
00000050: e18e 063e e45d bcbc bb99 ca3d b0dd 7e3c
00000060: ae22 ce3d ae36 143e a968 223e f26d 703d
00000070: 972e 3cbd c9a0 24bd 5023 e23d 8fec 633c
00000080: 3d15 c43c 1127 e73d f12f e33d 5e1e d7ba
00000090: 8d94 403e 3797 213d 9346 fc3c 56d6 db3d
000000a0: 13fc 3fbd f5c3 253d c2d9 c0bc 94ec a73d
000000b0: bce8 43be 350d c83d 0aff 153e 49e6 dc3d
000000c0: 8204 d7bd c328 a73d c2ff c9bd fdbe a93d
000000d0: a5b9 763e 7ebc 943c 820c b23d a90a afbd
000000e0: 0973 4c3d 7808 b6bd 9c20 6ebd b8a0 ce3d
000000f0: 28a9 9bbb e8d7 9c3d 2bc4 91bd a9a6 353e
00000100: 1b89 e0bd 9591 da3d 5cfb f7bd 2275 0ebe
00000110: 6af3 e8bd 5d4d 75bd 8cab eabc d42f 9abd
00000120: 57d3 8fbd ae10 eb3c c24a 3bbe e4c1 df3b
00000130: 8b1d 3cbe 27e8 413e 72b7 3dbe efe3 34be
00000140: d0b1 e6bb 4c53 373d 9af0 85bd 96a2 e03c
00000150: e4ef 09be 488c efbd ea88 63bd 84ba 933d
00000160: d2bb afbd c7db dcbd 5cf2 ee3d c257 f9bc
00000170: 00e4 cbbd 0e85 b13d 5f64 e93d e5eb 6cbc
00000180: 6c9e 82bd 4f2f 03be df85 683d 4ec5 e43d
00000190: adb2 d7bd 690c 8c3d 74a8 4a3d ec99 553d
000001a0: 638c e1bd 7c00 21bd 3933 93bd d63e f2bd
000001b0: b2b0 423e 2272 053e 5741 bbbd 8756 a8bd
000001c0: c326 163d 2c33 fbbd f222 e43d 4700 e2bd
000001d0: 8161 a9bb 5ac4 1abe 82bb 10be 502a 5a3e
000001e0: 6cf5 eb3c 27e8 dbbd 5a9e 25bd 326a 7dbd
000001f0: a85e 243e 131c ba3d 36f8 673d 3cb5 6b3d
00000200: 4bf9 ac3d 8e8a e33d 4cc5 653e 5bdf 2a3e
00000210: c995 3a3d 8e17 913d 6b91 453e d016 323c
00000220: dcbb 3f3e 9031 2e3d a777 b13d 575e 42bc
00000230: 8f99 e5bc f802 65be 633a 783d 2dec 823d
00000240: 544a 823e 2c45 1b3e c8b9 033e b577 0c3d
00000250: 23a3 cd3d 9d83 4cbd 7fe5 f33d 1a7a 8f3d
00000260: a834 3d3d 3532 3a3d b690 ed3d 59ea 723e
00000270: f750 23bc bd87 073e 06fa 873d 4ffc 4e3e
00000280: 5673 c83d eb2d b13c b9ff d93d 7e91 f2bc
00000290: f4e0 363e 4b45 853b ea7a 1bbe 1c54 253e
000002a0: c4fa 89bd 77dd cb3d f610 ea3d d4cd 1f3e
000002b0: 6177 9ebd 84e3 0a3e b7d5 c33d 6b6d 96bc
000002c0: f437 173e 63bf 1bbd f8af 293e 0b0c c8bc
000002d0: 1a55 873d 5302 d0bd 3251 a23d b6a8 3cbc
000002e0: 5708 17bd 43ef 903c a257 c43d 9c41 623e
000002f0: d905 dc3d 074c 423c eab3 c83d f92f 8a3e
00000300: 19cf 36bd e400 9d3d b358 823d 808a ee3a
00000310: af56 863c 6147 dabd 0784 2f3c 26c0 8d3c
00000320: b662 1dbe 4635 c2bb eafe 8d3d ca22 213d
00000330: 569a cebc bd57 c33d 55a3 f9bd 9cd8 14be
00000340: 5d3f 50bd e05c bbbd 71db 1f3c a0b6 56bd
00000350: 4778 92bd 7c6c 74bc 0769 833d 4e15 b13d
00000360: 7d65 043e 8b49 0c3b 5d93 05bd 849e 023e
00000370: d058 75bd 5d3b 773d b8fd 873d fe1c 9dbd
00000380: fc2d 48bd f636 b2bd 7b9e 96bc 6a25 29bc
00000390: 6e24 203e 6d7e 33be 8873 15ba 07d1 c83c
000003a0: d3a9 8339 fb15 923d 0ed6 b6bd 5914 713d
000003b0: 474e b7bc 9bfe e4bd 0609 05be b169 9dbd
000003c0: 93b3 d03d bcb7 17be d895 09bc f523 aebd
000003d0: d706 753d 646e f4bd 4773 ab39 a716 153e
000003e0: 9281 ccbd dd0b c13c 43f4 de3d ed65 bf3d
000003f0: 360d 58bd e14b dbbd 0eae 433d 0991 b53c

Pair_score_mlp.fc_layers.1.bias f4 [8]
-0.0032181046 0.10401892 -0.08878702 0.07035174 0.13624257 0.11595402 -0.060938288 -0.063804895
00000000: d6e6 52bb df07 d53d f8d5 b5bd 9314 903d
00000010: 2c83 0b3e 4d79 ed3d 6d9a 79bd 24ac 82bd

CNN_embedding_types.weight f4 [106, 16]
0.1447194 -0.7756799 -0.49377397 0.9526168 -0.40743425 -0.0133390445 1.769193 -2.9003918
0.12320153 -0.86574435 -0.5350022 1.0769839 0.4854655 0.39554387 0.735811 -0.76588464
-0.03323009 -1.9264039 0.6648928 -0.7306456 0.45783442 -0.6527293 0.41440654 -0.25323772
-0.038700975 -0.9044664 -1.3552607 0.4740285 1.0222447 0.42678526 -0.36139572 -0.1270029
-0.5575774 1.6683737 0.62440926 -0.369996 -0.019328395 1.0881456 0.4400508 -1.035664
2.1105437 -1.5505115 -1.0695537 0.5861779 -0.068145305 0.11017177 -0.5081105 1.2672207
-0.30318132 -0.60603887 -0.31131357 0.070130795 -0.45311219 2.0914278 -0.076495044 1.2451671
-1.3637358 -0.76926607 0.33228952 1.1416528 0.09556167 -2.131404 0.54824644 0.9360735
1.9081922 0.9615412 0.5532089 0.94371057 0.34146914 -0.036131818 1.4979035 -0.77713597
0.78444695 -0.045530625 -0.162888 1.3386378 -0.16280414 -0.25698695 0.05226877 -0.3905531
0.23035519 0.26680827 1.0981535 -1.2467839 -0.9592683 -1.806865 0.011381955 -0.11029202
-1.255781 0.63485026 0.30918384 2.8536866 -1.2144246 -0.21394113 -0.5268425 0.1747892
0.5184405 -0.3785808 -0.22544836 -1.5656636 0.47743145 -1.0616355 1.7796661 -0.548713
0.33892053 0.7781892 0.007546223 -0.5837614 -0.9153054 -0.05262318 1.7875817 1.1515049
0.09723652 1.5960456 -0.6041526 1.4098101 0.118052386 0.7040226 -0.5374417 -0.7361796
0.54710525 1.9050328 0.101510786 0.45101082 0.40040472 -0.99870265 0.15158005 -0.63073504
2.8520985 -0.118797325 0.38489395 0.9762557 -1.3438313 -0.83415174 -0.1312017 -0.09495339
-0.17994495 -1.112129 0.45809117 -0.21843596 0.556023 -0.109296866 1.9977323 0.12848976
0.0273442 0.151261 -0.82922494 2.0247345 0.24367812 0.07526238 -0.2818617 0.07604165
0.40713233 -0.25304702 0.40599078 0.7714887 -0.23134585 -1.1066291 0.07229622 -0.86714077
-1.177903 0.542392 -0.20075329 -0.59603554 0.46059382 1.2337711 0.30921412 0.6057433
0.59941804 -0.30474186 -0.3072624 1.6422282 1.0433007 -1.483582 0.64338326 1.7963812
0.0218704 -1.901566 -0.11202247 0.3648967 -1.3046637 -0.024685932 -1.3055451 -0.22724512
-0.106335126 -1.0938593 -0.28570497 1.7126843 1.271481 1.0138401 -0.7403896 0.25813654
-0.90458393 2.3065853 -0.7947069 1.7491344 -0.081292585 -0.18406874 -1.1813179 0.4321932
1.2781641 -0.7706523 1.7226973 -0.22094056 0.86083937 1.8179014 0.6837215 -0.26037925
1.9137774 1.1445903 1.3850349 -1.1514311 0.1273847 0.8642499 0.84437674 -1.5979087
0.9556185 -1.3938209 0.062141046 -1.0221109 -0.5472919 1.096275 0.123831734 0.3984952
0.020551883 -1.0745434 0.06683642 2.747491 3.3546846 1.7117393 -1.341293 -0.1974935
-0.97741085 0.04887127 -0.8514062 -0.6006427 -0.9225071 0.14228037 -0.49744767 -0.3223821
-1.8642348 0.42926678 0.6146345 0.18303576 0.099005885 -0.54397464 0.765874 -1.3813083
0.2603208 0.6628083 0.7280072 0.5856962 0.23829204 0.02072685 -0.8085951 0.85760975
00000000: 5331 143e f592 46bf f1cf fcbe b2de 733f
00000010: 399b d0be 028c 5abc eb74 e23f 05a0 39c0
00000020: 1551 fc3d 6ca1 5dbf e7f5 08bf 9cda 893f
00000030: ef8e f83e ba84 ca3e 1c5e 3c3f 0411 44bf
00000040: 461c 08bd 6794 f6bf 6a36 2a3f 970b 3bbf
00000050: 4669 ea3e 4419 27bf 182d d43e 60a8 81be
00000060: ea84 1ebd 1c8b 67bf 2f79 adbf ddb3 f23e
00000070: ead8 823f 9983 da3e dc08 b9be 0c0d 02be
00000080: 64bd 0ebf 458d d53f 49d9 1f3f 1e70 bdbe
00000090: 9556 9ebc 5b48 8b3f 574e e13e a390 84bf
000000a0: 2613 0740 2977 c6bf 23e7 88bf c10f 163f
000000b0: c48f 8bbd bda1 e13d 8813 02bf 4a34 a23f
000000c0: 953a 9bbe 5d25 1bbf 7e64 9fbe bca0 8f3d
000000d0: 52fe e7be f4d9 0540 6fa9 9cbd a361 9f3f
000000e0: e58e aebf 9fee 44bf da21 aa3e ae21 923f
000000f0: d6b5 c33d ec68 08c0 e159 0c3f 83a2 6f3f
00000100: a43f f43f 9027 763f 199f 0d3f 0497 713f
00000110: 0bd5 ae3e f5fe 13bd 4dbb bf3f 62f2 46bf
00000120: 84d1 483f 527e 3abd 1dcc 26be 7c58 ab3f
00000130: 21b6 26be cb93 83be c717 563d 93f6 c7be
00000140: 3be2 6b3e 189b 883e 4b90 8c3f 9d96 9fbf
00000150: 9b92 75bf 5a47 e7bf 617b 3a3c c8e0 e1bd
00000160: 6fbd a0bf 8c85 223f 584d 9e3e cda2 3640
00000170: 4472 9bbf 6213 5bbe 26df 06bf f1fb 323e
00000180: 84b8 043f 58d5 c1be efdb 66be aa67 c8bf
00000190: e571 f43e ace3 87bf 19cc e33f 7578 0cbf
000001a0: fe86 ad3e 6837 473f 4e46 f73b 6371 15bf
000001b0: 7451 6abf 678b 57bd 7acf e43f 8364 933f
000001c0: f123 c73d 394b cc3f bfa9 1abf a874 b43f
000001d0: 73c5 f13d d33a 343f c795 09bf 4476 3cbf
000001e0: 170f 0c3f 1dd8 f33f e3e4 cf3d e4ea e63e
000001f0: d901 cd3e faaa 7fbf cd37 1b3e da77 21bf
00000200: c888 3640 034c f3bd d210 c53e e5eb 793f
00000210: aa02 acbf f88a 55bf bd59 06be ec76 c2bd
00000220: 7d43 38be 3e5a 8ebf ed8a ea3e adad 5fbe
00000230: 8657 0e3f 09d7 dfbd b1b5 ff3f d292 033e
00000240: f200 e03c 2ae4 1a3e 1648 54bf 4095 0140
00000250: c286 793e 2a23 9a3d 2d50 90be b9bb 9b3d
00000260: a673 d03e 618f 81be 06de cf3e 4980 453f
00000270: ede5 6cbe 06a6 8dbf 0a10 943d f0fc 5dbf
00000280: 87c5 96bf 34da 0a3f 4592 4dbe c995 18bf
00000290: f4d2 eb3e 36ec 9d3f 5051 9e3e fe11 1b3f
000002a0: 7673 193f 2007 9cbe 7f51 9dbe 8934 d23f
000002b0: e18a 853f 04e6 bdbf c4b4 243f d2ef e53f
000002c0: 8e29 b33c 8466 f3bf 096c e5bd bed3 ba3e
000002d0: 38ff a6bf 273a cabc 1a1c a7bf f2b2 68be
000002e0: 3bc6 d9bd 9503 8cbf ec47 92be 3d39 db3f
000002f0: e4bf a23f 83c5 813f 2c8a 3dbf 792a 843e
00000300: d092 67bf 189f 1340 e971 4bbf a3e3 df3f
00000310: ba7c a6bd 847c 3cbe 6d35 97bf 6d48 dd3e
00000320: e29a a33f 7849 45bf 5881 dc3f 3e3e 62be
00000330: f85f 5c3f feb0 e83f 5f08 2f3f 6e50 85be
00000340: a8f6 f43f ef81 923f d348 b13f 1862 93bf
00000350: 2371 023e 7b3f 5d3f 1329 583f 4688 ccbf
00000360: 6aa3 743f b968 b2bf 9c87 7e3d 88d4 82bf
00000370: 521b 0cbf bd52 8c3f 7e9b fd3d 9007 cc3e
00000380: 6c5c a83c a38a 89bf 88e1 883d e4d6 2f40
00000390: 27b3 5640 461a db3f 7daf abbf bc3b 4abe
000003a0: 9937 7abf 3e2d 483d c2f5 59bf b8c3 19bf
000003b0: 6d29 6cbf f2b1 113e 76b1 febe 440f a5be
000003c0: 3f9f eebf dbc8 db3e b058 1d3f ba6d 3b3e
000003d0: 99c3 ca3d ec41 0bbf 5210 443f b6ce b0bf
000003e0: c548 853e cead 293f ae5e 3a3f 30f0 153f
000003f0: d402 743e 5bcb a93c 1700 4fbf 508c 5b3f

embedding_CNN_distances.weight f4 [7, 8]
1.0404004 -1.1494634 0.19453953 0.3612399 0.93859804 -0.5292952 0.73455805 1.2369359
-0.7165301 0.71525586 -2.8651567 -0.23280498 -1.008224 -2.2094526 -1.0205183 0.06231596
0.25785312 -1.1665109 0.031760905 -0.38254443 1.2307651 0.8873209 1.9165574 0.40563473
-0.118662216 0.37211794 0.5434296 -1.7514902 0.9377046 -0.7729766 0.4181098 -0.5053865
-1.0993065 -0.17276083 0.6208964 1.5490476 0.13573267 -0.71648175 0.22976331 0.3652896
0.09249151 -0.4119507 -0.20451699 1.3381397 0.36630598 -0.9131721 -0.7113527 1.0764449
0.0 0.0 0.0 0.0 0.0 0.0 0.0 0.0
00000000: d72b 853f 9e21 93bf 5f35 473e 70f4 b83e
00000010: f647 703f e47f 07bf ff0b 3c3f ea53 9e3f
00000020: 846e 37bf 021b 373f ba5e 37c0 6e64 6ebe
00000030: 7c0d 81bf ac67 0dc0 58a0 82bf 053f 7f3d
00000040: 5305 843e 3b50 95bf b917 023d dddc c3be
00000050: b689 9d3f 7627 633f c151 f53f 5baf cf3e
00000060: 2d05 f3bd 3e86 be3e 341e 0b3f d530 e0bf
00000070: 690d 703f cbe1 45bf 7d12 d63e 0261 01bf
00000080: 13b6 8cbf 37e8 30be 11f3 1e3f 3147 c63f
00000090: 81fd 0a3e 596b 37bf 1347 6b3e 3d07 bb3e
000000a0: 306c bd3d 34eb d2be e76c 51be 2948 ab3f
000000b0: 758c bb3e a6c5 69bf 361b 36bf f2c8 893f
000000c0: 0000 0000 0000 0000 0000 0000 0000 0000
000000d0: 0000 0000 0000 0000 0000 0000 0000 0000

embedding_CNN_prices.weight f4 [6, 5]
1.8968469 1.3842127 -1.2725329 -1.7263286 -1.0074041 -0.44514823 1.113062 1.9443367
0.34767604 -0.24655041 2.1779487 -0.5588457 -1.605788 -0.7040778 -1.1556087 -1.1989212
1.8416505 -0.32322288 -1.415374 -0.8403731 -0.6170996 0.31521463 0.03852146 -0.7775533
0.92685777 0.0 0.0 0.0 0.0 0.0
00000000: e1cb f23f e22d b13f 5ce2 a2bf 56f8 dcbf
00000010: 9ef2 80bf 78ea e3be d178 8e3f 06e0 f83f
00000020: 9802 b23e b677 7cbe 8363 0b40 8310 0fbf
00000030: 768a cdbf 713e 34bf fcea 93bf 4076 99bf
00000040: 34bb eb3f 787d a5be fa2a b5bf b122 57bf
00000050: 3dfa 1dbf d063 a13e aec8 1d3d bc0d 47bf
00000060: 8d46 6d3f 0000 0000 0000 0000 0000 0000
00000070: 0000 0000 0000 0000
