checkpoints/GNNNoCNN_Epoch20_valmse2.1886_testmse2.2911_ndcg0.9335.model (torch, 249600 bytes, 52 tensors)

Pair_embedding_types.weight f4 [106, 16]
0.036127113 -0.08042038 -0.40672237 -0.87067527 0.8511389 -0.38198492 0.12639174 -1.283641
0.10505137 -0.018103743 -1.2438794 0.54921365 -1.5763857 0.36021698 0.25633973 0.7096456
0.4586013 -1.1733148 1.9309071 -0.42484206 -0.24941319 0.18848048 -0.6213197 0.6686995
-1.0486088 0.041832563 -0.5193608 3.3067207 -0.8071394 -0.54451174 -1.1169904 1.0053076
1.7224914 2.2645285 -1.0434738 0.14263037 0.8903141 -1.2730151 -1.1276044 0.05556601
0.6601006 0.1342049 1.0301572 0.11155772 -0.9369672 0.10015578 1.1597629 -0.08767172
-0.65204453 1.1781484 -0.39272138 -1.174357 -1.6822907 0.858545 -1.9905155 0.020393059
0.017577684 1.0485641 -1.3367434 1.2823861 0.008177619 0.9567751 1.2508848 0.045118507
-0.09792202 0.20714755 0.8359246 -1.6247066 2.1546395 -1.0634366 0.23359242 -1.3628414
-0.29229945 0.1378145 0.185507 0.95438933 0.4023895 -0.18315305 0.25397587 0.17823713
-0.35267067 0.12066545 0.2698623 1.0734216 -0.29851678 -1.1393117 -0.15139754 -0.42261913
0.68785596 1.5240285 -0.6960426 -0.83914155 -0.81842804 0.6134124 0.9107413 1.4683942
-1.3840498 0.25513816 1.8101786 0.1403717 0.735343 0.22736494 -0.8687157 2.1928422
-1.1147342 1.2094232 0.23484592 -0.99122345 -0.4651643 0.23349637 -0.4818358 -0.029196324
0.7253764 1.5486642 0.25897062 -0.36751726 -0.643487 0.19709928 -0.30442026 -0.16599314
1.1104156 -2.5903144 0.2569066 -0.27907693 -0.1682057 -1.5018877 -0.10836396 0.07105602
0.26119435 1.5353099 0.3797503 0.99650306 -0.17772283 1.1225882 -1.2927837 0.6025261
0.21168172 -0.9991828 1.4668432 -0.5492097 -0.023049291 1.2776872 -0.04123973 0.33770308
0.941494 0.056338575 0.43699616 -0.96199197 -0.41122738 0.9218468 0.37575275 -0.5886682
0.60574645 -0.04680283 2.246732 1.4030982 1.4640749 0.1290903 0.39731884 -0.29410565
-0.069710106 -0.13344827 0.13713486 0.2865921 -1.0740712 -0.7708064 1.1851786 1.06593
-1.4286809 0.7082364 -0.23230444 1.3237567 1.3878924 0.06111115 0.30657545 0.42982084
-1.235669 -0.6199625 -0.15589269 0.9414353 -0.22033423 -1.2314556 0.80152476 0.64035726
0.32036445 0.7980583 1.9933238 0.2158195 0.05596681 1.4008179 -0.29164878 0.22902827
0.42783028 -1.54657 0.11748869 -0.30362535 1.7100861 -0.9879522 0.5393824 1.515577
-0.15755956 -1.4562892 -0.7236694 0.60445046 0.89124143 0.19310588 0.120468095 0.35949337
-0.815476 1.665702 -0.32215303 2.1662326 1.2698498 0.38916516 -1.3357922 0.299312
-0.38086635 0.27934662 -0.66097933 0.56005865 -1.3087091 3.3072102 2.0711942 -2.0842483
-0.89368165 -0.02671653 -2.3366933 1.3598671 -1.0545473 -0.35422328 0.4029874 -0.97359836
-0.4391228 -0.6372212 -0.75476414 0.3767131 -1.3920424 -0.9308146 -0.38824588 -1.5324275
-1.113868 0.41482037 -1.5368289 0.05418077 0.3481916 1.4394827 0.90012276 -1.364237
0.95276994 -1.0673903 -0.2624673 -0.32038593 1.6560411 -0.41861928 -1.9769374 0.104586825
00000000: 06fa 133d 71b3 a4bd ea3d d0be 93e4 5ebf
00000010: 3de4 593f 8793 c3be d66c 013e 594e a4bf
00000020: 2c25 d73d 4d4e 94bc 7137 9fbf 4499 0c3f
00000030: 02c7 c9bf 5c6e b83e f63e 833e 56ab 353f
00000040: cacd ea3e 2e2f 96bf f727 f73f e684 d9be
00000050: 2c66 7fbe 0701 413e cf0e 1fbf e42f 2b3f
00000060: d038 86bf 9f58 2b3d d4f4 04bf 50a1 5340
00000070: b0a0 4ebf 1f65 0bbf 8bf9 8ebf ebad 803f
00000080: 997a dc3f 09ee 1040 8d90 85bf b20d 123e
00000090: a0eb 633f 29f2 a2bf 5755 90bf 2f99 633d
000000a0: 5afc 283f 026d 093e 31dc 833f 6078 e43d
000000b0: 15dd 6fbf 791e cd3d 1c73 943f 3b8d b3bd
000000c0: 64ec 26bf 91cd 963f c712 c9be 5551 96bf
000000d0: 4d55 d7bf 9bc9 5b3f 36c9 febf 580f a73c
000000e0: 13ff 8f3c 5937 863f 681a abbf 3a25 a43f
000000f0: 6cfb 053c 37ef 743f fe1c a03f 2fce 383d
00000100: 578b c8bd 7d1e 543e 28ff 553f 63f6 cfbf
00000110: 9de5 0940 b11e 88bf da32 6f3e 9671 aebf
00000120: 46a8 95be 3f1f 0d3e 8cf5 3d3e dc52 743f
00000130: ff05 ce3e 798c 3bbe 2009 823e cb83 363e
00000140: 4091 b4be 731f f73d 642b 8a3e e165 893f
00000150: 31d7 98be f7d4 91bf f507 1bbe 8961 d8be
00000160: 5417 303f 5e13 c33f d92f 32bf fbd1 56bf
00000170: 8084 51bf 9808 1d3f 5826 693f 57f4 bb3f
00000180: 8b28 b1bf 78a1 823e efb3 e73f 99bd 0f3e
00000190: 703f 3c3f 5bd2 683e 2764 5ebf 8757 0c40
000001a0: 9caf 8ebf 61ce 9a3f 737b 703e d2c0 7dbf
000001b0: 042a eebe ac19 6f3e 2fb3 f6be 212d efbc
000001c0: 45b2 393f a13a c63f cc97 843e 392b bcbe
000001d0: 90bb 24bf 65d4 493e f9dc 9bbe 1bfa 29be
000001e0: 1922 8e3f b6c7 25c0 4389 833e 2ce3 8ebe
000001f0: 1d3e 2cbe db3d c0bf eded ddbd d285 913d
00000200: 44bb 853e 0985 c43f a26e c23e d31a 7f3f
00000210: f9fc 35be f8b0 8f3f f079 a5bf 273f 1a3f
00000220: 18c3 583e 72ca 7fbf 85c1 bb3f 0299 0cbf
00000230: ded1 bcbc 418b a33f feea 28bd 6be7 ac3e
00000240: c005 713f 47c3 663d f6bd df3e 1b45 76bf
00000250: 658c d2be 27fe 6b3f aa62 c03e f6b2 16bf
00000260: 3312 1b3f 53b4 3fbd 75ca 0f40 b998 b33f
00000270: ce66 bb3f 3f30 043e 606d cb3e 0495 96be
00000280: 2cc4 8ebd aaa6 08be 156d 0c3e 33bc 923e
00000290: 2a7b 89bf 9153 45bf efb3 973f 6570 883f
000002a0: 04df b6bf fb4e 353f 37e1 6dbe dc70 a93f
000002b0: 75a6 b13f af4f 7a3d 75f7 9c3e 7a11 dc3e
000002c0: 672a 9ebf ddb5 1ebf 55a2 1fbe e701 713f
000002d0: 4c9f 61be 56a0 9dbf ba30 4d3f 74ee 233f
000002e0: cf06 a43e 8c4d 4c3f 3c25 ff3f c9ff 5c3e
000002f0: 743d 653d 004e b33f fd52 95be 6386 6a3e
00000300: 920c db3e 01f6 c5bf e99d f03d c874 9bbe
00000310: 1ae4 da3f 6fea 7cbf f714 0a3f 6dfe c13f
00000320: 4b57 21be af67 babf 6642 39bf 44bd 1a3f
00000330: 6628 643f 8cbd 453e fab7 f63d 840f b83e
00000340: 09c3 50bf b935 d53f 3ef1 a4be 8ea3 0a40
00000350: 708a a23f a840 c73e 3dfb aabf 6c3f 993e
00000360: ea00 c3be 8506 8f3e f135 29bf 0160 0f3f
00000370: c883 a7bf 55a9 5340 728e 0440 5364 05c0
00000380: 52c8 64bf a0dc dabc 628c 15c0 2010 ae3f
00000390: 68fb 86bf c15c b5be 5d54 ce3e be3d 79bf
000003a0: b4d4 e0be ee20 23bf 3938 41bf 8ae0 c03e
000003b0: 722e b2bf de49 6ebf 2ac8 c6be 9626 c4bf
000003c0: 3a93 8ebf 5663 d43e cfb6 c4bf a8ec 5d3d
000003d0: 2b46 b23e f840 b83f 726e 663f 519f aebf
000003e0: bbe8 733f 3fa0 88bf 1d62 86be a009 a4be
000003f0: 28f9 d33f 4455 d6be 490c fdbf 9e31 d63d

embedding_Pair_distances.weight f4 [7, 8]
0.5048503 -0.8308765 0.9361991 2.9200034 0.668621 1.3886893 -0.33843732 0.29272363
2.0064533 2.2308095 0.8255775 -0.10192906 1.4865961 -0.9722017 1.5907649 2.5474758
-0.72872937 -0.91069037 -0.95294917 -0.042322338 -1.4202939 -0.51260924 0.12977062 -1.562042
-0.42644623 0.40617222 -1.8986372 -0.21998501 -2.083305 -1.8759159 -0.9645194 -0.5015792
1.042893 1.1838909 -0.3852204 -2.0036118 -1.2965786 -0.17818727 -0.68420154 -1.1049925
-0.043737426 0.41237333 -0.5345818 0.18438666 -1.416078 -0.7464766 -1.661884 -0.53502727
0.0 0.0 0.0 0.0 0.0 0.0 0.0 0.0
00000000: df3d 013f 53b4 54bf bfaa 6f3f 56e1 3a40
00000010: bf2a 2b3f 92c0 b13f a847 adbe dfdf 953e
00000020: bb69 0040 95c5 0e40 0c59 533f 2fc0 d0bd
00000030: c848 be3f 36e2 78bf 2f9e cb3f d809 2340
00000040: 028e 3abf 0123 69bf 7af4 73bf 305a 2dbd
00000050: 31cc b5bf 5c3a 03bf 97e2 043e fef0 c7bf
00000060: 2957 dabe cef5 cf3e 8b06 f3bf c043 61be
00000070: de54 05c0 031e f0bf beea 76bf 7f67 00bf
00000080: 857d 853f bd89 973f 9c3b c5be 2d3b 00c0
00000090: 4af6 a5bf b976 36be d527 2fbf 6570 8dbf
000000a0: 0426 33bd 9922 d33e 5ada 08bf dbcf 3c3e
000000b0: 0b42 b5bf 1719 3fbf 9db8 d4bf 8cf7 08bf
000000c0: 0000 0000 0000 0000 0000 0000 0000 0000
000000d0: 0000 0000 0000 0000 0000 0000 0000 0000

embedding_Pair_prices.weight f4 [6, 5]
0.058980882 0.4145514 0.36417174 -0.19287398 1.1884109 0.89090186 0.07972295 0.9227329
0.7137381 0.8515485 -0.15502888 -0.6234762 -0.64553314 2.1895332 -0.76620555 -1.2139114
-2.0159266 -0.47641593 0.15576966 1.9951031 -0.010140197 -1.4342697 -0.07123271 0.976596
-0.0845168 0.0 0.0 0.0 0.0 0.0
00000000: f095 713d 1540 d43e b874 ba3e c280 45be
00000010: d91d 983f 2512 643f c945 a33d 3938 6c3f
00000020: 8ab7 363f 15ff 593f e4bf 1ebe 239c 1fbf
00000030: a941 25bf 5021 0c40 0c26 44bf 7361 9bbf
00000040: f104 01c0 caec f3be 1582 1f3e 8a5f ff3f
00000050: 1223 26bc 2696 b7bf 74e2 91bd 3202 7a3f
00000060: 2517 adbd 0000 0000 0000 0000 0000 0000
00000070: 0000 0000 0000 0000

Pair_shop_mlp.fc_layers.0.weight f4 [64, 32]
0.04439586 -0.0298165 0.15669507 0.18154824 -0.20593968 0.04248659 0.056727007 -0.12410756
0.071540624 0.14375566 -0.15597805 0.019081986 -0.14244343 -0.19607371 0.072372824 0.06171624
0.10438915 0.011766741 -0.01256652 0.0683038 0.009413952 0.0905462 0.012381603 0.24042258
-0.131409 0.023911148 0.022668308 0.061956063 0.09971415 0.051287755 -0.08971611 -0.17916237
-0.1825802 0.11007033 -0.07986439 0.1313938 0.083915055 0.19940247 0.2685749 -0.12136338
-0.14854144 -0.05993863 -0.10127247 0.011940071 -0.03890907 -0.0503391 0.030623626 0.22085404
0.051922966 -0.15910308 0.031846106 0.19485077 0.0842502 -0.09028041 0.016232336 0.12097428
-0.10719996 0.07937342 -0.01824523 -0.1718746 0.15549305 -0.07926765 0.19314002 0.05415096
0.05348944 0.05729623 -0.02861399 -0.06481732 0.123745 0.11548188 0.06608558 0.098981164
0.1887058 -0.16127312 -0.116044916 0.12852918 -0.088566564 -0.12515385 -0.037772015 0.12668845
-0.18703224 -0.16231759 0.118582 0.14358476 -0.12946571 0.09539645 0.021198297 -0.03962558
-0.08828838 0.106359854 0.12837943 -0.12732603 0.13554099 -0.10424848 0.10261615 0.056975994
-0.06373577 -0.100605115 -0.014332789 -0.028351124 0.06515397 0.12673554 0.13625924 0.03928364
-0.04522911 0.15329576 -0.11934202 0.09208456 0.12046492 0.097745776 -0.16637245 0.14364715
-0.093398094 0.09927682 -0.18057461 -0.040594295 0.119261384 -0.07324046 -0.0057417895 0.14670736
0.16785954 0.076853074 0.16485009 0.075209916 -0.1828642 -0.02950274 -0.1415683 -0.07456589
0.037507217 0.07493954 0.03477214 0.15435433 0.020325422 -0.17257178 0.049004436 -0.108033285
-0.07488587 -0.10535445 0.052364085 -0.057375282 -0.014133102 -0.1301248 -0.043608267 0.08666336
-0.126252 -0.11363711 -0.023414554 -0.012255039 0.1344334 0.059189495 -0.1430334 0.056101922
-0.17417541 -0.11240455 -0.09238402 -0.08749932 0.025508536 -0.1501088 0.063923806 -0.13339306
0.043828707 0.09925812 -0.07295838 -0.0031772878 0.0006398944 0.07712535 0.15300533 0.07475772
-0.17636321 -0.19337122 -0.008290617 -0.12240053 0.04907957 -0.21145116 -0.12226821 0.02650443
0.004984938 0.17265077 -0.140711 0.1030315 -0.09569395 0.14279747 0.13645318 -0.14268768
0.18231902 0.1952917 0.08493138 -0.069209956 -0.08930719 0.14636204 0.020972516 -0.16612089
0.054465078 -0.16298544 -0.104814924 -0.052637715 0.021499664 -0.14308564 -0.05883088 -0.122261524
-0.042726777 -0.17614377 -0.01611281 -0.11535934 0.11313929 0.05334936 -0.07642553 0.108655885
-0.033757497 0.11657295 -0.071807094 0.11717617 0.028582461 -0.16162081 -0.081027456 -0.05699476
0.18989506 0.017302467 0.10795956 -0.17731369 -0.16442801 -0.054839265 0.11690048 -0.048718307
-0.022651765 -0.034899857 -0.05632264 -0.008178718 0.14495403 0.06552783 0.10140462 0.10723479
-0.10234271 0.040714484 0.04560807 -0.027854571 0.16137175 0.1944024 0.03809925 0.120583564
-0.1670941 0.002815702 -0.05129905 -0.17764162 -0.09663947 0.038843066 -0.16679281 -0.1389971
0.09105319 0.08235056 0.1864185 0.098332234 -0.03021102 0.05370872 -0.031683255 0.07337838
00000000: 6fd8 353d bc41 f4bc ac74 203e c8e7 393e
00000010: dae1 52be 6b06 2e3d 945a 683d 1b2c febd
00000020: e483 923d af34 133e b6b8 1fbe d351 9c3c
00000030: b1dc 11be 8cc7 48be 3438 943d 2bca 7c3d
00000040: fbc9 d53d 4ac9 403c cee3 4dbc dde2 8b3d
00000050: fa3c 1a3c 4970 b93d 35dc 4a3c 5631 763e
00000060: 1590 06be 50e1 c33c e3b2 b93c a4c5 7d3d
00000070: ef36 cc3d 1c13 523d 14bd b7bd 5776 37be
00000080: 4ef6 3abe 8e6c e13d f18f a3bd 198c 063e
00000090: a8db ab3d 2930 4c3e a682 893e 5d8d f8bd
000000a0: 3f1b 18be 3582 75bd f167 cfbd 4aa0 433c
000000b0: 1e5f 1fbd 5f30 4ebd 66de fa3c 9027 623e
000000c0: 2dad 543d ebeb 22be 1071 023d f686 473e
000000d0: 5e8b ac3d f0e4 b8bd adf9 843c 5dc1 f73d
000000e0: a78b dbbd 888e a23d 0577 95bc e5ff 2fbe
000000f0: 9239 1f3e 1457 a2bd 7fc6 453e 66cd 5d3d
00000100: be17 5b3d 74af 6a3d e367 eabc f1be 84bd
00000110: 056e fd3d c481 ec3d e057 873d a3b6 ca3d
00000120: 183c 413e c824 25be f5a8 edbd 279d 033e
00000130: 6362 b5bd 5528 00be d4b6 1abd 9eba 013e
00000140: 6185 3fbe 9536 26be 1fdb f23d e207 133e
00000150: a992 04be 375f c33d 0da8 ad3c 6f4e 22bd
00000160: 8ad0 b4bd 32d3 d93d e675 033e c161 02be
00000170: 42cb 0a3e 3a80 d5bd 6b28 d23d a95f 693d
00000180: e687 82bd 0e0a cebd 13d4 6abc 9e40 e8bc
00000190: 726f 853d f6c6 013e 8b87 0b3e e2e7 203d
000001a0: 2942 39bd 90f9 1c3e 9769 f4bd d496 bc3d
000001b0: 50b6 f63d f02e c83d 8a5d 2abe 3d18 133e
000001c0: 8047 bfbd a551 cb3d 8de8 38be 3446 26bd
000001d0: 503f f43d 18ff 95bd 9f25 bcbb 743a 163e
000001e0: 5fe3 2b3e 2565 9d3d 76ce 283e a807 9a3d
000001f0: c140 3bbe bbaf f1bc 48f7 10be 00b6 98bd
00000200: 2ba1 193d e779 993d 3b6d 0e3d 100f 1e3e
00000210: 8081 a63c a8b6 30be e0b8 483d 8e40 ddbd
00000220: c35d 99bd 13c4 d7bd b97b 563d 5802 6bbd
00000230: 878e 67bc 703f 05be 959e 32bd 8f7c b13d
00000240: 3448 01be 93ba e8bd e1cf bfbc 5cc9 48bc
00000250: e9a8 093e af70 723d 5977 12be 21cb 653d
00000260: 0a5b 32be 5b34 e6bd d533 bdbd d832 b3bd
00000270: 47f7 d03c 1fb6 19be 7cea 823d 3198 08be
00000280: bb85 333d d747 cb3d 346b 95bd 0b3a 50bb
00000290: 96be 273a e5f3 9d3d 6ead 1c3e 931a 993d
000002a0: 8f98 34be 1b03 46be 5ed5 07bc 21ad fabd
000002b0: a907 493d a786 58be c167 fabd d21f d93c
000002c0: b158 a33b 5dcb 303e 8b16 10be 2e02 d33d
000002d0: 31fb c3bd 8039 123e 62ba 0b3e b81c 12be
000002e0: d6b1 3a3e 8cfa 473e 81f0 ad3d f3bd 8dbd
000002f0: b0e6 b6bd eedf 153e 8ece ab3c 981b 2abe
00000300: c616 5f3d a8e5 26be 35a9 d6bd a59a 57bd
00000310: 1020 b03c 0b85 12be a6f8 70bd 4064 fabd
00000320: 4602 2fbd 085f 34be 03ff 83bc 8541 ecbd
00000330: 92b5 e73d dc84 5a3d fd84 9cbd fa86 de3d
00000340: 4d45 0abd ccbd ee3d 990f 93bd 0ffa ef3d
00000350: c425 ea3c ed7f 25be b9f1 a5bd 5673 69bd
00000360: da73 423e e7bd 8d3c e719 dd3d b891 35be
00000370: d15f 28be 239f 60bd 8569 ef3d d98c 47bd
00000380: 3290 b9bc 27f3 0ebd 92b2 66bd 0800 06bc
00000390: d46e 143e 7433 863d 3aad cf3d ea9d db3d
000003a0: 0e99 d1bd 3bc4 263d 87cf 3a3d 452f e4bc
000003b0: a33e 253e 6c11 473e f60d 1c3d 84f4 f63d
000003c0: b71a 2bbe a487 383b f41e 52bd afe7 35be
000003d0: eaea c5bd e819 1f3d bccb 2abe 4155 0ebe
000003e0: 187a ba3d 69a7 a83d 7ee4 3e3e 6962 c93d
000003f0: 1a7d f7bc adfd 5b3d 4dc6 01bd 6747 963d

Pair_shop_mlp.fc_layers.0.bias f4 [64]
0.17786859 -0.025001673 -0.110671714 -0.082414776 -0.09498951 -0.018097462 0.105941646 -0.09169704
-0.11259572 0.0901862 0.09298863 0.16059424 -0.100742765 0.100934386 0.08337366 -0.05079346
-0.109140895 -0.08319752 -0.08306968 0.08081705 0.18597639 0.14233541 -0.09175247 -0.055342525
-0.05436981 -0.08546812 -0.031760115 0.042003408 -0.1652368 0.11376618 0.046566207 0.027457079
0.048649263 0.049469914 -0.030324629 -0.06288719 -0.028768549 0.11662017 -0.07765774 0.10767074
-0.01613435 0.04599668 0.07664596 0.1633448 0.088663794 -0.036472205 0.18661097 -0.053744216
-0.08457013 -0.083005875 -0.013913649 0.05851049 0.1310612 0.08103382 -0.11964128 -0.07267949
0.032281272 -0.14233306 0.03981748 0.17598802 -0.113712095 0.054239392 -0.1537716 -0.053234167
00000000: 2f23 363e 4fd0 ccbc daa7 e2bd 14c9 a8bd
00000010: dc89 c2bd 2141 94bc eff7 d83d a8cb bbbd
00000020: 9698 e6bd 8bb3 b83d d370 be3d d172 243e
00000030: 3952 cebd b0b6 ce3d cfbf aa3d ce0c 50bd
00000040: 4385 dfbd 7663 aabd 7020 aabd 6983 a53d
00000050: 9870 3e3e 60c0 113e b8e8 bbbd d8ae 62bd
00000060: e1b2 5ebd e909 afbd e516 02bd c40b 2c3d
00000070: d633 29be 3efe e83d 35bc 3e3d abed e03c
00000080: 7344 473d f7a0 4a3d 5b6b f8bc 00cb 80bd
00000090: 05ac ebbc 8ed6 ee3d 050b 9fbd 7a82 dc3d
000000a0: 2f2c 84bc 0467 3c3d 8ff8 9c3d dc43 273e
000000b0: 5d95 b53d e163 15bd f216 3f3e e522 5cbd
000000c0: 1b33 adbd fcfe a9bd 13f6 63bc b2a8 6f3d
000000d0: e834 063e 0ff5 a53d 7d06 f5bd fcd8 94bd
000000e0: 5e39 043d c2bf 11be a717 233d 3436 343e
000000f0: e3e1 e8bd 202a 5e3d 4d76 1dbe 120c 5abd

Pair_shop_mlp.fc_layers.1.weight f4 [16, 64]
-0.21660723 -0.035822924 0.0031529495 0.078729056 0.050615713 -0.021657277 0.10543809 -0.08745038
-0.035104647 -0.0019347813 0.0011050066 0.11389374 -0.0880458 -0.082966946 -0.14461938 0.14186755
0.09879954 0.14154238 -0.009716703 -0.021053055 0.15392017 -0.029995864 0.07324374 0.04220151
0.006395493 0.08232639 -0.13564882 0.1685886 0.13115703 0.089773126 -0.08488296 -0.07322984
0.15064803 -0.10720758 0.10999157 0.007450261 0.11424858 0.2036368 0.073354125 0.024383005
0.046150558 0.07095435 0.04491073 -0.06476233 -0.13947609 -0.032150723 0.024674693 0.100679986
0.0036961504 0.039284453 0.16701348 0.060417376 0.08861252 0.074331455 -0.121200174 -0.058206655
0.109977916 -0.103482775 0.19609481 0.0117924735 0.04386205 -0.010383725 0.07326005 0.013220096
0.2017943 -0.015893333 0.011733245 0.11468583 -0.044977352 0.09270282 0.1067036 -0.081828915
0.08354397 0.032757547 0.08148354 0.10033556 0.08083879 0.08267883 -0.0486491 0.12103739
0.015538705 -0.0733162 0.114093006 -0.04786455 -0.020140411 -0.08079548 0.08953188 -0.089871384
0.043957036 0.02189879 -0.062964946 -0.0049598543 -0.04106914 0.10883152 -0.0040505775 0.09378622
-0.040522747 -0.05307769 -0.112220906 0.06792016 0.02964708 -0.06599055 -0.05458879 0.07030178
-0.059495635 0.02553978 0.12900418 0.14664109 -0.032784004 0.012388709 0.12644355 -0.015727976
-0.13157238 -0.010837785 0.0020177315 -0.010280659 -0.0192588 -0.010258303 0.05355736 -0.06632875
-0.010564618 0.117164664 -0.11119136 0.13326362 0.09801122 -0.10732128 -0.055163592 0.08262341
0.18124507 0.062573254 0.07913326 0.0011173156 -0.1123741 0.05484763 -0.008856409 -0.06763757
0.04190645 0.097828664 0.0076652155 -0.03868116 -0.038147837 0.03321203 0.0057547013 -0.06718943
-0.021071453 0.022686036 0.09193836 0.13951589 0.048483487 0.003688962 -0.024715722 0.0749821
-0.011899264 -0.07267831 0.19845161 -0.051814754 -0.008591727 0.15828234 0.17782447 -0.103031844
0.09142772 0.01656948 -0.07162529 -0.03315898 -0.016710814 -0.0985604 0.14541446 0.09667443
0.08756838 -0.024603767 0.014317228 -0.010743306 0.14149341 0.014762938 0.04012006 -0.09860552
-0.123048946 0.086326025 -0.16226865 -0.032448452 -0.12230088 0.12166819 0.041987263 0.09939384
0.020144045 -0.05908052 0.06766018 -0.0065884124 0.06085748 0.09508416 -0.074864306 0.08217034
0.12789223 0.067992195 0.014694707 -0.09621753 0.046301335 -0.01616383 0.11783162 0.13200507
0.13111682 0.18689089 0.14387026 0.012638385 0.041913845 -0.06262274 -0.0039553507 -0.0919889
0.06443108 -0.049178675 0.030429084 0.035271678 -0.049740355 0.11686152 0.13177861 0.108609274
0.16437441 -0.18806137 0.18460141 0.07401672 0.056621358 0.11553668 0.14895889 0.14840935
0.080862254 0.038673576 0.036556084 -0.045145527 -0.104677625 -0.10377191 -0.077532515 0.0027343056
-0.0024467856 0.06907609 0.073285095 0.0034001386 0.055689123 -0.023343798 -0.032192618 0.052774128
-0.19517757 -0.11522765 -0.1824333 0.07466845 -0.105017714 -0.060009964 -0.08296905 0.05933583
0.1014805 -0.053860426 0.0909544 0.1408594 -0.047690533 0.054640144 0.033635784 0.14070821
00000000: 49ce 5dbe 0fbb 12bd b7a1 4e3b b33c a13d
00000010: 6c52 4f3d 9a6a b1bc edef d73d 2f19 b3bd
00000020: e4c9 0fbd 7d98 fdba ded5 903a 1f41 e93d
00000030: 5b51 b4bd 93ea a9bd 1a17 14be ba45 113e
00000040: 6a57 ca3d 7cf0 103e ce32 1fbc 7577 acbc
00000050: 409d 1d3e e3b9 f5bc d000 963d 7edb 2c3d
00000060: 4991 d13b bd9a a83d 86e7 0abe 7da2 2c3e
00000070: 074e 063e f9da b73d 1ed7 adbd 87f9 95bd
00000080: 7a43 1a3e a68f dbbd 4343 e13d 5221 f43b
00000090: 29fb e93d 2a86 503e b03a 963d debe c73c
000000a0: 5e08 3d3d 8450 913d 50f4 373d 1da2 84bd
000000b0: d2d2 0ebe 7ab0 03bd 9522 ca3c 4f31 ce3d
000000c0: 1d3b 723b bce8 203d 9505 2b3e 3678 773d
000000d0: 7b7a b53d 173b 983d cc37 f8bd 1a6a 6ebd
000000e0: 1a3c e13d c7ee d3bd 14cd 483e 3835 413c
000000f0: b1a8 333d 8020 2abc 5d09 963d 1a99 583c
00000100: 2aa3 4e3e bc32 82bc cc3c 403c 68e0 ea3d
00000110: 2c3a 38bd fada bd3d 6b87 da3d eb95 a7bd
00000120: 1a19 ab3d c72c 063d d8e0 a63d bb7c cd3d
00000130: cf8e a53d 8553 a93d 4744 47bd 73e2 f73d
00000140: 0d96 7e3c ce26 96bd 98a9 e93d 9e0d 44bd
00000150: 81fd a4bc 1a78 a5bd 7e5c b73d 7d0e b8bd
00000160: 4b0c 343d 1765 b33c c4f3 80bd 4686 a2bb
00000170: 1d38 28bd 0fe3 de3d b5ba 84bb fd12 c03d
00000180: 2efb 25bd fe67 59bd 13d4 e5bd ba19 8b3d
00000190: 6fde f23c 0e26 87bd 7f98 5fbd 61fa 8f3d
000001a0: b2b1 73bd cd38 d13c ac19 043e 1529 163e
000001b0: 8548 06bd 03fa 4a3c 6b7a 013e f5d7 80bc
000001c0: e9ba 06be f790 31bc eb3b 043b 3670 28bc
000001d0: a2c4 9dbc 7112 28bc f65e 5b3d 5ed7 87bd
000001e0: 3817 2dbc 07f4 ef3d 4cb8 e3bd 4276 083e
000001f0: 1bba c83d 42cb dbbd 38f3 61bd 7636 a93d
00000200: 4f98 393e 6826 803d 9e10 a23d e472 923a
00000210: 6424 e6bd e9a7 603d 791a 11bc 9185 8abd
00000220: 19a6 2b3d 655a c83d 7d2c fb3b 2370 1ebd
00000230: e840 1cbd 5609 083d ef91 bc3b 9d9a 89bd
00000240: 0a9e acbc 11d8 b93c 2e4a bc3d 41dd 0e3e
00000250: 9f96 463d 83c2 713b a078 cabc 3790 993d
00000260: 21f5 42bc 5ed8 94bd e636 4b3e b53b 54bd
00000270: 51c4 0cbc c414 223e 9e17 363e 5c02 d3bd
00000280: 753e bb3d b8bc 873c 48b0 92bd b6d1 07bd
00000290: 1ee5 88bc 09da c9bd 87e7 143e 3efd c53d
000002a0: 0d57 b33d d78d c9bc cf92 6a3c b104 30bc
000002b0: a6e3 103e 40e0 713c ef54 243d b1f1 c9bd
000002c0: 1601 fcbd b3cb b03d c129 26be abe8 04bd
000002d0: e278 fabd 2c2d f93d d6fa 2b3d ff8e cb3d
000002e0: 2005 a53c 6afe 71bd 6c91 8a3d 9ce3 d7bb
000002f0: b145 793d 7cbb c23d 7552 99bd ec48 a83d
00000300: 2ef6 023e 7e3f 8b3d 11c2 703c b20d c5bd
00000310: 78a6 3d3d 026a 84bc b451 f13d 562c 073e
00000320: 7d43 063e 5360 3f3e ba52 133e 3b11 4f3c
00000330: daad 2b3d 5a40 80bd e39b 81bb ad64 bcbd
00000340: 71f4 833d 946f 49bd 6a46 f93c 0979 103d
00000350: 8bbc 4bbd 1855 ef3d f9f0 063e 8a6e de3d
00000360: c451 283e 2993 40be 2708 3d3e 1496 973d
00000370: cceb 673d 7f9e ec3d ae88 183e 9ff8 173e
00000380: 1c9b a53d 2f68 1e3d d5bb 153d 84ea 38bd
00000390: 3961 d6bd 5e86 d4bd 5ec9 9ebd 0932 333b
000003a0: 405a 20bb c477 8d3d 7f16 963d dcd4 5e3b
000003b0: 471a 643d 7e3b bfbc 68dc 03bd af29 583d
000003c0: a1dc 47be 79fc ebbd cccf 3abe c6eb 983d
000003d0: 8713 d7bd 02cd 75bd adeb a9bd 210a 733d
000003e0: 02d5 cf3d c09c 5cbd 4d46 ba3d 723d 103e
000003f0: 2657 43bd 58ce 5f3d adc5 093d d015 103e

Pair_shop_mlp.fc_layers.1.bias f4 [16]
-0.0010156491 0.0056111123 0.13329197 0.03935163 -0.08073323 0.009002123 0.016607868 -0.08397106
0.050054308 -0.08193415 -0.050830793 0.07040128 0.10144194 0.01476804 -0.08721472 0.14008011
00000000: 871f 85ba 6cdd b73b b17d 083e 2d2f 213d
00000010: 7757 a5bd a47d 133c 390d 883c 05f9 abbd
00000020: bf05 4d3d 17cd a7bd f333 50bd 8c2e 903d
00000030: cbc0 cf3d a6f5 713c a29d b2bd 2971 0f3e

Pair_score_mlp.fc_layers.0.weight f4 [64, 32]
-0.13429143 -0.10184764 0.15479378 -0.042170506 -0.07471418 -0.09350864 0.20348337 0.015881857
-0.006445317 -0.10203441 -0.050838437 -0.10217233 -0.13093951 -0.13603537 0.06992236 0.010554664
-0.18738654 -0.09829096 0.26276642 -0.064469285 0.113134496 -0.19356038 0.054013155 0.1251991
-0.15416521 -0.07398323 0.16445851 -0.10169353 0.07791471 -0.059312087 -0.2509064 -0.29130262
-0.18449736 -0.06939618 0.19405226 0.18701683 -0.0858791 0.17632887 0.17152281 -0.115902476
0.12231261 -0.026672093 -0.07582724 0.036800034 0.07293221 -0.046869498 -0.10014518 -0.017564425
-0.07311658 -0.109325565 0.053112384 0.15146758 0.013784541 -0.1251163 0.05952869 -0.11086354
-0.17431629 0.1811014 0.013889141 -0.14049403 -0.04331499 -0.024942184 0.168672 0.065787345
-0.11864806 -0.0011699569 -0.052123647 -0.1018481 0.039281115 -0.012353077 0.0963493 -0.032352496
0.13055468 -0.13680467 0.026963243 0.1736747 0.026926406 -0.043826256 0.089021206 0.0014132165
-0.2702686 0.033825286 0.040261514 0.23358323 0.20950146 0.06975883 0.22367263 0.07373256
0.16428864 -0.07023291 -0.047732178 -0.017249316 -0.14595151 -0.116247065 -0.090961225 0.11689845
-0.16186053 0.12759459 0.218515 0.042480897 0.1733962 -0.14110488 -0.11855829 0.059349116
0.15391617 0.099132866 -0.11899883 0.18157561 -0.08477693 0.06720529 -0.09064717 0.1800429
0.026631983 -0.106903836 0.11351856 0.07518839 0.034182917 0.06618713 0.13729964 -0.051944956
0.14279164 -0.20812258 0.046050016 -0.06926951 0.041986458 0.043345578 0.18245362 0.04495905
-0.19378391 -0.013748553 0.029989632 -0.11178758 0.13587481 -0.03643925 -0.11883773 -0.24541569
0.1448902 -0.06519199 -0.19317368 -0.18050824 -0.041043628 0.016411902 -0.12667446 -0.1536074
0.16165683 0.16925228 -0.10881244 -0.13023718 -0.085360356 0.093561344 0.017484434 -0.008449814
-0.20842151 0.07072697 -0.04146885 0.22440985 -0.034115218 -0.12946303 0.047692638 -0.14147614
-0.116663225 0.038256064 0.13866563 0.07405875 0.09815409 0.13811828 -0.09699871 -0.107811995
-0.094522744 0.021465752 0.17792845 0.06462564 0.0062588076 0.09198334 -0.15820153 -0.063981906
0.1743546 0.16358319 0.08697773 -0.008411245 0.124688834 -0.13264802 0.028712565 0.09324046
0.076110914 0.070843026 0.20991983 -0.18643996 0.16308184 -0.14029634 0.15907793 -0.061010126
-0.124399744 0.20917296 -0.05712055 -0.06534487 -0.14772044 -0.08552494 0.03087612 0.13077849
0.004615779 0.09526894 -0.086559564 0.14804544 -0.04493303 -0.10189216 0.13583237 0.023793906
-0.0016104132 0.13522269 -0.09337024 -0.007583231 -0.050450478 0.07239448 0.18176186 0.17092417
0.07573294 -0.049704496 0.055531148 0.21070667 -0.11605797 0.12051646 0.15083456 -0.14281529
0.013612755 -0.071132824 0.20145479 0.13406008 0.03423207 0.019164834 -0.088712886 -0.09011881
0.18364365 0.23706158 -0.19949459 -0.123665355 0.06432997 -0.05225714 -0.1044767 0.12397725
-0.203418 -0.12811792 0.031596728 -0.019942712 -0.07275894 0.24383874 0.054406784 0.0002855523
0.0023831592 -0.11369576 -0.09224329 -0.12642992 -0.10670466 -0.071512856 0.17492606 0.06913834
00000000: b183 09be 7f95 d0bd 4382 1e3e fbba 2cbd
00000010: bf03 99bd 7581 bfbd f25d 503e ab1a 823c
00000020: 3d33 d3bb 6bf7 d0bd f73b 50bd ba3f d1bd
00000030: 0215 06be db4c 0bbe 7433 8f3d 78ed 2c3c
00000040: 42e2 3fbe c54c c9bd 5289 863e 7908 84bd
00000050: 0fb3 e73d b134 46be e63c 5d3d 3134 003e
00000060: 7cdd 1dbe 8584 97bd d067 283e b344 d0bd
00000070: bf91 9f3d 3bf1 72bd ce76 80be 9e25 95be
00000080: e0ec 3cbe 961f 8ebd a3b5 463e 5781 3f3e
00000090: 62e1 afbd 8e8f 343e ada3 2f3e 475e edbd
000000a0: 097f fa3d 6f7f dabc 504b 9bbd a2bb 163d
000000b0: 7c5d 953d 3bfa 3fbd eb18 cdbd 45e3 8fbc
000000c0: 25be 95bd 15e6 dfbd 5f8c 593d 511a 1b3e
000000d0: 8ed8 613c 7d1e 00be 5bd4 733d 6c0c e3bd
000000e0: f87f 32be a572 393e 488f 633c abdd 0fbe
000000f0: 0f6b 31bd 8d53 ccbc 5ab8 2c3e 84bb 863d
00000100: c1fd f2bd 3d59 99ba 9b7f 55bd bd95 d0bd
00000110: 3ce5 203d 8f64 4abc c852 c53d 0d84 04bd
00000120: 20b0 053e 8616 0cbe 05e2 dc3c c8d7 313e
00000130: c494 dc3c 2983 33bd c050 b63d ad3b b93a
00000140: a560 8abe 628c 0a3d 42e9 243d 7130 6f3e
00000150: 8d87 563e b8dd 8e3d 700a 653e 1901 973d
00000160: 483b 283e 46d6 8fbd d182 43bd 704e 8dbc
00000170: 5074 15be f112 eebd e149 babd 7468 ef3d
00000180: c4be 25be 28a8 023e 65c2 5f3e 7300 2e3d
00000190: c68e 313e cc7d 10be b0ce f2bd 0f18 733d
000001a0: 339c 1d3e 2c06 cb3d a9b5 f3bd f5ee 393e
000001b0: 879f adbd eda2 893d 39a5 b9bd 2a5d 383e
000001c0: 512b da3c 66f0 dabd 6b7c e83d 5ffc 993d
000001d0: 6303 0c3d 1e8d 873d 4798 0c3e 3cc4 54bd
000001e0: f937 123e 161e 55be f19e 3c3d 2cdd 8dbd
000001f0: fef9 2b3d 228b 313d 1fd5 3a3e fb26 383d
00000200: 4a6f 46be 9c41 61bc d1ac f53c e3f0 e4bd
00000210: c422 0b3e 5341 15bd 3261 f3bd 404e 7bbe
00000220: 195e 143e 6183 85bd 52cf 45be 27d7 38be
00000230: 5d1d 28bd 4172 863c f3b6 01be 424b 1dbe
00000240: 5e89 253e 7850 2d3e 0ed9 debd e55c 05be
00000250: 69d1 aebd 179d bf3d 843b 8f3c 1771 0abc
00000260: 736c 55be 4dd9 903d 3edb 29bd b2cb 653e
00000270: 66bc 0bbd f591 04be 5b59 433d 1fdf 10be
00000280: 21ed eebd 64b2 1c3d 5dfe 0d3e 1dac 973d
00000290: 0305 c93d e16e 0d3e 42a7 c6bd 89cc dcbd
000002a0: 2495 c1bd f2d8 af3c e032 363e 735a 843d
000002b0: af16 cd3b c361 bc3d 95ff 21be f208 83bd
000002c0: 038a 323e 5a82 273e 6121 b23d 52cf 09bc
000002d0: dc5c ff3d e2d4 07be 9d36 eb3c dbf4 be3d
000002e0: 0ae0 9b3d 2616 913d 39f5 563e 1eea 3ebe
000002f0: edfe 263e d8a9 0fbe 53e5 223e c1e5 79bd
00000300: 4bc5 febd 7031 563e 3df7 69bd 88d3 85bd
00000310: 0744 17be b327 afbd ebef fc3c ccea 053e
00000320: f63f 973b 5d1c c33d 2446 b1bd 3999 173e
00000330: b20b 38bd d6ac d0bd a417 0b3e 70eb c23c
00000340: 8014 d3ba d177 0a3e e538 bfbd c17c f8bb
00000350: 29a5 4ebd 8f43 943d c81f 3a3e bf06 2f3e
00000360: df19 9b3d f196 4bbd a174 633d 7dc3 573e
00000370: cdaf edbd 55d1 f63d 6074 1a3e 2c3e 12be
00000380: 0808 5f3c 16ae 91bd 2a4a 4e3e 0c47 093e
00000390: ed36 0c3d 92ff 9c3c 1aaf b5bd 3690 b8bd
000003a0: 150d 3c3e 45c0 723e 4f48 4cbe 4344 fdbd
000003b0: 6ebf 833d 950b 56bd e1f7 d5bd c9e7 fd3d
000003c0: cf4c 50be 5831 03be 926b 013d e65e a3bc
000003d0: a402 95bd ddb0 793e a6d9 5e3d 2eb6 9539
000003e0: c72e 1c3b 53d9 e8bd 0dea bcbd d876 01be
000003f0: f987 dabd 5575 92bd d11f 333e 6798 8d3d

Pair_score_mlp.fc_layers.0.bias f4 [64]
0.06158887 -0.04977158 -0.13547406 -0.0997324 0.1735851 0.16273648 -0.10286944 -0.09862202
-0.06839857 -0.082635544 0.15619008 0.01746729 0.044816434 0.10176894 -0.0634982 0.04259078
0.1854386 -0.073221624 0.10354341 0.074989624 -0.076549076 -0.02788031 0.07165964 -0.052284837
0.10635277 -0.043590818 -0.004434005 0.10741838 0.15908876 -0.035815615 -0.07964903 0.15306903
0.08396784 -0.15009706 0.015259624 0.22877878 0.16635936 0.14287324 -0.08029547 -0.042928692
-0.11310308 0.09807458 -0.14720652 -0.122506745 0.00075680943 0.12774089 -0.03671258 -0.09548974
-0.0624292 -0.06973101 0.03606224 -0.072780155 -0.043185297 -0.11906041 -0.06140017 0.13899174
-0.024660205 0.10966276 0.1213802 0.12312716 0.07616103 0.16732454 0.092382595 -0.06678037
00000000: 9c44 7c3d 49dd 4bbd b6b9 0abe 8040 ccbd
00000010: 4bc0 313e 64a4 263e 37ad d2bd 57fa c9bd
00000020: 8d14 8cbd d33c a9bd 4bf0 1f3e 9017 8f3c
00000030: 7091 373d 3c6c d03d 580b 82bd ab73 2e3d
00000040: 9ee3 3d3e 38f5 95bd 910e d43d 2994 993d
00000050: c3c5 9cbd 3f65 e4bc 4ac2 923d a028 56bd
00000060: 7bcf d93d 498c 32bd 214b 91bb 2bfe db3d
00000070: 2ae8 223e 65b3 12bd 081f a3bd 21be 1c3e
00000080: 55f7 ab3d 0bb3 19be 8103 7a3c fc44 6a3e
00000090: 1c5a 2a3e 5d4d 123e f471 a4bd ffd5 2fbd
000000a0: 96a2 e7bd 53db c83d 4ebd 16be d1e4 fabd
000000b0: 9f64 463a 82ce 023e ee5f 16bd 2090 c3bd
000000c0: c3b5 7fbd 22cf 8ebd 00b6 133d c30d 95bd
000000d0: 11e3 30bd f2d5 f3bd bf7e 7bbd da53 0e3e
000000e0: 3304 cabc de96 e03d 2f96 f83d 182a fc3d
000000f0: 50fa 9b3d 2057 2b3e 1633 bd3d 26c4 88bd

Pair_score_mlp.fc_layers.1.weight f4 [8, 64]
0.10775024 0.12553701 0.12797147 0.068244606 0.18661939 0.15330777 0.05233898 0.11655492
0.1347522 0.14125088 -0.107348755 0.035620514 0.031788725 -0.13650982 -0.02293081 -0.0020480475
0.11769724 0.016750453 -0.04052055 0.06095681 0.14024578 -0.022238426 0.09372125 0.022045417
0.101466335 0.14791723 0.15929905 0.033382233 -0.04100452 -0.026510952 0.11923872 0.007879306
0.033044655 0.1127128 0.11635099 0.0052791354 0.17215537 0.040612012 0.076539375 0.096318804
-0.023126537 0.04219326 -0.023609465 0.079047404 -0.17779519 0.10082523 0.14379263 0.10923396
-0.10402766 0.08759735 -0.09530691 0.09386311 0.23518537 0.024224306 0.06783779 -0.08476469
0.045696132 -0.0796989 -0.061711267 0.104442395 -0.0009850226 0.08555258 -0.057161745 0.17069559
-0.10754414 0.11105889 -0.11082171 -0.13511951 -0.10368602 -0.057446204 -0.009453078 -0.07222723
-0.06691013 0.011389404 -0.17144033 0.008571091 -0.17095856 0.1671111 -0.17053907 -0.16416429
-0.0039348505 0.041595608 -0.0513874 0.020967465 -0.13222292 -0.11100385 -0.03819132 0.06711458
-0.06607201 -0.098860234 0.117641576 -0.02773706 -0.0931364 0.061700296 0.1115806 -0.005159088
-0.060324226 -0.1254404 0.05377628 0.10862128 -0.09018925 0.074984625 0.032938927 0.05643114
-0.10116224 -0.034773983 -0.07052545 -0.11290277 0.1907652 0.13019152 -0.07804676 -0.074363686
0.04955009 -0.12213931 0.11362705 -0.10501286 0.006862246 -0.14018247 -0.12984006 0.20707475
0.027848246 -0.10504817 -0.036455262 -0.07153083 0.15866561 0.084058546 0.051587496 0.0492659
0.09216605 0.109471045 0.22381394 0.1656182 0.023201033 0.078440145 0.18474458 0.018670375
0.17785557 0.033754244 0.091483764 -0.010103126 -0.02044536 -0.19786802 0.065876774 0.07259166
0.24828199 0.15439275 0.12797408 0.041025948 0.11385548 -0.042656653 0.115895055 0.06555262
0.05234307 0.050261952 0.117496155 0.21141438 -0.0069562877 0.14541112 0.070657775 0.20816982
0.106436215 0.025846338 0.10887738 -0.028645685 0.1669312 0.010010984 -0.09456932 0.14976528
-0.04537872 0.10283833 0.11369256 0.15923396 -0.0555282 0.13382661 0.09635613 -0.010221382
0.14861974 -0.03206365 0.16322063 -0.013539722 0.06441581 -0.09226646 0.075504154 -0.019598112
-0.04028962 0.02741838 0.09643281 0.22289814 0.10187205 0.013447193 0.10136538 0.26571888
-0.05377829 0.079376034 0.051848844 0.010027013 0.0113377655 -0.09628888 0.014465052 0.020070523
-0.14975107 -0.009635602 0.064812034 0.017572831 -0.024100559 0.0986575 -0.099499576 -0.142111
-0.07136714 -0.09341405 0.0050346907 -0.05310794 -0.07555453 -0.0048433472 0.05761443 0.08077701
0.12145158 0.004976463 -0.05042431 0.119169064 -0.051716212 0.07235518 0.070698075 -0.09217672
-0.042165592 -0.10804664 -0.01742717 -0.018257871 0.13297081 -0.15708126 -0.021523086 0.007188127
-0.008870731 0.07950907 -0.0739227 0.023545876 -0.041061927 -0.11089045 -0.12259055 -0.070020646
0.09968873 -0.14129353 -0.007378456 -0.10171896 0.0435002 -0.08228894 0.004441384 0.15060443
-0.09681337 0.03201592 0.1056017 0.08812251 -0.05040234 -0.11814798 0.04064803 0.0032653
00000000: 28ac dc3d c68c 003e f40a 033e d4c3 8b3d
00000010: 2719 3f3e b6fc 1c3e 6661 563d 59b4 ee3d
00000020: 7bfc 093e 12a4 103e aad9 dbbd d1e6 113d
00000030: e534 023d 3bc9 0bbe 65d9 bbbc 8938 06bb
00000040: 400b f13d 3f38 893c e0f8 25bd d9ad 793d
00000050: 979c 0f3e 5c2d b6bc edf0 bf3d 9798 b43c
00000060: 95cd cf3d 9d77 173e 4a1f 233e cfbb 083d
00000070: 5bf4 27bd 7f2d d9bc 6e33 f43d 3418 013c
00000080: d559 073d f8d5 e63d 6e49 ee3d 99fc ac3b
00000090: 7f49 303e c858 263d adc0 9c3d cb42 c53d
000000a0: dd73 bdbc d7d2 2c3d a368 c1bc 9be3 a13d
000000b0: f10f 36be 757d ce3d 603e 133e 0eb6 df3d
000000c0: 740c d5bd 3d66 b33d 4530 c3bd 4d3b c03d
000000d0: 6fd4 703e 0d72 c63c 8aee 8a3d 1c99 adbd
000000e0: de2b 3b3d 2d39 a3bd f4c4 7cbd e5e5 d53d
000000f0: e01b 81ba 3136 af3d 6f22 6abd d3ca 2e3e
00000100: 1a40 dcbd d872 e33d 7ef6 e2bd c55c 0abe
00000110: 5659 d4bd b64c 6bbd 15e1 1abc dfeb 93bd
00000120: 2e08 89bd 9f9a 3a3c 0e8e 2fbe c36d 0c3c
00000130: c30f 2fbe 2c1f 2b3e cba1 2ebe af1a 28be
00000140: ebef 80bb 2860 2a3d 987b 52bd f6c3 ab3c
00000150: 7265 07be fd55 e3bd 806e 1cbd 5e73 893d
00000160: c350 87bd 3c77 cabd 11ee f03d d538 e3bc
00000170: 4cbe bebd 73b9 7c3d 5f84 e43d 910d a9bb
00000180: 8916 77bd 7373 00be 8444 5c3d d574 de3d
00000190: 24b5 b8bd 8a91 993d f8ea 063d 5724 673d
000001a0: 262e cfbd 2a6f 0ebd a66f 90bd 9139 e7bd
000001b0: f457 433e ed50 053e fbd6 9fbd fd4b 98bd
000001c0: 09f5 4a3d 2d24 fabd 4cb5 e83d fb10 d7bd
000001d0: b1dc e03b fe8b 0fbe cbf4 04be 670b 543e
000001e0: 0122 e43c 7f23 d7bd 1d52 15bd c17e 92bd
000001f0: 3d79 223e e326 ac3d 694d 533d 0acb 493d
00000200: 8ec1 bc3d 5b32 e03d 7b2f 653e d197 293e
00000210: 1810 be3c 3aa5 a03d af2d 3d3e 9df2 983c
00000220: c51f 363e e441 0a3d d75b bb3d 9587 25bc
00000230: 077d a7bc ea9d 4abe 67ea 863d f0aa 943d
00000240: a23d 7e3e 2219 1e3e a30b 033e d30a 283d
00000250: 102d e93d beb8 2ebd 635a ed3d 7440 863d
00000260: b065 563d 7adf 4d3d d3a1 f03d 037d 583e
00000270: 92f1 e3bb a7e6 143e 06b5 903d 782a 553e
00000280: 3bfb d93d b3bb d33c 1bfb de3d 5baa eabc
00000290: 03f0 2a3e 1c05 243c 8fad c1bd 125c 193e
000002a0: 09df 39bd e79c d23d a5d7 e83d 3a0e 233e
000002b0: 8a71 63bd d809 093e 5d56 c53d 9577 27bc
000002c0: c62f 183e 2d55 03bd 4f23 273e b6d5 5dbc
000002d0: 70ec 833d 33f6 bcbd eca1 9a3d 388c a0bc
000002e0: bb06 25bd 839c e03c 917e c53d 693f 643e
000002f0: 4ba2 d03d 9e51 5c3c a798 cf3d 4e0c 883e
00000300: a046 5cbd e78f a23d 745f 543d 5748 243c
00000310: 09c2 393c 1b33 c5bd d3fe 6c3c f06a a43c
00000320: 5858 19be a5de 1dbc 2cbc 843d e6f4 8f3c
00000330: 896e c5bc f20c ca3d 6fc6 cbbd 8c85 11be
00000340: ef28 92bd de4f bfbd 0cfa a43b b687 59bd
00000350: 55bc 9abd f1b4 9ebb 1cfd 6b3d 6b6e a53d
00000360: 9bbb f83d 9911 a33b b989 4ebd e90e f43d
00000370: 61d4 53bd f42e 943d 27ca 903d 26c7 bcbd
00000380: d4b5 2cbd 8f47 ddbd 6dc3 8ebc 8891 95bc
00000390: 8029 083e e9d9 20be 2f51 b0bc 618a eb3b
000003a0: 8b56 11bc a7d5 a23d c964 97bd 48e3 c03c
000003b0: 8d30 28bd 881a e3bd c110 fbbd fc66 8fbd
000003c0: 9b29 cc3d 40af 10be fac6 f1bb 0852 d0bd
000003d0: 442d 323d 1b87 a8bd 0889 913b 0c38 1a3e
000003e0: 1746 c6bd 2023 033d b445 d83d 9379 b43d
000003f0: af72 4ebd 91f7 f1bd 8c7e 263d a5fe 553b

Pair_score_mlp.fc_layers.1.bias f4 [8]
0.003963441 0.098563954 -0.0843289 0.056881834 0.14098728 0.12070789 -0.06021681 -0.059582956
00000000: c1df 813b e6db c93d a1b4 acbd edfc 683d
00000010: f85e 103e b335 f73d e7a5 76bd 420d 74bd

CNN_embedding_types.weight f4 [106, 16]
0.1447194 -0.7756799 -0.49377397 0.9526168 -0.40743425 -0.0133390445 1.769193 -2.9003918
0.12320153 -0.86574435 -0.5350022 1.0769839 0.4854655 0.39554387 0.735811 -0.76588464
-0.03323009 -1.9264039 0.6648928 -0.7306456 0.45783442 -0.6527293 0.41440654 -0.25323772
-0.038700975 -0.9044664 -1.3552607 0.4740285 1.0222447 0.42678526 -0.36139572 -0.1270029
-0.5575774 1.6683737 0.62440926 -0.369996 -0.019328395 1.0881456 0.4400508 -1.035664
2.1105437 -1.5505115 -1.0695537 0.5861779 -0.068145305 0.11017177 -0.5081105 1.2672207
-0.30318132 -0.60603887 -0.31131357 0.070130795 -0.45311219 2.0914278 -0.076495044 1.2451671
-1.3637358 -0.76926607 0.33228952 1.1416528 0.09556167 -2.131404 0.54824644 0.9360735
1.9081922 0.9615412 0.5532089 0.94371057 0.34146914 -0.036131818 1.4979035 -0.77713597
0.78444695 -0.045530625 -0.162888 1.3386378 -0.16280414 -0.25698695 0.05226877 -0.3905531
0.23035519 0.26680827 1.0981535 -1.2467839 -0.9592683 -1.806865 0.011381955 -0.11029202
-1.255781 0.63485026 0.30918384 2.8536866 -1.2144246 -0.21394113 -0.5268425 0.1747892
0.5184405 -0.3785808 -0.22544836 -1.5656636 0.47743145 -1.0616355 1.7796661 -0.548713
0.33892053 0.7781892 0.007546223 -0.5837614 -0.9153054 -0.05262318 1.7875817 1.1515049
0.09723652 1.5960456 -0.6041526 1.4098101 0.118052386 0.7040226 -0.5374417 -0.7361796
0.54710525 1.9050328 0.101510786 0.45101082 0.40040472 -0.99870265 0.15158005 -0.63073504
2.8520985 -0.118797325 0.38489395 0.9762557 -1.3438313 -0.83415174 -0.1312017 -0.09495339
-0.17994495 -1.112129 0.45809117 -0.21843596 0.556023 -0.109296866 1.9977323 0.12848976
0.0273442 0.151261 -0.82922494 2.0247345 0.24367812 0.07526238 -0.2818617 0.07604165
0.40713233 -0.25304702 0.40599078 0.7714887 -0.23134585 -1.1066291 0.07229622 -0.86714077
-1.177903 0.542392 -0.20075329 -0.59603554 0.46059382 1.2337711 0.30921412 0.6057433
0.59941804 -0.30474186 -0.3072624 1.6422282 1.0433007 -1.483582 0.64338326 1.7963812
0.0218704 -1.901566 -0.11202247 0.3648967 -1.3046637 -0.024685932 -1.3055451 -0.22724512
-0.106335126 -1.0938593 -0.28570497 1.7126843 1.271481 1.0138401 -0.7403896 0.25813654
-0.90458393 2.3065853 -0.7947069 1.7491344 -0.081292585 -0.18406874 -1.1813179 0.4321932
1.2781641 -0.7706523 1.7226973 -0.22094056 0.86083937 1.8179014 0.6837215 -0.26037925
1.9137774 1.1445903 1.3850349 -1.1514311 0.1273847 0.8642499 0.84437674 -1.5979087
0.9556185 -1.3938209 0.062141046 -1.0221109 -0.5472919 1.096275 0.123831734 0.3984952
0.020551883 -1.0745434 0.06683642 2.747491 3.3546846 1.7117393 -1.341293 -0.1974935
-0.97741085 0.04887127 -0.8514062 -0.6006427 -0.9225071 0.14228037 -0.49744767 -0.3223821
-1.8642348 0.42926678 0.6146345 0.18303576 0.099005885 -0.54397464 0.765874 -1.3813083
0.2603208 0.6628083 0.7280072 0.5856962 0.23829204 0.02072685 -0.8085951 0.85760975
00000000: 5331 143e f592 46bf f1cf fcbe b2de 733f
00000010: 399b d0be 028c 5abc eb74 e23f 05a0 39c0
00000020: 1551 fc3d 6ca1 5dbf e7f5 08bf 9cda 893f
00000030: ef8e f83e ba84 ca3e 1c5e 3c3f 0411 44bf
00000040: 461c 08bd 6794 f6bf 6a36 2a3f 970b 3bbf
00000050: 4669 ea3e 4419 27bf 182d d43e 60a8 81be
00000060: ea84 1ebd 1c8b 67bf 2f79 adbf ddb3 f23e
00000070: ead8 823f 9983 da3e dc08 b9be 0c0d 02be
00000080: 64bd 0ebf 458d d53f 49d9 1f3f 1e70 bdbe
00000090: 9556 9ebc 5b48 8b3f 574e e13e a390 84bf
000000a0: 2613 0740 2977 c6bf 23e7 88bf c10f 163f
000000b0: c48f 8bbd bda1 e13d 8813 02bf 4a34 a23f
000000c0: 953a 9bbe 5d25 1bbf 7e64 9fbe bca0 8f3d
000000d0: 52fe e7be f4d9 0540 6fa9 9cbd a361 9f3f
000000e0: e58e aebf 9fee 44bf da21 aa3e ae21 923f
000000f0: d6b5 c33d ec68 08c0 e159 0c3f 83a2 6f3f
00000100: a43f f43f 9027 763f 199f 0d3f 0497 713f
00000110: 0bd5 ae3e f5fe 13bd 4dbb bf3f 62f2 46bf
00000120: 84d1 483f 527e 3abd 1dcc 26be 7c58 ab3f
00000130: 21b6 26be cb93 83be c717 563d 93f6 c7be
00000140: 3be2 6b3e 189b 883e 4b90 8c3f 9d96 9fbf
00000150: 9b92 75bf 5a47 e7bf 617b 3a3c c8e0 e1bd
00000160: 6fbd a0bf 8c85 223f 584d 9e3e cda2 3640
00000170: 4472 9bbf 6213 5bbe 26df 06bf f1fb 323e
00000180: 84b8 043f 58d5 c1be efdb 66be aa67 c8bf
00000190: e571 f43e ace3 87bf 19cc e33f 7578 0cbf
000001a0: fe86 ad3e 6837 473f 4e46 f73b 6371 15bf
000001b0: 7451 6abf 678b 57bd 7acf e43f 8364 933f
000001c0: f123 c73d 394b cc3f bfa9 1abf a874 b43f
000001d0: 73c5 f13d d33a 343f c795 09bf 4476 3cbf
000001e0: 170f 0c3f 1dd8 f33f e3e4 cf3d e4ea e63e
000001f0: d901 cd3e faaa 7fbf cd37 1b3e da77 21bf
00000200: c888 3640 034c f3bd d210 c53e e5eb 793f
00000210: aa02 acbf f88a 55bf bd59 06be ec76 c2bd
00000220: 7d43 38be 3e5a 8ebf ed8a ea3e adad 5fbe
00000230: 8657 0e3f 09d7 dfbd b1b5 ff3f d292 033e
00000240: f200 e03c 2ae4 1a3e 1648 54bf 4095 0140
00000250: c286 793e 2a23 9a3d 2d50 90be b9bb 9b3d
00000260: a673 d03e 618f 81be 06de cf3e 4980 453f
00000270: ede5 6cbe 06a6 8dbf 0a10 943d f0fc 5dbf
00000280: 87c5 96bf 34da 0a3f 4592 4dbe c995 18bf
00000290: f4d2 eb3e 36ec 9d3f 5051 9e3e fe11 1b3f
000002a0: 7673 193f 2007 9cbe 7f51 9dbe 8934 d23f
000002b0: e18a 853f 04e6 bdbf c4b4 243f d2ef e53f
000002c0: 8e29 b33c 8466 f3bf 096c e5bd bed3 ba3e
000002d0: 38ff a6bf 273a cabc 1a1c a7bf f2b2 68be
000002e0: 3bc6 d9bd 9503 8cbf ec47 92be 3d39 db3f
000002f0: e4bf a23f 83c5 813f 2c8a 3dbf 792a 843e
00000300: d092 67bf 189f 1340 e971 4bbf a3e3 df3f
00000310: ba7c a6bd 847c 3cbe 6d35 97bf 6d48 dd3e
00000320: e29a a33f 7849 45bf 5881 dc3f 3e3e 62be
00000330: f85f 5c3f feb0 e83f 5f08 2f3f 6e50 85be
00000340: a8f6 f43f ef81 923f d348 b13f 1862 93bf
00000350: 2371 023e 7b3f 5d3f 1329 583f 4688 ccbf
00000360: 6aa3 743f b968 b2bf 9c87 7e3d 88d4 82bf
00000370: 521b 0cbf bd52 8c3f 7e9b fd3d 9007 cc3e
00000380: 6c5c a83c a38a 89bf 88e1 883d e4d6 2f40
00000390: 27b3 5640 461a db3f 7daf abbf bc3b 4abe
000003a0: 9937 7abf 3e2d 483d c2f5 59bf b8c3 19bf
000003b0: 6d29 6cbf f2b1 113e 76b1 febe 440f a5be
000003c0: 3f9f eebf dbc8 db3e b058 1d3f ba6d 3b3e
000003d0: 99c3 ca3d ec41 0bbf 5210 443f b6ce b0bf
000003e0: c548 853e cead 293f ae5e 3a3f 30f0 153f
000003f0: d402 743e 5bcb a93c 1700 4fbf 508c 5b3f

embedding_CNN_distances.weight f4 [7, 8]
1.0404004 -1.1494634 0.19453953 0.3612399 0.93859804 -0.5292952 0.73455805 1.2369359
-0.7165301 0.71525586 -2.8651567 -0.23280498 -1.008224 -2.2094526 -1.0205183 0.06231596
0.25785312 -1.1665109 0.031760905 -0.38254443 1.2307651 0.8873209 1.9165574 0.40563473
-0.118662216 0.37211794 0.5434296 -1.7514902 0.9377046 -0.7729766 0.4181098 -0.5053865
-1.0993065 -0.17276083 0.6208964 1.5490476 0.13573267 -0.71648175 0.22976331 0.3652896
0.09249151 -0.4119507 -0.20451699 1.3381397 0.36630598 -0.9131721 -0.7113527 1.0764449
0.0 0.0 0.0 0.0 0.0 0.0 0.0 0.0
00000000: d72b 853f 9e21 93bf 5f35 473e 70f4 b83e
00000010: f647 703f e47f 07bf ff0b 3c3f ea53 9e3f
00000020: 846e 37bf 021b 373f ba5e 37c0 6e64 6ebe
00000030: 7c0d 81bf ac67 0dc0 58a0 82bf 053f 7f3d
00000040: 5305 843e 3b50 95bf b917 023d dddc c3be
00000050: b689 9d3f 7627 633f c151 f53f 5baf cf3e
00000060: 2d05 f3bd 3e86 be3e 341e 0b3f d530 e0bf
00000070: 690d 703f cbe1 45bf 7d12 d63e 0261 01bf
00000080: 13b6 8cbf 37e8 30be 11f3 1e3f 3147 c63f
00000090: 81fd 0a3e 596b 37bf 1347 6b3e 3d07 bb3e
000000a0: 306c bd3d 34eb d2be e76c 51be 2948 ab3f
000000b0: 758c bb3e a6c5 69bf 361b 36bf f2c8 893f
000000c0: 0000 0000 0000 0000 0000 0000 0000 0000
000000d0: 0000 0000 0000 0000 0000 0000 0000 0000

embedding_CNN_prices.weight f4 [6, 5]
1.8968469 1.3842127 -1.2725329 -1.7263286 -1.0074041 -0.44514823 1.113062 1.9443367
0.34767604 -0.24655041 2.1779487 -0.5588457 -1.605788 -0.7040778 -1.1556087 -1.1989212
1.8416505 -0.32322288 -1.415374 -0.8403731 -0.6170996 0.31521463 0.03852146 -0.7775533
0.92685777 0.0 0.0 0.0 0.0 0.0
00000000: e1cb f23f e22d b13f 5ce2 a2bf 56f8 dcbf
00000010: 9ef2 80bf 78ea e3be d178 8e3f 06e0 f83f
00000020: 9802 b23e b677 7cbe 8363 0b40 8310 0fbf
00000030: 768a cdbf 713e 34bf fcea 93bf 4076 99bf
00000040: 34bb eb3f 787d a5be fa2a b5bf b122 57bf
00000050: 3dfa 1dbf d063 a13e aec8 1d3d bc0d 47bf
00000060: 8d46 6d3f 0000 0000 0000 0000 0000 0000
00000070: 0000 0000 0000 0000
