checkpoints/GNNNoCNN_Epoch34_valmse2.1411_testmse2.2865_ndcg0.9338.model (torch, 249600 bytes, 52 tensors)

Pair_embedding_types.weight f4 [106, 16]
000000 a4 d2 fb 3c 98 eb ad bd f2 a0 cf be c6 b9 5e bf
       0.03074009 -0.084922016 -0.4055248 -0.8700222
000010 20 b1 5b 3f f5 13 c1 be e2 a4 03 3e d4 41 a5 bf
       0.85817146 -0.37710539 0.12855867 -1.2910714
000020 f5 30 e2 3d 5a 62 36 bc db a8 9e bf 85 14 0b 3f
       0.11044494 -0.011131847 -1.2395281 0.54328185
000030 e2 2c ca bf bd db b9 3e 94 61 86 3e e8 4a 36 3f
       -1.5794947 0.3630046 0.2624632 0.7120805
000040 b1 60 ed 3e 65 7a 96 bf 60 17 f7 3f ab 88 d6 be
       0.46362832 -1.1756102 1.9304008 -0.41901144
000050 c9 f8 81 be 62 a8 3f 3e 06 a4 1b bf 35 4b 2c 3f
       -0.2538512 0.18716577 -0.60797155 0.67302257
000060 fd 63 85 bf 00 4c 30 3d ae 62 05 bf 05 c4 53 40
       -1.0421139 0.04304123 -0.521037 3.308839
000070 1f cc 4e bf 74 13 0e bf 98 f8 8e bf fd bd 80 3f
       -0.80780214 -0.55498433 -1.1169615 1.005798
000080 cd 03 dc 3f 29 c0 11 40 4b 9b 84 bf ca 75 14 3e
       1.718866 2.2773535 -1.0359892 0.14498058
000090 7c 8d 62 3f 1a f1 a6 bf 7f e9 90 bf 18 d6 83 3d
       0.8849714 -1.3042328 -1.1321257 0.064373195
0000a0 a1 d5 25 3f 0f 99 04 3e 9a 5b 82 3f c6 d8 df 3d
       0.64779097 0.12949012 1.0184205 0.10930018
0000b0 94 61 73 bf 78 ee c7 3d 3a cf 92 3f 44 fb a0 bd
       -0.9507077 0.09762281 1.146949 -0.07860425
0000c0 43 3b 28 bf ac 7a 97 3f 30 b5 c6 be 0b 6d 95 bf
       -0.65715426 1.1834311 -0.3881011 -1.1673902
0000d0 d5 c4 d6 bf 68 a7 5a 3f 41 bf ff bf f0 43 75 3c
       -1.6778818 0.8541169 -1.9980241 0.014969811
0000e0 2f f1 9b 3c d1 ea 86 3f e2 7e ab bf ad ab a3 3f
       0.019035904 1.054041 -1.3398097 1.2786766
0000f0 27 80 1d 3c 9e 11 77 3f f0 c9 9d 3f e8 83 48 3d
       0.009613073 0.96511257 1.2327251 0.04895392
000100 1e 0b c4 bd 34 34 49 3e 57 02 55 3f 0a 94 d1 bf
       -0.09572433 0.1964882 0.83206695 -1.6373303
000110 0a 38 09 40 6f 79 89 bf f0 14 5f 3e aa 1a ad bf
       2.1440454 -1.0740184 0.21785331 -1.3523762
000120 77 34 9b be f2 88 0e 3e b6 1f 36 3e f7 b9 72 3f
       -0.30313465 0.13919428 0.17785534 0.9481501
000130 a7 57 c8 3e e3 ef 2c be c6 b7 77 3e f8 17 40 3e
       0.39129373 -0.16888385 0.24191198 0.18759143
000140 da 84 ab be e9 19 14 3e 9f af 90 3e f7 5f 88 3f
       -0.33499795 0.14463009 0.28258988 1.0654286
000150 0c f3 a3 be b3 c9 93 bf 4c f1 26 be 24 31 d6 be
       -0.32021368 -1.1545929 -0.16302985 -0.41834366
000160 79 50 2c 3f 57 d6 c4 3f 6e e4 35 bf bf cf 52 bf
       0.6731029 1.5377911 -0.7105168 -0.82348245
000170 44 1b 56 bf e4 fc 1e 3f fb 0f 66 3f c9 d3 bc 3f
       -0.83635354 0.6210463 0.89868134 1.4752132
000180 bd 1d b1 bf ee 42 73 3e 3d 3c e7 3f 7b 1d 10 3e
       -1.38372 0.23756 1.8065258 0.14073746
000190 b5 de 3a 3f 41 d8 63 3e d3 76 60 bf 69 0b 0c 40
       0.72996074 0.22250463 -0.8768131 2.1881964
0001a0 65 52 8e bf 15 13 9b 3f 2b 59 69 3e b5 dd 7c bf
       -1.1118895 1.2115198 0.22787921 -0.987758
0001b0 af 7a ef be 67 ab 70 3e 61 4f f4 be 28 36 cc bc
       -0.46773288 0.23502885 -0.4771681 -0.024928167
0001c0 fb 97 39 3f f1 e1 c5 3f 91 3b 82 3e e1 28 bf be
       0.7249753 1.5459577 0.2543607 -0.37335876
0001d0 ba f9 25 bf 22 60 4a 3e 8e a5 9a be 9e 82 2c be
       -0.6483418 0.19763234 -0.30204433 -0.16846702
0001e0 9c 53 8e 3f f3 4a 26 c0 33 07 84 3e 76 3a 8c be
       1.1119266 -2.5983245 0.25786743 -0.27388352
0001f0 0e 05 2b be 32 5d c0 bf 81 be d9 bd 64 c1 90 3d
       -0.16701147 -1.5028441 -0.10632039 0.07068136
000200 49 e4 8a 3e 84 64 c5 3f d5 60 bf 3e 7e 3b 7b 3f
       0.27127293 1.54213 0.37378564 0.9813765
000210 82 f4 44 be a5 11 90 3f fa 72 a4 bf 78 51 1b 3f
       -0.19233897 1.1255385 -1.2847588 0.60671186
000220 5a 0c 5b 3e 72 4d 80 bf 7a 8a bb 3f 99 40 0b bf
       0.2139143 -1.0023634 1.4651635 -0.54395443
000230 7d 0f c8 bc 68 d2 a3 3f bb ed 2f bd c3 dc ac 3e
       -0.024421448 1.2798586 -0.042951327 0.33762178
000240 12 f4 71 3f 9c c3 83 3d 9d 24 df 3e 02 19 79 bf
       0.94513047 0.06433794 0.4358262 -0.97303784
000250 4a 8b d0 be 3e eb 6d 3f 49 2d c1 3e 70 71 18 bf
       -0.4073127 0.92937076 0.37729862 -0.5954809
000260 21 9a 1c 3f d0 6f 37 bd 87 1e 10 40 ce 5f b6 3f
       0.6117268 -0.044784367 2.2518632 1.4247987
000270 99 ec bb 3f be 15 07 3e 9e 5e cf 3e ef a6 97 be
       1.4681579 0.13191888 0.40501875 -0.29619548
000280 88 01 7d bd 60 83 04 be a3 96 11 3e 18 e1 8e 3e
       -0.06176904 -0.1294074 0.1421762 0.27906108
000290 64 1c 89 bf 88 34 45 bf 1d d6 97 3f 31 56 88 3f
       -1.0711789 -0.7703328 1.1862217 1.0651304
0002a0 04 14 b8 bf 88 2b 36 3f 6b bd 65 be 53 62 aa 3f
       -1.4381108 0.71160173 -0.22435538 1.3311256
0002b0 2f 7c b2 3f 49 5f 5f 3d cc 59 9d 3e be 1e d8 3e
       1.3944148 0.05453423 0.30732572 0.42210954
0002c0 2e 90 9d bf 86 84 1d bf ee 40 1a be b4 84 6f 3f
       -1.2309625 -0.6153034 -0.15063831 0.93561864
0002d0 49 6f 66 be 1f 36 9e bf f3 44 4c 3f 18 0a 24 3f
       -0.2250339 -1.2360266 0.7979271 0.640779
0002e0 e9 91 a4 3e c3 99 4d 3f bc c3 fe 3f 85 e9 5e 3e
       0.3214257 0.80312747 1.9903483 0.21768768
0002f0 61 c3 56 3d 5f 30 b4 3f 7d f2 92 be 3d f7 6d 3e
       0.05243242 1.4077262 -0.2870063 0.23238845
000300 0d 1f e1 3e be 40 c7 bf 8d a3 f3 3d 81 06 a2 be
       0.43969002 -1.5566633 0.11896429 -0.31645587
000310 98 03 da 3f 06 8f 80 bf dc e1 07 3f f4 64 c2 3f
       1.7032347 -1.0043647 0.5307901 1.5187058
000320 2a 83 26 be cb b5 bb bf fb d1 3a bf a8 76 1b 3f
       -0.16260973 -1.4664854 -0.72976655 0.6072793
000330 3c 41 64 3f b7 56 48 3e c2 76 da 3d d0 07 ba 3e
       0.8916204 0.19564329 0.106671825 0.36334085
000340 a5 54 4f bf a7 e7 d5 3f ea ed ab be 45 10 0b 40
       -0.8098853 1.671132 -0.33579952 2.172868
000350 91 01 a3 3f af a1 c6 3e d6 be aa bf 4c 97 97 3e
       1.2734853 0.3879523 -1.3339489 0.29607618
000360 74 e6 c4 be f6 2a 8b 3e 41 c0 28 bf 27 2d 0f 3f
       -0.38457072 0.27181214 -0.65918356 0.5592827
000370 f0 28 a7 bf 9c 58 53 40 b0 d5 03 40 c5 16 05 c0
       -1.3059368 3.3022833 2.0599174 -2.0795147
000380 f7 c1 65 bf f8 64 39 bd 37 85 15 c0 e2 76 ae 3f
       -0.8974909 -0.045262307 -2.3362558 1.363003
000390 d6 b0 86 bf ae cc b3 be 19 61 cd 3e ff 2c 7a bf
       -1.0522716 -0.35117096 0.40113142 -0.9772491
0003a0 32 5c e1 be 28 e6 21 bf e1 d0 40 bf 1a 63 c0 3e
       -0.44015652 -0.63241816 -0.75318724 0.37575608
0003b0 9d fd af bf 80 12 6d bf 9f dd c6 be 08 ad c4 bf
       -1.3749272 -0.92606354 -0.38840958 -1.5365305
0003c0 fb 89 8d bf b1 7a db 3e 51 38 c5 bf 20 19 3a 3d
       -1.1057733 0.42867044 -1.5407811 0.045434117
0003d0 dc 18 b0 3e 4b b6 b7 3f c6 8d 66 3f 57 ae ad bf
       0.34393966 1.4352506 0.9006008 -1.3568829
0003e0 e4 55 72 3f 43 42 8a bf 1e 7c 8d be 70 5e a1 be
       0.9466231 -1.0801471 -0.27633756 -0.31517363
0003f0 e2 3f d3 3f a0 60 d9 be e7 6b ff bf e4 00 eb 3d
       1.650387 -0.42456532 -1.9954804 0.11474779

embedding_Pair_distances.weight f4 [7, 8]
000000 0d 75 00 3f c6 05 56 bf 18 99 6f 3f 25 87 3c 40
       0.50178605 -0.8360256 0.9359298 2.9457486
000010 b9 f0 29 3f b0 28 b3 3f 75 5a ad be b0 c6 95 3e
       0.6638294 1.3996792 -0.33858076 0.2925315
000020 72 8d 00 40 f5 ba 0e 40 e0 a1 53 3f 17 94 d5 bd
       2.0086331 2.230161 0.82668877 -0.104286365
000030 4e 1b be 3f b6 86 77 bf d8 a1 cb 3f 8a fe 22 40
       1.4852083 -0.9668993 1.5908766 2.5467858
000040 6b 54 38 bf 4d f0 65 bf 44 ca 75 bf 00 f0 6d bd
       -0.7200381 -0.89819795 -0.9601176 -0.05809021
000050 d2 b7 b5 bf 81 3b 04 bf 3e 3d 00 3e 73 4d c8 bf
       -1.4196723 -0.51653296 0.12523362 -1.5648636
000060 0b 5e d7 be bf 72 cb 3e 69 fb f2 bf 6b 1f 5c be
       -0.42063937 0.39735982 -1.8982974 -0.2149636
000070 db 67 05 c0 40 50 f0 bf 49 73 77 bf 99 45 fe be
       -2.0844638 -1.877449 -0.96660286 -0.49662474
000080 30 ff 84 3f 4c e2 97 3f 7f c7 c7 be 26 52 01 c0
       1.0390377 1.1865935 -0.3901939 -2.020639
000090 49 5f a6 bf 77 34 35 be a5 ee 2d bf 94 25 8e bf
       -1.2997829 -0.17695795 -0.6794227 -1.1105218
0000a0 b5 be 4f bd 12 a1 d5 3e ab d5 08 bf 6e 3f 3c 3e
       -0.05071898 0.4172445 -0.5345103 0.18383572
0000b0 cc 03 b5 bf 3d 4f 44 bf cf d4 d4 bf 55 01 0a bf
       -1.4141784 -0.7668341 -1.6627444 -0.5390828
0000c0 00 00 00 00 00 00 00 00 00 00 00 00 00 00 00 00
       0.0 0.0 0.0 0.0
0000d0 00 00 00 00 00 00 00 00 00 00 00 00 00 00 00 00
       0.0 0.0 0.0 0.0

embedding_Pair_prices.weight f4 [6, 5]
000000 33 a0 a5 3d 7d 93 e0 3e fe 70 c7 3e f1 e7 67 be
       0.08087196 0.43862525 0.38953394 -0.22647072
000010 dd 11 9a 3f dd 18 60 3f 77 e9 78 3d 82 e0 68 3f
       1.2036701 0.8753794 0.060769524 0.9096757
000020 7e 4a 38 3f b4 60 55 3f 6f 66 1c be 51 d5 1e bf
       0.71988666 0.8335068 -0.1527345 -0.62044245
000030 fc 4a 25 bf 15 73 0c 40 68 2e 45 bf cb e0 9c bf
       -0.6456754 2.194524 -0.77023935 -1.2256101
000040 e8 9d 01 c0 62 c9 f7 be 4c b5 2c 3e 35 97 ff 3f
       -2.0252628 -0.4839583 0.16866034 1.996802
000050 59 ec e5 bc b9 ba b9 bf 8f ac af bd e0 6d 7d 3f
       -0.0280668 -1.4510108 -0.08577835 0.9899578
000060 21 11 b6 bd 00 00 00 00 00 00 00 00 00 00 00 00
       -0.08889986 0.0 0.0 0.0
000070 00 00 00 00 00 00 00 00
       0.0 0.0

Pair_shop_mlp.fc_layers.0.weight f4 [64, 32]
000000 a3 3a 13 3d 3c 15 1a bd 21 ad 22 3e 9c 36 3d 3e
       0.035944592 -0.037617907 0.15886356 0.18477863
000010 91 e4 62 be 05 fc 39 3d 5c 0f 87 3d c7 2e 00 be
       -0.22157504 0.04540636 0.065947264 -0.12517844
000020 49 03 9b 3d 12 17 1a 3e c4 35 1f be 15 17 b6 3c
       0.07568986 0.15047863 -0.15547854 0.022227803
000030 17 82 0d be 51 3a 4a be 87 fc 94 3d 75 b1 82 3d
       -0.13819157 -0.19748808 0.07274728 0.063815035
000040 5e 6f d9 3d 7e 96 43 3c 11 18 0c bc c3 d0 92 3d
       0.10616945 0.011937736 -0.00855066 0.071687244
000050 bb 11 51 3c 38 41 be 3d 3f c5 64 3c d5 d7 77 3e
       0.012760575 0.09289783 0.013963043 0.24203427
000060 24 f1 06 be 9a 1b ab 3c ad 00 80 3c ee f0 9b 3d
       -0.13177925 0.020887185 0.015625322 0.07614313
000070 1c e1 c0 3d fd 56 56 3d 49 62 ba bd 68 56 42 be
       0.09417936 0.052329052 -0.09100778 -0.18978274
000080 2c f7 3d be 2c fe d1 3d f6 5b a3 bd e9 a9 0a 3e
       -0.1855132 0.102535576 -0.079765245 0.13541378
000090 9f d7 ac 3d 2e 65 62 3e 69 11 90 3e af ea 01 be
       0.08439564 0.2210891 0.28138283 -0.12687181
0000a0 88 53 13 be 9e 92 88 bd 3a fc cd bd 18 03 36 3c
       -0.14387333 -0.0666859 -0.10057874 0.011109136
0000b0 a3 0b 05 bd fb 88 30 bd b0 9c df 3c dd d6 6a 3e
       -0.0324818 -0.043099385 0.027296394 0.22933526
0000c0 64 34 3d 3d c5 fd 29 be f7 13 ca 3c 10 6a 4a 3e
       0.04619254 -0.16600712 0.024667723 0.19767022
0000d0 80 f8 91 3d b5 d8 ba bd 34 06 12 38 c1 81 e5 3d
       0.07127476 -0.09123365 3.481489e-05 0.11206389
0000e0 af 98 d2 bd c9 bf aa 3d dc e6 70 bc 2e 47 27 be
       -0.10283028 0.08337361 -0.014703479 -0.16335747
0000f0 7a af 23 3e 83 e2 a2 bd 57 8f 48 3e 62 b3 50 3d
       0.15984908 -0.0795336 0.1958593 0.050952323
000100 88 f6 69 3d 2f e2 57 3d d9 03 af bc 58 2d 82 bd
       0.057119876 0.05270594 -0.02136414 -0.06356305
000110 ba 6e fd 3d d6 cc 04 3e df 1a 85 3d 2c e1 d9 3d
       0.12374635 0.12968764 0.06499266 0.10638651
000120 bf c6 4d 3e ef 18 36 be d5 ae e5 bd 69 14 01 3e
       0.20095347 -0.17782949 -0.11214987 0.12605442
000130 bd fd ad bd 93 b7 08 be e6 73 36 bd f8 b9 fc 3d
       -0.08495662 -0.13351278 -0.044544123 0.12340158
000140 65 bb 2f be b3 7f 24 be 60 30 06 3e bb 9c 1a 3e
       -0.17161329 -0.16064338 0.13104391 0.1509885
000150 5d c4 f2 bd b1 94 d6 3d 64 6f 6d 3c 4f 75 ce bc
       -0.118538596 0.104775794 0.01449189 -0.025202421
000160 cc 9b b1 bd ab a1 d7 3d c7 8f ea 3d e4 11 f9 bd
       -0.08672294 0.105288826 0.114532046 -0.121616155
000170 7d 1c 05 3e 72 4a ea bd 2f 80 e0 3d aa ea 48 3d
       0.12999149 -0.114399806 0.10961949 0.049051918
000180 1a 3b 9f bd 5f 73 d6 bd b3 59 e8 bc 40 7d f4 bc
       -0.077749446 -0.10471224 -0.028363084 -0.02984488
000190 b8 ea 8b 3d 7e 2c 04 3e 23 12 1a 3e db 9e b7 3c
       0.068318784 0.12907597 0.15045981 0.022414615
0001a0 a8 18 17 bd 2a 69 35 3e d1 d0 0d be ac 6a cd 3d
       -0.03688875 0.17715898 -0.13849188 0.10030112
0001b0 8e 17 e9 3d 6b 51 de 3d a1 47 38 be dd 6f 22 3e
       0.11381446 0.10855373 -0.17996074 0.15862985
0001c0 28 d1 b7 bd d5 23 de 3d b8 e6 38 be 00 3a 54 bd
       -0.0897544 0.10846678 -0.18056762 -0.051813126
0001d0 44 e5 f6 3d a8 5e 9f bd b0 f1 d2 ba c4 62 19 3e
       0.12055448 -0.07781726 -0.0016093757 0.14979082
0001e0 ed a8 28 3e 05 c2 98 3d 2f 4f 27 3e af 8d 9d 3d
       0.1647069 0.07458881 0.163388 0.076930396
0001f0 27 87 45 be 01 26 d0 bc 60 44 1a be c9 88 ae bd
       -0.19289838 -0.025408747 -0.15065145 -0.085221834
000200 2b a1 19 3d e7 79 99 3d 3b 6d 0e 3d 10 0f 1e 3e
       0.037507217 0.07493954 0.03477214 0.15435433
000210 80 81 a6 3c a8 b6 30 be e0 b8 48 3d 8e 40 dd bd
       0.020325422 -0.17257178 0.049004436 -0.108033285
000220 c3 5d 99 bd 13 c4 d7 bd b9 7b 56 3d 58 02 6b bd
       -0.07488587 -0.10535445 0.052364085 -0.057375282
000230 87 8e 67 bc 70 3f 05 be 95 9e 32 bd 8f 7c b1 3d
       -0.014133102 -0.1301248 -0.043608267 0.08666336
000240 34 48 01 be 93 ba e8 bd e1 cf bf bc 5c c9 48 bc
       -0.126252 -0.11363711 -0.023414554 -0.012255039
000250 e9 a8 09 3e af 70 72 3d 59 77 12 be 21 cb 65 3d
       0.1344334 0.059189495 -0.1430334 0.056101922
000260 0a 5b 32 be 5b 34 e6 bd d5 33 bd bd d8 32 b3 bd
       -0.17417541 -0.11240455 -0.09238402 -0.08749932
000270 47 f7 d0 3c 1f b6 19 be 7c ea 82 3d 31 98 08 be
       0.025508536 -0.1501088 0.063923806 -0.13339306
000280 95 61 26 3d 2e f6 c1 3d d7 b9 8f bd 8f 91 80 bb
       0.040620405 0.09470783 -0.07017868 -0.003923602
000290 19 ff ae bb 43 0b b0 3d 66 d1 22 3e 35 a5 a5 3d
       -0.0053404686 0.08595898 0.15900192 0.08088151
0002a0 d7 6f 38 be c0 4a 47 be 5a ac 8b bb d0 d7 f6 bd
       -0.18011414 -0.19462109 -0.0042624893 -0.12052882
0002b0 67 42 4e 3d 84 8c 56 be a2 2c fb bd bb bc d7 3c
       0.050356295 -0.2095204 -0.122643724 0.02633511
0002c0 39 36 78 3b fe fc 2d 3e c1 c9 0e be e4 86 da 3d
       0.0037874116 0.1699104 -0.1394415 0.106702596
0002d0 ce 89 c3 bd 61 c1 14 3e b7 3f 08 3e e8 a8 12 be
       -0.095477685 0.14526893 0.13305555 -0.14322245
0002e0 7b 08 3a 3e 76 b7 45 3e 22 dc a2 3d 1a 23 7a bd
       0.18167298 0.19308266 0.07952143 -0.06106863
0002f0 f7 07 bd bd 40 eb 11 3e d7 4f bd 3c 53 d7 32 be
       -0.09230035 0.14249897 0.02310936 -0.17464952
000300 3b 78 72 3d 9c 3c 2d be dc 8d d5 bd 00 1d 3f bd
       0.059196692 -0.16917652 -0.10427448 -0.046658516
000310 ff cf ae 3c 63 3c 1e be f1 d8 82 bd b4 e1 05 be
       0.021339415 -0.15452723 -0.063890345 -0.1307438
000320 60 bc 0a bd 66 6a 39 be 05 56 e4 bc 28 51 f9 bd
       -0.033871055 -0.18106994 -0.027873049 -0.121736825
000330 e4 d2 c7 3d 0c 0f 2d 3d 20 a4 88 bd 0d 34 d9 3d
       0.09757021 0.042250678 -0.06671929 0.10605631
000340 c7 61 f9 bc 47 ca ed 3d 83 c5 84 bd 7b 15 f9 3d
       -0.030442132 0.11610847 -0.06482985 0.121623
000350 45 6c 0b 3d b3 8a 1d be 56 91 a6 bd 7d 64 55 bd
       0.0340388 -0.15384941 -0.081331894 -0.052097786
000360 6c 9d 40 3e 80 a4 8b 3c c5 ca d8 3d 2f e4 3c be
       0.18810052 0.017046213 0.1058555 -0.1844642
000370 eb d2 30 be 1b b3 51 bd 27 18 e0 3d b1 7a 3f bd
       -0.17267959 -0.0511962 0.10942107 -0.046747867
000380 7c 7e 5a bc f5 5f 21 bd 22 45 75 bd 09 34 c4 bb
       -0.01333582 -0.039398152 -0.059880383 -0.0059876484
000390 0a e9 1a 3e c2 fe 66 3d dd 7c c0 3d 77 f6 dc 3d
       0.1512796 0.0563953 0.09398816 0.10789197
0003a0 a9 e0 cb bd 80 5c 12 3d e7 82 48 3d db 22 f2 bc
       -0.0995496 0.035732746 0.048952963 -0.029557636
0003b0 2f f6 26 3e 46 99 46 3e 96 70 19 3d 80 a4 f4 3d
       0.16304849 0.19394407 0.037460886 0.119454384
0003c0 dc d4 2a be 27 7a f1 3a 2c 32 55 bd 6d ce 38 be
       -0.16682762 0.0018423245 -0.0520498 -0.18047495
0003d0 00 ed c4 bd eb 2a 20 3d f4 54 26 be 28 99 0f be
       -0.09615517 0.03910343 -0.16243345 -0.14023268
0003e0 99 4d ba 3d ed 95 a9 3d 3c d3 4d 3e 38 f1 ce 3d
       0.09096832 0.08280549 0.20100111 0.101046026
0003f0 8b fb 6f bc c5 f1 51 3d 5f 8b f1 bc e5 e2 98 3d
       -0.014647375 0.05125596 -0.029485403 0.07465152

Pair_shop_mlp.fc_layers.0.bias f4 [64]
000000 16 2b 38 3e 97 b2 a3 bc e7 2f e1 bd 3e a4 ad bd
       0.17985186 -0.01998262 -0.10995465 -0.08478592
000010 dc 89 c2 bd 94 d1 94 bc 50 b5 d3 3d 84 54 bc bd
       -0.09498951 -0.01816634 0.10337317 -0.091958076
000020 28 5f e6 bd d1 34 b6 3d 7b a8 bf 3d c9 34 23 3e
       -0.11248618 0.08896793 0.09358307 0.15938105
000030 2a a7 cd bd b5 99 ce 3d 26 22 ad 3d 08 6e 51 bd
       -0.1004165 0.10087911 0.08453779 -0.051130325
000040 0c d3 de bd 0b 84 ac bd 0d 84 a6 bd 39 14 a5 3d
       -0.10880098 -0.08423623 -0.081306554 0.08060498
000050 ad 41 3d 3e f7 87 12 3e 4a 74 c0 bd d8 ae 62 bd
       0.18482085 0.14309679 -0.093971804 -0.055342525
000060 05 85 5b bd 0d 03 b3 bd 40 ba cc bc c2 70 1c 3d
       -0.053593654 -0.08740816 -0.024991155 0.03819347
000070 4d 13 2a be 0e 5f eb 3d 0c d7 4b 3d 09 f9 e5 3c
       -0.16608925 0.114927396 0.04976563 0.02807285
000080 f8 e1 4a 3d 1f a2 49 3d 83 a4 07 bd c1 3a 7e bd
       0.049531907 0.049226876 -0.033115875 -0.06206775
000090 f5 fc c9 bc 68 c9 e4 3d 7a 25 a1 bd e9 35 dc 3d
       -0.024656752 0.11171228 -0.07868476 0.1075247
0000a0 55 a7 b9 bc 4a 2b 37 3d 7e a9 9c 3d 57 46 26 3e
       -0.022662798 0.044719018 0.076495156 0.1623777
0000b0 19 34 b6 3d 96 f0 1c bd ba 71 3e 3e 47 df 5e bd
       0.088966556 -0.038315378 0.1859807 -0.054412153
0000c0 53 66 ab bd 55 fe ac bd 67 0c 6c bc 5e a4 80 3d
       -0.08369126 -0.084469475 -0.014407254 0.062813506
0000d0 2b b5 05 3e f2 5f a2 3d b3 29 f3 bd 37 a5 93 bd
       0.13057391 0.07928456 -0.11873188 -0.072092466
0000e0 a2 5c f2 3c f4 21 12 be 4c c6 1c 3d bb 6a 35 3e
       0.029585186 -0.14270765 0.038275048 0.17716496
0000f0 c8 24 e8 bd 07 61 6f 3d 9d 46 16 be 2e 43 5c bd
       -0.113351405 0.05844214 -0.14675374 -0.053775005

Pair_shop_mlp.fc_layers.1.weight f4 [16, 64]
000000 46 0b 77 be 1d 04 12 bd d1 89 2c 3b e8 33 a2 3d
       -0.24125394 -0.035648454 0.0026327262 0.079200566
000010 6c 52 4f 3d 1f 4c ad bc 26 37 d9 3d 71 d0 b3 bd
       0.050615713 -0.021154461 0.10606222 -0.087799914
000020 fa e8 17 bd 58 cd e5 bb 4d 66 22 bb f7 ad e4 3d
       -0.03708742 -0.0070130043 -0.0024780214 0.11165994
000030 c0 b9 b0 bd 3b a5 a6 bd ba d5 1d be 47 8a 11 3e
       -0.08629179 -0.08136984 -0.15413561 0.14212905
000040 fd 26 ce 3d 7d 5f 12 3e e4 3f 96 bc 65 3a a4 bc
       0.1006603 0.14294238 -0.018341012 -0.020047376
000050 5d 45 1d 3e 72 17 fc bc 8a a1 9a 3d 7e db 2c 3d
       0.15358491 -0.030772898 0.075503424 0.04220151
000060 9f b2 c6 3b 17 5b ad 3d 80 0c 1c be bd 7a 30 3e
       0.0060637738 0.0846464 -0.15239143 0.17234321
000070 fd fe 0b 3e 36 b0 b3 3d a7 60 c4 bd 6c b3 94 bd
       0.13671489 0.08773844 -0.095887475 -0.072607845
000080 1f 10 21 3e 5f c0 da bd 17 54 e5 3d d1 c7 09 3c
       0.15728806 -0.10681223 0.111976795 0.008409456
000090 63 eb f5 3d 9d 65 54 3e c4 bf 90 3d b6 8d c8 3c
       0.12007787 0.20741887 0.070678264 0.024481636
0000a0 14 98 3f 3d 99 e1 92 3d df 45 3d 3d 64 48 89 bd
       0.046775892 0.071719356 0.046209212 -0.067032605
0000b0 f6 4e 13 be 8e 3b 05 bd 25 99 cd 3c 7b 1d d3 3d
       -0.1438559 -0.0325275 0.025097439 0.10308357
0000c0 53 91 a8 3c e9 78 15 3d 36 e3 34 3e 1e ae 2e 3d
       0.020577108 0.036492262 0.17664799 0.04264652
0000d0 5b be d2 3d 3f 81 9d 3d b4 ce fc bd c9 cb 6d bd
       0.10290214 0.07690667 -0.12344113 -0.058055673
0000e0 76 8b e0 3d 03 58 d1 bd 2e 6b 53 3e 9d a3 4d 3c
       0.109641 -0.10221865 0.20646355 0.0125512155
0000f0 5e 55 1f 3d 3e e8 70 bc e8 d1 ae 3d 38 2e 2b 3c
       0.038899772 -0.014703808 0.0853613 0.010448031
000100 92 49 5e 3e 05 f8 5b bc 25 75 4c 3c 15 86 f1 3d
       0.21707752 -0.013425832 0.012479101 0.11793152
000110 2c 3a 38 bd e7 ef ba 3d 6e d9 dc 3d a7 eb a7 bd
       -0.044977352 0.09127789 0.10783659 -0.08199244
000120 38 17 a5 3d 90 d3 05 3d 34 27 ab 3d 14 23 d1 3d
       0.08061069 0.032672465 0.08357087 0.10211769
000130 1d 21 a7 3d 0b 12 a6 3d 95 f4 1e bd 31 03 fb 3d
       0.08160613 0.0810891 -0.03880747 0.12256468
000140 58 9c 8f 3c 9f ce 95 bd 25 5a 00 3e c0 c7 49 bd
       0.017530605 -0.073148005 0.12534387 -0.049262762
000150 ac f4 72 bc df 75 a2 bd 89 7a b8 3d 7d 0e b8 bd
       -0.014828842 -0.079326384 0.09007747 -0.089871384
000160 35 64 31 3d 1a a1 8f 3c d3 55 7b bd 4e f5 3b bb
       0.043308455 0.017532874 -0.061361145 -0.0028680149
000170 57 6b 52 bd 29 0b d5 3d 4a 61 9a 3b 07 a7 c0 3d
       -0.0513719 0.10402519 0.004711305 0.09406858
000180 1e d5 2a bd 87 c4 5b bd 50 f1 ea bd c8 9c 8e 3d
       -0.04170715 -0.05365422 -0.11471808 0.069634974
000190 b5 3b a2 3c fd 7d 93 bd bd f6 5f bd 0c c3 92 3d
       0.019803861 -0.07201765 -0.054678667 0.071661085
0001a0 68 1f 84 bd 0d 3c d3 3c d2 25 08 3e 5e df 19 3e
       -0.06451303 0.02578547 0.13295677 0.15026614
0001b0 f9 79 f4 bc 96 df 03 3c ae d6 fe 3d b7 53 7e bc
       -0.029843317 0.0080489125 0.12443291 -0.015522889
0001c0 cc 01 17 be 72 21 27 bc 16 c3 44 3b 76 65 7f ba
       -0.14746779 -0.010200845 0.0030023507 -0.0009742597
0001d0 67 e7 06 bd 45 97 ad bc c4 c9 6b 3d 93 dc 8b bd
       -0.032935526 -0.021190295 0.057565466 -0.068291806
0001e0 9b 9f 08 bc 00 a0 db 3d a2 f9 ef bd 2c bd 0a 3e
       -0.008338834 0.10723877 -0.117175356 0.13548726
0001f0 77 b4 cb 3d f7 60 d9 bd a2 fd aa bd 15 7c a8 3d
       0.0994653 -0.10614198 -0.08349158 0.08226792
000200 40 18 57 3e 72 06 84 3d ab 89 9f 3d 4f b3 a5 3a
       0.21005344 0.06446542 0.0778993 0.0012641939
000210 64 24 e6 bd e1 2f 60 3d 08 57 13 bc 9f 1b 8a bd
       -0.1123741 0.05473316 -0.008992918 -0.067435496
000220 2d 5a 32 3d 68 50 d4 3d f5 46 2f 3c e4 b1 0f bd
       0.04354303 0.10366899 0.01069807 -0.03508176
000230 d3 43 22 bd 23 39 03 3d 4f 33 44 3c 1b 00 8a bd
       -0.039615463 0.03203691 0.011975124 -0.06738301
000240 db 7d af bc f0 8a b9 3c ab c5 ce 3d 1e 9a 0d 3e
       -0.021422317 0.022649258 0.10096296 0.13828322
000250 32 6b 46 3d 74 7f a3 3b ae 46 e4 bc 37 90 99 3d
       0.048442073 0.004989559 -0.027865734 0.0749821
000260 23 6b 35 bc 82 1d 93 bd 5c 49 5e 3e e3 ea 55 bd
       -0.011072907 -0.071833625 0.21707672 -0.05222596
000270 19 2f 8f bc be d2 26 3e d1 c2 41 3e c3 e1 d4 bd
       -0.017478513 0.1629133 0.18921973 -0.10394623
000280 be 66 b5 3d 43 95 8d 3c d7 cf 92 bd 2b 7a 0a bd
       0.08857487 0.017283088 -0.071685486 -0.033807915
000290 88 21 92 bc 5b 79 ce bd 13 3f 17 3e 21 8c c6 3d
       -0.017838255 -0.100817405 0.14770155 0.09694696
0002a0 ba 4e b5 3d e1 34 c6 bc ce 4c 26 3c c9 b0 04 bc
       0.088529065 -0.024195137 0.010150148 -0.0080987895
0002b0 65 ea 14 3e 6c 4a 9a 3c cc 41 29 3d 91 c1 cc bd
       0.1454254 0.018834315 0.041322514 -0.09997857
0002c0 de 21 12 be a4 b6 b6 3d a5 a6 2f be 46 c1 8c bc
       -0.14270732 0.08921555 -0.17153414 -0.017182004
0002d0 8d 04 0b be e0 8a fc 3d 14 05 2e 3d f5 ae cb 3d
       -0.13575955 0.12331176 0.04248531 0.0994548
0002e0 21 d6 a1 3c 5a 3d 63 bd 19 8e 73 3d 71 98 ef bb
       0.019755425 -0.05547843 0.059461687 -0.0073118736
0002f0 d3 b9 83 3d 8b 8a d0 3d 67 cd a2 bd bc 88 ac 3d
       0.064319275 0.10182675 -0.07949334 0.084245175
000300 5d bc 1e 3e 4f ae 87 3d 9b 90 21 3c a6 c4 c8 bd
       0.15501542 0.066250436 0.009861137 -0.09803133
000310 78 a6 3d 3d 13 ce 97 bc a2 2d ee 3d 7f f5 06 3e
       0.046301335 -0.018530881 0.116297975 0.13179587
000320 5c a2 02 3e e8 84 42 3e e5 10 14 3e 6e 04 67 3c
       0.12757248 0.18996012 0.1445957 0.014100177
000330 d9 d3 21 3d 8f a8 87 bd 0c 00 fe 3a 61 9a be bd
       0.039508674 -0.06623947 0.0019378676 -0.09306789
000340 55 30 86 3d 42 10 4f bd fe 93 23 3d 58 94 06 3d
       0.06552187 -0.050552614 0.03993606 0.032856315
000350 0f 5d 48 bd 87 bc ec 3d 2a 98 05 3e 8a 6e de 3d
       -0.048916873 0.11559396 0.13046327 0.108609274
000360 39 2d 28 3e 40 f6 41 be 24 20 53 3e 44 29 97 3d
       0.16423501 -0.18941593 0.2061773 0.07380918
000370 47 d7 2b 3d fd 64 ea 3d 16 70 25 3e b0 40 17 3e
       0.04195335 0.11445043 0.16156039 0.1477077
000380 f5 64 b2 3d aa a2 13 3d bc 5a 0e 3d b1 e0 3e bd
       0.08710662 0.0360438 0.0347545 -0.046601
000390 6d 84 e9 bd 6a cb d6 bd 5e ac a1 bd 4a 77 8d 3a
       -0.11402211 -0.10488017 -0.078942046 0.0010792997
0003a0 ce e5 c7 bb 90 42 8b 3d a3 36 93 3d 0b a2 5e 3b
       -0.006100393 0.06799805 0.071881555 0.0033971097
0003b0 76 b4 6b 3d 54 62 cc bc cc 08 0d bd 67 74 52 3d
       0.057545148 -0.02494923 -0.034432217 0.05138054
0003c0 be 1e 69 be 20 17 e3 bd fb e6 41 be ac f5 bf 3d
       -0.22765633 -0.11088395 -0.18935768 0.0937303
0003d0 21 23 f0 bd 99 5b 71 bd d4 66 a7 bd f7 dd 6e 3d
       -0.1172545 -0.058925245 -0.0817391 0.05831715
0003e0 98 b3 ce 3d f4 d0 64 bd e9 31 b6 3d 00 4f 0e 3e
       0.100928485 -0.055863336 0.08896238 0.13897324
0003f0 af 13 36 bd 4e f5 6c 3d f5 12 fd 3c 40 42 14 3e
       -0.044452365 0.05785113 0.030892828 0.14478397

Pair_shop_mlp.fc_layers.1.bias f4 [16]
000000 ae 1c 1b bb 51 95 0a 3c 24 72 09 3e 36 b7 22 3d
       -0.0023668217 0.008458451 0.13422447 0.039725505
000010 b8 5b ab bd 2e 4c b3 3b 53 1f 87 3c 7c 3b aa bd
       -0.08367103 0.005471728 0.016494429 -0.08312127
000020 fb 9c 4e 3d 48 42 a8 bd a7 b1 55 bd 2f f9 90 3d
       0.050442677 -0.08215767 -0.052171376 0.07078778
000030 70 c3 ce 3d 65 57 7e 3c 65 93 b8 bd 0f c5 0e 3e
       0.100958705 0.015523766 -0.09012488 0.1394236

Pair_score_mlp.fc_layers.0.weight f4 [64, 32]
000000 ae eb 0d be 23 77 d0 bd d3 89 22 3e b5 14 2c bd
       -0.13859436 -0.101789735 0.15872888 -0.042011935
000010 bf 03 99 bd 7f ef c0 bd cf 8b 53 3e e5 3d 94 3c
       -0.07471418 -0.0942068 0.20658801 0.01809592
000020 3d 33 d3 bb 7d bf eb bd b1 0f 4d bd 29 8c d0 bd
       -0.006445317 -0.11511133 -0.050063793 -0.101829834
000030 3a 95 06 be 40 c7 0a be 74 33 8f 3d d2 4e 25 3c
       -0.13142863 -0.1355257 0.06992236 0.010089593
000040 f5 e0 3e be c1 56 c1 bd 23 0e 85 3e e2 12 81 bd
       -0.18640502 -0.09440375 0.25987348 -0.0630243
000050 a3 19 e0 3d 59 e6 49 be bb a9 47 3d 2b 74 fb 3d
       0.1094239 -0.19716777 0.048745852 0.12278017
000060 02 61 24 be 5b 2b 86 bd 1a 76 26 3e 42 e3 cb bd
       -0.1605263 -0.06551238 0.1625599 -0.09955455
000070 bb 4f a4 3d d9 31 55 bd 59 eb 7c be 62 1d 95 be
       0.0802302 -0.05204949 -0.24699153 -0.2912398
000080 37 0f 3c be 59 46 8f bd cc 41 4b 3e 64 ef 3f 3e
       -0.18365179 -0.069958396 0.19849318 0.18743664
000090 79 f2 ac bd c1 21 34 3e ed 5b 30 3e c5 97 ec bd
       -0.084446855 0.17591001 0.17222567 -0.11552385
0000a0 7d 7d f2 3d a8 af 39 bd 07 f9 a5 bd 39 10 18 3d
       0.11840341 -0.045333534 -0.08104139 0.037124846
0000b0 f5 c3 95 3d de bd 2d bd 48 d8 d1 bd 72 39 91 bc
       0.073127665 -0.0424174 -0.102463305 -0.017727587
0000c0 f4 5f 9e bd 7a e2 e8 bd 99 73 4e 3d 48 1f 1c 3e
       -0.07733145 -0.11371322 0.05040321 0.15246308
0000d0 a8 fe 99 3b 0d 63 fa bd ec 20 55 3d c9 2d f0 bd
       0.004699547 -0.12225924 0.05203335 -0.11727483
0000e0 8e f0 2f be 6b b2 39 3e 5d e1 28 3c a5 d8 0b be
       -0.17181608 0.18134467 0.010307637 -0.13656862
0000f0 cc e9 38 bd d6 be d0 bc 67 31 22 3e 4b bb 95 3d
       -0.04514484 -0.025481623 0.15839158 0.07311114
000100 5e b6 f7 bd 91 c7 7b ba a3 c1 44 bd e5 20 d0 bd
       -0.12095331 -0.0009604628 -0.04803623 -0.10162524
000110 0b a8 2a 3d cc 0a 5d bc c8 9c c8 3d aa 7e 01 bd
       0.041664165 -0.013491344 0.09795529 -0.031614937
000120 ee e3 07 3e 7e cd 16 be 9d 6a aa 3c c8 ee 32 3e
       0.13270542 -0.14726827 0.02080279 0.174739
000130 8a e3 de 3c 30 9a 36 bd 30 ba b0 3d 3f e3 7a 3a
       0.027208108 -0.04458064 0.086292624 0.00095706055
000140 90 c2 8a be 5c fc 12 3d 1a 66 11 3d f2 6e 6a 3e
       -0.27101564 0.0358852 0.035497762 0.22893885
000150 a6 67 5c 3e 76 1f 8a 3d 4c 80 59 3e dd 1f 85 3d
       0.21523914 0.06744282 0.21240348 0.06500218
000160 76 d2 2f 3e e2 b2 8a bd 5f 99 54 bd 48 ab 39 bc
       0.17170128 -0.067724004 -0.05190408 -0.011332341
000170 20 80 1a be 61 0b f3 bd c9 b6 b6 bd 9d d8 fd 3d
       -0.15087938 -0.11867405 -0.08921582 0.12394831
000180 d7 75 28 be 5d 3a 03 3e d2 75 65 3e 58 5b 32 3d
       -0.16451202 0.12815233 0.22408226 0.043544143
000190 4f 0f 34 3e fd 51 11 be e5 b3 ed bd 8f 45 78 3d
       0.17583965 -0.14191432 -0.11606578 0.06061321
0001a0 1b 86 1a 3e d5 1b a7 3d 2c 01 00 be b3 47 3b 3e
       0.1509022 0.081596054 -0.12500447 0.1828907
0001b0 07 5e ac bd 17 fb 89 3d f2 46 bf bd 4d 26 38 3e
       -0.08416372 0.06737345 -0.093397036 0.1798336
0001c0 3e aa e8 3c 95 41 df bd 8e 4b e2 3d d4 6a 9a 3d
       0.02840149 -0.10901181 0.11049567 0.07539907
0001d0 f5 79 fb 3c e9 3e 88 3d 33 02 03 3e 02 f7 5e bd
       0.030697802 0.06652624 0.12793808 -0.054434784
0001e0 00 c9 13 3e 0a 6e 58 be c2 45 23 3d 9e 20 8c bd
       0.14432144 -0.21135727 0.039861448 -0.06842159
0001f0 9d a2 1c 3d 8b 0c 49 3d 82 30 38 3e e3 f3 35 3d
       0.038241018 0.049084228 0.17987254 0.04442204
000200 7a da 45 be cd 1e b4 bc 60 93 67 3c 77 67 de bd
       -0.19321623 -0.021987343 0.014134258 -0.10859578
000210 c4 22 0b 3e 24 f8 e2 bc f3 f4 fa bd 22 53 79 be
       0.13587481 -0.027706213 -0.122537516 -0.24348119
000220 19 5e 14 3e 61 83 85 bd 45 82 42 be 35 97 3f be
       0.1448902 -0.06519199 -0.18995006 -0.18710025
000230 b8 f8 0f bd 07 c6 91 3c f3 b6 01 be 95 9c 1a be
       -0.035149306 0.017794622 -0.12667446 -0.15098794
000240 26 43 3a 3e f3 f4 40 3e ff d4 03 be 7d fe e6 bd
       0.18189678 0.1884344 -0.1287422 -0.112790085
000250 f3 de b8 bd be 18 cf 3d 08 7f 2f 3c 56 a4 26 bb
       -0.09026899 0.10112141 0.010711439 -0.0025427542
000260 96 e2 4d be 61 52 9c 3d 18 94 f1 bc 42 90 66 3e
       -0.20105967 0.076329 -0.029489562 0.22515967
000270 17 59 d1 bc 18 e0 09 be b5 ce 39 3d f7 64 1a be
       -0.025555177 -0.13464391 0.045363147 -0.15077578
000280 83 1a f7 bd 35 8f 15 3d b7 8c 13 3e f3 e0 95 3d
       -0.120656036 0.036513526 0.14409147 0.07318296
000290 03 05 c9 3d 98 41 0e 3e c1 28 c2 bd 03 3c df bd
       0.09815409 0.1389221 -0.094804294 -0.10900118
0002a0 4a f1 cb bd 1f 04 df 38 a2 79 39 3e 43 d5 84 3d
       -0.099581316 0.00010634236 0.18112805 0.06485989
0002b0 38 f6 c4 3b 9e 9d c2 3d 95 ff 21 be 37 2c 86 bd
       0.006010797 0.09502719 -0.15820153 -0.06551402
0002c0 6b cc 2f 3e 4d d4 24 3e 22 6b b6 3d d1 ea fe bb
       0.17167823 0.16096611 0.08907153 -0.007779457
0002d0 3c cf fa 3d 77 35 09 be 2b 44 d0 3c 9e 62 c0 3d
       0.12246558 -0.13399301 0.02542313 0.0939381
0002e0 45 e3 91 3d a9 ce 90 3d 84 41 50 3e 14 54 39 be
       0.07123426 0.07070667 0.20337492 -0.1809848
0002f0 32 cc 25 3e 95 2f 11 be ad 14 22 3e 24 b7 85 bd
       0.16191176 -0.14178307 0.158282 -0.06529072
000300 82 6d 00 be 4f 7e 58 3e 35 1a 53 bd fe e6 80 bd
       -0.12541774 0.21141933 -0.051538665 -0.06294058
000310 bc 0e 15 be a3 e8 ae bd a2 28 0e 3d b4 fb 09 3e
       -0.14556402 -0.08540466 0.03470672 0.13474923
000320 14 e1 ac 3a ed 6d a6 3d c3 82 be bd 73 e6 19 3e
       0.0013189637 0.081264354 -0.093022846 0.15029316
000330 2d 59 34 bd 62 38 cc bd a4 17 0b 3e 65 8d d2 3c
       -0.044030357 -0.09971692 0.13583237 0.025702188
000340 36 20 ba bb ff 07 0a 3e 4f ff bf bd e1 be 0d bc
       -0.0056801094 0.13479613 -0.09374868 -0.008651466
000350 25 92 7d bd e9 26 8b 3d 99 84 3b 3e 02 df 2b 3e
       -0.061906952 0.06794531 0.183123 0.1678429
000360 7c 1f a2 3d 64 6b 67 bd 32 b9 47 3d 74 29 5b 3e
       0.079161614 -0.0564989 0.0487606 0.21402532
000370 33 79 f4 bd 3f 31 f6 3d aa b9 1a 3e 90 48 11 be
       -0.119371794 0.12021112 0.15109888 -0.14187837
000380 0f 2c 41 3c cb 70 8f bd f3 05 52 3e da 83 0a 3e
       0.01179029 -0.070039354 0.20510082 0.1352686
000390 66 1c 14 3d 89 f9 9b 3c 22 e2 b1 bd 06 a1 b7 bd
       0.036159895 0.019039886 -0.086857095 -0.0896626
0003a0 de f5 3d 3e f3 d0 76 3e 28 1b 55 be 02 d4 f9 bd
       0.18550822 0.24103145 -0.2081114 -0.121986404
0003b0 0f 29 87 3d de c0 62 bd 9b 36 db bd 09 1e 00 3e
       0.06599628 -0.055359714 -0.107037745 0.12511458
0003c0 f1 6e 49 be 37 4d 07 be 81 30 d3 3c 0a 63 9b bc
       -0.19671227 -0.13213049 0.025779964 -0.018968124
0003d0 63 77 92 bd 3d 49 74 3e 1f 5c 4d 3d 5a 25 cb ba
       -0.071516775 0.23856063 0.05013668 -0.0015498803
0003e0 3a 0c bd 3a 15 49 e6 bd 12 07 bb bd 0f 15 fc bd
       0.00144232 -0.11244408 -0.09132208 -0.12308704
0003f0 80 f6 db bd a9 34 9b bd 2b fa 33 3e 99 92 8c 3d
       -0.107403755 -0.075784035 0.175759 0.06863899

Pair_score_mlp.fc_layers.0.bias f4 [64]
000000 6a 84 7d 3d 23 b0 4e bd 87 a0 0a be 3e 9b c9 bd
       0.061893858 -0.050460946 -0.13537799 -0.09844063
000010 66 0c 28 3e 95 0a 26 3e 77 9c c9 bd e7 94 cb bd
       0.1641098 0.16214974 -0.098442964 -0.0994051
000020 d8 aa 87 bd 65 be b4 bd 1c 35 1f 3e 96 fb 78 3c
       -0.06624383 -0.088253774 0.15547603 0.0151967015
000030 2e cc 2f 3d 58 11 d7 3d 20 27 7f bd 9d d2 23 3d
       0.04291933 0.10501355 -0.062293172 0.03999578
000040 d0 8f 3e 3e a8 5c 91 bd 34 3e d6 3d 08 50 92 3d
       0.18609548 -0.07097751 0.10461083 0.07144171
000050 ef f0 9e bd 7b 0c f2 bc 3b 9c 92 3d 44 13 47 bd
       -0.07760798 -0.029546967 0.07158705 -0.048602358
000060 da fe d8 3d 20 3d 30 bd f1 41 af bb 59 3e da 3d
       0.10595484 -0.043027043 -0.005348437 0.10656423
000070 f3 f7 21 3e 60 8c 15 bd f6 a1 a2 bd ca 90 1d 3e
       0.15817241 -0.036510825 -0.07941048 0.15387264
000080 f4 67 a5 3d 0e 80 19 be 3b a6 61 3c 07 26 6c 3e
       0.08076468 -0.14990255 0.013772543 0.23061381
000090 33 7b 2c 3e 9e 33 13 3e 3a 7a b0 bd 6a 5b 26 bd
       0.16843872 0.14375159 -0.08617063 -0.040614523
0000a0 73 7e e2 bd 58 83 ca 3d 10 6a 1c be 89 13 fa bd
       -0.110592745 0.09888333 -0.15274835 -0.12210757
0000b0 e2 29 ab 39 bb 59 01 3e 20 37 1a bd de b5 c5 bd
       0.00032646867 0.12631886 -0.037650228 -0.09653829
0000c0 1b 83 73 bd fe dc 8b bd 92 6a 23 3d ce 0e 95 bd
       -0.059451204 -0.0682926 0.039896555 -0.072782144
0000d0 11 dd 2a bd 3e db ed bd 31 48 6c bd 66 26 10 3e
       -0.04171473 -0.11614083 -0.057686035 0.14077148
0000e0 4f aa c8 bc 7a 79 e3 3d 08 92 f8 3d 4a 78 f6 3d
       -0.024495272 0.11107154 0.12137228 0.12034662
0000f0 74 7e 9c 3d 6d 73 2a 3e b3 e4 cb 3d 49 d8 8b bd
       0.076413065 0.16645594 0.0995573 -0.068283625

Pair_score_mlp.fc_layers.1.weight f4 [8, 64]
000000 b3 3b db 3d 9b 1f fd 3d af 1c 05 3e bb da 87 3d
       0.10704746 0.12359544 0.12999223 0.066335164
000010 9a b5 49 3e 43 26 1b 3e 9d c4 6c 3d 19 3a e5 3d
       0.19698182 0.15151314 0.057804693 0.11192722
000020 3d 92 0e 3e a0 c8 15 3e 4e f2 dd bd 47 4c 07 3d
       0.13922973 0.14627314 -0.108372316 0.033031728
000030 0a f1 fa 3c 13 d9 18 be c4 17 cb bc 46 eb 8e bb
       0.030632515 -0.14926557 -0.024791606 -0.004361543
000040 35 7d fb 3d 78 af 4c 3c 4c de 24 bd 35 ac 64 3d
       0.12279741 0.012493007 -0.04025106 0.055828292
000050 9f c6 0a 3e 92 e7 c2 bc b2 c3 c3 3d f4 9b 9c 3c
       0.1355233 -0.023792062 0.0955881 0.019117333
000060 0b b3 d0 3d 06 42 17 3e 22 9f 23 3e 74 f3 36 3d
       0.101904 0.1477128 0.15978673 0.04466577
000070 37 cb 31 bd dd ca 03 bd ff aa eb 3d cb 20 42 3c
       -0.04340669 -0.032175887 0.11507224 0.011848639
000080 ff 04 ea 3c cd 0b e6 3d 73 fb e7 3d 41 a8 eb 3a
       0.028566835 0.112327196 0.11327257 0.0017979221
000090 1d 8c 34 3e 62 12 21 3d 10 06 65 3d cc 4d cf 3d
       0.17631574 0.03932417 0.055913985 0.101222605
0000a0 4f 06 15 bd f2 c3 2d 3d fc b0 c5 bc 46 32 a3 3d
       -0.03638297 0.042423196 -0.024132244 0.07968573
0000b0 45 d5 3f be a1 86 c9 3d 85 e9 14 3e 27 fa df 3d
       -0.187337 0.098401316 0.14542206 0.10936385
0000c0 73 29 d8 bd 8c 60 ad 3d c6 9f c7 bd 52 1e b8 3d
       -0.10554781 0.084656805 -0.09747271 0.08990158
0000d0 f1 85 75 3e b3 06 ad 3c 7b 26 9d 3d d7 d8 af bd
       0.23976876 0.021121358 0.07673355 -0.08586281
0000e0 3b 9f 3a 3d c9 15 ad bd f3 85 7a bd 8f 9a d6 3d
       0.04556201 -0.08451421 -0.0611629 0.104786985
0000f0 2d 58 4e bb ec 86 a6 3d e6 a8 82 bd a9 d2 31 3e
       -0.0031485662 0.08131203 -0.06379871 0.17365517
000100 90 17 dd bd d4 c3 e0 3d 96 d0 ea bd 1d 72 0c be
       -0.1079551 0.10974851 -0.11465566 -0.13715406
000110 03 30 d4 bd 5a b8 62 bd 31 56 8a bc aa fe 95 bd
       -0.1036072 -0.055351593 -0.016886802 -0.07323964
000120 03 f5 86 bd e7 98 c9 3c 75 93 35 be 49 89 f1 3b
       -0.06589701 0.024609042 -0.17732032 0.007371102
000130 9f 08 35 be 22 1f 38 3e 08 7b 34 be 05 22 2c be
       -0.1767907 0.17980626 -0.17625058 -0.16809852
000140 b2 ce 8c bb 00 33 32 3d 64 71 60 bd 61 40 be 3c
       -0.004297101 0.04350567 -0.054795638 0.023224058
000150 1d ba 05 be 94 d4 e6 bd 78 59 38 bd 56 ea 8c 3d
       -0.13059278 -0.11271015 -0.0450072 0.068806335
000160 3f 32 9c bd e7 d8 d3 bd 4e 0c f5 3d 32 a2 df bc
       -0.07626771 -0.10344105 0.119652376 -0.02729902
000170 dc 03 c4 bd 8a b4 97 3d 86 7c e5 3d f6 81 03 bc
       -0.095710486 0.07407482 0.112053916 -0.008026591
000180 54 95 7f bd 5a 06 03 be 34 93 65 3d 22 c0 e2 3d
       -0.06239827 -0.12795392 0.056048587 0.11071803
000190 ca d9 bd bd 71 d4 96 3d 22 c2 1c 3d 8e 40 60 3d
       -0.092700556 0.07364739 0.038271077 0.054749064
0001a0 e6 d1 d9 bd dc 6a 17 bd 20 9b 90 bd 83 d6 ea bd
       -0.10635738 -0.036967143 -0.07060838 -0.11466696
0001b0 ba 1a 46 3e 7d 6f 06 3e 7a 56 a9 bd 23 b8 9b bd
       0.19346133 0.13128467 -0.08268447 -0.07603481
0001c0 ce 1d 33 3d ac 85 fa bd 6f 07 e7 3d 98 ca dc bd
       0.043729596 -0.12232527 0.11280715 -0.10780829
0001d0 78 bc 68 3a e6 e0 14 be ba fc 0a be c8 92 58 3e
       0.00088781817 -0.14538917 -0.1357297 0.21149743
0001e0 12 b4 f2 3c af 00 da bd 99 8d 19 bd e5 bf 87 bd
       0.02962688 -0.10644662 -0.037488554 -0.06628398
0001f0 cb 65 24 3e 81 c2 b1 3d d2 d7 5c 3d 6f d6 5e 3d
       0.16054456 0.08679677 0.05391676 0.05440372
000200 67 c4 b4 3d ab 75 e0 3d c3 34 67 3e 1f 2e 2a 3e
       0.08826523 0.109599434 0.22578721 0.16619156
000210 5c 9c 03 3d 07 af 98 3d 47 c5 42 3e 29 16 82 3c
       0.032131538 0.07455259 0.19020568 0.015879707
000220 5b a4 3a 3e 1f 9b 1e 3d 50 62 b6 3d db ea 21 bc
       0.18226759 0.038722154 0.0890547 -0.009882654
000230 22 2a bb bc b2 d7 55 be d5 44 81 3d 68 69 89 3d
       -0.022847239 -0.20883062 0.06311957 0.06709558
000240 9f 6c 81 3e a5 2b 1d 3e c3 61 04 3e a4 41 1a 3d
       0.25278184 0.1534868 0.12927918 0.037660256
000250 f8 d4 da 3d 49 dd 40 bd 20 3f f1 3d a0 6a 8a 3d
       0.10685152 -0.047086034 0.11779618 0.06758618
000260 70 9e 4f 3d 97 5f 49 3d be e8 f3 3d 83 90 65 3e
       0.050688207 0.049163427 0.119096264 0.22418408
000270 2c 5c 04 bc f4 d6 0e 3e 23 fd 8b 3d 97 20 55 3e
       -0.008078616 0.13949186 0.06835391 0.20813213
000280 6c 33 d1 3d f9 b1 c7 3c 33 45 dd 3d 18 f4 ef bc
       0.10214886 0.024376856 0.10804214 -0.029291198
000290 16 b4 2e 3e 59 05 f9 3b 66 0c f7 bd cb 04 20 3e
       0.17060885 0.0075995144 -0.12062912 0.15626828
0002a0 e5 37 61 bd 7f fa d1 3d 4a 73 e8 3d cf a8 21 3e
       -0.054984946 0.102528565 0.11350115 0.15787052
0002b0 e8 b3 83 bd 2d a7 09 3e 1e 8e c5 3d 58 53 4d bc
       -0.06430799 0.13442679 0.09646247 -0.012532078
0002c0 38 79 16 3e 18 72 0e bd 80 a5 28 3e 2f ee 91 bc
       0.14694679 -0.034776777 0.16469383 -0.01781377
0002d0 b1 d4 8b 3d 1f 23 c5 bd 90 2d 9c 3d 33 83 88 bc
       0.06827677 -0.096258394 0.07625878 -0.016664123
0002e0 3e be 23 bd 88 fa be 3c f2 26 c3 3d 98 64 65 3e
       -0.03997635 0.023312822 0.095289126 0.22401655
0002f0 ec 16 d6 3d 02 44 4f 3c 47 3e cd 3d dd 19 89 3e
       0.10453591 0.012650492 0.10021644 0.26777545
000300 8c b8 4f bd 47 ee 9d 3d 97 5c 68 3d 6d 20 c0 3b
       -0.050713107 0.077114634 0.056728926 0.0058632405
000310 8c 0c 78 3c 6d c6 d2 bd f0 fc 14 3c 2b 77 98 3c
       0.01513971 -0.10291753 0.009093508 0.018611511
000320 b7 b7 18 be e8 23 05 bc 31 af 87 3d f2 6b ea 3c
       -0.14913832 -0.0081262365 0.06625212 0.028615925
000330 67 e9 bf bc 1c 37 c8 3d 8e c6 de bd 8b e3 11 be
       -0.023426725 0.09776136 -0.10877715 -0.14246957
000340 81 ef 78 bd 36 c6 bc bd 8f 16 f9 3b e6 c0 5b bd
       -0.060775284 -0.09217493 0.007601566 -0.05365076
000350 cd 58 98 bd 6c 56 18 bc e3 4c 7b 3d 1a a2 aa 3d
       -0.074388124 -0.009297948 0.06135262 0.083317
000360 e2 9e fc 3d b8 7e 4a 3b 98 9f 20 bd 1f 04 ff 3d
       0.12334992 0.0030898284 -0.0392147 0.12451958
000370 84 06 63 bd 40 4e 86 3d 96 93 8a 3d 59 94 ab bd
       -0.055426136 0.06557894 0.06766431 -0.083779044
000380 7d b2 3c bd be 7f cf bd ac 32 a3 bc 8c 2a 68 bc
       -0.046068657 -0.10131787 -0.019921623 -0.0141703
000390 ef 7e 15 3e 37 19 29 be 9b 91 56 bc cd 76 99 3c
       0.14599203 -0.16513525 -0.0130962385 0.018733406
0003a0 19 5a 70 b5 14 33 9a 3d f1 2a a5 bd 2f 5f 2b 3d
       -8.9538077e-07 0.07529274 -0.08064831 0.04183882
0003b0 d2 f6 07 bd 8f 0a e3 bd 15 3b 04 be 85 9c 93 bd
       -0.03319437 -0.11085998 -0.12913163 -0.07207588
0003c0 b9 de cd 3d 4d 49 16 be 82 61 03 bc 0f fb c3 bd
       0.100522466 -0.146764 -0.008018853 -0.0956937
0003d0 58 78 54 3d 57 ab c6 bd 3c df 96 3a 05 eb 17 3e
       0.05187258 -0.09700649 0.0011510621 0.14835747
0003e0 0f 82 ca bd e3 1a e9 3c 77 57 da 3d 0e 91 b7 3d
       -0.09888088 0.028455203 0.10661214 0.08963214
0003f0 86 80 53 bd 88 29 e7 bd 93 ab 38 3d a1 43 4d 3c
       -0.05163624 -0.11287218 0.0450855 0.012528331

Pair_score_mlp.fc_layers.1.bias f4 [8]
000000 24 a2 e4 39 9f f8 cf 3d ea 65 b0 bd 5e 52 83 3d
       0.00043608353 0.101548426 -0.086131886 0.06412195
000010 ef e6 0e 3e 59 40 f3 3d b5 87 79 bd cd 64 7a bd
       0.13955282 0.11877508 -0.060920436 -0.061131287

CNN_embedding_types.weight f4 [106, 16]
000000 53 31 14 3e f5 92 46 bf f1 cf fc be b2 de 73 3f
       0.1447194 -0.7756799 -0.49377397 0.9526168
000010 39 9b d0 be 02 8c 5a bc eb 74 e2 3f 05 a0 39 c0
       -0.40743425 -0.0133390445 1.769193 -2.9003918
000020 15 51 fc 3d 6c a1 5d bf e7 f5 08 bf 9c da 89 3f
       0.12320153 -0.86574435 -0.5350022 1.0769839
000030 ef 8e f8 3e ba 84 ca 3e 1c 5e 3c 3f 04 11 44 bf
       0.4854655 0.39554387 0.735811 -0.76588464
000040 46 1c 08 bd 67 94 f6 bf 6a 36 2a 3f 97 0b 3b bf
       -0.03323009 -1.9264039 0.6648928 -0.7306456
000050 46 69 ea 3e 44 19 27 bf 18 2d d4 3e 60 a8 81 be
       0.45783442 -0.6527293 0.41440654 -0.25323772
000060 ea 84 1e bd 1c 8b 67 bf 2f 79 ad bf dd b3 f2 3e
       -0.038700975 -0.9044664 -1.3552607 0.4740285
000070 ea d8 82 3f 99 83 da 3e dc 08 b9 be 0c 0d 02 be
       1.0222447 0.42678526 -0.36139572 -0.1270029
000080 64 bd 0e bf 45 8d d5 3f 49 d9 1f 3f 1e 70 bd be
       -0.5575774 1.6683737 0.62440926 -0.369996
000090 95 56 9e bc 5b 48 8b 3f 57 4e e1 3e a3 90 84 bf
       -0.019328395 1.0881456 0.4400508 -1.035664
0000a0 26 13 07 40 29 77 c6 bf 23 e7 88 bf c1 0f 16 3f
       2.1105437 -1.5505115 -1.0695537 0.5861779
0000b0 c4 8f 8b bd bd a1 e1 3d 88 13 02 bf 4a 34 a2 3f
       -0.068145305 0.11017177 -0.5081105 1.2672207
0000c0 95 3a 9b be 5d 25 1b bf 7e 64 9f be bc a0 8f 3d
       -0.30318132 -0.60603887 -0.31131357 0.070130795
0000d0 52 fe e7 be f4 d9 05 40 6f a9 9c bd a3 61 9f 3f
       -0.45311219 2.0914278 -0.076495044 1.2451671
0000e0 e5 8e ae bf 9f ee 44 bf da 21 aa 3e ae 21 92 3f
       -1.3637358 -0.76926607 0.33228952 1.1416528
0000f0 d6 b5 c3 3d ec 68 08 c0 e1 59 0c 3f 83 a2 6f 3f
       0.09556167 -2.131404 0.54824644 0.9360735
000100 a4 3f f4 3f 90 27 76 3f 19 9f 0d 3f 04 97 71 3f
       1.9081922 0.9615412 0.5532089 0.94371057
000110 0b d5 ae 3e f5 fe 13 bd 4d bb bf 3f 62 f2 46 bf
       0.34146914 -0.036131818 1.4979035 -0.77713597
000120 84 d1 48 3f 52 7e 3a bd 1d cc 26 be 7c 58 ab 3f
       0.78444695 -0.045530625 -0.162888 1.3386378
000130 21 b6 26 be cb 93 83 be c7 17 56 3d 93 f6 c7 be
       -0.16280414 -0.25698695 0.05226877 -0.3905531
000140 3b e2 6b 3e 18 9b 88 3e 4b 90 8c 3f 9d 96 9f bf
       0.23035519 0.26680827 1.0981535 -1.2467839
000150 9b 92 75 bf 5a 47 e7 bf 61 7b 3a 3c c8 e0 e1 bd
       -0.9592683 -1.806865 0.011381955 -0.11029202
000160 6f bd a0 bf 8c 85 22 3f 58 4d 9e 3e cd a2 36 40
       -1.255781 0.63485026 0.30918384 2.8536866
000170 44 72 9b bf 62 13 5b be 26 df 06 bf f1 fb 32 3e
       -1.2144246 -0.21394113 -0.5268425 0.1747892
000180 84 b8 04 3f 58 d5 c1 be ef db 66 be aa 67 c8 bf
       0.5184405 -0.3785808 -0.22544836 -1.5656636
000190 e5 71 f4 3e ac e3 87 bf 19 cc e3 3f 75 78 0c bf
       0.47743145 -1.0616355 1.7796661 -0.548713
0001a0 fe 86 ad 3e 68 37 47 3f 4e 46 f7 3b 63 71 15 bf
       0.33892053 0.7781892 0.007546223 -0.5837614
0001b0 74 51 6a bf 67 8b 57 bd 7a cf e4 3f 83 64 93 3f
       -0.9153054 -0.05262318 1.7875817 1.1515049
0001c0 f1 23 c7 3d 39 4b cc 3f bf a9 1a bf a8 74 b4 3f
       0.09723652 1.5960456 -0.6041526 1.4098101
0001d0 73 c5 f1 3d d3 3a 34 3f c7 95 09 bf 44 76 3c bf
       0.118052386 0.7040226 -0.5374417 -0.7361796
0001e0 17 0f 0c 3f 1d d8 f3 3f e3 e4 cf 3d e4 ea e6 3e
       0.54710525 1.9050328 0.101510786 0.45101082
0001f0 d9 01 cd 3e fa aa 7f bf cd 37 1b 3e da 77 21 bf
       0.40040472 -0.99870265 0.15158005 -0.63073504
000200 c8 88 36 40 03 4c f3 bd d2 10 c5 3e e5 eb 79 3f
       2.8520985 -0.118797325 0.38489395 0.9762557
000210 aa 02 ac bf f8 8a 55 bf bd 59 06 be ec 76 c2 bd
       -1.3438313 -0.83415174 -0.1312017 -0.09495339
000220 7d 43 38 be 3e 5a 8e bf ed 8a ea 3e ad ad 5f be
       -0.17994495 -1.112129 0.45809117 -0.21843596
000230 86 57 0e 3f 09 d7 df bd b1 b5 ff 3f d2 92 03 3e
       0.556023 -0.109296866 1.9977323 0.12848976
000240 f2 00 e0 3c 2a e4 1a 3e 16 48 54 bf 40 95 01 40
       0.0273442 0.151261 -0.82922494 2.0247345
000250 c2 86 79 3e 2a 23 9a 3d 2d 50 90 be b9 bb 9b 3d
       0.24367812 0.07526238 -0.2818617 0.07604165
000260 a6 73 d0 3e 61 8f 81 be 06 de cf 3e 49 80 45 3f
       0.40713233 -0.25304702 0.40599078 0.7714887
000270 ed e5 6c be 06 a6 8d bf 0a 10 94 3d f0 fc 5d bf
       -0.23134585 -1.1066291 0.07229622 -0.86714077
000280 87 c5 96 bf 34 da 0a 3f 45 92 4d be c9 95 18 bf
       -1.177903 0.542392 -0.20075329 -0.59603554
000290 f4 d2 eb 3e 36 ec 9d 3f 50 51 9e 3e fe 11 1b 3f
       0.46059382 1.2337711 0.30921412 0.6057433
0002a0 76 73 19 3f 20 07 9c be 7f 51 9d be 89 34 d2 3f
       0.59941804 -0.30474186 -0.3072624 1.6422282
0002b0 e1 8a 85 3f 04 e6 bd bf c4 b4 24 3f d2 ef e5 3f
       1.0433007 -1.483582 0.64338326 1.7963812
0002c0 8e 29 b3 3c 84 66 f3 bf 09 6c e5 bd be d3 ba 3e
       0.0218704 -1.901566 -0.11202247 0.3648967
0002d0 38 ff a6 bf 27 3a ca bc 1a 1c a7 bf f2 b2 68 be
       -1.3046637 -0.024685932 -1.3055451 -0.22724512
0002e0 3b c6 d9 bd 95 03 8c bf ec 47 92 be 3d 39 db 3f
       -0.106335126 -1.0938593 -0.28570497 1.7126843
0002f0 e4 bf a2 3f 83 c5 81 3f 2c 8a 3d bf 79 2a 84 3e
       1.271481 1.0138401 -0.7403896 0.25813654
000300 d0 92 67 bf 18 9f 13 40 e9 71 4b bf a3 e3 df 3f
       -0.90458393 2.3065853 -0.7947069 1.7491344
000310 ba 7c a6 bd 84 7c 3c be 6d 35 97 bf 6d 48 dd 3e
       -0.081292585 -0.18406874 -1.1813179 0.4321932
000320 e2 9a a3 3f 78 49 45 bf 58 81 dc 3f 3e 3e 62 be
       1.2781641 -0.7706523 1.7226973 -0.22094056
000330 f8 5f 5c 3f fe b0 e8 3f 5f 08 2f 3f 6e 50 85 be
       0.86083937 1.8179014 0.6837215 -0.26037925
000340 a8 f6 f4 3f ef 81 92 3f d3 48 b1 3f 18 62 93 bf
       1.9137774 1.1445903 1.3850349 -1.1514311
000350 23 71 02 3e 7b 3f 5d 3f 13 29 58 3f 46 88 cc bf
       0.1273847 0.8642499 0.84437674 -1.5979087
000360 6a a3 74 3f b9 68 b2 bf 9c 87 7e 3d 88 d4 82 bf
       0.9556185 -1.3938209 0.062141046 -1.0221109
000370 52 1b 0c bf bd 52 8c 3f 7e 9b fd 3d 90 07 cc 3e
       -0.5472919 1.096275 0.123831734 0.3984952
000380 6c 5c a8 3c a3 8a 89 bf 88 e1 88 3d e4 d6 2f 40
       0.020551883 -1.0745434 0.06683642 2.747491
000390 27 b3 56 40 46 1a db 3f 7d af ab bf bc 3b 4a be
       3.3546846 1.7117393 -1.341293 -0.1974935
0003a0 99 37 7a bf 3e 2d 48 3d c2 f5 59 bf b8 c3 19 bf
       -0.97741085 0.04887127 -0.8514062 -0.6006427
0003b0 6d 29 6c bf f2 b1 11 3e 76 b1 fe be 44 0f a5 be
       -0.9225071 0.14228037 -0.49744767 -0.3223821
0003c0 3f 9f ee bf db c8 db 3e b0 58 1d 3f ba 6d 3b 3e
       -1.8642348 0.42926678 0.6146345 0.18303576
0003d0 99 c3 ca 3d ec 41 0b bf 52 10 44 3f b6 ce b0 bf
       0.099005885 -0.54397464 0.765874 -1.3813083
0003e0 c5 48 85 3e ce ad 29 3f ae 5e 3a 3f 30 f0 15 3f
       0.2603208 0.6628083 0.7280072 0.5856962
0003f0 d4 02 74 3e 5b cb a9 3c 17 00 4f bf 50 8c 5b 3f
       0.23829204 0.02072685 -0.8085951 0.85760975

embedding_CNN_distances.weight f4 [7, 8]
000000 d7 2b 85 3f 9e 21 93 bf 5f 35 47 3e 70 f4 b8 3e
       1.0404004 -1.1494634 0.19453953 0.3612399
000010 f6 47 70 3f e4 7f 07 bf ff 0b 3c 3f ea 53 9e 3f
       0.93859804 -0.5292952 0.73455805 1.2369359
000020 84 6e 37 bf 02 1b 37 3f ba 5e 37 c0 6e 64 6e be
       -0.7165301 0.71525586 -2.8651567 -0.23280498
000030 7c 0d 81 bf ac 67 0d c0 58 a0 82 bf 05 3f 7f 3d
       -1.008224 -2.2094526 -1.0205183 0.06231596
000040 53 05 84 3e 3b 50 95 bf b9 17 02 3d dd dc c3 be
       0.25785312 -1.1665109 0.031760905 -0.38254443
000050 b6 89 9d 3f 76 27 63 3f c1 51 f5 3f 5b af cf 3e
       1.2307651 0.8873209 1.9165574 0.40563473
000060 2d 05 f3 bd 3e 86 be 3e 34 1e 0b 3f d5 30 e0 bf
       -0.118662216 0.37211794 0.5434296 -1.7514902
000070 69 0d 70 3f cb e1 45 bf 7d 12 d6 3e 02 61 01 bf
       0.9377046 -0.7729766 0.4181098 -0.5053865
000080 13 b6 8c bf 37 e8 30 be 11 f3 1e 3f 31 47 c6 3f
       -1.0993065 -0.17276083 0.6208964 1.5490476
000090 81 fd 0a 3e 59 6b 37 bf 13 47 6b 3e 3d 07 bb 3e
       0.13573267 -0.71648175 0.22976331 0.3652896
0000a0 30 6c bd 3d 34 eb d2 be e7 6c 51 be 29 48 ab 3f
       0.09249151 -0.4119507 -0.20451699 1.3381397
0000b0 75 8c bb 3e a6 c5 69 bf 36 1b 36 bf f2 c8 89 3f
       0.36630598 -0.9131721 -0.7113527 1.0764449
0000c0 00 00 00 00 00 00 00 00 00 00 00 00 00 00 00 00
       0.0 0.0 0.0 0.0
0000d0 00 00 00 00 00 00 00 00 00 00 00 00 00 00 00 00
       0.0 0.0 0.0 0.0

embedding_CNN_prices.weight f4 [6, 5]
000000 e1 cb f2 3f e2 2d b1 3f 5c e2 a2 bf 56 f8 dc bf
       1.8968469 1.3842127 -1.2725329 -1.7263286
000010 9e f2 80 bf 78 ea e3 be d1 78 8e 3f 06 e0 f8 3f
       -1.0074041 -0.44514823 1.113062 1.9443367
000020 98 02 b2 3e b6 77 7c be 83 63 0b 40 83 10 0f bf
       0.34767604 -0.24655041 2.1779487 -0.5588457
000030 76 8a cd bf 71 3e 34 bf fc ea 93 bf 40 76 99 bf
       -1.605788 -0.7040778 -1.1556087 -1.1989212
000040 34 bb eb 3f 78 7d a5 be fa 2a b5 bf b1 22 57 bf
       1.8416505 -0.32322288 -1.415374 -0.8403731
000050 3d fa 1d bf d0 63 a1 3e ae c8 1d 3d bc 0d 47 bf
       -0.6170996 0.31521463 0.03852146 -0.7775533
000060 8d 46 6d 3f 00 00 00 00 00 00 00 00 00 00 00 00
       0.92685777 0.0 0.0 0.0
000070 00 00 00 00 00 00 00 00
       0.0 0.0
