checkpoints/GNNNoCNN_Epoch51_valmse2.1296_testmse2.2586_ndcg0.9334.model (torch, 249600 bytes, 52 tensors)

Pair_embedding_types.weight f4 [106, 16]
0	0x3cb75810	0.022380859
1	0xbdbf4c16	-0.09340684
2	0xbecf70f9	-0.4051588
3	0xbf5e336c	-0.86797214
4	0x3f5e55dd	0.86849767
5	0xbebfbc59	-0.37448385
6	0x3e04135a	0.12898007
7	0xbfa7096f	-1.3049754
8	0x3df8f615	0.121563114
9	0xbb82886b	-0.0039835474
10	0xbf9ee776	-1.2414386
11	0x3f0a4078	0.5400462
12	0xbfcb10cd	-1.5864502
13	0x3ebbf8a7	0.36713144
14	0x3e8e193c	0.27753627
15	0x3f361f21	0.7114125
16	0x3eefd52d	0.46842328
17	0xbf967e9d	-1.1757389
18	0x3ff6d82d	1.9284722
19	0xbed4ef50	-0.4158883
20	0xbe81f207	-0.25379965
21	0x3e3dc675	0.18532737
22	0xbf186182	-0.59523785
23	0x3f2d4edb	0.6769845
24	0xbf8471a0	-1.0347176
25	0x3d2695ab	0.04067008
26	0xbf084904	-0.53236413
27	0x4053f57c	3.3118582
28	0xbf4ef9ec	-0.808501
29	0xbf11b3db	-0.5691506
30	0xbf8ed1de	-1.1157796
31	0x3f815e29	1.010686
32	0x3fdb49d9	1.7131912
33	0x40125652	2.2865186
34	0xbf83cd48	-1.0297022
35	0x3e17a868	0.14810336
36	0x3f60f134	0.87868047
37	0xbfa9ee52	-1.3275855
38	0xbf917860	-1.136486
39	0x3d879c5f	0.06621622
40	0x3f22b1d4	0.63552594
41	0x3e059bb3	0.13047676
42	0x3f81752f	1.0113887
43	0x3dd3ce6a	0.10342105
44	0xbf74adcd	-0.955777
45	0x3dc15dec	0.09441742
46	0x3f915058	1.1352644
47	0xbdab3ea5	-0.08361558
48	0xbf272ec1	-0.65305716
49	0x3f970976	1.1799762
50	0xbec7c2d1	-0.3901582
51	0xbf94f03d	-1.1635815
52	0xbfd6df36	-1.6786869
53	0x3f5a21f5	0.85208064
54	0xc0002031	-2.0019648
55	0x3c798483	0.015229347
56	0x3c51cf60	0.01280579
57	0x3f87352a	1.0563099
58	0xbfab1396	-1.3365352
59	0x3fa3b505	1.2789618
60	0x3c58b843	0.013227525
61	0x3f781569	0.9690767
62	0x3f9c2ef4	1.2201829
63	0x3d46193f	0.04836392
64	0xbdbdee39	-0.09273953
65	0x3e433d3e	0.19066331
66	0x3f54b325	0.8308585
67	0xbfd2a42a	-1.6456349
68	0x400897ed	2.1342728
69	0xbf8a9f52	-1.0829871
70	0x3e502907	0.2032815
71	0xbfabf0be	-1.3432844
72	0xbea051b5	-0.31312338
73	0x3e1373d8	0.1439966
74	0x3e2b37f2	0.1672056
75	0x3f705cd4	0.93891644
76	0x3ec1ae41	0.37828258
77	0xbe1cc1c6	-0.15308294
78	0x3e6d94cb	0.23201291
79	0x3e4d54cd	0.2005188
80	0xbea083fb	-0.31350693
81	0x3e1e9f90	0.15490556
82	0x3e93ac17	0.28842232
83	0x3f86dc85	1.0536047
84	0xbeada2bd	-0.33913222
85	0xbf960865	-1.1721312
86	0xbe2e1897	-0.17001568
87	0xbec62b52	-0.38704926
88	0x3f2ba1b7	0.6704363
89	0x3fc649ea	1.5491307
90	0xbf3903c3	-0.72271365
91	0xbf4f3689	-0.8094259
92	0xbf5a6606	-0.85311925
93	0x3f210e2c	0.6291225
94	0x3f62bb23	0.885668
95	0x3fbf6ec3	1.4955677
96	0xbfb21d6e	-1.3915231
97	0x3e609c37	0.21934591
98	0x3fe73b50	1.8064976
99	0x3e1175b3	0.14205055
100	0x3f39e008	0.7260747
101	0x3e5d2f4d	0.21600075
102	0xbf63cbc3	-0.8898279
103	0x400bb592	2.1829572
104	0xbf8dfe24	-1.1093183
105	0x3f9cfc2d	1.2264458
106	0x3e5e0255	0.21680577
107	0xbf7c5929	-0.9857355
108	0xbef0093d	-0.46882048
109	0x3e766f9d	0.24066015
110	0xbef3d981	-0.4762688
111	0xbc9fd6d6	-0.019511621
112	0x3f391c10	0.72308445
113	0x3fc54a9b	1.5413393
114	0x3e813d47	0.25242063
115	0xbebf66f4	-0.37383235
116	0xbf287060	-0.6579647
117	0x3e4a4e64	0.19756466
118	0xbe9aa4a0	-0.30203724
119	0xbe2cf3f8	-0.16889942
120	0x3f8edcae	1.1161096
121	0xc026852b	-2.601878
122	0x3e86098e	0.26179165
123	0xbe8e586f	-0.27801844
124	0xbe1fac03	-0.15592961
125	0xbfc005b9	-1.5001746
126	0xbdd7938b	-0.105261885
127	0x3d8a0a47	0.067402415
128	0x3e8f5438	0.2799394
129	0x3fc69dc2	1.5516894
130	0x3ebcc573	0.36869392
131	0x3f77c0e1	0.96778685
132	0xbe53cc93	-0.20683508
133	0x3f900d61	1.1254083
134	0xbfa2f370	-1.2730541
135	0x3f1b3891	0.6063319
136	0x3e63c2d9	0.22242297
137	0xbf805dd7	-1.0028638
138	0x3fba5833	1.4558166
139	0xbf093a02	-0.5360414
140	0xbd02c00f	-0.031921443
141	0x3fa40340	1.2813492
142	0xbd1915be	-0.03737425
143	0x3eafb9e3	0.34321508
144	0x3f71bdab	0.94430035
145	0x3da1dd67	0.07903557
146	0x3edd1edd	0.4318761
147	0xbf7b53a3	-0.98174495
148	0xbecfe6b3	-0.40605697
149	0x3f70ee94	0.9411404
150	0x3ec31f09	0.38109615
151	0xbf1b4e2e	-0.6066617
152	0x3f1eb32b	0.6199214
153	0xbd24916a	-0.04017774
154	0x40106d36	2.2566657
155	0x3fb83845	1.4392172
156	0x3fbc7a38	1.4724798
157	0x3e07f735	0.13277896
158	0x3ed5869f	0.4170427
159	0xbe9982ab	-0.29982504
160	0xbd75ed89	-0.060040984
161	0xbdf92ffb	-0.12167355
162	0x3e173716	0.14767107
163	0x3e8f3fe1	0.27978423
164	0xbf88af59	-1.0678512
165	0xbf42dbad	-0.7611645
166	0x3f983d88	1.1893778
167	0x3f8763a0	1.0577278
168	0xbfb8feb0	-1.4452724
169	0x3f37c446	0.71783864
170	0xbe570f0a	-0.2100183
171	0x3faafdcc	1.3358703
172	0x3fb39605	1.4030157
173	0x3d4585a0	0.048223138
174	0x3e9f3f87	0.31103155
175	0x3ed21985	0.41035095
176	0xbf9c139b	-1.2193483
177	0xbf1ed19f	-0.62038606
178	0xbe13e00b	-0.14440934
179	0x3f6ab251	0.9167834
180	0xbe6c8b34	-0.23099977
181	0xbf9ef1a1	-1.2417489
182	0x3f4b6bf8	0.7946162
183	0x3f24f522	0.64436543
184	0x3ea34551	0.31888822
185	0x3f4ebf78	0.8076091
186	0x3ffe6847	1.9875573
187	0x3e613a23	0.21994834
188	0x3d45bbac	0.04827468
189	0x3fb67cf7	1.4256886
190	0xbe904918	-0.28180766
191	0x3e714ddf	0.23564862
192	0x3ee45d60	0.4460249
193	0xbfc8149a	-1.5631287
194	0x3dfb4777	0.1226949
195	0xbea5b629	-0.3236554
196	0x3fd9f2e8	1.7027254
197	0xbf82c548	-1.0216455
198	0x3f07c950	0.53041553
199	0x3fc31595	1.5240961
200	0xbe26f78a	-0.16305366
201	0xbfbd55b4	-1.479178
202	0xbf3b8eed	-0.7326496
203	0x3f1811dc	0.5940225
204	0x3f63a7bc	0.8892782
205	0x3e4a7f04	0.19775015
206	0x3dc7d639	0.097576566
207	0x3eb69a93	0.35664806
208	0xbf4dee86	-0.8044208
209	0x3fd48ef2	1.6606123
210	0xbeb74a92	-0.3579908
211	0x400bf844	2.187028
212	0x3fa35e28	1.2763109
213	0x3ecb31a2	0.39686304
214	0xbfa9b92e	-1.3259637
215	0x3e9a0a26	0.30085868
216	0xbec9b4bd	-0.39395705
217	0x3e81e9b7	0.25373623
218	0xbf271206	-0.65261877
219	0x3f0fdfe6	0.56201017
220	0xbfa61f75	-1.297835
221	0x405295b0	3.2903862
222	0x40035baa	2.0524697
223	0xc005266c	-2.08047
224	0xbf65ca58	-0.8976188
225	0xbd80cc48	-0.062889636
226	0xc0152e1f	-2.33094
227	0x3fae8c46	1.3636558
228	0xbf867365	-1.0503966
229	0xbeb368ed	-0.3504099
230	0x3ec966a6	0.39336127
231	0xbf7ac306	-0.9795383
232	0xbee1d6cd	-0.44109192
233	0xbf223b92	-0.6337215
234	0xbf4030db	-0.7507455
235	0x3ebcdcea	0.36887294
236	0xbfae1329	-1.3599597
237	0xbf6a7532	-0.91585076
238	0xbec84dfe	-0.39122003
239	0xbfc537c9	-1.5407649
240	0xbf8c5d7b	-1.0966028
241	0x3edce476	0.43143052
242	0xbfc6a467	-1.5518922
243	0x3d1ba12d	0.037995506
244	0x3eb14d79	0.3462942
245	0x3fb78b2b	1.4339346
246	0x3f659003	0.8967287
247	0xbfad439e	-1.353626
248	0x3f71fc58	0.9452567
249	0xbf8c70c0	-1.0971909
250	0xbe92d658	-0.28679156
251	0xbe9a4cee	-0.30136818
252	0x3fd2f5d7	1.6481274
253	0xbede6655	-0.43437448
254	0xc0000d2d	-2.0008042
255	0x3e0476a3	0.12935881

embedding_Pair_distances.weight f4 [7, 8]
0	0x3f01c09d	0.5068453
1	0xbf5673a2	-0.8377019
2	0x3f6fcb30	0.93669415
3	0x403df8e3	2.9683158
4	0x3f2a5431	0.66534716
5	0x3fb48c60	1.4105339
6	0xbeaead10	-0.3411641
7	0x3e9724ea	0.2952035
8	0x4000edff	2.0145261
9	0x400ea1a7	2.2286165
10	0x3f548915	0.8302167
11	0xbdd26c6a	-0.102745846
12	0x3fbe1cd3	1.4852546
13	0xbf75af14	-0.95970273
14	0x3fcbc1cf	1.5918521
15	0x4023a591	2.5569804
16	0xbf36ebdd	-0.7145365
17	0xbf63f045	-0.890385
18	0xbf7795dc	-0.9671304
19	0xbd90ffbc	-0.070800275
20	0xbfb5b681	-1.4196321
21	0xbf04c652	-0.5186511
22	0x3df70da6	0.1206315
23	0xbfc89800	-1.5671387
24	0xbed2353a	-0.41056234
25	0x3eca9b4a	0.395716
26	0xbff30d75	-1.8988482
27	0xbe551a30	-0.20810771
28	0xc0059f11	-2.0878336
29	0xbff076a6	-1.8786209
30	0xbf77d1cb	-0.96804494
31	0xbefcf161	-0.49402907
32	0x3f850b41	1.039406
33	0x3f981840	1.18824
34	0xbecaa99c	-0.39582527
35	0xc002d914	-2.0444994
36	0xbfa6eaf6	-1.3040454
37	0xbe3869c4	-0.18009096
38	0xbf2d0e5b	-0.6760003
39	0xbf8f5da8	-1.1200457
40	0xbd811d88	-0.06304461
41	0x3ed61c45	0.41818443
42	0xbf09dba4	-0.5385077
43	0x3e38ff5c	0.18066162
44	0xbfb441d3	-1.4082588
45	0xbf48a3b2	-0.7837478
46	0xbfd484d3	-1.6603035
47	0xbf0bee62	-0.5466062
48	0x00000000	0.0
49	0x00000000	0.0
50	0x00000000	0.0
51	0x00000000	0.0
52	0x00000000	0.0
53	0x00000000	0.0
54	0x00000000	0.0
55	0x00000000	0.0

embedding_Pair_prices.weight f4 [6, 5]
0	0x3dd2714a	0.102755144
1	0x3eec93a5	0.46206394
2	0x3ed43146	0.41443843
3	0xbe8a1120	-0.2696619
4	0x3f9bc756	1.2170208
5	0x3f5ae7e7	0.85510105
6	0x3d0fabe7	0.03507605
7	0x3f63ef03	0.8903658
8	0x3f3c79d6	0.73623407
9	0x3f4f1efe	0.80906665
10	0xbe1b05b9	-0.15138902
11	0xbf1e2525	-0.6177543
12	0xbf25642c	-0.64605975
13	0x400ca902	2.1978154
14	0xbf46fcc9	-0.7772947
15	0xbf9e299e	-1.235645
16	0xc0022f5b	-2.0341403
17	0xbefa20bb	-0.48853096
18	0x3e3527d1	0.1769097
19	0x40003ffd	2.0039055
20	0xbd219f23	-0.039458405
21	0xbfbab287	-1.4585732
22	0xbdbd76e3	-0.092511915
23	0x3f81093a	1.0080941
24	0xbda84e2a	-0.082180336
25	0x00000000	0.0
26	0x00000000	0.0
27	0x00000000	0.0
28	0x00000000	0.0
29	0x00000000	0.0

Pair_shop_mlp.fc_layers.0.weight f4 [64, 32]
0	0x3d08afdd	0.03337084
1	0xbd3f5335	-0.04671021
2	0x3e258aeb	0.16166274
3	0x3e434d2e	0.1907241
4	0xbe7103f8	-0.2353667
5	0x3d4cb4f1	0.049977247
6	0x3da249c3	0.07924225
7	0xbe0084bb	-0.12550633
8	0x3d75687d	0.0599141
9	0x3e2a671b	0.16640894
10	0xbe1cf0bc	-0.15326208
11	0x3cddf71e	0.027095374
12	0xbe0269c5	-0.1273566
13	0xbe5273f1	-0.2055204
14	0x3d8bccde	0.06826185
15	0x3d86fc7c	0.06591126
16	0x3de25725	0.11051778
17	0x3c65da31	0.014029072
18	0xbaedcead	-0.0018143259
19	0x3d9c96b5	0.076459326
20	0x3c9743e0	0.018464983
21	0x3dc29c7a	0.09502502
22	0x3c930350	0.017945915
23	0x3e7bfcd3	0.24608164
24	0xbe0557f2	-0.1302183
25	0x3c96dcd2	0.018415842
26	0x3c5704ce	0.013123704
27	0x3dba08b8	0.09083694
28	0x3db5907e	0.0886545
29	0x3d608efb	0.054823857
30	0xbdbfa113	-0.09356894
31	0xbe4f5c70	-0.20250106
32	0xbe3eec84	-0.18644911
33	0x3dd08e77	0.10183423
34	0xbda84a95	-0.082173504
35	0x3e13e074	0.14441091
36	0x3db17b2a	0.0866607
37	0x3e8091da	0.25111276
38	0x3e965a51	0.2936578
39	0xbe041212	-0.12897518
40	0xbe0cfe95	-0.1376899
41	0xbd9b7ab4	-0.07591763
42	0xbdc892da	-0.09793635
43	0x3bef20b0	0.007297598
44	0xbc900ea8	-0.017585114
45	0xbd197a06	-0.037469886
46	0x3ca8a553	0.020586645
47	0x3e747eb4	0.23876458
48	0x3d20c56d	0.03925078
49	0xbe31736d	-0.17329188
50	0x3c84467e	0.016146895
51	0x3e4d676e	0.20058987
52	0x3d6ed34a	0.05830697
53	0xbdbee5f0	-0.09321201
54	0xbc8d53db	-0.0172519
55	0x3dd35a1c	0.103199214
56	0xbdcc3f89	-0.09973056
57	0x3daf72b0	0.08566797
58	0xbc6b1f44	-0.014350716
59	0xbe201761	-0.15633918
60	0x3e250e18	0.16118658
61	0xbda7af63	-0.08187749
62	0x3e4a9f68	0.19787371
63	0x3d3e6063	0.04647864
64	0x3d73b7c9	0.059501443
65	0x3d28234f	0.041049298
66	0xbcb19681	-0.021678211
67	0xbd890d94	-0.06692043
68	0x3e0645ba	0.13112536
69	0x3e0df443	0.1386271
70	0x3d904dc6	0.07046084
71	0x3de25746	0.11051802
72	0x3e686fdb	0.2269892
73	0xbe49042d	-0.19630499
74	0xbded3b74	-0.115836054
75	0x3df2cbbd	0.11855266
76	0xbdaca84c	-0.084305376
77	0xbe06ea62	-0.13175347
78	0xbd4fd91e	-0.05074417
79	0x3e002703	0.12514882
80	0xbe1dbc4a	-0.15403858
81	0xbe1cab3b	-0.15299694
82	0x3e12d8d9	0.14340533
83	0x3e1f5604	0.15560156
84	0xbddc5fa8	-0.107604325
85	0x3de57a36	0.112049505
86	0x3b7f5484	0.0038960287
87	0xbc19f740	-0.009397328
88	0xbdb1e5c2	-0.08686401
89	0x3dcff5ba	0.101542905
90	0x3dc779f3	0.09740057
91	0xbdf2e96e	-0.118609294
92	0x3df32efa	0.118741944
93	0xbdfdb707	-0.12388425
94	0x3de7a3e4	0.113105565
95	0x3d256d22	0.04038728
96	0xbdc23380	-0.09482479
97	0xbdde6e0f	-0.10860836
98	0xbcf126cf	-0.02943745
99	0xbcb83966	-0.022488307
100	0x3d80ba24	0.062855035
101	0x3e0edc8c	0.1395132
102	0x3e24f9f8	0.1611098
103	0x3caa55bc	0.020792834
104	0xbcf5fbd5	-0.03002731
105	0x3e4f65ae	0.20253631
106	0xbe14a69d	-0.14516683
107	0x3de78afa	0.113058046
108	0x3df00e7b	0.11721512
109	0x3e0472b9	0.12934388
110	0xbe48b886	-0.1960164
111	0x3e2b8519	0.16749991
112	0xbdb122e3	-0.08649232
113	0x3dedf7b0	0.11619508
114	0xbe3abcc1	-0.18236066
115	0xbd7deba7	-0.061992314
116	0x3df173e4	0.117896825
117	0xbda5df00	-0.080991745
118	0xbba01954	-0.004885832
119	0x3e182ef2	0.14861658
120	0x3e2757ec	0.16342133
121	0x3d98cb37	0.07460635
122	0x3e256b93	0.16154318
123	0x3da1659a	0.07880707
124	0xbe4ee8d1	-0.20206
125	0xbcaf396a	-0.021389682
126	0xbe228f5a	-0.15874997
127	0xbdca2ca4	-0.09871796
128	0x3d19a12b	0.037507217
129	0x3d9979e7	0.07493954
130	0x3d0e6d3b	0.03477214
131	0x3e1e0f10	0.15435433
132	0x3ca68180	0.020325422
133	0xbe30b6a8	-0.17257178
134	0x3d48b8e0	0.049004436
135	0xbddd408e	-0.108033285
136	0xbd995dc3	-0.07488587
137	0xbdd7c413	-0.10535445
138	0x3d567bb9	0.052364085
139	0xbd6b0258	-0.057375282
140	0xbc678e87	-0.014133102
141	0xbe053f70	-0.1301248
142	0xbd329e95	-0.043608267
143	0x3db17c8f	0.08666336
144	0xbe014834	-0.126252
145	0xbde8ba93	-0.11363711
146	0xbcbfcfe1	-0.023414554
147	0xbc48c95c	-0.012255039
148	0x3e09a8e9	0.1344334
149	0x3d7270af	0.059189495
150	0xbe127759	-0.1430334
151	0x3d65cb21	0.056101922
152	0xbe325b0a	-0.17417541
153	0xbde6345b	-0.11240455
154	0xbdbd33d5	-0.09238402
155	0xbdb332d8	-0.08749932
156	0x3cd0f747	0.025508536
157	0xbe19b61f	-0.1501088
158	0x3d82ea7c	0.063923806
159	0xbe089831	-0.13339306
160	0x3d23064a	0.03980092
161	0x3db18cff	0.08669471
162	0xbd861056	-0.065460846
163	0xbba8eb04	-0.005154969
164	0xbbfaa732	-0.0076493258
165	0x3dc88ee5	0.0979288
166	0x3e2ab274	0.16669637
167	0x3db1260d	0.08649836
168	0xbe41169f	-0.18856286
169	0xbe4a52be	-0.19758126
170	0xba5dfd67	-0.0008468241
171	0xbdef63dc	-0.116889685
172	0x3d559686	0.052145503
173	0xbe5470b5	-0.2074612
174	0xbdfba16f	-0.122866504
175	0x3cd41cf4	0.025892712
176	0x3aa332aa	0.0012451012
177	0x3e2c8250	0.16846585
178	0xbe0fd40d	-0.14045735
179	0x3de05c9f	0.10955166
180	0xbdc69e85	-0.09698204
181	0x3e137a80	0.14402199
182	0x3e0365e4	0.12831837
183	0xbe128d2b	-0.14311664
184	0x3e396beb	0.18107574
185	0x3e430c15	0.19047578
186	0x3d92eb21	0.071737535
187	0xbd6ba35c	-0.05752884
188	0xbdc76752	-0.09736504
189	0x3e0e61d5	0.13904507
190	0x3cc67976	0.024227839
191	0xbe3acd57	-0.18242393
192	0x3d878cac	0.06618628
193	0xbe2fb2bd	-0.17158027
194	0xbddd8c8d	-0.108178236
195	0xbd205f4c	-0.039153382
196	0x3c9147ea	0.017734487
197	0xbe2c7cdf	-0.1684451
198	0xbd9874c4	-0.07444146
199	0xbe0d90c7	-0.1382476
200	0xbca0c89b	-0.019626906
201	0xbe424dbf	-0.1897497
202	0xbd2f60d1	-0.04281694
203	0xbe064553	-0.13112383
204	0x3d97e68f	0.074170224
205	0x3ce74c0e	0.028234508
206	0xbd7552a1	-0.059893254
207	0x3dd1e327	0.10248404
208	0xbccd329e	-0.02504855
209	0x3de4c598	0.111705005
210	0xbd59776f	-0.053092416
211	0x3dffb447	0.12485557
212	0x3d2b5f46	0.041838907
213	0xbe0d0bf5	-0.13774092
214	0xbd9ef45f	-0.07761454
215	0xbd51da43	-0.05123354
216	0x3e3e8007	0.18603526
217	0x3c89bb84	0.016813047
218	0x3dd8b1c7	0.10580783
219	0xbe43490c	-0.19070834
220	0xbe39a68c	-0.18129939
221	0xbd378c00	-0.04481125
222	0x3dcd97ff	0.100387566
223	0xbd437b64	-0.047725096
224	0xbc64df9a	-0.013969326
225	0xbd47ddb1	-0.048795406
226	0xbd805d63	-0.06267812
227	0xbb27b241	-0.0025588425
228	0x3e1abce5	0.1511112
229	0x3d435331	0.04768676
230	0x3dbdb0a2	0.09262206
231	0x3dd19378	0.102332056
232	0xbdc79c52	-0.097466126
233	0x3cef00d6	0.029175203
234	0x3d487f20	0.04894936
235	0xbd10a3d1	-0.035312477
236	0x3e2bf46b	0.16792457
237	0x3e448e38	0.19194877
238	0x3ce346e0	0.027743757
239	0x3dec5e24	0.115413934
240	0xbe28f1d9	-0.16498508
241	0xbb1a12db	-0.0023509774
242	0xbd4c9228	-0.049944073
243	0xbe3a4487	-0.18190204
244	0xbdc23b73	-0.09483995
245	0x3d3d2929	0.04618183
246	0xbe21a7f1	-0.15786721
247	0xbe1353b1	-0.14387394
248	0x3db87556	0.09006755
249	0x3da90fe1	0.08254982
250	0x3e5cfe2e	0.21581337
251	0x3dd93260	0.106053114
252	0x3a6a20df	0.000893129
253	0x3d4ac058	0.04949984
254	0xbce1863a	-0.027529825
255	0x3d9a00e8	0.07519704

Pair_shop_mlp.fc_layers.0.bias f4 [64]
0	0x3e3ca2ae	0.18421432
1	0xbc843ea9	-0.01614316
2	0xbde31642	-0.1108823
3	0xbdafb82b	-0.08580049
4	0xbdc289dc	-0.09498951
5	0xbc93f754	-0.018062271
6	0x3dcdf0e0	0.10055709
7	0xbdbe33f7	-0.09287255
8	0xbde4da66	-0.11174469
9	0x3db6b472	0.08921136
10	0x3dc186d7	0.09449547
11	0x3e2123f6	0.15736374
12	0xbdcc23fe	-0.099678025
13	0x3dcf1f4a	0.1011339
14	0x3db2477f	0.08705043
15	0xbd55f72d	-0.05223768
16	0xbde0140e	-0.10941325
17	0xbdadf0a9	-0.08493168
18	0xbda46960	-0.08027911
19	0x3da5ee84	0.08102134
20	0x3e3c722f	0.18402933
21	0x3e137f4e	0.14404032
22	0xbdc39c32	-0.09551276
23	0xbd62aed8	-0.055342525
24	0xbd558721	-0.052130822
25	0xbdb54e41	-0.088528164
26	0xbca8a0c6	-0.020584475
27	0x3d04e43b	0.03244422
28	0xbe2c849d	-0.16847463
29	0x3dee6f31	0.11642302
30	0x3d60539c	0.054767236
31	0x3ced04a7	0.028932882
32	0x3d5aa7b0	0.053382576
33	0x3d4a04f1	0.04932112
34	0xbd0e9c1a	-0.03481684
35	0xbd7bbe7a	-0.06146095
36	0xbcb47211	-0.022027047
37	0x3dda567b	0.10661026
38	0xbda1a6da	-0.078931525
39	0x3ddab96e	0.10679899
40	0xbcdee4bb	-0.027208677
41	0x3d301024	0.042984143
42	0x3d9bd50f	0.07608997
43	0x3e25a9c5	0.16178043
44	0x3db4c066	0.088257596
45	0xbd231591	-0.03981549
46	0x3e3e2d89	0.18572058
47	0xbd62c2d9	-0.055361602
48	0xbdadab75	-0.084799685
49	0xbda3b034	-0.079925925
50	0xbc89cb31	-0.016820522
51	0x3d952650	0.07282698
52	0x3e051764	0.12997204
53	0x3d9c39c2	0.07628204
54	0xbdef6798	-0.11689681
55	0xbd8f3ab0	-0.069936156
56	0x3ce80232	0.02832136
57	0xbe10eb23	-0.14152198
58	0x3d15eabc	0.036600813
59	0x3e36b0fc	0.17840952
60	0xbde7e043	-0.113220714
61	0x3d782ad8	0.060587734
62	0xbe17c1e6	-0.1482006
63	0xbd549805	-0.05190279

Pair_shop_mlp.fc_layers.1.weight f4 [16, 64]
0	0xbe885cb4	-0.26633227
1	0xbd1a7005	-0.037704486
2	0x3b56af70	0.0032758377
3	0x3da300a2	0.07959105
4	0x3d4f526c	0.050615713
5	0xbca6103f	-0.020271419
6	0x3dd9c5e4	0.10633448
7	0xbdb4eb4b	-0.08833941
8	0xbd1a424a	-0.037660874
9	0xbc600563	-0.013673159
10	0xbbc618ef	-0.006045453
11	0x3ddee4fe	0.108835205
12	0xbdad39ff	-0.084583275
13	0xbda2b0a8	-0.07943851
14	0xbe2793de	-0.16365
15	0x3e1118c4	0.14169604
16	0x3dcf52be	0.10123204
17	0x3e13a1c1	0.14417173
18	0xbccad219	-0.024758385
19	0xbc95cbc7	-0.018285645
20	0x3e1c2b7c	0.15250963
21	0xbcfdeab8	-0.030995712
22	0x3da3eac5	0.08003763
23	0x3d2cdb7e	0.04220151
24	0x3be66e61	0.007032201
25	0x3db1470d	0.0865613
26	0xbe291d45	-0.16515072
27	0x3e339fab	0.17541377
28	0x3e19e3f1	0.15028359
29	0x3db1fcae	0.08690773
30	0xbdde88c6	-0.10865931
31	0xbd92c65f	-0.071667425
32	0x3e2fd899	0.17172469
33	0xbdda7b0d	-0.10668001
34	0x3de8b036	0.113617346
35	0x3c208807	0.009798056
36	0x3e03df38	0.1287812
37	0x3e5a2024	0.21301323
38	0x3d86836f	0.06568038
39	0x3cc9c518	0.024630114
40	0x3d439017	0.047744837
41	0x3d935064	0.07193068
42	0x3d41ab2c	0.047282383
43	0xbd8c56b5	-0.068524756
44	0xbe198f21	-0.14996006
45	0xbd0c561a	-0.0342618
46	0x3cc74877	0.024326546
47	0x3dd8172b	0.10551294
48	0x3d4cd3f3	0.050006818
49	0x3d467708	0.04845336
50	0x3e3aab2e	0.18229362
51	0x3cae6ec2	0.021293048
52	0x3df06041	0.11737109
53	0x3da62be0	0.08113837
54	0xbe004a14	-0.12528259
55	0xbd6a7dfa	-0.057249047
56	0x3de1442a	0.109993294
57	0xbdce99ab	-0.100879036
58	0x3e5c84e3	0.21535067
59	0x3c5af470	0.0133639425
60	0x3cfa0736	0.030521017
61	0xbca27270	-0.019829959
62	0x3ddd93d6	0.10819213
63	0x3be58cd6	0.0070053143
64	0x3e640961	0.22269203
65	0xbc4a9529	-0.012364664
66	0x3c617934	0.013761807
67	0x3df66e49	0.12032754
68	0xbd383a2c	-0.044977352
69	0x3db82b97	0.08992689
70	0x3ddce881	0.10786534
71	0xbda6c342	-0.08142711
72	0x3d9ce01e	0.076599345
73	0x3d08dcc1	0.033413652
74	0x3dac59dd	0.084155776
75	0x3dd44e5d	0.10366509
76	0x3da6ac6c	0.081383556
77	0x3da33a5e	0.07970117
78	0xbcf8cd3d	-0.030371303
79	0x3dfec8b7	0.12440627
80	0x3ca82156	0.020523708
81	0xbd9b1124	-0.07571629
82	0x3e0b0038	0.13574302
83	0xbd53af58	-0.051680893
84	0xbc2adaff	-0.010428189
85	0xbd9f49c3	-0.07777741
86	0x3db59344	0.08865979
87	0xbdb80e7d	-0.089871384
88	0x3d32aa09	0.04361919
89	0x3c6e21a2	0.014534386
90	0xbd744213	-0.059633326
91	0xbb033d29	-0.0020025468
92	0xbd9b65c4	-0.0758777
93	0x3dccf1fd	0.10007093
94	0x3c1fca52	0.009752827
95	0x3dbfa69f	0.09357952
96	0xbd3b20fa	-0.045685746
97	0xbd6135ce	-0.054982953
98	0xbdf20b9d	-0.11818621
99	0x3d8d0164	0.06885031
100	0x3b804dc6	0.0039155213
101	0xbd9a108a	-0.07522686
102	0xbd6eabe1	-0.058269385
103	0x3d9529dc	0.07283375
104	0xbd8cef62	-0.06881596
105	0x3cc72943	0.024311667
106	0x3e061515	0.1309398
107	0x3e1cc96e	0.15311214
108	0xbce353ce	-0.027749922
109	0x3b8cae7d	0.0042932616
110	0x3dfa41d7	0.12219589
111	0xbc6ede0c	-0.014579307
112	0xbe335354	-0.17512256
113	0xbd14c0f1	-0.036316816
114	0x3c10e84f	0.008844449
115	0x3b83f5f7	0.004027124
116	0xbd475d33	-0.048672866
117	0xbcc95ddd	-0.02458089
118	0x3d72fb76	0.059321843
119	0xbd8d32bc	-0.068944424
120	0xbbd2c9f2	-0.006432765
121	0x3dc38707	0.09547239
122	0xbdf591a9	-0.11990673
123	0x3e0b58d8	0.1360811
124	0x3dd2d757	0.10294979
125	0xbdd3f479	-0.10349364
126	0xbdbd7a24	-0.09251812
127	0x3da68116	0.0813009
128	0x3e791fd5	0.24328549
129	0x3d91e1fe	0.07123183
130	0x3d9fcb84	0.078024894
131	0x3a813f01	0.0009860696
132	0xbde62464	-0.1123741
133	0x3d5f1a3b	0.054468375
134	0xbc11c002	-0.008895876
135	0xbd8be710	-0.06831181
136	0x3d387b3b	0.045039397
137	0x3de4bcde	0.11168836
138	0x3c6392c3	0.013889971
139	0xbcff0747	-0.0311314
140	0xbd281447	-0.041034963
141	0x3cfd9f63	0.03095979
142	0x3c9a2caa	0.018820126
143	0xbd89d225	-0.06729535
144	0xbcb05685	-0.02152563
145	0x3cb7001b	0.022338917
146	0x3dd96840	0.10615587
147	0x3e0bdce8	0.13658488
148	0x3d490fb3	0.049087238
149	0x3bb1e439	0.0054288176
150	0xbd06afac	-0.032882378
151	0x3d999037	0.0749821
152	0xbc2a5ef1	-0.010398612
153	0xbd90b7a1	-0.070662744
154	0x3e70b180	0.23505211
155	0xbd54efc4	-0.05198647
156	0xbd14be8c	-0.036314532
157	0x3e2abf68	0.16674578
158	0x3e4eabd8	0.2018274
159	0xbdd8474a	-0.10560472
160	0x3d9862f4	0.07440749
161	0x3c999f96	0.018752854
162	0xbd90f39e	-0.07077716
163	0xbd0fc585	-0.03510048
164	0xbc9d8c2f	-0.019231884
165	0xbdd4a46d	-0.10382924
166	0x3e1d174a	0.15340915
167	0x3dc5cda4	0.096583635
168	0x3db78be9	0.089622326
169	0xbcc2f54d	-0.02379861
170	0x3bf47388	0.0074600615
171	0xbbc9559b	-0.006144238
172	0x3e1af23e	0.1513147
173	0x3cd19a36	0.025586229
174	0x3d366b8c	0.04453616
175	0xbdd0e046	-0.10199027
176	0xbe311be9	-0.17295803
177	0x3da6dae7	0.08147221
178	0xbe34844b	-0.17628591
179	0x3b437ac9	0.0029827824
180	0xbe17f037	-0.14837728
181	0x3df80a73	0.12111368
182	0x3d2fa487	0.042881515
183	0x3dcb73ed	0.099342205
184	0x3c9d5858	0.019207165
185	0xbd5270c2	-0.051377065
186	0x3d510a84	0.05103542
187	0xbc076930	-0.008264825
188	0x3d930f37	0.071806364
189	0x3dde0121	0.10840059
190	0xbdcdf85c	-0.100571364
191	0x3db48657	0.08814686
192	0x3e3b0f0f	0.18267463
193	0x3d88c077	0.06677335
194	0x3c24c868	0.010057546
195	0xbdcffca3	-0.101556085
196	0x3d3da678	0.046301335
197	0xbca7a729	-0.02046545
198	0x3debe6b7	0.11518615
199	0x3e043b73	0.12913303
200	0x3dfa3efa	0.12219043
201	0x3e4707bd	0.19436546
202	0x3e163299	0.14667739
203	0x3c868852	0.016422424
204	0x3d190e27	0.037367012
205	0xbd8c48e7	-0.068498425
206	0x3bf916cd	0.007601595
207	0xbdbca6b3	-0.09211483
208	0x3d8ca6fd	0.06867788
209	0xbd556b88	-0.052104503
210	0x3d3c5414	0.04597862
211	0x3cfb98c2	0.030712489
212	0xbd423033	-0.047409248
213	0x3de94e27	0.113918595
214	0x3e0444b9	0.1291684
215	0x3dde6e8a	0.108609274
216	0x3e26fc05	0.16307075
217	0xbe3fbc1b	-0.187241
218	0x3e6a3c61	0.22874595
219	0x3d9b10b6	0.07571547
220	0x3c33f2c3	0.010983172
221	0x3de6744f	0.11252653
222	0x3e32d857	0.1746534
223	0x3e158168	0.14600146
224	0x3db17683	0.086651824
225	0x3d0d044b	0.034427922
226	0x3d0a62b9	0.033785556
227	0xbd48d418	-0.049030393
228	0xbe002d4d	-0.12517281
229	0xbdcdf58c	-0.100566
230	0xbda40543	-0.08008816
231	0xba308a7b	-0.00067345024
232	0xbc0ceb9f	-0.008601098
233	0x3d8a36db	0.06748744
234	0x3d909e9c	0.07061502
235	0x3b73c554	0.0037196474
236	0x3d72892e	0.059212856
237	0xbcc3f3c1	-0.023919942
238	0xbd0bfc2b	-0.034176033
239	0x3d56df1b	0.052458864
240	0xbe8ae17f	-0.27125165
241	0xbe06cef1	-0.1316488
242	0xbe426aab	-0.18986003
243	0x3deeaa4a	0.11653574
244	0xbe060ebe	-0.13091561
245	0xbd70a3b6	-0.058749877
246	0xbda7bc68	-0.081902325
247	0x3d72d89e	0.059288613
248	0x3dcee71b	0.101026736
249	0xbd7379a0	-0.059442163
250	0x3dbc9f8e	0.0921012
251	0x3e0b561f	0.13607071
252	0xbd1d03cb	-0.038333695
253	0x3d75ceff	0.06001186
254	0x3c847265	0.016167829
255	0x3e1d37b5	0.15353282

Pair_shop_mlp.fc_layers.1.bias f4 [16]
0	0xbb7f9884	-0.0039000819
1	0x3c26607b	0.010154839
2	0x3e0a8ce2	0.13530305
3	0x3d26f62b	0.040762108
4	0xbdab1be4	-0.08354929
5	0x3b3216c5	0.0027174216
6	0x3c89133a	0.0167328
7	0xbda82c02	-0.08211519
8	0x3d4d05bf	0.050054308
9	0xbda43cc8	-0.080194056
10	0xbd5d6fc7	-0.054061677
11	0x3d92d01b	0.07168599
12	0x3dce8b75	0.10085193
13	0x3c83c08a	0.01608302
14	0xbdb90f9a	-0.09036179
15	0x3e0eeb84	0.1395703

Pair_score_mlp.fc_layers.0.weight f4 [64, 32]
0	0xbe12e09f	-0.14343499
1	0xbdca7320	-0.098852396
2	0x3e2c56ec	0.16830033
3	0xbd220c96	-0.039562784
4	0xbd9903bf	-0.07471418
5	0xbdbd8284	-0.092534095
6	0x3e5c0457	0.2148603
7	0x3cb12e40	0.021628499
8	0xbbd3333d	-0.006445317
9	0xbe077a96	-0.13230357
10	0xbd3c6e7f	-0.046003815
11	0xbdc8f0b2	-0.09811534
12	0xbe03b73a	-0.12862864
13	0xbe0d08fe	-0.13772961
14	0x3d8f3374	0.06992236
15	0x3c4d4c66	0.012530422
16	0xbe3d08bb	-0.18460362
17	0xbdbbdd52	-0.09173073
18	0x3e8354fd	0.25650778
19	0xbd7d6c7f	-0.061871048
20	0x3de01759	0.10941953
21	0xbe4c35a5	-0.19942339
22	0x3d3bed2a	0.045880474
23	0x3dfd3602	0.12363817
24	0xbe20378d	-0.15646191
25	0xbd69ed5e	-0.057111137
26	0x3e25cc32	0.16191176
27	0xbdd479a2	-0.10374762
28	0x3da6a20b	0.08136376
29	0xbd16850f	-0.03674799
30	0xbe7ea478	-0.24867427
31	0xbe95297f	-0.29133222
32	0xbe387362	-0.18012765
33	0xbd8cff26	-0.06884603
34	0x3e4ea19d	0.20178838
35	0x3e41b2e8	0.18915904
36	0xbdb0366b	-0.086041294
37	0x3e3450d9	0.17608966
38	0x3e314868	0.17312777
39	0xbde88d7f	-0.11355113
40	0x3dfa7f09	0.12231261
41	0xbda1a8f5	-0.07893554
42	0xbdb627b7	-0.08894294
43	0x3d1a258e	0.03763347
44	0x3d982a62	0.07429959
45	0xbd159ba6	-0.03652539
46	0xbdcbcbb6	-0.09950964
47	0xbc880024	-0.01660163
48	0xbd9b9519	-0.075967975
49	0xbde6aede	-0.11263822
50	0x3d47c615	0.04877289
51	0x3e2349eb	0.15946166
52	0xbb4691b0	-0.003029924
53	0xbe035cee	-0.12828419
54	0x3d1dafa5	0.038497586
55	0xbdf21c40	-0.118217945
56	0xbe2be739	-0.16787423
57	0x3e3411f4	0.17584974
58	0x3bec05b7	0.0072028297
59	0xbe08ff93	-0.13378744
60	0xbd4a2b8f	-0.049357947
61	0xbca61119	-0.020271825
62	0x3e1d11e2	0.15338853
63	0x3da51561	0.08060718
64	0xbdfcfc00	-0.12352753
65	0xbaa1c2cf	-0.0012341383
66	0xbd34cd4a	-0.04414109
67	0xbdd00959	-0.10158033
68	0x3d1eb475	0.038746316
69	0xbc75171e	-0.014959125
70	0x3dca01c2	0.098636165
71	0xbd00438f	-0.03131443
72	0x3e05b020	0.13055468
73	0xbe25f353	-0.16206102
74	0x3c317d33	0.0108330725
75	0x3e33b779	0.17550458
76	0x3ce1f8bf	0.027584432
77	0xbd3b4e71	-0.045729104
78	0x3db2e0de	0.08734296
79	0x38eef5af	0.000113944865
80	0xbe8c0f7e	-0.2735557
81	0x3d174463	0.036930453
82	0x3d0e31b4	0.03471537
83	0x3e668412	0.22511318
84	0x3e60ab0b	0.21940248
85	0x3d8421ae	0.064517364
86	0x3e4cab05	0.19987114
87	0x3d75eb8f	0.0600391
88	0x3e36c5ba	0.17848864
89	0xbd819e06	-0.06328969
90	0xbd5aa03a	-0.05337546
91	0xbbf78459	-0.007553619
92	0xbe1b6103	-0.15173726
93	0xbdf1415b	-0.11780044
94	0xbdb6301a	-0.088958934
95	0x3e088116	0.13330492
96	0xbe2c8d1d	-0.16850705
97	0x3e037c4c	0.12840384
98	0x3e6b54ca	0.22981563
99	0x3d351213	0.04420669
100	0x3e30f14a	0.17279544
101	0xbe13793f	-0.1440172
102	0xbdea3662	-0.11436154
103	0x3d7cb15a	0.061692573
104	0x3e1d9c33	0.15391617
105	0x3d711a7c	0.058863148
106	0xbe0946f0	-0.13405967
107	0x3e3c7cec	0.18407029
108	0xbdab8ef5	-0.08376876
109	0x3d8b5319	0.06802959
110	0xbdbd9a3e	-0.09257935
111	0x3e36f23d	0.17865844
112	0x3d0d68d8	0.034523815
113	0xbde44504	-0.11145976
114	0x3ddc3f6d	0.10754285
115	0x3d9f9ddc	0.07793781
116	0x3ccfc947	0.025364531
117	0x3d83327b	0.06406113
118	0x3df7547b	0.1207666
119	0xbd72a06e	-0.05923503
120	0x3e116c72	0.14201525
121	0xbe5cb8f1	-0.21554925
122	0x3d091812	0.03347022
123	0xbd83ef96	-0.06442182
124	0x3d18d561	0.03731287
125	0x3d585a7c	0.052820668
126	0x3e358bf3	0.17729168
127	0x3d27b84c	0.040947244
128	0xbe43f31e	-0.1913571
129	0xbccb96a1	-0.024852099
130	0x3c00f0f2	0.007869946
131	0xbdea093e	-0.11427544
132	0x3e0b22c4	0.13587481
133	0xbd0f7474	-0.035023168
134	0xbe03103f	-0.12799166
135	0xbe7de20a	-0.24793258
136	0x3e145e19	0.1448902
137	0xbd858361	-0.06519199
138	0xbe460670	-0.19338393
139	0xbe457496	-0.19282755
140	0xbd1f6ea9	-0.038923893
141	0x3c63bc79	0.013899916
142	0xbe01b6f3	-0.12667446
143	0xbe2151b0	-0.15753818
144	0x3e4816b4	0.1953991
145	0x3e4ad813	0.19808988
146	0xbe13867d	-0.14406772
147	0xbdcc2978	-0.09968847
148	0xbdc621e5	-0.096744336
149	0x3dd0cd8c	0.10195455
150	0x3bb69d5c	0.005572958
151	0x3bb6e1fc	0.0055811387
152	0xbe439575	-0.19099982
153	0x3d9daaf8	0.07698625
154	0xbcb1c5c5	-0.02170075
155	0x3e6971ca	0.22797313
156	0xbcc58846	-0.024112832
157	0xbe051fef	-0.13000463
158	0x3d3aed6c	0.04563658
159	0xbe190636	-0.14943776
160	0xbe0067c4	-0.12539583
161	0x3d117c19	0.03551874
162	0x3e1a900a	0.15094009
163	0x3d94f496	0.072732136
164	0x3dc90503	0.09815409
165	0x3e0fc54a	0.14040104
166	0xbdbb5574	-0.09147158
167	0xbde0ca3c	-0.10976073
168	0xbdc19524	-0.094522744
169	0xbcc5b635	-0.024134735
170	0x3e39ca38	0.18143547
171	0x3d8742c3	0.06604531
172	0x3bd696eb	0.0065487525
173	0x3dca477c	0.09876916
174	0xbe21ff95	-0.15820153
175	0xbd87fc4a	-0.06639917
176	0x3e2f28a3	0.17105345
177	0x3e250f16	0.16119036
178	0x3dba8bc5	0.0910869
179	0xbb822b7f	-0.0039724703
180	0x3dedaf70	0.11605728
181	0xbe090fbf	-0.13384913
182	0x3c9f6811	0.019458802
183	0x3dbe2f44	0.09286359
184	0x3d8ab741	0.06773234
185	0x3d90dcec	0.070733875
186	0x3e4ba6dd	0.19887872
187	0xbe324a63	-0.17411189
188	0x3e27389f	0.16330193
189	0xbe13466d	-0.14382334
190	0x3e1d0c8b	0.15336816
191	0xbd8814ea	-0.06644614
192	0xbe020abc	-0.12699407
193	0x3e5a5e6e	0.21325085
194	0xbd365209	-0.04451183
195	0xbd792e8c	-0.060835406
196	0xbe17a07f	-0.14807318
197	0xbdaec964	-0.08534506
198	0x3d1be65e	0.038061492
199	0x3e0d1708	0.13778317
200	0x3b973ff6	0.004615779
201	0x3d7b7935	0.06139489
202	0xbdcf3ddf	-0.10119223
203	0x3e1c3465	0.15254362
204	0xbd2f99ad	-0.042871166
205	0xbdc4a48c	-0.09601697
206	0x3e09d3da	0.13459721
207	0x3cdff7cb	0.027339837
208	0xbba4d09b	-0.0050297505
209	0x3e048e99	0.12945022
210	0xbdb8f45e	-0.09030984
211	0xbc2c5ee5	-0.0105206715
212	0xbd938cef	-0.07204615
213	0x3d7ea91f	0.062173005
214	0x3e3e9e94	0.1861518
215	0x3e285bb6	0.16441235
216	0x3da7489e	0.081681475
217	0xbd73f677	-0.05956122
218	0x3d340763	0.043952357
219	0x3e5d97f6	0.2164
220	0xbdf515fa	-0.11967082
221	0x3e0225d4	0.12709743
222	0x3e18fed2	0.14940956
223	0xbe173125	-0.14764841
224	0x3c1c4513	0.009537953
225	0xbd8da007	-0.069152884
226	0x3e552e5d	0.20818467
227	0x3e0b46cf	0.1360123
228	0x3d0b05f2	0.033941217
229	0x3c9185e8	0.017764047
230	0xbdae4d10	-0.08510792
231	0xbdb33944	-0.08751157
232	0x3e3c0d15	0.18364365
233	0x3e7322fa	0.23743811
234	0xbe5d7407	-0.21626292
235	0xbdf85b26	-0.1212676
236	0x3d881de5	0.06646327
237	0xbd6d8efa	-0.05799768
238	0xbdd88c02	-0.10573579
239	0x3e00d3e8	0.12580836
240	0xbe4068e8	-0.18790019
241	0xbe09235a	-0.13392392
242	0x3c96ed92	0.01842383
243	0xbc89216c	-0.01673957
244	0xbd836e78	-0.064175546
245	0x3e6ebd20	0.23314333
246	0x3d3d19cc	0.04616718
247	0xbc1f3d1b	-0.0097191585
248	0xbb88caec	-0.004174581
249	0xbde53115	-0.11191002
250	0xbdc3d741	-0.09562541
251	0xbdf2ebba	-0.118613675
252	0xbde3be5c	-0.111202925
253	0xbda730ba	-0.08163591
254	0x3e32a7c9	0.17446817
255	0x3d91400c	0.07092294

Pair_score_mlp.fc_layers.0.bias f4 [64]
0	0x3d783ea6	0.06060662
1	0xbd4c8f70	-0.04994148
2	0xbe0a8b4b	-0.13529699
3	0xbdc7071a	-0.097181514
4	0x3e20dee8	0.15710032
5	0x3e246885	0.16055496
6	0xbdc314c1	-0.09525443
7	0xbdcaedba	-0.09908624
8	0xbd855b2b	-0.065115295
9	0xbdbd997e	-0.09257792
10	0x3e1edd9d	0.15514226
11	0x3c3385a1	0.010957153
12	0x3d22a9d4	0.039712742
13	0x3ddc5866	0.10759048
14	0xbd82dd27	-0.06389838
15	0x3d18e1fd	0.037324894
16	0x3e3f5c36	0.1868752
17	0xbd8f87f1	-0.07008351
18	0x3dd56137	0.10418933
19	0x3d8b0975	0.06788913
20	0xbda49b12	-0.0803739
21	0xbd0d45d8	-0.034490436
22	0x3d93beeb	0.07214149
23	0xbd35ac78	-0.044353932
24	0x3dcc6561	0.09980274
25	0xbd29647b	-0.04135559
26	0xbbaed8ee	-0.0053359186
27	0x3dd9e446	0.10639243
28	0x3e2129c1	0.15738584
29	0xbd1ba905	-0.038002986
30	0xbda25619	-0.07926578
31	0x3e1cd2b0	0.15314746
32	0x3d9f2bb0	0.077720046
33	0xbe1a8a9b	-0.15091936
34	0x3c2c7f47	0.010528392
35	0x3e6d17b1	0.23153569
36	0x3e2da2d1	0.16956641
37	0x3e14e59a	0.14540711
38	0xbdb3f35f	-0.08786654
39	0xbd23bcb3	-0.03997488
40	0xbde4d312	-0.11173071
41	0x3dcb74f3	0.09934416
42	0xbe20649d	-0.15663381
43	0xbdfc1a87	-0.12309747
44	0x3b1f69a6	0.0024324446
45	0x3e00deb9	0.12584962
46	0xbd269e91	-0.040678564
47	0xbdc99dfe	-0.09844588
48	0xbd59901b	-0.053115945
49	0xbd8db03f	-0.06918382
50	0x3d302b2c	0.043009922
51	0xbd97f920	-0.07420564
52	0xbd4815d6	-0.04884895
53	0xbdebc4e3	-0.115121625
54	0xbd7e3084	-0.062057987
55	0x3e1032d6	0.14081892
56	0xbcd402bf	-0.025880216
57	0x3de3bdb5	0.11120168
58	0x3df6ca8b	0.12050351
59	0x3dee9312	0.11649145
60	0x3d9b61bc	0.07587001
61	0x3e2ad0b1	0.16681172
62	0x3dd70399	0.10498733
63	0xbd93b3b0	-0.07212007

Pair_score_mlp.fc_layers.1.weight f4 [8, 64]
0	0x3dd918c3	0.10600426
1	0x3dfa9cc6	0.122369334
2	0x3e05c232	0.13062361
3	0x3d86f290	0.06589234
4	0x3e529fbe	0.2056875
5	0x3e197e58	0.14989603
6	0x3d7fd712	0.062460966
7	0x3dda3d98	0.10656279
8	0x3e0fa42b	0.14027469
9	0x3e199e87	0.1500188
10	0xbde40eb7	-0.11135619
11	0x3d01aa0f	0.03165632
12	0x3d08e4df	0.033421393
13	0xbe1e5bb3	-0.15464668
14	0xbcbd918d	-0.023140693
15	0xbb6edb14	-0.0036446499
16	0x3dffc66e	0.12489019
17	0x3c05aaa4	0.00815836
18	0xbd117d59	-0.03551993
19	0x3d50b8ce	0.050957493
20	0x3e05e592	0.13075855
21	0xbcc22a08	-0.023701683
22	0x3dcd7791	0.10032571
23	0x3c80fa21	0.01574427
24	0x3dd3d5be	0.103435025
25	0x3e155b80	0.14585686
26	0x3e231d2a	0.15929094
27	0x3d6078ef	0.05480283
28	0xbd3797cd	-0.044822503
29	0xbd1e8392	-0.038699694
30	0x3de3a285	0.111149825
31	0x3c440b98	0.011965655
32	0x3ccd1d9b	0.025038531
33	0x3deb0418	0.1147539
34	0x3de62f08	0.11239439
35	0xba9c27a3	-0.0011913668
36	0x3e3bf1be	0.18353936
37	0x3d23a974	0.039956525
38	0x3cf654fd	0.030069822
39	0x3ddd33ff	0.10800933
40	0xbd3bea66	-0.045877837
41	0x3d22f4d1	0.039784256
42	0xbcb79587	-0.022410167
43	0x3da7737a	0.08176322
44	0xbe41b9d6	-0.18918547
45	0x3dca3b1c	0.098745555
46	0x3e14e70a	0.1454126
47	0x3ddc2348	0.10748917
48	0xbdd7d72a	-0.10539086
49	0x3da7c7af	0.081923835
50	0xbdc6c602	-0.09705736
51	0x3dac8cc8	0.084252894
52	0x3e780fd5	0.2422479
53	0x3c9c2562	0.019060794
54	0x3dafe290	0.08588135
55	0xbdad1033	-0.084503554
56	0x3d4b93a1	0.049701337
57	0xbdb304d4	-0.08741155
58	0xbd70787a	-0.058708645
59	0x3dd11f7a	0.10211082
60	0xbb6400c7	-0.0034790502
61	0x3d9e629e	0.077336535
62	0xbd8df01b	-0.06930562
63	0x3e332516	0.17494616
64	0xbde11816	-0.10990922
65	0x3ddc34db	0.10752269
66	0xbdf50f5d	-0.11965821
67	0xbe10c52f	-0.1413772
68	0xbddb6328	-0.10712272
69	0xbd670b14	-0.05640705
70	0xbcd72f67	-0.02626772
71	0xbd9922d7	-0.07477348
72	0xbd9235a5	-0.07139138
73	0x3cee6450	0.029100567
74	0xbe391f8c	-0.1807844
75	0x3c059658	0.0081535205
76	0xbe392c07	-0.18083201
77	0x3e407a87	0.1879674
78	0xbe3a91e9	-0.18219723
79	0xbe3334e4	-0.17500645
80	0xbb84c59f	-0.0040518786
81	0x3d3415a0	0.043965936
82	0xbd777960	-0.060418487
83	0x3cd8d9d5	0.026471058
84	0xbe08f05b	-0.13372938
85	0xbdf16bd5	-0.117881455
86	0xbd56e85e	-0.052467696
87	0x3d935b06	0.07195096
88	0xbdb7078b	-0.089369856
89	0xbdde89ef	-0.108661525
90	0x3df89767	0.12138253
91	0xbcef01bd	-0.029175634
92	0xbdca7f6c	-0.09887585
93	0x3db5b902	0.08873178
94	0x3de88ed7	0.113553695
95	0xbc0057b3	-0.007833409
96	0xbd822e9e	-0.06356548
97	0xbe062e2f	-0.13103555
98	0x3d6ae9d5	0.057351906
99	0x3de79ae5	0.11308841
100	0xbdc8d3e0	-0.09806037
101	0x3d8e7aed	0.0695704
102	0x3d4d8500	0.050175667
103	0x3d607222	0.054796346
104	0xbdc962c6	-0.09833293
105	0xbd2227e0	-0.03958881
106	0xbd9a6d43	-0.07540371
107	0xbdf42bbe	-0.11922406
108	0x3e44af31	0.19207455
109	0x3e062089	0.13098349
110	0xbdb564b8	-0.08857101
111	0xbda708fd	-0.08156011
112	0x3d1d9594	0.038472727
113	0xbdf764ae	-0.1207975
114	0x3de4df64	0.11175421
115	0xbde26b42	-0.11055614
116	0xbbfb997d	-0.0076782093
117	0xbe190190	-0.14942002
118	0xbe12b8e9	-0.1432835
119	0x3e597b07	0.21238337
120	0x3ce25da4	0.027632542
121	0xbdd9ead2	-0.106404915
122	0xbd2f9ec0	-0.042876005
123	0xbd82edd4	-0.06393018
124	0x3e2445e0	0.1604228
125	0x3dbadb19	0.09123821
126	0x3d6a61ed	0.057222296
127	0x3d6299bd	0.055322398
128	0x3db11d49	0.08648164
129	0x3ddfde45	0.109310664
130	0x3e64e693	0.22353582
131	0x3e2a9b32	0.16660765
132	0x3d1efd53	0.038815808
133	0x3d95534f	0.072912805
134	0x3e46007c	0.19336122
135	0x3c13b1ee	0.00901459
136	0x3e3e5e27	0.18590604
137	0x3d290e94	0.04127367
138	0x3dadb2a4	0.084813386
139	0xbc6bd67c	-0.014394399
140	0xbcda622c	-0.02665814
141	0xbe630a57	-0.22171913
142	0x3d7fb615	0.062429506
143	0x3d833c16	0.06407945
144	0x3e82b1da	0.25526315
145	0x3e190cfb	0.14946358
146	0x3e02bc2b	0.12767093
147	0x3d0881d3	0.033326935
148	0x3dd4e844	0.10395864
149	0xbd3e714b	-0.046494763
150	0x3df23151	0.118258126
151	0x3d8af502	0.06785013
152	0x3d516f89	0.05113176
153	0x3d3cb90a	0.046074905
154	0x3deda493	0.11603656
155	0x3e6f47be	0.23367211
156	0xbc138d07	-0.0090057915
157	0x3e08a711	0.13344981
158	0x3d86be8d	0.065793134
159	0x3e4cd846	0.20004377
160	0x3dc9eebc	0.09859988
161	0x3cbce819	0.023059892
162	0x3dd9552e	0.1061195
163	0xbcf85ff7	-0.030319197
164	0x3e334eeb	0.17510574
165	0x3bd567a3	0.0065125986
166	0xbe164da1	-0.1467805
167	0x3e22714a	0.15863529
168	0xbd89ab39	-0.06722111
169	0x3dc9d178	0.09854406
170	0x3deaf86c	0.11473164
171	0x3e21e37f	0.15809439
172	0xbd9d2f87	-0.07675081
173	0x3e0a8bfe	0.13529965
174	0x3dc08086	0.09399514
175	0xbc8cf5b7	-0.01720701
176	0x3e175d06	0.1478158
177	0xbd17f77e	-0.03710126
178	0x3e281b9c	0.16416782
179	0xbcc83058	-0.024437115
180	0x3d93df7c	0.07220361
181	0xbdcd0085	-0.10009865
182	0x3dacdd70	0.08440673
183	0xbc266656	-0.010156235
184	0xbd115fa8	-0.035491616
185	0x3c9d4c14	0.019201316
186	0x3dc88acb	0.09792098
187	0x3e5f5bed	0.2181241
188	0x3dd73d59	0.10509748
189	0x3c152127	0.009102142
190	0x3dc3d3ac	0.095618576
191	0x3e8b7f01	0.27245334
192	0xbd2ac960	-0.041695952
193	0x3d9d70ba	0.076875165
194	0x3d84c6f3	0.06483259
195	0x3b62a9b9	0.0034586026
196	0x3c8e06cd	0.017337227
197	0xbdd13524	-0.10215214
198	0x3c286854	0.01027878
199	0x3c8a73fc	0.016901009
200	0xbe1fa08d	-0.15588589
201	0xbb8dc728	-0.00432672
202	0x3d8f7cbd	0.07006214
203	0x3d105336	0.035235606
204	0xbcbe7f9e	-0.023254212
205	0x3dc3060b	0.09522637
206	0xbdef92a2	-0.1169789
207	0xbe15b744	-0.14620692
208	0xbd500d75	-0.050794084
209	0xbdbee6bf	-0.09321355
210	0x3bea15f4	0.0071437303
211	0xbd5b3c87	-0.05352452
212	0xbd85fdfb	-0.065425836
213	0xbc3f8694	-0.011689801
214	0x3d7ab428	0.061206967
215	0x3daff3ab	0.08591398
216	0x3e08bfe8	0.13354456
217	0x3a673a1a	0.00088206085
218	0xbd0af0dc	-0.033921108
219	0x3e034f95	0.12823327
220	0xbd68cd39	-0.05683634
221	0x3d79c1cc	0.060975835
222	0x3d862fc4	0.06552079
223	0xbda20670	-0.07911384
224	0xbd418a5f	-0.0472511
225	0xbdc71005	-0.09719852
226	0xbcb4895e	-0.022038158
227	0xbc429689	-0.011876711
228	0x3e1ef959	0.15524806
229	0xbe322899	-0.173983
230	0x3b269564	0.0025418634
231	0x3cb84106	0.022491943
232	0x3b3b9eae	0.0028628516
233	0x3d94e571	0.07270325
234	0xbdb53f44	-0.088499576
235	0x3d401cac	0.046902344
236	0xbcf0cc0e	-0.029394176
237	0xbde47d2e	-0.11156689
238	0xbe04ea17	-0.12979923
239	0xbd946b3a	-0.07247014
240	0x3dd0fa41	0.10203982
241	0xbe141bc7	-0.14463721
242	0xbc09e5a4	-0.008416567
243	0xbdbd9c3d	-0.09258316
244	0x3d597698	0.053091615
245	0xbde7b8fa	-0.11314578
246	0x3b096319	0.0020963608
247	0x3e1664a7	0.14686833
248	0xbdcbd0b6	-0.09951918
249	0x3cd1e404	0.025621422
250	0x3ddb9a2b	0.107227646
251	0x3db85ed2	0.090024605
252	0xbd555bcd	-0.0520895
253	0xbde19e7a	-0.11016555
254	0x3d3e4d88	0.04646066
255	0x3c9ed01a	0.01938634

Pair_score_mlp.fc_layers.1.bias f4 [8]
0	0xbb4e1d6c	-0.0031450642
1	0x3dd82848	0.10554558
2	0xbdb6e2dd	-0.089299895
3	0x3d8dc045	0.06921438
4	0x3e0a45b8	0.13503158
5	0x3deefccb	0.1166931
6	0xbd77eecf	-0.06053048
7	0xbd838458	-0.06421727

CNN_embedding_types.weight f4 [106, 16]
0	0x3e143153	0.1447194
1	0xbf4692f5	-0.7756799
2	0xbefccff1	-0.49377397
3	0x3f73deb2	0.9526168
4	0xbed09b39	-0.40743425
5	0xbc5a8c02	-0.0133390445
6	0x3fe274eb	1.769193
7	0xc039a005	-2.9003918
8	0x3dfc5115	0.12320153
9	0xbf5da16c	-0.86574435
10	0xbf08f5e7	-0.5350022
11	0x3f89da9c	1.0769839
12	0x3ef88eef	0.4854655
13	0x3eca84ba	0.39554387
14	0x3f3c5e1c	0.735811
15	0xbf441104	-0.76588464
16	0xbd081c46	-0.03323009
17	0xbff69467	-1.9264039
18	0x3f2a366a	0.6648928
19	0xbf3b0b97	-0.7306456
20	0x3eea6946	0.45783442
21	0xbf271944	-0.6527293
22	0x3ed42d18	0.41440654
23	0xbe81a860	-0.25323772
24	0xbd1e84ea	-0.038700975
25	0xbf678b1c	-0.9044664
26	0xbfad792f	-1.3552607
27	0x3ef2b3dd	0.4740285
28	0x3f82d8ea	1.0222447
29	0x3eda8399	0.42678526
30	0xbeb908dc	-0.36139572
31	0xbe020d0c	-0.1270029
32	0xbf0ebd64	-0.5575774
33	0x3fd58d45	1.6683737
34	0x3f1fd949	0.62440926
35	0xbebd701e	-0.369996
36	0xbc9e5695	-0.019328395
37	0x3f8b485b	1.0881456
38	0x3ee14e57	0.4400508
39	0xbf8490a3	-1.035664
40	0x40071326	2.1105437
41	0xbfc67729	-1.5505115
42	0xbf88e723	-1.0695537
43	0x3f160fc1	0.5861779
44	0xbd8b8fc4	-0.068145305
45	0x3de1a1bd	0.11017177
46	0xbf021388	-0.5081105
47	0x3fa2344a	1.2672207
48	0xbe9b3a95	-0.30318132
49	0xbf1b255d	-0.60603887
50	0xbe9f647e	-0.31131357
51	0x3d8fa0bc	0.070130795
52	0xbee7fe52	-0.45311219
53	0x4005d9f4	2.0914278
54	0xbd9ca96f	-0.076495044
55	0x3f9f61a3	1.2451671
56	0xbfae8ee5	-1.3637358
57	0xbf44ee9f	-0.76926607
58	0x3eaa21da	0.33228952
59	0x3f9221ae	1.1416528
60	0x3dc3b5d6	0.09556167
61	0xc00868ec	-2.131404
62	0x3f0c59e1	0.54824644
63	0x3f6fa283	0.9360735
64	0x3ff43fa4	1.9081922
65	0x3f762790	0.9615412
66	0x3f0d9f19	0.5532089
67	0x3f719704	0.94371057
68	0x3eaed50b	0.34146914
69	0xbd13fef5	-0.036131818
70	0x3fbfbb4d	1.4979035
71	0xbf46f262	-0.77713597
72	0x3f48d184	0.78444695
73	0xbd3a7e52	-0.045530625
74	0xbe26cc1d	-0.162888
75	0x3fab587c	1.3386378
76	0xbe26b621	-0.16280414
77	0xbe8393cb	-0.25698695
78	0x3d5617c7	0.05226877
79	0xbec7f693	-0.3905531
80	0x3e6be23b	0.23035519
81	0x3e889b18	0.26680827
82	0x3f8c904b	1.0981535
83	0xbf9f969d	-1.2467839
84	0xbf75929b	-0.9592683
85	0xbfe7475a	-1.806865
86	0x3c3a7b61	0.011381955
87	0xbde1e0c8	-0.11029202
88	0xbfa0bd6f	-1.255781
89	0x3f22858c	0.63485026
90	0x3e9e4d58	0.30918384
91	0x4036a2cd	2.8536866
92	0xbf9b7244	-1.2144246
93	0xbe5b1362	-0.21394113
94	0xbf06df26	-0.5268425
95	0x3e32fbf1	0.1747892
96	0x3f04b884	0.5184405
97	0xbec1d558	-0.3785808
98	0xbe66dbef	-0.22544836
99	0xbfc867aa	-1.5656636
100	0x3ef471e5	0.47743145
101	0xbf87e3ac	-1.0616355
102	0x3fe3cc19	1.7796661
103	0xbf0c7875	-0.548713
104	0x3ead86fe	0.33892053
105	0x3f473768	0.7781892
106	0x3bf7464e	0.007546223
107	0xbf157163	-0.5837614
108	0xbf6a5174	-0.9153054
109	0xbd578b67	-0.05262318
110	0x3fe4cf7a	1.7875817
111	0x3f936483	1.1515049
112	0x3dc723f1	0.09723652
113	0x3fcc4b39	1.5960456
114	0xbf1aa9bf	-0.6041526
115	0x3fb474a8	1.4098101
116	0x3df1c573	0.118052386
117	0x3f343ad3	0.7040226
118	0xbf0995c7	-0.5374417
119	0xbf3c7644	-0.7361796
120	0x3f0c0f17	0.54710525
121	0x3ff3d81d	1.9050328
122	0x3dcfe4e3	0.101510786
123	0x3ee6eae4	0.45101082
124	0x3ecd01d9	0.40040472
125	0xbf7faafa	-0.99870265
126	0x3e1b37cd	0.15158005
127	0xbf2177da	-0.63073504
128	0x403688c8	2.8520985
129	0xbdf34c03	-0.118797325
130	0x3ec510d2	0.38489395
131	0x3f79ebe5	0.9762557
132	0xbfac02aa	-1.3438313
133	0xbf558af8	-0.83415174
134	0xbe0659bd	-0.1312017
135	0xbdc276ec	-0.09495339
136	0xbe38437d	-0.17994495
137	0xbf8e5a3e	-1.112129
138	0x3eea8aed	0.45809117
139	0xbe5fadad	-0.21843596
140	0x3f0e5786	0.556023
141	0xbddfd709	-0.109296866
142	0x3fffb5b1	1.9977323
143	0x3e0392d2	0.12848976
144	0x3ce000f2	0.0273442
145	0x3e1ae42a	0.151261
146	0xbf544816	-0.82922494
147	0x40019540	2.0247345
148	0x3e7986c2	0.24367812
149	0x3d9a232a	0.07526238
150	0xbe90502d	-0.2818617
151	0x3d9bbbb9	0.07604165
152	0x3ed073a6	0.40713233
153	0xbe818f61	-0.25304702
154	0x3ecfde06	0.40599078
155	0x3f458049	0.7714887
156	0xbe6ce5ed	-0.23134585
157	0xbf8da606	-1.1066291
158	0x3d94100a	0.07229622
159	0xbf5dfcf0	-0.86714077
160	0xbf96c587	-1.177903
161	0x3f0ada34	0.542392
162	0xbe4d9245	-0.20075329
163	0xbf1895c9	-0.59603554
164	0x3eebd2f4	0.46059382
165	0x3f9dec36	1.2337711
166	0x3e9e5150	0.30921412
167	0x3f1b11fe	0.6057433
168	0x3f197376	0.59941804
169	0xbe9c0720	-0.30474186
170	0xbe9d517f	-0.3072624
171	0x3fd23489	1.6422282
172	0x3f858ae1	1.0433007
173	0xbfbde604	-1.483582
174	0x3f24b4c4	0.64338326
175	0x3fe5efd2	1.7963812
176	0x3cb3298e	0.0218704
177	0xbff36684	-1.901566
178	0xbde56c09	-0.11202247
179	0x3ebad3be	0.3648967
180	0xbfa6ff38	-1.3046637
181	0xbcca3a27	-0.024685932
182	0xbfa71c1a	-1.3055451
183	0xbe68b2f2	-0.22724512
184	0xbdd9c63b	-0.106335126
185	0xbf8c0395	-1.0938593
186	0xbe9247ec	-0.28570497
187	0x3fdb393d	1.7126843
188	0x3fa2bfe4	1.271481
189	0x3f81c583	1.0138401
190	0xbf3d8a2c	-0.7403896
191	0x3e842a79	0.25813654
192	0xbf6792d0	-0.90458393
193	0x40139f18	2.3065853
194	0xbf4b71e9	-0.7947069
195	0x3fdfe3a3	1.7491344
196	0xbda67cba	-0.081292585
197	0xbe3c7c84	-0.18406874
198	0xbf97356d	-1.1813179
199	0x3edd486d	0.4321932
200	0x3fa39ae2	1.2781641
201	0xbf454978	-0.7706523
202	0x3fdc8158	1.7226973
203	0xbe623e3e	-0.22094056
204	0x3f5c5ff8	0.86083937
205	0x3fe8b0fe	1.8179014
206	0x3f2f085f	0.6837215
207	0xbe85506e	-0.26037925
208	0x3ff4f6a8	1.9137774
209	0x3f9281ef	1.1445903
210	0x3fb148d3	1.3850349
211	0xbf936218	-1.1514311
212	0x3e027123	0.1273847
213	0x3f5d3f7b	0.8642499
214	0x3f582913	0.84437674
215	0xbfcc8846	-1.5979087
216	0x3f74a36a	0.9556185
217	0xbfb268b9	-1.3938209
218	0x3d7e879c	0.062141046
219	0xbf82d488	-1.0221109
220	0xbf0c1b52	-0.5472919
221	0x3f8c52bd	1.096275
222	0x3dfd9b7e	0.123831734
223	0x3ecc0790	0.3984952
224	0x3ca85c6c	0.020551883
225	0xbf898aa3	-1.0745434
226	0x3d88e188	0.06683642
227	0x402fd6e4	2.747491
228	0x4056b327	3.3546846
229	0x3fdb1a46	1.7117393
230	0xbfabaf7d	-1.341293
231	0xbe4a3bbc	-0.1974935
232	0xbf7a3799	-0.97741085
233	0x3d482d3e	0.04887127
234	0xbf59f5c2	-0.8514062
235	0xbf19c3b8	-0.6006427
236	0xbf6c296d	-0.9225071
237	0x3e11b1f2	0.14228037
238	0xbefeb176	-0.49744767
239	0xbea50f44	-0.3223821
240	0xbfee9f3f	-1.8642348
241	0x3edbc8db	0.42926678
242	0x3f1d58b0	0.6146345
243	0x3e3b6dba	0.18303576
244	0x3dcac399	0.099005885
245	0xbf0b41ec	-0.54397464
246	0x3f441052	0.765874
247	0xbfb0ceb6	-1.3813083
248	0x3e8548c5	0.2603208
249	0x3f29adce	0.6628083
250	0x3f3a5eae	0.7280072
251	0x3f15f030	0.5856962
252	0x3e7402d4	0.23829204
253	0x3ca9cb5b	0.02072685
254	0xbf4f0017	-0.8085951
255	0x3f5b8c50	0.85760975

embedding_CNN_distances.weight f4 [7, 8]
0	0x3f852bd7	1.0404004
1	0xbf93219e	-1.1494634
2	0x3e47355f	0.19453953
3	0x3eb8f470	0.3612399
4	0x3f7047f6	0.93859804
5	0xbf077fe4	-0.5292952
6	0x3f3c0bff	0.73455805
7	0x3f9e53ea	1.2369359
8	0xbf376e84	-0.7165301
9	0x3f371b02	0.71525586
10	0xc0375eba	-2.8651567
11	0xbe6e646e	-0.23280498
12	0xbf810d7c	-1.008224
13	0xc00d67ac	-2.2094526
14	0xbf82a058	-1.0205183
15	0x3d7f3f05	0.06231596
16	0x3e840553	0.25785312
17	0xbf95503b	-1.1665109
18	0x3d0217b9	0.031760905
19	0xbec3dcdd	-0.38254443
20	0x3f9d89b6	1.2307651
21	0x3f632776	0.8873209
22	0x3ff551c1	1.9165574
23	0x3ecfaf5b	0.40563473
24	0xbdf3052d	-0.118662216
25	0x3ebe863e	0.37211794
26	0x3f0b1e34	0.5434296
27	0xbfe030d5	-1.7514902
28	0x3f700d69	0.9377046
29	0xbf45e1cb	-0.7729766
30	0x3ed6127d	0.4181098
31	0xbf016102	-0.5053865
32	0xbf8cb613	-1.0993065
33	0xbe30e837	-0.17276083
34	0x3f1ef311	0.6208964
35	0x3fc64731	1.5490476
36	0x3e0afd81	0.13573267
37	0xbf376b59	-0.71648175
38	0x3e6b4713	0.22976331
39	0x3ebb073d	0.3652896
40	0x3dbd6c30	0.09249151
41	0xbed2eb34	-0.4119507
42	0xbe516ce7	-0.20451699
43	0x3fab4829	1.3381397
44	0x3ebb8c75	0.36630598
45	0xbf69c5a6	-0.9131721
46	0xbf361b36	-0.7113527
47	0x3f89c8f2	1.0764449
48	0x00000000	0.0
49	0x00000000	0.0
50	0x00000000	0.0
51	0x00000000	0.0
52	0x00000000	0.0
53	0x00000000	0.0
54	0x00000000	0.0
55	0x00000000	0.0

embedding_CNN_prices.weight f4 [6, 5]
0	0x3ff2cbe1	1.8968469
1	0x3fb12de2	1.3842127
2	0xbfa2e25c	-1.2725329
3	0xbfdcf856	-1.7263286
4	0xbf80f29e	-1.0074041
5	0xbee3ea78	-0.44514823
6	0x3f8e78d1	1.113062
7	0x3ff8e006	1.9443367
8	0x3eb20298	0.34767604
9	0xbe7c77b6	-0.24655041
10	0x400b6383	2.1779487
11	0xbf0f1083	-0.5588457
12	0xbfcd8a76	-1.605788
13	0xbf343e71	-0.7040778
14	0xbf93eafc	-1.1556087
15	0xbf997640	-1.1989212
16	0x3febbb34	1.8416505
17	0xbea57d78	-0.32322288
18	0xbfb52afa	-1.415374
19	0xbf5722b1	-0.8403731
20	0xbf1dfa3d	-0.6170996
21	0x3ea163d0	0.31521463
22	0x3d1dc8ae	0.03852146
23	0xbf470dbc	-0.7775533
24	0x3f6d468d	0.92685777
25	0x00000000	0.0
26	0x00000000	0.0
27	0x00000000	0.0
28	0x00000000	0.0
29	0x00000000	0.0
