checkpoints/GNNNoCNN_Epoch21_valmse2.0999_testmse2.3222_ndcg0.9353.model (torch, 249600 bytes, 52 tensors)

Pair_embedding_types.weight f4 [106, 16]
000000 56 9e 10 3d cc 9f a5 bd 9a 50 d0 be 39 c0 5e bf
       0.03530725 -0.080871195 -0.40686494 -0.8701206
000010 9e 1a 5a 3f 25 3c c3 be f3 c0 01 3e 14 71 a4 bf
       0.85196865 -0.38131824 0.1267126 -1.2847009
000020 6f bb d8 3d 0c 56 90 bc 1e 26 9f bf 03 6d 0c 3f
       0.10582625 -0.017619155 -1.2433507 0.5485384
000030 a0 c1 c9 bf 61 6d b8 3e 3d a5 83 3e 3b 8b 35 3f
       -1.5762215 0.3602095 0.25712004 0.70915574
000040 48 11 eb 3e 2c 2d 96 bf af 26 f7 3f 49 ac d9 be
       0.45911622 -1.1732535 1.930868 -0.42514256
000050 37 ba 7f be e0 fc 40 3e f7 d2 1e bf c6 84 2b 3f
       -0.24973379 0.18846464 -0.62040657 0.6699947
000060 23 36 86 bf 90 4e 2a 3d cc 20 05 bf 84 ab 53 40
       -1.0485271 0.04157883 -0.5200317 3.3073435
000070 fa 9f 4e bf a3 b2 0b bf ed 19 8f bf 1f 9d 80 3f
       -0.80712855 -0.54569453 -1.1179787 1.004795
000080 14 62 dc 3f 6e fd 10 40 4e 72 85 bf 57 77 12 3e
       1.7217431 2.2654681 -1.0425508 0.14303337
000090 01 a3 63 3f 55 45 a3 bf 2b 73 90 bf 15 a2 65 3d
       0.889206 -1.2755533 -1.1285146 0.056062777
0000a0 e8 96 28 3f 50 0f 09 3e 1f b2 83 3f 7f 57 e3 3d
       0.65855265 0.13384748 1.0288733 0.11100673
0000b0 37 37 70 bf b4 31 cd 3d b3 42 94 3f 29 dd b1 bd
       -0.9383425 0.10019246 1.1582855 -0.08684761
0000c0 86 1e 27 bf 95 ea 96 3f 57 af c8 be 15 31 96 bf
       -0.6528095 1.1790339 -0.39196274 -1.1733729
0000d0 bd 3a d7 bf bf 94 5b 3f 30 e7 fe bf 41 82 a0 3c
       -1.68148 0.85773844 -1.9914303 0.01959336
0000e0 8b a0 96 3c 7b 59 86 3f d9 35 ab bf 3a 14 a4 3f
       0.0183871 1.0496057 -1.3375808 1.2818673
0000f0 37 db fb 3b 64 25 75 3f 4a 00 a0 3f 41 8d 3b 3d
       0.0076860446 0.9576018 1.2500088 0.045789007
000100 08 e0 c6 bd e4 8f 53 3e 0a cb 55 3f 63 0c d0 bf
       -0.09710699 0.20660359 0.8351294 -1.625378
000110 1d d5 09 40 2b 36 88 bf 15 1c 6e 3e 07 50 ae bf
       2.1536324 -1.0641531 0.232529 -1.3618172
000120 c2 55 96 be 64 99 0c 3e 10 f5 3c 3e e7 64 74 3f
       -0.29362303 0.13730389 0.18452859 0.95466465
000130 55 6b cd 3e 60 a6 3a be d3 94 81 3e 56 7f 37 3e
       0.4012095 -0.1822753 0.25308856 0.17919669
000140 ce da b3 be e9 a2 f8 3d 24 82 8a 3e dd 66 89 3f
       -0.35127872 0.12140448 0.27052414 1.0734516
000150 d3 9a 99 be 8f 00 92 bf f9 ea 1b be d1 4a d8 be
       -0.30000934 -1.140642 -0.15226354 -0.4224458
000160 b5 f3 2f 3f b8 35 c3 3f 4b 89 32 bf 7f 7a 56 bf
       0.6873124 1.5250769 -0.6974074 -0.83780664
000170 f5 e1 51 bf 2c 37 1d 3f 82 ef 68 3f 4f 1a bc 3f
       -0.8198541 0.6141231 0.9099046 1.4695529
000180 26 32 b1 bf 9f c8 81 3e da ac e7 3f c7 aa 0f 3e
       -1.3843429 0.25348374 1.8099625 0.1402999
000190 3c 23 3c 3f f4 6e 68 3e 5b 98 5e bf 0d 51 0c 40
       0.73491263 0.22698575 -0.86951226 2.192447
0001a0 47 a7 8e bf ad e4 9a 3f 1a bc 6f 3e 9d ae 7d bf
       -1.1144799 1.2101036 0.23411599 -0.99094564
0001b0 55 70 ee be db 54 6f 3e 8b 77 f6 be 4a c6 ec bc
       -0.46570078 0.23372214 -0.4813808 -0.028903145
0001c0 87 b9 39 3f 24 36 c6 3f a8 75 84 3e 75 1f bc be
       0.7254872 1.5485272 0.25871015 -0.3674275
0001d0 31 d8 24 bf 45 c5 49 3e 00 d7 9b be f2 06 2a be
       -0.6439238 0.19704159 -0.3043747 -0.16604212
0001e0 57 29 8e 3f 46 d2 25 c0 26 8e 83 3e 90 ac 8e be
       1.1106366 -2.590959 0.25694388 -0.2786603
0001f0 da ee 2b be 3c 3d c0 bf 84 91 dd bd 40 67 91 3d
       -0.16790333 -1.5018687 -0.108187705 0.070997715
000200 7a d9 85 3e ea 90 c4 3f 81 58 c2 3e 87 ec 7e 3f
       0.26142484 1.5356724 0.37958148 0.9957966
000210 1e c5 36 be cd b1 8f 3f 54 72 a5 bf 53 3f 1a 3f
       -0.17848632 1.1226135 -1.2925515 0.60252875
000220 5b cb 58 3e 71 da 7f bf a5 b7 bb 3f 4f 8b 0c bf
       0.21171324 -0.9994269 1.4665419 -0.5490007
000230 4c 6e bd bc 3b 95 a3 3f 26 83 2a bd 6a e5 ac 3e
       -0.023123883 1.2779917 -0.04162898 0.3376878
000240 96 ee 70 3f 88 29 68 3d 2e e7 df 3e e8 67 76 bf
       0.94114053 0.056680232 0.43731064 -0.962523
000250 fe 66 d2 be 45 28 6c 3f 77 62 c0 3e 26 e0 16 bf
       -0.41094202 0.92248946 0.37575123 -0.58935773
000260 fa 2b 1b 3f 9b e4 3c bd cc d2 0f 40 30 b3 b3 3f
       0.6061398 -0.046116453 2.247241 1.4039059
000270 76 73 bb 3f 02 60 04 3e 96 c1 cb 3e a0 cb 96 be
       1.4644611 0.12927249 0.39796132 -0.2945223
000280 38 4f 8e bd 6c 72 08 be b3 d9 0c 3e 94 87 92 3e
       -0.069487035 -0.13324898 0.1375492 0.28619063
000290 c1 67 89 bf ac 48 45 bf 0b bf 97 3f 25 65 88 3f
       -1.0734788 -0.77064013 1.1855177 1.0655867
0002a0 84 f1 b6 bf 9c 5e 35 3f 83 7f 6d be 3d 7d a9 3f
       -1.4292455 0.7084749 -0.23193173 1.3241345
0002b0 84 af b1 3f 57 d8 76 3d 5b 13 9d 3e 37 c5 db 3e
       1.3881688 0.06026491 0.3067883 0.429239
0002c0 0c 0d 9e bf bc d1 1e bf 4b 75 1f be 3f a2 70 3f
       -1.2347732 -0.6203878 -0.15572087 0.9399757
0002d0 83 54 62 be fb b1 9d bf a1 1c 4d 3f 5a fd 23 3f
       -0.22102551 -1.231994 0.8012181 0.6405846
0002e0 76 fc a3 3e e5 68 4c 3f b2 17 ff 3f 4d bd 5d 3e
       0.3202855 0.79847556 1.9929106 0.21654244
0002f0 7c 30 63 3d 5a 63 b3 3f ce eb 94 be a4 e9 6a 3e
       0.05546616 1.4014695 -0.29086155 0.2294069
000300 f5 9c db 3e 5b 13 c6 bf 1f 2c f0 3d 30 d8 9b be
       0.42893186 -1.5474657 0.117271654 -0.30438375
000310 7d cb da 3f 48 4d 7d bf ec ec 09 3f 6c 06 c2 3f
       1.709335 -0.98946047 0.5387714 1.515821
000320 1c f0 21 be e8 86 ba bf 3d 7b 39 bf 3e e0 1a 3f
       -0.1581425 -1.457242 -0.7245367 0.60498416
000330 ff 09 64 3f 94 cf 45 3e ff be f3 3d 6e 62 b8 3e
       0.8907775 0.19317466 0.11901664 0.36012596
000340 71 bd 50 bf 34 3f d5 3f 42 6c a5 be e0 b1 0a 40
       -0.81539065 1.6659913 -0.32309157 2.1671066
000350 d9 8c a2 3f 90 0f c7 3e de 00 ab bf 5c fb 98 3e
       1.2699233 0.3887906 -1.335964 0.29879272
000360 5b 0e c3 be 5f d4 8e 3e e8 4c 29 bf 27 5e 0f 3f
       -0.3809689 0.278964 -0.66132975 0.5600304
000370 eb 8d a7 bf 4e a4 53 40 71 79 04 40 73 59 05 c0
       -1.3090185 3.3069034 2.0699122 -2.0835845
000380 90 e0 64 bf 03 77 e7 bc 3c 8f 15 c0 80 1a ae 3f
       -0.89405155 -0.028254991 -2.3368673 1.3601837
000390 54 f0 86 bf 8a 2d b5 be 35 5b ce 3e 6d 56 79 bf
       -1.0542092 -0.35386306 0.4030396 -0.973975
0003a0 66 cd e0 be 8b 0b 23 bf b0 2c 41 bf 46 10 c1 3e
       -0.43906707 -0.6368949 -0.7545881 0.37707728
0003b0 9a 07 b2 bf 2c 41 6e bf 7e b6 c6 be dc 33 c4 bf
       -1.390857 -0.93068194 -0.38811105 -1.5328326
0003c0 22 81 8e bf 4c ed d4 3e b6 c4 c4 bf 65 5f 5b 3d
       -1.1133158 0.41587293 -1.5372531 0.053557772
0003d0 94 31 b2 3e bb 37 b8 3f 2a 76 66 3f 76 8e ae bf
       0.3480345 1.4392008 0.90024054 -1.3637226
0003e0 42 d8 73 3f a8 c4 88 bf 60 f9 86 be 96 94 a3 be
       0.9525186 -1.0685015 -0.26362133 -0.319493
0003f0 c3 ed d3 3f 59 9b d6 be b3 32 fd bf f0 5b d7 3d
       1.6556934 -0.41915396 -1.9781097 0.105155826

embedding_Pair_distances.weight f4 [7, 8]
000000 de 38 01 3f 04 bf 54 bf ce 9d 6f 3f 6f 00 3b 40
       0.504774 -0.83103967 0.93600166 2.9219015
000010 d8 22 2b 3f 73 d8 b1 3f 0c 3b ad be d7 c5 95 3e
       0.6685004 1.389418 -0.33834112 0.29252502
000020 d6 69 00 40 fc bf 0e 40 18 6a 53 3f 4f 23 d1 bd
       2.0064597 2.2304678 0.8258376 -0.10211813
000030 89 3f be 3f 55 c8 78 bf df 99 cb 3f a9 0d 23 40
       1.4863139 -0.9718068 1.5906333 2.5477087
000040 ae 6e 3a bf f7 f2 68 bf 03 18 74 bf 48 c9 31 bd
       -0.72825134 -0.90995735 -0.9534914 -0.043404847
000050 be cb b5 bf a1 44 03 bf bd 9c 04 3e 10 f4 c7 bf
       -1.4202802 -0.51276594 0.12950416 -1.5621357
000060 10 16 da be 58 a1 cf 3e 0d 06 f3 bf 23 21 61 be
       -0.42594957 0.40552783 -1.8986222 -0.21985297
000070 c2 53 05 c0 fc 26 f0 bf cc f6 76 bf ae 4c 00 bf
       -2.0832372 -1.8761897 -0.9647033 -0.50117004
000080 42 7a 85 3f c1 8e 97 3f 78 72 c5 be e5 4c 00 c0
       1.0427935 1.184044 -0.38563895 -2.0046933
000090 ce f5 a5 bf 44 48 36 be cc 0d 2f bf 74 79 8d bf
       -1.2965639 -0.17801005 -0.6838043 -1.105269
0000a0 c6 9e 34 bd 96 80 d3 3e bb e4 08 bf ad 6d 3c 3e
       -0.04409673 0.4130904 -0.53474015 0.18401213
0000b0 bb 37 b5 bf 38 6e 3f bf 30 b7 d4 bf 9b 0e 09 bf
       -1.4157633 -0.74777555 -1.6618404 -0.5353791
0000c0 00 00 00 00 00 00 00 00 00 00 00 00 00 00 00 00
       0.0 0.0 0.0 0.0
0000d0 00 00 00 00 00 00 00 00 00 00 00 00 00 00 00 00
       0.0 0.0 0.0 0.0

embedding_Pair_prices.weight f4 [6, 5]
000000 78 c1 77 3d 13 25 d5 3e b1 54 bb 3e c2 27 48 be
       0.06048724 0.41629848 0.36588052 -0.19546416
000010 c3 3a 98 3f af c7 63 3f 04 b0 a0 3d d3 07 6c 3f
       1.1892933 0.8897657 0.07846072 0.9219944
000020 23 cb 36 3f d6 ba 59 3f 6b 87 1e be 08 87 1f bf
       0.7140371 0.85050714 -0.15481345 -0.62315416
000030 af 3c 25 bf 17 28 0c 40 14 32 44 bf 6f 80 9b bf
       -0.6454572 2.189947 -0.76638913 -1.214857
000040 6c 14 01 c0 f2 3f f4 be 68 7d 20 3e f8 5c ff 3f
       -2.0168715 -0.47705036 0.15672839 1.9950247
000050 e6 0c 37 bc d4 b4 b7 bf f0 6c 93 bd 1a 4c 7a 3f
       -0.011172509 -1.4352059 -0.071985126 0.9777237
000060 71 59 ad bd 00 00 00 00 00 00 00 00 00 00 00 00
       -0.08464325 0.0 0.0 0.0
000070 00 00 00 00 00 00 00 00
       0.0 0.0

Pair_shop_mlp.fc_layers.0.weight f4 [64, 32]
000000 89 4e 36 3d e5 38 f9 bc 1b ae 20 3e f0 f9 39 3e
       0.04450849 -0.030422637 0.15691416 0.1816175
000010 bb f5 53 be 1d 81 2f 3d e7 5a 6a 3d e1 6e fe bd
       -0.20699207 0.04284774 0.057215597 -0.12423492
000020 5c eb 91 3d 3b 6d 14 3e 53 0b 20 be 56 6f a4 3c
       0.07124969 0.14494793 -0.1562932 0.02007262
000030 dd 92 11 be 60 d7 48 be eb d8 92 3d b0 0f 7f 3d
       -0.1421618 -0.19613409 0.0717028 0.06227082
000040 4f 76 d6 3d a2 ed 42 3c 3c e6 44 bc 4b e1 8c 3d
       0.10471784 0.011897476 -0.012017783 0.06878909
000050 b3 b3 21 3c 82 d5 b9 3d f2 62 4f 3c 6d 81 76 3e
       0.009869504 0.090739265 0.012657868 0.2407281
000060 78 5b 06 be 17 96 c4 3c 75 ca b5 3c 89 6c 80 3d
       -0.1312083 0.02399735 0.022191266 0.062707014
000070 11 02 cb 3d d4 a2 53 3d 83 45 b8 bd 1a 1c 38 be
       0.099125035 0.051668957 -0.08997633 -0.1797947
000080 7e 26 3b be 57 ce e0 3d 30 1e a4 bd ca a6 06 3e
       -0.18276402 0.10976856 -0.0801357 0.13149562
000090 d3 de ab 3d ee 5b 4d 3e 99 d8 89 3e 55 01 f9 bd
       0.0839211 0.200546 0.26923063 -0.12158457
0000a0 49 9b 17 be 43 f2 77 bd a3 4f cf bd 85 6d 48 3c
       -0.1480533 -0.060533773 -0.101226114 0.012233143
0000b0 2d dd 1c bd 61 c5 4b bd 8b be f9 3c d6 9f 62 3e
       -0.038296867 -0.049748782 0.030486366 0.22131285
0000c0 a9 96 53 3d 37 7e 23 be 99 df 01 3d 9c e8 47 3e
       0.051657353 -0.15966116 0.03170738 0.19522327
0000d0 95 82 ab 3d ab 5c b8 bd 91 aa 7b 3c 85 d2 f6 3d
       0.08374516 -0.0900205 0.01536049 0.12051872
0000e0 32 07 db bd 45 b0 a2 3d b4 fd 8f bc 99 26 2f be
       -0.10694732 0.07943777 -0.01757703 -0.17104568
0000f0 ca e1 1f 3e 53 51 a2 bd 1a cf 45 3e 07 67 5c 3d
       0.15613475 -0.079256676 0.19317284 0.053809192
000100 da b3 5c 3d af 73 69 3d a9 38 e6 bc e6 82 84 bd
       0.053882457 0.05699509 -0.02810319 -0.064702794
000110 04 b0 fd 3d 09 23 ee 3d 7f 1d 88 3d b2 9c cb 3d
       0.12387088 0.11627776 0.06646251 0.09941997
000120 17 0e 42 3e 0a 40 26 be 21 62 ed bd 3e b7 03 3e
       0.18950687 -0.16235366 -0.11590982 0.1286287
000130 b7 4a b4 bd 56 1d 00 be 5b 36 1d bd 3f a9 01 3e
       -0.08803313 -0.12511191 -0.038381916 0.12662219
000140 f7 53 3e be e6 1c 26 be a6 e9 f4 3d 44 93 13 3e
       -0.18586718 -0.16221961 0.119586274 0.14411646
000150 9c 9c 03 be 89 f8 c4 3d 07 b3 ab 3c 5a e6 1d bd
       -0.1285271 0.09617717 0.02095939 -0.03854976
000160 b9 ce b4 bd c0 b5 d9 3d 35 ab 02 3e e0 10 02 be
       -0.08828492 0.10630369 0.12760623 -0.1270175
000170 be 3c 0a 3e 24 5e d6 bd b8 5f d2 3d cd 03 67 3d
       0.13499734 -0.10467175 0.10272163 0.05640011
000180 0a 26 85 bd 09 f9 cf bd 81 87 71 bc bb 8f eb bc
       -0.06501396 -0.101549216 -0.014741779 -0.02875506
000190 29 d2 85 3d f7 54 02 3e 2f a1 0c 3e 04 e3 1c 3d
       0.065342255 0.12727724 0.13733362 0.038302436
0001a0 12 3a 38 bd 99 b4 1e 3e f0 22 f7 bd 84 79 be 3d
       -0.044977255 0.1549858 -0.12067211 0.09300521
0001b0 8a 0d f6 3d a7 79 c9 3d bc a2 2b be 2c da 14 3e
       0.12014301 0.098376565 -0.16761297 0.14536351
0001c0 29 d8 be bd 8e 2c cd 3d a7 5e 39 be d9 6a 2b bd
       -0.09318573 0.10018264 -0.18102513 -0.041849945
0001d0 ee 7d f3 3d 4b 7b 97 bd c6 c7 bf bb ca 28 16 3e
       0.118892536 -0.07396563 -0.0058526723 0.14663997
0001e0 c9 b7 2b 3e f2 27 9d 3d 45 c9 28 3e 2a a6 9a 3d
       0.16769327 0.076736346 0.16483028 0.075512245
0001f0 67 04 3c be f6 ce ee bc 74 b2 11 be 06 26 9a bd
       -0.18361054 -0.029151421 -0.1422823 -0.07526784
000200 2b a1 19 3d e7 79 99 3d 3b 6d 0e 3d 10 0f 1e 3e
       0.037507217 0.07493954 0.03477214 0.15435433
000210 80 81 a6 3c a8 b6 30 be e0 b8 48 3d 8e 40 dd bd
       0.020325422 -0.17257178 0.049004436 -0.108033285
000220 c3 5d 99 bd 13 c4 d7 bd b9 7b 56 3d 58 02 6b bd
       -0.07488587 -0.10535445 0.052364085 -0.057375282
000230 87 8e 67 bc 70 3f 05 be 95 9e 32 bd 8f 7c b1 3d
       -0.014133102 -0.1301248 -0.043608267 0.08666336
000240 34 48 01 be 93 ba e8 bd e1 cf bf bc 5c c9 48 bc
       -0.126252 -0.11363711 -0.023414554 -0.012255039
000250 e9 a8 09 3e af 70 72 3d 59 77 12 be 21 cb 65 3d
       0.1344334 0.059189495 -0.1430334 0.056101922
000260 0a 5b 32 be 5b 34 e6 bd d5 33 bd bd d8 32 b3 bd
       -0.17417541 -0.11240455 -0.09238402 -0.08749932
000270 47 f7 d0 3c 1f b6 19 be 7c ea 82 3d 31 98 08 be
       0.025508536 -0.1501088 0.063923806 -0.13339306
000280 3d 70 31 3d fe 99 c9 3d 02 e4 94 bd 8f 4f 60 bb
       0.04331993 0.09843825 -0.072700515 -0.0034227108
000290 bf 54 e7 39 87 50 9f 3d 14 ba 1d 3e fb 6a 99 3d
       0.00044122894 0.07779031 0.15403014 0.07491108
0002a0 d3 f2 34 be 9a a6 45 be 78 49 05 bc 68 29 f9 bd
       -0.17670755 -0.19301835 -0.008135192 -0.12166101
0002b0 3d ca 49 3d a4 f0 57 be e7 a3 fa bd 5d 56 da 3c
       0.049265135 -0.21087891 -0.12238293 0.02665251
0002c0 a7 aa 9c 3b 74 58 30 3e 00 ef 0f be 8a a7 d3 3d
       0.0047810855 0.17221242 -0.14056015 0.1033469
0002d0 42 f3 c3 bd 20 a6 12 3e 2e 71 0b 3e 4d 4d 12 be
       -0.09567882 0.14321184 0.13617393 -0.142873
0002e0 56 8e 3a 3e 45 d3 47 3e 21 0f ae 3d ad 55 8c bd
       0.1821836 0.19514187 0.08498979 -0.06852279
0002f0 23 3c b7 bd d3 c0 15 3e d8 a4 a9 3c f3 ce 2a be
       -0.08947017 0.14624338 0.020708486 -0.16680507
000300 46 c5 62 3d 52 aa 26 be a0 5f d6 bd 49 dd 54 bd
       0.055363916 -0.1627591 -0.10467458 -0.051968846
000310 39 2f b0 3c 26 7e 13 be e5 29 75 bd 8a 8b fa bd
       0.021506893 -0.1440359 -0.059854407 -0.12233646
000320 fa 47 2b bd 41 2b 35 be 82 fc 86 bc 69 ac ee bd
       -0.04181669 -0.17692281 -0.016477827 -0.116539784
000330 ac 09 e5 3d d5 33 56 3d 08 9f 9a bd 91 06 dd 3d
       0.111834854 0.052295525 -0.07549864 0.10792268
000340 43 a1 08 bd d2 ef ee 3d a9 d5 91 bd 7f b9 f0 3d
       -0.033356916 0.11666836 -0.071208306 0.117541306
000350 b8 34 ee 3c ee e0 24 be 3d 04 a6 bd 70 3b 67 bd
       0.029077873 -0.16101429 -0.08106277 -0.05645317
000360 87 4e 42 3e cb 28 8d 3c 2c 1a dc 3d 84 62 36 be
       0.18975268 0.017231366 0.107471794 -0.17811018
000370 67 19 29 be 2a d4 5f bd 31 d0 ee 3d a3 d1 47 bd
       -0.16513596 -0.054645695 0.11660803 -0.04878391
000380 36 57 b1 bc 7a ff 0e bd 83 14 66 bd 5f 80 fd bb
       -0.02164803 -0.03491161 -0.056171905 -0.0077362503
000390 0e bf 14 3e 8e 8a 85 3d 1f 86 cd 3d 3f 0f dc 3d
       0.14526007 0.06520568 0.10035347 0.107450955
0003a0 48 03 d2 bd dc 45 23 3d 31 67 3c 3d a7 74 e9 bc
       -0.10254532 0.039861545 0.04599685 -0.028498007
0003b0 f5 56 25 3e 0b 71 46 3e c4 f3 1a 3d 84 f4 f5 3d
       0.16146453 0.1937906 0.03783013 0.12009528
0003c0 d2 2a 2b be 98 11 38 3b 95 b2 52 bd 99 22 36 be
       -0.16715553 0.0028086659 -0.05143984 -0.17786635
0003d0 a0 ea c5 bd c8 af 1e 3d 1a 84 2a be 1f 60 0e be
       -0.09663892 0.038741857 -0.16651955 -0.13903855
0003e0 60 5c ba 3d 11 7c a8 3d 35 77 3f 3e 74 6c c9 3d
       0.090996504 0.08226789 0.18697818 0.09835139
0003f0 de c5 ee bc 8c 41 5a 3d 86 f0 fe bc 1d 8e 96 3d
       -0.029147085 0.053285167 -0.03112055 0.07351325

Pair_shop_mlp.fc_layers.0.bias f4 [64]
000000 37 89 36 3e e0 eb c9 bc fa b9 e2 bd f7 fd a8 bd
       0.17825781 -0.024648607 -0.110706285 -0.08251565
000010 dc 89 c2 bd 99 d6 94 bc b6 8b d8 3d d7 f4 bb bd
       -0.09498951 -0.018168734 0.10573523 -0.09177559
000020 b3 50 e6 bd 72 b2 b8 3d 21 6d be 3d f9 5f 24 3e
       -0.11245861 0.09018411 0.092981584 0.16052236
000030 0c 4a ce bd f6 bc ce 3d 97 43 ab 3d 1f 49 50 bd
       -0.10072717 0.10094635 0.08362501 -0.050850984
000040 3d 69 df bd 28 50 aa bd ae df a9 bd 85 86 a5 3d
       -0.109087445 -0.0831607 -0.08294617 0.08082298
000050 a0 72 3e 3e 3c c9 11 3e c8 32 bc bd d8 ae 62 bd
       0.18598413 0.14236921 -0.09189373 -0.055342525
000060 0a 28 5e bd 2a 35 af bd 0c 79 ff bc c6 6f 2a 3d
       -0.054237403 -0.08555062 -0.03118565 0.0416105
000070 38 a1 28 be ee f4 e8 3d fb 19 3f 3d 07 2f e1 3c
       -0.1646775 0.11374842 0.046655636 0.027488245
000080 23 e0 47 3d 4d 81 4a 3d f3 0b fa bc 43 dc 80 bd
       0.048797738 0.049439717 -0.030523276 -0.062920116
000090 c3 28 e9 bc 71 bb ed 3d 34 ac 9f bd 8b 88 dc 3d
       -0.02846182 0.11608017 -0.07796517 0.10768231
0000a0 68 be 88 bc 2d 40 3c 3d 55 24 9d 3d 18 57 27 3e
       -0.016692355 0.04595964 0.076729454 0.16341817
0000b0 fa 74 b5 3d a9 f8 15 bd 05 f0 3e 3e d6 3f 5c bd
       0.08860202 -0.036614094 0.18646248 -0.053771816
0000c0 70 49 ad bd 25 ab aa bd 74 17 65 bc ec d7 6e 3d
       -0.08461273 -0.083334245 -0.013982642 0.058311388
0000d0 c1 08 06 3e a8 63 a5 3d a5 91 f4 bd 6d cc 94 bd
       0.13089277 0.080756485 -0.11941842 -0.072655536
0000e0 2a fd 02 3d 5e db 11 be e4 73 22 3d 27 60 34 3e
       0.031979717 -0.14243838 0.039661303 0.17614804
0000f0 03 4f e8 bd 15 32 5f 3d a2 71 1d be 06 36 5b bd
       -0.11343195 0.05449112 -0.15375379 -0.053518318

Pair_shop_mlp.fc_layers.1.weight f4 [16, 64]
000000 83 d7 5f be a4 06 12 bd c3 b6 4b 3b b6 ff a0 3d
       -0.21859555 -0.035650864 0.0031084276 0.07861273
000010 6c 52 4f 3d 28 a9 b0 bc fa 20 d8 3d 0e 56 b3 bd
       0.050615713 -0.021565035 0.10553165 -0.08756648
000020 ea 21 10 bd 73 80 16 bb bb d6 7d 3a fd 09 e9 3d
       -0.035188593 -0.0022964745 0.00096831814 0.11378858
000030 c7 14 b4 bd 58 9a a9 bd f2 cf 14 be 8f 42 11 3e
       -0.087930255 -0.08281392 -0.1453245 0.14185546
000040 48 8d ca 3d 0d 42 11 3e 78 96 29 bc 6a 93 ab bc
       0.098902285 0.14185353 -0.010350816 -0.020944316
000050 c4 8c 1d 3e 34 28 f6 bc 88 3f 96 3d 7e db 2c 3d
       0.15385729 -0.030048467 0.073363364 0.04220151
000060 ec 31 ce 3b af d5 a8 3d 41 44 0c be 1f d7 2c 3e
       0.0062925722 0.08243882 -0.13697912 0.16878937
000070 af 88 07 3e a9 94 b7 3d 5b aa af bd 47 f5 95 bd
       0.13235734 0.089639015 -0.085774146 -0.073221736
000080 d7 41 1b 3e 48 65 db bd 54 99 e1 3d 5a db fb 3b
       0.15161835 -0.10712677 0.11015573 0.007686061
000090 78 b3 eb 3d 13 bb 50 3e bb f5 95 3d 10 b6 c6 3c
       0.1150884 0.20383863 0.0732226 0.024256736
0000a0 84 82 3d 3d db bf 91 3d ce 46 38 3d c6 d8 84 bd
       0.046267048 0.07116672 0.0449894 -0.06486659
0000b0 42 14 0f be 03 37 03 bd 3c b1 cb 3c f5 5f ce 3d
       -0.13972571 -0.032034885 0.024864785 0.10076896
0000c0 22 0e a7 3b 55 7c 21 3d d9 7e 2b 3e aa 87 75 3d
       0.0050981203 0.039425213 0.16747607 0.059943832
0000d0 c1 78 b7 3d e4 33 98 3d ad e3 f8 bd cb c6 6e bd
       0.08958579 0.07431772 -0.12152801 -0.058295052
0000e0 5b 0e e1 3d 18 73 d3 bd 19 5c 49 3e d5 c4 40 3c
       0.10989066 -0.10324687 0.19664039 0.011765678
0000f0 25 a1 31 3d 02 86 31 bc 56 e4 95 3d 50 da 59 3c
       0.04336657 -0.010835173 0.07318942 0.013296679
000100 8c f4 4f 3e 8b e7 81 bc 7d f7 40 3c 00 a4 eb 3d
       0.20308131 -0.015857479 0.011777756 0.1150589
000110 2c 3a 38 bd af a0 bd 3d 94 9f da 3d 57 2b a7 bd
       -0.044977352 0.092591636 0.10674968 -0.08162563
000120 76 c6 aa 3d 56 87 06 3d 65 e4 a6 3d 11 be cd 3d
       0.08338635 0.03284391 0.081490315 0.10046018
000130 74 a2 a5 3d f9 05 a9 3d 4f 55 44 bd f1 25 f8 3d
       0.08087626 0.08253092 -0.04793292 0.12116612
000140 82 0b 81 3c cb 78 96 bd dc 16 eb 3d e8 93 44 bd
       0.015752558 -0.07347258 0.114789695 -0.047992617
000150 32 cc a1 bc c5 1c a5 bd a5 3b b7 3d 7d 0e b8 bd
       -0.019750688 -0.08062128 0.08946923 -0.089871384
000160 1e 31 34 3d 3e 43 b1 3c 1c a6 7f bd a6 4f 9d bb
       0.043992154 0.021638509 -0.062414274 -0.0048007546
000170 4c b4 2e bd 63 6a de 3d 6e 59 5b bb a0 60 c0 3d
       -0.042652413 0.108601354 -0.0033470052 0.0939343
000180 38 ac 27 bd 15 c0 59 bd 58 4d e6 bd d2 0e 8b 3d
       -0.040935725 -0.0531617 -0.11245221 0.06789936
000190 70 57 e9 3c 56 42 88 bd 58 c0 5f bd 4a 5f 90 3d
       0.028484076 -0.066532776 -0.054626793 0.07049425
0001a0 ba 21 75 bd ba 4a d0 3c ac 1c 04 3e e2 60 16 3e
       -0.059846617 0.025426257 0.12901562 0.14685395
0001b0 a8 58 05 bd 5f ba 45 3c 98 3e 01 3e 02 af 80 bc
       -0.032555252 0.01206836 0.12621534 -0.01570845
0001c0 de 58 08 be 30 40 38 bc 28 0e 0b 3b f5 b2 26 bc
       -0.1331515 -0.011245772 0.0021218155 -0.010174503
0001d0 c9 7f a6 bc f4 59 28 bc 39 76 5c 3d 8f e1 87 bd
       -0.020324605 -0.010275353 0.053823683 -0.06634819
0001e0 d5 34 2a bc 4a 8d ee 3d c1 aa e4 bd 66 ab 08 3e
       -0.010388573 0.116480425 -0.11165381 0.13346633
0001f0 ad 69 c9 3d 5a 15 db bd 22 9d 64 bd 26 7d a8 3d
       0.09834609 -0.10697432 -0.055813916 0.08226995
000200 20 dc 3b 3e 6c 00 80 3d 69 f7 a1 3d b8 50 97 3a
       0.1834569 0.062500805 0.07908518 0.0011544442
000210 64 24 e6 bd 76 3e 60 3d 53 6d 13 bc c4 75 8a bd
       -0.1123741 0.054747067 -0.008998233 -0.06760743
000220 dc a9 2b 3d 57 33 c9 3d b0 af fd 3b 84 fc 1d bd
       0.041910037 0.098242454 0.007741891 -0.038570896
000230 a5 fd 1c bd 42 4f 07 3d 6c d8 c7 3b 83 d0 89 bd
       -0.03832783 0.03303457 0.0060987975 -0.067292236
000240 11 6d ad bc 57 ad b7 3c 8e 3f bd 3d cf b3 0e 3e
       -0.021170171 0.022421522 0.09240638 0.13935779
000250 f7 66 46 3d b6 0f 71 3b a7 70 cc bc 37 90 99 3d
       0.04843804 0.0036783046 -0.02495606 0.0749821
000260 04 a9 41 bc 8a c1 94 bd d8 b0 4c 3e ee a3 54 bd
       -0.011820082 -0.07263477 0.19989336 -0.051914148
000270 38 8c 25 bc de 5d 22 3e 05 f5 36 3e 66 49 d3 bd
       -0.010104232 0.1585612 0.17866905 -0.10316734
000280 f6 a7 b9 3d dd 36 87 3c d9 cc 92 bd e2 10 09 bd
       0.09065239 0.016505653 -0.07167978 -0.033463366
000290 8c 04 8d bc 59 0c ca bd 0b 04 15 3e a3 10 c6 3d
       -0.017214082 -0.098656364 0.14552324 0.09671142
0002a0 4c 53 b3 3d 90 1d cb bc bb 2e 64 3c c2 54 2f bc
       0.08756122 -0.02479437 0.013927157 -0.01070136
0002b0 6a 01 11 3e 9e 72 74 3c df fe 23 3d 3a 1b ca bd
       0.14160696 0.014919905 0.040037986 -0.09868474
0002c0 78 51 ff bd e6 22 b0 3d 91 b0 26 be 26 20 03 bd
       -0.12466711 0.08600406 -0.16278292 -0.03201308
0002d0 09 66 fc bd e9 26 f9 3d de 80 2c 3d 1a 91 cb 3d
       -0.12324149 0.12165625 0.042115085 0.09939785
0002e0 68 96 a4 3c 13 c5 71 bd 24 9b 89 3d 22 0a db bb
       0.02009125 -0.059025835 0.06719044 -0.0066845575
0002f0 e4 d0 7a 3d e4 b7 c3 3d 7b 23 98 bd 98 07 a8 3d
       0.06123437 0.09556559 -0.07428642 0.082045734
000300 f9 cf 04 3e 3f c3 8a 3d 6a 7d 6e 3c 0c 3b c5 bd
       0.1296996 0.067755215 0.014556268 -0.09630403
000310 78 a6 3d 3d 6c bf 85 bc 53 15 f1 3d a9 22 07 3e
       0.046301335 -0.016326629 0.117716454 0.13196816
000320 99 f9 05 3e 6d a2 3f 3e c4 60 13 3e 0b 64 51 3c
       0.13083495 0.18714304 0.14392382 0.0127802
000330 1d 25 2b 3d 93 9a 80 bd e0 74 61 bb a7 54 bc bd
       0.04178344 -0.06279483 -0.0034401938 -0.09195834
000340 da 1a 84 3d b6 59 4a bd 0e f5 fd 3c f8 e2 0f 3d
       0.06450434 -0.04940196 0.03100064 0.035128564
000350 ca 51 4b bd ec 34 ef 3d d4 e0 06 3e 8a 6e de 3d
       -0.049638547 0.11680016 0.13171703 0.108609274
000360 ea 6c 28 3e ea 6f 40 be fe ca 3e 3e 17 b1 97 3d
       0.16447797 -0.18792692 0.18632123 0.07406824
000370 51 a7 61 3d 8b 74 ec 3d 86 86 19 3e 9a e6 17 3e
       0.055091206 0.11545666 0.14992723 0.14834061
000380 88 a2 a5 3d fa c8 1d 3d a5 59 15 3d 9c e7 39 bd
       0.08087641 0.038521744 0.036462445 -0.045386896
000390 50 0e d8 bd 67 ee d3 bd 93 08 9f bd 98 14 2f 3b
       -0.10549605 -0.10348206 -0.07765307 0.0026715156
0003a0 ac a1 2b bb e5 26 8d 3d 53 d7 95 3d f7 9a 60 3b
       -0.0026188893 0.06892184 0.073164605 0.0034272054
0003b0 ab 8b 64 3d 89 fb bf bc 90 9f 04 bd 27 72 58 3d
       0.05579726 -0.023435371 -0.032378733 0.05284324
0003c0 b6 35 4a be b6 22 ec bd 7e 19 3b be ba e6 9a 3d
       -0.19747052 -0.11530058 -0.18271443 0.07563539
0003d0 0d e2 d8 bd a6 07 75 bd 5e a0 a9 bd 5e 9e 73 3d
       -0.10589991 -0.059821747 -0.08282541 0.059477203
0003e0 98 fa cf 3d eb c0 5d bd a5 52 ba 3d 6b 25 10 3e
       0.10155219 -0.05413906 0.090977944 0.14076774
0003f0 dd b9 41 bd 2a f8 60 3d 02 5d 11 3d 5d 7d 10 3e
       -0.047296394 0.054924168 0.03548909 0.14110322

Pair_shop_mlp.fc_layers.1.bias f4 [16]
000000 b3 f4 90 ba d6 05 be 3b a9 77 08 3e 04 73 21 3d
       -0.0011059254 0.0057990355 0.13326897 0.039416328
000010 77 57 a5 bd 2d 68 0e 3c 3d d1 87 3c ea fe ab bd
       -0.08073323 0.00869183 0.016579265 -0.083982304
000020 bf 05 4d 3d 80 ce a4 bd c4 da 50 bd 78 37 90 3d
       0.050054308 -0.08047199 -0.05098988 0.0704183
000030 25 88 d0 3d 73 0c 71 3c a2 9d b2 bd e7 61 0f 3e
       0.101822175 0.014712441 -0.08721472 0.1400219

Pair_score_mlp.fc_layers.0.weight f4 [64, 32]
000000 8a b4 09 be c5 70 d0 bd 7d d2 1e 3e 4c 47 2c bd
       -0.13447776 -0.10177759 0.15509982 -0.04206018
000010 bf 03 99 bd c6 7f bf bd 70 a5 50 3e f8 b8 83 3c
       -0.07471418 -0.09350543 0.2037561 0.01607941
000020 3d 33 d3 bb ab e0 d2 bd 06 30 4f bd 23 21 d1 bd
       -0.006445317 -0.10296758 -0.050582908 -0.102113985
000030 79 07 06 be 0e 52 0b be 74 33 8f 3d 68 f7 2d 3c
       -0.13088788 -0.1360552 0.06992236 0.010618068
000040 04 35 3f be 2b 95 c7 bd d5 6f 86 3e 03 cd 84 bd
       -0.18672568 -0.097452484 0.26257196 -0.064844154
000050 46 bd e6 3d 3c 1a 46 be a3 72 5a 3d 51 3f 00 3e
       0.1126657 -0.19345945 0.053331982 0.12524153
000060 69 a7 1e be a1 40 96 bd 03 f1 27 3e 79 fa d0 bd
       -0.1549355 -0.07336546 0.16400532 -0.10204024
000070 0a e6 9f 3d 9f e2 6f bd c6 9d 80 be 86 77 95 be
       0.07807548 -0.058565732 -0.25120372 -0.29192752
000080 b7 b9 3c be 70 2d 8e bd 0e eb 46 3e ca 93 3f 3e
       -0.1843022 -0.0694226 0.19425604 0.18708721
000090 62 e1 af bd be 83 34 3e 0a a4 2f 3e 5c 35 ed bd
       -0.0858791 0.1762838 0.1715242 -0.11582443
0000a0 09 7f fa 3d 44 9e e9 bc 24 18 9c bd b3 d4 16 3d
       0.12231261 -0.02851785 -0.07621792 0.03682394
0000b0 ab 58 95 3d 37 95 3e bd eb 18 cd bd d4 ab 8f bc
       0.07292303 -0.04652902 -0.10014518 -0.017537989
0000c0 57 1c 96 bd c9 47 e0 bd 94 ba 59 3d 02 02 1b 3e
       -0.07329624 -0.10951192 0.05315645 0.15137485
0000d0 e5 78 53 3c 1b df ff bd 79 6f 71 3d 44 1a e4 bd
       0.0129072415 -0.12493726 0.0589442 -0.11137822
0000e0 6f 68 32 be ac 35 39 3e b9 f8 53 3c b3 03 10 be
       -0.17422651 0.1808688 0.012937718 -0.14063911
0000f0 d8 db 32 bd d3 2c cc bc 48 fe 2b 3e b4 81 86 3d
       -0.04366669 -0.024923718 0.1679622 0.06567708
000100 93 68 f3 bd 03 52 98 ba 69 8b 54 bd 26 8e d0 bd
       -0.1188518 -0.0011621121 -0.051890764 -0.10183363
000110 3c e5 20 3d 6a 60 4d bc 6f 64 c5 3d db 68 04 bd
       0.039281115 -0.012535194 0.09638297 -0.03232656
000120 20 b0 05 3e 4c b3 0c be 07 90 d7 3c d9 df 31 3e
       0.13055468 -0.13740271 0.026313795 0.17370547
000130 7b 5c dc 3c dc b9 34 bd c0 50 b6 3d 66 ff b2 3a
       0.026899567 -0.04412256 0.089021206 0.0013656437
000140 92 52 8a be 80 0d 0d 3d f0 ab 21 3d 52 a4 6e 3e
       -0.2701612 0.034436703 0.039470613 0.2330487
000150 34 b1 56 3e e3 65 8f 3d 91 4b 64 3e 3d ae 94 3d
       0.20966035 0.07001855 0.22294451 0.07259796
000160 9f 28 29 3e 93 99 8f bd b9 1f 46 bd e6 89 8b bc
       0.16519402 -0.07011714 -0.048370097 -0.017033529
000170 b4 f3 15 be 37 1a ee bd 19 fc b9 bd 89 e8 f0 3d
       -0.14643747 -0.11626094 -0.09081287 0.117631026
000180 b6 07 26 be 33 a5 02 3e 79 07 60 3e 07 1c 2e 3d
       -0.16213879 0.12758331 0.2187785 0.042507198
000190 c6 8e 31 3e 83 b2 10 be 05 af f2 bd 13 38 73 3d
       0.1733962 -0.14130597 -0.118497886 0.05937965
0001a0 33 9c 1d 3e 74 dc c8 3d 10 35 f5 bd fc f6 39 3e
       0.15391617 0.09807673 -0.119730115 0.18160623
0001b0 34 a9 ad bd dc 2a 89 3d 39 a5 b9 bd fc 4b 38 3e
       -0.084795386 0.06697628 -0.09064717 0.17997736
0001c0 45 a0 d9 3c 69 8c db bd 24 db e7 3d bd 56 99 3d
       0.02656568 -0.107201405 0.11321095 0.07487247
0001d0 f6 a7 09 3d 7d 71 88 3d ce 58 0c 3e bd c8 56 bd
       0.033607446 0.06662271 0.13705751 -0.052437533
0001e0 70 03 12 3e 07 65 55 be 81 93 38 3d eb 88 8e bd
       0.14259124 -0.2083932 0.045062546 -0.06959709
0001f0 37 2c 2b 3d 3d 0b 33 3d 8b 5e 3a 3e 1d 67 38 3d
       0.041790213 0.04371189 0.18200128 0.04502021
000200 7f 0b 47 be cb 6b 68 bc 01 fc f2 3c 1f 25 e5 bd
       -0.19437979 -0.014185856 0.02966118 -0.11188721
000210 c4 22 0b 3e 24 97 14 bd 93 8b f3 bd d2 8d 7b be
       0.13587481 -0.03627695 -0.11891856 -0.24565819
000220 19 5e 14 3e 61 83 85 bd f6 c4 45 be df 01 39 be
       0.1448902 -0.06519199 -0.19313416 -0.1806712
000230 7e 55 28 bd b1 a9 85 3c f3 b6 01 be f4 5b 1d be
       -0.041097157 0.016316267 -0.12667446 -0.15367109
000240 7b b4 26 3e 7e a6 2e 3e 9d c7 e0 bd ab c2 03 be
       0.16279785 0.17055699 -0.10975573 -0.12867229
000250 ea a5 af bd 6b 36 c1 3d 54 20 90 3c 6e 4e fc bb
       -0.085765675 0.094342075 0.01759354 -0.0076997792
000260 6b b0 55 be b0 f7 91 3d 25 3c 26 bd 7d 81 66 3e
       -0.2086808 0.07127321 -0.040584702 0.22510333
000270 06 0d 09 bd e2 95 05 be 88 bb 3f 3d 87 4c 11 be
       -0.033459686 -0.13045457 0.046809703 -0.14189349
000280 a1 17 f0 bd 8b dc 1a 3d ea ff 0d 3e 4e f3 96 3d
       -0.11723257 0.037807982 0.13867155 0.073706254
000290 03 05 c9 3d 83 14 0d 3e a3 25 c7 bd b7 a1 dd bd
       0.09815409 0.13777356 -0.097239755 -0.1082186
0002a0 24 95 c1 bd 4d 4b a4 3c 7d e3 35 3e 62 b4 83 3d
       -0.094522744 0.020055437 0.17762561 0.0643089
0002b0 e8 59 c2 3b 82 db bb 3d 95 ff 21 be 41 e4 83 bd
       0.005931128 0.09172727 -0.15820153 -0.0644002
0002c0 69 42 32 3e bb 7c 27 3e cf 4e b2 3d 2c 40 0f bc
       0.17408146 0.16356175 0.08706438 -0.008743327
0002d0 e4 f3 fd 3d c8 61 07 be 3a 22 ea 3c e2 e5 be 3d
       0.12400034 -0.13220894 0.028580774 0.093211904
0002e0 2a b8 9a 3d 90 a5 90 3d 30 1c 56 3e 01 20 3f be
       0.07554658 0.070628285 0.2090919 -0.18664552
0002f0 83 53 27 3e 6a 0b 10 be ca 75 22 3e 86 38 7b bd
       0.16340451 -0.14066854 0.15865245 -0.0613332
000300 3f 20 ff bd 3c 32 56 3e d4 ef 68 bd b6 bf 85 bd
       -0.12457322 0.209176 -0.056869343 -0.065307066
000310 07 44 17 be 58 80 af bd d2 5e fd 3c 4f 04 06 3e
       -0.14772044 -0.085694015 0.030929003 0.13087581
000320 f6 3f 97 3b 45 41 c1 3d 0c 94 b2 bd 1c a0 17 3e
       0.004615779 0.09436277 -0.08719644 0.1480717
000330 cc 71 38 bd 4b 9b d0 bd a4 17 0b 3e eb f7 c2 3c
       -0.0450304 -0.1018587 0.13583237 0.023799857
000340 af 39 0e bb a7 23 0a 3e 6b 3a bf bd eb 00 06 bc
       -0.0021701863 0.13490163 -0.09337314 -0.00817893
000350 b9 fd 53 bd 2c 3c 94 3d 43 c1 3a 3e fa 3a 2e 3e
       -0.05175564 0.072380394 0.18237786 0.17014685
000360 8a 5f 9b 3d 07 89 4d bd e7 b3 5f 3d a8 38 58 3e
       0.07586582 -0.050179508 0.054614928 0.21115363
000370 3d 2b ee bd 1e 34 f6 3d 3f 01 1a 3e 0e 5c 12 be
       -0.11629341 0.12021659 0.15039538 -0.14292929
000380 f3 6e 61 3c d3 f6 90 bd d5 ca 4e 3e 1b a3 09 3e
       0.0137593625 -0.07078328 0.20194562 0.13441126
000390 ed 36 0c 3d 08 85 9e 3c 23 fb b4 bd 84 de b7 bd
       0.03423207 0.019350544 -0.08836963 -0.08977988
0003a0 15 0d 3c 3e 53 aa 73 3e e8 e5 4c be 7f 83 fc bd
       0.18364365 0.23795442 -0.20009577 -0.123297684
0003b0 84 86 84 3d 08 48 56 bd e1 f7 d5 bd 79 98 fe 3d
       0.06470969 -0.052314788 -0.1044767 0.124314256
0003c0 84 cd 4f be 83 7c 03 be a2 44 fb 3c 6e a7 a3 bc
       -0.20293242 -0.12840466 0.030672375 -0.019977298
0003d0 c9 13 94 bd c0 94 79 3e b6 f8 5f 3d e0 4c 1c b9
       -0.07230336 0.2437315 0.05468055 -0.00014905958
0003e0 39 11 31 3b d3 f3 e8 bd 42 51 bd bd d4 da 00 be
       0.0027018322 -0.11374631 -0.09244014 -0.12583476
0003f0 00 72 da bd 37 0f 93 bd fd 08 33 3e 63 22 8e 3d
       -0.10666275 -0.071806364 0.17483898 0.069401525

Pair_score_mlp.fc_layers.0.bias f4 [64]
000000 14 ba 7c 3d f7 54 4b bd 86 a7 0a be f8 26 cc bd
       0.061700895 -0.049641576 -0.13540468 -0.0996837
000010 5e 3f 31 3e da 58 26 3e ad 3a d2 bd 7f 8c c9 bd
       0.17309329 0.16244832 -0.10265098 -0.09841251
000020 38 e7 8b bd 48 aa a9 bd 1f 04 20 3e 22 fa 8e 3c
       -0.06831211 -0.08284432 0.15626572 0.017453257
000030 b6 b7 36 3d be 01 d1 3d 42 20 82 bd 7a 1f 2e 3d
       0.044608794 0.102054104 -0.06353809 0.042510487
000040 2e e3 3d 3e 04 fe 94 bd d5 cf d3 3d 72 bc 99 3d
       0.18543693 -0.07275012 0.10342375 0.07506646
000050 9a 49 9d bd ca 31 e6 bc 48 73 92 3d b8 1e 55 bd
       -0.07680054 -0.028099913 0.071508944 -0.05203125
000060 8f 36 da 3d 8b 61 31 bd 3b 96 90 bb b3 49 dc 3d
       0.106549375 -0.043305915 -0.00441244 0.107562445
000070 6d a7 22 3e 53 92 13 bd 63 c1 a2 bd 96 e6 1c 3e
       0.1588418 -0.036028218 -0.07947042 0.15322337
000080 73 88 ab 3d 04 d1 19 be b6 27 79 3c fc 8e 6a 3e
       0.08375635 -0.1502114 0.015207222 0.22906107
000090 5c 63 2a 3e a0 82 12 3e f8 ed a4 bd 3a 2b 2f bd
       0.16639465 0.14307642 -0.080532014 -0.042765833
0000a0 93 2d e8 bd bc 9e c9 3d 4c 2c 17 be a4 ce fa bd
       -0.113368176 0.09844729 -0.14762992 -0.12246445
0000b0 50 1a 8b 3a cd ca 02 3e 4e f1 17 bd 80 3c c3 bd
       0.00106127 0.12772675 -0.03709536 -0.09533024
0000c0 46 11 7e bd 47 a3 8e bd 0a 6b 15 3d 95 d2 94 bd
       -0.062028192 -0.069647364 0.036479034 -0.07266728
0000d0 9f 45 2f bd ad ab f3 bd 2f 05 79 bd 90 85 0e 3e
       -0.042791005 -0.11897979 -0.06079596 0.13918138
0000e0 9d b2 ca bc 92 77 e0 3d 9a 89 f8 3d 76 e8 fb 3d
       -0.024743373 0.10960306 0.121356204 0.12300198
0000f0 a3 4a 9c 3d f6 b1 2b 3e d8 5d be 3d 63 ad 88 bd
       0.07631423 0.16767105 0.09295243 -0.06673696

Pair_score_mlp.fc_layers.1.weight f4 [8, 64]
000000 d6 4f dc 3d e1 4e 00 3e 08 03 03 3e e5 90 8b 3d
       0.10757415 0.1253009 0.12794125 0.06814746
000010 e6 5c 40 3e e7 a8 1c 3e 51 c6 56 3d 60 6e ee 3d
       0.18785438 0.15298806 0.052435223 0.11642146
000020 b1 43 0a 3e f2 a3 11 3e 6f b9 db bd ce 45 12 3d
       0.13502385 0.14222696 -0.10728728 0.035711102
000030 a5 72 03 3d d1 97 0c be ed db bc bc 82 e8 0f bb
       0.032091755 -0.13729788 -0.023054088 -0.0021958654
000040 43 49 f1 3d 9b 29 88 3c 80 2a 27 bd 85 79 78 3d
       0.11781552 0.016621402 -0.040812016 0.060662765
000050 7d 2a 0f 3e 35 0b b7 bc e1 49 c0 3d 73 c8 b4 3c
       0.13981052 -0.022344211 0.09389091 0.022068238
000060 50 1e d1 3d 12 c1 17 3e cb e9 22 3e 6f 9c 0e 3d
       0.1021086 0.14819744 0.15909497 0.034817155
000070 cc 27 28 bd 43 e4 de bc 62 cf f3 3d 64 40 01 3c
       -0.04105358 -0.027208453 0.119047895 0.007888887
000080 f5 61 06 3d 3f 15 e7 3d 0f c3 ed 3d 8a ca a3 3b
       0.032808263 0.11283349 0.1160947 0.00499851
000090 46 de 30 3e df ab 25 3d b2 7d 99 3d f7 2b c6 3d
       0.1727229 0.040447112 0.074946776 0.096763544
0000a0 19 c7 c1 bc be 73 2e 3d 16 bf c1 bc e0 ba a1 3d
       -0.023654507 0.04259085 -0.023650687 0.07896972
0000b0 ea f7 36 be 68 59 ce 3d a1 c2 12 3e 75 91 e0 3d
       -0.17868009 0.10075647 0.14332058 0.10965244
0000c0 eb 0d d5 bd 63 0f b3 3d cb 22 c3 bd da e3 bf 3d
       -0.10403045 0.08743169 -0.095281206 0.09369631
0000d0 49 cd 71 3e d2 b9 c5 3c 49 f9 8c 3d 26 66 ad bd
       0.23613466 0.024136458 0.06883485 -0.08466749
0000e0 3e 35 3b 3d 70 9a a3 bd ce e5 7c bd 87 fa d5 3d
       0.045705073 -0.07988441 -0.061742596 0.10448175
0000f0 e9 ae 97 ba 1a a3 ae 3d 73 4d 6b bd f8 3c 2f 3e
       -0.0011572513 0.08527203 -0.05744691 0.17113101
000100 cd a4 db bd cc 7e e3 3d 85 10 e3 bd ab 9e 0a be
       -0.10724793 0.11108169 -0.11087135 -0.1353709
000110 14 78 d3 bd 88 61 69 bd 7b 37 1d bc e7 2d 94 bd
       -0.103256375 -0.05697778 -0.009595747 -0.07235318
000120 1f 25 88 bd aa 48 49 3c e1 44 30 be 0a fb 0a 3c
       -0.06647705 0.012285391 -0.17213775 0.008482704
000130 ad a8 2f be 79 21 2c 3e b4 18 2f be 7e 12 28 be
       -0.17154188 0.16809644 -0.17099267 -0.16413304
000140 0e c2 72 bb de e0 2a 3d 7b 97 51 bd e4 7b ad 3c
       -0.0037041935 0.041718356 -0.051169854 0.02117724
000150 ec 06 07 be 1b dc e2 bd f6 60 1e bd 59 a1 89 3d
       -0.13186234 -0.11077138 -0.038666688 0.06720228
000160 c8 a6 89 bd 93 90 cb bd 66 9a f1 3d bd 23 e3 bc
       -0.06721264 -0.09939685 0.11797027 -0.027727002
000170 2f 4d bf bd 28 e4 80 3d f8 d7 e4 3d 29 c0 a3 bb
       -0.093408935 0.06293517 0.11174005 -0.0049972725
000180 38 f5 77 bd 79 8d 00 be 45 24 5e 3d a4 52 df 3d
       -0.060536593 -0.12553968 0.054233808 0.10904434
000190 b4 6c b8 bd 6d 20 9a 3d 2e 32 08 3d da a2 66 3d
       -0.090051085 0.07525716 0.03325098 0.05630765
0001a0 44 15 ce bd 38 6a 10 bd 9b 04 90 bd a7 6a e6 bd
       -0.1006265 -0.035257548 -0.070321284 -0.11250811
0001b0 97 05 44 3e a5 7d 05 3e ce 1d 9f bd 2b c1 98 bd
       0.19142757 0.13036211 -0.07769357 -0.07458719
0001c0 7d 79 49 3d e7 53 fa bd 39 b0 e8 3d 8a 22 d7 bd
       0.049188126 -0.12223034 0.11361737 -0.10504635
0001d0 35 91 c9 3b a6 c8 0f be 36 9b 05 be 61 5f 54 3e
       0.006151343 -0.14041385 -0.1304749 0.20739509
0001e0 94 6e e6 3c 8a 32 d7 bd d7 80 14 bd 1d 78 91 bd
       0.0281289 -0.105076864 -0.036255684 -0.07102988
0001f0 03 c1 22 3e cd ee ac 3d 50 1a 54 3d 31 8a 4b 3d
       0.1589394 0.08443985 0.051782906 0.049692336
000200 cb 5f bc 3d 20 f8 df 3d b7 0e 65 3e f5 90 29 3e
       0.091979586 0.10935998 0.22368895 0.16559203
000210 a5 f6 cd 3c d8 b0 9f 3d 4a 68 3d 3e 73 53 98 3c
       0.025142023 0.07797402 0.18496814 0.01859448
000220 e3 81 36 3e 9d dd 10 3d 79 6f bb 3d a1 d6 26 bc
       0.17822985 0.035367597 0.09152121 -0.010183007
000230 a3 da a8 bc 6f 7f 4b be 55 4c 86 3d d2 04 94 3d
       -0.020612067 -0.19872831 0.06557528 0.07227482
000240 27 65 7e 3e 3c 1c 1e 3e 5c 90 02 3e c4 26 27 3d
       0.24843274 0.15440458 0.12750381 0.040808454
000250 41 f6 e7 3d bd 7b 2f bd 62 8e ed 3d c8 bd 86 3d
       0.11326266 -0.042842615 0.11599423 0.06579167
000260 ea 1b 58 3d 52 c0 4e 3d 05 12 f0 3d e8 1c 5a 3e
       0.052760996 0.05047638 0.11722187 0.2130009
000270 18 76 e6 bb 8b 46 14 3e 26 8f 90 3d 88 df 54 3e
       -0.007033121 0.14480035 0.070585534 0.20788395
000280 c9 2a d9 3d 76 e9 d3 3c 3b a6 de 3d 24 7c eb bc
       0.10603864 0.025868159 0.1087155 -0.028745718
000290 f4 d5 2b 3e 29 ac 21 3c 15 5a c5 bd 34 80 19 3e
       0.16780835 0.009867706 -0.096363224 0.14990312
0002a0 0f 6e 3d bd d0 f3 d2 3d 7a a5 e8 3d ac e8 22 3e
       -0.04624754 0.1030041 0.11359687 0.1590907
0002b0 6a 3f 68 bd 05 ff 08 3e 8d 43 c4 3d 19 82 25 bc
       -0.0567011 0.13378532 0.09583197 -0.0101018185
0002c0 20 19 18 3e 2f 22 04 bd 61 3e 27 3e d3 b2 60 bc
       0.14853334 -0.032259163 0.1633239 -0.01371451
0002d0 50 99 85 3d bc 5b bd bd 10 29 9c 3d 41 b5 9b bc
       0.06523383 -0.092460126 0.076250196 -0.019007327
0002e0 d7 26 24 bd 3f f0 dd 3c d7 81 c5 3d 33 29 64 3e
       -0.040076103 0.027092097 0.096439056 0.22281341
0002f0 1a a3 d0 3d b3 7a 5a 3c e8 63 cf 3d 39 60 88 3e
       0.10187359 0.013334918 0.101264775 0.26635912
000300 b0 d4 5c bd 4e fe a1 3d 1a cc 54 3d 3f 75 1d 3c
       -0.053913772 0.07909833 0.05195246 0.009610473
000310 6e e5 3b 3c 30 8f c5 bd 5f 74 68 3c 2c 65 a2 3c
       0.0114682745 -0.096464515 0.014187901 0.019823633
000320 26 d8 19 be 92 df 21 bc e0 66 84 3d c5 64 95 3c
       -0.1502386 -0.0098799635 0.06464934 0.018236527
000330 3c 0c c6 bc 8a 81 c9 3d ae 40 cd bd 5d 24 12 be
       -0.024175756 0.09839161 -0.10022102 -0.14271684
000340 ce 25 90 bd d9 cf bf bd e4 71 a0 3b c3 9a 5a bd
       -0.07038461 -0.09365816 0.0048963893 -0.05337025
000350 5a c3 9a bd c5 f5 ac bb 22 a8 6b 3d 51 9e a5 3d
       -0.075567916 -0.0052783214 0.05753339 0.08086837
000360 35 61 f8 3d ca 88 98 3b 28 4f 4a bd e7 96 f4 3d
       0.12127916 0.0046549784 -0.049391896 0.11942845
000370 96 fb 54 bd 04 22 93 3d 80 ea 8f 3d 18 46 bc bd
       -0.051997744 0.07184222 0.07027149 -0.09193057
000380 dd 33 2e bd 79 ce de bd 66 a4 92 bc 99 10 93 bc
       -0.04252993 -0.10879225 -0.017900657 -0.01795225
000390 15 d8 08 3e 4a d6 21 be a8 38 ad bc f6 27 07 3c
       0.13363679 -0.15804401 -0.02114518 0.0082492735
0003a0 2f 37 0e bc 84 f4 a1 3d 30 b9 98 bd ef b7 c1 3c
       -0.008680149 0.07907966 -0.07457197 0.023647277
0003b0 6d c5 25 bd ce 3f e3 bd e8 c0 fb bd df d6 8f bd
       -0.040471483 -0.11096154 -0.12292653 -0.07023405
0003c0 a5 ed cb 3d 60 23 11 be a3 31 f8 bb 3f 91 d0 bd
       0.099574365 -0.1417365 -0.0075742765 -0.101839535
0003d0 d0 82 2f 3d 42 d9 aa bd 5e 71 7f 3b 95 f3 19 3e
       0.042849362 -0.0834222 0.0038977484 0.15034325
0003e0 5f b5 c7 bd aa 92 01 3d 13 a4 d7 3d 61 4c b4 3d
       -0.09751391 0.03163401 0.105293415 0.088036306
0003f0 d0 0c 4f bd 34 de f1 bd e4 00 27 3d 85 a3 4a 3b
       -0.05054933 -0.1180996 0.040772334 0.003092022

Pair_score_mlp.fc_layers.1.bias f4 [8]
000000 81 46 7f 3b 1a a2 ca 3d 75 c8 ac bd d5 75 6a 3d
       0.0038951936 0.098942 -0.08436672 0.05724128
000010 5f 2e 10 3e 0a 05 f7 3d 0f 2a 76 bd 67 52 74 bd
       0.14080189 0.12061508 -0.060098704 -0.059648897

CNN_embedding_types.weight f4 [106, 16]
000000 53 31 14 3e f5 92 46 bf f1 cf fc be b2 de 73 3f
       0.1447194 -0.7756799 -0.49377397 0.9526168
000010 39 9b d0 be 02 8c 5a bc eb 74 e2 3f 05 a0 39 c0
       -0.40743425 -0.0133390445 1.769193 -2.9003918
000020 15 51 fc 3d 6c a1 5d bf e7 f5 08 bf 9c da 89 3f
       0.12320153 -0.86574435 -0.5350022 1.0769839
000030 ef 8e f8 3e ba 84 ca 3e 1c 5e 3c 3f 04 11 44 bf
       0.4854655 0.39554387 0.735811 -0.76588464
000040 46 1c 08 bd 67 94 f6 bf 6a 36 2a 3f 97 0b 3b bf
       -0.03323009 -1.9264039 0.6648928 -0.7306456
000050 46 69 ea 3e 44 19 27 bf 18 2d d4 3e 60 a8 81 be
       0.45783442 -0.6527293 0.41440654 -0.25323772
000060 ea 84 1e bd 1c 8b 67 bf 2f 79 ad bf dd b3 f2 3e
       -0.038700975 -0.9044664 -1.3552607 0.4740285
000070 ea d8 82 3f 99 83 da 3e dc 08 b9 be 0c 0d 02 be
       1.0222447 0.42678526 -0.36139572 -0.1270029
000080 64 bd 0e bf 45 8d d5 3f 49 d9 1f 3f 1e 70 bd be
       -0.5575774 1.6683737 0.62440926 -0.369996
000090 95 56 9e bc 5b 48 8b 3f 57 4e e1 3e a3 90 84 bf
       -0.019328395 1.0881456 0.4400508 -1.035664
0000a0 26 13 07 40 29 77 c6 bf 23 e7 88 bf c1 0f 16 3f
       2.1105437 -1.5505115 -1.0695537 0.5861779
0000b0 c4 8f 8b bd bd a1 e1 3d 88 13 02 bf 4a 34 a2 3f
       -0.068145305 0.11017177 -0.5081105 1.2672207
0000c0 95 3a 9b be 5d 25 1b bf 7e 64 9f be bc a0 8f 3d
       -0.30318132 -0.60603887 -0.31131357 0.070130795
0000d0 52 fe e7 be f4 d9 05 40 6f a9 9c bd a3 61 9f 3f
       -0.45311219 2.0914278 -0.076495044 1.2451671
0000e0 e5 8e ae bf 9f ee 44 bf da 21 aa 3e ae 21 92 3f
       -1.3637358 -0.76926607 0.33228952 1.1416528
0000f0 d6 b5 c3 3d ec 68 08 c0 e1 59 0c 3f 83 a2 6f 3f
       0.09556167 -2.131404 0.54824644 0.9360735
000100 a4 3f f4 3f 90 27 76 3f 19 9f 0d 3f 04 97 71 3f
       1.9081922 0.9615412 0.5532089 0.94371057
000110 0b d5 ae 3e f5 fe 13 bd 4d bb bf 3f 62 f2 46 bf
       0.34146914 -0.036131818 1.4979035 -0.77713597
000120 84 d1 48 3f 52 7e 3a bd 1d cc 26 be 7c 58 ab 3f
       0.78444695 -0.045530625 -0.162888 1.3386378
000130 21 b6 26 be cb 93 83 be c7 17 56 3d 93 f6 c7 be
       -0.16280414 -0.25698695 0.05226877 -0.3905531
000140 3b e2 6b 3e 18 9b 88 3e 4b 90 8c 3f 9d 96 9f bf
       0.23035519 0.26680827 1.0981535 -1.2467839
000150 9b 92 75 bf 5a 47 e7 bf 61 7b 3a 3c c8 e0 e1 bd
       -0.9592683 -1.806865 0.011381955 -0.11029202
000160 6f bd a0 bf 8c 85 22 3f 58 4d 9e 3e cd a2 36 40
       -1.255781 0.63485026 0.30918384 2.8536866
000170 44 72 9b bf 62 13 5b be 26 df 06 bf f1 fb 32 3e
       -1.2144246 -0.21394113 -0.5268425 0.1747892
000180 84 b8 04 3f 58 d5 c1 be ef db 66 be aa 67 c8 bf
       0.5184405 -0.3785808 -0.22544836 -1.5656636
000190 e5 71 f4 3e ac e3 87 bf 19 cc e3 3f 75 78 0c bf
       0.47743145 -1.0616355 1.7796661 -0.548713
0001a0 fe 86 ad 3e 68 37 47 3f 4e 46 f7 3b 63 71 15 bf
       0.33892053 0.7781892 0.007546223 -0.5837614
0001b0 74 51 6a bf 67 8b 57 bd 7a cf e4 3f 83 64 93 3f
       -0.9153054 -0.05262318 1.7875817 1.1515049
0001c0 f1 23 c7 3d 39 4b cc 3f bf a9 1a bf a8 74 b4 3f
       0.09723652 1.5960456 -0.6041526 1.4098101
0001d0 73 c5 f1 3d d3 3a 34 3f c7 95 09 bf 44 76 3c bf
       0.118052386 0.7040226 -0.5374417 -0.7361796
0001e0 17 0f 0c 3f 1d d8 f3 3f e3 e4 cf 3d e4 ea e6 3e
       0.54710525 1.9050328 0.101510786 0.45101082
0001f0 d9 01 cd 3e fa aa 7f bf cd 37 1b 3e da 77 21 bf
       0.40040472 -0.99870265 0.15158005 -0.63073504
000200 c8 88 36 40 03 4c f3 bd d2 10 c5 3e e5 eb 79 3f
       2.8520985 -0.118797325 0.38489395 0.9762557
000210 aa 02 ac bf f8 8a 55 bf bd 59 06 be ec 76 c2 bd
       -1.3438313 -0.83415174 -0.1312017 -0.09495339
000220 7d 43 38 be 3e 5a 8e bf ed 8a ea 3e ad ad 5f be
       -0.17994495 -1.112129 0.45809117 -0.21843596
000230 86 57 0e 3f 09 d7 df bd b1 b5 ff 3f d2 92 03 3e
       0.556023 -0.109296866 1.9977323 0.12848976
000240 f2 00 e0 3c 2a e4 1a 3e 16 48 54 bf 40 95 01 40
       0.0273442 0.151261 -0.82922494 2.0247345
000250 c2 86 79 3e 2a 23 9a 3d 2d 50 90 be b9 bb 9b 3d
       0.24367812 0.07526238 -0.2818617 0.07604165
000260 a6 73 d0 3e 61 8f 81 be 06 de cf 3e 49 80 45 3f
       0.40713233 -0.25304702 0.40599078 0.7714887
000270 ed e5 6c be 06 a6 8d bf 0a 10 94 3d f0 fc 5d bf
       -0.23134585 -1.1066291 0.07229622 -0.86714077
000280 87 c5 96 bf 34 da 0a 3f 45 92 4d be c9 95 18 bf
       -1.177903 0.542392 -0.20075329 -0.59603554
000290 f4 d2 eb 3e 36 ec 9d 3f 50 51 9e 3e fe 11 1b 3f
       0.46059382 1.2337711 0.30921412 0.6057433
0002a0 76 73 19 3f 20 07 9c be 7f 51 9d be 89 34 d2 3f
       0.59941804 -0.30474186 -0.3072624 1.6422282
0002b0 e1 8a 85 3f 04 e6 bd bf c4 b4 24 3f d2 ef e5 3f
       1.0433007 -1.483582 0.64338326 1.7963812
0002c0 8e 29 b3 3c 84 66 f3 bf 09 6c e5 bd be d3 ba 3e
       0.0218704 -1.901566 -0.11202247 0.3648967
0002d0 38 ff a6 bf 27 3a ca bc 1a 1c a7 bf f2 b2 68 be
       -1.3046637 -0.024685932 -1.3055451 -0.22724512
0002e0 3b c6 d9 bd 95 03 8c bf ec 47 92 be 3d 39 db 3f
       -0.106335126 -1.0938593 -0.28570497 1.7126843
0002f0 e4 bf a2 3f 83 c5 81 3f 2c 8a 3d bf 79 2a 84 3e
       1.271481 1.0138401 -0.7403896 0.25813654
000300 d0 92 67 bf 18 9f 13 40 e9 71 4b bf a3 e3 df 3f
       -0.90458393 2.3065853 -0.7947069 1.7491344
000310 ba 7c a6 bd 84 7c 3c be 6d 35 97 bf 6d 48 dd 3e
       -0.081292585 -0.18406874 -1.1813179 0.4321932
000320 e2 9a a3 3f 78 49 45 bf 58 81 dc 3f 3e 3e 62 be
       1.2781641 -0.7706523 1.7226973 -0.22094056
000330 f8 5f 5c 3f fe b0 e8 3f 5f 08 2f 3f 6e 50 85 be
       0.86083937 1.8179014 0.6837215 -0.26037925
000340 a8 f6 f4 3f ef 81 92 3f d3 48 b1 3f 18 62 93 bf
       1.9137774 1.1445903 1.3850349 -1.1514311
000350 23 71 02 3e 7b 3f 5d 3f 13 29 58 3f 46 88 cc bf
       0.1273847 0.8642499 0.84437674 -1.5979087
000360 6a a3 74 3f b9 68 b2 bf 9c 87 7e 3d 88 d4 82 bf
       0.9556185 -1.3938209 0.062141046 -1.0221109
000370 52 1b 0c bf bd 52 8c 3f 7e 9b fd 3d 90 07 cc 3e
       -0.5472919 1.096275 0.123831734 0.3984952
000380 6c 5c a8 3c a3 8a 89 bf 88 e1 88 3d e4 d6 2f 40
       0.020551883 -1.0745434 0.06683642 2.747491
000390 27 b3 56 40 46 1a db 3f 7d af ab bf bc 3b 4a be
       3.3546846 1.7117393 -1.341293 -0.1974935
0003a0 99 37 7a bf 3e 2d 48 3d c2 f5 59 bf b8 c3 19 bf
       -0.97741085 0.04887127 -0.8514062 -0.6006427
0003b0 6d 29 6c bf f2 b1 11 3e 76 b1 fe be 44 0f a5 be
       -0.9225071 0.14228037 -0.49744767 -0.3223821
0003c0 3f 9f ee bf db c8 db 3e b0 58 1d 3f ba 6d 3b 3e
       -1.8642348 0.42926678 0.6146345 0.18303576
0003d0 99 c3 ca 3d ec 41 0b bf 52 10 44 3f b6 ce b0 bf
       0.099005885 -0.54397464 0.765874 -1.3813083
0003e0 c5 48 85 3e ce ad 29 3f ae 5e 3a 3f 30 f0 15 3f
       0.2603208 0.6628083 0.7280072 0.5856962
0003f0 d4 02 74 3e 5b cb a9 3c 17 00 4f bf 50 8c 5b 3f
       0.23829204 0.02072685 -0.8085951 0.85760975

embedding_CNN_distances.weight f4 [7, 8]
000000 d7 2b 85 3f 9e 21 93 bf 5f 35 47 3e 70 f4 b8 3e
       1.0404004 -1.1494634 0.19453953 0.3612399
000010 f6 47 70 3f e4 7f 07 bf ff 0b 3c 3f ea 53 9e 3f
       0.93859804 -0.5292952 0.73455805 1.2369359
000020 84 6e 37 bf 02 1b 37 3f ba 5e 37 c0 6e 64 6e be
       -0.7165301 0.71525586 -2.8651567 -0.23280498
000030 7c 0d 81 bf ac 67 0d c0 58 a0 82 bf 05 3f 7f 3d
       -1.008224 -2.2094526 -1.0205183 0.06231596
000040 53 05 84 3e 3b 50 95 bf b9 17 02 3d dd dc c3 be
       0.25785312 -1.1665109 0.031760905 -0.38254443
000050 b6 89 9d 3f 76 27 63 3f c1 51 f5 3f 5b af cf 3e
       1.2307651 0.8873209 1.9165574 0.40563473
000060 2d 05 f3 bd 3e 86 be 3e 34 1e 0b 3f d5 30 e0 bf
       -0.118662216 0.37211794 0.5434296 -1.7514902
000070 69 0d 70 3f cb e1 45 bf 7d 12 d6 3e 02 61 01 bf
       0.9377046 -0.7729766 0.4181098 -0.5053865
000080 13 b6 8c bf 37 e8 30 be 11 f3 1e 3f 31 47 c6 3f
       -1.0993065 -0.17276083 0.6208964 1.5490476
000090 81 fd 0a 3e 59 6b 37 bf 13 47 6b 3e 3d 07 bb 3e
       0.13573267 -0.71648175 0.22976331 0.3652896
0000a0 30 6c bd 3d 34 eb d2 be e7 6c 51 be 29 48 ab 3f
       0.09249151 -0.4119507 -0.20451699 1.3381397
0000b0 75 8c bb 3e a6 c5 69 bf 36 1b 36 bf f2 c8 89 3f
       0.36630598 -0.9131721 -0.7113527 1.0764449
0000c0 00 00 00 00 00 00 00 00 00 00 00 00 00 00 00 00
       0.0 0.0 0.0 0.0
0000d0 00 00 00 00 00 00 00 00 00 00 00 00 00 00 00 00
       0.0 0.0 0.0 0.0

embedding_CNN_prices.weight f4 [6, 5]
000000 e1 cb f2 3f e2 2d b1 3f 5c e2 a2 bf 56 f8 dc bf
       1.8968469 1.3842127 -1.2725329 -1.7263286
000010 9e f2 80 bf 78 ea e3 be d1 78 8e 3f 06 e0 f8 3f
       -1.0074041 -0.44514823 1.113062 1.9443367
000020 98 02 b2 3e b6 77 7c be 83 63 0b 40 83 10 0f bf
       0.34767604 -0.24655041 2.1779487 -0.5588457
000030 76 8a cd bf 71 3e 34 bf fc ea 93 bf 40 76 99 bf
       -1.605788 -0.7040778 -1.1556087 -1.1989212
000040 34 bb eb 3f 78 7d a5 be fa 2a b5 bf b1 22 57 bf
       1.8416505 -0.32322288 -1.415374 -0.8403731
000050 3d fa 1d bf d0 63 a1 3e ae c8 1d 3d bc 0d 47 bf
       -0.6170996 0.31521463 0.03852146 -0.7775533
000060 8d 46 6d 3f 00 00 00 00 00 00 00 00 00 00 00 00
       0.92685777 0.0 0.0 0.0
000070 00 00 00 00 00 00 00 00
       0.0 0.0
