checkpoints/GNNNoCNN_Epoch14_valmse2.1694_testmse2.3894_ndcg0.9465.model (torch, 249600 bytes, 52 tensors)

Pair_embedding_types.weight f4 [106, 16]
00000000: 1f6b 273d 6018 a0bd daae d0be e360 5fbf
00000010: 9422 593f c0af c4be e4a6 003e b3ba a3bf
00000020: c167 d23d 64b6 b4bc 9073 9fbf d960 0d3f
00000030: 50e1 c9bf 60cc b73e 5b98 813e 8ccc 353f
00000040: e53e ea3e b9f4 95bf bd21 f73f 9295 d9be
00000050: 5a83 80be a748 423e 7fa4 1fbf bb6f 2a3f
00000060: 3573 86bf cf58 2d3d 3c40 04bf 5b8e 5340
00000070: 8289 4ebf 6868 0abf a3bd 8ebf f2e4 803f
00000080: 7fd2 dc3f edb9 1040 8107 86bf 0c56 103e
00000090: d4fe 643f 857f a1bf 7615 90bf 1c4a 573d
000000a0: 7eaa 2a3f 2a84 0d3e 9587 843f 6844 e93d
000000b0: 299c 6ebf c716 ce3d 5e5e 953f 1dba babd
000000c0: b51f 27bf 4ce0 963f 0332 cabe 9f9a 96bf
000000d0: e96e d7bf 6751 5c3f 437b febf cc60 b63c
000000e0: bcba 883c 23e1 853f fcf6 aabf 695e a43f
000000f0: a41c 0b3c 7c11 743f 70b7 a03f 9261 313d
00000100: 13fb ccbd fb4a 593e a7a9 563f a7af cfbf
00000110: 533d 0a40 37aa 87bf 08d4 753e 5aed aebf
00000120: bc54 93be 61a3 0d3e e4c4 423e 3782 743f
00000130: 42f1 d03e e408 41be 95ee 833e 63b0 313e
00000140: 2323 b9be e84e ea3d f4f4 873e 50bb 893f
00000150: a52f 94be f1c9 90bf fb9c 14be bc66 dabe
00000160: 9c47 313f f828 c23f 8c26 30bf e3d4 58bf
00000170: 2629 4fbf 72b5 1b3f 51e3 6a3f c70f bb3f
00000180: 9ce1 b0bf d720 863e 7fc0 e73f da69 103e
00000190: 4534 3c3f b6a0 683e c6ce 5dbf ee6a 0c40
000001a0: 87a3 8ebf 596b 9a3f 6a78 723e 1bc2 7dbf
000001b0: 01fc edbe 366c 703e 4544 f7be a93a edbc
000001c0: e6a0 393f 7951 c63f c36a 853e 4d6f bcbe
000001d0: 8d1f 24bf 331f 4a3e ddfe 9bbe bbac 29be
000001e0: 93fc 8d3f da8a 25c0 a261 833e e868 8fbe
000001f0: 56c6 2dbe d73e c0bf fb6f dfbd a7a8 913d
00000200: 9dc6 853e d75d c43f d346 c23e 1320 803f
00000210: 561f 33be c38f 8f3f 4dce a5bf 9648 1a3f
00000220: e9fd 583e aaea 7fbf cbd5 bb3f d07f 0cbf
00000230: 7b33 babc b03b a33f 6a62 2bbd 225c ad3e
00000240: 4652 713f 9228 523d 98c9 df3e 2cd7 74bf
00000250: a25a d4be ae72 6a3f 8553 bf3e b136 15bf
00000260: 49ab 193f d27e 51bd 037a 0f40 157c b23f
00000270: c1d4 ba3f 79fa 043e 0222 c83e 8730 94be
00000280: ded5 96bd 0622 0abe 136e 0a3e 76ae 943e
00000290: 4c00 8abf c430 45bf ee91 973f 4549 883f
000002a0: eb56 b6bf 182b 353f 2e8e 6fbe 26fa a83f
000002b0: ad88 b13f 5b27 863d b00c 9d3e f964 dd3e
000002c0: 73a7 9ebf 0b3a 1ebf d51e 23be d378 723f
000002d0: cb18 5ebe 3343 9dbf a2e0 4d3f 351c 243f
000002e0: 1894 a43e 817d 4b3f 6c75 ff3f 8856 5a3e
000002f0: 3c0f 703d 1499 b23f 80c6 96be c207 683e
00000300: 29be d73e 6d3c c5bf 9ff2 f53d 6e7e 98be
00000310: 2cc9 db3f 1032 7bbf c109 0b3f edf3 c13f
00000320: 1405 1ebe 8ba9 b9bf b2ff 37bf 117e 1a3f
00000330: c30c 653f 7d4a 453e 2507 033e 3f1f b63e
00000340: b861 50bf 07e5 d43f 611d a3be 1e68 0a40
00000350: e393 a23f e1fd c73e 46e9 aabf 13cb 9a3e
00000360: d017 c2be fb74 903e 9ac0 28bf dad9 0f3f
00000370: da50 a7bf 77ca 5340 25ec 0440 9899 05c0
00000380: 381e 64bf 4f3c 86bc 648e 15c0 c1cf ad3f
00000390: 8f37 87bf 7e85 b6be e3ad ce3e 5590 78bf
000003a0: 39e9 e0be 1615 24bf 0cea 41bf 3985 c03e
000003b0: 6b6e b3bf 85bd 6ebf dd1b c7be 16c5 c3bf
000003c0: 641c 8fbf b685 d13e c2d3 c4bf 8bce 713d
000003d0: 2768 b33e c0a7 b83f b8db 663f 152b afbf
000003e0: 86c3 743f 6019 88bf 34c8 83be 4f95 a4be
000003f0: 3d67 d43f 18e4 d5be e1ec fbbf 879c d03d
0.040873643 -0.07817149 -0.407584 -0.8725721 0.8481839 -0.38415337 0.12563664 -1.2791351
0.10273696 -0.022059627 -1.2457142 0.552259 -1.5771885 0.35898113 0.2531155 0.7101524
0.4575111 -1.1715308 1.9307171 -0.42496926 -0.25100213 0.18973027 -0.62360376 0.6657674
-1.0503908 0.042321023 -0.51660514 3.3055637 -0.8067857 -0.5406556 -1.1151623 1.0069869
1.7251738 2.261348 -1.047104 0.14095324 0.89451337 -1.2617041 -1.1256549 0.05256091
0.666664 0.13819948 1.0353876 0.113900006 -0.9320703 0.10062938 1.1669424 -0.091175295
-0.65282756 1.17872 -0.3949128 -1.1765937 -1.6830722 0.8606171 -1.9881366 0.022262953
0.016690604 1.0459331 -1.3356624 1.2841312 0.008490715 0.9533918 1.2555981 0.04330594
-0.10008826 0.21220009 0.8385262 -1.622548 2.159993 -1.059882 0.24006665 -1.3666184
-0.28775585 0.13831855 0.1902042 0.9551119 0.40809065 -0.18851048 0.2576796 0.17352442
-0.3615962 0.114408314 0.26554072 1.0760288 -0.289426 -1.1311628 -0.14513008 -0.42656505
0.6924989 1.5168753 -0.6880882 -0.8469984 -0.8092216 0.6082374 0.9175311 1.461419
-1.381885 0.2619693 1.810562 0.14102879 0.73517257 0.22717556 -0.86643636 2.1940265
-1.1143655 1.206401 0.23678747 -0.99124306 -0.46481326 0.23478779 -0.48294273 -0.028958635
0.72511137 1.5493613 0.26058015 -0.36803666 -0.6411064 0.19738464 -0.30467883 -0.16569798
1.1092705 -2.5865998 0.25660425 -0.28009725 -0.1697019 -1.5019177 -0.109100305 0.07112246
0.26128092 1.5341138 0.3794466 1.0009788 -0.17492422 1.1215748 -1.2953583 0.6026701
0.21190609 -0.99967444 1.467462 -0.54882526 -0.022729626 1.275259 -0.0418419 0.33859354
0.94266164 0.051308222 0.4370849 -0.95640826 -0.41475397 0.9158124 0.37368408 -0.5828658
0.60026985 -0.051146336 2.241822 1.3944117 1.4596177 0.12986173 0.39088446 -0.28943273
-0.07365011 -0.13489541 0.13518552 0.29039353 -1.0781341 -0.77027535 1.1841409 1.064736
-1.4245275 0.7076888 -0.23394081 1.3201339 1.3869835 0.06550475 0.30673742 0.432411
-1.2394851 -0.61807317 -0.1592973 0.94715613 -0.21689145 -1.2286133 0.8042089 0.6410554
0.32144237 0.7948838 1.9957709 0.21322072 0.05860828 1.3952966 -0.29448318 0.2265921
0.42137268 -1.5409065 0.12009167 -0.29783958 1.7170768 -0.98123264 0.5431176 1.5152565
-0.15431625 -1.4504865 -0.71874535 0.6034861 0.894726 0.19266696 0.12795694 0.35570714
-0.81399107 1.6632394 -0.31858352 2.1626048 1.2701381 0.39060882 -1.3352439 0.30233058
-0.37908792 0.2821425 -0.65918887 0.5619179 -1.3071549 3.3092325 2.076913 -2.0874996
-0.8910861 -0.01638618 -2.3368158 1.3579026 -1.056383 -0.3564872 0.4036704 -0.97095233
-0.43927935 -0.64094675 -0.7574775 0.3760164 -1.4018072 -0.93257934 -0.38888445 -1.5294521
-1.1180539 0.40922326 -1.5377123 0.059034865 0.350404 1.4426193 0.90179014 -1.3685023
0.95610845 -1.0632744 -0.2573868 -0.32145163 1.6594006 -0.41775584 -1.9681665 0.10186105

embedding_Pair_distances.weight f4 [7, 8]
00000000: c60e 013f 4b1d 54bf c991 6f3f 0233 3a40
00000010: fec2 2b3f 7d36 b13f 392c adbe a8d2 953e
00000020: 6642 0040 9ac2 0e40 983a 533f 9d5d cdbd
00000030: 363a be3f c343 79bf 368b cb3f 9001 2340
00000040: 9614 3bbf 5514 6abf c931 73bf 28ed 15bd
00000050: 79bc b5bf 80c5 02bf fcfa 053e acb4 c7bf
00000060: e06c dbbe 980c d13e 44f8 f2bf 72e5 63be
00000070: d154 05c0 154c f0bf aad6 76bf 80a7 00bf
00000080: 7e7a 853f fd98 973f f114 c4be 6474 ffbf
00000090: 440c a6bf 13aa 37be ef74 2fbf 333b 8dbf
000000a0: 7532 24bd b3bc d13e 81f0 08bf 8b4b 3d3e
000000b0: 8377 b5bf 9efd 3cbf 5dc0 d4bf 12ae 08bf
000000c0: 0000 0000 0000 0000 0000 0000 0000 0000
000000d0: 0000 0000 0000 0000 0000 0000 0000 0000
0.5041317 -0.828572 0.93581825 2.9093633 0.6709441 1.3844754 -0.33822802 0.2926228
2.0040526 2.2306275 0.8251128 -0.10027621 1.4861515 -0.9736902 1.5901859 2.5469704
-0.73078287 -0.91437274 -0.9499784 -0.036603123 -1.4198142 -0.5108261 0.13084024 -1.5602012
-0.42856503 0.4082992 -1.8982015 -0.22255495 -2.0833018 -1.8773218 -0.964213 -0.50255585
1.0428007 1.1843563 -0.38297227 -1.9957395 -1.2972493 -0.17935972 -0.685378 -1.1033691
-0.040087182 0.4096428 -0.5349198 0.18485849 -1.4177097 -0.7382449 -1.6621205 -0.5339061
0.0 0.0 0.0 0.0 0.0 0.0 0.0 0.0

embedding_Pair_prices.weight f4 [6, 5]
00000000: 53a5 4a3d 3d01 cf3e 0a16 b53e 689e 35be
00000010: ea58 973f 0163 653f 233e ae3d 0135 6d3f
00000020: 4542 363f 5880 5b3f e5e5 1ebe 21bb 1fbf
00000030: 3718 25bf 60f8 0b40 369f 43bf bab2 9abf
00000040: 80b1 00c0 1c44 f2be a3b8 193e f75f ff3f
00000050: d7a5 82bb 20e1 b6bf e5e6 88bd ae1c 783f
00000060: 1029 adbd 0000 0000 0000 0000 0000 0000
00000070: 0000 0000 0000 0000
0.04947407 0.40430632 0.35368377 -0.17736208 1.182401 0.8960419 0.085079454 0.92659
0.7119487 0.8574271 -0.15517385 -0.6239491 -0.64490074 2.1870346 -0.7641481 -1.2085793
-2.0108337 -0.47317588 0.1501184 1.9951161 -0.003987055 -1.4287453 -0.06684665 0.9691876
-0.08455098 0.0 0.0 0.0 0.0 0.0

Pair_shop_mlp.fc_layers.0.weight f4 [64, 32]
00000000: f2d3 3e3d e869 dabc aa7a 1f3e 3016 393e
00000010: fffc 4cbe c811 2d3d 3b23 573d 77a4 fdbd
00000020: 3a3e 913d 3679 0f3e bd91 1fbe 0242 8d3c
00000030: 2419 14be 883c 47be e616 983d ed42 753d
00000040: be17 d33d 6927 373c e1c2 73bc 25dc 883d
00000050: 4313 f03b 40dd b73d ebe6 323c 7fde 743e
00000060: cbb7 06be 5f15 ca3c fa9c ca3c f2b2 683d
00000070: 4a97 cf3d 98f2 4f3d 5cdb b7bd cd12 33be
00000080: d2a7 3abe 6a53 e83d 9485 a2bd 6e2b 063e
00000090: 7ea7 a73d 8981 443e 12a6 863e dd26 f4bd
000000a0: 5af6 18be 5d88 72bd fdf6 cfbd a103 373c
000000b0: 5e64 2bbd ba47 5abd 8a93 fc3c 1fe3 5d3e
000000c0: accd 5a3d 3730 21be 6b1c 0d3d fb87 463e
000000d0: 9d8e b53d 14a6 b6bd c95f ad3c 5615 fd3d
000000e0: 4d8a dfbd 7b45 a03d 58c7 acbc 490e 34be
000000f0: 4482 1b3e 3cdb a1bd f462 443e b3e1 653d
00000100: d32d 4f3d ade1 753d 1005 07bd 4411 84bd
00000110: e3f7 fa3d e3b4 e23d 9edc 813d 9f38 c63d
00000120: 1948 3c3e 2212 1ebe e1cb ebbd 758e 033e
00000130: 9023 b8bd 8d34 00be 6b62 09bd eed6 013e
00000140: 125b 44be c6b5 27be f902 eb3d 5c11 113e
00000150: dd27 08be 7841 be3d 763b c03c d8bc 36bd
00000160: f250 b4bd 2dc8 dc3d 4913 093e 704b 05be
00000170: 0b98 0c3e 8b13 cbbd 05e8 cb3d e971 7c3d
00000180: d9d8 71bd 5b94 c6bd 172f 35bc 137b ecbc
00000190: e64e 853d 4c57 003e f6f5 063e 8e4e 2e3d
000001a0: 9921 3fbd 43e7 123e f546 e8bd 9562 b33d
000001b0: f229 fa3d bec7 c13d 361b 24be 9863 0b3e
000001c0: da40 c0bd 7bdc c43d 5a84 37be dda8 11bd
000001d0: 146a f63d 3b29 91bd 130e b2bb 2586 163e
000001e0: c52e 2d3e 7730 9f3d 4080 293e 02fa 973d
000001f0: c632 37be 76a7 fcbc a83f 0dbe cee4 8ebd
00000200: 2ba1 193d e779 993d 3b6d 0e3d 100f 1e3e
00000210: 8081 a63c a8b6 30be e0b8 483d 8e40 ddbd
00000220: c35d 99bd 13c4 d7bd b97b 563d 5802 6bbd
00000230: 878e 67bc 703f 05be 959e 32bd 8f7c b13d
00000240: 3448 01be 93ba e8bd e1cf bfbc 5cc9 48bc
00000250: e9a8 093e af70 723d 5977 12be 21cb 653d
00000260: 0a5b 32be 5b34 e6bd d533 bdbd d832 b3bd
00000270: 47f7 d03c 1fb6 19be 7cea 823d 3198 08be
00000280: b75b 373d b468 d33d 4470 98bd 1aab 19bb
00000290: a3c9 283b ee6d 993d 5896 173e 778c 913d
000002a0: cbcb 31be d7b1 45be 653e 22bc b522 febd
000002b0: ea21 473d 30b8 58be 7f3d fcbd 5656 d13c
000002c0: 0e17 b23b 4673 313e e82c 10be 3b2b d03d
000002d0: 5603 c4bd 3d43 123e 7d65 0c3e 1f75 12be
000002e0: a3df 3a3e 19de 483e 5d57 ae3d 1927 95bd
000002f0: 8a18 b8bd d172 173e 08c2 a43c d271 25be
00000300: d2ac 523d a563 25be 288a d8bd b8e5 62bd
00000310: 8b3b bd3c 7d63 0cbe d001 5cbd f7ec f7bd
00000320: 655a 49bd 36af 30be 92b0 3dbc e668 e4bd
00000330: a898 f73d ff52 6c3d 805c a3bd 5336 e53d
00000340: 21b2 0cbd 34aa f13d 2971 98bd 11e5 ec3d
00000350: 306a da3c 41b7 29be 33d1 a4bd 8cc5 6bbd
00000360: 1ab0 433e 994c 903c 67c3 e33d 6f5b 31be
00000370: 212d 23be bc9c 64bd ef33 f43d 2ad2 47bd
00000380: 914f dbbc e2a6 0fbd c833 63bd 0da0 17bc
00000390: ac0e 123e 1498 8a3d 539e db3d 3e32 df3d
000003a0: f1b2 d6bd 365c 333d 2702 333d ee90 d5bc
000003b0: 7823 243e 4116 473e f315 293d 07fd f93d
000003c0: 1d6c 2abe bfd5 993b 3f56 53bd 5870 35be
000003d0: da79 c6bd 7335 173d cdae 2bbe 8b01 0dbe
000003e0: dea4 bb3d 1847 a93d 345b 3b3e 661c c83d
000003f0: d314 0dbd 95dc 603d c034 05bd 8fe8 933d
0.046588846 -0.026661828 0.15574136 0.1807487 -0.20018385 0.042253286 0.052523833 -0.12384885
0.07091947 0.14011082 -0.15582938 0.017243389 -0.14462715 -0.19456685 0.074262425 0.05987828
0.10307263 0.01117883 -0.014878006 0.06682614 0.007326515 0.08977747 0.010919313 0.23913
-0.13156049 0.024668394 0.024733055 0.05681128 0.10136278 0.050768465 -0.08977386 -0.1748764
-0.18228081 0.11344035 -0.07935634 0.13102505 0.081862435 0.19190039 0.26298577 -0.11921475
-0.14937726 -0.059212077 -0.10154531 0.011170299 -0.041843764 -0.05329106 0.03083207 0.21668671
0.0534188 -0.15741049 0.03445093 0.1938781 0.08865092 -0.08918396 0.021163838 0.12357585
-0.10915051 0.07825752 -0.021091148 -0.17583574 0.15186411 -0.07903144 0.19178373 0.056123447
0.05058081 0.060029674 -0.032963812 -0.06448606 0.12254312 0.11069658 0.063409075 0.09678768
0.18386878 -0.15436605 -0.11513496 0.12847312 -0.08991158 -0.12520047 -0.033541124 0.12679645
-0.19175366 -0.16377935 0.11475176 0.14166778 -0.13296457 0.09289831 0.023465853 -0.04461369
-0.088045016 0.10780368 0.13386263 -0.13017058 0.13729875 -0.09915837 0.099563636 0.06163207
-0.059044693 -0.09696265 -0.01105859 -0.02886728 0.06509189 0.12533301 0.13179764 0.042555384
-0.0466629 0.14346032 -0.11341659 0.087590374 0.12215032 0.09461926 -0.16026005 0.13612211
-0.093873695 0.09612366 -0.17921582 -0.03556143 0.120319515 -0.07087942 -0.0054338067 0.1469961
0.16912372 0.07772916 0.1655283 0.07420732 -0.17890462 -0.03084157 -0.13793814 -0.06977235
0.037507217 0.07493954 0.03477214 0.15435433 0.020325422 -0.17257178 0.049004436 -0.108033285
-0.07488587 -0.10535445 0.052364085 -0.057375282 -0.014133102 -0.1301248 -0.043608267 0.08666336
-0.126252 -0.11363711 -0.023414554 -0.012255039 0.1344334 0.059189495 -0.1430334 0.056101922
-0.17417541 -0.11240455 -0.09238402 -0.08749932 0.025508536 -0.1501088 0.063923806 -0.13339306
0.0447652 0.10322705 -0.07443288 -0.0023447932 0.002575495 0.074916705 0.14803445 0.0710687
-0.17362897 -0.19306122 -0.009902571 -0.124089636 0.048616327 -0.21164012 -0.12316417 0.025553863
0.0054348772 0.1732913 -0.1407963 0.101644956 -0.09570949 0.14283462 0.1371059 -0.1430249
0.18249373 0.19615974 0.08512757 -0.07282848 -0.089890555 0.14789893 0.020112053 -0.161567
0.051434346 -0.16151293 -0.10573226 -0.055394858 0.023099681 -0.13709827 -0.053712666 -0.12105744
-0.049158473 -0.17254338 -0.011577742 -0.1115282 0.12089664 0.05769634 -0.07976627 0.11192002
-0.034349564 0.11800042 -0.074434586 0.115671284 0.026661962 -0.16573812 -0.08047714 -0.057561442
0.19110146 0.01761465 0.111212544 -0.17320035 -0.15935184 -0.055813536 0.11923968 -0.048784412
-0.026771339 -0.03507126 -0.055469304 -0.009254468 0.1426341 0.06767288 0.10723557 0.10898255
-0.10483349 0.04378911 0.043703225 -0.026070084 0.16029155 0.19442083 0.041280698 0.12206464
-0.16642804 0.00469467 -0.051595923 -0.17718637 -0.0969121 0.036916208 -0.167659 -0.1377012
0.09162305 0.08265513 0.1829651 0.097710416 -0.034443688 0.054897863 -0.03252101 0.072220914

Pair_shop_mlp.fc_layers.0.bias f4 [64]
00000000: 2c03 353e 97bb e0bc 4bdb e1bd 6fe3 a6bd
00000010: dc89 c2bd cff7 95bc 9408 dc3d 9140 babd
00000020: 1f9f e7bd c6a2 b83d b6ab bd3d 7a46 253e
00000030: 93b3 cebd db45 ce3d 6f41 a93d e018 4ebd
00000040: 3044 dfbd f21a a9bd 0e5f acbd 97f2 a43d
00000050: 8917 3f3e 3125 113e 99e2 b9bd d8ae 62bd
00000060: 652a 61bd f6b9 adbd 0fa5 0abd 93e2 323d
00000070: e26b 29be 6f01 e73d 8ebc 373d 44ea dc3c
00000080: 24d8 403d 9d81 493d 7991 eebc 9bd1 80bd
00000090: cad1 f8bc e043 f23d 7b2a 9fbd 75bb db3d
000000a0: a9c6 60bc db58 3e3d d407 9d3d 67f2 263e
000000b0: 4e73 b53d 6596 13bd 0f5d 3f3e 04ca 5abd
000000c0: 6f1d afbd 4514 a9bd 14df 54bc 27ad 6a3d
000000d0: e0f9 053e 6fd8 a83d 21d8 f6bd aa65 96bd
000000e0: bb9b 0a3d 5f12 12be 6198 223d f3b4 333e
000000f0: 0baa e8bd 923b 563d 4446 1dbe f3ba 5bbd
0.17676991 -0.0274332 -0.11028155 -0.08148848 -0.09498951 -0.01830664 0.10743824 -0.09094346
-0.11309647 0.090154216 0.09261267 0.16140166 -0.10092845 0.100719176 0.082644336 -0.05031669
-0.109016776 -0.082570925 -0.08416568 0.08054083 0.18661322 0.14174344 -0.09076423 -0.055342525
-0.05497207 -0.08482735 -0.03384882 0.04367311 -0.1654506 0.1127957 0.044857554 0.026967175
0.047081128 0.049195874 -0.029122101 -0.06289979 -0.030373473 0.118293524 -0.077717744 0.10729114
-0.013719239 0.046471458 0.07667509 0.16303407 0.08859883 -0.0360321 0.18687843 -0.053415313
-0.08550536 -0.08255819 -0.012992639 0.057294037 0.13083601 0.082444064 -0.12052942 -0.0734361
0.033839922 -0.1426482 0.0396961 0.17549495 -0.11360558 0.052302904 -0.15358835 -0.053645086

Pair_shop_mlp.fc_layers.1.weight f4 [16, 64]
00000000: 65d0 53be 1450 16bd 3d14 633b 49ef a13d
00000010: 6c52 4f3d 84c0 b2bc 30d8 d73d 3251 b2bd
00000020: 612a 0ebd 3cab 0e3a 8434 2e3b 4648 eb3d
00000030: 6473 b5bd c21d abbd e7fd 0fbe 3469 113e
00000040: bf4e c83d 0a36 103e f8a3 ddbb b00c afbc
00000050: 25b6 1d3e a9ef f1bc 6143 943d 7edb 2c3d
00000060: b8c9 ec3b 653e a53d 1708 03be 2c30 2b3e
00000070: 472f 043e 44ab b93d d14b a0bd c377 96bd
00000080: dc81 153e fecf dbbd 5b2d e03d 5cc9 f53b
00000090: 3afd e53d 9d9e 4d3e ece6 9a3d c6e2 c83c
000000a0: 1a51 3c3d 2083 903d 2c56 363d b722 82bd
000000b0: 7057 0cbe 2213 02bd 6dcc cb3c 5034 cc3d
000000c0: 93be 8fbb 434a 273d c3f5 263e fbee 853d
000000d0: e176 a53d df6b 963d df57 f6bd 2620 70bd
000000e0: d2a5 e13d ec81 d4bd cb43 443e 1470 443c
000000f0: 4461 3d3d a916 0dbc 5036 973d ccc4 6e3c
00000100: 3f2d 483e 3ae3 84bc 3c3c 373c 98d1 e83d
00000110: 2c3a 38bd 3e7d bf3d 571d da3d 6c1d a9bd
00000120: b6de ad3d 839e 063d 7681 a63d 1c03 cc3d
00000130: 28b0 a53d 7af7 aa3d 6b47 59bd 211f f73d
00000140: 2957 793c 2edc 94bd ae00 e13d 2890 40bd
00000150: 6358 b3bc 8179 a7bd 0895 b83d 7d0e b8bd
00000160: 51c5 333d 8505 c73c 7e21 8abd 92b3 9cbb
00000170: 180e 10bd 38ee e03d d83d cfbb aad7 bf3d
00000180: fa13 22bd 9aab 56bd 124b e2bd 94d4 893d
00000190: a2b7 063d a944 80bd de49 5cbd 1d90 8f3d
000001a0: 92e6 6bbd 3c76 d63c 0755 043e 19d7 143e
000001b0: 352f 0ebd b056 643c 5acc 023e dbef 77bc
000001c0: 61c2 f9bd 1813 3abc 1391 353b b13e 4dbc
000001d0: 5468 32bc 916c 15bc fa33 573d 33d9 86bd
000001e0: c41d 3dbc 197a f73d 4b56 ddbd 17a0 073e
000001f0: 9b47 c73d eb09 dfbd 7e62 59bd d3dc aa3d
00000200: 3cca 2d3e e2b5 7e3d 136f a23d e6f4 003a
00000210: 6424 e6bd 83ff 5e3d fb10 17bc 611e 8bbd
00000220: 8658 293d 972d c13d 9a2a c23b e487 25bd
00000230: 55af 1bbd 37e9 073d 122c 513b 4633 8abd
00000240: 80ae aabc 5cb8 b73c 8277 b63d e2ec 0e3e
00000250: 251f 453d d35f 373b 667f c4bc 3790 993d
00000260: 23b1 57bc dffb 94bd dbed 423e f8a6 54bd
00000270: 41da b0bb 362f 203e 310d 2f3e 4157 d2bd
00000280: a7b4 c13d 71d8 813c 7c35 94bd b464 09bd
00000290: 4940 8abc 87b5 c6bd f95b 123e 088c c53d
000002a0: e67d b13d b1f4 ccbc 9727 7d3c 2ab2 47bc
000002b0: ee63 0e3e 5184 453c 51f5 1d3d 55a0 c9bd
000002c0: 8e02 ecbd 8fad ad3d 50b8 22be e446 19bd
000002d0: e463 ebbd b802 fa3d cdb1 293d 1943 cc3d
000002e0: 243d a33c 3fb4 79bd 651c 913d 2350 e0bb
000002f0: 1809 6f3d 4578 bd3d 4807 9ebd efa5 a33d
00000300: 275c f03d bf30 8e3d 8642 803c a44b c3bd
00000310: 78a6 3d3d ba53 7abc 0b97 f23d eeac 073e
00000320: 7495 073e 0b96 3d3e 87de 123e cbb8 453c
00000330: 6450 2f3d 1f2c 7cbd b00d cdbb a6e3 bbbd
00000340: 5206 843d 9663 46bd bc3d e13c b848 143d
00000350: 3e7d 4bbd 1418 f03d 3178 073e 8a6e de3d
00000360: b8bb 273e e5f3 3fbe 3b0e 343e 2c60 983d
00000370: 82d1 7d3d 24dd ed3d 712d 133e 74a5 183e
00000380: c9f5 a43d 042e 223d 86fa 173d 09f6 37bd
00000390: c312 d0bd 4ce5 d2bd 8cf6 9ebd 9cd7 5c3b
000003a0: 96c1 bcba e282 8e3d bab2 973d 8c82 273b
000003b0: 1028 5e3d 453e c0bc 73be 02bd 9fe1 593d
000003c0: 80f1 38be 01c6 eebd 0459 37be 6cfd 8c3d
000003d0: 31ba c8bd 0b19 78bd edbf a9bd 2b3a 743d
000003e0: 011c d03d 9a34 59bd b0da bc3d 69d3 103e
000003f0: e8e9 49bd 8824 5d3d 9ffe dd3c e849 0d3e
-0.20684965 -0.036697462 0.0034649514 0.07906968 0.050615713 -0.021820314 0.10539281 -0.08706893
-0.034708384 0.0005442386 0.0026581595 0.114883944 -0.088599 -0.08355285 -0.140617 0.14200288
0.097806446 0.14083114 -0.0067639314 -0.021368355 0.15401514 -0.029533224 0.07239414 0.04220151
0.007226195 0.080685414 -0.12796055 0.16717595 0.1290866 0.090658695 -0.07826961 -0.073470615
0.14600319 -0.10733031 0.10946151 0.0075008105 0.1122994 0.20080037 0.07563576 0.024522197
0.045975782 0.0705626 0.044515774 -0.063542776 -0.1370523 -0.031756528 0.024877751 0.09970915
-0.004386732 0.040842306 0.16304688 0.065397225 0.08079315 0.073447935 -0.12028479 -0.05862441
0.11017956 -0.10376343 0.19166486 0.011989612 0.046235338 -0.00861136 0.07383406 0.014573287
0.1954851 -0.016221631 0.011183795 0.11368102 -0.044977352 0.0935006 0.106501274 -0.08257565
0.08489744 0.032866012 0.081301615 0.099615306 0.0809024 0.08347984 -0.053046625 0.12066484
0.0152185345 -0.072685584 0.10986458 -0.047012478 -0.021892732 -0.08177472 0.090128005 -0.089871384
0.043889347 0.024294624 -0.067446694 -0.0047821486 -0.03516969 0.109829366 -0.006324511 0.093673065
-0.039569832 -0.052409746 -0.11049475 0.06729999 0.03288997 -0.06263096 -0.053781383 0.07009909
-0.057592936 0.026179425 0.1292306 0.14535178 -0.03471299 0.013936684 0.12773266 -0.01513287
-0.12195278 -0.011357091 0.002770488 -0.012527154 -0.010889132 -0.0091201225 0.052539803 -0.06584396
-0.011542741 0.12083835 -0.10807475 0.13244663 0.097304545 -0.108905636 -0.053072445 0.083429
0.16971678 0.062185176 0.07931342 0.0004919305 -0.1123741 0.054442894 -0.009220357 -0.06792904
0.04134419 0.09432524 0.0059254887 -0.0404128 -0.038009007 0.033181395 0.0031917137 -0.06748061
-0.020835161 0.022426777 0.08909513 0.13957551 0.048125405 0.00279807 -0.02398653 0.0749821
-0.013164791 -0.07274603 0.19036047 -0.051917046 -0.0053971116 0.1564301 0.17094876 -0.102705486
0.09458285 0.015850278 -0.07236764 -0.033543304 -0.016876357 -0.09702592 0.14292897 0.096458495
0.08666591 -0.025019022 0.0154513335 -0.012188474 0.13905308 0.0120554725 0.03856403 -0.09845034
-0.11523925 0.08480369 -0.15890622 -0.037421122 -0.11493662 0.1220755 0.04142933 0.09973735
0.019926615 -0.06096291 0.07085494 -0.0068454905 0.05835828 0.09251455 -0.077162325 0.07990634
0.11736327 0.06942891 0.01565672 -0.09535912 0.046301335 -0.015278751 0.118452154 0.13249561
0.13240606 0.18514268 0.143427 0.012067984 0.042801276 -0.061565515 -0.006257735 -0.0917428
0.06446518 -0.048434816 0.027495258 0.036202163 -0.049679987 0.117233425 0.13229443 0.108609274
0.16380203 -0.18745382 0.17583553 0.07440218 0.06196738 0.11614445 0.14372803 0.14906865
0.08054692 0.039594665 0.037104152 -0.04491237 -0.101598285 -0.10297641 -0.07761869 0.003369785
-0.0014400955 0.06958558 0.07407136 0.002555999 0.054237425 -0.023467192 -0.031919908 0.053193685
-0.18060875 -0.1165886 -0.1790505 0.06884274 -0.09801138 -0.060570758 -0.0828856 0.059625786
0.10161591 -0.05302868 0.09221399 0.14143147 -0.049295336 0.053989917 0.027098952 0.13797724

Pair_shop_mlp.fc_layers.1.bias f4 [16]
00000000: 5b0b 75b9 2aae 973b f490 073e 8b30 203d
00000010: 7757 a5bd 2afc 213c 4027 863c 1c9b adbd
00000020: bf05 4d3d a270 a5bd 1c73 4ebd ba9e 8f3d
00000030: 4105 d13d a0e5 703c a29d b2bd f585 0f3e
-0.00023369251 0.0046289163 0.13238889 0.039108794 -0.08073323 0.009886781 0.016376138 -0.084768504
0.050054308 -0.08078124 -0.050402746 0.070126966 0.1020608 0.014703184 -0.08721472 0.14015944

Pair_score_mlp.fc_layers.0.weight f4 [64, 32]
00000000: 483f 09be 2f17 d4bd 436f 1b3e cb90 33bd
00000010: bf03 99bd d8f5 c1bd 2e1b 4d3e 416f 5a3c
00000020: 3d33 d3bb 7feb c6bd 8a03 58bd c4a0 d4bd
00000030: c9b9 07be 5a0f 0cbe 7433 8f3d 075a 163c
00000040: c038 41be 87cf d1bd 7a21 863e 320f 84bd
00000050: 2b83 e73d 8df6 44be 60ec 733d cd6c fe3d
00000060: 19c9 1bbe 947a a1bd da45 2b3e ac03 cebd
00000070: 944c a13d b2a8 86bd aad9 7ebe a223 93be
00000080: 545a 3ebe aec3 8fbd 8122 443e 5859 3e3e
00000090: 62e1 afbd 39dd 333e 397a 2e3e a99b efbd
000000a0: 097f fa3d eb00 9cbc b96a 97bd a903 123d
000000b0: f38c 933d 9212 4abd eb18 cdbd ed8c 97bc
000000c0: c91b 93bd f4c2 ddbd 744e 5b3d d6be 183e
000000d0: 7bc2 8a3c 6567 00be c1ea 803d eb1c debd
000000e0: 68d5 34be c13e 3b3e 5408 873c 7769 10be
000000f0: ebea 2cbd 54ec dbbc 042e 2f3e b3fc 813d
00000100: fb51 f1bd bba7 c0ba 2d9d 5dbd af1b d1bd
00000110: 3ce5 203d 3e77 44bc ec9b c33d 982f 06bd
00000120: 20b0 053e ee20 09be 6587 f13c 1447 313e
00000130: e008 dc3c 063a 31bd c050 b63d 20a9 ba3a
00000140: 1023 8abe 41f3 043d 4ffc 273d 33c0 6e3e
00000150: 9db5 543e f99b 903d e23c 6c3e 7c33 9e3d
00000160: 6333 233e 452f 93bd 789b 3abd c4b9 a1bc
00000170: d4bc 12be 9972 efbd c802 bbbd 1f9e ea3d
00000180: d89b 24be e22e 023e be02 5d3e 9977 2b3d
00000190: c68e 313e 226b 10be f562 f5bd 5b6e 703d
000001a0: 339c 1d3e 724c d53d 1ae0 eebd 02fb 383e
000001b0: 0fc1 aebd e2f9 883d 39a5 b9bd 5f31 383e
000001c0: 4485 c83c d383 d9bd 8f7e ea3d 72ab 983d
000001d0: 1b4a 123d c46e 8a3d 541e 103e a7ae 52bd
000001e0: 0fca 103e 838c 53be a924 483d 571c 8fbd
000001f0: 3742 303d 5333 1e3d 2cbd 3a3e 5bb0 383d
00000200: 8952 45be 99d2 40bc 5690 053d 35fe e2bd
00000210: c422 0b3e 4386 13bd d022 f0bd 3b2c 7abe
00000220: 195e 143e 6183 85bd 310c 45be c00c 37be
00000230: 0e78 25bd c907 8f3c f3b6 01be 0545 1cbe
00000240: f8b8 1f3e 56f9 273e 82e5 d2bd 2d32 0cbe
00000250: a63c a8bd 7587 b83d ad55 9d3c 1bdc 37bc
00000260: 6461 57be 3fdb 863d 8ace 3abd c1c8 623e
00000270: ab37 18bd d050 03be f7d2 483d 5b49 10be
00000280: ec0b ebbd 1d84 203d eca0 0b3e a7e7 983d
00000290: 0305 c93d c24c 0d3e 39ef c7bd cd1c dbbd
000002a0: 2495 c1bd 337c e63c 58b2 343e 6535 843d
000002b0: 8f47 d53b 5f02 ba3d 95ff 21be b975 81bd
000002c0: b9b6 333e 7721 293e f98b ae3d fb9d 14bc
000002d0: 9b1b 013e f7e9 07be 2a20 f33c 2307 be3d
000002e0: 6f50 9f3d c788 913d 0026 5a3e 8055 41be
000002f0: 3c2f 263e ea4b 10be 1e08 243e d434 77bd
00000300: a6f5 fdbd e40e 553e 41a8 75bd cc70 88bd
00000310: 0744 17be 54ca afbd bf87 ee3c 9c31 043e
00000320: f63f 973b 2b2d cc3d 46a9 abbd e346 163e
00000330: 2244 3abd c4d8 d3bd a417 0b3e 29d9 ba3c
00000340: 0b74 103b fabe 0d3e 8dbe bfbd f954 e6bb
00000350: b637 33bd e00a 9b3d 9619 383e 603c 303e
00000360: e8b3 943d c578 3dbd 116b 6e3d d42f 553e
00000370: c697 ebbd d756 f33d acae 193e c8f7 11be
00000380: bab3 743c 8faf 91bd 3247 4d3e b54a 093e
00000390: ed36 0c3d 5bde a13c cb68 b6bd 8a7b b8bd
000003a0: 150d 3c3e 7c92 6d3e 84d2 47be 2bd0 fdbd
000003b0: 5193 833d b522 50bd e1f7 d5bd bdea fd3d
000003c0: 4882 54be b453 02be 7dca 0d3d aa70 acbc
000003d0: 390a 97bd 01d9 7a3e 2306 623d 9eca 6f3a
000003e0: 29c3 583b e93d eabd 91fc bbbd 1dde 03be
000003f0: d23e dbbd 47ac 91bd 43fb 313e 576e 8d3d
-0.13403046 -0.103559844 0.15179162 -0.043839257 -0.07471418 -0.09470719 0.200299 0.013332189
-0.006445317 -0.09712886 -0.05273775 -0.10382226 -0.13254465 -0.13677731 0.06992236 0.009176738
-0.18869305 -0.10244661 0.26197416 -0.06448211 0.11304315 -0.19234677 0.059551597 0.12423096
-0.15213431 -0.07884708 0.16725865 -0.10059294 0.07875934 -0.06575145 -0.2488772 -0.28738123
-0.18589145 -0.07019745 0.19153787 0.1858877 -0.0858791 0.17564858 0.17038812 -0.11699612
0.12231261 -0.019043406 -0.073934026 0.03564802 0.07204618 -0.049334116 -0.10014518 -0.018499816
-0.07183034 -0.108282 0.053541616 0.14916548 0.016938439 -0.12539442 0.06294776 -0.108453594
-0.17659533 0.18285657 0.016483463 -0.14102732 -0.042216223 -0.026846088 0.17107397 0.06347027
-0.11783215 -0.0014698425 -0.054104973 -0.10210358 0.039281115 -0.01199132 0.09551224 -0.032760233
0.13055468 -0.13391468 0.029483506 0.1731227 0.0268597 -0.043268226 0.089021206 0.0014241077
-0.26979876 0.032458548 0.041012105 0.23315506 0.20772405 0.070609994 0.230701 0.077246636
0.15937571 -0.0718675 -0.045558423 -0.0197419 -0.14329845 -0.1169178 -0.0913139 0.114559405
-0.16075075 0.12713197 0.21583077 0.041862104 0.1733962 -0.14103368 -0.11981765 0.058698993
0.15391617 0.104149714 -0.11663838 0.18064502 -0.08532917 0.06688286 -0.09064717 0.17987584
0.024477609 -0.106208466 0.114499204 0.074545756 0.035715204 0.06759408 0.1407407 -0.051436093
0.14139579 -0.2065907 0.048863087 -0.06987827 0.043031897 0.038623165 0.18236226 0.04509006
-0.19269766 -0.01176896 0.032608353 -0.110836424 0.13587481 -0.036016714 -0.1172539 -0.24430935
0.1448902 -0.06519199 -0.19242932 -0.17875957 -0.040397696 0.017459767 -0.12667446 -0.15260704
0.15597904 0.16403708 -0.102976814 -0.13691016 -0.08214693 0.090102114 0.019205892 -0.011221911
-0.21033245 0.065847866 -0.045607127 0.22146894 -0.037162464 -0.12823796 0.049029317 -0.14090483
-0.11476883 0.039188493 0.13635606 0.07466059 0.09815409 0.13798812 -0.09762425 -0.10698853
-0.094522744 0.028135395 0.17646158 0.06455497 0.0065087746 0.090824835 -0.15820153 -0.06321282
0.17550172 0.16516672 0.085227914 -0.009070869 0.12608187 -0.13272844 0.029678423 0.09278705
0.07779013 0.07106166 0.21303558 -0.18880272 0.16228956 -0.14091459 0.16018721 -0.060353115
-0.12400369 0.20806462 -0.059974913 -0.06662139 -0.14772044 -0.08583513 0.029117463 0.1290955
0.004615779 0.099695526 -0.08381896 0.14675479 -0.045475133 -0.10344079 0.13583237 0.022808628
0.0022041823 0.13842383 -0.093625166 -0.0070291725 -0.043754302 0.075704336 0.1797851 0.17210531
0.07260877 -0.046257753 0.058207575 0.20819026 -0.11503558 0.11881798 0.15008038 -0.14254677
0.014935428 -0.07113563 0.2004669 0.13407405 0.03423207 0.019759348 -0.089067064 -0.09007938
0.18364365 0.2320041 -0.19513899 -0.123932205 0.06424583 -0.05081435 -0.1044767 0.123982884
-0.20752823 -0.12727243 0.034616936 -0.021049816 -0.07374997 0.24496843 0.055181634 0.0009147319
0.003307531 -0.1143759 -0.091790326 -0.12877698 -0.107053414 -0.071129374 0.17381005 0.06905811

Pair_score_mlp.fc_layers.0.bias f4 [64]
00000000: ac54 753d 1bdd 4fbd 63f8 0abe 809f cdbd
00000010: 396b 353e f755 273e 84bb d6bd a67e c8bd
00000020: 858f 8cbd 758a a4bd 50de 1f3e 9ffc 963c
00000030: c602 3e3d e463 ce3d a07d 82bd 95f7 2e3d
00000040: a83c 3d3e ed11 99bd b732 d33d 82fe 9a3d
00000050: c2fb 9abd 8c46 ddbc 0fb5 933d 3213 5cbd
00000060: fd62 da3d 1cee 31bd 9a3a 91bb 7e68 dc3d
00000070: d6c0 233e 476e 10bd 9b85 a3bd f048 1c3e
00000080: b517 af3d 67f7 19be ed60 7a3c 2142 693e
00000090: bc22 2a3e 21b2 113e 3927 a0bd 8ab4 30bd
000000a0: 17b4 e7bd 93d2 c73d a139 15be 526b fabd
000000b0: 1a5a c939 b435 033e 1efc 14bd 2e9d c1bd
000000c0: 245e 83bd 604d 90bd 249d 0b3d 2d8c 95bd
000000d0: 553e 2dbd 72ad f5bd aabb 82bd 1621 0f3e
000000e0: 8a4e d0bc b293 e03d e446 fb3d 13fd fd3d
000000f0: 0341 9a3d 1e76 2b3e 4157 b53d cb37 87bd
0.059895203 -0.050747972 -0.13571315 -0.10040188 0.17716683 0.16341387 -0.104849845 -0.09789781
-0.06863312 -0.08034221 0.15612149 0.018431006 0.046389364 0.100776464 -0.06371617 0.04271658
0.1848017 -0.07474122 0.103124075 0.07568075 -0.0756755 -0.027011178 0.072122686 -0.053729244
0.10663412 -0.04343997 -0.0044320347 0.10762118 0.1599153 -0.03526142 -0.079844676 0.15262198
0.08549444 -0.15035783 0.015281898 0.22779132 0.16614813 0.14228107 -0.07819981 -0.043140925
-0.11313646 0.09756961 -0.14572765 -0.12227501 0.00038404838 0.12813455 -0.03637325 -0.09453808
-0.0641444 -0.07046008 0.034085408 -0.07302127 -0.042295773 -0.11995973 -0.0638345 0.13977465
-0.025428075 0.10965671 0.12269381 0.12401786 0.07531931 0.16744277 0.08854533 -0.066024385

Pair_score_mlp.fc_layers.1.weight f4 [8, 64]
00000000: ab5e db3d c746 013e f15e 013e 2aa5 8a3d
00000010: 42d1 3a3e 6996 1e3e 7f1d 4a3d 6a0b f43d
00000020: 67a6 083e b073 0d3e eed0 d9bd 90ef 153d
00000030: dc6c 013d 711d 07be ee4f babc a477 96ba
00000040: 2501 ec3d a239 983c 5b8c 2abd ad3e 813d
00000050: dc91 113e ecf4 b0bc 463e bf3d a392 bf3c
00000060: 9c1a cc3d 5e3a 183e 49a3 223e bba9 e03c
00000070: 2da1 25bd d63a c1bc 31ec f73d 42b6 d73b
00000080: 7793 0f3d dcb6 e73d 7a26 f03d 65f0 e03b
00000090: 5512 2e3e f17d 263d b922 b33d 85ca bf3d
000000a0: 6b31 95bc a262 2d3d 23e7 c6bc e9ca a23d
000000b0: c8a0 32be ffa5 cf3d e7c2 123e 5488 de3d
000000c0: a162 d3bd a6b1 b73d 6931 c3bd 1c4b c43d
000000d0: d008 6d3e 3832 d33c bb22 813d 25eb b0bd
000000e0: f698 373d d2d2 a0bd f212 7fbd c7c0 d13d
000000f0: 75d6 a9ba 6123 b23d fbfd 61bd 210e 2d3e
00000100: ad9e d8bd 0691 e33d 5178 dfbd a8f1 08be
00000110: 4bc6 d5bd c031 6ebd b0f1 bbbb 8af4 94bd
00000120: bbb7 89bd bfac f33b 8fe9 2cbe 9c43 093c
00000130: d24f 2cbe d760 253e c50f 2bbe e763 26be
00000140: 9275 24bb e20f 263d 5d6c 4cbd 95a2 a13c
00000150: 6574 08be ace4 e0bd edf4 13bd 716d 863d
00000160: 9f45 74bd cc02 c8bd 102d ef3d d89d e4bc
00000170: d7fe bbbd 4301 6e3d be23 e33d 8562 5ebb
00000180: 91b3 75bd 2f8e ffbd 1faa 573d 33f1 db3d
00000190: 058f b7bd 0b29 9c3d 317f fc3c c8c7 6b3d
000001a0: 9b30 d1bd 15c0 0ebd 51de 8ebd 00bf e5bd
000001b0: 74f5 403e 5577 043e 9aa6 9bbd 3a3f 95bd
000001c0: bcfa 523d 03ad f9bd 6f02 e93d 5798 d6bd
000001d0: 2249 2f3c 479a 0dbe 7a1e 01be ef49 523e
000001e0: 1f80 e73c b4f9 d5bd 5c8b 11bd 30cd 94bd
000001f0: cfad 213e 6b16 a93d f889 4e3d b42f 453d
00000200: 8018 bd3d 2db1 df3d 38ca 633e d008 283e
00000210: d8a8 9e3c 80dc a33d 483d 3a3e b57e a63c
00000220: f39d 333e 373f fe3c 7f64 bf3d e5ff 14bc
00000230: 8945 9cbc cc64 45be 2de7 883d 9dfe 983d
00000240: bcc0 7b3e 92ed 1e3e 7485 023e 264c 2d3d
00000250: a83d ed3d 6d73 29bd 06ec ec3d 7872 843d
00000260: 157c 4f3d e634 513d 8053 ef3d 92c5 513e
00000270: f9a5 d9bb a1c1 173e d298 923d 17ac 553e
00000280: daac dd3d b5d9 db3c 9165 df3d 702a e8bc
00000290: 2ef0 273e 7a48 293c 2dca a9bd 691b 173e
000002a0: 7887 23bd 6172 d33d b3a6 e73d a680 233e
000002b0: 2317 52bd 0d9c 083e 3073 c53d 38db 20bc
000002c0: 2ac4 183e c703 f7bc ca25 263e 603a 3fbc
000002d0: 84eb 783d 6816 b9bd 214f 953d a9e7 bfbc
000002e0: d9bb 29bd 6b15 eb3c 2dad c43d fba0 623e
000002f0: 9aaa cc3d 34d3 613c a359 d03d 8dda 863e
00000300: 7501 5bbd 3053 a53d 3e5c 503d afa0 453c
00000310: 7894 253c 9c24 c3bd 64c7 823c f068 ad3c
00000320: 249d 16be 4987 21bc 59fd 843d a694 653c
00000330: cc57 c6bc bd97 cc3d 8c9e c3bd cbd3 0ebe
00000340: 1050 9cbd 5e25 bebd 9885 b93b 2d4a 55bd
00000350: 8519 9cbd 3cd7 1ebb e325 6c3d d109 a43d
00000360: 58c7 f73d 592d d03b fdc3 63bd 24fd ef3d
00000370: a791 4dbd 5d20 9a3d c412 953d 53e2 c0bd
00000380: d60a 26bd c767 dbbd 7ca5 79bc 5f5a 9ebc
00000390: 5bc9 033e 6e92 1cbe 73be d1bc 8e10 053b
000003a0: b67d 2dbc bac7 a63d 35e7 90bd 6c10 bf3c
000003b0: 8852 43bd 2d46 e2bd 3441 f6bd 630e 8ebd
000003c0: d8ce cc3d 4110 0fbe 3d93 d6bb 4b3d cfbd
000003d0: 573d 353d 4ef6 9abd 7fd8 dc3b 3539 1b3e
000003e0: be45 c1bd 589d 0a3d 0962 da3d 00ad b43d
000003f0: 10fc 4bbd 61ee f3bd 9a3c 223d 772d 153b
0.10711416 0.12624656 0.12633874 0.06769784 0.18243888 0.15487064 0.049344536 0.119162396
0.13344727 0.13813663 -0.10635553 0.036605418 0.031597957 -0.13194825 -0.022743192 -0.0011479747
0.11523656 0.018582169 -0.04163776 0.063107826 0.14215797 -0.021601163 0.093380496 0.023385352
0.09966013 0.14866015 0.15882601 0.027424684 -0.040436912 -0.023587625 0.12105597 0.006583006
0.035052743 0.113141745 0.11726089 0.0068645948 0.1699918 0.04064745 0.08746857 0.093647994
-0.01821204 0.04233039 -0.024280136 0.07948858 -0.17444146 0.10139083 0.14332162 0.10865846
-0.10321546 0.089694306 -0.095309086 0.095846385 0.23147893 0.025780782 0.063054524 -0.086386
0.04482361 -0.07852711 -0.062273927 0.102418475 -0.001295759 0.08698154 -0.055173855 0.16899921
-0.1057714 0.111116454 -0.109116204 -0.13373435 -0.10438212 -0.058152914 -0.0057355985 -0.072732046
-0.06724497 0.0074363644 -0.1688597 0.008377936 -0.16827324 0.16150223 -0.16705234 -0.16249047
-0.0025094491 0.04054249 -0.04990803 0.019730845 -0.13325651 -0.10981116 -0.03612225 0.06563843
-0.05963671 -0.097661585 0.11678517 -0.027907297 -0.09179466 0.058106672 0.11090802 -0.0033933234
-0.0599857 -0.12478291 0.052652474 0.107393645 -0.08962826 0.07625016 0.030822368 0.057563573
-0.10214349 -0.034851152 -0.06975997 -0.11218071 0.18843633 0.12936147 -0.07600136 -0.0728745
0.05150865 -0.121912025 0.11377417 -0.10478275 0.010698589 -0.13828383 -0.12609282 0.20536016
0.028259335 -0.10448018 -0.035533294 -0.07265699 0.15788959 0.08256229 0.050424546 0.048141196
0.09233189 0.109224655 0.22245109 0.16409612 0.01936762 0.080010414 0.1818744 0.02032409
0.17540722 0.031036003 0.0934534 -0.009094213 -0.019076126 -0.19276732 0.06684718 0.07470439
0.24585241 0.15520313 0.12746221 0.04230895 0.115840256 -0.041369844 0.115684554 0.06467146
0.050655443 0.05107584 0.11685848 0.20485523 -0.0066421 0.14819957 0.071580544 0.20866428
0.108239844 0.02683721 0.10908044 -0.028340548 0.16400215 0.010332221 -0.08290515 0.1475655
-0.039924115 0.103245504 0.11311092 0.15967044 -0.051291596 0.13340779 0.09641111 -0.009817891
0.1491858 -0.030153168 0.16225353 -0.0116716325 0.06077148 -0.09037477 0.07290483 -0.023425894
-0.04143891 0.028696736 0.09603343 0.22131722 0.09993477 0.013783265 0.10173347 0.26338616
-0.053468186 0.080725074 0.05086922 0.012062236 0.0101061985 -0.09528467 0.015964217 0.021168202
-0.14708382 -0.009858915 0.06493635 0.014012491 -0.024211787 0.09989879 -0.09551725 -0.1394798
-0.07632458 -0.09284471 0.0056616776 -0.052072693 -0.07622055 -0.0024237176 0.05765332 0.08009685
0.12098569 0.006353062 -0.05560683 0.117182046 -0.050187733 0.07525704 0.0727897 -0.09418168
-0.040537678 -0.10713153 -0.015237208 -0.019330202 0.1286978 -0.15290233 -0.025603509 0.0020304057
-0.010589054 0.081435636 -0.07075349 0.02332326 -0.04768613 -0.11048541 -0.12024155 -0.06936338
0.1000039 -0.13971044 -0.006548314 -0.101191126 0.04424795 -0.0756651 0.0067396755 0.15158542
-0.094371304 0.03384146 0.1066323 0.0882206 -0.049800932 -0.119107015 0.039608575 0.0022762695

Pair_score_mlp.fc_layers.1.bias f4 [8]
00000000: a928 a93b 7289 c63d 72af abbd bd7b 5f3d
00000010: 5f14 113e a7fc f83d ff3d 76bd 5fd4 71bd
0.005162318 0.09694184 -0.08383073 0.054561365 0.14167927 0.121575646 -0.060117718 -0.059040423

CNN_embedding_types.weight f4 [106, 16]
00000000: 5331 143e f592 46bf f1cf fcbe b2de 733f
00000010: 399b d0be 028c 5abc eb74 e23f 05a0 39c0
00000020: 1551 fc3d 6ca1 5dbf e7f5 08bf 9cda 893f
00000030: ef8e f83e ba84 ca3e 1c5e 3c3f 0411 44bf
00000040: 461c 08bd 6794 f6bf 6a36 2a3f 970b 3bbf
00000050: 4669 ea3e 4419 27bf 182d d43e 60a8 81be
00000060: ea84 1ebd 1c8b 67bf 2f79 adbf ddb3 f23e
00000070: ead8 823f 9983 da3e dc08 b9be 0c0d 02be
00000080: 64bd 0ebf 458d d53f 49d9 1f3f 1e70 bdbe
00000090: 9556 9ebc 5b48 8b3f 574e e13e a390 84bf
000000a0: 2613 0740 2977 c6bf 23e7 88bf c10f 163f
000000b0: c48f 8bbd bda1 e13d 8813 02bf 4a34 a23f
000000c0: 953a 9bbe 5d25 1bbf 7e64 9fbe bca0 8f3d
000000d0: 52fe e7be f4d9 0540 6fa9 9cbd a361 9f3f
000000e0: e58e aebf 9fee 44bf da21 aa3e ae21 923f
000000f0: d6b5 c33d ec68 08c0 e159 0c3f 83a2 6f3f
00000100: a43f f43f 9027 763f 199f 0d3f 0497 713f
00000110: 0bd5 ae3e f5fe 13bd 4dbb bf3f 62f2 46bf
00000120: 84d1 483f 527e 3abd 1dcc 26be 7c58 ab3f
00000130: 21b6 26be cb93 83be c717 563d 93f6 c7be
00000140: 3be2 6b3e 189b 883e 4b90 8c3f 9d96 9fbf
00000150: 9b92 75bf 5a47 e7bf 617b 3a3c c8e0 e1bd
00000160: 6fbd a0bf 8c85 223f 584d 9e3e cda2 3640
00000170: 4472 9bbf 6213 5bbe 26df 06bf f1fb 323e
00000180: 84b8 043f 58d5 c1be efdb 66be aa67 c8bf
00000190: e571 f43e ace3 87bf 19cc e33f 7578 0cbf
000001a0: fe86 ad3e 6837 473f 4e46 f73b 6371 15bf
000001b0: 7451 6abf 678b 57bd 7acf e43f 8364 933f
000001c0: f123 c73d 394b cc3f bfa9 1abf a874 b43f
000001d0: 73c5 f13d d33a 343f c795 09bf 4476 3cbf
000001e0: 170f 0c3f 1dd8 f33f e3e4 cf3d e4ea e63e
000001f0: d901 cd3e faaa 7fbf cd37 1b3e da77 21bf
00000200: c888 3640 034c f3bd d210 c53e e5eb 793f
00000210: aa02 acbf f88a 55bf bd59 06be ec76 c2bd
00000220: 7d43 38be 3e5a 8ebf ed8a ea3e adad 5fbe
00000230: 8657 0e3f 09d7 dfbd b1b5 ff3f d292 033e
00000240: f200 e03c 2ae4 1a3e 1648 54bf 4095 0140
00000250: c286 793e 2a23 9a3d 2d50 90be b9bb 9b3d
00000260: a673 d03e 618f 81be 06de cf3e 4980 453f
00000270: ede5 6cbe 06a6 8dbf 0a10 943d f0fc 5dbf
00000280: 87c5 96bf 34da 0a3f 4592 4dbe c995 18bf
00000290: f4d2 eb3e 36ec 9d3f 5051 9e3e fe11 1b3f
000002a0: 7673 193f 2007 9cbe 7f51 9dbe 8934 d23f
000002b0: e18a 853f 04e6 bdbf c4b4 243f d2ef e53f
000002c0: 8e29 b33c 8466 f3bf 096c e5bd bed3 ba3e
000002d0: 38ff a6bf 273a cabc 1a1c a7bf f2b2 68be
000002e0: 3bc6 d9bd 9503 8cbf ec47 92be 3d39 db3f
000002f0: e4bf a23f 83c5 813f 2c8a 3dbf 792a 843e
00000300: d092 67bf 189f 1340 e971 4bbf a3e3 df3f
00000310: ba7c a6bd 847c 3cbe 6d35 97bf 6d48 dd3e
00000320: e29a a33f 7849 45bf 5881 dc3f 3e3e 62be
00000330: f85f 5c3f feb0 e83f 5f08 2f3f 6e50 85be
00000340: a8f6 f43f ef81 923f d348 b13f 1862 93bf
00000350: 2371 023e 7b3f 5d3f 1329 583f 4688 ccbf
00000360: 6aa3 743f b968 b2bf 9c87 7e3d 88d4 82bf
00000370: 521b 0cbf bd52 8c3f 7e9b fd3d 9007 cc3e
00000380: 6c5c a83c a38a 89bf 88e1 883d e4d6 2f40
00000390: 27b3 5640 461a db3f 7daf abbf bc3b 4abe
000003a0: 9937 7abf 3e2d 483d c2f5 59bf b8c3 19bf
000003b0: 6d29 6cbf f2b1 113e 76b1 febe 440f a5be
000003c0: 3f9f eebf dbc8 db3e b058 1d3f ba6d 3b3e
000003d0: 99c3 ca3d ec41 0bbf 5210 443f b6ce b0bf
000003e0: c548 853e cead 293f ae5e 3a3f 30f0 153f
000003f0: d402 743e 5bcb a93c 1700 4fbf 508c 5b3f
0.1447194 -0.7756799 -0.49377397 0.9526168 -0.40743425 -0.0133390445 1.769193 -2.9003918
0.12320153 -0.86574435 -0.5350022 1.0769839 0.4854655 0.39554387 0.735811 -0.76588464
-0.03323009 -1.9264039 0.6648928 -0.7306456 0.45783442 -0.6527293 0.41440654 -0.25323772
-0.038700975 -0.9044664 -1.3552607 0.4740285 1.0222447 0.42678526 -0.36139572 -0.1270029
-0.5575774 1.6683737 0.62440926 -0.369996 -0.019328395 1.0881456 0.4400508 -1.035664
2.1105437 -1.5505115 -1.0695537 0.5861779 -0.068145305 0.11017177 -0.5081105 1.2672207
-0.30318132 -0.60603887 -0.31131357 0.070130795 -0.45311219 2.0914278 -0.076495044 1.2451671
-1.3637358 -0.76926607 0.33228952 1.1416528 0.09556167 -2.131404 0.54824644 0.9360735
1.9081922 0.9615412 0.5532089 0.94371057 0.34146914 -0.036131818 1.4979035 -0.77713597
0.78444695 -0.045530625 -0.162888 1.3386378 -0.16280414 -0.25698695 0.05226877 -0.3905531
0.23035519 0.26680827 1.0981535 -1.2467839 -0.9592683 -1.806865 0.011381955 -0.11029202
-1.255781 0.63485026 0.30918384 2.8536866 -1.2144246 -0.21394113 -0.5268425 0.1747892
0.5184405 -0.3785808 -0.22544836 -1.5656636 0.47743145 -1.0616355 1.7796661 -0.548713
0.33892053 0.7781892 0.007546223 -0.5837614 -0.9153054 -0.05262318 1.7875817 1.1515049
0.09723652 1.5960456 -0.6041526 1.4098101 0.118052386 0.7040226 -0.5374417 -0.7361796
0.54710525 1.9050328 0.101510786 0.45101082 0.40040472 -0.99870265 0.15158005 -0.63073504
2.8520985 -0.118797325 0.38489395 0.9762557 -1.3438313 -0.83415174 -0.1312017 -0.09495339
-0.17994495 -1.112129 0.45809117 -0.21843596 0.556023 -0.109296866 1.9977323 0.12848976
0.0273442 0.151261 -0.82922494 2.0247345 0.24367812 0.07526238 -0.2818617 0.07604165
0.40713233 -0.25304702 0.40599078 0.7714887 -0.23134585 -1.1066291 0.07229622 -0.86714077
-1.177903 0.542392 -0.20075329 -0.59603554 0.46059382 1.2337711 0.30921412 0.6057433
0.59941804 -0.30474186 -0.3072624 1.6422282 1.0433007 -1.483582 0.64338326 1.7963812
0.0218704 -1.901566 -0.11202247 0.3648967 -1.3046637 -0.024685932 -1.3055451 -0.22724512
-0.106335126 -1.0938593 -0.28570497 1.7126843 1.271481 1.0138401 -0.7403896 0.25813654
-0.90458393 2.3065853 -0.7947069 1.7491344 -0.081292585 -0.18406874 -1.1813179 0.4321932
1.2781641 -0.7706523 1.7226973 -0.22094056 0.86083937 1.8179014 0.6837215 -0.26037925
1.9137774 1.1445903 1.3850349 -1.1514311 0.1273847 0.8642499 0.84437674 -1.5979087
0.9556185 -1.3938209 0.062141046 -1.0221109 -0.5472919 1.096275 0.123831734 0.3984952
0.020551883 -1.0745434 0.06683642 2.747491 3.3546846 1.7117393 -1.341293 -0.1974935
-0.97741085 0.04887127 -0.8514062 -0.6006427 -0.9225071 0.14228037 -0.49744767 -0.3223821
-1.8642348 0.42926678 0.6146345 0.18303576 0.099005885 -0.54397464 0.765874 -1.3813083
0.2603208 0.6628083 0.7280072 0.5856962 0.23829204 0.02072685 -0.8085951 0.85760975

embedding_CNN_distances.weight f4 [7, 8]
00000000: d72b 853f 9e21 93bf 5f35 473e 70f4 b83e
00000010: f647 703f e47f 07bf ff0b 3c3f ea53 9e3f
00000020: 846e 37bf 021b 373f ba5e 37c0 6e64 6ebe
00000030: 7c0d 81bf ac67 0dc0 58a0 82bf 053f 7f3d
00000040: 5305 843e 3b50 95bf b917 023d dddc c3be
00000050: b689 9d3f 7627 633f c151 f53f 5baf cf3e
00000060: 2d05 f3bd 3e86 be3e 341e 0b3f d530 e0bf
00000070: 690d 703f cbe1 45bf 7d12 d63e 0261 01bf
00000080: 13b6 8cbf 37e8 30be 11f3 1e3f 3147 c63f
00000090: 81fd 0a3e 596b 37bf 1347 6b3e 3d07 bb3e
000000a0: 306c bd3d 34eb d2be e76c 51be 2948 ab3f
000000b0: 758c bb3e a6c5 69bf 361b 36bf f2c8 893f
000000c0: 0000 0000 0000 0000 0000 0000 0000 0000
000000d0: 0000 0000 0000 0000 0000 0000 0000 0000
1.0404004 -1.1494634 0.19453953 0.3612399 0.93859804 -0.5292952 0.73455805 1.2369359
-0.7165301 0.71525586 -2.8651567 -0.23280498 -1.008224 -2.2094526 -1.0205183 0.06231596
0.25785312 -1.1665109 0.031760905 -0.38254443 1.2307651 0.8873209 1.9165574 0.40563473
-0.118662216 0.37211794 0.5434296 -1.7514902 0.9377046 -0.7729766 0.4181098 -0.5053865
-1.0993065 -0.17276083 0.6208964 1.5490476 0.13573267 -0.71648175 0.22976331 0.3652896
0.09249151 -0.4119507 -0.20451699 1.3381397 0.36630598 -0.9131721 -0.7113527 1.0764449
0.0 0.0 0.0 0.0 0.0 0.0 0.0 0.0

embedding_CNN_prices.weight f4 [6, 5]
00000000: e1cb f23f e22d b13f 5ce2 a2bf 56f8 dcbf
00000010: 9ef2 80bf 78ea e3be d178 8e3f 06e0 f83f
00000020: 9802 b23e b677 7cbe 8363 0b40 8310 0fbf
00000030: 768a cdbf 713e 34bf fcea 93bf 4076 99bf
00000040: 34bb eb3f 787d a5be fa2a b5bf b122 57bf
00000050: 3dfa 1dbf d063 a13e aec8 1d3d bc0d 47bf
00000060: 8d46 6d3f 0000 0000 0000 0000 0000 0000
00000070: 0000 0000 0000 0000
1.8968469 1.3842127 -1.2725329 -1.7263286 -1.0074041 -0.44514823 1.113062 1.9443367
0.34767604 -0.24655041 2.1779487 -0.5588457 -1.605788 -0.7040778 -1.1556087 -1.1989212
1.8416505 -0.32322288 -1.415374 -0.8403731 -0.6170996 0.31521463 0.03852146 -0.7775533
0.92685777 0.0 0.0 0.0 0.0 0.0
