checkpoints/GNNNoCNN_Epoch118_valmse2.2065_testmse2.2779_ndcg0.9298.model (torch, 249600 bytes, 52 tensors)

Pair_embedding_types.weight f4 [106, 16]
00000000: 411f 9b3c c3f9 cdbd 14a1 d2be d3f7 60bf
00000010: 2158 613f bb93 c1be f817 083e 542f abbf
00000020: 9c0f 183e 28cb 0e3c 71aa a0bf 8fb3 0a3f
00000030: 0ac9 cebf f9b5 bf3e 3c3b a23e 67bf 393f
00000040: 57bc f63e 0b72 95bf 8ecb f43f e2a6 d2be
00000050: f207 82be eb0c 4b3e 5a8b 11bf 6a13 2f3f
00000060: 3529 84bf 3fcd dd3c b501 05bf 2fe8 5340
00000070: e401 49bf 838a 17bf 4d5c 8fbf 5c06 833f
00000080: 9939 db3f 22ab 1340 f46c 83bf 63a6 1a3e
00000090: b687 623f 1938 adbf 3e4b 90bf 0e8d 963d
000000a0: e94e 1f3f e693 fb3d 20f8 833f 5c65 cf3d
000000b0: eb21 71bf a36b 8f3d 31ac 8e3f 4c3f 09be
000000c0: b35c 29bf 47e0 953f c3a6 cfbe b666 93bf
000000d0: 7894 d7bf 8c80 5b3f 1ce7 ffbf 88f7 923b
000000e0: e730 90bb 41b5 863f f46d a8bf 0b7b a33f
000000f0: eee1 5f3d fedd 7a3f 7d94 913f a9c9 fe3c
00000100: 6ca1 afbd 057f 313e d2cd 543f 0c77 d4bf
00000110: dc69 0740 b258 89bf cdf5 1d3e 423b aabf
00000120: 4f61 bbbe 3473 1d3e 729d 2c3e 9cb8 603f
00000130: 7684 c43e c2fd efbd 9921 4f3e ee6b 633e
00000140: a7a4 7dbe 51d4 253e 1a9e 8b3e 7809 8a3f
00000150: 572d c0be 00d5 96bf d902 22be bdac bebe
00000160: 8600 2c3f 8c7d c53f 75e4 3bbf 0178 4ebf
00000170: 1be1 5dbf 7651 1b3f 9c41 633f 31f8 bf3f
00000180: 2083 b2bf 6657 233e dd8a e63f 7afe 223e
00000190: 3a35 343f ce34 393e caba 71bf 0bf2 0940
000001a0: a686 8abf 02c1 a13f 41b7 343e 3e12 78bf
000001b0: f433 edbe 95cd 8f3e ae5a ecbe a514 8f3c
000001c0: ebcb 333f f7f1 c43f d17b 773e 6a9a c7be
000001d0: b3a7 39bf a2e2 563e 77f8 a2be f14a 42be
000001e0: 6008 903f a69c 27c0 7ce4 943e 9ff2 91be
000001f0: 52a6 d7bd 7b2e bcbf 8e4b cdbd 5c5e 293d
00000200: 69c1 ad3e 571d cc3f 0e7c c83e d9dd 623f
00000210: 5dbc 86be 0d01 913f cbcb 9bbf 3a5a 273f
00000220: dd83 803e 6cfa 7ebf af13 b93f 3ee8 02bf
00000230: eecf 83bd 7989 a83f f0d1 0bbd 29e8 b33e
00000240: 76e3 743f 7660 013e a3c6 ca3e 380e 84bf
00000250: 76e4 cbbe 1023 763f 8eaa dd3e 1f29 1ebf
00000260: 6244 203f 4f6b 47bd cd62 0f40 f572 bd3f
00000270: fcfc bc3f cca0 083e 75c6 db3e 8e84 8dbe
00000280: a760 9bbd e666 e7bd d7bc 3d3e 5667 963e
00000290: b968 89bf cb6f 3cbf e460 953f bce9 823f
000002a0: e3d9 b9bf 17d0 453f 7505 4dbe 5edd ab3f
000002b0: 07aa b43f 2af3 8b3d bce3 ae3e 5add c43e
000002c0: 425b 9abf 40ce 22bf 195b fbbd 218c 663f
000002d0: 2884 79be 72ba a0bf 18f5 483f f86e 263f
000002e0: 7ca2 a53e f282 513f 5645 fd3f 8069 4a3e
000002f0: 773f 233d a5db bb3f 0c09 8cbe f854 7d3e
00000300: aafb d53e 96e1 cebf f240 3b3e e9bd 8dbe
00000310: 6f00 dc3f 5be9 8ebf f224 053f f17a c33f
00000320: 7919 10be 6e78 c3bf 9df9 45bf d3cf 093f
00000330: 30f7 603f 2e4a 633e 24f0 cd3d c741 aa3e
00000340: 001b 3cbf 17a3 d33f 42b3 dabe 02d2 0c40
00000350: 9edb a43f f7be dc3e 10c7 a5bf 34b6 a53e
00000360: 1549 d7be 7a0d 4e3e e597 1ebf 1d7a 123f
00000370: e596 a2bf 0789 5040 7580 0240 647d 06c0
00000380: 42d8 62bf b0e6 0dbe 842d 14c0 4778 ae3f
00000390: 624e 83bf c769 b3be e150 cf3e 3b42 7cbf
000003a0: 543c ddbe eed9 2cbf bf58 49bf 9b17 b33e
000003b0: c1bf aabf a0a6 64bf 44ef cbbe 7579 c0bf
000003c0: 7fc6 8abf 316e e93e 242d ccbf 2fc1 fe3c
000003d0: 5f85 c83e 19bc b93f 41f9 663f 6631 acbf
000003e0: caea 6f3f a92f 94bf 8d98 a8be 5da5 87be
000003f0: e162 d73f e086 f9be ff89 01c0 f721 2a3e
0.018935801 -0.10057404 -0.41138518 -0.8787815 0.880251 -0.37808022 0.13290393 -1.3373818
0.14849705 0.008715428 -1.2552015 0.54180235 -1.6155102 0.37443522 0.31685817 0.7255768
0.48190567 -1.1675428 1.912462 -0.41142946 -0.25396687 0.19829147 -0.5685326 0.68389
-1.0325075 0.027075408 -0.5195573 3.3110464 -0.7851851 -0.5919573 -1.1200043 1.0236316
1.7126952 2.30732 -1.0267625 0.15102534 0.8848833 -1.3532745 -1.1272962 0.07351123
0.6222978 0.12284069 1.0310097 0.10126755 -0.9419238 0.07002952 1.1146299 -0.13403052
-0.6615707 1.1709069 -0.40556917 -1.151572 -1.6842184 0.8574302 -1.9992404 0.0044850744
-0.004400361 1.0524064 -1.3158555 1.2771925 0.054658823 0.97994983 1.137344 0.031102018
-0.08575711 0.1733361 0.83126557 -1.659883 2.1158361 -1.0730193 0.15425797 -1.3299334
-0.36597678 0.15375978 0.16856936 0.8778169 0.3838231 -0.11718322 0.2022766 0.2220914
-0.24769841 0.16194274 0.2726906 1.078414 -0.37534592 -1.1783752 -0.15821399 -0.37241164
0.671883 1.5428939 -0.7339547 -0.8065186 -0.8667161 0.60671175 0.88771987 1.4997617
-1.3946266 0.15951309 1.8011128 0.15917388 0.7039372 0.1808655 -0.9442564 2.1553981
-1.0822341 1.2637026 0.17648031 -0.96902835 -0.463287 0.28086534 -0.46162933 0.017465899
0.7023303 1.5386342 0.24168326 -0.38984996 -0.72521514 0.20984891 -0.3183019 -0.189739
1.1252556 -2.618936 0.2908057 -0.28505418 -0.1052977 -1.4701685 -0.100241765 0.041349754
0.33936623 1.5946454 0.39157146 0.8861976 -0.26315585 1.1328446 -1.2171568 0.6537205
0.25100604 -0.99600863 1.4459132 -0.51135623 -0.06436144 1.3166953 -0.03413576 0.35138062
0.9565958 0.12634453 0.39604673 -1.0316839 -0.3982274 0.9614725 0.43294185 -0.61781496
0.62604344 -0.04868632 2.2404053 1.4800707 1.4764705 0.13342589 0.42924848 -0.27640194
-0.07586794 -0.11298923 0.18529068 0.29375714 -1.0735084 -0.7360808 1.1670194 1.022758
-1.4519619 0.77270645 -0.20021613 1.3426931 1.4114388 0.06833489 0.34158123 0.38450128
-1.20591 -0.6359596 -0.12273235 0.9005757 -0.2436682 -1.2556899 0.78498983 0.65013075
0.32350528 0.8184043 1.9786785 0.19766808 0.039855447 1.4676405 -0.27350652 0.24739444
0.41793567 -1.6162593 0.18286493 -0.27683952 1.7187632 -1.1164964 0.520095 1.5271894
-0.14072217 -1.5271127 -0.77334005 0.5383274 0.8787718 0.22196266 0.10055569 0.3325331
-0.734787 1.6534146 -0.42714888 2.2003179 1.2879522 0.43114445 -1.2951374 0.32365572
-0.42047945 0.20122328 -0.6195052 0.5721758 -1.2702299 3.2583635 2.0390904 -2.1014032
-0.88611233 -0.13857532 -2.315278 1.3630456 -1.0258296 -0.3504164 0.40491393 -0.9853856
-0.4321009 -0.67520034 -0.7865104 0.34978947 -1.3339769 -0.8931675 -0.39830983 -1.5037066
-1.0841826 0.45591882 -1.5951276 0.031097976 0.39164254 1.4510528 0.9022408 -1.3452575
0.93717635 -1.1577045 -0.32928887 -0.2649335 1.682705 -0.48735714 -2.0240476 0.16614519

embedding_Pair_distances.weight f4 [7, 8]
00000000: c279 023f 03a6 55bf d924 713f ef96 3f40
00000010: 2491 313f 115b b53f a904 babe 99d3 9f3e
00000020: d365 0140 2b63 0e40 ef14 533f 5dbe c2bd
00000030: 9b29 be3f 3ff8 73bf e077 cc3f f27f 2440
00000040: ee6b 3abf cc3e 63bf 8862 80bf ed01 c8bd
00000050: caa1 b4bf ba35 03bf 0690 ef3d b24d cbbf
00000060: 6697 c3be 7bad c83e 6b9c f3bf cd5b 33be
00000070: 5b50 07c0 fa9d f5bf 3f90 7abf aea2 f6be
00000080: ba88 843f 5299 9c3f 44b4 c7be 5ac1 06c0
00000090: 0135 a8bf 13d4 0bbe 80db 28bf f79d 90bf
000000a0: d3da a8bd 1d4c d73e 008b 0bbf ac76 273e
000000b0: 6f74 b1bf 1aae 4ebf 19a6 d5bf 8d46 12bf
000000c0: 0000 0000 0000 0000 0000 0000 0000 0000
000000d0: 0000 0000 0000 0000 0000 0000 0000 0000
0.5096704 -0.8345644 0.9419685 2.9935873 0.6936209 1.4168416 -0.3633168 0.31216124
2.0218399 2.2248027 0.8245382 -0.09508965 1.4856447 -0.9530067 1.5974083 2.5703092
-0.7282094 -0.88767695 -1.0030069 -0.09765992 -1.4111874 -0.51253855 0.11697392 -1.5883086
-0.38201445 0.39194855 -1.903211 -0.17515488 -2.1142795 -1.9188836 -0.9787635 -0.4817099
1.0354226 1.223429 -0.3900472 -2.1055512 -1.3141176 -0.13655119 -0.6595993 -1.1298207
-0.082448624 0.42050257 -0.5450897 0.16353863 -1.3863658 -0.8073441 -1.6691314 -0.571389
0.0 0.0 0.0 0.0 0.0 0.0 0.0 0.0

embedding_Pair_prices.weight f4 [6, 5]
00000000: 7073 1b3e aea0 033f b0c3 f53e a316 b7be
00000010: 8e0d 9e3f e19c 4e3f 6615 7cbd 6ec7 553f
00000020: c57a 4e3f a6a8 3c3f dab5 10be d706 1bbf
00000030: 18d1 23bf b6da 0b40 d46f 4cbf c0ad 9fbf
00000040: 75b2 02c0 825a ffbe b51e 423e 123b 0240
00000050: 9d73 89bd 8516 bcbf f538 f7bd c660 873f
00000060: da8e a5bd 0000 0000 0000 0000 0000 0000
00000070: 0000 0000 0000 0000
0.15180755 0.5141705 0.4800086 -0.35759458 1.2347887 0.8070813 -0.061543845 0.8350743
0.8065608 0.7369484 -0.14131871 -0.6055731 -0.63990927 2.185224 -0.79858136 -1.2474899
-2.0421422 -0.4987374 0.18957026 2.0348554 -0.067115046 -1.4694372 -0.120714106 1.0576408
-0.080838874 0.0 0.0 0.0 0.0 0.0

Pair_shop_mlp.fc_layers.0.weight f4 [64, 32]
00000000: 2cfc ef3c a0a0 a9bd c67e 2d3e c301 583e
00000010: a529 87be 3d6f 713d cca9 ea3d 0d55 0cbe
00000020: b61b 1f3d 0a6b 5b3e 3401 25be 04b6 fa3c
00000030: 516a cfbd b26d 5cbe 0a7d 903d 4f8f 653d
00000040: 7165 f63d 476e 9c3c 02a0 2f3c 8395 ac3d
00000050: c04a e63c 8b93 cb3d 9098 c13c 87a9 813e
00000060: 5c9b 01be 4332 3f3b c4c2 89bc 5e3c 113e
00000070: d8f1 713d 2403 713d 77e6 ddbd 6922 7bbe
00000080: a1cf 61be 6e73 c83d 4058 d2bd a7b3 263e
00000090: 938c d33d 76b2 a83e 0f4c a73e 962b 14be
000000a0: 6aeb 03be 162a a4bd 12dd cabd cf78 73bc
000000b0: fc92 e33c 8ee2 61bd bdac 92bc 23c4 833e
000000c0: cadf e33c 34a4 32be 4bbc aa3b 48c5 4e3e
000000d0: 713a 3c3d fc55 d8bd 1e75 06bd b4d5 d33d
000000e0: fe5a c9bd 82ed b23d fc4f 01bd 59bb 0abe
000000f0: b1c1 073e cead abbd 3e9d 403e f33c 3d3d
00000100: 701d bc3d dfef dc3c dfa1 19bc cc68 5fbd
00000110: f1f1 253e 8283 0f3e 4db2 9c3d 0d08 1b3e
00000120: c4d3 903e 4462 83be 1d2a d6bd b52d e53d
00000130: 7bd2 9fbd 9d12 0cbe d010 2cbd 3546 fd3d
00000140: e83d f4bd 90fc 18be ba5d 333e bc0d 323e
00000150: d553 adbd 6737 0e3e 279b 39bd 2784 a73c
00000160: 87c7 a8bd 270f c13d eae9 3e3d 4973 00be
00000170: 1368 803d 2721 fbbd b05d d13d 2ac9 673d
00000180: 1bcf 05be d529 e5bd 0630 44bd 3f94 fbba
00000190: 571d 3f3d f6a1 3a3e e52f 4f3e 1dce 0bbd
000001a0: 8fa3 243c 6133 973e c3f3 17be e814 b03d
000001b0: bb45 f23d 9e3a 643e a160 7fbe 074f 2a3e
000001c0: 390c 74bd 8182 0c3e 19b1 20be 82e8 aebd
000001d0: e4b6 033e de57 77bd 89a1 e9ba 3635 193e
000001e0: 31dc 253e 9c81 9f3d 16a7 0c3e 063f 8c3d
000001f0: a84a 57be 5bac e6bc ecd0 14be 6d24 00be
00000200: 2ba1 193d e779 993d 3b6d 0e3d 100f 1e3e
00000210: 8081 a63c a8b6 30be e0b8 483d 8e40 ddbd
00000220: c35d 99bd 13c4 d7bd b97b 563d 5802 6bbd
00000230: 878e 67bc 703f 05be 959e 32bd 8f7c b13d
00000240: 3448 01be 93ba e8bd e1cf bfbc 5cc9 48bc
00000250: e9a8 093e af70 723d 5977 12be 21cb 653d
00000260: 0a5b 32be 5b34 e6bd d533 bdbd d832 b3bd
00000270: 47f7 d03c 1fb6 19be 7cea 823d 3198 08be
00000280: 1cbe 1c3d e091 973d c433 6fbd f5a6 96bb
00000290: 2ec1 8fbb e06d 013e 4d78 393e b55a af3d
000002a0: 66e4 4fbe 2d3d 4ebe 7228 d93a c241 ffbd
000002b0: 8b3a 6b3d c787 4cbe 9cb4 14be 6257 013c
000002c0: 75ad 25bb 7869 323e 4172 13be c720 db3d
000002d0: 6596 ccbd e516 083e 2c24 f63d 0b1e 0fbe
000002e0: 55b4 363e 1be1 363e 9b67 113d d72a 5cbd
000002f0: 4e6f f9bd d6fe 023e 52b6 d93c bee9 45be
00000300: 94a6 a43d 477b 38be cfd1 eabd e76d fbbb
00000310: 4903 073b eac9 41be d28c 9bbd f738 1abe
00000320: 11e7 c13b 671a 5cbe 8c1c 93bd b700 0dbe
00000330: 5ec0 b93c 4a88 253c 6e70 efbc a621 cc3d
00000340: aa85 c4bb cf3f e23d e8c8 cebc 8f1d 063e
00000350: 78ce 803d 5b9b dabd 1ecd 80bd d163 20bd
00000360: a21b 3b3e 4648 983c b09d ff3d bf47 42be
00000370: 14eb 3abe bf84 08bd 0826 9e3d 97ac 81bd
00000380: 4cad f1bc dece adbd a7bf 7abd e665 683c
00000390: 1251 093e 2532 103d cfab f43d 2abc ee3d
000003a0: ee7c eabd 5286 883c 676d 4c3d 4776 05bd
000003b0: cbe0 463e c98b 4c3e 80bf 313c 342c 013e
000003c0: c49b 21be 1895 f2bb 1c06 5cbd 49cc 3dbe
000003d0: 8c2a cbbd 2be8 593d 55f0 1cbe b589 1fbe
000003e0: ed19 c23d 0562 bd3d 1526 893e 4e6f fc3d
000003f0: 9329 6d3d 72bd 413d f9cc 52bc e11c 833d
0.02929505 -0.0828259 0.16942891 0.21094422 -0.2639896 0.058943976 0.114581674 -0.1370432
0.038844787 0.21427551 -0.1611374 0.03060437 -0.101277 -0.2152622 0.07055099 0.056044873
0.12031067 0.019095553 0.010719301 0.084269546 0.028111815 0.09940251 0.023632318 0.25324652
-0.12656921 0.0029174245 -0.016816504 0.14183185 0.05906853 0.058840886 -0.10834973 -0.24524845
-0.2205186 0.097876415 -0.102707386 0.1627947 0.10329547 0.32948655 0.32675216 -0.14469752
-0.12882772 -0.0801584 -0.09905447 -0.014860346 0.027780049 -0.0551477 -0.017904634 0.25735578
0.027816672 -0.17445451 0.0052104346 0.20192444 0.04595417 -0.10563275 -0.032826535 0.10343495
-0.098318085 0.08736707 -0.03157042 -0.1354803 0.13257481 -0.0838276 0.18809983 0.046200704
0.09185302 0.026969848 -0.009376972 -0.0545433 0.16205575 0.1401501 0.07651196 0.1513979
0.28286564 -0.25660908 -0.10457251 0.111903585 -0.07803818 -0.13678975 -0.04200822 0.123669066
-0.1192587 -0.14940095 0.17516223 0.17388052 -0.08463255 0.13888322 -0.04531398 0.020448757
-0.08241182 0.09426718 0.046609797 -0.12543978 0.062698506 -0.12262183 0.102229476 0.05658833
-0.13067286 -0.111896195 -0.04789736 -0.0019193961 0.04665884 0.18225846 0.20233114 -0.03413211
0.010048761 0.29531386 -0.14839081 0.085977376 0.11829706 0.22287986 -0.24939205 0.16631709
-0.05958197 0.13721658 -0.15692557 -0.08540441 0.12862736 -0.06038653 -0.001782463 0.14961705
0.16197278 0.07788393 0.13735613 0.06847958 -0.21024573 -0.028158357 -0.14532822 -0.12513895
0.037507217 0.07493954 0.03477214 0.15435433 0.020325422 -0.17257178 0.049004436 -0.108033285
-0.07488587 -0.10535445 0.052364085 -0.057375282 -0.014133102 -0.1301248 -0.043608267 0.08666336
-0.126252 -0.11363711 -0.023414554 -0.012255039 0.1344334 0.059189495 -0.1430334 0.056101922
-0.17417541 -0.11240455 -0.09238402 -0.08749932 0.025508536 -0.1501088 0.063923806 -0.13339306
0.03826724 0.0740087 -0.058398977 -0.0045975395 -0.0043870425 0.1263957 0.18112297 0.08562223
-0.20301971 -0.20140524 0.001656784 -0.12463714 0.057428878 -0.1997367 -0.14522022 0.007894369
-0.002528039 0.17423046 -0.14399053 0.10699611 -0.09989623 0.13289984 0.12018618 -0.13976304
0.17842229 0.17859308 0.035499196 -0.053751793 -0.12179433 0.12792525 0.026576195 -0.19327447
0.08039585 -0.18015777 -0.11465799 -0.0076730135 0.0020601323 -0.1892468 -0.07595219 -0.15060793
0.005917438 -0.21494447 -0.07183179 -0.13769804 0.022674736 0.010103295 -0.029228415 0.099673554
-0.0059973793 0.11047327 -0.025242284 0.13097213 0.06289381 -0.10674163 -0.06289123 -0.039157692
0.1827226 0.01858915 0.124812484 -0.18972681 -0.18253738 -0.03332972 0.07722098 -0.06331747
-0.02950158 -0.084867224 -0.06121793 0.014184451 0.13409832 0.03520407 0.119468324 0.11656983
-0.1144961 0.016665611 0.04990902 -0.0325835 0.19421689 0.19975199 0.01084888 0.12614518
-0.15782076 -0.0074030273 -0.053716764 -0.1853496 -0.099202245 0.05319993 -0.15326054 -0.15579875
0.09477601 0.09247211 0.26786867 0.12325917 0.057900976 0.04729981 -0.012866252 0.064019926

Pair_shop_mlp.fc_layers.0.bias f4 [64]
00000000: 2126 483e 0bb3 73bc 2d20 e4bd 5bea afbd
00000010: dc89 c2bd de4a a2bc f639 c33d a568 b1bd
00000020: 29ad e5bd 02f5 b83d 56f9 bf3d 1855 1d3e
00000030: aedc ccbd 5ee4 cb3d fe7d c63d 8b3e 5abd
00000040: 0984 e7bd d25e b5bd 5d1e 9bbd 0f87 a13d
00000050: 3638 373e 1177 163e 6682 c6bd d8ae 62bd
00000060: 9546 5dbd 2768 c4bd a16e 15bc f878 e23c
00000070: bf23 35be 8882 d73d b7b0 923d e1d4 fb3c
00000080: a27f 4e3d e132 443d 9c0e 16bd 4c58 79bd
00000090: 23ba b9bc f9d2 b53d 40ef 92bd e696 d43d
000000a0: 771f 1dbd a5f4 083d e88a 983d 1719 283e
000000b0: b875 b83d b9fa 32bd 1cc2 413e 477a 63bd
000000c0: 12bd babd 6eac 8cbd 120f babc e235 b43d
000000d0: fea5 093e 61d7 903d ece4 edbd 1ca4 8fbd
000000e0: 84ef d23c 158f 0fbe 1cea 013d b549 3b3e
000000f0: f5b9 e8bd 3a45 853d 57e2 1dbe 53ab 58bd
0.19545795 -0.01487423 -0.111389495 -0.08589622 -0.09498951 -0.01981109 0.095325395 -0.086625375
-0.11214668 0.090311065 0.09373729 0.15364492 -0.10003029 0.09955667 0.09692 -0.053282302
-0.113044806 -0.08855976 -0.07574151 0.078870885 0.17892537 0.14693858 -0.0969284 -0.055342525
-0.05402239 -0.09590178 -0.009120614 0.027645573 -0.17689417 0.10522944 0.07162612 0.030741157
0.05041469 0.047900084 -0.036635026 -0.060875222 -0.022671765 0.088781305 -0.071745396 0.10380344
-0.038360085 0.033436436 0.07448369 0.16415821 0.09006828 -0.04369614 0.18921703 -0.055536535
-0.091180936 -0.06868826 -0.022712264 0.0879934 0.13442227 0.0707233 -0.11615929 -0.07013723
0.025748976 -0.14019425 0.031717405 0.18289836 -0.113635935 0.065073445 -0.15418373 -0.052897763

Pair_shop_mlp.fc_layers.1.weight f4 [16, 64]
00000000: c438 aebe 320a 56bd 1660 6f3c 4915 a53d
00000010: 6c52 4f3d 4532 88bc 6efe d83d 66b5 b4bd
00000020: 2cf5 2dbd 030a dabc 93df 2bbc e805 d13d
00000030: dcb9 a5bd 2d77 95bd 12b3 36be 0d83 103e
00000040: b5f1 cb3d d2e2 103e 44c0 3fbd 1a85 32bc
00000050: 8448 143e cea6 febc 8c1f c43d 7edb 2c3d
00000060: 4654 733c bd7d b63d a426 4ebe 3337 363e
00000070: 882b 3f3e e62b b33d 80d0 fabd 1f5d 87bd
00000080: 64d2 403e e473 d8bd 1ea9 f63d 6e4c 5e3c
00000090: 23c7 153e 2ea7 5d3e 531a 613d 25f8 fb3c
000000a0: 83e3 5d3d e26f 903d f5a0 4b3d e773 94bd
000000b0: 443f 2abe 2fc3 13bd 556f e23c bb3f e33d
000000c0: b028 063e cc1b bd3d fa86 393e ac6d 97bd
000000d0: 2eba 693e 78c8 c13d 73cf 06be cd12 5dbd
000000e0: 58f3 e83d 5568 c4bd c455 6e3e cbdb 923c
000000f0: 17ab 053c fcc4 f4bc e245 293e 5eb5 3ebc
00000100: 6f2b 553e 3328 f3b8 854d 183c f76c 043e
00000110: 2c3a 38bd 7cc8 b53d 6726 e73d aa5a babd
00000120: 5a60 833d 8913 073d 66f5 b53d cd9c e23d
00000130: 2852 aa3d 2fce 993d de91 aebc 10b9 023e
00000140: 0d74 103d 9120 9abd d9c2 303e 3f48 6fbd
00000150: 4a0c b03b a4e5 9bbd 2b89 b73d 7d0e b8bd
00000160: 18a4 2f3d 36bb ae3c 7483 adbd e9bd 393c
00000170: 56a2 10be 0fbf a63d 2b28 343c ddd7 b03d
00000180: 1b4b fdbc 4ed5 65bd 54e5 fdbd 47ac 783d
00000190: 082f a5bc 6d04 92bd 5ff5 89bd b892 973d
000001a0: 85c3 a8bd 4d00 f53c 3931 003e 3569 1e3e
000001b0: eb24 cebc 1e17 32bc 223f fa3d 9f3a 97bb
000001c0: b05f 65be b09e f7bd 8bc5 023d 0b4e cb3c
000001d0: c57d fbbd b861 98bd 4363 863d c49d 94bd
000001e0: 4e68 71bb ba6f 6e3d de75 f8bd 8407 093e
000001f0: 713c e93d 165e e0bd e776 0fbe 4523 aa3d
00000200: b39a b23e f3c5 cd3d ade5 963d cd12 b8ba
00000210: 6424 e6bd 9a14 4c3d 5cd7 2dbc 50c7 99bd
00000220: 4a16 703d 4b29 fd3d 22da 9e3c d49e c6bc
00000230: cc2a 3bbd 1bbb d03c 9dfd e43c d9c6 8cbd
00000240: ed60 bfbc 26a1 e13c 9004 f93d 7d50 043e
00000250: 3d99 543d 0846 363b 357d 4fbd 3790 993d
00000260: 947e 87bc ba85 84bd ccd6 8b3e dc8d 37bd
00000270: f2ae a9bd 43e1 333e 419e 673e 6b8b e7bd
00000280: 7c9a 663d fad9 b43c 091b 91bd 1831 20bd
00000290: 2faa bfbc acf9 d1bd 75ab 303e 18cf bb3d
000002a0: 8711 b83d d7ea acbc 358d c93b 361b 4a3b
000002b0: 009b 243e 2db0 193d 5c8a 3e3d 2073 ddbd
000002c0: 8554 85be 5c74 603d 672e 33be d642 c23d
000002d0: 1c2f 8dbe 899d e63d 5fe6 343d 0cef cd3d
000002e0: 3b9c 303c 88d3 26bd 5f51 103d 090a 75bc
000002f0: 0721 af3d 333b fd3d 39e7 28be c2c7 dc3d
00000300: 29f4 913e 5767 923d 97d9 67bb 7a0c e4bd
00000310: 78a6 3d3d 9799 f2bc 61d7 e43d 0160 f23d
00000320: dd81 e03d c6ed 483e ec42 163e ded3 ac3c
00000330: 1a49 033d 220a 9bbd 314f e03b 2e8b b9bd
00000340: 3bbe 9c3d 521e 49bd 4904 8b3d f173 ce3c
00000350: f5ba 2abd b9ed db3d bb62 fc3d 8a6e de3d
00000360: 7959 213e d2af 36be 7630 8f3e 5bd5 b73d
00000370: 25cc 8cbd 97d7 df3d d722 5f3e fbd4 0d3e
00000380: 3d05 da3d 0881 ea3c d416 f73c d4c2 5bbd
00000390: 7a72 17be 02da 8ebd 73cf b1bd 98c1 54bc
000003a0: 5503 80bc 5c51 8f3d 44a8 973d bf8e be3b
000003b0: 1ec6 793d bb2e dbbc 57c2 10bd b13e 6b3d
000003c0: 2241 c9be 203a 2abe a66e 2ebe 5095 6a3e
000003d0: 8c28 68be 4831 8bbd 7635 adbd 6db6 6e3d
000003e0: 2349 c73d f65f a0bd d3eb eb3d 4112 033e
000003f0: 42be f7bc f92f 863d 4167 4fbc a027 443e
-0.34027684 -0.052255817 0.014610311 0.080607004 0.050615713 -0.016625533 0.105954036 -0.088236615
-0.042470142 -0.026616102 -0.010490316 0.10206205 -0.080920905 -0.072981216 -0.17841747 0.14112492
0.09958211 0.14149025 -0.04681422 -0.010895992 0.14480788 -0.031085398 0.095763296 0.04220151
0.014851635 0.089107014 -0.20131928 0.17794494 0.1866895 0.08748607 -0.122467995 -0.06609558
0.18830258 -0.105689794 0.12043975 0.013568027 0.14626746 0.21645805 0.054956745 0.030757973
0.05417205 0.0705259 0.049714047 -0.07248669 -0.16625696 -0.036074813 0.027640978 0.1109614
0.13101459 0.092338175 0.18117896 -0.07393965 0.22824928 0.094620645 -0.13165073 -0.053973008
0.11374539 -0.09590212 0.23274904 0.017927071 0.008158467 -0.029879086 0.16530564 -0.011639921
0.2081735 -0.000115946306 0.009295826 0.12932192 -0.044977352 0.0887613 0.112866215 -0.09099324
0.06414862 0.032977615 0.08884697 0.110650636 0.08316451 0.075100295 -0.02130979 0.12765908
0.035266925 -0.07525743 0.17261828 -0.05841851 0.0053725587 -0.0761216 0.089617096 -0.089871384
0.0428811 0.021329504 -0.08472338 0.011336782 -0.14124426 0.0814191 0.010995905 0.08634923
-0.030919602 -0.056111626 -0.123972565 0.06071117 -0.020164028 -0.071297504 -0.06736254 0.07401031
-0.082404174 0.02990737 0.12518777 0.15469821 -0.025164088 -0.010869769 0.12219073 -0.0046151425
-0.22399783 -0.12090814 0.031926673 0.024817487 -0.12279848 -0.07440513 0.065619014 -0.07256654
-0.0036835852 0.05821202 -0.121318564 0.13381773 0.113884814 -0.109554455 -0.14010201 0.083075084
0.3488365 0.100475214 0.07368026 -0.0014043689 -0.1123741 0.049824335 -0.010610428 -0.07508719
0.058615007 0.12361392 0.019391123 -0.024245657 -0.04569511 0.025479844 0.027952963 -0.06873865
-0.023361648 0.027542662 0.12159073 0.12921329 0.051903952 0.0027812738 -0.050656516 0.0749821
-0.01653985 -0.06470819 0.27312315 -0.044813022 -0.08285321 0.175664 0.22618963 -0.11305889
0.05629967 0.022076596 -0.07085235 -0.03910932 -0.02339658 -0.10252699 0.17252906 0.091703594
0.08987718 -0.021108074 0.0061508664 0.0030838973 0.16074753 0.03752153 0.04651867 -0.10812974
-0.26041046 0.05479847 -0.1749817 0.09485404 -0.27575004 0.11260516 0.04416501 0.1005536
0.010779436 -0.040729076 0.03523385 -0.014956006 0.08551221 0.12364807 -0.16494454 0.10780288
0.28506592 0.07148617 -0.0035377496 -0.11135192 0.046301335 -0.029614253 0.11173893 0.118347175
0.109622695 0.19621953 0.14673966 0.02109712 0.032052137 -0.07570292 0.006845378 -0.090597495
0.07653471 -0.04910118 0.06787927 0.02520177 -0.041682202 0.107387014 0.12323519 0.108609274
0.15756787 -0.17840508 0.2796666 0.08976241 -0.06874875 0.109297924 0.21790634 0.13850777
0.106455304 0.02862598 0.030162252 -0.0536526 -0.14789763 -0.069751754 -0.08682146 -0.0129856095
-0.015626589 0.0699794 0.07405141 0.0058153565 0.060979955 -0.026755681 -0.035341587 0.057432834
-0.39307505 -0.16623735 -0.17034397 0.2290852 -0.22671717 -0.06796509 -0.084574625 0.058279444
0.097307466 -0.07830803 0.11519589 0.12799932 -0.03024209 0.06552119 -0.012658895 0.1915574

Pair_shop_mlp.fc_layers.1.bias f4 [16]
00000000: 867f debb 96ef 813c 7a62 0a3e 9c24 273d
00000010: e41b abbd eef9 a2bb 8b9b 7f3c c069 9bbd
00000020: bf05 4d3d 6017 9fbd 743b 60bd 840a 993d
00000030: c52c bf3d b1c4 6e3c 9a0f b9bd 78c7 0e3e
-0.0067901043 0.015861314 0.13514128 0.040806398 -0.08354929 -0.0049736416 0.015601049 -0.075885296
0.050054308 -0.0776813 -0.0547442 0.07472709 0.09334711 0.014573262 -0.09036179 0.13943279

Pair_score_mlp.fc_layers.0.weight f4 [64, 32]
00000000: af09 23be e79b c0bd 4d92 3d3e 5257 1abd
00000010: bf03 99bd 1edf c8bd 51ee 6c3e 593a fa3c
00000020: 3d33 d3bb 0714 42be f4f4 82bd b0f0 c2bd
00000030: 0e2c 06be 6388 20be 7433 8f3d cd58 583c
00000040: 43a9 31be f59d b9bd ade7 743e 9c7d 81bd
00000050: f6cb d23d c20f 55be 9cd6 333d 28f9 e93d
00000060: f816 08be 2c41 70bd b0c6 1d3e 0caf d5bd
00000070: d9ac 913d 807a 89bc dfc1 80be 3829 8ebe
00000080: 81a2 2abe 6545 7fbd 0eda 543e d7b9 463e
00000090: 6b36 b0bd cf7c 303e 9305 333e 4098 d5bd
000000a0: 097f fa3d 00e9 3bbe fb82 e9bd 0f73 0f3d
000000b0: f629 a23d d242 8fbc b6cb cbbd 39e7 81bc
000000c0: dd79 9bbd a72b 00be be81 2a3d 140c 233e
000000d0: 36e5 dbbc 30b6 0fbe 5214 693b 4e1a d7bd
000000e0: c2ac 24be 5e7b 393e aca6 8c3b d34a 04be
000000f0: e0da 40bd ff07 a8bc 72f7 fb3d db21 c83d
00000100: 4228 02be 57a0 90bb 5cf9 08bd 25b8 cdbd
00000110: 75b4 1e3d d570 90bc 2723 c93d e633 01bd
00000120: 20b0 053e 4306 88be 50d6 8cbc 13ae 343e
00000130: a064 f53c c40b 53bd dee0 b23d edb0 41bb
00000140: 9144 8cbe d660 2c3d 0d64 293d a7d1 553e
00000150: d263 643e ddba 673d 0676 323e c040 473d
00000160: 3351 353e 264e 5bbd ed1a 78bd 3117 1a3c
00000170: dfc4 20be 4360 03be e44c c7bd 7e81 233e
00000180: c796 32be 3e6f 053e 5bfa 7e3e fb18 513d
00000190: 4af1 303e e1f2 17be 4e7e ddbd 75ff 8e3d
000001a0: 339c 1d3e ba92 4bbd 4117 29be 28ab 403e
000001b0: 1387 a4bd 2444 943d 3e9a bdbd aae7 343e
000001c0: cb91 113d 7038 e6bd 31c2 d93d 460c a03d
000001d0: ef6e a53c d584 543d e657 d73d 5a6b 88bd
000001e0: 559c 0b3e a65d 5abe 27c8 d73c 8e45 41bd
000001f0: 9192 d73c 6d3f 703d 32be 263e b686 2a3d
00000200: b698 3fbe 6d83 21bd 8d39 9bbc 2302 04be
00000210: c422 0b3e 7d16 a2bc 825d 17be d8ca 87be
00000220: 195e 143e ffd8 9abd d7a2 11be 5160 5abe
00000230: bc31 18bd 66c3 cc3c f3b6 01be cc50 2cbe
00000240: 8109 693e 0f9e 773e 7c3b 23be 59a3 a8bd
00000250: fd8f f2bd eb87 be3d b5d3 b1b9 4e6b 9c3c
00000260: d6cc 41be aa08 593d ab1d d2bb 793f 633e
00000270: ef8f bebc d723 07be 9e5d 903d 2e21 22be
00000280: 681e 10be b0af 113d ae8c 2e3e 75cd 8c3d
00000290: 0305 c93d 8714 163e b95b 9dbd d1fd e2bd
000002a0: 2495 c1bd cd34 f5bd f413 333e 5f74 8d3d
000002b0: db90 993b 3fb0 d63d 95ff 21be 684d 8bbd
000002c0: d5bf 313e fb99 2b3e 5dd4 ba3d 8b66 063c
000002d0: 7827 c03d ff7d 0ebe 9456 1c3c 2109 ab3d
000002e0: 1043 8b3d cb50 b33d d8cf 413e da37 22be
000002f0: 49d0 273e 9dbb 17be 6ac1 033e c3c9 7fbd
00000300: a29e 03be 3040 5f3e 072f f2bc 7b68 66bd
00000310: 7fa0 17be a730 b1bd 11fb 393d f868 153e
00000320: f63f 973b fb2e 3abd 5219 ffbd b57a 1f3e
00000330: 0199 20bd 6814 b7bd dad3 093e 26ae f23c
00000340: 43b2 423c 433c fd3d cac4 93bd 1728 fdbb
00000350: ebc7 b4bd f651 783d facb 3e3e a4c7 1c3e
00000360: dcc0 9f3d 5f39 93bd bcbf 323d 88ce 5e3e
00000370: 70d7 fdbd 8408 f43d 3afd 193e 8214 1cbe
00000380: da1c 103c c732 8ebd 0f94 5c3e 94e7 0e3e
00000390: f205 0b3d e796 7f3c d753 aebd 47a8 abbd
000003a0: 150d 3c3e da98 1f3e 7f0e 76be bc22 fcbd
000003b0: 75aa 8e3d a781 91bd 028c d8bd 71b2 023e
000003c0: 6852 2abe 0c2a 1fbe 936c 85b8 46cb a5bc
000003d0: ff53 7dbd c7d9 583e 1916 5e3d 814b fbbc
000003e0: b819 85bc 4200 e4bd f913 d2bd cba3 e1bd
000003f0: 1629 f3bd 4832 c0bd 3191 223e 5722 ae3d
-0.15921663 -0.09404736 0.1851284 -0.03768093 -0.07471418 -0.09808181 0.23137785 0.0305454
-0.006445317 -0.18952952 -0.06394377 -0.09518564 -0.13102743 -0.15677027 0.06992236 0.0132047655
-0.17349724 -0.09063331 0.23916502 -0.06322786 0.10292809 -0.20806792 0.04390584 0.11424476
-0.13290012 -0.058655903 0.15407825 -0.10433778 0.07113046 -0.016782045 -0.25147912 -0.27765822
-0.16663553 -0.06232204 0.20786306 0.1940683 -0.086041294 0.1723511 0.17482595 -0.1042943
0.12231261 -0.18350601 -0.11401936 0.035021838 0.0791816 -0.017487917 -0.09950964 -0.015857326
-0.07591603 -0.12516652 0.041627638 0.15922576 -0.026842695 -0.14034343 0.003556509 -0.10503064
-0.16081527 0.18113467 0.00429233 -0.12919168 -0.047083735 -0.020511625 0.12303056 0.097720824
-0.1271067 -0.0044136452 -0.033440933 -0.100448884 0.038746316 -0.017631928 0.09821158 -0.031543635
0.13055468 -0.26567277 -0.017192036 0.17644529 0.029955208 -0.051524892 0.08734296 -0.002955492
-0.27396062 0.042084537 0.04135518 0.20880757 0.22303703 0.05657469 0.17427835 0.048645735
0.17706756 -0.053541325 -0.060572553 0.009404943 -0.157001 -0.1282969 -0.097314626 0.15967366
-0.1744033 0.13030717 0.2490019 0.051049214 0.17279544 -0.14838745 -0.10815106 0.06982318
0.15391617 -0.049700476 -0.16512777 0.18815291 -0.08033576 0.07239559 -0.09257935 0.17666498
0.03553943 -0.11241233 0.10632742 0.07814841 0.020194499 0.05188449 0.10514812 -0.06661101
0.13633855 -0.21324787 0.026340557 -0.047185473 0.026315005 0.058654238 0.16283491 0.041632377
-0.18710598 -0.039431978 -0.01894834 -0.1289144 0.13587481 -0.019786114 -0.14781764 -0.26521945
0.1448902 -0.0756092 -0.14222275 -0.21325804 -0.037156805 0.024995517 -0.12667446 -0.16827697
0.22757532 0.24181388 -0.1594066 -0.08234281 -0.1184387 0.09303268 -0.00033917805 0.019094136
-0.18925795 0.05298678 -0.006412228 0.22192182 -0.023261992 -0.13197266 0.07049106 -0.1583297
-0.14074099 0.03556794 0.17045853 0.06875125 0.09815409 0.14656268 -0.0768351 -0.11083568
-0.094522744 -0.119729616 0.1748808 0.06906962 0.0046864576 0.10482835 -0.15820153 -0.068018734
0.17358334 0.16757958 0.09122536 0.008203159 0.09382528 -0.13915251 0.009542126 0.083513506
0.067999005 0.087556444 0.18926942 -0.15841618 0.16388048 -0.14817663 0.1286675 -0.062448274
-0.12853482 0.2180183 -0.02956344 -0.056251984 -0.14807318 -0.08651858 0.04540545 0.14590824
0.004615779 -0.04545496 -0.12456001 0.15574153 -0.039208416 -0.08939439 0.13459721 0.029624056
0.011883321 0.1236501 -0.07215269 -0.0077257263 -0.08827194 0.06062504 0.18632498 0.15310532
0.07800457 -0.07188677 0.043639883 0.21758473 -0.12394607 0.11915687 0.15038005 -0.15242198
0.008795941 -0.06943279 0.21540855 0.13955528 0.033941217 0.015599943 -0.08512085 -0.08381706
0.18364365 0.15585652 -0.24028967 -0.123113126 0.06966106 -0.07104807 -0.10573579 0.12763382
-0.16632998 -0.15543383 -6.362158e-05 -0.02023853 -0.061847683 0.21176825 0.054220293 -0.030675652
-0.016247615 -0.11132862 -0.10257716 -0.11017569 -0.11873071 -0.093845904 0.15875699 0.085026436

Pair_score_mlp.fc_layers.0.bias f4 [64]
00000000: 9af4 603d 3d74 66bd 9595 09be 2481 b4bd
00000010: 7fd7 243e ceb0 1b3e 72f1 b2bd 7e53 c6bd
00000020: 1332 80bd caad c0bd 1e56 293e 5758 d43b
00000030: 38b6 0e3d 6df2 e53d c45b 83bd ffe9 0e3d
00000040: 1023 463e 24ef 8fbd b389 da3d a3ad 783d
00000050: d136 b7bd 6af7 45bd 80ea 9d3d 1341 35bd
00000060: d641 a93d dfd8 19bd 4514 3dbc 9ed8 df3d
00000070: 4844 223e 8846 1bbd d1b7 9bbd c82e 1a3e
00000080: e3dd 9c3d 3961 1bbe 9eeb 023c 7856 6b3e
00000090: d817 333e d42f 103e 1e63 b3bd 9721 1abd
000000a0: a38b eabd 08b5 d33d b575 1ebe c0e9 f6bd
000000b0: 0023 2b3c 5bc9 ef3d 2e88 4fbd 9d17 d9bd
000000c0: 82b7 5bbd 5c06 96bd 2769 213d 4048 9dbd
000000d0: 063d 80bd dc10 eabd 8c83 9bbd d700 123e
000000e0: 3466 0cbd 88ba e83d 2904 f73d ab4e db3d
000000f0: acc2 863d 1e44 263e 4a33 db3d 640d a5bd
0.05492077 -0.056263197 -0.13435967 -0.08813694 0.1609783 0.15204164 -0.08737458 -0.096838936
-0.06259551 -0.09408148 0.16536757 0.0064802575 0.034841746 0.1122788 -0.06413987 0.034891125
0.19349313 -0.07028034 0.10670795 0.060712468 -0.08946002 -0.048331656 0.07710743 -0.044251513
0.0826451 -0.03756034 -0.011540477 0.10929988 0.1584636 -0.03790906 -0.076034196 0.15056908
0.07659509 -0.15173806 0.007990746 0.22982204 0.17489564 0.14080745 -0.087591395 -0.03762969
-0.11452415 0.10337263 -0.15474589 -0.12056303 0.010445356 0.117083274 -0.05066698 -0.10600207
-0.053641804 -0.07325432 0.03940692 -0.07679796 -0.06261639 -0.11428997 -0.0759345 0.14258133
-0.034277156 0.11363703 0.1206134 0.10708364 0.065800995 0.16236922 0.10703142 -0.08059195

Pair_score_mlp.fc_layers.1.weight f4 [8, 64]
00000000: 170a c73d c5ec f63d 15b5 003e a987 723d
00000010: 9ad2 793e c1c5 153e 3878 813d 51bf cb3d
00000020: 4e1e 1a3e e435 293e 33b6 fbbd b395 e73c
00000030: c1d8 0a3d 6914 25be d1b0 bdbc a13c 773c
00000040: a1d6 033e eb52 5ebb c0ff e0bc 48d7 203d
00000050: 754e f83d b952 b2bc e22e d43d 830c 2a3c
00000060: 8b4a a93d 6810 0c3e 67b2 1d3e 4db5 a83d
00000070: c22e 53bd 85f6 67bd ea61 cf3d 08cb 423c
00000080: a508 593c eb7d f03d 8299 e23d 40f5 ccbb
00000090: 8803 5c3e 6c37 103d 48fb b7bc 7d01 f33d
000000a0: 2f8b 85bd 160f 113d 2935 ffbc cc93 ab3d
000000b0: b4e3 4ebe 898c d03d 7a10 0c3e 9ff4 ce3d
000000c0: 0ebd cebd f26b 9f3d 0f08 cbbd a097 8e3d
000000d0: dc2a 6f3e d185 5e3c ed2c e53d 75f8 adbd
000000e0: fffa 803d b4ff c7bd eee2 65bd e922 a83d
000000f0: 8f21 e2bb 0da7 8f3d 1556 aabd f4f4 363e
00000100: c490 f6bd 73f3 c43d 8e80 07be 0ac5 14be
00000110: 2e77 01be 7ba5 7bbd 8ea2 19bd 6519 b7bd
00000120: bda0 c9bd 5aeb 3bbc f929 4bbe 5507 f63b
00000130: 47a1 3cbe 8557 593e f1bf 3cbe c68a 50be
00000140: c66b e5bb 4b64 2c3d 7204 9cbd 460f 1a3d
00000150: adf0 19be dd8c e8bd f28c a7bd bf91 933d
00000160: a812 d5bd d8b3 edbd ad92 ed3d d7b8 48bd
00000170: 25d9 d3bd 7c2e 043e 9be9 f43d ea03 92bc
00000180: 6931 7ebd 177a 0bbe 3c16 713d 4944 e73d
00000190: a623 24be 6a12 833d 0ded 8b3d 6af5 653d
000001a0: 9cf4 e1bd 385c 34bd 3e76 adbd 2b38 05be
000001b0: 3795 3d3e 9021 003e 095c cfbd af89 d7bd
000001c0: 7a70 a83c 396d f8bd 85b1 de3d eff2 e9bd
000001d0: 0876 4fbc 5cec 1ebe 276d 2ebe 4c91 583e
000001e0: 053a 8e3c cf64 c9bd a281 3cbd d88b 87bd
000001f0: b823 223e b142 c63d ad35 6c3d 3cdf 723d
00000200: 8838 a53d 123a e73d 7f5a 533e 85fd 263e
00000210: 5b6e 793d fc56 873d d708 443e ee92 f7bb
00000220: f721 493e dd9d 163d a860 9a3d 7217 cfbc
00000230: 6f95 3abd cc8a 86be af05 653d 310e 933d
00000240: d179 833e 72a5 133e 88d3 f93d 2024 c93c
00000250: 39a6 c43d f4c6 3bbd 07cd f43d f1c9 8f3d
00000260: 4ab9 953c 62ad ff3c e2a8 cb3d 18eb 793e
00000270: c857 6bbc d645 f73d 5c71 7c3d 1f5a 353e
00000280: e36b b03d ddfc 513c db54 cf3d 223a 05bd
00000290: d22a 383e 24ca 96bb 5659 57be 0bc5 203e
000002a0: 85e9 bcbd fd03 b33d eed7 df3d e709 183e
000002b0: c417 07be c44a 0d3e e280 b73d 15ef 0ebd
000002c0: 8920 1d3e efe5 23bd 865d 243e 8486 38bd
000002d0: 91c4 613d 7cb6 e7bd 5edd c03d cce1 edbb
000002e0: c0ff acbc e302 2b3b 1f7d c13d 04f8 503e
000002f0: 0f44 d93d 7fcb ab3b 6c51 b03d b7f0 8d3e
00000300: ab25 c5bc a581 8e3d f166 af3d 2e13 923a
00000310: 800b 593c 51c2 d0bd b939 2d3d 8108 d939
00000320: 9cde 37be d4ff ad3b 861a ac3d 3f36 333d
00000330: da78 adbc d1a5 c23d 4c3a 12be 24d0 25be
00000340: 2952 00bd 8db5 c6bd 9d43 003c 98d0 59bd
00000350: 0513 1abd 4f3c 9ebc b501 993d 0ddd bb3d
00000360: c1ce 1b3e 5eb3 57bc 4112 1cbd a901 053e
00000370: 139b 85bd 3e12 4a3d 0187 7d3d e240 81bd
00000380: cf28 60bd f006 29bd 91fd c3bc f342 55bc
00000390: ea2a 353e e13c 44be 669a 703d 5218 b13c
000003a0: ce5a f2bc a526 883d e83f fcbd f359 af3d
000003b0: 7e68 88bc 5983 e9bd 87f9 0dbe f658 a1bd
000003c0: 2aa4 c93d a77b 0bbe 89ce 39bc cbd6 acbd
000003d0: c566 823d 04f4 2cbe 6171 82b7 9e47 123e
000003e0: 6c3d bdbd 7297 823c f531 e23d 69f8 ce3d
000003f0: 74f3 60bd 54e3 cebd 9f89 523d dbb8 1b3d
0.09718721 0.12056879 0.12569077 0.059211407 0.24396744 0.14626218 0.06321758 0.099486
0.15050623 0.16524464 -0.12290611 0.028269624 0.03389812 -0.16121067 -0.023155602 0.015090139
0.12874843 -0.0033923935 -0.027465701 0.03926781 0.121243395 -0.02176796 0.10360505 0.01037896
0.08266171 0.13678133 0.15400086 0.082377054 -0.051558264 -0.056631584 0.101260975 0.011889227
0.01324669 0.11742767 0.110644355 -0.006254822 0.21485722 0.035209104 -0.022458687 0.11865518
-0.06520688 0.035414778 -0.031153278 0.083777994 -0.2020405 0.10183055 0.1367816 0.101052515
-0.10094653 0.07784261 -0.099136464 0.06962514 0.23356193 0.013581709 0.111902095 -0.08494655
0.06297874 -0.097655684 -0.05612462 0.082097836 -0.006900973 0.07014284 -0.083172 0.1786688
-0.120393306 0.09616747 -0.13232633 -0.1452829 -0.1264312 -0.06143711 -0.03750854 -0.089403905
-0.098451115 -0.011469686 -0.1984023 0.0075081983 -0.18420897 0.21224792 -0.18432595 -0.20365438
-0.007001373 0.042087834 -0.076180354 0.037612222 -0.15033217 -0.113549925 -0.0818118 0.07205533
-0.10403949 -0.11606568 0.11600242 -0.049004402 -0.103441514 0.12908357 0.11958619 -0.017824132
-0.06205884 -0.13620792 0.058859095 0.11292321 -0.16029224 0.063999966 0.06832323 0.05614225
-0.11032984 -0.04403326 -0.084698185 -0.13009708 0.18513952 0.12512803 -0.10124976 -0.10524308
0.020561446 -0.121302076 0.10873703 -0.11423289 -0.012662418 -0.15519851 -0.17033826 0.21149176
0.01736165 -0.09833681 -0.046022065 -0.0661847 0.15833938 0.09680689 0.057668377 0.059294924
0.08067423 0.11290373 0.2063999 0.16307648 0.06089626 0.06608388 0.19143997 -0.007555357
0.19641863 0.036771644 0.07537967 -0.025279734 -0.045552667 -0.2627777 0.055913623 0.07180441
0.25678876 0.14418581 0.121985495 0.024553359 0.09602017 -0.045844033 0.11953168 0.07020939
0.01827683 0.031210605 0.09944321 0.24406087 -0.01436419 0.12073867 0.061631545 0.1771016
0.08614328 0.012816635 0.10123607 -0.032526143 0.17985085 -0.0046017338 -0.21030173 0.15700166
-0.09224228 0.08740995 0.10929857 0.14847527 -0.1319266 0.13798052 0.08960129 -0.034895975
0.15344442 -0.040014204 0.16051301 -0.04505016 0.0551191 -0.11314103 0.094172224 -0.007259583
-0.021118045 0.002609425 0.09447693 0.2040711 0.10608684 0.0052427645 0.0860928 0.27722713
-0.024065813 0.069583215 0.085645564 0.0011144632 0.013247371 -0.10193313 0.042291377 0.000413958
-0.17956012 0.005310038 0.084034964 0.043752905 -0.02117579 0.09504283 -0.14280051 -0.1619268
-0.031328354 -0.09702597 0.00782862 -0.053177446 -0.037615795 -0.019315867 0.07471029 0.091730215
0.15215589 -0.013165323 -0.038103346 0.12988915 -0.06523719 0.049333803 0.061896328 -0.063112035
-0.054726418 -0.04126638 -0.02392462 -0.01301645 0.17692152 -0.19163848 0.058740996 0.021618042
-0.029584315 0.06647996 -0.12316877 0.08562078 -0.016651388 -0.11402006 -0.13864718 -0.07878296
0.09845765 -0.13621388 -0.011340746 -0.08439406 0.06367258 -0.1688996 -1.5550004e-05 0.14285132
-0.09240231 0.015941355 0.11044685 0.10105974 -0.054919675 -0.10101953 0.051400777 0.03801809

Pair_score_mlp.fc_layers.1.bias f4 [8]
00000000: 06c2 3dbc 0e04 df3d 2e7e cdbd 4a90 9b3d
00000010: 044e 023e 7e0e df3d 9870 7ebd bb69 96bd
-0.011581903 0.10889445 -0.100338325 0.0759588 0.12725073 0.10891436 -0.062119097 -0.07344385

CNN_embedding_types.weight f4 [106, 16]
00000000: 5331 143e f592 46bf f1cf fcbe b2de 733f
00000010: 399b d0be 028c 5abc eb74 e23f 05a0 39c0
00000020: 1551 fc3d 6ca1 5dbf e7f5 08bf 9cda 893f
00000030: ef8e f83e ba84 ca3e 1c5e 3c3f 0411 44bf
00000040: 461c 08bd 6794 f6bf 6a36 2a3f 970b 3bbf
00000050: 4669 ea3e 4419 27bf 182d d43e 60a8 81be
00000060: ea84 1ebd 1c8b 67bf 2f79 adbf ddb3 f23e
00000070: ead8 823f 9983 da3e dc08 b9be 0c0d 02be
00000080: 64bd 0ebf 458d d53f 49d9 1f3f 1e70 bdbe
00000090: 9556 9ebc 5b48 8b3f 574e e13e a390 84bf
000000a0: 2613 0740 2977 c6bf 23e7 88bf c10f 163f
000000b0: c48f 8bbd bda1 e13d 8813 02bf 4a34 a23f
000000c0: 953a 9bbe 5d25 1bbf 7e64 9fbe bca0 8f3d
000000d0: 52fe e7be f4d9 0540 6fa9 9cbd a361 9f3f
000000e0: e58e aebf 9fee 44bf da21 aa3e ae21 923f
000000f0: d6b5 c33d ec68 08c0 e159 0c3f 83a2 6f3f
00000100: a43f f43f 9027 763f 199f 0d3f 0497 713f
00000110: 0bd5 ae3e f5fe 13bd 4dbb bf3f 62f2 46bf
00000120: 84d1 483f 527e 3abd 1dcc 26be 7c58 ab3f
00000130: 21b6 26be cb93 83be c717 563d 93f6 c7be
00000140: 3be2 6b3e 189b 883e 4b90 8c3f 9d96 9fbf
00000150: 9b92 75bf 5a47 e7bf 617b 3a3c c8e0 e1bd
00000160: 6fbd a0bf 8c85 223f 584d 9e3e cda2 3640
00000170: 4472 9bbf 6213 5bbe 26df 06bf f1fb 323e
00000180: 84b8 043f 58d5 c1be efdb 66be aa67 c8bf
00000190: e571 f43e ace3 87bf 19cc e33f 7578 0cbf
000001a0: fe86 ad3e 6837 473f 4e46 f73b 6371 15bf
000001b0: 7451 6abf 678b 57bd 7acf e43f 8364 933f
000001c0: f123 c73d 394b cc3f bfa9 1abf a874 b43f
000001d0: 73c5 f13d d33a 343f c795 09bf 4476 3cbf
000001e0: 170f 0c3f 1dd8 f33f e3e4 cf3d e4ea e63e
000001f0: d901 cd3e faaa 7fbf cd37 1b3e da77 21bf
00000200: c888 3640 034c f3bd d210 c53e e5eb 793f
00000210: aa02 acbf f88a 55bf bd59 06be ec76 c2bd
00000220: 7d43 38be 3e5a 8ebf ed8a ea3e adad 5fbe
00000230: 8657 0e3f 09d7 dfbd b1b5 ff3f d292 033e
00000240: f200 e03c 2ae4 1a3e 1648 54bf 4095 0140
00000250: c286 793e 2a23 9a3d 2d50 90be b9bb 9b3d
00000260: a673 d03e 618f 81be 06de cf3e 4980 453f
00000270: ede5 6cbe 06a6 8dbf 0a10 943d f0fc 5dbf
00000280: 87c5 96bf 34da 0a3f 4592 4dbe c995 18bf
00000290: f4d2 eb3e 36ec 9d3f 5051 9e3e fe11 1b3f
000002a0: 7673 193f 2007 9cbe 7f51 9dbe 8934 d23f
000002b0: e18a 853f 04e6 bdbf c4b4 243f d2ef e53f
000002c0: 8e29 b33c 8466 f3bf 096c e5bd bed3 ba3e
000002d0: 38ff a6bf 273a cabc 1a1c a7bf f2b2 68be
000002e0: 3bc6 d9bd 9503 8cbf ec47 92be 3d39 db3f
000002f0: e4bf a23f 83c5 813f 2c8a 3dbf 792a 843e
00000300: d092 67bf 189f 1340 e971 4bbf a3e3 df3f
00000310: ba7c a6bd 847c 3cbe 6d35 97bf 6d48 dd3e
00000320: e29a a33f 7849 45bf 5881 dc3f 3e3e 62be
00000330: f85f 5c3f feb0 e83f 5f08 2f3f 6e50 85be
00000340: a8f6 f43f ef81 923f d348 b13f 1862 93bf
00000350: 2371 023e 7b3f 5d3f 1329 583f 4688 ccbf
00000360: 6aa3 743f b968 b2bf 9c87 7e3d 88d4 82bf
00000370: 521b 0cbf bd52 8c3f 7e9b fd3d 9007 cc3e
00000380: 6c5c a83c a38a 89bf 88e1 883d e4d6 2f40
00000390: 27b3 5640 461a db3f 7daf abbf bc3b 4abe
000003a0: 9937 7abf 3e2d 483d c2f5 59bf b8c3 19bf
000003b0: 6d29 6cbf f2b1 113e 76b1 febe 440f a5be
000003c0: 3f9f eebf dbc8 db3e b058 1d3f ba6d 3b3e
000003d0: 99c3 ca3d ec41 0bbf 5210 443f b6ce b0bf
000003e0: c548 853e cead 293f ae5e 3a3f 30f0 153f
000003f0: d402 743e 5bcb a93c 1700 4fbf 508c 5b3f
0.1447194 -0.7756799 -0.49377397 0.9526168 -0.40743425 -0.0133390445 1.769193 -2.9003918
0.12320153 -0.86574435 -0.5350022 1.0769839 0.4854655 0.39554387 0.735811 -0.76588464
-0.03323009 -1.9264039 0.6648928 -0.7306456 0.45783442 -0.6527293 0.41440654 -0.25323772
-0.038700975 -0.9044664 -1.3552607 0.4740285 1.0222447 0.42678526 -0.36139572 -0.1270029
-0.5575774 1.6683737 0.62440926 -0.369996 -0.019328395 1.0881456 0.4400508 -1.035664
2.1105437 -1.5505115 -1.0695537 0.5861779 -0.068145305 0.11017177 -0.5081105 1.2672207
-0.30318132 -0.60603887 -0.31131357 0.070130795 -0.45311219 2.0914278 -0.076495044 1.2451671
-1.3637358 -0.76926607 0.33228952 1.1416528 0.09556167 -2.131404 0.54824644 0.9360735
1.9081922 0.9615412 0.5532089 0.94371057 0.34146914 -0.036131818 1.4979035 -0.77713597
0.78444695 -0.045530625 -0.162888 1.3386378 -0.16280414 -0.25698695 0.05226877 -0.3905531
0.23035519 0.26680827 1.0981535 -1.2467839 -0.9592683 -1.806865 0.011381955 -0.11029202
-1.255781 0.63485026 0.30918384 2.8536866 -1.2144246 -0.21394113 -0.5268425 0.1747892
0.5184405 -0.3785808 -0.22544836 -1.5656636 0.47743145 -1.0616355 1.7796661 -0.548713
0.33892053 0.7781892 0.007546223 -0.5837614 -0.9153054 -0.05262318 1.7875817 1.1515049
0.09723652 1.5960456 -0.6041526 1.4098101 0.118052386 0.7040226 -0.5374417 -0.7361796
0.54710525 1.9050328 0.101510786 0.45101082 0.40040472 -0.99870265 0.15158005 -0.63073504
2.8520985 -0.118797325 0.38489395 0.9762557 -1.3438313 -0.83415174 -0.1312017 -0.09495339
-0.17994495 -1.112129 0.45809117 -0.21843596 0.556023 -0.109296866 1.9977323 0.12848976
0.0273442 0.151261 -0.82922494 2.0247345 0.24367812 0.07526238 -0.2818617 0.07604165
0.40713233 -0.25304702 0.40599078 0.7714887 -0.23134585 -1.1066291 0.07229622 -0.86714077
-1.177903 0.542392 -0.20075329 -0.59603554 0.46059382 1.2337711 0.30921412 0.6057433
0.59941804 -0.30474186 -0.3072624 1.6422282 1.0433007 -1.483582 0.64338326 1.7963812
0.0218704 -1.901566 -0.11202247 0.3648967 -1.3046637 -0.024685932 -1.3055451 -0.22724512
-0.106335126 -1.0938593 -0.28570497 1.7126843 1.271481 1.0138401 -0.7403896 0.25813654
-0.90458393 2.3065853 -0.7947069 1.7491344 -0.081292585 -0.18406874 -1.1813179 0.4321932
1.2781641 -0.7706523 1.7226973 -0.22094056 0.86083937 1.8179014 0.6837215 -0.26037925
1.9137774 1.1445903 1.3850349 -1.1514311 0.1273847 0.8642499 0.84437674 -1.5979087
0.9556185 -1.3938209 0.062141046 -1.0221109 -0.5472919 1.096275 0.123831734 0.3984952
0.020551883 -1.0745434 0.06683642 2.747491 3.3546846 1.7117393 -1.341293 -0.1974935
-0.97741085 0.04887127 -0.8514062 -0.6006427 -0.9225071 0.14228037 -0.49744767 -0.3223821
-1.8642348 0.42926678 0.6146345 0.18303576 0.099005885 -0.54397464 0.765874 -1.3813083
0.2603208 0.6628083 0.7280072 0.5856962 0.23829204 0.02072685 -0.8085951 0.85760975

embedding_CNN_distances.weight f4 [7, 8]
00000000: d72b 853f 9e21 93bf 5f35 473e 70f4 b83e
00000010: f647 703f e47f 07bf ff0b 3c3f ea53 9e3f
00000020: 846e 37bf 021b 373f ba5e 37c0 6e64 6ebe
00000030: 7c0d 81bf ac67 0dc0 58a0 82bf 053f 7f3d
00000040: 5305 843e 3b50 95bf b917 023d dddc c3be
00000050: b689 9d3f 7627 633f c151 f53f 5baf cf3e
00000060: 2d05 f3bd 3e86 be3e 341e 0b3f d530 e0bf
00000070: 690d 703f cbe1 45bf 7d12 d63e 0261 01bf
00000080: 13b6 8cbf 37e8 30be 11f3 1e3f 3147 c63f
00000090: 81fd 0a3e 596b 37bf 1347 6b3e 3d07 bb3e
000000a0: 306c bd3d 34eb d2be e76c 51be 2948 ab3f
000000b0: 758c bb3e a6c5 69bf 361b 36bf f2c8 893f
000000c0: 0000 0000 0000 0000 0000 0000 0000 0000
000000d0: 0000 0000 0000 0000 0000 0000 0000 0000
1.0404004 -1.1494634 0.19453953 0.3612399 0.93859804 -0.5292952 0.73455805 1.2369359
-0.7165301 0.71525586 -2.8651567 -0.23280498 -1.008224 -2.2094526 -1.0205183 0.06231596
0.25785312 -1.1665109 0.031760905 -0.38254443 1.2307651 0.8873209 1.9165574 0.40563473
-0.118662216 0.37211794 0.5434296 -1.7514902 0.9377046 -0.7729766 0.4181098 -0.5053865
-1.0993065 -0.17276083 0.6208964 1.5490476 0.13573267 -0.71648175 0.22976331 0.3652896
0.09249151 -0.4119507 -0.20451699 1.3381397 0.36630598 -0.9131721 -0.7113527 1.0764449
0.0 0.0 0.0 0.0 0.0 0.0 0.0 0.0

embedding_CNN_prices.weight f4 [6, 5]
00000000: e1cb f23f e22d b13f 5ce2 a2bf 56f8 dcbf
00000010: 9ef2 80bf 78ea e3be d178 8e3f 06e0 f83f
00000020: 9802 b23e b677 7cbe 8363 0b40 8310 0fbf
00000030: 768a cdbf 713e 34bf fcea 93bf 4076 99bf
00000040: 34bb eb3f 787d a5be fa2a b5bf b122 57bf
00000050: 3dfa 1dbf d063 a13e aec8 1d3d bc0d 47bf
00000060: 8d46 6d3f 0000 0000 0000 0000 0000 0000
00000070: 0000 0000 0000 0000
1.8968469 1.3842127 -1.2725329 -1.7263286 -1.0074041 -0.44514823 1.113062 1.9443367
0.34767604 -0.24655041 2.1779487 -0.5588457 -1.605788 -0.7040778 -1.1556087 -1.1989212
1.8416505 -0.32322288 -1.415374 -0.8403731 -0.6170996 0.31521463 0.03852146 -0.7775533
0.92685777 0.0 0.0 0.0 0.0 0.0
