checkpoints/GNNNoCNN_Epoch65_valmse2.1299_testmse2.2212_ndcg0.9348.model (torch, 249600 bytes, 52 tensors)

Pair_embedding_types.weight f4 [106, 16]
000000 06 5a a9 3c 55 fc c7 bd 14 2e d0 be 6d 69 5e bf
       0.02067281 -0.097649254 -0.40660155 -0.86879617
000010 86 d4 5f 3f 15 57 bf be 85 4d 05 3e bc 68 a8 bf
       0.8743366 -0.37371126 0.13017853 -1.3156962
000020 7e df 05 3e 40 a3 82 39 2f 19 9f bf 69 2d 0a 3f
       0.13073537 0.00024917163 -1.242956 0.5397554
000030 15 ec cb bf f7 55 bd 3e 72 b2 93 3e 3c c1 36 3f
       -1.5931422 0.36979648 0.2884708 0.713886
000040 5b 4d f2 3e e1 2c 96 bf 37 b3 f6 3f 68 ee d2 be
       0.47324643 -1.1732446 1.9273442 -0.41197515
000050 71 f1 82 be 47 61 3f 3e aa 11 15 bf 08 bf 2d 3f
       -0.2557483 0.18689452 -0.5823008 0.67869616
000060 60 14 84 bf 07 b0 27 3d 34 f4 07 bf 07 16 54 40
       -1.0318718 0.040939357 -0.53107 3.3138444
000070 b4 c7 4d bf 9a d3 13 bf 8d e7 8e bf f3 bd 81 3f
       -0.8038285 -0.57744753 -1.1164414 1.0136093
000080 3a bb da 3f f2 d1 12 40 2d 95 83 bf c0 8f 1a 3e
       1.7088387 2.294064 -1.02799 0.15093899
000090 eb 76 60 3f da d4 ab bf a1 73 91 bf 43 82 88 3d
       0.87681454 -1.3424332 -1.1363412 0.066654705
0000a0 f8 8e 21 3f a7 18 06 3e 89 dd 80 3f ba 4c cd 3d
       0.6310878 0.13095342 1.0067607 0.100244
0000b0 94 26 75 bf d4 d2 b4 3d 63 6a 90 3f f5 21 ba bd
       -0.9576199 0.08829275 1.1282467 -0.09088508
0000c0 1d 11 28 bf a0 df 96 3f e6 94 c8 be 56 b4 94 bf
       -0.6565111 1.1786995 -0.391761 -1.1617534
0000d0 70 36 d7 bf 46 64 5a 3f 76 3a 00 c0 8d 6a 72 3c
       -1.6813488 0.85309255 -2.0035682 0.0147959115
0000e0 74 ea f9 3b 53 b5 87 3f 77 8e aa bf 2c c2 a3 3f
       0.007626826 1.0602211 -1.3324727 1.2793632
0000f0 ef 27 a8 3c b9 26 79 3f 22 12 9a 3f a9 ee 2e 3d
       0.020526854 0.9732471 1.2036784 0.042708073
000100 97 56 b7 bd e4 5e 3e 3e 90 fb 53 3f 2d 14 d3 bf
       -0.089520626 0.18590885 0.8280573 -1.6490532
000110 eb 39 08 40 07 7f 8a bf aa 99 44 3e e7 26 ab bf
       2.128535 -1.0820016 0.19199243 -1.3371247
000120 12 87 a6 be 20 75 15 3e 4c be 2b 3e 48 4b 6e 3f
       -0.32524925 0.14595461 0.16771811 0.9308362
000130 e6 0a c1 3e 7d e6 13 be ef 95 64 3e 99 86 52 3e
       0.37703627 -0.14443393 0.2232282 0.20559157
000140 e8 0b 9b be dc fe 24 3e e9 56 95 3e d5 e3 86 3f
       -0.3028252 0.16112846 0.2916787 1.0538279
000150 21 59 b4 be 9d ff 96 bf 74 b5 30 be 48 66 c1 be
       -0.3522425 -1.1796757 -0.17256719 -0.37773347
000160 e4 b1 2a 3f 14 ed c6 3f 83 b9 3a bf 17 94 4d bf
       0.6667769 1.55411 -0.7293932 -0.8030409
000170 f1 95 5c bf b7 64 21 3f 2f 8c 61 3f 63 99 c0 3f
       -0.8616629 0.63044304 0.8810453 1.504681
000180 53 1f b2 bf 06 d7 4d 3e c7 d7 e6 3f b3 a0 15 3e
       -1.3915809 0.20101556 1.80346 0.14612083
000190 a8 29 38 3f ee 86 55 3e 34 1f 67 bf a0 3e 0b 40
       0.7193856 0.20852253 -0.9028199 2.1756973
0001a0 c6 37 8d bf d2 ff 9d 3f 08 77 54 3e bf 24 7b bf
       -1.1032646 1.2343695 0.20748532 -0.98102945
0001b0 db 73 f0 be 8f d9 7c 3e d4 0b f1 be 9c 1a 3d bc
       -0.4696339 0.24692367 -0.47079337 -0.011541989
0001c0 6a 4e 38 3f 4c 0e c5 3f a6 91 80 3e 4a c7 c0 be
       0.7199465 1.5394988 0.2511112 -0.37652045
0001d0 9e fc 2b bf 20 b3 4b 3e 4e 43 9c be 00 be 2f be
       -0.6718234 0.1989255 -0.305201 -0.17162323
0001e0 50 fc 8e 3f 46 b3 26 c0 cc bd 87 3e 76 15 8f be
       1.117075 -2.604692 0.2651199 -0.2794606
0001f0 40 84 13 be 9a 46 bf bf 3b a1 d7 bd 6b a6 7d 3d
       -0.14405918 -1.4943421 -0.10528799 0.061926287
000200 12 b4 96 3e b5 e0 c7 3f ab 84 bb 3e d2 25 73 3f
       0.29434258 1.561545 0.36624655 0.94979584
000210 b4 a3 60 be fd 6f 90 3f b0 4f a1 bf 3a 5d 1d 3f
       -0.21937448 1.1284176 -1.2602444 0.6147038
000220 9b c0 69 3e 60 8c 80 bf ba bf b9 3f 39 9b 07 bf
       0.2282738 -1.0042839 1.4511635 -0.52971226
000230 7f 26 17 bd 93 9f a4 3f 01 69 1d bd a2 7b b0 3e
       -0.036901947 1.2861198 -0.038430218 0.34469324
000240 4f 11 72 3f e7 b1 b1 3d f5 7f da 3e ac d1 7d bf
       0.9455766 0.0867651 0.42675748 -0.9914806
000250 64 67 cf be 7f 50 72 3f d1 45 c6 3e f3 9b 1c bf
       -0.40508568 0.9465408 0.3872514 -0.6117546
000260 0d 81 1f 3f 84 33 2a bd 54 75 10 40 c1 a6 b9 3f
       0.6230629 -0.041553035 2.2571611 1.4504014
000270 c8 d6 bc 3f 62 1b 0a 3e 61 e8 d7 3e 9a 0e 99 be
       1.4753046 0.13487008 0.4216948 -0.29893953
000280 6c d9 70 bd 6c 6c ee bd 80 31 1b 3e 78 07 91 3e
       -0.0588011 -0.116417736 0.15155602 0.2832601
000290 b7 99 88 bf 1c 3b 41 bf 37 09 98 3f 53 91 86 3f
       -1.067191 -0.7548082 1.1877812 1.05131
0002a0 7f 7d b9 bf ab b4 39 3f 8b 75 4e be b4 9a ab 3f
       -1.4491423 0.725413 -0.20162027 1.3406587
0002b0 52 3e b4 3f 7d 32 49 3d b6 a9 a0 3e 4a b3 ce 3e
       1.4081519 0.049120415 0.3137948 0.40371162
0002c0 37 51 9b bf 05 ff 1e bf ed d2 10 be 11 56 68 3f
       -1.213416 -0.6210788 -0.14142962 0.90756327
0002d0 69 c1 6f be bd 54 9f bf 31 21 4b 3f f2 fa 25 3f
       -0.23413624 -1.2447735 0.7934752 0.6483604
0002e0 20 9d a4 3e 1d 4c 4f 3f 0d 48 fe 3f dd b8 5f 3e
       0.32151127 0.80975515 1.9865738 0.21847863
0002f0 4e a2 3e 3d 52 10 b8 3f e9 f6 8e be 3e 27 73 3e
       0.046541505 1.437998 -0.27922752 0.23745438
000300 ae c5 e3 3e 0a f0 c8 bf a9 35 08 3e d0 35 a3 be
       0.44486755 -1.5698254 0.1330172 -0.31876993
000310 73 51 da 3f 83 73 85 bf 00 92 07 3f 70 3c c3 3f
       1.7056106 -1.0425876 0.52957153 1.5252819
000320 4f 31 24 be 51 80 be bf dd 64 3c bf 69 71 15 3f
       -0.16034435 -1.4882909 -0.73591405 0.58376175
000330 12 1c 64 3f f1 2e 4f 3e 44 b3 bf 3d 4f d1 b3 3e
       0.8910533 0.2023275 0.09360364 0.35120627
000340 13 41 49 bf 07 6a d4 3f dc f2 c0 be d8 7d 0c 40
       -0.7861492 1.6594857 -0.37685287 2.195181
000350 82 cb a3 3f 9e 60 cf 3e 18 e3 a8 bf 9d 35 9c 3e
       1.2796481 0.405034 -1.3194304 0.30509654
000360 cc fe cf be d7 f9 75 3e 1d f7 24 bf 52 6f 11 3f
       -0.40624082 0.24021088 -0.64439565 0.56810486
000370 ae 24 a5 bf 6a fb 51 40 4d 46 03 40 03 71 05 c0
       -1.2901819 3.28097 2.0511658 -2.0850227
000380 af a4 65 bf c4 dc a3 bd 01 f6 14 c0 fb a8 ae 3f
       -0.8970441 -0.08001092 -2.327515 1.3645319
000390 52 29 86 bf 23 4e b3 be af 2e c8 3e 25 4d 7b bf
       -1.048136 -0.3502055 0.39098117 -0.9816459
0003a0 7e 84 e1 be 7c b5 23 bf 72 db 40 bf df 61 ba 3e
       -0.44046396 -0.639488 -0.75334847 0.36402795
0003b0 84 d6 ac bf 64 8d 68 bf 89 37 c9 be 99 05 c5 bf
       -1.3502965 -0.90840745 -0.39300182 -1.5392333
0003c0 cc de 8b bf 28 46 df 3e 87 f6 c7 bf 00 31 12 3d
       -1.0927367 0.43608212 -1.5622109 0.03569126
0003d0 bb 02 b4 3e ea e4 b7 3f b8 14 66 3f 98 08 ad bf
       0.35158333 1.4366734 0.89875364 -1.3518248
0003e0 16 d7 71 3f ba 4d 8e bf 89 ad 97 be 88 b1 95 be
       0.9446882 -1.111747 -0.29624584 -0.29237008
0003f0 a9 52 d3 3f fb 4d e4 be 92 61 00 c0 95 07 10 3e
       1.6509601 -0.44590744 -2.0059552 0.14065392

embedding_Pair_distances.weight f4 [7, 8]
000000 9b a1 02 3f 73 32 56 bf 1c e9 6f 3f 43 9f 3e 40
       0.5102784 -0.8367073 0.9371507 2.9784706
000010 f7 a9 2c 3f 87 a0 b4 3f 26 56 b0 be 74 16 9a 3e
       0.67446846 1.4111489 -0.34440726 0.30095255
000020 32 19 01 40 8f 98 0e 40 40 7b 54 3f 86 9a d1 bd
       2.0171628 2.2280614 0.83000565 -0.10234551
000030 be 36 be 3f 17 ce 74 bf f5 f0 cb 3f 02 e3 23 40
       1.4860456 -0.9562697 1.5932909 2.5607305
000040 88 1b 37 bf fb f5 63 bf 10 75 79 bf 83 92 a0 bd
       -0.71526384 -0.8904721 -0.9744425 -0.07840445
000050 4a 6b b5 bf ce 31 04 bf 26 7e f2 3d 70 f4 c8 bf
       -1.4173367 -0.51638496 0.11840467 -1.5699596
000060 bb f7 cc be 61 46 cb 3e f0 f5 f2 bf 61 e1 50 be
       -0.40032753 0.39702132 -1.8981304 -0.20398475
000070 1c c9 05 c0 d9 20 f1 bf df 7c 78 bf 30 91 fb be
       -2.0903997 -1.8838149 -0.9706554 -0.49134207
000080 3c 97 84 3f 0f 4a 98 3f f9 0f cc be 21 be 03 c0
       1.0358653 1.1897601 -0.39855936 -2.0584795
000090 7c bb a7 bf 83 ef 32 be 14 c8 2b bf 2e 29 90 bf
       -1.3104091 -0.17474179 -0.6710217 -1.1262567
0000a0 a1 f6 90 bd 89 f0 d5 3e 0e 2f 0a bf 55 2e 38 3e
       -0.07078291 0.41785076 -0.5397805 0.17986424
0000b0 f4 b2 b3 bf ee a5 4a bf 12 84 d4 bf 53 5f 0d bf
       -1.4038987 -0.7915944 -1.6602805 -0.5522358
0000c0 00 00 00 00 00 00 00 00 00 00 00 00 00 00 00 00
       0.0 0.0 0.0 0.0
0000d0 00 00 00 00 00 00 00 00 00 00 00 00 00 00 00 00
       0.0 0.0 0.0 0.0

embedding_Pair_prices.weight f4 [6, 5]
000000 28 74 f1 3d aa 57 f5 3e e0 ab dd 3e 42 7b 97 be
       0.11789733 0.47918445 0.43295193 -0.29586226
000010 70 d8 9c 3f 4e 28 57 3f 8c 97 4f 3c ea b7 5f 3f
       1.2253551 0.84045875 0.012670409 0.87390006
000020 f9 59 40 3f 42 a9 49 3f c2 18 18 be fa 3b 1d bf
       0.7513729 0.7877389 -0.14853194 -0.6141964
000030 57 1a 25 bf 2f 9f 0c 40 d3 4e 48 bf 0f cd 9e bf
       -0.64493316 2.1972158 -0.78245276 -1.2406329
000040 cf 70 02 c0 1e 09 fc be 07 d3 3a 3e fc a9 00 40
       -2.0381353 -0.49225706 0.18244563 2.010375
000050 13 8e 48 bd e8 aa bb bf 8f 93 cc bd 20 70 82 3f
       -0.048963618 -1.4661531 -0.09989082 1.0190468
000060 23 7d a2 bd 00 00 00 00 00 00 00 00 00 00 00 00
       -0.07934024 0.0 0.0 0.0
000070 00 00 00 00 00 00 00 00
       0.0 0.0

Pair_shop_mlp.fc_layers.0.weight f4 [64, 32]
000000 fd a5 09 3d 5f 5b 63 bd 02 1b 28 3e 16 39 49 3e
       0.033605564 -0.05550706 0.16416553 0.19650683
000010 aa 93 7d be 18 27 59 3d 30 b1 bb 3d db e4 02 be
       -0.2476336 0.0530158 0.09164655 -0.12782614
000020 53 e3 50 3d 7f bf 36 3e 17 d8 1c be 36 3f e9 3c
       0.050998043 0.17846487 -0.15316807 0.028472524
000030 5c ff f2 bd 01 e0 54 be e2 c5 84 3d d8 cb 82 3d
       -0.11865112 -0.20788576 0.06483056 0.06386536
000040 30 13 e7 3d f3 89 72 3c ef ed ee 3a 76 48 a2 3d
       0.112829566 0.0148033975 0.0018228869 0.07923977
000050 35 06 ad 3c 90 4c c6 3d 29 f3 9c 3c 51 be 7d 3e
       0.021121124 0.09682572 0.019158917 0.24779631
000060 5a 51 04 be 7b a9 7e 3c 34 3f 26 3c 9f 45 d7 3d
       -0.12921658 0.015543337 0.010146905 0.10511326
000070 04 f2 aa 3d 90 c7 66 3d d5 2b c5 bd 14 89 59 be
       0.08346942 0.05634266 -0.09627501 -0.21243697
000080 12 24 46 be cb 82 cf 3d 2c a2 ae bd 39 c7 1c 3e
       -0.19349697 0.10132369 -0.085270256 0.15310372
000090 2e d0 b0 3d 37 64 8d 3e 68 89 9a 3e 14 16 04 be
       0.08633457 0.2761552 0.30182958 -0.12899047
0000a0 ad 4c 07 be 64 ae aa bd 6b 8f bd bd b7 49 a1 3a
       -0.13212843 -0.083340436 -0.092558704 0.0012305294
0000b0 b0 ec 86 bb b5 19 19 bd ac 18 26 3c d1 f4 78 3e
       -0.004117571 -0.03737803 0.010137718 0.2431214
0000c0 02 d8 09 3d 58 39 34 be df 28 24 3c a9 ec 4c 3e
       0.033653267 -0.176 0.01001951 0.20012154
0000d0 96 fb 4d 3d 05 ed c5 bd 75 52 d6 bc 18 f4 c8 3d
       0.05028876 -0.096643485 -0.026162365 0.09812182
0000e0 35 75 cc bd 0c cd b0 3d 24 69 a7 bc 00 cc 1a be
       -0.09983293 0.086328596 -0.020435877 -0.15116882
0000f0 02 54 1e 3e 08 e6 ae bd 1d 19 4a 3e da 1a 37 3d
       0.15461734 -0.08539969 0.19736142 0.044703342
000100 31 fb 87 3d f2 ac 16 3d 88 df c4 bc 15 d3 87 bd
       0.06639708 0.036786027 -0.02403237 -0.066320576
000110 ae d7 0e 3e f9 f7 12 3e 8a c9 93 3d fc 30 ef 3d
       0.13949463 0.14352407 0.07216175 0.11679265
000120 26 70 7b 3e 4a 66 57 be 39 f9 ea bd 59 54 e7 3d
       0.245545 -0.21035114 -0.11473317 0.11295385
000130 db fb a8 bd 2b 6d 0a be 89 53 55 bd 33 a6 00 3e
       -0.082511626 -0.13518207 -0.05208162 0.125634
000140 31 f3 11 be 84 f4 17 be d4 57 1a 3e d7 9c 22 3e
       -0.14252926 -0.14839369 0.15072566 0.15880142
000150 fb 1e ce bd d8 81 ed 3d b3 97 ee ba 23 f2 05 3b
       -0.10064503 0.11597031 -0.0018203169 0.0020438514
000160 28 b2 af bd d8 ef cd 3d e5 2c ab 3d 81 9c f5 bd
       -0.085789025 0.10055512 0.08358172 -0.119927414
000170 5a 0a db 3d 2a a8 02 be e9 b7 e6 3d 6b 39 23 3d
       0.10695334 -0.12759462 0.11265547 0.03984968
000180 98 3c d6 bd 96 7e da bd 9f c6 15 bd 76 3f 9e bc
       -0.10460776 -0.106686756 -0.036566373 -0.01931737
000190 a7 ba 70 3d 30 48 18 3e e6 db 2f 3e e6 46 fd 3b
       0.058771756 0.14871287 0.17173728 0.007729399
0001a0 61 3c a0 bc dd 10 63 3e 60 45 18 be 9b 08 e5 3d
       -0.01956004 0.22174402 -0.14870214 0.11183282
0001b0 1b 5f ed 3d a6 7e 17 3e 0b bf 54 be 0f 81 2f 3e
       0.115904056 0.14794406 -0.20776002 0.17139076
0001c0 d7 b5 a1 bd f5 44 fa 3d 3b 85 32 be 8e 2a 84 bd
       -0.07896011 0.12220184 -0.17433636 -0.06453429
0001d0 eb 5c fa 3d 13 77 9b bd 3b db a7 bb 46 8b 1b 3e
       0.12224754 -0.07591071 -0.00512257 0.15189847
0001e0 a3 eb 26 3e bd c5 98 3d 5b 8e 23 3e 0e 54 a1 3d
       0.16300826 0.074595906 0.15972273 0.0787736
0001f0 59 e1 50 be fc 98 aa bc 8d 73 22 be d3 14 dd bd
       -0.20398463 -0.020824902 -0.15864392 -0.107949875
000200 2b a1 19 3d e7 79 99 3d 3b 6d 0e 3d 10 0f 1e 3e
       0.037507217 0.07493954 0.03477214 0.15435433
000210 80 81 a6 3c a8 b6 30 be e0 b8 48 3d 8e 40 dd bd
       0.020325422 -0.17257178 0.049004436 -0.108033285
000220 c3 5d 99 bd 13 c4 d7 bd b9 7b 56 3d 58 02 6b bd
       -0.07488587 -0.10535445 0.052364085 -0.057375282
000230 87 8e 67 bc 70 3f 05 be 95 9e 32 bd 8f 7c b1 3d
       -0.014133102 -0.1301248 -0.043608267 0.08666336
000240 34 48 01 be 93 ba e8 bd e1 cf bf bc 5c c9 48 bc
       -0.126252 -0.11363711 -0.023414554 -0.012255039
000250 e9 a8 09 3e af 70 72 3d 59 77 12 be 21 cb 65 3d
       0.1344334 0.059189495 -0.1430334 0.056101922
000260 0a 5b 32 be 5b 34 e6 bd d5 33 bd bd d8 32 b3 bd
       -0.17417541 -0.11240455 -0.09238402 -0.08749932
000270 47 f7 d0 3c 1f b6 19 be 7c ea 82 3d 31 98 08 be
       0.025508536 -0.1501088 0.063923806 -0.13339306
000280 8c 9d 1e 3d c7 d8 aa 3d c0 2e 81 bd 80 7d bd bb
       0.038724467 0.08342128 -0.06307745 -0.005782783
000290 b1 77 05 bc 87 4b d9 3d 5c 6e 2d 3e 11 a3 b3 3d
       -0.008146212 0.10610109 0.1693663 0.08771337
0002a0 63 d3 45 be 07 cf 4b be 42 9e 05 3b 1b 74 ef bd
       -0.19318919 -0.19903193 0.0020388518 -0.11692067
0002b0 3c 11 5e 3d 5c dd 51 be a2 3c 01 be fc 9d bf 3c
       0.054215655 -0.20494598 -0.12620786 0.023390763
0002c0 93 62 86 3a ae c8 2d 3e 26 c1 0f be 6f 01 e0 3d
       0.0010252766 0.16971084 -0.14038524 0.109377734
0002d0 f2 0a c8 bd 75 5a 12 3e c0 6d 00 3e 02 57 12 be
       -0.09767713 0.14292319 0.12541866 -0.14291003
0002e0 f2 08 39 3e d2 a3 40 3e f7 c4 7e 3d 28 22 62 bd
       0.18069819 0.18812492 0.06219956 -0.055208355
0002f0 f6 f7 d3 bd ba 53 0b 3e c7 5f d4 3c 1c b2 3e be
       -0.10350029 0.13606158 0.025924576 -0.18622631
000300 a8 76 90 3d cb 84 34 be e4 97 e2 bd fa 11 01 bd
       0.07053882 -0.17628781 -0.11064127 -0.031511284
000310 b2 cf 6c 3c 94 ec 34 be cf 1a 99 bd 87 36 13 be
       0.014453815 -0.17668372 -0.074758165 -0.1437627
000320 6f 11 4c bc 93 51 47 be ac 7a 5b bd 8b cf 0b be
       -0.012455328 -0.19464712 -0.053583786 -0.1365339
000330 b1 f9 73 3d eb 64 9d 3c a9 aa 52 bd 6e 08 cc 3d
       0.059564296 0.01921316 -0.051432285 0.09962545
000340 56 90 b6 bc f5 7c e0 3d e3 40 3d bd dd 1c 03 3e
       -0.022285622 0.10961334 -0.04620446 0.12803979
000350 a2 50 41 3d c8 34 04 be ae 43 9b bd 72 bf 45 bd
       0.047196038 -0.1291076 -0.07581268 -0.04827828
000360 53 cd 3c 3e bd 63 8f 3c fd 61 dc 3d 9e 25 47 be
       0.184377 0.017503614 0.10760877 -0.19447944
000370 ad 24 3e be cd 1d 27 bd d1 c0 be 3d 39 ec 4a bd
       -0.18568678 -0.040799905 0.093141206 -0.049541686
000380 19 aa 5b bc 4f 1c 70 bd 95 cc 82 bd 83 c0 cc 39
       -0.013407254 -0.058620747 -0.06386677 0.00039053345
000390 bd e1 18 3e 6c 7d 2e 3d 2d 9e c7 3d 78 c7 d6 3d
       0.14929862 0.04260008 0.097469665 0.104872644
0003a0 26 93 c9 bd d9 0b c2 3c 00 d3 48 3d 3e d4 14 bd
       -0.098425195 0.02368729 0.04902935 -0.036335222
0003b0 2e 5d 32 3e 3b ba 42 3e 63 21 cc 3c 7d 01 f1 3d
       0.17418358 0.19016354 0.024918264 0.11767862
0003c0 66 37 29 be 1d 3a a8 bb 08 1f 55 bd f1 53 3a be
       -0.16525039 -0.005133881 -0.052031547 -0.18196084
0003d0 73 3b c5 bd 02 4d 40 3d ef 04 20 be 16 96 16 be
       -0.0963048 0.04694844 -0.15626882 -0.1470569
0003e0 2b d3 bb 3d 8b 30 ad 3d 05 1c 6b 3e 9b 8a e0 3d
       0.091711365 0.084565245 0.22959907 0.10963937
0003f0 41 9b 7a 3c a1 99 48 3d d2 f3 c7 bc 3a 47 97 3d
       0.0152958045 0.048974637 -0.024408255 0.07386632

Pair_shop_mlp.fc_layers.0.bias f4 [64]
000000 33 9f 3f 3e 32 73 85 bc d0 10 e3 bd 8a ba af bd
       0.18713073 -0.016290281 -0.11087191 -0.085805014
000010 dc 89 c2 bd 29 8c 93 bc de 02 c9 3d 0c cd ba bd
       -0.09498951 -0.01801117 0.09815 -0.09121141
000020 0b 39 e3 bd d5 a6 b6 3d 18 3a c2 3d 7f 6f 1f 3e
       -0.110948645 0.089185394 0.09483737 0.15569876
000030 1b 66 cb bd 08 f6 ce 3d 5e 0d ba 3d 1e 48 59 bd
       -0.099315844 0.101055205 0.09084581 -0.053047292
000040 93 ee e1 bd a9 d4 b0 bd c2 83 a1 bd a3 87 a5 3d
       -0.110318325 -0.08634312 -0.07886459 0.08082511
000050 a2 16 3b 3e 78 be 14 3e c1 73 c6 bd d8 ae 62 bd
       0.18270352 0.14525783 -0.09690047 -0.055342525
000060 b6 cc 54 bd 22 da b7 bd 0f 98 92 bc 05 fe f4 3c
       -0.05195304 -0.089771524 -0.017894773 0.029906282
000070 6b 70 2e be c3 06 ec 3d 3f d8 77 3d 2b e2 f2 3c
       -0.17035072 0.11524727 0.060508963 0.02964886
000080 9a 0b 54 3d 52 c2 4a 3d 79 4b 12 bd 17 3c 7c bd
       0.051768877 0.049501725 -0.035716508 -0.061580744
000090 e8 69 b2 bc df c0 d0 3d 33 0a 9f bd 23 65 da 3d
       -0.021779016 0.10193037 -0.07765617 0.106638215
0000a0 d0 2c fe bc c7 e4 25 3d 3b 03 9d 3d a4 7d 26 3e
       -0.031027228 0.040501382 0.07666632 0.16258866
0000b0 d9 0e b5 3d 58 b8 26 bd 43 d6 3e 3e 10 60 65 bd
       0.088407226 -0.040703148 0.18636422 -0.055999815
0000c0 0a 8b ad bd 6a e1 9c bd 5f 50 94 bc e4 44 a3 3d
       -0.08473785 -0.07660182 -0.01810473 0.07972124
0000d0 c1 45 04 3e 0e b7 98 3d b7 2e ee bd ce e9 8c bd
       0.12917234 0.0745679 -0.11630004 -0.06880532
0000e0 01 ec d4 3c 15 80 10 be d6 71 0e 3d e9 ec 37 3e
       0.025991442 -0.1411136 0.03477653 0.17961468
0000f0 2b 00 e9 bd 48 3e 78 3d 38 12 17 be 07 27 53 bd
       -0.11376985 0.06060627 -0.14753044 -0.05155089

Pair_shop_mlp.fc_layers.1.weight f4 [16, 64]
000000 85 3f 92 be 0d b5 23 bd 4e 63 9a 3b cd 17 a3 3d
       -0.28564087 -0.039967585 0.004711545 0.07963524
000010 6c 52 4f 3d 90 9b a1 bc e0 92 d9 3d 01 7b b6 bd
       0.050615713 -0.019727498 0.10623717 -0.0891018
000020 28 53 23 bd 7a 81 93 bc f4 31 0c bc 35 19 da 3d
       -0.039874226 -0.018006075 -0.008556832 0.10649339
000030 3f f3 aa bd d7 7b 9f bd 0f 0e 2e be 5b ea 10 3e
       -0.08347177 -0.077872925 -0.1699755 0.141519
000040 dd 31 cf 3d 1e 2f 13 3e 72 97 02 bd 0b a6 89 bc
       0.101169325 0.14373443 -0.03188271 -0.016802808
000050 ab 1e 1a 3e 84 78 00 bd 6c a8 ab 3d 7e db 2c 3d
       0.15050761 -0.031364933 0.08381733 0.04220151
000060 ad bd 0e 3c a3 42 b2 3d 5c cb 33 be 62 a9 35 3e
       0.008712214 0.08704116 -0.17558044 0.17740396
000070 49 9a 22 3e ef 51 b1 3d 3e 18 ee bd fa aa 91 bd
       0.15879168 0.08658206 -0.116257176 -0.07112689
000080 fb 3e 35 3e d1 6c da bd bf 38 ec 3d f7 06 32 3c
       0.17699806 -0.10665286 0.11534261 0.010865918
000090 78 64 09 3e f8 87 5c 3e 12 6a 7e 3d 43 1d ce 3c
       0.13417232 0.21536243 0.062112875 0.025160437
0000a0 0d 31 47 3d e9 a8 92 3d 4e 76 46 3d 9a 86 8f bd
       0.048630763 0.07161123 0.048452668 -0.07008095
0000b0 95 6e 1e be 53 fc 10 bd 39 ca c5 3c 73 9c db 3d
       -0.15471871 -0.035396885 0.024144279 0.107232
0000c0 df 98 91 3d 87 a2 69 3d 68 d2 3d 3e e8 70 b2 bb
       0.07109236 0.057039764 0.18537295 -0.0054455884
0000d0 e3 c1 06 3e f4 e2 af 3d 12 52 02 be 0c ec 66 bd
       0.131599 0.0858821 -0.1272662 -0.056377456
0000e0 25 e9 e2 3d f0 5a cc bd 9f c0 62 3e 18 13 6c 3c
       0.11079625 -0.099782825 0.22143792 0.014408849
0000f0 61 c2 c6 3c 71 1e c1 bc 11 78 fe 3d 66 2f 51 3b
       0.024262609 -0.023574086 0.124252446 0.003191912
000100 93 6f 66 3e 72 a7 0e bc 21 a8 6c 3c 92 1a fa 3d
       0.225035 -0.008706914 0.014444382 0.12212099
000110 2c 3a 38 bd e3 68 b6 3d db 62 de 3d 90 32 ab bd
       -0.044977352 0.08906724 0.10858699 -0.083592534
000120 37 ec 97 3d d9 dd 05 3d c2 d9 ae 3d 78 15 d7 3d
       0.07418101 0.032682274 0.08537628 0.10502142
000130 f9 33 a7 3d 1e db a0 3d 52 9f cb bc 31 d2 00 3e
       0.0816421 0.07854293 -0.024856243 0.12580182
000140 ba 87 bf 3c b4 a4 9c bd 0d d4 15 3e ae e3 59 bd
       0.02338015 -0.07648602 0.14631672 -0.053195648
000150 42 a4 da bb c9 e9 9e bd c2 68 b6 3d 7d 0e b8 bd
       -0.006672413 -0.07759435 0.089067 -0.089871384
000160 e8 a8 32 3d d2 9d 71 3c 85 3d 7c bd ce 9f c8 39
       0.043618113 0.0147471 -0.061582107 0.00038266036
000170 30 00 bc bd e7 71 c3 3d ab 33 4c 3c 7d 51 bd 3d
       -0.09179723 0.095432095 0.0124634905 0.09244058
000180 3d cc 3c bd a9 4b 63 bd 42 4e f5 bd ef 58 8a 3d
       -0.046093214 -0.055492077 -0.11977817 0.06755244
000190 9c fb 7c bb c5 a8 97 bd 26 8f 75 bd cf e4 97 3d
       -0.003860212 -0.07405237 -0.05995097 0.07416689
0001a0 12 8d 94 bd 59 37 c9 3c 35 ee 05 3e 35 01 1f 3e
       -0.072534695 0.024562525 0.1307915 0.15527804
0001b0 c7 2a df bc 99 a6 98 3a 92 95 f8 3d 5c 80 51 bc
       -0.027242078 0.001164633 0.12137903 -0.012786951
0001c0 58 11 42 be 7f 97 64 bd df 5a 5c 3c 57 55 16 3c
       -0.18951929 -0.05580854 0.0134494 0.00917562
0001d0 1b a1 78 bd 0f 87 0c bd 7b f7 7c 3d 65 16 8e bd
       -0.060700517 -0.03430849 0.061759453 -0.06937865
0001e0 b9 cd a0 bb d3 63 b0 3d 29 f3 f7 bd 5f 92 0b 3e
       -0.0049073366 0.0861279 -0.12106926 0.13630055
0001f0 65 7d d6 3d 65 c0 d3 bd 31 d6 d8 bd 8f 8b a7 3d
       0.10473136 -0.10339431 -0.10587729 0.081809156
000200 a6 3b 8a 3e 00 d7 9c 3d 37 14 9d 3d e0 ec 79 3a
       0.26998633 0.076581955 0.07669871 0.00095338933
000210 64 24 e6 bd ba ba 5b 3d 8e eb 15 bc 6b ec 8d bd
       -0.1123741 0.053644873 -0.009150399 -0.06929859
000220 3a 9e 46 3d 27 bd ee 3d e2 4a 81 3c 0c 37 ec bc
       0.04849074 0.11657172 0.015782777 -0.028834842
000230 3e 76 2d bd 89 e0 f0 3c 6c 6e bc 3c ec 7c 8a bd
       -0.042349093 0.029403942 0.023001872 -0.06762108
000240 8f 9b af bc 34 43 bd 3c 30 f3 e4 3d 7b 23 0a 3e
       -0.02143648 0.023103334 0.11179197 0.13490097
000250 04 06 4c 3d 39 27 aa 3b 2f 46 18 bd 37 90 99 3d
       0.049810424 0.005192664 -0.037176307 0.0749821
000260 a4 81 3a bc b7 49 8e bd fc bc 7c 3e bf 65 51 bd
       -0.011383448 -0.06947654 0.24681467 -0.051122423
000270 9f 7a 46 bd d4 8f 2c 3e c8 e1 57 3e 35 ae da bd
       -0.048456784 0.16851741 0.21082222 -0.106777586
000280 0c c3 8d 3d 90 b6 9f 3c 6a e9 90 bd 53 da 14 bd
       0.06921968 0.019496232 -0.0707577 -0.036341023
000290 aa a5 ae bc 96 7d d8 bd 7b fd 21 3e 6b fd c4 3d
       -0.02131923 -0.105708286 0.15819351 0.09618648
0002a0 7c 03 b8 3d d4 df be bc 8e 9f be 3b ea 5e 84 bb
       0.089850396 -0.023300089 0.0058173602 -0.004039635
0002b0 d0 69 1e 3e 60 7d f2 3c b8 b1 3c 3d 49 3b d4 bd
       0.15470052 0.0296008 0.046067923 -0.1036287
0002c0 a9 dc 49 be 90 24 9a 3d f9 5d 37 be 84 ec e6 3c
       -0.19713081 0.07526505 -0.17906941 0.028188951
0002d0 fb 40 26 be 4e 6a f5 3d 11 cd 31 3d bc 2a ca 3d
       -0.16235726 0.11983167 0.043408457 0.09871432
0002e0 e8 f3 8d 3c bc a8 45 bd 44 41 3a 3d 67 b0 1b bc
       0.017328218 -0.04825662 0.0454724 -0.009502507
0002f0 df 2b 9d 3d 7a a0 e6 3d 2d 08 f0 bd a9 d5 bb 3d
       0.07674383 0.11261077 -0.117203094 0.09171612
000300 f1 c9 53 3e fb 58 8a 3d e9 17 e5 3b 68 b6 d3 bd
       0.20682503 0.06755253 0.0069913757 -0.103375256
000310 78 a6 3d 3d 91 0b b8 bc 6a b6 e9 3d 6e b8 02 3e
       0.046301335 -0.022466453 0.11411746 0.12765667
000320 96 ae f3 3d 04 3c 4a 3e 7f 0c 16 3e b5 f9 8c 3c
       0.11898534 0.19749457 0.14653204 0.017208913
000330 ad ac 12 3d 35 49 91 bd a8 2d 12 3c a3 fd bc bd
       0.035809208 -0.07094041 0.008922018 -0.09228065
000340 1b 1a 91 3d 02 7b 54 bd 2b a3 51 3d 48 12 ef 3c
       0.07085057 -0.051875122 0.051181 0.029183522
000350 26 c2 3d bd 42 20 e6 3d 6e e7 02 3e 8a 6e de 3d
       -0.046327733 0.112366214 0.12783596 0.108609274
000360 ec d7 25 3e 86 55 3e be c5 11 79 3e b0 88 9f 3d
       0.16195649 -0.18587312 0.24323185 0.07789743
000370 f3 fa 16 bc 4c ec e2 3d cf 19 3f 3e b7 ca 13 3e
       -0.009215104 0.11080226 0.18662189 0.14432798
000380 5a 1b b7 3d 19 0c 06 3d b9 d1 07 3d 41 10 50 bd
       0.08940764 0.03272638 0.03315899 -0.05079675
000390 fd 7d 07 be db 86 c6 bd 6c b2 a5 bd dc a5 4c bb
       -0.13231654 -0.096936904 -0.08090672 -0.003122679
0003a0 ad 16 30 bc 8e 95 89 3d b1 4b 90 3d b3 0f 48 3b
       -0.010747594 0.067179784 0.07045687 0.0030526936
0003b0 69 c4 75 3d 58 bb c2 bc dd 1b 0b bd 68 ba 59 3d
       0.060001764 -0.023770973 -0.03396212 0.053156286
0003c0 20 15 9b be 45 ff 10 be 92 8c 40 be ba 5d 15 3e
       -0.30289555 -0.14159878 -0.18803623 0.14586535
0003d0 ed b4 13 be c2 85 7a bd a3 91 a6 bd 22 10 6f 3d
       -0.14424486 -0.061162718 -0.08133247 0.058364995
0003e0 47 50 cc 3d 38 ec 7e bd 3f 74 c3 3d 09 07 09 3e
       0.09976249 -0.062236995 0.095436566 0.1338159
0003f0 f7 12 0b bd 67 4a 79 3d 27 c6 47 3b 67 78 25 3e
       -0.033953633 0.06086197 0.0030483098 0.16159211

Pair_shop_mlp.fc_layers.1.bias f4 [16]
000000 dd 7e ad bb 2f 9c 3f 3c a5 f1 0a 3e c1 f7 26 3d
       -0.0052946643 0.011694952 0.13568743 0.04076362
000010 e4 1b ab bd 06 16 7c 39 48 4d 8a 3c de 94 a4 bd
       -0.08354929 0.00024040797 0.016882554 -0.08036207
000020 bf 05 4d 3d b5 2c a5 bd f9 46 60 bd cc 85 94 3d
       0.050054308 -0.08065168 -0.054755185 0.07252082
000030 1a e8 ca 3d 0c e8 7f 3c 9a 0f b9 bd 15 e2 0e 3e
       0.09907551 0.015619289 -0.09036179 0.13953431

Pair_score_mlp.fc_layers.0.weight f4 [64, 32]
000000 07 af 17 be b5 fa c9 bd 10 fe 30 3e b2 2a 24 bd
       -0.14812861 -0.09862272 0.17284417 -0.04007978
000010 bf 03 99 bd 3e 26 bf bd 99 da 5f 3e 50 d8 b6 3c
       -0.07471418 -0.09333466 0.21860732 0.022319943
000020 3d 33 d3 bb 56 b3 11 be 24 6c 3f bd af e3 c7 bd
       -0.006445317 -0.14228567 -0.04673399 -0.09760224
000030 8b 50 04 be a1 c6 10 be 74 33 8f 3d f7 5e 48 3c
       -0.1292135 -0.14138271 0.06992236 0.012229673
000040 20 cd 39 be 93 32 b8 bd 6d 83 81 3e ca 10 7c bd
       -0.18144655 -0.08994021 0.25295582 -0.06153945
000050 e4 25 de 3d 0e d9 4f be b6 bf 32 3d 12 b4 fa 3d
       0.10847071 -0.20297644 0.04363986 0.12241377
000060 2f 11 1b be 03 4e 65 bd cb 3c 24 3e 1b b9 d6 bd
       -0.15143274 -0.0559826 0.16038816 -0.10484525
000070 20 4b a3 3d 6c 6c ef bc fb b1 7e be ff 5b 93 be
       0.07973313 -0.029226504 -0.24872582 -0.28781125
000080 75 a4 36 be 03 98 8c bd c1 f4 50 3e bc e1 41 3e
       -0.17836173 -0.068649314 0.20405866 0.18933767
000090 6b 36 b0 bd ca bb 33 3e 34 29 31 3e bd 5d e7 bd
       -0.086041294 0.17552105 0.17300874 -0.11297176
0000a0 09 7f fa 3d 73 70 c5 bd 04 c1 c0 bd 92 a7 17 3d
       0.12231261 -0.096405886 -0.09411815 0.037025042
0000b0 ca 14 99 3d 2f 4a 05 bd b6 cb cb bd 3b 69 89 bc
       0.07474668 -0.03254145 -0.09950964 -0.01677381
0000c0 b3 e0 a0 bd 81 1e eb bd 10 c6 38 3d da ea 25 3e
       -0.07855358 -0.114804275 0.045110762 0.1620287
0000d0 02 c0 2c bc 26 33 05 be bf 62 f1 3c e6 88 f6 bd
       -0.010543825 -0.13007793 0.029466031 -0.1203783
0000e0 2d d2 29 be 14 bb 33 3e ce 7d ef 3b e3 fc 04 be
       -0.16584082 0.17551833 0.0073086983 -0.12987094
0000f0 04 f3 51 bd 50 1a af bc cd c9 15 3e 6e e8 b3 3d
       -0.05125715 -0.021374851 0.14627762 0.08784567
000100 ca 19 00 be 07 80 e0 ba 4b 98 28 bd 0b da cf bd
       -0.12509838 -0.0017127999 -0.041160863 -0.1014901
000110 75 b4 1e 3d 7d b2 83 bc fd 6d ca 3d ef 30 fe bc
       0.038746316 -0.01607632 0.0988426 -0.031029193
000120 20 b0 05 3e 2b c4 33 be b8 43 44 3b 49 16 34 3e
       0.13055468 -0.17555301 0.002994759 0.17586626
000130 b1 c3 e4 3c dd c4 3e bd de e0 b2 3d 3d cf 37 ba
       0.027925344 -0.046574462 0.08734296 -0.0007011777
000140 26 76 8c be f1 fd 19 3d 4e 36 0a 3d de 80 61 3e
       -0.2743389 0.037595693 0.033743195 0.22021815
000150 1a 6f 63 3e 4a c4 79 3d da be 45 3e 78 e1 62 3d
       0.2221035 0.06097821 0.19311085 0.055390805
000160 66 3c 3a 3e 11 90 7b bd 2a 3c 62 bd 85 26 64 bb
       0.18187103 -0.06141669 -0.05523316 -0.0034812998
000170 1a a5 1d be 3b 97 f4 bd 92 8c b6 bd 6d 7e 10 3e
       -0.15395012 -0.119429074 -0.089135304 0.14110728
000180 08 18 2f be 99 d9 03 3e 12 2e 70 3e 22 66 38 3d
       -0.17099011 0.12875976 0.23455074 0.045019276
000190 4a f1 30 3e 9a ab 14 be 1b d6 e6 bd 6b 0b 81 3d
       0.17279544 -0.14518586 -0.11271306 0.06301006
0001a0 33 9c 1d 3e b4 1a 2a 3d fa 24 11 be b4 6c 3d 3e
       0.15391617 0.041529372 -0.14174262 0.18498498
0001b0 32 ac aa bd 66 ef 8a 3d 3e 9a bd bd ca 5d 36 3e
       -0.08333625 0.06783943 -0.09257935 0.17809215
0001c0 c5 af 10 3d a1 cf e6 bd 78 a2 d9 3d 7c 34 a0 3d
       0.035323877 -0.11270071 0.106266916 0.078225106
0001d0 34 83 be 3c 4a 1c 81 3d 60 8e ef 3d 6f 24 7e bd
       0.023255922 0.06304224 0.11697078 -0.062046465
0001e0 b5 53 10 3e 3e 07 5d be bb 52 f3 3c 1e e0 78 bd
       0.14094432 -0.21584794 0.029702535 -0.06076061
0001f0 20 b5 10 3d 47 76 63 3d 5c c3 30 3e 27 7f 23 3d
       0.035328984 0.05553272 0.17262024 0.039916184
000200 29 8e 3d be f7 9a dd bc df 2e 12 b9 21 77 e6 bd
       -0.18511261 -0.027051432 -0.00013941106 -0.11253191
000210 c4 22 0b 3e b0 4e db bc 5f f8 03 be e8 04 7c be
       0.13587481 -0.02677092 -0.12887715 -0.24611247
000220 19 5e 14 3e 61 83 85 bd 26 c6 36 be f2 e2 49 be
       0.1448902 -0.06519199 -0.17849025 -0.19715479
000230 d7 94 02 bd 9e 88 95 3c f3 b6 01 be ea 3b 20 be
       -0.031880226 0.01825362 -0.12667446 -0.15647855
000240 2d d8 51 3e 8b 8a 5a 3e 32 81 1b be c9 55 bc bd
       0.20492621 0.21341912 -0.15186003 -0.0919605
000250 f6 bd ce bd fb db c5 3d 89 b1 40 3b e1 91 40 3c
       -0.10094826 0.096610986 0.0029402694 0.01175353
000260 32 32 40 be cb a8 96 3d 63 c8 87 bc ad c1 67 3e
       -0.18769148 0.073564135 -0.016575044 0.22632475
000270 50 0c c5 bc da 3e 04 be 71 e1 4e 3d b3 e2 1b be
       -0.024053723 -0.12914601 0.050507966 -0.15223198
000280 4f 59 04 be 20 06 0f 3d 06 ed 1f 3e 06 8b 93 3d
       -0.12924694 0.03491795 0.15617761 0.07204251
000290 03 05 c9 3d 9e 11 11 3e e7 96 b5 bd 41 26 e2 bd
       0.09815409 0.14166877 -0.08866673 -0.110424526
0002a0 24 95 c1 bd 5c 51 28 bd ae f4 38 3e e5 d6 88 3d
       -0.094522744 -0.041093215 0.18062088 0.06681613
0002b0 33 d7 d7 3b 2a cd cd 3d 95 ff 21 be 3d 21 89 bd
       0.006586933 0.100488976 -0.15820153 -0.06695793
0002c0 b3 46 2f 3e eb f3 26 3e 0d c3 bb 3d 92 7f b0 ba
       0.17116813 0.16303985 0.09168062 -0.0013465753
0002d0 db f4 e4 3d 79 ff 09 be 39 4b 8a 3c 8b 93 bb 3d
       0.11179515 -0.13476361 0.016881572 0.09159001
0002e0 68 a5 87 3d 0b 98 95 3d c6 1a 48 3e a1 b4 2d be
       0.066233456 0.073043905 0.19541463 -0.16963436
0002f0 77 cd 26 3e a6 f4 13 be d6 3a 17 3e 6c 5d 88 bd
       0.16289316 -0.14448795 0.14768538 -0.06658444
000300 bc 5f 03 be 84 83 5b 3e 3c a2 25 bd e7 cb 74 bd
       -0.12829489 0.21436888 -0.040437922 -0.05976477
000310 7f a0 17 be a6 45 b0 bd 82 ad 24 3d 38 89 0f 3e
       -0.14807318 -0.086070344 0.040204532 0.14017189
000320 f6 3f 97 3b 43 09 40 3d bc ea dc bd 7f 2c 1d 3e
       0.004615779 0.046883833 -0.107869595 0.15349005
000330 f8 ce 2d bd f2 0e c2 bd da d3 09 3e 62 29 e5 3c
       -0.04243371 -0.09475507 0.13459721 0.027973834
000340 83 59 04 bb 56 24 04 3e ba bb ac bd 73 e2 4e bc
       -0.0020194955 0.12904486 -0.084342435 -0.012627232
000350 24 96 a2 bd c7 9a 76 3d cb 3d 3d 3e f1 83 25 3e
       -0.07938793 0.0602062 0.18480603 0.16163613
000360 a4 4e a9 3d ca 28 83 bd 65 74 2a 3d f9 7a 5e 3e
       0.08266953 -0.06404264 0.04161491 0.21726598
000370 2f 5f f8 bd 2e c8 01 3e fd 4c 18 3e a5 16 18 be
       -0.1212753 0.12674019 0.14873119 -0.14852388
000380 fe f3 0c 3c 07 cb 8c bd 30 4a 57 3e 9d 0c 0c 3e
       0.008603094 -0.06874662 0.21024394 0.13676687
000390 f2 05 0b 3d 54 46 8b 3c 97 89 ac bd 17 f6 b0 bd
       0.033941217 0.017001309 -0.08424681 -0.08640688
0003a0 15 0d 3c 3e f3 9e 67 3e d6 57 65 be 02 45 f8 bd
       0.18364365 0.22619228 -0.22396788 -0.12122537
0003b0 5d 8c 89 3d 9a a7 7c bd 02 8c d8 bd 13 47 01 3e
       0.06716225 -0.061683275 -0.10573579 0.12624769
0003c0 f5 b0 3a be a7 73 0d be 1e b6 4a 3c db 50 8d bc
       -0.18231566 -0.13813649 0.012372522 -0.017250469
0003d0 3e 54 7a bd 5b 95 68 3e 49 12 41 3d 09 d3 6c bc
       -0.061115496 0.22713225 0.04713658 -0.014454612
0003e0 0b dc eb bb 99 0e e2 bd 3c ce c8 bd 8d 23 ec bd
       -0.007197862 -0.110379405 -0.09804961 -0.11530218
0003f0 03 a0 e6 bd 39 75 ad bd 8c 0c 2f 3e e0 51 98 3d
       -0.112609886 -0.08469624 0.1709463 0.074374914

Pair_score_mlp.fc_layers.0.bias f4 [64]
000000 ea 38 6e 3d 47 09 54 bd f2 29 0a be a6 b3 c3 bd
       0.058159746 -0.05176666 -0.13492563 -0.095557496
000010 54 61 21 3e 91 24 23 3e ba 19 be bd 9d cd c9 bd
       0.15759784 0.15931918 -0.09282251 -0.09853671
000020 12 21 85 bd 9b cf c0 bd 57 fe 20 3e 07 46 03 3c
       -0.06500448 -0.094145976 0.15722023 0.008012301
000030 52 9a 1a 3d a5 e8 df 3d 10 25 83 bd 68 df 16 3d
       0.037744828 0.10933045 -0.064035535 0.03683415
000040 8e 78 41 3e 61 ec 8d bd 3a cf d7 3d d6 25 86 3d
       0.18893644 -0.06929851 0.10537572 0.065501854
000050 fe 3c a8 bd e7 61 1c bd 5f 0c 97 3d 3f 85 2b bd
       -0.08214758 -0.038179304 0.073754065 -0.04187512
000060 41 2d c5 3d 41 54 25 bd 45 dc c9 bb be 48 dc 3d
       0.09627772 -0.040363554 -0.0061602914 0.10756062
000070 9f 7c 21 3e 2b 48 1b bd 20 35 a1 bd f6 8a 1c 3e
       0.15770195 -0.03791062 -0.07871461 0.15287384
000080 ec f2 9d 3d e6 53 1b be cc 46 20 3c b5 cb 6c 3e
       0.07712349 -0.15168723 0.009782504 0.23124583
000090 16 8c 2f 3e 41 cd 14 3e 71 59 b6 bd 65 b1 22 bd
       0.17143282 0.14531423 -0.08903778 -0.039719958
0000a0 27 00 e7 bd e0 a1 ce 3d 17 64 20 be ea c9 fb bd
       -0.11279326 0.10089469 -0.15663181 -0.122943714
0000b0 05 72 a9 3b 3b e9 fe 3d 6f 6a 2e bd a5 eb cc bd
       0.005171063 0.12446829 -0.04258197 -0.10005883
0000c0 8e bf 54 bd 07 5d 8e bd 5c f6 32 3d 42 e2 98 bd
       -0.051940493 -0.06951337 0.043691978 -0.0746503
0000d0 8a 27 5c bd 4e 12 e9 bd d8 0f 86 bd 88 f5 0f 3e
       -0.053748645 -0.113804445 -0.06545991 0.14058506
0000e0 23 98 e1 bc c8 4e e6 3d 50 db f5 3d 28 7a e9 3d
       -0.027538365 0.11245495 0.12004721 0.114002526
0000f0 81 cb 96 3d c8 e8 28 3e 68 ef db 3d be 8a 99 bd
       0.07363034 0.16495049 0.107390225 -0.07497166

Pair_score_mlp.fc_layers.1.weight f4 [8, 64]
000000 92 f3 d6 3d 0a 56 f9 3d ef 6d 05 3e 10 5a 82 3d
       0.10495676 0.12174614 0.13030218 0.06364834
000010 50 b5 5b 3e 11 90 18 3e 20 77 82 3d 8e 90 d3 3d
       0.21455884 0.14898707 0.063703775 0.10330306
000020 88 69 12 3e 41 2a 1d 3e 98 d2 e6 bd 73 f3 f9 3c
       0.1429807 0.1534815 -0.11270636 0.030511593
000030 0e 76 0b 3d 85 49 22 be ce ba bf bc a2 87 c5 ba
       0.034048133 -0.15848358 -0.023404505 -0.0015070329
000040 7f ee 00 3e 9e 86 95 3b b6 aa 09 bd a3 57 42 3d
       0.12590979 0.0045631668 -0.03361007 0.04744686
000050 4e 80 02 3e c9 4f c5 bc c7 26 d1 3d 2c 0b 5f 3c
       0.12744257 -0.024085896 0.10212474 0.013613503
000060 cb bc d0 3d fc ce 12 3e f9 4c 22 3e 33 a2 7f 3d
       0.101922594 0.14336771 0.15849675 0.062410545
000070 f2 05 3f bd 7f b5 31 bd ce cd dd 3d bf 24 45 3c
       -0.04663653 -0.04338598 0.1083027 0.012032687
000080 a1 5d b5 3c 69 b6 ed 3d d6 15 e4 3d b9 e9 2a bb
       0.022139372 0.116070576 0.111369774 -0.002607925
000090 45 86 44 3e 91 f8 1d 3d 49 60 84 3c 97 71 e3 3d
       0.19191845 0.03856713 0.016159194 0.1110565
0000a0 f7 af 56 bd a3 3d 1c 3d d1 d0 c2 bc 23 ca a8 3d
       -0.052413907 0.03814472 -0.023781212 0.082416795
0000b0 dd 1e 45 be 7e 62 ca 3d ad f6 13 3e 79 19 d9 3d
       -0.19250055 0.09882067 0.14449568 0.10600562
0000c0 32 ef d6 bd 44 75 a5 3d f7 15 c9 bd 7c 6e a4 3d
       -0.10494842 0.08079007 -0.098186426 0.08028886
0000d0 7e 34 75 3e a5 73 8e 3c 3d 25 ba 3d 8a e9 aa bd
       0.23945805 0.017389128 0.09089134 -0.08345325
0000e0 68 6b 55 3d eb bb b9 bd 70 a2 6f bd 22 c7 ca 3d
       0.052104384 -0.09069046 -0.05850452 0.09901263
0000f0 6e c5 a1 bb 88 4a 99 3d 22 62 96 bd a5 0b 34 3e
       -0.0049368655 0.07484919 -0.07342936 0.17582567
000100 47 b4 e5 bd 55 8e d7 3d 12 ed fd bd 89 b1 12 be
       -0.11216026 0.105251946 -0.12398733 -0.14325537
000110 64 d0 e7 bd 21 57 69 bd d3 08 02 bd 77 dd 9c bd
       -0.11319044 -0.05696786 -0.031746697 -0.076594286
000120 ae ac 9c bd e0 14 d9 3c 72 63 3f be ef 9a 04 3c
       -0.076501235 0.026499212 -0.18690279 0.00809358
000130 0b d8 39 be a3 5a 47 3e 96 e0 3d be 11 3b 39 be
       -0.1814882 0.19468169 -0.18542704 -0.18088938
000140 4a 9b 8d bb e9 9f 34 3d 16 f5 83 bd e4 8e ee 3c
       -0.0043214904 0.044097815 -0.06443231 0.02912087
000150 40 01 0c be 02 42 f2 bd 35 6b 75 bd f3 f9 95 3d
       -0.13672352 -0.11828996 -0.059916694 0.07323065
000160 25 44 c2 bd 7c 94 e2 bd 19 9d f7 3d 2d 22 06 bd
       -0.09485654 -0.110634774 0.12090511 -0.032747436
000170 66 82 ce bd 5b 34 cb 3d f1 4f eb 3d 33 3a 0c bc
       -0.10083465 0.099220954 0.11489857 -0.008558798
000180 f1 b2 82 bd 87 b0 08 be 92 08 6f 3d 7b 37 e8 3d
       -0.063817866 -0.1334859 0.058357783 0.11338707
000190 d6 80 e3 bd 52 dc 89 3d 48 97 67 3d e2 00 62 3d
       -0.11108558 0.06731476 0.056540757 0.055176623
0001a0 a4 24 cc bd 93 d8 28 bd 73 b1 9e bd c0 96 f6 bd
       -0.09967926 -0.041222166 -0.077486895 -0.12040472
0001b0 51 9f 42 3e 64 27 05 3e de 45 bc bd e9 57 b2 bd
       0.19006087 0.13003308 -0.091930136 -0.08708174
0001c0 6a b5 0d 3d d8 3d f8 bd 0d 45 e4 3d f0 4a e5 bd
       0.034596838 -0.12121171 0.11145983 -0.11195934
0001d0 21 7b 1d bc db b0 1b be de 70 15 be 22 34 59 3e
       -0.009611876 -0.15204184 -0.14593837 0.21211293
0001e0 34 c6 d0 3c 79 5e d7 bd e0 3c 33 bd d8 a6 82 bd
       0.025485136 -0.10516066 -0.043759227 -0.06379479
0001f0 b4 5b 24 3e 4a 93 be 3d 3a c4 6e 3d b5 a6 68 3d
       0.16050607 0.09305437 0.058292605 0.05679961
000200 9e 42 ac 3d a0 52 e2 3d 28 f9 62 3e a8 28 2a 3e
       0.08411144 0.11050916 0.22165358 0.16617072
000210 a9 a3 3b 3d 98 b4 90 3d 24 d9 46 3e 3a 6d d6 3b
       0.045810375 0.070656955 0.1941877 0.0065437825
000220 fd ad 42 3e 40 92 31 3d 9a 8f ac 3d 91 87 79 bc
       0.19011684 0.043352365 0.08425827 -0.015230075
000230 fb 43 f2 bc c4 64 6c be 87 a2 79 3d 09 8d 82 3d
       -0.029573431 -0.23085314 0.060946014 0.063745566
000240 fe 38 83 3e 37 8c 18 3e 8e 25 01 3e 81 84 01 3d
       0.2562942 0.14897238 0.12611982 0.031620506
000250 b4 2e cd 3d 69 b6 42 bd f2 2e f5 3d 0e 89 8e 3d
       0.100186735 -0.04753724 0.11971845 0.06959735
000260 f0 5b 40 3d 21 bf 33 3d df e9 e7 3d f2 a8 76 3e
       0.04696268 0.043883447 0.11323904 0.24087885
000270 97 f7 1e bc ef e0 04 3e ee 50 85 3d 38 2a 48 3e
       -0.009702585 0.1297643 0.06509577 0.19547355
000280 70 2c c5 3d 47 e0 b6 3c 68 ff d6 3d 54 f1 f5 bc
       0.096276164 0.02232374 0.104979336 -0.0300223
000290 01 07 39 3e d0 95 7e 3b 56 9b 27 be ab 58 24 3e
       0.18069078 0.003884662 -0.1636785 0.16049449
0002a0 3d 11 9a bd 5c 3f c5 3d f3 4c ea 3d 96 d0 20 3e
       -0.07522819 0.096312255 0.11440458 0.15704569
0002b0 df d3 b4 bd bf 84 0b 3e ee df bd 3d af dd a9 bc
       -0.08829474 0.13624857 0.09271227 -0.02073559
0002c0 06 2d 19 3e 97 40 1a bd c6 5e 28 3e cc d8 e5 bc
       0.14958581 -0.037659254 0.16442403 -0.028057478
0002d0 dd 5d 8b 3d 2c c8 d2 bd 80 3a af 3d 02 f8 da bb
       0.068050124 -0.10292086 0.0855608 -0.006682397
0002e0 a6 11 06 bd f5 4e 7d 3c dd 02 c8 3d 16 2a 5c 3e
       -0.032731675 0.015460719 0.09766171 0.2150043
0002f0 82 21 d8 3d 2b cc 11 3c 2f bc c1 3d 4e a5 8c 3e
       0.10553266 0.008898775 0.09459721 0.27469867
000300 40 75 1c bd a8 4c 9e 3d 27 9c 91 3d b9 d2 06 3b
       -0.038197756 0.07729465 0.07109862 0.0020572378
000310 3c d2 84 3c 27 a2 d8 bd 1c 1b 53 3c d3 e1 83 3c
       0.016213529 -0.10577803 0.012884881 0.016098892
000320 6e 2e 20 be aa fb 04 bb 68 63 95 3d 60 9e 2a 3d
       -0.15642712 -0.0020291605 0.07294351 0.041654944
000330 95 5f c3 bc 31 87 c0 3d 6a 0f 00 be 02 4a 19 be
       -0.023849288 0.09400786 -0.1250588 -0.14969638
000340 32 ad 40 bd 85 f4 bb bd 27 fb f2 3b f1 08 52 bd
       -0.047040172 -0.09177498 0.0074151936 -0.05127806
000350 09 42 6f bd 4b b8 72 bc 23 9e 84 3d 0b b9 b4 3d
       -0.058412585 -0.014814447 0.06475475 0.08824357
000360 61 de 0b 3e 7b 00 e7 39 cc 6b 0e bd c3 7b 04 3e
       0.1365905 0.0004406011 -0.03477077 0.12937836
000370 42 8a 73 bd 56 52 67 3d 1a 18 87 3d 5a 07 9b bd
       -0.059458025 0.056475006 0.06596394 -0.075697616
000380 2a 25 43 bd 75 c8 9f bd 0e 8a b0 bc a3 26 3c bc
       -0.047642864 -0.07801906 -0.021550205 -0.011483821
000390 24 ca 23 3e 2a b8 39 be a0 19 4d 3c 44 9e c6 3c
       0.1599508 -0.1813666 0.0125183165 0.024245389
0003a0 48 48 1c bb 08 65 91 3d 04 d1 c3 bd 24 15 8a 3d
       -0.0023846794 0.07099348 -0.09561351 0.067423135
0003b0 62 63 c1 bc c8 08 e5 bd 37 45 07 be 27 01 9a bd
       -0.02360696 -0.111833155 -0.13209997 -0.07519751
0003c0 82 b3 d3 3d 09 14 15 be 96 62 01 bc 32 b0 aa bd
       0.10336973 -0.14558424 -0.00789704 -0.08334388
0003d0 3d dd 73 3d a8 df 02 be a6 2b 11 3b 9f 2d 14 3e
       0.05953716 -0.1278063 0.002215126 0.14470528
0003e0 ae e4 ca bd 3f c9 bb 3c 0c ac e0 3d 97 d1 bc 3d
       -0.099068984 0.02292311 0.10970315 0.092196636
0003f0 f3 3f 57 bd 3d f1 d8 bd 49 5e 45 3d 35 b8 e2 3c
       -0.05255122 -0.105928876 0.04818562 0.027675727

Pair_score_mlp.fc_layers.1.bias f4 [8]
000000 6a b9 bc bb 3b 11 db 3d 66 a9 ba bd d0 c0 93 3d
       -0.0057594078 0.10696646 -0.091143414 0.072145104
000010 e5 95 08 3e 7c 46 ea 3d 78 ce 7a bd ad c8 87 bd
       0.1333843 0.11439225 -0.06123206 -0.06630073

CNN_embedding_types.weight f4 [106, 16]
000000 53 31 14 3e f5 92 46 bf f1 cf fc be b2 de 73 3f
       0.1447194 -0.7756799 -0.49377397 0.9526168
000010 39 9b d0 be 02 8c 5a bc eb 74 e2 3f 05 a0 39 c0
       -0.40743425 -0.0133390445 1.769193 -2.9003918
000020 15 51 fc 3d 6c a1 5d bf e7 f5 08 bf 9c da 89 3f
       0.12320153 -0.86574435 -0.5350022 1.0769839
000030 ef 8e f8 3e ba 84 ca 3e 1c 5e 3c 3f 04 11 44 bf
       0.4854655 0.39554387 0.735811 -0.76588464
000040 46 1c 08 bd 67 94 f6 bf 6a 36 2a 3f 97 0b 3b bf
       -0.03323009 -1.9264039 0.6648928 -0.7306456
000050 46 69 ea 3e 44 19 27 bf 18 2d d4 3e 60 a8 81 be
       0.45783442 -0.6527293 0.41440654 -0.25323772
000060 ea 84 1e bd 1c 8b 67 bf 2f 79 ad bf dd b3 f2 3e
       -0.038700975 -0.9044664 -1.3552607 0.4740285
000070 ea d8 82 3f 99 83 da 3e dc 08 b9 be 0c 0d 02 be
       1.0222447 0.42678526 -0.36139572 -0.1270029
000080 64 bd 0e bf 45 8d d5 3f 49 d9 1f 3f 1e 70 bd be
       -0.5575774 1.6683737 0.62440926 -0.369996
000090 95 56 9e bc 5b 48 8b 3f 57 4e e1 3e a3 90 84 bf
       -0.019328395 1.0881456 0.4400508 -1.035664
0000a0 26 13 07 40 29 77 c6 bf 23 e7 88 bf c1 0f 16 3f
       2.1105437 -1.5505115 -1.0695537 0.5861779
0000b0 c4 8f 8b bd bd a1 e1 3d 88 13 02 bf 4a 34 a2 3f
       -0.068145305 0.11017177 -0.5081105 1.2672207
0000c0 95 3a 9b be 5d 25 1b bf 7e 64 9f be bc a0 8f 3d
       -0.30318132 -0.60603887 -0.31131357 0.070130795
0000d0 52 fe e7 be f4 d9 05 40 6f a9 9c bd a3 61 9f 3f
       -0.45311219 2.0914278 -0.076495044 1.2451671
0000e0 e5 8e ae bf 9f ee 44 bf da 21 aa 3e ae 21 92 3f
       -1.3637358 -0.76926607 0.33228952 1.1416528
0000f0 d6 b5 c3 3d ec 68 08 c0 e1 59 0c 3f 83 a2 6f 3f
       0.09556167 -2.131404 0.54824644 0.9360735
000100 a4 3f f4 3f 90 27 76 3f 19 9f 0d 3f 04 97 71 3f
       1.9081922 0.9615412 0.5532089 0.94371057
000110 0b d5 ae 3e f5 fe 13 bd 4d bb bf 3f 62 f2 46 bf
       0.34146914 -0.036131818 1.4979035 -0.77713597
000120 84 d1 48 3f 52 7e 3a bd 1d cc 26 be 7c 58 ab 3f
       0.78444695 -0.045530625 -0.162888 1.3386378
000130 21 b6 26 be cb 93 83 be c7 17 56 3d 93 f6 c7 be
       -0.16280414 -0.25698695 0.05226877 -0.3905531
000140 3b e2 6b 3e 18 9b 88 3e 4b 90 8c 3f 9d 96 9f bf
       0.23035519 0.26680827 1.0981535 -1.2467839
000150 9b 92 75 bf 5a 47 e7 bf 61 7b 3a 3c c8 e0 e1 bd
       -0.9592683 -1.806865 0.011381955 -0.11029202
000160 6f bd a0 bf 8c 85 22 3f 58 4d 9e 3e cd a2 36 40
       -1.255781 0.63485026 0.30918384 2.8536866
000170 44 72 9b bf 62 13 5b be 26 df 06 bf f1 fb 32 3e
       -1.2144246 -0.21394113 -0.5268425 0.1747892
000180 84 b8 04 3f 58 d5 c1 be ef db 66 be aa 67 c8 bf
       0.5184405 -0.3785808 -0.22544836 -1.5656636
000190 e5 71 f4 3e ac e3 87 bf 19 cc e3 3f 75 78 0c bf
       0.47743145 -1.0616355 1.7796661 -0.548713
0001a0 fe 86 ad 3e 68 37 47 3f 4e 46 f7 3b 63 71 15 bf
       0.33892053 0.7781892 0.007546223 -0.5837614
0001b0 74 51 6a bf 67 8b 57 bd 7a cf e4 3f 83 64 93 3f
       -0.9153054 -0.05262318 1.7875817 1.1515049
0001c0 f1 23 c7 3d 39 4b cc 3f bf a9 1a bf a8 74 b4 3f
       0.09723652 1.5960456 -0.6041526 1.4098101
0001d0 73 c5 f1 3d d3 3a 34 3f c7 95 09 bf 44 76 3c bf
       0.118052386 0.7040226 -0.5374417 -0.7361796
0001e0 17 0f 0c 3f 1d d8 f3 3f e3 e4 cf 3d e4 ea e6 3e
       0.54710525 1.9050328 0.101510786 0.45101082
0001f0 d9 01 cd 3e fa aa 7f bf cd 37 1b 3e da 77 21 bf
       0.40040472 -0.99870265 0.15158005 -0.63073504
000200 c8 88 36 40 03 4c f3 bd d2 10 c5 3e e5 eb 79 3f
       2.8520985 -0.118797325 0.38489395 0.9762557
000210 aa 02 ac bf f8 8a 55 bf bd 59 06 be ec 76 c2 bd
       -1.3438313 -0.83415174 -0.1312017 -0.09495339
000220 7d 43 38 be 3e 5a 8e bf ed 8a ea 3e ad ad 5f be
       -0.17994495 -1.112129 0.45809117 -0.21843596
000230 86 57 0e 3f 09 d7 df bd b1 b5 ff 3f d2 92 03 3e
       0.556023 -0.109296866 1.9977323 0.12848976
000240 f2 00 e0 3c 2a e4 1a 3e 16 48 54 bf 40 95 01 40
       0.0273442 0.151261 -0.82922494 2.0247345
000250 c2 86 79 3e 2a 23 9a 3d 2d 50 90 be b9 bb 9b 3d
       0.24367812 0.07526238 -0.2818617 0.07604165
000260 a6 73 d0 3e 61 8f 81 be 06 de cf 3e 49 80 45 3f
       0.40713233 -0.25304702 0.40599078 0.7714887
000270 ed e5 6c be 06 a6 8d bf 0a 10 94 3d f0 fc 5d bf
       -0.23134585 -1.1066291 0.07229622 -0.86714077
000280 87 c5 96 bf 34 da 0a 3f 45 92 4d be c9 95 18 bf
       -1.177903 0.542392 -0.20075329 -0.59603554
000290 f4 d2 eb 3e 36 ec 9d 3f 50 51 9e 3e fe 11 1b 3f
       0.46059382 1.2337711 0.30921412 0.6057433
0002a0 76 73 19 3f 20 07 9c be 7f 51 9d be 89 34 d2 3f
       0.59941804 -0.30474186 -0.3072624 1.6422282
0002b0 e1 8a 85 3f 04 e6 bd bf c4 b4 24 3f d2 ef e5 3f
       1.0433007 -1.483582 0.64338326 1.7963812
0002c0 8e 29 b3 3c 84 66 f3 bf 09 6c e5 bd be d3 ba 3e
       0.0218704 -1.901566 -0.11202247 0.3648967
0002d0 38 ff a6 bf 27 3a ca bc 1a 1c a7 bf f2 b2 68 be
       -1.3046637 -0.024685932 -1.3055451 -0.22724512
0002e0 3b c6 d9 bd 95 03 8c bf ec 47 92 be 3d 39 db 3f
       -0.106335126 -1.0938593 -0.28570497 1.7126843
0002f0 e4 bf a2 3f 83 c5 81 3f 2c 8a 3d bf 79 2a 84 3e
       1.271481 1.0138401 -0.7403896 0.25813654
000300 d0 92 67 bf 18 9f 13 40 e9 71 4b bf a3 e3 df 3f
       -0.90458393 2.3065853 -0.7947069 1.7491344
000310 ba 7c a6 bd 84 7c 3c be 6d 35 97 bf 6d 48 dd 3e
       -0.081292585 -0.18406874 -1.1813179 0.4321932
000320 e2 9a a3 3f 78 49 45 bf 58 81 dc 3f 3e 3e 62 be
       1.2781641 -0.7706523 1.7226973 -0.22094056
000330 f8 5f 5c 3f fe b0 e8 3f 5f 08 2f 3f 6e 50 85 be
       0.86083937 1.8179014 0.6837215 -0.26037925
000340 a8 f6 f4 3f ef 81 92 3f d3 48 b1 3f 18 62 93 bf
       1.9137774 1.1445903 1.3850349 -1.1514311
000350 23 71 02 3e 7b 3f 5d 3f 13 29 58 3f 46 88 cc bf
       0.1273847 0.8642499 0.84437674 -1.5979087
000360 6a a3 74 3f b9 68 b2 bf 9c 87 7e 3d 88 d4 82 bf
       0.9556185 -1.3938209 0.062141046 -1.0221109
000370 52 1b 0c bf bd 52 8c 3f 7e 9b fd 3d 90 07 cc 3e
       -0.5472919 1.096275 0.123831734 0.3984952
000380 6c 5c a8 3c a3 8a 89 bf 88 e1 88 3d e4 d6 2f 40
       0.020551883 -1.0745434 0.06683642 2.747491
000390 27 b3 56 40 46 1a db 3f 7d af ab bf bc 3b 4a be
       3.3546846 1.7117393 -1.341293 -0.1974935
0003a0 99 37 7a bf 3e 2d 48 3d c2 f5 59 bf b8 c3 19 bf
       -0.97741085 0.04887127 -0.8514062 -0.6006427
0003b0 6d 29 6c bf f2 b1 11 3e 76 b1 fe be 44 0f a5 be
       -0.9225071 0.14228037 -0.49744767 -0.3223821
0003c0 3f 9f ee bf db c8 db 3e b0 58 1d 3f ba 6d 3b 3e
       -1.8642348 0.42926678 0.6146345 0.18303576
0003d0 99 c3 ca 3d ec 41 0b bf 52 10 44 3f b6 ce b0 bf
       0.099005885 -0.54397464 0.765874 -1.3813083
0003e0 c5 48 85 3e ce ad 29 3f ae 5e 3a 3f 30 f0 15 3f
       0.2603208 0.6628083 0.7280072 0.5856962
0003f0 d4 02 74 3e 5b cb a9 3c 17 00 4f bf 50 8c 5b 3f
       0.23829204 0.02072685 -0.8085951 0.85760975

embedding_CNN_distances.weight f4 [7, 8]
000000 d7 2b 85 3f 9e 21 93 bf 5f 35 47 3e 70 f4 b8 3e
       1.0404004 -1.1494634 0.19453953 0.3612399
000010 f6 47 70 3f e4 7f 07 bf ff 0b 3c 3f ea 53 9e 3f
       0.93859804 -0.5292952 0.73455805 1.2369359
000020 84 6e 37 bf 02 1b 37 3f ba 5e 37 c0 6e 64 6e be
       -0.7165301 0.71525586 -2.8651567 -0.23280498
000030 7c 0d 81 bf ac 67 0d c0 58 a0 82 bf 05 3f 7f 3d
       -1.008224 -2.2094526 -1.0205183 0.06231596
000040 53 05 84 3e 3b 50 95 bf b9 17 02 3d dd dc c3 be
       0.25785312 -1.1665109 0.031760905 -0.38254443
000050 b6 89 9d 3f 76 27 63 3f c1 51 f5 3f 5b af cf 3e
       1.2307651 0.8873209 1.9165574 0.40563473
000060 2d 05 f3 bd 3e 86 be 3e 34 1e 0b 3f d5 30 e0 bf
       -0.118662216 0.37211794 0.5434296 -1.7514902
000070 69 0d 70 3f cb e1 45 bf 7d 12 d6 3e 02 61 01 bf
       0.9377046 -0.7729766 0.4181098 -0.5053865
000080 13 b6 8c bf 37 e8 30 be 11 f3 1e 3f 31 47 c6 3f
       -1.0993065 -0.17276083 0.6208964 1.5490476
000090 81 fd 0a 3e 59 6b 37 bf 13 47 6b 3e 3d 07 bb 3e
       0.13573267 -0.71648175 0.22976331 0.3652896
0000a0 30 6c bd 3d 34 eb d2 be e7 6c 51 be 29 48 ab 3f
       0.09249151 -0.4119507 -0.20451699 1.3381397
0000b0 75 8c bb 3e a6 c5 69 bf 36 1b 36 bf f2 c8 89 3f
       0.36630598 -0.9131721 -0.7113527 1.0764449
0000c0 00 00 00 00 00 00 00 00 00 00 00 00 00 00 00 00
       0.0 0.0 0.0 0.0
0000d0 00 00 00 00 00 00 00 00 00 00 00 00 00 00 00 00
       0.0 0.0 0.0 0.0

embedding_CNN_prices.weight f4 [6, 5]
000000 e1 cb f2 3f e2 2d b1 3f 5c e2 a2 bf 56 f8 dc bf
       1.8968469 1.3842127 -1.2725329 -1.7263286
000010 9e f2 80 bf 78 ea e3 be d1 78 8e 3f 06 e0 f8 3f
       -1.0074041 -0.44514823 1.113062 1.9443367
000020 98 02 b2 3e b6 77 7c be 83 63 0b 40 83 10 0f bf
       0.34767604 -0.24655041 2.1779487 -0.5588457
000030 76 8a cd bf 71 3e 34 bf fc ea 93 bf 40 76 99 bf
       -1.605788 -0.7040778 -1.1556087 -1.1989212
000040 34 bb eb 3f 78 7d a5 be fa 2a b5 bf b1 22 57 bf
       1.8416505 -0.32322288 -1.415374 -0.8403731
000050 3d fa 1d bf d0 63 a1 3e ae c8 1d 3d bc 0d 47 bf
       -0.6170996 0.31521463 0.03852146 -0.7775533
000060 8d 46 6d 3f 00 00 00 00 00 00 00 00 00 00 00 00
       0.92685777 0.0 0.0 0.0
000070 00 00 00 00 00 00 00 00
       0.0 0.0
