checkpoints/GNNNoCNN_Epoch56_valmse2.1493_testmse2.2805_ndcg0.9327.model (torch, 249600 bytes, 52 tensors)

Pair_embedding_types.weight f4 [106, 16]
000000 1d b9 b0 3c bc 30 c4 bd 3d b2 cf be d2 2b 5e bf
       0.021572644 -0.09579608 -0.40565673 -0.86785614
000010 a1 0b 5f 3f 4b 81 bf be b0 97 04 3e 3a a2 a7 bf
       0.8712712 -0.3740333 0.12948489 -1.3096383
000020 4f 72 00 3e ab ff 16 bb 7e 01 9f bf 1b 2b 0a 3f
       0.12543605 -0.0023040574 -1.242233 0.53972024
000030 6d 6a cb bf 69 8f bc 3e 0e 65 90 3e 7d 72 36 3f
       -1.5891854 0.36828163 0.282021 0.71268445
000040 30 f6 f0 3e 23 49 96 bf 37 da f6 3f 95 74 d3 be
       0.47062826 -1.174107 1.9285344 -0.41299883
000050 49 a8 82 be 55 3f 3f 3e f5 1c 17 bf f9 56 2d 3f
       -0.25519016 0.18676503 -0.5902856 0.67710835
000060 97 6b 84 bf 6e 50 28 3d 90 1d 08 bf f9 12 54 40
       -1.0345334 0.04109233 -0.5317011 3.313658
000070 cd 4e 4e bf 41 68 12 bf 7a ef 8e bf 2f 81 81 3f
       -0.8058899 -0.5719033 -1.1166832 1.0117549
000080 fc 15 db 3f 72 83 12 40 d2 b1 83 bf 61 5e 18 3e
       1.7116084 2.2892728 -1.0288641 0.14879753
000090 31 c2 60 3f 43 b7 aa bf 09 6e 91 bf a0 78 87 3d
       0.8779631 -1.3337177 -1.1361705 0.06614804
0000a0 73 32 22 3f 7f 52 05 3e 59 32 81 3f a1 06 d2 3d
       0.6335823 0.13019751 1.009349 0.102551706
0000b0 1a f3 74 bf 5f 12 bc 3d e7 ff 90 3f 66 4b b0 bd
       -0.95683444 0.091831915 1.1328095 -0.08608131
0000c0 30 6a 27 bf da e9 96 3f 6a f2 c7 be 6b d1 94 bf
       -0.65396404 1.1790116 -0.39052135 -1.1626409
0000d0 38 e5 d6 bf c8 34 5a 3f f7 31 00 c0 7d 06 70 3c
       -1.6788702 0.8523679 -2.0030496 0.014649984
0000e0 98 b4 36 3c 68 56 87 3f d2 e7 aa bf 9b be a3 3f
       0.011151455 1.0573244 -1.3351996 1.2792543
0000f0 b6 9d 85 3c 3d 7d 78 3f af 7e 9b 3f 1a 4a 41 3d
       0.016310554 0.970661 1.2148036 0.04718981
000100 66 0c bd bd 4f 68 41 3e 5d 5e 54 3f 09 c1 d2 bf
       -0.092308804 0.18887447 0.82956487 -1.646516
000110 d4 73 08 40 17 84 8a bf 46 61 4c 3e 36 c0 ab bf
       2.1320696 -1.0821561 0.19958982 -1.3418033
000120 06 0b a2 be b3 7c 14 3e 0f 13 2b 3e 9f 9f 6f 3f
       -0.31649035 0.14500694 0.16706489 0.9360294
000130 39 5b c1 3e ca 69 1a be 07 63 6b 3e 86 d7 4e 3e
       0.3776491 -0.15079418 0.22986995 0.20199403
000140 5b ad 9e be 7f 56 21 3e 4d 80 94 3e e4 da 86 3f
       -0.30991635 0.15755652 0.29004136 1.053555
000150 9c 04 b0 be 92 6f 96 bf dc 7d 2f be 38 3a c4 be
       -0.34378517 -1.1752799 -0.17137855 -0.38325667
000160 90 4e 2b 3f ab 90 c6 3f 26 a2 39 bf aa 8c 4e bf
       0.6691675 1.5512899 -0.72513044 -0.80683386
000170 22 3b 5b bf ea 4d 21 3f 51 39 62 3f b2 d8 bf 3f
       -0.85637105 0.6300951 0.8836871 1.4988005
000180 9b 1b b2 bf 2e 06 5a 3e 75 10 e7 3f 02 ac 12 3e
       -1.3914675 0.2129142 1.8051897 0.14323428
000190 fb 63 39 3f 51 f2 5a 3e 12 b4 64 bf 30 8d 0b 40
       0.72418183 0.21381499 -0.89337265 2.1804924
0001a0 2d c0 8d bf 86 44 9d 3f d9 7a 5b 3e 24 14 7c bf
       -1.1074272 1.2286537 0.21433581 -0.9846823
0001b0 3e d4 ef be b6 f5 77 3e f7 f4 f2 be c3 5c 8c bc
       -0.46841615 0.24214825 -0.47452518 -0.017134076
0001c0 d0 db 38 3f a3 04 c5 3f 20 37 81 3e f3 94 c0 be
       0.7221041 1.539204 0.2523737 -0.3761364
0001d0 88 9f 28 bf 56 be 49 3e 36 9e 9a be d6 13 2d be
       -0.65868425 0.19701514 -0.3019883 -0.16902098
0001e0 26 d7 8e 3f ed 87 26 c0 e3 8d 86 3e 46 fa 8e be
       1.1159408 -2.6020463 0.26280126 -0.27925318
0001f0 12 4b 1d be 05 df bf bf ea 46 d9 bd 13 89 8a 3d
       -0.15360668 -1.4989935 -0.10609229 0.06764426
000200 6e 70 92 3e ca 08 c7 3f 21 c0 bb 3e 8f 3c 76 3f
       0.28601402 1.5549557 0.3667002 0.96186155
000210 be f4 57 be 27 26 90 3f 4e 54 a2 bf 3f 21 1c 3f
       -0.21089455 1.1261643 -1.2681978 0.6098823
000220 f2 56 65 3e eb 9a 80 bf b4 08 ba 3f a2 77 08 bf
       0.22396448 -1.0047277 1.4533906 -0.53307545
000230 92 87 0b bd 10 09 a4 3f 7a 23 19 bd 3b 5b b0 3e
       -0.034064837 1.2815266 -0.03738735 0.34444603
000240 20 11 72 3f 3a 96 aa 3d 20 64 db 3e 75 4f 7c bf
       0.9455738 0.08329435 0.42849827 -0.9855874
000250 cd 01 d0 be cd 69 71 3f 5c 6f c4 3e 94 b2 1b bf
       -0.40626374 0.94302064 0.3836621 -0.60819364
000260 10 07 1f 3f 2e d7 28 bd c1 69 10 40 8a de b8 3f
       0.6212015 -0.041220836 2.2564547 1.4442914
000270 69 96 bc 3f 7a 9f 07 3e 17 54 d6 3e b2 1e 99 be
       1.4733402 0.13244429 0.4186103 -0.2990623
000280 16 8d 73 bd ea ac f4 bd e3 1a 19 3e f8 3f 8f 3e
       -0.059460722 -0.11947043 0.14951663 0.27978492
000290 a7 b0 88 bf 48 3e 42 bf ce 2f 98 3f 57 34 87 3f
       -1.067891 -0.75876284 1.1889589 1.0562848
0002a0 df 3b b9 bf 2d 9e 38 3f b6 99 53 be 26 62 ab 3f
       -1.4471396 0.7211636 -0.20664105 1.3389328
0002b0 6f e1 b3 3f b3 79 47 3d 0f c2 9f 3e 90 99 d0 3e
       1.4053172 0.048700046 0.31202742 0.4074216
0002c0 18 bc 9b bf 71 22 1f bf ee d4 12 be b0 8f 69 3f
       -1.2166777 -0.6216193 -0.14339039 0.91234875
0002d0 9e f5 6d be 7a 13 9f bf df 4f 4b 3f 5a 6e 25 3f
       -0.23238227 -1.2427819 0.7941875 0.6462151
0002e0 1d c4 a3 3e 00 f6 4e 3f 26 5c fe 3f 31 f0 61 3e
       0.3198556 0.80844116 1.9871871 0.22064282
0002f0 2e 38 43 3d d1 2b b7 3f 2d e4 8f be cf 02 72 3e
       0.047661 1.4310247 -0.28103772 0.23633884
000300 42 5d e4 3e ce 45 c8 bf 9b 3c 01 3e f7 2e a5 be
       0.446024 -1.5646303 0.12620775 -0.32262394
000310 06 0b da 3f ce bd 83 bf 9c cf 07 3f 1f 49 c3 3f
       1.7034614 -1.0292299 0.5305116 1.525669
000320 a8 75 26 be 91 c9 bd bf 28 d2 3b bf b5 26 17 3f
       -0.1625582 -1.4827138 -0.7336755 0.5904344
000330 b7 29 64 3f 44 e4 4b 3e f6 ec c3 3d a7 13 b5 3e
       0.8912615 0.19911295 0.09566681 0.35366556
000340 a0 a0 4c bf a3 85 d4 3f 0d 8d ba be 1d 23 0c 40
       -0.79932594 1.6603283 -0.36435738 2.1896431
000350 56 8c a3 3f 40 72 cc 3e 10 75 a9 bf 7a f6 9a 3e
       1.2777202 0.39930916 -1.323885 0.30266172
000360 6c cb cb be eb 06 7f 3e 26 71 26 bf 0c 53 10 3f
       -0.39803636 0.24904983 -0.650164 0.5637672
000370 a8 d7 a5 bf fd 5e 52 40 33 58 03 40 fb 3c 05 c0
       -1.2956438 3.2870476 2.0522583 -2.081847
000380 9b c9 65 bf cc 94 8d bd b5 17 15 c0 7c 9a ae 3f
       -0.8976075 -0.069131464 -2.329572 1.3640895
000390 4e 5b 86 bf f4 4d b3 be f4 e2 c8 3e fc fa 7a bf
       -1.0496614 -0.3502041 0.39235651 -0.9803922
0003a0 ab d4 e1 be 4a a1 22 bf 8f 55 40 bf bd 03 bc 3e
       -0.44107565 -0.6352736 -0.7513055 0.36721602
0003b0 7d 94 ad bf 8d bc 69 bf a6 9a c8 be a6 3f c5 bf
       -1.356094 -0.9130333 -0.39180487 -1.5410049
0003c0 3b 24 8c bf a9 99 dd 3e 3b 1f c7 bf 58 ed 16 3d
       -1.0948557 0.43281296 -1.5556406 0.036847442
0003d0 a4 30 b2 3e 3c 9e b7 3f 0c dc 65 3f fe 30 ad bf
       0.34802735 1.4345164 0.8978889 -1.3530576
0003e0 c1 f0 71 3f f9 0b 8d bf 54 fd 94 be 65 62 98 be
       0.94507986 -1.1019279 -0.29099524 -0.2976257
0003f0 31 0d d3 3f 3f 88 e0 be f2 25 00 c0 d1 ff 08 3e
       1.6488401 -0.43853948 -2.002316 0.13378836

embedding_Pair_distances.weight f4 [7, 8]
000000 aa 2e 02 3f 73 4d 56 bf b8 c1 6f 3f ae 42 3e 40
       0.50852454 -0.8371193 0.93654966 2.9728198
000010 08 60 2b 3f 02 98 b4 3f e0 07 af be 68 50 98 3e
       0.6694341 1.4108889 -0.34185696 0.29748845
000020 cc fa 00 40 18 9b 0e 40 17 79 54 3f a9 8c d1 bd
       2.0153074 2.2282162 0.8299727 -0.10231907
000030 97 22 be 3f 6b 60 75 bf 10 d6 cb 3f c1 b6 23 40
       1.4854306 -0.9585025 1.5924702 2.5580294
000040 4a ad 36 bf 4d b1 63 bf 1a 17 78 bf 9e 33 97 bd
       -0.7135817 -0.88942415 -0.9691025 -0.07382892
000050 44 90 b5 bf 3e cf 04 bf 74 cd f4 3d 14 ab c8 bf
       -1.4184651 -0.51878726 0.119532496 -1.5677209
000060 2a 3c d0 be 53 28 cb 3e e0 f9 f2 bf 1a e8 53 be
       -0.40670902 0.39679202 -1.8982506 -0.20694008
000070 e4 a1 05 c0 f0 8f f0 bf ad 1b 78 bf fd 83 fc be
       -2.088006 -1.8793926 -0.9691723 -0.4931945
000080 f1 d4 84 3f e1 0c 98 3f 8a 95 cb be 51 35 03 c0
       1.0377485 1.187893 -0.39762527 -2.0501292
000090 05 40 a7 bf 62 02 37 be 13 7d 2c bf 0b b2 8f bf
       -1.3066412 -0.17872003 -0.6737835 -1.1226209
0000a0 73 51 86 bd 9b 3d d6 3e cd c7 09 bf 80 73 38 3e
       -0.06558504 0.41843876 -0.53820497 0.1801281
0000b0 68 04 b4 bf be 9a 49 bf d8 a0 d4 bf 58 52 0c bf
       -1.4063845 -0.7875174 -1.6611586 -0.54813147
0000c0 00 00 00 00 00 00 00 00 00 00 00 00 00 00 00 00
       0.0 0.0 0.0 0.0
0000d0 00 00 00 00 00 00 00 00 00 00 00 00 00 00 00 00
       0.0 0.0 0.0 0.0

embedding_Pair_prices.weight f4 [6, 5]
000000 d6 b4 de 3d 72 ff ef 3e 3b ea d7 3e f8 4a 8f be
       0.108743355 0.46874577 0.4217089 -0.27986884
000010 b4 3d 9c 3f 4e 76 59 3f 5c 01 db 3c 9b 43 62 3f
       1.220633 0.84946144 0.026734047 0.8838441
000020 e9 f4 3d 3f 5a 00 4d 3f e1 bb 19 be 9f bf 1d bf
       0.7420183 0.8007866 -0.15013076 -0.61620516
000030 37 46 25 bf 8d aa 0c 40 20 85 47 bf 51 79 9e bf
       -0.64560264 2.1979096 -0.7793751 -1.2380773
000040 01 52 02 c0 c0 18 fb be 3c c5 37 3e 62 5f 00 40
       -2.0362551 -0.4904232 0.17946333 2.0058217
000050 30 6d 31 bd 5d 19 bb bf a7 87 c3 bd 32 7c 81 3f
       -0.04331702 -1.4617115 -0.09547358 1.0116026
000060 53 fb a7 bd 00 00 00 00 00 00 00 00 00 00 00 00
       -0.08202233 0.0 0.0 0.0
000070 00 00 00 00 00 00 00 00
       0.0 0.0

Pair_shop_mlp.fc_layers.0.weight f4 [64, 32]
000000 25 e4 08 3d 6a 85 4b bd 4d b4 26 3e de a6 45 3e
       0.0334207 -0.04968778 0.16279717 0.19301936
000010 2c 77 75 be 2d 84 53 3d ab bf a9 3d 0d 64 01 be
       -0.23971242 0.051639725 0.08288511 -0.12635823
000020 cc 6c 68 3d 05 fa 2e 3e 17 de 1c be 6b f2 e2 3c
       0.05674438 0.17087562 -0.15319096 0.027703485
000030 63 0c ff bd e9 bf 53 be 45 12 88 3d 18 ea 85 3d
       -0.124535345 -0.20678677 0.0664411 0.065387905
000040 01 c8 e3 3d 1c 56 66 3c d9 a9 e1 b9 a5 4e 9f 3d
       0.11122132 0.014058616 -0.0004304189 0.07778672
000050 a2 ca 9e 3c 80 b6 c4 3d 4c 39 95 3c 59 79 7c 3e
       0.019383732 0.096051216 0.018215798 0.24655665
000060 a6 f3 04 be 87 cf 91 3c 2f 2b 37 3c c2 8d c3 3d
       -0.1298357 0.017799152 0.011179729 0.095485225
000070 ab fb af 3d 4c a4 64 3d 3d f7 c2 bd a1 99 52 be
       0.08592924 0.05582075 -0.09519813 -0.20566417
000080 b6 85 40 be 59 0e d1 3d 7e b3 ab bd 4e 55 17 3e
       -0.18801007 0.10207815 -0.08383845 0.14778635
000090 bf 63 b0 3d 1f 1a 85 3e ef 55 97 3e 8b e6 03 be
       0.08612775 0.2599649 0.2955775 -0.12880914
0000a0 7f c5 0a be e4 b0 a0 bd 62 7d c3 bd dc a2 ae 3b
       -0.13551901 -0.07846239 -0.09545399 0.005329473
0000b0 e8 80 53 bc 6e f8 17 bd 4e a2 84 3c 9c 89 75 3e
       -0.012909152 -0.037102155 0.016190674 0.23978275
0000c0 68 22 18 3d 09 bd 32 be ba 9a 66 3c bd 3a 4d 3e
       0.037142187 -0.17454924 0.014074976 0.20041938
0000d0 11 79 63 3d 4e 8c c0 bd aa ac aa bc 46 54 cf 3d
       0.05553538 -0.09401761 -0.020834286 0.10123496
0000e0 2e 3a cd bd fc 0c af 3d 5d 8e 88 bc 97 ee 1d be
       -0.100208625 0.085473984 -0.016669447 -0.15423046
0000f0 25 a1 22 3e 2d 47 ab bd 42 6e 4a 3e 3a cc 38 3d
       0.15881784 -0.08363185 0.19768623 0.04511664
000100 e7 29 82 3d b1 bc 23 3d 6d c8 bb bc d6 30 8a bd
       0.063556485 0.039974872 -0.022922719 -0.06747596
000110 61 e1 09 3e fb 1f 0f 3e 11 11 8f 3d 27 02 e6 3d
       0.13464881 0.13977043 0.06985677 0.11230879
000120 98 9a 70 3e ab 54 4e be 5d c1 ec bd f7 7f ef 3d
       0.23496473 -0.20149486 -0.115603186 0.11694329
000130 80 1d ad bd 0c ab 07 be 4f d6 52 bd b7 a9 00 3e
       -0.08452892 -0.13248843 -0.05147391 0.12564741
000140 e2 09 19 be 18 39 1b be c8 c7 15 3e 36 da 20 3e
       -0.14945176 -0.15158498 0.14626992 0.15708241
000150 7e 0b d7 bd 19 ff e8 3d 5d 96 e2 3a 8d ba ac bb
       -0.10500239 0.11376781 0.0017287243 -0.005271262
000160 97 80 b0 bd be 43 cf 3d ee e9 bc 3d 4f 8b f2 bd
       -0.086182766 0.10120343 0.09224306 -0.11842977
000170 b4 38 eb 3d ec c7 00 be af f8 e8 3d 92 74 22 3d
       0.11485425 -0.12576264 0.11375558 0.03966195
000180 4c ce c8 bd 9c 40 db bd ef 5e 05 bd 32 66 b0 bc
       -0.09804973 -0.10705683 -0.03256124 -0.021533106
000190 f0 dd 7d 3d bb fe 11 3e 38 16 29 3e 4e 88 81 3c
       0.061979234 0.14257328 0.16512382 0.015812065
0001a0 71 df da bc 10 f6 55 3e 77 96 16 be e9 45 e9 3d
       -0.026717873 0.20894647 -0.14705835 0.113902874
0001b0 b2 70 ef 3d 92 47 0c 3e 85 c0 4d be e3 55 2e 3e
       0.11691417 0.13699177 -0.20092972 0.1702495
0001c0 09 d1 ab bd 0c 94 f1 3d 55 0b 38 be 4b fe 7f bd
       -0.0838948 0.11795816 -0.17973073 -0.062498372
0001d0 76 0a f4 3d 62 28 a2 bd 6d 63 9d bb b3 f9 18 3e
       0.11916058 -0.07917859 -0.0048031122 0.14939003
0001e0 da 92 27 3e 1d 65 99 3d ab e6 24 3e aa 3d a1 3d
       0.16364613 0.07489989 0.16103618 0.078730896
0001f0 8c 94 4f be e3 c3 a9 bc 93 46 22 be dd a0 d0 bd
       -0.2027151 -0.020723289 -0.15847234 -0.10186932
000200 2b a1 19 3d e7 79 99 3d 3b 6d 0e 3d 10 0f 1e 3e
       0.037507217 0.07493954 0.03477214 0.15435433
000210 80 81 a6 3c a8 b6 30 be e0 b8 48 3d 8e 40 dd bd
       0.020325422 -0.17257178 0.049004436 -0.108033285
000220 c3 5d 99 bd 13 c4 d7 bd b9 7b 56 3d 58 02 6b bd
       -0.07488587 -0.10535445 0.052364085 -0.057375282
000230 87 8e 67 bc 70 3f 05 be 95 9e 32 bd 8f 7c b1 3d
       -0.014133102 -0.1301248 -0.043608267 0.08666336
000240 34 48 01 be 93 ba e8 bd e1 cf bf bc 5c c9 48 bc
       -0.126252 -0.11363711 -0.023414554 -0.012255039
000250 e9 a8 09 3e af 70 72 3d 59 77 12 be 21 cb 65 3d
       0.1344334 0.059189495 -0.1430334 0.056101922
000260 0a 5b 32 be 5b 34 e6 bd d5 33 bd bd d8 32 b3 bd
       -0.17417541 -0.11240455 -0.09238402 -0.08749932
000270 47 f7 d0 3c 1f b6 19 be 7c ea 82 3d 31 98 08 be
       0.025508536 -0.1501088 0.063923806 -0.13339306
000280 a8 f2 23 3d 5b ea b0 3d e5 e0 84 bd 5b 7d ca bb
       0.040026337 0.0863845 -0.06488208 -0.0061794943
000290 4a 30 03 bc cd 72 ce 3d 1b 74 2a 3e 3c 8e b2 3d
       -0.0080071185 0.1008049 0.16645853 0.08718535
0002a0 56 0e 43 be 0d 6c 4b be dc 55 8b 3a 99 1f f0 bd
       -0.19048437 -0.19865437 0.0010630446 -0.11724777
0002b0 ff a4 58 3d e9 bd 53 be 02 4f fe bd 7b 06 c9 3c
       0.052891728 -0.20677914 -0.12417413 0.024539223
0002c0 2e 04 c4 3a 13 ff 2c 3e 9e 78 0f be 76 82 e0 3d
       0.0014954859 0.16894178 -0.14010856 0.109623834
0002d0 1a b6 c6 bd 34 8b 13 3e e4 6f 02 3e 17 66 12 be
       -0.09702702 0.1440857 0.12737995 -0.14296757
0002e0 2d 4a 39 3e 66 28 42 3e 6c 40 8c 3d c8 cb 66 bd
       0.18094702 0.18960723 0.06848225 -0.056346685
0002f0 1a ab cb bd 17 3b 0d 3e 9b ef cb 3c 2d 53 3c be
       -0.099447444 0.13792072 0.024894526 -0.18391104
000300 77 2d 8a 3d 03 04 32 be ba c1 de bd 06 8f 0e bd
       0.06746953 -0.17384343 -0.10876794 -0.034804367
000310 ab d9 87 3c 95 c2 2f be 02 51 97 bd 37 44 0f be
       0.016583284 -0.17164071 -0.07388498 -0.13990866
000320 a8 9a 88 bc e8 7d 43 be 73 86 41 bd b9 2d 08 be
       -0.016675308 -0.19090998 -0.04724736 -0.13298692
000330 6b 62 8d 3d 12 39 cb 3c 36 81 64 bd 72 62 d0 3d
       0.06903537 0.024807487 -0.055787288 0.10175027
000340 1d 09 ca bc 27 85 e1 3d 2d c7 4e bd 2b ae 01 3e
       -0.024662549 0.11011725 -0.050482918 0.12664096
000350 3e 09 35 3d 91 c2 09 be 93 f1 9b bd bb 3f 4c bd
       0.044198267 -0.13453127 -0.07614436 -0.049865466
000360 d4 c3 3d 3e 66 e3 8b 3c 93 d5 d9 3d de f5 44 be
       0.18531734 0.017076205 0.10636439 -0.19234416
000370 ea a7 3b be 68 21 31 bd 2c 7b c7 3d 15 69 46 bd
       -0.18325773 -0.04324475 0.0974029 -0.048440058
000380 d8 28 65 bc d4 a8 58 bd 98 02 80 bd 16 03 c3 b9
       -0.013986789 -0.052895382 -0.06250495 -0.00037195598
000390 f8 5e 1a 3e b9 41 3b 3d 3a 80 c1 3d 9e aa d3 3d
       0.1507529 0.045716975 0.094482854 0.10335277
0003a0 6d b0 c6 bd b9 df dc 3c f8 81 44 3d 63 bc 10 bd
       -0.09701619 0.026962148 0.04797551 -0.03533591
0003b0 2c 54 2d 3e 28 f0 43 3e 4c 33 e0 3c 9d 11 ee 3d
       0.1692664 0.19134581 0.02736821 0.11624453
0003c0 e2 46 2a be 7e d8 81 bb 2e 0e 52 bd 60 3a 3a be
       -0.16628602 -0.0039625755 -0.051283054 -0.18186331
0003d0 78 08 c4 bd fc 42 3c 3d b9 5a 21 be a1 de 14 be
       -0.09571928 0.04596232 -0.15757264 -0.14538051
0003e0 9b 87 b9 3d 6c 7e aa 3d c1 a9 61 3e ef 65 db 3d
       0.09059068 0.08324894 0.22037412 0.10712802
0003f0 50 00 c9 3b a0 92 48 3d 25 1d d5 bc a2 ce 98 3d
       0.0061340705 0.048967957 -0.026014874 0.07461287

Pair_shop_mlp.fc_layers.0.bias f4 [64]
000000 73 ae 3d 3e 93 ca 87 bc 3c 44 e2 bd e8 c4 ae bd
       0.18523578 -0.016576087 -0.11048171 -0.08533651
000010 dc 89 c2 bd e1 43 93 bc 3a c4 cb 3d 95 4b bd bd
       -0.09498951 -0.017976703 0.099495366 -0.09242932
000020 94 08 e4 bd 19 c6 b6 3d 38 2f c2 3d c3 5d 20 3e
       -0.11134449 0.08924503 0.094816625 0.15660767
000030 ba c8 cb bd 94 07 cf 3d 3c 5a b4 3d 70 24 57 bd
       -0.09950395 0.10108867 0.08806273 -0.052524984
000040 44 ce e0 bd f7 1f af bd 29 84 a3 bd 69 e3 a5 3d
       -0.10976842 -0.08551019 -0.07984192 0.08100016
000050 ca 19 3c 3e 72 17 14 3e 7d aa c4 bd d8 ae 62 bd
       0.18369213 0.14462069 -0.096028306 -0.055342525
000060 f8 0d 55 bd b3 d8 b6 bd 53 02 a1 bc 2a 6d 01 3d
       -0.052015275 -0.08928051 -0.019654429 0.031598248
000070 44 4b 2d be b5 ed ed 3d 66 4c 6a 3d 19 f1 ef 3c
       -0.16923243 0.11617605 0.057201765 0.029289769
000080 d2 05 59 3d 93 7e 4a 3d ba 96 10 bd 53 3c 7c bd
       0.052984066 0.049437117 -0.035299994 -0.061580967
000090 c7 11 b2 bc e0 a6 d6 3d 0b 5e a0 bd c6 c3 da 3d
       -0.021736993 0.10481048 -0.07830437 0.10681872
0000a0 d2 e9 eb bc 51 67 2c 3d 23 b0 9c 3d 5d 0b 26 3e
       -0.028798018 0.042090718 0.07650783 0.16215272
0000b0 5e 91 b4 3d ca db 24 bd 7f 41 3e 3e d9 dd 63 bd
       0.08816789 -0.04024867 0.18579672 -0.055631492
0000c0 1f 18 ae bd 30 9b a1 bd 9e 6f 8d bc c5 17 9c 3d
       -0.085006945 -0.07890928 -0.017265137 0.07621721
0000d0 90 6f 04 3e ca dd 9a 3d 5b 12 ef bd b9 33 8e bd
       0.12933183 0.07561834 -0.11673423 -0.06943459
0000e0 1e b6 df 3c 70 1b 11 be f9 32 14 3d 3f 3c 37 3e
       0.02730852 -0.14170623 0.036181424 0.17894076
0000f0 21 7a e8 bd 92 b5 78 3d d6 80 17 be db a1 52 bd
       -0.11351419 0.060720034 -0.14795241 -0.05142389

Pair_shop_mlp.fc_layers.1.weight f4 [16, 64]
000000 ed fa 8b be 89 99 1a bd b7 ab 6f 3b 6e 94 a3 3d
       -0.2733988 -0.03774408 0.0036570856 0.07987295
000010 6c 52 4f 3d 4a 6b a4 bc 67 be d9 3d ad 1d b5 bd
       0.050615713 -0.02007069 0.106320195 -0.08843551
000020 68 a4 1d bd 37 98 79 bc 21 a4 ef bb ae 31 dd 3d
       -0.03848687 -0.015234045 -0.007313267 0.10800491
000030 97 17 ac bd c9 7e a1 bd 49 4e 2a be c7 f9 10 3e
       -0.08402937 -0.078855105 -0.16631426 0.14157782
000040 e0 74 cf 3d e2 6f 13 3e b2 e3 de bc 91 f8 91 bc
       0.10129714 0.14398149 -0.027208183 -0.017818721
000050 ee 87 1b 3e 78 8f fe bc ef e1 a6 3d 7e db 2c 3d
       0.15188572 -0.03107427 0.08148562 0.04220151
000060 0b 1e 02 3c 77 b1 b1 3d 29 db 2c be d6 95 34 3e
       0.007941733 0.08676427 -0.16880478 0.17635283
000070 ae 72 1c 3e 83 9c b2 3d 99 40 e4 bd 3d 72 92 bd
       0.15278122 0.087212585 -0.111451335 -0.071506955
000080 b7 c2 31 3e 27 63 da bd 3c 24 ea 3d 4f 65 26 3c
       0.17359434 -0.10663443 0.114326924 0.01015599
000090 2e 3e 06 3e b5 08 5b 3e 3a 7e 83 3d ad 75 cb 3c
       0.13109657 0.2139004 0.0642056 0.024836386
0000a0 d5 8e 44 3d d2 f8 92 3d 65 4a 43 3d 0e 18 8e bd
       0.047987778 0.07176365 0.04767837 -0.06938182
0000b0 c7 18 1b be 61 87 0d bd 76 bf c5 3c 03 6d d9 3d
       -0.1514617 -0.034552936 0.024139147 0.106164955
0000c0 03 dd 68 3d 9a 8a 54 3d 06 2a 3c 3e 47 2f 33 3c
       0.0568514 0.051889993 0.18375406 0.010936565
0000d0 bb 54 fa 3d e0 54 aa 3d 1c e8 00 be d0 48 69 bd
       0.12223192 0.0831697 -0.12588543 -0.056954205
0000e0 6e f5 e1 3d 9a 71 cd bd c5 d0 5e 3e 7a c4 61 3c
       0.1103314 -0.100314334 0.21759327 0.013779754
0000f0 14 19 e7 3c 1b e2 ac bc 65 c0 e3 3d 7a bf b2 3b
       0.0282102 -0.02110391 0.11120681 0.0054549547
000100 97 6d 65 3e e4 76 3a bc 94 17 69 3c 95 c6 f7 3d
       0.22405086 -0.011380885 0.014226813 0.120984234
000110 2c 3a 38 bd 35 d1 b7 3d c4 a2 dd 3d a5 72 a8 bd
       -0.044977352 0.0897545 0.10822061 -0.08224992
000120 94 e4 9b 3d 0c 5e 08 3d 9a 0e ae 3d 31 6d d5 3d
       0.07611957 0.033292815 0.08498879 0.10421217
000130 7d ed a6 3d 00 c0 a2 3d 93 8f e3 bc 8e 47 00 3e
       0.08150766 0.07946777 -0.027778422 0.12527296
000140 df 84 b1 3c 1f de 9b bd 52 41 0f 3e 72 ef 54 bd
       0.021669803 -0.076107256 0.13989761 -0.051986165
000150 5a bb 14 bc dc fc 9e bd b8 61 b6 3d 7d 0e b8 bd
       -0.009077871 -0.07763073 0.08905357 -0.089871384
000160 b6 1a 33 3d 25 42 72 3c b8 27 75 bd 8b a9 83 ba
       0.043726645 0.014786278 -0.059852332 -0.0010045035
000170 7a ff a7 bd 4e 22 c9 3d d1 79 36 3c a7 44 bf 3d
       -0.08203025 0.09820996 0.011137442 0.09339266
000180 e8 4e 3c bd f5 81 61 bd 5f 32 f3 bd 86 81 8c 3d
       -0.04597369 -0.055055577 -0.11874842 0.06860642
000190 d2 0e 6d 3a 8e 7f 98 bd 37 6f 6f bd 21 c6 96 3d
       0.0009043041 -0.07446204 -0.058455672 0.07362009
0001a0 d0 62 8f bd ef 11 c8 3c 04 6a 06 3e 91 2b 1e 3e
       -0.07001269 0.024422614 0.13126379 0.15446307
0001b0 2e f6 e3 bc 15 2e 45 3b ce 00 fa 3d d9 33 61 bc
       -0.027827349 0.0030087281 0.12207185 -0.013745272
0001c0 60 fe 37 be 49 83 33 bd dd 0d 2e 3c 0f aa cd 3b
       -0.1796813 -0.043826375 0.010623422 0.006276376
0001d0 dc 11 57 bd cc a3 e6 bc 55 fa 77 3d ce fd 8c bd
       -0.052507266 -0.028154276 0.06054147 -0.06884347
0001e0 a8 93 be bb ed 0e bc 3d 0e b3 f5 bd 1a a5 0b 3e
       -0.005815942 0.09182534 -0.119970426 0.136372
0001f0 90 72 d4 3d 24 bb d3 bd 97 02 c0 bd 87 7a a7 3d
       0.103734136 -0.103384286 -0.09375494 0.08177667
000200 73 92 81 3e cf 67 94 3d eb 1d 9f 3d 4c 9b 3f 3a
       0.25307044 0.072463624 0.07769378 0.0007309213
000210 64 24 e6 bd e7 02 5e 3d 5f 21 13 bc 8b de 8c bd
       -0.1123741 0.054201987 -0.008980124 -0.06878384
000220 a1 36 3d 3d cd 7a e8 3d be 8e 74 3c 4a 96 f7 bc
       0.046194676 0.113515474 0.0149266105 -0.03022303
000230 01 61 2a bd 7c 61 f9 3c d2 ef a9 3c 48 e1 89 bd
       -0.041596416 0.030441992 0.020744238 -0.06732422
000240 09 f8 b0 bc ef cd b9 3c c9 ec dd 3d 02 45 0b 3e
       -0.021602647 0.022681205 0.10836179 0.13600543
000250 c7 cd 49 3d 37 8f b1 3b 0d 9b 0d bd 37 90 99 3d
       0.04926851 0.005418684 -0.034571696 0.0749821
000260 24 d5 33 bc 3b ba 8f bd b3 75 75 3e e9 3c 54 bd
       -0.01097611 -0.070179425 0.2397068 -0.0518159
000270 00 79 23 bd 05 12 2b 3e 86 fa 51 3e 64 39 d9 bd
       -0.039910316 0.16706093 0.20505723 -0.106066495
000280 eb 97 94 3d fd df 9b 3c 88 16 91 bd a5 85 11 bd
       0.072555386 0.019027704 -0.070843756 -0.035527844
000290 80 d1 a4 bc e3 0f d6 bd 22 e1 1e 3e 50 53 c5 3d
       -0.020119429 -0.10452249 0.15515569 0.09635031
0002a0 e9 f2 b7 3d bd 09 c1 bc 7a 23 db 3b dc 08 a7 bb
       0.08981878 -0.023564214 0.0066875787 -0.0050974917
0002b0 0f 2c 1c 3e 9e 2e dd 3c 66 27 39 3d 21 0a d2 bd
       0.15251182 0.026999768 0.04520359 -0.10255838
0002c0 1e 87 39 be f5 e7 a1 3d 50 ea 35 be 54 2c 54 3c
       -0.1811795 0.079055704 -0.17765164 0.012950022
0002d0 f1 ad 1c be 51 60 f6 3d 10 c1 2f 3d 97 1a cb 3d
       -0.15300728 0.1203009 0.042908728 0.09917181
0002e0 5f 31 98 3c 55 66 4e bd 4f 5a 48 3d f2 5a 0f bc
       0.01857823 -0.05039056 0.04891425 -0.00874971
0002f0 16 a8 96 3d 1f 1c e1 3d 54 e5 d3 bd 51 aa b7 3d
       0.073562786 0.10991692 -0.10346475 0.08968032
000300 94 56 44 3e 08 89 87 3d f9 96 10 3c 85 a3 d1 bd
       0.19173652 0.066179335 0.008825057 -0.10236267
000310 78 a6 3d 3d cf 47 ad bc 8b 13 eb 3d 89 9d 03 3e
       0.046301335 -0.021152405 0.11478337 0.12853064
000320 f4 27 f8 3d ff a2 48 3e 69 75 16 3e a4 9d 88 3c
       0.121169955 0.19593428 0.14693226 0.016676731
000330 fe aa 16 3d 38 e9 8d bd b2 6a 09 3c 6f 97 bc bd
       0.036784165 -0.069292486 0.008387255 -0.09208571
000340 3d 5e 8e 3d b2 37 55 bd d7 b5 44 3d 38 2c f8 3c
       0.06951568 -0.05205507 0.04802498 0.030294523
000350 97 af 40 bd 08 49 e8 3d d1 f7 03 3e 8a 6e de 3d
       -0.047042456 0.113420546 0.12887503 0.108609274
000360 5a a5 26 3e bc 68 3f be f6 e8 6f 3e f9 b5 9c 3d
       0.16274014 -0.18692297 0.23428711 0.07651896
000370 9a 8a 8c 3b 0f 35 e4 3d 0a 56 37 3e f7 f6 14 3e
       0.0042889835 0.111429326 0.17903915 0.14547335
000380 ec c2 b3 3d 26 6c 0a 3d ad a5 09 3d c3 b4 4a bd
       0.08777413 0.033794545 0.033605266 -0.049488794
000390 5d 4f 03 be 55 f9 cb bd a1 ab a3 bd ca 7c c3 ba
       -0.12823243 -0.09959666 -0.0799172 -0.0014914509
0003a0 40 02 18 bc 4d 11 8a 3d 4a fb 90 3d b6 8e 7f 3b
       -0.00927788 0.06741581 0.070791796 0.0038994974
0003b0 ff bb 73 3d 9b 56 c3 bc bc 49 0a bd cb 9d 58 3d
       0.05950546 -0.023845008 -0.033761725 0.052884858
0003c0 01 50 90 be 9e 9a 0a be 7b dd 41 be 6f 48 03 3e
       -0.28186038 -0.13535544 -0.18932144 0.128206
0003d0 15 b0 0a be f0 3b 74 bd f1 3a a7 bd 70 26 71 3d
       -0.13543732 -0.059627473 -0.08165539 0.058874547
0003e0 b6 f5 cd 3d c5 23 78 bd 97 27 bf 3d d1 96 0a 3e
       0.10056631 -0.060580987 0.09333723 0.13534094
0003f0 b8 af 15 bd b7 38 76 3d 3f f1 75 3c fc cf 20 3e
       -0.03654453 0.06011268 0.015011131 0.1570434

Pair_shop_mlp.fc_layers.1.bias f4 [16]
000000 49 fd 91 bb a0 cc 32 3c 77 c8 0a 3e 73 60 27 3d
       -0.004455243 0.010913044 0.13553034 0.040863466
000010 e4 1b ab bd a4 e7 c6 3a ee 06 8a 3c 57 99 a6 bd
       -0.08354929 0.0015175235 0.016849007 -0.08134716
000020 bf 05 4d 3d a5 8d a4 bd 31 da 5e bd 02 7f 93 3d
       0.050054308 -0.08034829 -0.054407302 0.07201959
000030 cd e2 cc 3d ed ba 7e 3c 9a 0f b9 bd ed f4 0e 3e
       0.10004196 0.015547496 -0.09036179 0.1396062

Pair_score_mlp.fc_layers.0.weight f4 [64, 32]
000000 63 d3 14 be 3d 77 ca bd 4b 55 2e 3e c1 cf 22 bd
       -0.14533763 -0.09886024 0.17024724 -0.03974891
000010 bf 03 99 bd 3c a0 bd bd 9d 87 5d 3e 96 32 b2 3c
       -0.07471418 -0.09259078 0.21633764 0.021752637
000020 3d 33 d3 bb b1 5b 0b be 5a 65 3b bd dc 29 c8 bd
       -0.006445317 -0.13609196 -0.045750953 -0.09773609
000030 93 c3 03 be fd 1c 0e be 74 33 8f 3d 3c 3e 4d 3c
       -0.12867574 -0.13878246 0.06992236 0.012527045
000040 20 73 3b be 83 05 b9 bd 51 c5 82 3e 05 e6 7e bd
       -0.18305635 -0.090342544 0.25541165 -0.062231082
000050 a4 70 e0 3d cd ca 4d be de c7 34 3d 08 e3 fc 3d
       0.109589845 -0.20096894 0.04413592 0.1234799
000060 c0 2f 1e be 12 82 67 bd e7 cc 24 3e 1d 2a d6 bd
       -0.15447903 -0.05652053 0.16093789 -0.10457251
000070 e4 c6 a4 3d 36 d0 08 bd b3 b8 7e be ca 67 94 be
       0.08045748 -0.03340169 -0.24875145 -0.28985435
000080 42 d3 37 be 85 14 8d bd 4b 6f 4f 3e 7e ad 41 3e
       -0.17951682 -0.068886794 0.20257299 0.18913838
000090 6b 36 b0 bd 8a 26 34 3e 74 38 31 3e 92 48 e8 bd
       -0.086041294 0.17592826 0.17306691 -0.11341967
0000a0 09 7f fa 3d 41 32 af bd c7 b5 ba bd bc 53 19 3d
       0.12231261 -0.08554507 -0.091167025 0.03743337
0000b0 05 73 98 3d a7 0d 10 bd b6 cb cb bd 82 c5 88 bc
       0.07443813 -0.03516927 -0.09950964 -0.016695742
0000c0 da 5e 9c bd 55 2b e8 bd 67 f4 41 3d 17 e8 23 3e
       -0.07635279 -0.1133639 0.04735222 0.16006504
0000d0 ff bd b8 bb 6e 95 04 be 98 bd 10 3d d3 cc f4 bd
       -0.0056378837 -0.12947628 0.03533706 -0.119531296
0000e0 db de 2a be d1 f7 33 3e f7 76 ca 3b 3f c9 06 be
       -0.16686575 0.17575003 0.0061787325 -0.13162707
0000f0 32 18 4f bd b0 01 a9 bc 8c f9 19 3e 7d 23 ab 3d
       -0.050560184 -0.020630687 0.15036601 0.08356378
000100 6a 0a fe bd 26 11 ac ba 86 4d 30 bd 17 f9 cf bd
       -0.1240433 -0.0013127669 -0.043042682 -0.10154932
000110 75 b4 1e 3d a4 a5 7b bc 70 4a ca 3d e5 f8 fe bc
       0.038746316 -0.015359316 0.09877479 -0.031124542
000120 20 b0 05 3e a6 8c 29 be c1 82 01 3c 3a e7 33 3e
       0.13055468 -0.1655756 0.007904709 0.17568675
000130 2f 86 e3 3c d7 02 3c bd de e0 b2 3d e9 02 1a b9
       0.027773945 -0.045901146 0.08734296 -0.00014687669
000140 76 60 8c be d5 43 19 3d 6f 18 0b 3d 26 92 64 3e
       -0.27417344 0.037418205 0.03395885 0.22321376
000150 36 b8 61 3e ee 9f 81 3d 0e f9 49 3e c5 e4 6d 3d
       0.22042927 0.06329332 0.19723913 0.0580795
000160 6d 86 38 3e 37 3b 80 bd c5 55 5e bd fa e7 ce bb
       0.1802003 -0.06261294 -0.054281015 -0.006314275
000170 9b 24 1c be f2 59 f2 bd c8 33 b6 bd 63 0f 0c 3e
       -0.15248339 -0.11833562 -0.08896595 0.13677745
000180 16 9e 2d be 97 90 03 3e 75 10 6d 3e 50 f2 35 3d
       -0.16954836 0.12848125 0.23150809 0.04442054
000190 4a f1 30 3e be 02 14 be af 19 e9 bd 64 86 7e 3d
       0.17279544 -0.14454171 -0.11381852 0.062139884
0001a0 33 9c 1d 3e b1 4d 58 3d 1a 87 0c be ca cb 3c 3e
       0.15391617 0.052808467 -0.13723412 0.18437114
0001b0 bd 58 ab bd b3 fd 8a 3d 3e 9a bd bd 04 a8 36 3e
       -0.08366535 0.067866705 -0.09257935 0.1783753
0001c0 87 cc 10 3d ac 3d e5 bd c8 c7 da 3d d8 32 9f 3d
       0.035351302 -0.111934036 0.106826365 0.077733696
0001d0 e2 c8 c9 3c 76 ff 81 3d 29 4a f4 3d 04 64 79 bd
       0.024631921 0.063475534 0.119282074 -0.060886398
0001e0 6d 48 11 3e 34 46 5d be 58 37 00 3d b8 d8 81 bd
       0.14187784 -0.21608812 0.03130278 -0.06340164
0001f0 77 b4 14 3d 16 5c 5b 3d 77 60 33 3e 6d 28 28 3d
       0.036304917 0.053554617 0.17517267 0.041054178
000200 a6 0f 42 be 57 be da bc 98 68 3a 3b c6 b9 e9 bd
       -0.18951282 -0.02670209 0.002844369 -0.114123866
000210 c4 22 0b 3e 8e 3e 0a bd 98 6d 04 be 6f 8b 7d be
       0.13587481 -0.033751063 -0.12932432 -0.24760221
000220 19 5e 14 3e 61 83 85 bd 70 06 46 be 88 ff 47 be
       0.1448902 -0.06519199 -0.19338393 -0.19531071
000230 25 46 18 bd 45 47 69 3c f3 b6 01 be 91 90 21 be
       -0.03717627 0.014238183 -0.12667446 -0.15777804
000240 fd 44 4b 3e e0 82 50 3e d1 3e 16 be ad 3f c7 bd
       0.19850536 0.20362425 -0.146724 -0.09728942
000250 a3 a6 c9 bd 11 24 ce 3d 7f 4d 8d 3b bc 71 05 3c
       -0.098462366 0.10065473 0.004312217 0.008144792
000260 47 97 42 be ac 3b 9d 3d 7d dc 9f bc 42 8d 69 3e
       -0.1900302 0.07677397 -0.019514317 0.22807792
000270 18 d4 c4 bc e4 c4 05 be c3 33 3f 3d 86 fe 19 be
       -0.024026915 -0.13063389 0.046680223 -0.15038499
000280 2e fa 01 be 3f f2 0f 3d 71 41 1c 3e bf 22 94 3d
       -0.12693092 0.035143133 0.15259339 0.0723319
000290 03 05 c9 3d 38 15 10 3e 7b 97 b9 bd 42 88 e1 bd
       0.09815409 0.14070594 -0.09062096 -0.11012317
0002a0 24 95 c1 bd 50 83 fa bc 7d 1e 39 3e 9a 99 87 3d
       -0.094522744 -0.030580193 0.18078037 0.06621094
0002b0 0f a1 d5 3b 4a c1 ca 3d 95 ff 21 be 34 b2 88 bd
       0.006519444 0.09900148 -0.15820153 -0.066746145
0002c0 55 6c 2f 3e 30 01 26 3e 3a f8 ba 3d 60 05 70 bb
       0.17131169 0.1621139 0.09129377 -0.0036624297
0002d0 f7 16 eb 3d 0f 36 09 be aa 09 97 3c 2f 9d bd 3d
       0.114789896 -0.13399528 0.018437225 0.09258496
0002e0 42 87 88 3d 10 61 92 3d 75 fb 49 3e 05 ea 30 be
       0.066664234 0.071474195 0.1972483 -0.17276771
0002f0 2e 3d 27 3e 12 c0 13 be 06 fa 1a 3e c7 7f 87 bd
       0.16331932 -0.14428738 0.15134439 -0.066161685
000300 0f 5a 02 be 96 e6 5a 3e 1a 2d 30 bd 10 41 77 bd
       -0.12729667 0.21377024 -0.043011762 -0.060364783
000310 7f a0 17 be 68 1f af bd 9f 8d 1f 3d 87 2e 0e 3e
       -0.14807318 -0.08550912 0.03895342 0.13884936
000320 f6 3f 97 3b d0 c1 6a 3d f1 a7 d4 bd 0f 9f 1c 3e
       0.004615779 0.05731374 -0.10383595 0.15295051
000330 0b b3 2e bd fa 46 c3 bd da d3 09 3e 25 a0 e2 3c
       -0.042651217 -0.09535022 0.13459721 0.027664253
000340 50 e6 6f bb 34 2b 04 3e f0 8b b4 bd 1c 8b 40 bc
       -0.0036605783 0.12907106 -0.088157535 -0.011751916
000350 8b 14 9a bd 90 7a 77 3d ef 1b 3e 3e 1b 92 27 3e
       -0.075234495 0.06041962 0.18565343 0.16364329
000360 32 44 a7 3d d3 83 7b bd c9 22 2d 3d ee a2 5e 3e
       0.08167304 -0.061405014 0.0422695 0.2174184
000370 a5 9e f6 bd a9 b4 01 3e 79 85 18 3e 99 d7 16 be
       -0.12041978 0.12666573 0.14894666 -0.14730681
000380 55 3d 13 3c d7 78 8d bd c9 c8 55 3e 9c 6b 0b 3e
       0.008986791 -0.06907814 0.20877375 0.13615268
000390 f2 05 0b 3d 61 cf 8d 3c 1b f7 ad bd 07 9b b2 bd
       0.033941217 0.0173108 -0.08494397 -0.08720975
0003a0 15 0d 3c 3e 16 28 70 3e 91 e1 60 be 7b 85 f8 bd
       0.18364365 0.23452792 -0.21961047 -0.121348344
0003b0 3a 6b 88 3d c5 36 73 bd 02 8c d8 bd ce d1 00 3e
       0.06661077 -0.059378404 -0.10573579 0.12580034
0003c0 24 8f 3e be 70 af 0a be a5 9d 85 3c e5 52 86 bc
       -0.18609291 -0.13543487 0.016310522 -0.016396949
0003d0 d3 cb 80 bd 3e 78 6c 3e f5 e0 3c 3d c8 09 3a bc
       -0.062888764 0.23092744 0.046112973 -0.011354871
0003e0 70 c0 b7 bb fa ad e2 bd 63 c6 c5 bd cc e2 f0 bd
       -0.005607657 -0.1106834 -0.0965698 -0.11762008
0003f0 a3 a5 e4 bd 5e 4d a9 bd f0 88 31 3e 9e 18 94 3d
       -0.11164405 -0.0826671 0.17337394 0.07231258

Pair_score_mlp.fc_layers.0.bias f4 [64]
000000 c3 32 75 3d f5 56 4f bd 14 3f 0a be 5c de c5 bd
       0.059862863 -0.050620038 -0.13500625 -0.09661552
000010 45 3f 21 3e 78 05 24 3e f4 d7 c0 bd f1 7c ca bd
       0.15746792 0.16017711 -0.0941619 -0.09887112
000020 28 90 84 bd 3a 3a be bd 6a ec 1f 3e 80 40 22 3c
       -0.06472808 -0.092884496 0.15617529 0.009903073
000030 1f 68 21 3d 73 af dd 3d 7e ea 81 bd d8 3a 17 3d
       0.03940594 0.1082448 -0.06343554 0.036921352
000040 46 17 40 3e cb ea 8d bd 85 2c d6 3d 92 2e 89 3d
       0.18758878 -0.06929549 0.1045771 0.06698336
000050 4a c9 a5 bd 06 f9 12 bd 6d 5e 95 3d 06 90 31 bd
       -0.080950335 -0.03588202 0.07293401 -0.043350242
000060 51 d8 ca 3d ce 68 27 bd 66 e4 c0 bb de 7b db 3d
       0.0990454 -0.040871434 -0.005886602 0.10716985
000070 4f a5 21 3e a7 98 1b bd 7c c0 a2 bd 0d 91 1c 3e
       0.15785716 -0.037987377 -0.0794687 0.15289707
000080 50 a9 9f 3d a9 6b 1a be e1 60 24 3c f2 a2 6c 3e
       0.07795966 -0.15080132 0.010032863 0.23109034
000090 c6 a6 2e 3e 31 f0 14 3e 8a ca b5 bd 83 e4 23 bd
       0.17055807 0.14544751 -0.08876522 -0.040012848
0000a0 45 9c e5 bd ad f7 cc 3d 64 4e 20 be f3 7b fb bd
       -0.11211447 0.10008178 -0.15654904 -0.12279501
0000b0 9e ee 4b 3b 82 3f 00 3e 4a 25 27 bd 8c 66 cb bd
       0.0031117569 0.12524226 -0.040807046 -0.09931669
0000c0 2f 2d 56 bd 67 fe 8d bd c5 65 32 3d b1 e1 97 bd
       -0.052289184 -0.06933289 0.043554086 -0.07416094
0000d0 64 3a 4e bd 1e 99 ea bd ba 86 80 bd 3a b4 0f 3e
       -0.050348654 -0.11454986 -0.06275697 0.14033595
0000e0 94 2f d8 bc b6 91 e5 3d 35 5a f6 3d 09 4f ed 3d
       -0.026389875 0.11209433 0.120289244 0.115873404
0000f0 44 c2 99 3d d3 dc 29 3e 17 56 d9 3d 05 4c 95 bd
       0.07507756 0.16588144 0.106121235 -0.0728989

Pair_score_mlp.fc_layers.1.weight f4 [8, 64]
000000 ec 1f d8 3d 45 d7 f8 3d 26 cf 05 3e 90 66 84 3d
       0.105529636 0.121504344 0.13067302 0.06464875
000010 3c 4e 57 3e ae d6 18 3e 74 55 80 3d 51 57 d7 3d
       0.21025938 0.14925644 0.06266299 0.10514701
000020 51 2f 10 3e 40 69 1c 3e 3d b6 e3 bd fc bc fe 3c
       0.1408055 0.15274525 -0.111187436 0.031095974
000030 39 c2 09 3d 68 eb 1f be c3 09 c0 bc c3 2c 56 bb
       0.03363249 -0.15617144 -0.023442155 -0.0032680489
000040 0e f8 ff 3d 7c 8e d5 3b 3a 74 10 bd 02 7b 4a 3d
       0.124984846 0.0065172296 -0.035267092 0.049433716
000050 7a 35 04 3e 61 2c c8 bc e9 37 cf 3d d8 42 70 3c
       0.12911025 -0.024435224 0.10118086 0.014664374
000060 01 c5 d3 3d 44 1a 14 3e 9f ad 22 3e 5f 7e 70 3d
       0.1034031 0.14463145 0.15886544 0.058714267
000070 8a e5 3a bd 50 8d 26 bd 67 ba e0 3d fb b9 47 3c
       -0.04562906 -0.04066211 0.109730534 0.012190337
000080 31 8e c1 3c 6c 10 ec 3d 55 54 e4 3d d4 53 06 bb
       0.023627372 0.1152657 0.111488976 -0.0020496743
000090 f4 b1 3f 3e 0c 14 20 3d 0e 09 cc 3c 41 b7 df 3d
       0.18720227 0.03908162 0.024906661 0.10923625
0000a0 ad f9 42 bd 97 f2 20 3d 30 82 be bc ee dc a6 3d
       -0.04760139 0.03929385 -0.023255438 0.08147608
0000b0 fc 63 43 be 8c 83 c9 3d cc fd 13 3e 92 c5 db 3d
       -0.1908111 0.09839544 0.14452285 0.10731043
0000c0 94 33 d8 bd de 15 a7 3d 7a 37 c8 bd c9 c9 a8 3d
       -0.10556713 0.08158468 -0.09776206 0.082416125
0000d0 5c 81 77 3e d3 14 94 3c 16 c4 b4 3d df bb ab bd
       0.2417044 0.018076336 0.08826463 -0.08385443
0000e0 08 75 4e 3d 52 c5 b5 bd c2 30 72 bd f6 18 cf 3d
       0.05040458 -0.088755265 -0.05912853 0.10112183
0000f0 22 d1 8e bb 63 1f 9c 3d c5 59 91 bd 3b af 33 3e
       -0.0043584267 0.07623174 -0.070972 0.17547314
000100 0a 97 e2 bd ec d5 da 3d b0 05 f9 bd fa d8 11 be
       -0.11063965 0.106853336 -0.12159288 -0.14242926
000110 da de df bd 0a 98 6b bd 56 79 e8 bc 3a 7b 9a bd
       -0.109311774 -0.057518043 -0.02837817 -0.07543035
000120 dd 84 95 bd 2b 11 e8 3c a7 45 3c be 40 9b 05 3c
       -0.07300732 0.028328499 -0.18385945 0.00815469
000130 18 1c 3a be f8 28 43 3e 8e 7c 3c be 73 43 35 be
       -0.1817478 0.19058597 -0.18406889 -0.17701511
000140 7d 4b 88 bb e1 bd 34 3d 78 e8 7c bd 82 31 de 3c
       -0.0041593895 0.044126395 -0.061745137 0.027123217
000150 e7 9f 0a be ae 5c f2 bd 69 09 64 bd a8 4d 94 3d
       -0.1353756 -0.118340835 -0.055673037 0.07241374
000160 fa a4 bb bd 9a 6f e0 bd f7 37 f8 3d b2 4b fc bc
       -0.09162326 -0.10958786 0.121200494 -0.030797813
000170 cc 40 cc bd 2b 4b bd 3d 68 56 e9 3d b2 c8 0c bc
       -0.099732965 0.09242853 0.11393434 -0.008592771
000180 14 f5 82 bd bf 8d 07 be 1b ce 6c 3d 66 fe e7 3d
       -0.06394401 -0.13237666 0.057813745 0.113278195
000190 c5 67 d2 bd 16 a5 8c 3d 05 42 55 3d d7 2f 60 3d
       -0.10273699 0.06867425 0.052064914 0.054733124
0001a0 45 43 cc bd f9 ef 25 bd 3c 62 9c bd 2b 3c f5 bd
       -0.09973768 -0.04051206 -0.07635924 -0.11974367
0001b0 16 8a 44 3e fe d1 05 3e 1a 97 b7 bd 8d f7 ab bd
       0.191933 0.13068387 -0.08964367 -0.08396826
0001c0 ba 37 17 3d 2a 49 f8 bd 3a 65 e4 3d 99 ef e3 bd
       0.03691838 -0.1212333 0.1115212 -0.11129684
0001d0 55 00 0a bc b3 35 1a be 94 45 13 be 6a 4d 59 3e
       -0.008422931 -0.15059547 -0.1438201 0.21220937
0001e0 bf de d9 3c 29 e4 d9 bd 9b fd 31 bd be 85 82 bd
       0.026595471 -0.10639221 -0.043454748 -0.063731655
0001f0 03 6c 24 3e 9c 1a bc 3d 0d 09 6c 3d 48 b6 62 3d
       0.16056828 0.09184763 0.05762582 0.05534962
000200 77 e7 ae 3d d4 2c e1 3d 2d 93 64 3e 20 bc 2a 3e
       0.08540242 0.109948784 0.22321768 0.16673326
000210 88 97 2d 3d 04 de 93 3d 9e bb 46 3e 7e d1 09 3c
       0.04238084 0.072200805 0.19407508 0.008411763
000220 ff 22 40 3e 74 3a 32 3d 67 71 af 3d f3 63 69 bc
       0.1876335 0.043512776 0.08566552 -0.014245021
000230 63 9d e2 bc 0b 6e 66 be 67 dd 7d 3d 6f 54 82 3d
       -0.027662938 -0.22502916 0.061978724 0.06363761
000240 f0 f9 82 3e 44 2d 19 3e fb 52 02 3e 2b 40 07 3d
       0.25581312 0.14958674 0.12726967 0.03302018
000250 c5 88 d1 3d a4 dc 41 bd 0d 1c f5 3d e8 8c 8d 3d
       0.10231165 -0.04732956 0.11968241 0.06911641
000260 de 21 4c 3d 9c 13 3a 3d 82 52 ec 3d 77 31 73 3e
       0.049836986 0.045428857 0.115391746 0.23749338
000270 3d b5 10 bc 28 7a 07 3e 5d b9 86 3d f9 5c 4b 3e
       -0.008832273 0.13230193 0.06578324 0.19859685
000280 0b b9 c8 3d 69 e5 be 3c 59 df d8 3d 64 2f f3 bc
       0.09800919 0.02330275 0.10589475 -0.029685684
000290 58 b0 36 3e 28 32 b7 3b 22 d2 1c be ff d3 23 3e
       0.17840707 0.005590696 -0.15314534 0.15998839
0002a0 8c a3 8f bd b5 a2 c8 3d aa aa ea 3d d8 78 21 3e
       -0.07013616 0.09796659 0.11458333 0.15768754
0002b0 47 d4 a5 bd 62 57 0b 3e 87 2b bf 3d 6c b6 96 bc
       -0.08097129 0.13607553 0.09334474 -0.018397532
0002c0 bd 14 18 3e 44 f7 15 bd e0 8e 28 3e c6 bb d1 bc
       0.14851661 -0.036612764 0.16460752 -0.025602233
0002d0 64 51 91 3d db d8 ce bd 01 a1 ad 3d 39 72 0c bc
       0.07095602 -0.10099956 0.08477975 -0.008572155
0002e0 d2 c4 0c bd f3 9b 93 3c 57 d1 c7 3d 2a e3 5e 3e
       -0.03436739 0.018018698 0.09756725 0.21766344
0002f0 f0 4a d8 3d f7 b6 1d 3c ca 66 c4 3d 84 f6 8b 3e
       0.10561168 0.009626142 0.09589918 0.27336514
000300 b1 ad 28 bd 09 fe 9c 3d 5c 2f 88 3d 90 43 1c 3b
       -0.04118127 0.07665641 0.06649658 0.0023843981
000310 d4 df 83 3c 19 56 d8 bd a0 db 33 3c a9 8b 82 3c
       0.01609794 -0.10563297 0.010977656 0.015935736
000320 36 ad 20 be 63 aa a1 bb 98 98 8f 3d 96 dd 1b 3d
       -0.15691075 -0.0049336418 0.07011527 0.038053118
000330 17 da c8 bc be f7 c0 3d 0f c5 f6 bd d2 83 17 be
       -0.024518056 0.09422253 -0.12049305 -0.14796379
000340 0b db 47 bd fd 50 be bd 96 63 01 3c b1 e7 59 bd
       -0.04879288 -0.09292791 0.007897278 -0.053199474
000350 cd 36 87 bd 8f 6f 5a bc e3 f2 7a 3d b7 b0 b1 3d
       -0.06602249 -0.013332262 0.06126679 0.08676284
000360 28 e0 08 3e 3f d4 84 b8 18 de 06 bd a6 62 03 3e
       0.13366759 -6.3337844e-05 -0.03292665 0.128306
000370 c2 53 6d bd 69 ba 6e 3d 39 30 86 3d d6 fd 9f bd
       -0.057941206 0.058283243 0.065521665 -0.07812087
000380 38 43 44 bd 41 51 bc bd 5a 4a b1 bc 13 c5 34 bc
       -0.047915667 -0.091951855 -0.021641899 -0.011033314
000390 9f 95 20 3e fc a2 35 be 06 77 b3 3b a0 de c4 3c
       0.15682076 -0.17737955 0.005476835 0.024031937
0003a0 bd 04 eb 3a 70 50 92 3d ec 23 bc bd 1e 43 59 3d
       0.0017930489 0.071442485 -0.09186539 0.053042524
0003b0 39 c0 e4 bc 53 ac e4 bd 65 e6 06 be fb 11 98 bd
       -0.02792369 -0.11165681 -0.13173826 -0.074253045
0003c0 1f 71 d1 3d 4e d3 14 be ee d5 0a bc ec ab b8 bd
       0.10226654 -0.14533731 -0.008473856 -0.090171665
0003d0 ad 30 63 3d 7a 71 f3 bd a5 d0 a4 3a 3f 0f 15 3e
       0.055466343 -0.11886878 0.0012574388 0.14556597
0003e0 d3 02 cd bd 10 8e c8 3c 79 1b dc 3d fb 61 b7 3d
       -0.10010304 0.024481803 0.107474275 0.08954235
0003f0 8f 6c 56 bd 4b 95 de bd b3 a8 40 3d 9e f3 af 3c
       -0.052349623 -0.10868319 0.047035884 0.02147847

Pair_score_mlp.fc_layers.1.bias f4 [8]
000000 8b b8 8a bb 72 da d8 3d a0 3c b7 bd 01 71 8f 3d
       -0.004233425 0.1058854 -0.0894711 0.07003976
000010 c5 79 09 3e 97 75 ed 3d 76 14 79 bd fd c9 84 bd
       0.13425358 0.11594694 -0.06081053 -0.06483839

CNN_embedding_types.weight f4 [106, 16]
000000 53 31 14 3e f5 92 46 bf f1 cf fc be b2 de 73 3f
       0.1447194 -0.7756799 -0.49377397 0.9526168
000010 39 9b d0 be 02 8c 5a bc eb 74 e2 3f 05 a0 39 c0
       -0.40743425 -0.0133390445 1.769193 -2.9003918
000020 15 51 fc 3d 6c a1 5d bf e7 f5 08 bf 9c da 89 3f
       0.12320153 -0.86574435 -0.5350022 1.0769839
000030 ef 8e f8 3e ba 84 ca 3e 1c 5e 3c 3f 04 11 44 bf
       0.4854655 0.39554387 0.735811 -0.76588464
000040 46 1c 08 bd 67 94 f6 bf 6a 36 2a 3f 97 0b 3b bf
       -0.03323009 -1.9264039 0.6648928 -0.7306456
000050 46 69 ea 3e 44 19 27 bf 18 2d d4 3e 60 a8 81 be
       0.45783442 -0.6527293 0.41440654 -0.25323772
000060 ea 84 1e bd 1c 8b 67 bf 2f 79 ad bf dd b3 f2 3e
       -0.038700975 -0.9044664 -1.3552607 0.4740285
000070 ea d8 82 3f 99 83 da 3e dc 08 b9 be 0c 0d 02 be
       1.0222447 0.42678526 -0.36139572 -0.1270029
000080 64 bd 0e bf 45 8d d5 3f 49 d9 1f 3f 1e 70 bd be
       -0.5575774 1.6683737 0.62440926 -0.369996
000090 95 56 9e bc 5b 48 8b 3f 57 4e e1 3e a3 90 84 bf
       -0.019328395 1.0881456 0.4400508 -1.035664
0000a0 26 13 07 40 29 77 c6 bf 23 e7 88 bf c1 0f 16 3f
       2.1105437 -1.5505115 -1.0695537 0.5861779
0000b0 c4 8f 8b bd bd a1 e1 3d 88 13 02 bf 4a 34 a2 3f
       -0.068145305 0.11017177 -0.5081105 1.2672207
0000c0 95 3a 9b be 5d 25 1b bf 7e 64 9f be bc a0 8f 3d
       -0.30318132 -0.60603887 -0.31131357 0.070130795
0000d0 52 fe e7 be f4 d9 05 40 6f a9 9c bd a3 61 9f 3f
       -0.45311219 2.0914278 -0.076495044 1.2451671
0000e0 e5 8e ae bf 9f ee 44 bf da 21 aa 3e ae 21 92 3f
       -1.3637358 -0.76926607 0.33228952 1.1416528
0000f0 d6 b5 c3 3d ec 68 08 c0 e1 59 0c 3f 83 a2 6f 3f
       0.09556167 -2.131404 0.54824644 0.9360735
000100 a4 3f f4 3f 90 27 76 3f 19 9f 0d 3f 04 97 71 3f
       1.9081922 0.9615412 0.5532089 0.94371057
000110 0b d5 ae 3e f5 fe 13 bd 4d bb bf 3f 62 f2 46 bf
       0.34146914 -0.036131818 1.4979035 -0.77713597
000120 84 d1 48 3f 52 7e 3a bd 1d cc 26 be 7c 58 ab 3f
       0.78444695 -0.045530625 -0.162888 1.3386378
000130 21 b6 26 be cb 93 83 be c7 17 56 3d 93 f6 c7 be
       -0.16280414 -0.25698695 0.05226877 -0.3905531
000140 3b e2 6b 3e 18 9b 88 3e 4b 90 8c 3f 9d 96 9f bf
       0.23035519 0.26680827 1.0981535 -1.2467839
000150 9b 92 75 bf 5a 47 e7 bf 61 7b 3a 3c c8 e0 e1 bd
       -0.9592683 -1.806865 0.011381955 -0.11029202
000160 6f bd a0 bf 8c 85 22 3f 58 4d 9e 3e cd a2 36 40
       -1.255781 0.63485026 0.30918384 2.8536866
000170 44 72 9b bf 62 13 5b be 26 df 06 bf f1 fb 32 3e
       -1.2144246 -0.21394113 -0.5268425 0.1747892
000180 84 b8 04 3f 58 d5 c1 be ef db 66 be aa 67 c8 bf
       0.5184405 -0.3785808 -0.22544836 -1.5656636
000190 e5 71 f4 3e ac e3 87 bf 19 cc e3 3f 75 78 0c bf
       0.47743145 -1.0616355 1.7796661 -0.548713
0001a0 fe 86 ad 3e 68 37 47 3f 4e 46 f7 3b 63 71 15 bf
       0.33892053 0.7781892 0.007546223 -0.5837614
0001b0 74 51 6a bf 67 8b 57 bd 7a cf e4 3f 83 64 93 3f
       -0.9153054 -0.05262318 1.7875817 1.1515049
0001c0 f1 23 c7 3d 39 4b cc 3f bf a9 1a bf a8 74 b4 3f
       0.09723652 1.5960456 -0.6041526 1.4098101
0001d0 73 c5 f1 3d d3 3a 34 3f c7 95 09 bf 44 76 3c bf
       0.118052386 0.7040226 -0.5374417 -0.7361796
0001e0 17 0f 0c 3f 1d d8 f3 3f e3 e4 cf 3d e4 ea e6 3e
       0.54710525 1.9050328 0.101510786 0.45101082
0001f0 d9 01 cd 3e fa aa 7f bf cd 37 1b 3e da 77 21 bf
       0.40040472 -0.99870265 0.15158005 -0.63073504
000200 c8 88 36 40 03 4c f3 bd d2 10 c5 3e e5 eb 79 3f
       2.8520985 -0.118797325 0.38489395 0.9762557
000210 aa 02 ac bf f8 8a 55 bf bd 59 06 be ec 76 c2 bd
       -1.3438313 -0.83415174 -0.1312017 -0.09495339
000220 7d 43 38 be 3e 5a 8e bf ed 8a ea 3e ad ad 5f be
       -0.17994495 -1.112129 0.45809117 -0.21843596
000230 86 57 0e 3f 09 d7 df bd b1 b5 ff 3f d2 92 03 3e
       0.556023 -0.109296866 1.9977323 0.12848976
000240 f2 00 e0 3c 2a e4 1a 3e 16 48 54 bf 40 95 01 40
       0.0273442 0.151261 -0.82922494 2.0247345
000250 c2 86 79 3e 2a 23 9a 3d 2d 50 90 be b9 bb 9b 3d
       0.24367812 0.07526238 -0.2818617 0.07604165
000260 a6 73 d0 3e 61 8f 81 be 06 de cf 3e 49 80 45 3f
       0.40713233 -0.25304702 0.40599078 0.7714887
000270 ed e5 6c be 06 a6 8d bf 0a 10 94 3d f0 fc 5d bf
       -0.23134585 -1.1066291 0.07229622 -0.86714077
000280 87 c5 96 bf 34 da 0a 3f 45 92 4d be c9 95 18 bf
       -1.177903 0.542392 -0.20075329 -0.59603554
000290 f4 d2 eb 3e 36 ec 9d 3f 50 51 9e 3e fe 11 1b 3f
       0.46059382 1.2337711 0.30921412 0.6057433
0002a0 76 73 19 3f 20 07 9c be 7f 51 9d be 89 34 d2 3f
       0.59941804 -0.30474186 -0.3072624 1.6422282
0002b0 e1 8a 85 3f 04 e6 bd bf c4 b4 24 3f d2 ef e5 3f
       1.0433007 -1.483582 0.64338326 1.7963812
0002c0 8e 29 b3 3c 84 66 f3 bf 09 6c e5 bd be d3 ba 3e
       0.0218704 -1.901566 -0.11202247 0.3648967
0002d0 38 ff a6 bf 27 3a ca bc 1a 1c a7 bf f2 b2 68 be
       -1.3046637 -0.024685932 -1.3055451 -0.22724512
0002e0 3b c6 d9 bd 95 03 8c bf ec 47 92 be 3d 39 db 3f
       -0.106335126 -1.0938593 -0.28570497 1.7126843
0002f0 e4 bf a2 3f 83 c5 81 3f 2c 8a 3d bf 79 2a 84 3e
       1.271481 1.0138401 -0.7403896 0.25813654
000300 d0 92 67 bf 18 9f 13 40 e9 71 4b bf a3 e3 df 3f
       -0.90458393 2.3065853 -0.7947069 1.7491344
000310 ba 7c a6 bd 84 7c 3c be 6d 35 97 bf 6d 48 dd 3e
       -0.081292585 -0.18406874 -1.1813179 0.4321932
000320 e2 9a a3 3f 78 49 45 bf 58 81 dc 3f 3e 3e 62 be
       1.2781641 -0.7706523 1.7226973 -0.22094056
000330 f8 5f 5c 3f fe b0 e8 3f 5f 08 2f 3f 6e 50 85 be
       0.86083937 1.8179014 0.6837215 -0.26037925
000340 a8 f6 f4 3f ef 81 92 3f d3 48 b1 3f 18 62 93 bf
       1.9137774 1.1445903 1.3850349 -1.1514311
000350 23 71 02 3e 7b 3f 5d 3f 13 29 58 3f 46 88 cc bf
       0.1273847 0.8642499 0.84437674 -1.5979087
000360 6a a3 74 3f b9 68 b2 bf 9c 87 7e 3d 88 d4 82 bf
       0.9556185 -1.3938209 0.062141046 -1.0221109
000370 52 1b 0c bf bd 52 8c 3f 7e 9b fd 3d 90 07 cc 3e
       -0.5472919 1.096275 0.123831734 0.3984952
000380 6c 5c a8 3c a3 8a 89 bf 88 e1 88 3d e4 d6 2f 40
       0.020551883 -1.0745434 0.06683642 2.747491
000390 27 b3 56 40 46 1a db 3f 7d af ab bf bc 3b 4a be
       3.3546846 1.7117393 -1.341293 -0.1974935
0003a0 99 37 7a bf 3e 2d 48 3d c2 f5 59 bf b8 c3 19 bf
       -0.97741085 0.04887127 -0.8514062 -0.6006427
0003b0 6d 29 6c bf f2 b1 11 3e 76 b1 fe be 44 0f a5 be
       -0.9225071 0.14228037 -0.49744767 -0.3223821
0003c0 3f 9f ee bf db c8 db 3e b0 58 1d 3f ba 6d 3b 3e
       -1.8642348 0.42926678 0.6146345 0.18303576
0003d0 99 c3 ca 3d ec 41 0b bf 52 10 44 3f b6 ce b0 bf
       0.099005885 -0.54397464 0.765874 -1.3813083
0003e0 c5 48 85 3e ce ad 29 3f ae 5e 3a 3f 30 f0 15 3f
       0.2603208 0.6628083 0.7280072 0.5856962
0003f0 d4 02 74 3e 5b cb a9 3c 17 00 4f bf 50 8c 5b 3f
       0.23829204 0.02072685 -0.8085951 0.85760975

embedding_CNN_distances.weight f4 [7, 8]
000000 d7 2b 85 3f 9e 21 93 bf 5f 35 47 3e 70 f4 b8 3e
       1.0404004 -1.1494634 0.19453953 0.3612399
000010 f6 47 70 3f e4 7f 07 bf ff 0b 3c 3f ea 53 9e 3f
       0.93859804 -0.5292952 0.73455805 1.2369359
000020 84 6e 37 bf 02 1b 37 3f ba 5e 37 c0 6e 64 6e be
       -0.7165301 0.71525586 -2.8651567 -0.23280498
000030 7c 0d 81 bf ac 67 0d c0 58 a0 82 bf 05 3f 7f 3d
       -1.008224 -2.2094526 -1.0205183 0.06231596
000040 53 05 84 3e 3b 50 95 bf b9 17 02 3d dd dc c3 be
       0.25785312 -1.1665109 0.031760905 -0.38254443
000050 b6 89 9d 3f 76 27 63 3f c1 51 f5 3f 5b af cf 3e
       1.2307651 0.8873209 1.9165574 0.40563473
000060 2d 05 f3 bd 3e 86 be 3e 34 1e 0b 3f d5 30 e0 bf
       -0.118662216 0.37211794 0.5434296 -1.7514902
000070 69 0d 70 3f cb e1 45 bf 7d 12 d6 3e 02 61 01 bf
       0.9377046 -0.7729766 0.4181098 -0.5053865
000080 13 b6 8c bf 37 e8 30 be 11 f3 1e 3f 31 47 c6 3f
       -1.0993065 -0.17276083 0.6208964 1.5490476
000090 81 fd 0a 3e 59 6b 37 bf 13 47 6b 3e 3d 07 bb 3e
       0.13573267 -0.71648175 0.22976331 0.3652896
0000a0 30 6c bd 3d 34 eb d2 be e7 6c 51 be 29 48 ab 3f
       0.09249151 -0.4119507 -0.20451699 1.3381397
0000b0 75 8c bb 3e a6 c5 69 bf 36 1b 36 bf f2 c8 89 3f
       0.36630598 -0.9131721 -0.7113527 1.0764449
0000c0 00 00 00 00 00 00 00 00 00 00 00 00 00 00 00 00
       0.0 0.0 0.0 0.0
0000d0 00 00 00 00 00 00 00 00 00 00 00 00 00 00 00 00
       0.0 0.0 0.0 0.0

embedding_CNN_prices.weight f4 [6, 5]
000000 e1 cb f2 3f e2 2d b1 3f 5c e2 a2 bf 56 f8 dc bf
       1.8968469 1.3842127 -1.2725329 -1.7263286
000010 9e f2 80 bf 78 ea e3 be d1 78 8e 3f 06 e0 f8 3f
       -1.0074041 -0.44514823 1.113062 1.9443367
000020 98 02 b2 3e b6 77 7c be 83 63 0b 40 83 10 0f bf
       0.34767604 -0.24655041 2.1779487 -0.5588457
000030 76 8a cd bf 71 3e 34 bf fc ea 93 bf 40 76 99 bf
       -1.605788 -0.7040778 -1.1556087 -1.1989212
000040 34 bb eb 3f 78 7d a5 be fa 2a b5 bf b1 22 57 bf
       1.8416505 -0.32322288 -1.415374 -0.8403731
000050 3d fa 1d bf d0 63 a1 3e ae c8 1d 3d bc 0d 47 bf
       -0.6170996 0.31521463 0.03852146 -0.7775533
000060 8d 46 6d 3f 00 00 00 00 00 00 00 00 00 00 00 00
       0.92685777 0.0 0.0 0.0
000070 00 00 00 00 00 00 00 00
       0.0 0.0
