checkpoints/GNNNoCNN_Epoch137_valmse2.1374_testmse2.3086_ndcg0.9344.model (torch, 249600 bytes, 52 tensors)

Pair_embedding_types.weight f4 [106, 16]
000000 07 82 98 3c 31 c6 cf bd db 62 d3 be 81 5c 61 bf
       0.01861669 -0.10145224 -0.41286358 -0.88031775
000010 29 d9 60 3f 51 02 c2 be 48 6c 09 3e ef cb ab bf
       0.8783136 -0.37892392 0.13420212 -1.342161
000020 3f b3 1c 3e e2 0d 22 3c b9 37 a1 bf c9 e1 0a 3f
       0.15302752 0.009891005 -1.259513 0.5425077
000030 38 45 cf bf 5e 65 c0 3e a3 d7 a4 3e a9 ae 3a 3f
       -1.6192999 0.37577337 0.32195768 0.7292276
000040 ca d6 f4 3e 62 ac 94 bf 27 b1 f3 3f 79 40 d8 be
       0.4782012 -1.1615107 1.9038438 -0.4223669
000050 d7 07 80 be b4 ff 4d 3e c0 a5 11 bf db c0 30 3f
       -0.2500598 0.20117074 -0.5689354 0.69044274
000060 47 c2 84 bf ac 43 a8 3c ed c2 03 bf 0e dc 53 40
       -1.0371789 0.020540081 -0.5146931 3.310306
000070 a5 59 47 bf 34 c0 18 bf 46 b0 8f bf 7a 09 82 3f
       -0.7787116 -0.5966828 -1.1225669 1.0159142
000080 3e 45 db 3f 5b d1 13 40 b0 21 83 bf 0e 4f 1c 3e
       1.7130506 2.309653 -1.0244656 0.15264532
000090 ed 21 63 3f ba 35 ad bf 03 f9 8f bf f0 ec 90 3d
       0.8872364 -1.3532021 -1.1247867 0.07076442
0000a0 6f f0 1e 3f 3c fe fb 3d c3 6b 85 3f 1e 93 ce 3d
       0.6208562 0.12304351 1.0423511 0.10086654
0000b0 44 09 71 bf 3e fe 85 3d e4 34 8e 3f e0 91 13 be
       -0.94154763 0.065426335 1.1109891 -0.14411116
0000c0 74 9f 29 bf 73 8f 96 3f 2a 6e d2 be a2 0b 93 bf
       -0.6625893 1.1762527 -0.41099674 -1.1487925
0000d0 a2 e0 d7 bf ee 0d 5c 3f 65 77 ff bf 9f 76 0c 3b
       -1.6865427 0.85958755 -1.9958311 0.0021433008
0000e0 61 b8 12 bc 9b 63 85 3f 1e 42 a7 bf 13 49 a3 3f
       -0.008955092 1.0421022 -1.3067052 1.2756675
0000f0 92 d4 86 3d 51 3f 7a 3f b5 b7 8e 3f 4c e9 b5 3c
       0.06583513 0.97752863 1.1149813 0.022205971
000100 74 5e b1 bd f3 7c 2c 3e 4c ea 54 3f 84 a0 d5 bf
       -0.08660594 0.1684454 0.8317001 -1.668961
000110 58 39 07 40 30 2c 89 bf ac 33 13 3e 1b 43 aa bf
       2.112875 -1.071661 0.1437518 -1.3301729
000120 ca ed bf be 05 c7 21 3e af 28 2a 3e 83 6d 5b 3f
       -0.37486106 0.15798576 0.16617082 0.85713977
000130 47 53 c4 3e d9 7f e7 bd 4b 4a 52 3e 5f 57 66 3e
       0.38344786 -0.11303682 0.20536153 0.22494267
000140 7a b0 69 be 7f b8 1d 3e a7 bb 86 3e c3 50 8b 3f
       -0.22821227 0.15402411 0.26315042 1.0884022
000150 54 27 c5 be 15 fc 96 bf 90 ea 17 be 47 c0 bc be
       -0.38506567 -1.1795679 -0.14835572 -0.36865446
000160 f0 b1 2d 3f b5 73 c4 3f de 2c 3d bf 69 84 50 bf
       0.67849636 1.5347811 -0.73896587 -0.8145204
000170 02 1f 5e bf 74 6a 17 3f e7 b6 65 3f cf 4c bf 3f
       -0.86766064 0.5914681 0.8973221 1.4945315
000180 fa a1 b2 bf 2d e1 16 3e 3f 49 e6 3f 50 1f 24 3e
       -1.3955681 0.14734335 1.7991103 0.1602757
000190 94 1b 33 3f a5 b6 30 3e 16 ee 74 bf c1 84 09 40
       0.69963956 0.17257173 -0.9567579 2.1487277
0001a0 5c 8c 89 bf d8 5f a2 3f e4 3d 2c 3e b7 f7 78 bf
       -1.0745959 1.2685499 0.16820484 -0.9725298
0001b0 40 8b eb be 3c 58 97 3e 37 b4 ea be 0e c9 e1 3c
       -0.46004677 0.29559505 -0.45840618 0.02756169
0001c0 85 14 32 3f 69 f5 c4 3f 87 3c 75 3e 34 5a ce be
       0.6956256 1.5387393 0.2394887 -0.40303195
0001d0 a8 e0 3d bf e6 5e 56 3e d9 ff a4 be 96 61 48 be
       -0.74170923 0.20934638 -0.32226446 -0.19568476
0001e0 22 3d 90 3f 51 d0 27 c0 72 80 9b 3e 62 9b 95 be
       1.1268656 -2.6220896 0.30371433 -0.2922011
0001f0 53 d1 d2 bd 13 06 bb bf 60 72 ca bd 7a dc 2e 3d
       -0.10293832 -1.4611229 -0.098850965 0.04269073
000200 a8 e0 b4 3e 51 1d cd 3f 85 1c ce 3e bc 97 5d 3f
       0.3532765 1.6024572 0.40256134 0.86559653
000210 bc ad 8d be 73 00 91 3f 84 0d 9a bf 75 c0 29 3f
       -0.2767161 1.1328262 -1.2035375 0.6630929
000220 d5 93 84 3e 7a b0 7b bf cb ef b9 3f 93 59 00 bf
       0.25894037 -0.98316157 1.4526304 -0.5013668
000230 06 6e 9f bd df 13 aa 3f fa f3 ac bc 4e 5c b5 3e
       -0.07784657 1.3287314 -0.02111243 0.35421985
000240 65 cc 76 3f 0f 73 10 3e 6d f5 c3 3e 76 bf 86 bf
       0.9640563 0.14106391 0.38273183 -1.0527179
000250 36 59 c9 be 31 bd 77 3f 21 c3 e8 3e a1 2b 1d bf
       -0.39325875 0.9677306 0.45461372 -0.613947
000260 3d 06 20 3f dc ba 4a bd 68 cd 0e 40 f9 d9 be 3f
       0.6250952 -0.04949461 2.231287 1.491027
000270 f4 98 bc 3f 54 97 00 3e 77 41 db 3e 8d a5 86 be
       1.4734178 0.12557727 0.42823383 -0.2629818
000280 06 94 a7 bd ef 6c e5 bd c3 61 45 3e 0b 33 97 3e
       -0.0818253 -0.11202418 0.19275574 0.2953113
000290 a4 de 89 bf 3f d7 39 bf 51 c8 94 3f 84 e1 81 3f
       -1.077107 -0.72594064 1.1623632 1.0146947
0002a0 33 91 ba bf 12 06 49 3f bf f9 4a be 5a f1 ab 3f
       -1.4575561 0.7852489 -0.19821833 1.343303
0002b0 a1 0f b5 3f d7 11 9e 3d b7 6a b2 3e 9d 7f c2 3e
       1.4145395 0.077182464 0.34847042 0.37987986
0002c0 2f b3 9a bf a9 a0 22 bf d7 22 f0 bd c4 b2 66 3f
       -1.2085932 -0.635264 -0.11725395 0.90116525
0002d0 b1 b2 7a be 3d e8 a0 bf fa 79 48 3f 60 98 26 3f
       -0.24482228 -1.2570873 0.7831112 0.65076256
0002e0 00 fe a7 3e 1c b9 51 3f 94 4e fd 3f fa da 47 3e
       0.32810974 0.8192308 1.9789605 0.19517127
0002f0 4f 3a 27 3d 08 4a bd 3f 78 ea 8c be 7d 92 7d 3e
       0.04082709 1.4788218 -0.27522635 0.24762912
000300 1c 04 d0 3e 50 3d d2 bf e7 9b 4a 3e 0a e5 84 be
       0.40628135 -1.6424961 0.19786035 -0.25955993
000310 19 79 dc 3f 49 e5 90 bf d0 51 03 3f b0 d6 c3 3f
       1.7224456 -1.1319972 0.5129671 1.5299892
000320 f7 b5 08 be 29 1d c5 bf 6c 22 47 bf 81 24 07 3f
       -0.13350664 -1.5399524 -0.777869 0.52790076
000330 d0 4f 60 3f ce a0 68 3e 89 53 d7 3d 8e 29 a8 3e
       0.87621784 0.22717592 0.1051398 0.32844204
000340 67 04 3a bf 1f 1e d4 3f 67 d8 e1 be 6a 0e 0d 40
       -0.7266297 1.6571692 -0.44110414 2.2040048
000350 02 6a a5 3f 00 21 e0 3e 82 a2 a4 bf 29 cf a8 3e
       1.2922976 0.43775177 -1.2862093 0.3297055
000360 38 a6 d6 be 13 07 44 3e c2 74 1d bf 81 9a 11 3f
       -0.4192369 0.19143324 -0.61506283 0.5687638
000370 c3 46 a2 bf fe 30 50 40 08 09 02 40 a3 b6 06 c0
       -1.2677845 3.2529902 2.0318012 -2.1048973
000380 56 15 62 bf 64 43 1b be 56 ef 13 c0 b9 66 ae 3f
       -0.88313806 -0.15162426 -2.311483 1.3625098
000390 82 86 81 bf 22 58 b2 be 8a 8e d9 3e 76 56 7c bf
       -1.0119174 -0.34832865 0.4249156 -0.9856943
0003a0 3c de dc be cc 71 30 bf 4a 92 4b bf b7 37 b2 3e
       -0.431383 -0.6892364 -0.79520094 0.34808132
0003b0 f9 7d aa bf b7 d9 64 bf f7 05 ce be b0 a5 bf bf
       -1.3319694 -0.89394706 -0.40238926 -1.4972439
0003c0 c8 67 8a bf 9e 4f eb 3e 51 95 cd bf 09 72 f4 3c
       -1.0812922 0.4595918 -1.6061193 0.029839532
0003d0 13 cb cf 3e c5 59 ba 3f fa 39 67 3f 9b f2 ab bf
       0.4058462 1.4558645 0.9032284 -1.3433412
0003e0 43 fa 6e 3f 07 aa 95 bf 42 19 ad be a3 ff 81 be
       0.9335062 -1.1692513 -0.33808333 -0.25390348
0003f0 1f 3e d9 3f bb 83 fe be 4e c0 01 c0 5e b8 31 3e
       1.6972083 -0.49709877 -2.0273623 0.17355487

embedding_Pair_distances.weight f4 [7, 8]
000000 0f 92 02 3f 58 03 56 bf f1 fd 71 3f ab 87 3f 40
       0.5100412 -0.8359885 0.9452811 2.9926555
000010 14 f7 31 3f 1d 6e b5 3f 88 ea bc be 09 71 a2 3e
       0.69517636 1.4174229 -0.36897683 0.31726864
000020 15 5f 01 40 b8 4a 0e 40 83 13 52 3f 1a 34 bc bd
       2.0214283 2.2233105 0.8206102 -0.09189625
000030 35 29 be 3f 1b 7f 74 bf 50 a7 cc 3f 1d 9c 24 40
       1.4856325 -0.9550645 1.598856 2.5720284
000040 55 1c 3d bf a6 75 63 bf 36 fe 81 bf c5 cf cd bd
       -0.73871356 -0.8885139 -1.0155704 -0.100493945
000050 05 c7 b4 bf 8b a3 03 bf f0 56 fa 3d 85 8a cc bf
       -1.4123236 -0.5142142 0.12223613 -1.5979773
000060 0c e0 c1 be a8 a6 c8 3e ac 58 f3 bf d6 8f 25 be
       -0.37866247 0.3918965 -1.9011436 -0.1616815
000070 5b e1 07 c0 71 91 f7 bf eb 16 7c bf 9d dc f2 be
       -2.1231296 -1.934126 -0.9847247 -0.4743394
000080 92 ff 84 3f 4c a8 9e 3f 77 dd c3 be c0 e8 07 c0
       1.0390494 1.239511 -0.38254902 -2.123581
000090 b4 c2 a7 bf fb bd fb bd 21 02 27 bf 1a 79 90 bf
       -1.3106294 -0.12292095 -0.65237623 -1.1286957
0000a0 e0 2d a6 bd f3 dc d6 3e 4e 5b 0c bf e2 d5 20 3e
       -0.08114219 0.41965446 -0.5482682 0.1570659
0000b0 78 c0 b0 bf 5b e8 4e bf f8 ca d6 bf c4 26 14 bf
       -1.3808737 -0.80823296 -1.6780691 -0.5787165
0000c0 00 00 00 00 00 00 00 00 00 00 00 00 00 00 00 00
       0.0 0.0 0.0 0.0
0000d0 00 00 00 00 00 00 00 00 00 00 00 00 00 00 00 00
       0.0 0.0 0.0 0.0

embedding_Pair_prices.weight f4 [6, 5]
000000 bc be 21 3e 2d ed 04 3f 53 be fa 3e 54 77 bc be
       0.15795416 0.519244 0.4897333 -0.3680979
000010 68 c9 9d 3f 21 1a 4d 3f ce 1d a5 bd 48 5d 53 3f
       1.2327089 0.80117995 -0.080623254 0.8256421
000020 3c 68 54 3f c3 f1 38 3f e2 75 0e be 08 b4 1a bf
       0.8297155 0.722439 -0.13912156 -0.60430956
000030 c1 56 23 bf 1e 85 0b 40 63 d2 4d bf c6 e0 9f bf
       -0.6380425 2.1799998 -0.8039915 -1.249047
000040 5c b0 02 c0 60 5f fe be b7 a9 40 3e cb e7 02 40
       -2.0420141 -0.4968214 0.18814741 2.0453975
000050 6a 87 92 bd 94 66 bb bf c5 b8 ff bd d2 09 88 3f
       -0.071547344 -1.4640679 -0.12486414 1.0627997
000060 e2 cd ac bd 00 00 00 00 00 00 00 00 00 00 00 00
       -0.084377065 0.0 0.0 0.0
000070 00 00 00 00 00 00 00 00
       0.0 0.0

Pair_shop_mlp.fc_layers.0.weight f4 [64, 32]
000000 35 aa ea 3c ac 62 b5 bd fc 61 2d 3e 0a 37 60 3e
       0.028645614 -0.08856711 0.1693191 0.21895996
000010 c3 a6 83 be dc 9c 66 3d f6 35 e8 3d 0c 41 0f be
       -0.25713167 0.056301937 0.11338417 -0.13989657
000020 6a 62 26 3d 83 0c 65 3e f2 01 28 be a2 eb f4 3c
       0.0406212 0.22368054 -0.16406992 0.029897515
000030 ac ed cc bd 19 0e 5e be d3 12 9c 3d bb e0 5c 3d
       -0.1000627 -0.21685065 0.07620778 0.053925257
000040 48 e5 fa 3d 7c f0 ab 3c 2d 3e 4d 3c a1 63 ad 3d
       0.12250763 0.020988695 0.012527031 0.08466268
000050 90 59 f4 3c 4a 09 ca 3d ea 07 cf 3c 79 94 82 3e
       0.029827863 0.09865053 0.025272328 0.255039
000060 ae 31 01 be 65 29 7d 3a 81 30 da bc a3 f9 13 3e
       -0.12616608 0.00096573523 -0.026634457 0.14450698
000070 88 a1 4a 3d 40 f2 7e 3d 0c b4 ec bd ee 99 81 be
       0.049470454 0.062242746 -0.11557779 -0.25312752
000080 23 2e 65 be be 6d cf 3d 9f 29 e5 bd f5 0e 28 3e
       -0.22380881 0.101283535 -0.11189579 0.16411956
000090 68 59 da 3d 63 14 ad 3e 22 95 a9 3e b9 d6 19 be
       0.10661584 0.33804616 0.33121592 -0.15023316
0000a0 c7 58 02 be 2c 8c a1 bd 17 b6 d8 bd 58 10 99 bc
       -0.12729178 -0.07888064 -0.10581606 -0.018684551
0000b0 b9 a3 04 3d 0b 44 85 bd f7 a5 c3 bc b1 35 85 3e
       0.0323827 -0.06507119 -0.02388285 0.26017526
0000c0 f2 c1 e5 3c 76 9b 31 be 18 31 d9 3b d1 c3 4f 3e
       0.028046582 -0.1734446 0.006628167 0.20289542
0000d0 89 00 4b 3d 7b cc db bd 09 89 f0 bc 78 32 df 3d
       0.049561057 -0.10732361 -0.029362218 0.10898298
0000e0 72 31 c9 bd 81 81 b4 3d d3 6f 11 bd 16 6d 09 be
       -0.09823884 0.088137634 -0.035507035 -0.13420519
0000f0 7a c8 fd 3d 5b 37 a5 bd 67 45 3c 3e 10 a5 48 3d
       0.123917535 -0.08067199 0.1838585 0.04898554
000100 a4 44 c3 3d 4a 48 36 3c 53 80 64 3b 44 bf 5c bd
       0.095345765 0.0111256335 0.0034866526 -0.053893343
000110 3b 5b 2c 3e 2a 46 02 3e fc 33 9c 3d f3 64 29 3e
       0.16831677 0.12722078 0.07627103 0.16542415
000120 71 cc 96 3e eb 4e 8a be ba 62 d0 bd e6 94 f5 3d
       0.2945285 -0.27013335 -0.101750806 0.11991291
000130 0b 31 a9 bd 41 ea 09 be 4b d3 13 bd 78 b1 05 3e
       -0.08261307 -0.13468267 -0.036090177 0.1305598
000140 4d 85 ea bd 62 c8 15 be 54 3e 34 3e 0e 58 32 3e
       -0.11451206 -0.14627221 0.17601901 0.17416403
000150 d0 7f af bd 60 8d 0f 3e 54 4b 5a bd 0c fa ae 3c
       -0.085693 0.14018774 -0.053294495 0.021359466
000160 cc a7 a5 bd 37 3b be 3d ed f8 23 3d 34 19 ff bd
       -0.08088645 0.09288638 0.040032316 -0.12455979
000170 2f 86 3d 3d 2f 6f e9 bd 9d e2 bf 3d fc bc 7b 3d
       0.046270546 -0.1139816 0.09369395 0.061459526
000180 85 bf 06 be c3 54 e4 bd 8b 25 62 bd fb 6b ad ba
       -0.13158996 -0.111489795 -0.055211585 -0.0013231033
000190 f5 23 22 3d b4 92 4a 3e ee e5 59 3e 3d 24 3c bd
       0.039585073 0.19782525 0.21279117 -0.045932997
0001a0 1c d3 a7 3c e4 c1 9f 3e 18 99 18 be 86 5e 9a 3d
       0.020486407 0.31202614 -0.1490215 0.0753756
0001b0 f6 80 f1 3d bf 17 7a 3e e2 21 86 be e1 70 28 3e
       0.117921755 0.24423121 -0.26197726 0.1644931
0001c0 ad e2 4e bd 50 3f 10 3e 76 00 17 be 95 d4 b6 bd
       -0.050509144 0.14086652 -0.1474627 -0.089272656
0001d0 54 51 07 3e 5f f8 46 bd b5 65 f4 ba eb bb 17 3e
       0.13214618 -0.04857671 -0.0018646034 0.14817779
0001e0 a1 a4 26 3e 89 c6 a4 3d fa 28 03 3e 40 60 86 3d
       0.16273738 0.0804568 0.128086 0.06561327
0001f0 85 7a 58 be ec 04 05 bd 66 cc 0c be b1 a7 01 be
       -0.21140487 -0.032475397 -0.13749847 -0.12661625
000200 2b a1 19 3d e7 79 99 3d 3b 6d 0e 3d 10 0f 1e 3e
       0.037507217 0.07493954 0.03477214 0.15435433
000210 80 81 a6 3c a8 b6 30 be e0 b8 48 3d 8e 40 dd bd
       0.020325422 -0.17257178 0.049004436 -0.108033285
000220 c3 5d 99 bd 13 c4 d7 bd b9 7b 56 3d 58 02 6b bd
       -0.07488587 -0.10535445 0.052364085 -0.057375282
000230 87 8e 67 bc 70 3f 05 be 95 9e 32 bd 8f 7c b1 3d
       -0.014133102 -0.1301248 -0.043608267 0.08666336
000240 34 48 01 be 93 ba e8 bd e1 cf bf bc 5c c9 48 bc
       -0.126252 -0.11363711 -0.023414554 -0.012255039
000250 e9 a8 09 3e af 70 72 3d 59 77 12 be 21 cb 65 3d
       0.1344334 0.059189495 -0.1430334 0.056101922
000260 0a 5b 32 be 5b 34 e6 bd d5 33 bd bd d8 32 b3 bd
       -0.17417541 -0.11240455 -0.09238402 -0.08749932
000270 47 f7 d0 3c 1f b6 19 be 7c ea 82 3d 31 98 08 be
       0.025508536 -0.1501088 0.063923806 -0.13339306
000280 84 0f 1c 3d 25 c9 92 3d b8 82 6f bd f3 0d 6d ba
       0.038100734 0.071672715 -0.058474272 -0.0009042911
000290 1d a0 aa bb fc e6 02 3e 04 62 41 3e c4 bb a8 3d
       -0.0052070753 0.12783426 0.18885046 0.082389385
0002a0 c0 23 51 be a0 41 51 be 94 9a 2d 3a 7e 6c 00 be
       -0.20423794 -0.2043519 0.000662246 -0.12541386
0002b0 e1 2d 68 3d 15 bd 4d be 4e ef 17 be de 04 ac 3b
       0.05668438 -0.2009166 -0.14837381 0.0052496037
0002c0 cc 09 98 bb 50 29 32 3e b4 ba 13 be f0 66 d8 3d
       -0.0046398398 0.17398572 -0.1442669 0.10566509
0002d0 eb c3 cd bd e5 b7 06 3e 92 e3 f1 3d 9c dd 0f be
       -0.10047134 0.13156088 0.11810984 -0.14049381
0002e0 da b3 35 3e 3b d6 34 3e f4 e4 fd 3c 4e cc 60 bd
       0.17744389 0.17659847 0.030992962 -0.05488234
0002f0 1d 2f 00 be 47 d8 00 3e ee 20 d1 3c c6 3f 45 be
       -0.12517972 0.12582503 0.025528397 -0.19262609
000300 67 5a ab 3d 86 25 38 be a0 50 e2 bd da 34 15 3a
       0.08366852 -0.17983064 -0.11050534 0.00056917744
000310 0d 3e e9 ba be 71 44 be 45 ab a6 bd 74 f3 19 be
       -0.0017794982 -0.19184014 -0.08138136 -0.15034276
000320 a2 68 c3 3b aa a5 62 be 5c 17 9c bd e6 c0 0c be
       0.005963401 -0.22133508 -0.07621643 -0.1374546
000330 05 2f 25 3c 2d 16 29 3c bc a8 c3 bc 9d 3f c7 3d
       0.010082011 0.0103202285 -0.02388417 0.0972893
000340 27 8c 1d bb 0c 2c e8 3d 8e 3a c4 bc 8b b5 04 3e
       -0.0024039836 0.11336526 -0.023953702 0.12959878
000350 9c f2 84 3d 88 10 da bd d9 27 73 bd 31 53 12 bd
       0.064915866 -0.10647684 -0.059364174 -0.03572387
000360 a0 f1 3a 3e 6f d5 99 3c cb 1c 05 3e 50 6c 3e be
       0.18256235 0.01877853 0.12999265 -0.18596005
000370 11 e6 3b be d9 0a fb bc 88 a8 91 3d cd 33 90 bd
       -0.18349482 -0.030644821 0.07112223 -0.0704113
000380 86 20 35 bd dc 65 c3 bd 24 a2 70 bd c4 60 a3 3c
       -0.04422047 -0.095409125 -0.05874838 0.019943602
000390 16 64 06 3e 1a 25 19 3d 7f 22 f7 3d b0 84 ef 3d
       0.13124117 0.0373889 0.120671265 0.1169523
0003a0 2b c8 fa bd ff 15 bf 3c f7 f2 52 3d 22 1a 17 bd
       -0.1224521 0.023325918 0.05150124 -0.036890157
0003b0 27 8a 4b 3e 26 66 55 3e 4a 3e 3c 3c d3 96 fc 3d
       0.1987692 0.20839748 0.01148946 0.12333455
0003c0 aa aa 1f be af 04 2b bc 5a 23 5a bd d9 42 3b be
       -0.15592447 -0.010438128 -0.05325637 -0.18287219
0003d0 f6 e1 c8 bd 27 c1 66 3d 9e 44 19 be ca 84 1f be
       -0.09808724 0.05633655 -0.14967582 -0.15577999
0003e0 9d 87 c1 3d f3 c2 c1 3d 0c 9d 8c 3e 80 74 01 3e
       0.09449694 0.09461012 0.27463567 0.12642097
0003f0 3d 11 81 3d 5d 5d 47 3d 8f 6c 57 bc cf a5 6f 3d
       0.06302116 0.048673023 -0.013148441 0.058507737

Pair_shop_mlp.fc_layers.0.bias f4 [64]
000000 7b 70 4a 3e 23 16 75 bc f0 68 e3 bd 83 5b ad bd
       0.1976947 -0.014958891 -0.111039996 -0.0846472
000010 dc 89 c2 bd d2 fc ad bc 68 98 c2 3d 93 1f b0 bd
       -0.09498951 -0.021238718 0.095017254 -0.08599772
000020 3e 2d e7 bd 26 db b9 3d 57 89 c0 3d b7 7c 1d 3e
       -0.11287926 0.09075002 0.094011955 0.15379606
000030 3c cb cd bd 1f 2c ca 3d 17 30 c6 3d bd 11 59 bd
       -0.100485295 0.09871697 0.09677141 -0.052995432
000040 98 0c e9 bd 99 fc b5 bd 84 0b 96 bd d5 8c 9f 3d
       -0.11379355 -0.0888607 -0.07326415 0.077905335
000050 42 44 36 3e 9d 13 16 3e 22 3e c8 bd d8 ae 62 bd
       0.17799476 0.1465592 -0.09777476 -0.055342525
000060 cd 93 65 bd 5e 7f c6 bd 1e 6a 14 bc 35 88 e7 3c
       -0.056049157 -0.09692262 -0.009058503 0.02826319
000070 c0 30 35 be af 4a d6 3d ba 11 98 3d 5e 92 fa 3c
       -0.17694378 0.104634635 0.07425256 0.030587371
000080 6d d7 4e 3d 1b f3 40 3d b6 5f 15 bd a4 1a 74 bd
       0.050498415 0.047106843 -0.03646823 -0.05959572
000090 43 3c b8 bc 36 88 af 3d fe 93 8a bd 51 bf d3 3d
       -0.022489673 0.08570902 -0.067665085 0.10339225
0000a0 44 33 24 bd df aa 0a 3d d7 4a 98 3d 8a d4 28 3e
       -0.040087953 0.03385436 0.074361496 0.16487327
0000b0 17 36 bb 3d 55 3d 37 bd c8 2a 43 3e eb a9 63 bd
       0.09141176 -0.044736225 0.19059289 -0.05558197
0000c0 a6 9e bd bd 47 57 89 bd 63 e9 c7 bc 3b e7 b3 3d
       -0.092587754 -0.067061 -0.02440328 0.08784338
0000d0 9f d4 09 3e fb ed 8e 3d 05 bb ed bd 8a 55 92 bd
       0.13460015 0.06978985 -0.11607937 -0.071452215
0000e0 ea 1d d1 3c 7f 03 0e be 70 5a 06 3d b8 f0 3b 3e
       0.02552696 -0.13868521 0.03280109 0.18353546
0000f0 26 dc ea bd c4 78 87 3d e6 3e 20 be 07 2b 60 bd
       -0.11467771 0.06614831 -0.15648994 -0.054728534

Pair_shop_mlp.fc_layers.1.weight f4 [16, 64]
000000 08 24 b4 be 95 43 69 bd 9d 66 8e 3c 69 5a a6 3d
       -0.3518374 -0.056949217 0.017382914 0.08122713
000010 6c 52 4f 3d 9b fe 7f bc 20 9c d8 3d a9 3f b4 bd
       0.050615713 -0.0156246675 0.105766535 -0.08801205
000020 da 91 2b bd cf ce d5 bc 6e 09 1e bc 58 fa ce 3d
       -0.04188714 -0.02609959 -0.009645803 0.10106343
000030 d9 a2 a4 bd ed 45 93 bd b2 b5 36 be 54 9a 10 3e
       -0.08038873 -0.07191072 -0.17842749 0.14121372
000040 fe fc c9 3d 62 5e 10 3e e7 ef 52 bd 36 93 1b bc
       0.098627076 0.14098504 -0.05149832 -0.009495547
000050 b6 63 12 3e cb 1a f7 bc a5 19 c9 3d 7e db 2c 3d
       0.14295849 -0.030164143 0.098193444 0.04220151
000060 ad f4 83 3c f8 81 b9 3d 1f 3c 53 be f8 52 35 3e
       0.016107881 0.09057993 -0.20628403 0.17707431
000070 30 f2 46 3e 95 ef b2 3d 4c d4 f3 bd 48 e9 83 bd
       0.19428325 0.08737103 -0.11905727 -0.06440979
000080 f6 0c 42 3e 34 0a d7 bd 39 85 f9 3d 52 40 68 3c
       0.18950257 -0.10499993 0.12183613 0.014175491
000090 a6 01 17 3e 0e 7a 5c 3e 6c a2 5b 3d aa 8b 05 3d
       0.14746723 0.21530935 0.053621694 0.032603897
0000a0 75 90 64 3d c8 79 8f 3d 8e 8d 4c 3d e3 d7 97 bd
       0.055801827 0.0700565 0.049939685 -0.07414224
0000b0 1d 28 2c be da 65 10 bd 4d c1 f1 3c 3d 1d e4 3d
       -0.16812177 -0.035253383 0.029511118 0.11138389
0000c0 2c 53 15 3e ed 2a cf 3d c3 25 36 3e b7 4b a9 bd
       0.14582509 0.10115609 0.17787842 -0.082663946
0000d0 9e 73 85 3e a5 be c4 3d 77 d1 07 be eb a7 5d bd
       0.2606477 0.09606675 -0.13263498 -0.054115217
0000e0 02 73 e9 3d 0e dd c0 bd 95 b7 6f 3e 4d 75 9a 3c
       0.11398889 -0.09417163 0.23409875 0.018854761
0000f0 48 93 c6 3b 73 4b 02 bd d0 46 38 3e 72 d0 72 bc
       0.0060600378 -0.031810235 0.17995763 -0.014820205
000100 af 79 48 3e f2 d0 31 3b e7 20 d1 3b c1 0e 07 3e
       0.19577669 0.0027132598 0.006382096 0.13189222
000110 2c 3a 38 bd bb e7 b6 3d 4e 7c ea 3d 19 0a bf bd
       -0.044977352 0.08930918 0.114494905 -0.09328098
000120 dc c7 76 3d c9 a2 03 3d 4d ac b7 3d 84 36 e7 3d
       0.060249195 0.032137666 0.08968411 0.11289695
000130 02 b1 aa 3d 12 fa 96 3d 4d 49 b1 bc b5 88 02 3e
       0.08334543 0.07371916 -0.021641398 0.12747462
000140 37 93 24 3d b6 ce 99 bd 9e 25 3b 3e 06 15 76 bd
       0.040179458 -0.0751013 0.18276069 -0.060078643
000150 ec 81 06 3c 7f 5e 9c bd 0d df b8 3d 7d 0e b8 bd
       0.008209687 -0.07635211 0.090269186 -0.089871384
000160 2c bd 31 3d 5a 17 bc 3c aa e2 be bd ab 8c 73 3c
       0.0433933 0.022960354 -0.093205765 0.014865081
000170 60 be 20 be 65 7a 9e 3d 04 95 3a 3c fe d6 ae 3d
       -0.15697622 0.07738189 0.011388067 0.085371
000180 d7 43 bc bc 0c d5 67 bd 0b 04 00 be b8 72 70 3d
       -0.022981567 -0.05659966 -0.12501542 0.058703154
000190 05 f4 bf bc da 0e 97 bd 11 1a 8e bd 85 a4 99 3d
       -0.023431787 -0.073758796 -0.069385655 0.07502083
0001a0 2b 20 ae bd 8a 61 05 3d 76 62 f9 3d 24 af 1e 3e
       -0.08502229 0.032563724 0.12176983 0.15496498
0001b0 ae 0f cd bc 30 fa 7e bc ca 57 fc 3d be f8 29 bb
       -0.02503189 -0.015562579 0.12321432 -0.0025935615
0001c0 f7 48 6f be 82 99 12 be 15 79 0e 3d 2a 2c a4 3c
       -0.23367678 -0.14316371 0.03478344 0.02004059
0001d0 c6 f5 12 be 85 2a ae bd 01 70 85 3d 17 20 97 bd
       -0.14351568 -0.08504204 0.06515504 -0.073791675
0001e0 e5 02 57 bb 73 6a 4e 3d de f3 fa bd 92 40 08 3e
       -0.0032808122 0.050394487 -0.12253545 0.13305882
0001f0 7c ff ed 3d b8 6e e5 bd 71 bf 1b be a3 1d a2 3d
       0.116209954 -0.112027586 -0.15209748 0.07915809
000200 2b c1 bb 3e 07 11 da 3d 89 97 91 3d 8b 31 2a bb
       0.36670813 0.10647779 0.07108981 -0.0025969471
000210 64 24 e6 bd cd 2c 45 3d 42 2f 40 bc 02 4d 9c bd
       -0.1123741 0.04813843 -0.011730017 -0.076318756
000220 35 56 7e 3d 87 32 fb 3d f0 98 99 3c 1b 94 c4 bc
       0.062093932 0.12265497 0.018749684 -0.023996403
000230 2e 3e 40 bd 2c 48 c7 3c cf 7e d0 3c c2 0e 8f bd
       -0.0469343 0.024326406 0.025451092 -0.06985237
000240 81 06 cb bc 99 9d ea 3c a1 52 fa 3d 0c c0 02 3e
       -0.024783375 0.028639602 0.122227915 0.12768573
000250 9b cf 56 3d 93 e9 85 3a 3e 65 5e bd 37 90 99 3d
       0.05244408 0.0010216705 -0.05429577 0.0749821
000260 95 46 96 bc 57 04 83 bd de 1c 8e 3e 3c 8f 33 bd
       -0.018344203 -0.06397312 0.277564 -0.04383777
000270 2d 7a b5 bd bc 24 36 3e 9a 24 68 3e db b5 e9 bd
       -0.08861194 0.1778745 0.22670212 -0.11411639
000280 ad 8d 62 3d b5 44 b4 3c 1a f4 91 bd 50 6f 24 bd
       0.055310894 0.022005418 -0.07126637 -0.04014522
000290 93 a6 ba bc 6d b1 cd bd a2 f4 34 3e a2 85 b7 3d
       -0.022784507 -0.10043607 0.17671445 0.08961035
0002a0 d0 4c b8 3d fe d8 ab bc a0 47 e3 3b b8 f3 ca 3b
       0.08999026 -0.020977493 0.0069360286 0.0061936043
0002b0 5d b1 24 3e 86 e4 1e 3d da ce 3c 3d 81 ba e0 bd
       0.16083284 0.038792156 0.046095707 -0.10973073
0002c0 fe 52 8c be 8d 9d 4f 3d 1f e3 31 be 55 94 d4 3d
       -0.27407068 0.05068736 -0.17371796 0.103798546
0002d0 d1 80 a0 be d7 f1 e5 3d ba 54 31 3d ae ec d0 3d
       -0.3134828 0.11227768 0.043293692 0.10201393
0002e0 84 a7 07 3c c3 c9 21 bd 3f d1 09 3d 6c ba 8b bc
       0.008279685 -0.039499056 0.03364682 -0.017056666
0002f0 d3 85 ae 3d 3d f0 01 3e ca 42 3b be 26 90 e7 3d
       0.08521619 0.126893 -0.18287197 0.11306791
000300 36 a1 9b 3e 3f 67 93 3d 3e 45 1b bc 97 01 e8 bd
       0.30396432 0.07197427 -0.009476958 -0.11328428
000310 78 a6 3d 3d a8 21 03 bd ec ac e2 3d bf 0b ed 3d
       0.046301335 -0.03201452 0.110681385 0.11574506
000320 8f 3a dd 3d 3c ab 47 3e b2 cf 14 3e 1d f0 b1 3c
       0.10802185 0.19498914 0.14532354 0.02172094
000330 fb a1 00 3d ff ad 9d bd fb d0 1e 3b df 5a b8 bd
       0.031404477 -0.07699203 0.0024233449 -0.09001707
000340 62 c4 a0 3d ca 2e 46 bd a1 aa 93 3d c5 f8 bf 3c
       0.07849957 -0.048384465 0.07210279 0.023434052
000350 ca f4 23 bd 10 a0 d7 3d 20 9b f8 3d 8a 6e de 3d
       -0.04002837 0.105285764 0.12138963 0.108609274
000360 d2 9a 20 3e 55 c8 33 be 82 63 91 3e 26 ef be 3d
       0.1568406 -0.1755689 0.2839623 0.09322958
000370 d4 c9 a5 bd b0 a4 dd 3d e9 5a 6a 3e 0f d1 0c 3e
       -0.08095136 0.10822427 0.22886242 0.13751625
000380 80 2e e5 3d 38 ea dd 3c a5 0c eb 3c 21 19 5f bd
       0.1119051 0.027089223 0.028692553 -0.054467324
000390 93 af 1c be a9 29 81 bd 16 da b2 bd 4d 1d 83 bc
       -0.15301351 -0.06306774 -0.08733003 -0.016005183
0003a0 a1 b5 8e bc 87 20 91 3d 69 fb 9b 3d d9 0a e1 3b
       -0.017420592 0.07086282 0.07616312 0.006867748
0003b0 e7 5f 80 3d ee cf ea bc 40 89 0d bd b3 44 70 3d
       0.06268292 -0.028663602 -0.03455472 0.058659267
0003c0 9d 72 d6 be 01 dd 2d be 51 a5 26 be 03 60 7c 3e
       -0.41884318 -0.16978838 -0.16274 0.24646
0003d0 e9 37 84 be 8b 89 91 bd b4 e5 b1 bd c0 15 6a 3d
       -0.25823906 -0.07106312 -0.086863905 0.05714965
0003e0 26 f3 c3 3d 2c a8 aa bd 0a 3c f8 3d e0 96 01 3e
       0.09567861 -0.083328575 0.121208265 0.1265521
0003f0 fe e8 f6 bc 52 63 85 3d c1 15 86 bc 9c 96 4d 3e
       -0.030140396 0.065130845 -0.016367795 0.20076984

Pair_shop_mlp.fc_layers.1.bias f4 [16]
000000 83 f5 da bb f4 09 89 3c cc 6f 09 3e fa c8 25 3d
       -0.0066820993 0.016728379 0.13421553 0.04047487
000010 e4 1b ab bd 18 9b b8 bb f2 42 7a 3c c4 84 98 bd
       -0.08354929 -0.005633723 0.01527475 -0.07447198
000020 bf 05 4d 3d d9 bc 99 bd 8d 8e 60 bd 50 d2 98 3d
       0.050054308 -0.07506723 -0.054823447 0.07461989
000030 9c ff be 3d cc f2 66 3c 9a 0f b9 bd ae 9b 0e 3e
       0.09326097 0.014095973 -0.09036179 0.13926575

Pair_score_mlp.fc_layers.0.weight f4 [64, 32]
000000 1e 32 24 be 0c e9 bb bd 00 fb 3f 3e 5d c3 11 bd
       -0.16034743 -0.091753095 0.18748093 -0.035586704
000010 bf 03 99 bd e4 6e cf bd c0 57 70 3e b4 10 0c 3d
       -0.07471418 -0.101285726 0.23470974 0.034195617
000020 3d 33 d3 bb 98 8e 58 be 7f 55 93 bd c7 53 c1 bd
       -0.006445317 -0.21148145 -0.071940415 -0.094398074
000030 6a 10 06 be f9 0d 25 be 74 33 8f 3d 9f 20 5f 3c
       -0.13092199 -0.16118611 0.06992236 0.013618617
000040 50 f4 2e be 81 37 ba bd fc a6 70 3e ed 93 84 bd
       -0.17085385 -0.09092618 0.235012 -0.06473527
000050 87 b5 cf 3d 07 4e 57 be ed ec 2c 3d b0 44 ea 3d
       0.101420455 -0.21025859 0.042218138 0.11438882
000060 eb 1f 02 be 0e 9e 77 bd f6 24 1a 3e af a9 d4 bd
       -0.12707488 -0.060453467 0.15053162 -0.10383927
000070 74 82 86 3d ee c6 83 bc 3c 1c 82 be c1 d0 8b be
       0.06567851 -0.016086068 -0.25412166 -0.27307704
000080 39 93 27 be 64 82 7a bd 01 3c 54 3e 23 fe 46 3e
       -0.16364755 -0.061159506 0.20726015 0.19432883
000090 6b 36 b0 bd e0 a4 2e 3e 10 ba 32 3e c1 d7 d2 bd
       -0.086041294 0.17055082 0.1745379 -0.10295058
0000a0 09 7f fa 3d 55 55 5c be 6c af f4 bd 51 41 06 3d
       0.12231261 -0.21516927 -0.119475216 0.032777134
0000b0 48 a6 a1 3d 0b 41 65 bc b6 cb cb bd 74 69 87 bc
       0.07893044 -0.013992558 -0.09950964 -0.016529776
0000c0 a1 c2 9d bd 00 cf 03 be 25 2d 1e 3d 1c ad 1f 3e
       -0.07703138 -0.12871933 0.038617272 0.1559338
0000d0 bb af ec bc b9 e1 13 be 0f 96 00 bb e3 ac cb bd
       -0.028892389 -0.14441575 -0.0019620692 -0.09945085
0000e0 f0 de 1f be f5 c7 3a 3e db a9 2c 3b 0b 34 05 be
       -0.15612388 0.1824034 0.002634636 -0.13008134
0000f0 22 e5 42 bd e7 22 9e bc bc b6 ef 3d 1b 86 cc 3d
       -0.0475818 -0.019303752 0.11704776 0.09986516
000100 fe b4 01 be f8 10 b3 bb fe ba 03 bd 7e 35 ce bd
       -0.126667 -0.0054646693 -0.03216075 -0.100687966
000110 75 b4 1e 3d be bc 94 bc 26 e7 c7 3d cb e3 03 bd
       0.038746316 -0.018156406 0.09760885 -0.032199662
000120 20 b0 05 3e 5a 3c 98 be 75 1b aa bc 3a 37 34 3e
       0.13055468 -0.29733545 -0.020765046 0.17599192
000130 7e 0f fa 3c d2 bd 5a bd de e0 b2 3d 2e b5 81 bb
       0.030524965 -0.053403683 0.08734296 -0.003958366
000140 43 59 8a be 28 8e 38 3d 11 a2 38 3d bc 18 56 3e
       -0.27021226 0.045057446 0.045076434 0.20907873
000150 49 5f 64 3e a8 49 69 3d fe 84 2d 3e 3d 01 49 3d
       0.22301973 0.05695501 0.16945264 0.049073447
000160 78 e8 31 3e 94 23 46 bd f5 50 7e bd 85 94 54 3c
       0.17373836 -0.048373774 -0.062088925 0.012974863
000170 e3 11 22 be fb 0d 03 be 6b 11 cf bd e2 9d 26 3e
       -0.15827136 -0.12798302 -0.10110744 0.16271165
000180 11 33 32 be 09 05 06 3e e7 04 81 3e f5 aa 57 3d
       -0.17402293 0.13087858 0.25199053 0.05265327
000190 4a f1 30 3e b4 dc 18 be 3e 58 db bd 7d 71 92 3d
       0.17279544 -0.14927942 -0.1071019 0.071505524
0001a0 33 9c 1d 3e c8 4b a7 bd 53 c1 2d be 8d 42 41 3e
       0.15391617 -0.08168751 -0.16968279 0.18873043
0001b0 d3 56 a2 bd 34 ca 97 3d 3e 9a bd bd d9 98 34 3e
       -0.07926717 0.07411614 -0.09257935 0.17636432
0001c0 5c 4f 14 3d fa e7 e3 bd 00 50 d5 3d c1 74 a2 3d
       0.036208495 -0.111282304 0.104156494 0.07932425
0001d0 39 3c 9f 3c 86 b5 40 3d 31 1f dc 3d 67 53 89 bd
       0.019437896 0.047048114 0.10748137 -0.06705361
0001e0 c8 cd 08 3e dd 26 5a be e2 6d d7 3c 2b 87 3e bd
       0.1335975 -0.21303888 0.026297513 -0.046515625
0001f0 f2 e7 cc 3c 5e 03 73 3d fe 46 25 3e f1 9f 2c 3d
       0.025012944 0.059329383 0.16140363 0.04214472
000200 9f 5f 3e be 24 f9 1c bd 77 7f 54 bc 02 06 05 be
       -0.18591164 -0.038323537 -0.012969843 -0.12990573
000210 c4 22 0b 3e 1a 2c 35 bc 75 75 13 be 23 d7 89 be
       0.13587481 -0.011057878 -0.14400275 -0.2692195
000220 19 5e 14 3e 5c 4d be bd f0 8b ff bd 76 2e 5d be
       0.1448902 -0.09292099 -0.12477863 -0.21599755
000230 7f b7 16 bd a1 82 ce 3c f3 b6 01 be 9f e8 27 be
       -0.03679609 0.025208773 -0.12667446 -0.16397332
000240 98 f5 6f 3e 21 33 80 3e 37 64 22 be 90 b5 a5 bd
       0.2343353 0.25039008 -0.15858541 -0.08091271
000250 4f 35 fa bd 0c f6 c5 3d 4e 54 5d bb 60 a5 a6 3c
       -0.12217199 0.0966607 -0.0033772173 0.020342529
000260 8b 57 45 be 03 f2 4e 3d a9 e8 b1 bb ee 7d 64 3e
       -0.19271676 0.05052377 -0.0054293466 0.22313663
000270 3b bb d0 bc 34 14 08 be 85 3f 93 3d 5a 81 22 be
       -0.025479903 -0.13288957 0.0718985 -0.15869656
000280 a8 3c 12 be 6a e4 14 3d 4a 21 32 3e e7 e8 8b 3d
       -0.14280951 0.036350645 0.17395511 0.06831532
000290 03 05 c9 3d 7b 30 17 3e c8 19 95 bd 8d ea e0 bd
       0.09815409 0.14764588 -0.07280308 -0.10982237
0002a0 24 95 c1 bd a8 da 14 be 22 a5 30 3e 58 9e 8e 3d
       -0.094522744 -0.14536536 0.17250493 0.069637954
0002b0 04 d6 61 3b be 07 dc 3d 95 ff 21 be 79 82 8c bd
       0.0034459839 0.10743664 -0.15820153 -0.06860823
0002c0 59 e3 32 3e 75 5b 2d 3e 95 5a bd 3d 87 76 62 3c
       0.17469539 0.1692942 0.09245793 0.013822204
0002d0 0a f9 b0 3d 5c c6 0d be 0b db 1d 3c 7a c9 a5 3d
       0.086412504 -0.138452 0.009634743 0.08095069
0002e0 67 3a 8e 3d d9 41 b4 3d 6e e0 3e 3e be 85 1e be
       0.06944733 0.08801622 0.186403 -0.15480706
0002f0 46 ae 26 3e 6d 59 1b be da 6c fb 3d cc 2a 82 bd
       0.16277418 -0.15170832 0.12276621 -0.06355819
000300 71 16 01 be 8e 14 61 3e 12 b7 dc bc e7 31 5f bd
       -0.12606217 0.21980497 -0.026942763 -0.05449095
000310 7f a0 17 be 1b 0a b0 bd 14 1d 40 3d f5 47 17 3e
       -0.14807318 -0.085956775 0.04690273 0.14773543
000320 f6 3f 97 3b 14 35 af bd f1 8f 03 be e0 f6 1f 3e
       0.004615779 -0.08555046 -0.12847878 0.15621519
000330 d1 59 18 bd be 2f b2 bd da d3 09 3e 27 9d fb 3c
       -0.03719503 -0.08700512 0.13459721 0.030714585
000340 fd a0 94 3c 31 66 fd 3d 04 b4 92 bd 1e 64 99 bb
       0.018143171 0.12373007 -0.071632415 -0.0046811244
000350 e2 20 b2 bd 27 85 81 3d 12 a3 42 3e 1e 08 19 3e
       -0.08697678 0.06324225 0.19007519 0.14944503
000360 9f 7e 9a 3d 4e f6 97 bd 2a 5b 33 3d 7e 8d 5d 3e
       0.07543682 -0.07420026 0.043788113 0.21636006
000370 7f 62 ff bd 97 a7 ef 3d d0 0c 19 3e 36 bf 1b be
       -0.124699585 0.11701887 0.14946294 -0.1520966
000380 05 0f 34 3c 2b 53 8d bd 24 93 5e 3e 9c fa 0f 3e
       0.010989909 -0.06900629 0.21735817 0.14060444
000390 f2 05 0b 3d a3 31 84 3c 4d f0 ae bd b3 0e aa bd
       0.033941217 0.01613695 -0.085419275 -0.08303585
0003a0 15 0d 3c 3e 79 64 0a 3e f5 9c 78 be b4 9c fc bd
       0.18364365 0.1351489 -0.24278624 -0.12334576
0003b0 ba 7a 92 3d c5 3b 95 bd 02 8c d8 bd 70 c6 03 3e
       0.071523145 -0.07286791 -0.10573579 0.12868667
0003c0 2a 44 26 be 43 be 1f be 0e db 46 ba e3 9c b8 bc
       -0.1623694 -0.15599923 -0.0007585742 -0.022535747
0003d0 30 4d 80 bd da 1a 56 3e 06 89 66 3d 51 84 07 bd
       -0.06264722 0.2090868 0.05628302 -0.03308517
0003e0 13 d1 9e bc 29 e0 e8 bd 5c 49 d5 bd d3 9c e6 bd
       -0.019386804 -0.1137088 -0.10414383 -0.112603806
0003f0 d0 ce f9 bd 03 c5 c6 bd 5e 59 1c 3e b0 9d ac 3d
       -0.121976495 -0.09705546 0.15268466 0.08428514

Pair_score_mlp.fc_layers.0.bias f4 [64]
000000 28 6a 62 3d 8a 93 72 bd a9 d4 09 be 9f 74 b1 bd
       0.05527702 -0.059222735 -0.1346003 -0.08664822
000010 31 57 25 3e e0 57 19 3e 0e 74 af bd ab ef c2 bd
       0.16146542 0.14974928 -0.085670575 -0.09518369
000020 75 45 7e bd 02 c3 bf bd 89 81 2c 3e 22 94 d3 3b
       -0.062077958 -0.09363367 0.16846289 0.006456868
000030 1d 5a 0c 3d ae 71 e6 3d df e2 82 bd 88 5a 12 3d
       0.034265626 0.112521514 -0.063909285 0.03573087
000040 76 41 47 3e 7f 97 8d bd f6 66 d9 3d c1 39 7a 3d
       0.19458565 -0.06913661 0.10615341 0.061090235
000050 9f db bb bd cd ef 4d bd 33 04 a1 3d cf 13 40 bd
       -0.09172749 -0.05027752 0.07862129 -0.04689389
000060 1c d4 a2 3d 4e 3f 17 bd 0d 05 4a bc 67 d1 e0 3d
       0.07950613 -0.036925606 -0.012330306 0.1097744
000070 9a 91 22 3e b4 71 1b bd 02 b9 98 bd fc 95 19 3e
       0.15875855 -0.037950233 -0.074571624 0.14998621
000080 e4 c1 9d 3d f1 29 1c be 7f b3 10 3c 17 6b 6b 3e
       0.07702997 -0.15250374 0.008831858 0.2299007
000090 7c 65 33 3e fe bc 0b 3e ad dd b3 bd b1 79 18 bd
       0.17519182 0.13646314 -0.08782516 -0.03722543
0000a0 26 bf e8 bd b9 ab d4 3d 5d bf 1d be 66 c2 f7 bd
       -0.11364584 0.10384316 -0.1540503 -0.120976254
0000b0 c7 89 5a 3c b9 cd e9 3d 15 5b 58 bd 6f e9 dd bd
       0.013338513 0.114161916 -0.052821238 -0.108355395
0000c0 ee d6 60 bd f2 8e 99 bd 99 3d 1e 3d 25 cb 9e bd
       -0.054892473 -0.07497968 0.038632963 -0.077535905
0000d0 09 d2 7e bd 1a c6 ec bd db 34 a1 bd e2 b5 0e 3e
       -0.062212024 -0.115612224 -0.078714095 0.1393657
0000e0 a1 c8 13 bd 99 89 e9 3d 93 4a f7 3d 37 ea d6 3d
       -0.036080007 0.11403198 0.12074771 0.10493892
0000f0 75 12 7d 3d c9 87 24 3e 63 00 da 3d be 31 a7 bd
       0.06178518 0.16067423 0.10644605 -0.081637844

Pair_score_mlp.fc_layers.1.weight f4 [8, 64]
000000 74 57 c0 3d 3d 7b f5 3d 16 0a fe 3d e1 82 71 3d
       0.0939168 0.119863965 0.124042675 0.058962706
000010 d9 84 80 3e 3e ac 13 3e c8 05 7b 3d d9 1a cb 3d
       0.25101355 0.14421174 0.06128481 0.0991723
000020 f7 d6 1c 3e ab f2 2c 3e ea 59 05 be 0a 67 e8 3c
       0.15316378 0.16889445 -0.1302258 0.028369445
000030 8a 9e ff 3c 39 6c 24 be 54 8d d0 bc 33 8b a9 3c
       0.031203527 -0.16056909 -0.025458016 0.020696258
000040 fd 90 04 3e 25 60 b8 bb eb 44 d2 bc c6 4c 19 3d
       0.12945934 -0.0056266957 -0.025667628 0.037426732
000050 ea 37 f3 3d f8 a3 c1 bc b2 8f d1 3d 62 41 26 3c
       0.11875899 -0.023637757 0.10232486 0.010147424
000060 fc 6d 98 3d 7e cb 09 3e b3 bf 1c 3e 11 79 b1 3d
       0.07442853 0.13456532 0.15307502 0.0866567
000070 68 26 5d bd be 23 7d bd 21 39 cb 3d b3 2d 24 3c
       -0.053991705 -0.061801665 0.09923006 0.010020661
000080 ea 5d 1e 3c 84 0a ee 3d 48 78 e3 3d c4 00 e9 bb
       0.009665946 0.116230994 0.11106926 -0.007110687
000090 91 d7 5f 3e 8b 89 06 3d 0b da 0c bd d8 b6 f5 3d
       0.21859576 0.032846015 -0.03438763 0.11997765
0000a0 73 a9 90 bd 64 77 12 3d 43 58 0f bd 2c 30 a9 3d
       -0.0706357 0.03575839 -0.034996282 0.08261141
0000b0 ce 46 53 be 10 b4 d3 3d 63 ad 06 3e 15 6f cc 3d
       -0.20632479 0.103370786 0.1315208 0.09982125
0000c0 34 5f cc bd ff 03 9b 3d 58 2d cb bd 95 e0 8b 3d
       -0.09979096 0.075691216 -0.09920758 0.06829945
0000d0 5e fb 6d 3e c4 4c 42 3c f7 9f ea 3d 5b 46 b1 bd
       0.2324042 0.011859123 0.11456292 -0.08655997
0000e0 c6 41 83 3d 12 38 cc bd 91 2e 67 bd fb 8c 9b 3d
       0.0640903 -0.09971632 -0.056440894 0.07595249
0000f0 e3 d6 dd bb 31 3e 8e 3d de 45 ae bd 6a 03 36 3e
       -0.0067700013 0.06945456 -0.0850942 0.1777474
000100 93 b5 fa bd a6 5e c0 3d af 51 08 be 1d 3c 14 be
       -0.12241664 0.09393053 -0.1331241 -0.14476056
000110 d3 fa 05 be 6a ee 74 bd eb 86 19 bd 47 a5 be bd
       -0.13083963 -0.059797682 -0.037482183 -0.09308868
000120 11 27 cb bd f7 8d 19 bd cf 34 4e be 84 15 06 3c
       -0.09919561 -0.037488904 -0.20137332 0.008183841
000130 97 c8 3a be 4b 51 5f 3e d8 ef 3a be d4 da 54 be
       -0.18240581 0.21808355 -0.18255556 -0.20786601
000140 a0 cd 00 bc 12 c1 2b 3d 2f 18 9c bd 36 37 23 3d
       -0.007861525 0.041932173 -0.076218 0.039847575
000150 eb 64 1b be 22 0c e8 bd 74 7a af bd 2a b5 92 3d
       -0.15175216 -0.11330439 -0.08568278 0.071634606
000160 c6 cb d5 bd 92 61 f0 bd 70 74 eb 3d c1 19 5e bd
       -0.10439257 -0.1173736 0.11496818 -0.05422378
000170 cf 58 d5 bd 3e 5d 09 3e a5 0e f8 3d ab ad a6 bc
       -0.104173295 0.13414475 0.12112168 -0.020346483
000180 ac b4 77 bd 04 6b 08 be f5 95 75 3d 49 80 e7 3d
       -0.060475037 -0.13322073 0.059957463 0.11303765
000190 7b 1d 30 be 76 83 7f 3d c0 af 8e 3d 5a 10 6c 3d
       -0.17198746 0.06238123 0.069671154 0.05763278
0001a0 d9 d4 ea bd cc 0d 39 bd f2 17 b5 bd be fa 05 be
       -0.11466379 -0.045179173 -0.08842458 -0.13083932
0001b0 0b 7f 3c 3e 4e a5 ff 3d bb 60 d4 bd 6f ea e4 bd
       0.18407838 0.12482701 -0.103700124 -0.11177527
0001c0 97 2d 87 3c 57 e9 f8 bd ba 99 dd 3d 06 23 e5 bd
       0.016501231 -0.12153881 0.10820337 -0.11188321
0001d0 be 2f 2e bc 3a 5c 1f be 64 39 35 be 76 bd 56 3e
       -0.0106315 -0.15562525 -0.17697674 0.20970711
0001e0 9f 15 64 3c e8 1d c5 bd 63 2b 3e bd d9 9b 87 bd
       0.0139211705 -0.09624845 -0.046428096 -0.066215225
0001f0 14 68 21 3e 4e 56 c7 3d 4c 56 6c 3d 6c 43 7c 3d
       0.15762359 0.09733258 0.057699487 0.061587736
000200 79 df a6 3d 1e cb e6 3d 23 a6 4d 3e 3f 54 28 3e
       0.08148093 0.1126921 0.20082907 0.16438387
000210 85 2f 86 3d 12 79 87 3d 23 1b 42 3e 62 0f 67 bc
       0.065520324 0.06614889 0.18955664 -0.014102789
000220 0e ad 4a 3e 67 5a 22 3d 0c 50 92 3d a4 8a e8 bc
       0.19792578 0.039636996 0.07144174 -0.028386422
000230 5c fc 53 bd 19 2f 8d be 94 cc 61 3d 48 29 9f 3d
       -0.05175434 -0.27574995 0.05512674 0.07771546
000240 b9 b4 83 3e f3 79 11 3e c5 b2 f7 3d 04 ed b9 3c
       0.25723818 0.14206676 0.120946445 0.022696026
000250 18 cd c6 3d cf 79 36 bd ff 9d f6 3d 63 5c 8f 3d
       0.09707087 -0.04454976 0.12041854 0.07000043
000260 1c 54 06 3c 89 3d d4 3c 05 5b c2 3d 5a be 77 3e
       0.008198764 0.025908248 0.09490017 0.24193707
000270 6e e2 7f bc c3 c0 f1 3d f7 58 78 3d 4c 35 2f 3e
       -0.01561795 0.118043445 0.06063172 0.17110175
000280 57 42 ab 3d 04 c3 12 3c 06 ad cd 3d 0a a4 08 bd
       0.08362263 0.008957628 0.10042767 -0.033359565
000290 5c 92 36 3e c5 08 bd bb da 79 63 be 80 af 1e 3e
       0.17829269 -0.0057688677 -0.22214451 0.15496635
0002a0 50 24 c2 bd ae 47 ae 3d 49 98 dd 3d ce 3c 14 3e
       -0.09479582 0.085097656 0.10820062 0.1447632
0002b0 e9 67 17 be 55 2d 0e 3e 71 d3 b3 3d 09 c2 19 bd
       -0.14785732 0.1388448 0.087805636 -0.037538562
0002c0 de a6 1e 3e e4 59 24 bd ca ba 22 3e 73 84 4a bd
       0.15493342 -0.04012479 0.15891567 -0.04944272
0002d0 d9 2b 57 3d 6e 5e ec bd f3 a1 c5 3d 31 f5 18 bc
       0.05253205 -0.115414485 0.0965003 -0.009335802
0002e0 0d 9b 83 bc af d4 4b 39 f0 bf bf 3d 07 d0 4f 3e
       -0.016065145 0.0001943882 0.09362781 0.202942
0002f0 f5 d9 d9 3d af 29 8d 3b eb af ab 3d c4 05 8f 3e
       0.10637275 0.0043079476 0.08383163 0.27934086
000300 9f 8a aa bc 49 56 8a 3d ed f3 b9 3d 0e 96 2f 3a
       -0.020818053 0.06754739 0.09079728 0.000669808
000310 5b 2d 24 3c ed 45 c5 bd 96 15 3a 3d 28 dd 97 bb
       0.010020579 -0.09632478 0.045430742 -0.004634518
000320 87 bd 40 be c2 72 94 3b bb 11 ac 3d 07 b4 32 3d
       -0.18822299 0.0045302818 0.08401819 0.04362872
000330 6e 42 9a bc 24 83 c9 3d b4 bf 15 be 11 91 26 be
       -0.018830504 0.09839466 -0.1462391 -0.16266276
000340 dd ab e5 bc 01 49 cb bd a2 3b 20 3c 94 1d 59 bd
       -0.028036052 -0.09926034 0.009779843 -0.053006724
000350 97 a9 08 bd 2c b7 98 bc 48 ec 96 3d 76 a7 bc 3d
       -0.03336486 -0.01864203 0.07369286 0.09211628
000360 6b 8a 21 3e 8e 33 8b bc 32 4a 16 bd 93 70 05 3e
       0.15775459 -0.016992357 -0.036691852 0.13031225
000370 c6 f4 87 bd 35 88 45 3d be 31 7a 3d 38 25 82 bd
       -0.06638484 0.0482256 0.061082594 -0.06354755
000380 8e 0c 66 bd fe 36 21 bd ce fc c9 bc 3d 0c 57 bc
       -0.056164317 -0.039359085 -0.02465668 -0.013125476
000390 ff 59 38 3e 41 8b 4b be 9f 95 86 3d c6 2f b4 3c
       0.18003081 -0.1987734 0.06571507 0.021995436
0003a0 0f 5f 17 bd 41 3b 87 3d 0a 18 06 be 10 1e aa 3d
       -0.03695589 0.06603099 -0.13095108 0.08306515
0003b0 1a 69 72 bc 74 d7 e9 bd 21 6e 0f be 66 16 9e bd
       -0.014795566 -0.114180475 -0.14006855 -0.07719116
0003c0 67 9d c5 3d 26 35 0b be a0 8e 4c bc 17 47 af bd
       0.09649163 -0.13594493 -0.012485176 -0.08558481
0003d0 2b 60 84 3d 83 11 38 be 6d a2 08 bb e7 20 12 3e
       0.06463655 -0.1797543 -0.0020848766 0.14270364
0003e0 65 7e b9 bd a0 45 74 3c eb 42 e4 3d c0 81 cf 3d
       -0.09057311 0.014909178 0.11145576 0.1013217
0003f0 e9 5f 60 bd 13 64 ce bd 1f 9b 54 3d 87 22 2a 3d
       -0.054778967 -0.100776814 0.051905748 0.041536834

Pair_score_mlp.fc_layers.1.bias f4 [8]
000000 fd 00 5e bc ed 97 df 3d 68 df d0 bd ec 67 9c 3d
       -0.01355004 0.109176494 -0.10198861 0.07637009
000010 01 28 02 3e 5f 9c dc 3d 07 e7 80 bd 8a 7d 9c bd
       0.12710573 0.10772013 -0.06294065 -0.07641132

CNN_embedding_types.weight f4 [106, 16]
000000 53 31 14 3e f5 92 46 bf f1 cf fc be b2 de 73 3f
       0.1447194 -0.7756799 -0.49377397 0.9526168
000010 39 9b d0 be 02 8c 5a bc eb 74 e2 3f 05 a0 39 c0
       -0.40743425 -0.0133390445 1.769193 -2.9003918
000020 15 51 fc 3d 6c a1 5d bf e7 f5 08 bf 9c da 89 3f
       0.12320153 -0.86574435 -0.5350022 1.0769839
000030 ef 8e f8 3e ba 84 ca 3e 1c 5e 3c 3f 04 11 44 bf
       0.4854655 0.39554387 0.735811 -0.76588464
000040 46 1c 08 bd 67 94 f6 bf 6a 36 2a 3f 97 0b 3b bf
       -0.03323009 -1.9264039 0.6648928 -0.7306456
000050 46 69 ea 3e 44 19 27 bf 18 2d d4 3e 60 a8 81 be
       0.45783442 -0.6527293 0.41440654 -0.25323772
000060 ea 84 1e bd 1c 8b 67 bf 2f 79 ad bf dd b3 f2 3e
       -0.038700975 -0.9044664 -1.3552607 0.4740285
000070 ea d8 82 3f 99 83 da 3e dc 08 b9 be 0c 0d 02 be
       1.0222447 0.42678526 -0.36139572 -0.1270029
000080 64 bd 0e bf 45 8d d5 3f 49 d9 1f 3f 1e 70 bd be
       -0.5575774 1.6683737 0.62440926 -0.369996
000090 95 56 9e bc 5b 48 8b 3f 57 4e e1 3e a3 90 84 bf
       -0.019328395 1.0881456 0.4400508 -1.035664
0000a0 26 13 07 40 29 77 c6 bf 23 e7 88 bf c1 0f 16 3f
       2.1105437 -1.5505115 -1.0695537 0.5861779
0000b0 c4 8f 8b bd bd a1 e1 3d 88 13 02 bf 4a 34 a2 3f
       -0.068145305 0.11017177 -0.5081105 1.2672207
0000c0 95 3a 9b be 5d 25 1b bf 7e 64 9f be bc a0 8f 3d
       -0.30318132 -0.60603887 -0.31131357 0.070130795
0000d0 52 fe e7 be f4 d9 05 40 6f a9 9c bd a3 61 9f 3f
       -0.45311219 2.0914278 -0.076495044 1.2451671
0000e0 e5 8e ae bf 9f ee 44 bf da 21 aa 3e ae 21 92 3f
       -1.3637358 -0.76926607 0.33228952 1.1416528
0000f0 d6 b5 c3 3d ec 68 08 c0 e1 59 0c 3f 83 a2 6f 3f
       0.09556167 -2.131404 0.54824644 0.9360735
000100 a4 3f f4 3f 90 27 76 3f 19 9f 0d 3f 04 97 71 3f
       1.9081922 0.9615412 0.5532089 0.94371057
000110 0b d5 ae 3e f5 fe 13 bd 4d bb bf 3f 62 f2 46 bf
       0.34146914 -0.036131818 1.4979035 -0.77713597
000120 84 d1 48 3f 52 7e 3a bd 1d cc 26 be 7c 58 ab 3f
       0.78444695 -0.045530625 -0.162888 1.3386378
000130 21 b6 26 be cb 93 83 be c7 17 56 3d 93 f6 c7 be
       -0.16280414 -0.25698695 0.05226877 -0.3905531
000140 3b e2 6b 3e 18 9b 88 3e 4b 90 8c 3f 9d 96 9f bf
       0.23035519 0.26680827 1.0981535 -1.2467839
000150 9b 92 75 bf 5a 47 e7 bf 61 7b 3a 3c c8 e0 e1 bd
       -0.9592683 -1.806865 0.011381955 -0.11029202
000160 6f bd a0 bf 8c 85 22 3f 58 4d 9e 3e cd a2 36 40
       -1.255781 0.63485026 0.30918384 2.8536866
000170 44 72 9b bf 62 13 5b be 26 df 06 bf f1 fb 32 3e
       -1.2144246 -0.21394113 -0.5268425 0.1747892
000180 84 b8 04 3f 58 d5 c1 be ef db 66 be aa 67 c8 bf
       0.5184405 -0.3785808 -0.22544836 -1.5656636
000190 e5 71 f4 3e ac e3 87 bf 19 cc e3 3f 75 78 0c bf
       0.47743145 -1.0616355 1.7796661 -0.548713
0001a0 fe 86 ad 3e 68 37 47 3f 4e 46 f7 3b 63 71 15 bf
       0.33892053 0.7781892 0.007546223 -0.5837614
0001b0 74 51 6a bf 67 8b 57 bd 7a cf e4 3f 83 64 93 3f
       -0.9153054 -0.05262318 1.7875817 1.1515049
0001c0 f1 23 c7 3d 39 4b cc 3f bf a9 1a bf a8 74 b4 3f
       0.09723652 1.5960456 -0.6041526 1.4098101
0001d0 73 c5 f1 3d d3 3a 34 3f c7 95 09 bf 44 76 3c bf
       0.118052386 0.7040226 -0.5374417 -0.7361796
0001e0 17 0f 0c 3f 1d d8 f3 3f e3 e4 cf 3d e4 ea e6 3e
       0.54710525 1.9050328 0.101510786 0.45101082
0001f0 d9 01 cd 3e fa aa 7f bf cd 37 1b 3e da 77 21 bf
       0.40040472 -0.99870265 0.15158005 -0.63073504
000200 c8 88 36 40 03 4c f3 bd d2 10 c5 3e e5 eb 79 3f
       2.8520985 -0.118797325 0.38489395 0.9762557
000210 aa 02 ac bf f8 8a 55 bf bd 59 06 be ec 76 c2 bd
       -1.3438313 -0.83415174 -0.1312017 -0.09495339
000220 7d 43 38 be 3e 5a 8e bf ed 8a ea 3e ad ad 5f be
       -0.17994495 -1.112129 0.45809117 -0.21843596
000230 86 57 0e 3f 09 d7 df bd b1 b5 ff 3f d2 92 03 3e
       0.556023 -0.109296866 1.9977323 0.12848976
000240 f2 00 e0 3c 2a e4 1a 3e 16 48 54 bf 40 95 01 40
       0.0273442 0.151261 -0.82922494 2.0247345
000250 c2 86 79 3e 2a 23 9a 3d 2d 50 90 be b9 bb 9b 3d
       0.24367812 0.07526238 -0.2818617 0.07604165
000260 a6 73 d0 3e 61 8f 81 be 06 de cf 3e 49 80 45 3f
       0.40713233 -0.25304702 0.40599078 0.7714887
000270 ed e5 6c be 06 a6 8d bf 0a 10 94 3d f0 fc 5d bf
       -0.23134585 -1.1066291 0.07229622 -0.86714077
000280 87 c5 96 bf 34 da 0a 3f 45 92 4d be c9 95 18 bf
       -1.177903 0.542392 -0.20075329 -0.59603554
000290 f4 d2 eb 3e 36 ec 9d 3f 50 51 9e 3e fe 11 1b 3f
       0.46059382 1.2337711 0.30921412 0.6057433
0002a0 76 73 19 3f 20 07 9c be 7f 51 9d be 89 34 d2 3f
       0.59941804 -0.30474186 -0.3072624 1.6422282
0002b0 e1 8a 85 3f 04 e6 bd bf c4 b4 24 3f d2 ef e5 3f
       1.0433007 -1.483582 0.64338326 1.7963812
0002c0 8e 29 b3 3c 84 66 f3 bf 09 6c e5 bd be d3 ba 3e
       0.0218704 -1.901566 -0.11202247 0.3648967
0002d0 38 ff a6 bf 27 3a ca bc 1a 1c a7 bf f2 b2 68 be
       -1.3046637 -0.024685932 -1.3055451 -0.22724512
0002e0 3b c6 d9 bd 95 03 8c bf ec 47 92 be 3d 39 db 3f
       -0.106335126 -1.0938593 -0.28570497 1.7126843
0002f0 e4 bf a2 3f 83 c5 81 3f 2c 8a 3d bf 79 2a 84 3e
       1.271481 1.0138401 -0.7403896 0.25813654
000300 d0 92 67 bf 18 9f 13 40 e9 71 4b bf a3 e3 df 3f
       -0.90458393 2.3065853 -0.7947069 1.7491344
000310 ba 7c a6 bd 84 7c 3c be 6d 35 97 bf 6d 48 dd 3e
       -0.081292585 -0.18406874 -1.1813179 0.4321932
000320 e2 9a a3 3f 78 49 45 bf 58 81 dc 3f 3e 3e 62 be
       1.2781641 -0.7706523 1.7226973 -0.22094056
000330 f8 5f 5c 3f fe b0 e8 3f 5f 08 2f 3f 6e 50 85 be
       0.86083937 1.8179014 0.6837215 -0.26037925
000340 a8 f6 f4 3f ef 81 92 3f d3 48 b1 3f 18 62 93 bf
       1.9137774 1.1445903 1.3850349 -1.1514311
000350 23 71 02 3e 7b 3f 5d 3f 13 29 58 3f 46 88 cc bf
       0.1273847 0.8642499 0.84437674 -1.5979087
000360 6a a3 74 3f b9 68 b2 bf 9c 87 7e 3d 88 d4 82 bf
       0.9556185 -1.3938209 0.062141046 -1.0221109
000370 52 1b 0c bf bd 52 8c 3f 7e 9b fd 3d 90 07 cc 3e
       -0.5472919 1.096275 0.123831734 0.3984952
000380 6c 5c a8 3c a3 8a 89 bf 88 e1 88 3d e4 d6 2f 40
       0.020551883 -1.0745434 0.06683642 2.747491
000390 27 b3 56 40 46 1a db 3f 7d af ab bf bc 3b 4a be
       3.3546846 1.7117393 -1.341293 -0.1974935
0003a0 99 37 7a bf 3e 2d 48 3d c2 f5 59 bf b8 c3 19 bf
       -0.97741085 0.04887127 -0.8514062 -0.6006427
0003b0 6d 29 6c bf f2 b1 11 3e 76 b1 fe be 44 0f a5 be
       -0.9225071 0.14228037 -0.49744767 -0.3223821
0003c0 3f 9f ee bf db c8 db 3e b0 58 1d 3f ba 6d 3b 3e
       -1.8642348 0.42926678 0.6146345 0.18303576
0003d0 99 c3 ca 3d ec 41 0b bf 52 10 44 3f b6 ce b0 bf
       0.099005885 -0.54397464 0.765874 -1.3813083
0003e0 c5 48 85 3e ce ad 29 3f ae 5e 3a 3f 30 f0 15 3f
       0.2603208 0.6628083 0.7280072 0.5856962
0003f0 d4 02 74 3e 5b cb a9 3c 17 00 4f bf 50 8c 5b 3f
       0.23829204 0.02072685 -0.8085951 0.85760975

embedding_CNN_distances.weight f4 [7, 8]
000000 d7 2b 85 3f 9e 21 93 bf 5f 35 47 3e 70 f4 b8 3e
       1.0404004 -1.1494634 0.19453953 0.3612399
000010 f6 47 70 3f e4 7f 07 bf ff 0b 3c 3f ea 53 9e 3f
       0.93859804 -0.5292952 0.73455805 1.2369359
000020 84 6e 37 bf 02 1b 37 3f ba 5e 37 c0 6e 64 6e be
       -0.7165301 0.71525586 -2.8651567 -0.23280498
000030 7c 0d 81 bf ac 67 0d c0 58 a0 82 bf 05 3f 7f 3d
       -1.008224 -2.2094526 -1.0205183 0.06231596
000040 53 05 84 3e 3b 50 95 bf b9 17 02 3d dd dc c3 be
       0.25785312 -1.1665109 0.031760905 -0.38254443
000050 b6 89 9d 3f 76 27 63 3f c1 51 f5 3f 5b af cf 3e
       1.2307651 0.8873209 1.9165574 0.40563473
000060 2d 05 f3 bd 3e 86 be 3e 34 1e 0b 3f d5 30 e0 bf
       -0.118662216 0.37211794 0.5434296 -1.7514902
000070 69 0d 70 3f cb e1 45 bf 7d 12 d6 3e 02 61 01 bf
       0.9377046 -0.7729766 0.4181098 -0.5053865
000080 13 b6 8c bf 37 e8 30 be 11 f3 1e 3f 31 47 c6 3f
       -1.0993065 -0.17276083 0.6208964 1.5490476
000090 81 fd 0a 3e 59 6b 37 bf 13 47 6b 3e 3d 07 bb 3e
       0.13573267 -0.71648175 0.22976331 0.3652896
0000a0 30 6c bd 3d 34 eb d2 be e7 6c 51 be 29 48 ab 3f
       0.09249151 -0.4119507 -0.20451699 1.3381397
0000b0 75 8c bb 3e a6 c5 69 bf 36 1b 36 bf f2 c8 89 3f
       0.36630598 -0.9131721 -0.7113527 1.0764449
0000c0 00 00 00 00 00 00 00 00 00 00 00 00 00 00 00 00
       0.0 0.0 0.0 0.0
0000d0 00 00 00 00 00 00 00 00 00 00 00 00 00 00 00 00
       0.0 0.0 0.0 0.0

embedding_CNN_prices.weight f4 [6, 5]
000000 e1 cb f2 3f e2 2d b1 3f 5c e2 a2 bf 56 f8 dc bf
       1.8968469 1.3842127 -1.2725329 -1.7263286
000010 9e f2 80 bf 78 ea e3 be d1 78 8e 3f 06 e0 f8 3f
       -1.0074041 -0.44514823 1.113062 1.9443367
000020 98 02 b2 3e b6 77 7c be 83 63 0b 40 83 10 0f bf
       0.34767604 -0.24655041 2.1779487 -0.5588457
000030 76 8a cd bf 71 3e 34 bf fc ea 93 bf 40 76 99 bf
       -1.605788 -0.7040778 -1.1556087 -1.1989212
000040 34 bb eb 3f 78 7d a5 be fa 2a b5 bf b1 22 57 bf
       1.8416505 -0.32322288 -1.415374 -0.8403731
000050 3d fa 1d bf d0 63 a1 3e ae c8 1d 3d bc 0d 47 bf
       -0.6170996 0.31521463 0.03852146 -0.7775533
000060 8d 46 6d 3f 00 00 00 00 00 00 00 00 00 00 00 00
       0.92685777 0.0 0.0 0.0
000070 00 00 00 00 00 00 00 00
       0.0 0.0
