checkpoints/GNNNoCNN_Epoch37_valmse2.1989_testmse2.5082_ndcg0.9328.model (torch, 249600 bytes, 52 tensors)

Pair_embedding_types.weight f4 [106, 16]
0.07305842 -0.07681355 -0.41326153 -0.8756329 0.8463812 -0.39881316 0.117901646 -1.2618748
0.09720365 -0.04631529 -1.2631081 0.57341254 -1.5967003 0.3564095 0.2413584 0.7271879
0.45214695 -1.1661315 1.9268163 -0.41539758 -0.24996933 0.19906285 -0.6241754 0.61637837
-1.0521543 0.04874132 -0.49993625 3.2920465 -0.8043374 -0.52988577 -1.0844029 1.0251346
1.7380228 2.2487493 -1.0645857 0.13477135 0.9260558 -1.2012218 -1.1128231 0.04373265
0.7073946 0.17808871 1.0736324 0.10945878 -0.90110666 0.09955243 1.2231666 -0.1204508
-0.66670966 1.1932621 -0.41940886 -1.2043906 -1.6947968 0.8848693 -1.958713 0.040377617
0.0003143388 1.0197226 -1.3189459 1.294425 0.020017002 0.9224115 1.2928846 0.024712676
-0.104132935 0.25017762 0.84404975 -1.6017872 2.1894407 -1.0327694 0.27729386 -1.3929842
-0.25939506 0.14404155 0.2145149 0.94896144 0.4386793 -0.21834055 0.28733075 0.14999618
-0.4249621 0.07413444 0.23570056 1.0799208 -0.21812445 -1.0787965 -0.094634876 -0.40866703
0.74439186 1.4771266 -0.634788 -0.90240777 -0.7527011 0.5651726 0.979406 1.4094701
-1.355038 0.28106454 1.7880194 0.14789408 0.72507775 0.21063602 -0.8599287 2.1871648
-1.0922642 1.1786373 0.23747188 -0.98241556 -0.46778134 0.23756815 -0.48931104 -0.019010954
0.7176081 1.5549314 0.26367772 -0.3605488 -0.636783 0.20226587 -0.30194432 -0.16489042
1.1086824 -2.5745628 0.26099434 -0.29365394 -0.17006838 -1.5033396 -0.10920838 0.069541015
0.2576262 1.5418537 0.36247292 1.0209844 -0.14584234 1.128323 -1.2963219 0.6088993
0.24133518 -1.0085664 1.473958 -0.5381179 -0.013466357 1.253933 -0.02025288 0.34076563
0.97448075 0.042426284 0.4326741 -0.92043316 -0.43410632 0.88508683 0.35588154 -0.5424106
0.5784932 -0.08861593 2.21229 1.3796804 1.4329243 0.13482678 0.36067495 -0.26006073
-0.09722097 -0.12273276 0.10451583 0.32497826 -1.085598 -0.7499898 1.1939894 1.0333319
-1.4042064 0.71149963 -0.2223932 1.296832 1.3968849 0.05604154 0.32322246 0.43097958
-1.264845 -0.5996587 -0.18397945 0.9742711 -0.18904603 -1.2086647 0.83135283 0.6617619
0.33279803 0.7601028 2.0201302 0.18810287 0.08345663 1.3623852 -0.32605538 0.19997108
0.36149722 -1.4898894 0.12826051 -0.27418348 1.7747352 -0.917514 0.5868981 1.5375437
-0.11068476 -1.4030534 -0.6644621 0.5668056 0.9365238 0.18013056 0.20789534 0.302562
-0.79764956 1.658247 -0.3210841 2.1078565 1.2880379 0.41482228 -1.3154751 0.34126526
-0.37251014 0.3055682 -0.6382189 0.60556585 -1.2933093 3.3035405 2.1213326 -2.1180634
-0.86491454 0.044834852 -2.3222098 1.3368577 -1.0807292 -0.38052002 0.38842413 -0.9356975
-0.4460085 -0.67559457 -0.78200644 0.36481848 -1.441018 -0.9251571 -0.4121625 -1.5021175
-1.1490879 0.3872278 -1.5545826 0.09101653 0.37988564 1.4730169 0.923207 -1.4031484
0.9932 -1.037871 -0.22524042 -0.33613557 1.6863141 -0.42985603 -1.9035857 0.07669318
00000000: a79f 953d 6c50 9dbd 0497 d3be 7a29 60bf
00000010: 70ac 583f 3d31 ccbe 6b76 f13d 1d85 a1bf
00000020: b512 c73d 1ab5 3dbd 87ad a1bf 2acb 123f
00000030: ad60 ccbf 4e7b b63e a826 773e fc28 3a3f
00000040: ce7f e73e cc43 95bf eba1 f63f feae d4be
00000050: f6f7 7fbe 22d7 4b3e f6c9 1fbf f9ca 1d3f
00000060: feac 86bf faa4 473d a5f7 ffbe e4b0 5240
00000070: 0ee9 4dbf 98a6 07bf b7cd 8abf 9c37 833f
00000080: 8877 de3f 82eb 0f40 5844 88bf 8001 0a3e
00000090: fe11 6d3f a3c1 99bf fd70 8ebf 0221 333d
000000a0: d017 353f e35c 363e c96c 893f ed2b e03d
000000b0: edae 66bf 25e2 cb3d b990 9c3f e9ae f6bd
000000c0: 7cad 2abf d0bc 983f c2bc d6be 7929 9abf
000000d0: 1aef d8bf cb86 623f 1cb7 fabf 0063 253d
000000e0: d7cd a439 4586 823f 38d3 a8bf b8af a53f
000000f0: b2fa a33c 2923 6c3f 3e7d a53f 3d72 ca3c
00000100: a643 d5bd 4817 803e a513 583f 5d07 cdbf
00000110: cc1f 0c40 ca31 84bf 76f9 8d3e 4e4d b2bf
00000120: 6ecf 84be a17f 133e cba9 5b3e 23ef 723f
00000130: 939a e03e aa94 5fbe 041d 933e 9998 193e
00000140: a294 d9be ccd3 973d 7d5b 713e d83a 8a3f
00000150: 045c 5fbe 0116 8abf eecf c1bd ce3c d1be
00000160: 7790 3e3f 7c12 bd3f 7781 22bf 3204 67bf
00000170: 05b1 40bf 27af 103f 5aba 7a3f 8469 b43f
00000180: e371 adbf b1e7 8f3e d2dd e43f 8c71 173e
00000190: b29e 393f f8b0 573e 4a24 5cbf 82fa 0b40
000001a0: 50cf 8bbf 96dd 963f d42b 733e 967f 7bbf
000001b0: 0981 efbe 1145 733e fa86 fabe dcbc 9bbc
000001c0: 2ab5 373f fe07 c73f c400 873e da99 b8be
000001d0: 3604 23bf c91e 4f3e 7298 9abe 09d9 28be
000001e0: 4ee9 8d3f a3c5 24c0 0da1 853e cf59 96be
000001f0: 6826 2ebe 6f6d c0bf a5a8 dfbd 856b 8e3d
00000200: 95e7 833e 765b c53f 0d96 b93e 9eaf 823f
00000210: b257 15be e36c 903f e0ed a5bf d3e0 1b3f
00000220: 9220 773e b418 81bf a8aa bc3f 18c2 09bf
00000230: ffa1 5cbc e080 a03f 5ee9 a5bc d578 ae3e
00000240: 9277 793f 2fc7 2d3d 7687 dd3e 82a1 6bbf
00000250: 2f43 debe 0d95 623f 1b36 b63e 6cdb 0abf
00000260: 2118 143f 457c b5bd 2996 0d40 5e99 b03f
00000270: 106a b73f 0810 0a3e 63aa b83e ae26 85be
00000280: ca1b c7bd 505b fbbd 650c d63d 8d63 a63e
00000290: e0f4 8abf 55ff 3fbf a5d4 983f 3844 843f
000002a0: 09bd b3bf d724 363f 0bbb 63be 97fe a53f
000002b0: 20cd b23f d08b 653d 6a7d a53e 5ba9 dc3e
000002c0: 71e6 a1bf 3c83 19bf 1c65 3cbe d569 793f
000002d0: 4895 41be 86b5 9abf 8ad3 543f 3a69 293f
000002e0: 8164 aa3e 1996 423f d049 0140 0a9e 403e
000002f0: 4feb aa3d a362 ae3f bbf0 a6be 38c5 4c3e
00000300: 2a16 b93e b2b4 bebf b956 033e c761 8cbe
00000310: 862a e33f 33e2 6abf f43e 163f 3bce c43f
00000320: b1ae e2bd 4197 b3bf 301a 2abf 2c1a 113f
00000330: 06c0 6f3f 2574 383e 84e2 543e 68e9 9a3e
00000340: c332 4cbf 7041 d43f 2365 a4be 1fe7 0640
00000350: 6dde a43f 9663 d43e 7d61 a8bf 52ba ae3e
00000360: a6b9 bebe 6f73 9c3e 5062 23bf 5d06 1b3f
00000370: 298b a5bf 356d 5340 eac3 0740 5a8e 07c0
00000380: 0a6b 5dbf c0a4 373d 169f 14c0 271e ab3f
00000390: 5655 8abf 85d3 c2be 87df c63e df89 6fbf
000003a0: 3a5b e4be c4f3 2cbf 9331 48bf 7dc9 ba3e
000003b0: 4773 b8bf 19d7 6cbf f706 d3be 6345 c0bf
000003c0: 5015 93bf b942 c63e 90fc c6bf e066 ba3d
000003d0: 5f80 c23e d18b bc3f 4b57 6c3f 5e9a b3bf
000003e0: 5b42 7e3f f5d8 84bf 6da5 66be f619 acbe
000003f0: 24d9 d73f 1716 dcbe b2a8 f3bf 5011 9d3d

embedding_Pair_distances.weight f4 [7, 8]
0.5009843 -0.818174 0.9355633 2.8584762 0.7084349 1.3721427 -0.33635047 0.2842902
1.9922554 2.2278337 0.8209978 -0.08346498 1.486838 -0.9815019 1.5895944 2.5526042
-0.72540474 -0.93399423 -0.9198196 -0.03262068 -1.4092373 -0.49738175 0.1174303 -1.5484592
-0.43961743 0.41838333 -1.904398 -0.23266122 -2.08243 -1.890717 -0.96132874 -0.50553143
1.0379698 1.1928387 -0.3706536 -1.965592 -1.3058909 -0.18208039 -0.6856071 -1.0991423
-0.036948733 0.39231107 -0.5560907 0.19344641 -1.4416544 -0.71773046 -1.6457311 -0.5478287
0.0 0.0 0.0 0.0 0.0 0.0 0.0 0.0
00000000: 8240 003f da73 51bf 1481 6f3f 46f1 3640
00000010: fd5b 353f 5fa2 af3f 2136 acbe 7c8e 913e
00000020: 3a02 ff3f d494 0e40 e92c 523f b0ef aabd
00000030: b550 be3f b543 7bbf d477 cb3f de5d 2340
00000040: 20b4 39bf 3f1a 6fbf 4c79 6bbf 439d 05bd
00000050: e361 b4bf d2a8 febe 4c7f f03d e933 c6bf
00000060: 8915 e1be 5736 d63e 50c3 f3bf be3e 6ebe
00000070: 8846 05c0 0403 f2bf a419 76bf 826a 01bf
00000080: 32dc 843f f0ae 983f 4fc6 bdbe 8598 fbbf
00000090: 6f27 a7bf 4873 3abe f283 2fbf b2b0 8cbf
000000a0: 8e57 17bd ffdc c83e f65b 0ebf d116 463e
000000b0: 2288 b8bf 2fbd 37bf 51a7 d2bf 803e 0cbf
000000c0: 0000 0000 0000 0000 0000 0000 0000 0000
000000d0: 0000 0000 0000 0000 0000 0000 0000 0000

embedding_Pair_prices.weight f4 [6, 5]
-0.022695541 0.33340856 0.27063185 -0.09555278 1.1406988 0.913336 0.09068458 0.9298918
0.7122262 0.8695519 -0.14635319 -0.61901647 -0.6298008 2.1665506 -0.7461514 -1.1563014
-1.9744116 -0.4374031 0.12179927 2.013311 0.051745526 -1.3847905 -0.034426436 0.9488495
-0.07895402 0.0 0.0 0.0 0.0 0.0
00000000: 00ec b9bc 87b4 aa3e 4290 8a3e 2db1 c3bd
00000010: 6b02 923f 63d0 693f d6b8 b93d 640d 6e3f
00000020: 7554 363f f49a 5e3f 9cdd 15be dd77 1ebf
00000030: a03a 21bf c4a8 0a40 c703 3fbf af01 94bf
00000040: 85b9 fcbf 4df3 dfbe e571 f93d 16da 0040
00000050: 1ef3 533d d140 b1bf bc02 0dbd cde7 723f
00000060: a5b2 a1bd 0000 0000 0000 0000 0000 0000
00000070: 0000 0000 0000 0000

Pair_shop_mlp.fc_layers.0.weight f4 [64, 32]
0.07023313 -0.016939662 0.1545711 0.17355117 -0.15610208 0.02199792 0.034631096 -0.12113925
0.03401333 0.13191836 -0.16524346 0.018728666 -0.16152504 -0.166775 0.07483692 0.046486933
0.091236636 0.0026178176 -0.030862173 0.06204514 -0.00956508 0.08909321 -0.0039586383 0.22686641
-0.13336724 0.020859163 0.031652644 0.024694249 0.1109705 0.047396176 -0.08404864 -0.13541113
-0.17631012 0.13123469 -0.07004227 0.14908989 0.06815417 0.16333698 0.23463178 -0.09929426
-0.16094552 -0.03950068 -0.09555851 0.0049993135 -0.04744976 -0.05153676 0.020313486 0.20057116
0.06853724 -0.13200405 0.046105076 0.18174867 0.11366307 -0.10090831 0.05746899 0.14649896
-0.116073854 0.074079104 -0.048725374 -0.2077645 0.121691085 -0.077943906 0.19148242 0.078749746
0.038253207 0.070730075 -0.045330334 -0.043227624 0.10986154 0.10197624 0.050973594 0.092622034
0.14756127 -0.12129132 -0.10869432 0.116719775 -0.09023892 -0.123452656 -0.015142095 0.13805315
-0.19922836 -0.15398295 0.100431405 0.13347471 -0.14662142 0.07915322 0.015928058 -0.051502682
-0.08893775 0.11165156 0.14318953 -0.15638767 0.12654215 -0.07196322 0.08025348 0.09153857
-0.029184593 -0.07585563 0.0023083086 -0.018511727 0.0457483 0.13206108 0.11558897 0.07381317
-0.07282934 0.10490415 -0.071365654 0.068863995 0.14471877 0.0811319 -0.14492908 0.102491066
-0.09966007 0.07258816 -0.17218104 -0.00054191 0.123245895 -0.052417308 -0.016552918 0.14628515
0.17752658 0.084869616 0.15493032 0.05556952 -0.17417498 -0.032963216 -0.120922014 -0.036913823
0.037507217 0.07493954 0.03477214 0.15435433 0.020325422 -0.17257178 0.049004436 -0.108033285
-0.07488587 -0.10535445 0.052364085 -0.057375282 -0.014133102 -0.1301248 -0.043608267 0.08666336
-0.126252 -0.11363711 -0.023414554 -0.012255039 0.1344334 0.059189495 -0.1430334 0.056101922
-0.17417541 -0.11240455 -0.09238402 -0.08749932 0.025508536 -0.1501088 0.063923806 -0.13339306
0.043913215 0.12761426 -0.073367946 0.014502541 0.016982602 0.07569226 0.11595541 0.056261826
-0.16900072 -0.18125033 -0.007610967 -0.13305095 0.053742383 -0.2017483 -0.13561842 0.020813055
0.014173038 0.1891097 -0.14141622 0.09092838 -0.09797209 0.1377355 0.13252987 -0.1413205
0.18596072 0.20110425 0.07056926 -0.107458465 -0.110080555 0.16234724 0.013063192 -0.12907606
0.054533947 -0.1420225 -0.114967845 -0.07894793 0.044594694 -0.1244176 -0.043011997 -0.12363774
-0.08056342 -0.14698021 -0.0003742453 -0.085951604 0.14766453 0.06522352 -0.1059549 0.13933955
-0.03774974 0.12845924 -0.09251774 0.10529599 0.014539805 -0.19192843 -0.076249115 -0.059572436
0.1980095 0.022242382 0.122513816 -0.159863 -0.15162379 -0.04978693 0.12142997 -0.03418919
-0.055310708 -0.048706423 -0.045711808 -0.02692509 0.1392665 0.06389218 0.15179332 0.11255234
-0.12360969 0.06380332 0.009845955 -0.014781588 0.14636971 0.1868512 0.052153837 0.12584677
-0.16381995 0.022810461 -0.05950713 -0.19269691 -0.09942951 0.013762565 -0.15630166 -0.13205583
0.092960835 0.08653798 0.167703 0.10041714 -0.04682861 0.055550136 -0.02807307 0.06433512
00000000: 63d6 8f3d 0cc5 8abc e347 1e3e 66b7 313e
00000010: 39d9 1fbe fb34 b43c 56d9 0d3d db17 f8bd
00000020: 9051 0b3d 9b15 073e 9535 29be dc6c 993c
00000030: d266 25be 11c7 2abe 1944 993d 1569 3e3d
00000040: 46da ba3d b18f 2b3b abd2 fcbc 0b23 7e3d
00000050: dab6 1cbc 8076 b63d 77b7 81bb ab4f 683e
00000060: 6c91 08be d6e0 aa3c 34a6 013d 984b ca3c
00000070: 8044 e33d 7e22 423d b221 acbd 37a9 0abe
00000080: a48a 34be 6362 063e 5272 8fbd 05ab 183e
00000090: 6a94 8b3d cf41 273e 5043 703e ca5a cbbd
000000a0: e7ce 24be 77cb 21bd 2eb4 c3bd 48d1 a33b
000000b0: ae5a 42bd 3618 53bd 7868 a63c 8762 4d3e
000000c0: 415d 8c3d 122c 07be add8 3c3d 531c 3a3e
000000d0: 2fc8 e83d 04a9 cebd 9b64 6b3d d303 163e
000000e0: 21b8 edbd c9b6 973d 4294 47bd 38c0 54be
000000f0: 2d39 f93d 0ea1 9fbd f813 443e 8c47 a13d
00000100: 65af 1c3d eeda 903d 4dac 39bd 730f 31bd
00000110: 16ff e03d ebd8 d03d b0c9 503d 9fb0 bd3d
00000120: 4d1a 173e 9567 f8bd 219b debd c70a ef3d
00000130: 2fcf b8bd bfd4 fcbd 8d16 78bc ce5d 0d3e
00000140: 8502 4cbe b5ad 1dbe fbae cd3d 98ad 083e
00000150: ed23 16be 151b a23d 8f7b 823c 7af4 52bd
00000160: ff24 b6bd 93a9 e43d 47a0 123e 1724 20be
00000170: 4494 013e 7461 93bd f05b a43d 9378 bb3d
00000180: 8714 efbc 325a 9bbd fe46 173b e8a5 97bc
00000190: 9262 3b3d 053b 073e e9b9 ec3d 5c2b 973d
000001a0: 8d27 95bd fdd7 d63d 2828 92bd 9108 8d3d
000001b0: 2831 143e 7b28 a63d 4a68 14be d6e6 d13d
000001c0: 941a ccbd 1aa9 943d 3a50 30be f70e 0eba
000001d0: 5868 fc3d 88b3 56bd fc99 87bc c6cb 153e
000001e0: 87c9 353e 1fd0 ad3d 0ea6 1e3e dd9c 633d
000001f0: ed5a 32be 7004 07bd f6a5 f7bd f332 17bd
00000200: 2ba1 193d e779 993d 3b6d 0e3d 100f 1e3e
00000210: 8081 a63c a8b6 30be e0b8 483d 8e40 ddbd
00000220: c35d 99bd 13c4 d7bd b97b 563d 5802 6bbd
00000230: 878e 67bc 703f 05be 959e 32bd 8f7c b13d
00000240: 3448 01be 93ba e8bd e1cf bfbc 5cc9 48bc
00000250: e9a8 093e af70 723d 5977 12be 21cb 653d
00000260: 0a5b 32be 5b34 e6bd d533 bdbd d832 b3bd
00000270: 47f7 d03c 1fb6 19be 7cea 823d 3198 08be
00000280: 58de 333d 50ad 023e ef41 96bd 119c 6d3c
00000290: 191f 8b3c 8b04 9b3d 087a ed3d cd72 663d
000002a0: 860e 2dbe b099 39be 6b65 f9bb 823e 08be
000002b0: f920 5c3d 1b97 4ebe 8edf 0abe 2480 aa3c
000002c0: 0836 683c f9a5 413e 6acf 10be a938 ba3d
000002d0: 97a5 c8bd 890a 0d3e e9b5 073e 52b6 10be
000002e0: 7d6c 3e3e 46ee 4d3e 9e86 903d 2f13 dcbd
000002f0: ea71 e1bd 5b3e 263e 0007 563c 842c 04be
00000300: fd5e 5f3d 596e 11be 4374 ebbd 74af a1bd
00000310: eda8 363d a8ce febd 592d 30bd c935 fdbd
00000320: 6ffe a4bd fb81 16be 5b36 c4b9 6507 b0bd
00000330: 5f35 173e e993 853d e2fe d8bd 07af 0e3e
00000340: 799f 1abd d28a 033e f179 bdbd 6da5 d73d
00000350: 5d38 6e3c e388 44be 7f28 9cbd 3a02 74bd
00000360: 01c3 4a3e a835 b63c 86e8 fa3d 20b3 23be
00000370: 4443 1bbe 61ed 4bbd 47b0 f83d f709 0cbd
00000380: 7b8d 62bd 6380 47bd 4e3c 3bbd 0292 dcbc
00000390: e19b 0e3e e7d9 823d b56f 1b3e d781 e63d
000003a0: 1427 fdbd 51ab 823d ee50 213c 792e 72bc
000003b0: f1e1 153e ec55 3f3e 439f 553d fadd 003e
000003c0: 6bc0 27be 01dd ba3c c0bd 73bd 5752 45be
000003d0: b3a1 cbbd 627c 613c 8b0d 20be a539 07be
000003e0: 4062 be3d d33a b13d 56ba 2b3e 80a7 cd3d
000003f0: 5bcf 3fbd 8a88 633d 7ff9 e5bc 22c2 833d

Pair_shop_mlp.fc_layers.0.bias f4 [64]
0.17050745 -0.036925696 -0.11039555 -0.0756769 -0.09498951 -0.017254975 0.11543081 -0.088111736
-0.11271034 0.09923657 0.09251683 0.16319254 -0.10043391 0.10211162 0.0762836 -0.04990747
-0.111080095 -0.08038439 -0.09320735 0.08327593 0.18745005 0.141522 -0.08182596 -0.055342525
-0.05808304 -0.08439753 -0.05276251 0.047178157 -0.15924433 0.10945259 0.03974303 0.026534546
0.039633106 0.049644727 -0.028661316 -0.06381838 -0.037152603 0.13234863 -0.06765886 0.10869281
0.0007409008 0.049418308 0.074375875 0.15872382 0.088859595 -0.030412491 0.19265606 -0.057398647
-0.10380447 -0.075033575 -0.009558095 0.06752402 0.13250077 0.089720115 -0.123634145 -0.07297488
0.04321718 -0.1452337 0.020765275 0.17595604 -0.11159468 0.050473638 -0.1544143 -0.04901075
00000000: 8199 2e3e 663f 17bd 1017 e2bd 7efc 9abd
00000010: dc89 c2bd 4e5a 8dbc fd66 ec3d ed73 b4bd
00000020: aed4 e6bd 8b3c cb3d 7779 bd3d f21b 273e
00000030: 4bb0 cdbd e61f d13d 933a 9c3d c66b 4cbd
00000040: f67d e3bd 92a0 a4bd 7fe3 bebd 928c aa3d
00000050: e8f2 3f3e 25eb 103e 5e94 a7bd d8ae 62bd
00000060: 7be8 6dbd 9dd8 acbd 801d 58bd e23d 413d
00000070: f210 23be ae28 e03d 96c9 223d fa5e d93c
00000080: 5356 223d 4558 4b3d 23cb eabc 36b3 82bd
00000090: 542d 18bd 6686 073e ba90 8abd 569a de3d
000000a0: 0339 423a da6a 4a3d 6152 983d 7f88 223e
000000b0: 05fc b53d 9e23 f9bc a147 453e d81a 6bbd
000000c0: 7097 d4bd 34ab 99bd 8e99 1cbc 094a 8a3d
000000d0: 48ae 073e 2ebf b73d e633 fdbd db73 95bd
000000e0: 7f04 313d 25b8 14be f01b aa3c d22d 343e
000000f0: c08b e4bd 72bd 4e3d c81e 1ebe 7fbf 48bd

Pair_shop_mlp.fc_layers.1.weight f4 [16, 64]
-0.13790946 -0.04984124 0.017142253 0.07689234 0.050615713 -0.024717327 0.10279772 -0.08836736
-0.022800436 0.016500587 0.008535386 0.115974225 -0.09361375 -0.08651033 -0.11054014 0.13922109
0.08632995 0.13025947 0.011344514 -0.022347715 0.15131664 -0.027753513 0.07360081 0.04220151
0.0133906165 0.056299407 -0.07965119 0.14600612 0.123633854 0.09497407 -0.047992304 -0.07725858
0.12508859 -0.11041193 0.10358192 0.011448156 0.10883827 0.17659771 0.08262558 0.025114212
0.04278348 0.06418475 0.04573665 -0.051070567 -0.12268315 -0.031549413 0.025245957 0.09046667
-0.054559983 0.070969954 0.12531348 0.08678108 0.035350047 0.06211297 -0.11350148 -0.05960882
0.11319949 -0.104969785 0.15253904 0.014404251 0.056484956 -0.0052307104 0.0776243 0.021371543
0.14897713 -0.009209675 0.0069133593 0.11378975 -0.044977352 0.10157524 0.10774504 -0.08842782
0.088369444 0.030643351 0.0860767 0.1001682 0.08470392 0.09139415 -0.08102276 0.12644973
0.019421274 -0.06706136 0.0906285 -0.03835115 -0.030281728 -0.08340979 0.09402989 -0.089871384
0.04863904 0.05547146 -0.0940688 0.010665602 -0.01939274 0.11838062 -0.018970972 0.09453944
-0.03922334 -0.043968353 -0.09470849 0.0627593 0.053448413 -0.022226442 -0.050565492 0.071964815
-0.046295013 0.03282354 0.13231948 0.13731778 -0.05271031 0.025690477 0.1357737 -0.0022116364
-0.07135793 -0.020233745 0.03382923 -0.023087682 0.03793113 0.0056606 0.04666148 -0.055590957
-0.014814618 0.14158791 -0.07267982 0.12972793 0.09042271 -0.108071685 -0.0577943 0.089805946
0.09953949 0.075300574 0.07080354 0.0038380006 -0.1123741 0.057387073 -0.005766048 -0.06453598
0.032149065 0.07799435 0.0024027748 -0.043340843 -0.031540453 0.03547051 -0.012761767 -0.06330828
-0.011536671 0.029797059 0.08160423 0.14297712 0.0529272 0.0010672406 -0.020413738 0.0749821
-0.015450397 -0.057445046 0.15071669 -0.035851184 0.0028265347 0.14783195 0.14213035 -0.09703382
0.10489925 0.017540142 -0.06805578 -0.036677033 -0.02308263 -0.076554455 0.13991924 0.09969478
0.08822145 -0.01995574 0.022806875 -0.020676311 0.12834868 0.0045872866 0.03710894 -0.08943262
-0.069802985 0.06026476 -0.12361147 -0.05541655 -0.07476103 0.12145201 0.043943197 0.10160054
0.021045242 -0.07017177 0.099562615 -0.00646513 0.052158646 0.08606156 -0.08557122 0.071730606
0.048870057 0.08015339 0.0052324804 -0.08810038 0.046301335 -0.010052626 0.12393627 0.13704836
0.12842768 0.17295241 0.14277944 0.012287626 0.04941176 -0.056968 -0.025808215 -0.08752301
0.07077321 -0.037904885 0.010101565 0.040454905 -0.045045353 0.11880191 0.13117893 0.108609274
0.15945661 -0.17255583 0.12700996 0.0900678 0.08539407 0.115691535 0.12243344 0.1542664
0.07906192 0.045787495 0.04332654 -0.045977212 -0.091825746 -0.08886893 -0.07275592 0.0068084933
0.0049381247 0.07649391 0.07908487 -0.0062335175 0.045197587 -0.022780769 -0.027852597 0.05988528
-0.09674353 -0.13850167 -0.14255807 0.04676081 -0.0580573 -0.05740308 -0.08258671 0.058511462
0.10037854 -0.05140978 0.113938704 0.14371641 -0.054644745 0.05338418 -0.0026808316 0.13027598
00000000: 2338 0dbe 5426 4cbd e96d 8c3c bb79 9d3d
00000010: 6c52 4f3d fe7b cabc 9c87 d23d f2f9 b4bd
00000020: fbc7 babc 3d2c 873c 01d8 0b3c e583 ed3d
00000030: 91b8 bfbd 542c b1bd de62 e2bd f98f 0e3e
00000040: c2cd b03d bd62 053e 57de 393c 8e12 b7bc
00000050: c0f2 1a3e 565b e3bc 05bc 963d 7edb 2c3d
00000060: 5164 5b3c 359a 663d 2a20 a3bd a182 153e
00000070: bf33 fd3d c481 c23d 9493 44bd bf39 9ebd
00000080: 3917 003e a61f e2bd c222 d43d 0c91 3b3c
00000090: 99e6 de3d 08d6 343e 9a37 a93d 52bc cd3c
000000a0: bb3d 2f3d 4b73 833d 5a56 3b3d 5f2f 51bd
000000b0: 4e41 fbbd f539 01bd 9cd0 ce3c 9746 b93d
000000c0: 4a7a 5fbd b258 913d 2d52 003e 47ba b13d
000000d0: 36cb 103d 2b6a 7e3d 7773 e8bd 6128 74bd
000000e0: 22d5 e73d 66fa d6bd 3233 1c3e cfff 6b3c
000000f0: c55c 673d 6166 abbb 7df9 9e3d 6013 af3c
00000100: 768d 183e 2de4 16bc 7689 e23b 9a0a e93d
00000110: 2c3a 38bd ae06 d03d 6ea9 dc3d a519 b5bd
00000120: 0afb b43d c407 fb3c fb48 b03d fc24 cd3d
00000130: 4079 ad3d db2c bb3d 43ef a5bd 0a7c 013e
00000140: 5d19 9f3c 7757 89bd 6f9b b93d 1816 1dbd
00000150: 6311 f8bc c1d2 aabd be92 c03d 7d0e b8bd
00000160: bb39 473d 0b36 633d 25a7 c0bd c7be 2e3c
00000170: 86dd 9ebc 8a71 f23d 0369 9bbc e59d c13d
00000180: a7a8 20bd 2918 34bd 86f6 c1bd f387 803d
00000190: b9ec 5a3d 3a14 b6bc c31d 4fbd 4a62 933d
000001a0: d79f 3dbd fa71 063d c27e 073e 089d 0c3e
000001b0: c4e6 57bd d674 d23c 4308 0b3e 1af1 10bb
000001c0: 1b24 92bd 3dc1 a5bc 8590 0a3d 6122 bdbc
000001d0: ac5d 1b3d 8e7c b93b 1c20 3f3d 58b3 63bd
000001e0: 03b9 72bc 6cfc 103e 28d9 94bd 66d7 043e
000001f0: 8b2f b93d b054 ddbd b7b9 6cbd 2eec b73d
00000200: 5cdb cb3d 3037 9a3d 7201 913d f786 7b3b
00000210: 6424 e6bd b50e 6b3d 1ef1 bcbb 712b 84bd
00000220: bdae 033d 80bb 9f3d df77 1d3b 2b86 31bd
00000230: 9030 01bd 8749 113d bb16 51bc c6a7 81bd
00000240: 4e04 3dbc f618 f43c 1e20 a73d 9868 123e
00000250: 31ca 583d a7e2 8b3a b63a a7bc 3790 993d
00000260: a923 7dbc 7f4b 6bbd 7a55 1a3e b1d8 12bd
00000270: 623d 393b 4261 173e 9e8a 113e abb9 c6bd
00000280: 6bd5 d63d 58b0 8f3c d460 8bbd a83a 16bd
00000290: c917 bdbc 95c8 9cbd fd46 0f3e c72c cc3d
000002a0: 73ad b43d 387a a3bc 7cd5 ba3c 5e61 a9bc
000002b0: d66d 033e f350 963b 8bff 173d 7328 b7bd
000002c0: def4 8ebd 2ed8 763d 0328 fdbd 77fc 62bd
000002d0: 501c 99bd d5bb f83d c8fd 333d f213 d03d
000002e0: 1267 ac3c 38b6 8fbd 7ce7 cb3d 71d9 d3bb
000002f0: 4ea4 553d 0b41 b03d f73f afbd 7fe7 923d
00000300: f82b 483d 7627 a43d 3a75 ab3b f96d b4bd
00000310: 78a6 3d3d c5b3 24bc 4dd2 fd3d 6856 0c3e
00000320: 8c82 033e 701a 313e c634 123e 0a52 493c
00000330: fc63 4a3d 4757 69bd c06b d3bc 443f b3bd
00000340: 8bf1 903d 2742 1bbd 0981 253c 0bb4 253d
00000350: 7a81 38bd 6a4e f33d c553 063e 8a6e de3d
00000360: 9848 233e 7ab2 30be e60e 023e 7775 b83d
00000370: 16e3 ae3d afef ec3d 62be fa3d 03f8 1d3e
00000380: 37eb a13d ab8b 3b3d 2c77 313d 9a52 3cbd
00000390: 230f bcbd ea00 b6bd 0e01 95bd c819 df3b
000003a0: fecf a13b d7a8 9c3d 40f7 a13d 8942 ccbb
000003b0: 1b21 393d bc9e babc 212b e4bc 444a 753d
000003c0: 7921 c6bd 62d3 0dbe befa 11be 4388 3f3d
000003d0: 7ecd 6dbd 7e1f 6bbd 3923 a9bd b7a9 6f3d
000003e0: 4493 cd3d 1093 52bd b258 e93d 652a 133e
000003f0: 2bd3 5fbd 5fa9 5a3d e4b0 2fbb 1167 053e

Pair_shop_mlp.fc_layers.1.bias f4 [16]
0.0018276866 0.0022604314 0.1333547 0.03999026 -0.07762729 0.015134571 0.016149236 -0.08707689
0.050959103 -0.07857021 -0.051133472 0.0711931 0.108116835 0.014747115 -0.08721472 0.14195178
00000000: fc8e ef3a bf23 143b 228e 083e d4cc 233d
00000010: 0efb 9ebd fef6 773c 674b 843c 5e55 b2bd
00000020: 7eba 503d 6be9 a0bd 5571 51bd b0cd 913d
00000030: 5c6c dd3d e29d 713c a29d b2bd cf5b 113e

Pair_score_mlp.fc_layers.0.weight f4 [64, 32]
-0.12931025 -0.10523349 0.14898424 -0.043898992 -0.07471418 -0.092455246 0.19619775 0.0068000993
-0.006445317 -0.0633633 -0.053974476 -0.104412325 -0.13176294 -0.14211212 0.06992236 0.010494615
-0.1965481 -0.12606801 0.24548806 -0.04600564 0.12164161 -0.17254376 0.093315184 0.117892504
-0.1168066 -0.093978845 0.20867734 -0.09791099 0.089590795 -0.092445545 -0.23120543 -0.25826147
-0.18842332 -0.073156916 0.1761197 0.18020476 -0.08600377 0.17217945 0.16333874 -0.12238489
0.12433407 0.017494952 -0.06656748 0.028800305 0.06842203 -0.06330737 -0.10014518 -0.023288252
-0.054146934 -0.101708494 0.051794663 0.13213994 0.03677003 -0.13938718 0.07491178 -0.089654975
-0.18635689 0.19382891 0.040521875 -0.13083991 -0.032230448 -0.03782967 0.1745136 0.055211596
-0.107344046 -0.0039838315 -0.06559723 -0.10376097 0.039281115 -0.00871607 0.08994489 -0.036266785
0.12808731 -0.11252732 0.058266442 0.16906397 0.026574342 -0.036611557 0.089021206 0.00028525264
-0.27035022 0.010866452 0.051848896 0.21985507 0.18808042 0.06758807 0.24823865 0.103984274
0.13745625 -0.08018242 -0.021751741 -0.038060147 -0.1253504 -0.13587545 -0.10373478 0.098689064
-0.14660789 0.12587172 0.20460857 0.040246315 0.17301348 -0.13835941 -0.12576813 0.05565943
0.15429734 0.12725145 -0.09562286 0.17626454 -0.08666442 0.07123615 -0.09064717 0.17988396
0.012844949 -0.10273336 0.11738012 0.0784417 0.041068584 0.06813971 0.15837927 -0.048952032
0.13158114 -0.19042292 0.072941884 -0.06268817 0.057095084 0.007394133 0.17676921 0.05142564
-0.18884765 0.0077959923 0.05199753 -0.0965842 0.13587481 -0.023747489 -0.09500298 -0.23134705
0.1448902 -0.06519199 -0.15975867 -0.15635115 -0.028590461 0.035684302 -0.12667446 -0.13742101
0.107317194 0.12177038 -0.09532837 -0.17868607 -0.06910348 0.080374695 0.03473451 -0.04305313
-0.19283491 0.05045313 -0.06489687 0.18046175 -0.059578028 -0.112866975 0.071359575 -0.1340073
-0.100437626 0.04533354 0.12798831 0.07934011 0.097564526 0.13928433 -0.09924852 -0.10241725
-0.092340335 0.07979784 0.16353504 0.06566623 0.01040758 0.08780758 -0.15820153 -0.05701042
0.18546937 0.17730378 0.067181975 -0.0070862696 0.12437803 -0.13033132 0.040015575 0.099114016
0.089497484 0.07140588 0.24747194 -0.1820198 0.17513928 -0.14891247 0.14683841 -0.04801912
-0.12228802 0.19862293 -0.07500766 -0.07677691 -0.14809778 -0.090097845 0.015733685 0.11686909
0.005701631 0.11999299 -0.07155038 0.13553435 -0.05170564 -0.11098516 0.13583237 0.013024869
0.037161633 0.15300323 -0.08809336 -0.012171548 0.009002649 0.09188694 0.15544215 0.1846481
0.04964618 -0.030687924 0.08972163 0.18511331 -0.10081501 0.10952288 0.14496803 -0.14790007
0.029709857 -0.073722705 0.19193982 0.13235815 0.03423207 0.021981545 -0.0956723 -0.09347554
0.18155119 0.18682541 -0.16217372 -0.12921146 0.061746802 -0.041016042 -0.1044767 0.12124334
-0.24129471 -0.11806795 0.046013772 -0.026214631 -0.08881557 0.24056622 0.04839507 0.003012762
0.016355239 -0.11327442 -0.08696415 -0.1516392 -0.109072916 -0.076156504 0.14515768 0.07013571
00000000: e869 04be a884 d7bd 538f 183e 6ecf 33bd
00000010: bf03 99bd 2d59 bdbd 10e8 483e 5ed3 de3b
00000020: 3d33 d3bb 9ec4 81bd 5714 5dbd 21d6 d5bd
00000030: ddec 06be d785 11be 7433 8f3d 9bf1 2b3c
00000040: e843 49be f917 01be 3961 7b3e 6970 3cbd
00000050: 3d1f f93d 50af 30be 081c bf3d a071 f13d
00000060: 4c38 efbd fb77 c0bd 83af 553e 8f85 c8bd
00000070: 617b b73d 1754 bdbd 1ec1 6cbe d93a 84be
00000080: 0bf2 40be 4bd3 95bd b958 343e 9987 383e
00000090: bf22 b0bd cf4f 303e 4542 273e eea4 fabd
000000a0: dca2 fe3d 9351 8f3c 8854 88bd 9eee eb3c
000000b0: d920 8c3d 4ba7 81bd eb18 cdbd 01c7 bebc
000000c0: 2dc9 5dbd 8b4c d0bd a426 543d b14f 073e
000000d0: 2c9c 163d 83bb 0ebe 596b 993d 079d b7bd
000000e0: 57d4 3ebe 167b 463e 44fa 253d e6fa 05be
000000f0: 1304 04bd 49f3 1abd b1b3 323e 8e25 623d
00000100: 32d7 dbbd cd8a 82bb d757 86bd a280 d4bd
00000110: 3ce5 203d d9cd 0ebc 0735 b83d 7b8c 14bd
00000120: 5229 033e b974 e6bd cba8 6e3d 1b1f 2d3e
00000130: 6fb2 d93c 00f6 15bd c050 b63d f68d 9539
00000140: 586b 8abe 3409 323c 825f 543d b021 613e
00000150: 2798 403e 9d6b 8a3d 4632 7e3e b5f5 d43d
00000160: 55c1 0c3e ae36 a4bd b530 b2bc f5e4 1bbd
00000170: db5b 00be ef22 0bbe e672 d4bd 7e1d ca3d
00000180: 6120 16be 84e4 003e e984 513e 52d9 243d
00000190: 722a 313e 17ae 0dbe 5cc9 00be 24fb 633d
000001a0: 1f00 1e3e 344e 023e ebd5 c3bd b17e 343e
000001b0: 1e7d b1bd 42e4 913d 39a5 b9bd 8033 383e
000001c0: 9f73 523c de65 d2bd fd64 f03d 0ba6 a03d
000001d0: 8837 283d d58c 8b3d 2d2e 223e ed81 48bd
000001e0: 35bd 063e 3afe 42be 8e62 953d a862 80bd
000001f0: 89dc 693d 7c4a f23b fd02 353e b1a3 523d
00000200: 4761 41be 8675 ff3b 5dfb 543d f0cd c5bd
00000210: c422 0b3e 188a c2bc ec90 c2bd 3ee6 6cbe
00000220: 195e 143e 6183 85bd c797 23be 841a 20be
00000230: 8b36 eabc b429 123d f3b6 01be 18b8 0cbe
00000240: 1ec9 db3d c062 f93d 853b c3bd 7bf9 36be
00000250: 2086 8dbd 7d9b a43d c645 0e3d 7b58 30bd
00000260: 8476 45be f1a7 4e3d a6e8 84bd f7ca 383e
00000270: 1708 74bd cd26 e7bd f824 923d 3639 09be
00000280: 3eb2 cdbd a9af 393d 5e0f 033e 117d a23d
00000290: e9cf c73d 8da0 0e3e cf42 cbbd 23c0 d1bd
000002a0: ee1c bdbd 0d6d a33d bb75 273e 047c 863d
000002b0: 8e84 2a3c 76d4 b33d 95ff 21be c283 69bd
000002c0: afeb 3d3e 1f8f 353e b496 893d f033 e8bb
000002d0: e9b9 fe3d 9375 05be 5fe7 233d 4afc ca3d
000002e0: 754a b73d 3f3d 923d 4969 7d3e 6663 3abe
000002f0: b657 333e 837c 18be cf5c 163e b2af 44bd
00000300: 2472 fabd cf63 4b3e 9e9d 99bd 363d 9dbd
00000310: f2a6 17be 3885 b8bd eee3 803c 1059 ef3d
00000320: bfd4 ba3b e2be f53d 0189 92bd 84c9 0a3e
00000330: 4bc9 53bd 304c e3bd a417 0b3e 4366 553c
00000340: cc36 183d e1ac 1c3e 4b6a b4bd 2c6b 47bc
00000350: d97f 133c 382f bc3d 3a2c 1f3e 6414 3d3e
00000360: cb59 4b3d 3e65 fbbc f9bf b73d 588e 3d3e
00000370: 1a78 cebd 884d e03d 8072 143e 1e73 17be
00000380: 1662 f33c eefb 96bd df8b 443e e588 073e
00000390: ed36 0c3d a412 b43c d7ef c3bd 1b70 bfbd
000003a0: 8ee8 393e 294f 3f3e de10 26be 0250 04be
000003b0: 37ea 7c3d 7000 28bd e1f7 d5bd 6e4e f83d
000003c0: f615 77be 9ccd f1bd f078 3c3d 11c0 d6bc
000003d0: f0e4 b5bd fe56 763e e939 463d c271 453b
000003e0: 6cfb 853c 6bfc e7bd 431a b2bd 4e47 1bbe
000003f0: 9f61 dfbd f1f7 9bbd 37a4 143e 50a3 8f3d

Pair_score_mlp.fc_layers.0.bias f4 [64]
0.04069919 -0.060096033 -0.13895498 -0.102179006 0.17447199 0.16139904 -0.12223826 -0.093837105
-0.07330861 -0.09199983 0.15684666 0.021629991 0.055071317 0.098641455 -0.07200842 0.040445007
0.17867069 -0.07695253 0.093722485 0.07860352 -0.07577149 -0.030641958 0.074054025 -0.054400194
0.080355875 -0.044640716 -0.0057232133 0.105801836 0.16955446 -0.03505112 -0.083597295 0.14789996
0.09160075 -0.15574768 0.018479466 0.21173552 0.13455963 0.13569109 -0.06772 -0.047090545
-0.1439175 0.09407306 -0.13850684 -0.12397428 0.0014877944 0.13167821 -0.0356548 -0.08927047
-0.06844898 -0.083204545 0.02222481 -0.074618086 -0.08030575 -0.12625143 -0.10120981 0.14678445
-0.03766602 0.112022065 0.1228429 0.12259454 0.07051433 0.14916086 0.06626633 -0.08000346
00000000: 32b4 263d 4227 76bd 374a 0ebe 3a43 d1bd
00000010: c9a8 323e ca45 253e 0e58 fabd ab2d c0bd
00000020: d322 96bd 686a bcbd 699c 203e 6131 b13c
00000030: 7692 613d 8804 ca3d 2779 93bd aaa9 253d
00000040: 73f5 363e 4a99 9dbd 93f1 bf3d e2fa a03d
00000050: 152e 9bbd d804 fbbc a3a9 973d bdd2 5ebd
00000060: 9f91 a43d 2fd9 36bd cb89 bbbb a2ae d83d
00000070: af9f 2d3e c391 0fbd 0f35 abbd 1673 173e
00000080: 2d99 bb3d 527c 1fbe 4062 973c 32d1 583e
00000090: 00ca 093e 9bf2 0a3e c9b0 8abd 04e2 40bd
000000a0: 1c5f 13be 60a9 c03d bdd4 0dbe 3ae6 fdbd
000000b0: 1902 c33a a7d6 063e c40a 12bd 70d3 b6bd
000000c0: fb2e 8cbd 2567 aabd ce10 b63c 5ed1 98bd
000000d0: 5777 a4bd 0e48 01be 1747 cfbd aa4e 163e
000000e0: af47 1abd d36b e53d 0f95 fb3d d912 fb3d
000000f0: d169 903d a0bd 183e a4b6 873d dbd8 a3bd

Pair_score_mlp.fc_layers.1.weight f4 [8, 64]
0.07803421 0.13099541 0.1108098 0.06232467 0.12948297 0.164673 0.030078666 0.12978415
0.10765508 0.0912568 -0.09733256 0.04288959 0.036857035 -0.089521006 -0.011588909 0.010903604
0.08677124 0.022339173 -0.046309464 0.0747656 0.15298766 -0.007547074 0.09103514 0.026317148
0.042533882 0.14487235 0.14876388 -0.00813924 -0.032269094 -0.0050487947 0.13293815 -0.012624912
0.05177969 0.11362549 0.1247813 0.01442743 0.107423045 0.048238833 0.13603045 0.07063024
-0.007153522 0.048954673 -0.020756828 0.079345055 -0.14753978 0.10805796 0.14674504 0.10914135
-0.092347056 0.11005049 -0.091945514 0.09655471 0.16776784 0.040508512 0.004488803 -0.09093254
0.046341136 -0.06607293 -0.061729234 0.067571156 -0.0001190667 0.09234007 -0.046186976 0.120184824
-0.106207944 0.10085732 -0.10115783 -0.12190321 -0.10868014 -0.055621177 0.01203588 -0.08089489
-0.06092291 -0.025934799 -0.15404564 0.0077124373 -0.13538885 0.120268695 -0.14071593 -0.15583372
0.014787765 0.032202754 -0.046940506 0.008567691 -0.12893751 -0.10522213 -0.027679062 0.058115695
-0.02164006 -0.07678315 0.113623925 -0.04322811 -0.087462544 0.03526603 0.104742005 0.009859865
-0.057232793 -0.11303749 0.045363486 0.0943953 -0.090653256 0.08424099 0.02489786 0.069920406
-0.06282567 -0.03213025 -0.06430349 -0.10803947 0.16501623 0.1220644 -0.07752266 -0.05207157
0.058699843 -0.11815555 0.11165455 -0.09905735 0.029833907 -0.12470037 -0.10076398 0.17269704
0.025223505 -0.09928058 -0.031226395 -0.07139385 0.14546098 0.06516193 0.040063966 0.041754417
0.0759167 0.10705703 0.20589155 0.15499689 -0.026915474 0.08872005 0.1600231 0.018768717
0.14885199 -0.013051593 0.10961324 -0.00544256 -0.013060286 -0.15433834 0.07858823 0.08950578
0.22026289 0.15387544 0.12325481 0.04866204 0.12696755 -0.027631475 0.11369896 0.058118787
0.0063043805 0.042286444 0.10400699 0.16366929 -0.003728431 0.16312447 0.07816412 0.19822314
0.12048565 0.03298355 0.112490766 -0.026251683 0.11405859 0.016235631 -0.02833339 0.1263928
-0.029575404 0.10318898 0.11383666 0.15936899 -0.021817503 0.13407685 0.09964215 -0.010878692
0.15563717 -0.013418725 0.15943792 -0.012618622 0.0006460845 -0.07875509 0.032564238 -0.039549176
-0.038116843 0.037747536 0.09721271 0.19490352 0.09162958 0.016367944 0.10355421 0.22199936
-0.05225132 0.08525796 0.046657994 0.021357741 -0.00857728 -0.1078836 0.003991852 0.021271233
-0.12885939 -0.015455256 0.065988675 0.0021894807 -0.031055938 0.097792104 -0.073123746 -0.1251928
-0.1135276 -0.092684686 0.0020101008 -0.04826244 -0.07987502 0.011925748 0.065304 0.078122325
0.11183311 0.009325054 -0.09765604 0.10218226 -0.04227091 0.08221654 0.08321501 -0.10860883
-0.031671483 -0.10184326 -0.004983428 -0.015902074 0.09931619 -0.13118334 -0.0499237 -0.033831336
-0.007731949 0.08756805 -0.05608942 0.03180072 -0.08926161 -0.10689359 -0.11588788 -0.07015539
0.100130334 -0.12902832 -0.0048275604 -0.09964404 0.034639526 -0.038987845 0.02396137 0.14147735
-0.08082244 0.040612295 0.11117687 0.083723746 -0.04962809 -0.1258866 0.033310357 -0.01097822
00000000: 66d0 9f3d a923 063e 40f0 e23d 2748 7f3d
00000010: 2f97 043e 0aa0 283e 8967 f63c 23e6 043e
00000020: 447a dc3d d8e4 ba3d 4b56 c7bd ffac 2f3d
00000030: 67f7 163d ca56 b7bd 68df 3dbc 08a5 323c
00000040: 1fb5 b13d a400 b73c feae 3dbd b51e 993d
00000050: cca8 1c3e 724d f7bb a270 ba3d 0f97 d73c
00000060: 0238 2e3d 6b59 143e 8f55 183e 725a 05bc
00000070: 992c 04bd 5c70 a5bb f020 083e b8d8 4ebc
00000080: f116 543d 7bb4 e83d 578d ff3d 0761 6c3c
00000090: 9d00 dc3d 1596 453d 914b 0b3e 96a6 903d
000000a0: 1868 eabb b284 483d 390a aabc a97f a23d
000000b0: ab14 17be 7e4d dd3d 5544 163e 8085 df3d
000000c0: 7420 bdbd 2762 e13d ee4d bcbd 7abe c53d
000000d0: 55cb 2b3e 41ec 253d cf16 933b d73a babd
000000e0: 34d0 3d3d 3f51 87bd cbd7 7cbd bf62 8a3d
000000f0: 73b3 f9b8 ca1c bd3d 8e2e 3dbd 7623 f63d
00000100: 8d83 d9bd 488e ce3d d62b cfbd 64a8 f9bd
00000110: b193 debd 08d3 63bd 2432 453c 38ac a5bd
00000120: 4d8a 79bd 3775 d4bc 24be 1dbe 9db8 fc3b
00000130: 60a3 0abe 6f4f f63d d617 10be e092 1fbe
00000140: 6248 723c 09e7 033d b044 40bd 805f 0c3c
00000150: 3208 04be b37e d7bd 33bf e2bc b90a 6e3d
00000160: 7f46 b1bc 7c40 9dbd a9b3 e83d f50f 31bd
00000170: 901f b3bd 1d73 103d fa82 d63d 458b 213c
00000180: ef6c 6abd 3380 e7bd 10cf 393d 5352 c13d
00000190: 6aa8 b9bd 8a86 ac3d 99f6 cb3c 6e32 8f3d
000001a0: bfaa 80bd 029b 03bd 8cb1 83bd cc43 ddbd
000001b0: 04fa 283e e6fc f93d 33c4 9ebd 0049 55bd
000001c0: 3f6f 703d 89fb f1bd 24ab e43d 94de cabd
000001d0: 3d66 f43c e862 ffbd 585d cebd 7ed7 303e
000001e0: 86a1 ce3c 9e53 cbbd 7fce ffbc f036 92bd
000001f0: b9f3 143e 9e73 853d 1d1a 243d ae06 2b3d
00000200: 377a 9b3d b740 db3d 3cd5 523e 81b7 1e3e
00000210: d77d dcbc dcb2 b53d 18dd 233e dac0 993c
00000220: a86c 183e 59d6 55bc e87c e03d 8157 b2bb
00000230: cffa 55bc df0a 1ebe def2 a03d ce4e b73d
00000240: 988c 613e 8691 1d3e 056d fc3d d951 473d
00000250: c803 023e 675b e2bc 00db e83d f70d 6e3d
00000260: fa94 ce3b 8d34 2d3d 9e01 d53d ec98 273e
00000270: b158 74bb 1a0a 273e 8314 a03d 02fb 4a3e
00000280: 2ec1 f63d c219 073d 8f61 e63d c50d d7bc
00000290: 8d97 e93d 9600 853c 6d1b e8bc 1d6d 013e
000002a0: 1e48 f2bc be54 d33d 3223 e93d a031 233e
000002b0: 9fba b2bc 714b 093e 2f11 cc3d 8b3c 32bc
000002c0: 5a5f 1f3e 36da 5bbc b243 233e 56be 4ebc
000002d0: ff5d 293a 594a a1bd 1462 053d 51fe 21bd
000002e0: 6820 1cbd 299d 1a3d 7517 c73d ca94 473e
000002f0: 4aa8 bb3d 1116 863c 3b14 d43d cd53 633e
00000300: 7b05 56bd ba9b ae3d 741c 3f3d 6ef6 ae3c
00000310: b887 0cbc 14f2 dcbd 15ce 823b 0241 ae3c
00000320: b7f3 03be 0b38 7dbc 1225 873d 647d 0f3b
00000330: 0669 febc 3a47 c83d e7c1 95bd 8b32 00be
00000340: 2981 e8bd 78d1 bdbd e5bb 033b d6ae 45bd
00000350: 8495 a3bd 3664 433c 1bbe 853d 99fe 9f3d
00000360: c208 e53d 1cc8 183c e4ff c7bd ef44 d13d
00000370: 4324 2dbd 2561 a83d a26c aa3d 4e6e debd
00000380: f5b9 01bd 3393 d0bd 064c a3bb 1145 82bc
00000390: 4966 cb3d ed54 06be cb7c 4cbd ba92 0abd
000003a0: 4a5c fdbb e156 b33d 05be 65bd 7941 023d
000003b0: cace b6bd 07eb dabd a056 edbd a1ad 8fbd
000003c0: 2211 cd3d 0020 04be 8330 9ebb 2d12 ccbd
000003d0: 2de2 0d3d b8b1 1fbd a34a c43c 70df 103e
000003e0: 3c86 a5bd 1459 263d b3b0 e33d 5b77 ab3d
000003f0: d346 4bbd 6be8 00be 7170 083d fedd 33bc

Pair_score_mlp.fc_layers.1.bias f4 [8]
0.008351213 0.08444411 -0.083445445 0.039488673 0.14450419 0.12311873 -0.060365357 -0.061501067
00000000: 87d3 083c 09f1 ac3d 72e5 aabd e0be 213d
00000010: e8f8 133e ac25 fc3d aa41 77bd 8be8 7bbd

CNN_embedding_types.weight f4 [106, 16]
0.1447194 -0.7756799 -0.49377397 0.9526168 -0.40743425 -0.0133390445 1.769193 -2.9003918
0.12320153 -0.86574435 -0.5350022 1.0769839 0.4854655 0.39554387 0.735811 -0.76588464
-0.03323009 -1.9264039 0.6648928 -0.7306456 0.45783442 -0.6527293 0.41440654 -0.25323772
-0.038700975 -0.9044664 -1.3552607 0.4740285 1.0222447 0.42678526 -0.36139572 -0.1270029
-0.5575774 1.6683737 0.62440926 -0.369996 -0.019328395 1.0881456 0.4400508 -1.035664
2.1105437 -1.5505115 -1.0695537 0.5861779 -0.068145305 0.11017177 -0.5081105 1.2672207
-0.30318132 -0.60603887 -0.31131357 0.070130795 -0.45311219 2.0914278 -0.076495044 1.2451671
-1.3637358 -0.76926607 0.33228952 1.1416528 0.09556167 -2.131404 0.54824644 0.9360735
1.9081922 0.9615412 0.5532089 0.94371057 0.34146914 -0.036131818 1.4979035 -0.77713597
0.78444695 -0.045530625 -0.162888 1.3386378 -0.16280414 -0.25698695 0.05226877 -0.3905531
0.23035519 0.26680827 1.0981535 -1.2467839 -0.9592683 -1.806865 0.011381955 -0.11029202
-1.255781 0.63485026 0.30918384 2.8536866 -1.2144246 -0.21394113 -0.5268425 0.1747892
0.5184405 -0.3785808 -0.22544836 -1.5656636 0.47743145 -1.0616355 1.7796661 -0.548713
0.33892053 0.7781892 0.007546223 -0.5837614 -0.9153054 -0.05262318 1.7875817 1.1515049
0.09723652 1.5960456 -0.6041526 1.4098101 0.118052386 0.7040226 -0.5374417 -0.7361796
0.54710525 1.9050328 0.101510786 0.45101082 0.40040472 -0.99870265 0.15158005 -0.63073504
2.8520985 -0.118797325 0.38489395 0.9762557 -1.3438313 -0.83415174 -0.1312017 -0.09495339
-0.17994495 -1.112129 0.45809117 -0.21843596 0.556023 -0.109296866 1.9977323 0.12848976
0.0273442 0.151261 -0.82922494 2.0247345 0.24367812 0.07526238 -0.2818617 0.07604165
0.40713233 -0.25304702 0.40599078 0.7714887 -0.23134585 -1.1066291 0.07229622 -0.86714077
-1.177903 0.542392 -0.20075329 -0.59603554 0.46059382 1.2337711 0.30921412 0.6057433
0.59941804 -0.30474186 -0.3072624 1.6422282 1.0433007 -1.483582 0.64338326 1.7963812
0.0218704 -1.901566 -0.11202247 0.3648967 -1.3046637 -0.024685932 -1.3055451 -0.22724512
-0.106335126 -1.0938593 -0.28570497 1.7126843 1.271481 1.0138401 -0.7403896 0.25813654
-0.90458393 2.3065853 -0.7947069 1.7491344 -0.081292585 -0.18406874 -1.1813179 0.4321932
1.2781641 -0.7706523 1.7226973 -0.22094056 0.86083937 1.8179014 0.6837215 -0.26037925
1.9137774 1.1445903 1.3850349 -1.1514311 0.1273847 0.8642499 0.84437674 -1.5979087
0.9556185 -1.3938209 0.062141046 -1.0221109 -0.5472919 1.096275 0.123831734 0.3984952
0.020551883 -1.0745434 0.06683642 2.747491 3.3546846 1.7117393 -1.341293 -0.1974935
-0.97741085 0.04887127 -0.8514062 -0.6006427 -0.9225071 0.14228037 -0.49744767 -0.3223821
-1.8642348 0.42926678 0.6146345 0.18303576 0.099005885 -0.54397464 0.765874 -1.3813083
0.2603208 0.6628083 0.7280072 0.5856962 0.23829204 0.02072685 -0.8085951 0.85760975
00000000: 5331 143e f592 46bf f1cf fcbe b2de 733f
00000010: 399b d0be 028c 5abc eb74 e23f 05a0 39c0
00000020: 1551 fc3d 6ca1 5dbf e7f5 08bf 9cda 893f
00000030: ef8e f83e ba84 ca3e 1c5e 3c3f 0411 44bf
00000040: 461c 08bd 6794 f6bf 6a36 2a3f 970b 3bbf
00000050: 4669 ea3e 4419 27bf 182d d43e 60a8 81be
00000060: ea84 1ebd 1c8b 67bf 2f79 adbf ddb3 f23e
00000070: ead8 823f 9983 da3e dc08 b9be 0c0d 02be
00000080: 64bd 0ebf 458d d53f 49d9 1f3f 1e70 bdbe
00000090: 9556 9ebc 5b48 8b3f 574e e13e a390 84bf
000000a0: 2613 0740 2977 c6bf 23e7 88bf c10f 163f
000000b0: c48f 8bbd bda1 e13d 8813 02bf 4a34 a23f
000000c0: 953a 9bbe 5d25 1bbf 7e64 9fbe bca0 8f3d
000000d0: 52fe e7be f4d9 0540 6fa9 9cbd a361 9f3f
000000e0: e58e aebf 9fee 44bf da21 aa3e ae21 923f
000000f0: d6b5 c33d ec68 08c0 e159 0c3f 83a2 6f3f
00000100: a43f f43f 9027 763f 199f 0d3f 0497 713f
00000110: 0bd5 ae3e f5fe 13bd 4dbb bf3f 62f2 46bf
00000120: 84d1 483f 527e 3abd 1dcc 26be 7c58 ab3f
00000130: 21b6 26be cb93 83be c717 563d 93f6 c7be
00000140: 3be2 6b3e 189b 883e 4b90 8c3f 9d96 9fbf
00000150: 9b92 75bf 5a47 e7bf 617b 3a3c c8e0 e1bd
00000160: 6fbd a0bf 8c85 223f 584d 9e3e cda2 3640
00000170: 4472 9bbf 6213 5bbe 26df 06bf f1fb 323e
00000180: 84b8 043f 58d5 c1be efdb 66be aa67 c8bf
00000190: e571 f43e ace3 87bf 19cc e33f 7578 0cbf
000001a0: fe86 ad3e 6837 473f 4e46 f73b 6371 15bf
000001b0: 7451 6abf 678b 57bd 7acf e43f 8364 933f
000001c0: f123 c73d 394b cc3f bfa9 1abf a874 b43f
000001d0: 73c5 f13d d33a 343f c795 09bf 4476 3cbf
000001e0: 170f 0c3f 1dd8 f33f e3e4 cf3d e4ea e63e
000001f0: d901 cd3e faaa 7fbf cd37 1b3e da77 21bf
00000200: c888 3640 034c f3bd d210 c53e e5eb 793f
00000210: aa02 acbf f88a 55bf bd59 06be ec76 c2bd
00000220: 7d43 38be 3e5a 8ebf ed8a ea3e adad 5fbe
00000230: 8657 0e3f 09d7 dfbd b1b5 ff3f d292 033e
00000240: f200 e03c 2ae4 1a3e 1648 54bf 4095 0140
00000250: c286 793e 2a23 9a3d 2d50 90be b9bb 9b3d
00000260: a673 d03e 618f 81be 06de cf3e 4980 453f
00000270: ede5 6cbe 06a6 8dbf 0a10 943d f0fc 5dbf
00000280: 87c5 96bf 34da 0a3f 4592 4dbe c995 18bf
00000290: f4d2 eb3e 36ec 9d3f 5051 9e3e fe11 1b3f
000002a0: 7673 193f 2007 9cbe 7f51 9dbe 8934 d23f
000002b0: e18a 853f 04e6 bdbf c4b4 243f d2ef e53f
000002c0: 8e29 b33c 8466 f3bf 096c e5bd bed3 ba3e
000002d0: 38ff a6bf 273a cabc 1a1c a7bf f2b2 68be
000002e0: 3bc6 d9bd 9503 8cbf ec47 92be 3d39 db3f
000002f0: e4bf a23f 83c5 813f 2c8a 3dbf 792a 843e
00000300: d092 67bf 189f 1340 e971 4bbf a3e3 df3f
00000310: ba7c a6bd 847c 3cbe 6d35 97bf 6d48 dd3e
00000320: e29a a33f 7849 45bf 5881 dc3f 3e3e 62be
00000330: f85f 5c3f feb0 e83f 5f08 2f3f 6e50 85be
00000340: a8f6 f43f ef81 923f d348 b13f 1862 93bf
00000350: 2371 023e 7b3f 5d3f 1329 583f 4688 ccbf
00000360: 6aa3 743f b968 b2bf 9c87 7e3d 88d4 82bf
00000370: 521b 0cbf bd52 8c3f 7e9b fd3d 9007 cc3e
00000380: 6c5c a83c a38a 89bf 88e1 883d e4d6 2f40
00000390: 27b3 5640 461a db3f 7daf abbf bc3b 4abe
000003a0: 9937 7abf 3e2d 483d c2f5 59bf b8c3 19bf
000003b0: 6d29 6cbf f2b1 113e 76b1 febe 440f a5be
000003c0: 3f9f eebf dbc8 db3e b058 1d3f ba6d 3b3e
000003d0: 99c3 ca3d ec41 0bbf 5210 443f b6ce b0bf
000003e0: c548 853e cead 293f ae5e 3a3f 30f0 153f
000003f0: d402 743e 5bcb a93c 1700 4fbf 508c 5b3f

embedding_CNN_distances.weight f4 [7, 8]
1.0404004 -1.1494634 0.19453953 0.3612399 0.93859804 -0.5292952 0.73455805 1.2369359
-0.7165301 0.71525586 -2.8651567 -0.23280498 -1.008224 -2.2094526 -1.0205183 0.06231596
0.25785312 -1.1665109 0.031760905 -0.38254443 1.2307651 0.8873209 1.9165574 0.40563473
-0.118662216 0.37211794 0.5434296 -1.7514902 0.9377046 -0.7729766 0.4181098 -0.5053865
-1.0993065 -0.17276083 0.6208964 1.5490476 0.13573267 -0.71648175 0.22976331 0.3652896
0.09249151 -0.4119507 -0.20451699 1.3381397 0.36630598 -0.9131721 -0.7113527 1.0764449
0.0 0.0 0.0 0.0 0.0 0.0 0.0 0.0
00000000: d72b 853f 9e21 93bf 5f35 473e 70f4 b83e
00000010: f647 703f e47f 07bf ff0b 3c3f ea53 9e3f
00000020: 846e 37bf 021b 373f ba5e 37c0 6e64 6ebe
00000030: 7c0d 81bf ac67 0dc0 58a0 82bf 053f 7f3d
00000040: 5305 843e 3b50 95bf b917 023d dddc c3be
00000050: b689 9d3f 7627 633f c151 f53f 5baf cf3e
00000060: 2d05 f3bd 3e86 be3e 341e 0b3f d530 e0bf
00000070: 690d 703f cbe1 45bf 7d12 d63e 0261 01bf
00000080: 13b6 8cbf 37e8 30be 11f3 1e3f 3147 c63f
00000090: 81fd 0a3e 596b 37bf 1347 6b3e 3d07 bb3e
000000a0: 306c bd3d 34eb d2be e76c 51be 2948 ab3f
000000b0: 758c bb3e a6c5 69bf 361b 36bf f2c8 893f
000000c0: 0000 0000 0000 0000 0000 0000 0000 0000
000000d0: 0000 0000 0000 0000 0000 0000 0000 0000

embedding_CNN_prices.weight f4 [6, 5]
1.8968469 1.3842127 -1.2725329 -1.7263286 -1.0074041 -0.44514823 1.113062 1.9443367
0.34767604 -0.24655041 2.1779487 -0.5588457 -1.605788 -0.7040778 -1.1556087 -1.1989212
1.8416505 -0.32322288 -1.415374 -0.8403731 -0.6170996 0.31521463 0.03852146 -0.7775533
0.92685777 0.0 0.0 0.0 0.0 0.0
00000000: e1cb f23f e22d b13f 5ce2 a2bf 56f8 dcbf
00000010: 9ef2 80bf 78ea e3be d178 8e3f 06e0 f83f
00000020: 9802 b23e b677 7cbe 8363 0b40 8310 0fbf
00000030: 768a cdbf 713e 34bf fcea 93bf 4076 99bf
00000040: 34bb eb3f 787d a5be fa2a b5bf b122 57bf
00000050: 3dfa 1dbf d063 a13e aec8 1d3d bc0d 47bf
00000060: 8d46 6d3f 0000 0000 0000 0000 0000 0000
00000070: 0000 0000 0000 0000
