checkpoints/GNNNoCNN_Epoch49_valmse2.1212_testmse2.2916_ndcg0.9367.model (torch, 249600 bytes, 52 tensors)

Pair_embedding_types.weight f4 [106, 16]
000000 7e 25 bc 3c 74 31 bd bd f9 70 cf be 20 2c 5e bf
       0.022967096 -0.09237948 -0.4051588 -0.8678608
000010 a8 22 5e 3f 0c a8 bf be 36 06 04 3e d1 de a6 bf
       0.8677163 -0.37432897 0.12892994 -1.3036748
000020 94 3a f6 3d fd de 9b bb f9 d0 9e bf a0 4f 0a 3f
       0.12022892 -0.004756807 -1.2407523 0.5402775
000030 cd dd ca bf 72 c2 bb 3e c1 33 8d 3e 72 ff 35 3f
       -1.5848938 0.36671788 0.27578548 0.71092904
000040 6d 76 ef 3e 57 73 96 bf 83 ea f6 3f 1e 63 d5 be
       0.4677004 -1.1753949 1.9290317 -0.41677183
000050 4b b8 81 be be fd 3d 3e dc ef 18 bf 9f 45 2d 3f
       -0.25335917 0.18553826 -0.59740996 0.6768436
000060 6d 91 84 bf 86 b7 26 3d 92 1c 08 bf 45 f3 53 40
       -1.035688 0.040702365 -0.53168595 3.311723
000070 88 f9 4e bf 87 43 11 bf 7b df 8e bf c2 3d 81 3f
       -0.80849504 -0.56743664 -1.1161951 1.0096972
000080 8b 73 db 3f b8 4f 12 40 5a ea 83 bf 55 d6 16 3e
       1.7144636 2.2861156 -1.0305893 0.14730199
000090 a5 21 61 3f 64 95 a9 bf ee 59 91 bf 1f e8 89 3d
       0.8794196 -1.3248715 -1.1355569 0.06733727
0000a0 8c f1 22 3f 65 8f 04 3e 42 86 81 3f c7 62 d5 3d
       0.6364982 0.12945326 1.0119097 0.10419231
0000b0 2d af 74 bf 87 8f c1 3d ad 69 91 3f cc ec a7 bd
       -0.955798 0.09451204 1.1360375 -0.08199462
0000c0 ce 91 27 bf d0 3a 97 3f cf 01 c7 be a6 d2 94 bf
       -0.65456855 1.1814823 -0.38868567 -1.1626785
0000d0 13 d2 d6 bf 61 cd 59 3f bb 2d 00 c0 7d ed 62 3c
       -1.678286 0.8507901 -2.0027912 0.013850567
0000e0 16 f2 80 3c d5 69 87 3f aa 63 ab bf a9 96 a3 3f
       0.015740436 1.0579172 -1.338979 1.2780353
0000f0 3a 28 27 3c 35 3c 78 3f 6e 72 9c 3f 12 af 4e 3d
       0.010202462 0.9696687 1.2222421 0.05045993
000100 40 14 be bd 93 58 43 3e e3 de 54 3f a8 76 d2 bf
       -0.09281206 0.19076757 0.831526 -1.6442461
000110 91 a5 08 40 87 9f 8a bf 24 7a 51 3e 10 05 ac bf
       2.1351054 -1.0829934 0.20456749 -1.3439045
000120 23 e9 9f be 96 09 13 3e 08 b4 2b 3e 21 8f 70 3f
       -0.31232557 0.14359125 0.16767895 0.939684
000130 b2 ff c1 3e ed fc 1d be ae ba 6e 3e bf 59 4c 3e
       0.37890393 -0.15428515 0.233134 0.1995611
000140 64 65 a1 be 16 57 1d 3e 18 3c 93 3e bf f1 86 3f
       -0.31522667 0.15365252 0.28756785 1.0542525
000150 5b 7c ac be ad d5 95 bf 42 6c 2d be 8e 19 c7 be
       -0.33688626 -1.1705834 -0.16935828 -0.38886684
000160 34 db 2b 3f 99 25 c6 3f 68 af 38 bf e4 8a 4f bf
       0.6713135 1.5480224 -0.7214265 -0.81071305
000170 71 fa 59 bf bf f3 20 3f 47 f3 62 3f 7a 46 bf 3f
       -0.8514777 0.6287193 0.8865246 1.4943383
000180 69 0a b2 bf f7 6d 63 3e f4 3d e7 3f a1 6d 11 3e
       -1.3909427 0.22209917 1.8065782 0.14201976
000190 ba 14 3a 3f 54 16 5e 3e 95 6b 63 bf da c3 0b 40
       0.72687876 0.21688205 -0.8883603 2.1838288
0001a0 79 13 8e bf e5 c6 9c 3f 4b 49 5f 3e 0e 6d 7c bf
       -1.1099693 1.2248198 0.21805303 -0.98603904
0001b0 c0 de ef be 14 7d 75 3e e2 1d f4 be c0 9d a8 bc
       -0.46849632 0.23973495 -0.4767905 -0.020583034
0001c0 53 3a 39 3f 6e 60 c5 3f 10 52 81 3e d7 07 bf be
       0.7235462 1.5420053 0.2525792 -0.3731067
0001d0 22 71 28 bf c0 34 4a 3e 81 b9 9a be e8 dc 2c be
       -0.65797627 0.19746685 -0.30219653 -0.16881144
0001e0 53 d7 8e 3f 3c 85 26 c0 43 b3 85 3e 45 12 8e be
       1.1159462 -2.601882 0.26113328 -0.27748314
0001f0 18 a7 20 be 5c 0a c0 bf 74 63 d7 bd 2a ec 8a 3d
       -0.15688741 -1.5003161 -0.10517016 0.06783326
000200 01 45 8e 3e 80 74 c6 3f 81 32 bd 3e f6 58 78 3f
       0.2778702 1.5504303 0.36952594 0.97010744
000210 22 0c 52 be 81 01 90 3f 29 37 a3 bf 14 ed 1a 3f
       -0.20512441 1.1250459 -1.2751209 0.60518
000220 b1 b3 62 3e 93 4f 80 bf 69 72 ba 3f 0f 9c 09 bf
       0.2213886 -1.0024284 1.4566165 -0.5375375
000230 b0 be fb bc cb 00 a4 3f 5f c7 19 bd 9c 3b af 3e
       -0.030730575 1.2812742 -0.03754365 0.34225166
000240 53 b6 71 3f 1e c3 9f 3d ed 3c dd 3e 54 fa 7a bf
       0.9441883 0.078008875 0.43210545 -0.9803822
000250 a0 13 d0 be ed 9e 70 3f b5 dd c2 3e 0a 04 1b bf
       -0.40639973 0.939925 0.38059774 -0.6055304
000260 2f 8e 1e 3f 52 3e 25 bd 2a 64 10 40 f6 f3 b7 3f
       0.61935705 -0.040342636 2.2561135 1.4371326
000270 54 69 bc 3f b6 0a 07 3e 76 fc d4 3e aa 77 99 be
       1.4719644 0.1318768 0.41598862 -0.2997411
000280 08 67 76 bd fb 13 fb bd 83 b2 16 3e e4 e6 8e 3e
       -0.060156852 -0.1225967 0.14716534 0.2791053
000290 72 bb 88 bf f9 10 43 bf 33 43 98 3f 08 73 87 3f
       -1.0682204 -0.76197773 1.1895508 1.058198
0002a0 4a e0 b8 bf 07 7e 37 3f c7 e4 57 be 00 da aa 3f
       -1.4443448 0.7167668 -0.21083365 1.3347778
0002b0 cf 7f b3 3f 6b df 45 3d 78 34 9f 3e 16 94 d2 3e
       1.4023379 0.04830877 0.31094718 0.41128606
0002c0 f9 2a 9c bf 0e 9b 1e bf c0 ba 14 be 15 f8 6a 3f
       -1.2200614 -0.61955345 -0.14524364 0.91784793
0002d0 ab 11 6c be 65 e1 9e bf 7c 8d 4b 3f af e7 24 3f
       -0.23053615 -1.2412535 0.79512763 0.6441602
0002e0 c1 50 a3 3e 8b a2 4e 3f 5b 73 fe 3f cf 26 62 3e
       0.31897548 0.8071677 1.9878954 0.22085117
0002f0 44 0e 47 3d 4b 3e b6 3f 0b 5e 90 be 3a e6 70 3e
       0.04859759 1.423776 -0.2819675 0.23525324
000300 1b 58 e4 3e dd 2c c8 bf c6 13 fa 3d 4e e9 a5 be
       0.4459847 -1.5638691 0.12210803 -0.3240456
000310 dc e1 d9 3f cd 7d 82 bf 26 b2 07 3f 95 05 c3 3f
       1.7022052 -1.0194641 0.5300621 1.5236079
000320 9c b5 27 be 0b 1f bd bf 8c 63 3b bf 35 63 18 3f
       -0.16377872 -1.4775099 -0.7319877 0.5952638
000330 f9 c5 63 3f 66 b7 49 3e 21 1d c8 3d ee e3 b6 3e
       0.8897396 0.19698867 0.09771181 0.35720772
000340 8f 66 4e bf 96 8e d4 3f 43 05 b6 be 92 f1 0b 40
       -0.8062524 1.6606014 -0.3555089 2.1866193
000350 47 53 a3 3f 8d c3 ca 3e ce d2 a9 bf 7b be 99 3e
       1.2759789 0.39602318 -1.3267457 0.30028138
000360 d1 ee c8 be e7 9e 82 3e b2 44 27 bf 27 a9 0f 3f
       -0.39244702 0.25511858 -0.65339196 0.5611748
000370 f8 35 a6 bf f7 a8 52 40 d7 5d 03 40 29 20 05 c0
       -1.298522 3.2915628 2.0526025 -2.080088
000380 31 c9 65 bf e8 54 7a bd 17 39 15 c0 ec 8a ae 3f
       -0.8976012 -0.06111613 -2.3316095 1.3636146
000390 7c 77 86 bf ca 64 b3 be e7 d4 c9 3e cf b1 7a bf
       -1.0505214 -0.35037833 0.39420244 -0.97927564
0003a0 f8 c7 e1 be f7 42 22 bf bd 2d 40 bf 64 4a bd 3e
       -0.44097877 -0.6338343 -0.7506979 0.36970818
0003b0 ea 43 ae bf be c6 6a bf db 1d c8 be 2d 2e c5 bf
       -1.3614476 -0.91709507 -0.39085278 -1.5404717
0003c0 ab 79 8c bf 72 be dc 3e d8 75 c6 bf 36 ea 1d 3d
       -1.097463 0.43114048 -1.5504713 0.03855344
0003d0 95 12 b1 3e 46 8a b7 3f 31 7c 65 3f a2 4b ad bf
       0.3458449 1.4339073 0.89642626 -1.3538706
0003e0 6e 00 72 3f 7f 34 8c bf 2d 00 92 be ea 2c 9b be
       0.94531906 -1.095352 -0.2851576 -0.30307704
0003f0 79 f4 d2 3f e5 aa dd be d0 01 00 c0 d3 b6 02 3e
       1.6480857 -0.43294445 -2.0001106 0.12765054

embedding_Pair_distances.weight f4 [7, 8]
000000 e9 8f 01 3f f6 64 56 bf af c7 6f 3f 4e cf 3d 40
       0.50610214 -0.83747804 0.9366407 2.9657779
000010 47 1a 2a 3f 4c 82 b4 3f 90 6d ae be 3a 90 96 3e
       0.66446346 1.4102263 -0.34067965 0.2940691
000020 24 f2 00 40 56 af 0e 40 7e 5c 54 3f f0 08 d4 bd
       2.014779 2.2294517 0.8295363 -0.10353267
000030 de 2f be 3f 1a fd 75 bf 0e d2 cb 3f da 9c 23 40
       1.4858358 -0.9608933 1.5923479 2.5564485
000040 48 31 37 bf 96 3c 64 bf 03 55 77 bf 4d 11 8d bd
       -0.7155957 -0.89154947 -0.9661409 -0.068880655
000050 1e ce b5 bf f1 a5 04 bf 85 80 f8 3d 44 97 c8 bf
       -1.4203527 -0.51815706 0.12133888 -1.5671163
000060 16 fd d2 be 2e b0 ca 3e 98 18 f3 bf db b8 55 be
       -0.41208714 0.3958754 -1.899188 -0.20871298
000070 7a 96 05 c0 3d 7f f0 bf 24 bc 77 bf 44 1f fd be
       -2.0873094 -1.878883 -0.96771455 -0.49437916
000080 85 1a 85 3f ab 27 98 3f a9 1d ca be df b3 02 c0
       1.0398718 1.1887106 -0.39475754 -2.0422285
000090 17 bd a6 bf b2 d9 38 be 13 61 2d bf 57 2d 8f bf
       -1.3026456 -0.18051794 -0.6772625 -1.1185712
0000a0 e1 19 7c bd 14 48 d6 3e ae b8 09 bf 42 e9 38 3e
       -0.061548118 0.41851866 -0.53797424 0.18057731
0000b0 d1 48 b4 bf af 3e 48 bf 7e 98 d4 bf 76 90 0b bf
       -1.4084722 -0.7822065 -1.6609037 -0.54517305
0000c0 00 00 00 00 00 00 00 00 00 00 00 00 00 00 00 00
       0.0 0.0 0.0 0.0
0000d0 00 00 00 00 00 00 00 00 00 00 00 00 00 00 00 00
       0.0 0.0 0.0 0.0

embedding_Pair_prices.weight f4 [6, 5]
000000 00 de cd 3d 78 4a eb 3e 7a b2 d2 3e 7b b7 87 be
       0.10052109 0.45955253 0.41151792 -0.26507172
000010 5e 90 9b 3f c1 55 5b 3f 57 24 1a 3d 5e 76 64 3f
       1.2153432 0.85677725 0.037632313 0.89243114
000020 8d ba 3b 3f 57 d5 4f 3f 2c f0 1a be 08 24 1e bf
       0.7333153 0.81184906 -0.15130681 -0.6177373
000030 05 54 25 bf e0 a0 0c 40 56 b6 46 bf 8d 14 9e bf
       -0.6458133 2.197319 -0.7762197 -1.2350022
000040 3d 28 02 c0 41 fb f9 be 42 5c 34 3e 96 2c 00 40
       -2.033706 -0.48824504 0.17613319 2.0027213
000050 d8 41 1a bd 94 83 ba bf 44 9d ba bd 29 c4 80 3f
       -0.03766045 -1.4571404 -0.09112027 1.0059863
000060 ab 62 a9 bd 00 00 00 00 00 00 00 00 00 00 00 00
       -0.082707725 0.0 0.0 0.0
000070 00 00 00 00 00 00 00 00
       0.0 0.0

Pair_shop_mlp.fc_layers.0.weight f4 [64, 32]
000000 76 00 07 3d 22 fe 3a bd 12 7e 25 3e ce 3e 42 3e
       0.032959424 -0.045652516 0.16161373 0.1896927
000010 d9 fd 6f be b5 e0 4a 3d 1a 4b 9d 3d 84 88 ff bd
       -0.23436679 0.049530704 0.0768034 -0.1247721
000020 07 dc 7a 3d 89 d4 28 3e 77 d2 1c be 60 5f dc 3c
       0.06124499 0.16487326 -0.15314661 0.026900947
000030 e9 79 03 be d1 f0 51 be 04 94 8c 3d cd 50 87 3d
       -0.12839474 -0.2050202 0.06864169 0.066072084
000040 ee f9 e1 3d d3 89 67 3c f0 e3 16 bb a7 6b 9b 3d
       0.110339984 0.014131981 -0.0023024045 0.075888924
000050 66 f4 94 3c fb 8b c1 3d 4d eb 92 3c b1 e5 7b 3e
       0.018182945 0.09450527 0.017934466 0.24599339
000060 09 59 05 be 76 e3 9b 3c 4a 8d 5b 3c cb 06 b6 3d
       -0.13022245 0.01902936 0.013400385 0.088880144
000070 f9 64 b6 3d 65 83 60 3d a4 80 bf bd 1e 77 4d be
       0.08905978 0.054812808 -0.09350708 -0.20064971
000080 0d c2 3e be 57 1b d1 3d 85 bf a8 bd ba b6 12 3e
       -0.18628712 0.10210293 -0.082396545 0.14327517
000090 48 51 b1 3d 31 d1 7d 3e 2c 7e 95 3e c2 40 04 be
       0.08658081 0.24786831 0.29197824 -0.12915328
0000a0 f2 3f 0d be 89 9e 98 bd a7 0f cb bd 55 38 04 3c
       -0.13793924 -0.07452113 -0.09915095 0.008070071
0000b0 fe e6 a3 bc 1d 3e 1b bd 7e e7 ae 3c b8 b5 73 3e
       -0.020007607 -0.037901033 0.021350618 0.23799789
0000c0 6f d3 23 3d a9 8f 30 be fd 6f 8a 3c 93 0a 4d 3e
       0.03999656 -0.17242302 0.016899103 0.20023565
0000d0 59 97 73 3d 47 d4 be bd 45 75 7f bc e4 17 d5 3d
       0.05947051 -0.093178324 -0.015591924 0.104049474
0000e0 14 b4 cc bd e3 ab ae 3d b1 2c 5f bc 79 90 20 be
       -0.09995285 0.085288785 -0.013621495 -0.15680112
0000f0 d4 9b 25 3e 56 fe a6 bd d7 48 4a 3e 12 16 41 3d
       0.16172725 -0.081539795 0.19754349 0.04714019
000100 8f 50 6e 3d c6 92 2a 3d 88 6b af bc 9d ac 88 bd
       0.058182295 0.04164388 -0.02141358 -0.06673548
000110 d2 fa 04 3e ad 48 0d 3e 22 9a 8f 3d c4 71 e0 3d
       0.12986305 0.13797255 0.070118204 0.10959199
000120 76 58 65 3e 26 d3 46 be b2 e7 ed bd a1 c9 f4 3d
       0.22397026 -0.19416484 -0.11616458 0.1195252
000130 ba 75 ad bd 48 9f 06 be a2 d8 4e bd f9 17 00 3e
       -0.0846972 -0.13146698 -0.050499566 0.12509145
000140 e6 b9 1f be f9 68 1d be 82 8a 11 3e 39 b0 1e 3e
       -0.15598258 -0.15372075 0.14212993 0.15496911
000150 a8 d8 de bd a2 f8 e3 3d 39 96 a6 3b 6a c7 3a bc
       -0.10881168 0.11131407 0.005083826 -0.011400083
000160 e9 24 b2 bd 08 97 d0 3d fc be cb 3d 9e 47 f3 bd
       -0.08698446 0.10185057 0.09948537 -0.11878894
000170 fa b6 f5 3d f5 37 fb bd 50 68 e6 3d 87 8a 28 3d
       0.11997791 -0.12266532 0.11250365 0.041147735
000180 37 12 bc bd df 13 de bd 95 2e f1 bc 6a 4d c1 bc
       -0.09183162 -0.10843634 -0.029441157 -0.023596484
000190 40 d6 82 3d 4b fb 0c 3e 02 6d 23 3e 24 5d b1 3c
       0.06388521 0.13767736 0.15959552 0.021650858
0001a0 4e 1c f7 bc 60 3b 4c 3e f9 66 13 be c0 66 e6 3d
       -0.030164864 0.19944525 -0.1439475 0.11250067
0001b0 6f ff ef 3d 06 39 01 3e a7 7d 46 be b6 47 2b 3e
       0.11718642 0.12619409 -0.1938387 0.16726574
0001c0 81 b6 b1 bd ae 6c ed 3d 8e e4 3a be f4 57 79 bd
       -0.08677388 0.11592995 -0.18251249 -0.060874894
0001d0 90 da f1 3d 25 12 a7 bd 44 19 96 bb 67 ec 18 3e
       0.118092656 -0.08157758 -0.0045806486 0.1493393
0001e0 db a2 27 3e 3d 4d 99 3d 97 40 25 3e 66 5a a0 3d
       0.16370718 0.07485435 0.1613792 0.07829742
0001f0 d3 e0 4e be d9 d5 ad bc c1 40 22 be e2 ed c6 bd
       -0.20202951 -0.021220135 -0.15845014 -0.09713341
000200 2b a1 19 3d e7 79 99 3d 3b 6d 0e 3d 10 0f 1e 3e
       0.037507217 0.07493954 0.03477214 0.15435433
000210 80 81 a6 3c a8 b6 30 be e0 b8 48 3d 8e 40 dd bd
       0.020325422 -0.17257178 0.049004436 -0.108033285
000220 c3 5d 99 bd 13 c4 d7 bd b9 7b 56 3d 58 02 6b bd
       -0.07488587 -0.10535445 0.052364085 -0.057375282
000230 87 8e 67 bc 70 3f 05 be 95 9e 32 bd 8f 7c b1 3d
       -0.014133102 -0.1301248 -0.043608267 0.08666336
000240 34 48 01 be 93 ba e8 bd e1 cf bf bc 5c c9 48 bc
       -0.126252 -0.11363711 -0.023414554 -0.012255039
000250 e9 a8 09 3e af 70 72 3d 59 77 12 be 21 cb 65 3d
       0.1344334 0.059189495 -0.1430334 0.056101922
000260 0a 5b 32 be 5b 34 e6 bd d5 33 bd bd d8 32 b3 bd
       -0.17417541 -0.11240455 -0.09238402 -0.08749932
000270 47 f7 d0 3c 1f b6 19 be 7c ea 82 3d 31 98 08 be
       0.025508536 -0.1501088 0.063923806 -0.13339306
000280 40 5c 22 3d a0 1c b4 3d 5c cf 87 bd 1a 41 9d bb
       0.039638758 0.08794522 -0.066313475 -0.0047990205
000290 c1 6d fb bb 54 71 c5 3d 76 db 28 3e ba 75 b0 3d
       -0.007672996 0.09640756 0.16489968 0.086162046
0002a0 27 9d 3f be 86 e1 49 be df 9d b7 ba e6 61 ef bd
       -0.18712293 -0.19714937 -0.0014008841 -0.116885945
0002b0 55 b5 53 3d 51 fa 54 be 1c e2 fa bd 2f 84 d1 3c
       0.051686604 -0.20798613 -0.12250158 0.025575725
0002c0 1e 24 e3 3a 95 ca 2c 3e c3 74 0f be d6 83 e0 3d
       0.0017329489 0.16874154 -0.14009385 0.10962646
0002d0 72 3f c5 bd ed 78 13 3e 14 cd 04 3e 1f c8 11 be
       -0.09631242 0.14401598 0.12968856 -0.14236496
0002e0 8d 84 39 3e 7d 76 43 3e 9e 27 95 3d d8 35 6d bd
       0.1811697 0.19088168 0.07282947 -0.057912678
0002f0 2e 11 c7 bd 8e 2c 0f 3e 8c 5e c0 3c 7b 11 3a be
       -0.09720074 0.1398184 0.023482583 -0.18170731
000300 9d 60 85 3d 72 8a 2f be 88 67 db bd 57 93 25 bd
       0.06512568 -0.17142656 -0.107131064 -0.040423717
000310 8b 8c 94 3c 55 b1 2a be 14 1d 97 bd 14 9f 0c be
       0.018133422 -0.1666921 -0.07378593 -0.13732558
000320 a2 8a af bc 3d 40 41 be 6c c2 27 bd 8c 71 05 be
       -0.02142841 -0.18872161 -0.0409569 -0.13031596
000330 4e 91 9c 3d 92 9d f4 3c 5a a1 7a bd f8 a7 d2 3d
       0.07644902 0.029860292 -0.061189033 0.10285944
000340 2e ee d2 bc d8 6f e5 3d 62 59 5f bd 79 f2 fd 3d
       -0.025748339 0.11202973 -0.0545286 0.123997636
000350 4b d7 25 3d df 77 0e be c0 60 a1 bd 45 6c 56 bd
       0.040488522 -0.13912915 -0.07879782 -0.052349348
000360 78 b4 3e 3e 19 ad 88 3c 23 1d d8 3d 16 c9 42 be
       0.18623531 0.016684102 0.105524324 -0.1902202
000370 14 63 38 be 6b 84 3b bd 8e c8 d0 3d 43 e4 42 bd
       -0.18006545 -0.04578058 0.10194503 -0.04758097
000380 c3 36 5d bc 4b 8c 42 bd 95 99 7d bd cf 5e 50 bb
       -0.013501826 -0.047497075 -0.061914045 -0.0031794792
000390 a9 fc 1a 3e 21 6d 46 3d dd 14 be 3d 0b 62 d2 3d
       0.15135445 0.048443917 0.09281323 0.102726065
0003a0 6f d9 c8 bd e4 9c f3 3c b6 a0 49 3d 37 e9 0f bd
       -0.09807097 0.029737897 0.04922553 -0.03513452
0003b0 c1 2c 2b 3e b5 d4 44 3e 77 aa eb 3c 38 bf ec 3d
       0.16716291 0.19221766 0.028767807 0.115599096
0003c0 c1 5d 29 be 2a d0 25 bb 62 83 4c bd 3e fe 39 be
       -0.1653967 -0.0025301077 -0.049929984 -0.18163392
0003d0 26 d3 c2 bd 67 ad 3d 3d 0f bd 22 be 9a a6 13 be
       -0.095129296 0.046307947 -0.15892433 -0.14419022
0003e0 11 79 b8 3d 87 cc a8 3d e2 fc 5a 3e a2 05 d8 3d
       0.090074666 0.082421355 0.2138553 0.105479494
0003f0 63 59 1b ba 4c 4e 4a 3d 12 41 de bc 0f 66 9a 3d
       -0.00059261004 0.049391076 -0.027130637 0.075389974

Pair_shop_mlp.fc_layers.0.bias f4 [64]
000000 c2 4d 3c 3e fa 44 86 bc b5 0c e3 bd c2 39 af bd
       0.18389037 -0.016390312 -0.11086408 -0.08555938
000010 dc 89 c2 bd dc d4 93 bc ae 91 ce 3d f0 2b be bd
       -0.09498951 -0.018045835 0.1008638 -0.09285724
000020 02 c1 e4 bd 1d e0 b6 3d dc 40 c1 3d 67 62 21 3e
       -0.11169626 0.08929465 0.09436199 0.15760194
000030 a2 6f cc bd ce 09 cf 3d 3f 7b b1 3d 8c 5c 55 bd
       -0.0998223 0.10109292 0.086660855 -0.052090213
000040 a8 b0 df bd 02 e9 ad bd 50 dd a4 bd df e3 a5 3d
       -0.109223664 -0.08491708 -0.080500245 0.081001036
000050 67 a8 3c 3e f5 7a 13 3e 14 0e c3 bd d8 ae 62 bd
       0.18423615 0.14402373 -0.095241696 -0.055342525
000060 ef 9f 55 bd 04 5d b5 bd 88 ad aa bc 8c 1a 07 3d
       -0.052154478 -0.08855632 -0.0208347 0.0329843
000070 45 dc 2b be dd 32 ee 3d 7d e0 5f 3d fa 8b ec 3c
       -0.16783245 0.11630795 0.054657448 0.02887534
000080 c6 33 5c 3d b0 27 4a 3d d9 a9 0e bd 52 0a 7c bd
       0.053760312 0.049354255 -0.034829948 -0.06153328
000090 e5 e8 b6 bc 3b b1 db 3d b0 c7 a1 bd 51 e5 da 3d
       -0.02232785 0.107271634 -0.078994155 0.1068827
0000a0 62 5b dc bc 1a 73 31 3d 1c 25 9c 3d 8e d7 25 3e
       -0.026899043 0.04332266 0.076242656 0.16195509
0000b0 9e 61 b4 3d 46 72 22 bd 03 36 3e 3e c5 93 62 bd
       0.088076815 -0.03965976 0.18575291 -0.055316705
0000c0 3d 0f ae bd 4e d3 a3 bd 5c 31 88 bc ef 8a 93 3d
       -0.08499 -0.079992875 -0.016625099 0.07204234
0000d0 e4 08 05 3e ca 98 9c 3d 5d e4 ef bd 0e be 8f bd
       0.12991673 0.0764633 -0.11713479 -0.07018672
0000e0 ba 8f e9 3c 36 bb 10 be 88 8c 15 3d 4a 9d 36 3e
       0.028510917 -0.14133915 0.036510974 0.17833439
0000f0 17 c0 e7 bd 5d b8 77 3d 59 91 18 be ac e2 55 bd
       -0.11315935 0.060478557 -0.14899196 -0.052218124

Pair_shop_mlp.fc_layers.1.weight f4 [16, 64]
000000 2a e5 86 be 94 bf 18 bd 3c 01 55 3b 80 c0 a2 3d
       -0.26346713 -0.03729208 0.0032501956 0.07946873
000010 6c 52 4f 3d d9 f8 a6 bc f0 d3 d9 3d e2 5e b4 bd
       0.050615713 -0.020382332 0.10636127 -0.0880716
000020 39 3f 1b bd 08 ef 57 bc b4 7c bd bb 9e e9 df 3d
       -0.03790209 -0.013179548 -0.005782688 0.10933231
000030 7c ba ad bd 9b 39 a3 bd 44 58 26 be fa 0e 11 3e
       -0.08482835 -0.07969972 -0.16244608 0.1416587
000040 3f 62 cf 3d 5f 9b 13 3e c1 45 c4 bc fd 9a 98 bc
       0.10126161 0.14414738 -0.023959043 -0.018628592
000050 d5 8a 1c 3e 75 d6 fd bc ee 56 a2 3d 7e db 2c 3d
       0.15287335 -0.03098605 0.07926737 0.04220151
000060 a2 da e2 3b 02 c8 b0 3d 3d 02 28 be 32 36 33 3e
       0.0069230357 0.086318985 -0.16407104 0.17501143
000070 9a bd 18 3e 30 23 b2 3d 96 3e dc bd b6 ce 92 bd
       0.14916077 0.08698118 -0.10754125 -0.07168333
000080 d7 16 2f 3e 6d 9e da bd 13 fc e7 3d 63 fb 1a 3c
       0.17098556 -0.106747486 0.11327376 0.009459349
000090 95 d2 02 3e 85 c8 59 3e 2f 22 87 3d dd 47 c8 3c
       0.12775643 0.21267898 0.06598317 0.02444833
0000a0 fc ba 42 3d a2 64 93 3d dc be 3e 3d 22 90 8c bd
       0.047541603 0.071969286 0.046568736 -0.06863429
0000b0 5d bf 18 be 4b d6 0b bd dd d3 c6 3c ad 11 d7 3d
       -0.1491675 -0.034139913 0.024270946 0.10501418
0000c0 73 7d 3f 3d b2 1c 40 3d 5d ea 39 3e aa 02 c9 3c
       0.046750497 0.046902366 0.18155809 0.024537403
0000d0 da f3 eb 3d cf 95 a5 3d d6 24 00 be 3f 0f 6b bd
       0.1152112 0.08085214 -0.12514052 -0.057387587
0000e0 a5 34 e1 3d ae fc ce bd f3 27 5b 3e 79 12 57 3c
       0.10996369 -0.101067886 0.21401958 0.013126963
0000f0 4e 45 01 3d cb f0 9c bc a7 f2 d7 3d 53 7e e3 3b
       0.031560235 -0.019157788 0.10544329 0.0069425493
000100 d7 2f 63 3e 28 2c 4d bc d3 e8 61 3c cb f2 f5 3d
       0.22186218 -0.012522735 0.01378842 0.120092
000110 2c 3a 38 bd d5 90 b8 3d 28 e3 dc 3d 29 77 a6 bd
       -0.044977352 0.090119995 0.10785514 -0.08128197
000120 12 1b 9e 3d e2 a0 09 3d a8 f1 ab 3d f3 cc d3 3d
       0.07720007 0.033600695 0.08395702 0.10341825
000130 44 ba a6 3d e9 9a a3 3d 30 c6 00 bd 46 5a fe 3d
       0.08140996 0.07988531 -0.031439006 0.12419562
000140 0b eb a4 3c 7d b0 9a bd 6c 67 09 3e 0a 46 52 bd
       0.020131608 -0.07553194 0.13418359 -0.051336326
000150 ac fe 35 bc d5 53 9f bd 9d 9d b5 3d 7d 0e b8 bd
       -0.011108082 -0.077796616 0.08867953 -0.089871384
000160 f1 c8 32 3d 19 76 6e 3c 6e 11 72 bd be 8d 11 bb
       0.043648664 0.014554524 -0.059098653 -0.002220973
000170 af 41 97 bd 71 a2 ce 3d 81 43 1a 3c 0a af bf 3d
       -0.07385575 0.10089577 0.009415508 0.09359558
000180 38 7f 3b bd 7b 9f 60 bd 1e 38 f1 bd a7 58 8d 3d
       -0.045775622 -0.054839592 -0.11778282 0.06901675
000190 ce 5d b3 3b 9a a0 9a bd 77 d0 6c bd f6 d5 94 3d
       0.005473829 -0.075501636 -0.057815995 0.07267372
0001a0 72 ae 8b bd af 3f c7 3c 46 57 06 3e 83 91 1c 3e
       -0.06820382 0.024322359 0.1311923 0.15289883
0001b0 15 0e e4 bc fa d6 9d 3b 15 b5 fa 3d 60 1f 70 bc
       -0.027838746 0.004816887 0.1224157 -0.014655918
0001c0 82 f9 30 be db ad 08 bd fb c9 0c 3c 17 fa 4d 3b
       -0.1728268 -0.033368926 0.008593078 0.0031429583
0001d0 49 06 3f bd 32 75 c2 bc bc 5e 71 3d 9a 12 8d bd
       -0.046636853 -0.023737524 0.058928236 -0.068883136
0001e0 10 93 da bb 10 90 c6 3d 2d a2 f4 bd d5 51 0b 3e
       -0.0066703632 0.096954465 -0.11944995 0.13605435
0001f0 34 2d d2 3d ae 54 d4 bd f2 a9 b9 bd 4b 3c a7 3d
       0.10262528 -0.10367714 -0.090656176 0.08165797
000200 60 49 75 3e 03 f9 8f 3d 4b 9a 9f 3d 3b 30 95 3a
       0.23953772 0.07029917 0.07793101 0.0011382172
000210 64 24 e6 bd db 72 5f 3d ed 32 12 bc 7c 23 8c bd
       -0.1123741 0.054552894 -0.008923274 -0.068427056
000220 a1 d2 38 3d 45 68 e3 3d ca ff 61 3c 57 bb 01 bd
       0.045122746 0.11103872 0.013793895 -0.0316728
000230 77 1f 27 bd c7 09 ff 3c ad c1 92 3c 92 a8 89 bd
       -0.04080149 0.031132592 0.017914617 -0.06721605
000240 4f 89 b0 bc 3a 11 b7 3c 64 e0 d7 3d 8f 34 0c 3e
       -0.021549849 0.022347081 0.10540846 0.13691925
000250 bf 6e 48 3d cc b4 b1 3b 89 31 03 bd 37 90 99 3d
       0.04893374 0.005423164 -0.032029662 0.0749821
000260 de f6 2c bc a6 75 90 bd 6e a0 6e 3e 5d 8a 54 bd
       -0.010556905 -0.0705369 0.23303387 -0.051889766
000270 bf a2 0d bd 35 42 2a 3e 9c 5a 4d 3e 11 02 d8 bd
       -0.034579035 0.16626818 0.20054096 -0.10547269
000280 2d d1 99 3d 80 21 99 3c 7b be 90 bd f0 6e 0e bd
       0.075106 0.018692732 -0.07067581 -0.034773767
000290 e5 32 9a bc 0f 2c d4 bd 73 bf 1c 3e 93 36 c6 3d
       -0.018823097 -0.10359966 0.15307407 0.09678378
0002a0 82 7b b7 3d 88 0f c3 bc 79 ca 08 3c e2 ab c7 bb
       0.08959104 -0.023811117 0.0083490545 -0.006093488
0002b0 41 27 1a 3e d0 fc cc 3c 1e cc 35 3d 2f e1 cf bd
       0.15054037 0.025022894 0.044384114 -0.10150372
0002c0 99 48 2d be f4 0a a9 3d 87 f8 33 be f1 32 a2 37
       -0.16922225 0.08254042 -0.17575274 1.9335626e-05
0002d0 e7 f4 15 be 97 ac f7 3d fa de 2f 3d ba 9e cb 3d
       -0.14644204 0.12093466 0.042937256 0.09942384
0002e0 af 02 9e 3c 3a 31 54 bd 72 e9 55 3d d5 a2 03 bc
       0.019288389 -0.05180476 0.052224584 -0.008034428
0002f0 62 42 91 3d f4 59 dc 3d 76 16 c8 bd df 77 b4 3d
       0.0709274 0.10759345 -0.09769909 0.08811926
000300 17 55 37 3e 34 59 88 3d 33 dc 2a 3c 58 49 cf bd
       0.17903553 0.06657639 0.010428476 -0.10121411
000310 78 a6 3d 3d 6f 53 a5 bc 33 30 ec 3d 4e 78 04 3e
       0.046301335 -0.020181386 0.11532631 0.12936518
000320 42 81 fb 3d 33 98 46 3e 85 1e 16 3e 84 20 85 3c
       0.12280513 0.19393997 0.1466008 0.016250856
000330 b9 48 1a 3d 6a 71 8b bd 1a ff ea 3b 5e 8e bc bd
       0.03766701 -0.068087414 0.0071715238 -0.09206842
000340 1b fa 8b 3d ec 19 55 bd e0 a7 39 3d 9f 46 fd 3c
       0.06834813 -0.052026674 0.045326114 0.030917464
000350 24 cc 42 bd a8 0e ea 3d d4 79 04 3e 8a 6e de 3d
       -0.047557965 0.11428577 0.12937099 0.108609274
000360 68 f9 26 3e cf d1 3f be bf 5e 68 3e c6 93 9a 3d
       0.16306078 -0.1873238 0.22692393 0.07547717
000370 cf 9a 5e 3c c1 37 e7 3d 7f 18 31 3e 33 a6 15 3e
       0.013586714 0.11289931 0.17294501 0.14614181
000380 d8 97 b0 3d 3f 0e 0e 3d 34 70 0a 3d ce 7a 47 bd
       0.08622712 0.034681555 0.03379841 -0.0487011
000390 ea 9d fd bd 7f a8 ce bd 83 2f a4 bd 3a 1e e4 b9
       -0.12383635 -0.10090732 -0.08016875 -0.0004351007
0003a0 55 f2 06 bc a1 32 8a 3d 53 c4 90 3d d6 27 7e 3b
       -0.008236487 0.06747938 0.07068696 0.0038781068
0003b0 94 6f 72 3d 2f fb c4 bc 59 b6 0c bd 02 ea 56 3d
       0.05918844 -0.024045555 -0.034353588 0.05246926
0003c0 74 c8 88 be b3 3e 05 be 5b 64 42 be c9 fa e5 3d
       -0.26715434 -0.13012199 -0.18983595 0.11229474
0003d0 32 1a 04 be dc 9e 70 bd e4 f4 a7 bd 7e cb 73 3d
       -0.12900618 -0.05874525 -0.08201006 0.059520237
0003e0 cc 3d cf 3d 20 12 72 bd ee 9e bc 3d 8a ad 0b 3e
       0.10119209 -0.059099317 0.09210001 0.13640419
0003f0 38 4d 20 bd 9f 33 75 3d 66 3f 98 3c 58 40 1c 3e
       -0.03913614 0.059863683 0.018584918 0.1525892

Pair_shop_mlp.fc_layers.1.bias f4 [16]
000000 dc 9d 72 bb 35 8e 22 3c dc 79 0a 3e b8 e8 26 3d
       -0.003702036 0.0099216 0.13523048 0.04074928
000010 e4 1b ab bd 2c 5d 3d 3b 9f 3b 89 3c 70 4d a8 bd
       -0.08354929 0.0028894646 0.016752062 -0.08217895
000020 bf 05 4d 3d c3 fb a5 bd a4 47 5c bd ff b5 92 3d
       0.050054308 -0.0810466 -0.05377926 0.07163619
000030 2f d3 ce 3d d7 c9 81 3c 9a 0f b9 bd 8e e8 0e 3e
       0.10098874 0.015843315 -0.09036179 0.139559

Pair_score_mlp.fc_layers.0.weight f4 [64, 32]
000000 6a 17 12 be c1 41 ca bd 1b 85 2b 3e c0 f3 21 bd
       -0.14266744 -0.09875823 0.16749994 -0.0395391
000010 bf 03 99 bd 84 4b bd bd eb 82 5b 3e 1b e0 b0 3c
       -0.07471418 -0.09242919 0.2143666 0.021591237
000020 3d 33 d3 bb 6f 94 04 be ef 10 3d bd be 22 c9 bd
       -0.006445317 -0.12947248 -0.046158727 -0.0982108
000030 5c a7 03 be 5a e2 0c be 74 33 8f 3d 27 b0 4e 3c
       -0.12856811 -0.13758221 0.06992236 0.01261524
000040 de d0 3c be 48 48 bb bd be 8d 83 3e 82 16 7f bd
       -0.18439052 -0.09144646 0.25694078 -0.062277324
000050 43 21 e1 3d 54 b9 4b be 9c b0 3a 3d 51 69 fe 3d
       0.10992672 -0.19894916 0.045578584 0.12422431
000060 92 5c 20 be 92 a2 6c bd 79 55 25 3e 4e da d4 bd
       -0.15660313 -0.057772227 0.16145886 -0.10393201
000070 13 bc a6 3d e2 7d 1a bd b7 99 7f be 42 5e 95 be
       0.08141341 -0.037717707 -0.24960981 -0.29173476
000080 b5 ce 38 be 64 29 8d bd 86 1c 4e 3e 79 8b 41 3e
       -0.18047602 -0.0689266 0.20128068 0.18900861
000090 6b 36 b0 bd de 31 34 3e b1 20 31 3e cd e2 e8 bd
       -0.086041294 0.17597148 0.17297627 -0.11371384
0000a0 09 7f fa 3d 2c 15 98 bd 53 15 b5 bd 0b de 19 3d
       0.12231261 -0.07425913 -0.08841958 0.037565272
0000b0 eb b4 97 3d f7 9e 18 bd b6 cb cb bd de ea 88 bc
       0.07407554 -0.037260976 -0.09950964 -0.016713556
0000c0 2b 08 9b bd 6d 6b e6 bd ee 0e 4a 3d 12 6e 22 3e
       -0.07569917 -0.112509586 0.049330644 0.15862301
0000d0 db 18 f7 ba fd 1a 03 be 1b 3f 23 3d 16 d8 f0 bd
       -0.0018852012 -0.12803264 0.039855104 -0.11759965
0000e0 d4 18 2c be 58 32 34 3e 91 65 db 3b 90 19 0a be
       -0.16806346 0.1759733 0.0066954573 -0.13486314
0000f0 c7 f9 48 bd d7 7f a7 bc d5 06 1e 3e ca 00 a3 3d
       -0.04906633 -0.020446701 0.15432294 0.07959135
000100 af a0 fc bd 5e 1d 99 ba c4 e5 36 bd 16 31 d0 bd
       -0.123353355 -0.0011681726 -0.044652715 -0.101656124
000110 75 b4 1e 3d 68 73 73 bc 65 df c9 3d dd 4a 00 bd
       0.038746316 -0.014859058 0.09857062 -0.031321395
000120 20 b0 05 3e 40 f1 22 be 3f 7a 3e 3c f8 a1 33 3e
       0.13055468 -0.15912342 0.011625825 0.17542255
000130 9c 16 e1 3c c8 df 3b bd de e0 b2 3d 1b 02 5c 39
       0.027476601 -0.04586771 0.08734296 0.0002098162
000140 63 ed 8b be 0f de 16 3d 22 44 0e 3d 1f 52 67 3e
       -0.2732955 0.036832865 0.034732945 0.2258992
000150 41 05 60 3e 5d 4e 85 3d 90 c3 4d 3e e1 6c 77 3d
       0.21877004 0.06509087 0.20094132 0.06040657
000160 80 4d 36 3e 63 44 82 bd 5e 88 59 bd 87 95 06 bc
       0.17803001 -0.063607 -0.053108566 -0.008214361
000170 03 2f 1b be 89 ae f0 bd 5d 94 b5 bd a2 ae 07 3e
       -0.15154652 -0.1175204 -0.08866189 0.13250211
000180 94 eb 2b be 9d ac 03 3e 50 d1 6a 3e c7 63 35 3d
       -0.16789085 0.12858815 0.22931409 0.04428461
000190 4a f1 30 3e 5b 0c 13 be 4d 3f ea bd b1 0b 7d 3d
       0.17279544 -0.14360182 -0.11437855 0.061778728
0001a0 33 9c 1d 3e 31 8a 80 3d e3 16 08 be 32 8e 3c 3e
       0.15391617 0.06276358 -0.1328998 0.18413618
0001b0 11 4e ab bd 3c 6d 8b 3d 3e 9a bd bd f9 48 37 3e
       -0.08364499 0.06807944 -0.09257935 0.1789893
0001c0 73 a1 0c 3d 52 c3 e3 bd 66 87 dc 3d 03 8b 9f 3d
       0.034333657 -0.11121239 0.10768013 0.07790186
0001d0 16 4d d2 3c 9f 79 83 3d 77 08 f9 3d 1a cd 70 bd
       0.025671523 0.06419682 0.12159818 -0.05878935
0001e0 fb 80 11 3e f8 21 5c be a9 3e 0a 3d cb 46 85 bd
       0.14209358 -0.21497333 0.033751164 -0.06507643
0001f0 01 94 19 3d 08 81 58 3d 06 f4 35 3e a3 69 29 3d
       0.037494663 0.05285743 0.17768869 0.04136051
000200 27 ac 44 be 90 0e c6 bc b0 ea 20 3c fa 3d ea bd
       -0.19206296 -0.024176866 0.009821579 -0.11437602
000210 c4 22 0b 3e c5 6c 11 bd 9b 88 02 be 21 0b 7e be
       0.13587481 -0.03550412 -0.12747423 -0.24808933
000220 19 5e 14 3e 61 83 85 bd 70 06 46 be 76 82 44 be
       0.1448902 -0.06519199 -0.19338393 -0.19190392
000230 f0 15 22 bd a1 4b 61 3c f3 b6 01 be 62 42 21 be
       -0.039571702 0.0137509415 -0.12667446 -0.1574798
000240 6a 0d 47 3e 0c c9 49 3e ee 71 12 be a3 4c ce bd
       0.19438711 0.197056 -0.14301273 -0.10073211
000250 6d 24 c4 bd 58 2e d0 3d 6e 57 c2 3b 88 d8 9d 3b
       -0.0957726 0.10165089 0.0059308326 0.0048170723
000260 f1 03 44 be 18 a8 9e 3d 3a 46 b9 bc 4f 6f 69 3e
       -0.19142129 0.07746905 -0.022616494 0.22796367
000270 dd 06 c9 bc 6c ba 05 be b7 a2 39 3d 42 77 18 be
       -0.024539405 -0.13059396 0.045321193 -0.14889243
000280 71 5f ff bd 12 39 12 3d 74 b3 19 3e 39 20 95 3d
       -0.12469376 0.035698958 0.15009862 0.072815366
000290 03 05 c9 3d db 90 0f 3e 5e 23 bc bd 69 69 e0 bd
       0.09815409 0.14020102 -0.09186433 -0.109576054
0002a0 24 95 c1 bd da 00 a3 bc bd a6 39 3e 18 f4 86 3d
       -0.094522744 -0.019897867 0.18130012 0.06589526
0002b0 1a 69 d5 3b 70 62 c9 3d 95 ff 21 be ae bd 87 bd
       0.006512773 0.098332286 -0.15820153 -0.066279754
0002c0 8f 28 2f 3e 75 c7 24 3e 87 06 ba 3d a4 28 90 bb
       0.17105316 0.16091712 0.09083276 -0.004399376
0002d0 4c 5f ef 3d a1 c5 08 be 35 8e a2 3c 3f da be 3d
       0.11688098 -0.1335664 0.0198432 0.09318971
0002e0 d7 ed 8b 3d 99 cd 90 3d bc 0d 4c 3e ab 17 33 be
       0.06832474 0.07070465 0.19927114 -0.17489497
0002f0 d8 31 27 3e 43 d8 12 be 46 bb 1d 3e 80 51 88 bd
       0.16327608 -0.1434031 0.1540347 -0.0665617
000300 2e 0b 02 be 8b f8 59 3e 23 e3 39 bd 22 b2 7a bd
       -0.12699577 0.21286218 -0.04538263 -0.061205037
000310 7f a0 17 be 96 f7 ae bd 62 9c 19 3d 1b 93 0c 3e
       -0.14807318 -0.08543317 0.037502654 0.13727991
000320 f6 3f 97 3b 97 68 84 3d 70 d7 cd bd b5 d1 1b 3e
       0.004615779 0.064652614 -0.10050857 0.15216716
000330 d3 be 30 bd 16 a4 c5 bd da d3 09 3e 3e 57 dd 3c
       -0.043150734 -0.096504375 0.13459721 0.02701914
000340 32 81 a7 bb d5 c2 04 3e 53 5b ba bd b5 96 27 bc
       -0.005111837 0.12964948 -0.0909945 -0.010228802
000350 88 43 91 bd 25 76 80 3d b2 e5 3e 3e 43 80 28 3e
       -0.07092959 0.06272534 0.1864231 0.16455178
000360 d9 db a6 3d 8f e1 71 bd ba 11 35 3d 5b 4a 5d 3e
       0.08147401 -0.059053 0.04420636 0.21610396
000370 cc 45 f5 bd 1c ec 01 3e ab c7 18 3e 55 58 16 be
       -0.11976203 0.12687725 0.14919917 -0.14682133
000380 01 1e 22 3c 2d 97 8d bd 1c d5 54 3e bd 42 0b 3e
       0.009894849 -0.069136 0.2078442 0.13599677
000390 f2 05 0b 3d 76 28 93 3c c2 87 ae bd 13 36 b3 bd
       0.033941217 0.01796363 -0.085219875 -0.08750548
0003a0 15 0d 3c 3e 90 db 74 3e 2f 6d 5c be 69 47 f8 bd
       0.18364365 0.23911881 -0.21526025 -0.121229954
0003b0 08 17 88 3d 6b 73 6b bd 02 8c d8 bd dc df 00 3e
       0.06645018 -0.057483118 -0.10573579 0.12585396
0003c0 41 b8 40 be 2e ca 08 be 46 39 9c 3c 42 31 88 bc
       -0.18820287 -0.13358375 0.019070279 -0.01662505
0003d0 b4 97 83 bd af 4c 6f 3e 32 d4 41 3d 86 4c 18 bc
       -0.064254194 0.23369096 0.047321506 -0.009295588
0003e0 3f 50 4f bb 94 61 e6 bd 12 8b c3 bd f4 0e f4 bd
       -0.0031633524 -0.1124908 -0.0954801 -0.119169146
0003f0 13 62 e3 bd 63 0a a6 bd 9e 40 32 3e 54 c7 91 3d
       -0.111026905 -0.0810745 0.17407462 0.07118097

Pair_score_mlp.fc_layers.0.bias f4 [64]
000000 1f 9a 79 3d c5 1a 4c bd ed a6 0a be 77 21 c7 bd
       0.060937997 -0.049830217 -0.1354024 -0.0972318
000010 6a 28 21 3e cb b7 24 3e 5f 45 c4 bd c0 12 cb bd
       0.15738073 0.16085736 -0.09583544 -0.09915686
000020 f4 fb 84 bd e6 85 bc bd 2b 17 1f 3e 68 bf 39 3c
       -0.06493369 -0.092052266 0.15536182 0.011337139
000030 34 7e 25 3d b1 5a dc 3d 2e 62 82 bd 57 79 19 3d
       0.04040356 0.107594855 -0.063663825 0.037469234
000040 0f 28 3f 3e 7c 7e 8f bd 28 23 d5 3d b7 0d 8c 3d
       0.18667625 -0.07006547 0.10407096 0.068385534
000050 4c 1f a4 bd 87 76 09 bd ab 21 93 3d c1 26 37 bd
       -0.08013782 -0.033560302 0.07184156 -0.044714693
000060 53 0a ce 3d 0f 8e 2a bd 92 51 ab bb b3 87 d9 3d
       0.10060563 -0.041639384 -0.00522823 0.10621586
000070 f3 5f 21 3e 5a 87 1b bd 1a 86 a2 bd c9 be 1c 3e
       0.15759258 -0.03797088 -0.07935734 0.15307154
000080 9f 9a 9f 3d d1 93 1a be 57 51 33 3c 79 ff 6c 3e
       0.077931635 -0.1509545 0.010944686 0.2314433
000090 01 92 2d 3e 06 c4 14 3e 59 c0 b3 bd b0 86 24 bd
       0.16950227 0.14527902 -0.08776922 -0.04016751
0000a0 06 84 e4 bd 84 27 cb 3d cb 73 20 be 97 fb fb bd
       -0.11157994 0.099196464 -0.15669172 -0.12303846
0000b0 33 fa 07 3b 7f 27 01 3e 00 ed 25 bd c1 c7 c8 bd
       0.0020748496 0.12612723 -0.040509224 -0.09803725
0000c0 2a 59 5c bd 50 cc 8d bd 18 0a 2f 3d 4b b8 97 bd
       -0.05379597 -0.06923735 0.042734236 -0.07408198
0000d0 dc 63 44 bd b3 08 ec bd bb a3 7d bd e3 94 0f 3e
       -0.047946796 -0.11525097 -0.061923724 0.1402164
0000e0 86 aa d1 bc d5 77 e3 3d f4 fa f6 3d 57 36 ef 3d
       -0.025594007 0.111068405 0.12059584 0.116802864
0000f0 ca be 9b 3d aa c0 2a 3e ac ef d5 3d 44 48 92 bd
       0.076047495 0.16675058 0.104461044 -0.0714269

Pair_score_mlp.fc_layers.1.weight f4 [8, 64]
000000 8e 56 d9 3d 27 67 fa 3d ee a6 05 3e bd 1d 87 3d
       0.10612212 0.12226706 0.1305196 0.06597469
000010 dd c2 51 3e 96 88 19 3e ea 40 7d 3d 38 c8 da 3d
       0.2048449 0.1499351 0.061829485 0.1068272
000020 bd 63 0f 3e 2b ee 18 3e b1 a7 e3 bd b0 39 02 3d
       0.14002891 0.14934604 -0.11115969 0.031793296
000030 66 72 08 3d 98 ca 1d be 55 65 be bc fe ae 83 bb
       0.033312224 -0.15409315 -0.023241678 -0.0040186634
000040 52 ad fe 3d 40 38 0b 3c 7a f4 12 bd 50 8a 52 3d
       0.12435402 0.008497298 -0.035877682 0.051401436
000050 f4 71 06 3e 45 6b c3 bc 3f 0d cc 3d fc 65 82 3c
       0.13129407 -0.023854861 0.09963464 0.01591777
000060 36 c8 d5 3d e2 4b 15 3e 7b 39 23 3e 80 e5 5b 3d
       0.10438578 0.14579728 0.15939896 0.053685665
000070 11 39 37 bd d8 d6 1b bd d6 51 e4 3d a5 5b 41 3c
       -0.044732157 -0.038046688 0.111484215 0.011801635
000080 d0 bf cf 3c 8e 91 ea 3d fc 39 e6 3d 70 f4 82 ba
       0.025360018 0.114535436 0.112415284 -0.0009991061
000090 af 2e 3b 3e cb da 22 3d 20 a2 05 3d b1 f6 db 3d
       0.18279527 0.03975944 0.032625318 0.10740412
0000a0 b2 eb 36 bd de 57 23 3d 78 72 ba bc 86 72 a6 3d
       -0.04465837 0.03987872 -0.022759661 0.08127312
0000b0 ba b7 41 be 68 08 ca 3d 97 85 14 3e a0 5b dc 3d
       -0.18917742 0.098648846 0.14504085 0.107596636
0000c0 64 33 d8 bd 35 0d a8 3d b4 d5 c6 bd c3 8a ad 3d
       -0.10556677 0.08205644 -0.097087294 0.08473732
0000d0 50 f4 78 3e b0 d2 9d 3c 08 ed ad 3d b3 90 ac bd
       0.24311948 0.019265503 0.08492476 -0.08426037
0000e0 37 68 49 3d f4 04 b2 bd 7c 8c 71 bd 4a 95 d1 3d
       0.049171653 -0.08692351 -0.058971867 0.10233553
0000f0 24 fc 61 bb cd 12 9f 3d 3d bd 8c bd ba 00 33 3e
       -0.0034482563 0.07767258 -0.06872032 0.17480746
000100 6f 00 e0 bd f3 c7 dc 3d 7a c8 f3 bd 3b 9b 10 be
       -0.10937583 0.10780325 -0.11903472 -0.14121716
000110 73 c4 da bd 7b f7 65 bd 59 bc cf bc 12 a2 98 bd
       -0.10682001 -0.05614422 -0.025358366 -0.074527875
000120 d2 30 91 bd 26 74 ee 3c c1 d4 38 be f4 57 04 3c
       -0.0708939 0.029108118 -0.18049909 0.00807761
000130 86 47 39 be e6 96 3f 3e 15 86 3a be 80 4a 32 be
       -0.1809369 0.18709907 -0.1821521 -0.17411232
000140 60 9c 75 bb 47 a5 33 3d df 24 75 bd 1c e6 d4 3c
       -0.003747724 0.043858793 -0.059849616 0.025988631
000150 0f 52 08 be 2c 85 f0 bd 2e aa 53 bd ba b4 92 3d
       -0.13312553 -0.117441505 -0.051675968 0.07163377
000160 3d 6f b6 bd c8 ec dd bd 7d 0c f8 3d eb 4b ee bc
       -0.08907936 -0.10836178 0.12111757 -0.029088935
000170 b4 43 ca bd 23 3d b1 3d c8 0b e8 3d 11 cf 03 bc
       -0.098761946 0.08654239 0.11330372 -0.008044974
000180 77 7f 82 bd 78 f2 05 be 6e cc 6a 3d 8f 30 e7 3d
       -0.06371968 -0.13080776 0.057323866 0.11288559
000190 dd ac c6 bd 5e 4e 8f 3d e9 3a 46 3d 96 c3 5f 3d
       -0.0970094 0.06997369 0.048396025 0.054629885
0001a0 ed e6 c8 bd 91 81 21 bd d6 f8 98 bd 86 ae f2 bd
       -0.098096706 -0.039430205 -0.07469337 -0.11849694
0001b0 97 6a 45 3e ee 4b 06 3e 50 ea b3 bd c5 69 a6 bd
       0.19278942 0.13114902 -0.08784926 -0.08125643
0001c0 83 c9 1f 3d ae 64 f8 bd 1d 04 e5 3d a6 e0 e1 bd
       0.039010536 -0.12128578 0.11182425 -0.110291764
0001d0 88 91 f0 bb 11 32 19 be cc fd 11 be 42 21 59 3e
       -0.0073415674 -0.14960505 -0.14256972 0.21204093
0001e0 08 eb e4 3c 4e a1 da bd 55 26 2d bd 52 a5 82 bd
       0.027944103 -0.10675298 -0.042272884 -0.063791886
0001f0 30 41 24 3e 6c 05 ba 3d 5e 12 69 3d b2 47 62 3d
       0.16040492 0.090830654 0.056902282 0.055244155
000200 5f 1a b2 3d 6f e5 df 3d 56 41 65 3e bd ab 2a 3e
       0.08696436 0.10932433 0.22388205 0.16667075
000210 6e b4 1e 3d 1d a4 95 3d 85 81 45 3e 14 26 1f 3c
       0.03874629 0.07306693 0.19287689 0.009713668
000220 56 e7 3d 3e be 52 25 3d 58 9a ae 3d 27 d3 68 bc
       0.18545279 0.040362112 0.085255325 -0.014210499
000230 81 4e d8 bc 69 9e 61 be 8e 20 80 3d 6f 67 83 3d
       -0.026404621 -0.22033085 0.06256209 0.06416213
000240 da 89 82 3e 0c 66 19 3e 3e a9 02 3e e6 ec 0a 3d
       0.25495797 0.14980334 0.12759873 0.03391733
000250 d2 ce d5 3d 06 e6 3d bd e8 bb f1 3d e5 c8 8a 3d
       0.104398385 -0.046361946 0.118034184 0.06776599
000260 a0 ad 56 3d 55 9f 3e 3d 5b 3c ee 3d 2f 99 6e 3e
       0.052411675 0.04653867 0.11632606 0.23300622
000270 4c bb 10 bc f0 48 09 3e d7 78 87 3d 25 9c 4d 3e
       -0.008833718 0.1340673 0.06614845 0.20079096
000280 ea c3 ca 3d 7f 99 c0 3c ce 8b d9 3d 9a 37 f7 bc
       0.09900649 0.023510693 0.10622369 -0.03017788
000290 dd 67 33 3e b3 0a de 3b d9 04 13 be 1b f3 21 3e
       0.1752009 0.006776178 -0.14357318 0.15815394
0002a0 c6 6b 87 bd 97 c0 ca 3d 80 82 ea 3d 73 ff 21 3e
       -0.06612353 0.09900015 0.11450672 0.15820102
0002b0 d9 0b 9b bd 7a 66 0a 3e 64 7c c0 3d 12 ed 88 bc
       -0.07570619 0.13515654 0.09398726 -0.016714606
0002c0 35 5e 17 3e 04 b1 16 bd 31 2a 28 3e 31 a2 c1 bc
       0.14782031 -0.03678991 0.16422345 -0.02363691
0002d0 74 7c 95 3d fc e7 cb bd 7a 14 ac 3d 2e 95 26 bc
       0.07299128 -0.09956357 0.08402343 -0.010167403
0002e0 c1 df 11 bd 45 cb a1 3c b4 c1 c8 3d cc 99 5f 3e
       -0.03561378 0.019750247 0.09802571 0.21836013
0002f0 26 08 d7 3d 4c f4 1a 3c 45 aa c4 3d 5f 81 8b 3e
       0.10499601 0.009457659 0.09602789 0.2724714
000300 85 d9 2e bd c2 36 9d 3d ef 5b 82 3d ef cf 66 3b
       -0.04268791 0.0767646 0.06365191 0.0035219153
000310 8a 73 8b 3c 6d 0d d1 bd 0c 40 1e 3c 5a c0 8b 3c
       0.017022867 -0.10207639 0.009658825 0.017059494
000320 6d 2c 1f be 91 99 94 bb 12 4e 8e 3d c9 b8 0b 3d
       -0.15544291 -0.004534908 0.069484845 0.03411177
000330 26 42 c1 bc e9 7c c2 3d 13 95 ed bd 56 dc 15 be
       -0.023591112 0.09496481 -0.11600699 -0.14634833
000340 c5 37 54 bd 85 5b bf bd 4e 97 c0 3b 9a 53 5c bd
       -0.051811 -0.09343628 0.005877412 -0.053790666
000350 02 be 86 bd d5 d8 39 bc bc 2c 79 3d b8 2b af 3d
       -0.0657921 -0.011343201 0.060833678 0.085532606
000360 6e 8a 07 3e 24 6f 79 3a 93 82 0d bd d8 bc 02 3e
       0.132364 0.00095151574 -0.034548353 0.1276735
000370 33 22 68 bd 2e e9 7a 3d 92 25 86 3d dd 77 a3 bd
       -0.05667324 0.061257534 0.06550135 -0.079818465
000380 a5 61 41 bd 59 35 cb bd 83 64 ba bc 14 5f 49 bc
       -0.04721226 -0.09922285 -0.022753006 -0.012290735
000390 9f c7 1d 3e 22 b8 31 be b8 ee 55 3a 4f 86 b3 3c
       0.1540818 -0.17355397 0.0008160877 0.02191463
0003a0 f7 18 3c 3b 5d 40 95 3d b9 6d b3 bd 2d a6 37 3d
       0.0028701404 0.07287667 -0.08761162 0.044836212
0003b0 6c 00 fe bc 27 bf e4 bd 7a b1 04 be b3 0d 94 bd
       -0.03100606 -0.11169272 -0.12958327 -0.072291754
0003c0 00 4b d0 3d 7f 95 14 be fe 1c 0d bc 11 f1 bf bd
       0.10170555 -0.14510153 -0.008612869 -0.09372152
0003d0 14 b5 53 3d 70 5a e4 bd 9d c2 15 3b be 4c 16 3e
       0.05168636 -0.11150062 0.0022851594 0.14677712
0003e0 ea 2a cc bd 29 3e d3 3c 5c 9b da 3d b6 43 b7 3d
       -0.09969123 0.025786476 0.10674164 0.08948462
0003f0 41 06 56 bd 8f 08 e3 bd 07 8e 3c 3d 38 9c 95 3c
       -0.052252058 -0.11085617 0.046033885 0.018262967

Pair_score_mlp.fc_layers.1.bias f4 [8]
000000 8f 70 3d bb a1 72 d7 3d 7a 12 b6 bd 55 53 8c 3d
       -0.0028906201 0.105199106 -0.08890243 0.06851832
000010 de c3 0a 3e 9f 6b ef 3d 85 43 78 bd fa ea 82 bd
       0.1355128 0.11690449 -0.060611267 -0.063924745

CNN_embedding_types.weight f4 [106, 16]
000000 53 31 14 3e f5 92 46 bf f1 cf fc be b2 de 73 3f
       0.1447194 -0.7756799 -0.49377397 0.9526168
000010 39 9b d0 be 02 8c 5a bc eb 74 e2 3f 05 a0 39 c0
       -0.40743425 -0.0133390445 1.769193 -2.9003918
000020 15 51 fc 3d 6c a1 5d bf e7 f5 08 bf 9c da 89 3f
       0.12320153 -0.86574435 -0.5350022 1.0769839
000030 ef 8e f8 3e ba 84 ca 3e 1c 5e 3c 3f 04 11 44 bf
       0.4854655 0.39554387 0.735811 -0.76588464
000040 46 1c 08 bd 67 94 f6 bf 6a 36 2a 3f 97 0b 3b bf
       -0.03323009 -1.9264039 0.6648928 -0.7306456
000050 46 69 ea 3e 44 19 27 bf 18 2d d4 3e 60 a8 81 be
       0.45783442 -0.6527293 0.41440654 -0.25323772
000060 ea 84 1e bd 1c 8b 67 bf 2f 79 ad bf dd b3 f2 3e
       -0.038700975 -0.9044664 -1.3552607 0.4740285
000070 ea d8 82 3f 99 83 da 3e dc 08 b9 be 0c 0d 02 be
       1.0222447 0.42678526 -0.36139572 -0.1270029
000080 64 bd 0e bf 45 8d d5 3f 49 d9 1f 3f 1e 70 bd be
       -0.5575774 1.6683737 0.62440926 -0.369996
000090 95 56 9e bc 5b 48 8b 3f 57 4e e1 3e a3 90 84 bf
       -0.019328395 1.0881456 0.4400508 -1.035664
0000a0 26 13 07 40 29 77 c6 bf 23 e7 88 bf c1 0f 16 3f
       2.1105437 -1.5505115 -1.0695537 0.5861779
0000b0 c4 8f 8b bd bd a1 e1 3d 88 13 02 bf 4a 34 a2 3f
       -0.068145305 0.11017177 -0.5081105 1.2672207
0000c0 95 3a 9b be 5d 25 1b bf 7e 64 9f be bc a0 8f 3d
       -0.30318132 -0.60603887 -0.31131357 0.070130795
0000d0 52 fe e7 be f4 d9 05 40 6f a9 9c bd a3 61 9f 3f
       -0.45311219 2.0914278 -0.076495044 1.2451671
0000e0 e5 8e ae bf 9f ee 44 bf da 21 aa 3e ae 21 92 3f
       -1.3637358 -0.76926607 0.33228952 1.1416528
0000f0 d6 b5 c3 3d ec 68 08 c0 e1 59 0c 3f 83 a2 6f 3f
       0.09556167 -2.131404 0.54824644 0.9360735
000100 a4 3f f4 3f 90 27 76 3f 19 9f 0d 3f 04 97 71 3f
       1.9081922 0.9615412 0.5532089 0.94371057
000110 0b d5 ae 3e f5 fe 13 bd 4d bb bf 3f 62 f2 46 bf
       0.34146914 -0.036131818 1.4979035 -0.77713597
000120 84 d1 48 3f 52 7e 3a bd 1d cc 26 be 7c 58 ab 3f
       0.78444695 -0.045530625 -0.162888 1.3386378
000130 21 b6 26 be cb 93 83 be c7 17 56 3d 93 f6 c7 be
       -0.16280414 -0.25698695 0.05226877 -0.3905531
000140 3b e2 6b 3e 18 9b 88 3e 4b 90 8c 3f 9d 96 9f bf
       0.23035519 0.26680827 1.0981535 -1.2467839
000150 9b 92 75 bf 5a 47 e7 bf 61 7b 3a 3c c8 e0 e1 bd
       -0.9592683 -1.806865 0.011381955 -0.11029202
000160 6f bd a0 bf 8c 85 22 3f 58 4d 9e 3e cd a2 36 40
       -1.255781 0.63485026 0.30918384 2.8536866
000170 44 72 9b bf 62 13 5b be 26 df 06 bf f1 fb 32 3e
       -1.2144246 -0.21394113 -0.5268425 0.1747892
000180 84 b8 04 3f 58 d5 c1 be ef db 66 be aa 67 c8 bf
       0.5184405 -0.3785808 -0.22544836 -1.5656636
000190 e5 71 f4 3e ac e3 87 bf 19 cc e3 3f 75 78 0c bf
       0.47743145 -1.0616355 1.7796661 -0.548713
0001a0 fe 86 ad 3e 68 37 47 3f 4e 46 f7 3b 63 71 15 bf
       0.33892053 0.7781892 0.007546223 -0.5837614
0001b0 74 51 6a bf 67 8b 57 bd 7a cf e4 3f 83 64 93 3f
       -0.9153054 -0.05262318 1.7875817 1.1515049
0001c0 f1 23 c7 3d 39 4b cc 3f bf a9 1a bf a8 74 b4 3f
       0.09723652 1.5960456 -0.6041526 1.4098101
0001d0 73 c5 f1 3d d3 3a 34 3f c7 95 09 bf 44 76 3c bf
       0.118052386 0.7040226 -0.5374417 -0.7361796
0001e0 17 0f 0c 3f 1d d8 f3 3f e3 e4 cf 3d e4 ea e6 3e
       0.54710525 1.9050328 0.101510786 0.45101082
0001f0 d9 01 cd 3e fa aa 7f bf cd 37 1b 3e da 77 21 bf
       0.40040472 -0.99870265 0.15158005 -0.63073504
000200 c8 88 36 40 03 4c f3 bd d2 10 c5 3e e5 eb 79 3f
       2.8520985 -0.118797325 0.38489395 0.9762557
000210 aa 02 ac bf f8 8a 55 bf bd 59 06 be ec 76 c2 bd
       -1.3438313 -0.83415174 -0.1312017 -0.09495339
000220 7d 43 38 be 3e 5a 8e bf ed 8a ea 3e ad ad 5f be
       -0.17994495 -1.112129 0.45809117 -0.21843596
000230 86 57 0e 3f 09 d7 df bd b1 b5 ff 3f d2 92 03 3e
       0.556023 -0.109296866 1.9977323 0.12848976
000240 f2 00 e0 3c 2a e4 1a 3e 16 48 54 bf 40 95 01 40
       0.0273442 0.151261 -0.82922494 2.0247345
000250 c2 86 79 3e 2a 23 9a 3d 2d 50 90 be b9 bb 9b 3d
       0.24367812 0.07526238 -0.2818617 0.07604165
000260 a6 73 d0 3e 61 8f 81 be 06 de cf 3e 49 80 45 3f
       0.40713233 -0.25304702 0.40599078 0.7714887
000270 ed e5 6c be 06 a6 8d bf 0a 10 94 3d f0 fc 5d bf
       -0.23134585 -1.1066291 0.07229622 -0.86714077
000280 87 c5 96 bf 34 da 0a 3f 45 92 4d be c9 95 18 bf
       -1.177903 0.542392 -0.20075329 -0.59603554
000290 f4 d2 eb 3e 36 ec 9d 3f 50 51 9e 3e fe 11 1b 3f
       0.46059382 1.2337711 0.30921412 0.6057433
0002a0 76 73 19 3f 20 07 9c be 7f 51 9d be 89 34 d2 3f
       0.59941804 -0.30474186 -0.3072624 1.6422282
0002b0 e1 8a 85 3f 04 e6 bd bf c4 b4 24 3f d2 ef e5 3f
       1.0433007 -1.483582 0.64338326 1.7963812
0002c0 8e 29 b3 3c 84 66 f3 bf 09 6c e5 bd be d3 ba 3e
       0.0218704 -1.901566 -0.11202247 0.3648967
0002d0 38 ff a6 bf 27 3a ca bc 1a 1c a7 bf f2 b2 68 be
       -1.3046637 -0.024685932 -1.3055451 -0.22724512
0002e0 3b c6 d9 bd 95 03 8c bf ec 47 92 be 3d 39 db 3f
       -0.106335126 -1.0938593 -0.28570497 1.7126843
0002f0 e4 bf a2 3f 83 c5 81 3f 2c 8a 3d bf 79 2a 84 3e
       1.271481 1.0138401 -0.7403896 0.25813654
000300 d0 92 67 bf 18 9f 13 40 e9 71 4b bf a3 e3 df 3f
       -0.90458393 2.3065853 -0.7947069 1.7491344
000310 ba 7c a6 bd 84 7c 3c be 6d 35 97 bf 6d 48 dd 3e
       -0.081292585 -0.18406874 -1.1813179 0.4321932
000320 e2 9a a3 3f 78 49 45 bf 58 81 dc 3f 3e 3e 62 be
       1.2781641 -0.7706523 1.7226973 -0.22094056
000330 f8 5f 5c 3f fe b0 e8 3f 5f 08 2f 3f 6e 50 85 be
       0.86083937 1.8179014 0.6837215 -0.26037925
000340 a8 f6 f4 3f ef 81 92 3f d3 48 b1 3f 18 62 93 bf
       1.9137774 1.1445903 1.3850349 -1.1514311
000350 23 71 02 3e 7b 3f 5d 3f 13 29 58 3f 46 88 cc bf
       0.1273847 0.8642499 0.84437674 -1.5979087
000360 6a a3 74 3f b9 68 b2 bf 9c 87 7e 3d 88 d4 82 bf
       0.9556185 -1.3938209 0.062141046 -1.0221109
000370 52 1b 0c bf bd 52 8c 3f 7e 9b fd 3d 90 07 cc 3e
       -0.5472919 1.096275 0.123831734 0.3984952
000380 6c 5c a8 3c a3 8a 89 bf 88 e1 88 3d e4 d6 2f 40
       0.020551883 -1.0745434 0.06683642 2.747491
000390 27 b3 56 40 46 1a db 3f 7d af ab bf bc 3b 4a be
       3.3546846 1.7117393 -1.341293 -0.1974935
0003a0 99 37 7a bf 3e 2d 48 3d c2 f5 59 bf b8 c3 19 bf
       -0.97741085 0.04887127 -0.8514062 -0.6006427
0003b0 6d 29 6c bf f2 b1 11 3e 76 b1 fe be 44 0f a5 be
       -0.9225071 0.14228037 -0.49744767 -0.3223821
0003c0 3f 9f ee bf db c8 db 3e b0 58 1d 3f ba 6d 3b 3e
       -1.8642348 0.42926678 0.6146345 0.18303576
0003d0 99 c3 ca 3d ec 41 0b bf 52 10 44 3f b6 ce b0 bf
       0.099005885 -0.54397464 0.765874 -1.3813083
0003e0 c5 48 85 3e ce ad 29 3f ae 5e 3a 3f 30 f0 15 3f
       0.2603208 0.6628083 0.7280072 0.5856962
0003f0 d4 02 74 3e 5b cb a9 3c 17 00 4f bf 50 8c 5b 3f
       0.23829204 0.02072685 -0.8085951 0.85760975

embedding_CNN_distances.weight f4 [7, 8]
000000 d7 2b 85 3f 9e 21 93 bf 5f 35 47 3e 70 f4 b8 3e
       1.0404004 -1.1494634 0.19453953 0.3612399
000010 f6 47 70 3f e4 7f 07 bf ff 0b 3c 3f ea 53 9e 3f
       0.93859804 -0.5292952 0.73455805 1.2369359
000020 84 6e 37 bf 02 1b 37 3f ba 5e 37 c0 6e 64 6e be
       -0.7165301 0.71525586 -2.8651567 -0.23280498
000030 7c 0d 81 bf ac 67 0d c0 58 a0 82 bf 05 3f 7f 3d
       -1.008224 -2.2094526 -1.0205183 0.06231596
000040 53 05 84 3e 3b 50 95 bf b9 17 02 3d dd dc c3 be
       0.25785312 -1.1665109 0.031760905 -0.38254443
000050 b6 89 9d 3f 76 27 63 3f c1 51 f5 3f 5b af cf 3e
       1.2307651 0.8873209 1.9165574 0.40563473
000060 2d 05 f3 bd 3e 86 be 3e 34 1e 0b 3f d5 30 e0 bf
       -0.118662216 0.37211794 0.5434296 -1.7514902
000070 69 0d 70 3f cb e1 45 bf 7d 12 d6 3e 02 61 01 bf
       0.9377046 -0.7729766 0.4181098 -0.5053865
000080 13 b6 8c bf 37 e8 30 be 11 f3 1e 3f 31 47 c6 3f
       -1.0993065 -0.17276083 0.6208964 1.5490476
000090 81 fd 0a 3e 59 6b 37 bf 13 47 6b 3e 3d 07 bb 3e
       0.13573267 -0.71648175 0.22976331 0.3652896
0000a0 30 6c bd 3d 34 eb d2 be e7 6c 51 be 29 48 ab 3f
       0.09249151 -0.4119507 -0.20451699 1.3381397
0000b0 75 8c bb 3e a6 c5 69 bf 36 1b 36 bf f2 c8 89 3f
       0.36630598 -0.9131721 -0.7113527 1.0764449
0000c0 00 00 00 00 00 00 00 00 00 00 00 00 00 00 00 00
       0.0 0.0 0.0 0.0
0000d0 00 00 00 00 00 00 00 00 00 00 00 00 00 00 00 00
       0.0 0.0 0.0 0.0

embedding_CNN_prices.weight f4 [6, 5]
000000 e1 cb f2 3f e2 2d b1 3f 5c e2 a2 bf 56 f8 dc bf
       1.8968469 1.3842127 -1.2725329 -1.7263286
000010 9e f2 80 bf 78 ea e3 be d1 78 8e 3f 06 e0 f8 3f
       -1.0074041 -0.44514823 1.113062 1.9443367
000020 98 02 b2 3e b6 77 7c be 83 63 0b 40 83 10 0f bf
       0.34767604 -0.24655041 2.1779487 -0.5588457
000030 76 8a cd bf 71 3e 34 bf fc ea 93 bf 40 76 99 bf
       -1.605788 -0.7040778 -1.1556087 -1.1989212
000040 34 bb eb 3f 78 7d a5 be fa 2a b5 bf b1 22 57 bf
       1.8416505 -0.32322288 -1.415374 -0.8403731
000050 3d fa 1d bf d0 63 a1 3e ae c8 1d 3d bc 0d 47 bf
       -0.6170996 0.31521463 0.03852146 -0.7775533
000060 8d 46 6d 3f 00 00 00 00 00 00 00 00 00 00 00 00
       0.92685777 0.0 0.0 0.0
000070 00 00 00 00 00 00 00 00
       0.0 0.0
