checkpoints/GNNNoCNN_Epoch9_valmse2.1267_testmse2.3317_ndcg0.9357.model (torch, 249600 bytes, 52 tensors)

Pair_embedding_types.weight f4 [106, 16]
0	0x3d35cb5c	0.04438339
1	0xbd9c82f6	-0.07642166
2	0xbed0bbc3	-0.4076825
3	0xbf5f9422	-0.8733541
4	0x3f58a317	0.84623855
5	0xbec5f0ad	-0.38660184
6	0x3dff26ac	0.12458548
7	0xbfa340bc	-1.275413
8	0x3dce4cab	0.10073217
9	0xbcc9f7fb	-0.02465438
10	0xbf9fc0dd	-1.2480732
11	0x3f0e13a4	0.5549872
12	0xbfca1b15	-1.5789515
13	0x3eb7a8f2	0.35871083
14	0x3e80065f	0.2500486
15	0x3f3639d6	0.71182
16	0x3ee99296	0.4561965
17	0xbf95d067	-1.1704224
18	0x3ff726d0	1.930872
19	0xbed99d48	-0.4250281
20	0xbe80ec10	-0.251801
21	0x3e436cb2	0.19084433
22	0xbf2095b3	-0.6272842
23	0x3f2999f2	0.66250527
24	0xbf86a2f9	-1.0518485
25	0x3d315e53	0.043302845
26	0xbf03887c	-0.51380134
27	0x40537c55	3.3044636
28	0xbf4e6888	-0.8062825
29	0xbf097b73	-0.53703994
30	0xbf8e8b57	-1.1136273
31	0x3f8110b8	1.0083227
32	0x3fdd193f	1.727333
33	0x40107145	2.2569134
34	0xbf866e85	-1.0502478
35	0x3e0f9b86	0.14024171
36	0x3f65e186	0.89797246
37	0xbfa0415b	-1.2519945
38	0xbf8fea52	-1.1243384
39	0x3d4efa3a	0.050531603
40	0x3f2c027e	0.671913
41	0x3e0f7bcd	0.1401207
42	0x3f851c16	1.0399196
43	0x3dea6b2f	0.11446225
44	0xbf6d6b0b	-0.9274146
45	0x3dcddc54	0.1005179
46	0x3f961e08	1.1727915
47	0xbdc066e1	-0.093946226
48	0xbf275fb4	-0.65380406
49	0x3f96c6a0	1.1779366
50	0xbecbc9f7	-0.39802524
51	0xbf9704cb	-1.1798338
52	0xbfd7aefe	-1.6850278
53	0x3f5d26d5	0.8638738
54	0xbffe139f	-1.9849738
55	0x3ccc7944	0.024960168
56	0x3c704fd8	0.014667474
57	0x3f8574de	1.042629
58	0xbfaaa32a	-1.3331044
59	0x3fa4a852	1.2863867
60	0x3c2324eb	0.009957532
61	0x3f732772	0.94982064
62	0x3fa15a6e	1.2605722
63	0x3d26a737	0.040686812
64	0xbdd0cb31	-0.10195006
65	0x3e5e6052	0.21716431
66	0x3f5732d4	0.8406193
67	0xbfcfa5f2	-1.6222517
68	0x400a7e91	2.163975
69	0xbf875246	-1.0571983
70	0x3e7b2c48	0.2452861
71	0xbfaf5250	-1.3696995
72	0xbe90ce29	-0.28282288
73	0x3e0e18eb	0.13876693
74	0x3e45b80e	0.19308493
75	0x3f74a4c5	0.9556392
76	0x3ed2a658	0.41142535
77	0xbe459e61	-0.19298698
78	0x3e85f7c5	0.26165596
79	0x3e2e54f8	0.170246
80	0xbebcd82f	-0.36883685
81	0x3ddfdcc1	0.10930777
82	0x3e85c191	0.26124242
83	0x3f89be3f	1.0761184
84	0xbe90313a	-0.28162557
85	0xbf8ff585	-1.1246802
86	0xbe0f11b8	-0.13971603
87	0xbeda1958	-0.4259746
88	0x3f329332	0.6975585
89	0x3fc17026	1.511235
90	0xbf2e619c	-0.6811769
91	0xbf5a81b2	-0.8535415
92	0xbf4d3e28	-0.8017297
93	0x3f1a87b7	0.60363334
94	0x3f6c6b3f	0.92351145
95	0x3fba5ec0	1.4560165
96	0xbfb09bcc	-1.3797545
97	0x3e8918ec	0.26776826
98	0x3fe7b09d	1.8100773
99	0x3e10bc06	0.14134225
100	0x3f3c1990	0.73476505
101	0x3e679441	0.22615148
102	0xbf5d3471	-0.86408144
103	0x400c7841	2.1948397
104	0xbf8e84f2	-1.1134322
105	0x3f9a079f	1.2033576
106	0x3e73e104	0.23816305
107	0xbf7dcd12	-0.9914104
108	0xbeede392	-0.46462685
109	0x3e708811	0.23489405
110	0xbef7e56c	-0.48417222
111	0xbce8bc20	-0.028410017
112	0x3f398755	0.72472125
113	0x3fc660ca	1.5498288
114	0x3e85bd13	0.26120815
115	0xbebc4142	-0.36768538
116	0xbf23bec9	-0.6396299
117	0x3e4a5835	0.19760211
118	0xbe9c17ff	-0.30487058
119	0xbe29a778	-0.1656779
120	0x3f8de8c8	1.1086664
121	0xc0256a29	-2.5846045
122	0x3e833229	0.25624207
123	0xbe8faa72	-0.28059727
124	0xbe2e98b8	-0.17050445
125	0xbfc0481e	-1.5022008
126	0xbde07084	-0.10958961
127	0x3d92ce7b	0.07168289
128	0x3e85e7fa	0.26153547
129	0x3fc44144	1.5332417
130	0x3ec1bc51	0.37838987
131	0x3f80aaad	1.0052086
132	0xbe3075d3	-0.17232446
133	0x3f8f74bd	1.1207501
134	0xbfa60973	-1.2971634
135	0x3f1a22c8	0.6020932
136	0x3e59c8ae	0.2126796
137	0xbf801d92	-1.0009024
138	0x3fbbdf0b	1.4677442
139	0xbf0c9489	-0.54914147
140	0xbcb5fe7c	-0.022216074
141	0x3fa2e865	1.2727171
142	0xbd2a6913	-0.041604113
143	0x3ead9edc	0.33910263
144	0x3f717cdc	0.94331145
145	0x3d45bb3c	0.048274264
146	0x3ee00c19	0.4375923
147	0xbf740f1c	-0.95335555
148	0xbed532d7	-0.4164035
149	0x3f6988b9	0.9122425
150	0x3ebedb24	0.37276566
151	0xbf144d00	-0.5792999
152	0x3f18da61	0.5970822
153	0xbd5d9952	-0.054101296
154	0x400f4dd8	2.2391262
155	0x3fb1c1bc	1.3887248
156	0x3fba7db7	1.4569615
157	0x3e05d7ae	0.13070557
158	0x3ec63c01	0.38717654
159	0xbe92cfbf	-0.28674123
160	0xbd9cdc84	-0.076592475
161	0xbe09bcec	-0.13450974
162	0x3e06ec2c	0.1317603
163	0x3e961cfd	0.2931899
164	0xbf8a9219	-1.0825835
165	0xbf44e8a8	-0.76917505
166	0x3f978397	1.1837033
167	0x3f88190e	1.0632646
168	0xbfb5eb2b	-1.4212393
169	0x3f34f326	0.70683515
170	0xbe701d4c	-0.23448676
171	0x3fa8b361	1.3179742
172	0x3fb18794	1.38695
173	0x3d89b225	0.067234315
174	0x3e9d19ba	0.3068369
175	0x3ede7095	0.43445268
176	0xbf9f1023	-1.24268
177	0xbf1dc08e	-0.6162194
178	0xbe25bb6a	-0.16184774
179	0x3f73b483	0.95197314
180	0xbe5b778a	-0.2143232
181	0xbf9cfa52	-1.2263892
182	0x3f4e68bf	0.8062858
183	0x3f244716	0.6417097
184	0x3ea50e1f	0.32237336
185	0x3f4ab875	0.7918771
186	0x3fffb707	1.997773
187	0x3e5762c1	0.21033765
188	0x3d78f69d	0.060782064
189	0x3fb20a65	1.3909422
190	0xbe983c23	-0.2973338
191	0x3e65ef7c	0.22454637
192	0x3ed4c380	0.41555405
193	0xbfc478bb	-1.5349344
194	0x3dfa9240	0.12234926
195	0xbe973ce2	-0.29538637
196	0x3fdc7ce8	1.7225618
197	0xbf795043	-0.97388095
198	0x3f0bc5d1	0.5459872
199	0x3fc20741	1.5158464
200	0xbe1b8402	-0.15187076
201	0xbfb90939	-1.445594
202	0xbf368f9b	-0.71312875
203	0x3f197c71	0.5995551
204	0x3f65afc9	0.8972135
205	0x3e44fcf9	0.19237126
206	0x3e09bf5d	0.13451906
207	0x3eb3af2b	0.3509458
208	0xbf5064d6	-0.81403863
209	0x3fd49065	1.6606566
210	0xbea20e5b	-0.31651577
211	0x400a32ac	2.1593428
212	0x3fa2975f	1.2702445
213	0x3ec8a6eb	0.39189848
214	0xbfaad932	-1.3347533
215	0x3e9c5b53	0.30538425
216	0xbec08cb4	-0.37607348
217	0x3e9115b8	0.28336883
218	0xbf28864d	-0.65829927
219	0x3f105bca	0.5639006
220	0xbfa74204	-1.3067021
221	0x4053dc3d	3.3103173
222	0x400541e1	2.082146
223	0xc005b7aa	-2.089335
224	0xbf6380e9	-0.88868576
225	0xbc08bf33	-0.008346367
226	0xc01587cd	-2.3364136
227	0x3fad9502	1.3561099
228	0xbf8770b6	-1.0581272
229	0xbeb79fc2	-0.35864073
230	0x3ece773d	0.40325347
231	0xbf77f5f7	-0.9685969
232	0xbee0f07d	-0.43933478
233	0xbf24ea47	-0.6441998
234	0xbf428ab1	-0.75992876
235	0x3ebfee64	0.37486565
236	0xbfb47591	-1.4098378
237	0xbf6eeada	-0.93327105
238	0xbec78756	-0.3897044
239	0xbfc37218	-1.5269194
240	0xbf8f9b62	-1.1219294
241	0x3eceb5db	0.4037312
242	0xbfc4ff1d	-1.5390354
243	0x3d823b70	0.06358993
244	0x3eb4c559	0.35306814
245	0x3fb910ff	1.4458312
246	0x3f674311	0.9033671
247	0xbfafb60d	-1.3727432
248	0x3f75a001	0.9594727
249	0xbf879865	-1.0593382
250	0xbe815ec3	-0.2526761
251	0xbea577b6	-0.32317895
252	0x3fd4d405	1.6627203
253	0xbed5dfeb	-0.41772398
254	0xbffadfb7	-1.9599522
255	0x3dccf743	0.10008099

embedding_Pair_distances.weight f4 [7, 8]
0	0x3f01530f	0.5051736
1	0xbf538008	-0.82617235
2	0x3f6f7408	0.93536425
3	0x4039959d	2.8997567
4	0x3f2c97d1	0.67419153
5	0x3fb0b418	1.380496
6	0xbead2530	-0.33817434
7	0x3e95f201	0.29286197
8	0x40002817	2.002447
9	0x400eba37	2.2301157
10	0x3f531979	0.82460743
11	0xbdc7de75	-0.09759227
12	0x3fbe3751	1.4860631
13	0xbf79a2f0	-0.9751425
14	0x3fcb87aa	1.5900776
15	0x4022fab2	2.5465512
16	0xbf3b41e6	-0.7314743
17	0xbf6aedc7	-0.9176907
18	0xbf724fb6	-0.9465288
19	0xbd093e68	-0.03350678
20	0xbfb5981c	-1.4187045
21	0xbf025215	-0.509065
22	0x3e053f52	0.13012436
23	0xbfc7782e	-1.5583551
24	0xbedc39dc	-0.43012893
25	0x3ed23980	0.41059494
26	0xbff2ddc3	-1.8973926
27	0xbe667c58	-0.22508371
28	0xc0054937	-2.0825937
29	0xbff070bb	-1.8784403
30	0xbf76d2a2	-0.9641515
31	0xbf00bf98	-0.5029235
32	0x3f856e64	1.0424314
33	0x3f979ba3	1.1844372
34	0xbec30c32	-0.38095242
35	0xbffeb92e	-1.9900262
36	0xbfa62e51	-1.2982885
37	0xbe376dbe	-0.17912957
38	0xbf2fafad	-0.68627435
39	0xbf8d2bad	-1.1028954
40	0xbd1be85a	-0.038063385
41	0x3ecf60a6	0.40503424
42	0xbf094f1a	-0.53636324
43	0x3e3e6517	0.1859325
44	0xbfb5e1f9	-1.4209586
45	0xbf3b9852	-0.732793
46	0xbfd49e16	-1.6610744
47	0xbf08bf0c	-0.53416514
48	0x00000000	0.0
49	0x00000000	0.0
50	0x00000000	0.0
51	0x00000000	0.0
52	0x00000000	0.0
53	0x00000000	0.0
54	0x00000000	0.0
55	0x00000000	0.0

embedding_Pair_prices.weight f4 [6, 5]
0	0x3d2ab4bf	0.04167628
1	0x3ecae5cf	0.39628455
2	0x3eb0d8f0	0.3454051
3	0xbe28d9fb	-0.16489403
4	0x3f96bbcc	1.1776061
5	0x3f66b7b1	0.9012404
6	0x3db80bec	0.08986649
7	0x3f6e2fcd	0.9304169
8	0x3f35e23d	0.7104834
9	0x3f5ccc26	0.86249006
10	0xbe1ee221	-0.15515949
11	0xbf1fc924	-0.6241629
12	0xbf24e6e4	-0.6441481
13	0x400bc285	2.1837475
14	0xbf43348e	-0.7625207
15	0xbf9a231c	-1.2041965
16	0xc0006922	-2.0064168
17	0xbef0b34e	-0.470118
18	0x3e14825e	0.14502856
19	0x3fff73ba	1.9957192
20	0x3a866ed3	0.0010256417
21	0xbfb651e9	-1.4243747
22	0xbd823b90	-0.06359017
23	0x3f7697cf	0.9632539
24	0xbdad46b5	-0.08460752
25	0x00000000	0.0
26	0x00000000	0.0
27	0x00000000	0.0
28	0x00000000	0.0
29	0x00000000	0.0

Pair_shop_mlp.fc_layers.0.weight f4 [64, 32]
0	0x3d43fde1	0.04784954
1	0xbccc9ce5	-0.024977157
2	0x3e1ed11c	0.15509456
3	0x3e381ac9	0.17978968
4	0xbe479861	-0.19491722
5	0x3d273b61	0.040828113
6	0x3d5061b6	0.050874434
7	0xbdfe2125	-0.124086656
8	0x3d8ebc7a	0.06969543
9	0x3e0d6695	0.13808663
10	0xbe204bd8	-0.15653932
11	0x3c838123	0.016052788
12	0xbe1643b7	-0.14674269
13	0xbe451a8f	-0.19248413
14	0x3d9c0f32	0.07620086
15	0x3d701994	0.058618143
16	0x3dd1105f	0.10208201
17	0x3c296fe0	0.0103416145
18	0xbc847ca5	-0.016172716
19	0x3d88eb79	0.06685538
20	0x3bbe009f	0.005798414
21	0x3db86131	0.09002913
22	0x3c1a1b61	0.009405942
23	0x3e73c1f9	0.23804463
24	0xbe067d92	-0.13133839
25	0x3ccd964a	0.025096077
26	0x3cd8e028	0.026474074
27	0x3d577222	0.05259908
28	0x3dd1c00a	0.10241707
29	0x3d5076c3	0.05089451
30	0xbdb80608	-0.08985525
31	0xbe2f10ef	-0.17096303
32	0xbe3a1da4	-0.1817537
33	0x3dee6275	0.11639873
34	0xbda0b6bf	-0.07847356
35	0x3e068338	0.13135993
36	0x3da7364b	0.081646524
37	0x3e3d4b6a	0.184858
38	0x3e850957	0.25983688
39	0xbdf1a1de	-0.11798452
40	0xbe19c0d4	-0.15014964
41	0xbd6cc104	-0.05780126
42	0xbdd0f77e	-0.102034554
43	0x3c315377	0.010823122
44	0xbd353f34	-0.04424973
45	0xbd5b5da6	-0.053556107
46	0x3cfcf1b0	0.030876964
47	0x3e5be0b7	0.2147244
48	0x3d673291	0.05644471
49	0xbe1d4a72	-0.1536043
50	0x3d193802	0.03740693
51	0x3e45a1f5	0.19300063
52	0x3dbf8e1b	0.09353276
53	0xbdb7ba53	-0.089710854
54	0x3cde58f8	0.027142033
55	0x3e02c057	0.12768684
56	0xbde0aa9c	-0.10970041
57	0x3da003a8	0.078131974
58	0xbcc650fc	-0.024208538
59	0xbe384866	-0.17996368
60	0x3e17c073	0.14819507
61	0xbd9f8022	-0.07788111
62	0x3e4419ab	0.19150417
63	0x3d6f6bac	0.058452293
64	0x3d44edcf	0.048078354
65	0x3d7bf332	0.061511226
66	0xbd14300d	-0.036178637
67	0xbd845f0e	-0.06463443
68	0x3df9a301	0.12189294
69	0x3ddcd421	0.10782648
70	0x3d7bc582	0.061467655
71	0x3dc2a75c	0.095045775
72	0x3e385770	0.18002105
73	0xbe182a54	-0.14859897
74	0xbdea5198	-0.11441344
75	0x3e03006b	0.12793128
76	0xbdb999a9	-0.090625115
77	0xbdfe6fc3	-0.124236606
78	0xbcfc3b60	-0.030790031
79	0x3e02a588	0.12758458
80	0xbe473830	-0.19455028
81	0xbe273043	-0.16327004
82	0x3de493e3	0.1116102
83	0x3e0f3e6e	0.13988659
84	0xbe0b04db	-0.13576071
85	0x3db91150	0.09036505
86	0x3cc303e8	0.023805574
87	0xbd41cd9e	-0.047315232
88	0xbdb4ae76	-0.08822338
89	0x3dde7350	0.10861838
90	0x3e0d5ad6	0.13804182
91	0xbe07ff56	-0.13280997
92	0x3e0e15e4	0.13875538
93	0xbdc39a0c	-0.095508665
94	0x3dc6c4f3	0.09705534
95	0x3d85de2c	0.065365165
96	0xbd62259e	-0.055211656
97	0xbdc34d48	-0.095362246
98	0xbbf4487f	-0.0074549313
99	0xbce84b84	-0.028356321
100	0x3d80dce5	0.06292132
101	0x3dfdf56e	0.124003276
102	0x3e04e66e	0.12978527
103	0x3d3d826d	0.04626696
104	0xbd4e3a14	-0.050348356
105	0x3e0a8c72	0.13530138
106	0xbddc8c57	-0.10768955
107	0x3dac848b	0.08423718
108	0x3dff6382	0.124701515
109	0x3db9a516	0.09064691
110	0xbe1e9df6	-0.15489945
111	0x3e04283f	0.12905978
112	0xbdc4c0a3	-0.09607055
113	0x3dbb8097	0.09155386
114	0xbe37aa65	-0.17936094
115	0xbcfa1489	-0.03052737
116	0x3df5655f	0.119822256
117	0xbd8c0f0c	-0.068388075
118	0xbbf20fd8	-0.0073871426
119	0x3e14e2e7	0.14539681
120	0x3e2e02a5	0.16993196
121	0x3d9ffaf9	0.07811541
122	0x3e29c5c1	0.16579343
123	0x3d95be51	0.073116906
124	0xbe33b951	-0.17551161
125	0xbd0460c8	-0.03231886
126	0xbe09ed6b	-0.13469474
127	0xbd872a09	-0.065998144
128	0x3d19a12b	0.037507217
129	0x3d9979e7	0.07493954
130	0x3d0e6d3b	0.03477214
131	0x3e1e0f10	0.15435433
132	0x3ca68180	0.020325422
133	0xbe30b6a8	-0.17257178
134	0x3d48b8e0	0.049004436
135	0xbddd408e	-0.108033285
136	0xbd995dc3	-0.07488587
137	0xbdd7c413	-0.10535445
138	0x3d567bb9	0.052364085
139	0xbd6b0258	-0.057375282
140	0xbc678e87	-0.014133102
141	0xbe053f70	-0.1301248
142	0xbd329e95	-0.043608267
143	0x3db17c8f	0.08666336
144	0xbe014834	-0.126252
145	0xbde8ba93	-0.11363711
146	0xbcbfcfe1	-0.023414554
147	0xbc48c95c	-0.012255039
148	0x3e09a8e9	0.1344334
149	0x3d7270af	0.059189495
150	0xbe127759	-0.1430334
151	0x3d65cb21	0.056101922
152	0xbe325b0a	-0.17417541
153	0xbde6345b	-0.11240455
154	0xbdbd33d5	-0.09238402
155	0xbdb332d8	-0.08749932
156	0x3cd0f747	0.025508536
157	0xbe19b61f	-0.1501088
158	0x3d82ea7c	0.063923806
159	0xbe089831	-0.13339306
160	0x3d371ed4	0.044707134
161	0x3dda87db	0.106704436
162	0xbd9a0ac1	-0.075215824
163	0xb9a8d444	-0.00032201607
164	0x3b9a409b	0.0047074086
165	0x3d959e40	0.073055744
166	0x3e14c486	0.14528093
167	0x3d8c3512	0.0684606
168	0xbe301bb5	-0.1719807
169	0xbe444eed	-0.19170733
170	0xbc28763e	-0.010282097
171	0xbe00aa4c	-0.12564963
172	0x3d47ca0d	0.048776675
173	0xbe579b30	-0.21055293
174	0xbdfd334e	-0.12363301
175	0x3cce81f7	0.025208456
176	0x3bd41227	0.0064718905
177	0x3e32e708	0.17470944
178	0xbe0fc89d	-0.14041372
179	0x3dce0a74	0.100605875
180	0xbdc3a635	-0.09553186
181	0x3e1247e2	0.14285234
182	0x3e0c676a	0.13711324
183	0xbe121ee0	-0.1426959
184	0x3e3b1690	0.18270326
185	0x3e496cc0	0.19670391
186	0x3daeddb0	0.08538377
187	0xbd9b8844	-0.0759435
188	0xbdb8a88f	-0.09016525
189	0x3e18c9e4	0.14920765
190	0x3ca102c6	0.019654643
191	0xbe21b0b2	-0.1579006
192	0x3d55dd29	0.052212868
193	0xbe227292	-0.15864018
194	0xbddb4a80	-0.10707569
195	0xbd7208bb	-0.059090357
196	0x3cce7bfa	0.025205601
197	0xbe08acf1	-0.13347222
198	0xbd50fa67	-0.051020052
199	0xbdf63cc5	-0.120233096
200	0xbd5a20a4	-0.053253785
201	0xbe2e87ab	-0.1704394
202	0xbc0ab655	-0.008466323
203	0xbddf0cc6	-0.10891108
204	0x3e01fda8	0.12694418
205	0x3d77b606	0.060476325
206	0xbdac0e72	-0.08401193
207	0x3dea08f8	0.11427492
208	0xbd0d69cc	-0.034524724
209	0x3df4bbdf	0.11949896
210	0xbd9cd74f	-0.07658254
211	0x3de9d49f	0.114175074
212	0x3cd2bffc	0.02572631
213	0xbe2d93cd	-0.16950913
214	0xbda03a67	-0.07823639
215	0xbd69c3ee	-0.05707162
216	0x3e449075	0.19195731
217	0x3c937e94	0.018004693
218	0x3de796ed	0.11308084
219	0xbe2e395a	-0.17014065
220	0xbe1fe6b8	-0.15615356
221	0xbd67d32f	-0.056597885
222	0x3df7de3c	0.12102935
223	0xbd469c4b	-0.048488896
224	0xbce72727	-0.028216911
225	0xbd0df4ae	-0.034657173
226	0xbd60aa9c	-0.054850206
227	0xbc33a523	-0.010964665
228	0x3e10c143	0.14136223
229	0x3d8d064b	0.06885966
230	0x3de2a7d1	0.11067165
231	0x3de23a5f	0.1104629
232	0xbdd93efb	-0.10607716
233	0x3d3acc5c	0.04560505
234	0x3d2a2bc1	0.041545633
235	0xbcc803fd	-0.024415964
236	0x3e22c8c3	0.15896897
237	0x3e471829	0.1944281
238	0x3d2e18c5	0.04250409
239	0x3dfac156	0.12243907
240	0xbe2a1f8a	-0.16613594
241	0x3bcf2186	0.006321135
242	0xbd561be3	-0.05227269
243	0xbe361fc6	-0.17785558
244	0xbdc71c54	-0.097222
245	0x3d0e7731	0.03478164
246	0xbe2b674d	-0.16738625
247	0xbe0c3bdc	-0.1369471
248	0x3dbc93ae	0.09207855
249	0x3daa808f	0.08325302
250	0x3e37c06e	0.179445
251	0x3dc62cad	0.0967649
252	0xbd1d31da	-0.03837762
253	0x3d648051	0.055786435
254	0xbd077e00	-0.033079147
255	0x3d926ca4	0.07149628

Pair_shop_mlp.fc_layers.0.bias f4 [64]
0	0x3e34ad13	0.17644148
1	0xbce7a753	-0.028278029
2	0xbde1fc52	-0.110344544
3	0xbda5cf72	-0.08096208
4	0xbdc289dc	-0.09498951
5	0xbc963fef	-0.018341033
6	0x3dde2ac3	0.10848
7	0xbdb94695	-0.090466656
8	0xbde8dd34	-0.11370316
9	0x3db8dbec	0.09026322
10	0x3dbd3f9d	0.09240649
11	0x3e25d1fa	0.16193381
12	0xbdcf154c	-0.10111484
13	0x3dcde948	0.100542605
14	0x3da90725	0.08253316
15	0xbd4d3937	-0.050103392
16	0xbddf516a	-0.109042004
17	0xbda8351d	-0.082132556
18	0xbdaea960	-0.085283995
19	0x3da50b48	0.08058792
20	0x3e3f8392	0.18702534
21	0x3e10ed34	0.14152986
22	0xbdb84cff	-0.08999061
23	0xbd62aed8	-0.055342525
24	0xbd61f21a	-0.055162527
25	0xbdad4141	-0.08459712
26	0xbd157a54	-0.036493614
27	0x3d36c060	0.044617057
28	0xbe28313e	-0.16425034
29	0x3de5747b	0.112038575
30	0x3d36234d	0.04446726
31	0x3cda88ec	0.026676618
32	0x3d3c83f5	0.04602428
33	0x3d491d2b	0.049100082
34	0xbceddc4c	-0.02903571
35	0xbd81a952	-0.063311234
36	0xbd037a7e	-0.03209924
37	0x3df4ef4d	0.119597055
38	0xbd9e9ae0	-0.07744384
39	0x3ddb628d	0.107121564
40	0xbc38f1a6	-0.011288082
41	0x3d402f78	0.04692027
42	0x3d9c4bff	0.076316826
43	0x3e267ee1	0.16259338
44	0x3db59a85	0.08867363
45	0xbd12daac	-0.035853073
46	0x3e3fce07	0.18730937
47	0xbd5a9e6c	-0.05337374
48	0xbdae93cf	-0.08524286
49	0xbda6606f	-0.08123862
50	0xbc4f9193	-0.012668985
51	0x3d6c1373	0.057635736
52	0x3e05821b	0.13037913
53	0x3da9ddd1	0.08294261
54	0xbdf85b77	-0.121268205
55	0xbd972741	-0.07380534
56	0x3d0fd065	0.03511085
57	0xbe12c0c5	-0.14331348
58	0x3d2058df	0.039147254
59	0x3e3360a3	0.17517333
60	0xbde8da38	-0.11369747
61	0x3d545022	0.051834233
62	0xbe1f1bd4	-0.1553796
63	0xbd5b1296	-0.05348452

Pair_shop_mlp.fc_layers.1.weight f4 [16, 64]
0	0xbe4b94c0	-0.19880962
1	0xbd1b5be6	-0.037929438
2	0x3b8f456a	0.0043722885
3	0x3da210e1	0.07913376
4	0x3d4f526c	0.050615713
5	0xbcb35ff0	-0.021896333
6	0x3dd7b643	0.105328105
7	0xbdb1ec30	-0.08687627
8	0xbd09fafc	-0.033686623
9	0x3b48e359	0.0030653088
10	0x3b76deed	0.0037669495
11	0x3dec8eef	0.115507
12	0xbdb6791a	-0.08909817
13	0xbdabd27d	-0.08389757
14	0xbe0cb1b4	-0.13739663
15	0x3e1161cc	0.14197463
16	0x3dc6ab60	0.09700656
17	0x3e0f5e17	0.14000736
18	0xbb83cc4c	-0.004022157
19	0xbcb179cd	-0.021664524
20	0x3e1db987	0.15402804
21	0xbcedf789	-0.029048698
22	0x3d9393bf	0.07205915
23	0x3d2cdb7e	0.04220151
24	0x3bff68f4	0.007794494
25	0x3da1c955	0.07899729
26	0xbdf8f7a8	-0.12156612
27	0x3e292aa5	0.16520174
28	0x3e0359b4	0.12827188
29	0x3dbb5f96	0.09149091
30	0xbd9895df	-0.07450461
31	0xbd96df1f	-0.07366776
32	0x3e115616	0.14192995
33	0xbddbfb3e	-0.1074128
34	0x3ddee72f	0.108839385
35	0x3bff86f9	0.0077980724
36	0x3de37781	0.11106778
37	0x3e4abcd3	0.19798593
38	0x3d9d542e	0.076820716
39	0x3ccacc98	0.024755761
40	0x3d3c0131	0.045899574
41	0x3d8fb8e9	0.07017691
42	0x3d357d61	0.044309024
43	0xbd8002f4	-0.06250563
44	0xbe0a1b2b	-0.13486926
45	0xbcff91e6	-0.0311975
46	0x3ccfa7f4	0.025348641
47	0x3dca2ce0	0.098718405
48	0xbc1be63d	-0.009515342
49	0x3d322ea8	0.043501526
50	0x3e232383	0.15931515
51	0x3d8ddd90	0.06927025
52	0x3d9bb035	0.07601968
53	0x3d94dbfe	0.07268523
54	0xbdf465c1	-0.119334705
55	0xbd707d5b	-0.0587133
56	0x3de23d84	0.110468894
57	0xbdd4217b	-0.103579484
58	0x3e4015b0	0.18758273
59	0x3c486687	0.012231476
60	0x3d463744	0.04839255
61	0xbbf32f6a	-0.0074214237
62	0x3d92d330	0.07169187
63	0x3c7ba62c	0.015359443
64	0x3e42ac26	0.19010982
65	0xbc8496bc	-0.016185157
66	0x3c2af113	0.010433453
67	0x3de7765b	0.113018714
68	0xbd383a2c	-0.044977352
69	0x3dc0e6ad	0.09418998
70	0x3dd9d657	0.10636585
71	0xbdaa7c0b	-0.083244406
72	0x3daf68e0	0.08564925
73	0x3d05cffb	0.03266905
74	0x3da648fb	0.08119389
75	0x3dcaec85	0.09908394
76	0x3da5d6de	0.08097623
77	0x3dac6b3a	0.08418889
78	0xbd683000	-0.0566864
79	0x3df6da44	0.120533496
80	0x3c74ad29	0.014933863
81	0xbd93c5d4	-0.07215467
82	0x3dd8a8d6	0.10579078
83	0xbd3cebfb	-0.046123486
84	0xbcc01f55	-0.02345244
85	0xbda8fb32	-0.08251037
86	0x3db9352b	0.09043344
87	0xbdb80e7d	-0.089871384
88	0x3d353b95	0.044246275
89	0x3cd8697a	0.026417483
90	0xbd9196ab	-0.07108816
91	0xbb8ab01d	-0.00423242
92	0xbd016597	-0.031591024
93	0x3de2ec34	0.110802084
94	0xbbf2455b	-0.0073935217
95	0x3dbf51b6	0.09341757
96	0xbd1df2a4	-0.03856148
97	0xbd542c4d	-0.05180006
98	0xbddee6f1	-0.10883892
99	0x3d88bc85	0.06676582
100	0x3d11e3c6	0.035617612
101	0xbd723386	-0.059131168
102	0xbd57c66f	-0.052679475
103	0x3d8eca36	0.069721624
104	0xbd6585bd	-0.056035746
105	0x3cda1052	0.02661911
106	0x3e04751e	0.12935302
107	0x3e138a5c	0.14408249
108	0xbd1545d4	-0.036443546
109	0x3c7aad14	0.015300054
110	0x3e03e230	0.12879252
111	0xbc6d0ee9	-0.014468887
112	0xbdea05e1	-0.114269026
113	0xbc4a9452	-0.012364464
114	0x3b8daca3	0.0043235584
115	0xbc66a09b	-0.014076377
116	0xbbbf4c01	-0.005837918
117	0xbc098401	-0.008393289
118	0x3d53346b	0.05156366
119	0xbd861838	-0.06547588
120	0xbc4b0a7c	-0.012392636
121	0x3dfde555	0.12397257
122	0xbdd6e3b1	-0.104926474
123	0x3e0700fa	0.13183966
124	0x3dc5d28c	0.09659299
125	0xbde109a2	-0.109881654
126	0xbd599efe	-0.053130142
127	0x3dac6bab	0.084189735
128	0x3e24d545	0.16096981
129	0x3d808aac	0.062764496
130	0x3da1c485	0.07898811
131	0x39e8beb7	0.00044392582
132	0xbde62464	-0.1123741
133	0x3d5e9458	0.05434069
134	0xbc16e224	-0.00920919
135	0xbd8ae4c3	-0.06781914
136	0x3d264d3f	0.04060101
137	0x3dbb2915	0.09138695
138	0x3ba2c686	0.0049675135
139	0xbd299e3c	-0.04141067
140	0xbd19b5b1	-0.03752679
141	0x3d081ee7	0.033232596
142	0x3ae19e7e	0.0017213372
143	0xbd89e794	-0.06733623
144	0xbca62abb	-0.020284047
145	0x3cba97a6	0.02277739
146	0x3db30b07	0.08742338
147	0x3e0f4236	0.13990101
148	0x3d45f322	0.048327573
149	0x3b0e18b1	0.0021682198
150	0xbcbe7d05	-0.023252973
151	0x3d999037	0.0749821
152	0xbc6175a8	-0.013760962
153	0xbd945af7	-0.07243913
154	0x3e3c8921	0.18411686
155	0xbd50cf4a	-0.050978936
156	0xbb954e3d	-0.004556446
157	0x3e1ea63b	0.154931
158	0x3e2b0ffb	0.16705315
159	0xbdd1446b	-0.10218128
160	0x3dc89f38	0.097959936
161	0x3c7d45c0	0.015458524
162	0xbd949fb6	-0.07257025
163	0xbd0a4ce4	-0.033764735
164	0xbc8e45e1	-0.017367305
165	0xbdc2a206	-0.0950356
166	0x3e114b71	0.14188935
167	0x3dc5baea	0.09654792
168	0x3db05a78	0.086110055
169	0xbccc87a3	-0.02496702
170	0x3c889177	0.016670926
171	0xbc56b711	-0.01310517
172	0x3e0c8ddb	0.13725989
173	0x3c21ae93	0.009868282
174	0x3d193d97	0.037412252
175	0xbdc86e44	-0.097866565
176	0xbde28537	-0.11060565
177	0x3da65344	0.081213504
178	0xbe1f6ed8	-0.15569627
179	0xbd2828c4	-0.041054502
180	0xbde21da6	-0.11040811
181	0x3df9c7cb	0.121963106
182	0x3d298849	0.041389737
183	0x3dcc8027	0.099853806
184	0x3ca33278	0.019921526
185	0xbd80ae85	-0.06283287
186	0x3d9756a8	0.07389575
187	0xbbe22092	-0.0069008553
188	0x3d670e05	0.056409854
189	0x3db9cdc5	0.090724505
190	0xbd9bc3a4	-0.07605675
191	0x3da10a30	0.07863271
192	0x3ddeeeab	0.10885366
193	0x3d914f28	0.07095176
194	0x3c81bb11	0.01583627
195	0xbdc164a2	-0.09443022
196	0x3d3da678	0.046301335
197	0xbc6dbe36	-0.014510682
198	0x3df3fb26	0.11913137
199	0x3e080851	0.13284422
200	0x3e0839a6	0.13303241
201	0x3e3bcf84	0.1834088
202	0x3e12cb70	0.14335418
203	0x3c40aad0	0.011759475
204	0x3d32e9a9	0.043679867
205	0xbd786668	-0.060644537
206	0xbc0d9935	-0.008642484
207	0xbdbb4941	-0.091448314
208	0x3d840fe7	0.06448346
209	0xbd416856	-0.047218643
210	0x3cc750a1	0.024330439
211	0x3d1862c1	0.037203554
212	0xbd4b2b93	-0.049602102
213	0x3df08465	0.11744002
214	0x3e079b84	0.13242918
215	0x3dde6e8a	0.108609274
216	0x3e274e2c	0.16338414
217	0xbe3f1c30	-0.18663096
218	0x3e2c8b7b	0.16850083
219	0x3d9a998c	0.07548818
220	0x3d88835f	0.06665682
221	0x3dee3879	0.11631865
222	0x3e10c438	0.14137352
223	0x3e193b93	0.14964132
224	0x3da5013b	0.08056875
225	0x3d2629b7	0.040567126
226	0x3d1be92f	0.038064178
227	0xbd37c1d1	-0.044862572
228	0xbdcb848a	-0.09937389
229	0xbdd109b2	-0.10206927
230	0xbd9cb3c9	-0.07651479
231	0x3b7ee370	0.0038892888
232	0xb9d54fd0	-0.0004068599
233	0x3d901817	0.07035845
234	0x3d99bdaf	0.075068824
235	0x3b13c797	0.0022549385
236	0x3d573be7	0.05254736
237	0xbcc098ef	-0.023510424
238	0xbd005394	-0.031329706
239	0x3d5d03b4	0.05395861
240	0xbe2c12b5	-0.16804011
241	0xbdf0c556	-0.11756389
242	0xbe342a39	-0.17594232
243	0x3d8472a8	0.064671814
244	0xbdc01cdb	-0.09380504
245	0xbd78fba8	-0.060786873
246	0xbdaa1abe	-0.08305882
247	0x3d7476b2	0.05968351
248	0x3dcffabb	0.10155245
249	0xbd581d9c	-0.052762613
250	0x3dbffa7f	0.0937395
251	0x3e1143c7	0.14186011
252	0xbd4ee6ca	-0.050513066
253	0x3d5a4475	0.053287942
254	0x3c9f3f1e	0.019439276
255	0x3e0c357c	0.13692278

Pair_shop_mlp.fc_layers.1.bias f4 [16]
0	0x3985904c	0.00025475246
1	0x3b7acf35	0.0038270478
2	0x3e075566	0.1321617
3	0x3d2031e7	0.03911009
4	0xbda55777	-0.08073323
5	0x3c2b3778	0.0104502365
6	0x3c8581aa	0.01629718
7	0xbdae7f3f	-0.08520364
8	0x3d4d05bf	0.050054308
9	0xbda4300a	-0.08016975
10	0xbd4caabd	-0.049967516
11	0x3d8f7af9	0.07005877
12	0x3dd19d78	0.10235113
13	0x3c73030b	0.0148322685
14	0xbdb29da2	-0.08721472
15	0x3e0f97a6	0.14022693

Pair_score_mlp.fc_layers.0.weight f4 [64, 32]
0	0xbe0890a3	-0.13336425
1	0xbdd511e1	-0.10403801
2	0x3e19b6e7	0.15011178
3	0xbd35a9a3	-0.04435123
4	0xbd9903bf	-0.07471418
5	0xbdc3390f	-0.095323674
6	0x3e4b7534	0.19868928
7	0x3c45cad8	0.0120722875
8	0xbbd3333d	-0.006445317
9	0xbdbd7329	-0.09250481
10	0xbd61bbac	-0.05511062
11	0xbdd5c2e8	-0.10437566
12	0xbe084861	-0.1330886
13	0xbe0d48e0	-0.13797331
14	0x3d8f3374	0.06992236
15	0x3c10b176	0.0088313725
16	0xbe43ffd8	-0.19140565
17	0xbdd9dfdf	-0.10638403
18	0x3e85f863	0.26166067
19	0xbd819610	-0.0632745
20	0x3de7fadd	0.11327145
21	0xbe444413	-0.19166593
22	0x3d85d0fe	0.06534003
23	0x3dfb545d	0.122719504
24	0xbe1ac5fd	-0.15114589
25	0xbda78c98	-0.08181113
26	0x3e2f9c22	0.17149404
27	0xbdc951b7	-0.09830039
28	0x3da1ba1e	0.07896827
29	0xbd923323	-0.0713866
30	0xbe7bb1fb	-0.24579613
31	0xbe91f241	-0.28505138
32	0xbe3f4160	-0.18677282
33	0xbd90d848	-0.070725024
34	0x3e41b66d	0.18917246
35	0x3e3d7e0b	0.18505113
36	0xbdafe162	-0.0858791
37	0x3e3337d0	0.1750176
38	0x3e2d8315	0.16944535
39	0xbdf1150a	-0.11771591
40	0x3dfa7f09	0.12231261
41	0xbc60ff79	-0.013732784
42	0xbd96854e	-0.073496446
43	0x3d0e3989	0.03472284
44	0x3d922250	0.07135451
45	0xbd5342dd	-0.051577438
46	0xbdcd18eb	-0.10014518
47	0xbc9d906a	-0.019233901
48	0xbd9071bc	-0.07052943
49	0xbddbacf7	-0.1072635
50	0x3d5f3307	0.054492023
51	0x3e1690eb	0.1470372
52	0x3ca07e19	0.019591378
53	0xbe00e29f	-0.12586449
54	0x3d862879	0.06550688
55	0xbdd9be79	-0.10632033
56	0xbe36b2c6	-0.17841634
57	0x3e3d9028	0.18512022
58	0x3c9fc69a	0.01950388
59	0xbe10b4bb	-0.14131443
60	0xbd24c07c	-0.04022263
61	0xbcec3c78	-0.028837427
62	0x3e30540a	0.17219558
63	0x3d78757d	0.06065892
64	0xbdef47c9	-0.11683614
65	0xbafdb82e	-0.0019357258
66	0xbd64a0ca	-0.055817403
67	0xbdd17c5f	-0.102288
68	0x3d20e53c	0.039281115
69	0xbc3f9887	-0.01169408
70	0x3dc1ce0b	0.09463128
71	0xbd0828f3	-0.033242177
72	0x3e05b020	0.13055468
73	0xbe065002	-0.13116458
74	0x3d015a31	0.031580154
75	0x3e30af77	0.17254435
76	0x3cda3fb8	0.026641712
77	0xbd2d6d7e	-0.042340748
78	0x3db650c0	0.089021206
79	0x3aa2b58b	0.0012413723
80	0xbe8a5b21	-0.2702265
81	0x3cfa36ac	0.030543648
82	0x3d2f554a	0.042805947
83	0x3e6e9164	0.2329765
84	0x3e5254ba	0.20540133
85	0x3d906522	0.070505396
86	0x3e71d00d	0.23614521
87	0x3da501e2	0.08057
88	0x3e1fb1b2	0.15595129
89	0xbd95d104	-0.07315257
90	0xbd315d96	-0.04330214
91	0xbcae4a60	-0.0212757
92	0xbe10b54b	-0.14131658
93	0xbdf16f8a	-0.117888525
94	0xbdbcfb2e	-0.09227596
95	0x3de5749e	0.112038836
96	0xbe235840	-0.15951633
97	0x3e018d54	0.12651569
98	0x3e5adf60	0.21374273
99	0x3d293121	0.04130662
100	0x3e318ec6	0.1733962
101	0xbe106816	-0.14102206
102	0xbdf7d9d1	-0.12102092
103	0x3d6d3bba	0.057918288
104	0x3e1d9c33	0.15391617
105	0x3ddd6369	0.108099766
106	0xbdeae019	-0.114685245
107	0x3e37ff4d	0.17968483
108	0xbdafe809	-0.08589179
109	0x3d8936ca	0.06699903
110	0xbdb9a539	-0.09064717
111	0x3e37e011	0.17956568
112	0x3cb86194	0.022507466
113	0xbdd8dcab	-0.10588964
114	0x3decd0ca	0.11563261
115	0x3d98cadb	0.074605666
116	0x3d15ba67	0.03655472
117	0x3d8babda	0.068198875
118	0x3e1359b6	0.14389691
119	0xbd4f4ead	-0.05061214
120	0x3e106183	0.14099698
121	0xbe519710	-0.20467782
122	0x3d5724c0	0.052525282
123	0xbd8dd164	-0.06924704
124	0x3d3639bf	0.044488665
125	0x3d0d6f8a	0.0345302
126	0x3e39d78b	0.1814863
127	0x3d38d262	0.04512251
128	0xbe430965	-0.19046552
129	0xbbde1bdf	-0.006778225
130	0x3d212db2	0.03935022
131	0xbddbbe91	-0.10729707
132	0x3e0b22c4	0.13587481
133	0xbd0751d1	-0.03303701
134	0xbde5e71e	-0.11225723
135	0xbe7692ec	-0.24079484
136	0x3e145e19	0.1448902
137	0xbd858361	-0.06519199
138	0xbe416730	-0.18887019
139	0xbe31ca4d	-0.17362328
140	0xbd19085a	-0.03736148
141	0x3cadcb9f	0.021215258
142	0xbe01b6f3	-0.12667446
143	0xbe18722e	-0.14887306
144	0x3e1a3ce5	0.15062292
145	0x3e22be9c	0.15893024
146	0xbdc90337	-0.09815066
147	0xbe128c8f	-0.14311431
148	0xbda318b4	-0.07963696
149	0x3db39096	0.08767812
150	0x3cb10e0e	0.021613147
151	0xbc73cf52	-0.014880972
152	0xbe59a23e	-0.21253297
153	0x3d7dde1c	0.061979398
154	0xbd4cc3df	-0.049991485
155	0x3e601efb	0.21886818
156	0xbd251266	-0.04030075
157	0xbe024010	-0.1271975
158	0x3d4e100c	0.050308272
159	0xbe0f3879	-0.13986386
160	0xbde7f83a	-0.11326642
161	0x3d234954	0.039864853
162	0x3e09b648	0.13448441
163	0x3d99a54c	0.07502231
164	0x3dc90503	0.09815409
165	0x3e0d1d7d	0.1378078
166	0xbdc8f7a5	-0.098128594
167	0xbdd9fe89	-0.10644252
168	0xbdc19524	-0.094522744
169	0x3d097365	0.033557314
170	0x3e331057	0.17486702
171	0x3d840552	0.06446327
172	0x3bd8c0df	0.006614789
173	0x3db7e0b0	0.089784026
174	0xbe21ff95	-0.15820153
175	0xbd803abd	-0.062612034
176	0x3e360d6f	0.17778562
177	0x3e2b2f52	0.1671727
178	0x3dab1d0b	0.08355149
179	0xbc1405ea	-0.009034613
180	0x3e01088b	0.12600915
181	0xbe079224	-0.13239342
182	0x3cfee450	0.031114727
183	0x3dbe6f06	0.0929852
184	0x3da18c2a	0.07888062
185	0x3d91e557	0.07123821
186	0x3e5d6a8e	0.21622679
187	0xbe4264bc	-0.1898374
188	0x3e269b4b	0.16270177
189	0xbe113ee1	-0.14184143
190	0x3e227dfd	0.15868373
191	0xbd72d34c	-0.05928354
192	0xbdfcf79b	-0.123519145
193	0x3e54249b	0.20717089
194	0xbd7e5345	-0.06209113
195	0xbd8a5787	-0.06754976
196	0xbe174407	-0.14772044
197	0xbdafef8f	-0.08590614
198	0x3ce38806	0.027774822
199	0x3e02f021	0.12786914
200	0x3b973ff6	0.004615779
201	0x3dd2c99c	0.1029236
202	0xbda7c5b7	-0.08192008
203	0x3e154d2d	0.14580221
204	0xbd3c0271	-0.045900766
205	0xbdd52730	-0.10407865
206	0x3e0b17a4	0.13583237
207	0x3cb482a8	0.022034958
208	0x3ba6c3cb	0.0050892583
209	0x3e0fc066	0.14038238
210	0xbdbf3eec	-0.09338173
211	0xbbf87ac1	-0.007582993
212	0xbd1e72d6	-0.038683735
213	0x3da080a6	0.07837038
214	0x3e369dbd	0.1783361
215	0x3e3102e4	0.17286259
216	0x3d905c69	0.07048876
217	0xbd334dbe	-0.043775313
218	0x3d7b5599	0.06136093
219	0x3e52ea6f	0.20597242
220	0xbde86d20	-0.11348939
221	0x3dee5599	0.1163742
222	0x3e187d26	0.1489149
223	0xbe122639	-0.14272393
224	0x3c84cc1c	0.016210608
225	0xbd92c58a	-0.07166584
226	0x3e4c0100	0.19922256
227	0x3e08f8a3	0.13376097
228	0x3d0c36ed	0.03423207
229	0x3ca33ffb	0.01992797
230	0xbdb83759	-0.08994932
231	0xbdb96afa	-0.09053607
232	0x3e3c0d15	0.18364365
233	0x3e686a6f	0.22696851
234	0xbe443b05	-0.19163139
235	0xbdff5dcf	-0.124690644
236	0x3d828a71	0.06374062
237	0xbd4a79a8	-0.049432427
238	0xbdd5f7e1	-0.1044767
239	0x3dfcd8e1	0.12346054
240	0xbe58e070	-0.21179366
241	0xbe01e5e4	-0.12685353
242	0x3d16f28f	0.036852416
243	0xbcb19fd7	-0.021682663
244	0xbd99a08f	-0.07501327
245	0x3e7c3992	0.24631336
246	0x3d678c54	0.05653031
247	0x3ae995c9	0.0017821129
248	0x3b5f0c72	0.0034034518
249	0xbde986dd	-0.11402676
250	0xbdb9aec7	-0.09066539
251	0xbe06340b	-0.1310579
252	0xbdda8066	-0.10669021
253	0xbd924e07	-0.07143789
254	0x3e2fc2b0	0.17164111
255	0x3d8d2e7f	0.06893634

Pair_score_mlp.fc_layers.0.bias f4 [64]
0	0x3d70d9c7	0.05880144
1	0xbd5377eb	-0.051628035
2	0xbe0b25ec	-0.13588685
3	0xbdced0cf	-0.10098421
4	0x3e383d24	0.17992073
5	0x3e2739fa	0.1633071
6	0xbdda5db4	-0.10662404
7	0xbdc77747	-0.09739547
8	0xbd8e1099	-0.069367595
9	0xbda15760	-0.078779936
10	0x3e1f70c7	0.15570365
11	0x3c9b1a89	0.018933551
12	0x3d43eb21	0.04783166
13	0x3dcd6a6e	0.100300655
14	0xbd845fc4	-0.06463578
15	0x3d2fbea2	0.04290641
16	0x3e3c8cf8	0.1841315
17	0xbd992565	-0.074778356
18	0x3dd15856	0.10221927
19	0x3d9d4eb6	0.076810285
20	0xbd9a7a4f	-0.0754286
21	0xbcdce1ad	-0.02696308
22	0x3d94964c	0.07255229
23	0xbd60ba62	-0.05486525
24	0x3dd7209f	0.10504269
25	0xbd335273	-0.0437798
26	0xbb901abe	-0.004397719
27	0x3ddcbc02	0.10778047
28	0x3e23fe87	0.16015063
29	0xbd0e4710	-0.03473574
30	0xbda2d290	-0.07950318
31	0x3e1bc3ad	0.15211363
32	0x3db2076b	0.08692821
33	0xbe1a0567	-0.15041123
34	0x3c887ff6	0.016662579
35	0x3e67e512	0.22645977
36	0x3e292cd2	0.16521004
37	0x3e111d13	0.14171247
38	0xbd9d9992	-0.07695307
39	0xbd319ef9	-0.0433645
40	0xbdedd916	-0.116136715
41	0x3dc71235	0.097202696
42	0xbe14575a	-0.14486447
43	0xbdf9f400	-0.122047424
44	0x39b7b000	0.0003503561
45	0x3e042208	0.12903607
46	0xbd14a5bf	-0.03629088
47	0xbdbf8441	-0.09351397
48	0xbd856eec	-0.06515297
49	0xbd930fc6	-0.07180743
50	0x3d04f1da	0.03245721
51	0xbd96e277	-0.073674135
52	0xbd2ea9ca	-0.042642392
53	0xbdf7c6f0	-0.12098491
54	0xbd897e51	-0.06713546
55	0x3e0fd623	0.1404653
56	0xbcd4573f	-0.025920508
57	0x3de05b7e	0.10954951
58	0x3dfceb00	0.1234951
59	0x3dff47b3	0.124648474
60	0x3d9914ca	0.07474668
61	0x3e2b2ffa	0.1671752
62	0x3dae78c8	0.08519131
63	0xbd865a65	-0.0656021

Pair_score_mlp.fc_layers.1.weight f4 [8, 64]
0	0x3ddb289a	0.107011035
1	0x3e023764	0.12716442
2	0x3e010168	0.12598193
3	0x3d8a3234	0.06747857
4	0x3e36e65b	0.17861311
5	0x3e203410	0.1564486
6	0x3d3f4d4c	0.046704575
7	0x3df8582c	0.121261925
8	0x3e074c9e	0.13212821
9	0x3e0a4e17	0.13506351
10	0xbdd6a40c	-0.10480508
11	0x3d19f8f9	0.037590954
12	0x3d06b885	0.032890815
13	0xbe02ece7	-0.12785684
14	0xbcb07d2a	-0.021544058
15	0x3a7e876e	0.00097095117
16	0x3de7a81c	0.11311361
17	0x3ca519f3	0.020153975
18	0xbd2d86ec	-0.042365
19	0x3d85c660	0.06531978
20	0x3e13d278	0.14435756
21	0xbca0d9ee	-0.019635167
22	0x3dbe9e81	0.09307576
23	0x3cc62e8b	0.024192115
24	0x3dc3646c	0.09540638
25	0x3e18f11f	0.1493573
26	0x3e21ea20	0.15811968
27	0x3cbfbd67	0.023405744
28	0xbd214f0e	-0.039382033
29	0xbca6ee7d	-0.020377392
30	0x3dfc043a	0.12305494
31	0x3bb2906c	0.0054493453
32	0x3d195153	0.037431072
33	0x3de8cd27	0.11367255
34	0x3df2a998	0.11848754
35	0x3c062aa8	0.008188881
36	0x3e2b54ae	0.16731521
37	0x3d2affc5	0.041747827
38	0x3dc345ae	0.09534775
39	0x3dbab942	0.091173664
40	0xbc649a54	-0.01395281
41	0x3d301d2f	0.04299658
42	0xbcc0fe7d	-0.02355885
43	0x3da36cbd	0.079797246
44	0xbe303003	-0.17205815
45	0x3dd14a12	0.10219206
46	0x3e130a05	0.14359291
47	0x3de010db	0.10940715
48	0xbdd0ec9a	-0.10201378
49	0x3dbcaced	0.092126705
50	0xbdc27ca7	-0.09496432
51	0x3dc7aaa3	0.09749343
52	0x3e682abb	0.2267255
53	0x3ce528f7	0.027973635
54	0x3d6cad78	0.05778262
55	0xbdb12fdc	-0.086517066
56	0x3d388c4f	0.045055684
57	0xbd9ce765	-0.076613225
58	0xbd7dde5c	-0.061979637
59	0x3dceb83b	0.10093733
60	0xba924c11	-0.0011161586
61	0x3db52794	0.088454396
62	0xbd5a505b	-0.05329929
63	0x3e2af9e6	0.16696891
64	0xbdd8544d	-0.10562954
65	0x3de2fa62	0.11082913
66	0xbddd218a	-0.10797413
67	0xbe06f2fe	-0.13178632
68	0xbdd6c7ae	-0.10487305
69	0xbd6d0d42	-0.05787397
70	0xbb3097b1	-0.0026945884
71	0xbd96231f	-0.073309176
72	0xbd885ff6	-0.06658928
73	0x3b1725ea	0.002306337
74	0xbe2a9dc3	-0.16661744
75	0x3c13f1aa	0.009029785
76	0xbe2771b2	-0.16351965
77	0x3e20a8be	0.1568937
78	0xbe27b2d1	-0.16376807
79	0xbe248021	-0.16064502
80	0xbae297c6	-0.0017287664
81	0x3d23ef5c	0.040023193
82	0xbd470ccc	-0.04859619
83	0x3c9a39d2	0.018826399
84	0xbe0893fb	-0.133377
85	0xbde06721	-0.1095717
86	0xbd093d7f	-0.033505913
87	0x3d850720	0.064954996
88	0xbd5ac306	-0.053408645
89	0xbdc2f077	-0.09518521
90	0x3dedead3	0.11617055
91	0xbcee8777	-0.029117329
92	0xbdb8f527	-0.09031134
93	0x3d5c9f13	0.053862642
94	0x3de2605e	0.11053537
95	0xbb102ba1	-0.002199866
96	0xbd718444	-0.05896403
97	0xbdfc60d4	-0.12323156
98	0x3d54d1df	0.05195796
99	0x3dd9b5b2	0.10630359
100	0xbdb7c6bf	-0.08973455
101	0x3d9dc759	0.07704038
102	0x3cedf2a9	0.029046373
103	0x3d716f04	0.058943763
104	0xbdcbcdf2	-0.0995139
105	0xbd0bd832	-0.034141727
106	0xbd8ebb01	-0.06969262
107	0xbde47536	-0.11155169
108	0x3e3f5291	0.1868384
109	0x3e041d33	0.12901764
110	0xbd9c3007	-0.07626348
111	0xbd91d1ba	-0.0712008
112	0x3d5a2e05	0.053266544
113	0xbdf8aa9b	-0.121419154
114	0x3de9ae6b	0.11410221
115	0xbdd3d2fa	-0.10342975
116	0x3c7b0def	0.015323146
117	0xbe0b6b4b	-0.13615148
118	0xbdf907ca	-0.12159689
119	0x3e4fac9a	0.20280686
120	0x3ce2a64d	0.027667189
121	0xbdd4188a	-0.10356243
122	0xbd0e359d	-0.0347191
123	0xbd950e34	-0.072781
124	0x3e20b770	0.15694976
125	0x3da5d5a9	0.08097393
126	0x3d4b93a4	0.049701348
127	0x3d445f27	0.047942307
128	0x3dbe3592	0.092875615
129	0x3ddefd47	0.108881526
130	0x3e62cee2	0.22149232
131	0x3e267659	0.16256084
132	0x3c7d788b	0.015470634
133	0x3da5b591	0.08091272
134	0x3e372a2f	0.17887186
135	0x3cad8140	0.021179795
136	0x3e3169e2	0.17325547
137	0x3cdd8cab	0.027044615
138	0x3dc3f597	0.09568327
139	0xbc062315	-0.008187075
140	0xbc8d4f90	-0.017249852
141	0xbe40ec3a	-0.18840113
142	0x3d8b3406	0.06797032
143	0x3d9ed20c	0.07754907
144	0x3e7975bc	0.24361318
145	0x3e1ff5c1	0.15621091
146	0x3e01b183	0.12665372
147	0x3d31e379	0.043429825
148	0x3df05ade	0.117360815
149	0xbd21f39e	-0.039538972
150	0x3dece690	0.11567414
151	0x3d8269b0	0.063678145
152	0x3d428571	0.04749054
153	0x3d52d100	0.05146885
154	0x3dec9de0	0.1155355
155	0x3e4cdcd8	0.2000612
156	0xbbca77e7	-0.0061788443
157	0x3e1a37ce	0.1506035
158	0x3d94cdf4	0.07265845
159	0x3e55c4f0	0.20875907
160	0x3de0ff4e	0.109861955
161	0x3ce3836b	0.027772626
162	0x3de044b2	0.109506026
163	0xbce7359a	-0.028223801
164	0x3e24fc3b	0.16111843
165	0x3c35dd6a	0.0111001525
166	0xbd98ca93	-0.07460513
167	0x3e14c4eb	0.14528243
168	0xbd118d26	-0.035535
169	0x3dd47343	0.10373547
170	0x3de7ca4a	0.113178805
171	0x3e23bb22	0.15989354
172	0xbd46c9b4	-0.048532203
173	0x3e086411	0.13319422
174	0x3dc5046f	0.09619986
175	0xbc0eb23e	-0.008709488
176	0x3e19a6a4	0.15004975
177	0xbce67e50	-0.028136402
178	0x3e25914e	0.1616871
179	0xbc2b407e	-0.010452388
180	0x3d66c60e	0.056341223
181	0xbdb5327b	-0.08847519
182	0x3d8d3dd9	0.06896562
183	0xbcd1138f	-0.025522022
184	0xbd2a64bb	-0.04159997
185	0x3cf5c9a2	0.030003373
186	0x3dc4c643	0.09608128
187	0x3e619542	0.22029594
188	0x3dc976a5	0.09837083
189	0x3c690fef	0.01422499
190	0x3dd1ef3e	0.1025071
191	0x3e85d1d2	0.26136643
192	0xbd5d9a9c	-0.054102525
193	0x3da6cab6	0.08144133
194	0x3d4d0533	0.050053786
195	0x3c5bd352	0.013417082
196	0x3c0b335e	0.008496134
197	0xbdc05200	-0.0939064
198	0x3c918359	0.017762827
199	0x3caf29b5	0.021382192
200	0xbe149632	-0.1451042
201	0xbc2c8966	-0.010530805
202	0x3d84af9e	0.06478809
203	0x3c27805b	0.010223473
204	0xbcc83f1c	-0.024444155
205	0x3dcda599	0.10041351
206	0xbdbce764	-0.09223822
207	0xbe0cb49d	-0.13740773
208	0xbda5bf40	-0.08093119
209	0xbdbec853	-0.093155526
210	0x3bc18c67	0.00590663
211	0xbd53d357	-0.05171522
212	0xbd9beef2	-0.076139346
213	0xb9eedfbe	-0.00045561598
214	0x3d693823	0.0569383
215	0x3da1b411	0.07895673
216	0x3df6449a	0.120248035
217	0x3be25171	0.006906681
218	0xbd78d1cc	-0.060746953
219	0x3dead61d	0.1146662
220	0xbd48de94	-0.049040392
221	0x3da02dfd	0.078212716
222	0x3d9826fc	0.07429311
223	0xbdc5d31b	-0.09659406
224	0xbd21366b	-0.039358538
225	0xbddb915f	-0.10721087
226	0xbc6083ae	-0.01370327
227	0xbcab1275	-0.020882824
228	0x3dfeea6f	0.124470584
229	0xbe1913e6	-0.14948997
230	0xbcefa1c1	-0.029251935
231	0xbb4dbf3b	-0.00313945
232	0xbc58513e	-0.013202963
233	0x3da92d0e	0.082605466
234	0xbd8c79d1	-0.06859172
235	0x3cbd1663	0.023081964
236	0xbd58b213	-0.0529042
237	0xbde297b8	-0.11064094
238	0xbdf28d88	-0.11843401
239	0xbd8d7047	-0.06906181
240	0x3dcc9d69	0.09990961
241	0xbe0d57ee	-0.13803074
242	0xbbceea0c	-0.0063145217
243	0xbdcfdcbc	-0.101495236
244	0x3d34d710	0.044150412
245	0xbd8ff3d6	-0.0702893
246	0x3c134751	0.008989171
247	0x3e1b8b68	0.15189898
248	0xbdbdb779	-0.0926351
249	0x3d101486	0.035175823
250	0x3ddb87ed	0.10719285
251	0x3db2b347	0.08725601
252	0xbd4bf196	-0.04979094
253	0xbdf7a46f	-0.1209191
254	0x3d1b2963	0.037881266
255	0x3a89da52	0.0010517335

Pair_score_mlp.fc_layers.1.bias f4 [8]
0	0x3bd71fc2	0.006565065
1	0x3dc3bc83	0.0955744
2	0xbdaaa98e	-0.08333121
3	0x3d54001a	0.05175791
4	0x3e11eb7b	0.14249985
5	0x3dfa54c7	0.12223201
6	0xbd742b82	-0.059611805
7	0xbd7148b9	-0.058907244

CNN_embedding_types.weight f4 [106, 16]
0	0x3e143153	0.1447194
1	0xbf4692f5	-0.7756799
2	0xbefccff1	-0.49377397
3	0x3f73deb2	0.9526168
4	0xbed09b39	-0.40743425
5	0xbc5a8c02	-0.0133390445
6	0x3fe274eb	1.769193
7	0xc039a005	-2.9003918
8	0x3dfc5115	0.12320153
9	0xbf5da16c	-0.86574435
10	0xbf08f5e7	-0.5350022
11	0x3f89da9c	1.0769839
12	0x3ef88eef	0.4854655
13	0x3eca84ba	0.39554387
14	0x3f3c5e1c	0.735811
15	0xbf441104	-0.76588464
16	0xbd081c46	-0.03323009
17	0xbff69467	-1.9264039
18	0x3f2a366a	0.6648928
19	0xbf3b0b97	-0.7306456
20	0x3eea6946	0.45783442
21	0xbf271944	-0.6527293
22	0x3ed42d18	0.41440654
23	0xbe81a860	-0.25323772
24	0xbd1e84ea	-0.038700975
25	0xbf678b1c	-0.9044664
26	0xbfad792f	-1.3552607
27	0x3ef2b3dd	0.4740285
28	0x3f82d8ea	1.0222447
29	0x3eda8399	0.42678526
30	0xbeb908dc	-0.36139572
31	0xbe020d0c	-0.1270029
32	0xbf0ebd64	-0.5575774
33	0x3fd58d45	1.6683737
34	0x3f1fd949	0.62440926
35	0xbebd701e	-0.369996
36	0xbc9e5695	-0.019328395
37	0x3f8b485b	1.0881456
38	0x3ee14e57	0.4400508
39	0xbf8490a3	-1.035664
40	0x40071326	2.1105437
41	0xbfc67729	-1.5505115
42	0xbf88e723	-1.0695537
43	0x3f160fc1	0.5861779
44	0xbd8b8fc4	-0.068145305
45	0x3de1a1bd	0.11017177
46	0xbf021388	-0.5081105
47	0x3fa2344a	1.2672207
48	0xbe9b3a95	-0.30318132
49	0xbf1b255d	-0.60603887
50	0xbe9f647e	-0.31131357
51	0x3d8fa0bc	0.070130795
52	0xbee7fe52	-0.45311219
53	0x4005d9f4	2.0914278
54	0xbd9ca96f	-0.076495044
55	0x3f9f61a3	1.2451671
56	0xbfae8ee5	-1.3637358
57	0xbf44ee9f	-0.76926607
58	0x3eaa21da	0.33228952
59	0x3f9221ae	1.1416528
60	0x3dc3b5d6	0.09556167
61	0xc00868ec	-2.131404
62	0x3f0c59e1	0.54824644
63	0x3f6fa283	0.9360735
64	0x3ff43fa4	1.9081922
65	0x3f762790	0.9615412
66	0x3f0d9f19	0.5532089
67	0x3f719704	0.94371057
68	0x3eaed50b	0.34146914
69	0xbd13fef5	-0.036131818
70	0x3fbfbb4d	1.4979035
71	0xbf46f262	-0.77713597
72	0x3f48d184	0.78444695
73	0xbd3a7e52	-0.045530625
74	0xbe26cc1d	-0.162888
75	0x3fab587c	1.3386378
76	0xbe26b621	-0.16280414
77	0xbe8393cb	-0.25698695
78	0x3d5617c7	0.05226877
79	0xbec7f693	-0.3905531
80	0x3e6be23b	0.23035519
81	0x3e889b18	0.26680827
82	0x3f8c904b	1.0981535
83	0xbf9f969d	-1.2467839
84	0xbf75929b	-0.9592683
85	0xbfe7475a	-1.806865
86	0x3c3a7b61	0.011381955
87	0xbde1e0c8	-0.11029202
88	0xbfa0bd6f	-1.255781
89	0x3f22858c	0.63485026
90	0x3e9e4d58	0.30918384
91	0x4036a2cd	2.8536866
92	0xbf9b7244	-1.2144246
93	0xbe5b1362	-0.21394113
94	0xbf06df26	-0.5268425
95	0x3e32fbf1	0.1747892
96	0x3f04b884	0.5184405
97	0xbec1d558	-0.3785808
98	0xbe66dbef	-0.22544836
99	0xbfc867aa	-1.5656636
100	0x3ef471e5	0.47743145
101	0xbf87e3ac	-1.0616355
102	0x3fe3cc19	1.7796661
103	0xbf0c7875	-0.548713
104	0x3ead86fe	0.33892053
105	0x3f473768	0.7781892
106	0x3bf7464e	0.007546223
107	0xbf157163	-0.5837614
108	0xbf6a5174	-0.9153054
109	0xbd578b67	-0.05262318
110	0x3fe4cf7a	1.7875817
111	0x3f936483	1.1515049
112	0x3dc723f1	0.09723652
113	0x3fcc4b39	1.5960456
114	0xbf1aa9bf	-0.6041526
115	0x3fb474a8	1.4098101
116	0x3df1c573	0.118052386
117	0x3f343ad3	0.7040226
118	0xbf0995c7	-0.5374417
119	0xbf3c7644	-0.7361796
120	0x3f0c0f17	0.54710525
121	0x3ff3d81d	1.9050328
122	0x3dcfe4e3	0.101510786
123	0x3ee6eae4	0.45101082
124	0x3ecd01d9	0.40040472
125	0xbf7faafa	-0.99870265
126	0x3e1b37cd	0.15158005
127	0xbf2177da	-0.63073504
128	0x403688c8	2.8520985
129	0xbdf34c03	-0.118797325
130	0x3ec510d2	0.38489395
131	0x3f79ebe5	0.9762557
132	0xbfac02aa	-1.3438313
133	0xbf558af8	-0.83415174
134	0xbe0659bd	-0.1312017
135	0xbdc276ec	-0.09495339
136	0xbe38437d	-0.17994495
137	0xbf8e5a3e	-1.112129
138	0x3eea8aed	0.45809117
139	0xbe5fadad	-0.21843596
140	0x3f0e5786	0.556023
141	0xbddfd709	-0.109296866
142	0x3fffb5b1	1.9977323
143	0x3e0392d2	0.12848976
144	0x3ce000f2	0.0273442
145	0x3e1ae42a	0.151261
146	0xbf544816	-0.82922494
147	0x40019540	2.0247345
148	0x3e7986c2	0.24367812
149	0x3d9a232a	0.07526238
150	0xbe90502d	-0.2818617
151	0x3d9bbbb9	0.07604165
152	0x3ed073a6	0.40713233
153	0xbe818f61	-0.25304702
154	0x3ecfde06	0.40599078
155	0x3f458049	0.7714887
156	0xbe6ce5ed	-0.23134585
157	0xbf8da606	-1.1066291
158	0x3d94100a	0.07229622
159	0xbf5dfcf0	-0.86714077
160	0xbf96c587	-1.177903
161	0x3f0ada34	0.542392
162	0xbe4d9245	-0.20075329
163	0xbf1895c9	-0.59603554
164	0x3eebd2f4	0.46059382
165	0x3f9dec36	1.2337711
166	0x3e9e5150	0.30921412
167	0x3f1b11fe	0.6057433
168	0x3f197376	0.59941804
169	0xbe9c0720	-0.30474186
170	0xbe9d517f	-0.3072624
171	0x3fd23489	1.6422282
172	0x3f858ae1	1.0433007
173	0xbfbde604	-1.483582
174	0x3f24b4c4	0.64338326
175	0x3fe5efd2	1.7963812
176	0x3cb3298e	0.0218704
177	0xbff36684	-1.901566
178	0xbde56c09	-0.11202247
179	0x3ebad3be	0.3648967
180	0xbfa6ff38	-1.3046637
181	0xbcca3a27	-0.024685932
182	0xbfa71c1a	-1.3055451
183	0xbe68b2f2	-0.22724512
184	0xbdd9c63b	-0.106335126
185	0xbf8c0395	-1.0938593
186	0xbe9247ec	-0.28570497
187	0x3fdb393d	1.7126843
188	0x3fa2bfe4	1.271481
189	0x3f81c583	1.0138401
190	0xbf3d8a2c	-0.7403896
191	0x3e842a79	0.25813654
192	0xbf6792d0	-0.90458393
193	0x40139f18	2.3065853
194	0xbf4b71e9	-0.7947069
195	0x3fdfe3a3	1.7491344
196	0xbda67cba	-0.081292585
197	0xbe3c7c84	-0.18406874
198	0xbf97356d	-1.1813179
199	0x3edd486d	0.4321932
200	0x3fa39ae2	1.2781641
201	0xbf454978	-0.7706523
202	0x3fdc8158	1.7226973
203	0xbe623e3e	-0.22094056
204	0x3f5c5ff8	0.86083937
205	0x3fe8b0fe	1.8179014
206	0x3f2f085f	0.6837215
207	0xbe85506e	-0.26037925
208	0x3ff4f6a8	1.9137774
209	0x3f9281ef	1.1445903
210	0x3fb148d3	1.3850349
211	0xbf936218	-1.1514311
212	0x3e027123	0.1273847
213	0x3f5d3f7b	0.8642499
214	0x3f582913	0.84437674
215	0xbfcc8846	-1.5979087
216	0x3f74a36a	0.9556185
217	0xbfb268b9	-1.3938209
218	0x3d7e879c	0.062141046
219	0xbf82d488	-1.0221109
220	0xbf0c1b52	-0.5472919
221	0x3f8c52bd	1.096275
222	0x3dfd9b7e	0.123831734
223	0x3ecc0790	0.3984952
224	0x3ca85c6c	0.020551883
225	0xbf898aa3	-1.0745434
226	0x3d88e188	0.06683642
227	0x402fd6e4	2.747491
228	0x4056b327	3.3546846
229	0x3fdb1a46	1.7117393
230	0xbfabaf7d	-1.341293
231	0xbe4a3bbc	-0.1974935
232	0xbf7a3799	-0.97741085
233	0x3d482d3e	0.04887127
234	0xbf59f5c2	-0.8514062
235	0xbf19c3b8	-0.6006427
236	0xbf6c296d	-0.9225071
237	0x3e11b1f2	0.14228037
238	0xbefeb176	-0.49744767
239	0xbea50f44	-0.3223821
240	0xbfee9f3f	-1.8642348
241	0x3edbc8db	0.42926678
242	0x3f1d58b0	0.6146345
243	0x3e3b6dba	0.18303576
244	0x3dcac399	0.099005885
245	0xbf0b41ec	-0.54397464
246	0x3f441052	0.765874
247	0xbfb0ceb6	-1.3813083
248	0x3e8548c5	0.2603208
249	0x3f29adce	0.6628083
250	0x3f3a5eae	0.7280072
251	0x3f15f030	0.5856962
252	0x3e7402d4	0.23829204
253	0x3ca9cb5b	0.02072685
254	0xbf4f0017	-0.8085951
255	0x3f5b8c50	0.85760975

embedding_CNN_distances.weight f4 [7, 8]
0	0x3f852bd7	1.0404004
1	0xbf93219e	-1.1494634
2	0x3e47355f	0.19453953
3	0x3eb8f470	0.3612399
4	0x3f7047f6	0.93859804
5	0xbf077fe4	-0.5292952
6	0x3f3c0bff	0.73455805
7	0x3f9e53ea	1.2369359
8	0xbf376e84	-0.7165301
9	0x3f371b02	0.71525586
10	0xc0375eba	-2.8651567
11	0xbe6e646e	-0.23280498
12	0xbf810d7c	-1.008224
13	0xc00d67ac	-2.2094526
14	0xbf82a058	-1.0205183
15	0x3d7f3f05	0.06231596
16	0x3e840553	0.25785312
17	0xbf95503b	-1.1665109
18	0x3d0217b9	0.031760905
19	0xbec3dcdd	-0.38254443
20	0x3f9d89b6	1.2307651
21	0x3f632776	0.8873209
22	0x3ff551c1	1.9165574
23	0x3ecfaf5b	0.40563473
24	0xbdf3052d	-0.118662216
25	0x3ebe863e	0.37211794
26	0x3f0b1e34	0.5434296
27	0xbfe030d5	-1.7514902
28	0x3f700d69	0.9377046
29	0xbf45e1cb	-0.7729766
30	0x3ed6127d	0.4181098
31	0xbf016102	-0.5053865
32	0xbf8cb613	-1.0993065
33	0xbe30e837	-0.17276083
34	0x3f1ef311	0.6208964
35	0x3fc64731	1.5490476
36	0x3e0afd81	0.13573267
37	0xbf376b59	-0.71648175
38	0x3e6b4713	0.22976331
39	0x3ebb073d	0.3652896
40	0x3dbd6c30	0.09249151
41	0xbed2eb34	-0.4119507
42	0xbe516ce7	-0.20451699
43	0x3fab4829	1.3381397
44	0x3ebb8c75	0.36630598
45	0xbf69c5a6	-0.9131721
46	0xbf361b36	-0.7113527
47	0x3f89c8f2	1.0764449
48	0x00000000	0.0
49	0x00000000	0.0
50	0x00000000	0.0
51	0x00000000	0.0
52	0x00000000	0.0
53	0x00000000	0.0
54	0x00000000	0.0
55	0x00000000	0.0

embedding_CNN_prices.weight f4 [6, 5]
0	0x3ff2cbe1	1.8968469
1	0x3fb12de2	1.3842127
2	0xbfa2e25c	-1.2725329
3	0xbfdcf856	-1.7263286
4	0xbf80f29e	-1.0074041
5	0xbee3ea78	-0.44514823
6	0x3f8e78d1	1.113062
7	0x3ff8e006	1.9443367
8	0x3eb20298	0.34767604
9	0xbe7c77b6	-0.24655041
10	0x400b6383	2.1779487
11	0xbf0f1083	-0.5588457
12	0xbfcd8a76	-1.605788
13	0xbf343e71	-0.7040778
14	0xbf93eafc	-1.1556087
15	0xbf997640	-1.1989212
16	0x3febbb34	1.8416505
17	0xbea57d78	-0.32322288
18	0xbfb52afa	-1.415374
19	0xbf5722b1	-0.8403731
20	0xbf1dfa3d	-0.6170996
21	0x3ea163d0	0.31521463
22	0x3d1dc8ae	0.03852146
23	0xbf470dbc	-0.7775533
24	0x3f6d468d	0.92685777
25	0x00000000	0.0
26	0x00000000	0.0
27	0x00000000	0.0
28	0x00000000	0.0
29	0x00000000	0.0
