checkpoints/GNNNoCNN_Epoch18_valmse2.1668_testmse2.3967_ndcg0.9319.model (torch, 249600 bytes, 52 tensors)

Pair_embedding_types.weight f4 [106, 16]
000000 0e c7 1a 3d 7c ab a3 bd 42 7a d0 be 3b 1f 5f bf
       0.03778749 -0.079916924 -0.40718275 -0.8715703
000010 45 ab 59 3f 03 f9 c3 be c3 33 01 3e 97 22 a4 bf
       0.8502696 -0.38275918 0.12617402 -1.2823056
000020 71 9d d5 3d a8 23 9f bc 53 4f 9f bf da 01 0d 3f
       0.1043042 -0.019426182 -1.2446083 0.5508095
000030 0d bf c9 bf 28 3c b8 3e 3c a7 82 3e eb be 35 3f
       -1.5761429 0.35983396 0.25518215 0.7099444
000040 c1 ce ea 3e 13 1e 96 bf de 1d f7 3f 6a 2c d9 be
       0.45860866 -1.1727928 1.930599 -0.42416698
000050 c4 5d 7f be 7c 6d 41 3e 6f 34 1f bf fb e6 2a 3f
       -0.24938112 0.18889421 -0.6218938 0.667587
000060 87 4d 86 bf 27 15 2b 3d f7 87 04 bf f2 94 53 40
       -1.049241 0.04176822 -0.51769966 3.305966
000070 47 72 4e bf 16 0d 0b bf 6a fa 8e bf bb cd 80 3f
       -0.80643123 -0.5431684 -1.117017 1.0062784
000080 f9 80 dc 3f 33 d1 10 40 d6 a5 85 bf 2c 47 12 3e
       1.7226859 2.2627685 -1.0441234 0.14284962
000090 45 28 64 3f f1 77 a2 bf 60 5e 90 bf 33 03 5b 3d
       0.89123946 -1.2692853 -1.1278801 0.053469848
0000a0 a8 7b 29 3f 6c 86 0b 3e 02 12 84 3f 88 6c e4 3d
       0.6620431 0.13625497 1.0317996 0.11153513
0000b0 a6 73 6f bf 9f 0b cf 3d 1a c0 94 3f 1a 73 b7 bd
       -0.9353584 0.101096384 1.1621125 -0.08957501
0000c0 c8 35 27 bf 1b f1 96 3f ac f7 c8 be 38 4b 96 bf
       -0.6531644 1.179233 -0.3925146 -1.1741705
0000d0 a5 3b d7 bf 42 bd 5b 3f 2c cc fe bf 55 1e a4 3c
       -1.6815077 0.8583566 -1.9906058 0.020033995
0000e0 5d f6 95 3c f7 40 86 3f dc 2d ab bf 29 1c a4 3f
       0.018305952 1.0488576 -1.337337 1.2821094
0000f0 43 5d ee 3b 89 dc 74 3f b5 48 a0 3f 85 22 39 3d
       0.0072743013 0.9564901 1.2522188 0.045198936
000100 59 34 ca bd ad 4a 56 3e 50 3d 56 3f e7 e4 cf bf
       -0.09873266 0.20926924 0.83687305 -1.624173
000110 b0 08 0a 40 49 fb 87 bf ba fa 71 3e 87 a3 ae bf
       2.1567802 -1.0623561 0.23630801 -1.3643655
000120 58 b4 94 be 57 64 0d 3e 58 ff 3f 3e df 44 74 3f
       -0.2904384 0.13807808 0.1874975 0.9541759
000130 32 35 cf 3e 72 b6 3d be bc 93 82 3e 3d 90 34 3e
       0.40470272 -0.18526629 0.25503337 0.17633148
000140 af 19 b6 be d6 b3 f3 3d 6d 72 89 3e de 89 89 3f
       -0.3556647 0.11899535 0.26845112 1.0745199
000150 7b 39 97 be af 80 91 bf e7 de 18 be 88 37 d9 be
       -0.29536042 -1.1367396 -0.1492878 -0.4242518
000160 7b 7a 30 3f b6 c7 c2 3f 17 8e 31 bf cc 7a 57 bf
       0.6893689 1.5217197 -0.69357437 -0.8417175
000170 b5 b7 50 bf 4f 9d 1c 3f ef a7 69 3f e0 a5 bb 3f
       -0.81530315 0.61177534 0.9127187 1.4659996
000180 13 14 b1 bf 96 e1 83 3e 66 bb e7 3f 54 f6 0f 3e
       -1.3834251 0.25758046 1.8104064 0.1405881
000190 22 31 3c 3f fe 9b 68 3e ee 3f 5e bf 90 5d 0c 40
       0.7351247 0.22715756 -0.868163 2.1932106
0001a0 db a8 8e bf df b3 9a 3f e9 d3 70 3e fa b8 7d bf
       -1.1145281 1.2086142 0.23518337 -0.99110377
0001b0 09 52 ee be 74 e3 6f 3e 0d e1 f6 be 41 e7 ec bc
       -0.46546963 0.2342661 -0.48218575 -0.028918864
0001c0 9b 99 39 3f e9 48 c6 3f 58 b7 84 3e e2 0a bc be
       0.7250001 1.5491 0.2592113 -0.36727053
0001d0 60 8a 24 bf 99 2a 4a 3e b4 e4 9b be 11 1c 2a be
       -0.64273643 0.19742812 -0.30447924 -0.16612269
0001e0 7f 1d 8e 3f 9c b4 25 c0 fc 93 83 3e 6d 6a 8f be
       1.1102751 -2.5891485 0.2569884 -0.28010884
0001f0 34 88 2c be 32 43 c0 bf 86 13 de bd 86 23 91 3d
       -0.16848832 -1.5020506 -0.108435676 0.07086854
000200 ce 8d 85 3e 50 77 c4 3f 84 74 c2 3e e5 89 7f 3f
       0.2608475 1.5348911 0.3797952 0.99819785
000210 af ef 34 be ba a5 8f 3f 20 99 a5 bf 12 36 1a 3f
       -0.17669557 1.1222451 -1.2937355 0.60238755
000220 d0 bd 58 3e f5 c9 7f bf 57 c4 bb 3f c0 8b 0c bf
       0.21166158 -0.99917537 1.4669293 -0.5490074
000230 7c 22 bc bc 67 73 a3 3f e1 bc 28 bd 5b 2c ad 3e
       -0.022965662 1.2769593 -0.041195754 0.33822903
000240 82 58 71 3f 01 30 5e 3d 1f 1a e0 3e e1 4c 75 bf
       0.9427568 0.054245 0.4376993 -0.9582043
000250 f6 fa d3 be d0 23 6b 3f 96 3a bf 3e 1c de 15 bf
       -0.41402406 0.9185152 0.37349385 -0.58542037
000260 42 30 1a 3f b6 34 49 bd 0a 9a 0f 40 d9 0a b3 3f
       0.60229886 -0.049122535 2.2437768 1.3987685
000270 b5 08 bb 3f 71 39 05 3e 6c 9e c9 3e f0 19 95 be
       1.4612032 0.13010193 0.3937868 -0.2912135
000280 05 5c 91 bd c5 15 09 be cb ba 0b 3e c1 77 93 3e
       -0.070976295 -0.1338721 0.13645475 0.28802302
000290 70 ad 89 bf eb 43 45 bf f1 a6 97 3f ac 66 88 3f
       -1.0756054 -0.7705676 1.1847821 1.0656333
0002a0 8c a7 b6 bf 4d 33 35 3f 97 3c 6e be d8 44 a9 3f
       -1.4269881 0.70781404 -0.232653 1.3224134
0002b0 f7 a1 b1 3f 71 5a 80 3d 24 04 9d 3e c9 75 dc 3e
       1.3877553 0.0626725 0.30667222 0.43058613
0002c0 67 4d 9e bf ac 86 1e bf 09 a4 20 be 7c 95 71 3f
       -1.2367371 -0.6192424 -0.15687574 0.9436872
0002d0 06 c9 60 be 22 8d 9d bf 01 50 4d 3f 9a cf 23 3f
       -0.21951684 -1.2308695 0.802002 0.6398865
0002e0 d3 e9 a3 3e 0d 1a 4c 3f 8e 31 ff 3f 22 69 5c 3e
       0.3201433 0.7972725 1.9936998 0.2152448
0002f0 43 73 67 3d f2 08 b3 3f 6f bc 95 be 49 23 6a 3e
       0.056506407 1.3987105 -0.29245326 0.22865023
000300 84 48 da 3e 95 bf c5 bf cd 34 f1 3d fd a1 9a be
       0.4263345 -1.5449091 0.11777649 -0.30201712
000310 85 12 db 3f a3 7a 7c bf 15 42 0a 3f 9e f2 c1 3f
       1.7115027 -0.9862463 0.54007083 1.5152166
000320 ca ef 20 be 57 2b ba bf a4 fc 38 bf 2b ce 1a 3f
       -0.15716472 -1.4544476 -0.722605 0.6047084
000330 1d 43 64 3f 7b fe 45 3e 16 0b fa 3d fe fe b7 3e
       0.89164907 0.19335358 0.12209146 0.3593673
000340 bc d8 50 bf b7 1e d5 3f ac 12 a4 be 71 8b 0a 40
       -0.8158071 1.6649998 -0.32045496 2.1647608
000350 69 83 a2 3f ca 69 c7 3e a3 fb aa bf e4 9c 99 3e
       1.2696353 0.38947898 -1.3358043 0.3000251
000360 58 95 c2 be 41 9e 8f 3e c0 23 29 bf 0e 86 0f 3f
       -0.38004565 0.28050426 -0.66070175 0.56063926
000370 f2 77 a7 bf 74 b9 53 40 1d aa 04 40 92 72 05 c0
       -1.308348 3.3081942 2.072883 -2.0851178
000380 fe 95 64 bf 4d c0 c1 bc fd 8d 15 c0 1a fe ad 3f
       -0.8929137 -0.023651266 -2.3367913 1.3593171
000390 d4 0b 87 bf fb af b5 be 6c 69 ce 3e f9 0d 79 bf
       -1.0550485 -0.35485825 0.40314806 -0.97286946
0003a0 b6 cc e0 be 8a 68 23 bf 94 63 41 bf 1f c7 c0 3e
       -0.43906182 -0.6383139 -0.7554257 0.37651917
0003b0 e9 89 b2 bf d6 71 6e bf 3e db c6 be e7 07 c4 bf
       -1.3948337 -0.9314245 -0.38839144 -1.5314912
0003c0 55 bb 8e bf 09 9b d3 3e b9 c8 c4 bf 72 c7 63 3d
       -1.1150919 0.4132922 -1.5373756 0.055610128
0003d0 a5 a2 b2 3e 6f 60 b8 3f 99 97 66 3f 66 cb ae bf
       0.34889713 1.4404429 0.9007507 -1.3655822
0003e0 f3 2f 74 3f 75 7c 88 bf aa af 85 be 11 30 a4 be
       0.95385665 -1.0662981 -0.26110584 -0.32067922
0003f0 0a 1c d4 3f 6c 53 d6 be 8e a5 fc bf 98 38 d5 3d
       1.6571057 -0.4186052 -1.9738023 0.10411185

embedding_Pair_distances.weight f4 [7, 8]
000000 9c 3f 01 3f 80 89 54 bf 78 91 6f 3f bd ab 3a 40
       0.50487685 -0.8302231 0.9358134 2.916732
000010 96 4a 2b 3f b6 90 b1 3f f3 27 ad be 86 a4 95 3e
       0.66910684 1.3872287 -0.3381954 0.29227084
000020 6b 54 00 40 14 c4 0e 40 53 6c 53 3f f3 53 d0 bd
       2.0051525 2.2307177 0.82587165 -0.10172262
000030 2f 38 be 3f 9e fd 78 bf 55 87 cb 3f ac fd 22 40
       1.4860896 -0.9726199 1.5900675 2.546733
000040 ed ae 3a bf 34 6e 69 bf 76 99 73 bf 66 ae 27 bd
       -0.72923166 -0.9118378 -0.9515604 -0.040937804
000050 66 b3 b5 bf 0f 1c 03 bf cc d5 04 3e 8d cc c7 bf
       -1.4195373 -0.5121469 0.12972182 -1.5609299
000060 77 9f da be 0d 9e d0 3e cb ff f2 bf c4 7f 62 be
       -0.42699787 0.40745583 -1.8984312 -0.22119051
000070 1c 50 05 c0 92 32 f0 bf a9 ee 76 bf cd 79 00 bf
       -2.0830145 -1.8765433 -0.96457916 -0.50185853
000080 bb 71 85 3f 29 8d 97 3f 3c fe c4 be 7e 0c 00 c0
       1.0425333 1.1839954 -0.38475215 -2.0007625
000090 2b 02 a6 bf 02 33 37 be 59 38 2f bf 4a 62 8d bf
       -1.2969412 -0.17890552 -0.68445355 -1.104562
0000a0 95 f7 2f bd ca ad d2 3e bf de 08 bf 88 37 3d 3e
       -0.042960722 0.41148216 -0.53464884 0.18478215
0000b0 60 57 b5 bf 4e 55 3e bf cf bd d4 bf 65 da 08 bf
       -1.416729 -0.74348915 -1.6620425 -0.53458244
0000c0 00 00 00 00 00 00 00 00 00 00 00 00 00 00 00 00
       0.0 0.0 0.0 0.0
0000d0 00 00 00 00 00 00 00 00 00 00 00 00 00 00 00 00
       0.0 0.0 0.0 0.0

embedding_Pair_prices.weight f4 [6, 5]
000000 5a b7 63 3d 8e 5d d2 3e e1 91 b8 3e c0 7e 40 be
       0.05559478 0.41087002 0.36048797 -0.18798351
000010 e7 d4 97 3f 4c 8b 64 3f 04 8c a7 3d 80 a3 6c 3f
       1.1861848 0.8927505 0.08181003 0.9243698
000020 84 70 36 3f 44 87 5a 3f 16 15 1f be 00 bb 1f bf
       0.71265435 0.8536265 -0.15535387 -0.62394714
000030 c0 3f 25 bf d1 13 0c 40 00 02 44 bf e2 1e 9b bf
       -0.645504 2.1887095 -0.7656555 -1.21188
000040 b5 e3 00 c0 29 35 f3 be 06 39 1d 3e ef 66 ff 3f
       -2.0138981 -0.47501495 0.15353784 1.9953288
000050 87 ab 03 bc fe 5a b7 bf 45 c4 8e bd fc 48 79 3f
       -0.008036501 -1.4324644 -0.06971029 0.9737699
000060 b6 2d ad bd 00 00 00 00 00 00 00 00 00 00 00 00
       -0.08455984 0.0 0.0 0.0
000070 00 00 00 00 00 00 00 00
       0.0 0.0

Pair_shop_mlp.fc_layers.0.weight f4 [64, 32]
000000 fa 03 38 3d ec 59 ec bc ae 71 20 3e 0c 0d 3a 3e
       0.044925667 -0.028851472 0.15668365 0.1816904
000010 67 f2 50 be 90 2f 2c 3d 5d 1c 62 3d 20 02 fd bd
       -0.20404969 0.042037547 0.05520283 -0.12353921
000020 c3 bf 92 3d ce 6d 11 3e 28 1f 1f be 16 29 96 3c
       0.07165482 0.14202043 -0.15539229 0.018330138
000030 3f 69 12 be 2d 4e 48 be b8 4b 96 3d 27 fb 77 3d
       -0.1429796 -0.19561072 0.07338661 0.060542252
000040 61 1d d4 3d c1 81 38 3c e8 7d 61 bc d3 95 8a 3d
       0.10357166 0.0112614045 -0.013762929 0.06766858
000050 b5 e3 07 3c c2 2e b9 3d 32 df 3c 3c d2 5e 75 3e
       0.008294036 0.090421215 0.011527823 0.23961952
000060 21 f3 06 be 19 80 c3 3c 52 2a c4 3c 00 03 78 3d
       -0.13178684 0.023864793 0.023945961 0.060549736
000070 54 6d ce 3d fa d5 4f 3d 7f 33 b7 bd 29 20 36 be
       0.100794464 0.050741173 -0.08945369 -0.17785706
000080 28 59 3b be c1 a5 e3 3d 8c 28 a3 bd 67 15 06 3e
       -0.18295729 0.111155994 -0.07966718 0.13094102
000090 22 f5 aa 3d 01 88 49 3e 95 9a 88 3e bf 2b f7 bd
       0.083475366 0.19680788 0.26680437 -0.12068891
0000a0 d7 b6 18 be a6 96 75 bd 01 18 cf bd 4d 64 41 3c
       -0.14913498 -0.059958123 -0.10112 0.011803699
0000b0 db 6a 22 bd 1e f4 52 bd 4b 5a fd 3c 3e 5f 60 3e
       -0.039652687 -0.05150234 0.030926844 0.21911332
0000c0 5c cb 55 3d de 0d 23 be ce 50 06 3d 53 b3 47 3e
       0.05219589 -0.15923259 0.032791905 0.19502
0000d0 20 2f af 3d 62 c3 b6 bd 66 27 8c 3c f4 d0 f8 3d
       0.0855391 -0.08923985 0.01710863 0.1214923
0000e0 d9 94 dc bd 6e f1 a1 3d 51 28 9e bc 83 94 31 be
       -0.10770578 0.07907377 -0.019306334 -0.17341809
0000f0 58 1c 1e 3e 18 35 a2 bd d3 9d 45 3e eb b6 60 3d
       0.154405 -0.07920283 0.19298486 0.054861944
000100 81 3a 56 3d 33 02 6e 3d 96 ca f5 bc a6 29 85 bd
       0.052301887 0.058107566 -0.030003827 -0.065020844
000110 f9 d6 fc 3d db 6e e9 3d 70 b5 85 3d 76 b0 c8 3d
       0.1234569 0.11398097 0.06528747 0.09799282
000120 2a 4b 3f 3e 0d c1 22 be 5f 28 ed bd bf 9f 03 3e
       0.18681017 -0.15893956 -0.11579966 0.12853907
000130 b5 4a b6 bd 4d 31 00 be 85 b9 15 bd 64 7f 01 3e
       -0.08900968 -0.12518807 -0.03655388 0.12646252
000140 4d e9 40 be d7 db 26 be 6b a7 f0 3d fe 97 12 3e
       -0.18838997 -0.162948 0.117506824 0.14315793
000150 7d a1 05 be 39 1f c2 3d 90 07 b3 3c f5 ac 28 bd
       -0.13049884 0.094786115 0.021854192 -0.04118057
000160 e4 63 b4 bd 52 ee da 3d 62 54 05 3e 56 88 03 be
       -0.08808115 0.10689987 0.1302047 -0.12844977
000170 d8 8f 0b 3e 90 f9 d1 bd b4 a0 d0 3d b6 5f 70 3d
       0.13629091 -0.102526784 0.10186902 0.058685027
000180 27 61 7d bd 0d f3 ca bd 6e 52 55 bc bd 06 e7 bc
       -0.06186023 -0.099096395 -0.013020141 -0.028201455
000190 f1 a2 85 3d 3a 4e 01 3e 1f 81 09 3e 2e e3 25 3d
       0.06525219 0.12627497 0.13428162 0.04049986
0001a0 3a 6e 3c bd 9d 94 19 3e 35 1f f0 bd ff f1 b8 3d
       -0.046003558 0.14998098 -0.11724702 0.09030532
0001b0 03 fa f7 3d a1 c5 c6 3d 5d 5f 28 be 04 6b 10 3e
       0.12108233 0.097056635 -0.16442628 0.14103323
0001c0 d6 6f c0 bd ed 4e c8 3d 99 c6 38 be 01 ea 1f bd
       -0.09396331 0.09780679 -0.18044509 -0.039041523
0001d0 d2 3b f4 3d 9c 24 94 bd 2a ec c4 bb 23 ba 15 3e
       0.11925472 -0.07233545 -0.0060095983 0.14621787
0001e0 86 32 2c 3e a5 99 9d 3d 0f 50 29 3e c0 05 9a 3d
       0.16816148 0.07695321 0.16534446 0.07520628
0001f0 ae 54 39 be 55 3c f8 bc 3d 7d 0f be 8f bb 95 bd
       -0.18098709 -0.030302206 -0.14012618 -0.073111646
000200 2b a1 19 3d e7 79 99 3d 3b 6d 0e 3d 10 0f 1e 3e
       0.037507217 0.07493954 0.03477214 0.15435433
000210 80 81 a6 3c a8 b6 30 be e0 b8 48 3d 8e 40 dd bd
       0.020325422 -0.17257178 0.049004436 -0.108033285
000220 c3 5d 99 bd 13 c4 d7 bd b9 7b 56 3d 58 02 6b bd
       -0.07488587 -0.10535445 0.052364085 -0.057375282
000230 87 8e 67 bc 70 3f 05 be 95 9e 32 bd 8f 7c b1 3d
       -0.014133102 -0.1301248 -0.043608267 0.08666336
000240 34 48 01 be 93 ba e8 bd e1 cf bf bc 5c c9 48 bc
       -0.126252 -0.11363711 -0.023414554 -0.012255039
000250 e9 a8 09 3e af 70 72 3d 59 77 12 be 21 cb 65 3d
       0.1344334 0.059189495 -0.1430334 0.056101922
000260 0a 5b 32 be 5b 34 e6 bd d5 33 bd bd d8 32 b3 bd
       -0.17417541 -0.11240455 -0.09238402 -0.08749932
000270 47 f7 d0 3c 1f b6 19 be 7c ea 82 3d 31 98 08 be
       0.025508536 -0.1501088 0.063923806 -0.13339306
000280 b6 36 32 3d f3 88 cc 3d be fb 95 bd ab 42 45 bb
       0.043509208 0.099870585 -0.07323407 -0.0030099552
000290 1f c4 97 3a 97 c2 9c 3d ed f9 1a 3e 3c 3f 96 3d
       0.0011578834 0.076543026 0.15134402 0.0733628
0002a0 81 7f 33 be b2 5a 46 be 27 43 10 bc 3b 05 fc bd
       -0.17529108 -0.19370535 -0.008805073 -0.12305685
0002b0 73 06 49 3d e9 c9 58 be 6d 7d fb bd 75 6f d3 3c
       0.049078416 -0.21170773 -0.122797824 0.025809983
0002c0 d1 03 a5 3b 78 87 30 3e 8a d4 0f be af d2 d2 3d
       0.0050358553 0.17239177 -0.14045921 0.10294091
0002d0 b8 d2 c3 bd c2 f5 12 3e 70 96 0b 3e 41 71 12 be
       -0.09561676 0.14351562 0.13631606 -0.14301015
0002e0 52 a9 3a 3e 12 2a 48 3e ee a8 ad 3d 29 6d 90 bd
       0.18228653 0.19547299 0.084794864 -0.07052071
0002f0 35 05 b7 bd 19 25 16 3e 03 aa ab 3c 10 80 28 be
       -0.0893654 0.14662589 0.020955091 -0.16455102
000300 77 33 5c 3d ed fc 25 be b6 ae d7 bd 95 36 5b bd
       0.05376002 -0.16209765 -0.1053137 -0.05351885
000310 38 1d b4 3c 98 d1 10 be b7 b0 68 bd 32 30 f9 bd
       0.021986589 -0.14142454 -0.056809153 -0.12167396
000320 b4 ef 38 bd f8 69 32 be 50 3f 72 bc 9e 61 e9 bd
       -0.045150474 -0.17423236 -0.014785603 -0.11395572
000330 d4 b2 ec 3d ef dd 63 3d 48 1a 9e bd 43 c7 e0 3d
       0.11557546 0.055631574 -0.077198565 0.10975506
000340 75 69 0a bd a6 16 f1 3d 6b a9 95 bd 25 ac ed 3d
       -0.033791978 0.11771898 -0.073077045 0.116050996
000350 cd 95 e4 3c 20 c6 27 be 10 62 a4 bd 20 9e 68 bd
       0.027903462 -0.16384172 -0.080265164 -0.056791425
000360 90 d8 42 3e 78 ac 8d 3c 91 0d e0 3d 47 d4 33 be
       0.19027925 0.017294154 0.109400876 -0.17561446
000370 d4 be 26 be 82 16 61 bd a9 1b f0 3d e7 7e 48 bd
       -0.16283733 -0.054953106 0.11724026 -0.04894915
000380 75 fe c2 bc 34 91 0e bd fd 3c 65 bd 7e 28 09 bc
       -0.023802975 -0.034806445 -0.055966366 -0.0083714705
000390 b9 77 13 3e d4 c4 87 3d ed b5 d4 3d b7 7d dd 3d
       0.1440114 0.06629339 0.10386262 0.10814994
0003a0 ea e7 d3 bd f3 50 2c 3d 31 23 37 3d de 3d de bc
       -0.103469685 0.042069387 0.044711296 -0.02712911
0003b0 7e d9 24 3e 70 e2 46 3e df 36 21 3d 31 32 f9 3d
       0.16098592 0.19422317 0.03935897 0.121677764
0003c0 16 35 2b be 14 5d 68 3b 1c fc 53 bd c6 07 36 be
       -0.1671947 0.003545587 -0.051754102 -0.17776403
0003d0 54 6a c6 bd f3 4a 1a 3d c5 f9 2a be a4 e9 0d be
       -0.09688249 0.037669133 -0.16696842 -0.13858658
0003e0 0b c1 ba 3d cf cd a8 3d 56 fd 3d 3e 1e 65 c9 3d
       0.09118851 0.0824238 0.18553671 0.0983374
0003f0 f8 d1 01 bd 29 21 5e 3d c6 89 04 bd 5a 49 95 3d
       -0.031694382 0.054230843 -0.032357953 0.07289381

Pair_shop_mlp.fc_layers.0.bias f4 [64]
000000 c3 67 35 3e e3 77 d2 bc b7 1c e2 bd d4 5a a8 bd
       0.17715363 -0.025691932 -0.11040633 -0.08220449
000010 dc 89 c2 bd 83 ad 95 bc a3 06 da 3d 0b 5b bb bd
       -0.09498951 -0.018271213 0.10645797 -0.091482244
000020 2c a8 e7 bd 74 4f b8 3d ca eb bd 3d e1 c2 24 3e
       -0.11311373 0.089995295 0.09273489 0.16089965
000030 3f 8c ce bd f5 69 ce 3d 7c 08 aa 3d c6 3c 4f bd
       -0.100853436 0.100788034 0.083023995 -0.050595067
000040 3d 2f df bd f1 9b a9 bd 55 01 ab bd 2c 29 a5 3d
       -0.10897682 -0.082816966 -0.083498634 0.080644935
000050 6a d2 3e 3e 93 6c 11 3e f3 be bb bd d8 ae 62 bd
       0.18634954 0.14201574 -0.0916728 -0.055342525
000060 a8 a1 60 bd dc d7 ae bd 21 95 04 bd fd 7f 2e 3d
       -0.054841667 -0.08537266 -0.032368783 0.042602528
000070 ad 23 29 be 0e 35 e8 3d 0d ca 3a 3d c6 73 de 3c
       -0.16517515 0.113382444 0.045602847 0.027154814
000080 3b 17 45 3d 07 bf 49 3d 6c ef f3 bc 39 21 81 bd
       0.048117857 0.049254443 -0.029777251 -0.06305165
000090 69 b8 ee bc 91 7c ef 3d 96 5a 9f bd 7a fa db 3d
       -0.029140668 0.11693681 -0.0778095 0.10741134
0000a0 42 4c 7b bc d1 d2 3c 3d a4 53 9c 3d 69 1c 27 3e
       -0.0153380055 0.046099488 0.07633141 0.16319431
0000b0 d5 84 b5 3d d1 5c 15 bd 14 f3 3e 3e 8a 53 5b bd
       0.08863226 -0.03646547 0.18647414 -0.053546466
0000c0 4f a1 ad bd 9d ce a8 bd 51 bf 5c bc 5b eb 6d 3d
       -0.08478033 -0.08242533 -0.013473348 0.05808578
0000d0 00 87 06 3e ee 5d a7 3d a1 08 f6 bd 0d 78 95 bd
       0.13137436 0.081722125 -0.120133646 -0.072982885
0000e0 b5 50 06 3d 61 01 12 be ab 8a 23 3d a8 f2 33 3e
       0.032791812 -0.14258339 0.039927166 0.17573035
0000f0 02 e3 e8 bd c4 e2 5b 3d 19 e4 1d be fa 18 5b bd
       -0.11371423 0.053683057 -0.15419044 -0.053490616

Pair_shop_mlp.fc_layers.1.weight f4 [16, 64]
000000 d0 f1 59 be 36 ea 14 bd b4 13 4a 3b 75 e0 a1 3d
       -0.2128365 -0.036356173 0.0030834498 0.0790414
000010 6c 52 4f 3d d6 2b b1 bc 2e fa d7 3d 27 99 b2 bd
       0.050615713 -0.021627348 0.10545765 -0.08720618
000020 a0 7d 0d bd 84 3f 70 ba ee cb e1 3a 41 ce e9 3d
       -0.034543633 -0.0009164738 0.0017226913 0.11416293
000030 0f 71 b4 bd 0f 35 aa bd 1e a9 12 be a1 71 11 3e
       -0.08810627 -0.083109014 -0.14322326 0.14203502
000040 84 b7 c9 3d 3b ce 10 3e 52 f4 09 bc 51 65 ac bc
       0.09849456 0.1414117 -0.008420067 -0.021044405
000050 b2 ad 1d 3e eb 27 f4 bc fb d5 95 3d 7e db 2c 3d
       0.15398291 -0.02980419 0.07316204 0.04220151
000060 12 5a dd 3b e8 45 a7 3d 28 02 08 be 0e 24 2c 3e
       0.006755122 0.081676304 -0.13282073 0.16810629
000070 80 47 05 3e 19 4e b8 3d a5 af a8 bd 80 d5 95 bd
       0.13015556 0.08999271 -0.082366265 -0.073161125
000080 69 bd 18 3e d9 80 db bd a8 29 e1 3d 78 f0 fc 3b
       0.14916004 -0.10717935 0.109942734 0.007719096
000090 7e a8 e7 3d 47 50 4f 3e fb 98 98 3d 69 a7 c9 3c
       0.11311434 0.20245467 0.07451054 0.02461596
0000a0 73 18 3d 3d 6c 4a 91 3d 7f 64 39 3d f2 95 83 bd
       0.046165895 0.07094273 0.045261856 -0.06425084
0000b0 78 dc 0d be 6a ea 02 bd 50 20 cd 3c ca b1 cd 3d
       -0.13853633 -0.031961836 0.025039822 0.10043676
0000c0 57 4b 54 3a ff 48 22 3d 20 9a 29 3e c3 3a 80 3d
       0.0008098385 0.039620396 0.165627 0.06261208
0000d0 48 9b af 3d be 9e 97 3d 9c fe f6 bd fc 5f 6f bd
       0.085745394 0.074033245 -0.12060282 -0.058441147
0000e0 48 46 e1 3d 52 06 d4 bd 3b 60 47 3e b3 c0 44 3c
       0.10999733 -0.10352768 0.19470303 0.012008834
0000f0 18 5c 37 3d 2e 9d 22 bc af 93 94 3d 66 90 68 3c
       0.04476556 -0.00992517 0.07254731 0.0141945835
000100 47 04 4c 3e a1 52 84 bc cd 56 39 3c 30 a3 e9 3d
       0.19923507 -0.016152682 0.011312199 0.11408079
000110 2c 3a 38 bd ae e9 bd 3d 8d f9 d9 3d a6 26 a8 bd
       -0.044977352 0.092730865 0.10643301 -0.082104966
000120 eb e6 aa 3d b1 77 05 3d 2e 05 a6 3d f6 b4 cc 3d
       0.08344825 0.03258485 0.08106457 0.09995453
000130 2f 0f a5 3d db 52 a9 3d 89 33 4e bd 15 f7 f6 3d
       0.08059537 0.082677566 -0.050342117 0.12058846
000140 eb 98 7a 3c 34 fd 95 bd ad 45 e6 3d 81 4c 44 bd
       0.015295248 -0.07323685 0.11243758 -0.047924522
000150 2d 43 aa bc 36 91 a6 bd de 18 b7 3d 7d 0e b8 bd
       -0.020783985 -0.081331655 0.0894029 -0.089871384
000160 11 96 32 3d 87 28 b8 3c b7 1b 85 bd d9 28 a9 bb
       0.043600146 0.022480262 -0.06499427 -0.00516234
000170 8d 96 1e bd 86 3b df 3d ef b0 ad bb 35 8d bf 3d
       -0.038717795 0.10900025 -0.005300633 0.09353105
000180 54 cb 24 bd 74 a9 59 bd e1 62 e5 bd dd e4 89 3d
       -0.04023297 -0.05314012 -0.112005 0.06733105
000190 1f de fa 3c 28 36 85 bd d7 41 60 bd 4b 26 8f 3d
       0.030623494 -0.0650447 -0.05475029 0.06989726
0001a0 ec 0e 72 bd 91 dd d0 3c 20 ad 03 3e b8 45 15 3e
       -0.05909626 0.025496276 0.1285901 0.14577377
0001b0 74 6b 09 bd c8 a5 4f 3c 75 8f 01 3e f7 e0 81 bc
       -0.03354974 0.012673803 0.12652381 -0.015854342
0001c0 84 3d 03 be 55 72 2e bc 5b e1 06 3b e6 52 3b bc
       -0.12816435 -0.010647376 0.00205811 -0.011433339
0001d0 d8 a5 83 bc 69 e6 21 bc 77 02 59 3d 4f 2c 88 bd
       -0.016070291 -0.009881594 0.052980866 -0.06649076
0001e0 05 78 35 bc ed 28 f2 3d a8 1b e2 bd 27 dc 07 3e
       -0.011075978 0.11824212 -0.11040431 0.13267575
0001f0 ed 1d c8 3d 34 28 dd bd 2c 01 66 bd a8 d9 a8 3d
       0.09771333 -0.10798684 -0.05615346 0.0824464
000200 74 16 35 3e ea 47 80 3d 01 ac a2 3d 17 e9 27 3a
       0.17684346 0.062637165 0.079429634 0.00064052775
000210 64 24 e6 bd cd ac 5f 3d 69 75 14 bc b1 36 8b bd
       -0.1123741 0.054608155 -0.009061196 -0.06797541
000220 85 a7 29 3d c8 76 c5 3d 37 1d e6 3b 90 c6 20 bd
       0.041419525 0.09641796 0.0070225256 -0.039251864
000230 50 8e 1c bd 96 f2 07 3d f2 d2 a0 3b fb fc 89 bd
       -0.038221657 0.033190332 0.004907959 -0.06737705
000240 69 08 ad bc 21 c9 b7 3c 24 c6 b9 3d 66 cf 0e 3e
       -0.021122174 0.022434773 0.090709955 0.13946304
000250 ff 87 45 3d 78 00 5b 3b 38 9b c9 bc 37 90 99 3d
       0.0482254 0.0033417027 -0.024610147 0.0749821
000260 9a b0 4a bc 57 7d 94 bd b2 53 48 3e 3d 79 54 bd
       -0.012371207 -0.07250469 0.19563177 -0.051873434
000270 96 bc ea bb b9 75 21 3e 95 6b 33 3e 83 2d d3 bd
       -0.0071635945 0.15767564 0.17521508 -0.10311415
000280 37 36 bd 3d 9c 38 85 3c 37 63 93 bd f0 53 09 bd
       0.09238856 0.016262345 -0.07196658 -0.033527315
000290 0d 8a 85 bc 9a f1 c7 bd 19 a1 13 3e 12 75 c5 3d
       -0.01630118 -0.09762879 0.14416923 0.0964147
0002a0 89 94 b2 3d 12 ef cb bc 91 70 6a 3c de 35 38 bc
       0.08719737 -0.024894271 0.0143090645 -0.011243312
0002b0 f4 da 0f 3e 41 95 61 3c 7c f7 20 3d 3f e3 c9 bd
       0.14048368 0.013768495 0.03929852 -0.09857797
0002c0 68 f1 f5 bd 1a 42 b0 3d 51 f2 24 be 23 9a 0d bd
       -0.12008935 0.08606358 -0.16108061 -0.034570824
0002d0 3c 37 f5 bd f1 7a f9 3d a0 fa 29 3d f7 43 cc 3d
       -0.11973426 0.12181652 0.04149878 0.09973901
0002e0 46 11 a5 3c 45 29 75 bd 72 ce 8c 3d 38 5c df bb
       0.020149838 -0.05985381 0.06875314 -0.0068164133
0002f0 ea ee 74 3d 10 2c c1 3d fa a8 98 bd a8 1d a6 3d
       0.05979816 0.094322324 -0.07454105 0.08111125
000300 05 a8 fd 3d 5e 89 8c 3d c4 1d 77 3c 70 b0 c4 bd
       0.12385563 0.06862138 0.01508278 -0.09603965
000310 78 a6 3d 3d 5e 7c 82 bc f5 b4 f1 3d f5 47 07 3e
       0.046301335 -0.015928444 0.11802093 0.13211043
000320 96 70 06 3e cc c0 3e 3e 6f 09 13 3e 23 7b 4c 3c
       0.13128886 0.18628234 0.14359067 0.01248053
000330 2f 9b 2c 3d bf 36 7f bd 39 df a0 bb d7 69 bc bd
       0.042140182 -0.06230807 -0.0049094227 -0.09199875
000340 08 0c 84 3d 51 6b 48 bd ad 5d f0 3c 43 40 11 3d
       0.06447607 -0.04893047 0.029341543 0.035461675
000350 8a 72 4b bd 72 97 ef 3d dd f9 06 3e 8a 6e de 3d
       -0.04966978 0.11698808 0.13181253 0.108609274
000360 32 08 28 3e 44 5a 40 be 24 95 39 3e 7e d0 97 3d
       0.16409376 -0.18784434 0.18123299 0.074128136
000370 9b ba 6f 3d 3b 12 ed 3d 2a 70 16 3e 77 10 18 3e
       0.05852757 0.11575743 0.14691225 0.14850031
000380 49 42 a5 3d ad 71 1f 3d d7 25 16 3d 19 04 39 bd
       0.080692835 0.03892677 0.03665718 -0.045169923
000390 7f 6e d3 bd 60 bb d3 bd 5f 71 9f bd cb 73 3a 3b
       -0.1032381 -0.10338473 -0.07785296 0.0028450366
0003a0 b5 af 0d bb fb ab 8d 3d 88 09 96 3d 0c 94 4b 3b
       -0.0021619622 0.06917568 0.07326037 0.0031063585
0003b0 36 3d 62 3d ec a2 bf bc f6 37 04 bd 52 6c 58 3d
       0.055234157 -0.023393117 -0.03227993 0.052837677
0003c0 c5 be 42 be f1 dd ec bd 1a 80 39 be ef 67 94 3d
       -0.19018085 -0.115657695 -0.18115273 0.07246386
0003d0 98 e6 d1 bd 8f 28 77 bd 13 3c aa bd 04 56 73 3d
       -0.102490604 -0.060341414 -0.083122395 0.059408203
0003e0 de 04 d0 3d 6f 74 5b bd 44 12 bb 3d dc 62 10 3e
       0.10157178 -0.053577837 0.09134343 0.14100212
0003f0 76 98 45 bd 64 94 5f 3d 18 65 03 3d 6d c0 0e 3e
       -0.0482411 0.054584876 0.032078832 0.13940592

Pair_shop_mlp.fc_layers.1.bias f4 [16]
000000 d6 a0 2b ba 7c 9c a5 3b 60 10 08 3e 76 97 20 3d
       -0.0006547099 0.005054055 0.13287497 0.039206944
000010 77 57 a5 bd 92 27 16 3c 56 a3 86 3c a8 01 ad bd
       -0.08073323 0.009164708 0.016435307 -0.084475815
000020 bf 05 4d 3d f9 6a a7 bd 7b f0 4f bd 97 c2 8f 3d
       0.050054308 -0.081747 -0.05076645 0.07019537
000030 79 be d0 3d e2 c6 72 3c a2 9d b2 bd 1b 6e 0f 3e
       0.1019258 0.014817925 -0.08721472 0.14006846

Pair_score_mlp.fc_layers.0.weight f4 [64, 32]
000000 cc 44 09 be 6a bd d1 bd 74 77 1d 3e fc c3 2e bd
       -0.1340515 -0.10241206 0.15377599 -0.042667374
000010 bf 03 99 bd a5 47 c0 bd a5 43 4f 3e 8f 33 78 3c
       -0.07471418 -0.09388665 0.20240648 0.015149011
000020 3d 33 d3 bb 15 94 ce bd b2 82 52 bd 37 5b d2 bd
       -0.006445317 -0.10086838 -0.051394172 -0.10271304
000030 eb ae 06 be 90 22 0b be 74 33 8f 3d 80 ae 25 3c
       -0.13152663 -0.13587403 0.06992236 0.010112405
000040 16 ab 40 be 3b a1 cb bd a3 55 86 3e 50 ea 84 bd
       -0.18815264 -0.09942862 0.2623721 -0.06490004
000050 8f 61 e7 3d e1 3d 45 be 74 0d 64 3d fd 03 ff 3d
       0.11297905 -0.19261886 0.055676892 0.124519326
000060 31 b6 1d be 69 3c 9a bd b5 b4 29 3e 31 d0 cf bd
       -0.15401532 -0.075310536 0.1657284 -0.10147131
000070 d4 f3 a0 3d a7 b6 80 bd 87 e5 7f be 4d 7a 94 be
       0.078590065 -0.06284838 -0.24989901 -0.28999558
000080 99 42 3d be 88 9e 8e bd 70 da 45 3e f5 2a 3f 3e
       -0.18482436 -0.06963831 0.19321609 0.1866873
000090 62 e1 af bd 9a 59 34 3e 55 3b 2f 3e d1 1f ee bd
       -0.0858791 0.17612305 0.17112477 -0.11627162
0000a0 09 7f fa 3d c0 ad c4 bc a2 d7 99 bd c0 53 15 3d
       0.12231261 -0.024008632 -0.07511832 0.036456823
0000b0 59 e4 94 3d 18 4b 43 bd eb 18 cd bd f9 3d 92 bc
       0.07270116 -0.047679037 -0.10014518 -0.017851816
0000c0 e0 9c 95 bd 6c 9d de bd f9 25 5a 3d ca 83 1a 3e
       -0.07305312 -0.108698696 0.05325887 0.15089336
0000d0 26 55 6e 3c 4b cb ff bd ae ed 77 3d 14 2e e2 bd
       0.014546668 -0.12489947 0.060529403 -0.11043945
0000e0 66 9a 33 be 99 22 3a 3e 0f 11 72 3c 7a 51 10 be
       -0.17539367 0.1817726 0.014774575 -0.14093581
0000f0 80 0b 2f bd 51 75 d4 bc 3d 8a 2d 3e 11 87 84 3d
       -0.042735577 -0.025934847 0.16947265 0.064710744
000100 72 e6 f2 bd 6c 2b c5 ba da 56 59 bd 02 26 d1 bd
       -0.1186036 -0.0015042848 -0.053061344 -0.102123275
000110 3c e5 20 3d 11 cf 4b bc ef 3a c4 3d 64 00 06 bd
       0.039281115 -0.012439505 0.09581553 -0.032715216
000120 20 b0 05 3e 38 8a 0b be 23 db e3 3c 2e 6a 31 3e
       0.13055468 -0.13626945 0.027814453 0.1732566
000130 64 d0 da 3c 29 66 33 bd c0 50 b6 3d f2 85 9d 3a
       0.026710697 -0.0437986 0.089021206 0.0012018068
000140 d7 69 8a be 50 5f 09 3d 73 fb 25 3d 17 0f 6f 3e
       -0.27033874 0.033538163 0.040523004 0.233456
000150 58 79 55 3e 32 3a 90 3d 34 1d 67 3e 2f 14 99 3d
       0.2084707 0.0704235 0.22569734 0.07474553
000160 6a 79 26 3e 1a 50 91 bd 73 7c 40 bd 17 a1 96 bc
       0.16257253 -0.07095356 -0.046993684 -0.01838736
000170 a7 70 14 be 81 2d ef bd 78 a1 b9 bd 81 86 ed 3d
       -0.14496098 -0.11678601 -0.09064001 0.1159792
000180 70 52 25 be 09 65 02 3e a9 a4 5e 3e 26 f2 2c 3d
       -0.16144729 0.12733854 0.217425 0.04222312
000190 c6 8e 31 3e 9a 8a 10 be 9f ed f3 bd ec 0e 72 3d
       0.1733962 -0.14115372 -0.11910557 0.05909626
0001a0 33 9c 1d 3e aa db cd 3d 60 ab f1 bd 5b 81 39 3e
       0.15391617 0.10051663 -0.11800265 0.18115751
0001b0 44 26 ae bd 37 bc 89 3d 39 a5 b9 bd 95 34 38 3e
       -0.08503392 0.06725352 -0.09064717 0.17988808
0001c0 22 fc d0 3c 48 61 da bd 11 72 e9 3d 5b 50 99 3d
       0.025510851 -0.10663086 0.113987096 0.0748603
0001d0 f2 eb 0c 3d 12 06 89 3d b5 bc 0d 3e d2 21 55 bd
       0.034404702 0.06690611 0.13841517 -0.052034207
0001e0 9f 6a 11 3e 68 b4 54 be c1 2b 40 3d 1e dc 8e bd
       0.14200829 -0.20771945 0.046916727 -0.06975578
0001f0 a2 6c 2d 3d 23 98 29 3d 44 23 3b 3e c9 dd 37 3d
       0.04233993 0.041404855 0.18275172 0.044889245
000200 b3 30 46 be bd f2 5a bc 4c 3b fa 3c ab b4 e4 bd
       -0.19354515 -0.013363537 0.030545853 -0.11167272
000210 c4 22 0b 3e 68 62 15 bd 14 df f2 bd e0 21 7b be
       0.13587481 -0.0364708 -0.11858955 -0.24524641
000220 19 5e 14 3e 61 83 85 bd a9 bd 45 be 43 89 38 be
       0.1448902 -0.06519199 -0.19310631 -0.18021111
000230 7b f2 27 bd a5 8e 87 3c f3 b6 01 be 24 2b 1d be
       -0.04100273 0.01654751 -0.12667446 -0.15348488
000240 e3 c8 21 3e 23 64 2a 3e 09 49 d9 bd 65 7b 08 be
       0.15799288 0.16639762 -0.106096335 -0.13328321
000250 f5 e0 ab bd ab 1a be 3d 86 49 91 3c 40 ed 26 bc
       -0.083925165 0.0928243 0.017735254 -0.010188401
000260 cc 77 56 be 85 bd 8e 3d 46 6f 32 bd 79 9d 64 3e
       -0.20944136 0.06969742 -0.04356315 0.22325696
000270 c5 0f 13 bd a6 a9 03 be c0 55 46 3d 67 e2 10 be
       -0.03590371 -0.12857684 0.04842162 -0.14148866
000280 4b 59 ed bd f6 a6 1d 3d c1 25 0d 3e b4 0d 98 3d
       -0.11589297 0.038489304 0.13783933 0.07424489
000290 03 05 c9 3d 33 5f 0d 3e 2a 37 c7 bd 8f 41 dc bd
       0.09815409 0.13805847 -0.097273186 -0.10754692
0002a0 24 95 c1 bd 05 c4 be 3c a2 01 36 3e fb 3c 84 3d
       -0.094522744 0.023286829 0.1777406 0.064569436
0002b0 ce 46 ce 3b 51 14 bc 3d 95 ff 21 be 1b 9a 82 bd
       0.0062950617 0.091835625 -0.15820153 -0.063770495
0002c0 ba 34 32 3e 1f 87 27 3e 19 63 b1 3d 7b 43 0c bc
       0.17402926 0.16360138 0.086614795 -0.0085610105
0002d0 9f 55 ff 3d 3b f3 07 be 12 e9 ef 3c c6 07 bd 3d
       0.12467503 -0.13276379 0.029285941 0.09229998
0002e0 df d0 9c 3d b6 dd 90 3d 80 bb 57 3e 34 bc 3f be
       0.076570265 0.07073538 0.2106762 -0.18724138
0002f0 bf 0c 27 3e 20 46 10 be db c5 23 3e 66 db 79 bd
       0.16313456 -0.1408925 0.15993445 -0.06100025
000300 6a ae fe bd 58 7e 55 3e c6 5d 6f bd d6 3b 87 bd
       -0.124356106 0.20848978 -0.05843904 -0.0660321
000310 07 44 17 be 4d e2 af bd d3 41 f5 3c c6 08 05 3e
       -0.14772044 -0.08588085 0.029938614 0.12991628
000320 f6 3f 97 3b e5 9f c5 3d 24 26 af bd 88 d9 16 3e
       0.004615779 0.09649638 -0.085521966 0.14731419
000330 de f3 39 bd 46 d0 d1 bd a4 17 0b 3e 14 e5 bd 3c
       -0.045398585 -0.10244803 0.13583237 0.023180522
000340 27 d7 46 ba ec 41 0b 3e 93 8b bf bd be c0 f3 bb
       -0.0007585161 0.13599366 -0.093527935 -0.007438748
000350 56 a6 47 bd 52 ea 96 3d fb 6e 39 3e c1 21 2f 3e
       -0.048742615 0.07368912 0.18108742 0.1710272
000360 96 09 99 3d 25 c7 47 bd c3 af 66 3d e7 7e 56 3e
       0.074725315 -0.048773903 0.056319963 0.20946847
000370 cc fb ec bd 18 39 f5 3d e8 68 1a 3e 1e 6a 12 be
       -0.11571464 0.119737804 0.15079081 -0.14298293
000380 cb cd 65 3c 85 ea 91 bd 48 c7 4d 3e 08 36 09 3e
       0.014026116 -0.07124809 0.20095551 0.13399518
000390 ed 36 0c 3d 5c 07 9e 3c a2 2c b6 bd 51 ac b8 bd
       0.03423207 0.019290619 -0.08895232 -0.09017242
0003a0 15 0d 3c 3e f6 1a 71 3e 1d 91 4a be 19 ad fd bd
       0.18364365 0.23545441 -0.19781919 -0.123865314
0003b0 13 81 83 3d 24 57 53 bd e1 f7 d5 bd 0f b7 fd 3d
       0.06421103 -0.051596776 -0.1044767 0.12388431
0003c0 a6 e9 51 be 4c 57 03 be d8 23 06 3d 9a f5 a6 bc
       -0.20499286 -0.1282627 0.032749027 -0.020380784
0003d0 31 55 95 bd 56 d9 79 3e 80 99 60 3d b6 93 b5 39
       -0.072916396 0.24399313 0.05483389 0.00034633063
0003e0 e2 7a 26 3b dd 37 ea bd 62 ab bc bd 44 28 02 be
       0.0025402834 -0.11436436 -0.09212376 -0.12710673
0003f0 6a 14 db bd f7 a3 92 bd 70 2e 33 3e 44 75 8d 3d
       -0.10697253 -0.0716018 0.17498183 0.06907132

Pair_score_mlp.fc_layers.0.bias f4 [64]
000000 9c ed 7a 3d ae 87 4c bd 1e ca 0a be 78 a1 cc bd
       0.06126176 -0.04993408 -0.13553664 -0.09991735
000010 47 77 33 3e 5b e5 26 3e e0 b5 d4 bd d3 18 c9 bd
       0.1752597 0.1629843 -0.103862524 -0.09819188
000020 08 9a 8c bd f6 6b a7 bd 55 52 20 3e a8 56 92 3c
       -0.06865317 -0.08174889 0.15656407 0.017863587
000030 83 d5 39 3d 99 8d cf 3d 61 e0 82 bd fa 6b 2e 3d
       0.045369636 0.101344295 -0.06390453 0.042583443
000040 2b 6a 3d 3e 88 42 97 bd f5 94 d3 3d 70 97 99 3d
       0.18497531 -0.07385737 0.10331146 0.074995875
000050 cd 62 9c bd 93 dd e4 bc ef 53 93 3d 60 d0 58 bd
       -0.07636032 -0.027937686 0.071937434 -0.052933097
000060 f6 d1 da 3d f3 16 31 bd 2e 8e 87 bb 03 4d dc 3d
       0.10684578 -0.043234777 -0.004136822 0.10756876
000070 54 1a 23 3e 3b 9b 11 bd f6 85 a3 bd 6f 64 1c 3e
       0.15928012 -0.03554843 -0.079845354 0.15272687
000080 e4 b6 ac 3d ec da 19 be 32 83 76 3c 3e fe 69 3e
       0.08433321 -0.15024918 0.015045928 0.22850892
000090 e5 fd 29 3e 08 00 12 3e 29 25 a3 bd 43 97 30 bd
       0.1660076 0.14257824 -0.07966072 -0.043113004
0000a0 6a 1f e8 bd da fc c8 3d d3 35 16 be 25 1e fb bd
       -0.11334117 0.098138526 -0.1466897 -0.12261609
0000b0 63 57 0e 3a 81 f1 02 3e 70 31 17 bd 75 0f c2 bd
       0.0005429892 0.12787439 -0.03691238 -0.094756044
0000c0 84 39 81 bd bc ba 8f bd 15 c0 10 3d 6b 31 95 bd
       -0.06309798 -0.07018039 0.035339434 -0.07284816
0000d0 83 b6 2d bd 64 fc f4 bd f9 d4 7b bd 74 b3 0e 3e
       -0.042410385 -0.11962202 -0.061482403 0.13935643
0000e0 21 34 cc bc 9b 59 e0 3d c4 96 f9 3d 48 5c fd 3d
       -0.0249272 0.10954591 0.121869594 0.12371117
0000f0 97 5b 9b 3d c8 32 2b 3e 9b f6 b9 3d e4 89 87 bd
       0.07585829 0.1671859 0.090802394 -0.066180974

Pair_score_mlp.fc_layers.1.weight f4 [8, 64]
000000 1d e3 db 3d 62 be 00 3e c9 39 02 3e fd f5 8a 3d
       0.10736678 0.12572625 0.12717356 0.067852
000010 ec f4 3c 3e 44 3d 1d 3e ba 42 50 3d c2 be f0 3d
       0.18452805 0.15355402 0.050844885 0.11755134
000020 e3 31 09 3e 00 14 0f 3e 9d bc db bd e7 18 13 3d
       0.13397937 0.13972473 -0.107293345 0.03591242
000030 dc 28 02 3d 4b 6d 0a be fb 05 bd bc 50 ea eb ba
       0.031777248 -0.13518254 -0.02307414 -0.0017998908
000040 0a 36 ee 3d 61 3a 8f 3c 53 54 29 bd 10 58 7c 3d
       0.11631401 0.017483892 -0.041340183 0.06160742
000050 33 d8 0f 3e bb c9 b6 bc 1d 2b bf 3d 6d ca b7 3c
       0.14047317 -0.02231299 0.09334395 0.022435391
000060 99 c7 cf 3d 76 1f 18 3e 25 a5 22 3e 25 12 00 3d
       0.10145492 0.14855751 0.1588331 0.031267304
000070 af 20 28 bd 09 9b d2 bc 2c 1b f5 3d 64 84 ec 3b
       -0.041046795 -0.025708692 0.11968073 0.0072179306
000080 77 97 09 3d 36 4d e6 3d d7 55 ee 3d 27 ff b6 3b
       0.033591714 0.112451956 0.116374664 0.0055846157
000090 1e 41 2f 3e 33 3b 25 3d 62 1f a3 3d d8 a8 c2 3d
       0.17114684 0.04033966 0.0796497 0.09504861
0000a0 61 61 af bc 5c 21 2d 3d 00 c2 c3 bc a7 78 a1 3d
       -0.021408739 0.042268142 -0.023896217 0.07884341
0000b0 0b fc 34 be 34 5c ce 3d 69 c1 12 3e 36 06 df 3d
       -0.17674272 0.1007618 0.14331593 0.108898565
0000c0 07 1b d5 bd 5f 35 b4 3d 00 94 c3 bd 79 2d c1 3d
       -0.10405546 0.08799242 -0.09549713 0.09432501
0000d0 00 40 70 3e 78 f7 c7 3c 0c f0 87 3d 54 e9 ae bd
       0.23461914 0.024409994 0.06637582 -0.085405976
0000e0 2c 7c 39 3d 55 4f a3 bd ef e7 7e bd 48 1c d5 3d
       0.045284435 -0.07974116 -0.062232908 0.10405785
0000f0 db f4 9b ba 11 fc af 3d 18 81 67 bd c2 e3 2d 3e
       -0.0011898534 0.08593 -0.056519598 0.16981414
000100 bf ac da bd 21 c7 e3 3d 0f eb e0 bd de ed 09 be
       -0.1067748 0.11121965 -0.10982334 -0.13469645
000110 7c 82 d5 bd fb 1a 69 bd 0a 6e f4 bb f7 aa 94 bd
       -0.104252785 -0.056910496 -0.0074594067 -0.072591715
000120 2c d0 88 bd 91 84 20 3c 43 44 2f be 70 03 09 3c
       -0.06680331 0.009797231 -0.17115884 0.008362636
000130 7d 17 2e be fb 9e 29 3e 12 fd 2c be be 48 27 be
       -0.17001148 0.16564552 -0.16893414 -0.16336343
000140 03 89 46 bb f9 dd 27 3d ee 01 4d bd 7f da a7 3c
       -0.0030294068 0.040983174 -0.05005067 0.02048993
000150 43 1d 07 be a5 e9 e0 bd 10 71 19 bd fe 13 88 3d
       -0.13194756 -0.10982064 -0.03746134 0.06644438
000160 01 60 84 bd da 2a ca bd d5 cd f1 3d 34 e5 e5 bc
       -0.06463624 -0.098714545 0.118068375 -0.028063394
000170 21 58 bd bd e3 cc 77 3d fb 46 e4 3d 51 08 8a bb
       -0.09245325 0.06049813 0.11146351 -0.004212417
000180 36 8a 76 bd cd 12 00 be 25 42 5c 3d fc 35 de 3d
       -0.060190402 -0.12507172 0.053774018 0.108501405
000190 09 f5 b8 bd 46 98 9b 3d 4b 0d 03 3d 70 9f 69 3d
       -0.09031112 0.07597403 0.0319951 0.057036817
0001a0 62 71 d0 bd b0 9e 0e bd b2 07 90 bd 2b d0 e5 bd
       -0.10177876 -0.034819305 -0.07032718 -0.112213455
0001b0 a4 1f 43 3e 4c 5d 05 3e a1 e9 9d bd d2 f4 96 bd
       0.19055039 0.13023871 -0.07710577 -0.073709145
0001c0 b4 fb 4d 3d 50 a0 f9 bd c1 12 e9 3d 61 9b d6 bd
       0.05028887 -0.1218878 0.1138053 -0.10478855
0001d0 d3 d6 ea 3b f8 7b 0e be d4 74 04 be c4 73 53 3e
       0.0071667223 -0.13914478 -0.12935191 0.2064963
0001e0 8b 18 e8 3c 7f f8 d5 bd ea c2 12 bd ee 1b 94 bd
       0.028332015 -0.104477875 -0.035830416 -0.0723189
0001f0 a0 66 22 3e 59 fb aa 3d f8 39 51 3d 0c 36 49 3d
       0.15859461 0.08348722 0.051080674 0.04912381
000200 e9 72 bc 3d d8 c5 df 3d 0b 58 64 3e a5 c7 28 3e
       0.09201605 0.109264076 0.2229921 0.16482408
000210 cb 75 ae 3c 9b 8e a1 3d c0 b6 3b 3e b0 7f 9f 3c
       0.021296402 0.07888528 0.18331432 0.019470066
000220 c0 28 35 3e a0 62 03 3d bb c7 bb 3d 84 af 1f bc
       0.17691326 0.032076478 0.09168955 -0.009746436
000230 56 30 a2 bc 5b 00 49 be 68 32 87 3d 62 1d 96 3d
       -0.019798439 -0.19629042 0.06601411 0.07329823
000240 c8 11 7d 3e a8 71 1e 3e 2a 98 02 3e fb 68 29 3d
       0.24713814 0.15473044 0.12753358 0.041359883
000250 5f 4d ea 3d 3d 82 2d bd 07 9f ec 3d 9f ab 85 3d
       0.114405386 -0.042360533 0.115537696 0.06526875
000260 b7 a4 56 3d 52 b3 50 3d 78 b5 ef 3d 80 1c 56 3e
       0.052403178 0.050952263 0.11704534 0.2090931
000270 9e 42 e8 bb 2a a0 15 3e 3f 1b 91 3d 2a 51 55 3e
       -0.0070880195 0.14611879 0.07085275 0.20831743
000280 da 0c db 3d 19 da d4 3c 5b c4 de 3d e7 b9 eb bc
       0.106958106 0.025982903 0.108772956 -0.028775169
000290 e3 7c 29 3e fc b1 22 3c 90 2f ba bd 64 59 18 3e
       0.16551547 0.00993013 -0.09091103 0.1487785
0002a0 19 ff 30 bd ef 18 d3 3d c0 71 e8 3d c9 25 23 3e
       -0.04321203 0.1030749 0.11349821 0.15932383
0002b0 7a 67 5d bd ca b6 08 3e be da c4 3d f3 b5 25 bc
       -0.05405376 0.13350978 0.09612034 -0.010114181
0002c0 e3 3b 18 3e 43 d2 01 bd 38 a8 26 3e e2 91 53 bc
       0.14866595 -0.03169466 0.16275108 -0.012913199
0002d0 08 a2 83 3d a8 15 bc bd 03 8c 99 3d 40 a9 ac bc
       0.064273894 -0.09183818 0.07497408 -0.021076798
0002e0 c5 6f 27 bd 0c 95 e1 3c 86 c4 c4 3d ea eb 63 3e
       -0.040878076 0.027536891 0.09607796 0.22257963
0002f0 59 ec ce 3d 6a 6e 5a 3c 5d 91 cf 3d 02 92 87 3e
       0.101036735 0.013331989 0.10135148 0.26478583
000300 d5 50 58 bd 6a 61 a3 3d 3b 09 52 3d 32 63 2d 3c
       -0.052811462 0.07977565 0.051278334 0.010582732
000310 f6 57 33 3c d5 90 c4 bd e1 a4 75 3c d6 3a a7 3c
       0.0109462645 -0.09597937 0.0149929235 0.020413797
000320 7a ae 18 be 58 0c 1b bc 82 0c 85 3d e1 2b 82 3c
       -0.14910308 -0.009463392 0.06496526 0.015890064
000330 57 55 c7 bc d8 71 ca 3d 75 3e c9 bd 4c b5 10 be
       -0.024332685 0.09884995 -0.09826366 -0.1413166
000340 93 aa 96 bd 7e 17 bf bd 6e d6 99 3b de 50 58 bd
       -0.07356753 -0.09330653 0.0046947515 -0.052811496
000350 7e 99 9a bd d1 42 86 bb 57 c6 6b 3d 77 73 a4 3d
       -0.075488076 -0.0040973206 0.0575622 0.08029836
000360 90 94 f9 3d 7d b8 b1 3b 99 97 58 bd e7 22 f2 3d
       0.12186539 0.005423604 -0.05287895 0.11823063
000370 dd 86 52 bd 76 7a 96 3d 46 11 92 3d bf 44 be bd
       -0.051398147 0.07347576 0.07132201 -0.09290456
000380 3c eb 2a bd 6e 3a db bd 97 dd 89 bc 70 43 9b bc
       -0.041728243 -0.10704504 -0.016829295 -0.018953055
000390 ec 87 06 3e c2 97 1f be e1 97 b9 bc d6 36 9e 3b
       0.13137788 -0.15585235 -0.02265543 0.0048283143
0003a0 7f 67 14 bc be fc a3 3d 89 6f 95 bd 39 da be 3c
       -0.0090578785 0.08007191 -0.07296664 0.023297416
0003b0 9c 75 35 bd 90 6d e3 bd f7 96 f8 bd 47 4b 8f bd
       -0.044301614 -0.11104882 -0.12138169 -0.0699678
0003c0 8f 14 cc 3d f2 d7 0f be 14 49 ee bb 97 00 d0 bd
       0.09964859 -0.1404722 -0.007271895 -0.101563625
0003d0 5f 90 35 3d 22 7e a4 bd 4f 62 b6 3b 76 72 1a 3e
       0.044327136 -0.080318704 0.0055659185 0.15082726
0003e0 18 36 c4 bd ca 14 05 3d 23 e0 d8 3d 17 13 b5 3d
       -0.0958063 0.03249053 0.10589626 0.08841532
0003f0 6e 75 4e bd 2a d6 f2 bd 2e dd 23 3d ba 45 52 3b
       -0.05040496 -0.11857255 0.040005855 0.0032085017

Pair_score_mlp.fc_layers.1.bias f4 [8]
000000 00 b4 8a 3b 03 cc c8 3d f3 95 ac bd 41 cd 64 3d
       0.0042328835 0.09804537 -0.08427038 0.055859808
000010 b4 65 10 3e 66 c1 f7 3d 8e 02 76 bd 97 f5 71 bd
       0.14101297 0.12097435 -0.06006103 -0.059072103

CNN_embedding_types.weight f4 [106, 16]
000000 53 31 14 3e f5 92 46 bf f1 cf fc be b2 de 73 3f
       0.1447194 -0.7756799 -0.49377397 0.9526168
000010 39 9b d0 be 02 8c 5a bc eb 74 e2 3f 05 a0 39 c0
       -0.40743425 -0.0133390445 1.769193 -2.9003918
000020 15 51 fc 3d 6c a1 5d bf e7 f5 08 bf 9c da 89 3f
       0.12320153 -0.86574435 -0.5350022 1.0769839
000030 ef 8e f8 3e ba 84 ca 3e 1c 5e 3c 3f 04 11 44 bf
       0.4854655 0.39554387 0.735811 -0.76588464
000040 46 1c 08 bd 67 94 f6 bf 6a 36 2a 3f 97 0b 3b bf
       -0.03323009 -1.9264039 0.6648928 -0.7306456
000050 46 69 ea 3e 44 19 27 bf 18 2d d4 3e 60 a8 81 be
       0.45783442 -0.6527293 0.41440654 -0.25323772
000060 ea 84 1e bd 1c 8b 67 bf 2f 79 ad bf dd b3 f2 3e
       -0.038700975 -0.9044664 -1.3552607 0.4740285
000070 ea d8 82 3f 99 83 da 3e dc 08 b9 be 0c 0d 02 be
       1.0222447 0.42678526 -0.36139572 -0.1270029
000080 64 bd 0e bf 45 8d d5 3f 49 d9 1f 3f 1e 70 bd be
       -0.5575774 1.6683737 0.62440926 -0.369996
000090 95 56 9e bc 5b 48 8b 3f 57 4e e1 3e a3 90 84 bf
       -0.019328395 1.0881456 0.4400508 -1.035664
0000a0 26 13 07 40 29 77 c6 bf 23 e7 88 bf c1 0f 16 3f
       2.1105437 -1.5505115 -1.0695537 0.5861779
0000b0 c4 8f 8b bd bd a1 e1 3d 88 13 02 bf 4a 34 a2 3f
       -0.068145305 0.11017177 -0.5081105 1.2672207
0000c0 95 3a 9b be 5d 25 1b bf 7e 64 9f be bc a0 8f 3d
       -0.30318132 -0.60603887 -0.31131357 0.070130795
0000d0 52 fe e7 be f4 d9 05 40 6f a9 9c bd a3 61 9f 3f
       -0.45311219 2.0914278 -0.076495044 1.2451671
0000e0 e5 8e ae bf 9f ee 44 bf da 21 aa 3e ae 21 92 3f
       -1.3637358 -0.76926607 0.33228952 1.1416528
0000f0 d6 b5 c3 3d ec 68 08 c0 e1 59 0c 3f 83 a2 6f 3f
       0.09556167 -2.131404 0.54824644 0.9360735
000100 a4 3f f4 3f 90 27 76 3f 19 9f 0d 3f 04 97 71 3f
       1.9081922 0.9615412 0.5532089 0.94371057
000110 0b d5 ae 3e f5 fe 13 bd 4d bb bf 3f 62 f2 46 bf
       0.34146914 -0.036131818 1.4979035 -0.77713597
000120 84 d1 48 3f 52 7e 3a bd 1d cc 26 be 7c 58 ab 3f
       0.78444695 -0.045530625 -0.162888 1.3386378
000130 21 b6 26 be cb 93 83 be c7 17 56 3d 93 f6 c7 be
       -0.16280414 -0.25698695 0.05226877 -0.3905531
000140 3b e2 6b 3e 18 9b 88 3e 4b 90 8c 3f 9d 96 9f bf
       0.23035519 0.26680827 1.0981535 -1.2467839
000150 9b 92 75 bf 5a 47 e7 bf 61 7b 3a 3c c8 e0 e1 bd
       -0.9592683 -1.806865 0.011381955 -0.11029202
000160 6f bd a0 bf 8c 85 22 3f 58 4d 9e 3e cd a2 36 40
       -1.255781 0.63485026 0.30918384 2.8536866
000170 44 72 9b bf 62 13 5b be 26 df 06 bf f1 fb 32 3e
       -1.2144246 -0.21394113 -0.5268425 0.1747892
000180 84 b8 04 3f 58 d5 c1 be ef db 66 be aa 67 c8 bf
       0.5184405 -0.3785808 -0.22544836 -1.5656636
000190 e5 71 f4 3e ac e3 87 bf 19 cc e3 3f 75 78 0c bf
       0.47743145 -1.0616355 1.7796661 -0.548713
0001a0 fe 86 ad 3e 68 37 47 3f 4e 46 f7 3b 63 71 15 bf
       0.33892053 0.7781892 0.007546223 -0.5837614
0001b0 74 51 6a bf 67 8b 57 bd 7a cf e4 3f 83 64 93 3f
       -0.9153054 -0.05262318 1.7875817 1.1515049
0001c0 f1 23 c7 3d 39 4b cc 3f bf a9 1a bf a8 74 b4 3f
       0.09723652 1.5960456 -0.6041526 1.4098101
0001d0 73 c5 f1 3d d3 3a 34 3f c7 95 09 bf 44 76 3c bf
       0.118052386 0.7040226 -0.5374417 -0.7361796
0001e0 17 0f 0c 3f 1d d8 f3 3f e3 e4 cf 3d e4 ea e6 3e
       0.54710525 1.9050328 0.101510786 0.45101082
0001f0 d9 01 cd 3e fa aa 7f bf cd 37 1b 3e da 77 21 bf
       0.40040472 -0.99870265 0.15158005 -0.63073504
000200 c8 88 36 40 03 4c f3 bd d2 10 c5 3e e5 eb 79 3f
       2.8520985 -0.118797325 0.38489395 0.9762557
000210 aa 02 ac bf f8 8a 55 bf bd 59 06 be ec 76 c2 bd
       -1.3438313 -0.83415174 -0.1312017 -0.09495339
000220 7d 43 38 be 3e 5a 8e bf ed 8a ea 3e ad ad 5f be
       -0.17994495 -1.112129 0.45809117 -0.21843596
000230 86 57 0e 3f 09 d7 df bd b1 b5 ff 3f d2 92 03 3e
       0.556023 -0.109296866 1.9977323 0.12848976
000240 f2 00 e0 3c 2a e4 1a 3e 16 48 54 bf 40 95 01 40
       0.0273442 0.151261 -0.82922494 2.0247345
000250 c2 86 79 3e 2a 23 9a 3d 2d 50 90 be b9 bb 9b 3d
       0.24367812 0.07526238 -0.2818617 0.07604165
000260 a6 73 d0 3e 61 8f 81 be 06 de cf 3e 49 80 45 3f
       0.40713233 -0.25304702 0.40599078 0.7714887
000270 ed e5 6c be 06 a6 8d bf 0a 10 94 3d f0 fc 5d bf
       -0.23134585 -1.1066291 0.07229622 -0.86714077
000280 87 c5 96 bf 34 da 0a 3f 45 92 4d be c9 95 18 bf
       -1.177903 0.542392 -0.20075329 -0.59603554
000290 f4 d2 eb 3e 36 ec 9d 3f 50 51 9e 3e fe 11 1b 3f
       0.46059382 1.2337711 0.30921412 0.6057433
0002a0 76 73 19 3f 20 07 9c be 7f 51 9d be 89 34 d2 3f
       0.59941804 -0.30474186 -0.3072624 1.6422282
0002b0 e1 8a 85 3f 04 e6 bd bf c4 b4 24 3f d2 ef e5 3f
       1.0433007 -1.483582 0.64338326 1.7963812
0002c0 8e 29 b3 3c 84 66 f3 bf 09 6c e5 bd be d3 ba 3e
       0.0218704 -1.901566 -0.11202247 0.3648967
0002d0 38 ff a6 bf 27 3a ca bc 1a 1c a7 bf f2 b2 68 be
       -1.3046637 -0.024685932 -1.3055451 -0.22724512
0002e0 3b c6 d9 bd 95 03 8c bf ec 47 92 be 3d 39 db 3f
       -0.106335126 -1.0938593 -0.28570497 1.7126843
0002f0 e4 bf a2 3f 83 c5 81 3f 2c 8a 3d bf 79 2a 84 3e
       1.271481 1.0138401 -0.7403896 0.25813654
000300 d0 92 67 bf 18 9f 13 40 e9 71 4b bf a3 e3 df 3f
       -0.90458393 2.3065853 -0.7947069 1.7491344
000310 ba 7c a6 bd 84 7c 3c be 6d 35 97 bf 6d 48 dd 3e
       -0.081292585 -0.18406874 -1.1813179 0.4321932
000320 e2 9a a3 3f 78 49 45 bf 58 81 dc 3f 3e 3e 62 be
       1.2781641 -0.7706523 1.7226973 -0.22094056
000330 f8 5f 5c 3f fe b0 e8 3f 5f 08 2f 3f 6e 50 85 be
       0.86083937 1.8179014 0.6837215 -0.26037925
000340 a8 f6 f4 3f ef 81 92 3f d3 48 b1 3f 18 62 93 bf
       1.9137774 1.1445903 1.3850349 -1.1514311
000350 23 71 02 3e 7b 3f 5d 3f 13 29 58 3f 46 88 cc bf
       0.1273847 0.8642499 0.84437674 -1.5979087
000360 6a a3 74 3f b9 68 b2 bf 9c 87 7e 3d 88 d4 82 bf
       0.9556185 -1.3938209 0.062141046 -1.0221109
000370 52 1b 0c bf bd 52 8c 3f 7e 9b fd 3d 90 07 cc 3e
       -0.5472919 1.096275 0.123831734 0.3984952
000380 6c 5c a8 3c a3 8a 89 bf 88 e1 88 3d e4 d6 2f 40
       0.020551883 -1.0745434 0.06683642 2.747491
000390 27 b3 56 40 46 1a db 3f 7d af ab bf bc 3b 4a be
       3.3546846 1.7117393 -1.341293 -0.1974935
0003a0 99 37 7a bf 3e 2d 48 3d c2 f5 59 bf b8 c3 19 bf
       -0.97741085 0.04887127 -0.8514062 -0.6006427
0003b0 6d 29 6c bf f2 b1 11 3e 76 b1 fe be 44 0f a5 be
       -0.9225071 0.14228037 -0.49744767 -0.3223821
0003c0 3f 9f ee bf db c8 db 3e b0 58 1d 3f ba 6d 3b 3e
       -1.8642348 0.42926678 0.6146345 0.18303576
0003d0 99 c3 ca 3d ec 41 0b bf 52 10 44 3f b6 ce b0 bf
       0.099005885 -0.54397464 0.765874 -1.3813083
0003e0 c5 48 85 3e ce ad 29 3f ae 5e 3a 3f 30 f0 15 3f
       0.2603208 0.6628083 0.7280072 0.5856962
0003f0 d4 02 74 3e 5b cb a9 3c 17 00 4f bf 50 8c 5b 3f
       0.23829204 0.02072685 -0.8085951 0.85760975

embedding_CNN_distances.weight f4 [7, 8]
000000 d7 2b 85 3f 9e 21 93 bf 5f 35 47 3e 70 f4 b8 3e
       1.0404004 -1.1494634 0.19453953 0.3612399
000010 f6 47 70 3f e4 7f 07 bf ff 0b 3c 3f ea 53 9e 3f
       0.93859804 -0.5292952 0.73455805 1.2369359
000020 84 6e 37 bf 02 1b 37 3f ba 5e 37 c0 6e 64 6e be
       -0.7165301 0.71525586 -2.8651567 -0.23280498
000030 7c 0d 81 bf ac 67 0d c0 58 a0 82 bf 05 3f 7f 3d
       -1.008224 -2.2094526 -1.0205183 0.06231596
000040 53 05 84 3e 3b 50 95 bf b9 17 02 3d dd dc c3 be
       0.25785312 -1.1665109 0.031760905 -0.38254443
000050 b6 89 9d 3f 76 27 63 3f c1 51 f5 3f 5b af cf 3e
       1.2307651 0.8873209 1.9165574 0.40563473
000060 2d 05 f3 bd 3e 86 be 3e 34 1e 0b 3f d5 30 e0 bf
       -0.118662216 0.37211794 0.5434296 -1.7514902
000070 69 0d 70 3f cb e1 45 bf 7d 12 d6 3e 02 61 01 bf
       0.9377046 -0.7729766 0.4181098 -0.5053865
000080 13 b6 8c bf 37 e8 30 be 11 f3 1e 3f 31 47 c6 3f
       -1.0993065 -0.17276083 0.6208964 1.5490476
000090 81 fd 0a 3e 59 6b 37 bf 13 47 6b 3e 3d 07 bb 3e
       0.13573267 -0.71648175 0.22976331 0.3652896
0000a0 30 6c bd 3d 34 eb d2 be e7 6c 51 be 29 48 ab 3f
       0.09249151 -0.4119507 -0.20451699 1.3381397
0000b0 75 8c bb 3e a6 c5 69 bf 36 1b 36 bf f2 c8 89 3f
       0.36630598 -0.9131721 -0.7113527 1.0764449
0000c0 00 00 00 00 00 00 00 00 00 00 00 00 00 00 00 00
       0.0 0.0 0.0 0.0
0000d0 00 00 00 00 00 00 00 00 00 00 00 00 00 00 00 00
       0.0 0.0 0.0 0.0

embedding_CNN_prices.weight f4 [6, 5]
000000 e1 cb f2 3f e2 2d b1 3f 5c e2 a2 bf 56 f8 dc bf
       1.8968469 1.3842127 -1.2725329 -1.7263286
000010 9e f2 80 bf 78 ea e3 be d1 78 8e 3f 06 e0 f8 3f
       -1.0074041 -0.44514823 1.113062 1.9443367
000020 98 02 b2 3e b6 77 7c be 83 63 0b 40 83 10 0f bf
       0.34767604 -0.24655041 2.1779487 -0.5588457
000030 76 8a cd bf 71 3e 34 bf fc ea 93 bf 40 76 99 bf
       -1.605788 -0.7040778 -1.1556087 -1.1989212
000040 34 bb eb 3f 78 7d a5 be fa 2a b5 bf b1 22 57 bf
       1.8416505 -0.32322288 -1.415374 -0.8403731
000050 3d fa 1d bf d0 63 a1 3e ae c8 1d 3d bc 0d 47 bf
       -0.6170996 0.31521463 0.03852146 -0.7775533
000060 8d 46 6d 3f 00 00 00 00 00 00 00 00 00 00 00 00
       0.92685777 0.0 0.0 0.0
000070 00 00 00 00 00 00 00 00
       0.0 0.0
