checkpoints/GNNNoCNN_Epoch150_valmse2.2745_testmse2.2494_ndcg0.9387.model (torch, 249600 bytes, 52 tensors)

Pair_embedding_types.weight f4 [106, 16]
0	0x3c8e715d	0.01738804
1	0xbdd38306	-0.10327725
2	0xbed3a715	-0.4133841
3	0xbf610f23	-0.8791372
4	0x3f60b3c9	0.8777433
5	0xbec24846	-0.37945765
6	0x3e09df50	0.13464093
7	0xbfac2f38	-1.345191
8	0x3e200029	0.15625061
9	0x3c2e5cbf	0.01064223
10	0xbfa1ab49	-1.2630397
11	0x3f0ad22e	0.5422696
12	0xbfcfa027	-1.622075
13	0x3ec0fb82	0.37691885
14	0x3ea65d41	0.32493022
15	0x3f3b558c	0.7317741
16	0x3ef41a35	0.47676244
17	0xbf94603e	-1.1591871
18	0x3ff32d72	1.8998244
19	0xbedb7680	-0.42863846
20	0xbe7b22a1	-0.24524929
21	0x3e50525c	0.20343918
22	0xbf119177	-0.56862587
23	0x3f310057	0.69141144
24	0xbf8515f2	-1.0397322
25	0x3c8515b7	0.016245706
26	0xbf026187	-0.50930065
27	0x4053d899	3.310095
28	0xbf459083	-0.7717363
29	0xbf192c80	-0.59833527
30	0xbf901734	-1.1257081
31	0x3f81b811	1.0134298
32	0x3fdb3455	1.7125345
33	0x4013c7e6	2.3090758
34	0xbf82fabd	-1.0232769
35	0x3e1d9f88	0.15392888
36	0x3f63374c	0.8875625
37	0xbfad198b	-1.352342
38	0xbf8fcc82	-1.1234286
39	0x3d8e0c3a	0.06935926
40	0x3f1e96bd	0.6194876
41	0x3dfa5ee8	0.12225133
42	0x3f865d17	1.0497159
43	0x3dcc5bf5	0.09978477
44	0xbf70b028	-0.94018793
45	0x3d7d1368	0.061786085
46	0x3f8dfef2	1.1093428
47	0xbe1dc08a	-0.15405479
48	0xbf29836a	-0.66216147
49	0x3f97ce07	1.185975
50	0xbed3ad18	-0.41342998
51	0xbf9317c0	-1.1491623
52	0xbfd8468b	-1.6896528
53	0x3f5cfb6d	0.86321145
54	0xbfff3b95	-1.9940058
55	0x3b80fabe	0.003936141
56	0xbc75fea8	-0.015014328
57	0x3f84b5e5	1.036801
58	0xbfa61cde	-1.297756
59	0x3fa38a12	1.2776511
60	0x3d95cae0	0.07314086
61	0x3f7a7da1	0.97847944
62	0x3f8cacf8	1.0990286
63	0x3c5b8462	0.013398262
64	0xbdb030de	-0.08603071
65	0x3e2ef012	0.17083767
66	0x3f539c57	0.8266043
67	0xbfd68c06	-1.6761482
68	0x400757c9	2.114733
69	0xbf89478b	-1.0724958
70	0x3e107aea	0.14109388
71	0xbfaa7c8b	-1.3319257
72	0xbec43a2c	-0.38325632
73	0x3e209dfb	0.15685265
74	0x3e2d9279	0.16950406
75	0x3f592bce	0.84832466
76	0x3ec6fe5f	0.38865945
77	0xbde9ae2a	-0.11410172
78	0x3e50da0f	0.20395683
79	0x3e650823	0.22366385
80	0xbe5c0556	-0.2148641
81	0x3e161b12	0.14658764
82	0x3e8306a4	0.25591004
83	0x3f8cc800	1.0998535
84	0xbec7c63a	-0.39018422
85	0xbf972edc	-1.1811175
86	0xbe131cb1	-0.14366414
87	0xbebc5317	-0.36782143
88	0x3f2fd61c	0.6868608
89	0x3fc38029	1.5273486
90	0xbf3dcd66	-0.7414154
91	0xbf525aa8	-0.8216958
92	0xbf5e1b67	-0.8676056
93	0x3f1450fd	0.5793608
94	0x3f67b3c9	0.90508705
95	0x3fbebb9d	1.4901005
96	0xbfb2c193	-1.3965324
97	0x3e0e5e36	0.13903126
98	0x3fe6086f	1.7971324
99	0x3e25d6c4	0.16195208
100	0x3f322c10	0.69598484
101	0x3e290e06	0.16509256
102	0xbf77a2c8	-0.9673276
103	0x4009373d	2.1439965
104	0xbf88cf28	-1.0688219
105	0x3fa29a3d	1.270332
106	0x3e252122	0.1612592
107	0xbf799689	-0.97495323
108	0xbeeb214a	-0.45923835
109	0x3e9ba5c0	0.30399895
110	0xbee962c5	-0.45583168
111	0x3d105d57	0.035245266
112	0x3f30cbc0	0.690609
113	0x3fc5321d	1.5405918
114	0x3e75753e	0.23970506
115	0xbed35dd5	-0.41282526
116	0xbf3f7d8b	-0.7480094
117	0x3e547edd	0.2075152
118	0xbea57408	-0.32315087
119	0xbe4b8d58	-0.19878137
120	0x3f9042d4	1.1270394
121	0xc027de9d	-2.6229622
122	0x3e9f2ccd	0.31088868
123	0xbe97a28e	-0.29616207
124	0xbdd4c05c	-0.10388252
125	0xbfba6490	-1.4561939
126	0xbdca8034	-0.09887734
127	0x3d35bd21	0.04436982
128	0x3eb86a37	0.36018535
129	0x3fcdd631	1.6080991
130	0x3ed01cda	0.40647012
131	0x3f59ec79	0.85126454
132	0xbe8f6c74	-0.2801243
133	0x3f9160b8	1.1357641
134	0xbf9909e0	-1.1956139
135	0x3f2b93c8	0.6702237
136	0x3e87bb64	0.26510155
137	0xbf7a1c8a	-0.976998
138	0x3fbaf423	1.4605755
139	0xbefcd236	-0.49379128
140	0xbdabb820	-0.083847284
141	0x3fab0e5a	1.3363755
142	0xbc51494d	-0.012773824
143	0x3eb4b76f	0.352962
144	0x3f78733c	0.97050834
145	0x3e1a181a	0.15048257
146	0x3ebf2d16	0.37339085
147	0xbf888784	-1.0666356
148	0xbec8fa7b	-0.392536
149	0x3f77f82b	0.9686305
150	0x3eef8c3e	0.46786684
151	0xbf1c3d26	-0.61030805
152	0x3f1f23b9	0.62163883
153	0xbd44f0cb	-0.0480812
154	0x400e4335	2.222852
155	0x3fbf9d3a	1.4969857
156	0x3fbc0586	1.4689186
157	0x3df199db	0.11796924
158	0x3eda47b7	0.4263284
159	0xbe819096	-0.25305623
160	0xbdae5323	-0.08511951
161	0xbde1b862	-0.11021496
162	0x3e4c0061	0.1992202
163	0x3e9891fe	0.29798883
164	0xbf8a63e0	-1.081173
165	0xbf384d50	-0.7199297
166	0x3f9482bc	1.1602397
167	0x3f80ffec	1.0078101
168	0xbfbaeaba	-1.4602883
169	0x3f4b3a14	0.79385495
170	0xbe4a8a22	-0.19779256
171	0x3fabc681	1.3419954
172	0x3fb538d4	1.4157968
173	0x3da7ca48	0.08192879
174	0x3eb5f740	0.355402
175	0x3ec063ca	0.37576133
176	0xbf9af3c0	-1.2105637
177	0xbf22e140	-0.63624954
178	0xbde91e3c	-0.1138272
179	0x3f66a4dc	0.90095305
180	0xbe7d5222	-0.24738362
181	0xbfa0f41c	-1.2574496
182	0x3f484744	0.7823374
183	0x3f279d3b	0.6547429
184	0x3ea9433e	0.33059114
185	0x3f51eec1	0.82004935
186	0x3ffd4d27	1.978917
187	0x3e47b48c	0.19502467
188	0x3d27b2c6	0.040941976
189	0x3fbd8bb0	1.4808254
190	0xbe8c8545	-0.27445427
191	0x3e7d86f5	0.24758513
192	0x3ecc6255	0.3991877
193	0xbfd457e6	-1.6589324
194	0x3e52ccc0	0.20585918
195	0xbe7ebc9b	-0.24876635
196	0x3fdcad0c	1.724031
197	0xbf91b45c	-1.1383166
198	0x3f027020	0.5095234
199	0x3fc3f89e	1.5310247
200	0xbe06324b	-0.13105123
201	0xbfc65beb	-1.5496801
202	0xbf468e79	-0.77561146
203	0x3f04ed65	0.51924735
204	0x3f60ed50	0.8786211
205	0x3e6b20ec	0.22961777
206	0x3dd925af	0.10602891
207	0x3ea57ffb	0.32324204
208	0xbf37f7ef	-0.7186269
209	0x3fd48a5f	1.6604728
210	0xbee6c9df	-0.4507589
211	0x400cfe90	2.2030373
212	0x3fa5a65f	1.2941397
213	0x3ee1cba7	0.44100687
214	0xbfa407e8	-1.2814913
215	0x3eac054e	0.33597797
216	0xbed663e2	-0.4187308
217	0x3e3f5ce1	0.18687774
218	0xbf1cde20	-0.61276436
219	0x3f110fdc	0.56664824
220	0xbfa23da3	-1.267506
221	0x404fe71a	3.2484803
222	0x4001b360	2.0265732
223	0xc006dbcc	-2.1071653
224	0xbf61468f	-0.8799829
225	0xbe225b60	-0.1585517
226	0xc013dfca	-2.310534
227	0x3fae2e1a	1.3607819
228	0xbf80b990	-1.0056629
229	0xbeb1e944	-0.3474828
230	0x3ee0cf6b	0.43908247
231	0xbf7c3fe8	-0.98535013
232	0xbedd2844	-0.43194783
233	0xbf3372ca	-0.7009703
234	0xbf4bc038	-0.7959018
235	0x3eb266e9	0.3484414
236	0xbfaa972d	-1.3327385
237	0xbf656447	-0.89606136
238	0xbecfad30	-0.4056182
239	0xbfbf2cca	-1.4935544
240	0xbf8a5e84	-1.0810094
241	0x3eebd74d	0.460627
242	0xbfce2eca	-1.6108029
243	0x3cf89663	0.030345147
244	0x3ed3cd14	0.413674
245	0x3fbac573	1.4591507
246	0x3f670f33	0.9025757
247	0xbfac0116	-1.3437831
248	0x3f6e4b6f	0.9308385
249	0xbf96614e	-1.1748445
250	0xbeaff264	-0.34364617
251	0xbe7d1e18	-0.24718511
252	0x3fda64cf	1.7062014
253	0xbf007488	-0.5017781
254	0xc001c5d2	-2.027699
255	0x3e37bbf0	0.17942786

embedding_Pair_distances.weight f4 [7, 8]
0	0x3f02cc25	0.5109275
1	0xbf55b298	-0.8347564
2	0x3f729230	0.94754314
3	0x403f7183	2.9913032
4	0x3f3240c3	0.6963007
5	0x3fb5a272	1.4190199
6	0xbebe9be7	-0.3722832
7	0x3ea4134e	0.32045978
8	0x40015895	2.0210316
9	0x400e23f8	2.2209454
10	0x3f5156b1	0.81772906
11	0xbdb235ab	-0.087016426
12	0x3fbe089b	1.4846376
13	0xbf74d60d	-0.95639116
14	0x3fcca895	1.5988947
15	0x4024b835	2.573743
16	0xbf3e8149	-0.74416023
17	0xbf63dc34	-0.8900788
18	0xbf82d964	-1.0222592
19	0xbdcebabd	-0.10094211
20	0xbfb4aabf	-1.4114608
21	0xbf052560	-0.52010155
22	0x3e0095f0	0.12557197
23	0xbfccd7b5	-1.6003329
24	0xbec13bc8	-0.37740922
25	0x3ec86c7b	0.39145264
26	0xbff351fb	-1.9009393
27	0xbe1c8ae2	-0.15287355
28	0xc008592d	-2.1304429
29	0xbff88b49	-1.9417506
30	0xbf7c75a5	-0.9861701
31	0xbef10988	-0.47077584
32	0x3f85175c	1.0397754
33	0x3fa012ef	1.2505778
34	0xbec11aaa	-0.37715656
35	0xc008a276	-2.1349158
36	0xbfa7a016	-1.3095729
37	0xbddf5f52	-0.10906853
38	0xbf25e135	-0.64796764
39	0xbf908775	-1.1291338
40	0xbda0a42d	-0.07843814
41	0x3ed68a95	0.41902605
42	0xbf0cefac	-0.5505321
43	0x3e1b600a	0.15173355
44	0xbfb021fb	-1.376037
45	0xbf4f1cba	-0.8090321
46	0xbfd798ee	-1.6843545
47	0xbf1509b0	-0.58217907
48	0x00000000	0.0
49	0x00000000	0.0
50	0x00000000	0.0
51	0x00000000	0.0
52	0x00000000	0.0
53	0x00000000	0.0
54	0x00000000	0.0
55	0x00000000	0.0

embedding_Pair_prices.weight f4 [6, 5]
0	0x3e245347	0.16047393
1	0x3f05b073	0.52222365
2	0x3efcd629	0.4938214
3	0xbebfc885	-0.37457672
4	0x3f9d8d36	1.2308719
5	0x3f4c9c54	0.7992604
6	0xbdbc8f6b	-0.09207042
7	0x3f523f27	0.8212761
8	0x3f58126f	0.8440313
9	0x3f378cfd	0.71699506
10	0xbe0eb3cd	-0.13935776
11	0xbf1a9939	-0.6039005
12	0xbf2342a0	-0.63773537
13	0x400b671c	2.1781683
14	0xbf4e977f	-0.80699915
15	0xbf9fecb4	-1.2494111
16	0xc002bb02	-2.042664
17	0xbefc6419	-0.49295118
18	0x3e3d11cb	0.18463819
19	0x40034898	2.0513058
20	0xbd93975e	-0.072066054
21	0xbfbab8b2	-1.4587615
22	0xbe015891	-0.12631442
23	0x3f87f21f	1.0620764
24	0xbdb1462c	-0.08655962
25	0x00000000	0.0
26	0x00000000	0.0
27	0x00000000	0.0
28	0x00000000	0.0
29	0x00000000	0.0

Pair_shop_mlp.fc_layers.0.weight f4 [64, 32]
0	0x3ce45d7b	0.027876606
1	0xbdb9909d	-0.09060786
2	0x3e2c0869	0.16800083
3	0x3e65c8f6	0.22439942
4	0xbe827f9e	-0.2548799
5	0x3d5b8b93	0.053599905
6	0x3de3b294	0.111180454
7	0xbe0f16ba	-0.13973513
8	0x3d286c4b	0.0411189
9	0x3e6e9977	0.2330073
10	0xbe299292	-0.16559818
11	0x3cf20730	0.029544443
12	0xbdc9c460	-0.09851909
13	0xbe5f29be	-0.21793267
14	0x3da3418f	0.07971489
15	0x3d59cef7	0.053175893
16	0x3dfd4274	0.123661906
17	0x3cb151d8	0.021645471
18	0x3c61d776	0.01378428
19	0x3daf7e96	0.08569066
20	0x3cfbec82	0.030752424
21	0x3dcaaa3a	0.098957494
22	0x3cd3612f	0.025803177
23	0x3e830146	0.2558691
24	0xbe00db91	-0.12583758
25	0xba047202	-0.0005052389
26	0xbd1138cd	-0.03545456
27	0x3e14f380	0.14546013
28	0x3d35b354	0.044360474
29	0x3d817a2e	0.06322132
30	0xbdf05594	-0.11735073
31	0xbe844a46	-0.25837916
32	0xbe676a26	-0.22599086
33	0x3dcdf766	0.10056953
34	0xbdf01d81	-0.117243774
35	0x3e27d9d1	0.16391684
36	0x3ddac2d2	0.1068169
37	0x3eaf8cf5	0.3428723
38	0x3eab0328	0.33400846
39	0xbe1e4476	-0.15455803
40	0xbe0391c7	-0.12848578
41	0xbd97d374	-0.07413378
42	0xbde2bd10	-0.11071217
43	0xbcab5645	-0.02091516
44	0x3d10ac22	0.03532041
45	0xbd9559e9	-0.072925396
46	0xbce56103	-0.02800036
47	0x3e862809	0.2620242
48	0x3ce51d1d	0.027967984
49	0xbe300286	-0.17188463
50	0x3bd17b92	0.0063929046
51	0x3e4fcdc4	0.20293337
52	0x3d4deca1	0.050274495
53	0xbde0239d	-0.10944293
54	0xbce9c3b8	-0.028535709
55	0x3de4bcfb	0.11168858
56	0xbdc8ebe1	-0.09810615
57	0x3db775ae	0.089579925
58	0xbd190f06	-0.037367843
59	0xbe0a8905	-0.13528831
60	0x3df2af55	0.11849848
61	0xbd9cd410	-0.07657635
62	0x3e3904f6	0.18068299
63	0x3d535dd1	0.051603142
64	0x3dca20ec	0.098695606
65	0x3b8fd14f	0.004388965
66	0x3bf559a3	0.007487492
67	0xbd56b8e1	-0.052422408
68	0x3e301baa	0.17198053
69	0x3df5e8d3	0.12007298
70	0x3d99342c	0.07480654
71	0x3e30a597	0.17250668
72	0x3e9d3f85	0.30712524
73	0xbe8e0800	-0.2774048
74	0xbdc34f83	-0.0953665
75	0x3dfe1f94	0.12408367
76	0xbdb40bd3	-0.08791318
77	0xbe03a3dc	-0.12855476
78	0xbd05a4ff	-0.032628056
79	0x3e0f3577	0.13985239
80	0xbddd35e6	-0.10801296
81	0xbe1596c5	-0.14608295
82	0x3e38949f	0.18025444
83	0x3e355b70	0.17710662
84	0xbda60b92	-0.081076756
85	0x3e130b0f	0.14359687
86	0xbd5cd196	-0.053910814
87	0x3ce8351f	0.028345643
88	0xbda318de	-0.079637274
89	0x3dbe6da4	0.09298256
90	0x3d1183ff	0.035526272
91	0xbdfcc153	-0.12341561
92	0x3d127b00	0.035761833
93	0xbddefa48	-0.10887581
94	0x3db6193d	0.088915326
95	0x3d82fbc4	0.06395677
96	0xbe07fb8f	-0.13279556
97	0xbde72b21	-0.11287523
98	0xbd691323	-0.056903016
99	0xbb518225	-0.0031968441
100	0x3d1b4aec	0.037913248
101	0x3e553c9a	0.20823899
102	0x3e600491	0.21876742
103	0xbd557232	-0.05211086
104	0x3cd3438b	0.025789043
105	0x3ea4ca9d	0.32185832
106	0xbe14a056	-0.14514288
107	0x3d8e8e67	0.06960755
108	0x3df8fdee	0.12157808
109	0x3e8108a7	0.25201914
110	0xbe899e07	-0.26878378
111	0x3e266548	0.16249573
112	0xbd35d9cf	-0.04439717
113	0x3e1426c6	0.14467916
114	0xbe107b1c	-0.14109462
115	0xbdbf7fcb	-0.093505464
116	0x3e0aaa87	0.13541614
117	0xbd2eb28d	-0.042650748
118	0xb8f9dd74	-0.00011914494
119	0x3e1871ae	0.14887115
120	0x3e2681fc	0.16260523
121	0x3da7075d	0.08155701
122	0x3dfbae46	0.122890994
123	0x3d840f11	0.06448186
124	0xbe577b5b	-0.2104315
125	0xbd16e6f4	-0.036841348
126	0xbe06e3fd	-0.13172908
127	0xbe020a96	-0.1269935
128	0x3d19a12b	0.037507217
129	0x3d9979e7	0.07493954
130	0x3d0e6d3b	0.03477214
131	0x3e1e0f10	0.15435433
132	0x3ca68180	0.020325422
133	0xbe30b6a8	-0.17257178
134	0x3d48b8e0	0.049004436
135	0xbddd408e	-0.108033285
136	0xbd995dc3	-0.07488587
137	0xbdd7c413	-0.10535445
138	0x3d567bb9	0.052364085
139	0xbd6b0258	-0.057375282
140	0xbc678e87	-0.014133102
141	0xbe053f70	-0.1301248
142	0xbd329e95	-0.043608267
143	0x3db17c8f	0.08666336
144	0xbe014834	-0.126252
145	0xbde8ba93	-0.11363711
146	0xbcbfcfe1	-0.023414554
147	0xbc48c95c	-0.012255039
148	0x3e09a8e9	0.1344334
149	0x3d7270af	0.059189495
150	0xbe127759	-0.1430334
151	0x3d65cb21	0.056101922
152	0xbe325b0a	-0.17417541
153	0xbde6345b	-0.11240455
154	0xbdbd33d5	-0.09238402
155	0xbdb332d8	-0.08749932
156	0x3cd0f747	0.025508536
157	0xbe19b61f	-0.1501088
158	0x3d82ea7c	0.063923806
159	0xbe089831	-0.13339306
160	0x3d24de9a	0.040251352
161	0x3d90f7d0	0.070785165
162	0xbd7d2841	-0.061805967
163	0x3b37bed8	0.0028037336
164	0xbc2b35d0	-0.010449842
165	0x3e04c9ca	0.12967601
166	0x3e4477fb	0.19186394
167	0x3da5e931	0.08101118
168	0xbe4f6faa	-0.2025744
169	0xbe5355b6	-0.20638165
170	0xbac8d113	-0.0015321098
171	0xbe034b25	-0.12821634
172	0x3d62e74a	0.055396356
173	0xbe4ca6cf	-0.19985507
174	0xbe199fb4	-0.15002328
175	0x3b2d5028	0.0026445482
176	0xbbd36ed3	-0.0064524203
177	0x3e31b4f9	0.17354192
178	0xbe14ae9f	-0.14519738
179	0x3dd7ab99	0.105307765
180	0xbdd002b7	-0.10156768
181	0x3e056c4d	0.13029595
182	0x3dec0bef	0.11525714
183	0xbe1090de	-0.14117762
184	0x3e3505fb	0.17678063
185	0x3e33df5c	0.17565674
186	0x3cf25c40	0.029585004
187	0xbd63cb66	-0.055613898
188	0xbe01b5a0	-0.1266694
189	0x3dffab4a	0.12483843
190	0x3cc768e1	0.024342002
191	0xbe44c6b2	-0.19216421
192	0x3db1358b	0.08652791
193	0xbe36e474	-0.17860585
194	0xbde1b785	-0.11021332
195	0x3c026049	0.0079575265
196	0xbb9e317f	-0.0048276777
197	0xbe45e4da	-0.19325581
198	0xbda7aa04	-0.08186725
199	0xbe1773a9	-0.14790215
200	0x3c000785	0.007814293
201	0xbe672dc9	-0.2257606
202	0xbda45946	-0.0802484
203	0xbe0b00e8	-0.13574564
204	0x3afad185	0.0019135928
205	0x3c3d3ed5	0.011550625
206	0xbcae18ae	-0.021252003
207	0x3dca573a	0.098799184
208	0xba86f734	-0.0010297061
209	0x3de8fd5f	0.11376452
210	0xbcbbbe45	-0.022917876
211	0x3e041c08	0.12901318
212	0x3d876ad8	0.06612176
213	0xbdd79196	-0.10525815
214	0xbd6a89a4	-0.05726017
215	0xbd0eb260	-0.03483808
216	0x3e3aa4ca	0.18226925
217	0x3c9b8b2b	0.018987259
218	0x3e06ca28	0.13163054
219	0xbe3c90dc	-0.18414634
220	0xbe3d353e	-0.18477342
221	0xbcf24383	-0.029573208
222	0x3d8b726c	0.068089336
223	0xbd9a3d9a	-0.07531281
224	0xbd584590	-0.052800715
225	0xbdd0b1ea	-0.101901844
226	0xbd68b572	-0.056813665
227	0x3cb0a665	0.021563718
228	0x3e07e47d	0.13270755
229	0x3d1aa1de	0.037752025
230	0x3df60d53	0.1201426
231	0x3df1d893	0.118088864
232	0xbe028f4f	-0.1274998
233	0x3ce7057a	0.028200854
234	0x3d5715c2	0.052510984
235	0xbd20f84b	-0.03929929
236	0x3e4e6bf6	0.20158371
237	0x3e5ba47c	0.21449465
238	0x3c504402	0.012711527
239	0x3dfc71a6	0.12326364
240	0xbe1f9e6f	-0.15587781
241	0xbc64b0c8	-0.013958164
242	0xbd55f3ea	-0.052234568
243	0xbe3980b5	-0.18115504
244	0xbdc6bb69	-0.097037144
245	0x3d74a4db	0.05972753
246	0xbe16b62c	-0.1471793
247	0xbe206c91	-0.15666415
248	0x3dc07565	0.09397391
249	0x3dc3c62b	0.09559282
250	0x3e8e68a9	0.27814224
251	0x3e032625	0.1280752
252	0x3d8885d8	0.06666154
253	0x3d463a13	0.048395228
254	0xbc49deb2	-0.012321161
255	0x3d60cabb	0.05488084

Pair_shop_mlp.fc_layers.0.bias f4 [64]
0	0x3e4c069d	0.19924398
1	0xbc74f6fc	-0.014951464
2	0xbde292e0	-0.110631704
3	0xbdad4cbe	-0.08461903
4	0xbdc289dc	-0.09498951
5	0xbcb5cdbb	-0.022192826
6	0x3dc1ca99	0.094624706
7	0xbdb050b2	-0.086091414
8	0xbde866a2	-0.11347701
9	0x3dba808b	0.09106549
10	0x3dc124a6	0.09430818
11	0x3e1d7eb2	0.15380362
12	0xbdce815a	-0.100832656
13	0x3dc98696	0.09840123
14	0x3dc64d79	0.096827455
15	0xbd59c220	-0.053163648
16	0xbdeaac4b	-0.114586435
17	0xbdb6d660	-0.089276075
18	0xbd93abf4	-0.07210532
19	0x3d9de4af	0.077096336
20	0x3e35a4f6	0.17738709
21	0x3e1617e8	0.14657557
22	0xbdcc2923	-0.09968784
23	0xbd62aed8	-0.055342525
24	0xbd6b8b6f	-0.05750602
25	0xbdc7345a	-0.09726782
26	0xbc1cf1d2	-0.009579139
27	0x3ced6439	0.028978454
28	0xbe36478e	-0.17800733
29	0x3dd2921e	0.10281776
30	0x3d9ad0fa	0.0755939
31	0x3cfb89d1	0.030705364
32	0x3d4995cd	0.049215127
33	0x3d3ffdf4	0.046873048
34	0xbd16b851	-0.03679687
35	0xbd6f0451	-0.058353726
36	0xbcb1b1d6	-0.021691244
37	0x3dac34af	0.08408486
38	0xbd8434bc	-0.06455371
39	0x3dd390d8	0.10330361
40	0xbd291209	-0.041276965
41	0x3d0e29e4	0.03470792
42	0x3d979f24	0.074034005
43	0x3e29ebc7	0.16593848
44	0x3dbd0b8b	0.09230717
45	0xbd3d247a	-0.046177365
46	0x3e43f456	0.19136176
47	0xbd64ba96	-0.055842005
48	0xbdc045ae	-0.0938829
49	0xbd88248c	-0.06647596
50	0xbcd14dce	-0.025549795
51	0x3db45ba4	0.088065416
52	0x3e0bb9f4	0.13645154
53	0x3d8f9434	0.070106894
54	0xbdec6fd6	-0.115447685
55	0xbd935d20	-0.071954966
56	0x3cd5dcc8	0.026106253
57	0xbe0d1e72	-0.13781145
58	0x3d068483	0.032841217
59	0x3e3c4d21	0.18388797
60	0xbdeb2f7e	-0.11483668
61	0x3d897d4d	0.06713352
62	0xbe1f41aa	-0.15552393
63	0xbd64c57d	-0.055852402

Pair_shop_mlp.fc_layers.1.weight f4 [16, 64]
0	0xbeb755bf	-0.35807607
1	0xbd719a48	-0.058985025
2	0x3ca0b83b	0.019619098
3	0x3da6c9b3	0.0814394
4	0x3d4f526c	0.050615713
5	0xbc768998	-0.015047453
6	0x3dd819f5	0.10551826
7	0xbdb40cb0	-0.087914824
8	0xbd24f024	-0.04026808
9	0xbcd480fe	-0.025940415
10	0xbc19b70d	-0.009382022
11	0x3dce3c60	0.10070109
12	0xbda43bc2	-0.080192104
13	0xbd9186e9	-0.0710581
14	0xbe369359	-0.17829646
15	0x3e108c3c	0.14115995
16	0x3dc84f4a	0.09780748
17	0x3e0f75b4	0.14009744
18	0xbd5bc273	-0.053652238
19	0xbc10d4db	-0.008839811
20	0x3e116206	0.14197549
21	0xbcf433a9	-0.02980979
22	0x3dcba301	0.099432
23	0x3d2cdb7e	0.04220151
24	0x3c889f78	0.016677603
25	0x3dbb7a14	0.09154144
26	0xbe559845	-0.20858867
27	0x3e34973b	0.17635815
28	0x3e495c3f	0.19664095
29	0x3db3436b	0.08753093
30	0xbdeda8d6	-0.116044685
31	0xbd820c84	-0.063500434
32	0x3e42f7b9	0.19039811
33	0xbdd60642	-0.10450412
34	0x3dfaf7eb	0.12254318
35	0x3c6a1648	0.014287539
36	0x3e180ded	0.14849062
37	0x3e5bad6c	0.21452874
38	0x3d5932c9	0.053026948
39	0x3d0b20a5	0.03396668
40	0x3d69229f	0.056917783
41	0x3d8e27ea	0.06941207
42	0x3d4993ed	0.04921334
43	0xbd9945af	-0.07483994
44	0xbe2cc269	-0.16871037
45	0xbd0ef29f	-0.03489935
46	0x3cfc9dd1	0.030836971
47	0x3de419fa	0.11137767
48	0x3e1cb092	0.15301731
49	0x3ddb8c8c	0.107201666
50	0x3e34d05a	0.17657605
51	0xbdb46425	-0.088081636
52	0x3e916773	0.28399238
53	0x3dc77255	0.09738604
54	0xbe08bbe4	-0.13352925
55	0xbd5eb069	-0.054367457
56	0x3de9c2da	0.11414118
57	0xbdbf3edd	-0.09338162
58	0x3e6f7ddf	0.2338786
59	0x3c9dc4bc	0.01925885
60	0x3ba28a0e	0.004960305
61	0xbd06ebc2	-0.03293968
62	0x3e43282e	0.19058296
63	0xbc88b24a	-0.016686577
64	0x3e405dac	0.18785733
65	0x3bb12cf3	0.0054069697
66	0x3ba6d987	0.0050918492
67	0x3e085cd9	0.13316669
68	0xbd383a2c	-0.044977352
69	0x3db8462a	0.08997758
70	0x3deba082	0.11505224
71	0xbdc2b238	-0.09506649
72	0x3d75cc06	0.060009025
73	0x3d069f21	0.0328666
74	0x3db7d2e1	0.08975769
75	0x3de8ea4c	0.113728136
76	0x3da9ed6a	0.08297236
77	0x3d94b344	0.07260755
78	0xbcc2f058	-0.023796245
79	0x3e015460	0.12629843
80	0x3d2f9755	0.04286893
81	0xbd98feab	-0.07470449
82	0x3e3dfcc5	0.18553455
83	0xbd7a7a6d	-0.06115191
84	0x3c0ebd3a	0.008712107
85	0xbd9da93f	-0.07698297
86	0x3db87ffd	0.09008787
87	0xbdb80e7d	-0.089871384
88	0x3d33eb63	0.043925654
89	0x3cc44da6	0.023962807
90	0xbdcc7716	-0.09983651
91	0x3c7eebca	0.015559146
92	0xbe2a15d7	-0.16609894
93	0x3d9c3930	0.07628095
94	0x3c5b0f79	0.013370388
95	0x3dad5eec	0.084653705
96	0xbc9c8426	-0.019105982
97	0xbd698358	-0.057010025
98	0xbe00a9fc	-0.12564844
99	0x3d687d45	0.05676009
100	0xbcccccfd	-0.02500009
101	0xbd9acb08	-0.075582564
102	0xbd8e5322	-0.0694945
103	0x3d99f298	0.07516974
104	0xbdafc48d	-0.08582411
105	0x3d0a32ab	0.033739727
106	0x3df500f4	0.119630724
107	0x3e1ef033	0.15521316
108	0xbcd11276	-0.025521498
109	0xbc8d6dc0	-0.017264247
110	0x3dff66a8	0.12470752
111	0xbaf8af26	-0.0018973097
112	0xbe73007c	-0.23730654
113	0xbe21ba04	-0.15793616
114	0x3d0f4e2c	0.03498666
115	0x3c82f91f	0.01598793
116	0xbe228aea	-0.15873304
117	0xbdbbb8b3	-0.09166088
118	0x3d826099	0.06366081
119	0xbd9862e3	-0.07440736
120	0xbb7599ce	-0.0037475708
121	0x3d3f3b39	0.04668734
122	0xbdfeda1d	-0.124439456
123	0x3e070fc0	0.13189602
124	0x3df22da5	0.11825112
125	0xbdea1326	-0.114294335
126	0xbe1fdc55	-0.15611394
127	0x3d9d1126	0.076692864
128	0x3ec0f1f1	0.37684587
129	0x3de1ab7e	0.11019038
130	0x3d8dd674	0.06925669
131	0xbb4c3659	-0.0031160323
132	0xbde62464	-0.1123741
133	0x3d40bb69	0.04705373
134	0xbc4a0d35	-0.01233225
135	0xbd9d3bb6	-0.076774046
136	0x3d8002b1	0.06250513
137	0x3df983fb	0.121833764
138	0x3c99d70b	0.018779298
139	0xbcc49d3c	-0.024000756
140	0xbd432e84	-0.047651783
141	0x3cbd7bdb	0.023130348
142	0x3cc389ed	0.02386948
143	0xbd909e8f	-0.07061493
144	0xbcd1514b	-0.025551459
145	0x3cf84442	0.030305985
146	0x3dfc0717	0.1230604
147	0x3e023d1b	0.12718622
148	0x3d58189d	0.052757848
149	0x399aa125	0.0002949323
150	0xbd66cbe2	-0.05634678
151	0x3d999037	0.0749821
152	0xbc9d3072	-0.01918814
153	0xbd80a388	-0.06281191
154	0x3e8ef77d	0.27923194
155	0xbd2f5bf2	-0.042812295
156	0xbdb410d8	-0.08792275
157	0x3e37ab41	0.17936422
158	0x3e67520b	0.2258989
159	0xbdeac79c	-0.11463854
160	0x3d621966	0.055200003
161	0x3cb200b0	0.021728843
162	0xbd925c1c	-0.07146475
163	0xbd27b1f1	-0.040941183
164	0xbcb9e6bf	-0.022693036
165	0xbdca17c2	-0.09867813
166	0x3e36b312	0.17841747
167	0x3db40d6e	0.08791624
168	0x3db88a65	0.09010772
169	0xbca628ae	-0.02028307
170	0x3c08c775	0.0083483355
171	0x3bf9014a	0.0075990306
172	0x3e23f752	0.16012314
173	0x3d21a0ac	0.03945987
174	0x3d38e113	0.045136523
175	0xbde1a336	-0.11017458
176	0xbe8f34a2	-0.27969843
177	0x3d41a1b2	0.047273345
178	0xbe334806	-0.17507944
179	0x3de259be	0.11052273
180	0xbeae420a	-0.3403476
181	0x3de3467e	0.1109743
182	0x3d31f3c7	0.043445375
183	0x3dd45d85	0.103694
184	0x3bdc1d31	0.006717347
185	0xbd1f1ee3	-0.038847815
186	0x3d0ee175	0.03488298
187	0xbc96c7f2	-0.018405888
188	0x3dad1cb2	0.08452739
189	0x3e04c440	0.12965488
190	0xbe4848c8	-0.19559014
191	0x3defc335	0.11707155
192	0x3ea1e4f1	0.3161998
193	0x3d974cd3	0.073877
194	0xbc605ec5	-0.01369447
195	0xbde8b991	-0.11363519
196	0x3d3da678	0.046301335
197	0xbd0807fe	-0.033210747
198	0x3de19bb3	0.110160254
199	0x3dea4360	0.11438632
200	0x3ddc3c92	0.1075374
201	0x3e47c13a	0.19507304
202	0x3e13cfd5	0.1443475
203	0x3cb28e55	0.021796385
204	0x3d005e76	0.031340085
205	0xbda04249	-0.07825143
206	0xba95cec4	-0.0011429419
207	0xbdb83adc	-0.089956015
208	0x3da4e399	0.08051223
209	0xbd3ff906	-0.046868347
210	0x3d99d7c7	0.075118594
211	0x3cb9cad9	0.022679733
212	0xbd1f4eff	-0.038893696
213	0x3dd490f8	0.10379213
214	0x3df801dd	0.121097304
215	0x3dde6e8a	0.108609274
216	0x3e211791	0.15731646
217	0xbe315964	-0.17319256
218	0x3e91f54a	0.28507453
219	0x3dc48213	0.09595122
220	0xbdb3365b	-0.08750602
221	0x3ddcc9dc	0.10780689
222	0x3e6ffe09	0.2343675
223	0x3e0c7fd1	0.13720633
224	0x3dec14b9	0.1152739
225	0x3cd4e12b	0.025986275
226	0x3ce69177	0.028145535
227	0xbd61e40a	-0.055149116
228	0xbe201a49	-0.15635027
229	0xbd73468e	-0.059393458
230	0xbdb1beed	-0.08678994
231	0xbc903efe	-0.017608162
232	0xbc967c48	-0.018369809
233	0x3d93c51c	0.0721533
234	0x3da09861	0.07841564
235	0x3be555f1	0.0069987704
236	0x3d8210b9	0.06350846
237	0xbcef15fa	-0.029185284
238	0xbd075a63	-0.033045184
239	0x3d75d2af	0.060015377
240	0xbeddd33e	-0.43325227
241	0xbe310c33	-0.1728981
242	0xbe22675b	-0.1585974
243	0x3e83ca13	0.25740108
244	0xbe90cbad	-0.28280392
245	0xbd9e7b6e	-0.07738386
246	0xbdb3909c	-0.087678164
247	0x3d66e42b	0.05636994
248	0x3dc16d81	0.09444714
249	0xbdb0184d	-0.08598385
250	0x3e006d02	0.12541583
251	0x3e009c45	0.12559612
252	0xbcebebc6	-0.028798949
253	0x3d841f9d	0.06451342
254	0xbc8febfa	-0.017568577
255	0x3e53a32e	0.20667717

Pair_shop_mlp.fc_layers.1.bias f4 [16]
0	0xbbda556f	-0.0066630165
1	0x3c891056	0.016731422
2	0x3e0902b7	0.13379942
3	0x3d255f8d	0.040374327
4	0xbdab1be4	-0.08354929
5	0xbbba274e	-0.005680955
6	0x3c7862e8	0.0151603
7	0xbd96b7e1	-0.07359291
8	0x3d4d05bf	0.050054308
9	0xbd957720	-0.07298112
10	0xbd611375	-0.054950196
11	0x3d98fdf9	0.074703164
12	0x3dbebc3f	0.09313249
13	0x3c646b30	0.013941571
14	0xbdbf67b1	-0.093459494
15	0x3e0ea7a2	0.13931134

Pair_score_mlp.fc_layers.0.weight f4 [64, 32]
0	0xbe24d63d	-0.1609735
1	0xbdba21ae	-0.09088455
2	0x3e40da2f	0.1883323
3	0xbd0c1288	-0.03419736
4	0xbd9903bf	-0.07471418
5	0xbdd69613	-0.10477843
6	0x3e721295	0.23639901
7	0x3d197620	0.03746617
8	0xbbd3333d	-0.006445317
9	0xbe65fbca	-0.22459331
10	0xbda05478	-0.07828611
11	0xbdc1da9a	-0.09465523
12	0xbe06d3df	-0.1316676
13	0xbe26589f	-0.16244744
14	0x3d95a372	0.07306565
15	0x3c5186e4	0.012788508
16	0xbe2c37af	-0.16818117
17	0xbdba3dd1	-0.09093822
18	0x3e6d7cc4	0.23192126
19	0xbd8924dd	-0.06696484
20	0x3dcdc1a2	0.10046698
21	0xbe583091	-0.21112277
22	0x3d2ecab7	0.042673793
23	0x3de6d508	0.11271101
24	0xbdfdd6a9	-0.12394459
25	0xbd772554	-0.060338333
26	0x3e172d48	0.14763367
27	0xbdd547ab	-0.1041406
28	0x3d83aa6e	0.06428991
29	0xbc7693e5	-0.015049909
30	0xbe81f6e3	-0.25383672
31	0xbe8ab7c7	-0.27093336
32	0xbe252832	-0.16128615
33	0xbd770ce4	-0.060315028
34	0x3e540f02	0.2070885
35	0x3e470ed7	0.19439255
36	0xbdb0366b	-0.086041294
37	0x3e2dfccf	0.1699097
38	0x3e32d226	0.17462978
39	0xbdd09e4e	-0.10186444
40	0x3dfa7f09	0.12231261
41	0xbe6c3b56	-0.2306951
42	0xbdfb2167	-0.1226223
43	0x3cff20aa	0.031143505
44	0x3da1fcc5	0.0790954
45	0xbc472e91	-0.012157098
46	0xbdd060af	-0.10174691
47	0xbc877fa5	-0.016540358
48	0xbd9d550a	-0.076822355
49	0xbe0656cb	-0.13119046
50	0x3d1b5028	0.03791824
51	0x3e1d292c	0.15347737
52	0xbcff5dbc	-0.031172626
53	0xbe152a43	-0.14566903
54	0xbb96fddf	-0.0046079005
55	0xbdc7cee8	-0.09756261
56	0xbe1c6c4d	-0.15275688
57	0x3e3bd30a	0.18342224
58	0xb99e0e4d	-0.00030146763
59	0xbe06248c	-0.13099879
60	0xbd47f913	-0.04882152
61	0xbc9b3a0b	-0.018948575
62	0x3deaf682	0.11472799
63	0x3dcedfbe	0.10101269
64	0xbe00f660	-0.12593985
65	0xbbcc9474	-0.006243283
66	0xbd02e19a	-0.03195343
67	0xbdcf0b29	-0.101095505
68	0x3d1eb475	0.038746316
69	0xbc9a1277	-0.018807633
70	0x3dc6f5b7	0.09714835
71	0xbd05a84d	-0.032631207
72	0x3e05b020	0.13055468
73	0xbea15531	-0.31510308
74	0xbcb6ef9e	-0.022331055
75	0x3e336d35	0.17522128
76	0x3cfa570b	0.030559083
77	0xbd606fae	-0.054794006
78	0x3da78d37	0.081812315
79	0xbb9fdfb4	-0.0048789624
80	0xbe88ef8b	-0.26745257
81	0x3d477cce	0.048703007
82	0x3d3c2a15	0.04593857
83	0x3e55e828	0.20889342
84	0x3e63b74a	0.22237888
85	0x3d6b892c	0.057503864
86	0x3e2af389	0.16694464
87	0x3d4a79e6	0.049432658
88	0x3e32ca6f	0.17460035
89	0xbd40570e	-0.04695802
90	0xbd80a9f4	-0.06282416
91	0x3c66faf8	0.014097922
92	0xbe228461	-0.15870811
93	0xbe038a50	-0.12845731
94	0xbdd28c1c	-0.1028063
95	0x3e28d40a	0.16487136
96	0xbe31510e	-0.17316076
97	0x3e069a4a	0.13144794
98	0x3e822bb2	0.25423962
99	0x3d5dd83f	0.054161306
100	0x3e30f14a	0.17279544
101	0xbe18c89b	-0.14920275
102	0xbdd93ae8	-0.106069386
103	0x3d95371d	0.07285903
104	0x3e1d9c33	0.15391617
105	0xbdcfe4e2	-0.10151078
106	0xbe2f41cb	-0.17114942
107	0x3e4204b7	0.18947111
108	0xbd9fe9e5	-0.07808284
109	0x3d9b0b07	0.07570463
110	0xbdc4dcbc	-0.09612414
111	0x3e35033c	0.17677015
112	0x3d141b88	0.03615907
113	0xbde31458	-0.11087865
114	0x3dd39028	0.1033023
115	0x3da242cc	0.07922897
116	0x3ca05163	0.019570058
117	0x3d35e929	0.044411812
118	0x3ddf0523	0.108896516
119	0xbd8bf40e	-0.06833659
120	0x3e06a7cc	0.13149947
121	0xbe5a4d05	-0.21318443
122	0x3cd6fc65	0.026243398
123	0xbd3da6aa	-0.04630152
124	0x3cc3d246	0.023903977
125	0x3d6e22bb	0.05813859
126	0x3e24a4e8	0.16078532
127	0x3d2eefd9	0.042709205
128	0xbe4340d2	-0.19067696
129	0xbd33cb6c	-0.04389517
130	0xbc7fa049	-0.01560218
131	0xbe0c2561	-0.13686134
132	0x3e0b22c4	0.13587481
133	0xbc319681	-0.010839106
134	0xbe185a7a	-0.14878264
135	0xbe8e4618	-0.27787852
136	0x3e145e19	0.1448902
137	0xbdca5c76	-0.09880917
138	0xbdf2e73c	-0.11860511
139	0xbe651540	-0.22371387
140	0xbd324c9f	-0.043530103
141	0x3cb45d69	0.022017198
142	0xbe01b6f3	-0.12667446
143	0xbe2b143b	-0.16706936
144	0x3e7340df	0.23755215
145	0x3e821580	0.25407028
146	0xbe232232	-0.15931013
147	0xbda1fb07	-0.07909208
148	0xbdff841b	-0.12476369
149	0x3dcae4a6	0.099068925
150	0xbb956cf0	-0.0045601055
151	0x3caec154	0.02133242
152	0xbe45ef94	-0.19329673
153	0x3d48fb27	0.049067643
154	0xbb8ec0de	-0.0043564877
155	0x3e623c18	0.22093236
156	0xbccdcb2c	-0.025121294
157	0xbe069141	-0.13141347
158	0x3d97fdfb	0.0742149
159	0xbe238c72	-0.15971544
160	0xbe12a2c0	-0.14319897
161	0x3d1791fa	0.03700445
162	0x3e3357c2	0.17513946
163	0x3d8c4a2a	0.06850083
164	0x3dc90503	0.09815409
165	0x3e1758ed	0.14780016
166	0xbd90959d	-0.070597865
167	0xbdde2660	-0.10847163
168	0xbdc19524	-0.094522744
169	0xbe22c7a3	-0.15896468
170	0x3e2e1480	0.17000008
171	0x3d8ecd1f	0.069727175
172	0x3b350f75	0.0027627621
173	0x3ddf920f	0.1091653
174	0xbe1d654e	-0.15370676
175	0xbd8d5e20	-0.069027185
176	0x3e34417b	0.17603104
177	0x3e2e9c76	0.17051873
178	0x3dbfab62	0.093588606
179	0x3c886b7f	0.01665282
180	0x3dad19a5	0.08452157
181	0xbe0c7783	-0.13717465
182	0x3c276cfd	0.010218856
183	0x3d9e383d	0.0772557
184	0x3d8e66aa	0.06953175
185	0x3db627b7	0.08894294
186	0x3e3c565f	0.18392323
187	0xbe1cc720	-0.15310335
188	0x3e2745e2	0.16335252
189	0xbe1ec3d3	-0.15504389
190	0x3df4048f	0.11914932
191	0xbd820b69	-0.063498326
192	0xbdff27ef	-0.124587886
193	0x3e617ed3	0.22021036
194	0xbcd104e7	-0.025515033
195	0xbd5bda3a	-0.053674914
196	0xbe17a07f	-0.14807318
197	0xbdaf9936	-0.085741445
198	0x3d425b6f	0.04745048
199	0x3e181646	0.14852247
200	0x3b973ff6	0.004615779
201	0xbddd227c	-0.10797593
202	0xbe0609ed	-0.13089724
203	0x3e1f9e47	0.15587722
204	0xbd146d24	-0.036236897
205	0xbdb06012	-0.08612074
206	0x3e037c29	0.12840332
207	0x3cff32cf	0.031152157
208	0x3cb24045	0.021759162
209	0x3dff3da2	0.124629274
210	0xbd9031a7	-0.070407204
211	0xbb4301da	-0.0029755742
212	0xbdb12102	-0.08648874
213	0x3d8594f6	0.06522553
214	0x3e43e9cc	0.19132155
215	0x3e1787a1	0.14797832
216	0x3d99c6db	0.07508632
217	0xbd9b0cf5	-0.07570831
218	0x3d31bc38	0.04339239
219	0x3e5b942b	0.2144324
220	0xbe00fcce	-0.12596437
221	0x3deb7ef3	0.11498823
222	0x3e19f697	0.15035473
223	0xbe1aaafa	-0.15104285
224	0x3c542215	0.012947579
225	0xbd8ccb9e	-0.068747744
226	0x3e5fd7bb	0.21859638
227	0x3e10bafb	0.14133827
228	0x3d0b05f2	0.033941217
229	0x3c878cc7	0.01654662
230	0xbdaf367e	-0.085553154
231	0xbda92557	-0.08259075
232	0x3e3c0d15	0.18364365
233	0x3dfae85b	0.122513495
234	0xbe7911cd	-0.24323197
235	0xbdfccb98	-0.1234352
236	0x3d951ce4	0.07280901
237	0xbd9740de	-0.07385419
238	0xbde4236f	-0.11139571
239	0x3e04895b	0.12943022
240	0xbe24d654	-0.16097385
241	0xbe21ac0d	-0.15788288
242	0xba1881c0	-0.0005817674
243	0xbcc33d37	-0.0238329
244	0xbd821f3d	-0.063536145
245	0x3e52ee31	0.20598675
246	0x3d700c97	0.058605757
247	0xbd0e27a5	-0.034705777
248	0xbcb2c851	-0.021824034
249	0xbdee2b71	-0.116293795
250	0xbdd6f1e3	-0.10495355
251	0xbdea4921	-0.114397295
252	0xbdfde0dc	-0.12396404
253	0xbdcc2662	-0.099682584
254	0x3e19d401	0.1502228
255	0x3daa962c	0.08329424

Pair_score_mlp.fc_layers.0.bias f4 [64]
0	0x3d60d958	0.054894775
1	0xbd79da1a	-0.060999013
2	0xbe09f539	-0.13472451
3	0xbdae9776	-0.08524983
4	0x3e2360ae	0.15954849
5	0x3e185de6	0.1487957
6	0xbdae54ad	-0.085122444
7	0xbdc10b03	-0.094259284
8	0xbd7f84b0	-0.0623824
9	0xbdc086bc	-0.094006985
10	0x3e2ecbdf	0.17069958
11	0x3bda4707	0.006661299
12	0x3d0b79e4	0.03405179
13	0x3de702e3	0.112798475
14	0xbd820458	-0.06348485
15	0x3d143c64	0.036190405
16	0x3e477f9d	0.19482274
17	0xbd906b9e	-0.07051776
18	0x3dd92ff9	0.10604853
19	0x3d75d9dc	0.06002222
20	0xbdbe13ee	-0.09281145
21	0xbd4fb67d	-0.050711144
22	0x3da2fba2	0.079581514
23	0xbd468bd3	-0.04847319
24	0x3d9bd7fb	0.076095544
25	0xbd15ac54	-0.036541298
26	0xbc5d75e3	-0.013516876
27	0x3de1eda2	0.11031653
28	0x3e22b243	0.15888314
29	0xbd1cab7b	-0.038249474
30	0xbd985e2a	-0.07439835
31	0x3e187a70	0.14890456
32	0x3d9d9747	0.076948695
33	0xbe1c6b30	-0.15275264
34	0x3c01483e	0.007890759
35	0x3e6b09d8	0.22952974
36	0x3e338699	0.17531814
37	0x3e0907a4	0.13381821
38	0xbdb2f5a3	-0.08738258
39	0xbd189dfa	-0.037260033
40	0xbde7c148	-0.11316162
41	0x3dd48f75	0.10378925
42	0xbe1c7481	-0.15278818
43	0xbdf83c25	-0.12120847
44	0x3c72dd6a	0.014823297
45	0x3de6521b	0.11246129
46	0xbd59332e	-0.053027324
47	0xbde0d3c1	-0.10977889
48	0xbd6329db	-0.05545984
49	0xbd9be24d	-0.07611523
50	0x3d167990	0.036737025
51	0xbd9f624f	-0.07782423
52	0xbd7f3887	-0.062309768
53	0xbdedf431	-0.116188414
54	0xbda7812c	-0.081789345
55	0x3e0d5bea	0.13804594
56	0xbd16eb55	-0.036845524
57	0x3deafa6c	0.114735454
58	0x3df813b3	0.12113132
59	0x3dd5f5a0	0.1044724
60	0x3d729612	0.05922515
61	0x3e235cf1	0.15953423
62	0x3dd80588	0.1054793
63	0xbda79236	-0.081821844

Pair_score_mlp.fc_layers.1.weight f4 [8, 64]
0	0x3dbc868b	0.092053495
1	0x3df60dff	0.12014388
2	0x3dfc2c8e	0.12313186
3	0x3d71d466	0.05904045
4	0x3e822aae	0.25423187
5	0x3e126b63	0.14298777
6	0x3d788048	0.060669214
7	0x3dcd1990	0.10014641
8	0x3e1e5915	0.1546367
9	0x3e2c885a	0.16848889
10	0xbe09baf3	-0.13450222
11	0x3cf0bb3a	0.029386152
12	0x3cfc4ad7	0.030797405
13	0xbe227305	-0.15864189
14	0xbcdd2945	-0.026997218
15	0x3cc72461	0.024309339
16	0x3e05606b	0.13025062
17	0xbbc95cba	-0.006145087
18	0xbcc7285f	-0.024311243
19	0x3d187393	0.037219595
20	0x3defa029	0.1170047
21	0xbccbf298	-0.024895951
22	0x3dd06810	0.10176098
23	0x3c312773	0.010812628
24	0x3d8b85a3	0.068125986
25	0x3e09f617	0.13472782
26	0x3e1c96cd	0.15291901
27	0x3db8e5be	0.09028195
28	0xbd60e99b	-0.054910284
29	0xbd836ebe	-0.06417607
30	0x3dca795c	0.09886429
31	0x3c101708	0.008794554
32	0x3c07a939	0.008280092
33	0x3dee4f0e	0.11636172
34	0x3de637c0	0.11241102
35	0xbbd9ed6e	-0.0066506183
36	0x3e61ff09	0.22069944
37	0x3d0458f3	0.03231139
38	0xbd349f29	-0.0440971
39	0x3df884dd	0.12134717
40	0xbd981382	-0.07425596
41	0x3d16f52f	0.03685492
42	0xbd176287	-0.036959197
43	0x3da7930f	0.08182346
44	0xbe549a8c	-0.2076208
45	0x3dd7018d	0.10498343
46	0x3e02beb8	0.12768066
47	0x3dcc08b5	0.09962598
48	0xbdcb30a8	-0.0992139
49	0x3d99c8df	0.07509016
50	0xbdca3be4	-0.098747045
51	0x3d8a8a9f	0.06764721
52	0x3e6c3528	0.23067153
53	0x3c38d52f	0.011281296
54	0x3ded16b7	0.11576598
55	0xbdb58994	-0.088641316
56	0x3d84c87a	0.0648355
57	0xbdce9266	-0.10086517
58	0xbd692c57	-0.05692705
59	0x3d969dcc	0.07354316
60	0xbbba96de	-0.0056942543
61	0x3d8f76ba	0.07005067
62	0xbdaf708f	-0.08566391
63	0x3e35b9ca	0.17746654
64	0xbdfccf53	-0.123442315
65	0x3dbdc1aa	0.09265454
66	0xbe07e5ab	-0.13271205
67	0xbe13dd0e	-0.14439794
68	0xbe077136	-0.1322678
69	0xbd720e2f	-0.059095558
70	0xbd14eb01	-0.03635693
71	0xbdc42397	-0.09577101
72	0xbdcd724f	-0.10031568
73	0xbd6e67d6	-0.058204494
74	0xbe514605	-0.20436867
75	0x3c0f5a55	0.008749564
76	0xbe39bc5d	-0.18138261
77	0x3e620844	0.22073466
78	0xbe380d57	-0.17973839
79	0xbe575979	-0.21030225
80	0xbbf6962c	-0.007525226
81	0x3d29bb6f	0.041438516
82	0xbd9a0260	-0.07519984
83	0x3d2605f9	0.04053304
84	0xbe1e0310	-0.15430856
85	0xbde5f112	-0.11227621
86	0xbdb4deaa	-0.08831532
87	0x3d91b470	0.07114494
88	0xbdd2d3cc	-0.10294303
89	0xbdf24399	-0.118292995
90	0x3debf1a4	0.11520699
91	0xbd677d59	-0.056516025
92	0xbdd59c6e	-0.10430227
93	0x3e0c6276	0.13709435
94	0x3df9155b	0.12162276
95	0xbcad521d	-0.021157319
96	0xbd789e34	-0.06069775
97	0xbe078970	-0.13236022
98	0x3d788b9a	0.06068001
99	0x3de7887c	0.11305329
100	0xbe368100	-0.17822647
101	0x3d7bca2a	0.061472096
102	0x3d8e6438	0.06952709
103	0x3d71d90b	0.05904488
104	0xbdf246fd	-0.11829946
105	0xbd3c0531	-0.04590339
106	0xbdbb430d	-0.09143648
107	0xbe06e9db	-0.13175146
108	0x3e3b8fd0	0.18316579
109	0x3dff24bd	0.12458179
110	0xbdd6103f	-0.104523174
111	0xbdea7465	-0.11447982
112	0x3c67f76f	0.014158114
113	0xbdf97d6b	-0.12182125
114	0x3ddd1f63	0.10797002
115	0xbde2470a	-0.11048706
116	0xbc0e4d49	-0.008685418
117	0xbe1f10d2	-0.1553376
118	0xbe3a926b	-0.18219917
119	0x3e56fe51	0.20995452
120	0x3c494da6	0.012286579
121	0xbdc26794	-0.09492412
122	0xbd3ce52a	-0.046116985
123	0xbd8b3063	-0.067963384
124	0x3e21187f	0.15732001
125	0x3dc6f76b	0.0971516
126	0x3d6ab566	0.0573019
127	0x3d81ee96	0.06344335
128	0x3da5026a	0.08057101
129	0x3de54039	0.1119389
130	0x3e489083	0.19586377
131	0x3e27e966	0.16397628
132	0x3d88c282	0.066777244
133	0x3d85f586	0.065409705
134	0x3e3f9a16	0.18711123
135	0xbc8e16b8	-0.017344818
136	0x3e4bafcd	0.19891281
137	0x3d0dbab7	0.034601893
138	0x3d8a0943	0.06740048
139	0xbcf44bba	-0.029821265
140	0xbd632459	-0.055454586
141	0xbe916420	-0.28396702
142	0x3d5948fc	0.05304812
143	0x3da4a3ce	0.08039056
144	0x3e839ed8	0.25707126
145	0x3e1017a5	0.1407152
146	0x3df4297b	0.11921974
147	0x3ca95737	0.02067147
148	0x3dc76a07	0.0973702
149	0xbd36cfe2	-0.044631846
150	0x3df4e113	0.11956992
151	0x3d8fd342	0.07022716
152	0xba531a31	-0.0008052914
153	0x3cbf765b	0.023371866
154	0x3dbb7a0c	0.09154138
155	0x3e75db0b	0.2400934
156	0xbc8e898d	-0.017399574
157	0x3dece5ab	0.11567243
158	0x3d74033a	0.05957339
159	0x3e291e85	0.16515549
160	0x3da70a96	0.08156316
161	0x3bb17a25	0.005416172
162	0x3dcc4335	0.09973756
163	0xbd0caec7	-0.03434637
164	0x3e3323b9	0.17494096
165	0xbbe9d1f7	-0.0071356255
166	0xbe6ed350	-0.23322797
167	0x3e1d0a73	0.15336017
168	0xbdc45b7f	-0.09587764
169	0x3daac2f0	0.083379626
170	0x3ddb8e6e	0.10720526
171	0x3e11a81d	0.14224286
172	0xbe21f161	-0.15814735
173	0x3e0e3d3f	0.13890551
174	0x3dae0b48	0.084982455
175	0xbd203dac	-0.039121315
176	0x3e1ec251	0.15503813
177	0xbd29759a	-0.04137192
178	0x3e21246f	0.15736555
179	0xbd57dfbc	-0.052703604
180	0x3d4b1149	0.04957703
181	0xbdf07e53	-0.117428444
182	0x3dc04b26	0.093893334
183	0xbc4ab946	-0.012373274
184	0xbc74fe44	-0.0149532
185	0xbb24813c	-0.0025101444
186	0x3dbb0097	0.09130972
187	0x3e4fbc37	0.20286642
188	0x3dd934e5	0.10605792
189	0x3b3452d6	0.0027515194
190	0x3da720c5	0.08160547
191	0x3e8f434f	0.2798104
192	0xbc9a9ce1	-0.018873634
193	0x3d86b84f	0.06578123
194	0x3dc09a34	0.09404412
195	0xb9963f4a	-0.00028657384
196	0x3c382a26	0.011240518
197	0xbdc0605d	-0.0939338
198	0x3d43447e	0.04767274
199	0xbc059efc	-0.008155581
200	0xbe48ef0f	-0.19622444
201	0x3bd24a0e	0.0064175194
202	0x3daeee85	0.08541588
203	0x3d34e00b	0.044158977
204	0xbc8cbb0c	-0.017179035
205	0x3dd08570	0.10181701
206	0xbe179aee	-0.14805195
207	0xbe2600e9	-0.16211285
208	0xbcd5654a	-0.026049275
209	0xbdcd6538	-0.100290716
210	0x3c363ea6	0.011123335
211	0xbd59621e	-0.053072087
212	0xbd13a271	-0.036043588
213	0xbc921e25	-0.01783664
214	0x3d995afa	0.074880555
215	0x3dbc92b0	0.09207666
216	0x3e25f350	0.16206098
217	0xbc9dbc0e	-0.01925471
218	0xbd10ab54	-0.03531964
219	0x3e06db5c	0.13169616
220	0xbd89534e	-0.06705342
221	0x3d48eb51	0.04905254
222	0x3d76aea8	0.06022516
223	0xbd7af105	-0.06126501
224	0xbd6d7d97	-0.0579811
225	0xbd1ec0b1	-0.038757984
226	0xbcd26838	-0.025684461
227	0xbc580180	-0.013183951
228	0x3e3c8af3	0.1841238
229	0xbe509bcc	-0.20371932
230	0x3d902c1b	0.070396625
231	0x3cbc0459	0.022951292
232	0xbd250912	-0.040291853
233	0x3d8782f4	0.06616774
234	0xbe0c2c94	-0.1368888
235	0x3da36ed9	0.07980127
236	0xbc4fea83	-0.012690189
237	0xbdea58ad	-0.11442695
238	0xbe10602d	-0.14099188
239	0xbd9aa77c	-0.07551476
240	0x3dc1fc6e	0.09471975
241	0xbe0ad67c	-0.13558382
242	0xbc5972e2	-0.013272019
243	0xbdb31574	-0.08744326
244	0x3d886fb9	0.066619344
245	0xbe3f6a70	-0.18692946
246	0xba929087	-0.0011181989
247	0x3e121f79	0.14269818
248	0xbdb3a7d7	-0.08772247
249	0x3c687026	0.0141868945
250	0x3de5f494	0.1122829
251	0x3dd08829	0.101822205
252	0xbd5eda9f	-0.054407712
253	0xbdcd3756	-0.1002032
254	0x3d576c2c	0.052593395
255	0x3d351260	0.044206977

Pair_score_mlp.fc_layers.1.bias f4 [8]
0	0xbc64ace8	-0.01395724
1	0x3ddf1e97	0.108945064
2	0xbdd51686	-0.10404687
3	0x3d9ddba1	0.077079065
4	0x3e01c815	0.12673981
5	0x3ddb5a61	0.10710598
6	0xbd80bf16	-0.06286447
7	0xbd9f63b3	-0.07782688

CNN_embedding_types.weight f4 [106, 16]
0	0x3e143153	0.1447194
1	0xbf4692f5	-0.7756799
2	0xbefccff1	-0.49377397
3	0x3f73deb2	0.9526168
4	0xbed09b39	-0.40743425
5	0xbc5a8c02	-0.0133390445
6	0x3fe274eb	1.769193
7	0xc039a005	-2.9003918
8	0x3dfc5115	0.12320153
9	0xbf5da16c	-0.86574435
10	0xbf08f5e7	-0.5350022
11	0x3f89da9c	1.0769839
12	0x3ef88eef	0.4854655
13	0x3eca84ba	0.39554387
14	0x3f3c5e1c	0.735811
15	0xbf441104	-0.76588464
16	0xbd081c46	-0.03323009
17	0xbff69467	-1.9264039
18	0x3f2a366a	0.6648928
19	0xbf3b0b97	-0.7306456
20	0x3eea6946	0.45783442
21	0xbf271944	-0.6527293
22	0x3ed42d18	0.41440654
23	0xbe81a860	-0.25323772
24	0xbd1e84ea	-0.038700975
25	0xbf678b1c	-0.9044664
26	0xbfad792f	-1.3552607
27	0x3ef2b3dd	0.4740285
28	0x3f82d8ea	1.0222447
29	0x3eda8399	0.42678526
30	0xbeb908dc	-0.36139572
31	0xbe020d0c	-0.1270029
32	0xbf0ebd64	-0.5575774
33	0x3fd58d45	1.6683737
34	0x3f1fd949	0.62440926
35	0xbebd701e	-0.369996
36	0xbc9e5695	-0.019328395
37	0x3f8b485b	1.0881456
38	0x3ee14e57	0.4400508
39	0xbf8490a3	-1.035664
40	0x40071326	2.1105437
41	0xbfc67729	-1.5505115
42	0xbf88e723	-1.0695537
43	0x3f160fc1	0.5861779
44	0xbd8b8fc4	-0.068145305
45	0x3de1a1bd	0.11017177
46	0xbf021388	-0.5081105
47	0x3fa2344a	1.2672207
48	0xbe9b3a95	-0.30318132
49	0xbf1b255d	-0.60603887
50	0xbe9f647e	-0.31131357
51	0x3d8fa0bc	0.070130795
52	0xbee7fe52	-0.45311219
53	0x4005d9f4	2.0914278
54	0xbd9ca96f	-0.076495044
55	0x3f9f61a3	1.2451671
56	0xbfae8ee5	-1.3637358
57	0xbf44ee9f	-0.76926607
58	0x3eaa21da	0.33228952
59	0x3f9221ae	1.1416528
60	0x3dc3b5d6	0.09556167
61	0xc00868ec	-2.131404
62	0x3f0c59e1	0.54824644
63	0x3f6fa283	0.9360735
64	0x3ff43fa4	1.9081922
65	0x3f762790	0.9615412
66	0x3f0d9f19	0.5532089
67	0x3f719704	0.94371057
68	0x3eaed50b	0.34146914
69	0xbd13fef5	-0.036131818
70	0x3fbfbb4d	1.4979035
71	0xbf46f262	-0.77713597
72	0x3f48d184	0.78444695
73	0xbd3a7e52	-0.045530625
74	0xbe26cc1d	-0.162888
75	0x3fab587c	1.3386378
76	0xbe26b621	-0.16280414
77	0xbe8393cb	-0.25698695
78	0x3d5617c7	0.05226877
79	0xbec7f693	-0.3905531
80	0x3e6be23b	0.23035519
81	0x3e889b18	0.26680827
82	0x3f8c904b	1.0981535
83	0xbf9f969d	-1.2467839
84	0xbf75929b	-0.9592683
85	0xbfe7475a	-1.806865
86	0x3c3a7b61	0.011381955
87	0xbde1e0c8	-0.11029202
88	0xbfa0bd6f	-1.255781
89	0x3f22858c	0.63485026
90	0x3e9e4d58	0.30918384
91	0x4036a2cd	2.8536866
92	0xbf9b7244	-1.2144246
93	0xbe5b1362	-0.21394113
94	0xbf06df26	-0.5268425
95	0x3e32fbf1	0.1747892
96	0x3f04b884	0.5184405
97	0xbec1d558	-0.3785808
98	0xbe66dbef	-0.22544836
99	0xbfc867aa	-1.5656636
100	0x3ef471e5	0.47743145
101	0xbf87e3ac	-1.0616355
102	0x3fe3cc19	1.7796661
103	0xbf0c7875	-0.548713
104	0x3ead86fe	0.33892053
105	0x3f473768	0.7781892
106	0x3bf7464e	0.007546223
107	0xbf157163	-0.5837614
108	0xbf6a5174	-0.9153054
109	0xbd578b67	-0.05262318
110	0x3fe4cf7a	1.7875817
111	0x3f936483	1.1515049
112	0x3dc723f1	0.09723652
113	0x3fcc4b39	1.5960456
114	0xbf1aa9bf	-0.6041526
115	0x3fb474a8	1.4098101
116	0x3df1c573	0.118052386
117	0x3f343ad3	0.7040226
118	0xbf0995c7	-0.5374417
119	0xbf3c7644	-0.7361796
120	0x3f0c0f17	0.54710525
121	0x3ff3d81d	1.9050328
122	0x3dcfe4e3	0.101510786
123	0x3ee6eae4	0.45101082
124	0x3ecd01d9	0.40040472
125	0xbf7faafa	-0.99870265
126	0x3e1b37cd	0.15158005
127	0xbf2177da	-0.63073504
128	0x403688c8	2.8520985
129	0xbdf34c03	-0.118797325
130	0x3ec510d2	0.38489395
131	0x3f79ebe5	0.9762557
132	0xbfac02aa	-1.3438313
133	0xbf558af8	-0.83415174
134	0xbe0659bd	-0.1312017
135	0xbdc276ec	-0.09495339
136	0xbe38437d	-0.17994495
137	0xbf8e5a3e	-1.112129
138	0x3eea8aed	0.45809117
139	0xbe5fadad	-0.21843596
140	0x3f0e5786	0.556023
141	0xbddfd709	-0.109296866
142	0x3fffb5b1	1.9977323
143	0x3e0392d2	0.12848976
144	0x3ce000f2	0.0273442
145	0x3e1ae42a	0.151261
146	0xbf544816	-0.82922494
147	0x40019540	2.0247345
148	0x3e7986c2	0.24367812
149	0x3d9a232a	0.07526238
150	0xbe90502d	-0.2818617
151	0x3d9bbbb9	0.07604165
152	0x3ed073a6	0.40713233
153	0xbe818f61	-0.25304702
154	0x3ecfde06	0.40599078
155	0x3f458049	0.7714887
156	0xbe6ce5ed	-0.23134585
157	0xbf8da606	-1.1066291
158	0x3d94100a	0.07229622
159	0xbf5dfcf0	-0.86714077
160	0xbf96c587	-1.177903
161	0x3f0ada34	0.542392
162	0xbe4d9245	-0.20075329
163	0xbf1895c9	-0.59603554
164	0x3eebd2f4	0.46059382
165	0x3f9dec36	1.2337711
166	0x3e9e5150	0.30921412
167	0x3f1b11fe	0.6057433
168	0x3f197376	0.59941804
169	0xbe9c0720	-0.30474186
170	0xbe9d517f	-0.3072624
171	0x3fd23489	1.6422282
172	0x3f858ae1	1.0433007
173	0xbfbde604	-1.483582
174	0x3f24b4c4	0.64338326
175	0x3fe5efd2	1.7963812
176	0x3cb3298e	0.0218704
177	0xbff36684	-1.901566
178	0xbde56c09	-0.11202247
179	0x3ebad3be	0.3648967
180	0xbfa6ff38	-1.3046637
181	0xbcca3a27	-0.024685932
182	0xbfa71c1a	-1.3055451
183	0xbe68b2f2	-0.22724512
184	0xbdd9c63b	-0.106335126
185	0xbf8c0395	-1.0938593
186	0xbe9247ec	-0.28570497
187	0x3fdb393d	1.7126843
188	0x3fa2bfe4	1.271481
189	0x3f81c583	1.0138401
190	0xbf3d8a2c	-0.7403896
191	0x3e842a79	0.25813654
192	0xbf6792d0	-0.90458393
193	0x40139f18	2.3065853
194	0xbf4b71e9	-0.7947069
195	0x3fdfe3a3	1.7491344
196	0xbda67cba	-0.081292585
197	0xbe3c7c84	-0.18406874
198	0xbf97356d	-1.1813179
199	0x3edd486d	0.4321932
200	0x3fa39ae2	1.2781641
201	0xbf454978	-0.7706523
202	0x3fdc8158	1.7226973
203	0xbe623e3e	-0.22094056
204	0x3f5c5ff8	0.86083937
205	0x3fe8b0fe	1.8179014
206	0x3f2f085f	0.6837215
207	0xbe85506e	-0.26037925
208	0x3ff4f6a8	1.9137774
209	0x3f9281ef	1.1445903
210	0x3fb148d3	1.3850349
211	0xbf936218	-1.1514311
212	0x3e027123	0.1273847
213	0x3f5d3f7b	0.8642499
214	0x3f582913	0.84437674
215	0xbfcc8846	-1.5979087
216	0x3f74a36a	0.9556185
217	0xbfb268b9	-1.3938209
218	0x3d7e879c	0.062141046
219	0xbf82d488	-1.0221109
220	0xbf0c1b52	-0.5472919
221	0x3f8c52bd	1.096275
222	0x3dfd9b7e	0.123831734
223	0x3ecc0790	0.3984952
224	0x3ca85c6c	0.020551883
225	0xbf898aa3	-1.0745434
226	0x3d88e188	0.06683642
227	0x402fd6e4	2.747491
228	0x4056b327	3.3546846
229	0x3fdb1a46	1.7117393
230	0xbfabaf7d	-1.341293
231	0xbe4a3bbc	-0.1974935
232	0xbf7a3799	-0.97741085
233	0x3d482d3e	0.04887127
234	0xbf59f5c2	-0.8514062
235	0xbf19c3b8	-0.6006427
236	0xbf6c296d	-0.9225071
237	0x3e11b1f2	0.14228037
238	0xbefeb176	-0.49744767
239	0xbea50f44	-0.3223821
240	0xbfee9f3f	-1.8642348
241	0x3edbc8db	0.42926678
242	0x3f1d58b0	0.6146345
243	0x3e3b6dba	0.18303576
244	0x3dcac399	0.099005885
245	0xbf0b41ec	-0.54397464
246	0x3f441052	0.765874
247	0xbfb0ceb6	-1.3813083
248	0x3e8548c5	0.2603208
249	0x3f29adce	0.6628083
250	0x3f3a5eae	0.7280072
251	0x3f15f030	0.5856962
252	0x3e7402d4	0.23829204
253	0x3ca9cb5b	0.02072685
254	0xbf4f0017	-0.8085951
255	0x3f5b8c50	0.85760975

embedding_CNN_distances.weight f4 [7, 8]
0	0x3f852bd7	1.0404004
1	0xbf93219e	-1.1494634
2	0x3e47355f	0.19453953
3	0x3eb8f470	0.3612399
4	0x3f7047f6	0.93859804
5	0xbf077fe4	-0.5292952
6	0x3f3c0bff	0.73455805
7	0x3f9e53ea	1.2369359
8	0xbf376e84	-0.7165301
9	0x3f371b02	0.71525586
10	0xc0375eba	-2.8651567
11	0xbe6e646e	-0.23280498
12	0xbf810d7c	-1.008224
13	0xc00d67ac	-2.2094526
14	0xbf82a058	-1.0205183
15	0x3d7f3f05	0.06231596
16	0x3e840553	0.25785312
17	0xbf95503b	-1.1665109
18	0x3d0217b9	0.031760905
19	0xbec3dcdd	-0.38254443
20	0x3f9d89b6	1.2307651
21	0x3f632776	0.8873209
22	0x3ff551c1	1.9165574
23	0x3ecfaf5b	0.40563473
24	0xbdf3052d	-0.118662216
25	0x3ebe863e	0.37211794
26	0x3f0b1e34	0.5434296
27	0xbfe030d5	-1.7514902
28	0x3f700d69	0.9377046
29	0xbf45e1cb	-0.7729766
30	0x3ed6127d	0.4181098
31	0xbf016102	-0.5053865
32	0xbf8cb613	-1.0993065
33	0xbe30e837	-0.17276083
34	0x3f1ef311	0.6208964
35	0x3fc64731	1.5490476
36	0x3e0afd81	0.13573267
37	0xbf376b59	-0.71648175
38	0x3e6b4713	0.22976331
39	0x3ebb073d	0.3652896
40	0x3dbd6c30	0.09249151
41	0xbed2eb34	-0.4119507
42	0xbe516ce7	-0.20451699
43	0x3fab4829	1.3381397
44	0x3ebb8c75	0.36630598
45	0xbf69c5a6	-0.9131721
46	0xbf361b36	-0.7113527
47	0x3f89c8f2	1.0764449
48	0x00000000	0.0
49	0x00000000	0.0
50	0x00000000	0.0
51	0x00000000	0.0
52	0x00000000	0.0
53	0x00000000	0.0
54	0x00000000	0.0
55	0x00000000	0.0

embedding_CNN_prices.weight f4 [6, 5]
0	0x3ff2cbe1	1.8968469
1	0x3fb12de2	1.3842127
2	0xbfa2e25c	-1.2725329
3	0xbfdcf856	-1.7263286
4	0xbf80f29e	-1.0074041
5	0xbee3ea78	-0.44514823
6	0x3f8e78d1	1.113062
7	0x3ff8e006	1.9443367
8	0x3eb20298	0.34767604
9	0xbe7c77b6	-0.24655041
10	0x400b6383	2.1779487
11	0xbf0f1083	-0.5588457
12	0xbfcd8a76	-1.605788
13	0xbf343e71	-0.7040778
14	0xbf93eafc	-1.1556087
15	0xbf997640	-1.1989212
16	0x3febbb34	1.8416505
17	0xbea57d78	-0.32322288
18	0xbfb52afa	-1.415374
19	0xbf5722b1	-0.8403731
20	0xbf1dfa3d	-0.6170996
21	0x3ea163d0	0.31521463
22	0x3d1dc8ae	0.03852146
23	0xbf470dbc	-0.7775533
24	0x3f6d468d	0.92685777
25	0x00000000	0.0
26	0x00000000	0.0
27	0x00000000	0.0
28	0x00000000	0.0
29	0x00000000	0.0
