checkpoints/GNNNoCNN_Epoch73_valmse2.1598_testmse2.2490_ndcg0.9356.model (torch, 249600 bytes, 52 tensors)

Pair_embedding_types.weight f4 [106, 16]
000000 5d 35 a3 3c 6a 68 c8 bd 70 ac d0 be e6 36 5e bf
       0.019922907 -0.097855404 -0.4075656 -0.8680252
000010 56 81 60 3f 7b ab bf be 6a 9c 05 3e ac 31 a9 bf
       0.8769735 -0.37435517 0.13047948 -1.3218284
000020 76 64 0a 3e a5 fc f4 3a 1c 57 9f bf 05 2f 0a 3f
       0.13514885 0.0018691017 -1.2448459 0.53977996
000030 14 55 cc bf 6b f1 bd 3e 02 36 96 3e 4f 35 37 3f
       -1.5963464 0.3709825 0.2933808 0.7156572
000040 04 4d f3 3e b6 f7 95 bf be bb f6 3f d0 65 d1 be
       0.47519696 -1.171622 1.9276044 -0.4089799
000050 72 46 83 be dc d7 40 3e d7 a9 13 bf 4f db 2d 3f
       -0.25639683 0.18832344 -0.5768103 0.67912763
000060 d4 de 83 bf 55 96 27 3d 44 34 08 bf d2 1b 54 40
       -1.0302377 0.040914852 -0.5320475 3.314198
000070 ac 0f 4d bf e3 e8 14 bf 27 c8 8e bf 39 de 81 3f
       -0.8010204 -0.58167857 -1.1154832 1.0145942
000080 d5 bd da 3f e4 10 13 40 c5 a1 83 bf 47 05 1a 3e
       1.7089182 2.297906 -1.0283743 0.15041076
000090 d2 8b 60 3f 69 44 ac bf 3f 49 91 bf 49 6c 8f 3d
       0.8771335 -1.3458377 -1.1350478 0.07003076
0000a0 be be 20 3f e6 a1 02 3e f5 ff 80 3f e5 37 cc 3d
       0.6279105 0.12757072 1.0078112 0.099715985
0000b0 c1 22 74 bf 9e b7 ad 3d 59 dc 8f 3f ec e8 c4 bd
       -0.9536553 0.08482288 1.123912 -0.09614739
0000c0 3b 0c 29 bf 54 a0 96 3f 83 e7 c8 be ad 7f 94 bf
       -0.6603429 1.1767678 -0.3923913 -1.1601464
0000d0 b0 59 d7 bf 0d 58 5a 3f 4a 4f 00 c0 7b ad 52 3c
       -1.6824245 0.85290605 -2.0048394 0.012858744
0000e0 01 4d be 3b ab 2a 88 3f 89 57 aa bf 97 a0 a3 3f
       0.0058075194 1.0638021 -1.3307964 1.2783383
0000f0 78 27 c5 3c 21 45 7a 3f d1 d9 98 3f 83 34 27 3d
       0.024066672 0.9776173 1.1941472 0.040821563
000100 20 d8 b5 bd 86 cc 3b 3e 47 e7 53 3f b2 7b d3 bf
       -0.08879113 0.18339738 0.82774776 -1.6522124
000110 56 14 08 40 bf a6 8a bf 84 0f 3f 3e 0c c2 aa bf
       2.1262412 -1.0832137 0.18658262 -1.3340468
000120 6f ef a9 be e9 fe 17 3e 17 71 2c 3e 64 08 6d 3f
       -0.33190486 0.14843334 0.16840015 0.9259093
000130 6f 0a c1 3e dd bb 0d be 45 07 5f 3e 9a e1 55 3e
       0.37703273 -0.13841195 0.21780117 0.20886841
000140 f6 b3 97 be 9e a6 26 3e 8d 44 95 3e ea 09 87 3f
       -0.29629487 0.16274497 0.29153863 1.05499
000150 a3 70 b7 be 53 4c 97 bf df 07 31 be 3f c2 bf be
       -0.35828122 -1.1820167 -0.17288159 -0.37452886
000160 87 30 2a 3f 66 15 c7 3f 45 55 3b bf c7 1b 4d bf
       0.66480297 1.5553405 -0.73176986 -0.8012051
000170 19 6d 5d bf 17 20 21 3f 22 48 61 3f 02 eb c0 3f
       -0.86494595 0.6293959 0.8800069 1.5071719
000180 8f 3f b2 bf ec a7 43 3e 20 c4 e6 3f af 88 18 3e
       -1.3925647 0.19107026 1.8028603 0.1489589
000190 f2 f5 36 3f f1 5b 50 3e 22 57 69 bf 7b fa 0a 40
       0.7146903 0.20347573 -0.9114858 2.171538
0001a0 3d c1 8c bf f0 c4 9e 3f 97 83 4d 3e 6d 56 7a bf
       -1.0996472 1.240385 0.20069729 -0.97788125
0001b0 cf ef f0 be a5 47 81 3e 62 81 ef be ae 86 c8 bb
       -0.4705796 0.25249973 -0.467784 -0.0061195707
0001c0 2c e1 37 3f 67 21 c5 3f 02 28 80 3e f1 d7 c0 be
       0.7182796 1.5400819 0.25030524 -0.3766475
0001d0 5a 6e 2f bf 8b a0 4d 3e 81 31 9e be 95 cc 32 be
       -0.6852776 0.20080774 -0.30897143 -0.17460854
0001e0 75 1c 8f 3f 67 d5 26 c0 3d 28 89 3e 9e 5b 8f be
       1.1180559 -2.606775 0.26788512 -0.27999586
0001f0 7a a2 0a be 24 a7 be bf 4a 7b d5 bd c5 ff 60 3d
       -0.13538542 -1.4894757 -0.10423906 0.05493142
000200 02 34 9b 3e d1 ca c8 3f ea d7 bb 3e ce 22 70 3f
       0.30313116 1.5686895 0.36688167 0.9380311
000210 81 28 69 be 77 9d 90 3f e8 38 a0 bf 2b 3f 1f 3f
       -0.22769357 1.1298054 -1.2517366 0.6220576
000220 58 d0 6e 3e 1c ca 80 bf f8 5d b9 3f ce d3 06 bf
       0.23321664 -1.0061679 1.4481802 -0.5266694
000230 0c ab 26 bd e5 21 a5 3f b1 9d 25 bd 75 50 b1 3e
       -0.040690467 1.2900969 -0.04043359 0.34631696
000240 cd 82 72 3f 63 38 bf 3d 31 88 d8 3e 8c 45 7f bf
       0.94730836 0.09336927 0.42291406 -0.99715495
000250 59 41 d0 be 74 9b 72 3f d0 90 c8 3e 7c c6 1c bf
       -0.40674856 0.9476845 0.39172983 -0.61240363
000260 56 87 1f 3f 5f 71 35 bd 05 52 10 40 59 30 ba 3f
       0.6231588 -0.044297572 2.255006 1.4546005
000270 14 f3 bc 3f 22 8f 0b 3e ad f3 d7 3e c7 ab 97 be
       1.4761682 0.1362882 0.42178097 -0.29623243
000280 19 8a 66 bd d8 b9 e7 bd cf 32 1c 3e 48 f6 91 3e
       -0.056284044 -0.11314744 0.15253757 0.2850821
000290 00 a9 88 bf 8b 1a 40 bf 02 e1 97 3f f9 0b 86 3f
       -1.0676575 -0.750405 1.1865542 1.0472404
0002a0 8a c4 b9 bf 38 97 3a 3f d6 51 48 be c9 ef ab 3f
       -1.4513104 0.7288699 -0.19562468 1.3432552
0002b0 81 9e b4 3f 7a ae 47 3d f4 c5 a1 3e 01 b7 cc 3e
       1.4110872 0.04875038 0.3159634 0.3998337
0002c0 69 03 9b bf d1 b4 1e bf 8d 68 0e be 4e ab 67 3f
       -1.2110416 -0.61994654 -0.1390707 0.90495765
0002d0 2c 09 71 be c3 91 9f bf b0 d7 4a 3f a9 39 26 3f
       -0.23538655 -1.2466358 0.79235363 0.6493173
0002e0 8d 40 a5 3e 47 ac 4f 3f 65 2c fe 3f 78 00 5d 3e
       0.3227581 0.8112225 1.9857298 0.2158221
0002f0 d8 5a 3a 3d 66 e9 b8 3f 5e 60 8e be 30 8c 74 3e
       0.04549679 1.4446228 -0.27807897 0.23881602
000300 7d c9 e2 3e e0 82 c9 bf 61 61 0d 3e e5 e8 a0 be
       0.44294348 -1.5743065 0.13806678 -0.31427684
000310 9b 90 da 3f fa 10 87 bf 47 6c 07 3f b1 34 c3 3f
       1.707538 -1.0552056 0.52899593 1.5250455
000320 6b c7 21 be 89 3a bf bf 6c e0 3c bf 22 2a 13 3f
       -0.15798728 -1.4939739 -0.7377994 0.57486165
000330 a1 ce 63 3f ad 85 51 3e 9d fb bf 3d 5f 4b b2 3e
       0.88987166 0.2046115 0.09374163 0.3482313
000340 ff f0 45 bf 18 07 d4 3f 8c 13 c5 be ed 8b 0c 40
       -0.77320856 1.6564665 -0.38491476 2.1960404
000350 fe dc a3 3f 58 dd d1 3e 5d 6b a8 bf 9a 03 9d 3e
       1.2801816 0.40989184 -1.3157765 0.3066681
000360 93 6f d3 be fd a9 6f 3e 7a a1 23 bf 51 12 12 3f
       -0.41296062 0.23404689 -0.6391827 0.570592
000370 c3 8d a4 bf 76 b9 51 40 d0 57 03 40 f4 a7 05 c0
       -1.2855762 3.2769446 2.0522346 -2.088376
000380 af 42 65 bf b0 0e b9 bd 73 df 14 c0 b3 a7 ae 3f
       -0.89554876 -0.090360045 -2.3261383 1.3644928
000390 ca e6 85 bf d9 90 b3 be 87 4f c7 3e 29 89 7b bf
       -1.0461056 -0.35071447 0.38927862 -0.98256165
0003a0 30 f0 e0 be 75 df 24 bf 9d 7d 41 bf 47 4b b9 3e
       -0.4393325 -0.6440347 -0.75582296 0.36190245
0003b0 bc 5b ac bf 7e be 67 bf 7b b8 c9 be 1b 6a c4 bf
       -1.3465495 -0.90525043 -0.3939856 -1.5344881
0003c0 00 ab 8b bf 0b e0 e0 3e 15 b7 c8 bf d2 ca 0d 3d
       -1.091156 0.4392093 -1.5680872 0.034617253
0003d0 c2 1f b6 3e 01 2b b8 3f 26 a2 66 3f 1b ee ac bf
       0.35571104 1.4388124 0.9009117 -1.3510164
0003e0 f9 e6 71 3f bd 3f 8f bf 3a 14 9b be 48 f0 92 be
       0.9449306 -1.1191326 -0.3028887 -0.28698945
0003f0 db ba d3 3f 63 b6 e7 be 59 96 00 c0 4f 6a 16 3e
       1.6541399 -0.45256338 -2.0091765 0.14688991

embedding_Pair_distances.weight f4 [7, 8]
000000 ed cd 02 3f 43 c1 55 bf 67 df 6f 3f 42 e8 3e 40
       0.5109547 -0.8349802 0.9370026 2.982926
000010 71 ac 2d 3f 31 b0 b4 3f 52 e0 b1 be 95 12 9b 3e
       0.6784125 1.4116269 -0.34741455 0.30287614
000020 40 2c 01 40 62 86 0e 40 0c 5f 54 3f 01 20 d0 bd
       2.0183258 2.226952 0.8295753 -0.10162354
000030 4d 32 be 3f 2b 18 74 bf be 0a cc 3f 10 0a 24 40
       1.48591 -0.9534938 1.5940778 2.5631142
000040 02 fb 36 bf 33 38 63 bf b1 a2 7a bf aa ca ab bd
       -0.7147676 -0.8875763 -0.979045 -0.083882645
000050 93 05 b5 bf c5 7d 04 bf 6d 6e ed 3d 15 23 c9 bf
       -1.4142326 -0.5175441 0.11593328 -1.5713831
000060 86 c5 ca be 1c 91 ca 3e 1c 3c f3 bf 5c d9 4d be
       -0.39603823 0.39563835 -1.9002719 -0.20102447
000070 9c 01 06 c0 26 b2 f1 bf 91 7b 78 bf fb 4d fb be
       -2.0938482 -1.8882492 -0.9706355 -0.49082932
000080 3e 60 84 3f bc a0 98 3f 29 6a cc be f2 24 04 c0
       1.0341871 1.1924052 -0.39924744 -2.064755
000090 18 31 a8 bf ec be 2e be c9 22 2b bf 06 a3 90 bf
       -1.3139982 -0.17065018 -0.6684995 -1.1299751
0000a0 97 c3 96 bd 39 6f d6 3e 9c 0e 0a bf ba c9 35 3e
       -0.073615246 0.4188173 -0.5392854 0.17752734
0000b0 18 44 b3 bf 0d fe 4a bf c9 98 d4 bf cb 11 0e bf
       -1.4005156 -0.792939 -1.6609126 -0.554959
0000c0 00 00 00 00 00 00 00 00 00 00 00 00 00 00 00 00
       0.0 0.0 0.0 0.0
0000d0 00 00 00 00 00 00 00 00 00 00 00 00 00 00 00 00
       0.0 0.0 0.0 0.0

embedding_Pair_prices.weight f4 [6, 5]
000000 a2 d1 ff 3d 68 6c f9 3e d7 b1 e2 3e 52 2e 9e be
       0.12491156 0.4871552 0.44276306 -0.30894715
000010 3a 4b 9d 3f 77 4a 55 3f 4f 29 64 38 c0 ba 5d 3f
       1.2288582 0.8331675 5.4397908e-05 0.8661308
000020 f2 5a 42 3f a4 2e 47 3f 83 44 16 be 93 b8 1c bf
       0.7592002 0.7780554 -0.14674573 -0.6121914
000030 99 d8 24 bf 80 88 0c 40 57 f7 48 bf 0e fe 9e bf
       -0.64393 2.1958313 -0.7850241 -1.2421281
000040 fb 85 02 c0 2a 17 fd be f5 ce 3c 3e 0f ed 00 40
       -2.0394275 -0.49431735 0.18438323 2.014469
000050 3f 68 5b bd d4 0a bc bf 9a 81 d5 bd 27 4a 83 3f
       -0.053566214 -1.4690804 -0.1042511 1.0257004
000060 22 ee 9f bd 00 00 00 00 00 00 00 00 00 00 00 00
       -0.07809092 0.0 0.0 0.0
000070 00 00 00 00 00 00 00 00
       0.0 0.0

Pair_shop_mlp.fc_layers.0.weight f4 [64, 32]
000000 f3 da 04 3d 74 80 7d bd fe b2 29 3e c6 d9 4b 3e
       0.03243537 -0.06189008 0.16572186 0.19907293
000010 38 a9 82 be 13 6a 5f 3d 8a fc cb 3d e7 c9 03 be
       -0.2551973 0.05454452 0.099602774 -0.12869988
000020 10 0b 39 3d ae 29 3d 3e 90 59 1c be 91 14 f3 3c
       0.045176566 0.18472931 -0.1526854 0.029672893
000030 f3 85 e8 bd ac 82 56 be cc d4 83 3d 77 fe 80 3d
       -0.11353674 -0.20948285 0.06437072 0.06298535
000040 83 73 e9 3d 70 86 73 3c 86 a1 80 3b 2c 84 a6 3d
       0.11398985 0.014863595 0.003925505 0.081306785
000050 be 54 b8 3c 66 7a c9 3d cd 75 9f 3c 27 87 7e 3e
       0.022501346 0.09837799 0.019465351 0.24856244
000060 54 71 03 be d7 a6 58 3c 05 2c 04 3c 66 78 e8 3d
       -0.128362 0.0132233715 0.008067136 0.11351089
000070 29 4d a5 3d 37 93 68 3d e8 56 c7 bd a9 18 60 be
       0.08071358 0.05678102 -0.09733373 -0.21884407
000080 b1 7f 4b be 6e bb c7 3d 55 ce b2 bd 56 6b 1e 3e
       -0.19872929 0.09752546 -0.08730761 0.15470633
000090 5e 14 b6 3d eb a1 93 3e 38 6c 9d 3e fd c3 06 be
       0.088906035 0.2883447 0.30746627 -0.13160701
0000a0 bf 09 06 be 94 93 a7 bd 65 8e bb bd c0 41 5d bb
       -0.13089655 -0.08182445 -0.09158019 -0.0033761114
0000b0 dc ce 19 3b 0d ef 1c bd 4e fc 92 3b 21 55 7c 3e
       0.0023469245 -0.038313914 0.0044856435 0.24641849
0000c0 5c 88 02 3d c5 a3 34 be 2e b6 f0 3b 29 e5 4c 3e
       0.031868324 -0.17640598 0.0073459363 0.20009293
0000d0 5a f1 40 3d f9 09 ca bd ea d4 ed bc 0c 49 c6 3d
       0.04710517 -0.098651834 -0.02903219 0.09681901
0000e0 1c 50 cb bd 09 b3 b0 3d dc a6 b7 bc 08 da 16 be
       -0.09927389 0.08627898 -0.022418432 -0.1473161
0000f0 e5 23 1b 3e 2f dc b0 bd 33 38 49 3e 6b 3d 37 3d
       0.15150411 -0.08635747 0.19650345 0.044736307
000100 ac 63 92 3d 66 53 0e 3d 13 7c be bc d6 1b 84 bd
       0.07147917 0.034747504 -0.023252523 -0.06450622
000110 55 18 12 3e d7 f0 14 3e 22 c5 93 3d 0c 5c fc 3d
       0.14267094 0.14544998 0.072153345 0.12322244
000120 8b 2e 81 3e e8 ac 5e be d8 11 e7 bd 0d 33 e3 3d
       0.25230822 -0.21745646 -0.112827 0.110937215
000130 1c c6 a5 bd 03 42 0c be d7 70 55 bd 34 c7 00 3e
       -0.08094427 -0.13697056 -0.052109566 0.1257599
000140 b0 f5 09 be 50 2b 16 be 64 08 21 3e 80 dc 25 3e
       -0.13472629 -0.1466496 0.15725857 0.16197395
000150 a0 22 c2 bd c9 a3 f6 3d 23 31 f8 bb 46 18 25 3c
       -0.094792604 0.12042958 -0.007574217 0.010076588
000160 57 1f af bd eb b2 cb 3d f9 a4 9d 3d 19 15 f6 bd
       -0.085508995 0.09946235 0.07697482 -0.12015743
000170 d3 d7 cc 3d f6 89 03 be 6d 5f e3 3d 82 35 27 3d
       0.10002103 -0.12845597 0.111021854 0.040822513
000180 48 29 df bd 2c 6a d7 bd 62 89 2b bd 8f 20 8b bc
       -0.10896546 -0.105182976 -0.041879065 -0.016983299
000190 ca db 6b 3d ba e3 1e 3e 29 57 36 3e 31 97 07 b9
       0.057582654 0.15516558 0.17806686 -0.00012930926
0001a0 60 7f 5c bc 7e 21 6f 3e c2 77 19 be 23 09 df 3d
       -0.013458103 0.2335262 -0.1498709 0.108904146
0001b0 db c6 ee 3d 4f b2 22 3e c2 94 5d be b0 e9 2f 3e
       0.116590224 0.15888332 -0.21638778 0.17178988
0001c0 68 c8 9b bd c8 03 ff 3d cf 0a 2f be 0d 68 88 bd
       -0.07606584 0.12451893 -0.17093967 -0.06660471
0001d0 f7 60 fe 3d eb 76 96 bd 3f f2 97 bb a1 7c 1c 3e
       0.12420838 -0.073469006 -0.0046370323 0.15281917
0001e0 f5 1a 26 3e 7d 21 98 3d fc ac 21 3e 20 c8 9f 3d
       0.16221221 0.074282624 0.15788645 0.07801843
0001f0 79 86 51 be 4a b8 b1 bc ac ba 21 be 6a 73 e7 bd
       -0.20461453 -0.021694321 -0.15793866 -0.1130131
000200 2b a1 19 3d e7 79 99 3d 3b 6d 0e 3d 10 0f 1e 3e
       0.037507217 0.07493954 0.03477214 0.15435433
000210 80 81 a6 3c a8 b6 30 be e0 b8 48 3d 8e 40 dd bd
       0.020325422 -0.17257178 0.049004436 -0.108033285
000220 c3 5d 99 bd 13 c4 d7 bd b9 7b 56 3d 58 02 6b bd
       -0.07488587 -0.10535445 0.052364085 -0.057375282
000230 87 8e 67 bc 70 3f 05 be 95 9e 32 bd 8f 7c b1 3d
       -0.014133102 -0.1301248 -0.043608267 0.08666336
000240 34 48 01 be 93 ba e8 bd e1 cf bf bc 5c c9 48 bc
       -0.126252 -0.11363711 -0.023414554 -0.012255039
000250 e9 a8 09 3e af 70 72 3d 59 77 12 be 21 cb 65 3d
       0.1344334 0.059189495 -0.1430334 0.056101922
000260 0a 5b 32 be 5b 34 e6 bd d5 33 bd bd d8 32 b3 bd
       -0.17417541 -0.11240455 -0.09238402 -0.08749932
000270 47 f7 d0 3c 1f b6 19 be 7c ea 82 3d 31 98 08 be
       0.025508536 -0.1501088 0.063923806 -0.13339306
000280 69 3e 1e 3d 59 06 a4 3d 49 46 7b bd 16 3d df bb
       0.038633738 0.08009023 -0.061346326 -0.006812702
000290 95 17 05 bc 2c 68 e3 3d 61 18 2f 3e d4 45 b5 3d
       -0.008123298 0.111038536 0.17099144 0.08851209
0002a0 e1 40 48 be 64 d8 4b be 27 5d 4e 3b cd 87 f2 bd
       -0.19556 -0.19906765 0.0031488629 -0.11842308
0002b0 fa af 64 3d 20 eb 50 be 0b 59 04 be e6 27 a7 3c
       0.055831887 -0.20402193 -0.12924592 0.020404767
0002c0 d5 29 25 3a 0c b5 2e 3e 85 9e 10 be e7 0b df 3d
       0.0006300484 0.17061251 -0.1412297 0.10890942
0002d0 74 a6 c9 bd d7 dc 10 3e 79 9d fd 3d 0e 31 12 be
       -0.098462015 0.14146744 0.12383551 -0.14276525
0002e0 61 c0 38 3e 7f 06 3f 3e 4d 8c 68 3d 78 b3 5f bd
       0.18042137 0.18654822 0.056774426 -0.054614514
0002f0 92 d7 db bd c7 fa 09 3e 54 85 d7 3c 8d e9 40 be
       -0.10734476 0.1347457 0.026308693 -0.18839093
000300 d9 ee 91 3d 0d 72 35 be 13 08 e7 bd 2c ca dc bc
       0.07125635 -0.17719288 -0.11280837 -0.026951872
000310 87 09 43 3c b9 c0 38 be 67 d8 98 bd f8 a4 16 be
       0.011904127 -0.18042268 -0.074631505 -0.14711368
000320 9b ef 10 bc 79 c5 4a be 6f dd 6e bd 0c 46 0c be
       -0.008846189 -0.19801892 -0.058316644 -0.13698596
000330 09 c3 52 3d 57 e2 80 3c 56 86 3d bd 75 7f ce 3d
       0.05145553 0.015732927 -0.04627069 0.10082904
000340 13 eb a4 bc b7 f0 dd 3d e7 b7 2a bd 42 04 05 3e
       -0.020131623 0.10836928 -0.04167929 0.12989905
000350 d5 96 4c 3d c3 ba fc bd 23 cd 9a bd 92 93 42 bd
       0.049948532 -0.123403095 -0.07558658 -0.047504015
000360 1e 47 3c 3e 05 c8 92 3c 19 65 df 3d c7 2e 48 be
       0.18386504 0.017917642 0.10907955 -0.19549094
000370 f5 75 3e be 8d 71 22 bd e8 29 ba 3d ce 0f 4e bd
       -0.18599685 -0.03965907 0.09090024 -0.05030804
000380 8b bf 77 bc a5 a2 7e bd 5d e4 84 bd df ad a9 3b
       -0.015121351 -0.06216683 -0.06488869 0.0051781978
000390 da 33 16 3e dd 0d 22 3d f2 e2 d0 3d b8 51 db 3d
       0.14668217 0.039564002 0.101995364 0.10708946
0003a0 84 83 cc bd 00 77 a9 3c a6 ed 4c 3d 98 20 0e bd
       -0.09986022 0.020686626 0.050031327 -0.034699053
0003b0 43 44 36 3e 84 ff 43 3e 29 eb bc 3c 1b 71 f4 3d
       0.17799477 0.1914044 0.023061352 0.11935636
0003c0 fd 4d 28 be 15 76 c9 bb fb e6 53 bd 3a c3 3a be
       -0.16436 -0.0061481097 -0.051733952 -0.18238536
0003d0 a4 b7 c5 bd d7 da 47 3d 63 94 1f be 3e 5a 18 be
       -0.09654167 0.048792686 -0.15583949 -0.14878175
0003e0 32 bf bc 3d 47 6d af 3d d2 e2 72 3e 9f 87 e5 3d
       0.09216155 0.08565765 0.23719338 0.11207508
0003f0 ee f6 c4 3c 92 9d 44 3d 40 bb b3 bc be ab 96 3d
       0.024043527 0.048001833 -0.021939874 0.07356976

Pair_shop_mlp.fc_layers.0.bias f4 [64]
000000 97 70 41 3e 73 22 81 bc 6b bf e3 bd 8f fd b0 bd
       0.18890606 -0.015763497 -0.111204945 -0.086421125
000010 dc 89 c2 bd da 7c 94 bc a0 62 c7 3d 90 b6 b9 bd
       -0.09498951 -0.01812594 0.09735608 -0.09068024
000020 d9 f7 e2 bd 65 e5 b6 3d 91 e1 c2 3d 98 7b 1e 3e
       -0.110824294 0.08930472 0.0951568 0.15476835
000030 b7 28 cb bd f5 a6 ce 3d 01 85 bd 3d 8c 58 5a bd
       -0.09919875 0.10090438 0.09253884 -0.0533071
000040 75 24 e2 bd 0e d7 b1 bd 39 f5 a0 bd 16 12 a5 3d
       -0.1104211 -0.086835966 -0.078592725 0.0806009
000050 af dc 3a 3e 6e 5d 15 3e 11 f2 c6 bd d8 ae 62 bd
       0.18248247 0.14586422 -0.09714139 -0.055342525
000060 f4 2e 55 bd 28 e2 b9 bd 8b 54 7d bc 3a 80 ed 3c
       -0.05204673 -0.09076339 -0.015462051 0.028991807
000070 de 87 2f be 83 fe e8 3d a6 49 7d 3d dd 9c f4 3c
       -0.17141673 0.11376669 0.061837815 0.029859954
000080 73 77 52 3d 65 0a 4a 3d 69 d9 14 bd 74 bc 7b bd
       0.051383447 0.04932632 -0.03634015 -0.06145902
000090 42 58 b1 bc e6 93 c9 3d dc 41 9d bd 7a dc d9 3d
       -0.02164853 0.098426625 -0.07678577 0.10637756
0000a0 cc 03 06 bd d7 fd 1f 3d 4e dc 9b 3d 9a df 26 3e
       -0.032718465 0.03906044 0.07610379 0.16296235
0000b0 cf 57 b5 3d 92 37 28 bd 24 99 3e 3e 0c 77 66 bd
       0.08854639 -0.04106862 0.18613106 -0.056265876
0000c0 63 d1 ad bd 7b 9c 99 bd 42 f4 9b bc e1 0d ab 3d
       -0.08487203 -0.075005494 -0.01903737 0.083522566
0000d0 ad 85 04 3e 0f 66 96 3d 21 68 ed bd e3 5c 8c bd
       0.12941618 0.07343685 -0.11592127 -0.06853654
0000e0 d8 a6 d1 3c 58 52 10 be 36 e9 07 3d ea 7e 38 3e
       0.025592253 -0.14093912 0.03318139 0.18017164
0000f0 bb 6e e8 bd e4 29 7a 3d 63 fe 18 be a0 c1 51 bd
       -0.11349245 0.061075106 -0.14940791 -0.051210046

Pair_shop_mlp.fc_layers.1.weight f4 [16, 64]
000000 f8 da 97 be ea fe 27 bd 61 00 d9 3b 19 0b a3 3d
       -0.29659247 -0.04101459 0.0066223596 0.07961101
000010 6c 52 4f 3d 6c d9 9e bc f4 8e d9 3d 56 c7 b6 bd
       0.050615713 -0.019390784 0.10622969 -0.08924739
000020 e6 08 27 bd 5e b4 a6 bc a4 08 20 bc 55 f4 d7 3d
       -0.04077997 -0.020349678 -0.009767685 0.105446495
000030 3e 89 a9 bd 94 74 9d bd 7e 60 30 be f5 e2 10 3e
       -0.0827813 -0.07688251 -0.17224309 0.14149077
000040 b6 f3 ce 3d 5c f4 12 3e ed fe 0c bd f4 6c 80 bc
       0.10105078 0.14351028 -0.034422804 -0.015676953
000050 98 2b 19 3e 48 80 01 bd 73 c3 b0 3d 7e db 2c 3d
       0.14958036 -0.03161648 0.08631029 0.04220151
000060 7d ca 1d 3c 7c e4 b2 3d 79 a7 38 be bc 67 36 3e
       0.0096307965 0.08734986 -0.18032636 0.17813009
000070 2c bf 28 3e c9 e3 b1 3d 27 21 f5 bd 8b 38 90 bd
       0.16479176 0.08686025 -0.11969214 -0.07042035
000080 e4 f9 37 3e 13 60 da bd 59 0d ee 3d 95 f4 3c 3c
       0.1796642 -0.10662856 0.116236396 0.011532922
000090 4f 4a 0c 3e 4c 41 5d 3e 7d 3d 77 3d c5 c1 d3 3c
       0.13700221 0.2160694 0.060361374 0.025849232
0000a0 25 fe 49 3d 9e 7c 92 3d 5a fa 48 3d 44 5a 90 bd
       0.049314637 0.07152675 0.04906688 -0.07048467
0000b0 cb c5 20 be d8 12 13 bd 49 16 c7 3c 12 6d dd 3d
       -0.15700452 -0.035906643 0.024302619 0.10811819
0000c0 67 83 a8 3d 54 90 81 3d 36 fb 3d 3e 7a da a6 bc
       0.08228188 0.063263565 0.1855286 -0.02036785
0000d0 a7 a3 12 3e cf f4 b2 3d bb 2d 03 be 4d 43 63 bd
       0.14320241 0.087381 -0.12810414 -0.055484105
0000e0 27 ba e4 3d eb e7 cb bd 7e 85 65 3e 76 fe 77 3c
       0.11168318 -0.09956344 0.22414204 0.015136352
0000f0 dd dd ab 3c 38 d9 d0 bc 55 9e 06 3e a7 ff 6e 3a
       0.020979816 -0.025494203 0.13146336 0.00091170747
000100 9d bd 66 3e cf 9d f6 bb fe 0e 61 3c d7 54 fc 3d
       0.22533269 -0.0075261365 0.013736485 0.123208694
000110 2c 3a 38 bd 77 e4 b5 3d 04 1a df 3d e7 67 ae bd
       -0.044977352 0.08881467 0.10893634 -0.085159115
000120 e7 f7 95 3d fc db 07 3d 66 87 af 3d c1 f0 d7 3d
       0.07322674 0.033168778 0.08570747 0.10543967
000130 6e 74 a7 3d 8b 92 9f 3d 04 89 c4 bc 9b 3a 01 3e
       0.08176504 0.07791623 -0.023991115 0.12620012
000140 46 9f cd 3c e6 d1 9c bd 3f d9 19 3e 2f 7d 5e bd
       0.025100362 -0.076572224 0.15024279 -0.054318603
000150 de cc 9a bb 53 8e 9e bd 7b cc b6 3d 7d 0e b8 bd
       -0.004724129 -0.0774199 0.0892572 -0.089871384
000160 30 3a 32 3d d7 99 75 3c 00 ba 86 bd 03 74 03 3b
       0.043512523 0.014990292 -0.065784454 0.0020058162
000170 9b 3e cf bd af 1c bd 3d 77 2b 40 3c 9b b6 ba 3d
       -0.10119363 0.092339866 0.011729113 0.091168605
000180 fa b4 3a bd f2 12 64 bd 7c 35 f6 bd 79 ad 87 3d
       -0.04558275 -0.05568213 -0.1202192 0.06624884
000190 76 06 fd bb 45 d9 97 bd a3 85 78 bd c1 0d 98 3d
       -0.0077217175 -0.07414488 -0.06067432 0.07424498
0001a0 4b 04 98 bd 94 d4 ca 3c 4b 36 05 3e d4 94 1f 3e
       -0.07422694 0.024759568 0.13008992 0.15584117
0001b0 31 ca de bc e5 38 0c 39 4c fa f8 3d c1 f2 3c bc
       -0.027196022 0.00013372635 0.12157115 -0.011532486
0001c0 01 12 49 be 8b 3d 8b bd e7 5f 89 3c 61 25 47 3c
       -0.19635774 -0.06798848 0.016769363 0.012154908
0001d0 7b 5c 93 bd bb 3e 22 bd 7e 48 80 3d fc f0 8f bd
       -0.071953736 -0.039610606 0.06263827 -0.07028386
0001e0 8b 36 97 bb 9e 57 a7 3d c5 2f f9 bd 8f 3c 0b 3e
       -0.0046146563 0.081710085 -0.121673144 0.1359732
0001f0 1a 0f d9 3d 9b 93 d5 bd a3 73 e5 bd fe db a7 3d
       0.105985835 -0.10428544 -0.112036966 0.08196257
000200 32 b7 91 3e 38 79 a3 3d 76 74 9b 3d 58 3a 8b 3a
       0.2846008 0.07982105 0.075905725 0.0010622246
000210 64 24 e6 bd a5 85 5a 3d 4f 5f 14 bc 91 bb 8e bd
       -0.1123741 0.05335011 -0.009055926 -0.06969369
000220 b4 b2 4a 3d bb 70 f3 3d 5f 63 8b 3c 88 9b e0 bc
       0.04948683 0.11886736 0.017015157 -0.027417913
000230 53 b1 2f bd 56 2a ea 3c de 33 ce 3c cd 9d 8a bd
       -0.04289372 0.02858464 0.025171217 -0.06768379
000240 1d ac ad bc b7 da c3 3c 94 c5 e9 3d 13 10 09 3e
       -0.021200234 0.023908002 0.11414638 0.13385038
000250 17 25 4f 3d 5f 85 b0 3b 6a ef 22 bd 37 90 99 3d
       0.05057248 0.005386993 -0.039779104 0.0749821
000260 c5 dd 40 bc 53 3b 8d bd 5b 35 81 3e cc c9 4d bd
       -0.011771624 -0.06896081 0.2523602 -0.050241277
000270 b1 4f 67 bd 5f a2 2d 3e ec 2c 5c 3e 73 62 dc bd
       -0.056472484 0.16956471 0.21501511 -0.10760965
000280 67 08 89 3d 2b 74 a4 3c 8d de 90 bd 66 37 16 bd
       0.06691056 0.020074924 -0.07073698 -0.036673926
000290 36 5b b6 bc 42 7d d8 bd 51 4c 24 3e db 17 c4 3d
       -0.02226029 -0.10570766 0.16044737 0.095748626
0002a0 05 ef b7 3d 81 a6 ba bc f8 28 a8 3b 8b 52 58 bb
       0.08981136 -0.022784473 0.005131837 -0.0033008184
0002b0 5a 58 20 3e 41 1b 01 3d 51 f7 3d 3d 51 fe d5 bd
       0.15658703 0.031520132 0.046378437 -0.10448898
0002c0 ea 6f 56 be a6 f6 91 3d 4c 35 37 be e5 93 2e 3d
       -0.2094113 0.071271226 -0.17891425 0.042621512
0002d0 5c 6e 31 be 28 ad f4 3d 54 45 34 3d d9 63 c9 3d
       -0.17327255 0.119470894 0.04401143 0.098334976
0002e0 54 52 85 3c 92 0d 3d bd 40 4e 30 3d c5 03 27 bc
       0.016274609 -0.04615552 0.043043375 -0.01019377
0002f0 45 51 a2 3d 13 3d ec 3d ff 90 ff bd aa f3 bf 3d
       0.07925657 0.115350865 -0.12478828 0.09372647
000300 03 98 61 3e 6e 7b 8c 3d 39 e6 bc 3b 8f 69 d6 bd
       0.22030644 0.0685948 0.0057647494 -0.104693525
000310 78 a6 3d 3d 3e 38 c0 bc 74 13 e9 3d 2b 85 01 3e
       0.046301335 -0.023464318 0.113806635 0.12648456
000320 5e 27 ef 3d 82 ed 4a 3e bf 5c 16 3e a1 39 95 3c
       0.116774306 0.19817165 0.14683817 0.018215956
000330 da 3d 0f 3d ff 44 93 bd c6 95 21 3c 89 c0 bc bd
       0.034971096 -0.07190894 0.009862369 -0.09216411
000340 99 81 93 3d 7b 37 53 bd 26 46 5c 3d ff 07 e8 3c
       0.07202453 -0.051566582 0.053777836 0.028324125
000350 12 28 3a bd 32 0a e5 3d 4a a2 01 3e 8a 6e de 3d
       -0.04544837 0.11183585 0.12659565 0.108609274
000360 01 2b 25 3e 60 2e 3d be eb 9f 80 3e 53 1a a3 3d
       0.16129686 -0.18474722 0.25122008 0.07964005
000370 0f 01 a8 bc 58 25 e2 3d a4 3e 44 3e 9a ca 12 3e
       -0.020508317 0.11042279 0.1916452 0.14335099
000380 26 48 bc 3d 4a 84 03 3d 47 b3 05 3d 8c 01 53 bd
       0.09193449 0.032108583 0.032641675 -0.051515147
000390 65 76 0a be b3 f5 be bd 6b 00 a9 bd 94 92 97 bb
       -0.13521726 -0.09324207 -0.08252033 -0.004625628
0003a0 10 16 40 bc 31 11 8a 3d 4c 92 8f 3d 5d 89 48 3b
       -0.01172401 0.0674156 0.07010326 0.0030599453
0003b0 6f 93 76 3d 67 fd c2 bc 72 3c 0d bd 2e 85 5b 3d
       0.060199197 -0.023802472 -0.034481473 0.053593807
0003c0 03 e0 a2 be 32 1e 16 be 57 7c 3e be 0f 71 26 3e
       -0.31811532 -0.14659956 -0.1860212 0.16254066
0003d0 29 ba 1d be fc a9 7b bd 53 e1 a6 bd d4 e4 6f 3d
       -0.15403046 -0.061441407 -0.08148446 0.058567837
0003e0 25 d9 cb 3d 39 11 83 bd 46 5c c8 3d ca c6 07 3e
       0.099535264 -0.06399769 0.09783225 0.13259426
0003f0 95 ff 04 bd 55 bb 7f 3d 19 a8 d1 ba 71 f9 29 3e
       -0.032470305 0.062434513 -0.0015995532 0.1659906

Pair_shop_mlp.fc_layers.1.bias f4 [16]
000000 2c 22 bd bb 4f 70 47 3c 7d 3b 0b 3e 86 4c 27 3d
       -0.005771896 0.012172773 0.13596912 0.040844463
000010 e4 1b ab bd 79 48 f9 b9 4c 46 88 3c 42 d3 a2 bd
       -0.08354929 -0.00047546977 0.016635083 -0.079504505
000020 bf 05 4d 3d 2e f8 a4 bd ad ca 62 bd da 42 95 3d
       0.050054308 -0.08055149 -0.055369068 0.072881415
000030 bb 99 c8 3d 7f a5 80 3c 9a 0f b9 bd 8c f8 0e 3e
       0.09794947 0.015703915 -0.09036179 0.13962

Pair_score_mlp.fc_layers.0.weight f4 [64, 32]
000000 50 f0 19 be dc 37 c9 bd 9a 75 33 3e f0 ab 24 bd
       -0.15033078 -0.098251075 0.1752533 -0.040203035
000010 bf 03 99 bd 9a 8b bf bd 5a 27 62 3e 2f 5d bc 3c
       -0.07471418 -0.09352799 0.22085324 0.022993652
000020 3d 33 d3 bb 15 c3 17 be 46 2a 45 bd 25 2e c7 bd
       -0.006445317 -0.14820512 -0.04813602 -0.09725598
000030 b7 9f 04 be 95 02 13 be 74 33 8f 3d 15 dc 49 3c
       -0.12951551 -0.14356454 0.06992236 0.012320538
000040 6f dd 38 be ce a1 b8 bd 45 49 80 3e 1b 29 7e bd
       -0.1805322 -0.09015237 0.250559 -0.06205092
000050 ec 6d dd 3d 6a 2e 50 be af df 2f 3d 50 a8 f5 3d
       0.108119816 -0.20330206 0.04293793 0.11994994
000060 fa 86 17 be bb 22 65 bd ff ab 24 3e 94 de d6 bd
       -0.14797583 -0.055941325 0.16081236 -0.10491672
000070 38 1e a0 3d 14 ed d8 bc bd ac 7e be 06 45 93 be
       0.07818264 -0.026480235 -0.24870582 -0.28763598
000080 89 35 35 be 86 6b 8b bd 68 e4 51 3e f5 70 42 3e
       -0.17696203 -0.06807618 0.20497286 0.18988402
000090 6b 36 b0 bd 68 4a 33 3e f3 34 31 3e 8b aa e5 bd
       -0.086041294 0.17508852 0.17305355 -0.11214169
0000a0 09 7f fa 3d 25 79 dd bd 06 d3 c7 bd e4 e4 16 3d
       0.12231261 -0.10814122 -0.097570464 0.03683938
0000b0 13 88 9a 3d 63 db f6 bc b6 cb cb bd 02 96 88 bc
       0.07545485 -0.030133909 -0.09950964 -0.016673092
0000c0 b9 a8 a5 bd 20 80 f1 bd 58 35 35 3d 2a af 26 3e
       -0.08088822 -0.11792016 0.044240326 0.16277757
0000d0 9a fa 67 bc eb 82 05 be ee 95 cb 3c b4 59 f5 bd
       -0.014158869 -0.13038222 0.024851765 -0.1198
0000e0 25 08 29 be bf 24 34 3e 3d 12 de 3b a6 f0 03 be
       -0.16507013 0.17592143 0.0067770765 -0.12884769
0000f0 d7 fc 52 bd c0 c5 b3 bc dc 37 10 3e 9f 71 b8 3d
       -0.051510658 -0.02194488 0.14083809 0.090060465
000100 b3 c1 00 be bd 2c 0c bb 11 a7 22 bd ec d4 cf bd
       -0.1257389 -0.002138897 -0.03971011 -0.101480335
000110 75 b4 1e 3d 7a 7e 87 bc 99 4a ca 3d c1 58 ff bc
       0.038746316 -0.0165398 0.098775096 -0.03117025
000120 20 b0 05 3e 06 29 3f be 83 c2 7b ba 7c 35 34 3e
       0.13055468 -0.18667993 -0.00096038746 0.17598528
000130 72 b5 e5 3c bd 63 41 bd de e0 b2 3d 9a b9 99 ba
       0.028040621 -0.04721426 0.08734296 -0.0011728287
000140 fd 8e 8c be c0 14 19 3d 5d d0 0b 3d 9e ec 5e 3e
       -0.2745284 0.037373304 0.034134258 0.2176995
000150 90 fe 63 3e 48 e0 73 3d 52 93 42 3e a1 b2 58 3d
       0.22265077 0.059540063 0.1900151 0.05290473
000160 8d f4 3a 3e e2 5d 77 bd 1d 0d 67 bd e9 33 59 ba
       0.18257351 -0.060392268 -0.05640899 -0.0008285628
000170 d6 ab 1e be 85 e1 f8 bd 94 3b b9 bd 26 bd 14 3e
       -0.15495238 -0.121523894 -0.09044567 0.1452528
000180 fb 06 30 be 25 33 04 3e bd e3 72 3e 2a 90 3b 3d
       -0.17190163 0.12910135 0.23719688 0.045791782
000190 4a f1 30 3e 80 21 15 be e2 e7 e4 bd 74 11 83 3d
       0.17279544 -0.1456356 -0.11177041 0.06399813
0001a0 33 9c 1d 3e 13 bb eb 3c a2 62 15 be 92 13 3e 3e
       0.15391617 0.028775727 -0.14588407 0.18562153
0001b0 2d de a9 bd 0c 3e 8c 3d 3e 9a bd bd dd 27 36 3e
       -0.0829433 0.06847772 -0.09257935 0.17788644
0001c0 0b 9f 0e 3d 3c bd e8 bd 5e cc d8 3d a4 3e a1 3d
       0.034819644 -0.113642186 0.10585855 0.07873276
0001d0 55 61 b5 3c 05 31 7d 3d 7c 65 eb 3d 95 18 81 bd
       0.022141138 0.061814327 0.11493966 -0.06303517
0001e0 e3 cd 0f 3e 88 e4 5b be a8 23 ea 3c eb ec 6c bd
       0.14043383 -0.21473897 0.028581455 -0.05784313
0001f0 fd db 0b 3d 7f 56 69 3d b8 9a 2e 3e 89 47 23 3d
       0.034145344 0.056967255 0.17051208 0.039863143
000200 97 80 3b be e0 99 f9 bc 9d 6e 7a bb bf bf e8 bd
       -0.18310772 -0.030468881 -0.0038212903 -0.11364698
000210 c4 22 0b 3e 8a 1a b8 bc d0 60 06 be 5e a3 7d be
       0.13587481 -0.022473592 -0.13122869 -0.24769351
000220 19 5e 14 3e 61 83 85 bd 94 3f 2d be 1c f7 4d be
       0.1448902 -0.06519199 -0.16918784 -0.20113796
000230 50 6d f6 bc bd 8a 9d 3c f3 b6 01 be a7 0a 22 be
       -0.030081421 0.019231195 -0.12667446 -0.15824376
000240 8c 4d 57 3e 41 9c 61 3e 55 d4 1e be 27 82 b8 bd
       0.21025676 0.22032262 -0.15510686 -0.090091996
000250 b9 a7 d2 bd 0c 63 bf 3d 02 1b 8c 3a 63 06 5b 3c
       -0.10285897 0.093450636 0.0010689201 0.013368222
000260 f8 f7 3e be dd 06 8f 3d 30 4b 6d bc 9b 15 68 3e
       -0.1864928 0.06983731 -0.014483258 0.22664492
000270 58 72 ce bc 7f 89 05 be d0 e4 5e 3d 2c 2d 1d be
       -0.025201008 -0.13040732 0.05441743 -0.15349263
000280 d2 ef 05 be 37 83 0f 3d f8 ef 22 3e 18 3b 93 3d
       -0.13079765 0.035037246 0.15911853 0.071890056
000290 03 05 c9 3d 51 25 12 3e bd 94 b1 bd 5d ec e1 bd
       0.09815409 0.14272048 -0.08670948 -0.11031411
0002a0 24 95 c1 bd 85 01 55 bd c3 85 38 3e 5d 33 8a 3d
       -0.094522744 -0.052003402 0.18019776 0.06748078
0002b0 ad ad dc 3b 62 73 d0 3d 95 ff 21 be 90 12 89 bd
       0.006734571 0.101782575 -0.15820153 -0.06692994
0002c0 98 f2 2e 3e 2d 3c 27 3e da 31 bb 3d 2e 59 80 3a
       0.1708473 0.16331549 0.09140368 0.0009792203
0002d0 53 17 df 3d b1 ba 0a be 4a 27 81 3c 7a d2 b9 3d
       0.108931206 -0.1354778 0.015765805 0.09073348
0002e0 60 b8 86 3d 83 14 99 3d fa 4b 47 3e 2e 02 2b be
       0.065781355 0.074746154 0.19462577 -0.1670005
0002f0 07 51 27 3e ee a3 13 be 0d 81 14 3e 4d fe 88 bd
       0.16339503 -0.14418003 0.14502354 -0.06689129
000300 05 4b 04 be e2 b2 5b 3e b8 be 1e bd 0f 54 74 bd
       -0.12919243 0.21454957 -0.038756102 -0.059650477
000310 7f a0 17 be 8b 52 b1 bd db ac 27 3d ae 38 10 3e
       -0.14807318 -0.08658322 0.040936332 0.14084122
000320 f6 3f 97 3b fb e6 0b 3d 87 00 e4 bd c7 59 1d 3e
       0.004615779 0.034155827 -0.11132913 0.15366279
000330 bb c5 2d bd 35 20 c1 bd da d3 09 3e 24 6b e5 3c
       -0.0424249 -0.09429971 0.13459721 0.02800519
000340 11 49 21 ba 6c 94 02 3e 40 aa a5 bd d9 dc 49 bc
       -0.00061525503 0.12751931 -0.08089113 -0.012320721
000350 89 ef a8 bd a9 85 73 3d 9c f6 3c 3e 93 ef 23 3e
       -0.08248813 0.05945364 0.18453449 0.16009359
000360 35 51 aa 3d 47 9b 86 bd c7 22 2a 3d e8 e9 5e 3e
       0.0831627 -0.065725856 0.041537073 0.21768916
000370 17 13 fa bd 8c e2 00 3e 5a be 17 3e fc 40 19 be
       -0.12210672 0.12586421 0.14818707 -0.14966196
000380 f1 95 03 3c 6f 92 8d bd b1 fe 57 3e 7b 36 0c 3e
       0.008031354 -0.069126956 0.21093251 0.13692658
000390 f2 05 0b 3d 40 95 85 3c fb f1 ac bd 66 a1 b0 bd
       0.033941217 0.01630652 -0.084445916 -0.08624534
0003a0 15 0d 3c 3e 78 f3 5d 3e ff 3f 69 be 60 58 f9 bd
       0.18364365 0.21674907 -0.22778319 -0.12175059
0003b0 a1 4f 89 3d c4 bc 82 bd 02 8c d8 bd 2f 1c 01 3e
       0.06704641 -0.063836604 -0.10573579 0.12608407
0003c0 fe 2c 37 be df 89 10 be 4a ed 28 3c 1d a1 8e bc
       -0.17888257 -0.14115094 0.01031048 -0.01741081
0003d0 4c b3 76 bd 99 70 66 3e 6d a3 43 3d ec 29 92 bc
       -0.060229585 0.2250389 0.047763277 -0.017842256
0003e0 37 2a 1b bc a7 61 e1 bd d5 39 cb bd 6f 43 e8 bd
       -0.009470514 -0.11004954 -0.0992314 -0.11340987
0003f0 9c 08 e9 bd 24 61 b2 bd ed 1a 2c 3e 22 66 9b 3d
       -0.11378595 -0.08709934 0.16807146 0.0758784

Pair_score_mlp.fc_layers.0.bias f4 [64]
000000 a8 0b 6b 3d 37 e5 56 bd 2b 03 0a be 0d 3e c1 bd
       0.057384163 -0.05246469 -0.13477771 -0.09435663
000010 21 e9 23 3e 60 8e 22 3e 11 ca bc bd fe 58 c9 bd
       0.160069 0.15874624 -0.092182286 -0.09831427
000020 f9 89 85 bd 95 61 c1 bd 0f f3 21 3e 83 cb fb 3b
       -0.06520457 -0.094424404 0.15815376 0.0076841726
000030 57 0f 1b 3d 2c 18 e0 3d 7f cc 82 bd 99 fb 14 3d
       0.037856426 0.109421104 -0.06386661 0.036372755
000040 63 9f 42 3e 86 8b 8b bd 25 e6 d8 3d 5c 6a 85 3d
       0.19006114 -0.06813721 0.105907716 0.06514427
000050 57 c9 a8 bd 4c 5d 29 bd 62 9f 98 3d 96 5e 29 bd
       -0.082415275 -0.04134874 0.07452275 -0.04134997
000060 f8 3b c0 3d 47 a0 23 bd f5 0a e9 bb 58 a6 dd 3d
       0.09386438 -0.039947774 -0.007111902 0.10822743
000070 f1 10 22 3e 72 97 1b bd a8 e0 a0 bd 5c f6 1c 3e
       0.15826775 -0.037986226 -0.0785535 0.15328354
000080 ed 83 9e 3d 3f b4 1b be 6a b8 17 3c 1a 22 6c 3e
       0.077400066 -0.15205477 0.009260276 0.23059884
000090 68 59 30 3e 35 bf 14 3e 58 59 b7 bd 3f 47 21 bd
       0.17221606 0.14526065 -0.08952588 -0.039374586
0000a0 c0 c4 e8 bd 5f 4b d0 3d 2e 40 20 be e8 08 fb bd
       -0.11365652 0.10170626 -0.15649483 -0.12257558
0000b0 a3 17 b0 3b 41 84 fd 3d bd 15 31 bd a3 9c cd bd
       0.0053739115 0.12378741 -0.043233622 -0.10039642
0000c0 eb f2 53 bd 4f 4f 8e bd 61 19 32 3d 69 9c 9a bd
       -0.051745337 -0.06948721 0.043481234 -0.07549364
0000d0 b9 bb 60 bd 45 a6 e7 bd 69 82 88 bd f2 84 10 3e
       -0.054866526 -0.1131101 -0.06665499 0.14113215
0000e0 b7 e8 e3 bc 32 bb e8 3d 3a 3a f5 3d dd 6b e7 3d
       -0.027820928 0.1136383 0.119739965 0.1129987
0000f0 22 50 94 3d 0f 33 29 3e 5e de db 3d be f6 9c bd
       0.072418466 0.16523384 0.107357726 -0.0766425

Pair_score_mlp.fc_layers.1.weight f4 [8, 64]
000000 d0 cf d4 3d d4 5e f9 3d df 58 05 3e 74 2d 81 3d
       0.103911996 0.1217629 0.13022183 0.063074976
000010 88 11 62 3e 7a c1 17 3e 79 d6 82 3d e0 40 d2 3d
       0.22077 0.14819899 0.06388564 0.1026628
000020 e9 89 13 3e 45 ee 1e 3e 50 cb e8 bd ef b9 f8 3c
       0.14408077 0.1552058 -0.11366904 0.030362098
000030 ea ab 0e 3d a9 8f 23 be ad 5e bc bc c9 a2 09 3a
       0.03483192 -0.15972771 -0.022994364 0.0005250392
000040 62 46 01 3e ed a9 51 3b 6c 7e 06 bd dd 3c 3c 3d
       0.12624505 0.0031992153 -0.03283541 0.04595648
000050 84 f2 00 3e c9 d4 c1 bc 0a 3e d2 3d 64 03 59 3c
       0.12592512 -0.023661034 0.10265739 0.013245437
000060 ef de ca 3d 24 63 12 3e a7 96 21 3e 5a d3 8a 3d
       0.099058025 0.14295632 0.15780126 0.06778593
000070 ce 90 41 bd 92 46 3d bd 6e 68 db 3d d8 15 4b 3c
       -0.047257237 -0.04620988 0.10713278 0.012395345
000080 8a f7 ab 3c 8d f8 ed 3d d2 94 e2 3d fd 3f 5f bb
       0.02099206 0.11619673 0.110635415 -0.003406524
000090 f3 72 49 3e 6d 8b 1c 3d f4 38 26 3c 50 ac e6 3d
       0.19672756 0.038218904 0.010145415 0.11263335
0000a0 ab 88 5f bd 54 d5 1c 3d 0f 52 c9 bc 90 5f a9 3d
       -0.054573696 0.038289383 -0.024575261 0.0827018
0000b0 df e3 46 be 53 d7 ca 3d d7 82 13 3e 25 17 d9 3d
       -0.19422863 0.09904351 0.1440538 0.106001176
0000c0 04 d5 d4 bd eb 8a a4 3d 9b dc c8 bd 74 d8 9f 3d
       -0.10392192 0.08034309 -0.09807702 0.07804957
0000d0 f7 40 74 3e 4b d9 8b 3c fc b7 c1 3d ca a8 a8 bd
       0.23852907 0.017071387 0.0945892 -0.08235319
0000e0 4d 96 5c 3d af 1f bc bd 68 0f 6d bd 60 ca c4 3d
       0.053854275 -0.09185731 -0.05787602 0.096089125
0000f0 e1 15 a9 bb fb 29 97 3d 62 d4 99 bd 28 8f 34 3e
       -0.005160079 0.07381054 -0.07511212 0.17632735
000100 84 cf e6 bd dd 31 d4 3d 07 b0 00 be f9 57 13 be
       -0.11270049 0.10361073 -0.12567149 -0.14389028
000110 7b 6d f1 bd a1 d5 70 bd 92 a6 0b bd eb 73 a0 bd
       -0.1178846 -0.058797482 -0.0340944 -0.078346096
000120 62 0d a4 bd 35 02 d0 3c 65 80 42 be 8f ee fa 3b
       -0.08010365 0.025391677 -0.18994291 0.007657833
000130 4d a1 3a be 17 77 4a 3e fb 39 40 be 35 91 3c be
       -0.18225594 0.19771992 -0.18772118 -0.18414767
000140 24 b9 94 bb da 1b 33 3d 72 40 8a bd e5 08 fa 3c
       -0.004538672 0.043727733 -0.06750573 0.03052182
000150 52 a7 0d be d2 7d f2 bd 25 cc 83 bd b8 3b 96 3d
       -0.13833359 -0.118404046 -0.06435422 0.07335609
000160 f9 31 c2 bd f3 0c e4 bd 06 fb f4 3d 6f 24 11 bd
       -0.09482188 -0.11135282 0.119619414 -0.035435136
000170 ba 61 d0 bd de 40 d1 3d 01 b8 ec 3d a1 31 2e bc
       -0.1017489 0.102174506 0.115585335 -0.01063195
000180 7b 37 83 bd 8e 94 09 be d3 98 6f 3d 47 47 e7 3d
       -0.064070664 -0.13435575 0.058495354 0.11292892
000190 a5 0e f4 bd 5c 03 87 3d cf 99 74 3d 99 cc 5e 3d
       -0.11916856 0.065924376 0.059716996 0.05439434
0001a0 de 88 cf bd 86 af 28 bd 79 f0 9f bd ad f1 f9 bd
       -0.10133527 -0.041183017 -0.078095384 -0.12204299
0001b0 df 65 41 3e 96 5a 04 3e 80 df c1 bd fa a1 b7 bd
       0.18886517 0.12925181 -0.09466457 -0.089664415
0001c0 da d9 05 3d e0 bc fa bd 5f a0 e3 3d dd 05 e6 bd
       0.032678463 -0.12243056 0.11114573 -0.11231587
0001d0 39 ff 27 bc e4 87 1d be cc d5 17 be 38 eb 58 3e
       -0.010253721 -0.1538387 -0.14827651 0.21183479
0001e0 c3 e6 c6 3c 21 aa d5 bd 17 5e 32 bd 9e 10 82 bd
       0.024279958 -0.1043284 -0.043546762 -0.06350826
0001f0 34 2d 24 3e e5 23 c0 3d e9 bf 6f 3d a5 a0 6d 3d
       0.16032869 0.09381846 0.05853263 0.05801453
000200 78 f5 ab 3d f2 6c e4 3d 77 e6 61 3e 83 c2 29 3e
       0.08396429 0.11153592 0.22060572 0.16578107
000210 c7 fb 4e 3d f6 11 8e 3d f0 96 46 3e c2 c6 a1 3b
       0.050533082 0.069370195 0.19393516 0.004937024
000220 56 c5 43 3e c8 e7 30 3d 0e 51 ab 3d 19 3e 83 bc
       0.19118246 0.043189794 0.08365069 -0.016020821
000230 02 5e fe bc 9e a9 70 be 2d c8 76 3d 8b 89 84 3d
       -0.031050686 -0.23502204 0.060249496 0.06471547
000240 b9 02 83 3e 47 53 18 3e 14 60 00 3e f6 8b fb 3c
       0.25588015 0.14875518 0.12536651 0.030706387
000250 b7 13 ca 3d 60 cd 41 bd b3 4f f5 3d d2 de 8f 3d
       0.098670416 -0.047315 0.11978092 0.070249215
000260 60 d9 2e 3d d9 60 2f 3d 7a 55 e3 3d 0d 0a 7b 3e
       0.042687774 0.04281697 0.11100288 0.24515553
000270 23 4a 29 bc d5 96 02 3e 32 0f 85 3d 1e c2 45 3e
       -0.010332617 0.1275285 0.06497039 0.19312331
000280 a7 c1 c2 3d 8d a6 b1 3c 06 d7 d5 3d 33 b4 f6 bc
       0.095095925 0.021685863 0.10441403 -0.030115223
000290 32 0e 3b 3e ae 9c 3a 3b 28 78 2f be 7a 55 24 3e
       0.18267134 0.0028474736 -0.1713568 0.16048232
0002a0 1a 20 a0 bd ba 50 c4 3d 03 59 e9 3d e5 b5 1f 3e
       -0.07818623 0.0958571 0.11393931 0.15596731
0002b0 b0 66 bf bd 30 f9 0b 3e 46 e5 bd 3d f9 fa b5 bc
       -0.09345758 0.13669276 0.09272246 -0.0222144
0002c0 fc 3d 1a 3e 1c 92 1c bd 8f b8 28 3e 4c de fe bc
       0.15062708 -0.03822528 0.16476654 -0.031111859
0002d0 fb b8 86 3d a3 ad d5 bd 32 b5 b1 3d 43 2b 8f bb
       0.06578251 -0.10433509 0.086771384 -0.004369171
0002e0 3d a6 f9 bc 8e b6 5c 3c 4f 0c c8 3d d9 9e 5a 3e
       -0.030474776 0.013471259 0.09767973 0.21349658
0002f0 29 15 da 3d f1 4c 11 3c ee 2f c0 3d ff df 8c 3e
       0.10648567 0.008868442 0.09384142 0.27514645
000300 c0 0c 16 bd 86 57 9e 3d cf 96 96 3d 6b d8 fc 3a
       -0.036633253 0.077315375 0.07352983 0.0019290572
000310 d2 1b 71 3c 72 e0 d8 bd e7 04 67 3c d9 79 7b 3c
       0.014716106 -0.105896845 0.01410029 0.015348875
000320 3c cc 21 be 34 b8 f6 ba 07 c7 96 3d bc f1 2c 3d
       -0.15800565 -0.0018823207 0.0736218 0.042222723
000330 82 61 b3 bc 48 97 be 3d db 50 03 be ba d9 1c be
       -0.021897081 0.09306198 -0.12823813 -0.15317431
000340 db d5 40 bd 62 09 bd bd 7e e8 c9 3b 3c c4 4d bd
       -0.04707895 -0.09230305 0.0061617484 -0.05023597
000350 7d 4e 63 bd 14 64 7e bc c2 42 84 3d 9e b9 b5 3d
       -0.055494774 -0.01552679 0.064580455 0.08873294
000360 29 f5 0d 3e c8 1e 5c b7 cb 64 1b bd 17 37 04 3e
       0.13863052 -1.3120189e-05 -0.03793792 0.1291164
000370 61 7d 7a bd c5 4b 61 3d c2 8a 87 3d b9 93 9a bd
       -0.061154727 0.0550039 0.06618263 -0.07547707
000380 fd 15 43 bd 4b a7 8d bd 1e 22 b0 bc f0 30 54 bc
       -0.04762839 -0.06916674 -0.021500643 -0.012951121
000390 ab 20 25 3e f0 f8 3c be 3c 63 97 3c 6d f7 ba 3c
       0.16125743 -0.18454337 0.018479936 0.02282306
0003a0 75 e5 24 bc 22 3c 90 3d 07 a9 ca bd a9 17 9a 3d
       -0.010064472 0.070427194 -0.09895521 0.07524044
0003b0 60 67 a8 bc 8b a5 e6 bd 2d d7 07 be 7e ae 9b bd
       -0.020557106 -0.112620436 -0.13265677 -0.07601641
0003c0 3a 96 d3 3d 44 4c 16 be 11 a1 02 bc f7 cb a6 bd
       0.10331388 -0.1467753 -0.007972972 -0.08144372
0003d0 90 3a 73 3d 0f 1a 09 be c4 30 ce 39 d2 dc 13 3e
       0.05938202 -0.13388847 0.00039327715 0.14439705
0003e0 9c 32 cb bd a9 1a b4 3c 12 8d e1 3d d7 da c0 3d
       -0.09921762 0.021985369 0.11013235 0.094167404
0003f0 90 e2 57 bd d0 a4 d6 bd 91 38 45 3d 8c 94 ec 3c
       -0.0527063 -0.10480654 0.04814965 0.028879426

Pair_score_mlp.fc_layers.1.bias f4 [8]
000000 e8 49 d5 bb 64 6f db 3d df 9c bc bd ce 91 93 3d
       -0.0065090545 0.107146055 -0.09209608 0.072055444
000010 25 c9 07 3e ea 01 e9 3d a2 f7 79 bd a9 06 8a bd
       0.13260324 0.11377318 -0.061027177 -0.067395516

CNN_embedding_types.weight f4 [106, 16]
000000 53 31 14 3e f5 92 46 bf f1 cf fc be b2 de 73 3f
       0.1447194 -0.7756799 -0.49377397 0.9526168
000010 39 9b d0 be 02 8c 5a bc eb 74 e2 3f 05 a0 39 c0
       -0.40743425 -0.0133390445 1.769193 -2.9003918
000020 15 51 fc 3d 6c a1 5d bf e7 f5 08 bf 9c da 89 3f
       0.12320153 -0.86574435 -0.5350022 1.0769839
000030 ef 8e f8 3e ba 84 ca 3e 1c 5e 3c 3f 04 11 44 bf
       0.4854655 0.39554387 0.735811 -0.76588464
000040 46 1c 08 bd 67 94 f6 bf 6a 36 2a 3f 97 0b 3b bf
       -0.03323009 -1.9264039 0.6648928 -0.7306456
000050 46 69 ea 3e 44 19 27 bf 18 2d d4 3e 60 a8 81 be
       0.45783442 -0.6527293 0.41440654 -0.25323772
000060 ea 84 1e bd 1c 8b 67 bf 2f 79 ad bf dd b3 f2 3e
       -0.038700975 -0.9044664 -1.3552607 0.4740285
000070 ea d8 82 3f 99 83 da 3e dc 08 b9 be 0c 0d 02 be
       1.0222447 0.42678526 -0.36139572 -0.1270029
000080 64 bd 0e bf 45 8d d5 3f 49 d9 1f 3f 1e 70 bd be
       -0.5575774 1.6683737 0.62440926 -0.369996
000090 95 56 9e bc 5b 48 8b 3f 57 4e e1 3e a3 90 84 bf
       -0.019328395 1.0881456 0.4400508 -1.035664
0000a0 26 13 07 40 29 77 c6 bf 23 e7 88 bf c1 0f 16 3f
       2.1105437 -1.5505115 -1.0695537 0.5861779
0000b0 c4 8f 8b bd bd a1 e1 3d 88 13 02 bf 4a 34 a2 3f
       -0.068145305 0.11017177 -0.5081105 1.2672207
0000c0 95 3a 9b be 5d 25 1b bf 7e 64 9f be bc a0 8f 3d
       -0.30318132 -0.60603887 -0.31131357 0.070130795
0000d0 52 fe e7 be f4 d9 05 40 6f a9 9c bd a3 61 9f 3f
       -0.45311219 2.0914278 -0.076495044 1.2451671
0000e0 e5 8e ae bf 9f ee 44 bf da 21 aa 3e ae 21 92 3f
       -1.3637358 -0.76926607 0.33228952 1.1416528
0000f0 d6 b5 c3 3d ec 68 08 c0 e1 59 0c 3f 83 a2 6f 3f
       0.09556167 -2.131404 0.54824644 0.9360735
000100 a4 3f f4 3f 90 27 76 3f 19 9f 0d 3f 04 97 71 3f
       1.9081922 0.9615412 0.5532089 0.94371057
000110 0b d5 ae 3e f5 fe 13 bd 4d bb bf 3f 62 f2 46 bf
       0.34146914 -0.036131818 1.4979035 -0.77713597
000120 84 d1 48 3f 52 7e 3a bd 1d cc 26 be 7c 58 ab 3f
       0.78444695 -0.045530625 -0.162888 1.3386378
000130 21 b6 26 be cb 93 83 be c7 17 56 3d 93 f6 c7 be
       -0.16280414 -0.25698695 0.05226877 -0.3905531
000140 3b e2 6b 3e 18 9b 88 3e 4b 90 8c 3f 9d 96 9f bf
       0.23035519 0.26680827 1.0981535 -1.2467839
000150 9b 92 75 bf 5a 47 e7 bf 61 7b 3a 3c c8 e0 e1 bd
       -0.9592683 -1.806865 0.011381955 -0.11029202
000160 6f bd a0 bf 8c 85 22 3f 58 4d 9e 3e cd a2 36 40
       -1.255781 0.63485026 0.30918384 2.8536866
000170 44 72 9b bf 62 13 5b be 26 df 06 bf f1 fb 32 3e
       -1.2144246 -0.21394113 -0.5268425 0.1747892
000180 84 b8 04 3f 58 d5 c1 be ef db 66 be aa 67 c8 bf
       0.5184405 -0.3785808 -0.22544836 -1.5656636
000190 e5 71 f4 3e ac e3 87 bf 19 cc e3 3f 75 78 0c bf
       0.47743145 -1.0616355 1.7796661 -0.548713
0001a0 fe 86 ad 3e 68 37 47 3f 4e 46 f7 3b 63 71 15 bf
       0.33892053 0.7781892 0.007546223 -0.5837614
0001b0 74 51 6a bf 67 8b 57 bd 7a cf e4 3f 83 64 93 3f
       -0.9153054 -0.05262318 1.7875817 1.1515049
0001c0 f1 23 c7 3d 39 4b cc 3f bf a9 1a bf a8 74 b4 3f
       0.09723652 1.5960456 -0.6041526 1.4098101
0001d0 73 c5 f1 3d d3 3a 34 3f c7 95 09 bf 44 76 3c bf
       0.118052386 0.7040226 -0.5374417 -0.7361796
0001e0 17 0f 0c 3f 1d d8 f3 3f e3 e4 cf 3d e4 ea e6 3e
       0.54710525 1.9050328 0.101510786 0.45101082
0001f0 d9 01 cd 3e fa aa 7f bf cd 37 1b 3e da 77 21 bf
       0.40040472 -0.99870265 0.15158005 -0.63073504
000200 c8 88 36 40 03 4c f3 bd d2 10 c5 3e e5 eb 79 3f
       2.8520985 -0.118797325 0.38489395 0.9762557
000210 aa 02 ac bf f8 8a 55 bf bd 59 06 be ec 76 c2 bd
       -1.3438313 -0.83415174 -0.1312017 -0.09495339
000220 7d 43 38 be 3e 5a 8e bf ed 8a ea 3e ad ad 5f be
       -0.17994495 -1.112129 0.45809117 -0.21843596
000230 86 57 0e 3f 09 d7 df bd b1 b5 ff 3f d2 92 03 3e
       0.556023 -0.109296866 1.9977323 0.12848976
000240 f2 00 e0 3c 2a e4 1a 3e 16 48 54 bf 40 95 01 40
       0.0273442 0.151261 -0.82922494 2.0247345
000250 c2 86 79 3e 2a 23 9a 3d 2d 50 90 be b9 bb 9b 3d
       0.24367812 0.07526238 -0.2818617 0.07604165
000260 a6 73 d0 3e 61 8f 81 be 06 de cf 3e 49 80 45 3f
       0.40713233 -0.25304702 0.40599078 0.7714887
000270 ed e5 6c be 06 a6 8d bf 0a 10 94 3d f0 fc 5d bf
       -0.23134585 -1.1066291 0.07229622 -0.86714077
000280 87 c5 96 bf 34 da 0a 3f 45 92 4d be c9 95 18 bf
       -1.177903 0.542392 -0.20075329 -0.59603554
000290 f4 d2 eb 3e 36 ec 9d 3f 50 51 9e 3e fe 11 1b 3f
       0.46059382 1.2337711 0.30921412 0.6057433
0002a0 76 73 19 3f 20 07 9c be 7f 51 9d be 89 34 d2 3f
       0.59941804 -0.30474186 -0.3072624 1.6422282
0002b0 e1 8a 85 3f 04 e6 bd bf c4 b4 24 3f d2 ef e5 3f
       1.0433007 -1.483582 0.64338326 1.7963812
0002c0 8e 29 b3 3c 84 66 f3 bf 09 6c e5 bd be d3 ba 3e
       0.0218704 -1.901566 -0.11202247 0.3648967
0002d0 38 ff a6 bf 27 3a ca bc 1a 1c a7 bf f2 b2 68 be
       -1.3046637 -0.024685932 -1.3055451 -0.22724512
0002e0 3b c6 d9 bd 95 03 8c bf ec 47 92 be 3d 39 db 3f
       -0.106335126 -1.0938593 -0.28570497 1.7126843
0002f0 e4 bf a2 3f 83 c5 81 3f 2c 8a 3d bf 79 2a 84 3e
       1.271481 1.0138401 -0.7403896 0.25813654
000300 d0 92 67 bf 18 9f 13 40 e9 71 4b bf a3 e3 df 3f
       -0.90458393 2.3065853 -0.7947069 1.7491344
000310 ba 7c a6 bd 84 7c 3c be 6d 35 97 bf 6d 48 dd 3e
       -0.081292585 -0.18406874 -1.1813179 0.4321932
000320 e2 9a a3 3f 78 49 45 bf 58 81 dc 3f 3e 3e 62 be
       1.2781641 -0.7706523 1.7226973 -0.22094056
000330 f8 5f 5c 3f fe b0 e8 3f 5f 08 2f 3f 6e 50 85 be
       0.86083937 1.8179014 0.6837215 -0.26037925
000340 a8 f6 f4 3f ef 81 92 3f d3 48 b1 3f 18 62 93 bf
       1.9137774 1.1445903 1.3850349 -1.1514311
000350 23 71 02 3e 7b 3f 5d 3f 13 29 58 3f 46 88 cc bf
       0.1273847 0.8642499 0.84437674 -1.5979087
000360 6a a3 74 3f b9 68 b2 bf 9c 87 7e 3d 88 d4 82 bf
       0.9556185 -1.3938209 0.062141046 -1.0221109
000370 52 1b 0c bf bd 52 8c 3f 7e 9b fd 3d 90 07 cc 3e
       -0.5472919 1.096275 0.123831734 0.3984952
000380 6c 5c a8 3c a3 8a 89 bf 88 e1 88 3d e4 d6 2f 40
       0.020551883 -1.0745434 0.06683642 2.747491
000390 27 b3 56 40 46 1a db 3f 7d af ab bf bc 3b 4a be
       3.3546846 1.7117393 -1.341293 -0.1974935
0003a0 99 37 7a bf 3e 2d 48 3d c2 f5 59 bf b8 c3 19 bf
       -0.97741085 0.04887127 -0.8514062 -0.6006427
0003b0 6d 29 6c bf f2 b1 11 3e 76 b1 fe be 44 0f a5 be
       -0.9225071 0.14228037 -0.49744767 -0.3223821
0003c0 3f 9f ee bf db c8 db 3e b0 58 1d 3f ba 6d 3b 3e
       -1.8642348 0.42926678 0.6146345 0.18303576
0003d0 99 c3 ca 3d ec 41 0b bf 52 10 44 3f b6 ce b0 bf
       0.099005885 -0.54397464 0.765874 -1.3813083
0003e0 c5 48 85 3e ce ad 29 3f ae 5e 3a 3f 30 f0 15 3f
       0.2603208 0.6628083 0.7280072 0.5856962
0003f0 d4 02 74 3e 5b cb a9 3c 17 00 4f bf 50 8c 5b 3f
       0.23829204 0.02072685 -0.8085951 0.85760975

embedding_CNN_distances.weight f4 [7, 8]
000000 d7 2b 85 3f 9e 21 93 bf 5f 35 47 3e 70 f4 b8 3e
       1.0404004 -1.1494634 0.19453953 0.3612399
000010 f6 47 70 3f e4 7f 07 bf ff 0b 3c 3f ea 53 9e 3f
       0.93859804 -0.5292952 0.73455805 1.2369359
000020 84 6e 37 bf 02 1b 37 3f ba 5e 37 c0 6e 64 6e be
       -0.7165301 0.71525586 -2.8651567 -0.23280498
000030 7c 0d 81 bf ac 67 0d c0 58 a0 82 bf 05 3f 7f 3d
       -1.008224 -2.2094526 -1.0205183 0.06231596
000040 53 05 84 3e 3b 50 95 bf b9 17 02 3d dd dc c3 be
       0.25785312 -1.1665109 0.031760905 -0.38254443
000050 b6 89 9d 3f 76 27 63 3f c1 51 f5 3f 5b af cf 3e
       1.2307651 0.8873209 1.9165574 0.40563473
000060 2d 05 f3 bd 3e 86 be 3e 34 1e 0b 3f d5 30 e0 bf
       -0.118662216 0.37211794 0.5434296 -1.7514902
000070 69 0d 70 3f cb e1 45 bf 7d 12 d6 3e 02 61 01 bf
       0.9377046 -0.7729766 0.4181098 -0.5053865
000080 13 b6 8c bf 37 e8 30 be 11 f3 1e 3f 31 47 c6 3f
       -1.0993065 -0.17276083 0.6208964 1.5490476
000090 81 fd 0a 3e 59 6b 37 bf 13 47 6b 3e 3d 07 bb 3e
       0.13573267 -0.71648175 0.22976331 0.3652896
0000a0 30 6c bd 3d 34 eb d2 be e7 6c 51 be 29 48 ab 3f
       0.09249151 -0.4119507 -0.20451699 1.3381397
0000b0 75 8c bb 3e a6 c5 69 bf 36 1b 36 bf f2 c8 89 3f
       0.36630598 -0.9131721 -0.7113527 1.0764449
0000c0 00 00 00 00 00 00 00 00 00 00 00 00 00 00 00 00
       0.0 0.0 0.0 0.0
0000d0 00 00 00 00 00 00 00 00 00 00 00 00 00 00 00 00
       0.0 0.0 0.0 0.0

embedding_CNN_prices.weight f4 [6, 5]
000000 e1 cb f2 3f e2 2d b1 3f 5c e2 a2 bf 56 f8 dc bf
       1.8968469 1.3842127 -1.2725329 -1.7263286
000010 9e f2 80 bf 78 ea e3 be d1 78 8e 3f 06 e0 f8 3f
       -1.0074041 -0.44514823 1.113062 1.9443367
000020 98 02 b2 3e b6 77 7c be 83 63 0b 40 83 10 0f bf
       0.34767604 -0.24655041 2.1779487 -0.5588457
000030 76 8a cd bf 71 3e 34 bf fc ea 93 bf 40 76 99 bf
       -1.605788 -0.7040778 -1.1556087 -1.1989212
000040 34 bb eb 3f 78 7d a5 be fa 2a b5 bf b1 22 57 bf
       1.8416505 -0.32322288 -1.415374 -0.8403731
000050 3d fa 1d bf d0 63 a1 3e ae c8 1d 3d bc 0d 47 bf
       -0.6170996 0.31521463 0.03852146 -0.7775533
000060 8d 46 6d 3f 00 00 00 00 00 00 00 00 00 00 00 00
       0.92685777 0.0 0.0 0.0
000070 00 00 00 00 00 00 00 00
       0.0 0.0
