checkpoints/GNNNoCNN_Epoch47_valmse2.2275_testmse2.4637_ndcg0.9355.model (torch, 249600 bytes, 52 tensors)

Pair_embedding_types.weight f4 [106, 16]
00000000: 7b1e 813d 14ce 97bd 03aa d2be ac9d 5fbf
00000010: c85e 573f 5f77 cabe 36b8 f53d 321c a2bf
00000020: bf10 c63d f92f 23bd af38 a1bf 973b 113f
00000030: d28f cbbf 958e b63e c273 783e 0c89 383f
00000040: 5e72 e73e 6e5f 95bf 4428 f73f fb0f d9be
00000050: f0e9 80be a7b2 4a3e c3fa 21bf 3412 223f
00000060: fe22 87bf 28ad 4a3d 3b92 00bf 9f1d 5340
00000070: 3695 4dbf caf2 06bf af07 8dbf 8235 823f
00000080: 5f5f de3f 18e8 0f40 6903 88bf 07ab 093e
00000090: 68b8 6a3f 5969 9bbf a3c8 8ebf 8b54 363d
000000a0: 0d26 323f cae1 263e 5f30 883f 73eb e83d
000000b0: 0261 68bf b531 cc3d e02e 9a3f e384 e3bd
000000c0: 9808 29bf 18c5 973f 3778 d3be b9dc 98bf
000000d0: 5788 d8bf 1d4f 603f ba3e fcbf 645f 0b3d
000000e0: a690 f63b cf78 833f d8a5 a9bf 28a7 a53f
000000f0: dc1a 773c ef07 6f3f b7db a33f 5276 0b3d
00000100: c081 d4bd 26a7 773e 94fc 573f 8e55 cebf
00000110: 4da4 0b40 6443 85bf b628 893e 0363 b1bf
00000120: 936e 87be 49bf 113e 0c0e 553e 78c9 733f
00000130: 5c55 dc3e ed95 58be 8b55 8f3e 1072 203e
00000140: a8bb cfbe 58ab a63d 36ad 793e afdd 893f
00000150: f4c6 78be a645 8cbf 5b4c e5bd 67ab d6be
00000160: 3c11 3a3f c34e be3f cac5 26bf d548 62bf
00000170: e908 45bf 6b93 143f c0f4 743f c50b b73f
00000180: 6ee7 aebf 459c 903e cbb2 e63f 7464 123e
00000190: cffe 3a3f 987f 5f3e 52a0 5bbf a174 0c40
000001a0: 863c 8dbf e70b 983f 7e91 763e d83f 7dbf
000001b0: 76ef eebe d1a9 723e 625d fabe 0375 c5bc
000001c0: 4ae8 383f 4daa c63f 573a 873e 3fcb b9be
000001d0: 8f4d 23bf 5e0c 4c3e 1775 9bbe c0d5 26be
000001e0: 09ce 8d3f 7e0f 25c0 ae02 843e 57bc 93be
000001f0: 3493 2fbe f244 c0bf 64f6 e0bd 286a 933d
00000200: 6012 833e 9c9c c43f eb7a be3e b23c 823f
00000210: 65e7 21be 97de 8f3f 084b a6bf 187f 1a3f
00000220: b914 683e 9fad 80bf 0f36 bc3f 5f01 0abf
00000230: f81b 8ebc a2aa a13f da5a 04bd 9f4a af3e
00000240: 155f 763f 484e 373d 6f33 df3e 00a8 6ebf
00000250: 91dc dabe 5218 653f 5cbc b93e 46b4 0ebf
00000260: 128f 153f 1c1c 9bbd 2834 0e40 bf2f b03f
00000270: 7880 b83f 81e7 073e f438 be3e 16ab 8abe
00000280: 696a b3bd a610 05be a06a e63d 0948 9f3e
00000290: a9fb 8bbf 6fcc 42bf 2eec 973f e07a 863f
000002a0: 6413 b4bf a488 343f 104d 6cbe b7ef a63f
000002b0: 98d4 b13f 15e8 843d 3289 9f3e 9365 e03e
000002c0: 0bc0 a0bf 4c5f 1bbf 4a49 36be 67d9 763f
000002d0: 0739 4dbe d6aa 9bbf 4027 523f a587 273f
000002e0: 1574 a73e ef43 453f 4eb4 0040 463e 4a3e
000002f0: 6cad 973d 2cb2 af3f bb34 a0be 7e8f 573e
00000300: f5f7 c23e b6b1 c0bf 4e5c 043e f30f 8fbe
00000310: 0ac4 e03f 95e0 6fbf 05ec 113f 9441 c33f
00000320: 8dcd 00be cb85 b5bf 0db9 2ebf d8a3 143f
00000330: f92d 6c3f 889f 3f3e 4d16 373e 519f a53e
00000340: fd8a 4ebf 32b9 d33f 953e a1be f345 0840
00000350: a4b3 a33f 9e78 cf3e 789f a9bf fd5d a83e
00000360: 7b65 bebe 30d6 953e 1bc7 25bf 302c 163f
00000370: f75f a6bf c7b2 5340 e402 0740 e2d0 06c0
00000380: daa4 5fbf 7a40 f83c 2415 15c0 6d07 ac3f
00000390: bb01 89bf fe9f bebe df0b cb3e 0d4b 73bf
000003a0: 9ee2 e2be 4014 2abf 3d38 46bf 5d3b bb3e
000003b0: 6fa5 b7bf 4c48 6ebf 3fbf ccbe 0b96 c1bf
000003c0: 30c7 91bf 1e11 c73e d801 c6bf eda9 aa3d
000003d0: fedb bc3e 3423 bb3f 42ee 693f 9c1d b2bf
000003e0: 5b65 7a3f 1f9f 85bf 20a4 6fbe 2833 aabe
000003f0: 95c6 d63f e99b d8be 6feb f5bf a265 b23d
0.06304642 -0.07412353 -0.41145334 -0.87349963 0.84129 -0.39544198 0.11998026 -1.2664855
0.09671163 -0.039840672 -1.2595423 0.5673155 -1.5903265 0.35655656 0.24262908 0.72084117
0.45204443 -1.1669748 1.9309163 -0.42395005 -0.2517848 0.19794713 -0.63273257 0.63309026
-1.0557554 0.04948154 -0.5022313 3.298683 -0.803058 -0.52714217 -1.101797 1.0172579
1.7372855 2.2485409 -1.0626041 0.13444148 0.9168763 -1.2141525 -1.115498 0.04451422
0.6958931 0.16297069 1.0639762 0.113730334 -0.9077302 0.09970418 1.2045555 -0.111093305
-0.6602874 1.1857023 -0.41302654 -1.1942359 -1.6916608 0.8762072 -1.9706643 0.03402652
0.0075245677 1.0271243 -1.3253736 1.2941637 0.015082087 0.9337148 1.2801427 0.034048386
-0.1037631 0.24184856 0.8436978 -1.6119859 2.1819031 -1.0411191 0.26788872 -1.3858341
-0.2645155 0.14233126 0.2080614 0.9522929 0.43033874 -0.21150942 0.27994952 0.15668511
-0.40572858 0.0813815 0.24382481 1.0770777 -0.24294645 -1.0958755 -0.11196204 -0.41927645
0.7268255 1.4867786 -0.6514555 -0.8839238 -0.7696672 0.5803744 0.9568596 1.4300467
-1.3664377 0.28244224 1.8023313 0.14296132 0.7304506 0.21826017 -0.85791504 2.1946185
-1.1034095 1.1878632 0.24078938 -0.9892554 -0.4666707 0.23697592 -0.4889937 -0.024103647
0.72229445 1.5520722 0.26411697 -0.36287877 -0.6379022 0.19926593 -0.3036277 -0.16292477
1.1078502 -2.5790706 0.25783294 -0.2885463 -0.17145997 -1.502104 -0.10984495 0.07197982
0.25599957 1.5360293 0.37203154 1.0174773 -0.15810926 1.1239804 -1.2991648 0.6035018
0.22664155 -1.0052985 1.4703997 -0.5390834 -0.01734732 1.2630198 -0.032313205 0.3423662
0.96238834 0.04475239 0.43593928 -0.932251 -0.42746404 0.89490235 0.3627652 -0.55743825
0.5842143 -0.07573721 2.2219334 1.3764571 1.4414206 0.13271905 0.37152827 -0.27083653
-0.087605305 -0.12994632 0.11250806 0.31109646 -1.0936176 -0.7609319 1.1868951 1.0506248
-1.4068418 0.70521 -0.23076272 1.3041905 1.3893003 0.06489579 0.3115936 0.43827495
-1.2558607 -0.60692286 -0.17801395 0.9642548 -0.20041285 -1.216151 0.8209114 0.6544135
0.3270575 0.77056783 2.011005 0.19750318 0.074061245 1.3726249 -0.3129023 0.21050832
0.380798 -1.5054233 0.12925836 -0.27941856 1.7559826 -0.9370206 0.5700076 1.5254388
-0.12578411 -1.4181455 -0.68251115 0.58062506 0.9225765 0.187132 0.17879601 0.3234811
-0.8068083 1.6540892 -0.3149306 2.1292694 1.2789197 0.4052171 -1.3251791 0.32884207
-0.37186798 0.29264975 -0.64756936 0.58661175 -1.2998036 3.3077867 2.1095514 -2.1064992
-0.8736092 0.030304182 -2.3294153 1.3439766 -1.0703653 -0.3723144 0.39657494 -0.95036393
-0.4431352 -0.6643715 -0.7742956 0.36568728 -1.4347361 -0.93079066 -0.3998966 -1.5123914
-1.1388912 0.38880247 -1.5469313 0.08333192 0.3688659 1.4620118 0.9137918 -1.3915286
0.97810906 -1.0439185 -0.23402452 -0.33242154 1.6779352 -0.4230645 -1.9212474 0.08710791

embedding_Pair_distances.weight f4 [7, 8]
00000000: dbd7 003f 5fc1 51bf d38a 6f3f 396f 3740
00000010: 9cc3 313f d7d4 af3f 1366 adbe b41b 943e
00000020: 5385 ff3f 5d93 0e40 a748 523f 54cc afbd
00000030: 7440 be3f 85c1 7abf f77c cb3f 8736 2340
00000040: 9c17 3bbf 7dee 6dbf ae63 6ebf 645d dbbc
00000050: 5118 b5bf aa6e 00bf f479 ff3d 9f95 c6bf
00000060: efe7 dfbe b8a5 d53e 1d34 f3bf 9aa3 6abe
00000070: 4465 05c0 b494 f1bf aa12 76bf 682c 01bf
00000080: eb45 853f 1c1d 983f ef4b bfbe e935 fcbf
00000090: fad5 a6bf ef45 37be 6002 30bf ecb8 8cbf
000000a0: 2e41 0abd 7660 c93e 19ee 0bbf 8a6e 443e
000000b0: 8c77 b7bf 1e49 38bf 078d d3bf 95c0 09bf
000000c0: 0000 0000 0000 0000 0000 0000 0000 0000
000000d0: 0000 0000 0000 0000 0000 0000 0000 0000
0.5032937 -0.81935686 0.93571204 2.8661635 0.694391 1.3736829 -0.3386694 0.28927386
1.9962562 2.2277443 0.8214211 -0.08583894 1.486342 -0.9795154 1.5897511 2.550203
-0.730829 -0.9294203 -0.9312085 -0.02677793 -1.4148046 -0.5016886 0.124744326 -1.5514411
-0.4373164 0.41727996 -1.9000279 -0.22913972 -2.0843058 -1.8873506 -0.9612223 -0.50458384
1.0411962 1.1883883 -0.3736262 -1.9703952 -1.303405 -0.17897771 -0.68753624 -1.0993934
-0.033753566 0.39331406 -0.54660183 0.19182792 -1.4333358 -0.7198657 -1.6527413 -0.5380948
0.0 0.0 0.0 0.0 0.0 0.0 0.0 0.0

embedding_Pair_prices.weight f4 [6, 5]
00000000: 7c7c 3c3b 1c5f b53e 315d 993e a363 e7bd
00000010: c6c2 933f 718a 6a3f 4f68 c93d 2300 703f
00000020: 332b 363f 23cf 5f3f 36e9 1bbe 5c47 1fbf
00000030: d14d 23bf 0feb 0a40 83b5 40bf 8aa3 96bf
00000040: 5871 fdbf 33b7 e6be f154 003e a53a 0040
00000050: b6c6 eb3c b0d0 b2bf a6e6 37bd 3568 733f
00000060: 70a3 a8bd 0000 0000 0000 0000 0000 0000
00000070: 0000 0000 0000 0000
0.0028760722 0.35424125 0.29953912 -0.11298301 1.1543815 0.91617495 0.098343484 0.9375021
0.71159667 0.8742544 -0.15225682 -0.6221826 -0.63790613 2.1705968 -0.75276965 -1.1768658
-1.9800215 -0.45061645 0.12532403 2.0035794 0.028781276 -1.3969936 -0.044897698 0.9508088
-0.08234298 0.0 0.0 0.0 0.0 0.0

Pair_shop_mlp.fc_layers.0.weight f4 [64, 32]
00000000: 475d 743d e7e1 98bc 9a52 1c3e 15d5 343e
00000010: e72f 2dbe 2f80 073d 5fea 2b3d 23e8 f9bd
00000020: 7be5 4d3d b716 083e 47da 21be 0749 743c
00000030: 2d52 1dbe f75c 3abe 43c1 a33d 1077 543d
00000040: e72d c73d c9ff 033c 3cac c3bc 5a95 7e3d
00000050: 586f cbba f5af b33d 6955 7f3b ecd5 6e3e
00000060: c487 07be a902 cd3c a2cd 0e3d 1a19 0b3d
00000070: 197f e23d c675 443d 80c3 afbd b2f3 19be
00000080: 21b4 34be 68de 033e e1e5 94bd 7384 103e
00000090: 2589 923d 9dfa 2a3e ae4a 773e e764 d9bd
000000a0: a628 22be 4100 38bd 02bf cabd ed4a 033c
000000b0: 6fc8 41bd 4582 59bd b131 d03c 8b5c 513e
000000c0: 809f 853d d990 0ebe ef1f 373d 6858 3e3e
000000d0: de03 df3d 1d32 c4bd f1c5 4a3d 6669 103e
000000e0: e8e0 e9bd 8b98 9a3d 2653 1dbd 0a37 4abe
000000f0: fd36 073e c37a 9dbd 2fb2 423e b3d7 913d
00000100: 352c 233d 15f4 853d 7939 2ebd 2921 5dbd
00000110: 28fb e93d d838 ce3d 5202 663d 2eea bd3d
00000120: 775d 213e 2ed5 04be 6d97 e5bd 86ee f83d
00000130: 8dce b9bd 7bc5 f9bd c1db a0bc dde3 073e
00000140: e3d2 4dbe dcb2 22be f2ad d13d 40d3 093e
00000150: dbad 12be 4d72 a73d 42e4 bd3c 1833 53bd
00000160: b018 b8bd 571a e03d 30c2 183e 2e00 13be
00000170: ffba 0e3e 96d8 a7bd 32cf b13d 9210 a73d
00000180: 9849 10bd 5904 a6bd a9cd f4ba e195 afbc
00000190: b1b8 4d3d a8bf 013e 95d1 f83d 3917 853d
000001a0: 3513 88bd 1568 e03d 30fb a8bd c53b 933d
000001b0: 2fab 0d3e 2658 a73d b463 12be 3bbc dc3d
000001c0: a19b ccbd 9682 9b3d 2893 32be 3ab2 ecbb
000001d0: 923c fa3d 888d 68bd b0d2 55bc 25e4 143e
000001e0: 0ebe 333e 569f a93d 5ffb 263e 43d4 823d
000001f0: 3622 2dbe 6401 0abd 0b8e fdbd b479 3dbd
00000200: 2ba1 193d e779 993d 3b6d 0e3d 100f 1e3e
00000210: 8081 a63c a8b6 30be e0b8 483d 8e40 ddbd
00000220: c35d 99bd 13c4 d7bd b97b 563d 5802 6bbd
00000230: 878e 67bc 703f 05be 959e 32bd 8f7c b13d
00000240: 3448 01be 93ba e8bd e1cf bfbc 5cc9 48bc
00000250: e9a8 093e af70 723d 5977 12be 21cb 653d
00000260: 0a5b 32be 5b34 e6bd d533 bdbd d832 b3bd
00000270: 47f7 d03c 1fb6 19be 7cea 823d 3198 08be
00000280: e390 393d 74b2 f83d ebdb 9cbd 7f3f 093c
00000290: 6aad 4f3c 2656 913d 19d2 003e 66e2 6c3d
000002a0: c89b 2bbe c502 3dbe b907 32bc 117f 06be
000002b0: b329 4d3d 15f7 51be 3901 04be de29 b43c
000002c0: be3a 273c 464f 3b3e a4b6 11be 348e c03d
000002d0: 06bc c7bd 59cf 0d3e dc64 0a3e b4d7 11be
000002e0: d8e8 3c3e fe40 4c3e 4be2 a33d fa12 c1bd
000002f0: 1255 cabd 3ec2 203e 6d67 803c 4c46 0fbe
00000300: 788b 613d 16f2 16be c428 e8bd 62c8 9abd
00000310: 0b05 233d 00e3 02be 9b77 2dbd 1f17 fabd
00000320: e1dd 97bd d0b2 1ebe c006 06bb bbdc bebd
00000330: 8da9 113e 7511 853d 3d41 ccbd bd58 063e
00000340: 93e9 1dbd 0852 003e 0f95 b8bd 030f db3d
00000350: 9c35 863c 08dd 3fbe 7854 9dbd ae02 76bd
00000360: 44d4 483e 4927 a93c 33e5 ff3d 7e43 21be
00000370: 09c8 15be aebd 5cbd 2fa4 fc3d b1ae 26bd
00000380: 643e 3fbd 4b8c 29bd b080 4dbd ccdf a0bc
00000390: b6dc 0e3e 3c00 8e3d ca25 0c3e 6322 ea3d
000003a0: 7562 edbd e7db 613d eb37 c33c c89f 95bc
000003b0: 8cda 1b3e e1c0 443e 9dc1 453d f797 ff3d
000003c0: 1ff5 25be 9a54 913c 105f 5fbd 3a37 3ebe
000003d0: 9951 c7bd 81a0 c43c 6d56 25be 0d8c 07be
000003e0: a1d5 bd3d 9e0d ae3d 8614 2c3e 1daf c73d
000003f0: c858 46bd db60 663d b999 01bd e97e 893d
0.05965927 -0.018662406 0.15265885 0.1765941 -0.16912805 0.03308123 0.04197156 -0.1220248
0.050267678 0.13289915 -0.15805922 0.014909989 -0.15363379 -0.18199526 0.07995846 0.05187136
0.09725552 0.008056589 -0.023885839 0.06215415 -0.0015520854 0.087737955 0.003896082 0.23323792
-0.13235384 0.025025683 0.034864075 0.033959486 0.11059398 0.04796388 -0.085822105 -0.15034369
-0.17646839 0.1287781 -0.072704084 0.14113025 0.071550645 0.16697164 0.24149582 -0.10614949
-0.15835819 -0.044922117 -0.09899713 0.008013469 -0.04731029 -0.05310275 0.02541432 0.20445459
0.06524563 -0.13922442 0.04470819 0.18588412 0.108894095 -0.09579871 0.049505178 0.14102706
-0.114198506 0.075486265 -0.038409375 -0.19747558 0.1320457 -0.076894306 0.19013284 0.071212195
0.03983708 0.065406956 -0.04253528 -0.053986702 0.114248574 0.10069436 0.056154557 0.09273182
0.1575831 -0.12971947 -0.11210523 0.1215487 -0.090725996 -0.121958695 -0.019636037 0.13270517
-0.20099978 -0.15888542 0.102382556 0.13459492 -0.14324133 0.08176098 0.02318013 -0.0515624
-0.08989084 0.10942524 0.14917827 -0.14355537 0.13938521 -0.08195607 0.086820975 0.081574574
-0.035226434 -0.08106298 -0.0018677014 -0.021433773 0.050224964 0.12670767 0.121493496 0.0649857
-0.066442885 0.10957352 -0.08251035 0.071891345 0.13834833 0.0817111 -0.14295846 0.107780896
-0.09990621 0.07593267 -0.17438948 -0.0072233947 0.12218584 -0.0567756 -0.01305072 0.14540155
0.17552969 0.08282344 0.16306828 0.06388142 -0.16907582 -0.033692732 -0.12380608 -0.046258643
0.037507217 0.07493954 0.03477214 0.15435433 0.020325422 -0.17257178 0.049004436 -0.108033285
-0.07488587 -0.10535445 0.052364085 -0.057375282 -0.014133102 -0.1301248 -0.043608267 0.08666336
-0.126252 -0.11363711 -0.023414554 -0.012255039 0.1344334 0.059189495 -0.1430334 0.056101922
-0.17417541 -0.11240455 -0.09238402 -0.08749932 0.025508536 -0.1501088 0.063923806 -0.13339306
0.04530419 0.12143412 -0.076591335 0.008376955 0.0126756225 0.0709651 0.12580146 0.057833098
-0.16758645 -0.18458088 -0.010866099 -0.1313441 0.050088596 -0.2050441 -0.12891091 0.02199262
0.010206876 0.18291959 -0.14229828 0.09402123 -0.097526595 0.13848628 0.13515037 -0.1424244
0.18448198 0.19946668 0.08002146 -0.094274476 -0.09879507 0.15699098 0.015674317 -0.1399166
0.05506465 -0.14740786 -0.113359004 -0.07557751 0.03979973 -0.12781906 -0.042350393 -0.12211441
-0.07415367 -0.15497899 -0.00204508 -0.09319445 0.14224835 0.0649747 -0.09973381 0.13119788
-0.03855283 0.12531292 -0.09012806 0.10696223 0.016382985 -0.1873666 -0.07682127 -0.06006115
0.19612223 0.020648615 0.12494888 -0.15748402 -0.14627089 -0.05389183 0.12336003 -0.040693942
-0.04669036 -0.04139356 -0.050171554 -0.019637965 0.13951382 0.069336385 0.1368629 0.1143234
-0.11591045 0.055141356 0.023830375 -0.018264666 0.15220088 0.19214202 0.048280347 0.12480157
-0.16206788 0.017740536 -0.054534018 -0.18575755 -0.097323604 0.024002315 -0.1614625 -0.13237019
0.09269262 0.08498691 0.16804704 0.09750197 -0.048424512 0.056244712 -0.031640742 0.06713659

Pair_shop_mlp.fc_layers.0.bias f4 [64]
00000000: 62ec 303e 7d3a 0cbd 9159 e4bd 8e4e 9dbd
00000010: dc89 c2bd 4385 92bc ab95 e83d 0996 b6bd
00000020: 7c35 e8bd 3cd5 c03d 450e be3d b9dd 273e
00000030: 50d3 cebd 189b ce3d 9569 a33d 0a17 4bbd
00000040: 1d16 e1bd ce53 a6bd 348d b8bd 9f83 a73d
00000050: 1eb8 3f3e ec8d 103e 6f1b acbd d8ae 62bd
00000060: 2a37 67bd a532 abbd fc42 45bd 693d 433d
00000070: 6399 25be 5382 e13d 55ef 273d b541 da3c
00000080: e902 293d 97b9 493d 7026 e5bc 8994 82bd
00000090: 3395 08bd 27ac 023e 7703 95bd f06e dc3d
000000a0: 1700 29bb 0b52 493d 0c63 9a3d b8b7 233e
000000b0: ea13 b63d ad53 09bd 65ee 413e a805 62bd
000000c0: 47b8 c6bd 159a a1bd c4f2 24bc 0ae5 833d
000000d0: c71c 063e eb82 b33d 351c fbbd a10c 97bd
000000e0: 8a94 273d ea24 14be 44b6 ff3c 967b 333e
000000f0: 80be e6bd 68b5 473d c81e 1ebe f65d 55bd
0.17277673 -0.034235466 -0.11149896 -0.07680999 -0.09498951 -0.01788581 0.11356672 -0.08915336
-0.11338326 0.09415671 0.092800654 0.16393174 -0.100988984 0.100881755 0.079791225 -0.04958252
-0.10990546 -0.08121453 -0.09011307 0.081794016 0.18722579 0.14116639 -0.0840367 -0.055342525
-0.056449093 -0.08359269 -0.048159584 0.047665987 -0.16171794 0.110111855 0.04099973 0.02664266
0.04126254 0.049249258 -0.02797243 -0.06375987 -0.033345412 0.12760983 -0.072760515 0.10763347
-0.0025787407 0.049150508 0.07538423 0.15988052 0.08890517 -0.033527065 0.18938597 -0.055181175
-0.09703117 -0.07890717 -0.010067645 0.0644017 0.13096915 0.08765205 -0.122612394 -0.07375456
0.040913142 -0.14467207 0.03121484 0.17527613 -0.11266804 0.048756987 -0.1544143 -0.05209156

Pair_shop_mlp.fc_layers.1.weight f4 [16, 64]
00000000: 588b 25be f9d4 34bd 186c 3f3c e5f1 a03d
00000010: 6c52 4f3d 9b7e bcbc bf5c d53d a8bf b2bd
00000020: 17c4 e1bc 141f 4b3c 6f53 003c 7675 ef3d
00000030: f1ff bbbd 6bb9 aebd 8e19 f8bd f65d 103e
00000040: 325f ba3d 935e 093e e3bc bc3b 4d2c b5bc
00000050: 775c 1c3e f9be e3bc 22f3 933d 7edb 2c3d
00000060: 6dc7 3d3c a3a3 893d 9a4f bebd f451 1e3e
00000070: c587 fe3d a94c c23d f311 61bd a15c 9abd
00000080: eb45 043e 7868 debd 03f3 d83d 1bce 193c
00000090: 7437 df3d 0f0f 3d3e a957 a73d 90e9 cf3c
000000a0: 1d76 363d 01e7 883d b123 363d ff69 64bd
000000b0: 765f 02be e3f7 fbbc d308 d23c f55e c03d
000000c0: 5e7f 24bd ae3d 783d 1aba 0e3e 2571 a73d
000000d0: f477 543d f391 8a3d 5e5d edbd 440d 72bd
000000e0: d38a e53d 9ff5 d5bd e1d0 293e b107 5d3c
000000f0: 1e80 5e3d 6fd2 90bb 7df9 9e3d ddc0 a03c
00000100: d222 283e 12a2 5dbc 8b19 053c 1724 e63d
00000110: 2c3a 38bd e5b3 c93d 19eb da3d 628c b0bd
00000120: 2197 b43d 9dd4 013d c32b aa3d ac50 ca3d
00000130: 6beb a93d ce4d b53d 19e5 92bd 9107 fc3d
00000140: be3c 883c 2b43 8cbd 1008 c23d e80d 2abd
00000150: 43aa e8bc 684b abbd 06dc bd3d 7d0e b8bd
00000160: 53c0 3e3d 524c 2c3d 81a7 aebd c03d 2d3b
00000170: c2c1 aebc 3c86 ec3d 7bf7 7ebc 90bf bf3d
00000180: 34c1 17bd 7cac 42bd 5482 cdbd 1d6d 843d
00000190: 3f53 423d d01f 15bd 0c98 51bd ae7a 8f3d
000001a0: 7330 4bbd 1b2f f73c cff3 053e 5847 0e3e
000001b0: bd48 38bd 9b3f b13c f7c3 083e 231a 09bc
000001c0: 5cfd a0bd 3605 94bc b2b7 9f3c 8ce3 97bc
000001d0: 1546 a93c 5e75 593a ef15 473d e531 76bd
000001e0: 5908 6cbc 25a6 0b3e 491e aebd 9624 053e
000001f0: e243 be3d ee30 e3bd b7b9 6cbd 1d9b b33d
00000200: ca2a f73d 9174 8a3d be4a 973d 7058 803a
00000210: 6424 e6bd 143c 613d 07ac 04bc 0831 88bd
00000220: e373 123d a770 a63d 124e d63a 6cd5 36bd
00000230: 9506 0ebd 5c93 093d 6545 e1bb 3573 87bd
00000240: 4ebd 82bc e11f d53c 8fa8 aa3d 27b8 103e
00000250: 3714 4d3d 297a 4839 8830 adbc 3790 993d
00000260: 8e48 81bc a094 88bd 4ccf 243e 7363 36bd
00000270: 453f 723a d213 183e a5dc 163e 9e2d ccbd
00000280: 6648 d53d 1896 763c 6738 92bd a2b7 10bd
00000290: 5513 abbc 9d5d adbd 665a 0e3e 2cc2 c73d
000002a0: dbe9 af3d 0a01 bdbc d9bd ad3c 59a7 96bc
000002b0: 94ca 063e 98f4 8d3b 68ad 123d 49c7 c0bd
000002c0: 3d12 adbd 9718 873d 434b 0dbe 6a67 54bd
000002d0: 664b b7bd fee6 f43d 2563 303d c344 cd3d
000002e0: 9416 a43c 5ec3 8bbd c5c6 b73d 6e4f e5bb
000002f0: 4dbe 553d 027a ae3d f73f afbd 5a11 953d
00000300: 3588 8f3d 091b 9b3d 3310 293c 2860 b9bd
00000310: 78a6 3d3d 24e1 3fbc 9ab5 fa3d e0e3 0a3e
00000320: 5102 073e 5588 343e c0fd 113e 0b25 3c3c
00000330: 5e78 433d 55c8 6cbd cdeb 95bc 4840 b7bd
00000340: 5e86 8a3d 5345 26bd c994 683c 1f2b 223d
00000350: d1ea 3ebd 3618 f33d 9e66 073e 8a6e de3d
00000360: 4251 243e be1e 38be 6f87 0f3e cc9b a93d
00000370: a1df a43d e67d eb3d eb0b 033e 4d60 1c3e
00000380: c751 a53d a512 343d 5f84 293d aa67 36bd
00000390: 78ac c1bd 57b8 c1bd e0fb 97bd bbbb b53b
000003a0: a7e2 4d3b de84 983d c9f3 a03d 8c06 1abb
000003b0: 8164 473d 582a bdbc 3162 eabc 1d3f 6a3d
000003c0: 4eb7 e0bd fac7 04be 3e04 21be 9634 563d
000003d0: fe28 96bd 3fe2 77bd 70ce a8bd 9772 713d
000003e0: 79a2 cf3d e615 52bd 3ff3 d63d 76ff 123e
000003f0: 416b 5abd 158c 533d e4b0 2fbb b9c5 073e
-0.16166437 -0.04414842 0.011683486 0.07858638 0.050615713 -0.023009589 0.104180805 -0.08727962
-0.027559323 0.012397546 0.007832392 0.11692326 -0.09179676 -0.085314594 -0.12114249 0.14098343
0.09100188 0.13414983 0.0057598217 -0.02211585 0.15269648 -0.027801024 0.07224108 0.04220151
0.011583191 0.06720664 -0.092925265 0.1546095 0.1242824 0.09487278 -0.05494876 -0.07537199
0.12917297 -0.108597696 0.10593226 0.009387518 0.10899249 0.18462776 0.08171017 0.025379926
0.044546235 0.066846855 0.04446763 -0.05576515 -0.12731728 -0.03075785 0.025638973 0.093931116
-0.04016053 0.060605697 0.1393818 0.081758775 0.05187221 0.06766119 -0.11590074 -0.059094682
0.11208119 -0.10447239 0.16583587 0.013490603 0.0543214 -0.004419617 0.0776243 0.019623214
0.16419533 -0.01352741 0.008123766 0.11237352 -0.044977352 0.09848765 0.106893726 -0.08620526
0.08817888 0.031696904 0.08309128 0.09878668 0.082968555 0.08852731 -0.07172603 0.12306131
0.016630527 -0.06848749 0.09474194 -0.04151717 -0.0284015 -0.08363992 0.09270482 -0.089871384
0.046570133 0.042064972 -0.085280426 0.002643451 -0.021332625 0.11549041 -0.015561934 0.093627095
-0.037049487 -0.047527775 -0.10034624 0.06466124 0.04744267 -0.036407292 -0.051170394 0.07005821
-0.04960675 0.030173829 0.13081287 0.13894403 -0.044991244 0.021636775 0.13356005 -0.008368048
-0.078608245 -0.018068891 0.019496772 -0.01854112 0.0206633 0.0008295382 0.048604902 -0.060106177
-0.014406287 0.13637598 -0.0850187 0.13002238 0.09290291 -0.11093317 -0.0577943 0.0876982
0.12068708 0.067605145 0.07387303 0.0009791981 -0.1123741 0.054988936 -0.008097655 -0.06649977
0.03575505 0.081269555 0.0016350171 -0.04463713 -0.034674246 0.0335878 -0.0068747276 -0.06613771
-0.015959408 0.026016178 0.08332931 0.14132749 0.050068107 0.00019118995 -0.021141306 0.0749821
-0.015781667 -0.06668973 0.16094702 -0.044528436 0.0009240995 0.14851311 0.14732607 -0.09969638
0.104141995 0.015050434 -0.07139664 -0.035331376 -0.020883242 -0.08465121 0.13901672 0.09753832
0.08589526 -0.023071785 0.02120869 -0.018390344 0.13163215 0.0043321364 0.035809904 -0.094130106
-0.08450744 0.06596487 -0.13798241 -0.051856436 -0.08949928 0.11958121 0.0430633 0.10022881
0.020030297 -0.06824373 0.08973459 -0.006997994 0.052183438 0.08519365 -0.08557122 0.072787
0.07008401 0.07573516 0.010318804 -0.090515435 0.046301335 -0.011711393 0.12241669 0.1356349
0.13184477 0.17630132 0.14256954 0.011483441 0.047722213 -0.05780824 -0.018300915 -0.089478076
0.0676391 -0.040593456 0.014195629 0.039591905 -0.046610657 0.11869852 0.13222739 0.108609274
0.16046622 -0.17980477 0.14016508 0.08281669 0.08050466 0.114986226 0.12797515 0.15271111
0.080722384 0.043963093 0.041386005 -0.044532456 -0.09456724 -0.09458988 -0.07421088 0.005546061
0.0031415613 0.074472174 0.07858998 -0.0023502437 0.048679832 -0.02309148 -0.028611274 0.057189096
-0.109724626 -0.1296691 -0.15724275 0.052296244 -0.073320374 -0.0605185 -0.082425 0.058947172
0.10138411 -0.051290415 0.10495614 0.14355263 -0.05332494 0.051647265 -0.0026808316 0.13259019

Pair_shop_mlp.fc_layers.1.bias f4 [16]
00000000: c2ca e73a c775 0d3b 32db 063e da45 223d
00000010: 7757 a5bd e741 5d3c f52f 883c 3a24 b1bd
00000020: 7eba 503d c0f1 a1bd 3615 4dbd 5846 903d
00000030: 9399 d83d aace 723c a29d b2bd 3f6a 103e
0.0017684328 0.0021585093 0.13169554 0.039617397 -0.08073323 0.013504482 0.01662443 -0.08649488
0.050959103 -0.07907438 -0.050069056 0.07044667 0.10576167 0.01481978 -0.08721472 0.1410303

Pair_score_mlp.fc_layers.0.weight f4 [64, 32]
00000000: 0e7e 05be 6aa9 d7bd ace8 163e d321 38bd
00000010: bf03 99bd e5b5 c1bd c339 483e 4d0c 033c
00000020: 3d33 d3bb a9ec 95bd 923d 65bd fdd2 d7bd
00000030: 6366 08be 19e9 10be 7433 8f3d 2a46 143c
00000040: e906 49be 68ba f3bd 11a1 823e 9b42 5abd
00000050: bcf8 f13d ebf4 3abe cd3f a93d 8b8c f83d
00000060: 7d80 06be 53f2 bcbd 37d3 443e d7c9 c5bd
00000070: 8dc7 a83d 0d57 aabd 2ec2 77be ac13 8abe
00000080: e3ce 41be 0a32 95bd 3568 373e 57ab 393e
00000090: 62e1 afbd 466b 303e a8c0 283e 6ef8 f7bd
000000a0: dca2 fe3d 73b0 ca3b 699d 94bd bd6e f83c
000000b0: c3b6 8c3d 2e5d 77bd eb18 cdbd 9ff6 b8bc
000000c0: 6a62 75bd 3664 d4bd d204 5e3d a976 0b3e
000000d0: 8e1a 0d3d 1bec 0abe d4f8 933d 42ef c4bd
000000e0: 427e 3bbe 7ddb 443e 9430 073d 4c9b 0cbe
000000f0: 5af8 13bd 6f19 0bbd 476e 363e 8a45 5e3d
00000100: 410b e2bd e09c 2fbb 9674 7fbd 542a d2bd
00000110: 3ce5 203d 96b6 1cbc c03e bc3d e34d 0dbd
00000120: 5229 033e 2577 f5bd eb5a 3c3d bbd5 2e3e
00000130: 951a dc3c a07a 1cbd c050 b63d e53e 9d3a
00000140: 1058 8bbe 9191 8e3c 4837 4a3d 543e 693e
00000150: cf2f 483e 6fc2 8b3d 9b61 803e c7fd c63d
00000160: 2f21 103e 6776 9ebd 68df f8bc 315c 03bd
00000170: 1bcb 05be 255b 00be fdf7 c9bd 73a0 d13d
00000180: b293 1bbe d390 003e 6863 533e b6cb 243d
00000190: c68e 313e 26ed 0ebe 4274 ffbd ee69 653d
000001a0: 1f00 1e3e 8f4b fd3d 42db d4bd 883f 353e
000001b0: d8e5 b1bd 4868 8d3d 39a5 b9bd 8ed4 373e
000001c0: a04e 753c b1eb d6bd 2618 f43d 393f 9c3d
000001d0: 4480 2b3d 4300 8e3d f613 1f3e b4aa 48bd
000001e0: a225 0b3e cf2a 48be 40bf 873d 0f5d 85bd
000001f0: 04a4 513d 7215 933c 7f74 363e 28e9 493d
00000200: 4997 3fbe c5ec 933b 5f3a 493d b244 cbbd
00000210: c422 0b3e 5653 d7bc ad82 ccbd 9846 6fbe
00000220: 195e 143e 6183 85bd 4d78 31be 28d0 24be
00000230: c7e2 fdbc 4035 003d f3b6 01be c7c0 0fbe
00000240: 2fe9 fc3d b975 0a3e 924c babd b694 2abe
00000250: b292 92bd 38a5 a83d 8541 fe3c d4ae 08bd
00000260: d9c6 51be 452d 513d 0786 7abd fd8d 4a3e
00000270: 44b4 57bd aba5 f0bd 15a9 813d 9258 0bbe
00000280: 730e d8bd a251 333d 6992 043e 88d7 9f3d
00000290: 0305 c93d 5e27 0e3e 8257 cabd 54b7 d3bd
000002a0: ee1c bdbd 8586 843d e501 2b3e bd29 863d
000002b0: 767c 193c d248 b33d 95ff 21be a078 70bd
000002c0: f757 3d3e 7168 333e bb9f 933d 4f7e 2cbc
000002d0: 63af 033e 5dc9 05be febe 193d 1d02 c43d
000002e0: b5b5 b03d d44b 913d 3d30 713e 6154 41be
000002f0: 9a35 2d3e b125 12be 7617 1b3e d9d1 55bd
00000300: 7eec f9bd c956 4f3e 2e8e 8fbd 0567 94bd
00000310: 0744 17be 11c3 b2bd 743f ac3c b816 f93d
00000320: bfd4 ba3b 7c62 ee3d da93 98bd bfb1 0f3e
00000330: 2938 46bd 9078 dcbd a417 0b3e eb66 8d3c
00000340: 5dfc d03c beb7 183e 1e73 bdbd 3f1d 54bc
00000350: 5703 f0bb 05ee b33d 54d3 273e 8d6c 363e
00000360: 0dc1 703d 8a78 17bd 937c 9f3d 2962 443e
00000370: 44b0 debd 3fe8 e13d 482b 173e 6f1d 15be
00000380: d967 ca3c 4e9a 94bd 03f0 463e a785 083e
00000390: ed36 0c3d 951f b13c ddd6 bebd 03c6 bbbd
000003a0: 8ee8 393e 9fe9 4b3e 37cb 32be 6734 02be
000003b0: 6194 803d 6f38 33bd e1f7 d5bd d9bd fa3d
000003c0: 1916 6ebe 1912 febd 2f89 363d f178 d6bc
000003d0: 816c aabd 3f7f 7b3e 9959 633d 506b 643b
000003e0: a23c 123c eb0d e6bd 9eb5 b2bd 99fe 12be
000003f0: 1dff dbbd 1619 92bd 470d 213e 5a1e 8d3d
-0.13036367 -0.1053036 0.14737195 -0.044954132 -0.07471418 -0.09458522 0.19553284 0.007998538
-0.006445317 -0.0732053 -0.05596692 -0.1053829 -0.13320307 -0.1415142 0.06992236 0.009049932
-0.19631542 -0.119007885 0.2551351 -0.053286176 0.118150204 -0.18257491 0.08264122 0.121361814
-0.13134952 -0.09225907 0.19221197 -0.096576385 0.08241186 -0.08317385 -0.24195167 -0.26968133
-0.18926577 -0.07284935 0.17910846 0.18131767 -0.0858791 0.17228422 0.16479743 -0.12107931
0.12433407 0.006185585 -0.07256586 0.030326242 0.068707965 -0.060391597 -0.10014518 -0.022578536
-0.059908308 -0.10370676 0.054203816 0.13619484 0.034449153 -0.1356663 0.072251946 -0.09615947
-0.18309882 0.19224353 0.033005312 -0.13731116 -0.03612552 -0.033959802 0.17815505 0.054265536
-0.11037303 -0.0026796386 -0.062367044 -0.1026198 0.039281115 -0.009565016 0.09191656 -0.034498107
0.12808731 -0.11985616 0.045985144 0.17073719 0.026868144 -0.03820288 0.089021206 0.0011996893
-0.27215624 0.017403396 0.049369127 0.22777683 0.19549488 0.06824195 0.25074467 0.09716373
0.14075159 -0.07737427 -0.030379966 -0.032070342 -0.1306576 -0.12534769 -0.09861753 0.102356814
-0.1519306 0.12555246 0.20643389 0.040233336 0.1733962 -0.13957652 -0.12473346 0.056009226
0.15429734 0.12367927 -0.103933826 0.17700016 -0.08686417 0.06904656 -0.09064717 0.17952177
0.014972359 -0.10494173 0.119186684 0.07629246 0.04187037 0.06933644 0.15534958 -0.04899092
0.13588575 -0.1954758 0.06628275 -0.0651189 0.051181808 0.017954562 0.17817877 0.04929462
-0.18710054 0.004514309 0.049127933 -0.09925212 0.13587481 -0.026284855 -0.09985862 -0.23366773
0.1448902 -0.06519199 -0.17331047 -0.1609503 -0.030991925 0.031300783 -0.12667446 -0.14038382
0.12349164 0.1352147 -0.09096636 -0.16658291 -0.07156886 0.08234638 0.031037102 -0.033369854
-0.2048601 0.051068563 -0.061162975 0.19780727 -0.05266215 -0.11750349 0.06331078 -0.13608006
-0.10549631 0.043779023 0.12946476 0.07804781 0.09815409 0.13882205 -0.09879972 -0.103377014
-0.092340335 0.0647097 0.16699941 0.0655093 0.009368053 0.08754124 -0.15820153 -0.058708787
0.18490587 0.1752031 0.072082005 -0.010528161 0.12859873 -0.13065095 0.03753566 0.095707156
0.08628408 0.07094541 0.23553558 -0.18879844 0.16914979 -0.1427219 0.15145668 -0.05220208
-0.122033104 0.2024795 -0.070095405 -0.07246212 -0.14772044 -0.08728612 0.02102635 0.121625364
0.005701631 0.11639878 -0.074500754 0.14032649 -0.048393402 -0.10765183 0.13583237 0.01726099
0.025510961 0.14913842 -0.092504725 -0.012946426 -0.007324617 0.08785633 0.16389209 0.17814846
0.058777858 -0.03698019 0.077874325 0.1917807 -0.10873464 0.110306256 0.14762604 -0.1456201
0.024707722 -0.07255994 0.19427495 0.13332234 0.03423207 0.021621505 -0.09318326 -0.09168627
0.18155119 0.19913338 -0.17460333 -0.12715302 0.06278301 -0.04375499 -0.1044767 0.12243242
-0.23250617 -0.124057956 0.044564422 -0.026180716 -0.08321477 0.2456026 0.05550537 0.0034854002
0.008925589 -0.112331234 -0.08726047 -0.14354934 -0.10742018 -0.07133691 0.15727721 0.06890555

Pair_score_mlp.fc_layers.0.bias f4 [64]
00000000: 0f19 463d 2868 69bd 1b84 0cbe b422 d1bd
00000010: 6870 383e 8ac6 263e a3aa ecbd d7d4 c0bd
00000020: 6e5d 91bd 87a6 abbd 279c 1f3e c94a aa3c
00000030: 6ebf 583d 5229 ca3d 1fcd 8bbd 15a9 2d3d
00000040: e5b2 393e a2b3 9cbd 9524 c73d b722 a23d
00000050: 3fad 97bd b7d5 e6bc df30 953d 039f 64bd
00000060: ba15 be3d 9dc2 35bd fceb a7bb 6e7c da3d
00000070: 56dc 293e 9248 11bd 30e3 a7bd babf 183e
00000080: ba46 ba3d 8924 1dbe 345f 923c 190b 5f3e
00000090: ade7 1a3e 8f3a 0e3e c83a 92bd b125 35bd
000000a0: c5f9 07be f5b6 c33d 42a5 10be 1252 fdbd
000000b0: 4f42 a5b8 6ca9 063e 36af 16bd 3bc7 b8bd
000000c0: b271 8bbd 8c1f a1bd cce1 ce3c 6d0a 9bbd
000000d0: 6544 72bd 20c0 ffbd 1d95 b1bd d505 163e
000000e0: b91e 06bd 5c09 e43d e96a ff3d c64d ff3d
000000f0: fbb3 933d a4cc 213e e4de 923d b287 96bd
0.04836374 -0.056984097 -0.13722269 -0.10211697 0.1801163 0.16286674 -0.11555984 -0.09415596
-0.070978984 -0.08381372 0.15586911 0.020787613 0.052916937 0.098711625 -0.06826233 0.042397577
0.18134649 -0.0765145 0.09723774 0.079167776 -0.07406091 -0.028178079 0.07284712 -0.055815708
0.09281488 -0.04437505 -0.005124567 0.10668264 0.16587958 -0.0354696 -0.081976295 0.14916888
0.09095521 -0.15345968 0.017867662 0.21781577 0.1512744 0.13889526 -0.07140118 -0.0442254
-0.13278873 0.09556381 -0.14125541 -0.12369169 -7.880164e-05 0.13150567 -0.036788188 -0.09022375
-0.06808795 -0.07867345 0.025254153 -0.07570348 -0.059147257 -0.12487817 -0.08671019 0.14650662
-0.032744143 0.11134598 0.12471563 0.12466006 0.07212063 0.1580072 0.07171419 -0.073501006

Pair_score_mlp.fc_layers.1.weight f4 [8, 64]
00000000: 7697 c13d 348f 053e 5561 f23d 5f78 853d
00000010: 3ac3 183e ee67 263e 99a1 133d 191d 043e
00000020: 5fe2 f83d 4a29 dd3d 4826 cebd 237d 2a3d
00000030: 6381 0f3d da93 d5bd 1bde 85bc e9e2 f83b
00000040: 8a08 cc3d 9e25 c43c f523 36bd ada5 943d
00000050: b86a 1b3e d472 50bc c233 bc3d eb41 da3c
00000060: 42f3 833d 9f4e 173e 4f87 1d3e e91b 3f3b
00000070: c253 10bd 66f6 29bc 2f37 053e 9a5d 5cbb
00000080: 24f6 403d 4d6e eb3d 06d4 fb3d 5ade 573c
00000090: 0a55 0b3e 82ae 393d dea0 013e 48ff a23d
000000a0: 5d24 b0bb 3887 3c3d 721f b9bc 4830 a43d
000000b0: 1790 21be eac3 d93d 752b 153e e356 dd3d
000000c0: f741 c4bd f8d2 d23d e597 bebd 2040 cb3d
000000d0: 95c2 453e 6abc 123d 84b5 d63c 8c96 b6bd
000000e0: 80e1 363d 9408 8fbd 13da 7dbd 0fe7 ab3d
000000f0: d2d6 88b9 329c bd3d 85b8 3dbd d00e 143e
00000100: e221 dbbd 46c0 d73d eb72 d8bd de80 00be
00000110: fe77 dcbd 689a 70bd fbb5 e73b 9b64 a0bd
00000120: d68c 85bd ec05 95bc 8ca1 23be f1d0 1c3c
00000130: d11a 14be dc2d 083e 8c5a 1abe db73 21be
00000140: c407 d53b 94fb 0f3d ba6d 3fbd 2dae 453c
00000150: afa6 08be 88fd ddbd 0933 eabc 27c4 783d
00000160: b1a1 e9bc fb7a acbd eb91 e63d a56a 18bd
00000170: 596f b3bd d190 1e3d 75a1 da3d b095 a73b
00000180: 9d65 6cbd c499 f1bd bc2c 423d e651 c93d
00000190: 9a9c bcbd 6747 a53d 102f cb3c 8d8d 863d
000001a0: e25a 9dbd 8619 08bd a32b 88bd 2f98 e0bd
000001b0: 5d37 333e 0753 ff3d 1277 9ebd 3d9f 7ebd
000001c0: 9786 6b3d c9c3 f6bd 02c2 e73d 79a7 cdbd
000001d0: dd4f e23c dae1 04be 24dc ddbd 1282 3e3e
000001e0: 750a c83c d652 cfbd 6ab0 05bd 0b98 96bd
000001f0: aeb4 193e 3bf4 913d 71c7 323d 48c9 283d
00000200: 749d b33d 1db5 dd3d 8cb6 5a3e 318a 213e
00000210: 5b54 4fbc 03a0 b13d 6063 2a3e 88e9 aa3c
00000220: 98db 243e c26a 4937 be5e d53d 6d2b c3bb
00000230: fb08 66bc 8bc6 2abe 05fd 973d 43fa b03d
00000240: 354d 6c3e 0831 203e 5141 003e 7e82 433d
00000250: 59ed ff3d dd5b 03bd cadb e93d 809d 743d
00000260: 9b9a b33c 5a43 3e3d 6173 e03d 514e 333e
00000270: b2cc acbb efea 223e ba40 9d3d eddf 513e
00000280: db1e f03d 944b 053d f6d9 e43d 7779 d7bc
00000290: a96d 0b3e 8661 663c 2f26 22bd 927c 093e
000002a0: 2725 e2bc 9218 d23d ae72 e63d dfc9 233e
000002b0: a92f 01bd dacf 083e 1355 ca3d ee72 2ebc
000002c0: 1e33 1d3e 1eb2 9dbc 8d8c 233e ddce 24bc
000002d0: d468 b93c 83cf a7bd 9419 3b3d 535b 11bd
000002e0: 372c 24bd 030d 103d a1d9 c53d ce10 543e
000002f0: 73b2 bf3d 9267 893c c6ce d53d ce37 783e
00000300: 930d 53bd 8eb2 ab3d 5fc8 403d 33bc 943c
00000310: be65 0fb8 5833 c8bd 5ad4 733c 5c84 b03c
00000320: 490f 0bbe 1e24 35bc 8568 883d 148b e53a
00000330: 9942 ecbc 666e cb3d edad a4bd d254 04be
00000340: 3ce3 cebd d9c5 bebd b4a7 873b 2b1f 4cbd
00000350: 792e 9abd 3770 e43b 83d4 763d 8e7f 9d3d
00000360: 42bc f03d 1bf4 093c 417f aebd e35d d93d
00000370: e335 38bd be16 b13d af40 a33d 01c5 d3bd
00000380: dd8a 0ebd d799 d1bd 84ab 05bc b540 a6bc
00000390: 3d02 df3d 4510 0cbe fc6c 29bd 6a8d e2bc
000003a0: 3b15 44bc fdbc af3d db57 77bd c9ac db3c
000003b0: a4c7 9bbd 8492 e0bd e5e3 e6bd 9fe7 8ebd
000003c0: 1aa4 cb3d 7e5a 05be 8405 bfbb 2841 cfbd
000003d0: 93b3 273d 5e5a 4cbd ef01 a73c 917e 173e
000003e0: aa72 acbd 79f0 1d3d 1a2a e03d c8fc b13d
000003f0: 9dcb 4cbd f96f ffbd 69f2 093d e1ac b1bb
0.09452717 0.13042909 0.11834971 0.065170996 0.14918223 0.16250584 0.036042783 0.12901725
0.12152552 0.10798891 -0.10065895 0.041623246 0.035035502 -0.10428591 -0.01634126 0.007595409
0.09962566 0.023943719 -0.044467885 0.07258163 0.15177429 -0.01272269 0.091895595 0.02664276
0.06442882 0.14776085 0.15383647 0.0029160923 -0.035236128 -0.010373687 0.13009332 -0.0033625127
0.047109738 0.114956476 0.122963 0.013175571 0.13606659 0.04533244 0.12659022 0.07958847
-0.0053754286 0.046027392 -0.022598002 0.080170214 -0.15777622 0.10633071 0.14567359 0.10807588
-0.09582894 0.10294145 -0.09306315 0.0992434 0.19312508 0.035824217 0.0262096 -0.08915433
0.044648647 -0.06984058 -0.06197555 0.0839368 -0.00026099995 0.092583075 -0.04631855 0.14458776
-0.10699822 0.1053472 -0.10568794 -0.12549159 -0.10765074 -0.058741003 0.0070712543 -0.07831689
-0.06521003 -0.0181913 -0.15979594 0.0095713 -0.14463355 0.13298744 -0.15073603 -0.15766852
0.00650117 0.035152033 -0.046735503 0.0120654525 -0.13344835 -0.10839373 -0.028588789 0.06073394
-0.028519483 -0.08421894 0.112583004 -0.03721108 -0.08761472 0.038712326 0.10675327 0.0051142797
-0.057714093 -0.117969066 0.047405943 0.09830074 -0.09209557 0.080702595 0.024802715 0.065699674
-0.0768335 -0.033227466 -0.06648948 -0.10966527 0.17501588 0.12467008 -0.077375546 -0.06216358
0.0575014 -0.12049062 0.11316301 -0.100417085 0.027625972 -0.1297678 -0.10833004 0.18604305
0.024419049 -0.101232216 -0.032638945 -0.07353219 0.1501033 0.071266614 0.043647233 0.04120758
0.08770266 0.1082556 0.21358699 0.15775372 -0.012654389 0.08673098 0.16639471 0.02086331
0.16099393 1.200539e-05 0.10418461 -0.0059561045 -0.014040227 -0.166773 0.074213065 0.08641484
0.23076327 0.15643704 0.12524916 0.04773187 0.12496442 -0.03207003 0.114188746 0.059720516
0.021924308 0.04645095 0.10959507 0.17510344 -0.005273425 0.15909933 0.07678361 0.20495577
0.11724635 0.03254278 0.11174385 -0.026303036 0.13616051 0.014061337 -0.039587196 0.13426426
-0.027605606 0.10258593 0.11252342 0.15994976 -0.031539593 0.13360539 0.09879508 -0.010647519
0.15351531 -0.019249972 0.15971585 -0.010059086 0.022632994 -0.081938766 0.04567869 -0.035487484
-0.04008123 0.03516866 0.0966065 0.20709535 0.09360208 0.016773019 0.104398295 0.24240038
-0.051526617 0.08383666 0.04706609 0.018156147 -3.418861e-05 -0.09775418 0.0148821715 0.021547489
-0.1358005 -0.011055974 0.066605605 0.0017512762 -0.02884035 0.09933166 -0.08040986 -0.12922981
-0.10101935 -0.0931508 0.004139865 -0.04983441 -0.07528395 0.006971385 0.06026126 0.07690345
0.11754657 0.008420016 -0.085203655 0.106136106 -0.044973265 0.08646916 0.07971322 -0.1034031
-0.0348004 -0.10234421 -0.008158568 -0.020294527 0.10889099 -0.13678081 -0.0413637 -0.027655322
-0.011967952 0.085809685 -0.06038652 0.026815789 -0.07606438 -0.10965446 -0.11273936 -0.06977772
0.09943409 -0.13022801 -0.005829515 -0.101198494 0.04094274 -0.04989087 0.020386664 0.14794375
-0.08420308 0.03855941 0.1094553 0.08690792 -0.04999887 -0.12472529 0.033678446 -0.00542222

Pair_score_mlp.fc_layers.1.bias f4 [8]
00000000: bc6d 163c e703 b43d f96e a9bd 32ab 313d
00000010: 6cdd 133e 9bd4 fe3d 06c1 70bd b969 72bd
0.009181436 0.08789807 -0.082731195 0.043376155 0.14439934 0.12442895 -0.05877783 -0.059182856

CNN_embedding_types.weight f4 [106, 16]
00000000: 5331 143e f592 46bf f1cf fcbe b2de 733f
00000010: 399b d0be 028c 5abc eb74 e23f 05a0 39c0
00000020: 1551 fc3d 6ca1 5dbf e7f5 08bf 9cda 893f
00000030: ef8e f83e ba84 ca3e 1c5e 3c3f 0411 44bf
00000040: 461c 08bd 6794 f6bf 6a36 2a3f 970b 3bbf
00000050: 4669 ea3e 4419 27bf 182d d43e 60a8 81be
00000060: ea84 1ebd 1c8b 67bf 2f79 adbf ddb3 f23e
00000070: ead8 823f 9983 da3e dc08 b9be 0c0d 02be
00000080: 64bd 0ebf 458d d53f 49d9 1f3f 1e70 bdbe
00000090: 9556 9ebc 5b48 8b3f 574e e13e a390 84bf
000000a0: 2613 0740 2977 c6bf 23e7 88bf c10f 163f
000000b0: c48f 8bbd bda1 e13d 8813 02bf 4a34 a23f
000000c0: 953a 9bbe 5d25 1bbf 7e64 9fbe bca0 8f3d
000000d0: 52fe e7be f4d9 0540 6fa9 9cbd a361 9f3f
000000e0: e58e aebf 9fee 44bf da21 aa3e ae21 923f
000000f0: d6b5 c33d ec68 08c0 e159 0c3f 83a2 6f3f
00000100: a43f f43f 9027 763f 199f 0d3f 0497 713f
00000110: 0bd5 ae3e f5fe 13bd 4dbb bf3f 62f2 46bf
00000120: 84d1 483f 527e 3abd 1dcc 26be 7c58 ab3f
00000130: 21b6 26be cb93 83be c717 563d 93f6 c7be
00000140: 3be2 6b3e 189b 883e 4b90 8c3f 9d96 9fbf
00000150: 9b92 75bf 5a47 e7bf 617b 3a3c c8e0 e1bd
00000160: 6fbd a0bf 8c85 223f 584d 9e3e cda2 3640
00000170: 4472 9bbf 6213 5bbe 26df 06bf f1fb 323e
00000180: 84b8 043f 58d5 c1be efdb 66be aa67 c8bf
00000190: e571 f43e ace3 87bf 19cc e33f 7578 0cbf
000001a0: fe86 ad3e 6837 473f 4e46 f73b 6371 15bf
000001b0: 7451 6abf 678b 57bd 7acf e43f 8364 933f
000001c0: f123 c73d 394b cc3f bfa9 1abf a874 b43f
000001d0: 73c5 f13d d33a 343f c795 09bf 4476 3cbf
000001e0: 170f 0c3f 1dd8 f33f e3e4 cf3d e4ea e63e
000001f0: d901 cd3e faaa 7fbf cd37 1b3e da77 21bf
00000200: c888 3640 034c f3bd d210 c53e e5eb 793f
00000210: aa02 acbf f88a 55bf bd59 06be ec76 c2bd
00000220: 7d43 38be 3e5a 8ebf ed8a ea3e adad 5fbe
00000230: 8657 0e3f 09d7 dfbd b1b5 ff3f d292 033e
00000240: f200 e03c 2ae4 1a3e 1648 54bf 4095 0140
00000250: c286 793e 2a23 9a3d 2d50 90be b9bb 9b3d
00000260: a673 d03e 618f 81be 06de cf3e 4980 453f
00000270: ede5 6cbe 06a6 8dbf 0a10 943d f0fc 5dbf
00000280: 87c5 96bf 34da 0a3f 4592 4dbe c995 18bf
00000290: f4d2 eb3e 36ec 9d3f 5051 9e3e fe11 1b3f
000002a0: 7673 193f 2007 9cbe 7f51 9dbe 8934 d23f
000002b0: e18a 853f 04e6 bdbf c4b4 243f d2ef e53f
000002c0: 8e29 b33c 8466 f3bf 096c e5bd bed3 ba3e
000002d0: 38ff a6bf 273a cabc 1a1c a7bf f2b2 68be
000002e0: 3bc6 d9bd 9503 8cbf ec47 92be 3d39 db3f
000002f0: e4bf a23f 83c5 813f 2c8a 3dbf 792a 843e
00000300: d092 67bf 189f 1340 e971 4bbf a3e3 df3f
00000310: ba7c a6bd 847c 3cbe 6d35 97bf 6d48 dd3e
00000320: e29a a33f 7849 45bf 5881 dc3f 3e3e 62be
00000330: f85f 5c3f feb0 e83f 5f08 2f3f 6e50 85be
00000340: a8f6 f43f ef81 923f d348 b13f 1862 93bf
00000350: 2371 023e 7b3f 5d3f 1329 583f 4688 ccbf
00000360: 6aa3 743f b968 b2bf 9c87 7e3d 88d4 82bf
00000370: 521b 0cbf bd52 8c3f 7e9b fd3d 9007 cc3e
00000380: 6c5c a83c a38a 89bf 88e1 883d e4d6 2f40
00000390: 27b3 5640 461a db3f 7daf abbf bc3b 4abe
000003a0: 9937 7abf 3e2d 483d c2f5 59bf b8c3 19bf
000003b0: 6d29 6cbf f2b1 113e 76b1 febe 440f a5be
000003c0: 3f9f eebf dbc8 db3e b058 1d3f ba6d 3b3e
000003d0: 99c3 ca3d ec41 0bbf 5210 443f b6ce b0bf
000003e0: c548 853e cead 293f ae5e 3a3f 30f0 153f
000003f0: d402 743e 5bcb a93c 1700 4fbf 508c 5b3f
0.1447194 -0.7756799 -0.49377397 0.9526168 -0.40743425 -0.0133390445 1.769193 -2.9003918
0.12320153 -0.86574435 -0.5350022 1.0769839 0.4854655 0.39554387 0.735811 -0.76588464
-0.03323009 -1.9264039 0.6648928 -0.7306456 0.45783442 -0.6527293 0.41440654 -0.25323772
-0.038700975 -0.9044664 -1.3552607 0.4740285 1.0222447 0.42678526 -0.36139572 -0.1270029
-0.5575774 1.6683737 0.62440926 -0.369996 -0.019328395 1.0881456 0.4400508 -1.035664
2.1105437 -1.5505115 -1.0695537 0.5861779 -0.068145305 0.11017177 -0.5081105 1.2672207
-0.30318132 -0.60603887 -0.31131357 0.070130795 -0.45311219 2.0914278 -0.076495044 1.2451671
-1.3637358 -0.76926607 0.33228952 1.1416528 0.09556167 -2.131404 0.54824644 0.9360735
1.9081922 0.9615412 0.5532089 0.94371057 0.34146914 -0.036131818 1.4979035 -0.77713597
0.78444695 -0.045530625 -0.162888 1.3386378 -0.16280414 -0.25698695 0.05226877 -0.3905531
0.23035519 0.26680827 1.0981535 -1.2467839 -0.9592683 -1.806865 0.011381955 -0.11029202
-1.255781 0.63485026 0.30918384 2.8536866 -1.2144246 -0.21394113 -0.5268425 0.1747892
0.5184405 -0.3785808 -0.22544836 -1.5656636 0.47743145 -1.0616355 1.7796661 -0.548713
0.33892053 0.7781892 0.007546223 -0.5837614 -0.9153054 -0.05262318 1.7875817 1.1515049
0.09723652 1.5960456 -0.6041526 1.4098101 0.118052386 0.7040226 -0.5374417 -0.7361796
0.54710525 1.9050328 0.101510786 0.45101082 0.40040472 -0.99870265 0.15158005 -0.63073504
2.8520985 -0.118797325 0.38489395 0.9762557 -1.3438313 -0.83415174 -0.1312017 -0.09495339
-0.17994495 -1.112129 0.45809117 -0.21843596 0.556023 -0.109296866 1.9977323 0.12848976
0.0273442 0.151261 -0.82922494 2.0247345 0.24367812 0.07526238 -0.2818617 0.07604165
0.40713233 -0.25304702 0.40599078 0.7714887 -0.23134585 -1.1066291 0.07229622 -0.86714077
-1.177903 0.542392 -0.20075329 -0.59603554 0.46059382 1.2337711 0.30921412 0.6057433
0.59941804 -0.30474186 -0.3072624 1.6422282 1.0433007 -1.483582 0.64338326 1.7963812
0.0218704 -1.901566 -0.11202247 0.3648967 -1.3046637 -0.024685932 -1.3055451 -0.22724512
-0.106335126 -1.0938593 -0.28570497 1.7126843 1.271481 1.0138401 -0.7403896 0.25813654
-0.90458393 2.3065853 -0.7947069 1.7491344 -0.081292585 -0.18406874 -1.1813179 0.4321932
1.2781641 -0.7706523 1.7226973 -0.22094056 0.86083937 1.8179014 0.6837215 -0.26037925
1.9137774 1.1445903 1.3850349 -1.1514311 0.1273847 0.8642499 0.84437674 -1.5979087
0.9556185 -1.3938209 0.062141046 -1.0221109 -0.5472919 1.096275 0.123831734 0.3984952
0.020551883 -1.0745434 0.06683642 2.747491 3.3546846 1.7117393 -1.341293 -0.1974935
-0.97741085 0.04887127 -0.8514062 -0.6006427 -0.9225071 0.14228037 -0.49744767 -0.3223821
-1.8642348 0.42926678 0.6146345 0.18303576 0.099005885 -0.54397464 0.765874 -1.3813083
0.2603208 0.6628083 0.7280072 0.5856962 0.23829204 0.02072685 -0.8085951 0.85760975

embedding_CNN_distances.weight f4 [7, 8]
00000000: d72b 853f 9e21 93bf 5f35 473e 70f4 b83e
00000010: f647 703f e47f 07bf ff0b 3c3f ea53 9e3f
00000020: 846e 37bf 021b 373f ba5e 37c0 6e64 6ebe
00000030: 7c0d 81bf ac67 0dc0 58a0 82bf 053f 7f3d
00000040: 5305 843e 3b50 95bf b917 023d dddc c3be
00000050: b689 9d3f 7627 633f c151 f53f 5baf cf3e
00000060: 2d05 f3bd 3e86 be3e 341e 0b3f d530 e0bf
00000070: 690d 703f cbe1 45bf 7d12 d63e 0261 01bf
00000080: 13b6 8cbf 37e8 30be 11f3 1e3f 3147 c63f
00000090: 81fd 0a3e 596b 37bf 1347 6b3e 3d07 bb3e
000000a0: 306c bd3d 34eb d2be e76c 51be 2948 ab3f
000000b0: 758c bb3e a6c5 69bf 361b 36bf f2c8 893f
000000c0: 0000 0000 0000 0000 0000 0000 0000 0000
000000d0: 0000 0000 0000 0000 0000 0000 0000 0000
1.0404004 -1.1494634 0.19453953 0.3612399 0.93859804 -0.5292952 0.73455805 1.2369359
-0.7165301 0.71525586 -2.8651567 -0.23280498 -1.008224 -2.2094526 -1.0205183 0.06231596
0.25785312 -1.1665109 0.031760905 -0.38254443 1.2307651 0.8873209 1.9165574 0.40563473
-0.118662216 0.37211794 0.5434296 -1.7514902 0.9377046 -0.7729766 0.4181098 -0.5053865
-1.0993065 -0.17276083 0.6208964 1.5490476 0.13573267 -0.71648175 0.22976331 0.3652896
0.09249151 -0.4119507 -0.20451699 1.3381397 0.36630598 -0.9131721 -0.7113527 1.0764449
0.0 0.0 0.0 0.0 0.0 0.0 0.0 0.0

embedding_CNN_prices.weight f4 [6, 5]
00000000: e1cb f23f e22d b13f 5ce2 a2bf 56f8 dcbf
00000010: 9ef2 80bf 78ea e3be d178 8e3f 06e0 f83f
00000020: 9802 b23e b677 7cbe 8363 0b40 8310 0fbf
00000030: 768a cdbf 713e 34bf fcea 93bf 4076 99bf
00000040: 34bb eb3f 787d a5be fa2a b5bf b122 57bf
00000050: 3dfa 1dbf d063 a13e aec8 1d3d bc0d 47bf
00000060: 8d46 6d3f 0000 0000 0000 0000 0000 0000
00000070: 0000 0000 0000 0000
1.8968469 1.3842127 -1.2725329 -1.7263286 -1.0074041 -0.44514823 1.113062 1.9443367
0.34767604 -0.24655041 2.1779487 -0.5588457 -1.605788 -0.7040778 -1.1556087 -1.1989212
1.8416505 -0.32322288 -1.415374 -0.8403731 -0.6170996 0.31521463 0.03852146 -0.7775533
0.92685777 0.0 0.0 0.0 0.0 0.0
