checkpoints/GNNNoCNN_Epoch23_valmse2.0927_testmse2.2917_ndcg0.9310.model (torch, 249600 bytes, 52 tensors)

Pair_embedding_types.weight f4 [106, 16]
000000 99 66 09 3d 56 ed a6 bd 83 29 d0 be 9e c5 5e bf
       0.03354511 -0.08150737 -0.4065667 -0.8702029
000010 18 64 5a 3f 4d c6 c2 be 92 06 02 3e b4 92 a4 bf
       0.8530898 -0.38041916 0.12697819 -1.285727
000020 9d 60 da 3d 7c ac 85 bc b5 09 9f bf b7 4a 0c 3f
       0.10662959 -0.016317599 -1.2424837 0.54801506
000030 75 af c9 bf ac 99 b8 3e 1b 2d 84 3e d6 6e 35 3f
       -1.575667 0.36054742 0.25815663 0.7087225
000040 70 b5 eb 3e 0c 1c 96 bf 79 1f f7 3f 2a e5 d9 be
       0.46036863 -1.1727309 1.930648 -0.4255765
000050 12 55 80 be 29 f0 40 3e a6 68 1e bf e0 2f 2c 3f
       -0.25064903 0.18841614 -0.6187843 0.6726055
000060 46 35 86 bf 12 24 29 3d f0 60 05 bf ad c2 53 40
       -1.0485008 0.041294165 -0.5210104 3.308757
000070 a9 a3 4e bf ea 45 0c bf 42 5d 8f bf e5 77 80 3f
       -0.80718476 -0.5479418 -1.1200335 1.0036589
000080 c7 55 dc 3f 96 11 11 40 46 5b 85 bf 74 77 12 3e
       1.7213677 2.2666984 -1.041848 0.1430338
000090 c5 80 63 3f bf d1 a3 bf 14 7c 90 bf 24 e7 68 3d
       0.8886836 -1.2798384 -1.1287866 0.056861058
0000a0 73 36 28 3f d1 83 08 3e 11 8c 83 3f 29 ca e2 3d
       0.6570808 0.13331534 1.027712 0.11073715
0000b0 6f 9b 70 bf ca 92 cc 3d 17 0d 94 3f 01 eb af bd
       -0.9398717 0.09988935 1.1566495 -0.08589745
0000c0 db 13 27 bf be df 96 3f c3 c2 c8 be 03 31 96 bf
       -0.6526467 1.1787031 -0.3921109 -1.1733707
0000d0 4b 45 d7 bf df 9f 5b 3f fa ec fe bf 3f 1c a2 3c
       -1.6818022 0.8579082 -1.991607 0.01978886
0000e0 5c cf 93 3c 07 5e 86 3f 32 29 ab bf a5 26 a4 3f
       0.018043213 1.0497445 -1.3371947 1.2824293
0000f0 06 28 06 3c 8e 3e 75 3f cf de 9f 3f ea 0c 3b 3d
       0.008188253 0.95798576 1.2489871 0.045666613
000100 3e 0c c6 bd 1a 4a 51 3e 74 c6 55 3f c4 3d d0 bf
       -0.09670304 0.20438424 0.8350594 -1.6268849
000110 c3 b4 09 40 20 76 88 bf 28 fa 6a 3e 37 19 ae bf
       2.1516578 -1.0661049 0.2294699 -1.3601445
000120 70 38 97 be 5e 7c 0d 3e d6 ba 3a 3e e4 50 74 3f
       -0.29535246 0.13816974 0.18235335 0.9543593
000130 e4 f5 cb 3e 48 ad 37 be e0 f7 80 3e 3b a9 39 3e
       0.39836037 -0.17937195 0.25189114 0.18130963
000140 24 51 b2 be 24 5e fc 3d 34 2b 8b 3e be 40 89 3f
       -0.3482753 0.123226434 0.271814 1.0722883
000150 03 32 9b be 6d 53 92 bf 74 db 1d be 61 64 d7 be
       -0.30311593 -1.143171 -0.15415746 -0.4206877
000160 4a a3 2f 3f fb 7a c3 3f 78 21 33 bf c2 d4 55 bf
       0.68608534 1.5271906 -0.69972944 -0.8352777
000170 d4 a1 52 bf 2f 99 1d 3f fc 81 68 3f 03 63 bc 3f
       -0.8227818 0.61561865 0.9082334 1.4717716
000180 a9 52 b1 bf cf 8b 80 3e cf b3 e7 3f 13 2f 0f 3e
       -1.3853351 0.25106665 1.8101748 0.13982801
000190 06 16 3c 3f 7d 58 68 3e 1c f7 5e bf 6b 4d 0c 40
       0.73471105 0.22690006 -0.8709581 2.1922252
0001a0 79 ae 8e bf 95 15 9b 3f 08 9f 6e 3e a9 a3 7d bf
       -1.1146995 1.2115961 0.23302853 -0.9907785
0001b0 33 e0 ee be 32 a8 6f 3e dc 55 f6 be 8a 85 eb bc
       -0.46655425 0.23404005 -0.4811238 -0.0287502
0001c0 38 c6 39 3f 3c 2d c6 3f c3 40 84 3e ab 02 bc be
       0.7256808 1.5482554 0.2583066 -0.36720785
0001d0 f8 18 25 bf 29 89 49 3e c9 d5 9b be e0 37 2a be
       -0.64491224 0.19681229 -0.30436543 -0.16622877
0001e0 cb 34 8e 3f 0c e5 25 c0 45 8c 83 3e c0 94 8e be
       1.1109861 -2.592105 0.25692955 -0.27847862
0001f0 94 82 2b be 79 3a c0 bf 8c 34 dd bd 06 87 91 3d
       -0.1674903 -1.5017844 -0.10801038 0.07105832
000200 4e 64 86 3e 00 bc c4 3f 6f 06 c2 3e db 5c 7e 3f
       0.262484 1.5369873 0.37895533 0.99360436
000210 15 c5 37 be 8f b7 8f 3f d5 46 a5 bf 61 59 1a 3f
       -0.17946275 1.1227893 -1.2912241 0.6029263
000220 23 d5 58 3e b5 ff 7f bf b8 a5 bb 3f 36 68 0c bf
       0.21175055 -0.9999955 1.4659948 -0.54846513
000230 a8 8e c1 bc f4 88 a3 3f 35 2e 2a bd e1 e7 ac 3e
       -0.023627594 1.277617 -0.041547973 0.3377066
000240 94 0f 71 3f c7 73 6d 3d aa 3a e0 3e c7 61 76 bf
       0.94164395 0.057971742 0.43794757 -0.96242946
000250 f0 b8 d2 be 4a 5a 6c 3f 2b e6 bf 3e a8 10 17 bf
       -0.4115672 0.9232527 0.37480292 -0.5900979
000260 96 30 1b 3f f8 68 3b bd c9 d7 0f 40 9f ef b3 3f
       0.6062101 -0.045754403 2.2475455 1.4057502
000270 85 75 bb 3f a7 87 05 3e f2 20 cc 3e 17 d5 96 be
       1.4645239 0.13040029 0.39868885 -0.2945945
000280 c7 f0 8c bd 2d e7 07 be 3d 12 0e 3e a0 db 91 3e
       -0.06881862 -0.1327178 0.13874145 0.28487873
000290 16 44 89 bf 2f 38 45 bf a7 cf 97 3f 11 5d 88 3f
       -1.0723903 -0.77038854 1.1860245 1.0653402
0002a0 82 26 b7 bf 4e 9b 35 3f 83 fc 6b be 54 9c a9 3f
       -1.4308627 0.709401 -0.23045544 1.3250833
0002b0 f1 c2 b1 3f f2 1f 73 3d cc 47 9d 3e 5b 14 db 3e
       1.3887616 0.059356637 0.3071884 0.42788967
0002c0 54 f1 9d bf cc ba 1e bf f1 4b 1e be 7c 42 70 3f
       -1.2339272 -0.6200378 -0.15458657 0.9385145
0002d0 47 02 63 be f9 be 9d bf dd f9 4c 3f 46 ff 23 3f
       -0.22168837 -1.2323905 0.8006876 0.6406139
0002e0 9d f5 a3 3e a4 9c 4c 3f b8 0f ff 3f 5b 15 5e 3e
       0.32023326 0.79926515 1.9926672 0.21687834
0002f0 70 97 61 3d d5 a0 b3 3f 4b b3 94 be 88 45 6b 3e
       0.055076063 1.4033457 -0.2904304 0.22975743
000300 fb 92 dc 3e 31 4b c6 bf 6b 7d f0 3d bc a9 9c be
       0.43080887 -1.5491697 0.117426716 -0.30598247
000310 3d ac da 3f 62 e4 7d bf 5d b0 09 3f 80 1d c2 3f
       1.7083813 -0.9917661 0.53784734 1.5165253
000320 77 98 22 be 0e be ba bf 28 bf 39 bf 6a 07 1b 3f
       -0.15878473 -1.458925 -0.72557306 0.6055819
000330 ec 16 64 3f 28 06 46 3e 5c 64 ef 3d 1a b4 b8 3e
       0.89097476 0.19338286 0.11689064 0.36074907
000340 ae c3 50 bf df 38 d5 3f c6 f6 a5 be 57 ce 0a 40
       -0.81548584 1.6657981 -0.32414836 2.168844
000350 cc 85 a2 3f 33 c0 c6 3e cd 0f ab bf 7d 6e 98 3e
       1.2697082 0.3881851 -1.3364197 0.29771796
000360 87 d0 c3 be 68 a0 8e 3e 03 65 29 bf c7 14 0f 3f
       -0.3824503 0.27856755 -0.66169757 0.5589108
000370 2e 96 a7 bf 43 a0 53 40 9e 50 04 40 1c 45 05 c0
       -1.3092706 3.3066566 2.0674205 -2.082343
000380 a9 02 65 bf 4b ac fa bc bd 8a 15 c0 61 23 ae 3f
       -0.89457184 -0.030599734 -2.336593 1.3604547
000390 37 e7 86 bf d5 f7 b4 be 91 1c ce 3e 62 76 79 bf
       -1.0539311 -0.3534533 0.4025617 -0.9744626
0003a0 ef f1 e0 be 0f cd 22 bf 0c 0b 41 bf 5d fb c0 3e
       -0.4393458 -0.63594145 -0.7540748 0.37691775
0003b0 a4 b1 b1 bf 77 0d 6e bf a4 c3 c6 be a8 4c c4 bf
       -1.3882337 -0.92989296 -0.38821137 -1.5335894
0003c0 00 51 8e bf 1a 4b d6 3e f0 d3 c4 bf 76 5c 54 3d
       -1.1118469 0.41854173 -1.5377178 0.05184599
0003d0 12 ad b1 3e cb 18 b8 3f e6 84 66 3f 2d 5d ae bf
       0.34702355 1.4382566 0.90046537 -1.3622185
0003e0 77 8f 73 3f 78 08 89 bf 82 13 88 be 89 20 a3 be
       0.95140785 -1.070571 -0.26577383 -0.3186076
0003f0 03 ca d3 3f b8 09 d7 be 0d 8e fd bf ea f0 d9 3d
       1.6546024 -0.41999602 -1.9808975 0.10641654

embedding_Pair_distances.weight f4 [7, 8]
000000 af 14 01 3f 92 fe 54 bf f3 a9 6f 3f 64 3f 3b 40
       0.50422186 -0.83200943 0.93618697 2.925744
000010 39 df 2a 3f 6b ff b1 3f d1 5d ad be 62 cf 95 3e
       0.6674686 1.3906072 -0.3386064 0.29259783
000020 e0 74 00 40 dc b9 0e 40 7f 88 53 3f 35 74 d0 bd
       2.0071335 2.230094 0.8263015 -0.10178415
000030 f5 3a be 3f 0e 85 78 bf 4d 98 cb 3f 3c 1b 23 40
       1.4861742 -0.97078025 1.5905854 2.5485373
000040 26 30 3a bf 72 8b 68 bf bb 5c 74 bf bd 81 3b bd
       -0.7272972 -0.90837777 -0.95453995 -0.045778025
000050 ed d0 b5 bf da 64 03 bf ac 2c 04 3e b8 03 c8 bf
       -1.4204384 -0.5132576 0.12907666 -1.5626135
000060 31 bb d9 be 54 3d cf 3e c9 07 f3 bf 8f 30 60 be
       -0.42525628 0.40476477 -1.8986751 -0.21893524
000070 00 56 05 c0 48 27 f0 bf 4d 06 77 bf a6 20 00 bf
       -2.083374 -1.8761988 -0.9649399 -0.5004982
000080 f4 74 85 3f cb 94 97 3f 42 cf c5 be a1 7a 00 c0
       1.0426316 1.1842283 -0.38634688 -2.0074847
000090 6a f6 a5 bf 9f 4d 36 be 8c f6 2e bf c5 84 8d bf
       -1.2965825 -0.17803048 -0.6834495 -1.1056143
0000a0 57 84 39 bd a3 c3 d3 3e e4 00 09 bf 0b 59 3c 3e
       -0.045292225 0.41360196 -0.53516984 0.18393342
0000b0 a7 38 b5 bf 97 19 40 bf 92 ac d4 bf 27 39 09 bf
       -1.4157914 -0.75039047 -1.6615164 -0.5360283
0000c0 00 00 00 00 00 00 00 00 00 00 00 00 00 00 00 00
       0.0 0.0 0.0 0.0
0000d0 00 00 00 00 00 00 00 00 00 00 00 00 00 00 00 00
       0.0 0.0 0.0 0.0

embedding_Pair_prices.weight f4 [6, 5]
000000 91 35 82 3d 38 e6 d6 3e 30 03 bd 3e 52 18 4d be
       0.06357873 0.41972518 0.36916494 -0.20028809
000010 2d 7b 98 3f a0 2b 63 3f c0 5a 9b 3d b9 8f 6b 3f
       1.191259 0.8873844 0.075856686 0.9201618
000020 18 fd 36 3f ff 1a 59 3f 01 89 1e be 03 7e 1f bf
       0.7147994 0.8480682 -0.1548195 -0.62301654
000030 50 4e 25 bf 7f 39 0c 40 5f 63 44 bf a9 bf 9b bf
       -0.6457262 2.1910093 -0.7671413 -1.2167865
000040 4a 32 01 c0 6c d2 f4 be 35 8d 22 3e 26 68 ff 3f
       -2.0186944 -0.4781679 0.15874179 1.9953659
000050 02 c3 57 bc 5d f1 b7 bf cf 8c 96 bd be f4 7a 3f
       -0.013169052 -1.4370533 -0.07351076 0.98029697
000060 06 9f ad bd 00 00 00 00 00 00 00 00 00 00 00 00
       -0.08477597 0.0 0.0 0.0
000070 00 00 00 00 00 00 00 00
       0.0 0.0

Pair_shop_mlp.fc_layers.0.weight f4 [64, 32]
000000 e7 39 33 3d 8c d9 02 bd 54 42 21 3e 7c 49 3a 3e
       0.04375639 -0.03194575 0.15747958 0.18192095
000010 6e 21 56 be 9d d5 32 3d aa 88 6d 3d 07 16 fe bd
       -0.2091119 0.04366075 0.05799166 -0.12406545
000020 15 f7 90 3d f7 e1 15 3e 0b a4 1f be d1 49 ae 3c
       0.07078377 0.1463698 -0.15589921 0.021275433
000030 95 77 10 be eb ac 49 be e2 d7 90 3d b1 70 81 3d
       -0.14108117 -0.19694869 0.070724264 0.06320322
000040 98 5f d7 3d c5 a3 46 3c 67 c7 38 bc e6 c4 8d 3d
       0.1051628 0.012124007 -0.01127801 0.06922321
000050 da 0d 2d 3c e7 3d ba 3d 8d db 57 3c f0 f5 76 3e
       0.0105623845 0.09093838 0.013174904 0.24117255
000060 23 50 06 be e1 78 c3 3c e7 68 b2 3c 34 5a 84 3d
       -0.13116507 0.02386135 0.021778537 0.064625174
000070 d5 32 ca 3d e0 03 54 3d 10 18 b8 bd b6 a3 39 be
       0.09872977 0.051761508 -0.089889646 -0.18128857
000080 ad 18 3b be 3e 1e df 3d e1 be a4 bd d9 16 07 3e
       -0.18271132 0.1089444 -0.0804422 0.1319231
000090 61 4e ac 3d ac ae 50 3e 04 88 8a 3e ff db fa bd
       0.08413387 0.20379132 0.27056897 -0.12248992
0000a0 bd 73 16 be a6 ff 7d bd 06 a4 cf bd 12 62 3f 3c
       -0.14692588 -0.062011383 -0.10138707 0.011681097
0000b0 79 f4 18 bd e1 6b 47 bd c6 11 f5 3c 5d f7 63 3e
       -0.037342522 -0.048686866 0.029915702 0.2226233
0000c0 95 19 51 3d d3 24 24 be 1f 9b fc 3c 05 20 48 3e
       0.051049788 -0.16029672 0.030835686 0.19543464
0000d0 fa 5e a8 3d bc f2 b8 bd f1 ff 5d 3c e2 bf f4 3d
       0.0822124 -0.09030673 0.013549791 0.11950661
0000e0 26 16 da bd 4e fd a2 3d 67 ed 88 bc c5 ba 2d be
       -0.10648756 0.0795847 -0.016714765 -0.16965778
0000f0 0f 49 21 3e 55 52 a3 bd 31 79 46 3e d2 68 59 3d
       0.15750526 -0.07974688 0.19382168 0.05307848
000100 08 8e 5e 3d 2c 71 67 3d d3 1c dd bc 50 29 83 bd
       0.05433467 0.056504413 -0.026991284 -0.06404364
000110 68 22 fe 3d 90 1e f3 3d f2 b2 88 3d 58 80 cd 3d
       0.12408906 0.11871064 0.06674756 0.10034245
000120 9f c9 43 3e 5b 7b 28 be a7 b1 ed bd a1 75 03 3e
       0.19119881 -0.16453306 -0.1160615 0.1283784
000130 51 29 b3 bd 5b 1a 00 be c3 53 23 bd 8d 6c 01 3e
       -0.08748115 -0.12510054 -0.039874803 0.12639065
000140 9f 26 3c be 35 88 25 be e2 38 f8 3d a1 64 14 3e
       -0.18374108 -0.1616524 0.121202245 0.14491512
000150 4c 35 02 be d1 48 c7 3d 8e 3c a3 3c 85 55 16 bd
       -0.12715644 0.097306855 0.019926336 -0.03670265
000160 76 a3 b4 bd 00 1e d9 3d 1b 33 00 3e a6 8b 01 be
       -0.0882024 0.10601425 0.12519495 -0.12650928
000170 db 0a 09 3e 29 63 d9 bd 9f 82 d4 3d b7 58 62 3d
       0.13383047 -0.106146164 0.103764765 0.055260386
000180 b4 cc 88 bd a1 9d d2 bd 3a 0d 85 bc 54 c5 e9 bc
       -0.06679669 -0.102839716 -0.016241658 -0.028536476
000190 b4 ea 85 3d c2 03 03 3e 92 33 0e 3e 4d 0d 1a 3d
       0.06538907 0.12794402 0.1388686 0.03761034
0001a0 69 82 34 bd 6f d8 21 3e 11 4a fb bd 41 ba c1 3d
       -0.04406968 0.15805219 -0.122699864 0.09459353
0001b0 ce dc f4 3d de bb cc 3d 1e ab 2d be f2 ea 16 3e
       0.11956178 0.0999677 -0.16959807 0.14738062
0001c0 80 42 be bd 43 6d d0 3d 18 e9 39 be da b9 35 bd
       -0.092900276 0.1017709 -0.18155324 -0.044366695
0001d0 6d 4f f3 3d 8b 00 9a bd 9f 03 a9 bb 0c 6f 16 3e
       0.11880384 -0.07519635 -0.0051579024 0.14690799
0001e0 cc fd 2a 3e c6 42 9c 3d 4e c3 28 3e cc cb 9b 3d
       0.16698378 0.076299235 0.16480753 0.076072305
0001f0 ca 43 3d be 7f 31 ed bc c7 3b 13 be e9 08 9e bd
       -0.1848289 -0.028954266 -0.14378272 -0.07716543
000200 2b a1 19 3d e7 79 99 3d 3b 6d 0e 3d 10 0f 1e 3e
       0.037507217 0.07493954 0.03477214 0.15435433
000210 80 81 a6 3c a8 b6 30 be e0 b8 48 3d 8e 40 dd bd
       0.020325422 -0.17257178 0.049004436 -0.108033285
000220 c3 5d 99 bd 13 c4 d7 bd b9 7b 56 3d 58 02 6b bd
       -0.07488587 -0.10535445 0.052364085 -0.057375282
000230 87 8e 67 bc 70 3f 05 be 95 9e 32 bd 8f 7c b1 3d
       -0.014133102 -0.1301248 -0.043608267 0.08666336
000240 34 48 01 be 93 ba e8 bd e1 cf bf bc 5c c9 48 bc
       -0.126252 -0.11363711 -0.023414554 -0.012255039
000250 e9 a8 09 3e af 70 72 3d 59 77 12 be 21 cb 65 3d
       0.1344334 0.059189495 -0.1430334 0.056101922
000260 0a 5b 32 be 5b 34 e6 bd d5 33 bd bd d8 32 b3 bd
       -0.17417541 -0.11240455 -0.09238402 -0.08749932
000270 47 f7 d0 3c 1f b6 19 be 7c ea 82 3d 31 98 08 be
       0.025508536 -0.1501088 0.063923806 -0.13339306
000280 f3 41 30 3d b8 9d c7 3d 03 4a 94 bd ea e2 54 bb
       0.043031644 0.09746879 -0.07240679 -0.0032483884
000290 0f 1b bc b9 64 be a2 3d bf e0 1e 3e 53 19 9b 3d
       -0.00035878315 0.079464704 0.15515421 0.075731896
0002a0 68 bd 35 be 93 20 46 be 49 af fc bb d0 2f f8 bd
       -0.17748034 -0.19348364 -0.0077113253 -0.121184945
0002b0 3e 61 4b 3d df dd 57 be c5 8b fa bd 6d 69 dd 3c
       0.049653284 -0.21080731 -0.1223369 0.02702781
0002c0 dd 5d 93 3b e6 0e 30 3e ff e4 0f be fd 9e d4 3d
       0.0044972734 0.17193183 -0.14052199 0.10381887
0002d0 0e f9 c3 bd 1c a4 12 3e 98 0a 0b 3e c0 35 12 be
       -0.09568988 0.14320415 0.1357826 -0.14278316
0002e0 29 69 3a 3e 59 7a 47 3e 39 3c ad 3d 69 f4 89 bd
       0.18204178 0.19480266 0.08458752 -0.06736071
0002f0 5c 76 b7 bd 56 25 15 3e b1 69 ab 3c f1 3d 2c be
       -0.08958122 0.14565024 0.020924421 -0.16820504
000300 f0 2e 66 3d 0e 04 27 be 7e 6d d5 bd 63 89 50 bd
       0.056197107 -0.1631014 -0.104212746 -0.050912272
000310 2f 71 af 3c 4c c4 15 be c7 fe 7b bd 66 62 fb bd
       0.021416275 -0.14625663 -0.06152227 -0.122746274
000320 2c 69 23 bd 82 d5 35 be 81 40 8e bc 28 a8 f1 bd
       -0.03989522 -0.17757228 -0.017364742 -0.117996514
000330 27 3d df 3d 52 54 4e 3d 1c 39 97 bd 18 b9 da 3d
       0.10900336 0.050373383 -0.073839396 0.10679835
000340 e4 39 06 bd c0 16 ee 3d bf 2f 8f bd 5d 6c f2 3d
       -0.032770053 0.11625433 -0.06991529 0.11837075
000350 39 53 f4 3c 28 08 23 be ad e8 a6 bd 40 36 66 bd
       0.02982484 -0.1592108 -0.08149848 -0.05620408
000360 f8 1e 42 3e 3f 13 8d 3c c5 36 da 3d 02 c3 37 be
       0.18957126 0.017221091 0.10654978 -0.17945483
000370 d7 ab 2a be 76 c9 5d bd 78 63 ed 3d b0 ee 45 bd
       -0.16667114 -0.054147206 0.11591238 -0.048323333
000380 02 16 a8 bc 5d 65 12 bd 37 9f 66 bd 1c be 03 bc
       -0.020518307 -0.0357412 -0.056304183 -0.008040931
000390 06 dc 15 3e 10 33 82 3d f2 2e cb 3d aa d8 da 3d
       0.14634714 0.06357396 0.099210635 0.10685857
0003a0 c3 f4 d0 bd 24 52 21 3d b0 41 3e 3d 64 4d ec bc
       -0.102029346 0.039384976 0.046449363 -0.028845496
0003b0 87 27 25 3e 3e 20 46 3e be 6e 18 3d 35 4b f5 3d
       0.1612836 0.19348237 0.037214987 0.11977235
0003c0 78 e9 2a be 40 b3 21 3b 65 ab 51 bd 83 62 36 be
       -0.16690624 0.0024673492 -0.051188845 -0.17811017
0003d0 64 76 c5 bd 6a 44 21 3d f1 da 29 be 2e a5 0e be
       -0.09641722 0.039371885 -0.16587426 -0.13930199
0003e0 55 27 ba 3d d6 44 a8 3d cd 39 41 3e 5f 57 ca 3d
       0.09089533 0.082162544 0.18869705 0.09879946
0003f0 dc 65 df bc f6 f5 58 3d 14 6d fc bc 62 ff 96 3d
       -0.02727025 0.05296894 -0.030813731 0.07372929

Pair_shop_mlp.fc_layers.0.bias f4 [64]
000000 b9 e5 36 3e 93 b0 c4 bc fc bc e2 bd ac 4c aa bd
       0.1786107 -0.024009978 -0.11071202 -0.08315405
000010 dc 89 c2 bd 14 0d 95 bc fa f5 d7 3d 0d 2c bc bd
       -0.09498951 -0.018194713 0.10544963 -0.091880895
000020 ea b9 e5 bd 7d 4d b8 3d 5a 6b be 3d a7 41 24 3e
       -0.11217101 0.08999155 0.092978194 0.1604067
000030 e4 40 ce bd 42 b3 ce 3d 0c 03 ab 3d 91 5d 50 bd
       -0.10070971 0.100927845 0.083501905 -0.050870482
000040 68 29 df bd a7 6e aa bd 37 a0 a9 bd 39 8e a5 3d
       -0.108965695 -0.083218865 -0.08282512 0.080837674
000050 c1 69 3e 3e 97 df 11 3e c0 a3 bc bd d8 ae 62 bd
       0.1859503 0.14245449 -0.0921092 -0.055342525
000060 cd e0 5d bd a6 e4 af bd ef 80 fb bc b2 68 28 3d
       -0.054169465 -0.08588533 -0.030701129 0.04111547
000070 b7 b0 28 be de 9c e9 3d e3 de 40 3d 3b 2f e2 3c
       -0.16473661 0.11406873 0.04708756 0.027610412
000080 69 30 48 3d 44 67 4a 3d 3b be f8 bc dc ad 80 bd
       0.048874293 0.049414888 -0.030364146 -0.06283161
000090 e7 d9 e3 bc ed d5 ec 3d 95 39 a0 bd d2 49 dc 3d
       -0.027813865 0.115642406 -0.07823483 0.107562676
0000a0 61 1c 8f bc 17 f2 3b 3d 40 96 9c 3d e0 0e 27 3e
       -0.017469587 0.04588517 0.076458454 0.16314268
0000b0 af 6e b5 3d 80 48 16 bd 1b ab 3e 3e 3d bb 5c bd
       0.08859002 -0.036690235 0.18619959 -0.0538895
0000c0 f9 3e ad bd 27 22 ab bd ff f4 61 bc 30 a0 71 3d
       -0.08459277 -0.083561234 -0.013791322 0.058990657
0000d0 13 45 05 3e 5e ef a4 3d 2c 26 f4 bd 5f 95 94 bd
       0.13014631 0.08053468 -0.11921343 -0.07255053
0000e0 e2 1c 02 3d 8c 99 11 be 1c 2a 23 3d 0f 6d 34 3e
       0.031765826 -0.1421873 0.03983508 0.17619728
0000f0 c5 45 e8 bd 36 cf 61 3d 21 38 1c be 7d 08 5c bd
       -0.113414325 0.055129252 -0.15255786 -0.053719033

Pair_shop_mlp.fc_layers.1.weight f4 [16, 64]
000000 a3 65 63 be 34 19 11 bd ae d2 57 3b 97 f7 a0 3d
       -0.2220674 -0.035424426 0.0032931971 0.07859724
000010 6c 52 4f 3d 54 3b af bc 40 68 d8 3d b4 71 b3 bd
       0.050615713 -0.021390595 0.10566759 -0.087619215
000020 e2 a0 10 bd 70 c3 49 bb 5c db 25 3a 2d ae e8 3d
       -0.03530968 -0.0030786656 0.00063269376 0.113613464
000030 f0 6a b3 bd 69 ce a8 bd 2e ee 15 be f9 6e 11 3e
       -0.08760631 -0.082424946 -0.1464164 0.14202489
000040 61 46 cb 3d 70 a8 11 3e 0f 43 3c bc e1 9e a9 bc
       0.09925533 0.1422441 -0.011490597 -0.020705642
000050 9d a9 1d 3e e6 e9 f5 bc 62 0e 97 3d 7e db 2c 3d
       0.15396734 -0.030018758 0.0737579 0.04220151
000060 41 1c ce 3b 06 d9 a9 3d 44 c3 0d be 55 89 2d 3e
       0.006289989 0.08293347 -0.13844019 0.1694692
000070 aa 1b 09 3e 6f e2 b6 3d d9 95 b3 bd 3d b8 95 bd
       0.13389459 0.089299075 -0.087688155 -0.07310531
000080 05 f2 1c 3e 32 16 db bd f3 48 e2 3d 01 62 01 3c
       0.15326698 -0.10697593 0.1104907 0.007896901
000090 81 54 ed 3d f6 b8 51 3e d6 c3 94 3d c8 23 c7 3c
       0.115883835 0.20480713 0.07263915 0.024309054
0000a0 fa 7d 3e 3d e4 30 92 3d ba 85 38 3d 86 f7 84 bd
       0.04650686 0.071382314 0.045049407 -0.06492524
0000b0 ac c2 0f be 6b 12 03 bd 4e 9e cc 3c 65 76 cf 3d
       -0.14039105 -0.031999987 0.02497783 0.10130004
0000c0 ea 43 09 3c f0 d2 22 3d fd 18 2d 3e 02 62 6e 3d
       0.008378008 0.039751947 0.16904064 0.058198936
0000d0 36 52 bb 3d fd f7 99 3d 90 64 f9 bd 8b bf 6d bd
       0.0914654 0.07518003 -0.12177384 -0.058043998
0000e0 5f 45 e1 3d 25 40 d3 bd 49 05 4b 3e 86 b9 42 3c
       0.109995596 -0.10314969 0.19826235 0.011885053
0000f0 f7 b9 2e 3d f1 37 39 bc 0f 89 9d 3d 5a 09 5a 3c
       0.04265782 -0.011304841 0.076921575 0.013307894
000100 eb c0 51 3e 84 64 83 bc 10 bf 3b 3c 10 40 ec 3d
       0.20483749 -0.01603914 0.011459127 0.115356565
000110 2c 3a 38 bd 01 8f bc 3d 82 68 da 3d 0c 07 a7 bd
       -0.044977352 0.09206963 0.106644645 -0.08155641
000120 ba 76 a9 3d c2 0d 06 3d c3 9b a6 3d c6 a1 cd 3d
       0.082745984 0.032727964 0.08135178 0.100406215
000130 c3 31 a5 3d 42 d5 a7 3d 3d 77 40 bd 58 a3 f7 3d
       0.08066132 0.081949726 -0.046988714 0.12091702
000140 c4 8f 80 3c d3 0a 97 bd 4f 96 ed 3d 4b d3 46 bd
       0.015693553 -0.073751114 0.11600935 -0.04854135
000150 cd 2a 9e bc 30 17 a5 bd 90 4a b6 3d 7d 0e b8 bd
       -0.019307518 -0.08061063 0.089009404 -0.089871384
000160 e2 e2 32 3d 80 7c a7 3c e2 25 7e bd 47 ab a5 bb
       0.043673404 0.020445108 -0.062047847 -0.0050558182
000170 de 97 37 bd 97 ce dc 3d fd 76 0b bb 7b 3e c0 3d
       -0.044822566 0.107815914 -0.002128064 0.09386917
000180 e4 00 28 bd c9 7e 5b bd bd c9 e7 bd 41 2f 8b 3d
       -0.041016474 -0.05358771 -0.113177754 0.06796122
000190 79 fa db 3c 21 b1 8b bd 01 3b 60 bd c6 3a 90 3d
       0.026852833 -0.06820894 -0.05474377 0.0704246
0001a0 a4 23 79 bd 8b 02 ce 3c fa 2e 04 3e 3b a8 16 3e
       -0.060825005 0.025147697 0.12908545 0.14712612
0001b0 be bd 03 bd 89 6c 39 3c 7f c2 00 3e fa c3 84 bc
       -0.032163374 0.011317381 0.12574194 -0.01620673
0001c0 24 fb 0b be 78 33 43 bc ec 14 e0 3a a7 a7 18 bc
       -0.13670021 -0.011914127 0.0017096079 -0.009317315
0001d0 05 9a b7 bc cb e9 38 bc 8c be 5c 3d 0a 44 89 bd
       -0.02241231 -0.011286209 0.053892657 -0.067024305
0001e0 98 c0 2a bc d1 b1 eb 3d 46 c6 e7 bd e3 bf 08 3e
       -0.0104218945 0.11508525 -0.113171145 0.13354449
0001f0 bc bd c9 3d a7 f6 da bd bf 85 6d bd ad 4a a7 3d
       0.09850642 -0.106915765 -0.05798888 0.0816854
000200 4c 04 40 3e bf 97 80 3d b7 54 a1 3d 17 d2 97 3a
       0.18751639 0.06278943 0.07877486 0.0011582997
000210 64 24 e6 bd b5 f7 5f 3d 3f 3a 15 bc 60 99 8a bd
       -0.1123741 0.05467959 -0.009108125 -0.06767535
000220 34 df 2b 3d e1 0e cb 3d 15 b6 04 3c af 6e 1c bd
       0.04196091 0.09914947 0.008100052 -0.038191494
000230 34 50 1e bd 95 22 06 3d 88 d3 db 3b 18 19 8a bd
       -0.038650706 0.032747824 0.006708566 -0.067430675
000240 85 2f af bc 5a 90 b5 3c de 0c bf 3d 94 7a 0e 3e
       -0.021384964 0.022163559 0.09328626 0.13913947
000250 57 84 45 3d 32 bb 72 3b 84 c7 d0 bc 37 90 99 3d
       0.048221912 0.0037037847 -0.025485761 0.0749821
000260 38 92 40 bc 32 4f 94 bd 91 94 4e 3e 23 74 55 bd
       -0.011753611 -0.07241668 0.20173861 -0.05211271
000270 2c 30 45 bc f0 24 23 3e 83 f2 38 3e bf c1 d3 bd
       -0.012035411 0.1593206 0.18061261 -0.103396885
000280 cc b5 b6 3d e6 a7 87 3c 93 d0 92 bd 83 38 0a bd
       0.08921394 0.016559552 -0.071686886 -0.0337453
000290 c2 8c 8d bc 59 f0 ca bd 7e 86 15 3e e9 c6 c5 3d
       -0.017279033 -0.09909124 0.14602086 0.0965708
0002a0 3a 6d b3 3d f5 dd cb bc 8e 28 5c 3c 85 5e 30 bc
       0.08761068 -0.02488611 0.013437403 -0.010764723
0002b0 f4 7d 11 3e e2 7e 7d 3c 1d 80 24 3d 71 d1 ca bd
       0.14208204 0.015472146 0.04016124 -0.09903229
0002c0 d0 40 03 be bd 03 b0 3d 05 21 28 be 16 c3 f8 bc
       -0.12817693 0.08594463 -0.16418846 -0.030366462
0002d0 d6 05 00 be a9 1c f8 3d 67 72 2c 3d 43 46 cb 3d
       -0.12502226 0.121148415 0.04210129 0.09925511
0002e0 ba 98 a2 3c af 55 6f bd 19 28 87 3d 46 3c e3 bb
       0.019848216 -0.058431324 0.06599445 -0.0069346754
0002f0 1b c9 7c 3d 46 2e c5 3d b3 93 9e bd 9d 29 a8 3d
       0.061715227 0.096279666 -0.07743015 0.08211062
000300 03 66 08 3e 63 0a 8a 3d a5 e0 64 3c c8 ed c5 bd
       0.13320164 0.06740262 0.013969575 -0.09664494
000310 78 a6 3d 3d 0d ba 88 bc 6d 92 f0 3d 51 df 06 3e
       0.046301335 -0.016690278 0.117466785 0.13171126
000320 1d 5c 05 3e 6f 23 40 3e fd 83 13 3e 97 7b 54 3c
       0.1302342 0.18763517 0.14405818 0.012968919
000330 42 8d 29 3d 69 9a 81 bd 85 46 2a bb 2a 9e bc bd
       0.04139448 -0.063282795 -0.0025981974 -0.09209855
000340 18 0f 84 3d 0e f6 4b bd 71 ce 03 3d 76 53 0e 3d
       0.064481914 -0.049795203 0.0321793 0.034747563
000350 b1 9f 4b bd 60 a4 ee 3d 7b a5 06 3e 8a 6e de 3d
       -0.04971284 0.11652446 0.13149063 0.108609274
000360 30 68 28 3e 72 66 40 be 36 5d 41 3e 07 50 97 3d
       0.16445994 -0.1878908 0.18883213 0.07388311
000370 12 ee 56 3d 61 45 ec 3d 72 94 1b 3e 3d b4 17 3e
       0.052473135 0.115366705 0.15193346 0.14814849
000380 3c 1d a6 3d d6 4e 1c 3d 90 28 14 3d 79 59 3b bd
       0.08111045 0.03816112 0.036171496 -0.045739625
000390 84 5c da bd b9 cd d3 bd 0a 28 9f bd 39 91 19 3b
       -0.10662177 -0.10341973 -0.07771309 0.0023432507
0003a0 da 7e 4a bb f1 a8 8c 3d f0 62 95 3d 3f eb 55 3b
       -0.0030898363 0.068681605 0.072942615 0.0032641438
0003b0 38 de 65 3d 27 ae c1 bc 76 ce 05 bd 1f 73 57 3d
       0.056120127 -0.023642613 -0.0326676 0.052600022
0003c0 1b 5e 4f be b2 b7 ec bd d1 70 3c be 4c e7 9e 3d
       -0.20250742 -0.115584746 -0.18402411 0.0775896
0003d0 41 59 dc bd 76 51 76 bd be af a9 bd c9 5c 73 3d
       -0.10759211 -0.06013628 -0.08285473 0.05941466
0003e0 3d b3 cf 3d 98 ae 5e bd 51 a8 b9 3d f9 c6 0f 3e
       0.10141609 -0.054365724 0.09065307 0.14040746
0003f0 5e fd 3f bd a6 05 62 3d 4c fc 14 3d a5 20 11 3e
       -0.04687249 0.055181168 0.03637342 0.14172609

Pair_shop_mlp.fc_layers.1.bias f4 [16]
000000 23 a4 9e ba 41 21 c1 3b fa 7f 08 3e f1 9a 21 3d
       -0.001210336 0.0058938568 0.13330069 0.039454404
000010 e4 1b ab bd e7 4f 0d 3c d0 49 88 3c 30 cf ab bd
       -0.08354929 0.008625007 0.016636759 -0.08389127
000020 bf 05 4d 3d fc 1b a8 bd 41 f7 51 bd b1 53 90 3d
       0.050054308 -0.082084626 -0.05126119 0.07047213
000030 30 0e d0 3d 5f f9 75 3c a2 9d b2 bd e7 47 0f 3e
       0.10158956 0.015013068 -0.08721472 0.13992272

Pair_score_mlp.fc_layers.0.weight f4 [64, 32]
000000 e8 b6 0a be 52 6f d0 bd 6b 34 1f 3e 36 a9 2c bd
       -0.13546336 -0.10177483 0.1554734 -0.04215356
000010 bf 03 99 bd bd fd bf bd c2 2d 51 3e 80 fe 85 3c
       -0.07471418 -0.093745686 0.20427611 0.016356707
000020 3d 33 d3 bb 75 6f d6 bd ad 4e 4e bd 23 3d d1 bd
       -0.006445317 -0.104704775 -0.050368 -0.10216739
000030 12 29 06 be 5b cf 0b be 74 33 8f 3d 25 65 2b 3c
       -0.13101605 -0.13653319 0.06992236 0.010461126
000040 3f ce 3e be 51 b6 c6 bd e5 25 86 3e 6f ac 85 bd
       -0.18633364 -0.09702743 0.26200786 -0.0652703
000050 95 cb e5 3d 9f e9 45 be 08 4e 55 3d da 88 00 3e
       0.11220471 -0.193274 0.05207637 0.12552205
000060 78 69 1f be d3 e2 92 bd c3 66 27 3e 91 b4 d1 bd
       -0.15567577 -0.071721695 0.16347794 -0.102395184
000070 5b f8 9f 3d cd dc 69 bd e6 cf 80 be e4 92 95 be
       0.07811042 -0.057095338 -0.25158614 -0.2921363
000080 23 4c 3c be d4 f0 8d bd 75 a2 47 3e fb d8 3f 3e
       -0.18388419 -0.069307 0.19495566 0.18735115
000090 6b 36 b0 bd c6 a3 34 3e f2 ec 2f 3e 8f bb ec bd
       -0.086041294 0.176406 0.17180231 -0.115592115
0000a0 09 7f fa 3d d5 ac 02 bd 02 3f 9d bd 84 8e 17 3d
       0.12231261 -0.031903107 -0.076780334 0.037001148
0000b0 8f b7 95 3d 4c d8 3b bd eb 18 cd bd ef 68 8e bc
       0.07310402 -0.045860574 -0.10014518 -0.01738402
0000c0 e3 1b 96 bd 97 29 e0 bd 2d de 56 3d 00 c3 1b 3e
       -0.07329538 -0.10945433 0.052457977 0.15211105
0000d0 37 e2 48 3c 36 05 00 be 23 5b 6c 3d 74 b7 e5 bd
       0.012260965 -0.12501988 0.057704102 -0.112166315
0000e0 79 da 31 be af 2b 39 3e 94 57 41 3c 61 88 0f be
       -0.17368497 0.1808307 0.011800665 -0.14016868
0000f0 7e 96 33 bd 3f 32 cc bc 04 18 2b 3e 64 54 88 3d
       -0.043844692 -0.024926303 0.1670838 0.06656721
000100 62 d5 f4 bd 23 c4 b8 ba 27 2d 53 bd cc 13 d1 bd
       -0.11954762 -0.0014096539 -0.051556733 -0.10208854
000110 75 b4 1e 3d 7c 88 54 bc 70 50 c5 3d 5d 5a 05 bd
       0.038746316 -0.012971994 0.09634483 -0.03255688
000120 20 b0 05 3e 1b c8 0d be ec 6b cf 3c a6 ba 31 3e
       0.13055468 -0.13845865 0.025320016 0.17356357
000130 01 64 da 3c 89 ff 36 bd c0 50 b6 3d 7f 40 87 3a
       0.026659014 -0.04467729 0.089021206 0.0010318904
000140 64 63 8a be a0 0b 0f 3d 27 fb 1d 3d 3a 0b 6e 3e
       -0.27028954 0.034923196 0.038569596 0.2324647
000150 a3 ac 57 3e bb fd 8e 3d 14 a6 62 3e 96 ab 91 3d
       0.2106195 0.06981989 0.22133666 0.071128055
000160 13 49 2a 3e 5f 3a 8e bd f7 0b 4a bd 94 90 87 bc
       0.16629438 -0.06944727 -0.049327817 -0.016548432
000170 5f b1 16 be 59 e1 ed bd 1a 39 b9 bd 12 a1 f3 3d
       -0.14716099 -0.11615247 -0.090440944 0.11895956
000180 52 bb 26 be dc 84 02 3e 33 9e 60 3e a2 cc 2d 3d
       -0.16282395 0.12745994 0.21935348 0.04243148
000190 4a f1 30 3e 7d 02 11 be f8 40 f2 bd 24 11 73 3d
       0.17279544 -0.14161105 -0.11828798 0.05934252
0001a0 33 9c 1d 3e 71 a7 c4 3d d8 f7 f6 bd 76 f7 39 3e
       0.15391617 0.096022494 -0.12058991 0.18160805
0001b0 37 e5 ad bd c4 aa 88 3d 39 a5 b9 bd 0e 13 38 3e
       -0.08490985 0.06673196 -0.09064717 0.17976019
0001c0 12 71 de 3c 8b e9 db bd 6d 0f e6 3d 62 25 99 3d
       0.027153526 -0.10737904 0.11233411 0.07477833
0001d0 a9 d7 07 3d f7 52 88 3d a2 f7 0a 3e 25 85 58 bd
       0.033164654 0.06656449 0.13571027 -0.05286135
0001e0 9b 52 12 3e c4 b9 55 be 48 09 34 3d 40 89 8f bd
       0.14289324 -0.20871645 0.043954164 -0.070086
0001f0 da b0 29 3d 45 40 37 3d 19 56 3a 3e ed cb 38 3d
       0.041428424 0.044739027 0.18196906 0.045116354
000200 c8 08 48 be b9 8b 7f bc 0b 8a e1 3c 2b 10 e7 bd
       -0.195346 -0.015597277 0.027531644 -0.11282381
000210 c4 22 0b 3e 4d f2 16 bd 1d e8 f5 bd 0f a1 7c be
       0.13587481 -0.03685217 -0.12007163 -0.24670814
000220 19 5e 14 3e 61 83 85 bd 27 0f 46 be 0c 50 3a be
       0.1448902 -0.06519199 -0.19341718 -0.18194598
000230 73 80 2b bd aa 14 7c 3c f3 b6 01 be 4f 4a 1e be
       -0.041870546 0.015385786 -0.12667446 -0.15458034
000240 ed 3e 29 3e 05 e3 30 3e 77 3b e6 bd 41 c1 01 be
       0.1652791 0.17274101 -0.11241811 -0.12671377
000250 27 c5 af bd 52 34 c2 3d 14 d3 86 3c 5f 95 e1 bb
       -0.08582526 0.094826356 0.016458072 -0.0068842615
000260 dc 05 55 be 2a 28 96 3d 8d 51 22 bd 49 15 68 3e
       -0.20803016 0.073318794 -0.039628554 0.2266437
000270 ec 99 08 bd 93 90 06 be a6 9f 3c 3d 8f 49 11 be
       -0.033349916 -0.13141088 0.04605069 -0.14188217
000280 12 bc f0 bd 2f 99 1a 3d ca f4 0e 3e 02 1b 97 3d
       -0.117546216 0.037743744 0.13960567 0.07378198
000290 03 05 c9 3d dc 5e 0d 3e 15 1c c6 bd e5 8f dd bd
       0.09815409 0.13805717 -0.09673325 -0.10818461
0002a0 24 95 c1 bd de d3 8e 3c b3 a6 36 3e b7 1e 84 3d
       -0.094522744 0.01743501 0.17837028 0.06451171
0002b0 2e 0f c7 3b 56 25 bd 3d 95 ff 21 be db f8 83 bd
       0.0060748076 0.09235637 -0.15820153 -0.0644395
0002c0 3d e0 31 3e 99 1d 27 3e cd af b2 3d 28 23 0d bc
       0.17370696 0.16319884 0.087249376 -0.008614339
0002d0 00 ff fd 3d 77 bd 07 be 9a ec e1 3c 99 30 bf 3d
       0.12402153 -0.13255869 0.02757864 0.09335441
0002e0 42 90 99 3d bc 71 91 3d ef ed 54 3e e1 cb 3e be
       0.07498218 0.07101771 0.2079389 -0.18632461
0002f0 9d 35 27 3e b9 b0 0f be 9c 7c 22 3e 79 5d 7c bd
       0.16329046 -0.14032258 0.15867847 -0.06161258
000300 77 7c ff bd 0b 8c 56 3e 18 a3 65 bd 90 1c 85 bd
       -0.12474912 0.2095186 -0.05606374 -0.064995885
000310 7f a0 17 be 16 7d af bd b9 e0 00 3d 98 8c 06 3e
       -0.14807318 -0.0856878 0.031464312 0.1313957
000320 f6 3f 97 3b bf 5b bd 3d df 6e b4 bd 43 f5 17 3e
       0.004615779 0.09246015 -0.088102095 0.14839654
000330 5f e3 37 bd 2d 0e d0 bd a4 17 0b 3e ba 28 c5 3c
       -0.044894572 -0.10158954 0.13583237 0.024067272
000340 50 d2 33 bb 5c f3 09 3e f2 7f c0 bd 7f a8 0a bc
       -0.0027438588 0.1347174 -0.09399404 -0.008463024
000350 28 c5 5b bd ba 52 92 3d 1f dc 3a 3e d7 be 2d 3e
       -0.05365482 0.07144685 0.18248032 0.16967331
000360 e3 3c 9d 3d 9f ae 50 bd 13 90 5a 3d 16 f7 58 3e
       0.07677629 -0.05094778 0.053360056 0.21188006
000370 28 cb ee bd a4 2e f7 3d 03 f7 19 3e 98 13 12 be
       -0.11659843 0.12069443 0.15035634 -0.14265287
000380 8b 9e 56 3c 5e 45 91 bd 53 11 4f 3e 92 7e 09 3e
       0.013099323 -0.07093309 0.20221452 0.13427189
000390 f2 05 0b 3d cb 42 9c 3c 56 ed b4 bd 7a 34 b8 bd
       0.033941217 0.019074818 -0.08834331 -0.08994384
0003a0 15 0d 3c 3e 11 df 75 3e c9 03 4e be 3f 9a fc bd
       0.18364365 0.24010874 -0.20118631 -0.123341076
0003b0 94 57 84 3d c8 15 59 bd e1 f7 d5 bd 23 71 fe 3d
       0.06462017 -0.052999288 -0.1044767 0.12423923
0003c0 61 49 4e be ae cd 03 be 02 45 f8 3c ae 97 9e bc
       -0.2014518 -0.1287143 0.030306343 -0.019359436
0003d0 ce ed 93 bd c1 cd 78 3e b3 0f 5b 3d ff e1 33 ba
       -0.07223092 0.24297239 0.05348177 -0.0006861984
0003e0 a7 55 07 3b 5f 1f e9 bd db c0 bd bd ab 5f 00 be
       0.0020650418 -0.11382937 -0.092653 -0.12536494
0003f0 79 4e db bd 3a 83 95 bd cf 5e 33 3e 71 54 8d 3d
       -0.10708327 -0.0730042 0.17516635 0.069008715

Pair_score_mlp.fc_layers.0.bias f4 [64]
000000 fc ad 7d 3d bc f0 49 bd bc c9 0a be 26 63 cc bd
       0.061933503 -0.049301848 -0.13553518 -0.099798486
000010 14 e0 30 3e 6b 8c 26 3e 88 f6 d0 bd a2 20 ca bd
       0.17272979 0.16264503 -0.10203272 -0.098695055
000020 ca 51 8b bd b5 98 a9 bd f9 bd 1f 3e f1 99 8e 3c
       -0.068027094 -0.0828108 0.15599813 0.01740739
000030 79 8d 36 3d 9d 75 d1 3d d8 05 82 bd 97 25 2f 3d
       0.044568513 0.10227511 -0.06348771 0.042760458
000040 92 26 3e 3e b6 44 94 bd 47 dc d3 3d 7d a1 98 3d
       0.18569401 -0.07239668 0.10344749 0.074526764
000050 26 33 9d bd 6c ca e6 bc fa c0 91 3d 93 1d 54 bd
       -0.076757714 -0.028172694 0.071168855 -0.051786017
000060 9e ae dc 3d d2 df 31 bd 6c d1 8b bb 01 26 dc 3d
       0.10775493 -0.043426342 -0.0042669084 0.10749436
000070 53 67 22 3e ff 1a 14 bd 24 d7 a2 bd 6d 66 1d 3e
       0.15859728 -0.036158558 -0.07951191 0.15371104
000080 e8 38 aa 3d 37 bd 19 be 09 63 74 3c e4 e5 6a 3e
       0.08311635 -0.15013586 0.01491619 0.22939259
000090 7e a4 2a 3e 0b da 12 3e ec 11 a7 bd a2 1f 2e bd
       0.16664311 0.1434099 -0.08157715 -0.042510636
0000a0 b7 0b e8 bd 79 af c9 3d 62 88 17 be e9 3f fa bd
       -0.113303594 0.09847922 -0.1479812 -0.12219221
0000b0 6d 52 f5 39 24 9f 02 3e 03 6e 19 bd 99 e8 c3 bd
       0.00046791453 0.1275602 -0.03745843 -0.09565849
0000c0 fe 0d 7a bd 3d 20 8e bd 54 d7 18 3d bf 3e 95 bd
       -0.0610485 -0.06939743 0.037314728 -0.072873585
0000d0 64 dc 2a bd 47 77 f3 bd c0 17 73 bd 26 5f 0e 3e
       -0.041714087 -0.11887985 -0.05934882 0.13903484
0000e0 8d 7a c8 bc 89 81 e0 3d 14 a7 f8 3d 71 9c fb 3d
       -0.0244725 0.10962207 0.121412426 0.12285698
0000f0 86 3c 9d 3d 5d f3 2b 3e 5f cf c0 3d 2c 77 88 bd
       0.076775596 0.16792054 0.09414553 -0.06663355

Pair_score_mlp.fc_layers.1.weight f4 [8, 64]
000000 8f 0a dc 3d 72 aa ff 3d a4 3d 03 3e 9c 23 8a 3d
       0.107442014 0.12483682 0.12816483 0.06745073
000010 90 08 43 3e 8a 8f 1c 3e 06 ad 59 3d 7f d8 ec 3d
       0.19046235 0.15289131 0.053143524 0.11564731
000020 75 7b 0a 3e b2 39 14 3e d2 4a dc bd 66 49 11 3d
       0.13523658 0.14475134 -0.10756458 0.03547039
000030 37 8b 04 3d 8c d5 0d be 94 59 be bc af fd 31 bb
       0.032359328 -0.13850993 -0.023236074 -0.0027159264
000040 8e e0 f2 3d 0c 77 83 3c 34 3b 25 bd ff a4 74 3d
       0.11859237 0.016047977 -0.040339664 0.059727665
000050 34 b0 0e 3e 2c ee b7 bc 4e a8 c0 3d 94 d9 af 3c
       0.13934404 -0.022452436 0.094071016 0.021466054
000060 ff 70 d3 3d 34 ae 17 3e d7 41 23 3e 6a 1c 17 3d
       0.10324287 0.14812547 0.15943085 0.036892332
000070 5d f3 29 bd 4d e0 e4 bc cf 4d f2 3d 9f 22 17 3c
       -0.041491855 -0.027938986 0.11831247 0.009224563
000080 be f0 02 3d c5 5c e7 3d c3 1a ed 3d f8 f0 93 3b
       0.03196787 0.11296991 0.1157737 0.0045148097
000090 3b 72 32 3e 58 c9 24 3d 96 59 94 3d e8 79 c8 3d
       0.17426388 0.04023108 0.0724365 0.09788877
0000a0 d9 48 cc bc 13 f6 2d 3d 81 a2 c3 bc 54 66 a2 3d
       -0.02493708 0.042471003 -0.023881199 0.07929674
0000b0 6b 2b 38 be a0 c9 cd 3d bc e2 12 3e 3e 6d e0 3d
       -0.17985313 0.100482225 0.14344305 0.10958336
0000c0 72 b9 d5 bd 64 ff b1 3d c0 8e c3 bd 8d 6a be 3d
       -0.104357615 0.0869129 -0.09548712 0.09297667
0000d0 15 1c 74 3e 10 0a c1 3c 70 30 93 3d b8 63 ad bd
       0.23838837 0.023564368 0.07186973 -0.084662855
0000e0 2c a6 3b 3d 75 da a4 bd d9 42 7c bd 23 11 d6 3d
       0.04581277 -0.0804948 -0.06158719 0.10452487
0000f0 03 4c cc ba 1f 34 ad 3d 29 9f 6f bd 87 14 30 3e
       -0.0015586618 0.08457207 -0.058501396 0.1719533
000100 c0 b8 db bd 04 7f e3 3d fc d2 e3 bd 42 fc 0a be
       -0.10728598 0.11108211 -0.111242265 -0.13572791
000110 14 c2 d4 bd 7d fb 69 bd 1e 7c 31 bc 5c d1 94 bd
       -0.1038858 -0.057124604 -0.0108328145 -0.07266495
000120 0b 3f 89 bd 5f 36 57 3c 4e d5 30 be 75 bd 08 3c
       -0.067014776 0.013135522 -0.1726887 0.008345951
000130 86 5b 30 be 9d bd 2d 3e 6f 60 30 be 7b a4 28 be
       -0.17222413 0.16966863 -0.17224286 -0.16468994
000140 f6 3f 87 bb 0b 07 2b 3d 54 33 53 bd 6b 3f b0 3c
       -0.004127498 0.041754764 -0.051562622 0.021514615
000150 83 2e 07 be 4a 6e e4 bd 69 57 23 bd 2e 09 8a 3d
       -0.13201337 -0.111538485 -0.039878283 0.06740032
000160 43 f2 8e bd f6 90 cd bd 91 2f f2 3d 71 f2 e1 bc
       -0.069798015 -0.10037415 0.11825479 -0.027581425
000170 56 22 c0 bd 02 da 83 3d 28 ff e4 3d 08 6c b9 bb
       -0.09381549 0.06438066 0.1118148 -0.0056586303
000180 a5 8a 78 bd 46 37 01 be 60 6a 5f 3d dc f1 df 3d
       -0.060679097 -0.12618741 0.054544806 0.10934803
000190 9a 85 ba bd 76 4c 99 3d f5 c2 09 3d e1 45 65 3d
       -0.09107514 0.07485287 0.03363319 0.055974845
0001a0 ab 5e ce bd be 46 11 bd d8 80 90 bd 01 ca e8 bd
       -0.1007665 -0.035467856 -0.07055825 -0.11366654
0001b0 73 82 44 3e 1a a5 05 3e 06 c9 9f bd 78 dc 98 bd
       0.19190387 0.13051262 -0.07802014 -0.07463926
0001c0 99 db 45 3d ea a6 fa bd 98 57 e8 3d 15 69 d8 bd
       0.048305128 -0.122388676 0.11344832 -0.10566918
0001d0 59 e4 83 3b c7 b0 10 be 6b b4 07 be f6 2a 55 3e
       0.004025024 -0.14129935 -0.13252418 0.2081717
0001e0 2f 33 e6 3c 90 a0 d7 bd 1e b6 17 bd a4 87 8e bd
       0.028100578 -0.10528672 -0.037038915 -0.06959465
0001f0 48 4f 23 3e 80 11 ae 3d b9 b7 55 3d d8 3e 4a 3d
       0.15948212 0.084994316 0.052177165 0.04937634
000200 d3 c0 bb 3d 36 fb df 3d 56 64 65 3e ce 6b 29 3e
       0.09167638 0.109365866 0.22401556 0.1654503
000210 a7 f4 e3 3c 69 12 9f 3d 8a 76 3e 3e f9 a0 91 3c
       0.02782662 0.07767183 0.18599907 0.017776953
000220 5d fc 36 3e 70 32 1c 3d 21 f3 ba 3d fd b8 28 bc
       0.17869706 0.03813404 0.091284044 -0.010298011
000230 ee 63 aa bc d7 01 4d be 17 a0 85 3d 94 72 92 3d
       -0.020799603 -0.20020233 0.06524675 0.0715076
000240 6f 4e 7f 3e ff e6 1d 3e b2 f0 02 3e b0 6c 24 3d
       0.24932264 0.1542015 0.1278713 0.040142715
000250 9e b8 e6 3d 54 e0 30 bd 8c 09 ee 3d 39 c3 86 3d
       0.11265682 -0.043182686 0.11622915 0.065802045
000260 53 fd 5d 3d d9 47 4d 3d d8 e8 f0 3d fc 94 5c 3e
       0.054196667 0.050117347 0.117631614 0.21541208
000270 7f 08 e4 bb 65 79 13 3e 12 9f 8f 3d a1 22 55 3e
       -0.0069590206 0.14401777 0.07012762 0.20813991
000280 c6 ce d7 3d 15 ec d1 3c 02 90 de 3d be 9f ea bc
       0.10537486 0.025625268 0.10867311 -0.028640624
000290 1d a2 2d 3e 9c 2b 1d 3c 8b 86 cc bd 31 b1 1a 3e
       0.16956373 0.009592917 -0.099865995 0.15106656
0002a0 c2 be 43 bd ac e3 d2 3d 45 18 e8 3d 85 b4 22 3e
       -0.047789343 0.10297331 0.11332754 0.15889175
0002b0 fb 0c 6e bd 9a 53 09 3e 4e 1a c4 3d cd 5c 2c bc
       -0.058117848 0.13410798 0.0957533 -0.010520172
0002c0 f4 b1 17 3e 2e aa 05 bd 2c 60 27 3e 6a 5a 6e bc
       0.14813977 -0.032633 0.1634528 -0.014547924
0002d0 53 31 8b 3d 03 04 bf bd 14 f9 a0 3d e8 5c 96 bc
       0.06796517 -0.09326937 0.07860008 -0.018354848
0002e0 e8 d9 22 bd 9c bc d9 3c 5a e3 c5 3d ab 86 64 3e
       -0.039758593 0.026579194 0.096625045 0.22316997
0002f0 77 b2 d1 3d cc 0c 59 3c ff 08 cf 3d 82 e8 88 3e
       0.102391176 0.01324768 0.10109138 0.2673989
000300 e0 8d 5e bd a5 9f a1 3d d9 0c 58 3d 40 3a 17 3c
       -0.05433452 0.07891778 0.052746627 0.0092301965
000310 23 0f 3f 3c 27 b2 c5 bd b9 6f 68 3c ff f2 9f 3c
       0.011661324 -0.096531205 0.014186793 0.01952505
000320 4d 8e 1a be 5e 94 24 bc ee 2b 84 3d ee 55 9d 3c
       -0.15093346 -0.010045139 0.064536914 0.019206014
000330 7c 19 c2 bc 7c f5 c8 3d 1d 36 cf bd 04 91 12 be
       -0.023693793 0.098124474 -0.10117743 -0.14313132
000340 29 64 8d bd 14 29 c0 bd 58 10 a7 3b 27 14 5b bd
       -0.0690387 -0.09382835 0.005098384 -0.053486016
000350 00 2a 99 bd 8f d3 b6 bb 53 a8 69 3d ab 44 a6 3d
       -0.07478714 -0.005579419 0.057045292 0.08118566
000360 5b 61 f8 3d 49 dd 8b 3b 81 5a 45 bd 44 bf f5 3d
       0.12127944 0.0042683226 -0.048182014 0.11999372
000370 ed 96 55 bd f6 da 91 3d 61 3f 8f 3d fc b6 bb bd
       -0.052145887 0.071218416 0.069945104 -0.09165761
000380 a2 0e 2f bd 03 b7 e0 bd aa 7f 95 bc ad 24 90 bc
       -0.042738564 -0.10972407 -0.018249352 -0.017595613
000390 c3 cb 09 3e 1b d0 22 be fd 3b a5 bc 85 37 1a 3c
       0.13456635 -0.15899698 -0.020170206 0.009412651
0003a0 6e b5 10 bc 82 ee a0 3d 99 8a 9a bd 38 a3 c6 3c
       -0.008832319 0.07857992 -0.07545967 0.02424775
0003b0 0e 40 1c bd 1b 47 e3 bd 18 f8 fc bd cf 6e 8f bd
       -0.038147025 -0.11097547 -0.12352008 -0.07003557
0003c0 60 5a cc 3d ae 86 11 be 8a 27 f9 bb 8b 89 d0 bd
       0.09978175 -0.14211532 -0.0076035904 -0.10182484
0003d0 da fa 2c 3d 69 84 ae bd 16 b5 59 3b 34 f2 19 3e
       0.04223142 -0.08521349 0.0033219508 0.150338
0003e0 25 c6 c8 bd 82 a1 00 3d 6e 93 d7 3d 67 5e b3 3d
       -0.09803418 0.031404026 0.10526167 0.0875824
0003f0 14 fb 4e bd 1a 7c f1 bd 95 24 28 3d 1f ea 69 3b
       -0.050532416 -0.117912486 0.041050512 0.0035692526

Pair_score_mlp.fc_layers.1.bias f4 [8]
000000 87 37 64 3b 3a 72 cb 3d de df ac bd bf 0b 6d 3d
       0.0034823136 0.09933896 -0.08441137 0.05787253
000010 cd e2 0f 3e e3 29 f7 3d 4f 52 75 bd 73 48 74 bd
       0.14051361 0.12068536 -0.05989295 -0.059639405

CNN_embedding_types.weight f4 [106, 16]
000000 53 31 14 3e f5 92 46 bf f1 cf fc be b2 de 73 3f
       0.1447194 -0.7756799 -0.49377397 0.9526168
000010 39 9b d0 be 02 8c 5a bc eb 74 e2 3f 05 a0 39 c0
       -0.40743425 -0.0133390445 1.769193 -2.9003918
000020 15 51 fc 3d 6c a1 5d bf e7 f5 08 bf 9c da 89 3f
       0.12320153 -0.86574435 -0.5350022 1.0769839
000030 ef 8e f8 3e ba 84 ca 3e 1c 5e 3c 3f 04 11 44 bf
       0.4854655 0.39554387 0.735811 -0.76588464
000040 46 1c 08 bd 67 94 f6 bf 6a 36 2a 3f 97 0b 3b bf
       -0.03323009 -1.9264039 0.6648928 -0.7306456
000050 46 69 ea 3e 44 19 27 bf 18 2d d4 3e 60 a8 81 be
       0.45783442 -0.6527293 0.41440654 -0.25323772
000060 ea 84 1e bd 1c 8b 67 bf 2f 79 ad bf dd b3 f2 3e
       -0.038700975 -0.9044664 -1.3552607 0.4740285
000070 ea d8 82 3f 99 83 da 3e dc 08 b9 be 0c 0d 02 be
       1.0222447 0.42678526 -0.36139572 -0.1270029
000080 64 bd 0e bf 45 8d d5 3f 49 d9 1f 3f 1e 70 bd be
       -0.5575774 1.6683737 0.62440926 -0.369996
000090 95 56 9e bc 5b 48 8b 3f 57 4e e1 3e a3 90 84 bf
       -0.019328395 1.0881456 0.4400508 -1.035664
0000a0 26 13 07 40 29 77 c6 bf 23 e7 88 bf c1 0f 16 3f
       2.1105437 -1.5505115 -1.0695537 0.5861779
0000b0 c4 8f 8b bd bd a1 e1 3d 88 13 02 bf 4a 34 a2 3f
       -0.068145305 0.11017177 -0.5081105 1.2672207
0000c0 95 3a 9b be 5d 25 1b bf 7e 64 9f be bc a0 8f 3d
       -0.30318132 -0.60603887 -0.31131357 0.070130795
0000d0 52 fe e7 be f4 d9 05 40 6f a9 9c bd a3 61 9f 3f
       -0.45311219 2.0914278 -0.076495044 1.2451671
0000e0 e5 8e ae bf 9f ee 44 bf da 21 aa 3e ae 21 92 3f
       -1.3637358 -0.76926607 0.33228952 1.1416528
0000f0 d6 b5 c3 3d ec 68 08 c0 e1 59 0c 3f 83 a2 6f 3f
       0.09556167 -2.131404 0.54824644 0.9360735
000100 a4 3f f4 3f 90 27 76 3f 19 9f 0d 3f 04 97 71 3f
       1.9081922 0.9615412 0.5532089 0.94371057
000110 0b d5 ae 3e f5 fe 13 bd 4d bb bf 3f 62 f2 46 bf
       0.34146914 -0.036131818 1.4979035 -0.77713597
000120 84 d1 48 3f 52 7e 3a bd 1d cc 26 be 7c 58 ab 3f
       0.78444695 -0.045530625 -0.162888 1.3386378
000130 21 b6 26 be cb 93 83 be c7 17 56 3d 93 f6 c7 be
       -0.16280414 -0.25698695 0.05226877 -0.3905531
000140 3b e2 6b 3e 18 9b 88 3e 4b 90 8c 3f 9d 96 9f bf
       0.23035519 0.26680827 1.0981535 -1.2467839
000150 9b 92 75 bf 5a 47 e7 bf 61 7b 3a 3c c8 e0 e1 bd
       -0.9592683 -1.806865 0.011381955 -0.11029202
000160 6f bd a0 bf 8c 85 22 3f 58 4d 9e 3e cd a2 36 40
       -1.255781 0.63485026 0.30918384 2.8536866
000170 44 72 9b bf 62 13 5b be 26 df 06 bf f1 fb 32 3e
       -1.2144246 -0.21394113 -0.5268425 0.1747892
000180 84 b8 04 3f 58 d5 c1 be ef db 66 be aa 67 c8 bf
       0.5184405 -0.3785808 -0.22544836 -1.5656636
000190 e5 71 f4 3e ac e3 87 bf 19 cc e3 3f 75 78 0c bf
       0.47743145 -1.0616355 1.7796661 -0.548713
0001a0 fe 86 ad 3e 68 37 47 3f 4e 46 f7 3b 63 71 15 bf
       0.33892053 0.7781892 0.007546223 -0.5837614
0001b0 74 51 6a bf 67 8b 57 bd 7a cf e4 3f 83 64 93 3f
       -0.9153054 -0.05262318 1.7875817 1.1515049
0001c0 f1 23 c7 3d 39 4b cc 3f bf a9 1a bf a8 74 b4 3f
       0.09723652 1.5960456 -0.6041526 1.4098101
0001d0 73 c5 f1 3d d3 3a 34 3f c7 95 09 bf 44 76 3c bf
       0.118052386 0.7040226 -0.5374417 -0.7361796
0001e0 17 0f 0c 3f 1d d8 f3 3f e3 e4 cf 3d e4 ea e6 3e
       0.54710525 1.9050328 0.101510786 0.45101082
0001f0 d9 01 cd 3e fa aa 7f bf cd 37 1b 3e da 77 21 bf
       0.40040472 -0.99870265 0.15158005 -0.63073504
000200 c8 88 36 40 03 4c f3 bd d2 10 c5 3e e5 eb 79 3f
       2.8520985 -0.118797325 0.38489395 0.9762557
000210 aa 02 ac bf f8 8a 55 bf bd 59 06 be ec 76 c2 bd
       -1.3438313 -0.83415174 -0.1312017 -0.09495339
000220 7d 43 38 be 3e 5a 8e bf ed 8a ea 3e ad ad 5f be
       -0.17994495 -1.112129 0.45809117 -0.21843596
000230 86 57 0e 3f 09 d7 df bd b1 b5 ff 3f d2 92 03 3e
       0.556023 -0.109296866 1.9977323 0.12848976
000240 f2 00 e0 3c 2a e4 1a 3e 16 48 54 bf 40 95 01 40
       0.0273442 0.151261 -0.82922494 2.0247345
000250 c2 86 79 3e 2a 23 9a 3d 2d 50 90 be b9 bb 9b 3d
       0.24367812 0.07526238 -0.2818617 0.07604165
000260 a6 73 d0 3e 61 8f 81 be 06 de cf 3e 49 80 45 3f
       0.40713233 -0.25304702 0.40599078 0.7714887
000270 ed e5 6c be 06 a6 8d bf 0a 10 94 3d f0 fc 5d bf
       -0.23134585 -1.1066291 0.07229622 -0.86714077
000280 87 c5 96 bf 34 da 0a 3f 45 92 4d be c9 95 18 bf
       -1.177903 0.542392 -0.20075329 -0.59603554
000290 f4 d2 eb 3e 36 ec 9d 3f 50 51 9e 3e fe 11 1b 3f
       0.46059382 1.2337711 0.30921412 0.6057433
0002a0 76 73 19 3f 20 07 9c be 7f 51 9d be 89 34 d2 3f
       0.59941804 -0.30474186 -0.3072624 1.6422282
0002b0 e1 8a 85 3f 04 e6 bd bf c4 b4 24 3f d2 ef e5 3f
       1.0433007 -1.483582 0.64338326 1.7963812
0002c0 8e 29 b3 3c 84 66 f3 bf 09 6c e5 bd be d3 ba 3e
       0.0218704 -1.901566 -0.11202247 0.3648967
0002d0 38 ff a6 bf 27 3a ca bc 1a 1c a7 bf f2 b2 68 be
       -1.3046637 -0.024685932 -1.3055451 -0.22724512
0002e0 3b c6 d9 bd 95 03 8c bf ec 47 92 be 3d 39 db 3f
       -0.106335126 -1.0938593 -0.28570497 1.7126843
0002f0 e4 bf a2 3f 83 c5 81 3f 2c 8a 3d bf 79 2a 84 3e
       1.271481 1.0138401 -0.7403896 0.25813654
000300 d0 92 67 bf 18 9f 13 40 e9 71 4b bf a3 e3 df 3f
       -0.90458393 2.3065853 -0.7947069 1.7491344
000310 ba 7c a6 bd 84 7c 3c be 6d 35 97 bf 6d 48 dd 3e
       -0.081292585 -0.18406874 -1.1813179 0.4321932
000320 e2 9a a3 3f 78 49 45 bf 58 81 dc 3f 3e 3e 62 be
       1.2781641 -0.7706523 1.7226973 -0.22094056
000330 f8 5f 5c 3f fe b0 e8 3f 5f 08 2f 3f 6e 50 85 be
       0.86083937 1.8179014 0.6837215 -0.26037925
000340 a8 f6 f4 3f ef 81 92 3f d3 48 b1 3f 18 62 93 bf
       1.9137774 1.1445903 1.3850349 -1.1514311
000350 23 71 02 3e 7b 3f 5d 3f 13 29 58 3f 46 88 cc bf
       0.1273847 0.8642499 0.84437674 -1.5979087
000360 6a a3 74 3f b9 68 b2 bf 9c 87 7e 3d 88 d4 82 bf
       0.9556185 -1.3938209 0.062141046 -1.0221109
000370 52 1b 0c bf bd 52 8c 3f 7e 9b fd 3d 90 07 cc 3e
       -0.5472919 1.096275 0.123831734 0.3984952
000380 6c 5c a8 3c a3 8a 89 bf 88 e1 88 3d e4 d6 2f 40
       0.020551883 -1.0745434 0.06683642 2.747491
000390 27 b3 56 40 46 1a db 3f 7d af ab bf bc 3b 4a be
       3.3546846 1.7117393 -1.341293 -0.1974935
0003a0 99 37 7a bf 3e 2d 48 3d c2 f5 59 bf b8 c3 19 bf
       -0.97741085 0.04887127 -0.8514062 -0.6006427
0003b0 6d 29 6c bf f2 b1 11 3e 76 b1 fe be 44 0f a5 be
       -0.9225071 0.14228037 -0.49744767 -0.3223821
0003c0 3f 9f ee bf db c8 db 3e b0 58 1d 3f ba 6d 3b 3e
       -1.8642348 0.42926678 0.6146345 0.18303576
0003d0 99 c3 ca 3d ec 41 0b bf 52 10 44 3f b6 ce b0 bf
       0.099005885 -0.54397464 0.765874 -1.3813083
0003e0 c5 48 85 3e ce ad 29 3f ae 5e 3a 3f 30 f0 15 3f
       0.2603208 0.6628083 0.7280072 0.5856962
0003f0 d4 02 74 3e 5b cb a9 3c 17 00 4f bf 50 8c 5b 3f
       0.23829204 0.02072685 -0.8085951 0.85760975

embedding_CNN_distances.weight f4 [7, 8]
000000 d7 2b 85 3f 9e 21 93 bf 5f 35 47 3e 70 f4 b8 3e
       1.0404004 -1.1494634 0.19453953 0.3612399
000010 f6 47 70 3f e4 7f 07 bf ff 0b 3c 3f ea 53 9e 3f
       0.93859804 -0.5292952 0.73455805 1.2369359
000020 84 6e 37 bf 02 1b 37 3f ba 5e 37 c0 6e 64 6e be
       -0.7165301 0.71525586 -2.8651567 -0.23280498
000030 7c 0d 81 bf ac 67 0d c0 58 a0 82 bf 05 3f 7f 3d
       -1.008224 -2.2094526 -1.0205183 0.06231596
000040 53 05 84 3e 3b 50 95 bf b9 17 02 3d dd dc c3 be
       0.25785312 -1.1665109 0.031760905 -0.38254443
000050 b6 89 9d 3f 76 27 63 3f c1 51 f5 3f 5b af cf 3e
       1.2307651 0.8873209 1.9165574 0.40563473
000060 2d 05 f3 bd 3e 86 be 3e 34 1e 0b 3f d5 30 e0 bf
       -0.118662216 0.37211794 0.5434296 -1.7514902
000070 69 0d 70 3f cb e1 45 bf 7d 12 d6 3e 02 61 01 bf
       0.9377046 -0.7729766 0.4181098 -0.5053865
000080 13 b6 8c bf 37 e8 30 be 11 f3 1e 3f 31 47 c6 3f
       -1.0993065 -0.17276083 0.6208964 1.5490476
000090 81 fd 0a 3e 59 6b 37 bf 13 47 6b 3e 3d 07 bb 3e
       0.13573267 -0.71648175 0.22976331 0.3652896
0000a0 30 6c bd 3d 34 eb d2 be e7 6c 51 be 29 48 ab 3f
       0.09249151 -0.4119507 -0.20451699 1.3381397
0000b0 75 8c bb 3e a6 c5 69 bf 36 1b 36 bf f2 c8 89 3f
       0.36630598 -0.9131721 -0.7113527 1.0764449
0000c0 00 00 00 00 00 00 00 00 00 00 00 00 00 00 00 00
       0.0 0.0 0.0 0.0
0000d0 00 00 00 00 00 00 00 00 00 00 00 00 00 00 00 00
       0.0 0.0 0.0 0.0

embedding_CNN_prices.weight f4 [6, 5]
000000 e1 cb f2 3f e2 2d b1 3f 5c e2 a2 bf 56 f8 dc bf
       1.8968469 1.3842127 -1.2725329 -1.7263286
000010 9e f2 80 bf 78 ea e3 be d1 78 8e 3f 06 e0 f8 3f
       -1.0074041 -0.44514823 1.113062 1.9443367
000020 98 02 b2 3e b6 77 7c be 83 63 0b 40 83 10 0f bf
       0.34767604 -0.24655041 2.1779487 -0.5588457
000030 76 8a cd bf 71 3e 34 bf fc ea 93 bf 40 76 99 bf
       -1.605788 -0.7040778 -1.1556087 -1.1989212
000040 34 bb eb 3f 78 7d a5 be fa 2a b5 bf b1 22 57 bf
       1.8416505 -0.32322288 -1.415374 -0.8403731
000050 3d fa 1d bf d0 63 a1 3e ae c8 1d 3d bc 0d 47 bf
       -0.6170996 0.31521463 0.03852146 -0.7775533
000060 8d 46 6d 3f 00 00 00 00 00 00 00 00 00 00 00 00
       0.92685777 0.0 0.0 0.0
000070 00 00 00 00 00 00 00 00
       0.0 0.0
