checkpoints/GNNNoCNN_Epoch90_valmse2.1538_testmse2.3065_ndcg0.9348.model (torch, 249600 bytes, 52 tensors)

Pair_embedding_types.weight f4 [106, 16]
0.019211736 -0.09947772 -0.4088682 -0.87346005 0.8792575 -0.37569886 0.13099004 -1.3299894
0.14171258 0.0060113105 -1.2497069 0.54042864 -1.6059649 0.37251464 0.30401462 0.7200903
0.4782697 -1.1687799 1.9241987 -0.410482 -0.2573728 0.19281408 -0.5708023 0.67992496
-1.0309156 0.038756046 -0.5296016 3.3148725 -0.79160106 -0.5864347 -1.1174372 1.0154057
1.709666 2.301045 -1.0291173 0.15016474 0.8787896 -1.3507218 -1.1326959 0.073575355
0.6243365 0.123248614 1.0161432 0.09857821 -0.9458735 0.07886428 1.1182785 -0.110982865
-0.6625392 1.1727324 -0.3961218 -1.1553295 -1.6827214 0.8529233 -2.0050702 0.009066268
0.0024857847 1.0637536 -1.3274641 1.276999 0.0353172 0.98047745 1.171595 0.03888375
-0.08673931 0.17747374 0.8277083 -1.6564037 2.1214163 -1.0789406 0.17491102 -1.3295677
-0.3465087 0.14981322 0.16924684 0.91129166 0.37940133 -0.12901175 0.20828027 0.21572064
-0.2834709 0.16104521 0.28769937 1.0629312 -0.36656025 -1.1827925 -0.17245413 -0.37397605
0.65964276 1.5539912 -0.73451346 -0.8011896 -0.86858004 0.62290627 0.882329 1.5071275
-1.393717 0.17627767 1.8021985 0.15515374 0.70963925 0.19478159 -0.925151 2.164364
-1.0930357 1.2508479 0.19131051 -0.9746991 -0.46737447 0.26316565 -0.4646784 0.0028556252
0.71423954 1.5406178 0.24775138 -0.37800303 -0.7059608 0.20478013 -0.3144856 -0.18107015
1.1204975 -2.6114752 0.27510074 -0.28058624 -0.117562324 -1.4806712 -0.10228987 0.04180616
0.32018098 1.5819685 0.37482983 0.91744053 -0.24146943 1.1297013 -1.2364312 0.63658303
0.2383752 -1.0060762 1.4410249 -0.5225107 -0.049539186 1.2981161 -0.045703616 0.35144603
0.9505784 0.10668738 0.413565 -1.0094684 -0.4066222 0.9518732 0.40576968 -0.61556464
0.6255923 -0.046714436 2.2525337 1.4649893 1.478115 0.13888265 0.4250665 -0.29124385
-0.059761148 -0.11240734 0.16236562 0.2895267 -1.069512 -0.74291146 1.181196 1.0366938
-1.4528209 0.74236745 -0.19406447 1.3455136 1.4130555 0.05234683 0.32356972 0.3933123
-1.2041935 -0.6320516 -0.13174589 0.89918846 -0.24181199 -1.2530129 0.7874773 0.64859825
0.32165527 0.8160656 1.9804362 0.20472981 0.040635303 1.4546541 -0.27244946 0.24466524
0.43388137 -1.5856742 0.15504986 -0.3022217 1.7139864 -1.0823866 0.52763546 1.5253966
-0.15109052 -1.5064338 -0.7456062 0.55890167 0.8854696 0.21161823 0.09574428 0.34064403
-0.75011563 1.6529427 -0.40133014 2.1950705 1.2826028 0.4190324 -1.3080739 0.31441706
-0.42159033 0.22001112 -0.62934315 0.573784 -1.2767476 3.2691023 2.051223 -2.095883
-0.89224756 -0.110595405 -2.3227742 1.3640937 -1.0402042 -0.35096386 0.39229003 -0.983656
-0.43692288 -0.65552914 -0.76614076 0.3565957 -1.3424002 -0.9003799 -0.39501086 -1.5234295
-1.0886728 0.44545874 -1.5786875 0.033387706 0.36594635 1.4434575 0.9018617 -1.349144
0.94390625 -1.1355727 -0.31351537 -0.27925473 1.6629443 -0.46539146 -2.01533 0.15519689
00000000: ee61 9d3c faba cbbd 2c57 d1be 149b 5fbf
00000010: 0517 613f 9a5b c0be 4122 063e 183d aabf
00000020: 1a1d 113e 87fa c43b 65f6 9fbf 8859 0a3f
00000030: 4290 cdbf 3dba be3e cea7 9b3e d757 383f
00000040: c4df f43e 949a 95bf 254c f63f b22a d2be
00000050: 5ec6 83be 0e71 453e 1920 12bf 900f 2e3f
00000060: 0bf5 83bf a9be 1e3d f893 07bf df26 5440
00000070: 5ea6 4abf 9620 16bf 2f08 8fbf d0f8 813f
00000080: 56d6 da3f 5244 1340 1eba 83bf c9c4 193e
00000090: 5bf8 603f 74e4 acbf 2efc 90bf adae 963d
000000a0: 84d4 1f3f c569 fc3d fb10 823f 5fe3 c93d
000000b0: c424 72bf 9883 a13d c023 8f3f fc4a e3bd
000000c0: 2b9c 29bf 181c 963f 7ad0 cabe d6e1 93bf
000000d0: 6a63 d7bf 2e59 5a3f 1253 00c0 af8a 143c
000000e0: 8ce8 223b 1429 883f 58ea a9bf b474 a33f
000000f0: c5a8 103d 9200 7b3f d3f6 953f 9144 1f3d
00000100: 61a4 b1bd adbb 353e b1e4 533f 0905 d4bf
00000110: 49c5 0740 ba1a 8abf e01b 333e 462f aabf
00000120: 9769 b1be a368 193e 0b4f 2d3e 694a 693f
00000130: e440 c23e a81b 04be 6c47 553e dfe5 5c3e
00000140: 1923 91be 09e9 243e 554d 933e 210e 883f
00000150: c9ad bbbe bf65 97bf d197 30be ca79 bfbe
00000160: 59de 283f 2fe9 c63f 1309 3cbf c31a 4dbf
00000170: 435b 5ebf c976 1f3f 50e0 613f 8ee9 c03f
00000180: 5265 b2bf 2282 343e 71ae e63f 9fe0 1e3e
00000190: ebaa 353f d374 473e b2d6 6cbf f184 0a40
000001a0: 98e8 8bbf c91b a03f e7e6 433e e185 79bf
000001b0: b54b efbe a6bd 863e 54ea edbe 7125 3b3b
000001c0: 67d8 363f f732 c53f 8ab2 7d3e 9d89 c1be
000001d0: d9b9 34bf e2b1 513e 4204 a1be 746a 39be
000001e0: 766c 8f3f 6922 27c0 01da 8c3e 00a9 8fbe
000001f0: 84c4 f0bd a286 bdbf 5a7d d1bd f03c 2b3d
00000200: c3ee a33e f27d ca3f b2e9 bf3e 62dd 6a3f
00000210: c343 77be 0d9a 903f 6143 9ebf 1bf7 223f
00000220: a118 743e 1bc7 80bf 8173 b83f 43c3 05bf
00000230: 9ae9 4abd ab28 a63f b733 3bbd bcf0 b33e
00000240: 1b59 733f ea7e da3d cbbe d33e 4336 81bf
00000250: c930 d0be f6ad 733f 0bc1 cf3e a595 1dbf
00000260: d126 203f a357 3fbd 8329 1040 c584 bb3f
00000270: df32 bd3f 4137 0e3e 51a2 d93e ea1d 95be
00000280: 1bc8 74bd d235 e6bd 2c43 263e d83c 943e
00000290: c5e5 88bf 722f 3ebf 6e31 973f 62b2 843f
000002a0: 09f6 b9bf cb0b 3e3f d6b8 46be ca39 ac3f
000002b0: 01df b43f a169 563d eeaa a53e 3b60 c93e
000002c0: 0323 9abf 22ce 21bf 65e8 06be 3731 663f
000002d0: 909d 77be ba62 a0bf 1d98 493f 890a 263f
000002e0: 00b0 a43e ade9 503f ef7e fd3f b1a4 513e
000002f0: 3471 263d 1b32 ba3f 7f7e 8bbe 8689 7a3e
00000300: b325 de3e 5ff7 cabf 64c5 1e3e cdbc 9abe
00000310: e863 db3f a58b 8abf 1e13 073f 3240 c33f
00000320: 79b7 1abe d3d2 c0bf 0ce0 3ebf 2e14 0f3f
00000330: 23ae 623f 73b2 583e 9415 c43d e568 ae3e
00000340: 9407 40bf a093 d33f 257b cdbe 097c 0c40
00000350: 542c a43f 6a8b d63e f76e a7bf 46fb a03e
00000360: b0da d7be 984a 613e a21c 21bf 82e3 123f
00000370: 776c a3bf f938 5140 3d47 0340 f222 06c0
00000380: 566a 64bf d87f e2bd 55a8 14c0 9f9a ae3f
00000390: 6925 85bf 89b1 b3be 3dda c83e e1d0 7bbf
000003a0: 5bb4 dfbe c2d0 27bf cd21 44bf b693 b63e
000003b0: c5d3 abbf 4c7f 66bf dd3e cabe bdff c2bf
000003c0: a159 8bbf 2b13 e43e 6f12 cabf 8cc1 083d
000003d0: 525d bb3e 37c3 b83f 69e0 663f c0b0 acbf
000003e0: d7a3 713f 725a 91bf 1685 a0be 7afa 8ebe
000003f0: 5cdb d43f ca47 eebe 2bfb 00c0 efeb 1e3e

embedding_Pair_distances.weight f4 [7, 8]
0.5101015 -0.8340505 0.93717235 2.989425 0.68628293 1.4151082 -0.3533592 0.30561018
2.0201914 2.2258127 0.8284107 -0.100022994 1.4855168 -0.950526 1.5958214 2.5667367
-0.7162828 -0.8844847 -0.98793197 -0.09173485 -1.4112858 -0.5172103 0.11494291 -1.5763767
-0.39027652 0.39402086 -1.9015819 -0.19316576 -2.1001287 -1.8964154 -0.97312903 -0.48895007
1.0342313 1.2019722 -0.39888042 -2.0791202 -1.3170127 -0.15994368 -0.6654614 -1.13135
-0.07828226 0.42024642 -0.5390114 0.1730188 -1.3942022 -0.7994609 -1.6639175 -0.56137514
0.0 0.0 0.0 0.0 0.0 0.0 0.0 0.0
00000000: 0396 023f 5584 55bf 87ea 6f3f bd52 3f40
00000010: 3db0 2f3f 4422 b53f 7feb b4be f078 9c3e
00000020: d14a 0140 b773 0e40 b912 543f dbd8 ccbd
00000030: 6a25 be3f ac55 73bf e043 cc3f 6a45 2440
00000040: 4f5e 37bf 976d 62bf 1ce9 7cbf 7bdf bbbd
00000050: 03a5 b4bf e567 04bf 3067 eb3d b6c6 c9bf
00000060: 53d2 c7be 1abd c93e 0967 f3bf 3fcd 45be
00000070: 8268 06c0 bdbd f2bf fc1e 79bf aa57 fabe
00000080: b161 843f 3ada 993f 0e3a ccbe 4e10 05c0
00000090: df93 a8bf 47c8 23be ae5b 2abf 14d0 90bf
000000a0: 7352 a0bd 8a2a d73e a7fc 09bf d72b 313e
000000b0: 3875 b2bf 78a9 4cbf 40fb d4bf 48b6 0fbf
000000c0: 0000 0000 0000 0000 0000 0000 0000 0000
000000d0: 0000 0000 0000 0000 0000 0000 0000 0000

embedding_Pair_prices.weight f4 [6, 5]
0.13822813 0.5009409 0.4615285 -0.33517298 1.2349176 0.8229854 -0.023574546 0.85341716
0.7767089 0.7601531 -0.1439476 -0.60918385 -0.6423911 2.1921394 -0.79096395 -1.2458129
-2.041743 -0.4981336 0.1904028 2.021832 -0.06090694 -1.472664 -0.11221643 1.0412525
-0.07822772 0.0 0.0 0.0 0.0 0.0
00000000: ad8b 0d3e aa3d 003f 774d ec3e cb9b abbe
00000010: c811 9e3f 2caf 523f 681f c1bc 8c79 5a3f
00000020: 65d6 463f 6599 423f 0067 13be 79f3 1bbf
00000030: be73 24bf 034c 0c40 9d7c 4abf cc76 9fbf
00000040: ebab 02c0 5e0b ffbe f4f8 423e b265 0140
00000050: 8e79 79bd 4180 bcbf bad1 e5bd c347 853f
00000060: db35 a0bd 0000 0000 0000 0000 0000 0000
00000070: 0000 0000 0000 0000

Pair_shop_mlp.fc_layers.0.weight f4 [64, 32]
0.02865441 -0.07139481 0.16649826 0.2027713 -0.2639694 0.0581709 0.10945476 -0.13281636
0.040737264 0.19556081 -0.15484616 0.029904572 -0.105924994 -0.21341641 0.06910392 0.060956508
0.116678394 0.01615193 0.00736695 0.083548374 0.025174486 0.09978246 0.021009017 0.25050992
-0.12716898 0.008024371 0.0006118976 0.12779431 0.0740257 0.056883246 -0.09988722 -0.22923213
-0.21038187 0.0950005 -0.09205418 0.15933423 0.09417562 0.30876547 0.31777525 -0.13640575
-0.13060962 -0.08189355 -0.092544734 -0.0074719028 0.0147643415 -0.043051057 -0.0052517997 0.2521504
0.0312753 -0.17503609 0.006649323 0.20093451 0.046129134 -0.101308696 -0.031441785 0.099116236
-0.09812359 0.08640212 -0.024738358 -0.14066008 0.14614974 -0.08619584 0.19423842 0.04448995
0.08160494 0.0322247 -0.02198905 -0.06160202 0.14802182 0.14497606 0.07565941 0.13490018
0.26490012 -0.23585181 -0.11120972 0.10787721 -0.0779011 -0.13624312 -0.049516555 0.122590244
-0.12617701 -0.14664198 0.16683483 0.16813506 -0.08845515 0.12895787 -0.026230155 0.018312765
-0.08471576 0.09702951 0.06359844 -0.121580936 0.08696752 -0.12979738 0.10978462 0.04563012
-0.12156339 -0.10742368 -0.045515902 -0.0102916295 0.053785734 0.1689267 0.19029294 -0.01505474
-0.0048940377 0.25824454 -0.15112083 0.1014231 0.118166424 0.18354057 -0.23138413 0.17240104
-0.07014739 0.1296209 -0.16565959 -0.0746591 0.12635694 -0.06946223 -0.002192898 0.15186115
0.16135515 0.074461885 0.15167485 0.07507643 -0.20723559 -0.023420222 -0.1553749 -0.12018466
0.037507217 0.07493954 0.03477214 0.15435433 0.020325422 -0.17257178 0.049004436 -0.108033285
-0.07488587 -0.10535445 0.052364085 -0.057375282 -0.014133102 -0.1301248 -0.043608267 0.08666336
-0.126252 -0.11363711 -0.023414554 -0.012255039 0.1344334 0.059189495 -0.1430334 0.056101922
-0.17417541 -0.11240455 -0.09238402 -0.08749932 0.025508536 -0.1501088 0.063923806 -0.13339306
0.036712926 0.07652134 -0.059542373 -0.006884795 -0.0068780957 0.11769586 0.17446171 0.08913162
-0.19954038 -0.20038524 0.003307704 -0.120468765 0.05806716 -0.20210761 -0.13504615 0.015913025
-0.00067992555 0.17177157 -0.14262642 0.10813986 -0.099471696 0.13844244 0.12198151 -0.14221896
0.17969255 0.1832339 0.04652913 -0.054202195 -0.11377378 0.13162725 0.02754365 -0.191
0.074870646 -0.17990266 -0.11614348 -0.019175967 0.0070662745 -0.18549941 -0.07332885 -0.14991522
-0.00012283138 -0.20348549 -0.06428227 -0.13887002 0.03844896 0.012310889 -0.039994158 0.10013589
-0.015757414 0.10789888 -0.034620967 0.13175853 0.055213567 -0.1158319 -0.07240171 -0.044329893
0.18301609 0.018542163 0.113266595 -0.195349 -0.18647125 -0.03723848 0.08544254 -0.05524248
-0.01708155 -0.07162653 -0.06523393 0.008645199 0.14258708 0.037175223 0.111426026 0.11080874
-0.10224928 0.017685352 0.05026092 -0.034238085 0.18402211 0.19518715 0.017412104 0.124141626
-0.16283654 -0.006994348 -0.052874617 -0.18333766 -0.09775396 0.04991353 -0.1550564 -0.15150145
0.09331799 0.08839028 0.2507987 0.116192125 0.038679197 0.047654957 -0.018845815 0.07059954
00000000: a7bc ea3c 7137 92bd 857e 2a3e 48a3 4f3e
00000010: ff26 87be 9c44 6e3d d129 e03d 0301 08be
00000020: 1edc 263d 1841 483e fe8f 1ebe 6ffa f43c
00000030: 34ef d8bd d589 5abe 5b86 8d3d 88ad 793d
00000040: 15f5 ee3d 0d51 843c 7566 f13b 691b ab3d
00000050: b93a ce3c bf5a cc3d 1a1b ac3c d642 803e
00000060: 9638 02be a778 033c c167 203a 83dc 023e
00000070: c99a 973d 68fe 683d ac91 ccbd d4bb 6abe
00000080: 586e 57be 9f8f c23d e786 bcbd 8328 233e
00000090: 26df c03d 8216 9e3e 70b3 a23e f3ad 0bbe
000000a0: 87be 05be ceb7 a7bd 1888 bdbd ddd6 f4bb
000000b0: 23e6 713c 4e56 30bd 4a17 acbb db19 813e
000000c0: 871a 003d a93c 33be 90e2 d93b c7c1 4d3e
000000d0: e7f1 3c3d ef7a cfbd 1ac9 00bd 74fd ca3d
000000e0: 05f5 c8bd 98f3 b03d 19a8 cabc 3209 10be
000000f0: 47a8 153e 7287 b0bd 70e6 463e 183b 363d
00000100: 7e20 a73d 0cfe 033d 6122 b4bc 6652 7cbd
00000110: 0893 173e 9b74 143e 52f3 9a3d 4623 0a3e
00000120: fda0 873e 2383 71be ecc1 e3bd baee dc3d
00000130: 9d8a 9fbd 5183 0bbe dfd1 4abd 9810 fb3d
00000140: 8c34 01be 5129 16be c0d6 2a3e 992b 2c3e
00000150: f927 b5bd 880d 043e 9fe0 d6bc a704 963c
00000160: 757f adbd 68b7 c63d e63f 823d 6dff f8bd
00000170: 071c b23d 9be9 04be c2d6 e03d a6e6 3a3d
00000180: 3af6 f8bd f200 dcbd e26e 3abd 399e 28bc
00000190: 6e4e 5c3d 1ffb 2c3e 27dc 423e 28a8 76bc
000001a0: 2a5e a0bb a138 843e 6bbf 1abe eab6 cf3d
000001b0: 3d01 f23d 0ff2 3b3e f6ef 6cbe e689 303e
000001c0: 6fa9 8fbd 57bb 043e aba2 29be dfe6 98bd
000001d0: b763 013e 3742 8ebd b9b6 0fbb 7d81 1b3e
000001e0: 493a 253e 797f 983d a750 1b3e acc1 993d
000001f0: 9135 54be c4db bfbc 991a 1fbe 6023 f6bd
00000200: 2ba1 193d e779 993d 3b6d 0e3d 100f 1e3e
00000210: 8081 a63c a8b6 30be e0b8 483d 8e40 ddbd
00000220: c35d 99bd 13c4 d7bd b97b 563d 5802 6bbd
00000230: 878e 67bc 703f 05be 959e 32bd 8f7c b13d
00000240: 3448 01be 93ba e8bd e1cf bfbc 5cc9 48bc
00000250: e9a8 093e af70 723d 5977 12be 21cb 653d
00000260: 0a5b 32be 5b34 e6bd d533 bdbd d832 b3bd
00000270: 47f7 d03c 1fb6 19be 7cea 823d 3198 08be
00000280: 4b60 163d 38b7 9c3d b4e2 73bd d999 e1bb
00000290: a661 e1bb 870a f13d 17a6 323e a48a b63d
000002a0: 5054 4cbe ca31 4dbe 11c6 583b 54b8 f6bd
000002b0: d5d7 6d3d 4cf5 4ebe 8a49 0abe 085c 823c
000002c0: 083d 32ba e3e4 2f3e a90c 12be 6e78 dd3d
000002d0: d1b7 cbbd dbc3 0d3e 71d1 f93d d9a1 11be
000002e0: 5301 383e aba1 3b3e 5495 3e3d 1f03 5ebd
000002f0: 3a02 e9bd 4bc9 063e 38a3 e13c 8195 43be
00000300: c855 993d 6738 38be a2dc edbd eb16 9dbc
00000310: 358c e73b 8ff3 3dbe 702d 96bd 6083 19be
00000320: 4ccc 00b9 805e 50be 6ca6 83bd f133 0ebe
00000330: a87c 1d3d 9cb3 493c ead0 23bd 0c14 cd3d
00000340: b115 81bc 17fa dc3d b7ce 0dbd b5eb 063e
00000350: 9f27 623d 4639 edbd 5947 94bd 4393 35bd
00000360: 9268 3b3e bce5 973c 51f8 e73d 9109 48be
00000370: 52f2 3ebe 6087 18bd 80fc ae3d f045 62bd
00000380: 9bee 8bbc eeb0 92bd 5e99 85bd 98a4 0d3c
00000390: 5902 123e 0c45 183d 5433 e43d b1ef e23d
000003a0: 1268 d1bd dfe0 903c 65de 4d3d 3c3d 0cbd
000003b0: 4b70 3c3e 24df 473e d4a3 8e3c f73d fe3d
000003c0: 9fbe 26be d830 e5bb 0e93 58bd debc 3bbe
000003d0: 3a33 c8bd 2172 4c3d 1bc7 1ebe 3223 1bbe
000003e0: 811d bf3d f705 b53d b068 803e 23f6 ed3d
000003f0: 146e 1e3d d831 433d 8a62 9abc 7e96 903d

Pair_shop_mlp.fc_layers.0.bias f4 [64]
0.19199675 -0.014516823 -0.111672685 -0.08693155 -0.09498951 -0.018607797 0.09596088 -0.08917304
-0.111087166 0.08999087 0.09476636 0.15397368 -0.099570625 0.10029933 0.09531291 -0.05321386
-0.11141524 -0.08790223 -0.077296086 0.0800077 0.18095326 0.14668721 -0.09687224 -0.055342525
-0.052773137 -0.09296984 -0.010450275 0.02796486 -0.17419386 0.10872299 0.06509705 0.030087702
0.05200225 0.0489112 -0.03716882 -0.06154451 -0.021933906 0.09330365 -0.07518542 0.10511713
-0.03573184 0.03604566 0.07566082 0.16380781 0.08891236 -0.04245343 0.18653075 -0.05630581
-0.08769747 -0.073189445 -0.02073448 0.085915744 0.1324585 0.07235678 -0.11594694 -0.06865359
0.025165182 -0.14082484 0.03151663 0.181393 -0.11380282 0.06322412 -0.15212902 -0.051390383
00000000: cc9a 443e f8d7 6dbc a6b4 e4bd 2b09 b2bd
00000010: dc89 c2bd 616f 98bc 2387 c43d 5ba0 b6bd
00000020: ab81 e3bd 224d b83d de14 c23d 47ab 1d3e
00000030: afeb cbbd bc69 cd3d 6a33 c33d c7f6 59bd
00000040: ac2d e4bd 1606 b4bd 694d 9ebd 14db a33d
00000050: d04b 393e 2c35 163e f464 c6bd d8ae 62bd
00000060: a528 58bd f966 bebd a137 2bbc 9016 e53c
00000070: e05f 32be 29aa de3d 9a51 853d 7c7a f63c
00000080: 5000 553d 1c57 483d 553e 18bd 1916 7cbd
00000090: bcae b3bc fc15 bf3d d0fa 99bd a647 d73d
000000a0: 8d5b 12bd 9da4 133d 0ff4 9a3d 3cbd 273e
000000b0: af17 b63d a6e3 2dbd eb01 3f3e eca0 66bd
000000c0: bb9a b3bd 59e4 95bd 5bdb a9bc 98f4 af3d
000000d0: 33a3 073e cb2f 943d 9775 edbd 419a 8cbd
000000e0: 3627 ce3c 6334 10be 9517 013d 16bf 393e
000000f0: 7411 e9bd a67b 813d b6c7 1bbe b97e 52bd

Pair_shop_mlp.fc_layers.1.weight f4 [16, 64]
-0.31579855 -0.0451439 0.009440137 0.08018385 0.050615713 -0.0182696 0.106239855 -0.08883995
-0.04221668 -0.02388671 -0.011064164 0.103699155 -0.08166135 -0.075248525 -0.17619415 0.14131846
0.10080669 0.14316434 -0.039456572 -0.01375841 0.14776392 -0.03158809 0.090726785 0.04220151
0.011754383 0.088106416 -0.19126126 0.17865035 0.17339069 0.08711592 -0.12286605 -0.068884686
0.183692 -0.10631025 0.11819251 0.012426256 0.14095296 0.21699081 0.057398953 0.027669305
0.051159233 0.0713189 0.04962094 -0.07155674 -0.16123676 -0.03607442 0.025252102 0.10962659
0.10263018 0.074516214 0.18492281 -0.04715464 0.1779028 0.08965617 -0.12926342 -0.054654878
0.112730905 -0.097646214 0.22907215 0.016437074 0.014845579 -0.028145961 0.139935 -0.0042783497
0.22260945 -0.003512796 0.013485819 0.125619 -0.044977352 0.08858751 0.11019502 -0.08752385
0.069488175 0.034430303 0.08697028 0.107026294 0.08226499 0.07684942 -0.021676257 0.12706028
0.028782405 -0.07677974 0.15799338 -0.055844475 -0.0007597 -0.07679335 0.089539744 -0.089871384
0.04391872 0.016653115 -0.07088625 0.005608157 -0.11848173 0.08795514 0.011996117 0.088987075
-0.04201271 -0.05595641 -0.12157303 0.06390095 -0.013631631 -0.07311103 -0.06286456 0.07428596
-0.07783136 0.025861131 0.12817213 0.15582405 -0.026552116 -0.0032943145 0.12172203 -0.008573902
-0.208293 -0.08931143 0.022966275 0.019415662 -0.09477779 -0.053525846 0.06437112 -0.07115321
-0.0040784953 0.07237576 -0.121941514 0.13522385 0.10970323 -0.106305905 -0.11765956 0.082582
0.31168905 0.088791214 0.07560342 0.0002220118 -0.1123741 0.0521199 -0.00944963 -0.07137707
0.052741725 0.12181539 0.018538658 -0.025316343 -0.0441581 0.027199114 0.028179789 -0.06814636
-0.022021165 0.025244085 0.11792882 0.13179253 0.051305734 0.0049377633 -0.04500151 0.0749821
-0.013683546 -0.06775919 0.26324007 -0.048234783 -0.06738326 0.17218505 0.22062056 -0.10957037
0.062381662 0.021021115 -0.07097184 -0.037546672 -0.022509372 -0.10624951 0.16517416 0.09422417
0.08957476 -0.022121735 0.004441835 -0.0009209184 0.1593493 0.034261037 0.046432003 -0.10641924
-0.23115593 0.06518948 -0.17863744 0.068232566 -0.21289362 0.11862222 0.04385094 0.09881956
0.014275737 -0.043516256 0.037930753 -0.012030183 0.08281226 0.119840115 -0.13572343 0.09876646
0.2476758 0.07046911 0.0033102501 -0.107628495 0.046301335 -0.026176356 0.11284786 0.12361805
0.11288852 0.19837995 0.14671177 0.019389935 0.033391032 -0.07385115 0.011096091 -0.091643825
0.0734238 -0.051330186 0.059071746 0.026790066 -0.044371955 0.110516444 0.12457979 0.108609274
0.1596048 -0.18369578 0.26763892 0.08310701 -0.04123165 0.10944208 0.2012958 0.14124121
0.09724028 0.030266412 0.03112488 -0.052414566 -0.14149094 -0.08571958 -0.08578449 -0.008008088
-0.0142934285 0.06759767 0.07107803 0.0039921696 0.060649842 -0.025420783 -0.03586995 0.0546342
-0.3470839 -0.15501207 -0.18101664 0.19331934 -0.18107583 -0.062470082 -0.08248966 0.05876536
0.09898781 -0.069269225 0.1033662 0.13070874 -0.030802054 0.06472397 -0.001965203 0.17569393
00000000: 59b0 a1be cfe8 38bd ceaa 1a3c 6e37 a43d
00000010: 6c52 4f3d 21aa 95bc 4894 d93d b8f1 b5bd
00000020: 66eb 2cbd 10ae c3bc 7846 35bc 3960 d43d
00000030: 113e a7bd e61b 9abd 3d6c 34be c9b5 103e
00000040: bd73 ce3d ac99 123e 379d 21bd f46a 61bc
00000050: 6d4f 173e 8362 01bd f7ce b93d 7edb 2c3d
00000060: 7595 403c 2371 b43d fed9 43be 1ef0 363e
00000070: 548d 313e d569 b23d 32a1 fbbd 6a13 8dbd
00000080: c119 3c3e 30b9 d9bd ea0e f23d 7f97 4b3c
00000090: f955 103e d732 5e3e 2a1b 6b3d bdaa e23c
000000a0: 588c 513d a50f 923d 543f 4b3d 578c 92bd
000000b0: 401b 25be c5c2 13bd 7fdd ce3c e883 e03d
000000c0: c62f d23d f59b 983d 685c 3d3e 3925 41bd
000000d0: 272c 363e a79d b73d a15d 04be cbdd 5fbd
000000e0: 76df e63d bdfa c7bd e491 6a3e 0ba7 863c
000000f0: df3a 733c 5c92 e6bc 1f4b 0f3e 6631 8cbb
00000100: bbf3 633e f036 66bb a0f3 5c3c 44a2 003e
00000110: 2c3a 38bd 5e6d b53d edad e13d b43f b3bd
00000120: d14f 8e3d ca06 0d3d 791d b23d 9a30 db3d
00000130: 8c7a a83d 3b63 9d3d 6892 b1bc 171c 023e
00000140: 14c9 eb3c b23e 9dbd 04c9 213e 2dbd 64bd
00000150: 9b26 47ba d545 9dbd 9d60 b73d 7d0e b8bd
00000160: 1ee4 333d 1d6c 883c cf2c 91bd a1c4 b73b
00000170: 8da6 f2bd d321 b43d 5d8b 443c db3e b63d
00000180: 8515 2cbd 8c32 65bd 48fb f8bd 80de 823d
00000190: 3457 5fbc 3cbb 95bd 22bf 80bd 3d23 983d
000001a0: 0c66 9fbd b9da d33c 8e3f 033e 5790 1f3e
000001b0: d383 d9bc 6de5 57bb 6649 f93d 8d79 0cbc
000001c0: c34a 55be e9e8 b6bd c523 bc3c 980d 9f3c
000001d0: dc1a c2bd eb3d 5bbd 01d5 833d c6b8 91bd
000001e0: e6a4 85bb be39 943d 79bc f9bd 1f78 0a3e
000001f0: 16ac e03d e9b6 d9bd 7ff7 f0bd c020 a93d
00000200: b595 9f3e 2bd8 b53d f7d5 9a3d d7cb 6839
00000210: 6424 e6bd ad7b 553d 9fd2 1abc 242e 92bd
00000220: b507 583d 597a f93d 62de 973c 3864 cfbc
00000230: 20df 34bd add0 de3c 4dd9 e63c 5290 8bbd
00000240: bb65 b4bc afcc ce3c aa84 f13d 9ff4 063e
00000250: f625 523d f6cc a13b 8153 38bd 3790 993d
00000260: f430 60bc 55c5 8abd 67c7 863e d691 45bd
00000270: 3c00 8abd 4751 303e 5bea 613e 6e66 e0bd
00000280: ea83 7f3d 7934 ac3c af59 91bd 8aca 19bd
00000290: 9365 b8bc 5899 d9bd 6a23 293e 9af8 c03d
000002a0: f972 b73d a438 b5bc d08c 913b ca69 71ba
000002b0: 772c 233e 4d55 0c3d 7c2f 3e3d 55f2 d9bd
000002c0: 24b4 6cbe 1082 853d bcec 36be 84bd 8b3d
000002d0: c900 5abe 35f0 f23d 0b9d 333d e961 ca3d
000002e0: c8e4 693c 1a3e 32bd 475d 1b3d 3f1a 45bc
000002f0: 7999 a93d bc6e f53d 15fb 0abe 1246 ca3d
00000300: ba9e 7d3e 1c52 903d c8f0 583b 546c dcbd
00000310: 78a6 3d3d cc6f d6bc c71c e73d 762b fd3d
00000320: 1932 e73d 1d24 4b3e 9c3b 163e a4d7 9e3c
00000330: 09c5 083d 463f 97bd 61cc 353c c2af bbbd
00000340: 385f 963d 9a3f 52bd 37f5 713d d776 db3c
00000350: 5ebf 35bd 7256 e23d b023 ff3d 8a6e de3d
00000360: 716f 233e bf1a 3cbe f807 893e 0234 aa3d
00000370: 85e2 28bd 2b23 e03d 7c20 4e3e 89a1 103e
00000380: e925 c73d 44f1 f73c 9bf9 fe3c a8b0 56bd
00000390: 00e3 10be bf8d afbd c7af afbd 5b34 03bc
000003a0: fc2e 6abc a670 8a3d 5c91 913d bfd0 823b
000003b0: f86b 783d 3f3f d0bc 5eec 12bd 1cc8 5f3d
000003c0: fbb4 b1be 7cbb 1ebe 6d5c 39be 81f5 453e
000003d0: f16b 39be a1e0 7fbd 57f0 a8bd f2b3 703d
000003e0: 1fba ca3d 06dd 8dbd a9b1 d33d 83d8 053e
000003f0: 9754 fcbc 008e 843d a3ca 00bb 1ce9 333e

Pair_shop_mlp.fc_layers.1.bias f4 [16]
-0.0064691626 0.013655667 0.13597389 0.04074624 -0.08354929 -0.0028308686 0.016275285 -0.07795481
0.050054308 -0.08001083 -0.0552509 0.07378609 0.09524568 0.015390628 -0.09036179 0.13923468
00000000: 45fb d3bb 05bc 5f3c bd3c 0b3e 88e5 263d
00000010: e41b abbd 1886 39bb bf53 853c c5a6 9fbd
00000020: bf05 4d3d b8dc a3bd c54e 62bd 291d 973d
00000030: 2b10 c33d f928 7c3c 9a0f b9bd 8993 0e3e

Pair_score_mlp.fc_layers.0.weight f4 [64, 32]
-0.15437844 -0.096610926 0.18058999 -0.039615043 -0.07471418 -0.09430302 0.22587986 0.025450842
-0.006445317 -0.16192308 -0.052215062 -0.096079074 -0.12994796 -0.14813419 0.06992236 0.0128134275
-0.17772754 -0.090383016 0.24573489 -0.062865965 0.10660777 -0.20488909 0.04266342 0.117242716
-0.14274539 -0.05687463 0.15806673 -0.104529224 0.0762031 -0.022034973 -0.24967559 -0.28408438
-0.17354053 -0.065555 0.20753802 0.19225013 -0.086041294 0.17493056 0.17428638 -0.10871591
0.12231261 -0.13324687 -0.10388751 0.037428126 0.0776426 -0.02367627 -0.09950964 -0.015660185
-0.07938714 -0.1200142 0.04147046 0.16175777 -0.018636294 -0.13481312 0.014392287 -0.11522443
-0.16280502 0.17791502 0.005020156 -0.1284688 -0.049951337 -0.020856066 0.13289648 0.093663596
-0.12710673 -0.003227689 -0.036952693 -0.101354524 0.038746316 -0.01746681 0.098497495 -0.031433344
0.13055468 -0.2147485 -0.009154984 0.17604484 0.028295277 -0.048505824 0.08734296 -0.0022616903
-0.27447778 0.039211325 0.035450887 0.21270888 0.22317171 0.05840482 0.18290961 0.04943996
0.18218441 -0.05849664 -0.058735497 0.0029270805 -0.15614204 -0.12519166 -0.09412161 0.15267776
-0.17376933 0.12916897 0.24233693 0.047404986 0.17279544 -0.14692926 -0.110327534 0.06596868
0.15391617 -0.00080613396 -0.15440546 0.18647149 -0.08236717 0.069912374 -0.09257935 0.17705464
0.03475384 -0.113773994 0.10571998 0.07853269 0.020810017 0.05870947 0.110017955 -0.06493854
0.13967088 -0.21386114 0.026731653 -0.053191867 0.030797519 0.0585226 0.16732505 0.040166613
-0.18206653 -0.030865656 -0.0067245835 -0.11619179 0.13587481 -0.01574891 -0.13503973 -0.251008
0.1448902 -0.06836636 -0.1527115 -0.20257069 -0.029806348 0.02579889 -0.12667446 -0.15841512
0.21750271 0.23073225 -0.15641674 -0.08609948 -0.10987635 0.09152186 0.001424309 0.01640123
-0.18834087 0.059798833 -0.010632349 0.22453958 -0.024743335 -0.13306457 0.06259709 -0.15580618
-0.13505436 0.035366997 0.1642602 0.07073548 0.09815409 0.14424333 -0.08265491 -0.110443085
-0.094522744 -0.07581797 0.17784196 0.06842841 0.0060862787 0.102918714 -0.15820153 -0.067235164
0.17197463 0.16663733 0.09003795 0.003927248 0.103077754 -0.13642251 0.011710004 0.08823308
0.06602419 0.07908408 0.1926361 -0.16356331 0.16300851 -0.14483906 0.14061199 -0.065453835
-0.13039519 0.21537739 -0.035107944 -0.05866424 -0.14807318 -0.08738508 0.042504456 0.14277765
0.004615779 0.0072628763 -0.117816985 0.15429714 -0.04198981 -0.09273942 0.13459721 0.028036935
0.0049471213 0.12576246 -0.07656309 -0.010370913 -0.08549672 0.058870375 0.18449773 0.15740038
0.081180245 -0.06900977 0.042761244 0.21823053 -0.12358595 0.12350368 0.1488064 -0.15142898
0.0073838714 -0.06950285 0.21305804 0.13788697 0.033941217 0.01587734 -0.08448935 -0.08532644
0.18364365 0.1943311 -0.23428996 -0.12222475 0.0677169 -0.06685875 -0.10573579 0.12649453
-0.17243445 -0.1494993 0.005974713 -0.017550291 -0.060292702 0.21936457 0.04962715 -0.024182722
-0.012922928 -0.108599454 -0.100597434 -0.11075508 -0.11573156 -0.090180025 0.16393581 0.08148217
00000000: 6215 1ebe f3db c5bd 95ec 383e 6243 22bd
00000010: bf03 99bd f121 c1bd 0d4d 673e 497e d03c
00000020: 3d33 d3bb 2acf 25be 76df 55bd 1bc5 c4bd
00000030: 1411 05be 7db0 17be 7433 8f3d 69ef 513c
00000040: 35fe 35be bb1a b9bd eda1 7b3e dfbf 80bd
00000050: 2d55 da3d 72ce 51be d7bf 2e3d f31c f03d
00000060: d92b 12be 5ff5 68bd 3fdc 213e 6b13 d6bd
00000070: 5f10 9c3d b082 b4bc f5aa 7fbe 8273 91be
00000080: 9cb4 31be b341 86bd d984 543e 38dd 443e
00000090: 6b36 b0bd ff20 333e 2178 323e 72a6 debd
000000a0: 097f fa3d de71 08be fac2 d4bd 3c4e 193d
000000b0: 1503 9f3d bdf4 c1bc b6cb cbbd ca49 80bc
000000c0: ba95 a2bd 01ca f5bd eedc 293d d4a3 253e
000000d0: 24ab 98bc 730c 0abe a0cd 6b3c c9fa ebbd
000000e0: 5cb6 26be 5b2f 363e 1f80 a43b 538d 03be
000000f0: c699 4cbd 57da aabc 0416 083e b3d2 bf3d
00000100: 4428 02be a387 53bb b55b 17bd f692 cfbd
00000110: 75b4 1e3d 8e16 8fbc 0eb9 c93d 40c0 00bd
00000120: 20b0 053e 08e7 5bbe c9fe 15bc 1945 343e
00000130: 7fcb e73c 0bae 46bd dee0 b23d de38 14bb
00000140: 5a88 8cbe 0e9c 203d f334 113d 5bd0 593e
00000150: 2087 643e e439 6f3d a84c 3b3e 8e81 4a3d
00000160: 8d8e 3a3e 2c9a 6fbd a294 70bd 43d4 3f3b
00000170: b3e3 1fbe 3e32 00be d5c2 c0bd 8f57 1c3e
00000180: 96f0 31be df44 043e 2c27 783e bb2b 423d
00000190: 4af1 303e a074 16be 67f3 e1bd 961a 873d
000001a0: 339c 1d3e bc52 53ba 771c 1ebe 62f2 3e3e
000001b0: 1eb0 a8bd 382e 8f3d 3e9a bdbd d04d 353e
000001c0: 0b5a 0e3d 5702 e9bd b883 d83d bfd5 a03d
000001d0: c579 aa3c 5779 703d 1851 e13d 7ffe 84bd
000001e0: e205 0f3e 6afe 5abe 57fc da3c b7df 59bd
000001f0: 144b fc3c 65b5 6f3d 4257 2b3e bf85 243d
00000200: a66f 3abe f9d9 fcbc e559 dcbb f6f5 edbd
00000210: c422 0b3e dc03 81bc db47 0abe 1f84 80be
00000220: 195e 143e aa03 8cbd 6760 1cbe b16e 4fbe
00000230: 712c f4bc 3258 d33c f3b6 01be 9337 22be
00000240: 08b9 5e3e 1345 6c3e b62b 20be ed54 b0bd
00000250: da06 e1bd d06f bb3d e1af ba3a df5b 863c
00000260: 6edc 40be 9fef 743d 4e33 2ebc b4ed 653e
00000270: 89b2 cabc 1442 08be e732 803d a88b 1fbe
00000280: b14b 0abe fcdc 103d d333 283e c3dd 903d
00000290: 0305 c93d 86b4 133e fa46 a9bd fc2f e2bd
000002a0: 2495 c1bd 7446 9bbd 341c 363e 3224 8c3d
000002b0: 686f c73b 0cc7 d23d 95ff 21be 97b2 89bd
000002c0: 1e1a 303e faa2 2a3e d165 b83d 25b0 803b
000002d0: 6e1a d33d 58b2 0bbe 51db 3f3c 8cb3 b43d
000002e0: b137 873d d6f6 a13d 6642 453e 247d 27be
000002f0: b4eb 263e b150 14be 97fc 0f3e a90c 86bd
00000300: 5186 05be e48b 5c3e 59cd 0fbd ea49 70bd
00000310: 7fa0 17be f3f6 b2bd 2719 2e3d 4e34 123e
00000320: f63f 973b 6cfd ed3b 084a f1bd 1200 1e3e
00000330: 82fd 2bbd 2aee bdbd dad3 093e b7ad e53c
00000340: 761b a23b e0c7 003e 1ccd 9cbd c3ea 29bc
00000350: e818 afbd 1022 713d f9ec 3c3e 912d 213e
00000360: d441 a63d ff54 8dbd 6a26 2f3d d377 5f3e
00000370: a11a fdbd 7fef fc3d b460 183e 3310 1bbe
00000380: 67f4 f13b 8357 8ebd e32b 5a3e 3e32 0d3e
00000390: f205 0b3d 3211 823c c108 adbd a1bf aebd
000003a0: 150d 3c3e bbfe 463e b5e9 6fbe f850 fabd
000003b0: 28af 8a3d 3eed 88bd 028c d8bd c887 013e
000003c0: a892 30be 5816 19be 86c7 c33b a1c5 8fbc
000003d0: 7bf5 76bd 1ba1 603e d745 4b3d d81a c6bc
000003e0: b0ba 53bc 6469 debd 0706 cebd 8fd3 e2bd
000003f0: ab04 edbd 4eb0 b8bd cade 273e 20e0 a63d

Pair_score_mlp.fc_layers.0.bias f4 [64]
0.056478456 -0.05347985 -0.13462457 -0.091931075 0.16221966 0.15648833 -0.09028888 -0.09791576
-0.06463123 -0.094812356 0.16089857 0.0070123468 0.036769062 0.11107066 -0.06469949 0.03562957
0.19192304 -0.06922937 0.106753185 0.06380971 -0.084759735 -0.044352 0.07638437 -0.040648296
0.08907608 -0.03951964 -0.0098730065 0.109549336 0.15885785 -0.037871074 -0.077471934 0.15263541
0.076895386 -0.15190731 0.0089187 0.22984785 0.1733833 0.14423548 -0.08935033 -0.038914636
-0.11514614 0.102476016 -0.1559009 -0.121234596 0.0072908713 0.120713726 -0.04598106 -0.10221628
-0.052306842 -0.07085668 0.04153965 -0.07568573 -0.057776388 -0.11263279 -0.06972997 0.14321677
-0.030085843 0.1137625 0.12036141 0.110836476 0.07015095 0.16417652 0.10755444 -0.07813153
00000000: f455 673d b00d 5bbd 06db 09be 5c46 bcbd
00000010: e91c 263e 7a3e 203e 60e9 b8bd 0f88 c8bd
00000020: 615d 84bd fb2c c2bd 98c2 243e d4c7 e53b
00000030: 289b 163d 0479 e33d 2b81 84bd 50f0 113d
00000040: 7987 443e 21c8 8dbd 6aa1 da3d aaae 823d
00000050: 8396 adbd 71aa 35bd 696f 9c3d d47e 26bd
00000060: 856d b63d 59df 21bd 64c2 21bc 675b e03d
00000070: a2ab 223e b31e 1bbd 9ba9 9ebd 754c 1c3e
00000080: 547b 9d3d 978d 1bbe bd1f 123c 3c5d 6b3e
00000090: 648b 313e 77b2 133e 4efd b6bd f464 1fbd
000000a0: bdd1 ebbd f2de d13d 7ca4 1fbe d849 f8bd
000000b0: 43e8 ee3b c238 f73d a356 3cbd c556 d1bd
000000c0: b33f 56bd 4f1d 91bd 7b25 2a3d 1f01 9bbd
000000d0: efa6 6cbd 05ac e6bd 96ce 8ebd 6ba7 123e
000000e0: 9676 f6bc 50fc e83d 0b80 f63d 3cfe e23d
000000f0: 4dab 8f3d e41d 283e 8145 dc3d 6c03 a0bd

Pair_score_mlp.fc_layers.1.weight f4 [8, 64]
0.1013223 0.121274516 0.1287584 0.06193533 0.2303804 0.1478404 0.06511328 0.100759014
0.14805502 0.16042243 -0.115825385 0.029138692 0.035050754 -0.16063456 -0.02165987 0.0053184405
0.12753262 0.00023110863 -0.030091874 0.042591818 0.12426933 -0.02242453 0.10481259 0.012064413
0.092994496 0.14012478 0.15667264 0.07596804 -0.048838798 -0.0502307 0.10437503 0.014026011
0.017808594 0.11784701 0.11025062 -0.004665157 0.20563748 0.03781716 -0.0025131993 0.11545177
-0.058714036 0.03664796 -0.026357407 0.084336296 -0.19602942 0.09987221 0.1423358 0.10413257
-0.102875754 0.08014163 -0.098636426 0.0738459 0.23583598 0.015963709 0.102920294 -0.08202814
0.057969466 -0.09446844 -0.056413025 0.090617724 -0.0061383494 0.07175898 -0.07896879 0.17771126
-0.11533925 0.10097975 -0.12885058 -0.14466545 -0.12373404 -0.061326217 -0.03651391 -0.083338015
-0.08768742 0.016447894 -0.19439206 0.0073899385 -0.18263994 0.20287804 -0.1882735 -0.19106439
-0.0050052963 0.04332485 -0.07191029 0.03341336 -0.14381088 -0.116245754 -0.07229238 0.07313893
-0.09788594 -0.11326465 0.11784516 -0.041913085 -0.102334395 0.1123231 0.11743115 -0.014098849
-0.063411996 -0.13575445 0.058997788 0.11289507 -0.13592638 0.06468466 0.06296732 0.05464606
-0.104778126 -0.041830562 -0.079944976 -0.124738276 0.18694024 0.12779069 -0.09710336 -0.095969684
0.028344614 -0.12314041 0.11046755 -0.11398067 -0.011506012 -0.15546943 -0.15642212 0.21067338
0.022479651 -0.10174772 -0.043348785 -0.0634905 0.16040774 0.09552158 0.058733914 0.059281856
0.08185908 0.11277419 0.21671262 0.16508941 0.05525306 0.06717474 0.19322674 0.0013365817
0.1939115 0.043771993 0.08196586 -0.019074718 -0.036259174 -0.24535418 0.05869179 0.06572227
0.2558879 0.14732704 0.12336233 0.028187973 0.09652412 -0.04710067 0.12084108 0.07125196
0.034286603 0.039439153 0.10642741 0.24966854 -0.011548857 0.12425477 0.06367903 0.1876167
0.09166858 0.019642955 0.102479115 -0.0311169 0.18417627 -6.103822e-05 -0.18712896 0.15959862
-0.08358949 0.09375534 0.1132906 0.15373318 -0.107987985 0.13721588 0.0916355 -0.026520886
0.15226631 -0.038258657 0.1637662 -0.03719323 0.061323307 -0.10765289 0.0916429 -0.003217694
-0.02696118 0.0088512255 0.09692565 0.2088184 0.10668063 0.0075012613 0.09100479 0.27539656
-0.031494483 0.07441021 0.07889624 0.0014435563 0.013922638 -0.10581403 0.032253455 0.009105923
-0.16715303 0.0010608953 0.07838943 0.045703083 -0.02302446 0.09089296 -0.13676204 -0.15670305
-0.03892368 -0.09368299 0.008645988 -0.051742505 -0.050078526 -0.019025642 0.07081822 0.09015834
0.14363904 -0.0058477963 -0.036257807 0.12863052 -0.06199583 0.051236466 0.06463421 -0.06989798
-0.05001258 -0.0526703 -0.019669548 -0.011169196 0.1677865 -0.19046992 0.0337856 0.024060786
-0.015605241 0.068368845 -0.11068191 0.08039049 -0.01716958 -0.11229773 -0.13630016 -0.07915226
0.1014758 -0.13992588 -0.009221318 -0.08038635 0.06156907 -0.14823262 0.00021797544 0.14222632
-0.09870839 0.019513229 0.10871176 0.097447515 -0.053313196 -0.10215493 0.049816255 0.032029975
00000000: 1182 cf3d c65e f83d 3ed9 033e e7af 7d3d
00000010: d7e8 6b3e 7963 173e 1d5a 853d be5a ce3d
00000020: bc9b 173e c745 243e dc35 edbd 44b4 ee3c
00000030: 6191 0f3d 637d 24be 0a70 b1bc 5046 ae3b
00000040: e997 023e c055 7239 3c83 f6bc c274 2e3d
00000050: eb80 fe3d a6b3 b7bc fca7 d63d d1a9 453c
00000060: e673 be3d df7c 0f3e cb6e 203e 2295 9b3d
00000070: 310b 48bd b5be 4dbd 93c2 d53d 5bcd 653c
00000080: 54e3 913c c659 f13d 14cb e13d 2cde 98bb
00000090: a292 523e 2be6 1a3d 7db4 24bb fa71 ec3d
000000a0: 217e 70bd 2c1c 163d 7deb d7bc 82b8 ac3d
000000b0: f0bb 48be cd89 cc3d 7ac0 113e 7543 d53d
000000c0: 86b0 d2bd 4b21 a43d e501 cabd 853c 973d
000000d0: fd7e 713e 53c6 823c e0c7 d23d 5ffe a7bd
000000e0: 6471 6d3d ab78 c1bd 5811 67bd c995 b93d
000000f0: 3524 c9bb 5ff6 923d 64ba a1bd f1f9 353e
00000100: fc36 ecbd 79ce ce3d 68f1 03be 2e23 14be
00000110: 4668 fdbd 3331 7bbd 9c8f 15bd 1fad aabd
00000120: 7695 b3bd bcbd 863c b60e 47be 4c27 f23b
00000130: f705 3bbe 43bf 4f3e c5ca 40be 62a6 43be
00000140: 7803 a4bb 6675 313d b445 93bd 73dc 083d
00000150: 2943 13be 4112 eebd 070e 94bd ddc9 953d
00000160: 6c78 c8bd 4cf7 e7bd ce58 f13d 0ead 2bbd
00000170: b294 d1bd a709 e63d be7f f03d dcfe 66bc
00000180: 26de 81bd 3703 0bbe aaa7 713d 8835 e73d
00000190: 4930 0bbe 6479 843d 03f5 803d 8cd4 5f3d
000001a0: ea95 d6bd 8656 2bbd 31ba a3bd c876 ffbd
000001b0: 436d 3f3e 90db 023e 20de c6bd c18b c4bd
000001c0: f732 e83c 0a31 fcbd d03c e23d b36e e9bd
000001d0: b683 3cbc 6133 1fbe 1f2d 20be c3ba 573e
000001e0: 3f27 b83c 1c61 d0bd 7f8e 31bd 4f07 82bd
000001f0: ed41 243e d1a0 c33d f992 703d 88d1 723d
00000200: bca5 a73d 28f6 e63d eae9 5d3e 330d 293e
00000210: 0851 623d e992 893d 3bdd 453e 3d30 af3a
00000220: bc90 463e 434a 333d b8dd a73d 9542 9cbc
00000230: 8084 14bd 203e 7bbe cd66 703d 6699 863d
00000240: bd03 833e e6dc 163e 64a5 fc3d 77ea e63c
00000250: 70ae c53d a2ec 40bd 877b f73d 8cec 913d
00000260: 1c70 0c3d f38a 213d 9df6 d93d 1ca9 7f3e
00000270: 6b37 3dbc 4979 fe3d 276a 823d 981e 403e
00000280: bdbc bb3d 43ea a03c 92e0 d13d dee8 febc
00000290: b498 3c3e a501 80b8 bc9e 3fbe d26d 233e
000002a0: f730 abbd cd02 c03d e704 e83d 3b6c 1d3e
000002b0: ce28 ddbd 5282 0c3e 65ab bb3d 5442 d9bc
000002c0: b3eb 1b3e 1cb5 1cbd 54b2 273e ee57 18bd
000002d0: 262e 7b3d 1e79 dcbd 46af bb3d f2df 52bb
000002e0: b1dd dcbc bb04 113c f580 c63d 7ed4 553e
000002f0: 607b da3d 24cd f53b b860 ba3d c700 8d3e
00000300: 5c00 01bd 6164 983d 5a94 a13d b635 bd3a
00000310: c71b 643c 07b5 d8bd 331c 043d 0231 153c
00000320: 2a2a 2bbe bd0d 8b3a a38a a03d 2833 3b3d
00000330: cb9d bcbc 1726 ba3d 590b 0cbe c476 20be
00000340: 706e 1fbd dedc bfbd e7a7 0d3c f3ef 53bd
00000350: 241f 4dbd aadb 9bbc 2509 913d f0a4 b83d
00000360: 1d16 133e df9e bfbb 1183 14bd b8b7 033e
00000370: 57ef 7dbd 54dd 513d f15e 843d ac26 8fbd
00000380: fed9 4cbd d0bc 57bd 0822 a1bc 01ff 36bc
00000390: 39d0 2b3e 8c0a 43be c562 0a3d 201b c53c
000003a0: 20ad 7fbc f704 8c3d 32ad e2bd c5a3 a43d
000003b0: 38a7 8cbc 5afc e5bd 4592 0bbe 951a a2bd
000003c0: 8bd2 cf3d bb48 0fbe 0315 17bc 99a1 a4bd
000003d0: d92f 7c3d 4bca 17be 5690 6439 c7a3 113e
000003e0: a027 cabd 35da 9f3c 45a4 de3d 9092 c73d
000003f0: f05e 5abd 9b36 d1bd 210c 4c3d dd31 033d

Pair_score_mlp.fc_layers.1.bias f4 [8]
-0.008556117 0.1078358 -0.09522019 0.07429251 0.13008831 0.11146945 -0.062231846 -0.06960404
00000000: f52e 0cbc 04d9 dc3d ce02 c3bd ac26 983d
00000010: df35 053e 184a e43d d2e6 7ebd 908c 8ebd

CNN_embedding_types.weight f4 [106, 16]
0.1447194 -0.7756799 -0.49377397 0.9526168 -0.40743425 -0.0133390445 1.769193 -2.9003918
0.12320153 -0.86574435 -0.5350022 1.0769839 0.4854655 0.39554387 0.735811 -0.76588464
-0.03323009 -1.9264039 0.6648928 -0.7306456 0.45783442 -0.6527293 0.41440654 -0.25323772
-0.038700975 -0.9044664 -1.3552607 0.4740285 1.0222447 0.42678526 -0.36139572 -0.1270029
-0.5575774 1.6683737 0.62440926 -0.369996 -0.019328395 1.0881456 0.4400508 -1.035664
2.1105437 -1.5505115 -1.0695537 0.5861779 -0.068145305 0.11017177 -0.5081105 1.2672207
-0.30318132 -0.60603887 -0.31131357 0.070130795 -0.45311219 2.0914278 -0.076495044 1.2451671
-1.3637358 -0.76926607 0.33228952 1.1416528 0.09556167 -2.131404 0.54824644 0.9360735
1.9081922 0.9615412 0.5532089 0.94371057 0.34146914 -0.036131818 1.4979035 -0.77713597
0.78444695 -0.045530625 -0.162888 1.3386378 -0.16280414 -0.25698695 0.05226877 -0.3905531
0.23035519 0.26680827 1.0981535 -1.2467839 -0.9592683 -1.806865 0.011381955 -0.11029202
-1.255781 0.63485026 0.30918384 2.8536866 -1.2144246 -0.21394113 -0.5268425 0.1747892
0.5184405 -0.3785808 -0.22544836 -1.5656636 0.47743145 -1.0616355 1.7796661 -0.548713
0.33892053 0.7781892 0.007546223 -0.5837614 -0.9153054 -0.05262318 1.7875817 1.1515049
0.09723652 1.5960456 -0.6041526 1.4098101 0.118052386 0.7040226 -0.5374417 -0.7361796
0.54710525 1.9050328 0.101510786 0.45101082 0.40040472 -0.99870265 0.15158005 -0.63073504
2.8520985 -0.118797325 0.38489395 0.9762557 -1.3438313 -0.83415174 -0.1312017 -0.09495339
-0.17994495 -1.112129 0.45809117 -0.21843596 0.556023 -0.109296866 1.9977323 0.12848976
0.0273442 0.151261 -0.82922494 2.0247345 0.24367812 0.07526238 -0.2818617 0.07604165
0.40713233 -0.25304702 0.40599078 0.7714887 -0.23134585 -1.1066291 0.07229622 -0.86714077
-1.177903 0.542392 -0.20075329 -0.59603554 0.46059382 1.2337711 0.30921412 0.6057433
0.59941804 -0.30474186 -0.3072624 1.6422282 1.0433007 -1.483582 0.64338326 1.7963812
0.0218704 -1.901566 -0.11202247 0.3648967 -1.3046637 -0.024685932 -1.3055451 -0.22724512
-0.106335126 -1.0938593 -0.28570497 1.7126843 1.271481 1.0138401 -0.7403896 0.25813654
-0.90458393 2.3065853 -0.7947069 1.7491344 -0.081292585 -0.18406874 -1.1813179 0.4321932
1.2781641 -0.7706523 1.7226973 -0.22094056 0.86083937 1.8179014 0.6837215 -0.26037925
1.9137774 1.1445903 1.3850349 -1.1514311 0.1273847 0.8642499 0.84437674 -1.5979087
0.9556185 -1.3938209 0.062141046 -1.0221109 -0.5472919 1.096275 0.123831734 0.3984952
0.020551883 -1.0745434 0.06683642 2.747491 3.3546846 1.7117393 -1.341293 -0.1974935
-0.97741085 0.04887127 -0.8514062 -0.6006427 -0.9225071 0.14228037 -0.49744767 -0.3223821
-1.8642348 0.42926678 0.6146345 0.18303576 0.099005885 -0.54397464 0.765874 -1.3813083
0.2603208 0.6628083 0.7280072 0.5856962 0.23829204 0.02072685 -0.8085951 0.85760975
00000000: 5331 143e f592 46bf f1cf fcbe b2de 733f
00000010: 399b d0be 028c 5abc eb74 e23f 05a0 39c0
00000020: 1551 fc3d 6ca1 5dbf e7f5 08bf 9cda 893f
00000030: ef8e f83e ba84 ca3e 1c5e 3c3f 0411 44bf
00000040: 461c 08bd 6794 f6bf 6a36 2a3f 970b 3bbf
00000050: 4669 ea3e 4419 27bf 182d d43e 60a8 81be
00000060: ea84 1ebd 1c8b 67bf 2f79 adbf ddb3 f23e
00000070: ead8 823f 9983 da3e dc08 b9be 0c0d 02be
00000080: 64bd 0ebf 458d d53f 49d9 1f3f 1e70 bdbe
00000090: 9556 9ebc 5b48 8b3f 574e e13e a390 84bf
000000a0: 2613 0740 2977 c6bf 23e7 88bf c10f 163f
000000b0: c48f 8bbd bda1 e13d 8813 02bf 4a34 a23f
000000c0: 953a 9bbe 5d25 1bbf 7e64 9fbe bca0 8f3d
000000d0: 52fe e7be f4d9 0540 6fa9 9cbd a361 9f3f
000000e0: e58e aebf 9fee 44bf da21 aa3e ae21 923f
000000f0: d6b5 c33d ec68 08c0 e159 0c3f 83a2 6f3f
00000100: a43f f43f 9027 763f 199f 0d3f 0497 713f
00000110: 0bd5 ae3e f5fe 13bd 4dbb bf3f 62f2 46bf
00000120: 84d1 483f 527e 3abd 1dcc 26be 7c58 ab3f
00000130: 21b6 26be cb93 83be c717 563d 93f6 c7be
00000140: 3be2 6b3e 189b 883e 4b90 8c3f 9d96 9fbf
00000150: 9b92 75bf 5a47 e7bf 617b 3a3c c8e0 e1bd
00000160: 6fbd a0bf 8c85 223f 584d 9e3e cda2 3640
00000170: 4472 9bbf 6213 5bbe 26df 06bf f1fb 323e
00000180: 84b8 043f 58d5 c1be efdb 66be aa67 c8bf
00000190: e571 f43e ace3 87bf 19cc e33f 7578 0cbf
000001a0: fe86 ad3e 6837 473f 4e46 f73b 6371 15bf
000001b0: 7451 6abf 678b 57bd 7acf e43f 8364 933f
000001c0: f123 c73d 394b cc3f bfa9 1abf a874 b43f
000001d0: 73c5 f13d d33a 343f c795 09bf 4476 3cbf
000001e0: 170f 0c3f 1dd8 f33f e3e4 cf3d e4ea e63e
000001f0: d901 cd3e faaa 7fbf cd37 1b3e da77 21bf
00000200: c888 3640 034c f3bd d210 c53e e5eb 793f
00000210: aa02 acbf f88a 55bf bd59 06be ec76 c2bd
00000220: 7d43 38be 3e5a 8ebf ed8a ea3e adad 5fbe
00000230: 8657 0e3f 09d7 dfbd b1b5 ff3f d292 033e
00000240: f200 e03c 2ae4 1a3e 1648 54bf 4095 0140
00000250: c286 793e 2a23 9a3d 2d50 90be b9bb 9b3d
00000260: a673 d03e 618f 81be 06de cf3e 4980 453f
00000270: ede5 6cbe 06a6 8dbf 0a10 943d f0fc 5dbf
00000280: 87c5 96bf 34da 0a3f 4592 4dbe c995 18bf
00000290: f4d2 eb3e 36ec 9d3f 5051 9e3e fe11 1b3f
000002a0: 7673 193f 2007 9cbe 7f51 9dbe 8934 d23f
000002b0: e18a 853f 04e6 bdbf c4b4 243f d2ef e53f
000002c0: 8e29 b33c 8466 f3bf 096c e5bd bed3 ba3e
000002d0: 38ff a6bf 273a cabc 1a1c a7bf f2b2 68be
000002e0: 3bc6 d9bd 9503 8cbf ec47 92be 3d39 db3f
000002f0: e4bf a23f 83c5 813f 2c8a 3dbf 792a 843e
00000300: d092 67bf 189f 1340 e971 4bbf a3e3 df3f
00000310: ba7c a6bd 847c 3cbe 6d35 97bf 6d48 dd3e
00000320: e29a a33f 7849 45bf 5881 dc3f 3e3e 62be
00000330: f85f 5c3f feb0 e83f 5f08 2f3f 6e50 85be
00000340: a8f6 f43f ef81 923f d348 b13f 1862 93bf
00000350: 2371 023e 7b3f 5d3f 1329 583f 4688 ccbf
00000360: 6aa3 743f b968 b2bf 9c87 7e3d 88d4 82bf
00000370: 521b 0cbf bd52 8c3f 7e9b fd3d 9007 cc3e
00000380: 6c5c a83c a38a 89bf 88e1 883d e4d6 2f40
00000390: 27b3 5640 461a db3f 7daf abbf bc3b 4abe
000003a0: 9937 7abf 3e2d 483d c2f5 59bf b8c3 19bf
000003b0: 6d29 6cbf f2b1 113e 76b1 febe 440f a5be
000003c0: 3f9f eebf dbc8 db3e b058 1d3f ba6d 3b3e
000003d0: 99c3 ca3d ec41 0bbf 5210 443f b6ce b0bf
000003e0: c548 853e cead 293f ae5e 3a3f 30f0 153f
000003f0: d402 743e 5bcb a93c 1700 4fbf 508c 5b3f

embedding_CNN_distances.weight f4 [7, 8]
1.0404004 -1.1494634 0.19453953 0.3612399 0.93859804 -0.5292952 0.73455805 1.2369359
-0.7165301 0.71525586 -2.8651567 -0.23280498 -1.008224 -2.2094526 -1.0205183 0.06231596
0.25785312 -1.1665109 0.031760905 -0.38254443 1.2307651 0.8873209 1.9165574 0.40563473
-0.118662216 0.37211794 0.5434296 -1.7514902 0.9377046 -0.7729766 0.4181098 -0.5053865
-1.0993065 -0.17276083 0.6208964 1.5490476 0.13573267 -0.71648175 0.22976331 0.3652896
0.09249151 -0.4119507 -0.20451699 1.3381397 0.36630598 -0.9131721 -0.7113527 1.0764449
0.0 0.0 0.0 0.0 0.0 0.0 0.0 0.0
00000000: d72b 853f 9e21 93bf 5f35 473e 70f4 b83e
00000010: f647 703f e47f 07bf ff0b 3c3f ea53 9e3f
00000020: 846e 37bf 021b 373f ba5e 37c0 6e64 6ebe
00000030: 7c0d 81bf ac67 0dc0 58a0 82bf 053f 7f3d
00000040: 5305 843e 3b50 95bf b917 023d dddc c3be
00000050: b689 9d3f 7627 633f c151 f53f 5baf cf3e
00000060: 2d05 f3bd 3e86 be3e 341e 0b3f d530 e0bf
00000070: 690d 703f cbe1 45bf 7d12 d63e 0261 01bf
00000080: 13b6 8cbf 37e8 30be 11f3 1e3f 3147 c63f
00000090: 81fd 0a3e 596b 37bf 1347 6b3e 3d07 bb3e
000000a0: 306c bd3d 34eb d2be e76c 51be 2948 ab3f
000000b0: 758c bb3e a6c5 69bf 361b 36bf f2c8 893f
000000c0: 0000 0000 0000 0000 0000 0000 0000 0000
000000d0: 0000 0000 0000 0000 0000 0000 0000 0000

embedding_CNN_prices.weight f4 [6, 5]
1.8968469 1.3842127 -1.2725329 -1.7263286 -1.0074041 -0.44514823 1.113062 1.9443367
0.34767604 -0.24655041 2.1779487 -0.5588457 -1.605788 -0.7040778 -1.1556087 -1.1989212
1.8416505 -0.32322288 -1.415374 -0.8403731 -0.6170996 0.31521463 0.03852146 -0.7775533
0.92685777 0.0 0.0 0.0 0.0 0.0
00000000: e1cb f23f e22d b13f 5ce2 a2bf 56f8 dcbf
00000010: 9ef2 80bf 78ea e3be d178 8e3f 06e0 f83f
00000020: 9802 b23e b677 7cbe 8363 0b40 8310 0fbf
00000030: 768a cdbf 713e 34bf fcea 93bf 4076 99bf
00000040: 34bb eb3f 787d a5be fa2a b5bf b122 57bf
00000050: 3dfa 1dbf d063 a13e aec8 1d3d bc0d 47bf
00000060: 8d46 6d3f 0000 0000 0000 0000 0000 0000
00000070: 0000 0000 0000 0000
