checkpoints/GNNNoCNN_Epoch44_valmse2.1531_testmse2.2774_ndcg0.9388.model (torch, 249600 bytes, 52 tensors)

Pair_embedding_types.weight f4 [106, 16]
0	0x3ced0f3f	0.028937934
1	0xbdb5fe3d	-0.08886383
2	0xbecf9826	-0.40545768
3	0xbf5eee2a	-0.8708216
4	0x3f5d120b	0.86355656
5	0xbec094f4	-0.37613642
6	0x3e03dc2f	0.12876962
7	0xbfa60b1a	-1.2972138
8	0x3ded123b	0.11575743
9	0xbbdc605d	-0.0067253546
10	0xbf9e7869	-1.2380496
11	0x3f0aa02c	0.5415065
12	0xbfca94cc	-1.5826659
13	0x3ebb6887	0.36603186
14	0x3e89d267	0.26918337
15	0x3f36d3a1	0.7141667
16	0x3eed78c6	0.46381205
17	0xbf969c4b	-1.1766447
18	0x3ff74c65	1.9320189
19	0xbed4c04a	-0.41552955
20	0xbe82ffc2	-0.25585753
21	0x3e3f3500	0.18672562
22	0xbf199436	-0.59991777
23	0x3f2c2ffe	0.6726073
24	0xbf84c3c6	-1.0372245
25	0x3d381b15	0.044947702
26	0xbf072bae	-0.52801025
27	0x4053da43	3.3101966
28	0xbf4f3e85	-0.8095477
29	0xbf0f6021	-0.56006056
30	0xbf8e8cc6	-1.1136711
31	0x3f816660	1.0109367
32	0x3fdbf958	1.7185469
33	0x4012795b	2.288657
34	0xbf84182d	-1.0319878
35	0x3e138e01	0.14409639
36	0x3f620763	0.8829252
37	0xbfa8cd2a	-1.3187611
38	0xbf910725	-1.1330305
39	0x3d92c79d	0.071669795
40	0x3f235333	0.63798827
41	0x3dff0523	0.124521516
42	0x3f81cf5f	1.014141
43	0x3ddbde6d	0.10735784
44	0xbf7412be	-0.953411
45	0x3dc2018f	0.094729535
46	0x3f918963	1.1370052
47	0xbd9d16b4	-0.07670346
48	0xbf292785	-0.66075927
49	0x3f97b868	1.1853151
50	0xbec4ceeb	-0.38439116
51	0xbf94ec82	-1.1634676
52	0xbfd65b01	-1.6746522
53	0x3f5a1faa	0.85204566
54	0xc0001ef5	-2.0018895
55	0x3c3f3900	0.011671305
56	0x3c96a2bf	0.01838815
57	0x3f8776a6	1.0583084
58	0xbfab84c5	-1.3399893
59	0x3fa35540	1.2760391
60	0x3c367746	0.011136835
61	0x3f788474	0.9707711
62	0x3f9c8187	1.2227029
63	0x3d47fa69	0.048822794
64	0xbdc4cb2f	-0.09609067
65	0x3e3ebf1b	0.18627588
66	0x3f548b64	0.83025193
67	0xbfd271bd	-1.644096
68	0x4008bfa6	2.1366973
69	0xbf8a51c9	-1.0806209
70	0x3e52c6a8	0.20583594
71	0xbfac670a	-1.3468945
72	0xbe9c79a8	-0.30561566
73	0x3e11d2e6	0.14240608
74	0x3e2dfdbb	0.16991322
75	0x3f711826	0.9417747
76	0x3ec3dd59	0.38254812
77	0xbe234cda	-0.15947285
78	0x3e72a2f3	0.23694973
79	0x3e47b827	0.19503842
80	0xbea810a1	-0.32825187
81	0x3e19675b	0.14980833
82	0x3e93b6e0	0.2885046
83	0x3f87caca	1.0608761
84	0xbeaa5202	-0.33265692
85	0xbf94db2c	-1.1629386
86	0xbe2b0b02	-0.16703418
87	0xbed28624	-0.41117966
88	0x3f2ad5dd	0.6673258
89	0x3fc5a526	1.5441024
90	0xbf3858b0	-0.72010326
91	0xbf5106a8	-0.8165078
92	0xbf58ae6d	-0.8464115
93	0x3f1faabc	0.62369895
94	0x3f6505b8	0.8946185
95	0x3fbd9997	1.4812497
96	0xbfb15a55	-1.3855692
97	0x3e682deb	0.22673766
98	0x3fe706c9	1.8048946
99	0x3e110687	0.14162646
100	0x3f3a03d3	0.72662085
101	0x3e5f3e03	0.21801
102	0xbf623291	-0.8835841
103	0x400bd07c	2.1845999
104	0xbf8e0afa	-1.10971
105	0x3f9bc988	1.2170877
106	0x3e63b849	0.22238268
107	0xbf7c7857	-0.98621124
108	0xbeef45a8	-0.4673283
109	0x3e73fa0e	0.23825857
110	0xbef3786b	-0.4755281
111	0xbcb03c17	-0.021513028
112	0x3f3957bb	0.7239949
113	0x3fc560e1	1.542019
114	0x3e812818	0.25225902
115	0xbec10e7f	-0.37706372
116	0xbf27acc6	-0.65498006
117	0x3e4ac5ad	0.1980197
118	0xbe9aa359	-0.3020275
119	0xbe2d3370	-0.16914153
120	0x3f8e7b8b	1.1131452
121	0xc026782c	-2.6010847
122	0x3e84f03f	0.25964543
123	0xbe8c262c	-0.27372873
124	0xbe26e7b4	-0.16299325
125	0xbfc04353	-1.5020546
126	0xbdd83c3e	-0.10558365
127	0x3d90feed	0.07079873
128	0x3e8e7e30	0.27830648
129	0x3fc5f4de	1.5465353
130	0x3ebe1d31	0.37131646
131	0x3f78af29	0.97142273
132	0xbe4ddf6c	-0.2010476
133	0x3f902434	1.1261048
134	0xbfa39c63	-1.27821
135	0x3f1c2190	0.6098871
136	0x3e5d44fb	0.21608345
137	0xbf809090	-1.0044117
138	0x3fbb1966	1.4617126
139	0xbf0a3f06	-0.54002416
140	0xbcdb2b18	-0.026753947
141	0x3fa403d5	1.281367
142	0xbd330f3d	-0.043715704
143	0x3eadd62f	0.33952472
144	0x3f71b412	0.9441539
145	0x3d9187f0	0.07106006
146	0x3eded75d	0.43523684
147	0xbf7b6e76	-0.98215425
148	0xbecef801	-0.40423587
149	0x3f6f7466	0.93536985
150	0x3ec25e2e	0.37962478
151	0xbf19e138	-0.6010928
152	0x3f1de299	0.61673886
153	0xbd264e60	-0.040602088
154	0x40106c32	2.2566037
155	0x3fb7d8b9	1.4363014
156	0x3fbc42dd	1.4707905
157	0x3e089f4f	0.13342021
158	0x3ed2a942	0.41144758
159	0xbe98a312	-0.29811913
160	0xbd71e5a7	-0.059056904
161	0xbe001c08	-0.12510693
162	0x3e142c20	0.14469957
163	0x3e8f18d8	0.27948642
164	0xbf892199	-1.0713378
165	0xbf441f7d	-0.7661055
166	0x3f9808ad	1.1877648
167	0x3f87ace9	1.0599643
168	0xbfb88d39	-1.4418098
169	0x3f370835	0.714969
170	0xbe5c4860	-0.21511984
171	0x3faae7aa	1.3351948
172	0x3fb35fa1	1.4013559
173	0x3d4d0b91	0.05005986
174	0x3e9e4a3b	0.30916008
175	0x3ed499eb	0.4152368
176	0xbf9d2154	-1.2275796
177	0xbf1d03ab	-0.6133372
178	0xbe16f750	-0.1474278
179	0x3f6daef9	0.9284511
180	0xbe68ab64	-0.2272163
181	0xbf9e5f35	-1.2372805
182	0x3f4bec01	0.7965699
183	0x3f24923a	0.64285624
184	0x3ea51b15	0.32247224
185	0x3f4e22d1	0.80521876
186	0x3ffeb50b	1.9899
187	0x3e5df4f8	0.2167548
188	0x3d52fd4e	0.0515111
189	0x3fb55cf3	1.4168991
190	0xbe923c4b	-0.28561625
191	0x3e6ee86f	0.23330854
192	0x3ee38d32	0.4444366
193	0xbfc78d24	-1.5589948
194	0x3df771a6	0.120822236
195	0xbea5d300	-0.32387543
196	0x3fda0c13	1.7034935
197	0xbf81da5c	-1.0144763
198	0x3f079e44	0.5297587
199	0x3fc2a987	1.5207986
200	0xbe274727	-0.16335736
201	0xbfbc7762	-1.4723933
202	0xbf3b406a	-0.73145163
203	0x3f1a56a7	0.6028847
204	0x3f647b30	0.8925047
205	0x3e49e32d	0.19715567
206	0x3dce6e42	0.10079624
207	0x3eb8e1be	0.36109728
208	0xbf4df33e	-0.80449283
209	0x3fd5bc1c	1.6698031
210	0xbeb36611	-0.35038808
211	0x400b83aa	2.1799111
212	0x3fa36db2	1.2767851
213	0x3ec8d29a	0.39223176
214	0xbfaa2829	-1.3293506
215	0x3e98be79	0.2983282
216	0xbec5b1a1	-0.38612083
217	0x3e859c48	0.26095796
218	0xbf277113	-0.6540691
219	0x3f0fe308	0.562058
220	0xbfa67cff	-1.3006896
221	0x4052ee21	3.2957842
222	0x40039273	2.0558136
223	0xc0050952	-2.0786939
224	0xbf6600aa	-0.89844763
225	0xbd6186a3	-0.05506004
226	0xc0156605	-2.3343518
227	0x3fae9400	1.3638916
228	0xbf868ce3	-1.0511745
229	0xbeb367f0	-0.35040236
230	0x3ecb2de9	0.39683464
231	0xbf7a9c69	-0.9789491
232	0xbee1ec2d	-0.441255
233	0xbf2125b8	-0.6294818
234	0xbf40a215	-0.7524732
235	0x3ebf655b	0.37382016
236	0xbfaebcd9	-1.3651382
237	0xbf6bd26c	-0.92117953
238	0xbec7b792	-0.3900724
239	0xbfc4fa56	-1.5388896
240	0xbf8ce3c3	-1.1007007
241	0x3edd865e	0.43266577
242	0xbfc61e39	-1.5477973
243	0x3d2b7d0f	0.041867312
244	0x3eb083f7	0.3447568
245	0x3fb7997d	1.4343716
246	0x3f664afd	0.89958173
247	0xbfad672c	-1.354711
248	0x3f72138b	0.9456107
249	0xbf8ba2ab	-1.0909017
250	0xbe914d39	-0.2837923
251	0xbe9da3b6	-0.30788964
252	0x3fd30363	1.6485409
253	0xbedbf970	-0.42963743
254	0xc00008c6	-2.0005355
255	0x3e00d770	0.12582183

embedding_Pair_distances.weight f4 [7, 8]
0	0x3f01058e	0.503991
1	0xbf564e58	-0.83713293
2	0x3f6fb649	0.9363752
3	0x403d75f6	2.9603248
4	0x3f2a68ff	0.6656646
5	0x3fb41f6c	1.4072089
6	0xbeadf59b	-0.33976445
7	0x3e96cafe	0.29451746
8	0x4000bd51	2.011555
9	0x400eadb5	2.2293522
10	0x3f53d92a	0.8275324
11	0xbdd3519e	-0.103183016
12	0x3fbe1a88	1.4851847
13	0xbf764efd	-0.96214277
14	0x3fcbc2e3	1.591885
15	0x40234325	2.5509732
16	0xbf36fa1e	-0.714754
17	0xbf63c55b	-0.88973016
18	0xbf76a5b5	-0.963466
19	0xbd89a0bc	-0.06720111
20	0xbfb59fb2	-1.418936
21	0xbf048403	-0.51763934
22	0x3dfb01a4	0.12256172
23	0xbfc8ae51	-1.5678197
24	0xbed532c3	-0.4164029
25	0x3eca17a6	0.39471167
26	0xbff30cca	-1.8988278
27	0xbe575323	-0.21027808
28	0xc0058486	-2.0862136
29	0xbff0a43b	-1.8800119
30	0xbf77c17e	-0.9677962
31	0xbefd2406	-0.49441546
32	0x3f851b99	1.0399047
33	0x3f97dd9d	1.1864506
34	0xbec98abe	-0.39363664
35	0xc0022f93	-2.0341537
36	0xbfa69d38	-1.3016729
37	0xbe3430ec	-0.17596787
38	0xbf2d536f	-0.67705435
39	0xbf8eabc8	-1.1146173
40	0xbd6790f0	-0.056534708
41	0x3ed587ea	0.41705257
42	0xbf08fef1	-0.5351401
43	0x3e3a5b50	0.18198895
44	0xbfb4b09b	-1.4116396
45	0xbf474b4f	-0.77849287
46	0xbfd4e587	-1.6632546
47	0xbf0ac2f4	-0.54203725
48	0x00000000	0.0
49	0x00000000	0.0
50	0x00000000	0.0
51	0x00000000	0.0
52	0x00000000	0.0
53	0x00000000	0.0
54	0x00000000	0.0
55	0x00000000	0.0

embedding_Pair_prices.weight f4 [6, 5]
0	0x3dc0f8d5	0.09422461
1	0x3ee7d5a0	0.4528017
2	0x3ecf39da	0.40473825
3	0xbe7faacf	-0.24967502
4	0x3f9b288f	1.2121753
5	0x3f5d1a9b	0.8636872
6	0x3d3b5546	0.04573562
7	0x3f65cd4c	0.89766383
8	0x3f3ade77	0.72995704
9	0x3f518d66	0.8185638
10	0xbe1ab72f	-0.15108941
11	0xbf1e3a1c	-0.6180742
12	0xbf2548e3	-0.6456434
13	0x400c8f9c	2.1962652
14	0xbf460b98	-0.7736144
15	0xbf9dc338	-1.2325201
16	0xc001f9e1	-2.0308764
17	0xbef9dd61	-0.4880171
18	0x3e317386	0.17329225
19	0x3fffebff	1.9993895
20	0xbd16184a	-0.036644258
21	0xbfba91d3	-1.4575752
22	0xbdbb6950	-0.09150946
23	0x3f8013f0	1.0006084
24	0xbdb3aeb3	-0.087735556
25	0x00000000	0.0
26	0x00000000	0.0
27	0x00000000	0.0
28	0x00000000	0.0
29	0x00000000	0.0

Pair_shop_mlp.fc_layers.0.weight f4 [64, 32]
0	0x3ceecc12	0.029150043
1	0xbd3a25bf	-0.045446154
2	0x3e2501c0	0.16113949
3	0x3e3fd681	0.1873417
4	0xbe6eff4d	-0.23339577
5	0x3d4859ae	0.04891365
6	0x3d95521c	0.07291052
7	0xbe007bc8	-0.12547219
8	0x3d91cddd	0.071193434
9	0x3e222e91	0.15838076
10	0xbe1cac1c	-0.1530003
11	0x3ccf20f9	0.025284277
12	0xbe0805de	-0.13283488
13	0xbe4e3c9d	-0.2014031
14	0x3d9536f2	0.072858706
15	0x3d85c35a	0.06531401
16	0x3dde3994	0.10850826
17	0x3c55ad6b	0.013041834
18	0xbba11403	-0.0049157157
19	0x3d97f367	0.07419472
20	0x3c81e9ea	0.01585861
21	0x3dc07cd3	0.09398808
22	0x3c82b912	0.015957389
23	0x3e7a04f0	0.24415946
24	0xbe05f86c	-0.13083047
25	0x3ca590b1	0.020210596
26	0x3c57bb89	0.01316727
27	0x3daed857	0.08537357
28	0x3db8c1c6	0.09021334
29	0x3d5d6914	0.05405529
30	0xbdbe8355	-0.09302393
31	0xbe492368	-0.19642413
32	0xbe3f4a88	-0.18680775
33	0x3dcb0ad4	0.09914175
34	0xbda123a9	-0.0786813
35	0x3e0fffb7	0.14062391
36	0x3dade695	0.08491246
37	0x3e76c7b7	0.24099623
38	0x3e9387b0	0.2881446
39	0xbe0452e5	-0.12922247
40	0xbe0da709	-0.1383325
41	0xbd91e9d0	-0.07124674
42	0xbdc7ec7b	-0.09761902
43	0x3bfd4936	0.0077296747
44	0xbcc545e2	-0.024081174
45	0xbd2257c3	-0.039634477
46	0x3cbb6b6d	0.022878373
47	0x3e6ff608	0.23433697
48	0x3d29ffe4	0.041503802
49	0xbe2df619	-0.1698841
50	0x3c97ecf4	0.018545605
51	0x3e4abb2a	0.1979796
52	0x3d7e6f3c	0.0621178
53	0xbdbf4f8b	-0.093413435
54	0xbc2e958b	-0.010655771
55	0x3dd88ac8	0.105733454
56	0xbdcf6dfd	-0.101284005
57	0x3dae6d8b	0.085169874
58	0xbc6c7054	-0.014431078
59	0xbe222b56	-0.15836844
60	0x3e2319ed	0.15927859
61	0xbda418ed	-0.08012567
62	0x3e4834ed	0.1955144
63	0x3d46fffc	0.04858397
64	0x3d72e956	0.059304558
65	0x3d39dc33	0.045376014
66	0xbca72b75	-0.020406464
67	0xbd844096	-0.06457631
68	0x3e0228cc	0.12710875
69	0x3e0bd18b	0.13654153
70	0x3d8659a2	0.06560065
71	0x3de2d828	0.11076385
72	0x3e5ac460	0.21363974
73	0xbe41a0cf	-0.18909
74	0xbde1fcae	-0.11034523
75	0x3df95517	0.12174433
76	0xbda7d774	-0.08195391
77	0xbe0c9984	-0.13730437
78	0xbd45713d	-0.048203696
79	0x3df75aed	0.120778896
80	0xbe2482e9	-0.16065563
81	0xbe20ee11	-0.15715815
82	0x3e0ed202	0.13947299
83	0x3e1e0e38	0.15435112
84	0xbde27548	-0.11057526
85	0x3de1a023	0.11016872
86	0x3c1e7d00	0.009673357
87	0xbc6eac2c	-0.014567416
88	0xbdb23c31	-0.08702887
89	0x3dd38996	0.10328977
90	0x3dd3653f	0.103220455
91	0xbdf60ab0	-0.12013757
92	0x3dfb6c08	0.12276465
93	0xbdf7b37d	-0.120947815
94	0x3de560c2	0.11200096
95	0x3d3389d3	0.04383261
96	0xbdb0ef55	-0.08639399
97	0xbdd84a68	-0.10561067
98	0xbd0cedc3	-0.034406435
99	0xbce1b88c	-0.02755382
100	0x3d8a3b87	0.06749635
101	0x3e09259c	0.13393253
102	0x3e23c18f	0.15991805
103	0x3c710412	0.014710443
104	0xbd025e17	-0.031828012
105	0x3e44f9fa	0.19235983
106	0xbe15167b	-0.14559357
107	0x3ddadc16	0.10686509
108	0x3de95709	0.11393554
109	0x3df32862	0.11872937
110	0xbe42ee78	-0.19036281
111	0x3e2b73cb	0.1674339
112	0xbdb00038	-0.08593792
113	0x3de953f7	0.11392968
114	0xbe368611	-0.1782458
115	0xbd6b1f46	-0.05740287
116	0x3dfaa847	0.122391276
117	0xbd9fed3e	-0.07808922
118	0x3a24ded0	0.0006289305
119	0x3e1b67e7	0.15176354
120	0x3e2764a7	0.1634699
121	0x3d98d4d7	0.07462471
122	0x3e26d427	0.16291867
123	0x3d9e4aaa	0.07729085
124	0xbe4d1749	-0.20028414
125	0xbcabb94a	-0.020962376
126	0xbe2185cc	-0.15773696
127	0xbdbd9d94	-0.09258571
128	0x3d19a12b	0.037507217
129	0x3d9979e7	0.07493954
130	0x3d0e6d3b	0.03477214
131	0x3e1e0f10	0.15435433
132	0x3ca68180	0.020325422
133	0xbe30b6a8	-0.17257178
134	0x3d48b8e0	0.049004436
135	0xbddd408e	-0.108033285
136	0xbd995dc3	-0.07488587
137	0xbdd7c413	-0.10535445
138	0x3d567bb9	0.052364085
139	0xbd6b0258	-0.057375282
140	0xbc678e87	-0.014133102
141	0xbe053f70	-0.1301248
142	0xbd329e95	-0.043608267
143	0x3db17c8f	0.08666336
144	0xbe014834	-0.126252
145	0xbde8ba93	-0.11363711
146	0xbcbfcfe1	-0.023414554
147	0xbc48c95c	-0.012255039
148	0x3e09a8e9	0.1344334
149	0x3d7270af	0.059189495
150	0xbe127759	-0.1430334
151	0x3d65cb21	0.056101922
152	0xbe325b0a	-0.17417541
153	0xbde6345b	-0.11240455
154	0xbdbd33d5	-0.09238402
155	0xbdb332d8	-0.08749932
156	0x3cd0f747	0.025508536
157	0xbe19b61f	-0.1501088
158	0x3d82ea7c	0.063923806
159	0xbe089831	-0.13339306
160	0x3d247261	0.040148143
161	0x3dba3c8d	0.090935804
162	0xbd8b6c46	-0.06807761
163	0xbb817b25	-0.0039514476
164	0xbbf79c56	-0.0075564785
165	0x3dbe4b81	0.09291745
166	0x3e277a24	0.16355187
167	0x3dad7207	0.084690146
168	0xbe3c1224	-0.18366295
169	0xbe472aef	-0.19449972
170	0xba932614	-0.0011226558
171	0xbdf3ddb8	-0.11907524
172	0x3d5810a0	0.05275023
173	0xbe54aaa0	-0.20768213
174	0xbdfb5fdc	-0.12274143
175	0x3ccb269e	0.024798688
176	0x3b41bd49	0.0029562286
177	0x3e2d27a2	0.1690965
178	0xbe0e63ba	-0.1390523
179	0x3dde1418	0.10843676
180	0xbdc354d8	-0.09537667
181	0x3e14ec26	0.14543208
182	0x3e0694bc	0.13142675
183	0xbe12274e	-0.14272806
184	0x3e398ead	0.18120833
185	0x3e442735	0.19155581
186	0x3d99b765	0.07505683
187	0xbd6d09c0	-0.057870626
188	0xbdc3de84	-0.09563926
189	0x3e0febea	0.14054838
190	0x3cc0136f	0.023446767
191	0xbe372297	-0.17884289
192	0x3d7fb352	0.062426873
193	0xbe2f86cb	-0.17141263
194	0xbdd8e7a1	-0.10591055
195	0xbd34f0c7	-0.044174936
196	0x3c997d06	0.018736374
197	0xbe26a1c5	-0.16272648
198	0xbd910b96	-0.07082288
199	0xbe0cc408	-0.13746655
200	0xbcd41ccf	-0.025892643
201	0xbe3e3c9d	-0.1857781
202	0xbd1b21a6	-0.037873887
203	0xbe02b06b	-0.1276261
204	0x3dab4d37	0.08364337
205	0x3d0e2acb	0.03470878
206	0xbd7af2fe	-0.06126689
207	0x3dd6c5c4	0.104869395
208	0xbcea84f7	-0.028627856
209	0x3dead0d1	0.1146561
210	0xbd796e0a	-0.060895957
211	0x3dfcb484	0.12339118
212	0x3d16cc5e	0.036815993
213	0xbe179698	-0.1480354
214	0xbda5acc1	-0.08089591
215	0xbd51727c	-0.05113457
216	0x3e3fb234	0.18720323
217	0x3c8bff20	0.017089427
218	0x3dd6c4b5	0.10486738
219	0xbe40c62f	-0.18825601
220	0xbe363f36	-0.1779755
221	0xbd44577d	-0.047934998
222	0x3dd68a17	0.10475557
223	0xbd413a12	-0.04717452
224	0xbc331336	-0.010929873
225	0xbd2f5b91	-0.042811934
226	0xbd813d35	-0.063105024
227	0xbbb06678	-0.005383309
228	0x3e1b1e1b	0.15148203
229	0x3d5165c9	0.05112246
230	0x3dbbafa9	0.09164364
231	0x3dd87fcc	0.1057125
232	0xbdc7dcab	-0.09758886
233	0x3cf6f3c5	0.030145535
234	0x3d46c44e	0.048527054
235	0xbd012ea3	-0.031538617
236	0x3e27ae02	0.16374972
237	0x3e462f9d	0.193541
238	0x3d0aab16	0.033854567
239	0x3df2650a	0.11835678
240	0xbe2b8af8	-0.16752231
241	0xb9e5be26	-0.00043819955
242	0xbd58af53	-0.052901577
243	0xbe39e274	-0.18152791
244	0xbdc6761c	-0.09690496
245	0x3d26a118	0.040680975
246	0xbe2566c2	-0.1615248
247	0xbe1271b9	-0.14301194
248	0x3dba9a80	0.091115
249	0x3daa85bd	0.0832629
250	0x3e55d956	0.20883688
251	0x3dd32399	0.10309524
252	0xbbab6c8a	-0.0052314447
253	0x3d4bcff0	0.04975885
254	0xbcda87ad	-0.026676023
255	0x3d9923e8	0.07477552

Pair_shop_mlp.fc_layers.0.bias f4 [64]
0	0x3e3ab687	0.18233691
1	0xbc959b4b	-0.018262526
2	0xbde32fc5	-0.11093096
3	0xbdaf9c9b	-0.08574792
4	0xbdc289dc	-0.09498951
5	0xbc95f4c7	-0.018305195
6	0x3dd0ef75	0.10201923
7	0xbdbc0877	-0.09181302
8	0xbde59e9b	-0.11211892
9	0x3db52bcc	0.08846244
10	0x3dc0e0e1	0.09417892
11	0x3e22a6c3	0.15883927
12	0xbdcdf2fb	-0.100561105
13	0x3dce1016	0.10061662
14	0x3db155eb	0.08658966
15	0xbd51d457	-0.051227894
16	0xbdde25f2	-0.10847081
17	0xbdad5bf8	-0.08464807
18	0xbda57d26	-0.08080511
19	0x3da4f034	0.080536276
20	0x3e3ccd58	0.18437707
21	0x3e130b28	0.14359725
22	0xbdc320eb	-0.09527763
23	0xbd62aed8	-0.055342525
24	0xbd58a4b2	-0.05289144
25	0xbdb3b51b	-0.087747775
26	0xbcb2dd92	-0.021834169
27	0x3d115079	0.035477135
28	0xbe2b1cb8	-0.16710174
29	0x3dec7487	0.11545663
30	0x3d5c96dd	0.053854812
31	0x3ce829b3	0.028340196
32	0x3d571770	0.052512586
33	0x3d48aa72	0.048990674
34	0xbd0ee159	-0.034882877
35	0xbd7cad4b	-0.061688703
36	0xbcaf3d1e	-0.021391448
37	0x3ddee721	0.10883928
38	0xbda06d11	-0.07833303
39	0x3ddb66ef	0.107129924
40	0xbcd68012	-0.026184116
41	0x3d331f1b	0.043730836
42	0x3d9cea4e	0.076618776
43	0x3e25a0fd	0.16174693
44	0x3db49d0c	0.08819017
45	0xbd223a1f	-0.03960621
46	0x3e3e959b	0.18611757
47	0xbd5ffdff	-0.05468559
48	0xbdaadb8b	-0.08342656
49	0xbda63b0b	-0.0811673
50	0xbc7c6c84	-0.0154067315
51	0x3d90e923	0.07075717
52	0x3e064034	0.13110429
53	0x3d9f865d	0.077893
54	0xbdf1550d	-0.117838
55	0xbd9188b9	-0.07106156
56	0x3cec1403	0.028818136
57	0xbe1254b8	-0.1429013
58	0x3d16a8d0	0.036782086
59	0x3e362d42	0.17790702
60	0xbde828b1	-0.11335886
61	0x3d76847b	0.060184937
62	0xbe14b7fc	-0.1452331
63	0xbd55f2d7	-0.052233543

Pair_shop_mlp.fc_layers.1.weight f4 [16, 64]
0	0xbe8425cf	-0.25810096
1	0xbd1074bd	-0.03526758
2	0x3b60ac31	0.0034282322
3	0x3da2eaa8	0.079549134
4	0x3d4f526c	0.050615713
5	0xbca7b932	-0.02047405
6	0x3dda782e	0.10667454
7	0xbdb40f55	-0.08791987
8	0xbd1e070d	-0.038580943
9	0xbc30d9d2	-0.01079412
10	0xbb96d58a	-0.0046030926
11	0x3de21bdf	0.11040472
12	0xbdae1475	-0.084999956
13	0xbda3d6d8	-0.079999626
14	0xbe23ab12	-0.15983227
15	0x3e11db6c	0.14243859
16	0x3dd0420b	0.10168847
17	0x3e133163	0.14374308
18	0xbcbb6e27	-0.022879673
19	0xbc9c5ce1	-0.019087257
20	0x3e1d12d8	0.1533922
21	0xbcfc455f	-0.030794797
22	0x3da01fda	0.07818575
23	0x3d2cdb7e	0.04220151
24	0x3bd0d77a	0.006373343
25	0x3daee4c1	0.08539725
26	0xbe258dd0	-0.16167378
27	0x3e3278b1	0.17428853
28	0x3e137b56	0.14402518
29	0x3db2b82e	0.08726536
30	0xbdd3aaf9	-0.10335345
31	0xbd932c00	-0.07186127
32	0x3e28d2c6	0.16486654
33	0xbdda326f	-0.10654151
34	0x3de75740	0.112959385
35	0x3c1f179a	0.009710217
36	0x3e0134bc	0.12617773
37	0x3e5700f7	0.20996462
38	0x3d8ad09c	0.0677807
39	0x3ccbb87c	0.024868242
40	0x3d40f78a	0.04711107
41	0x3d93e312	0.072210446
42	0x3d40bb53	0.047053646
43	0xbd8b3502	-0.0679722
44	0xbe1661b6	-0.14685711
45	0xbd089dbf	-0.033353563
46	0x3ccd68e9	0.02507444
47	0x3dd5e5b4	0.10444203
48	0x3d14aced	0.036297727
49	0x3d281af0	0.041041315
50	0x3e38f9ee	0.1806409
51	0x3cdd0376	0.02697919
52	0x3de9afad	0.114104606
53	0x3da50182	0.08056928
54	0xbdff527e	-0.12466906
55	0xbd6c6c1b	-0.057720285
56	0x3de1ef46	0.11031966
57	0xbdcf93d0	-0.10135615
58	0x3e58d8f9	0.21176518
59	0x3c5c69c1	0.013452948
60	0x3d0ea3f0	0.03482431
61	0xbc8f5283	-0.0174954
62	0x3dc5d19c	0.096591204
63	0x3bf79a95	0.0075562694
64	0x3e6663f6	0.2249907
65	0xbc556fea	-0.013027171
66	0x3c4e0a2f	0.01257567
67	0x3df5d75e	0.12003969
68	0xbd383a2c	-0.044977352
69	0x3db96ad7	0.09053581
70	0x3ddd85a1	0.10816503
71	0xbda92109	-0.08258254
72	0x3da2599e	0.07927249
73	0x3d066023	0.032806527
74	0x3dae34db	0.08506175
75	0x3dd2f813	0.10301223
76	0x3da80017	0.08203142
77	0x3da44f26	0.08022909
78	0xbd07ca3a	-0.033151843
79	0x3dfdf91a	0.12401028
80	0x3c9e03d9	0.019288944
81	0xbd971ac0	-0.07378149
82	0x3e07affc	0.13250726
83	0xbd4cc2dd	-0.049990524
84	0xbc48db18	-0.012259267
85	0xbda0b94c	-0.078478426
86	0x3db92678	0.090405405
87	0xbdb80e7d	-0.089871384
88	0x3d330cfd	0.04371356
89	0x3c87acf4	0.016561963
90	0xbd7fb91e	-0.0624324
91	0xba713dc9	-0.0009202627
92	0xbd7e2d21	-0.062054757
93	0x3dce9d69	0.10088617
94	0x3c284b51	0.010271863
95	0x3dc01478	0.09378904
96	0xbd3423aa	-0.043979324
97	0xbd5d021f	-0.0539571
98	0xbdece804	-0.11567691
99	0x3d8eec89	0.06978709
100	0x3c45b8de	0.012068002
101	0xbd973f65	-0.073851384
102	0xbd61298c	-0.054971263
103	0x3d9548fa	0.0728931
104	0xbd89a17b	-0.06720253
105	0x3cd2d9c7	0.02573861
106	0x3e09c6f6	0.13454804
107	0x3e1c41fa	0.15259543
108	0xbcea140e	-0.028574016
109	0x3bb8bbcb	0.005637621
110	0x3dfce703	0.123487495
111	0xbc65f367	-0.014035082
112	0xbe2698e2	-0.16269258
113	0xbc98bfca	-0.01864614
114	0x3bd884d3	0.0066076308
115	0x3b8aad5b	0.0042320914
116	0xbd25e70b	-0.040503543
117	0xbcdc2c02	-0.026876453
118	0x3d74fe15	0.059812624
119	0xbd8cac13	-0.06868758
120	0xbbf560a7	-0.0074883285
121	0x3dcd1092	0.10012926
122	0xbdf2536a	-0.11832316
123	0x3e0badb6	0.13640484
124	0x3dcd9ad3	0.10039296
125	0xbdd80b71	-0.10549057
126	0xbdb99cc8	-0.09063107
127	0x3daa0334	0.08301392
128	0x3e6c1101	0.23053361
129	0x3d87f943	0.0663934
130	0x3d9dfc53	0.07714143
131	0x3aba8de7	0.0014232964
132	0xbde62464	-0.1123741
133	0x3d5ff74e	0.054679208
134	0xbc1105f4	-0.008851517
135	0xbd89e287	-0.0673266
136	0x3d392640	0.045202494
137	0x3dde1bb8	0.10845131
138	0x3c52bf4e	0.012862993
139	0xbd0520bd	-0.032501925
140	0xbd2577e4	-0.04039754
141	0x3d00d795	0.031455595
142	0x3c85c0f9	0.016327368
143	0xbd8a2b0e	-0.06746493
144	0xbcafdc18	-0.021467254
145	0x3cbd12c7	0.023080243
146	0x3dd8e178	0.1058988
147	0x3e0ccb8a	0.13749519
148	0x3d489451	0.04896957
149	0x3bbc6f94	0.005750606
150	0xbcfc363d	-0.030787582
151	0x3d999037	0.0749821
152	0xbc2bbb38	-0.010481648
153	0xbd910ea0	-0.070828676
154	0x3e6ae3d8	0.22938478
155	0xbd5459d6	-0.051843487
156	0xbcdc007b	-0.026855698
157	0x3e296d9f	0.16545723
158	0x3e499869	0.19687046
159	0xbdd65cbc	-0.104669064
160	0x3da952f4	0.08267775
161	0x3c9569a0	0.018238842
162	0xbd91b4e6	-0.07114582
163	0xbd0cd2c0	-0.034380674
164	0xbca01dc2	-0.01954544
165	0xbdd1a03d	-0.10235641
166	0x3e1a8782	0.15090755
167	0x3dc62a56	0.09676044
168	0x3db7c5d3	0.08973279
169	0xbcc1f0ab	-0.02367433
170	0x3c043760	0.008069843
171	0xbbd37fe3	-0.0064544543
172	0x3e18582e	0.14877388
173	0x3cba876b	0.02276965
174	0x3d2ff2e8	0.042956263
175	0xbdce6f2e	-0.100797996
176	0xbe234855	-0.15945561
177	0x3db18bfd	0.08669279
178	0xbe3381d3	-0.17529993
179	0xbb0dc100	-0.002162993
180	0xbe17ab9e	-0.1481156
181	0x3dfa6ded	0.12227998
182	0x3d302598	0.043004602
183	0x3dcba6cd	0.09943924
184	0x3c9ce694	0.019152917
185	0xbd57720e	-0.052599005
186	0x3d5fd396	0.054645143
187	0xbc004cd8	-0.007830821
188	0x3d8b4ae6	0.06801395
189	0x3dd9a9ba	0.10628076
190	0xbdb97729	-0.09055931
191	0x3db271f6	0.087131426
192	0x3e306cdc	0.17229027
193	0x3d84d4ce	0.06485902
194	0x3beaa375	0.007160599
195	0xbdcb64cb	-0.09931334
196	0x3d3da678	0.046301335
197	0xbca1ec7e	-0.019766089
198	0x3dece39f	0.11566853
199	0x3e06ff3f	0.13183306
200	0x3e000e2a	0.12505403
201	0x3e45f61d	0.19332166
202	0x3e149f87	0.1451398
203	0x3c78b179	0.0151790315
204	0x3d1d2fcd	0.038375665
205	0xbd8bdc52	-0.06829132
206	0x3bb19c4c	0.0054202434
207	0xbdbf1af2	-0.09331311
208	0x3d89d206	0.06729512
209	0xbd4e119a	-0.050309755
210	0x3d38ba5b	0.045099597
211	0x3d01720c	0.031602904
212	0xbd4353ab	-0.047687214
213	0x3debb954	0.11509958
214	0x3e04b266	0.12958679
215	0x3dde6e8a	0.108609274
216	0x3e27d271	0.16388871
217	0xbe41a4e5	-0.18910559
218	0x3e6089be	0.21927544
219	0x3d989890	0.07450974
220	0x3ce0f26c	0.027459346
221	0x3de8213a	0.113344625
222	0x3e2e00a6	0.16992435
223	0x3e166a95	0.14689095
224	0x3db86495	0.090035595
225	0x3d0dcb1f	0.03461754
226	0x3d0b6473	0.034031343
227	0xbd42115e	-0.047379844
228	0xbdfa6788	-0.12226778
229	0xbdd5a5a2	-0.104319826
230	0xbda34d24	-0.07973698
231	0xb9c03f82	-0.0003666841
232	0xbbffd5cd	-0.0078074695
233	0x3d8b1b7a	0.0679235
234	0x3d9253b6	0.07144873
235	0x3b3b579f	0.0028586162
236	0x3d72ec8b	0.059307616
237	0xbcc96e8d	-0.024588848
238	0xbd0d9446	-0.034565233
239	0x3d532f22	0.05155862
240	0xbe80edcc	-0.25181425
241	0xbdecdab0	-0.11565149
242	0xbe42fdb3	-0.19042091
243	0x3de7555d	0.11295579
244	0xbe03042c	-0.1279456
245	0xbd77a7c9	-0.060462747
246	0xbda4c8af	-0.0804609
247	0x3d6b7877	0.05748793
248	0x3dcd949b	0.1003811
249	0xbd69009d	-0.05688535
250	0x3db8b12b	0.09018167
251	0x3e0ccc9d	0.13749929
252	0xbd25c2fd	-0.04046916
253	0x3d735639	0.0594084
254	0x3cd7787a	0.026302565
255	0x3e19be2e	0.15013954

Pair_shop_mlp.fc_layers.1.bias f4 [16]
0	0xbb42f016	-0.0029745153
1	0x3c233f0e	0.009963764
2	0x3e0a3533	0.13496856
3	0x3d24fe53	0.040281605
4	0xbdab5bb8	-0.08367103
5	0x3b566729	0.0032715297
6	0x3c8668d3	0.016407406
7	0xbda8ee1b	-0.0824854
8	0x3d4e9cfb	0.050442677
9	0xbda8c2ab	-0.08240255
10	0xbd581013	-0.052749705
11	0x3d91f771	0.07127274
12	0x3dccc864	0.09999159
13	0x3c83fc51	0.016111525
14	0xbdb89365	-0.09012488
15	0x3e0e1de8	0.13878596

Pair_score_mlp.fc_layers.0.weight f4 [64, 32]
0	0xbe10633c	-0.14100355
1	0xbdcd01b4	-0.100100905
2	0x3e28a35d	0.16468568
3	0xbd256a86	-0.04038479
4	0xbd9903bf	-0.07471418
5	0xbdbdeeef	-0.092740886
6	0x3e584aad	0.21122237
7	0x3ca692cf	0.020333676
8	0xbbd3333d	-0.006445317
9	0xbdf9cbd8	-0.12197083
10	0xbd4554c8	-0.048176557
11	0xbdcb842e	-0.09937321
12	0xbe04bb82	-0.12962154
13	0xbe0ae42f	-0.13563608
14	0x3d8f3374	0.06992236
15	0x3c410da5	0.011783038
16	0xbe3ee860	-0.18643332
17	0xbdbc935d	-0.09207795
18	0x3e839f9c	0.2570771
19	0xbd8033bf	-0.0625987
20	0x3ddf8a6d	0.109150745
21	0xbe4ccc2e	-0.19999763
22	0x3d3ab583	0.04558326
23	0x3dfcf955	0.12352244
24	0xbe22e038	-0.15905845
25	0xbd72dbf6	-0.059291802
26	0x3e265dfc	0.1624679
27	0xbdcf0ae6	-0.101095006
28	0x3da4e99e	0.080523714
29	0xbd2f3605	-0.042776126
30	0xbe7c6c98	-0.246508
31	0xbe943b1e	-0.28951353
32	0xbe3aefa5	-0.1825548
33	0xbd8f21f0	-0.06988895
34	0x3e4dc948	0.20096314
35	0x3e406d37	0.18791662
36	0xbdacf279	-0.084446855
37	0x3e340299	0.17579116
38	0x3e30c5ad	0.17262907
39	0xbdeb16b5	-0.114789404
40	0x3df27d7d	0.11840341
41	0xbd66afce	-0.056320004
42	0xbdaec689	-0.08533961
43	0x3d18e74c	0.037329957
44	0x3d96a8e5	0.07356433
45	0xbd200fe2	-0.039077647
46	0xbdd1d848	-0.102463305
47	0xbc910e2e	-0.017706957
48	0xbda3bbc1	-0.079947956
49	0xbdf02d82	-0.1172743
50	0x3d454733	0.048163604
51	0x3e1df930	0.15427089
52	0xbb3369b8	-0.0027376246
53	0xbdfbc4a3	-0.12293365
54	0x3d3eda49	0.04659489
55	0xbdf31a9f	-0.11870312
56	0xbe2d2759	-0.16909541
57	0x3e383e39	0.17992486
58	0x3c18fd4c	0.009337734
59	0xbe08a18b	-0.13342874
60	0xbd3a741a	-0.04552088
61	0xbcbdf4ae	-0.023187961
62	0x3e1c52ea	0.15266004
63	0x3da3c708	0.079969466
64	0xbdfb5ad3	-0.12273183
65	0xba9308ef	-0.0011217872
66	0xbd3ab641	-0.045583967
67	0xbdd00404	-0.10157016
68	0x3d2aa80b	0.041664165
69	0xbc693ef2	-0.014236199
70	0x3dca16da	0.0986764
71	0xbd0029e2	-0.031289943
72	0x3e07e3ee	0.13270542
73	0xbe1f19fe	-0.15537259
74	0x3c76c8f6	0.015062561
75	0x3e338c67	0.17534028
76	0x3ce0cb78	0.027440771
77	0xbd3cbae6	-0.046076678
78	0x3db0ba30	0.086292624
79	0x3a0c94c2	0.0005362743
80	0xbe8b51bd	-0.272108
81	0x3d153e22	0.036436208
82	0x3d0c5d0b	0.03426842
83	0x3e67dd20	0.22642946
84	0x3e5fb8f8	0.21847904
85	0x3d838827	0.064224534
86	0x3e52aa6c	0.20572823
87	0x3d7c817b	0.06164692
88	0x3e33a178	0.17542064
89	0xbd87866c	-0.06617436
90	0xbd5af627	-0.053457405
91	0xbc1210bc	-0.008915123
92	0xbe1b2ec8	-0.15154564
93	0xbdf3cc6e	-0.11904226
94	0xbdb5ab36	-0.088705465
95	0x3e049e45	0.12951
96	0xbe2afbd3	-0.16697626
97	0x3e02ffc2	0.12792876
98	0x3e68c55a	0.22731534
99	0x3d338cc3	0.043835413
100	0x3e340f4f	0.17583965
101	0xbe12a60e	-0.14321157
102	0xbdebbb3e	-0.11510323
103	0x3d7a2dc1	0.06107879
104	0x3e1a861b	0.1509022
105	0x3d8f0d79	0.069849916
106	0xbe059002	-0.13043216
107	0x3e3bb4f4	0.18330747
108	0xbdac6ea0	-0.084195375
109	0x3d88b281	0.06674672
110	0xbdbf46f2	-0.093397036
111	0x3e374689	0.17898001
112	0x3d00628f	0.031343993
113	0xbde341ad	-0.11096511
114	0x3ddfa3e1	0.10919929
115	0x3d9d7174	0.07687655
116	0x3ce27b95	0.02764682
117	0x3d84d6cd	0.064862825
118	0x3dfc5bab	0.12322172
119	0xbd65ab5d	-0.056071628
120	0x3e127805	0.14303596
121	0xbe59ee37	-0.21282278
122	0x3d147105	0.036240596
123	0xbd8890c9	-0.066682406
124	0x3d1912b0	0.037371337
125	0x3d5730ff	0.05253696
126	0x3e364b4e	0.17802164
127	0x3d318d0c	0.043347403
128	0xbe47a25b	-0.19495527
129	0xbcf2da03	-0.029644972
130	0x3b52c5b7	0.0032161304
131	0xbde98f22	-0.114042535
132	0x3e0b22c4	0.13587481
133	0xbd02e592	-0.031957217
134	0xbe058941	-0.1304064
135	0xbe7e7805	-0.24850471
136	0x3e145e19	0.1448902
137	0xbd858361	-0.06519199
138	0xbe428245	-0.18995006
139	0xbe48910e	-0.19586584
140	0xbd1dc9ba	-0.03852246
141	0x3c4789a4	0.012178812
142	0xbe01b6f3	-0.12667446
143	0xbe20b4fd	-0.15694042
144	0x3e473dbf	0.19457148
145	0x3e4be4ef	0.1991155
146	0xbe10a33f	-0.14124773
147	0xbddb2044	-0.106995136
148	0xbdbecae2	-0.093160406
149	0x3dcfafe3	0.101409696
150	0x3bb03439	0.005377319
151	0xb9304350	-0.00016809744
152	0xbe440959	-0.19144191
153	0x3d9913c8	0.07474476
154	0xbccb33b1	-0.024804922
155	0x3e6859b8	0.22690475
156	0xbcce996e	-0.025219645
157	0xbe08fead	-0.13378401
158	0x3d3901dc	0.04516779
159	0xbe19d54c	-0.15022773
160	0xbdfcc4f7	-0.123422556
161	0x3d12c6f0	0.035834253
162	0x3e1843de	0.1486964
163	0x3d957021	0.072967775
164	0x3dc90503	0.09815409
165	0x3e0f7028	0.14007628
166	0xbdbde481	-0.09272099
167	0xbde09c0a	-0.10967262
168	0xbdcbf14a	-0.099581316
169	0xbc48bf47	-0.012252635
170	0x3e3aaa1f	0.18228959
171	0x3d867316	0.0656492
172	0x3bd8209c	0.006595684
173	0x3dc683c6	0.096931025
174	0xbe21ff95	-0.15820153
175	0xbd870ec5	-0.06594614
176	0x3e2f7bbd	0.17137046
177	0x3e24bef9	0.16088475
178	0x3db75046	0.08950858
179	0xbbc7355e	-0.00607936
180	0x3df565b3	0.11982288
181	0xbe09280c	-0.13394183
182	0x3cba8174	0.022766806
183	0x3dc0a659	0.09406728
184	0x3d8c4b3e	0.06850289
185	0x3d920a87	0.07130914
186	0x3e4d1d7d	0.2003078
187	0xbe35e01f	-0.17761277
188	0x3e26133a	0.16218272
189	0xbe1176ee	-0.14205524
190	0x3e1f2c11	0.15544154
191	0xbd873f54	-0.06603876
192	0xbe011c9a	-0.12608567
193	0x3e598c72	0.21244982
194	0xbd43e526	-0.047825955
195	0xbd7c7968	-0.06163922
196	0xbe150ebc	-0.14556402
197	0xbdaf5550	-0.08561194
198	0x3d15d5d2	0.036580868
199	0x3e0c0aca	0.1367599
200	0x3aace114	0.0013189637
201	0x3d91e41c	0.071235865
202	0xbdc980d3	-0.098390244
203	0x3e1b28b5	0.15152247
204	0xbd318396	-0.04333838
205	0xbdc9eb2f	-0.09859311
206	0x3e0b17a4	0.13583237
207	0x3cda2d0b	0.026632806
208	0xbbb435d3	-0.0054995804
209	0x3e07f29e	0.13276145
210	0xbdbc3494	-0.09189716
211	0xbc0cd135	-0.008594801
212	0xbd8d83c1	-0.06909896
213	0x3d83948b	0.06424817
214	0x3e3c321d	0.18378492
215	0x3e2b02f4	0.16700345
216	0x3da4136c	0.08011517
217	0xbd74b5d2	-0.05974371
218	0x3d3c34a2	0.045948632
219	0x3e5d0be0	0.21586561
220	0xbdf5568f	-0.119794
221	0x3df8c995	0.12147824
222	0x3e1a1055	0.15045293
223	0xbe127025	-0.14300592
224	0x3c2477f9	0.010038369
225	0xbd9011ca	-0.07034643
226	0x3e537985	0.20651825
227	0x3e0aad03	0.13542561
228	0x3d141c66	0.036159895
229	0x3c97a6e1	0.018512191
230	0xbdb10520	-0.08643556
231	0xbdb7e289	-0.08978755
232	0x3e3df5de	0.18550822
233	0x3e710435	0.23536761
234	0xbe5b4db3	-0.21416359
235	0xbdf9721d	-0.121799685
236	0x3d881d79	0.066462465
237	0xbd6e7cac	-0.058224365
238	0xbddb369b	-0.107037745
239	0x3e00343b	0.12519924
240	0xbe44ec7d	-0.19230838
241	0xbe0a5fd9	-0.13513125
242	0x3cb4c2de	0.022065576
243	0xbc914c90	-0.017736703
244	0xbd8e69e4	-0.06953791
245	0x3e6ffa80	0.23435402
246	0x3d4374d5	0.04771884
247	0xbb8179b8	-0.0039512776
248	0xba6ad0e9	-0.00089575216
249	0xbdded569	-0.108805485
250	0xbdbbce0f	-0.09170162
251	0xbdf7e2a4	-0.12103775
252	0xbddc8f9e	-0.1076958
253	0xbda1a990	-0.078936696
254	0x3e32115e	0.17389438
255	0x3d90d02f	0.07070958

Pair_score_mlp.fc_layers.0.bias f4 [64]
0	0x3d7d5488	0.061848193
1	0xbd526d21	-0.051373605
2	0xbe0ac9f1	-0.13553597
3	0xbdc8828d	-0.097905256
4	0x3e23d7fd	0.16000362
5	0x3e25802c	0.16162175
6	0xbdc4deea	-0.0961283
7	0xbdcd55ae	-0.10026108
8	0xbd85685e	-0.06514047
9	0xbdb7803f	-0.08960008
10	0x3e1ebbe5	0.15501364
11	0x3c58f30a	0.013241539
12	0x3d2b1806	0.041770957
13	0x3dda3af2	0.10655774
14	0xbd7f0610	-0.06226164
15	0x3d17be05	0.03704645
16	0x3e3f4522	0.18678716
17	0xbd8ef3bb	-0.06980082
18	0x3dd7bbee	0.105338916
19	0x3d8f755f	0.07004809
20	0xbda027f6	-0.07820122
21	0xbd016ec1	-0.031599764
22	0x3d9335ae	0.07187973
23	0xbd3ba224	-0.045808926
24	0x3dd3f525	0.10349492
25	0xbd320ec9	-0.04347113
26	0xbbdd336b	-0.0067505143
27	0x3dd96aef	0.10616099
28	0x3e2268f1	0.15860344
29	0xbd198e2a	-0.037489094
30	0xbda1c597	-0.078990154
31	0x3e1d8894	0.15384132
32	0x3da2895b	0.07936355
33	0xbe19b717	-0.1501125
34	0x3c3a3daf	0.011367246
35	0x3e6bc59a	0.23024598
36	0x3e2ecfe5	0.17071493
37	0x3e139c76	0.14415154
38	0xbdb614dd	-0.08890698
39	0xbd22a0d5	-0.039704163
40	0xbde054c1	-0.109536655
41	0x3dcb15dc	0.09916279
42	0xbe1fadb7	-0.1559361
43	0xbdf8ccf5	-0.121484675
44	0x38f57d13	0.00011705807
45	0x3e009439	0.12556542
46	0xbd2098b7	-0.03920814
47	0xbdc73175	-0.0972623
48	0xbd6a80b6	-0.057251655
49	0xbd8a436f	-0.06751143
50	0x3d29729d	0.04136907
51	0xbd97181c	-0.073776454
52	0xbd2f5fce	-0.042815976
53	0xbdeaf0db	-0.11471721
54	0xbd6dc4bc	-0.05804895
55	0x3e1087d0	0.14114308
56	0xbccc7f7d	-0.024963135
57	0x3de51565	0.11185721
58	0x3df7ffd4	0.12109342
59	0x3df24eea	0.11831458
60	0x3d9b10d3	0.07571568
61	0x3e2a6f6e	0.1664407
62	0x3dd452bd	0.103673436
63	0xbd904142	-0.07043697

Pair_score_mlp.fc_layers.1.weight f4 [8, 64]
0	0x3dd8c09f	0.105836146
1	0x3dfb6cc1	0.122766025
2	0x3e05c53d	0.13063522
3	0x3d86487a	0.065567926
4	0x3e50c1fe	0.20386502
5	0x3e1a5ce1	0.15074493
6	0x3d777d7b	0.060422402
7	0x3ddd846d	0.10816274
8	0x3e110ca5	0.1416498
9	0x3e19201e	0.14953658
10	0xbddeb00a	-0.108734205
11	0x3d002fb2	0.031295486
12	0x3cf9e3e4	0.030504175
13	0xbe1e078d	-0.15432568
14	0xbcc5e8fe	-0.02415895
15	0xbb89cc30	-0.0042052492
16	0x3dfe42f9	0.12415118
17	0x3c1c5857	0.009542546
18	0xbd1f0532	-0.038823314
19	0x3d5866d9	0.05283246
20	0x3e085306	0.13312921
21	0xbcbfcdda	-0.023413587
22	0x3dc75868	0.09733659
23	0x3c8af18d	0.016960884
24	0x3dd0473d	0.101698376
25	0x3e15d0b5	0.14630397
26	0x3e232376	0.15931496
27	0x3d536d7e	0.05161809
28	0xbd36e6be	-0.044653647
29	0xbd132801	-0.035926823
30	0x3de70313	0.11279883
31	0x3c5351f8	0.012897961
32	0x3cd6dd28	0.026228502
33	0x3de7164b	0.11283549
34	0x3de592a7	0.11209612
35	0x393b5447	0.00017865105
36	0x3e3b0cb0	0.18266559
37	0x3d219bca	0.039455213
38	0x3d2f8e4e	0.04286032
39	0x3dd4f85f	0.103989355
40	0xbd2c8d14	-0.04212673
41	0x3d2b0220	0.041750073
42	0xbcc27a61	-0.023739995
43	0x3da5713b	0.080782376
44	0xbe42af5b	-0.19012205
45	0x3dc8570a	0.097822264
46	0x3e15cd89	0.14629187
47	0x3dde5bbd	0.108573414
48	0xbdd83893	-0.10557666
49	0x3daa2b74	0.08309069
50	0xbdc91dd5	-0.09820143
51	0x3db117ce	0.086471185
52	0x3e76a422	0.24086049
53	0x3ca18cb1	0.019720407
54	0x3da7700d	0.08175669
55	0xbdafc5c2	-0.08582641
56	0x3d446f01	0.047957424
57	0xbdb1996d	-0.08671842
58	0xbd73dab0	-0.05953473
59	0x3dd2ff0d	0.10302553
60	0xbb7d84ef	-0.003868397
61	0x3da1cae8	0.079000294
62	0xbd8ac7e8	-0.0677641
63	0x3e342c39	0.17594995
64	0xbddecc7f	-0.10878848
65	0x3ddcefb0	0.10787904
66	0xbdf28133	-0.11841049
67	0xbe0d44d7	-0.13795792
68	0xbdde96d4	-0.10868612
69	0xbd6ce26f	-0.05783313
70	0xbcba6a1c	-0.022755675
71	0xbd96d254	-0.07364336
72	0xbd8a4df9	-0.06753153
73	0x3ceba045	0.028762946
74	0xbe37f475	-0.17964347
75	0x3beac6eb	0.007164826
76	0xbe3a1cbb	-0.18175022
77	0x3e3d7e16	0.18505129
78	0xbe3a8e15	-0.18218262
79	0xbe30ae47	-0.17253982
80	0xbbb15a8f	-0.0054124068
81	0x3d374510	0.044743598
82	0xbd782854	-0.060585335
83	0x3ccfee6e	0.025382247
84	0xbe077cb9	-0.13231172
85	0xbded37c9	-0.11582906
86	0xbd4ceee6	-0.05003252
87	0x3d90e5fc	0.07075116
88	0xbdaa5f5c	-0.083189696
89	0xbdd9ca11	-0.10634244
90	0x3df16abb	0.11787935
91	0xbce42d51	-0.02785364
92	0xbdc8a2e7	-0.09796696
93	0x3da48c40	0.08034563
94	0x3de6e0ad	0.11273322
95	0xbc39a257	-0.011330209
96	0xbd82312e	-0.063570365
97	0xbe0364c2	-0.12831405
98	0x3d66f512	0.05638606
99	0x3de375d3	0.111064576
100	0xbdc834ad	-0.09775672
101	0x3d918326	0.07105093
102	0x3d310be4	0.04322423
103	0x3d5a9a72	0.053369947
104	0xbddc6859	-0.1076209
105	0xbd1de2b1	-0.038546268
106	0xbd920b97	-0.07131117
107	0xbdee1de7	-0.11626797
108	0x3e44dfcc	0.19225997
109	0x3e05e3c7	0.13075171
110	0xbdb35c2b	-0.08757814
111	0xbda0fe67	-0.078610234
112	0x3d239ab1	0.039942447
113	0xbdfb5e59	-0.12273855
114	0x3de5baf5	0.112173
115	0xbddfd224	-0.10928753
116	0xbb51705c	-0.003195784
117	0xbe18f9d4	-0.14939052
118	0xbe0ebe09	-0.1393968
119	0x3e5a01b1	0.21289708
120	0x3cf0f45a	0.02941339
121	0xbddc0c61	-0.107445486
122	0xbd1f161b	-0.03883944
123	0xbd81505b	-0.06314155
124	0x3e247469	0.16060032
125	0x3db68549	0.08912141
126	0x3d648ea0	0.05580008
127	0x3d67f8e5	0.05663385
128	0x3daf99ac	0.085742325
129	0x3de20cd7	0.11037605
130	0x3e66910e	0.22516271
131	0x3e2a46ee	0.1662862
132	0x3d1ce2ab	0.038302105
133	0x3d945220	0.072422266
134	0x3e44bdc2	0.19213012
135	0x3c4bdc44	0.012442652
136	0x3e3d8594	0.18507987
137	0x3d25ee33	0.040510368
138	0x3db4e084	0.088318855
139	0xbc34ed6c	-0.011042934
140	0xbcd34302	-0.025788788
141	0xbe5e6347	-0.21717559
142	0x3d7d5621	0.061849717
143	0x3d8444c5	0.06458429
144	0x3e821772	0.25408512
145	0x3e1bf6cd	0.15230866
146	0x3e03d562	0.12874368
147	0x3d1277aa	0.03575865
148	0x3dd3279d	0.1031029
149	0xbd470a48	-0.04859379
150	0x3df2cf27	0.118559174
151	0x3d8c44e5	0.06849078
152	0x3d49d52b	0.04927556
153	0x3d4190b2	0.047257133
154	0x3df129ec	0.11775574
155	0x3e6bdfba	0.23034564
156	0xbc113723	-0.008863243
157	0x3e0b4a81	0.1360264
158	0x3d899d02	0.067194
159	0x3e52318f	0.20526718
160	0x3dccca1b	0.09999486
161	0x3cbdadfe	0.023154255
162	0x3ddaf75a	0.1069171
163	0xbcf06be1	-0.029348316
164	0x3e3332cb	0.17499845
165	0x3bb6b506	0.005575779
166	0xbe0c6c0c	-0.13713092
167	0x3e22bf50	0.15893292
168	0xbd7d478f	-0.06183582
169	0x3dcf1651	0.101116784
170	0x3de8a01c	0.113586634
171	0x3e20d979	0.15707959
172	0xbd929bf6	-0.071586534
173	0x3e09f7cb	0.13473432
174	0x3dc4c7d1	0.096084245
175	0xbc81e197	-0.01585464
176	0x3e1667fe	0.14688107
177	0xbd158436	-0.03650304
178	0x3e28d169	0.16486134
179	0xbcae5ce7	-0.021284534
180	0x3d8b0de8	0.06789762
181	0xbdcacb43	-0.0990205
182	0x3d9f44ac	0.0777677
183	0xbc71692b	-0.014734547
184	0xbd1e0c29	-0.038585816
185	0x3ca64e62	0.020301048
186	0x3dc3d4fb	0.09562107
187	0x3e63c7a5	0.22244127
188	0x3dd8a6ab	0.105786644
189	0x3c46a61c	0.0121245645
190	0x3dca0b0d	0.09865389
191	0x3e89dba9	0.269254
192	0xbd3ffcb7	-0.046871867
193	0x3d9cca37	0.07655757
194	0x3d72fe55	0.05932458
195	0x3b7c7016	0.0038518957
196	0x3c86f353	0.016473448
197	0xbdd6d292	-0.10489382
198	0x3c1f0ad9	0.009707176
199	0x3c91771c	0.017756991
200	0xbe1c86c0	-0.15285778
201	0xbbc14220	-0.0058977753
202	0x3d8bf78d	0.06834326
203	0x3d0613d9	0.032733772
204	0xbcc55447	-0.024088038
205	0x3dc56c89	0.09639842
206	0xbdeae2f4	-0.11469069
207	0xbe1387c3	-0.14407258
208	0xbd633c0c	-0.055477187
209	0xbdbcc3e2	-0.09217049
210	0x3bfefec4	0.0077818353
211	0xbd5c3cb2	-0.05376882
212	0xbd9256f8	-0.07145494
213	0xbc3bcd87	-0.011462576
214	0x3d7cdb81	0.061732773
215	0x3dac8540	0.08423853
216	0x3e017da5	0.12645586
217	0x3b1182db	0.002220324
218	0xbd156aa5	-0.036478657
219	0x3e01f145	0.12689693
220	0xbd6bb5e6	-0.05754652
221	0x3d825896	0.06364553
222	0x3d87aa74	0.06624308
223	0xbda33389	-0.07968814
224	0xbd43cda6	-0.047803544
225	0xbdc5ee3e	-0.09664582
226	0xbca82b68	-0.02052851
227	0xbc5bee58	-0.013423525
228	0x3e1b2236	0.15149769
229	0xbe2d252c	-0.16908711
230	0xbbc6ad09	-0.006063108
231	0x3cad5862	0.021160308
232	0x3ada414e	0.0016651542
233	0x3d95b763	0.07310369
234	0xbdad30e6	-0.08456592
235	0x3d36612d	0.044526268
236	0xbcdfa091	-0.027298244
237	0xbde545b9	-0.11194939
238	0xbe03dcb8	-0.12877166
239	0xbd97afec	-0.07406601
240	0x3dceffc0	0.10107374
241	0xbe18101b	-0.14849894
242	0xbc09ebbe	-0.008418022
243	0xbdbfb872	-0.09361352
244	0x3d6715e4	0.05641736
245	0xbdddf1b3	-0.10837116
246	0x3af79fa3	0.001889218
247	0x3e179736	0.14803776
248	0xbdc95722	-0.098310724
249	0x3cd63e04	0.026152618
250	0x3ddd1367	0.10794716
251	0x3dbd7b7c	0.092520684
252	0xbd558262	-0.052126296
253	0xbde26243	-0.11053898
254	0x3d3d9c40	0.04629159
255	0x3c945216	0.018105548

Pair_score_mlp.fc_layers.1.bias f4 [8]
0	0xbac99075	-0.0015378135
1	0x3dd2e806	0.10298161
2	0xbdb3a82d	-0.08772311
3	0x3d89d60a	0.06730278
4	0x3e0ca684	0.13735396
5	0x3df09314	0.11746803
6	0xbd77fff1	-0.06054682
7	0xbd7ed6ec	-0.062216684

CNN_embedding_types.weight f4 [106, 16]
0	0x3e143153	0.1447194
1	0xbf4692f5	-0.7756799
2	0xbefccff1	-0.49377397
3	0x3f73deb2	0.9526168
4	0xbed09b39	-0.40743425
5	0xbc5a8c02	-0.0133390445
6	0x3fe274eb	1.769193
7	0xc039a005	-2.9003918
8	0x3dfc5115	0.12320153
9	0xbf5da16c	-0.86574435
10	0xbf08f5e7	-0.5350022
11	0x3f89da9c	1.0769839
12	0x3ef88eef	0.4854655
13	0x3eca84ba	0.39554387
14	0x3f3c5e1c	0.735811
15	0xbf441104	-0.76588464
16	0xbd081c46	-0.03323009
17	0xbff69467	-1.9264039
18	0x3f2a366a	0.6648928
19	0xbf3b0b97	-0.7306456
20	0x3eea6946	0.45783442
21	0xbf271944	-0.6527293
22	0x3ed42d18	0.41440654
23	0xbe81a860	-0.25323772
24	0xbd1e84ea	-0.038700975
25	0xbf678b1c	-0.9044664
26	0xbfad792f	-1.3552607
27	0x3ef2b3dd	0.4740285
28	0x3f82d8ea	1.0222447
29	0x3eda8399	0.42678526
30	0xbeb908dc	-0.36139572
31	0xbe020d0c	-0.1270029
32	0xbf0ebd64	-0.5575774
33	0x3fd58d45	1.6683737
34	0x3f1fd949	0.62440926
35	0xbebd701e	-0.369996
36	0xbc9e5695	-0.019328395
37	0x3f8b485b	1.0881456
38	0x3ee14e57	0.4400508
39	0xbf8490a3	-1.035664
40	0x40071326	2.1105437
41	0xbfc67729	-1.5505115
42	0xbf88e723	-1.0695537
43	0x3f160fc1	0.5861779
44	0xbd8b8fc4	-0.068145305
45	0x3de1a1bd	0.11017177
46	0xbf021388	-0.5081105
47	0x3fa2344a	1.2672207
48	0xbe9b3a95	-0.30318132
49	0xbf1b255d	-0.60603887
50	0xbe9f647e	-0.31131357
51	0x3d8fa0bc	0.070130795
52	0xbee7fe52	-0.45311219
53	0x4005d9f4	2.0914278
54	0xbd9ca96f	-0.076495044
55	0x3f9f61a3	1.2451671
56	0xbfae8ee5	-1.3637358
57	0xbf44ee9f	-0.76926607
58	0x3eaa21da	0.33228952
59	0x3f9221ae	1.1416528
60	0x3dc3b5d6	0.09556167
61	0xc00868ec	-2.131404
62	0x3f0c59e1	0.54824644
63	0x3f6fa283	0.9360735
64	0x3ff43fa4	1.9081922
65	0x3f762790	0.9615412
66	0x3f0d9f19	0.5532089
67	0x3f719704	0.94371057
68	0x3eaed50b	0.34146914
69	0xbd13fef5	-0.036131818
70	0x3fbfbb4d	1.4979035
71	0xbf46f262	-0.77713597
72	0x3f48d184	0.78444695
73	0xbd3a7e52	-0.045530625
74	0xbe26cc1d	-0.162888
75	0x3fab587c	1.3386378
76	0xbe26b621	-0.16280414
77	0xbe8393cb	-0.25698695
78	0x3d5617c7	0.05226877
79	0xbec7f693	-0.3905531
80	0x3e6be23b	0.23035519
81	0x3e889b18	0.26680827
82	0x3f8c904b	1.0981535
83	0xbf9f969d	-1.2467839
84	0xbf75929b	-0.9592683
85	0xbfe7475a	-1.806865
86	0x3c3a7b61	0.011381955
87	0xbde1e0c8	-0.11029202
88	0xbfa0bd6f	-1.255781
89	0x3f22858c	0.63485026
90	0x3e9e4d58	0.30918384
91	0x4036a2cd	2.8536866
92	0xbf9b7244	-1.2144246
93	0xbe5b1362	-0.21394113
94	0xbf06df26	-0.5268425
95	0x3e32fbf1	0.1747892
96	0x3f04b884	0.5184405
97	0xbec1d558	-0.3785808
98	0xbe66dbef	-0.22544836
99	0xbfc867aa	-1.5656636
100	0x3ef471e5	0.47743145
101	0xbf87e3ac	-1.0616355
102	0x3fe3cc19	1.7796661
103	0xbf0c7875	-0.548713
104	0x3ead86fe	0.33892053
105	0x3f473768	0.7781892
106	0x3bf7464e	0.007546223
107	0xbf157163	-0.5837614
108	0xbf6a5174	-0.9153054
109	0xbd578b67	-0.05262318
110	0x3fe4cf7a	1.7875817
111	0x3f936483	1.1515049
112	0x3dc723f1	0.09723652
113	0x3fcc4b39	1.5960456
114	0xbf1aa9bf	-0.6041526
115	0x3fb474a8	1.4098101
116	0x3df1c573	0.118052386
117	0x3f343ad3	0.7040226
118	0xbf0995c7	-0.5374417
119	0xbf3c7644	-0.7361796
120	0x3f0c0f17	0.54710525
121	0x3ff3d81d	1.9050328
122	0x3dcfe4e3	0.101510786
123	0x3ee6eae4	0.45101082
124	0x3ecd01d9	0.40040472
125	0xbf7faafa	-0.99870265
126	0x3e1b37cd	0.15158005
127	0xbf2177da	-0.63073504
128	0x403688c8	2.8520985
129	0xbdf34c03	-0.118797325
130	0x3ec510d2	0.38489395
131	0x3f79ebe5	0.9762557
132	0xbfac02aa	-1.3438313
133	0xbf558af8	-0.83415174
134	0xbe0659bd	-0.1312017
135	0xbdc276ec	-0.09495339
136	0xbe38437d	-0.17994495
137	0xbf8e5a3e	-1.112129
138	0x3eea8aed	0.45809117
139	0xbe5fadad	-0.21843596
140	0x3f0e5786	0.556023
141	0xbddfd709	-0.109296866
142	0x3fffb5b1	1.9977323
143	0x3e0392d2	0.12848976
144	0x3ce000f2	0.0273442
145	0x3e1ae42a	0.151261
146	0xbf544816	-0.82922494
147	0x40019540	2.0247345
148	0x3e7986c2	0.24367812
149	0x3d9a232a	0.07526238
150	0xbe90502d	-0.2818617
151	0x3d9bbbb9	0.07604165
152	0x3ed073a6	0.40713233
153	0xbe818f61	-0.25304702
154	0x3ecfde06	0.40599078
155	0x3f458049	0.7714887
156	0xbe6ce5ed	-0.23134585
157	0xbf8da606	-1.1066291
158	0x3d94100a	0.07229622
159	0xbf5dfcf0	-0.86714077
160	0xbf96c587	-1.177903
161	0x3f0ada34	0.542392
162	0xbe4d9245	-0.20075329
163	0xbf1895c9	-0.59603554
164	0x3eebd2f4	0.46059382
165	0x3f9dec36	1.2337711
166	0x3e9e5150	0.30921412
167	0x3f1b11fe	0.6057433
168	0x3f197376	0.59941804
169	0xbe9c0720	-0.30474186
170	0xbe9d517f	-0.3072624
171	0x3fd23489	1.6422282
172	0x3f858ae1	1.0433007
173	0xbfbde604	-1.483582
174	0x3f24b4c4	0.64338326
175	0x3fe5efd2	1.7963812
176	0x3cb3298e	0.0218704
177	0xbff36684	-1.901566
178	0xbde56c09	-0.11202247
179	0x3ebad3be	0.3648967
180	0xbfa6ff38	-1.3046637
181	0xbcca3a27	-0.024685932
182	0xbfa71c1a	-1.3055451
183	0xbe68b2f2	-0.22724512
184	0xbdd9c63b	-0.106335126
185	0xbf8c0395	-1.0938593
186	0xbe9247ec	-0.28570497
187	0x3fdb393d	1.7126843
188	0x3fa2bfe4	1.271481
189	0x3f81c583	1.0138401
190	0xbf3d8a2c	-0.7403896
191	0x3e842a79	0.25813654
192	0xbf6792d0	-0.90458393
193	0x40139f18	2.3065853
194	0xbf4b71e9	-0.7947069
195	0x3fdfe3a3	1.7491344
196	0xbda67cba	-0.081292585
197	0xbe3c7c84	-0.18406874
198	0xbf97356d	-1.1813179
199	0x3edd486d	0.4321932
200	0x3fa39ae2	1.2781641
201	0xbf454978	-0.7706523
202	0x3fdc8158	1.7226973
203	0xbe623e3e	-0.22094056
204	0x3f5c5ff8	0.86083937
205	0x3fe8b0fe	1.8179014
206	0x3f2f085f	0.6837215
207	0xbe85506e	-0.26037925
208	0x3ff4f6a8	1.9137774
209	0x3f9281ef	1.1445903
210	0x3fb148d3	1.3850349
211	0xbf936218	-1.1514311
212	0x3e027123	0.1273847
213	0x3f5d3f7b	0.8642499
214	0x3f582913	0.84437674
215	0xbfcc8846	-1.5979087
216	0x3f74a36a	0.9556185
217	0xbfb268b9	-1.3938209
218	0x3d7e879c	0.062141046
219	0xbf82d488	-1.0221109
220	0xbf0c1b52	-0.5472919
221	0x3f8c52bd	1.096275
222	0x3dfd9b7e	0.123831734
223	0x3ecc0790	0.3984952
224	0x3ca85c6c	0.020551883
225	0xbf898aa3	-1.0745434
226	0x3d88e188	0.06683642
227	0x402fd6e4	2.747491
228	0x4056b327	3.3546846
229	0x3fdb1a46	1.7117393
230	0xbfabaf7d	-1.341293
231	0xbe4a3bbc	-0.1974935
232	0xbf7a3799	-0.97741085
233	0x3d482d3e	0.04887127
234	0xbf59f5c2	-0.8514062
235	0xbf19c3b8	-0.6006427
236	0xbf6c296d	-0.9225071
237	0x3e11b1f2	0.14228037
238	0xbefeb176	-0.49744767
239	0xbea50f44	-0.3223821
240	0xbfee9f3f	-1.8642348
241	0x3edbc8db	0.42926678
242	0x3f1d58b0	0.6146345
243	0x3e3b6dba	0.18303576
244	0x3dcac399	0.099005885
245	0xbf0b41ec	-0.54397464
246	0x3f441052	0.765874
247	0xbfb0ceb6	-1.3813083
248	0x3e8548c5	0.2603208
249	0x3f29adce	0.6628083
250	0x3f3a5eae	0.7280072
251	0x3f15f030	0.5856962
252	0x3e7402d4	0.23829204
253	0x3ca9cb5b	0.02072685
254	0xbf4f0017	-0.8085951
255	0x3f5b8c50	0.85760975

embedding_CNN_distances.weight f4 [7, 8]
0	0x3f852bd7	1.0404004
1	0xbf93219e	-1.1494634
2	0x3e47355f	0.19453953
3	0x3eb8f470	0.3612399
4	0x3f7047f6	0.93859804
5	0xbf077fe4	-0.5292952
6	0x3f3c0bff	0.73455805
7	0x3f9e53ea	1.2369359
8	0xbf376e84	-0.7165301
9	0x3f371b02	0.71525586
10	0xc0375eba	-2.8651567
11	0xbe6e646e	-0.23280498
12	0xbf810d7c	-1.008224
13	0xc00d67ac	-2.2094526
14	0xbf82a058	-1.0205183
15	0x3d7f3f05	0.06231596
16	0x3e840553	0.25785312
17	0xbf95503b	-1.1665109
18	0x3d0217b9	0.031760905
19	0xbec3dcdd	-0.38254443
20	0x3f9d89b6	1.2307651
21	0x3f632776	0.8873209
22	0x3ff551c1	1.9165574
23	0x3ecfaf5b	0.40563473
24	0xbdf3052d	-0.118662216
25	0x3ebe863e	0.37211794
26	0x3f0b1e34	0.5434296
27	0xbfe030d5	-1.7514902
28	0x3f700d69	0.9377046
29	0xbf45e1cb	-0.7729766
30	0x3ed6127d	0.4181098
31	0xbf016102	-0.5053865
32	0xbf8cb613	-1.0993065
33	0xbe30e837	-0.17276083
34	0x3f1ef311	0.6208964
35	0x3fc64731	1.5490476
36	0x3e0afd81	0.13573267
37	0xbf376b59	-0.71648175
38	0x3e6b4713	0.22976331
39	0x3ebb073d	0.3652896
40	0x3dbd6c30	0.09249151
41	0xbed2eb34	-0.4119507
42	0xbe516ce7	-0.20451699
43	0x3fab4829	1.3381397
44	0x3ebb8c75	0.36630598
45	0xbf69c5a6	-0.9131721
46	0xbf361b36	-0.7113527
47	0x3f89c8f2	1.0764449
48	0x00000000	0.0
49	0x00000000	0.0
50	0x00000000	0.0
51	0x00000000	0.0
52	0x00000000	0.0
53	0x00000000	0.0
54	0x00000000	0.0
55	0x00000000	0.0

embedding_CNN_prices.weight f4 [6, 5]
0	0x3ff2cbe1	1.8968469
1	0x3fb12de2	1.3842127
2	0xbfa2e25c	-1.2725329
3	0xbfdcf856	-1.7263286
4	0xbf80f29e	-1.0074041
5	0xbee3ea78	-0.44514823
6	0x3f8e78d1	1.113062
7	0x3ff8e006	1.9443367
8	0x3eb20298	0.34767604
9	0xbe7c77b6	-0.24655041
10	0x400b6383	2.1779487
11	0xbf0f1083	-0.5588457
12	0xbfcd8a76	-1.605788
13	0xbf343e71	-0.7040778
14	0xbf93eafc	-1.1556087
15	0xbf997640	-1.1989212
16	0x3febbb34	1.8416505
17	0xbea57d78	-0.32322288
18	0xbfb52afa	-1.415374
19	0xbf5722b1	-0.8403731
20	0xbf1dfa3d	-0.6170996
21	0x3ea163d0	0.31521463
22	0x3d1dc8ae	0.03852146
23	0xbf470dbc	-0.7775533
24	0x3f6d468d	0.92685777
25	0x00000000	0.0
26	0x00000000	0.0
27	0x00000000	0.0
28	0x00000000	0.0
29	0x00000000	0.0
