checkpoints/GNNNoCNN_Epoch84_valmse2.1366_testmse2.2632_ndcg0.9344.model (torch, 249600 bytes, 52 tensors)

Pair_embedding_types.weight f4 [106, 16]
0	0x3c9cb3a8	0.019128636
1	0xbdc92bcf	-0.09822809
2	0xbed10a78	-0.408283
3	0xbf5eb2af	-0.869914
4	0x3f611b9b	0.8793275
5	0xbec0326f	-0.37538478
6	0x3e05973a	0.1304597
7	0xbfa9f5db	-1.3278154
8	0x3e0f02ae	0.13965866
9	0x3b99ee8a	0.0046976255
10	0xbf9fad4d	-1.2474762
11	0x3f0a3fcb	0.5400359
12	0xbfcd0877	-1.6018208
13	0x3ebebdd9	0.37254217
14	0x3e99c11f	0.30030152
15	0x3f37d0c4	0.71802926
16	0x3ef40045	0.47656456
17	0xbf95b3b2	-1.1695464
18	0x3ff6afd0	1.9272404
19	0xbed1f8ac	-0.41010034
20	0xbe8370ee	-0.25672096
21	0x3e436823	0.19082694
22	0xbf128b38	-0.5724368
23	0x3f2e12a9	0.67997223
24	0xbf83d8e6	-1.0300567
25	0x3d292728	0.041297108
26	0xbf08123f	-0.5315284
27	0x4054240b	3.3147
28	0xbf4bae3a	-0.79562724
29	0xbf15d0ed	-0.5852192
30	0xbf8ecdc4	-1.1156545
31	0x3f81ba3b	1.0134958
32	0x3fdacc41	1.7093583
33	0x40133ee4	2.3007135
34	0xbf83af6f	-1.0287913
35	0x3e1973b1	0.14985539
36	0x3f60bc9b	0.8778779
37	0xbfacb757	-1.3493451
38	0xbf911ede	-1.1337545
39	0x3d96eda2	0.073695436
40	0x3f1ff495	0.6248258
41	0x3dfe454f	0.12415563
42	0x3f819d4c	1.0126128
43	0x3dca0261	0.09863735
44	0xbf72e8d8	-0.9488654
45	0x3da54068	0.08068925
46	0x3f8f4f49	1.1196071
47	0xbdd71c33	-0.105034254
48	0xbf29aa2c	-0.66275287
49	0x3f96200f	1.1728534
50	0xbec9ecc3	-0.39438447
51	0xbf940fe9	-1.1567355
52	0xbfd76419	-1.6827422
53	0x3f5a46d4	0.85264325
54	0xc0005e98	-2.0057735
55	0x3c1bd0ab	0.0095102
56	0x3b7c86a5	0.0038532403
57	0x3f88515e	1.0649831
58	0xbfaa1f57	-1.3290814
59	0x3fa37618	1.2770414
60	0x3cfd54c2	0.030924205
61	0x3f7b0fa5	0.98070747
62	0x3f96f697	1.1794003
63	0x3d262641	0.040563826
64	0xbdb1bac4	-0.08678201
65	0x3e37b58a	0.17940345
66	0x3f538e39	0.8263889
67	0xbfd42468	-1.657361
68	0x4007da7e	2.1227107
69	0xbf8a6ae5	-1.0813872
70	0x3e37c8f7	0.17947756
71	0xbfaa2d1e	-1.3295019
72	0xbeae7a2d	-0.34077588
73	0x3e18ed9e	0.14934394
74	0x3e2ca797	0.16860805
75	0x3f6b1fdb	0.9184548
76	0x3ec152d2	0.377585
77	0xbe071e09	-0.13195051
78	0x3e583f26	0.21117839
79	0x3e5b122c	0.21393651
80	0xbe93af28	-0.2884457
81	0x3e2603a5	0.16212328
82	0x3e947f06	0.2900316
83	0x3f8780f0	1.0586224
84	0xbebaa772	-0.36455876
85	0xbf9770dd	-1.1831318
86	0xbe31e083	-0.173708
87	0xbebf3ad3	-0.37349567
88	0x3f293c35	0.66107494
89	0x3fc71829	1.5554248
90	0xbf3c0504	-0.73445153
91	0xbf4cfa7d	-0.80069715
92	0xbf5e41f8	-0.8681941
93	0x3f2049b1	0.62612444
94	0x3f616ccb	0.8805663
95	0x3fc0ffd4	1.5078073
96	0xbfb24a90	-1.3929005
97	0x3e39d855	0.1814893
98	0x3fe6a7f6	1.8020008
99	0x3e1c5443	0.15266518
100	0x3f36167f	0.71128076
101	0x3e4a9e9f	0.19787072
102	0xbf6bb356	-0.9207052
103	0x400aa980	2.1665955
104	0xbf8c31b1	-1.0952665
105	0x3f9f7dde	1.2460287
106	0x3e473d53	0.19456987
107	0xbf79bcd8	-0.9755378
108	0xbeeffc43	-0.46872148
109	0x3e84a297	0.25905296
110	0xbeee5a06	-0.46553057
111	0xb952f0a1	-0.00020116802
112	0x3f37457f	0.7159042
113	0x3fc5240b	1.5401624
114	0x3e7eaef3	0.24871425
115	0xbec14313	-0.37746486
116	0xbf332272	-0.69974434
117	0x3e5055b3	0.20345192
118	0xbea06b22	-0.31331736
119	0xbe36f9ed	-0.17868777
120	0x3f8f4c1b	1.11951
121	0xc0270820	-2.609871
122	0x3e8b82a1	0.272481
123	0xbe8f8be4	-0.28036416
124	0xbdfae873	-0.122513674
125	0xbfbde9dd	-1.4836994
126	0xbdd30aef	-0.1030482
127	0x3d3958d4	0.04525073
128	0x3ea10046	0.3144552
129	0x3fc9bc08	1.5760508
130	0x3ebe744f	0.3719811
131	0x3f6d0cb4	0.9259751
132	0xbe71b552	-0.23604324
133	0x3f90766d	1.1286141
134	0xbf9f0ad4	-1.242518
135	0x3f218a04	0.6310122
136	0x3e71d4cb	0.2361633
137	0xbf80dd35	-1.0067507
138	0x3fb8af60	1.442852
139	0xbf06778c	-0.52526164
140	0xbd3fb85c	-0.04680668
141	0x3fa5b570	1.2945995
142	0xbd3dcc35	-0.046337325
143	0x3eb31b36	0.34981698
144	0x3f72d318	0.94853354
145	0x3dd376b1	0.10325373
146	0x3ed5246a	0.41629344
147	0xbf80f740	-1.0075455
148	0xbecf7cf4	-0.4052502
149	0x3f73bd1e	0.95210445
150	0x3ecd13c2	0.40054137
151	0xbf1d8ee9	-0.6154619
152	0x3f2077e6	0.6268295
153	0xbd36c30b	-0.0446196
154	0x401059b2	2.2554746
155	0x3fbb4f4e	1.4633577
156	0x3fbd41ea	1.478574
157	0x3e0dc266	0.13843688
158	0x3ed9b8e3	0.4252387
159	0xbe96aad0	-0.29427195
160	0xbd65359d	-0.055959333
161	0xbde5225f	-0.111881964
162	0x3e207db0	0.15672946
163	0x3e933e80	0.2875862
164	0xbf88d866	-1.069104
165	0xbf3e7dd9	-0.7441078
166	0x3f978565	1.1837584
167	0x3f852869	1.0402957
168	0xbfba13b5	-1.4537264
169	0x3f3c5dfc	0.7358091
170	0xbe446eff	-0.19182967
171	0x3fac4714	1.3459191
172	0x3fb4f730	1.4137936
173	0x3d495523	0.04915346
174	0x3ea3e6fc	0.32012165
175	0x3eca5a51	0.3952203
176	0xbf9a5603	-1.2057499
177	0xbf1fc366	-0.6240753
178	0xbe0a4b1b	-0.13505213
179	0x3f663a98	0.89933157
180	0xbe75ab0c	-0.2399103
181	0xbfa01dd5	-1.2509104
182	0x3f4a102b	0.7893092
183	0x3f2672f3	0.6501915
184	0x3ea52f2a	0.32262546
185	0x3f50798e	0.8143548
186	0x3ffdbab5	1.9822603
187	0x3e5785f7	0.21047197
188	0x3d2d2328	0.042269856
189	0x3fb9da7e	1.4519804
190	0xbe8ca64d	-0.27470627
191	0x3e783df1	0.24242379
192	0x3edffb8c	0.43746603
193	0xbfca73f5	-1.5816637
194	0x3e18b333	0.14912109
195	0xbe9d5b25	-0.307336
196	0x3fdb2668	1.7121096
197	0xbf89546b	-1.0728887
198	0x3f074a75	0.5284799
199	0x3fc3515c	1.5259204
200	0xbe1dbb9c	-0.15403599
201	0xbfc049e9	-1.5022556
202	0xbf3df052	-0.74194825
203	0x3f105631	0.5638152
204	0x3f636286	0.8882221
205	0x3e55eb2e	0.20890495
206	0x3dc0b688	0.09409815
207	0x3eaf8b36	0.34285897
208	0xbf41f610	-0.75766087
209	0x3fd3cb82	1.6546481
210	0xbeca7a3c	-0.39546382
211	0x400c7b8b	2.1950405
212	0x3fa40af8	1.2815847
213	0x3ed4a24f	0.41530082
214	0xbfa7d465	-1.3111693
215	0x3e9f66ce	0.3113312
216	0xbed65311	-0.4186025
217	0x3e66a0c3	0.22522263
218	0xbf221272	-0.63309395
219	0x3f127db7	0.57223076
220	0xbfa3e26c	-1.2803473
221	0x40515f7b	3.2714527
222	0x40036173	2.0528228
223	0xc005f652	-2.0931592
224	0xbf64ddbe	-0.8940085
225	0xbdd2f84a	-0.10301264
226	0xc014b256	-2.3233848
227	0x3faea706	1.3644722
228	0xbf8578cc	-1.0427489
229	0xbeb39560	-0.35074902
230	0x3ec8c44d	0.39212266
231	0xbf7bba52	-0.9833118
232	0xbee05155	-0.4381205
233	0xbf26a51c	-0.65095687
234	0xbf42de07	-0.76120037
235	0x3eb7279e	0.35772413
236	0xbfac01bd	-1.343803
237	0xbf66d747	-0.9017224
238	0xbeca29f8	-0.39485145
239	0xbfc3bd0b	-1.5292066
240	0xbf8b7ddd	-1.0897785
241	0x3ee2b3f7	0.44277927
242	0xbfc99c18	-1.5750761
243	0x3d0c2b97	0.034221258
244	0x3eb96a13	0.3621374
245	0x3fb8902a	1.4418995
246	0x3f66bfee	0.9013661
247	0xbfaccfc5	-1.3500906
248	0x3f71dbbc	0.94475913
249	0xbf909faf	-1.1298732
250	0xbe9e63b6	-0.30935448
251	0xbe903f70	-0.281734
252	0x3fd465dd	1.6593586
253	0xbeebcaf6	-0.46053284
254	0xc000d49c	-2.0129766
255	0x3e1c4cd3	0.15263681

embedding_Pair_distances.weight f4 [7, 8]
0	0x3f02acbb	0.51044816
1	0xbf559c3d	-0.83441526
2	0x3f6fef1b	0.9372422
3	0x403f37ad	2.9877732
4	0x3f2ed29d	0.6829012
5	0x3fb501c5	1.4141165
6	0xbeb3ae60	-0.35093975
7	0x3e9c1134	0.30481875
8	0x40014201	2.0196536
9	0x400e7fce	2.2265506
10	0x3f542348	0.82866335
11	0xbdd036bd	-0.101666905
12	0x3fbe29b5	1.4856478
13	0xbf7386fc	-0.95127845
14	0x3fcc2f97	1.5952023
15	0x402428a1	2.5649798
16	0xbf36d351	-0.71416193
17	0xbf623070	-0.8835516
18	0xbf7bcef8	-0.98362684
19	0xbdb9798e	-0.09056388
20	0xbfb49326	-1.4107406
21	0xbf04cc8d	-0.5187462
22	0x3de94306	0.11389737
23	0xbfc95e26	-1.5731857
24	0xbec9b18d	-0.39393273
25	0x3ec9e30e	0.3943104
26	0xbff380ff	-1.9023741
27	0xbe492ee9	-0.19646801
28	0xc0064a07	-2.0982683
29	0xbff25abb	-1.8933939
30	0xbf78b601	-0.97152716
31	0xbefb3562	-0.49064165
32	0x3f84610d	1.0342118
33	0x3f996892	1.1985037
34	0xbecc774f	-0.39934775
35	0xc004c0a3	-2.0742576
36	0xbfa86ca0	-1.315815
37	0xbe274403	-0.16334538
38	0xbf2a97cb	-0.6663787
39	0xbf90d4ac	-1.1314902
40	0xbd9e813b	-0.077394925
41	0x3ed701c0	0.41993523
42	0xbf09f8b7	-0.53895134
43	0x3e3216c0	0.17391491
44	0xbfb2ab5a	-1.3958542
45	0xbf4c133a	-0.7971684
46	0xbfd4d201	-1.6626588
47	0xbf0f005b	-0.5585992
48	0x00000000	0.0
49	0x00000000	0.0
50	0x00000000	0.0
51	0x00000000	0.0
52	0x00000000	0.0
53	0x00000000	0.0
54	0x00000000	0.0
55	0x00000000	0.0

embedding_Pair_prices.weight f4 [6, 5]
0	0x3e08cee6	0.13360175
1	0x3efddbcc	0.49581754
2	0x3ee9078d	0.45513573
3	0xbea783c8	-0.3271773
4	0x3f9dd91e	1.2331884
5	0x3f534cf7	0.82539314
6	0xbc80ab43	-0.015706664
7	0x3f5b6d48	0.85713625
8	0x3f4575a5	0.77132636
9	0x3f441ff9	0.76611286
10	0xbe13e9da	-0.14444676
11	0xbf1c31d6	-0.61013544
12	0xbf248bef	-0.6427602
13	0x400c5c7b	2.1931446
14	0xbf4a0b0c	-0.78923106
15	0xbf9f596b	-1.2449163
16	0xc002a260	-2.0411606
17	0xbefe7e58	-0.49705768
18	0x3e40eca0	0.18840265
19	0x40013fb2	2.0195127
20	0xbd702dbb	-0.058637362
21	0xbfbc55cc	-1.4713683
22	0xbde0aa7f	-0.109700195
23	0x3f84b68b	1.0368208
24	0xbd9e47b2	-0.077285185
25	0x00000000	0.0
26	0x00000000	0.0
27	0x00000000	0.0
28	0x00000000	0.0
29	0x00000000	0.0

Pair_shop_mlp.fc_layers.0.weight f4 [64, 32]
0	0x3cf1f7e0	0.029537141
1	0xbd8b6feb	-0.06808456
2	0x3e2a07b7	0.16604505
3	0x3e4e9012	0.20172146
4	0xbe865f64	-0.26244652
5	0x3d6bafb4	0.05754061
6	0x3dd9e5b8	0.106395185
7	0xbe065209	-0.13117231
8	0x3d2c7a8d	0.04210906
9	0x3e44b00c	0.19207782
10	0xbe1d1ea1	-0.15343715
11	0x3cf294f4	0.029612042
12	0xbddd4f4a	-0.10806139
13	0xbe59646a	-0.21229711
14	0x3d88c2d2	0.06677784
15	0x3d7be1df	0.061494704
16	0x3dec34a1	0.11533476
17	0x3c7f6536	0.015588095
18	0x3bb770aa	0.0055981474
19	0x3da88e95	0.0823032
20	0x3cc257e8	0.023723558
21	0x3dcaa745	0.098951854
22	0x3ca4e8e1	0.020130577
23	0x3e7f7bf6	0.24949631
24	0xbe030968	-0.12796557
25	0x3c21917b	0.009861345
26	0x3b611e7c	0.0034350445
27	0x3dfc1c5c	0.123100966
28	0x3d9a45c6	0.075328395
29	0x3d6ba8dc	0.057534084
30	0xbdce646c	-0.10077748
31	0xbe667297	-0.2250465
32	0xbe53b63e	-0.20674989
33	0x3dc3f8eb	0.09568962
34	0xbdb90344	-0.09033826
35	0x3e21f693	0.15816717
36	0x3dbc773c	0.0920243
37	0x3e9b0e87	0.3028452
38	0x3ea1197e	0.31464761
39	0xbe094f0f	-0.13409065
40	0xbe05bbdf	-0.13059948
41	0xbda5357e	-0.080668435
42	0xbdbab210	-0.09115994
43	0xbbdf6753	-0.006817737
44	0x3c359c44	0.01108462
45	0xbd2662a9	-0.040621433
46	0xbaeba4b6	-0.0017978165
47	0x3e7f3c53	0.24925356
48	0x3cf9d9e8	0.030499414
49	0xbe336d66	-0.17522201
50	0x3bac6622	0.0052611986
51	0x3e4cdcf6	0.20006165
52	0x3d363038	0.04447958
53	0xbdcfaa01	-0.101398475
54	0xbd04b00f	-0.032394465
55	0x3dc70708	0.09718138
56	0xbdca1444	-0.098671466
57	0x3db15853	0.08659425
58	0xbcc6c362	-0.024263088
59	0xbe128ebf	-0.14312266
60	0x3e177a58	0.14792764
61	0xbdb1f665	-0.08689574
62	0x3e47c559	0.19508876
63	0x3d387d09	0.045041118
64	0x3d9f6b28	0.0778411
65	0x3d05d4bd	0.032673586
66	0xbcb5ef35	-0.02220879
67	0xbd80117b	-0.06253334
68	0x3e15bbc2	0.14622405
69	0x3e14500e	0.14483663
70	0x3d999581	0.07499219
71	0x3e066394	0.13123924
72	0x3e85633e	0.26052278
73	0xbe6b73b4	-0.22993356
74	0xbde57052	-0.11203064
75	0x3dde94f7	0.108682565
76	0xbda054a5	-0.07828645
77	0xbe0c9f70	-0.13732696
78	0xbd51f4f8	-0.05125901
79	0x3dfced48	0.12349945
80	0xbe036725	-0.12832315
81	0xbe15dbea	-0.14634672
82	0x3e27ea0d	0.16397877
83	0x3e2a3222	0.16620687
84	0xbdb83921	-0.089952715
85	0x3e01471c	0.12624782
86	0xbc9ff282	-0.019524816
87	0x3c87abb0	0.01656136
88	0xbdae8886	-0.085221335
89	0x3dc7e710	0.097608685
90	0x3d8c9d13	0.06865897
91	0xbdf6b135	-0.12045518
92	0x3dbc9f71	0.092100985
93	0xbe050386	-0.12989625
94	0x3de1df78	0.110289514
95	0x3d320a5b	0.043466907
96	0xbdf04382	-0.11731626
97	0xbdda4785	-0.106581725
98	0xbd36fe95	-0.044676382
99	0xbc55dcfc	-0.013053175
100	0x3d63b6bb	0.055594187
101	0x3e284281	0.16431619
102	0x3e401dae	0.18761322
103	0xbc21c850	-0.009874418
104	0xbbfa3f56	-0.0076369448
105	0x3e7f1942	0.24911979
106	0xbe1b749e	-0.15181205
107	0x3dd6b480	0.104836464
108	0x3df04e23	0.117336534
109	0x3e3243b8	0.17408645
110	0xbe68394d	-0.22678109
111	0x3e30b0a3	0.17254882
112	0xbd93b87e	-0.072129235
113	0x3e02e758	0.12783563
114	0xbe2b93fb	-0.16755669
115	0xbd93e0b0	-0.0722059
116	0x3e006339	0.1253785
117	0xbd90dac5	-0.07072977
118	0xbb4c0057	-0.0031128132
119	0x3e1b5bf5	0.15171798
120	0x3e25a7ac	0.16177243
121	0x3d987c47	0.07445579
122	0x3e1d0e65	0.15337522
123	0x3d9ada45	0.07561163
124	0xbe536231	-0.20642926
125	0xbcbae6b7	-0.022815092
126	0xbe1fa0a5	-0.15588625
127	0xbdf1c0ac	-0.11804327
128	0x3d19a12b	0.037507217
129	0x3d9979e7	0.07493954
130	0x3d0e6d3b	0.03477214
131	0x3e1e0f10	0.15435433
132	0x3ca68180	0.020325422
133	0xbe30b6a8	-0.17257178
134	0x3d48b8e0	0.049004436
135	0xbddd408e	-0.108033285
136	0xbd995dc3	-0.07488587
137	0xbdd7c413	-0.10535445
138	0x3d567bb9	0.052364085
139	0xbd6b0258	-0.057375282
140	0xbc678e87	-0.014133102
141	0xbe053f70	-0.1301248
142	0xbd329e95	-0.043608267
143	0x3db17c8f	0.08666336
144	0xbe014834	-0.126252
145	0xbde8ba93	-0.11363711
146	0xbcbfcfe1	-0.023414554
147	0xbc48c95c	-0.012255039
148	0x3e09a8e9	0.1344334
149	0x3d7270af	0.059189495
150	0xbe127759	-0.1430334
151	0x3d65cb21	0.056101922
152	0xbe325b0a	-0.17417541
153	0xbde6345b	-0.11240455
154	0xbdbd33d5	-0.09238402
155	0xbdb332d8	-0.08749932
156	0x3cd0f747	0.025508536
157	0xbe19b61f	-0.1501088
158	0x3d82ea7c	0.063923806
159	0xbe089831	-0.13339306
160	0x3d1a727f	0.03770685
161	0x3d9e0e58	0.077175796
162	0xbd7375c4	-0.059438482
163	0xbbe14754	-0.006874958
164	0xbc0560ff	-0.008140801
165	0x3dec5346	0.11539321
166	0x3e315356	0.17316946
167	0x3db7f753	0.0898272
168	0xbe4ba08c	-0.19885463
169	0xbe4bcda4	-0.19902664
170	0x3b8b889a	0.0042582275
171	0xbdf4081a	-0.11915608
172	0x3d6e0da9	0.058118496
173	0xbe50496c	-0.20340508
174	0xbe083653	-0.13301973
175	0x3c823809	0.01589586
176	0xb73cf947	-1.1263713e-05
177	0x3e2fe631	0.17177655
178	0xbe119e25	-0.14220484
179	0x3dddc3f5	0.108283915
180	0xbdcb1ca3	-0.099175714
181	0x3e0ecc3a	0.13945094
182	0x3dfa36d7	0.12217491
183	0xbe11a10b	-0.1422159
184	0x3e3836e0	0.17989683
185	0x3e3cfaa6	0.1845499
186	0x3d4b47b4	0.04962893
187	0xbd604c1b	-0.05476008
188	0xbde52d76	-0.111903116
189	0x3e07e275	0.1326998
190	0x3cddad20	0.027060091
191	0xbe42b252	-0.19013336
192	0x3d950b9e	0.072776064
193	0xbe377a78	-0.17917812
194	0xbdec3d0e	-0.11535083
195	0xbcb2ba94	-0.021817483
196	0x3c103ce4	0.00880358
197	0xbe3bcf34	-0.1834076
198	0xbd987d35	-0.07445756
199	0xbe1a0513	-0.15040998
200	0xbb608d50	-0.0034263916
201	0xbe4f8e4f	-0.2026913
202	0xbd81928f	-0.06326782
203	0xbe0e7bb8	-0.13914382
204	0x3d2f0086	0.04272511
205	0x3c559f58	0.013038479
206	0xbd2e7490	-0.04259163
207	0x3dcecdc6	0.10097842
208	0xbc92878e	-0.017886903
209	0x3ddb447e	0.10706423
210	0xbd17f77b	-0.03710125
211	0x3e06bb37	0.13157354
212	0x3d5a2dc4	0.0532663
213	0xbdf1b219	-0.118015476
214	0xbd96a3cf	-0.07355463
215	0xbd3ce0ee	-0.046112947
216	0x3e3baf5b	0.18328612
217	0x3c94fa15	0.018185655
218	0x3de5685f	0.11201548
219	0xbe480307	-0.19532405
220	0xbe3ec075	-0.18628104
221	0xbd1b46ea	-0.037909426
222	0x3db2a7de	0.087234244
223	0xbd5a2146	-0.05325439
224	0xbc82699a	-0.015919495
225	0xbd8b088d	-0.0678874
226	0xbd85b796	-0.06529157
227	0x3c037993	0.008024591
228	0x3e146730	0.14492488
229	0x3d1ac9d1	0.037790123
230	0x3ddb5ead	0.10711417
231	0x3ddec87e	0.108780846
232	0xbdcfd186	-0.10147385
233	0x3c8df31c	0.017327838
234	0x3d4b886a	0.04969064
235	0xbd10367a	-0.035208203
236	0x3e39b567	0.18135606
237	0x3e46f003	0.19427495
238	0x3ca277ee	0.019832578
239	0x3dfe9f07	0.12432676
240	0xbe27387b	-0.1633014
241	0xbbed9c2e	-0.007251284
242	0xbd54acd3	-0.05192263
243	0xbe3b21c4	-0.182746
244	0xbdc682a3	-0.09692886
245	0x3d4d2903	0.05008794
246	0xbe1e508d	-0.15460415
247	0xbe1a2c41	-0.15055944
248	0x3dbe2e68	0.09286195
249	0x3db26b74	0.08711901
250	0x3e7d3ace	0.24729463
251	0x3ded0a58	0.115742385
252	0x3d0b8ad3	0.03406794
253	0x3d449b55	0.0479997
254	0xbca879bd	-0.020565862
255	0x3d92709d	0.071503855

Pair_shop_mlp.fc_layers.0.bias f4 [64]
0	0x3e430d22	0.19047979
1	0xbc79ec6b	-0.01525412
2	0xbde4aee5	-0.11166171
3	0xbdb178a4	-0.086655885
4	0xbdc289dc	-0.09498951
5	0xbc9804e0	-0.018557012
6	0x3dc596f0	0.0964793
7	0xbdb79b32	-0.08965148
8	0xbde2ceaf	-0.11074578
9	0x3db7e646	0.08979468
10	0x3dc1dd26	0.09466009
11	0x3e1e0763	0.15432505
12	0xbdcbf57b	-0.09958931
13	0x3dcd9552	0.10038246
14	0x3dc04c0d	0.093895055
15	0xbd5927d1	-0.053016488
16	0xbde2d6e3	-0.11076143
17	0xbdb33746	-0.08750777
18	0xbda01733	-0.07816925
19	0x3da3adce	0.07992135
20	0x3e3a2aa7	0.18180333
21	0x3e15d2ed	0.14631243
22	0xbdc671ed	-0.09689698
23	0xbd62aed8	-0.055342525
24	0xbd580ff7	-0.0527496
25	0xbdbd222a	-0.09235032
26	0xbc4afafa	-0.012388939
27	0x3ce89a18	0.02839379
28	0xbe314c02	-0.17314151
29	0x3de18f49	0.110136576
30	0x3d822a8e	0.06355773
31	0x3cf55916	0.029949706
32	0x3d571d97	0.052518453
33	0x3d484fbd	0.04890417
34	0xbd17dffd	-0.037078846
35	0xbd7b28cc	-0.061318204
36	0xbcaf20e6	-0.021377992
37	0x3dc30c95	0.09523884
38	0xbd9b77e6	-0.07591228
39	0x3dd7a393	0.10529246
40	0xbd0e57c8	-0.034751683
41	0x3d17b571	0.03703827
42	0x3d9b46f9	0.07581896
43	0x3e2764b9	0.16347016
44	0x3db54c94	0.08852497
45	0xbd2d5053	-0.04231293
46	0x3e3e884f	0.18606685
47	0xbd65e886	-0.056129955
48	0xbdb0a55b	-0.08625289
49	0xbd965f00	-0.073423386
50	0xbca5057d	-0.020144219
51	0x3dacf84e	0.08445798
52	0x3e07b6ec	0.13253373
53	0x3d94201c	0.07232687
54	0xbdee2d45	-0.11629728
55	0xbd8c1981	-0.06840802
56	0x3ccedc1b	0.025251439
57	0xbe106f09	-0.14104857
58	0x3d02fd27	0.031979706
59	0x3e3942b9	0.18091859
60	0xbde89a87	-0.11357599
61	0x3d7e810d	0.06213479
62	0xbe1b7f9d	-0.151854
63	0xbd51a288	-0.051180393

Pair_shop_mlp.fc_layers.1.weight f4 [16, 64]
0	0xbe9e782f	-0.30951068
1	0xbd312b82	-0.043254383
2	0x3c0b0cf1	0.008486972
3	0x3da3bfac	0.07995543
4	0x3d4f526c	0.050615713
5	0xbc992d8c	-0.018698476
6	0x3dd9e768	0.1063984
7	0xbdb60b89	-0.08888919
8	0xbd2cc4be	-0.042179815
9	0xbcbd40a6	-0.023102116
10	0xbc2f2416	-0.010689756
11	0x3dd5bd54	0.10436502
12	0xbda7d717	-0.08195322
13	0xbd9b6170	-0.07586944
14	0xbe32df2e	-0.17467949
15	0x3e10d621	0.14144184
16	0x3dcf2c1d	0.10115836
17	0x3e12c13e	0.14331529
18	0xbd17313b	-0.036912184
19	0xbc6c7d56	-0.014434179
20	0x3e183235	0.14862902
21	0xbd01fcf1	-0.031735364
22	0x3db74420	0.08948541
23	0x3d2cdb7e	0.04220151
24	0x3c33c80e	0.01097299
25	0x3db3e9a9	0.087848015
26	0xbe3fa08f	-0.18713592
27	0x3e370a64	0.17875057
28	0x3e2eb6ba	0.17061892
29	0x3db27bae	0.08714996
30	0xbdf9fe3e	-0.12206696
31	0xbd8e27f7	-0.069412164
32	0x3e3af1fd	0.18256374
33	0xbdda0f4d	-0.1064745
34	0x3df06bfc	0.117393464
35	0x3c49b0d5	0.012310226
36	0x3e0f5bb4	0.13999826
37	0x3e5e677d	0.21719165
38	0x3d6ec841	0.058296446
39	0x3cde4924	0.027134486
40	0x3d4db03d	0.050216902
41	0x3d929178	0.07156652
42	0x3d4b4134	0.04962273
43	0xbd91e35f	-0.07123446
44	0xbe23a2ea	-0.15980116
45	0xbd1527c2	-0.03641487
46	0x3ccacb85	0.024755249
47	0x3ddf5e4f	0.1090666
48	0x3dc33858	0.09532231
49	0x3d923656	0.0713927
50	0x3e3da2c5	0.18519123
51	0xbd1eb95f	-0.038751002
52	0x3e2a38b4	0.16623193
53	0x3db5b072	0.08871545
54	0xbe039f3b	-0.1285371
55	0xbd61082d	-0.054939438
56	0x3de646d2	0.11243977
57	0xbdc9f825	-0.09861783
58	0x3e68fb4c	0.22752112
59	0x3c83220c	0.016007446
60	0x3c89576d	0.01676532
61	0xbce1ddf6	-0.02757166
62	0x3e0a7fd7	0.1352533
63	0xbb32990b	-0.0027251865
64	0x3e659901	0.22421648
65	0xbba00042	-0.0048828432
66	0x3c63a7a2	0.013894947
67	0x3dff93dc	0.12479374
68	0xbd383a2c	-0.044977352
69	0x3db5d8ac	0.088792175
70	0x3de0d21f	0.109775774
71	0xbdb181ab	-0.0866731
72	0x3d91f43e	0.071266636
73	0x3d0d0934	0.034432605
74	0x3db124e1	0.08649612
75	0x3dd9ffeb	0.106445156
76	0x3da84c20	0.08217645
77	0x3d9e9ead	0.07745109
78	0xbcb7ffaa	-0.022460777
79	0x3e01f677	0.12691675
80	0x3ce18734	0.02753029
81	0xbd9d1157	-0.07669323
82	0x3e1ee34d	0.15516396
83	0xbd626ff9	-0.055282567
84	0xbb06a784	-0.0020546624
85	0xbd9d5117	-0.07681482
86	0x3db7528e	0.08951293
87	0xbdb80e7d	-0.089871384
88	0x3d33eaf1	0.04392523
89	0x3c80bfb4	0.015716411
90	0xbd8cc012	-0.06872572
91	0x3b8abd91	0.004234024
92	0xbde66a1c	-0.112507075
93	0x3db71bcb	0.08940848
94	0x3c328042	0.010894837
95	0x3db7c7be	0.08973645
96	0xbd32a02a	-0.043609776
97	0xbd646425	-0.055759568
98	0xbdf7bc8c	-0.12096509
99	0x3d84d7f3	0.064865015
100	0xbc43aa04	-0.01194239
101	0xbd97d3d2	-0.074134484
102	0xbd7df944	-0.062005296
103	0x3d988da3	0.0744889
104	0xbd9c4c8b	-0.07631787
105	0x3ccfc95a	0.025364567
106	0x3e03d059	0.12872447
107	0x3e202f9a	0.15643159
108	0xbcda55f8	-0.026652321
109	0xbad7a36a	-0.00164519
110	0x3df9a5d4	0.12189832
111	0xbc1b6675	-0.009484877
112	0xbe509504	-0.20369345
113	0xbda8441c	-0.08216116
114	0x3cabad05	0.020956526
115	0x3c8adaeb	0.016950091
116	0xbdb3b81d	-0.08775351
117	0xbd42c4d6	-0.047551
118	0x3d829842	0.06376697
119	0xbd9112cb	-0.070836626
120	0xbb843138	-0.0040341876
121	0x3d9b1e8a	0.07574184
122	0xbdf9af83	-0.12191679
123	0x3e0aec10	0.13566613
124	0x3dde5052	0.10855164
125	0xbdd7aa5d	-0.10530541
126	0xbde9ea98	-0.11421698
127	0x3da8e0aa	0.08245976
128	0x3e9ac5b9	0.30228975
129	0x3dae8c6a	0.085228756
130	0x3d9a8312	0.07544531
131	0x3a05de80	0.00051067024
132	0xbde62464	-0.1123741
133	0x3d56f664	0.05248107
134	0xbc1b0cf2	-0.009463536
135	0xbd915d8a	-0.07097919
136	0x3d53b94a	0.051690377
137	0x3df82466	0.121163175
138	0x3c934547	0.01797737
139	0xbcd642f0	-0.026154965
140	0xbd33c596	-0.043889605
141	0x3ce1bafb	0.02755498
142	0x3cdb64d9	0.026781486
143	0xbd8b8b23	-0.068136476
144	0xbcb3d892	-0.021953855
145	0x3ccb442d	0.024812782
146	0x3ded082b	0.115738235
147	0x3e079ebe	0.13244149
148	0x3d5051ab	0.050859135
149	0x3ba78f84	0.005113544
150	0xbd328371	-0.043582384
151	0x3d999037	0.0749821
152	0xbc575dad	-0.013144893
153	0xbd8be53c	-0.06830832
154	0x3e846f54	0.25866187
155	0xbd496c61	-0.049175624
156	0xbd8309ca	-0.063983515
157	0x3e2f18ee	0.17099354
158	0x3e5fff5e	0.21874759
159	0xbddf6611	-0.109081395
160	0x3d821806	0.06352238
161	0x3ca912ef	0.020638911
162	0xbd910d55	-0.07082621
163	0xbd192589	-0.037389312
164	0xbcb9903f	-0.02265179
165	0xbdda9104	-0.10672191
166	0x3e2792db	0.16364615
167	0x3dc17743	0.094465755
168	0x3db7d83a	0.08976789
169	0xbcb8325d	-0.022484953
170	0x3b91f5b0	0.004454337
171	0xbb029e60	-0.0019930825
172	0x3e2246d1	0.15847327
173	0x3d09df02	0.033659942
174	0x3d3e4de8	0.046461016
175	0xbdd8aa9f	-0.105794184
176	0xbe64bb4e	-0.22337076
177	0x3d87d769	0.06632883
178	0xbe370a8c	-0.17875117
179	0x3d771c75	0.060329873
180	0xbe4b6fa1	-0.19866802
181	0x3df35deb	0.11883148
182	0x3d32883c	0.043586954
183	0x3dc961be	0.09833096
184	0x3c71f022	0.014766725
185	0xbd340001	-0.043945316
186	0x3d2191d3	0.03944571
187	0xbc3bd977	-0.011465422
188	0x3da79ebc	0.08184573
189	0x3df2bf04	0.118528396
190	0xbe04d9b1	-0.12973668
191	0x3dc70b97	0.097190075
192	0x3e741433	0.2383583
193	0x3d8ef515	0.069803394
194	0x3b8c2416	0.0042767627
195	0xbdda79e9	-0.10667784
196	0x3d3da678	0.046301335
197	0xbccff3c8	-0.025384799
198	0x3de7581f	0.11296105
199	0x3dfec332	0.12439574
200	0x3de9f85b	0.11424323
201	0x3e4b4c24	0.19853264
202	0x3e164603	0.14675145
203	0x3c998efe	0.018744942
204	0x3d0a34c5	0.03374173
205	0xbd963070	-0.073334575
206	0x3c2d0a1e	0.010561494
207	0xbdbc624b	-0.091984354
208	0x3d94e675	0.07270519
209	0xbd537537	-0.051625457
210	0x3d687ecb	0.056761544
211	0x3cde8bca	0.027166266
212	0xbd38855b	-0.045049053
213	0x3de3554d	0.11100254
214	0x3dffef3f	0.124968044
215	0x3dde6e8a	0.108609274
216	0x3e23ead5	0.1600755
217	0xbe3c95c8	-0.18416512
218	0x3e8605af	0.2617621
219	0x3da7aa65	0.08186797
220	0xbd0b732e	-0.03404539
221	0x3de00c50	0.109398484
222	0x3e4a13a6	0.19734058
223	0x3e11216a	0.14172903
224	0x3dc23284	0.09482291
225	0x3cfc7b04	0.030820377
226	0x3d0175a4	0.03160633
227	0xbd565e13	-0.05233581
228	0xbe0f06a5	-0.13967378
229	0xbdb61741	-0.08891154
230	0xbdad835d	-0.08472321
231	0xbbe41a91	-0.006961175
232	0xbc5d7c67	-0.013518429
233	0x3d89cc70	0.067284465
234	0x3d906a42	0.07051517
235	0x3b693e22	0.0035590013
236	0x3d76026d	0.060060907
237	0xbccccfde	-0.025001463
238	0xbd11e1b1	-0.035615627
239	0x3d5e1a7a	0.05422447
240	0xbeac5a78	-0.33662772
241	0xbe1cd099	-0.15313949
242	0xbe3b3975	-0.18283637
243	0x3e3bbcab	0.1833369
244	0xbe30e5ba	-0.17275134
245	0xbd7df1ec	-0.061998293
246	0xbda89569	-0.08231623
247	0x3d704f7b	0.05866955
248	0x3dcacc73	0.09902277
249	0xbd89cee7	-0.067289166
250	0x3dcf2ae5	0.10115603
251	0x3e065c3e	0.13121125
252	0xbd009366	-0.03139057
253	0x3d830c5b	0.06398841
254	0xba827cc4	-0.0009955396
255	0x3e302b27	0.17203961

Pair_shop_mlp.fc_layers.1.bias f4 [16]
0	0xbbc7ff87	-0.0061034593
1	0x3c579ed7	0.013160429
2	0x3e0b022f	0.13575052
3	0x3d25e748	0.04050377
4	0xbdab1be4	-0.08354929
5	0xbb0cbac1	-0.0021473619
6	0x3c84eba0	0.016225636
7	0xbda0b493	-0.07846942
8	0x3d4d05bf	0.050054308
9	0xbda433b3	-0.08017673
10	0xbd626631	-0.05527324
11	0x3d962cce	0.073327646
12	0x3dc4e985	0.09614853
13	0x3c7de740	0.015497029
14	0xbdb90f9a	-0.09036179
15	0x3e0e7f4d	0.13915749

Pair_score_mlp.fc_layers.0.weight f4 [64, 32]
0	0xbe1c6d5d	-0.15276094
1	0xbdc7351b	-0.09726926
2	0x3e36bd64	0.17845684
3	0xbd23e2b7	-0.040011134
4	0xbd9903bf	-0.07471418
5	0xbdc04527	-0.0938819
6	0x3e6573c1	0.22407438
7	0x3cc75def	0.024336783
8	0xbbd3333d	-0.006445317
9	0xbe21587c	-0.1575641
10	0xbd4f7f26	-0.050658368
11	0xbdc5c1d5	-0.09656111
12	0xbe04d45d	-0.12971635
13	0xbe15e21f	-0.1463704
14	0x3d8f3374	0.06992236
15	0x3c4e1e3a	0.012580449
16	0xbe368b29	-0.17826523
17	0xbdb809ca	-0.08986242
18	0x3e7d860f	0.2475817
19	0xbd7f1491	-0.062275473
20	0x3ddbafcc	0.1072689
21	0xbe50f9dc	-0.20407814
22	0x3d2fa72e	0.042884044
23	0x3df21ee9	0.11822302
24	0xbe13ee0a	-0.14446273
25	0xbd68f111	-0.056870524
26	0x3e2378cb	0.15964048
27	0xbdd69735	-0.10478059
28	0x3d9e695f	0.07734942
29	0xbcbdaa24	-0.023152418
30	0xbe7f628f	-0.24939941
31	0xbe924fdd	-0.28576556
32	0xbe331a8b	-0.17490594
33	0xbd888058	-0.06665105
34	0x3e534fff	0.20635985
35	0x3e43b5a2	0.19112256
36	0xbdb0366b	-0.086041294
37	0x3e331f8b	0.17492501
38	0x3e31cd95	0.1736358
39	0xbde1c798	-0.110243976
40	0x3dfa7f09	0.12231261
41	0xbdfe348e	-0.12412368
42	0xbdd06acf	-0.10176622
43	0x3d1816ed	0.03713124
44	0x3d9d32a5	0.07675675
45	0xbcd60019	-0.026123093
46	0xbdcbcbb6	-0.09950964
47	0xbc843564	-0.01613874
48	0xbda23f65	-0.07922248
49	0xbdf698cd	-0.12040863
50	0x3d2f3dbc	0.042783484
51	0x3e2544be	0.16139504
52	0xbc8bc7e9	-0.017063098
53	0xbe085068	-0.13311923
54	0x3c938bd0	0.018011004
55	0xbdf16e08	-0.11788565
56	0xbe27a13e	-0.16370103
57	0x3e354682	0.17702678
58	0x3bae9b8f	0.0053286026
59	0xbe041e9b	-0.129023
60	0xbd512920	-0.05106461
61	0xbcb3365b	-0.021876505
62	0x3e0a7017	0.13519321
63	0x3dbc7ecc	0.09203872
64	0xbe01c77e	-0.12673756
65	0xbb3fd098	-0.0029268619
66	0xbd1af2b7	-0.037829127
67	0xbdcfdb76	-0.10149281
68	0x3d1eb475	0.038746316
69	0xbc8b7e5c	-0.017028026
70	0x3dca097e	0.09865092
71	0xbd00c365	-0.031436343
72	0x3e05b020	0.13055468
73	0xbe52f158	-0.20599878
74	0xbbc3a146	-0.005970153
75	0x3e345ac2	0.17612746
76	0x3ce75029	0.028236466
77	0xbd4448bf	-0.04792094
78	0x3db2e0de	0.08734296
79	0xbaef22c5	-0.0018244615
80	0xbe8c86cb	-0.2744659
81	0x3d1e1263	0.038591754
82	0x3d0d4f9f	0.03449976
83	0x3e5b0591	0.21388842
84	0x3e649e35	0.22325976
85	0x3d6e5da3	0.058194768
86	0x3e3d9e4c	0.18517417
87	0x3d4f58e4	0.050621882
88	0x3e3bc89e	0.18338248
89	0xbd72aba8	-0.059245735
90	0xbd6d0fc4	-0.057876363
91	0x3b02383b	0.0019869942
92	0xbe1fa58b	-0.15590493
93	0xbdfe258a	-0.12409504
94	0xbdbde837	-0.09272807
95	0x3e199ff6	0.15002427
96	0xbe315d3b	-0.17320721
97	0x3e04439b	0.12916414
98	0x3e7672ef	0.24067281
99	0x3d3fb102	0.046799667
100	0x3e30f14a	0.17279544
101	0xbe15c118	-0.1462444
102	0xbde2b120	-0.1106894
103	0x3d85814b	0.06518801
104	0x3e1d9c33	0.15391617
105	0x3c1195e1	0.008885832
106	0xbe1aaccb	-0.15104978
107	0x3e3ee7de	0.18643138
108	0xbda8d42a	-0.08243592
109	0x3d8e6604	0.06953052
110	0xbdbd9a3e	-0.09257935
111	0x3e35c2f1	0.17750145
112	0x3d0d601f	0.034515496
113	0xbde9f818	-0.11424273
114	0x3dd81b13	0.10552039
115	0x3d9fe45a	0.078072265
116	0x3ca93540	0.020655274
117	0x3d7556b8	0.059897155
118	0x3de6a13c	0.11261222
119	0xbd83a92d	-0.06428752
120	0x3e0ed18b	0.13947122
121	0xbe5b36ca	-0.21407619
122	0x3ce0973d	0.027415866
123	0xbd60390e	-0.05474191
124	0x3d04edf0	0.032453477
125	0x3d6bd887	0.057579543
126	0x3e2caaac	0.16861981
127	0x3d214915	0.039376337
128	0xbe3ab1cc	-0.18231887
129	0xbcfd7710	-0.030940562
130	0xbb981780	-0.0046414733
131	0xbdebc430	-0.11512029
132	0x3e0b22c4	0.13587481
133	0xbc84ff90	-0.016235143
134	0xbe08a188	-0.1334287
135	0xbe801081	-0.2501259
136	0x3e145e19	0.1448902
137	0xbd858361	-0.06519199
138	0xbe2130c0	-0.15741253
139	0xbe4ea832	-0.20181349
140	0xbcf3eecc	-0.029776953
141	0x3ccec2dd	0.025239402
142	0xbe01b6f3	-0.12667446
143	0xbe21e922	-0.1581159
144	0x3e5cfcba	0.21580783
145	0x3e688a79	0.22709073
146	0xbe1f7426	-0.15571651
147	0xbdb3c38b	-0.08777531
148	0xbddc7e53	-0.10766282
149	0x3dbad94a	0.09123476
150	0xb98669fc	-0.00025637436
151	0x3c7c11d5	0.015385111
152	0xbe3fcf5b	-0.18731444
153	0x3d7f82d6	0.062380634
154	0xbc435fe9	-0.011924722
155	0x3e671560	0.22566748
156	0xbcd54f7b	-0.026038876
157	0xbe06c17c	-0.13159746
158	0x3d7584c1	0.059941057
159	0xbe1ec55b	-0.15504973
160	0xbe085ef3	-0.1331747
161	0x3d112128	0.03543201
162	0x3e26d1c1	0.16290952
163	0x3d924c3a	0.07143445
164	0x3dc90503	0.09815409
165	0x3e13a4e1	0.14418365
166	0xbdabc508	-0.0838719
167	0xbde1c955	-0.11024729
168	0xbdc19524	-0.094522744
169	0xbd8afef0	-0.06786907
170	0x3e377a1b	0.17917673
171	0x3d8c5a8c	0.06853208
172	0x3bddb2d5	0.006765703
173	0x3dd2fa2e	0.10301624
174	0xbe21ff95	-0.15820153
175	0xbd88c9c4	-0.06679109
176	0x3e2f35a5	0.17110308
177	0x3e29448e	0.16530058
178	0x3db96fd3	0.09054532
179	0x3b25d0e6	0.0025301515
180	0x3dd61fd0	0.104552865
181	0xbe0b516b	-0.13605277
182	0x3c5dead3	0.013544756
183	0x3db69d70	0.089167476
184	0x3d86ba14	0.0657846
185	0x3d9ea4f9	0.0774631
186	0x3e4666f1	0.19375207
187	0xbe28aa1a	-0.16471139
188	0x3e26e85b	0.16299574
189	0xbe145cdd	-0.1448855
190	0x3e11ae79	0.14226712
191	0xbd872b64	-0.06600073
192	0xbe055370	-0.1302011
193	0x3e5c1172	0.2149103
194	0xbd14678f	-0.036231574
195	0xbd71e1c5	-0.0590532
196	0xbe17a07f	-0.14807318
197	0xbdb24f21	-0.08706499
198	0x3d2bec8d	0.04197364
199	0x3e115e1a	0.14196053
200	0x3b973ff6	0.004615779
201	0x3c8209cb	0.01587381
202	0xbdeccb2c	-0.115621895
203	0x3e1de5bd	0.1541967
204	0xbd2cc955	-0.042184193
205	0xbdbec160	-0.09314227
206	0x3e09d3da	0.13459721
207	0x3ce561fd	0.028000826
208	0x3b271f00	0.0025500655
209	0x3e013ec4	0.126216
210	0xbd9f7b2b	-0.07787164
211	0xbc3d798a	-0.011564622
212	0xbdae25c6	-0.085032985
213	0x3d707aae	0.058710746
214	0x3e3d551b	0.18489496
215	0x3e2240aa	0.1584498
216	0x3da887b2	0.08229007
217	0xbd8b7159	-0.06808729
218	0x3d2e4d6f	0.042554315
219	0x3e5f50de	0.21808192
220	0xbdfbce74	-0.12295237
221	0x3dfde606	0.12397389
222	0x3e186e44	0.14885813
223	0xbe1aac73	-0.15104847
224	0x3bf61bd0	0.0075106397
225	0xbd8e483c	-0.06947371
226	0x3e597cd5	0.21239026
227	0x3e0cdc0b	0.13755815
228	0x3d0b05f2	0.033941217
229	0x3c833e46	0.016020905
230	0xbdace35c	-0.08441803
231	0xbdaf501f	-0.08560204
232	0x3e3c0d15	0.18364365
233	0x3e4eba25	0.20188196
234	0xbe6d9d5e	-0.23204562
235	0xbdf9d9cb	-0.12199744
236	0x3d8a006b	0.06738361
237	0xbd86eec0	-0.06588507
238	0xbdd88c02	-0.10573579
239	0x3e015410	0.12629724
240	0xbe32c1ba	-0.17456713
241	0xbe1611e5	-0.14655264
242	0x3bf7b682	0.0075595984
243	0xbc929db4	-0.017897464
244	0xbd763a44	-0.06011416
245	0x3e62731b	0.22114222
246	0x3d4533bb	0.048145037
247	0xbcb359b8	-0.021893367
248	0xbc42704e	-0.011867596
249	0xbddf4fc8	-0.10903889
250	0xbdccb8fd	-0.09996221
251	0xbde4d566	-0.11173515
252	0xbdebc7ca	-0.11512716
253	0xbdb7a36d	-0.08966718
254	0x3e29c25b	0.16578047
255	0x3da252c9	0.07925946

Pair_score_mlp.fc_layers.0.bias f4 [64]
0	0x3d683063	0.05668677
1	0xbd5b49b5	-0.05353709
2	0xbe09ef43	-0.13470177
3	0xbdbe1417	-0.092811756
4	0x3e263598	0.16231382
5	0x3e21690b	0.15762727
6	0xbdba5eae	-0.0910009
7	0xbdc8c0fe	-0.09802435
8	0xbd85ad52	-0.06527199
9	0xbdc2cbf6	-0.09511559
10	0x3e237061	0.15960838
11	0x3be3b60e	0.006949193
12	0x3d164464	0.036686316
13	0x3de31675	0.11088268
14	0xbd840d78	-0.064478815
15	0x3d13f708	0.03612426
16	0x3e43f403	0.19136052
17	0xbd8c8265	-0.06860808
18	0x3dd95996	0.1061279
19	0x3d83a2f1	0.06427563
20	0xbdabc650	-0.083874345
21	0xbd32379b	-0.04351006
22	0x3d9b0a59	0.07570333
23	0xbd26af83	-0.040694725
24	0x3db9898d	0.09059439
25	0xbd23b583	-0.039968025
26	0xbc13e935	-0.009027769
27	0x3ddf6f92	0.10909952
28	0x3e2283ad	0.15870543
29	0xbd1b3135	-0.037888724
30	0xbd9ee645	-0.07758764
31	0x3e1c7964	0.15280682
32	0x3d9dacbe	0.076989636
33	0xbe1bd931	-0.1521957
34	0x3c13adb0	0.009013578
35	0x3e6b70dd	0.22992273
36	0x3e30f8eb	0.17282455
37	0x3e13ed6c	0.14446038
38	0xbdb73de8	-0.089473546
39	0xbd207096	-0.03916987
40	0xbde9c8a7	-0.114152245
41	0x3dd0f6fd	0.10203359
42	0xbe1fb865	-0.15597685
43	0xbdf9a8df	-0.12190413
44	0x3bd62849	0.006535564
45	0x3df8f7e5	0.12156657
46	0xbd36202b	-0.04446427
47	0xbdd048da	-0.10170145
48	0xbd55bcde	-0.05218207
49	0xbd908f03	-0.07058527
50	0x3d2bf9a2	0.041986115
51	0xbd9b419e	-0.07580875
52	0xbd670d2c	-0.056409046
53	0xbde6d3ec	-0.1127089
54	0xbd8d4062	-0.06897046
55	0x3e11dc1b	0.1424412
56	0xbcef9f54	-0.029250778
57	0x3de942d8	0.113897026
58	0x3df5c04f	0.119995706
59	0x3de4fc19	0.11180896
60	0x3d904cdb	0.07045909
61	0x3e28801f	0.16455124
62	0x3ddc4218	0.10754794
63	0xbd9f96fe	-0.07792471

Pair_score_mlp.fc_layers.1.weight f4 [8, 64]
0	0x3dd18f2b	0.10232385
1	0x3df959da	0.12175341
2	0x3e045978	0.12924755
3	0x3d7f2e93	0.062300276
4	0x3e69137f	0.22761343
5	0x3e17b36d	0.14814539
6	0x3d8433f0	0.06455219
7	0x3dd01316	0.1015989
8	0x3e16fdab	0.14745204
9	0x3e21ea35	0.15811999
10	0xbdeb3751	-0.1148516
11	0x3cf41d6f	0.029799191
12	0x3d0ea3aa	0.03482405
13	0xbe252196	-0.16126093
14	0xbcb6ede9	-0.022330241
15	0x3b5f3e8a	0.0034064376
16	0x3e024295	0.12720712
17	0x3ab9b273	0.0014167562
18	0xbd00576c	-0.031333372
19	0x3d338ed3	0.04383738
20	0x3dfff0bd	0.12497089
21	0xbcbaeef1	-0.022819014
22	0x3dd55fe7	0.104186825
23	0x3c5196ef	0.012792333
24	0x3dc3a5a6	0.09553079
25	0x3e10eced	0.1415288
26	0x3e2092a4	0.15680939
27	0x3d9638bf	0.07335042
28	0xbd46e4d1	-0.04855806
29	0xbd47fc10	-0.04882437
30	0x3dd81ac1	0.10551978
31	0x3c5d7c5f	0.013518422
32	0x3c9cebc6	0.019155394
33	0x3defc1e8	0.117069066
34	0x3de1b115	0.11020104
35	0xbb8b8cf6	-0.004258747
36	0x3e4fb15a	0.20282498
37	0x3d1ad614	0.037801817
38	0x3ac3bc4b	0.0014933435
39	0x3deafd48	0.11474091
40	0xbd6b2e14	-0.05741699
41	0x3d1818c7	0.037133005
42	0xbccc95d5	-0.02497379
43	0x3dac99c1	0.08427764
44	0xbe4903af	-0.19630311
45	0x3dcb7a96	0.09935491
46	0x3e12d23a	0.14338008
47	0x3dd6703b	0.10470625
48	0xbdd2e3c8	-0.10297352
49	0x3da3f439	0.08005566
50	0xbdc9abed	-0.09847245
51	0x3d9aaf2b	0.07552942
52	0x3e72ad8d	0.23699017
53	0x3c861bb3	0.01637063
54	0x3dcb640c	0.09931192
55	0xbda8d529	-0.08243782
56	0x3d665d7f	0.05624151
57	0xbdc04fb1	-0.093902
58	0xbd68c906	-0.056832336
59	0x3dbdf5e8	0.092754185
60	0xbbc7a6ac	-0.006092867
61	0x3d943ddc	0.07238361
62	0xbd9f53c6	-0.077796504
63	0x3e35559d	0.1770844
64	0xbdea5557	-0.114420585
65	0x3dd06d9f	0.101771586
66	0xbe0342ee	-0.128185
67	0xbe13c2f0	-0.14429832
68	0xbdf8ffec	-0.12158188
69	0xbd7957f4	-0.060874894
70	0xbd144f7f	-0.036208626
71	0xbda6b071	-0.08139122
72	0xbdaf11ac	-0.085482925
73	0x3cabc302	0.02096701
74	0xbe45eb9e	-0.19328162
75	0x3bf7fc01	0.007567883
76	0xbe3a508b	-0.18194787
77	0x3e4e6e0c	0.20159167
78	0xbe411909	-0.18857206
79	0xbe412e4e	-0.1886532
80	0xbba9f6d0	-0.005186893
81	0x3d32b5c0	0.04363036
82	0xbd900cfa	-0.07033725
83	0x3d0487bc	0.03235601
84	0xbe115f1e	-0.1419644
85	0xbdf051c0	-0.117343426
86	0xbd8ec2a4	-0.069707185
87	0x3d96266a	0.07331546
88	0xbdc805b4	-0.09766713
89	0xbde68472	-0.11255731
90	0x3df269f1	0.11836613
91	0xbd2061f9	-0.039155934
92	0xbdd16297	-0.10223883
93	0x3ddd3374	0.108008295
94	0x3def1aa7	0.116750054
95	0xbc4bda31	-0.012442158
96	0xbd8278b4	-0.063706785
97	0xbe0a076a	-0.1347939
98	0x3d715613	0.058919977
99	0x3de701be	0.11279629
100	0xbe04fb00	-0.12986374
101	0x3d84d095	0.06485096
102	0x3d7fd0a1	0.062454823
103	0x3d5fb827	0.05461898
104	0xbdd59b73	-0.1043004
105	0xbd297832	-0.041374393
106	0xbda23527	-0.07920294
107	0xbdfe63d0	-0.124213815
108	0x3e408a39	0.18802728
109	0x3e037e5f	0.12841175
110	0xbdc5ed55	-0.09664408
111	0xbdbf6978	-0.093462884
112	0x3cf50e99	0.029914187
113	0xbdfcbef7	-0.12341111
114	0x3de33fb6	0.11096136
115	0xbde8c2f0	-0.113653064
116	0xbc3e3de5	-0.0116114365
117	0xbe1f12bc	-0.1553449
118	0xbe1dacf8	-0.15398014
119	0x3e58b68f	0.2116339
120	0x3cbe4874	0.023227908
121	0xbdd1de1a	-0.10247441
122	0xbd30ab3c	-0.04313205
123	0xbd81daab	-0.06340536
124	0x3e249061	0.16070701
125	0x3dc2ad95	0.095057644
126	0x3d714fcf	0.058914002
127	0x3d721630	0.05910319
128	0x3da84943	0.082170986
129	0x3de5798b	0.11204823
130	0x3e5f558b	0.21809976
131	0x3e292fce	0.16522142
132	0x3d616bd3	0.05503447
133	0x3d8ae8f3	0.06782713
134	0x3e468a7a	0.19388762
135	0x3b0f1a1b	0.0021835628
136	0x3e4651b3	0.19367103
137	0x3d357dee	0.04430955
138	0x3da977fd	0.08274839
139	0xbc924b1f	-0.017858086
140	0xbd0e5abf	-0.03475451
141	0xbe78985e	-0.24276873
142	0x3d712238	0.058870524
143	0x3d84b733	0.06480255
144	0x3e835d3b	0.25657067
145	0x3e1760f4	0.14783078
146	0x3dfd5c4b	0.12371119
147	0x3ceb42f4	0.02871845
148	0x3dc78381	0.09741879
149	0xbd425c94	-0.04745157
150	0x3df690f4	0.12039366
151	0x3d919295	0.071080364
152	0x3d1af0fe	0.037827484
153	0x3d25ca57	0.04047617
154	0x3ddd22e7	0.10797673
155	0x3e7df9ee	0.24802372
156	0xbc389f8a	-0.011268506
157	0x3e007211	0.12543513
158	0x3d833581	0.064066894
159	0x3e423ec9	0.18969263
160	0x3dbe1892	0.0928203
161	0x3ca38318	0.019959971
162	0x3dd2fce6	0.10302143
163	0xbcfc5f2b	-0.030807098
164	0x3e3cad83	0.18425564
165	0x3a456a05	0.0007530752
166	0xbe3a25c8	-0.18178475
167	0x3e23f590	0.16011643
168	0xbda799e4	-0.08183649
169	0x3dc12370	0.09430587
170	0x3de91104	0.113801986
171	0x3e1e8a95	0.15482552
172	0xbdd48490	-0.10376847
173	0x3e0bf9e5	0.13669546
174	0x3dbc74eb	0.09201988
175	0xbccc9451	-0.024973067
176	0x3e1b5d15	0.15172227
177	0xbd1d1ac2	-0.038355596
178	0x3e27d157	0.1638845
179	0xbd0f7c66	-0.035030745
180	0x3d825b48	0.06365067
181	0xbdda637e	-0.10663508
182	0x3db7e22b	0.08978685
183	0xbb89a7fa	-0.0042009326
184	0xbcebf63f	-0.028803943
185	0x3c2693a9	0.010167041
186	0x3dc6a950	0.097002625
187	0x3e5779a6	0.21042499
188	0x3dd96391	0.10614694
189	0x3bfddbdf	0.007747158
190	0x3dbc3e18	0.09191531
191	0x3e8cc265	0.2749206
192	0xbd081a5a	-0.033228256
193	0x3d9bbdea	0.076045826
194	0x3d9eb2e4	0.077489644
195	0x3b012773	0.0019707351
196	0x3c602eeb	0.013683061
197	0xbdda9ce4	-0.10674456
198	0x3cd504ee	0.026003327
199	0x3c45501c	0.012043025
200	0xbe2878d1	-0.16452338
201	0x38dc99c0	0.00010519056
202	0x3d9df16a	0.07712062
203	0x3d3747fe	0.04474639
204	0xbcb55635	-0.022135833
205	0x3dba9524	0.091104776
206	0xbe09008f	-0.1337912
207	0xbe201c53	-0.15635805
208	0xbd2c143e	-0.042011492
209	0xbdbe5bee	-0.09294878
210	0x3be2cb18	0.0069211833
211	0xbd4fc61f	-0.050726052
212	0xbd54fe4a	-0.05200032
213	0xbc8fca3a	-0.017552484
214	0x3d8b40cc	0.067994684
215	0x3db83a2d	0.08995471
216	0x3e10fb47	0.14158355
217	0xbb4f57e8	-0.003163809
218	0xbd1aa2c4	-0.03775288
219	0x3e044fc0	0.12921047
220	0xbd7b855f	-0.06140649
221	0x3d57dd1f	0.052701112
222	0x3d85f634	0.065411
223	0xbd93ee4f	-0.07223188
224	0xbd4729ea	-0.048623957
225	0xbd6f5319	-0.058428857
226	0xbca6f286	-0.020379316
227	0xbc460ca0	-0.012087971
228	0x3e28b35c	0.1647467
229	0xbe40ea5e	-0.18839404
230	0x3ce64dd1	0.028113278
231	0x3cc2674d	0.023730898
232	0xbc43f278	-0.0119596645
233	0x3d8e6c87	0.06954294
234	0xbdd9124e	-0.105991945
235	0x3d9f573c	0.077803105
236	0xbca042c5	-0.019563088
237	0xbde63a4e	-0.112415895
238	0xbe0955b6	-0.13411602
239	0xbd9f2168	-0.077700436
240	0x3dd1f495	0.102517284
241	0xbe1204c9	-0.14259638
242	0xbc0a7c9f	-0.008452564
243	0xbda61519	-0.08109493
244	0x3d76748e	0.06016975
245	0xbe134b26	-0.14384136
246	0xb8bc71ce	-8.985736e-05
247	0x3e12b754	0.14327747
248	0xbdcad7d5	-0.09904448
249	0x3ca8093d	0.020512218
250	0x3de016f6	0.109418795
251	0x3dc74235	0.09729425
252	0xbd5792b1	-0.05263013
253	0xbdd25cb7	-0.1027159
254	0x3d4a7161	0.049424533
255	0x3cfb60ed	0.030685866

Pair_score_mlp.fc_layers.1.bias f4 [8]
0	0xbc0188fd	-0.007906196
1	0x3ddc6d47	0.107630305
2	0xbdc13641	-0.09434176
3	0x3d96dc2f	0.073662154
4	0x3e062919	0.13101615
5	0x3de5901d	0.11209128
6	0xbd7de46a	-0.06198541
7	0xbd8d8f7c	-0.06912133

CNN_embedding_types.weight f4 [106, 16]
0	0x3e143153	0.1447194
1	0xbf4692f5	-0.7756799
2	0xbefccff1	-0.49377397
3	0x3f73deb2	0.9526168
4	0xbed09b39	-0.40743425
5	0xbc5a8c02	-0.0133390445
6	0x3fe274eb	1.769193
7	0xc039a005	-2.9003918
8	0x3dfc5115	0.12320153
9	0xbf5da16c	-0.86574435
10	0xbf08f5e7	-0.5350022
11	0x3f89da9c	1.0769839
12	0x3ef88eef	0.4854655
13	0x3eca84ba	0.39554387
14	0x3f3c5e1c	0.735811
15	0xbf441104	-0.76588464
16	0xbd081c46	-0.03323009
17	0xbff69467	-1.9264039
18	0x3f2a366a	0.6648928
19	0xbf3b0b97	-0.7306456
20	0x3eea6946	0.45783442
21	0xbf271944	-0.6527293
22	0x3ed42d18	0.41440654
23	0xbe81a860	-0.25323772
24	0xbd1e84ea	-0.038700975
25	0xbf678b1c	-0.9044664
26	0xbfad792f	-1.3552607
27	0x3ef2b3dd	0.4740285
28	0x3f82d8ea	1.0222447
29	0x3eda8399	0.42678526
30	0xbeb908dc	-0.36139572
31	0xbe020d0c	-0.1270029
32	0xbf0ebd64	-0.5575774
33	0x3fd58d45	1.6683737
34	0x3f1fd949	0.62440926
35	0xbebd701e	-0.369996
36	0xbc9e5695	-0.019328395
37	0x3f8b485b	1.0881456
38	0x3ee14e57	0.4400508
39	0xbf8490a3	-1.035664
40	0x40071326	2.1105437
41	0xbfc67729	-1.5505115
42	0xbf88e723	-1.0695537
43	0x3f160fc1	0.5861779
44	0xbd8b8fc4	-0.068145305
45	0x3de1a1bd	0.11017177
46	0xbf021388	-0.5081105
47	0x3fa2344a	1.2672207
48	0xbe9b3a95	-0.30318132
49	0xbf1b255d	-0.60603887
50	0xbe9f647e	-0.31131357
51	0x3d8fa0bc	0.070130795
52	0xbee7fe52	-0.45311219
53	0x4005d9f4	2.0914278
54	0xbd9ca96f	-0.076495044
55	0x3f9f61a3	1.2451671
56	0xbfae8ee5	-1.3637358
57	0xbf44ee9f	-0.76926607
58	0x3eaa21da	0.33228952
59	0x3f9221ae	1.1416528
60	0x3dc3b5d6	0.09556167
61	0xc00868ec	-2.131404
62	0x3f0c59e1	0.54824644
63	0x3f6fa283	0.9360735
64	0x3ff43fa4	1.9081922
65	0x3f762790	0.9615412
66	0x3f0d9f19	0.5532089
67	0x3f719704	0.94371057
68	0x3eaed50b	0.34146914
69	0xbd13fef5	-0.036131818
70	0x3fbfbb4d	1.4979035
71	0xbf46f262	-0.77713597
72	0x3f48d184	0.78444695
73	0xbd3a7e52	-0.045530625
74	0xbe26cc1d	-0.162888
75	0x3fab587c	1.3386378
76	0xbe26b621	-0.16280414
77	0xbe8393cb	-0.25698695
78	0x3d5617c7	0.05226877
79	0xbec7f693	-0.3905531
80	0x3e6be23b	0.23035519
81	0x3e889b18	0.26680827
82	0x3f8c904b	1.0981535
83	0xbf9f969d	-1.2467839
84	0xbf75929b	-0.9592683
85	0xbfe7475a	-1.806865
86	0x3c3a7b61	0.011381955
87	0xbde1e0c8	-0.11029202
88	0xbfa0bd6f	-1.255781
89	0x3f22858c	0.63485026
90	0x3e9e4d58	0.30918384
91	0x4036a2cd	2.8536866
92	0xbf9b7244	-1.2144246
93	0xbe5b1362	-0.21394113
94	0xbf06df26	-0.5268425
95	0x3e32fbf1	0.1747892
96	0x3f04b884	0.5184405
97	0xbec1d558	-0.3785808
98	0xbe66dbef	-0.22544836
99	0xbfc867aa	-1.5656636
100	0x3ef471e5	0.47743145
101	0xbf87e3ac	-1.0616355
102	0x3fe3cc19	1.7796661
103	0xbf0c7875	-0.548713
104	0x3ead86fe	0.33892053
105	0x3f473768	0.7781892
106	0x3bf7464e	0.007546223
107	0xbf157163	-0.5837614
108	0xbf6a5174	-0.9153054
109	0xbd578b67	-0.05262318
110	0x3fe4cf7a	1.7875817
111	0x3f936483	1.1515049
112	0x3dc723f1	0.09723652
113	0x3fcc4b39	1.5960456
114	0xbf1aa9bf	-0.6041526
115	0x3fb474a8	1.4098101
116	0x3df1c573	0.118052386
117	0x3f343ad3	0.7040226
118	0xbf0995c7	-0.5374417
119	0xbf3c7644	-0.7361796
120	0x3f0c0f17	0.54710525
121	0x3ff3d81d	1.9050328
122	0x3dcfe4e3	0.101510786
123	0x3ee6eae4	0.45101082
124	0x3ecd01d9	0.40040472
125	0xbf7faafa	-0.99870265
126	0x3e1b37cd	0.15158005
127	0xbf2177da	-0.63073504
128	0x403688c8	2.8520985
129	0xbdf34c03	-0.118797325
130	0x3ec510d2	0.38489395
131	0x3f79ebe5	0.9762557
132	0xbfac02aa	-1.3438313
133	0xbf558af8	-0.83415174
134	0xbe0659bd	-0.1312017
135	0xbdc276ec	-0.09495339
136	0xbe38437d	-0.17994495
137	0xbf8e5a3e	-1.112129
138	0x3eea8aed	0.45809117
139	0xbe5fadad	-0.21843596
140	0x3f0e5786	0.556023
141	0xbddfd709	-0.109296866
142	0x3fffb5b1	1.9977323
143	0x3e0392d2	0.12848976
144	0x3ce000f2	0.0273442
145	0x3e1ae42a	0.151261
146	0xbf544816	-0.82922494
147	0x40019540	2.0247345
148	0x3e7986c2	0.24367812
149	0x3d9a232a	0.07526238
150	0xbe90502d	-0.2818617
151	0x3d9bbbb9	0.07604165
152	0x3ed073a6	0.40713233
153	0xbe818f61	-0.25304702
154	0x3ecfde06	0.40599078
155	0x3f458049	0.7714887
156	0xbe6ce5ed	-0.23134585
157	0xbf8da606	-1.1066291
158	0x3d94100a	0.07229622
159	0xbf5dfcf0	-0.86714077
160	0xbf96c587	-1.177903
161	0x3f0ada34	0.542392
162	0xbe4d9245	-0.20075329
163	0xbf1895c9	-0.59603554
164	0x3eebd2f4	0.46059382
165	0x3f9dec36	1.2337711
166	0x3e9e5150	0.30921412
167	0x3f1b11fe	0.6057433
168	0x3f197376	0.59941804
169	0xbe9c0720	-0.30474186
170	0xbe9d517f	-0.3072624
171	0x3fd23489	1.6422282
172	0x3f858ae1	1.0433007
173	0xbfbde604	-1.483582
174	0x3f24b4c4	0.64338326
175	0x3fe5efd2	1.7963812
176	0x3cb3298e	0.0218704
177	0xbff36684	-1.901566
178	0xbde56c09	-0.11202247
179	0x3ebad3be	0.3648967
180	0xbfa6ff38	-1.3046637
181	0xbcca3a27	-0.024685932
182	0xbfa71c1a	-1.3055451
183	0xbe68b2f2	-0.22724512
184	0xbdd9c63b	-0.106335126
185	0xbf8c0395	-1.0938593
186	0xbe9247ec	-0.28570497
187	0x3fdb393d	1.7126843
188	0x3fa2bfe4	1.271481
189	0x3f81c583	1.0138401
190	0xbf3d8a2c	-0.7403896
191	0x3e842a79	0.25813654
192	0xbf6792d0	-0.90458393
193	0x40139f18	2.3065853
194	0xbf4b71e9	-0.7947069
195	0x3fdfe3a3	1.7491344
196	0xbda67cba	-0.081292585
197	0xbe3c7c84	-0.18406874
198	0xbf97356d	-1.1813179
199	0x3edd486d	0.4321932
200	0x3fa39ae2	1.2781641
201	0xbf454978	-0.7706523
202	0x3fdc8158	1.7226973
203	0xbe623e3e	-0.22094056
204	0x3f5c5ff8	0.86083937
205	0x3fe8b0fe	1.8179014
206	0x3f2f085f	0.6837215
207	0xbe85506e	-0.26037925
208	0x3ff4f6a8	1.9137774
209	0x3f9281ef	1.1445903
210	0x3fb148d3	1.3850349
211	0xbf936218	-1.1514311
212	0x3e027123	0.1273847
213	0x3f5d3f7b	0.8642499
214	0x3f582913	0.84437674
215	0xbfcc8846	-1.5979087
216	0x3f74a36a	0.9556185
217	0xbfb268b9	-1.3938209
218	0x3d7e879c	0.062141046
219	0xbf82d488	-1.0221109
220	0xbf0c1b52	-0.5472919
221	0x3f8c52bd	1.096275
222	0x3dfd9b7e	0.123831734
223	0x3ecc0790	0.3984952
224	0x3ca85c6c	0.020551883
225	0xbf898aa3	-1.0745434
226	0x3d88e188	0.06683642
227	0x402fd6e4	2.747491
228	0x4056b327	3.3546846
229	0x3fdb1a46	1.7117393
230	0xbfabaf7d	-1.341293
231	0xbe4a3bbc	-0.1974935
232	0xbf7a3799	-0.97741085
233	0x3d482d3e	0.04887127
234	0xbf59f5c2	-0.8514062
235	0xbf19c3b8	-0.6006427
236	0xbf6c296d	-0.9225071
237	0x3e11b1f2	0.14228037
238	0xbefeb176	-0.49744767
239	0xbea50f44	-0.3223821
240	0xbfee9f3f	-1.8642348
241	0x3edbc8db	0.42926678
242	0x3f1d58b0	0.6146345
243	0x3e3b6dba	0.18303576
244	0x3dcac399	0.099005885
245	0xbf0b41ec	-0.54397464
246	0x3f441052	0.765874
247	0xbfb0ceb6	-1.3813083
248	0x3e8548c5	0.2603208
249	0x3f29adce	0.6628083
250	0x3f3a5eae	0.7280072
251	0x3f15f030	0.5856962
252	0x3e7402d4	0.23829204
253	0x3ca9cb5b	0.02072685
254	0xbf4f0017	-0.8085951
255	0x3f5b8c50	0.85760975

embedding_CNN_distances.weight f4 [7, 8]
0	0x3f852bd7	1.0404004
1	0xbf93219e	-1.1494634
2	0x3e47355f	0.19453953
3	0x3eb8f470	0.3612399
4	0x3f7047f6	0.93859804
5	0xbf077fe4	-0.5292952
6	0x3f3c0bff	0.73455805
7	0x3f9e53ea	1.2369359
8	0xbf376e84	-0.7165301
9	0x3f371b02	0.71525586
10	0xc0375eba	-2.8651567
11	0xbe6e646e	-0.23280498
12	0xbf810d7c	-1.008224
13	0xc00d67ac	-2.2094526
14	0xbf82a058	-1.0205183
15	0x3d7f3f05	0.06231596
16	0x3e840553	0.25785312
17	0xbf95503b	-1.1665109
18	0x3d0217b9	0.031760905
19	0xbec3dcdd	-0.38254443
20	0x3f9d89b6	1.2307651
21	0x3f632776	0.8873209
22	0x3ff551c1	1.9165574
23	0x3ecfaf5b	0.40563473
24	0xbdf3052d	-0.118662216
25	0x3ebe863e	0.37211794
26	0x3f0b1e34	0.5434296
27	0xbfe030d5	-1.7514902
28	0x3f700d69	0.9377046
29	0xbf45e1cb	-0.7729766
30	0x3ed6127d	0.4181098
31	0xbf016102	-0.5053865
32	0xbf8cb613	-1.0993065
33	0xbe30e837	-0.17276083
34	0x3f1ef311	0.6208964
35	0x3fc64731	1.5490476
36	0x3e0afd81	0.13573267
37	0xbf376b59	-0.71648175
38	0x3e6b4713	0.22976331
39	0x3ebb073d	0.3652896
40	0x3dbd6c30	0.09249151
41	0xbed2eb34	-0.4119507
42	0xbe516ce7	-0.20451699
43	0x3fab4829	1.3381397
44	0x3ebb8c75	0.36630598
45	0xbf69c5a6	-0.9131721
46	0xbf361b36	-0.7113527
47	0x3f89c8f2	1.0764449
48	0x00000000	0.0
49	0x00000000	0.0
50	0x00000000	0.0
51	0x00000000	0.0
52	0x00000000	0.0
53	0x00000000	0.0
54	0x00000000	0.0
55	0x00000000	0.0

embedding_CNN_prices.weight f4 [6, 5]
0	0x3ff2cbe1	1.8968469
1	0x3fb12de2	1.3842127
2	0xbfa2e25c	-1.2725329
3	0xbfdcf856	-1.7263286
4	0xbf80f29e	-1.0074041
5	0xbee3ea78	-0.44514823
6	0x3f8e78d1	1.113062
7	0x3ff8e006	1.9443367
8	0x3eb20298	0.34767604
9	0xbe7c77b6	-0.24655041
10	0x400b6383	2.1779487
11	0xbf0f1083	-0.5588457
12	0xbfcd8a76	-1.605788
13	0xbf343e71	-0.7040778
14	0xbf93eafc	-1.1556087
15	0xbf997640	-1.1989212
16	0x3febbb34	1.8416505
17	0xbea57d78	-0.32322288
18	0xbfb52afa	-1.415374
19	0xbf5722b1	-0.8403731
20	0xbf1dfa3d	-0.6170996
21	0x3ea163d0	0.31521463
22	0x3d1dc8ae	0.03852146
23	0xbf470dbc	-0.7775533
24	0x3f6d468d	0.92685777
25	0x00000000	0.0
26	0x00000000	0.0
27	0x00000000	0.0
28	0x00000000	0.0
29	0x00000000	0.0
