checkpoints/GNNNoCNN_Epoch26_valmse2.0690_testmse2.2587_ndcg0.9409.model (torch, 249600 bytes, 52 tensors)

Pair_embedding_types.weight f4 [106, 16]
00000000: c556 083d 76f1 a7bd 76d1 cfbe 1397 5ebf
00000010: 035b 5a3f 607a c2be d32c 023e 3392 a4bf
00000020: ce80 db3d ae53 78bc 4af7 9ebf 2997 0b3f
00000030: 0ded c9bf 6306 b93e 03e7 833e cd21 363f
00000040: 51e6 ec3e b05b 96bf aafe f63f ff84 d7be
00000050: 3185 80be adca 3f3e ab11 1dbf a63e 2b3f
00000060: 19af 85bf f8d8 2c3d e180 04bf a6a3 5340
00000070: 1c5e 4ebf cab5 0cbf 70b3 8ebf 54aa 803f
00000080: 1445 dc3f 5f4b 1140 c026 85bf 30f6 133e
00000090: 2b4e 633f 77d8 a4bf 68a2 90bf 6cff 743d
000000a0: faa7 273f e278 063e 2217 833f 12e5 e23d
000000b0: 9dab 71bf 3771 ca3d 3ab8 933f 1cd1 a9bd
000000c0: 3e34 27bf 5328 973f 5c7d c8be 35f8 95bf
000000d0: 283d d7bf 6253 5b3f 483b ffbf 3c47 943c
000000e0: e374 983c 275f 863f f054 abbf eefc a33f
000000f0: 79fc 133c 77cd 753f 58f2 9e3f f662 463d
00000100: cf8f c4bd c9e8 503e 0945 553f 29e3 d0bf
00000110: 4b99 0940 a4dd 88bf 2b1c 693e 77c1 adbf
00000120: 1976 98be 09c4 0c3e e47c 3a3e a825 743f
00000130: 1081 cb3e e07b 35be f685 7d3e 712d 3b3e
00000140: 4392 b0be f2f1 093e 96b8 8d3e b024 893f
00000150: e419 9ebe 1aa2 92bf cd23 21be a31a dabe
00000160: 8cc9 2d3f 38ee c33f a2cc 33bf 1fd9 54bf
00000170: 5b9a 53bf 71ea 1d3f fece 673f 3619 bc3f
00000180: 0310 b1bf 9bd2 7c3e fa76 e73f 2f55 0f3e
00000190: 36c9 3b3f b93a 673e 27f4 5ebf 5d3a 0c40
000001a0: 9787 8ebf b494 9a3f fc67 6e3e 725e 7dbf
000001b0: 2ca7 eebe c799 6e3e 5c4b f5be d781 e5bc
000001c0: 77d8 393f 3c14 c63f 1b4d 833e 0e69 bebe
000001d0: d3e6 24bf 7ff9 493e 640f 9bbe b6ff 2abe
000001e0: 142e 8e3f 2810 26c0 a45a 833e b781 8cbe
000001f0: d940 2dbe 346a c0bf 8bd5 dbbd 01d4 923d
00000200: 3ea2 883e 6106 c53f 755c c03e 0a4e 7d3f
00000210: 27e9 3bbe 3ee6 8f3f 5306 a5bf a91d 1b3f
00000220: b01e 5a3e f92e 80bf 8ad5 bb3f 3da0 0bbf
00000230: 9521 bbbc cda6 a33f 31fc 2bbd ab72 ac3e
00000240: 47d1 713f f03c 753d f361 df3e 3788 77bf
00000250: c286 d1be bfe0 6c3f 218e c03e 1677 17bf
00000260: 1ee9 1b3f 3d82 3fbd 69ee 0f40 343e b53f
00000270: 8bbd bb3f 70f9 053e a23c cd3e ef27 97be
00000280: d78d 88bd 736c 07be 6120 0f3e 8b60 903e
00000290: 7b7c 89bf 8d4a 45bf 88c2 973f 3b75 883f
000002a0: 0f92 b7bf 79a0 353f 3deb 6abe 6ad0 a93f
000002b0: 72ef b13f d4d7 6f3d 8207 9d3e 7f6e da3e
000002c0: 9b2e 9ebf 9a55 1dbf 05a4 1ebe da3f 713f
000002d0: adc0 61be 60bb 9dbf b013 4d3f 7240 243f
000002e0: 41d3 a43e 0d86 4c3f 0d26 ff3f 35fa 5d3e
000002f0: 6364 653d 8a59 b33f 9583 95be f0f1 6a3e
00000300: e5d5 dd3e 7d9c c6bf 350c f63d d3a0 9fbe
00000310: e350 da3f 5713 7fbf f2f4 083f 9d55 c23f
00000320: bdb8 25be 6303 bbbf 3f55 3abf ba97 1b3f
00000330: eda8 643f 4ec9 463e eaf9 e63d c6c1 b83e
00000340: 6b5e 50bf 16f6 d53f cf6b a6be c7de 0a40
00000350: c7c7 a23f 2b49 c63e b002 abbf 8428 973e
00000360: 3ffd c4be 28d6 8e3e 8910 29bf 10fa 0e3f
00000370: d547 a7bf 6d9c 5340 af24 0440 5341 05c0
00000380: 0a3e 65bf e6b4 0ebd a485 15c0 d63d ae3f
00000390: 68ed 86bf 48bf b4be 1169 ce3e 308e 79bf
000003a0: 6e47 e1be 53a2 22bf 8821 41bf cd66 c03e
000003b0: af2d b1bf ffcd 6dbf 83e8 c6be 3957 c4bf
000003c0: 212c 8ebf 1094 d83e 11c4 c4bf 260d 4f3d
000003d0: 25f9 b03e c403 b83f 39a7 663f c628 aebf
000003e0: 5b03 733f d34a 89bf 875b 89be 2709 a4be
000003f0: 1e8b d33f ef4c d7be 2631 febf a628 dd3d
0.033285875 -0.08200352 -0.40589494 -0.8694927 0.8529512 -0.3798399 0.12712412 -1.2857116
0.10717927 -0.01515667 -1.2419217 0.5452753 -1.5775467 0.36137685 0.25762185 0.71145326
0.46269467 -1.1746731 1.9296467 -0.42093655 -0.25101617 0.18729658 -0.61355084 0.6689247
-1.044406 0.042199105 -0.51759154 3.3068633 -0.8061235 -0.5496489 -1.114851 1.005198
1.7208581 2.2702253 -1.040245 0.14449382 0.8879115 -1.287856 -1.1299562 0.0598139
0.65490687 0.1313205 1.0241435 0.11078848 -0.94402486 0.09884875 1.1540596 -0.082918376
-0.6531409 1.1809181 -0.39158142 -1.1716372 -1.6815538 0.8567411 -1.9939966 0.018100373
0.018610423 1.0497788 -1.3385296 1.2811563 0.009032362 0.9601664 1.2417707 0.04843422
-0.09597742 0.204013 0.83308464 -1.6319324 2.1499813 -1.0692639 0.22764651 -1.3574666
-0.297776 0.13746656 0.18211704 0.9536996 0.39746904 -0.17723036 0.24758133 0.18279053
-0.3448659 0.13471201 0.2767989 1.0714321 -0.30879128 -1.145572 -0.15736313 -0.42598447
0.6788566 1.5307074 -0.7023412 -0.831438 -0.826574 0.61685854 0.9055022 1.4695194
-1.3833011 0.24689715 1.8083184 0.13997339 0.733539 0.22580995 -0.87091297 2.1910622
-1.1135129 1.207663 0.23281854 -0.9897224 -0.46611917 0.23300849 -0.47909057 -0.028016014
0.72595924 1.5474925 0.25644764 -0.37189525 -0.6441471 0.19724081 -0.3028518 -0.16699108
1.1107812 -2.594736 0.2565509 -0.27442715 -0.16919269 -1.5032411 -0.107340895 0.07169343
0.2668628 1.5392572 0.3757054 0.98947203 -0.1835066 1.1242139 -1.2892555 0.6059213
0.21300769 -1.0014335 1.4674542 -0.5454138 -0.022843162 1.2785279 -0.041988555 0.33681235
0.94459957 0.059872568 0.43629417 -0.9669222 -0.40923125 0.92530435 0.37608436 -0.59166086
0.60902584 -0.046755064 2.2489264 1.4159608 1.4667219 0.13083434 0.40085322 -0.29522654
-0.06667679 -0.13224964 0.13977195 0.28198656 -1.0741113 -0.7706688 1.1856241 1.0660776
-1.4341449 0.70947987 -0.22941299 1.3266728 1.3901198 0.05855544 0.3066979 0.42662427
-1.2357973 -0.6145874 -0.15492256 0.94238055 -0.22046156 -1.2322807 0.80108166 0.64160836
0.32192424 0.79892045 1.9933487 0.21677478 0.05600394 1.40117 -0.29201952 0.22943854
0.4332725 -1.5516506 0.12014047 -0.31177387 1.7055935 -0.99638885 0.53498757 1.5182377
-0.16183753 -1.4610409 -0.72786325 0.6077839 0.8932026 0.19412729 0.11278136 0.36085337
-0.8139407 1.6715724 -0.32504126 2.1698472 1.2717217 0.38727698 -1.3360195 0.29523098
-0.3847446 0.27897763 -0.66040856 0.55850315 -1.3068796 3.3064225 2.064739 -2.082112
-0.8954779 -0.034840487 -2.3362818 1.3612621 -1.0541201 -0.35302186 0.40314534 -0.97482586
-0.4399981 -0.6352894 -0.7544179 0.3757843 -1.3842067 -0.9289245 -0.38849267 -1.5339118
-1.1107217 0.42300463 -1.5372335 0.05054965 0.34565082 1.4376149 0.9009891 -1.3606193
0.94926995 -1.072596 -0.26827642 -0.32038233 1.652683 -0.42050883 -1.9858749 0.10798769

embedding_Pair_distances.weight f4 [7, 8]
00000000: 0ea5 003f b350 55bf b683 6f3f 37ac 3b40
00000010: ae9f 2a3f 9b57 b23f c302 adbe 06f5 953e
00000020: 396f 0040 1bc0 0e40 c662 533f 06e7 d6bd
00000030: 3930 be3f 762e 78bf 4897 cb3f 52e8 2240
00000040: 376c 39bf 12bd 67bf acd7 74bf 1d4f 4bbd
00000050: afc8 b5bf ae63 03bf e9c0 023e 2115 c8bf
00000060: e9d1 d8be 6db7 cc3e 86eb f2bf 2ec7 5ebe
00000070: dc5a 05c0 efdc efbf 6f38 77bf 1c58 ffbe
00000080: 4350 853f 27cb 973f fbdf c5be d7b5 00c0
00000090: 6c20 a6bf 2d2b 36be 24bd 2ebf 04b4 8dbf
000000a0: 08b6 40bd b889 d43e c3cd 08bf dcfb 3d3e
000000b0: 8e4e b5bf ebac 41bf d2ca d4bf 7385 09bf
000000c0: 0000 0000 0000 0000 0000 0000 0000 0000
000000d0: 0000 0000 0000 0000 0000 0000 0000 0000
0.50251853 -0.8332626 0.9356035 2.9323862 0.666499 1.3932985 -0.3379117 0.292885
2.0067885 2.2304752 0.8257259 -0.10493283 1.4858466 -0.96945894 1.5905542 2.5454297
-0.7243075 -0.90522873 -0.9564159 -0.049635995 -1.4201869 -0.51323974 0.12768902 -1.5631448
-0.4234765 0.39983693 -1.8978126 -0.21755669 -2.0836706 -1.8739299 -0.96570486 -0.4987191
1.0415119 1.1858872 -0.38647446 -2.0110986 -1.2978644 -0.17789908 -0.68257356 -1.1070561
-0.0470486 0.4151132 -0.5343897 0.18553108 -1.4164598 -0.75654477 -1.6624396 -0.5371925
0.0 0.0 0.0 0.0 0.0 0.0 0.0 0.0

embedding_Pair_prices.weight f4 [6, 5]
00000000: 5a4f 8d3d 28f2 d93e 1b60 c03e 7fcc 53be
00000010: 9900 993f 8378 623f d828 933d e8d4 6a3f
00000020: 0c37 373f 6d2e 583f e542 1dbe 8934 1fbf
00000030: c82a 25bf bf48 0c40 b971 44bf 590f 9cbf
00000040: c64a 01c0 2209 f6be 95f2 263e 3a5a ff3f
00000050: 2521 a4bc 07d4 b8bf 3858 a3bd 073b 7b3f
00000060: 3e56 b5bd 0000 0000 0000 0000 0000 0000
00000070: 0000 0000 0000 0000
0.06899901 0.42567563 0.37573323 -0.20683478 1.1953307 0.88465136 0.07185525 0.9173112
0.7156837 0.8444584 -0.1535755 -0.6218954 -0.64518404 2.19194 -0.76736027 -1.2192184
-2.0201888 -0.48053843 0.16303475 1.994941 -0.020035336 -1.4439706 -0.07975811 0.98136944
-0.0885434 0.0 0.0 0.0 0.0 0.0

Pair_shop_mlp.fc_layers.0.weight f4 [64, 32]
00000000: 33ce 253d 89a1 01bd 3193 203e 1144 3b3e
00000010: 9d39 5abe 1639 333d 21ce 763d d24d 00be
00000020: 7409 9c3d dbb0 133e f129 20be 4d04 9f3c
00000030: c159 11be 126f 48be ff17 983d dc88 7e3d
00000040: 41e4 d63d e668 3b3c 2b6f 31bc 22cd 8f3d
00000050: 1f1b 303c 4771 bc3d 9b9f 4e3c e19b 763e
00000060: a6b5 06be e7ff b83c d727 a23c 0dc6 8c3d
00000070: e351 c73d 6899 543d 17ec b8bd 61a9 3bbe
00000080: a919 3dbe 1dad d83d 1b18 a0bd 7b64 083e
00000090: b59b a63d 02e7 543e 95e7 8c3e 34ee fcbd
000000a0: 25ec 17be 9b9b 7abd 8242 cdbd b6cf 323c
000000b0: bd69 12bd d13e 44bd 2797 f43c 7580 643e
000000c0: 600b 4a3d 5ec2 26be 07e5 f03c 1b4c 493e
000000d0: bc73 a23d 3550 b7bd d5cb 1c3c 2539 f03d
000000e0: 3578 d8bd c5e4 a53d 6a61 86bc a4bd 2bbe
000000f0: 56fb 203e 5965 a2bd 934d 463e ca76 553d
00000100: 9e22 683d 34b9 693d 95aa cebc 7885 83bd
00000110: c5e0 fb3d 3dfa f93d 69cb 823d 6cc2 d13d
00000120: 04c0 453e 1693 2cbe 63d2 e7bd fb2e 033e
00000130: c64f b2bd 165d 05be e3df 20bd 73c5 ff3d
00000140: 3261 39be f487 26be 2e91 fd3d 97b1 163e
00000150: 971b 00be 87d9 cb3d 426d 983c 236d 0abd
00000160: e45d b2bd 47e4 da3d ea49 fb3d def5 febd
00000170: 4837 073e 69d7 dabd 364f d53d 4e92 5f3d
00000180: 0982 8ebd d4d9 cfbd 8bb6 b0bc 02fa f3bc
00000190: 7975 8b3d a140 023e 1738 123e 320f f43c
000001a0: c32e 25bd 91d3 263e 73cc 03be defc c03d
000001b0: 14e6 ed3d e533 d03d 2c3a 30be 5d05 193e
000001c0: 5573 bbbd 4362 d33d 7cbb 37be 7e65 38bd
000001d0: 229f f83d 5ae1 98bd f175 e3ba 6ede 183e
000001e0: 3c0a 2a3e 93ba 993d 50a3 283e 425f 9d3d
000001f0: f4ca 3ebe 7fdd e9bc ffb0 14be ea50 a3bd
00000200: 2ba1 193d e779 993d 3b6d 0e3d 100f 1e3e
00000210: 8081 a63c a8b6 30be e0b8 483d 8e40 ddbd
00000220: c35d 99bd 13c4 d7bd b97b 563d 5802 6bbd
00000230: 878e 67bc 703f 05be 959e 32bd 8f7c b13d
00000240: 3448 01be 93ba e8bd e1cf bfbc 5cc9 48bc
00000250: e9a8 093e af70 723d 5977 12be 21cb 653d
00000260: 0a5b 32be 5b34 e6bd d533 bdbd d832 b3bd
00000270: 47f7 d03c 1fb6 19be 7cea 823d 3198 08be
00000280: 868d 303d 2588 c93d 53f7 91bd b1a2 83bb
00000290: 43f5 58bb 22f2 a43d d9d5 1e3e cf9b 9f3d
000002a0: aa70 35be 42eb 46be 1995 d8bb 2eed f8bd
000002b0: e6fa 4a3d d7ae 57be d495 fbbd c18f de3c
000002c0: 7d63 883b 21e6 2e3e 2f50 0fbe 53a1 d73d
000002d0: 6091 c3bd 05dd 133e 92a3 093e 7d91 12be
000002e0: 1552 3a3e e6ea 463e 7212 aa3d d0f8 83bd
000002f0: 5b40 b9bd 770a 143e e5b3 b23c fbef 2dbe
00000300: eaf4 613d b31e 2bbe 63de d5bd c750 4cbd
00000310: 3b21 b33c 6886 16be 7886 71bd 3b13 02be
00000320: 6298 30bd dbab 34be 06ee b2bc 0ec4 efbd
00000330: 0da3 dc3d 6715 493d 6e0b 92bd ecc6 d93d
00000340: 573a 00bd 43dc ef3d d0bf 8abd 1e59 f53d
00000350: 5b6c 013d cfcc 21be 4fd2 a5bd 437a 5cbd
00000360: 5920 423e 2697 903c eb55 da3d 0199 39be
00000370: 8e94 2cbe 4afa 58bd 73cf e83d 4cb0 3fbd
00000380: c7e2 a1bc f503 19bd e295 70bd e9af e9bb
00000390: 7cc5 183e d8b9 7d3d 1eab c73d b2df dc3d
000003a0: 8a48 cfbd bbb1 223d 95b8 433d 083d ecbc
000003b0: 4b22 263e d8e3 463e b0a1 1e3d 2d5d f53d
000003c0: 1202 2bbe 0b0b 523b e931 57bd 2f45 38be
000003d0: c614 c6bd b8b3 193d 3a52 28be 0acc 0ebe
000003e0: aacb ba3d 96b8 a93d 21cf 443e 9345 c93d
000003f0: 35a3 bfbc a16e 563d 4305 f6bc b064 973d
0.04047985 -0.031648193 0.15681149 0.18287684 -0.2131104 0.043755613 0.060255174 -0.12529686
0.076189905 0.14422934 -0.15641 0.01941123 -0.14194395 -0.1957362 0.07426452 0.062142238
0.10492755 0.011438584 -0.010829727 0.07021548 0.010748654 0.092012934 0.012611295 0.240829
-0.13155231 0.022582961 0.019794388 0.06873713 0.097324155 0.051904112 -0.090294056 -0.18326332
-0.1846682 0.10579894 -0.07817098 0.1331958 0.081351675 0.20791247 0.27520433 -0.12350121
-0.14836176 -0.061183553 -0.10022451 0.01091378 -0.03574537 -0.04791147 0.029857231 0.22314627
0.049327254 -0.16285083 0.029406084 0.19657938 0.07932231 -0.08950845 0.009570082 0.117296495
-0.10569803 0.08100275 -0.016403873 -0.16771561 0.15720877 -0.07929487 0.1936553 0.05211524
0.05667364 0.05706139 -0.025227824 -0.064219415 0.12298731 0.12205932 0.06386454 0.10242161
0.1931153 -0.16852984 -0.11319425 0.1281089 -0.08706622 -0.1302379 -0.039276015 0.12488832
-0.18103483 -0.162628 0.123812065 0.14716183 -0.12510525 0.099535994 0.018606786 -0.033795487
-0.087093145 0.10688072 0.12269957 -0.12449239 0.13204682 -0.106856175 0.10415499 0.054582886
-0.06958396 -0.10148969 -0.021571418 -0.029782299 0.068095155 0.12719966 0.14279209 0.029792402
-0.0403278 0.16291644 -0.1287096 0.094232306 0.116161495 0.10166148 -0.17209691 0.14943452
-0.09152857 0.10321476 -0.17942613 -0.045018665 0.12139727 -0.074648574 -0.0017353875 0.149286
0.16605467 0.07506289 0.16468549 0.076841846 -0.18632108 -0.028548 -0.14520644 -0.079744175
0.037507217 0.07493954 0.03477214 0.15435433 0.020325422 -0.17257178 0.049004436 -0.108033285
-0.07488587 -0.10535445 0.052364085 -0.057375282 -0.014133102 -0.1301248 -0.043608267 0.08666336
-0.126252 -0.11363711 -0.023414554 -0.012255039 0.1344334 0.059189495 -0.1430334 0.056101922
-0.17417541 -0.11240455 -0.09238402 -0.08749932 0.025508536 -0.1501088 0.063923806 -0.13339306
0.043103717 0.09840421 -0.071272515 -0.004017197 -0.0033105172 0.08053996 0.15511264 0.0779339
-0.17718759 -0.19425681 -0.0066095707 -0.121546134 0.04955568 -0.2106279 -0.12284437 0.027168157
0.0041622506 0.17079975 -0.13995431 0.10528817 -0.095492125 0.14439781 0.13441303 -0.14313312
0.18195374 0.19425544 0.083042994 -0.064439416 -0.09045478 0.14457117 0.021814296 -0.16986077
0.05516521 -0.1671093 -0.104428075 -0.049881723 0.021866431 -0.1469971 -0.05896613 -0.12702648
-0.043114074 -0.17643683 -0.021842014 -0.11707316 0.10773287 0.049092676 -0.07131086 0.106336445
-0.031305637 0.117119335 -0.067748666 0.119798884 0.031597476 -0.15800785 -0.08096754 -0.053827535
0.18957652 0.017650198 0.10660919 -0.18124773 -0.16853544 -0.05297307 0.11367693 -0.04679899
-0.019761456 -0.03735729 -0.05873669 -0.007131566 0.14919084 0.061944813 0.09749435 0.10784854
-0.101212576 0.03972028 0.047783453 -0.028837696 0.16224019 0.19422853 0.038728416 0.119806625
-0.16700009 0.003205004 -0.052537832 -0.17995141 -0.09671931 0.03752491 -0.16437617 -0.13945022
0.09120877 0.0828716 0.19219638 0.09827723 -0.023393253 0.052351598 -0.030031806 0.073922515

Pair_shop_mlp.fc_layers.0.bias f4 [64]
00000000: ac1b 373e 657d bfbc a926 e1bd b3b6 abbd
00000010: dc89 c2bd 3b9f 95bc 506f d73d 7ba6 bbbd
00000020: 6f13 e6bd 0701 b73d eb60 be3d 6817 243e
00000030: 6b2b cebd e54d ce3d 6ad5 ab3d 915b 50bd
00000040: 464c debd 00d6 aabd 66bf a9bd 74b0 a43d
00000050: 5f1e 3e3e e6ad 113e 4424 bebd d8ae 62bd
00000060: c720 5ebd 07e2 b0bd a39b e7bc 84cb 253d
00000070: 59a7 29be 41c2 e93d 80f1 413d 9575 e13c
00000080: ee06 453d 49ff 483d 0d08 ffbc eb4b 80bd
00000090: c417 debc f09a ea3d 6033 a1bd 5c97 dc3d
000000a0: 4f08 9abc b97d 393d 0c03 9d3d 2b72 263e
000000b0: b99e b53d d6ac 1abd d127 3e3e c517 5cbd
000000c0: 1602 abbd 9206 adbd 86e0 66bc f2ab 723d
000000d0: c6aa 053e 29af a43d 4f41 f4bd 9210 94bd
000000e0: ce1d ff3c 7625 12be df5f 213d e48a 343e
000000f0: b4df e8bd 168a 663d 2944 19be beca 5cbd
0.1788165 -0.023375222 -0.10993702 -0.083844565 -0.09498951 -0.018264404 0.10519278 -0.09162613
-0.112341754 0.08935743 0.092958294 0.16024554 -0.10066875 0.10073451 0.08390315 -0.050868575
-0.10854392 -0.083415985 -0.082884595 0.08041468 0.18566273 0.14226493 -0.09284261 -0.055342525
-0.054230478 -0.08636861 -0.028272456 0.04047729 -0.16567744 0.11414004 0.047349453 0.027521888
0.04810231 0.049071584 -0.031131769 -0.0626448 -0.027110942 0.11455333 -0.07871127 0.10771057
-0.01880279 0.045285914 0.07666597 0.16254489 0.088681646 -0.037762485 0.18569876 -0.053733606
-0.08350007 -0.08448519 -0.0140916165 0.05924601 0.13053426 0.08041222 -0.11926519 -0.07229723
0.031142142 -0.14272103 0.03939807 0.17631108 -0.11370793 0.056284033 -0.14967407 -0.053904288

Pair_shop_mlp.fc_layers.1.weight f4 [16, 64]
00000000: fa01 69be 81d5 11bd 6350 493b 4e09 a23d
00000010: 6c52 4f3d da74 aebc 60f5 d83d a0ca b2bd
00000020: 9422 15bd 42ef 72bb 13cc d1b9 1ea6 e73d
00000030: 9359 b2bd ea77 a8bd 2da8 18be 4e5c 113e
00000040: 9c96 cc3d b8e9 113e f52d 62bc 4b15 a9bc
00000050: 7cce 1d3e bb5f f8bc 6198 973d 7edb 2c3d
00000060: 9a9f d03b 7835 ab3d 49b7 12be 30b3 2e3e
00000070: 5a86 073e d140 b63d ae7e b6bd 1531 95bd
00000080: bfc2 1c3e 42f4 dabd 69ad e33d fbe6 fa3b
00000090: d186 ef3d 1227 523e 22f7 943d f94e c83c
000000a0: 00c3 3e3d be53 923d 4a52 3a3d 220d 87bd
000000b0: c43a 10be ec65 01bd 7d4a cd3c 509f d03d
000000c0: 934b 053c 6e22 0e3d c5df 2f3e 3a6f 563d
000000d0: 5724 be3d 724c 993d 7a93 fabd b433 6fbd
000000e0: fb3a e13d 71a9 d1bd 2129 4e3e 0e79 473c
000000f0: 9c35 2d3d ad9b 45bc 18f9 983d fad7 433c
00000100: 8355 573e 3566 6cbc 03bc 403c 79b4 ed3d
00000110: 2c3a 38bd 44f7 bb3d 166b db3d eef2 a8bd
00000120: 534e a93d 1afe 043d 10ea a83d b0bb ce3d
00000130: e916 a63d 5387 a73d 70c5 35bd ff9e f83d
00000140: 483d 833c 9079 95bd 8def f33d 423a 47bd
00000150: aa48 91bc adcc a4bd 0df7 b73d 7d0e b8bd
00000160: 2270 303d 2cad 9f3c 6b7b 80bd 1a5c 84bb
00000170: 5643 34bd dc40 d93d 1840 883a b0da bf3d
00000180: a494 28bd 6453 5abd fe18 e8bd 3631 8d3d
00000190: 60e4 cd3c 14df 8ebd 8d0b 5ebd 9303 913d
000001a0: 46b1 7dbd b0e3 d33c 0fcc 063e 5806 183e
000001b0: b3eb 01bd 78b4 253c c6cd 003e acc7 82bc
000001c0: 1b79 0bbe 0d51 efbb a5c1 9d3a 5fb9 b2bb
000001d0: 5035 c7bc 8410 8dbc 3d7c 633d 6886 8abd
000001e0: 267f 20bc ff88 e63d 0906 ecbd fe81 093e
000001f0: b48a c83d cd3c dcbd 5ee6 97bd fc55 a93d
00000200: b15c 463e 3f25 813d 165c a03d 2eda 9e3a
00000210: 6424 e6bd 9d55 603d c356 13bc 8f08 8abd
00000220: 7e72 303d 799f cc3d 2ac4 113c d505 18bd
00000230: b716 1fbd 4c31 063d d646 103c 2037 89bd
00000240: 5225 adbc a9b8 b83c 3529 c63d 2b74 0e3e
00000250: 348e 453d c019 8f3b 2ca8 d3bc 3790 993d
00000260: db04 3fbc f5f9 93bd d816 543e 1ca3 55bd
00000270: 6bcd 34bc 8633 243e f7ce 3a3e b16f d3bd
00000280: 848e ba3d 5593 893c 974e 93bd 9dc9 07bd
00000290: 01df 90bc 51db cbbd 3833 153e f6c5 c63d
000002a0: fa0b b43d d3c7 c7bc aa6e 4b3c 3066 19bc
000002b0: 7802 123e 4068 7f3c 61f3 243d e90e cbbd
000002c0: f9e6 04be fc15 b83d 5a0f 2bbe 24a1 d1bc
000002d0: 2dce 00be faec fc3d 2324 2e3d 7bac cc3d
000002e0: bcf7 a23c 76ea 6dbd 2057 833d 9e60 dfbb
000002f0: 7e30 7d3d ea2c c93d 4b5a 90bd c73a aa3d
00000300: 4957 103e afe6 893d b711 433c 3ce6 c5bd
00000310: 78a6 3d3d 4125 8ebc 629f ef3d 9407 073e
00000320: fb64 053e d950 403e 2691 133e 61c6 573c
00000330: 224c 273d cbae 83bd 2c1f 9bba 146a bdbd
00000340: 66a0 843d ab08 4ebd a984 123d 772a 0c3d
00000350: a7f5 4abd 332f ee3d 79aa 063e 8a6e de3d
00000360: f69f 283e 8442 41be 5279 463e aba1 973d
00000370: b913 4b3d 4b29 eb3d 519b 1e3e 83d1 173e
00000380: dd39 a93d 74f3 193d b6fc 123d aae2 3bbd
00000390: 9ad9 debd 051a d6bd 88f9 9fbd 6121 203b
000003a0: bd48 8dbb 665d 8c3d 1563 953d ae54 723b
000003b0: 0fb0 653d 2598 c9bc 2d03 09bd 4083 553d
000003c0: bc07 56be c728 e4bd 98b3 3ebe 4bea a73d
000003d0: 7c04 ddbd 2d14 74bd 11cf a7bd 51c1 723d
000003e0: 3645 cf3d acf7 60bd d2fa b63d c496 0f3e
000003f0: 4a8d 41bd 8ca5 663d d015 0d3d fa18 113e
-0.2275466 -0.035604004 0.003071808 0.07911931 0.050615713 -0.021295954 0.105936766 -0.08730054
-0.03640993 -0.0037068878 -0.00040015634 0.11310981 -0.08708491 -0.08225997 -0.14907904 0.14195368
0.09989664 0.14249313 -0.013804902 -0.020640036 0.15410799 -0.030319085 0.07402111 0.04220151
0.0063666822 0.08359808 -0.1432773 0.17060542 0.13234845 0.088990815 -0.08910881 -0.07284752
0.15308665 -0.1069112 0.1111706 0.0076569295 0.11695636 0.20522717 0.07273699 0.02445172
0.046572685 0.07144879 0.045488633 -0.06594302 -0.14084917 -0.03159134 0.025059933 0.101866364
0.008135694 0.034700803 0.17175205 0.052352168 0.09284275 0.07485284 -0.1223516 -0.058398917
0.10997578 -0.102373965 0.20132877 0.012174858 0.042287454 -0.012061042 0.07469386 0.011953348
0.21028714 -0.014428665 0.0117635755 0.11606688 -0.044977352 0.091780216 0.107137844 -0.0824946
0.08266892 0.032468893 0.08247769 0.10094392 0.081098385 0.08180108 -0.044377744 0.12139701
0.016020432 -0.07298577 0.11910925 -0.048639543 -0.017734844 -0.08046851 0.08982668 -0.089871384
0.04307569 0.019491754 -0.0627354 -0.0040392997 -0.04400953 0.10608074 0.0010395078 0.09367883
-0.04115738 -0.053302184 -0.11332892 0.06894152 0.025133312 -0.069761425 -0.054210234 0.0708076
-0.06193664 0.025865406 0.1316378 0.1484617 -0.03171892 0.010113828 0.12578496 -0.015964352
-0.13620417 -0.007303363 0.001203586 -0.005454227 -0.024317414 -0.01721979 0.055538405 -0.06763917
-0.00979594 0.11256599 -0.115245886 0.13428494 0.097920805 -0.10753784 -0.07416986 0.08268353
0.19371296 0.06305932 0.07830064 0.0012119466 -0.1123741 0.054769147 -0.008992854 -0.06739914
0.04307794 0.099913545 0.008896867 -0.037114937 -0.038840022 0.032761857 0.008805951 -0.066999674
-0.02113596 0.02254899 0.09675828 0.13911502 0.04823132 0.0043670833 -0.025837027 0.0749821
-0.0116588725 -0.0722541 0.20711839 -0.052157506 -0.011035304 0.1603528 0.18243013 -0.10324038
0.09109214 0.016793886 -0.07192724 -0.033151258 -0.017684462 -0.09953941 0.1457032 0.09705727
0.08791347 -0.024387276 0.012416521 -0.009362742 0.14258754 0.01558882 0.040271167 -0.09914953
-0.12978734 0.08988568 -0.16705075 -0.025589533 -0.1257865 0.12349887 0.04251493 0.099938355
0.01989352 -0.058084927 0.06413102 -0.0068169376 0.061813824 0.0982302 -0.07048472 0.08311992
0.14095797 0.067334525 0.011906079 -0.09663054 0.046301335 -0.017351748 0.11700322 0.13186485
0.13026802 0.18780841 0.14410838 0.013169856 0.04084409 -0.064298235 -0.0011834851 -0.092487484
0.06475906 -0.050301235 0.035771046 0.034220185 -0.04955068 0.11630096 0.13150968 0.108609274
0.1646727 -0.1887303 0.19382218 0.074038826 0.049579356 0.114824854 0.15488936 0.14826016
0.0826299 0.03758569 0.035885535 -0.04587046 -0.10881348 -0.104541816 -0.07811266 0.0024433958
-0.0043116496 0.06853752 0.07294289 0.0036976743 0.056076106 -0.024608681 -0.033450294 0.052127123
-0.20901388 -0.1114059 -0.18623197 0.08198985 -0.10791871 -0.059589554 -0.08193792 0.059266392
0.10120623 -0.0549237 0.08934559 0.14022356 -0.047253884 0.05631022 0.03444463 0.14169684

Pair_shop_mlp.fc_layers.1.bias f4 [16]
00000000: 5bae b7ba 6b18 dd3b d3d4 083e e012 213d
00000010: b85b abbd 51d9 f23b e4ff 853c 711c acbd
00000020: fb9c 4e3d 8ac4 a6bd 674d 52bd 3fe3 8f3d
00000030: 5192 cf3d ca9e 7b3c 6593 b8bd b524 0f3e
-0.0014013754 0.0067472956 0.13362436 0.03932464 -0.08367103 0.00741116 0.01635737 -0.08403862
0.050442677 -0.081429556 -0.051343348 0.07025766 0.101353295 0.0153576825 -0.09012488 0.13978846

Pair_score_mlp.fc_layers.0.weight f4 [64, 32]
00000000: 20f5 0bbe 29e2 d1bd 8ce8 1f3e 5edb 2ebd
00000010: bf03 99bd 76ea c0bd f8d3 503e e0b9 853c
00000020: 3d33 d3bb da0b dcbd d491 51bd 60f5 d1bd
00000030: 8d00 07be d751 0abe 7433 8f3d e3da 1f3c
00000040: f4e3 40be 8985 c9bd ee72 853e f653 81bd
00000050: 5410 e13d ee39 48be 93e2 5c3d 2a80 fc3d
00000060: 5a99 23be 44f2 8ebd a8e1 283e 0a9e cdbd
00000070: d85d a33d 8e69 71bd c25e 7bbe 6e3e 94be
00000080: d265 3dbe d42f 90bd 91fd 473e 86df 3e3e
00000090: 79f2 acbd 3197 333e 8158 2f3e 4076 eebd
000000a0: 7d7d f23d 029a 11bd 0414 a1bd c96d 143d
000000b0: 5208 943d 0dae 3bbd 48d8 d1bd 94f1 95bc
000000c0: 6f38 99bd cbe3 e6bd 6b95 543d 7359 1b3e
000000d0: a356 163c f7ef fcbd aaf7 6b3d 674b eabd
000000e0: a1fa 32be 4b03 3b3e 1bfb 413c 6c04 0ebe
000000f0: 1781 32bd 5794 dcbc 20e3 263e ed13 8e3d
00000100: b78b f5bd 0c37 8cba 2455 4ebd e39c d0bd
00000110: 0ba8 2a3d 387b 53bc 3fd3 c63d eefe 02bd
00000120: eee3 073e d028 10be c331 c73c b656 323e
00000130: 847b dc3c 919f 34bd 30ba b03d 34dd 993a
00000140: 8497 8abe 4213 103d 29ef 173d dcbc 6c3e
00000150: f11f 593e 3a0c 8c3d 1396 603e 3369 8e3d
00000160: 04be 2a3e 4715 90bd da89 4abd 4901 74bc
00000170: c9f6 17be 7ae9 f2bd 4c3e b7bd 3960 f53d
00000180: 8be6 26be 5802 033e 272d 623e be08 303d
00000190: 4f0f 343e 81c2 10be cd48 f0bd 9ae2 753d
000001a0: 1b86 1a3e 1284 bc3d 33a9 f9bd 5d92 3a3e
000001b0: 0600 adbd 587a 893d f246 bfbd fa65 383e
000001c0: 74ad da3c fcac dcbd 4d14 e53d 363d 993d
000001d0: 82c0 053d aa36 893d 670b 083e b7ea 56bd
000001e0: d8d3 123e 25e5 56be ba32 333d 7d5d 8fbd
000001f0: 598a 243d f929 3b3d a654 393e aa26 383d
00000200: 500c 46be 13d1 96bc 25f5 b33c 89fd debd
00000210: c422 0b3e 32c4 f2bc 62e4 f5bd 5c68 79be
00000220: 195e 143e 6183 85bd 4582 42be b1a5 3bbe
00000230: 5610 16bd 2d1b 923c f3b6 01be f274 1abe
00000240: 3fd3 2f3e 12a7 353e 9431 f1bd 8623 f8bd
00000250: 9d37 b7bd 6d85 c93d d5f4 853c 81cc b5bb
00000260: 1e14 52be 74aa 943d 6591 0dbd fb0b 653e
00000270: dbb6 d8bc 44a9 08be 2dd2 3d3d 9b6e 17be
00000280: 0246 f2bd c657 1a3d 2480 103e 382d 973d
00000290: 0305 c93d c7c1 0d3e b263 c4bd 4f32 ddbd
000002a0: 4af1 cbbd 48c3 423c be9b 373e bdca 843d
000002b0: 56f1 cd3b 7667 bf3d 95ff 21be 554c 84bd
000002c0: 95ed 303e e142 263e 89c9 b33d bcb0 0cbc
000002d0: e0b0 fd3d 27d7 07be 03f5 e43c d900 c03d
000002e0: c0b6 953d df48 903d 1efa 533e ca97 3dbe
000002f0: aaa6 263e 093e 10be 5aa8 223e a364 81bd
00000300: c514 00be 6132 573e 9811 62bd 260a 84bd
00000310: bc0e 15be 5287 afbd d78b 053d 3fcd 073e
00000320: 14e1 ac3a a49e b83d 95a5 b7bd 7870 183e
00000330: 495f 37bd 01ec cfbd a417 0b3e b6e3 c83c
00000340: 3d4d 92bb c63a 0b3e 1e41 c2bd b8b9 07bc
00000350: 6bad 67bd c2d0 923d 37e9 3a3e 51bf 2d3e
00000360: e4ca 9d3d b6b1 57bd d8b8 573d 0ec3 583e
00000370: 0c4c f0bd edad f43d cf62 1a3e 8cb1 10be
00000380: 4ec8 4c3c f91e 90bd 1711 503e 40f1 093e
00000390: 661c 143d 7953 9c3c ed8c b3bd badd b7bd
000003a0: def5 3d3e cbab 773e dfef 50be 5d66 fbbd
000003b0: 5534 853d 7917 5dbd 9b36 dbbd 6b31 ff3d
000003c0: b0ed 4dbe a7fb 05be 22ff f33c 25dd a1bc
000003d0: f635 95bd 96dc 763e 2411 573d 61b3 c137
000003e0: e808 c93a 3261 e7bd a88b babd 48d1 ffbd
000003f0: ac96 dabd 41b0 96bd 6689 333e 5d2a 8c3d
-0.13667727 -0.10248215 0.15616053 -0.042689674 -0.07471418 -0.0941972 0.2039336 0.016323984
-0.006445317 -0.10744448 -0.051164463 -0.1025188 -0.13183804 -0.13507782 0.06992236 0.0097567765
-0.18836957 -0.09839923 0.26064247 -0.063148424 0.109894425 -0.19553348 0.053927016 0.12329133
-0.15976468 -0.06979802 0.16492331 -0.10039909 0.07976884 -0.058938555 -0.24547866 -0.2895388
-0.18495873 -0.070403725 0.19530322 0.18639955 -0.084446855 0.17538144 0.17123605 -0.11643648
0.11840341 -0.035547264 -0.07865146 0.03623751 0.072281495 -0.045820285 -0.102463305 -0.01830367
-0.07481467 -0.11273917 0.05190031 0.15170841 0.009175929 -0.12350457 0.057609238 -0.11440163
-0.1747842 0.18262975 0.011839653 -0.13868874 -0.04358014 -0.026926203 0.16297579 0.06937394
-0.11989539 -0.0010697558 -0.050374165 -0.10186174 0.041664165 -0.012907796 0.09708261 -0.0319814
0.13270542 -0.14078069 0.02431572 0.1741589 0.026914366 -0.044097487 0.086292624 0.0011738897
-0.27068722 0.035174616 0.037093315 0.23118919 0.21203591 0.068382695 0.21932249 0.06953659
0.16674048 -0.07035308 -0.04944787 -0.0148928845 -0.14840235 -0.11860938 -0.08947429 0.11981244
-0.16298883 0.12793863 0.22087537 0.042977087 0.17583965 -0.14136697 -0.11732636 0.060030557
0.1509022 0.09204878 -0.12190475 0.18219896 -0.0844727 0.06712788 -0.093397036 0.18007651
0.026694037 -0.10775182 0.11185513 0.07482378 0.032654293 0.066998795 0.132856 -0.052469935
0.14338624 -0.20985849 0.04374955 -0.07000253 0.040171 0.045694325 0.18098697 0.044958748
-0.19340634 -0.018410241 0.02196748 -0.10888202 0.13587481 -0.029634569 -0.12006451 -0.24356216
0.1448902 -0.06519199 -0.18995006 -0.18324925 -0.036636673 0.017835224 -0.12667446 -0.15083674
0.17170428 0.17739514 -0.117770344 -0.121161506 -0.08946154 0.09839902 0.016352097 -0.0055480604
-0.20515487 0.07259074 -0.034562487 0.22367851 -0.02645438 -0.1334582 0.046343017 -0.14788286
-0.11829759 0.037681364 0.14111382 0.07381672 0.09815409 0.13843451 -0.09589328 -0.10800611
-0.099581316 0.011887379 0.17930505 0.06483982 0.006284873 0.093459055 -0.15820153 -0.06459872
0.1727813 0.1623645 0.08778674 -0.008587059 0.12387252 -0.13265668 0.027948862 0.09375162
0.073102474 0.07045149 0.20700881 -0.18514934 0.16274515 -0.14086165 0.15884534 -0.06318023
-0.12507923 0.21015312 -0.05519256 -0.06447248 -0.14556402 -0.08570732 0.032604065 0.13261889
0.0013189637 0.09014633 -0.08967129 0.14886653 -0.044768605 -0.10152436 0.13583237 0.024522644
-0.004464774 0.13596639 -0.09485076 -0.008284025 -0.05656187 0.07168724 0.18253027 0.16967513
0.07704714 -0.052659713 0.052666515 0.21168157 -0.11733255 0.11947236 0.15076755 -0.14130229
0.012498928 -0.070371576 0.2031902 0.13470936 0.036159895 0.019082772 -0.08767114 -0.08977838
0.18550822 0.24186628 -0.20404004 -0.122753836 0.06504122 -0.053977463 -0.107037745 0.124605976
-0.20110202 -0.13084279 0.029784743 -0.01975877 -0.07285683 0.24107584 0.05250658 2.3090923e-05
0.0015337737 -0.112978354 -0.091086686 -0.12491089 -0.1067327 -0.073578365 0.17532882 0.06844018

Pair_score_mlp.fc_layers.0.bias f4 [64]
00000000: 5fe6 7b3d d8b1 50bd b137 0bbe 0fa3 cbbd
00000010: 78c3 2a3e eec7 263e 7801 cfbd 3643 cbbd
00000020: f781 89bd 97bb b1bd bc94 1f3e 5919 893c
00000030: 4038 343d 2d33 d43d 04d3 80bd 2b63 263d
00000040: d5cd 3d3e c8fa 95bd a0cf d43d 1ecc 953d
00000050: c5da 9cbd 9719 e8bc dad4 913d 7850 52bd
00000060: e1d5 d93d 5592 32bd b5f7 9dbb d819 d93d
00000070: 9dd4 213e d7be 12bd 9b4a a2bd 0b6b 1c3e
00000080: 3cc9 a93d c468 19be afa1 723c 1015 6b3e
00000090: 71df 2a3e b660 123e 69e9 a9bd da97 2dbd
000000a0: 4388 e7bd aa3e ca3d 92c5 18be eb9c fabd
000000b0: bb23 5d3a f0d7 013e 7b7b 12bd 1d3b c5bd
000000c0: 6fb4 7bbd 6f71 8dbd 3582 1a3d 81e7 94bd
000000d0: e711 33bd 4705 f2bd 6683 79bd 9cff 0f3e
000000e0: 55fb cabc d95a e13d 2c32 f83d 61e8 f83d
000000f0: f52b 9c3d eb82 2a3e 4855 c23d 9ed9 89bd
0.061498996 -0.050950855 -0.13595463 -0.0994321 0.16676128 0.16287205 -0.10107702 -0.09924929
-0.06714242 -0.08678358 0.15584081 0.01673572 0.043998957 0.103613235 -0.06290248 0.040621918
0.1853555 -0.07323223 0.10391164 0.07314323 -0.076589145 -0.028332515 0.07120676 -0.051346272
0.10636497 -0.043596584 -0.0048207887 0.106006324 0.15803762 -0.03582653 -0.07924386 0.15275209
0.082903355 -0.14981371 0.014809056 0.22957253 0.16686799 0.14294705 -0.082964726 -0.042381145
-0.11305287 0.098752335 -0.14919117 -0.12236961 0.0008435805 0.1268003 -0.03576229 -0.096304156
-0.06145137 -0.06906401 0.03772183 -0.07270718 -0.043718245 -0.11817413 -0.060916327 0.14062351
-0.024778048 0.11003656 0.121189445 0.12153698 0.07625572 0.16651504 0.09488922 -0.0673096

Pair_score_mlp.fc_layers.1.weight f4 [8, 64]
00000000: 7021 dc3d 06c1 ff3d a95f 043e 740b 8b3d
00000010: 52bb 413e 59af 1c3e 5dc5 633d 5726 ea3d
00000020: f3f6 0d3e 2ee3 113e 2ce3 dbbd afc2 0a3d
00000030: c4e5 ff3c 57fe 11be 555e bbbc fabf 45bb
00000040: 6597 f73d 327f 733c 8a8b 26bd 1713 713d
00000050: 0144 0e3e 7ea6 b3bc 5bb3 c13d d87e aa3c
00000060: f653 cc3d 3efb 173e b289 233e 008f 183d
00000070: 203d 2bbd 240a eabc abd2 f03d 0ed7 253c
00000080: c4c1 003d 41fa e63d eb3d eb3d f7af 723b
00000090: d378 2f3e 572c 263d 5d22 8b3d 28e0 c83d
000000a0: 7d88 efbc 5347 303d fdfd bebc fedc a33d
000000b0: 1fd2 3abe 7ef8 cb3d 65b9 143e 3a71 e03d
000000c0: 0ac0 d6bd 6774 b13d 07db c5bd 74b3 bd3d
000000d0: 7f47 713e ae50 c03c 073e 943d 6ca2 afbd
000000e0: 8c2b 3b3d 4951 a7bd 07e5 7abd 3c96 d73d
000000f0: f9be 0bbb 15e6 aa3d 0e83 79bd dc0e 313e
00000100: 7d92 dcbd 908e e23d a8cf e6bd ed3c 0bbe
00000110: 2023 cebd af2a 65bd 845a 4dbc 42bd 95bd
00000120: 833f 89bd e070 a13c 1000 32be b6bf 023c
00000130: 12f6 30be 8dad 313e b208 31be 1207 2abe
00000140: c864 74bb a83c 2e3d c7d9 55bd 5260 b13c
00000150: f5eb 06be 1589 e5bd 152c 29bd a809 8b3d
00000160: 8bf2 8cbd e22e cfbd 413f f43d f753 d9bc
00000170: 0ef9 c0bd dcba 8c3d 8995 e43d 579f bbbb
00000180: dece 7bbd f84c 02be 1b7e 613d 6905 e13d
00000190: 1b3c b7bd dbec 983d e6e0 103d 3094 643d
000001a0: 42eb d3bd 03fb 14bd 7f73 8fbd 2c70 e8bd
000001b0: af37 453e 7ee7 053e c6ce a2bd 3b43 99bd
000001c0: e366 3f3d 21a3 f9bd bf49 e83d 5285 dbbd
000001d0: eea1 ad3b 3500 12be 5c59 07be e331 573e
000001e0: 2a76 ec3c a4db d8bd 81eb 17bd 4cf8 8cbd
000001f0: 47b3 233e 2346 ae3d 571f 583d 04a4 4f3d
00000200: 4eee b63d 06b0 e03d 3cdb 663e db07 2a3e
00000210: e30f c93c b153 9d3d 9a98 403e 8da9 903c
00000220: bc37 393e 9ba4 0b3d 4170 ba3d aad5 1dbc
00000230: 94bd abbc fd3e 4fbe cfc8 853d c336 8f3d
00000240: a7ad 803e 67ef 1d3e 58fa 033e a862 223d
00000250: be54 e33d 7589 35bd 1836 f03d cc97 883d
00000260: af84 493d 3636 4d3d c929 f43d 1578 5d3e
00000270: 769d dfbb 9e9b 123e ceed 8e3d 7e17 563e
00000280: f18c d63d aa35 ce3c 9e5d de3d 78b8 ebbc
00000290: b063 2a3e e76f 163c d6ad d9bd c31b 1d3e
000002a0: 3e21 48bd 5de3 d33d 9a48 e93d 93ca 223e
000002b0: 6108 72bd 438d 093e f498 c63d 80ab 30bc
000002c0: 8c50 173e b3a6 05bd 0ce9 273e 9d06 75bc
000002d0: a203 843d 3573 bfbd d32e 993d 1672 a2bc
000002e0: 3a9f 25bd 8b3a d43c a49d c33d ad27 653e
000002f0: 791d d33d 36e6 563c 77f0 cd3d 3ed4 883e
00000300: a787 55bd f082 a03d 6cf2 603d 2ae3 093c
00000310: 02b9 683c 7acf ccbd 7722 303c 5442 9f3c
00000320: e33f 18be 1d35 0dbc e229 873d 342d c83c
00000330: c25b b6bc 14c3 ca3d 420f d4bd 7c79 0fbe
00000340: 3ec5 86bd 9fde bbbd 351b 0c3c 156c 58bd
00000350: 93f3 9dbd 305a e1bb 8798 773d 0f36 a93d
00000360: d212 fd3d f411 853b 815c 31bd 68fc fb3d
00000370: 0013 5abd c032 8d3d 168f 8e3d a309 b1bd
00000380: e079 33bd fe1a d2bd 6395 92bc 7036 7abc
00000390: 0618 113e db7f 23be 666c 8dbc b2d7 6d3c
000003a0: 484d 3cbb a607 9f3d c1ce 9cbd f4c6 0c3d
000003b0: 97f2 1abd 0da5 e1bd f809 02be 1c0c 90bd
000003c0: fd04 ce3d 416a 13be e59e eabb 81f8 c8bd
000003d0: bff9 503d 403e b4bd 4de9 fe3a bac1 193e
000003e0: c1b8 c6bd 53dd fc3c 5f5f da3d db3f b73d
000003f0: 43cd 4ebd 8da1 e9bd 34f4 343d 04bc 0f3c
0.10748565 0.12487988 0.12927116 0.06789294 0.18919113 0.15301265 0.055608142 0.11433094
0.13863735 0.14246818 -0.10736689 0.03387707 0.03123749 -0.14257179 -0.02287213 -0.0030174241
0.12089423 0.014861869 -0.04066042 0.058856096 0.13893129 -0.021929976 0.094580375 0.020812437
0.09976952 0.14841935 0.15970495 0.03724575 -0.04180634 -0.028569289 0.11758932 0.010122074
0.03143479 0.11278201 0.11486419 0.0037031153 0.17135935 0.04056963 0.06793664 0.098083794
-0.029239887 0.04303677 -0.02331447 0.08001135 -0.18244217 0.099595055 0.14523847 0.10959096
-0.10485847 0.0866478 -0.09660917 0.092627436 0.2356243 0.023475971 0.07238393 -0.085759014
0.045695826 -0.08169801 -0.061253574 0.10526702 -0.0021323545 0.08344666 -0.060916 0.17290825
-0.10770128 0.11062348 -0.11270076 -0.1359746 -0.10065293 -0.05594891 -0.012533788 -0.07311489
-0.06701567 0.019707143 -0.17382836 0.007980278 -0.17281368 0.1735136 -0.17288473 -0.1660426
-0.0037291516 0.042538315 -0.05220964 0.021652374 -0.13175948 -0.11207787 -0.041301806 0.06788951
-0.06882199 -0.10116364 0.11926127 -0.026529295 -0.094225034 0.06871578 0.11161334 -0.005725782
-0.06147658 -0.12724674 0.055051904 0.1098736 -0.08947011 0.074670516 0.03537073 0.055805385
-0.10347606 -0.036372196 -0.07004451 -0.1134952 0.19259523 0.13076589 -0.07949595 -0.07483526
0.04672898 -0.121893175 0.11342191 -0.10718788 0.0052988445 -0.14257891 -0.13217682 0.21015124
0.028864939 -0.10588768 -0.03708983 -0.06883296 0.15986358 0.08509471 0.052764263 0.050693527
0.08932172 0.10971074 0.22544569 0.16604559 0.024543708 0.076819785 0.18808213 0.017658973
0.18087667 0.034092527 0.09103442 -0.009633461 -0.020964421 -0.20238872 0.06532442 0.06992867
0.25132486 0.15423356 0.12888467 0.039644867 0.11100148 -0.044320542 0.117290676 0.06669578
0.049198803 0.050100528 0.119220324 0.21627839 -0.0068241907 0.14317176 0.069789514 0.20907399
0.10476101 0.025172073 0.108577 -0.028774485 0.1663959 0.009181953 -0.1062886 0.15342622
-0.048859827 0.103461005 0.11390801 0.15897588 -0.059090022 0.13432793 0.09697142 -0.010783076
0.1477682 -0.03262968 0.16397494 -0.01495519 0.064460054 -0.09348146 0.07479634 -0.019829791
-0.040435053 0.025906822 0.09551552 0.22378416 0.10308356 0.01311641 0.10055631 0.26724428
-0.05213132 0.07837474 0.05491869 0.008415977 0.014204266 -0.100005105 0.010750405 0.019440807
-0.14868121 -0.00861862 0.065997854 0.024435617 -0.02226055 0.099004894 -0.10354473 -0.14011186
-0.0658059 -0.09173321 0.008551409 -0.05283745 -0.07712474 -0.0068772063 0.060448196 0.08262264
0.12357105 0.004060978 -0.04330111 0.12304002 -0.053240776 0.068944454 0.06960885 -0.08644416
-0.0438174 -0.102590546 -0.017893499 -0.015271768 0.1416932 -0.15966742 -0.017263602 0.014516758
-0.0028732587 0.07765131 -0.07656623 0.034369424 -0.037829008 -0.11017809 -0.12699115 -0.0703356
0.10059545 -0.14396001 -0.007160055 -0.09813023 0.051019426 -0.08800936 0.0019448191 0.15015307
-0.09703208 0.030867254 0.10662722 0.08947726 -0.05048872 -0.114077665 0.044178203 0.008772854

Pair_score_mlp.fc_layers.1.bias f4 [8]
00000000: 378a 213b f7ec cc3d 0d03 aebd 8c29 7c3d
00000010: 144b 0f3e b0b1 f43d e084 7abd eaa4 77bd
0.0024649033 0.10006135 -0.08496676 0.06156306 0.13993484 0.11947954 -0.061161876 -0.06046001

CNN_embedding_types.weight f4 [106, 16]
00000000: 5331 143e f592 46bf f1cf fcbe b2de 733f
00000010: 399b d0be 028c 5abc eb74 e23f 05a0 39c0
00000020: 1551 fc3d 6ca1 5dbf e7f5 08bf 9cda 893f
00000030: ef8e f83e ba84 ca3e 1c5e 3c3f 0411 44bf
00000040: 461c 08bd 6794 f6bf 6a36 2a3f 970b 3bbf
00000050: 4669 ea3e 4419 27bf 182d d43e 60a8 81be
00000060: ea84 1ebd 1c8b 67bf 2f79 adbf ddb3 f23e
00000070: ead8 823f 9983 da3e dc08 b9be 0c0d 02be
00000080: 64bd 0ebf 458d d53f 49d9 1f3f 1e70 bdbe
00000090: 9556 9ebc 5b48 8b3f 574e e13e a390 84bf
000000a0: 2613 0740 2977 c6bf 23e7 88bf c10f 163f
000000b0: c48f 8bbd bda1 e13d 8813 02bf 4a34 a23f
000000c0: 953a 9bbe 5d25 1bbf 7e64 9fbe bca0 8f3d
000000d0: 52fe e7be f4d9 0540 6fa9 9cbd a361 9f3f
000000e0: e58e aebf 9fee 44bf da21 aa3e ae21 923f
000000f0: d6b5 c33d ec68 08c0 e159 0c3f 83a2 6f3f
00000100: a43f f43f 9027 763f 199f 0d3f 0497 713f
00000110: 0bd5 ae3e f5fe 13bd 4dbb bf3f 62f2 46bf
00000120: 84d1 483f 527e 3abd 1dcc 26be 7c58 ab3f
00000130: 21b6 26be cb93 83be c717 563d 93f6 c7be
00000140: 3be2 6b3e 189b 883e 4b90 8c3f 9d96 9fbf
00000150: 9b92 75bf 5a47 e7bf 617b 3a3c c8e0 e1bd
00000160: 6fbd a0bf 8c85 223f 584d 9e3e cda2 3640
00000170: 4472 9bbf 6213 5bbe 26df 06bf f1fb 323e
00000180: 84b8 043f 58d5 c1be efdb 66be aa67 c8bf
00000190: e571 f43e ace3 87bf 19cc e33f 7578 0cbf
000001a0: fe86 ad3e 6837 473f 4e46 f73b 6371 15bf
000001b0: 7451 6abf 678b 57bd 7acf e43f 8364 933f
000001c0: f123 c73d 394b cc3f bfa9 1abf a874 b43f
000001d0: 73c5 f13d d33a 343f c795 09bf 4476 3cbf
000001e0: 170f 0c3f 1dd8 f33f e3e4 cf3d e4ea e63e
000001f0: d901 cd3e faaa 7fbf cd37 1b3e da77 21bf
00000200: c888 3640 034c f3bd d210 c53e e5eb 793f
00000210: aa02 acbf f88a 55bf bd59 06be ec76 c2bd
00000220: 7d43 38be 3e5a 8ebf ed8a ea3e adad 5fbe
00000230: 8657 0e3f 09d7 dfbd b1b5 ff3f d292 033e
00000240: f200 e03c 2ae4 1a3e 1648 54bf 4095 0140
00000250: c286 793e 2a23 9a3d 2d50 90be b9bb 9b3d
00000260: a673 d03e 618f 81be 06de cf3e 4980 453f
00000270: ede5 6cbe 06a6 8dbf 0a10 943d f0fc 5dbf
00000280: 87c5 96bf 34da 0a3f 4592 4dbe c995 18bf
00000290: f4d2 eb3e 36ec 9d3f 5051 9e3e fe11 1b3f
000002a0: 7673 193f 2007 9cbe 7f51 9dbe 8934 d23f
000002b0: e18a 853f 04e6 bdbf c4b4 243f d2ef e53f
000002c0: 8e29 b33c 8466 f3bf 096c e5bd bed3 ba3e
000002d0: 38ff a6bf 273a cabc 1a1c a7bf f2b2 68be
000002e0: 3bc6 d9bd 9503 8cbf ec47 92be 3d39 db3f
000002f0: e4bf a23f 83c5 813f 2c8a 3dbf 792a 843e
00000300: d092 67bf 189f 1340 e971 4bbf a3e3 df3f
00000310: ba7c a6bd 847c 3cbe 6d35 97bf 6d48 dd3e
00000320: e29a a33f 7849 45bf 5881 dc3f 3e3e 62be
00000330: f85f 5c3f feb0 e83f 5f08 2f3f 6e50 85be
00000340: a8f6 f43f ef81 923f d348 b13f 1862 93bf
00000350: 2371 023e 7b3f 5d3f 1329 583f 4688 ccbf
00000360: 6aa3 743f b968 b2bf 9c87 7e3d 88d4 82bf
00000370: 521b 0cbf bd52 8c3f 7e9b fd3d 9007 cc3e
00000380: 6c5c a83c a38a 89bf 88e1 883d e4d6 2f40
00000390: 27b3 5640 461a db3f 7daf abbf bc3b 4abe
000003a0: 9937 7abf 3e2d 483d c2f5 59bf b8c3 19bf
000003b0: 6d29 6cbf f2b1 113e 76b1 febe 440f a5be
000003c0: 3f9f eebf dbc8 db3e b058 1d3f ba6d 3b3e
000003d0: 99c3 ca3d ec41 0bbf 5210 443f b6ce b0bf
000003e0: c548 853e cead 293f ae5e 3a3f 30f0 153f
000003f0: d402 743e 5bcb a93c 1700 4fbf 508c 5b3f
0.1447194 -0.7756799 -0.49377397 0.9526168 -0.40743425 -0.0133390445 1.769193 -2.9003918
0.12320153 -0.86574435 -0.5350022 1.0769839 0.4854655 0.39554387 0.735811 -0.76588464
-0.03323009 -1.9264039 0.6648928 -0.7306456 0.45783442 -0.6527293 0.41440654 -0.25323772
-0.038700975 -0.9044664 -1.3552607 0.4740285 1.0222447 0.42678526 -0.36139572 -0.1270029
-0.5575774 1.6683737 0.62440926 -0.369996 -0.019328395 1.0881456 0.4400508 -1.035664
2.1105437 -1.5505115 -1.0695537 0.5861779 -0.068145305 0.11017177 -0.5081105 1.2672207
-0.30318132 -0.60603887 -0.31131357 0.070130795 -0.45311219 2.0914278 -0.076495044 1.2451671
-1.3637358 -0.76926607 0.33228952 1.1416528 0.09556167 -2.131404 0.54824644 0.9360735
1.9081922 0.9615412 0.5532089 0.94371057 0.34146914 -0.036131818 1.4979035 -0.77713597
0.78444695 -0.045530625 -0.162888 1.3386378 -0.16280414 -0.25698695 0.05226877 -0.3905531
0.23035519 0.26680827 1.0981535 -1.2467839 -0.9592683 -1.806865 0.011381955 -0.11029202
-1.255781 0.63485026 0.30918384 2.8536866 -1.2144246 -0.21394113 -0.5268425 0.1747892
0.5184405 -0.3785808 -0.22544836 -1.5656636 0.47743145 -1.0616355 1.7796661 -0.548713
0.33892053 0.7781892 0.007546223 -0.5837614 -0.9153054 -0.05262318 1.7875817 1.1515049
0.09723652 1.5960456 -0.6041526 1.4098101 0.118052386 0.7040226 -0.5374417 -0.7361796
0.54710525 1.9050328 0.101510786 0.45101082 0.40040472 -0.99870265 0.15158005 -0.63073504
2.8520985 -0.118797325 0.38489395 0.9762557 -1.3438313 -0.83415174 -0.1312017 -0.09495339
-0.17994495 -1.112129 0.45809117 -0.21843596 0.556023 -0.109296866 1.9977323 0.12848976
0.0273442 0.151261 -0.82922494 2.0247345 0.24367812 0.07526238 -0.2818617 0.07604165
0.40713233 -0.25304702 0.40599078 0.7714887 -0.23134585 -1.1066291 0.07229622 -0.86714077
-1.177903 0.542392 -0.20075329 -0.59603554 0.46059382 1.2337711 0.30921412 0.6057433
0.59941804 -0.30474186 -0.3072624 1.6422282 1.0433007 -1.483582 0.64338326 1.7963812
0.0218704 -1.901566 -0.11202247 0.3648967 -1.3046637 -0.024685932 -1.3055451 -0.22724512
-0.106335126 -1.0938593 -0.28570497 1.7126843 1.271481 1.0138401 -0.7403896 0.25813654
-0.90458393 2.3065853 -0.7947069 1.7491344 -0.081292585 -0.18406874 -1.1813179 0.4321932
1.2781641 -0.7706523 1.7226973 -0.22094056 0.86083937 1.8179014 0.6837215 -0.26037925
1.9137774 1.1445903 1.3850349 -1.1514311 0.1273847 0.8642499 0.84437674 -1.5979087
0.9556185 -1.3938209 0.062141046 -1.0221109 -0.5472919 1.096275 0.123831734 0.3984952
0.020551883 -1.0745434 0.06683642 2.747491 3.3546846 1.7117393 -1.341293 -0.1974935
-0.97741085 0.04887127 -0.8514062 -0.6006427 -0.9225071 0.14228037 -0.49744767 -0.3223821
-1.8642348 0.42926678 0.6146345 0.18303576 0.099005885 -0.54397464 0.765874 -1.3813083
0.2603208 0.6628083 0.7280072 0.5856962 0.23829204 0.02072685 -0.8085951 0.85760975

embedding_CNN_distances.weight f4 [7, 8]
00000000: d72b 853f 9e21 93bf 5f35 473e 70f4 b83e
00000010: f647 703f e47f 07bf ff0b 3c3f ea53 9e3f
00000020: 846e 37bf 021b 373f ba5e 37c0 6e64 6ebe
00000030: 7c0d 81bf ac67 0dc0 58a0 82bf 053f 7f3d
00000040: 5305 843e 3b50 95bf b917 023d dddc c3be
00000050: b689 9d3f 7627 633f c151 f53f 5baf cf3e
00000060: 2d05 f3bd 3e86 be3e 341e 0b3f d530 e0bf
00000070: 690d 703f cbe1 45bf 7d12 d63e 0261 01bf
00000080: 13b6 8cbf 37e8 30be 11f3 1e3f 3147 c63f
00000090: 81fd 0a3e 596b 37bf 1347 6b3e 3d07 bb3e
000000a0: 306c bd3d 34eb d2be e76c 51be 2948 ab3f
000000b0: 758c bb3e a6c5 69bf 361b 36bf f2c8 893f
000000c0: 0000 0000 0000 0000 0000 0000 0000 0000
000000d0: 0000 0000 0000 0000 0000 0000 0000 0000
1.0404004 -1.1494634 0.19453953 0.3612399 0.93859804 -0.5292952 0.73455805 1.2369359
-0.7165301 0.71525586 -2.8651567 -0.23280498 -1.008224 -2.2094526 -1.0205183 0.06231596
0.25785312 -1.1665109 0.031760905 -0.38254443 1.2307651 0.8873209 1.9165574 0.40563473
-0.118662216 0.37211794 0.5434296 -1.7514902 0.9377046 -0.7729766 0.4181098 -0.5053865
-1.0993065 -0.17276083 0.6208964 1.5490476 0.13573267 -0.71648175 0.22976331 0.3652896
0.09249151 -0.4119507 -0.20451699 1.3381397 0.36630598 -0.9131721 -0.7113527 1.0764449
0.0 0.0 0.0 0.0 0.0 0.0 0.0 0.0

embedding_CNN_prices.weight f4 [6, 5]
00000000: e1cb f23f e22d b13f 5ce2 a2bf 56f8 dcbf
00000010: 9ef2 80bf 78ea e3be d178 8e3f 06e0 f83f
00000020: 9802 b23e b677 7cbe 8363 0b40 8310 0fbf
00000030: 768a cdbf 713e 34bf fcea 93bf 4076 99bf
00000040: 34bb eb3f 787d a5be fa2a b5bf b122 57bf
00000050: 3dfa 1dbf d063 a13e aec8 1d3d bc0d 47bf
00000060: 8d46 6d3f 0000 0000 0000 0000 0000 0000
00000070: 0000 0000 0000 0000
1.8968469 1.3842127 -1.2725329 -1.7263286 -1.0074041 -0.44514823 1.113062 1.9443367
0.34767604 -0.24655041 2.1779487 -0.5588457 -1.605788 -0.7040778 -1.1556087 -1.1989212
1.8416505 -0.32322288 -1.415374 -0.8403731 -0.6170996 0.31521463 0.03852146 -0.7775533
0.92685777 0.0 0.0 0.0 0.0 0.0
