checkpoints/GNNNoCNN_Epoch85_valmse2.1432_testmse2.2618_ndcg0.9374.model (torch, 249600 bytes, 52 tensors)

Pair_embedding_types.weight f4 [106, 16]
000000 8d 96 9d 3c 54 a2 c9 bd 2d 1b d1 be b9 dc 5e bf
       0.019236827 -0.09845415 -0.40841046 -0.87055546
000010 60 1f 61 3f 6f 36 c0 be 76 c0 05 3e 71 fe a9 bf
       0.879385 -0.3754153 0.130617 -1.3280774
000020 7f 6c 0f 3e ef b0 9e 3b ff b7 9f bf 18 40 0a 3f
       0.14006232 0.0048428695 -1.2478026 0.5400405
000030 4a 1d cd bf ba b2 be 3e 2f 11 9a 3e ec de 37 3f
       -1.6024563 0.37245733 0.30091235 0.71824527
000040 6e ed f3 3e 73 b4 95 bf 53 b1 f6 3f d7 0b d2 be
       0.47642082 -1.1695694 1.9272865 -0.41024658
000050 c5 7c 83 be 12 a5 43 3e b8 81 12 bf a3 f6 2d 3f
       -0.2568113 0.19105938 -0.57229185 0.6795446
000060 e8 dd 83 bf 23 79 29 3d 32 00 08 bf 0e 24 54 40
       -1.0302095 0.04137529 -0.531253 3.3147006
000070 b2 8d 4b bf 2b c7 15 bf d9 d1 8e bf e8 cb 81 3f
       -0.79513085 -0.5850703 -1.115779 1.0140352
000080 b8 d3 da 3f 59 41 13 40 ed b7 83 bf 45 69 19 3e
       1.7095861 2.3008635 -1.0290505 0.14981563
000090 58 d5 60 3f b7 c6 ac bf bc 15 91 bf 08 4a 97 3d
       0.87825537 -1.3498143 -1.1334758 0.07387167
0000a0 c1 f6 1f 3f fe 97 fd 3d ee b5 81 3f 20 7a ca 3d
       0.6248589 0.12382506 1.0133646 0.09886575
0000b0 a2 c1 72 bf 9c 91 a4 3d 23 45 8f 3f 72 af d8 bd
       -0.9482671 0.08035585 1.1192974 -0.105803385
0000c0 d1 cf 29 bf 34 2c 96 3f 44 d6 c9 be a4 fd 93 bf
       -0.6633273 1.173224 -0.39421284 -1.156178
0000d0 3a 57 d7 bf 6c 2c 5a 3f 0f 60 00 c0 1c b8 15 3c
       -1.6823494 0.8522403 -2.005863 0.009138133
0000e0 c7 f5 86 3b 66 5b 88 3f e6 25 aa bf 0e 62 a3 3f
       0.0041186544 1.0652893 -1.3292816 1.2764299
0000f0 03 ff fc 3c d9 23 7b 3f 31 dc 96 3f 54 08 26 3d
       0.030883318 0.98101574 1.1785947 0.040535286
000100 b2 a5 b2 bd c1 ac 36 3e 7b 91 53 3f 8d 16 d4 bf
       -0.0872301 0.17839338 0.8264386 -1.6569382
000110 f4 ce 07 40 2a 61 8a bf df 52 36 3e 56 29 aa bf
       2.1220064 -1.0810902 0.1780505 -1.3293865
000120 d8 e9 ae be 44 70 19 3e be 21 2c 3e 88 cb 6a 3f
       -0.34162784 0.14984232 0.16809747 0.91716814
000130 dd 46 c1 3e 8e 4a 06 be fc 52 58 3e cc b5 5b 3e
       0.37749377 -0.13114378 0.21125406 0.21456069
000140 a0 3a 93 be 90 a7 25 3e ee 45 94 3e 00 91 87 3f
       -0.28755665 0.16177201 0.28959602 1.0591125
000150 a8 ca ba be da 6b 97 bf 67 8d 31 be 89 3d bf be
       -0.3648274 -1.1829789 -0.17339097 -0.37351635
000160 b8 29 29 3f 3c 0e c7 3f 5c 0b 3c bf 83 05 4d bf
       0.6607928 1.5551219 -0.73454833 -0.80086535
000170 f6 47 5e bf 87 20 20 3f a2 93 61 3f f4 fd c0 3f
       -0.86828554 0.6254963 0.88115895 1.50775
000180 be 40 b2 bf f6 58 39 3e bb a3 e6 3f ad b4 1c 3e
       -1.3926008 0.18100342 1.8018717 0.15303297
000190 0e 1c 36 3f 83 73 4a 3e 9f b3 6b bf f9 a5 0a 40
       0.7113656 0.19770627 -0.92070955 2.1663802
0001a0 3e 29 8c bf fa 84 9f 3f ad 29 47 3e b3 bf 79 bf
       -1.0950086 1.2462456 0.19449492 -0.97558135
0001b0 ac c6 ef be 00 b4 84 3e c2 62 ee be 36 19 e5 38
       -0.46831262 0.2591858 -0.4655972 0.00010924267
0001c0 9c 32 37 3f ed 2d c5 3f c9 31 7e 3e a6 3c c1 be
       0.715616 1.540464 0.24823679 -0.37741584
0001d0 bd 62 33 bf 7d bb 50 3e e9 4b a0 be ab 74 37 be
       -0.7007254 0.20384021 -0.31307915 -0.17915599
0001e0 57 59 8f 3f f9 12 27 c0 74 d9 8b 3e 7b 58 8f be
       1.1199139 -2.610533 0.2731434 -0.27997193
0001f0 f0 c7 f9 bd 25 e3 bd bf 94 0d d2 bd e6 91 36 3d
       -0.12196338 -1.4834944 -0.10256496 0.044572733
000200 20 51 a1 3e c9 d9 c9 3f 23 f2 be 3e 89 a8 6c 3f
       0.31507206 1.5769588 0.3729411 0.92444664
000210 53 7b 72 be 95 82 90 3f 29 e9 9e bf d5 c7 21 3f
       -0.23679857 1.128985 -1.2414905 0.63195544
000220 e2 91 72 3e b0 d3 80 bf 4a b3 b8 3f 6a 3e 06 bf
       0.23688462 -1.0064602 1.4429715 -0.52438986
000230 dd e8 40 bd 2c d9 a5 3f b0 d4 3b bd 44 34 b3 3e
       -0.047097076 1.2956901 -0.04585713 0.35000813
000240 be e2 72 3f e4 67 d4 3d 39 fe d4 3e bc 03 81 bf
       0.9487723 0.10371378 0.41600206 -1.0079265
000250 51 ac cf be b0 b2 73 3f f4 60 cd 3e ee 8c 1d bf
       -0.40561154 0.9519453 0.40113032 -0.61543167
000260 a6 62 20 3f d6 29 37 bd 3b 50 10 40 4f 53 bb 3f
       0.62650526 -0.044717632 2.2548969 1.4634799
000270 72 38 bd 3f a4 ea 0d 3e ef a4 d9 3e 11 4d 96 be
       1.4782851 0.1385904 0.42508647 -0.29355672
000280 1a bc 67 bd 0e 27 e5 bd 60 7d 21 3e ad 6d 93 3e
       -0.056575872 -0.1118909 0.15770483 0.28794613
000290 28 e3 88 bf 4b 55 3e bf 19 7b 97 3f 22 1b 85 3f
       -1.0694323 -0.74348897 1.1834441 1.0398905
0002a0 ce 17 ba bf 89 a8 3c 3f dd 6f 44 be c3 59 ac 3f
       -1.4538515 0.73694664 -0.19183297 1.3464893
0002b0 4e fc b4 3f fb 6e 4c 3d a2 1f a4 3e fd 18 ca 3e
       1.4139497 0.049910527 0.32055384 0.3947219
0002c0 79 52 9a bf ef 2e 20 bf 1f 7f 09 be 23 2a 66 3f
       -1.2056419 -0.62571615 -0.13427399 0.89908046
0002d0 71 fd 75 be 83 2b a0 bf 12 f8 49 3f a3 6e 26 3f
       -0.24022461 -1.2513279 0.7889415 0.6501257
0002e0 41 08 a5 3e 36 90 50 3f 79 b4 fd 3f e2 6c 56 3e
       0.3223286 0.8147005 1.9820701 0.20939973
0002f0 e9 3f 2c 3d f6 01 ba 3f cb 77 8c be f2 87 78 3e
       0.042053137 1.4531848 -0.27435145 0.24270609
000300 e1 a8 df 3e 5b 8b ca bf 74 da 19 3e e5 14 9d be
       0.43683532 -1.5823778 0.1502474 -0.30680004
000310 be 21 db 3f 35 72 89 bf c8 40 07 3f 28 45 c3 3f
       1.7119672 -1.0737978 0.52833223 1.525548
000320 9d 3d 1d be 61 5a c0 bf ce 09 3e bf f2 03 10 3f
       -0.15355535 -1.5027581 -0.7423371 0.5625602
000330 5c 22 63 3f d7 7a 56 3e 80 d2 c0 3d dd 6e af 3e
       0.88724303 0.20945297 0.0941515 0.3426427
000340 76 99 41 bf 94 c2 d3 3f 66 e5 ca be 46 73 0c 40
       -0.7562479 1.6543756 -0.39628142 2.1945357
000350 93 02 a4 3f 83 c6 d4 3e b2 ca a7 bf 41 b1 9f 3e
       1.2813286 0.41557702 -1.3108733 0.31189921
000360 a6 49 d6 be a6 16 66 3e f1 fd 21 bf c0 85 12 3f
       -0.41853064 0.22469577 -0.6327811 0.57235336
000370 9e d7 a3 bf 1e 5f 51 40 f5 64 03 40 fd f9 05 c0
       -1.2800176 3.2714305 2.053037 -2.093383
000380 3b c9 64 bf 92 c1 d5 bd 3e b1 14 c0 a3 a4 ae 3f
       -0.89369553 -0.10437311 -2.323318 1.3643993
000390 d1 69 85 bf 14 99 b3 be 24 b6 c8 3e c3 c1 7b bf
       -1.0422918 -0.35077727 0.39201462 -0.9834253
0003a0 51 2f e0 be 24 cf 26 bf c3 16 43 bf 13 14 b7 3e
       -0.437861 -0.6515982 -0.76206607 0.35757503
0003b0 ce fc ab bf f6 c7 66 bf e7 2e ca be b7 94 c3 bf
       -1.3436525 -0.90148866 -0.3948891 -1.5279759
0003c0 d9 75 8b bf b6 fe e2 3e 4b b6 c9 bf ce 4d 0b 3d
       -1.0895339 0.44334954 -1.5758756 0.034009747
0003d0 b2 da b9 3e 72 9a b8 3f 34 df 66 3f da c8 ac bf
       0.36299664 1.4422133 0.9018433 -1.3498795
0003e0 0f d4 71 3f f9 c3 90 bf e8 dd 9e be 0d ef 8f be
       0.944642 -1.1309806 -0.31028676 -0.2811207
0003f0 55 7f d4 3f 85 63 ec be 73 dd 00 c0 d7 ee 1c 3e
       1.6601359 -0.46169677 -2.0135162 0.15325485

embedding_Pair_distances.weight f4 [7, 8]
000000 df ab 02 3f 01 9d 55 bf 65 e9 6f 3f 3e 3d 3f 40
       0.51043504 -0.83442694 0.93715507 2.988113
000010 b6 03 2f 3f 6d 0f b5 3f f2 d7 b3 be 45 29 9c 3e
       0.6836504 1.4145333 -0.3512569 0.30500236
000020 d4 48 01 40 fd 82 0e 40 4c 14 54 3f 53 3e d0 bd
       2.02007 2.226745 0.8284347 -0.101681374
000030 ee 32 be 3f 81 72 73 bf 80 39 cc 3f 5b 2d 24 40
       1.4859293 -0.95096594 1.5955048 2.5652683
000040 58 07 37 bf 92 4a 62 bf 77 f1 7b bf b4 9b b8 bd
       -0.7149558 -0.88395035 -0.9841532 -0.09014073
000050 35 93 b4 bf f6 b3 04 bf 57 da e8 3d 9b 6b c9 bf
       -1.4107424 -0.518371 0.1136977 -1.5735964
000060 5c 7e c9 be 46 c3 c9 3e e6 7e f3 bf 2c c1 48 be
       -0.39354217 0.39406794 -1.9023101 -0.19604939
000070 64 50 06 c0 20 69 f2 bf 57 be 78 bf a1 19 fb be
       -2.0986567 -1.8938332 -0.97165436 -0.4904299
000080 dc 62 84 3f 94 79 99 3f 8a 53 cc be f5 ca 04 c0
       1.034267 1.1990228 -0.39907485 -2.0748875
000090 3c 73 a8 bf 68 19 27 be c4 91 2a bf 64 ce 90 bf
       -1.3160167 -0.16318285 -0.6662867 -1.1312985
0000a0 ec 8d 9e bd fa 10 d7 3e d8 e9 09 bf 05 e2 31 3e
       -0.07741913 0.4200514 -0.5387244 0.17371376
0000b0 b0 9c b2 bf 6b 33 4c bf 18 e9 d4 bf f9 13 0f bf
       -1.3954067 -0.7976596 -1.6633635 -0.5588985
0000c0 00 00 00 00 00 00 00 00 00 00 00 00 00 00 00 00
       0.0 0.0 0.0 0.0
0000d0 00 00 00 00 00 00 00 00 00 00 00 00 00 00 00 00
       0.0 0.0 0.0 0.0

embedding_Pair_prices.weight f4 [6, 5]
000000 10 b8 09 3e 3f 5e fe 3e aa a7 e9 3e 42 36 a8 be
       0.1344912 0.4968128 0.4563573 -0.32853895
000010 50 e6 9d 3f 29 33 53 3f 76 f0 89 bc c9 45 5b 3f
       1.2335911 0.8249994 -0.016838294 0.8565336
000020 89 a2 45 3f d3 dd 43 3f c5 da 13 be 46 32 1c bf
       0.77201134 0.7651035 -0.14438923 -0.6101421
000030 3d 91 24 bf cb 5b 0c 40 93 3b 4a bf 20 5a 9f bf
       -0.64284116 2.1931026 -0.78997153 -1.2449379
000040 79 9f 02 c0 90 73 fe be 72 20 41 3e 92 4d 01 40
       -2.0409834 -0.49697542 0.18860033 2.0203595
000050 d8 7b 70 bd af 57 bc bf 8e ea e0 bd b2 bd 84 3f
       -0.058711857 -1.4714259 -0.10982238 1.037039
000060 01 72 9e bd 00 00 00 00 00 00 00 00 00 00 00 00
       -0.07736588 0.0 0.0 0.0
000070 00 00 00 00 00 00 00 00
       0.0 0.0

Pair_shop_mlp.fc_layers.0.weight f4 [64, 32]
000000 22 eb f0 3c da aa 8c bd 4f 12 2a 3e d8 87 4e 3e
       0.029408995 -0.06868525 0.16608547 0.20169008
000010 42 64 86 be 9e ce 6a 3d 2b 99 db 3d 09 cd 06 be
       -0.26248366 0.05732595 0.10722574 -0.13164152
000020 54 54 2b 3d e7 42 45 3e 43 b1 1d be d2 b5 f4 3c
       0.04182847 0.19263802 -0.15399651 0.029871855
000030 cd 10 dd bd be 93 59 be b0 12 8a 3d 83 7d 7b 3d
       -0.1079422 -0.21247765 0.067418456 0.061398994
000040 25 e2 ec 3d 42 88 7f 3c 68 9c c9 3b 24 d2 a9 3d
       0.11566571 0.015596451 0.0061526783 0.08292034
000050 5f 6d c5 3c b3 86 cb 3d b4 7c a5 3c 56 b8 7f 3e
       0.024100004 0.09937801 0.020201065 0.24972662
000060 e7 a3 02 be fb 0d 1d 3c d2 47 55 3b 08 74 fe 3d
       -0.12757836 0.009585853 0.003254403 0.12424475
000070 4d c5 9a 3d cd 81 6a 3d ba cc cc bd 39 27 67 be
       0.075571634 0.057252694 -0.09999986 -0.22573556
000080 90 45 54 be fa 14 c3 3d 62 67 b9 bd eb 4b 22 3e
       -0.20729661 0.09525485 -0.09052922 0.15849273
000090 28 79 bd 3d db 92 9b 3e 27 b2 a1 3e e5 a0 09 be
       0.09251624 0.3038548 0.31581232 -0.13440283
0000a0 be 38 06 be 6f 17 a6 bd c5 c3 bb bd 1e 82 dc bb
       -0.13107583 -0.08109938 -0.091681994 -0.0067293784
0000b0 91 5a 43 3c 1d a0 28 bd b7 9d 24 bb 27 bc 7f 3e
       0.011923448 -0.04116832 -0.002511842 0.24974118
0000c0 77 d8 fc 3c a3 4c 33 be f7 09 b7 3b d2 14 4d 3e
       0.030864937 -0.17509703 0.0055859047 0.20027474
0000d0 ea e4 37 3d 55 96 cf bd c4 25 03 bd d7 12 c8 3d
       0.044896044 -0.101360954 -0.032018438 0.097692184
0000e0 e6 93 c9 bd 8d a3 b1 3d 3a d7 c8 bc 85 4a 12 be
       -0.098426625 0.08673773 -0.02451669 -0.1428624
0000f0 30 34 17 3e 80 e0 b1 bd d2 e4 47 3e fc b1 39 3d
       0.14766002 -0.08685398 0.19520882 0.045335755
000100 aa a4 a0 3d 72 b6 05 3d 42 8e b6 bc 11 6b 7f bd
       0.07843907 0.032644697 -0.02228463 -0.062357966
000110 f8 f3 15 3e 17 3d 14 3e 3d 3c 9a 3d 4f fe 06 3e
       0.14643848 0.14476429 0.07531021 0.13182949
000120 bf da 85 3e cb c3 6c be 10 e3 e5 bd e3 5a de 3d
       0.26143453 -0.23121564 -0.11224949 0.10857179
000130 da 48 a0 bd d1 44 0c be 73 fc 50 bd 16 e5 fc 3d
       -0.07826395 -0.13698126 -0.051022004 0.12348382
000140 d5 21 03 be bf 46 16 be f0 78 28 3e 72 b2 2a 3e
       -0.12805875 -0.14675425 0.16452384 0.16669634
000150 a1 ce b7 bd 64 f6 01 3e a1 c3 aa bc 93 e9 87 3c
       -0.08974958 0.12691647 -0.020845236 0.016590869
000160 b7 07 ae bd f8 f0 c7 3d 0b e1 8a 3d ef 2b f7 bd
       -0.08497565 0.09762758 0.06781205 -0.120689265
000170 21 f3 ba 3d 19 e1 04 be cf f7 e1 3d f9 d8 34 3d
       0.091284044 -0.12976493 0.11033594 0.044152234
000180 76 c2 f0 bd 1a 66 da bd d4 d6 37 bd 89 fd 4e bc
       -0.117558405 -0.106640056 -0.04488261 -0.01263369
000190 ff 0d 61 3d 39 03 29 3e c7 88 40 3e cd 1a 2f bc
       0.05494499 0.16505136 0.18802176 -0.010687542
0001a0 af 9e e9 bb c4 6d 80 3e 87 31 1b be a0 fb d5 3d
       -0.0071295123 0.25083745 -0.15155612 0.10448384
0001b0 b2 67 f0 3d 7a ad 33 3e 1c fb 68 be 55 d6 30 3e
       0.11738528 0.17546645 -0.2275204 0.17269261
0001c0 62 fe 92 bd f3 9f 03 3e 3a 88 2b be 82 19 96 bd
       -0.07177426 0.12853985 -0.16751185 -0.07329084
0001d0 d6 6a 00 3e ce 3d 91 bd a9 49 43 bb 56 6e 1b 3e
       0.12540755 -0.070918664 -0.0029798544 0.15178809
0001e0 72 5e 25 3e f8 f4 97 3d 84 30 1d 3e 59 66 9b 3d
       0.1614931 0.07419771 0.15350538 0.07587881
0001f0 28 62 53 be f5 46 bc bc 5d e4 1f be 27 3e f3 bd
       -0.20642912 -0.022983054 -0.15614457 -0.11877089
000200 2b a1 19 3d e7 79 99 3d 3b 6d 0e 3d 10 0f 1e 3e
       0.037507217 0.07493954 0.03477214 0.15435433
000210 80 81 a6 3c a8 b6 30 be e0 b8 48 3d 8e 40 dd bd
       0.020325422 -0.17257178 0.049004436 -0.108033285
000220 c3 5d 99 bd 13 c4 d7 bd b9 7b 56 3d 58 02 6b bd
       -0.07488587 -0.10535445 0.052364085 -0.057375282
000230 87 8e 67 bc 70 3f 05 be 95 9e 32 bd 8f 7c b1 3d
       -0.014133102 -0.1301248 -0.043608267 0.08666336
000240 34 48 01 be 93 ba e8 bd e1 cf bf bc 5c c9 48 bc
       -0.126252 -0.11363711 -0.023414554 -0.012255039
000250 e9 a8 09 3e af 70 72 3d 59 77 12 be 21 cb 65 3d
       0.1344334 0.059189495 -0.1430334 0.056101922
000260 0a 5b 32 be 5b 34 e6 bd d5 33 bd bd d8 32 b3 bd
       -0.17417541 -0.11240455 -0.09238402 -0.08749932
000270 47 f7 d0 3c 1f b6 19 be 7c ea 82 3d 31 98 08 be
       0.025508536 -0.1501088 0.063923806 -0.13339306
000280 63 12 1a 3d e1 da 9d 3d 18 08 73 bd 5c b4 e3 bb
       0.03761519 0.077077635 -0.05933389 -0.0069489907
000290 86 90 fd bb 24 d8 ec 3d 37 d6 31 3e 8d c8 b7 3d
       -0.007738176 0.11564663 0.17366873 0.08973799
0002a0 9f b5 4b be 8f 48 4c be 70 d8 7f 3b 8c b5 f4 bd
       -0.19893502 -0.19949554 0.003903892 -0.1194869
0002b0 e0 fe 6d 3d 7d 0d 50 be f2 ce 08 be 8d 89 80 3c
       0.058104396 -0.20317645 -0.13360193 0.01569059
0002c0 69 20 5f 38 2e fe 2f 3e 69 8c 11 be dd 01 de 3d
       5.3197527e-05 0.17186806 -0.14213718 0.10840199
0002d0 31 ce ca bd d0 a4 0e 3e 88 bc fa 3d 83 59 11 be
       -0.09902609 0.13930058 0.12242991 -0.14194302
0002e0 a8 3a 38 3e 57 c2 3c 3e 16 40 48 3d 38 7d 60 bd
       0.17991126 0.1843351 0.048889242 -0.054806918
0002f0 41 62 e5 bd 39 7a 07 3e 06 bf e1 3c f9 c0 42 be
       -0.11200381 0.13230218 0.027556907 -0.19018926
000300 2c 50 95 3d 06 b3 37 be 42 e2 ec bd 77 25 af bc
       0.07290682 -0.17939386 -0.11566593 -0.02138017
000310 c7 4a 07 3c 9d 0c 3c be 0f 68 98 bd 42 ff 19 be
       0.008257574 -0.18364187 -0.074417226 -0.1503878
000320 2c 03 31 bb eb a7 4f be 25 bf 81 bd d5 55 0e be
       -0.0027009947 -0.202789 -0.06335286 -0.1389993
000330 de d0 2b 3d 14 08 54 3c 25 ab 2b bd 68 e1 ce 3d
       0.04194724 0.012941379 -0.041911263 0.101015866
000340 0c b1 90 bc a6 5f db 3d c5 93 16 bd 1e 8b 06 3e
       -0.017662548 0.10711603 -0.036762018 0.13139006
000350 ce e6 5a 3d e7 c5 f0 bd 7a 96 96 bd 78 24 3d bd
       0.05344277 -0.11756497 -0.0735292 -0.046177357
000360 52 95 3b 3e 1c 38 95 3c 6a 26 e6 3d 24 db 47 be
       0.1831868 0.018215232 0.11237796 -0.1951719
000370 e0 e6 3e be 50 7a 1a bd 09 74 b1 3d f7 d1 5b bd
       -0.1864276 -0.037714303 0.0866471 -0.053667035
000380 ec b9 83 bc f3 4f 8c bd df f6 85 bd f5 c1 04 3c
       -0.016079865 -0.068511866 -0.065412275 0.008102884
000390 bb ef 13 3e 59 55 1a 3d 7b d2 db 3d 4b 57 df 3d
       0.14446919 0.03767905 0.10733505 0.10905322
0003a0 9e c5 cf bd 5d 5e 8f 3c 3c 85 4d 3d 1c 68 0f bd
       -0.10145114 0.01750105 0.05017589 -0.035011396
0003b0 97 16 3a 3e 94 03 47 3e 94 d4 a1 3c 32 34 ff 3d
       0.1817268 0.19434959 0.019754685 0.12461127
0003c0 a4 f5 26 be f4 5b e8 bb 24 1a 55 bd d5 53 3b be
       -0.16304642 -0.00709104 -0.052026883 -0.18293698
0003d0 17 e8 c6 bd c2 3e 4d 3d dc 7c 1e be d4 73 1a be
       -0.097122364 0.05010868 -0.15477318 -0.15083247
0003e0 0a 92 be 3d 22 2b b3 3d bb ea 7d 3e 61 19 ed 3d
       0.093051985 0.08748461 0.24796574 0.11577106
0003f0 56 9c 0d 3d 20 b9 45 3d 2e d2 a8 bc b2 70 92 3d
       0.03457292 0.048272252 -0.020608034 0.07150401

Pair_shop_mlp.fc_layers.0.bias f4 [64]
000000 3c 9a 43 3e bc 5c 75 bc 05 63 e4 bd 3e f8 b1 bd
       0.19101804 -0.014975723 -0.11151699 -0.086899266
000010 dc 89 c2 bd fb b1 97 bc 2a 4c c5 3d 8e 39 b7 bd
       -0.09498951 -0.018517485 0.09633668 -0.089465246
000020 92 06 e3 bd 3b eb b7 3d 31 fd c1 3d 3e ef 1d 3e
       -0.110852376 0.089804135 0.094721206 0.15423295
000030 a3 07 cc bd 74 98 cd 3d d2 10 c1 3d d2 a6 59 bd
       -0.09962394 0.10038844 0.09427036 -0.053137608
000040 2e 2b e3 bd c7 6a b3 bd 28 aa 9f bd d8 ea a3 3d
       -0.1109222 -0.087606005 -0.077961266 0.08003777
000050 24 f0 39 3e 2a f9 15 3e 77 96 c6 bd d8 ae 62 bd
       0.18158013 0.1464583 -0.09696668 -0.055342525
000060 a1 d9 57 bd f9 bb bd bd 51 3c 44 bc 4b 4a e7 3c
       -0.05269778 -0.092643686 -0.011977271 0.028233668
000070 60 9c 31 be c6 02 e1 3d 0f 62 83 3d 48 c0 f5 3c
       -0.17344809 0.10986857 0.064151876 0.029998913
000080 15 f6 56 3d 07 bd 48 3d b4 f6 17 bd 64 43 7b bd
       0.052480776 0.049008396 -0.03710051 -0.061343566
000090 93 28 b1 bc 85 53 c2 3d f2 ca 9a bd f7 b8 d7 3d
       -0.021625793 0.09488586 -0.0755824 0.10533326
0000a0 1d a4 0e bd 3d 4c 17 3d 9a 1d 9b 3d 3d 93 27 3e
       -0.03482448 0.03693794 0.075740054 0.1636476
0000b0 86 52 b5 3d aa fb 2c bd 52 9d 3e 3e c3 2a 66 bd
       0.08853631 -0.042232193 0.186147 -0.056193125
0000c0 4d 2b b1 bd b5 97 96 bd d8 b1 a5 bc c6 9b ad 3d
       -0.08650837 -0.073531546 -0.020226404 0.08476977
0000d0 fa ca 07 3e fd f8 94 3d 19 28 ee bd bf 1e 8c bd
       0.13261023 0.07274053 -0.11628742 -0.06841802
0000e0 11 62 cf 3c 41 7e 10 be 4d c8 02 3d d3 53 39 3e
       0.025315316 -0.14110662 0.031929303 0.18098383
0000f0 4c f4 e8 bd f5 41 7f 3d 48 e4 1a be 91 89 51 bd
       -0.11374721 0.06231876 -0.15126145 -0.051156584

Pair_shop_mlp.fc_layers.1.weight f4 [16, 64]
000000 d5 fa 9e be d1 75 33 bd 6f f0 08 3c 75 cf a3 3d
       -0.31050745 -0.04381353 0.008358105 0.07998554
000010 6c 52 4f 3d 97 d8 98 bc 19 ba d9 3d 1c e1 b5 bd
       0.050615713 -0.018657966 0.106311984 -0.08880827
000020 77 37 2d bd 00 de bc bc b6 15 32 bc bc 5a d5 3d
       -0.042289224 -0.023055077 -0.010869434 0.10417697
000030 8a d5 a7 bd f9 5c 9b bd 6c 2c 33 be f5 cf 10 3e
       -0.08195026 -0.075860925 -0.17497414 0.1414183
000040 ed 39 cf 3d 28 b0 12 3e c4 9d 18 bd d2 88 6a bc
       0.1011847 0.14325011 -0.037259832 -0.014314847
000050 d3 0d 18 3e 9e 0e 02 bd 96 b6 b7 3d 7e db 2c 3d
       0.14849024 -0.03175222 0.089703724 0.04220151
000060 aa 87 35 3c 02 df b3 3d aa b1 40 be c0 ec 36 3e
       0.011079708 0.0878277 -0.18817773 0.1786375
000070 41 0e 2f 3e 0b 6a b2 3d 7c ab fa bd a6 e6 8d bd
       0.17095281 0.08711632 -0.12239739 -0.06928758
000080 45 1c 3b 3e 2a 45 da bd 52 78 f0 3d 5d 1e 4a 3c
       0.18272503 -0.10657723 0.11741699 0.012336341
000090 3a 4e 0f 3e 2a 55 5e 3e be e5 6d 3d e1 2c df 3c
       0.13994685 0.21712175 0.058080427 0.02724308
0000a0 7e 30 4e 3d 9d 52 92 3d 3d 53 4b 3d 28 4b 92 bd
       0.050339215 0.071446635 0.04963993 -0.07143241
0000b0 67 e2 23 be 84 c1 14 bd 00 d4 cb 3c e3 90 df 3d
       -0.16004334 -0.036317363 0.024881363 0.10916307
0000c0 5e 5d c6 3d 3f a6 92 3d 89 b9 3d 3e 7b 41 24 bd
       0.09685777 0.07160615 0.18527807 -0.04010151
0000d0 26 ca 2b 3e 41 cd b6 3d ec 9f 03 be f3 69 61 bd
       0.16776332 0.08925868 -0.12853974 -0.05503268
0000e0 46 41 e6 3d ad 7f c9 bd 90 77 69 3e 8a dd 83 3c
       0.11242919 -0.09838805 0.22799516 0.016096849
0000f0 68 fb 87 3c fe 12 e2 bc bf 70 0b 3e 98 f8 47 bb
       0.016599372 -0.027596947 0.13617228 -0.0030513164
000100 4b 3f 65 3e 97 8a a0 bb 9e 1c 5f 3c 63 9c ff 3d
       0.22387426 -0.0048993337 0.013617663 0.12481
000110 2c 3a 38 bd b3 66 b5 3d 2a 8c e0 3d 47 f4 b1 bd
       -0.044977352 0.08857479 0.10964234 -0.0868917
000120 d4 13 91 3d b8 74 0c 3d a2 e6 b0 3d 6c d0 d9 3d
       0.0708386 0.034291 0.0863774 0.106354564
000130 df f2 a7 3d d3 01 9e 3d c2 ba b8 bc 71 b8 01 3e
       0.08200621 0.07715192 -0.02254999 0.12668015
000140 a4 77 e1 3c 43 52 9d bd 63 37 1f 3e 67 c7 63 bd
       0.02752287 -0.07681706 0.15548472 -0.055610087
000150 b6 01 01 bb 3a b5 9d bd a8 e9 b6 3d 7d 0e b8 bd
       -0.0019684858 -0.07700582 0.08931285 -0.089871384
000160 6b 01 33 3d 22 f7 7f 3c 95 4d 8d bd 5f 1f 8a 3b
       0.043702524 0.015622886 -0.06899563 0.0042151655
000170 03 77 e8 bd 53 5c b6 3d a3 1f 35 3c da 3d b7 3d
       -0.11350825 0.08904328 0.011054906 0.08947344
000180 04 8f 31 bd 8d 44 65 bd c3 42 f8 bd fa 1a 84 3d
       -0.04334928 -0.05597358 -0.12122109 0.06450458
000190 12 a1 4a bc 6d 08 98 bd b8 ea 7e bd 72 24 98 3d
       -0.012367504 -0.07423482 -0.062235564 0.074288264
0001a0 68 29 9d bd 5a 01 cf 3c 66 8b 03 3e c7 f1 1f 3e
       -0.07673913 0.0252692 0.12846145 0.15619574
0001b0 3d 00 db bc 9e 62 03 bb a2 3d f9 3d e7 04 1d bc
       -0.026733512 -0.0020047794 0.12169959 -0.009583688
0001c0 88 f2 51 be cf 7e aa bd 80 e1 ab 3c 5a 3a 8d 3c
       -0.20502675 -0.08324968 0.02098155 0.017239738
0001d0 47 fc b4 bd e9 f3 47 bd 61 5c 82 3d 19 aa 91 bd
       -0.088371806 -0.048816595 0.06365276 -0.07112522
0001e0 88 ea 8a bb ce 89 99 3d 78 63 fa bd fa a4 0a 3e
       -0.004239384 0.07496987 -0.122260034 0.13539496
0001f0 76 5a de 3d fb 3d d8 bd b9 8a eb bd 22 b7 a8 3d
       0.10857098 -0.10558697 -0.115010686 0.08238055
000200 43 92 9b 3e ad 73 b0 3d 48 42 9b 3d f9 67 0e 3a
       0.30385026 0.086158134 0.075810015 0.0005432363
000210 64 24 e6 bd f1 1e 57 3d 6c 97 18 bc 49 a0 91 bd
       -0.1123741 0.052519742 -0.009313446 -0.0711065
000220 e9 36 55 3d c5 f7 f7 3d 47 e2 95 3c 21 b0 d3 bc
       0.05205432 0.12107805 0.018296374 -0.02584082
000230 01 7c 33 bd d3 a8 e2 3c 93 1a de 3c b2 60 8b bd
       -0.04381943 0.027668392 0.027112281 -0.068055525
000240 20 69 b4 bc eb ac cc 3c 88 cc ed 3d ed 8c 07 3e
       -0.022022784 0.024984797 0.11611277 0.13237353
000250 db d1 50 3d c9 26 aa 3b a2 50 33 bd 37 90 99 3d
       0.050981384 0.005192612 -0.04377807 0.0749821
000260 11 65 57 bc 07 59 8b bd fe 00 85 3e 13 00 48 bd
       -0.013146655 -0.0680409 0.2597732 -0.048828196
000270 b2 e2 83 bd bd 62 2f 3e e8 aa 60 3e a0 81 df bd
       -0.06439723 0.1712751 0.21940196 -0.10913396
000280 52 e6 81 3d e6 7f ab 3c 3a bf 90 bd ee ef 18 bd
       0.06342758 0.02093501 -0.070677236 -0.03733819
000290 bd cf b6 bc ef 34 da bd ed fb 27 3e 20 77 c1 3d
       -0.022315854 -0.106546275 0.16404696 0.094465494
0002a0 2d f0 b7 3d 91 4d b6 bc 4d 7d 93 3b 3b f6 cb ba
       0.08981357 -0.022253783 0.004501021 -0.0015561053
0002b0 3c 7d 22 3e 5d 5a 0a 3d f0 57 3e 3d 1e cd d8 bd
       0.15868086 0.033777583 0.046470582 -0.10585998
0002c0 46 76 66 be 85 21 88 3d 5f 29 37 be 12 3f 7c 3d
       -0.22506055 0.06647018 -0.17886876 0.061583586
0002d0 4d 42 4d be 9a 87 f2 3d 18 67 32 3d 2f f9 c9 3d
       -0.20044823 0.1184227 0.04355535 0.09861981
0002e0 ca 85 72 3c d6 ac 33 bd 46 86 1f 3d 4e a0 3c bc
       0.014802406 -0.043866 0.038946413 -0.011512829
0002f0 3f 9b a7 3d 6f 26 f3 3d 4e e9 05 be 06 c3 c7 3d
       0.08183908 0.11872565 -0.1307728 0.09753995
000300 93 82 75 3e 1d e3 8f 3d 28 5a 92 3b 14 b1 da bd
       0.23975591 0.0702574 0.004466314 -0.10678306
000310 78 a6 3d 3d 25 5b d0 bc 8b 92 e7 3d e3 90 fe 3d
       0.046301335 -0.025434086 0.11307248 0.12429979
000320 9a b8 e9 3d 88 1d 4b 3e 65 6f 16 3e f7 d9 9b 3c
       0.11412163 0.19835484 0.14690931 0.019024832
000330 8f 44 0a 3d 2a 22 96 bd 77 24 32 3c 2c 43 bc bd
       0.03375679 -0.07330735 0.010872952 -0.091924995
000340 bf fd 94 3d 4e d5 52 bd ab 1c 6a 3d b0 36 de 3c
       0.07274961 -0.051472954 0.057156246 0.027125686
000350 74 b0 37 bd 49 5b e3 3d 5e bd ff 3d 8a 6e de 3d
       -0.044846013 0.11101396 0.12487291 0.108609274
000360 23 d3 23 3e 9f 67 3c be 0a b5 86 3e 37 3a a8 3d
       0.15998511 -0.18398903 0.26309997 0.082142286
000370 50 24 11 bd 74 65 e0 3d 70 ed 4a 3e 84 15 11 3e
       -0.03543502 0.10956851 0.19817138 0.14168364
000380 4e 1f c3 3d 4c 31 fd 3c ab 88 01 3d 29 4a 56 bd
       0.09527455 0.030907296 0.031624477 -0.05231682
000390 51 fb 0e be df 2c b5 bd 3b c9 ad bd 5a f3 e8 bb
       -0.13963057 -0.08846449 -0.08485647 -0.007109088
0003a0 ba 43 5e bc 76 2c 8a 3d d0 76 90 3d 8c 96 7a 3b
       -0.013565952 0.067467615 0.07053912 0.0038236706
0003b0 d4 8e 76 3d 56 a3 cc bc f2 32 12 bd 0a 3b 5e 3d
       0.060194805 -0.024980228 -0.035693116 0.054255523
0003c0 60 89 ad be ad eb 1c be 07 1a 3b be af 3d 3d 3e
       -0.3389387 -0.15324278 -0.18271647 0.18480562
0003d0 d2 d8 31 be 5e 04 80 bd b4 b6 a8 bd 92 10 71 3d
       -0.17367867 -0.06250833 -0.08237973 0.058853693
0003e0 fe 0e cb 3d 83 42 8a bd ac 6c cf 3d d6 49 06 3e
       0.09914969 -0.06750967 0.101281494 0.13114104
0003f0 36 be 00 bd f5 6e 83 3d 91 64 e6 ba 63 a2 30 3e
       -0.0314314 0.06417648 -0.0017577579 0.17249446

Pair_shop_mlp.fc_layers.1.bias f4 [16]
000000 01 10 cb bb 47 05 56 3c ee 2a 0b 3e dc 77 26 3d
       -0.006196976 0.013062782 0.13590595 0.04064165
000010 e4 1b ab bd a9 99 0b bb de bc 85 3c 5a 67 a0 bd
       -0.08354929 -0.0021301305 0.01632541 -0.07832213
000020 bf 05 4d 3d 96 6c a4 bd 5c 72 62 bd d8 7f 96 3d
       0.050054308 -0.080285236 -0.055284843 0.07348603
000030 e6 7d c4 3d 58 fe 7d 3c 9a 0f b9 bd d8 83 0e 3e
       0.09594326 0.015502535 -0.09036179 0.13917482

Pair_score_mlp.fc_layers.0.weight f4 [64, 32]
000000 3b 93 1c be 40 8a c6 bd 6d 62 37 3e a4 bf 22 bd
       -0.15290539 -0.09694338 0.1790864 -0.039733544
000010 bf 03 99 bd df fd bf bd ff 08 66 3e 99 07 cb 3c
       -0.07471418 -0.09374594 0.22464369 0.024783896
000020 3d 33 d3 bb 3f 3c 22 be 06 88 4f bd 04 2b c5 bd
       -0.006445317 -0.15843295 -0.05066683 -0.09627345
000030 5d bb 04 be 4e cd 15 be 74 33 8f 3d 96 c0 51 3c
       -0.12962098 -0.14629099 0.06992236 0.012802264
000040 37 81 36 be ec 82 b8 bd de 66 7d 3e e1 51 7e bd
       -0.17822729 -0.09009346 0.24746272 -0.062089805
000050 fa 18 db 3d 75 23 51 be 5e 3c 2f 3d 17 a1 f2 3d
       0.10698123 -0.20423682 0.04278218 0.11847132
000060 f4 06 14 be f1 96 68 bd ef 1e 23 3e 25 b8 d6 bd
       -0.14455777 -0.056784574 0.15929769 -0.104843415
000070 5a 0e 9e 3d 4d 06 bc bc 0a 4f 7f be 60 5f 92 be
       0.07717581 -0.022952223 -0.24932495 -0.2858839
000080 a2 d8 32 be a1 05 88 bd 39 a3 53 3e 6c f7 43 3e
       -0.17465451 -0.06641699 0.20667733 0.19137353
000090 6b 36 b0 bd 7c 35 33 3e 60 07 32 3e 4a 03 e1 bd
       -0.086041294 0.17500871 0.17385626 -0.109869555
0000a0 09 7f fa 3d e3 a9 00 be b7 a7 d0 bd a1 a1 18 3d
       0.12231261 -0.12564807 -0.10188239 0.037263516
0000b0 e1 84 9d 3d 04 ae d1 bc b6 cb cb bd de 07 83 bc
       0.0769136 -0.025595672 -0.09950964 -0.015994962
0000c0 45 c7 a1 bd ca 6e f6 bd fd 0b 2f 3d 25 0a 25 3e
       -0.07899336 -0.1203285 0.042736042 0.16117151
0000d0 8d ba 8e bc e7 aa 08 be 7c 3a 8d 3c 28 b8 ef bd
       -0.017422939 -0.13346444 0.017239802 -0.11705047
0000e0 a0 72 27 be c4 95 35 3e 56 a0 b0 3b d3 18 04 be
       -0.1635232 0.17732912 0.0053902073 -0.12900095
0000f0 10 6a 50 bd ab c9 b2 bc 3d 02 0a 3e 58 5a bc 3d
       -0.0508824 -0.021824678 0.13477416 0.09196919
000100 8f dd 01 be 65 1c 43 bb 15 83 1a bd cf d2 cf bd
       -0.12682174 -0.0029771563 -0.037722666 -0.101476304
000110 75 b4 1e 3d 4a 5f 8c bc 13 f8 c9 3d 2a c6 00 bd
       0.038746316 -0.017135281 0.098617695 -0.031438984
000120 20 b0 05 3e 90 30 54 be 7b ef d8 bb de 56 34 3e
       0.13055468 -0.2072165 -0.006620345 0.17611262
000130 7c 3b e7 3c 86 e3 44 bd de e0 b2 3d 4b 89 fa ba
       0.028226607 -0.048068546 0.08734296 -0.0019114403
000140 71 6e 8c be be 0e 1d 3d 19 8d 0e 3d 03 ed 5a 3e
       -0.2742801 0.038344137 0.03480253 0.21379475
000150 71 7d 64 3e 1e 38 6e 3d 9c 85 3d 3e d9 8e 4e 3d
       0.22313477 0.058158986 0.18507999 0.0504292
000160 f3 d1 3b 3e c2 9a 71 bd 4d 96 6d bd 58 76 19 3b
       0.18341808 -0.05898548 -0.058004666 0.0023416486
000170 47 b8 1f be 7d 25 fe bd 22 a4 be bd 8e 2c 1a 3e
       -0.1559764 -0.12409494 -0.093086496 0.15056059
000180 c2 a4 31 be 9a 23 04 3e c5 94 76 3e be 7f 3f 3d
       -0.17348006 0.12904206 0.24080189 0.046752684
000190 4a f1 30 3e 81 fc 15 be da c0 e2 bd 09 93 85 3d
       0.17279544 -0.14647104 -0.1107194 0.06522185
0001a0 33 9c 1d 3e 17 c4 f1 3b f2 55 1b be 55 ca 3e 3e
       0.15391617 0.007378112 -0.15169504 0.18631871
0001b0 05 20 a9 bd 66 50 8e 3d 3e 9a bd bd fa 8d 35 3e
       -0.0825806 0.069489285 -0.09257935 0.17729941
0001c0 3c ac 0e 3d 2a 00 ea bd 89 7e d8 3d 52 9b a0 3d
       0.034832224 -0.114258125 0.1057101 0.07842125
0001d0 b2 1e a7 3c 78 08 75 3d e7 16 e6 3d d3 a3 83 bd
       0.020400379 0.05982253 0.11234837 -0.06427731
0001e0 61 04 0f 3e 00 41 5b be 8a f8 df 3c 32 6a 5f bd
       0.13966514 -0.21411514 0.027340192 -0.054544635
0001f0 64 5e 03 3d 05 7d 6c 3d d6 18 2c 3e 41 d4 21 3d
       0.03207244 0.057736415 0.16806349 0.03950906
000200 36 2c 3b be e6 6f 01 bd 5a 4a a8 bb c8 05 ed bd
       -0.18278584 -0.031600855 -0.0051358165 -0.11573368
000210 c4 22 0b 3e c7 4f 88 bc f0 14 09 be 6f 62 80 be
       0.13587481 -0.016639603 -0.13386893 -0.250751
000220 19 5e 14 3e 61 83 85 bd 32 dd 1f be 1f 63 4f be
       0.1448902 -0.06519199 -0.15611723 -0.20252655
000230 dd a7 f7 bc dd 0f c9 3c f3 b6 01 be cc a7 22 be
       -0.03023141 0.024543697 -0.12667446 -0.15884322
000240 ad ae 5d 3e a0 b9 69 3e 0f bf 1f be 5e a7 b2 bd
       0.21648665 0.22824717 -0.15600227 -0.08723329
000250 68 90 dd bd 5e a2 ba 3d 76 3b e8 39 48 8c 80 3c
       -0.10818559 0.09113 0.0004429479 0.015691891
000260 ad 0b 40 be 4a 86 7d 3d 4a 4e 3d bc e3 ad 66 3e
       -0.18754454 0.061895646 -0.01155431 0.2252727
000270 c6 6c d1 bc 85 65 07 be 39 3b 77 3d bc e9 1e be
       -0.025564563 -0.1322232 0.060359214 -0.1551885
000280 47 7f 08 be c3 05 12 3d 61 4d 27 3e ba 75 92 3d
       -0.13329802 0.035650026 0.16338111 0.07151361
000290 03 05 c9 3d 53 e3 13 3e dc d1 aa bd 40 4c e1 bd
       0.09815409 0.14442186 -0.08340809 -0.11000872
0002a0 24 95 c1 bd 39 b8 8d bd 5e 84 37 3e 7a b3 8c 3d
       -0.094522744 -0.06919903 0.17921588 0.0687017
0002b0 74 47 df 3b 08 7e d3 3d 95 ff 21 be bc 7f 88 bd
       0.006813938 0.10326773 -0.15820153 -0.066649884
0002c0 5b 4f 2f 3e 19 5c 29 3e cc 87 b9 3d 20 c3 49 3b
       0.17120115 0.16539039 0.09059104 0.003078647
0002d0 04 47 d5 3d f4 58 0b be 53 87 59 3c 51 2b b7 3d
       0.10413936 -0.13608152 0.013276893 0.08943809
0002e0 00 f6 86 3d 9d a0 9f 3d 58 bc 46 3e 1d 48 28 be
       0.065898895 0.077943064 0.19407785 -0.16433759
0002f0 ad b8 26 3e fe 7c 14 be 78 5d 11 3e db 5c 87 bd
       0.16281386 -0.14500806 0.14195812 -0.06609508
000300 cb 81 05 be 88 0b 5c 3e 29 a5 13 bd 1c f6 71 bd
       -0.13037793 0.21488774 -0.03604618 -0.0590726
000310 7f a0 17 be 70 81 b2 bd e8 45 2c 3d 89 74 11 3e
       -0.14807318 -0.087160945 0.042058855 0.14204611
000320 f6 3f 97 3b 6e 86 70 3c 06 55 ed bd 09 d9 1d 3e
       0.004615779 0.014680488 -0.115884826 0.15414824
000330 ea 25 2d bd 2c 9d be bd da d3 09 3e c2 bb e4 3c
       -0.042272486 -0.09307322 0.13459721 0.027921561
000340 26 fc 5a 3b 0a 3c 01 3e 10 c4 9e bd 03 c3 34 bc
       0.0033414452 0.1262056 -0.0775224 -0.011032823
000350 1e 90 ae bd fd 7a 70 3d 91 6e 3d 3e bd 2d 22 3e
       -0.08523582 0.05871104 0.18499209 0.1583776
000360 6c 2f a8 3d 6d ea 8b bd 18 4c 2f 3d 9f 7c 5f 3e
       0.0821217 -0.068318225 0.042797178 0.21824883
000370 51 33 fc bd 23 2a fd 3d 8a 43 18 3e a5 b5 1a be
       -0.12314475 0.123615526 0.14869514 -0.15108354
000380 50 c9 f4 3b 12 42 8e bd e2 99 59 3e 19 ed 0c 3e
       0.0074702874 -0.06946196 0.21250108 0.1376232
000390 f2 05 0b 3d bc 52 83 3c 9e ca ac bd 98 1a af bd
       0.033941217 0.016030662 -0.08437084 -0.08549994
0003a0 15 0d 3c 3e fe ba 4d 3e ea ee 6d be d7 e0 f9 bd
       0.18364365 0.20090863 -0.2323567 -0.12201088
0003b0 d7 1a 8a 3d f8 34 87 bd 02 8c d8 bd 67 61 01 3e
       0.067434005 -0.066019 -0.10573579 0.12634812
0003c0 f7 45 32 be 97 a2 16 be 57 52 f2 3b 78 ab 91 bc
       -0.17409502 -0.1471046 0.0073950696 -0.017781958
0003d0 c1 32 76 bd bb 44 62 3e 78 6a 47 3d 39 d4 b6 bc
       -0.060106996 0.22096531 0.04868552 -0.022317993
0003e0 de 40 45 bc 0a 0b df bd ca 0e cd bd 10 93 e4 bd
       -0.012039391 -0.108907774 -0.100125864 -0.111608624
0003f0 aa 32 ec bd 21 7f b7 bd 83 2d 29 3e ea 5b a3 3d
       -0.11533101 -0.08959795 0.16521268 0.079765156

Pair_score_mlp.fc_layers.0.bias f4 [64]
000000 4c a9 68 3d b3 cc 5a bd ca ef 09 be 7c ff bd bd
       0.05680208 -0.053417873 -0.13470379 -0.092772454
000010 84 27 26 3e 10 76 21 3e f7 23 ba bd ff b2 c8 bd
       0.16226012 0.15767694 -0.09088891 -0.09799766
000020 19 dc 84 bd 00 10 c2 bd 3c b0 23 3e c4 d3 de 3b
       -0.06487293 -0.09475708 0.15985197 0.006800147
000030 b2 f1 16 3d f8 1d e3 3d ab 44 84 bd ce b3 13 3d
       0.036851592 0.110897005 -0.0645841 0.036060147
000040 70 21 44 3e 82 9a 8b bd 82 a2 d9 3d e4 f6 83 3d
       0.1915338 -0.068165794 0.10626699 0.06443575
000050 f4 30 ac bd df 64 32 bd 52 0d 9b 3d ac 7c 26 bd
       -0.084077746 -0.04355323 0.075709 -0.04064624
000060 60 f8 b8 3d 02 d5 23 bd f5 41 17 bc 8e a0 df 3d
       0.09031749 -0.039998062 -0.009232034 0.10919295
000070 da 81 22 3e 7e 19 1b bd 4a b0 9e bd ad 9c 1c 3e
       0.15869847 -0.037866108 -0.07748468 0.15294142
000080 de dc 9d 3d af ef 1b be fa 65 18 3c f2 95 6b 3e
       0.07708143 -0.15228151 0.009301657 0.23006418
000090 c6 17 31 3e ba 00 14 3e 50 b9 b7 bd 6a 30 20 bd
       0.17294225 0.14453402 -0.089708924 -0.03910867
0000a0 07 6d ea bd 53 ed d0 3d 5a a2 1f be 87 15 f9 bd
       -0.114465766 0.10201516 -0.15589276 -0.12162309
0000b0 e5 6f da 3b 7c 01 f9 3d 03 c7 36 bd e6 0d d0 bd
       0.006666171 0.12158486 -0.044623386 -0.10158901
0000c0 b8 ca 55 bd bf 68 90 bd 42 33 2c 3d 50 3d 9b bd
       -0.05219528 -0.07051229 0.04204107 -0.07580054
0000d0 4c 87 68 bd df 51 e6 bd 95 fd 8d bd e5 bd 11 3e
       -0.056769654 -0.112460844 -0.069331326 0.14232595
0000e0 be 33 f1 bc 40 21 e9 3d 98 dd f5 3d b9 9b e4 3d
       -0.029443618 0.11383295 0.12005156 0.11162514
0000f0 07 5e 90 3d cb a0 28 3e e4 5a dc 3d 9b 49 9f bd
       0.07049184 0.16467588 0.107595235 -0.07777711

Pair_score_mlp.fc_layers.1.weight f4 [8, 64]
000000 43 d5 d1 3d 34 3d f9 3d aa 46 04 3e 82 5c 7f 3d
       0.102457546 0.12169877 0.12917581 0.06234408
000010 12 15 6a 3e 30 ef 17 3e ca 63 84 3d a2 d6 cf 3d
       0.228596 0.14837337 0.06464346 0.1014836
000020 ac 36 17 3e 1e a9 22 3e 31 8c eb bd 92 c3 f2 3c
       0.1476695 0.15884826 -0.11501349 0.02963427
000030 4c 09 0f 3d 21 1b 25 be 20 53 b5 bc 88 31 75 3b
       0.034920976 -0.1612363 -0.022134364 0.0037413556
000040 61 52 02 3e a5 19 95 3a 2e c8 fd bc 9b 32 33 3d
       0.12726738 0.001137544 -0.030979242 0.043749433
000050 51 d6 ff 3d c9 e8 b9 bc e0 a2 d5 3d 31 2d 4f 3c
       0.124920495 -0.022694008 0.104314566 0.012645052
000060 75 04 c2 3d 97 bc 10 3e 87 a0 20 3e 12 84 97 3d
       0.09473506 0.14134441 0.15686236 0.07398237
000070 17 ac 47 bd 9e e1 47 bd c4 cb d7 3d 2e 4e 62 3c
       -0.048748102 -0.04879915 0.10536912 0.013812585
000080 84 bd 9a 3c 48 22 f0 3d 85 d2 e1 3d fa e4 8d bb
       0.018889196 0.11725289 0.110264815 -0.0043302746
000090 94 47 50 3e 37 38 1b 3d a8 6f 44 3a 24 39 eb 3d
       0.20339805 0.037895408 0.0007493445 0.11485508
0000a0 b8 39 6c bd c9 8e 17 3d 1d 6c cd bc 7d f6 ac 3d
       -0.057672232 0.037001405 -0.025075966 0.084454514
0000b0 49 2f 49 be be 58 cb 3d e3 dd 12 3e 5d 80 d6 3d
       -0.19646944 0.099290356 0.14342456 0.10473702
0000c0 93 02 d3 bd 3a fe a3 3d 21 bb c9 bd 5f 4d 9a 3d
       -0.10303225 0.08007474 -0.09850145 0.075342886
0000d0 4c 07 72 3e f0 27 87 3c db 60 cc 3d a5 c5 a7 bd
       0.23635596 0.016498536 0.09979411 -0.081919946
0000e0 be 9d 67 3d 67 41 c0 bd 01 ab 68 bd e2 55 bd 3d
       0.05654692 -0.093874745 -0.056803707 0.092448965
0000f0 c1 09 c9 bb d3 00 94 3d b3 ee 9f bd 4f 68 35 3e
       -0.006135196 0.0722672 -0.078092 0.17715572
000100 52 14 eb bd f7 fd cf 3d 43 85 03 be 7a df 13 be
       -0.11478485 0.10155862 -0.12843804 -0.14440718
000110 bc c9 f9 bd 17 6d 79 bd 85 0c 14 bd 49 60 a7 bd
       -0.12196681 -0.06089505 -0.036144752 -0.08172662
000120 7d ac af bd 64 96 a6 3c 31 16 46 be 19 08 fb 3b
       -0.085778214 0.020335384 -0.19344403 0.0076608774
000130 d5 26 3a be 8e cd 4e 3e 3f 1b 41 be d9 82 41 be
       -0.18178876 0.201956 -0.1885805 -0.1889757
000140 a6 12 a2 bb c3 08 33 3d 15 6d 90 bd 51 9c 04 3d
       -0.0049460707 0.043709528 -0.07052056 0.032375637
000150 87 33 11 be b8 d5 ef bd 2c 7d 8f bd d1 2b 96 3d
       -0.14179812 -0.117106855 -0.070062965 0.07332576
000160 5f 67 c7 bd 51 89 e6 bd 2c 5c f2 3d cf b9 22 bd
       -0.09736513 -0.1125666 0.11833987 -0.039727982
000170 0f 24 d1 bd b3 e8 dd 3d d1 41 ef 3d 04 00 51 bc
       -0.10211956 0.108353995 0.11682475 -0.012756351
000180 d2 36 82 bd c5 ef 09 be 99 d0 71 3d aa 1f e7 3d
       -0.063581124 -0.13470371 0.059036825 0.11285336
000190 a6 0a 06 be 7c d6 84 3d 9e 67 80 3d 56 15 60 3d
       -0.1309 0.06486222 0.062697634 0.054707848
0001a0 5e 3b d5 bd cf 5e 29 bd 8c 55 a2 bd eb 36 fe bd
       -0.10411714 -0.041350182 -0.07926473 -0.124128185
0001b0 50 cf 40 3e 28 95 03 3e d8 5e c6 bd 81 6c c0 bd
       0.18829083 0.12849867 -0.09686059 -0.093956955
0001c0 55 0a f3 3c 07 98 fc bd 42 1e e3 3d d2 0a e9 bd
       0.029668013 -0.123336844 0.110897556 -0.11379017
0001d0 30 f0 37 bc dc 38 1f be 5c 5e 1d be eb 27 58 3e
       -0.011226699 -0.15549034 -0.15368026 0.21108977
0001e0 8c 35 bc 3c d3 a8 d1 bd 33 ff 2f bd 22 68 81 bd
       0.022974752 -0.10237279 -0.042967986 -0.0631869
0001f0 c7 91 24 3e c3 ce c2 3d 1c 65 71 3d d7 28 72 3d
       0.16071235 0.09512093 0.058934316 0.05912098
000200 8a c4 a8 3d 9f d0 e5 3d b2 fb 5e 3e b1 26 29 3e
       0.08240612 0.11221432 0.21775702 0.16518666
000210 c2 17 63 3d ba 23 8b 3d 9b a2 46 3e e6 42 ef 3a
       0.05544258 0.06793924 0.19397967 0.001825419
000220 43 ad 46 3e 4c 46 35 3d 51 aa a9 3d f4 63 95 bc
       0.19402032 0.044256493 0.082844384 -0.018236138
000230 c3 b1 0f bd f7 30 79 be 31 00 72 3d 48 44 85 3d
       -0.035081636 -0.24335085 0.059082214 0.06507164
000240 98 5b 83 3e b4 4e 17 3e 26 71 fd 3d 40 07 eb 3c
       0.25655818 0.14776117 0.12375097 0.02868998
000250 9d 73 c7 3d 71 b1 40 bd 70 fa f6 3d ee 80 91 3d
       0.09738848 -0.04704422 0.12059486 0.071046695
000260 f4 8f 17 3d 27 81 24 3d 03 a1 dc 3d c0 60 7e 3e
       0.03700252 0.04016223 0.10772898 0.24841595
000270 2a fb 38 bc 95 90 00 3e ed 59 83 3d 7c 0f 42 3e
       -0.011290351 0.12555154 0.06413636 0.1895122
000280 de 86 bd 3d 7b d1 a3 3c 24 0a d3 3d fd ba fb bc
       0.092542395 0.019997349 0.103046685 -0.030728811
000290 cf f5 3c 3e 35 9f 64 3a 90 e1 3a be 79 aa 23 3e
       0.18453144 0.00087212335 -0.18250108 0.15982999
0002a0 4b 20 a8 bd e5 bb c0 3d 7f 1b e9 3d 7c b5 1e 3e
       -0.082092844 0.09410838 0.113821976 0.15498918
0002b0 b9 e7 d5 bd 66 f5 0b 3e f9 f6 bc 3d 46 c0 cd bc
       -0.10444588 0.13667831 0.09226794 -0.025116097
0002c0 f3 73 1b 3e df 10 1c bd b4 c7 27 3e 89 d3 10 bd
       0.1518095 -0.038102027 0.16384774 -0.035357986
0002d0 d3 5f 81 3d 72 2c da bd 1e ea b8 3d ac 0c 6b bb
       0.06317105 -0.106530085 0.09029029 -0.0035865707
0002e0 84 27 e7 bc c6 93 25 3c 8b 11 c7 3d a0 0d 57 3e
       -0.028217085 0.010106033 0.09720143 0.21001291
0002f0 6c 51 d9 3d ff 78 fd 3b d7 9f bb 3d 62 04 8d 3e
       0.10611233 0.007735371 0.091613464 0.27542406
000300 c9 2d 05 bd 0c 91 9a 3d bc a5 9e 3d 0a d3 c8 3a
       -0.032514367 0.07547197 0.07746455 0.0015321684
000310 8c 90 5d 3c a7 d0 d9 bd 10 5e d7 3c 3b 58 37 3c
       0.013523232 -0.106355004 0.02628997 0.011190469
000320 06 f5 28 be e5 03 8f 39 29 66 9d 3d aa e6 35 3d
       -0.16499719 0.00027277987 0.07685501 0.04440943
000330 76 21 ba bc 37 37 ba 3d 54 b3 09 be 2c ab 1f be
       -0.022721034 0.09092563 -0.13447315 -0.1559264
000340 d3 27 2b bd 72 4f bf bd 40 33 df 3b 07 c8 51 bd
       -0.041786026 -0.09341325 0.0068115294 -0.05121615
000350 bd 5a 54 bd 4d 2e 93 bc 2c 0c 8b 3d 1a 60 b7 3d
       -0.051844347 -0.017966414 0.06789431 0.08953877
000360 62 05 12 3e ea cf 82 bb 07 ef 1a bd 23 ee 03 3e
       0.14259866 -0.0039920704 -0.03782561 0.1288381
000370 2d 9d 7d bd 6f f0 54 3d 7d ff 84 3d 28 93 93 bd
       -0.061917473 0.051987108 0.06494043 -0.07205802
000380 1f e1 49 bd ea 26 6d bd 25 dd a6 bc 0b e7 48 bc
       -0.049286958 -0.05789844 -0.020369122 -0.012262116
000390 ad 47 29 3e cd 74 41 be 21 7d ed 3c 3c 80 be 3c
       0.16531248 -0.18892212 0.02899033 0.023254506
0003a0 fd cd 43 bc ba 42 8d 3d cf 42 db bd 46 a1 9e 3d
       -0.011950967 0.06897493 -0.10706102 0.07745604
0003b0 81 47 9a bc a6 e1 e6 bd 5c 34 0a be 4e e8 9f bd
       -0.018832924 -0.11273508 -0.13496536 -0.078079805
0003c0 b2 fc d0 3d ed 47 12 be c0 06 12 bc 63 2b a6 bd
       0.10204448 -0.1428525 -0.008912742 -0.08113744
0003d0 fb d1 79 3d f2 76 14 be f8 b5 07 39 27 54 12 3e
       0.06099127 -0.14498499 0.00012942392 0.14289914
0003e0 28 43 ca bd 18 ca a3 3c 2b b6 df 3d 92 e6 c6 3d
       -0.0987609 0.019993827 0.10923418 0.097119465
0003f0 71 28 59 bd 43 ea d2 bd ad 6b 49 3d 5c 67 00 3d
       -0.053017084 -0.10298588 0.049174953 0.03134857

Pair_score_mlp.fc_layers.1.bias f4 [8]
000000 09 ea 02 bc ee ac dc 3d b0 5f c1 bd e3 67 96 3d
       -0.007990369 0.10775171 -0.09442079 0.073440336
000010 23 2d 06 3e 14 51 e5 3d aa 11 7e bd 39 c3 8d bd
       0.13103156 0.11197105 -0.062028565 -0.069220014

CNN_embedding_types.weight f4 [106, 16]
000000 53 31 14 3e f5 92 46 bf f1 cf fc be b2 de 73 3f
       0.1447194 -0.7756799 -0.49377397 0.9526168
000010 39 9b d0 be 02 8c 5a bc eb 74 e2 3f 05 a0 39 c0
       -0.40743425 -0.0133390445 1.769193 -2.9003918
000020 15 51 fc 3d 6c a1 5d bf e7 f5 08 bf 9c da 89 3f
       0.12320153 -0.86574435 -0.5350022 1.0769839
000030 ef 8e f8 3e ba 84 ca 3e 1c 5e 3c 3f 04 11 44 bf
       0.4854655 0.39554387 0.735811 -0.76588464
000040 46 1c 08 bd 67 94 f6 bf 6a 36 2a 3f 97 0b 3b bf
       -0.03323009 -1.9264039 0.6648928 -0.7306456
000050 46 69 ea 3e 44 19 27 bf 18 2d d4 3e 60 a8 81 be
       0.45783442 -0.6527293 0.41440654 -0.25323772
000060 ea 84 1e bd 1c 8b 67 bf 2f 79 ad bf dd b3 f2 3e
       -0.038700975 -0.9044664 -1.3552607 0.4740285
000070 ea d8 82 3f 99 83 da 3e dc 08 b9 be 0c 0d 02 be
       1.0222447 0.42678526 -0.36139572 -0.1270029
000080 64 bd 0e bf 45 8d d5 3f 49 d9 1f 3f 1e 70 bd be
       -0.5575774 1.6683737 0.62440926 -0.369996
000090 95 56 9e bc 5b 48 8b 3f 57 4e e1 3e a3 90 84 bf
       -0.019328395 1.0881456 0.4400508 -1.035664
0000a0 26 13 07 40 29 77 c6 bf 23 e7 88 bf c1 0f 16 3f
       2.1105437 -1.5505115 -1.0695537 0.5861779
0000b0 c4 8f 8b bd bd a1 e1 3d 88 13 02 bf 4a 34 a2 3f
       -0.068145305 0.11017177 -0.5081105 1.2672207
0000c0 95 3a 9b be 5d 25 1b bf 7e 64 9f be bc a0 8f 3d
       -0.30318132 -0.60603887 -0.31131357 0.070130795
0000d0 52 fe e7 be f4 d9 05 40 6f a9 9c bd a3 61 9f 3f
       -0.45311219 2.0914278 -0.076495044 1.2451671
0000e0 e5 8e ae bf 9f ee 44 bf da 21 aa 3e ae 21 92 3f
       -1.3637358 -0.76926607 0.33228952 1.1416528
0000f0 d6 b5 c3 3d ec 68 08 c0 e1 59 0c 3f 83 a2 6f 3f
       0.09556167 -2.131404 0.54824644 0.9360735
000100 a4 3f f4 3f 90 27 76 3f 19 9f 0d 3f 04 97 71 3f
       1.9081922 0.9615412 0.5532089 0.94371057
000110 0b d5 ae 3e f5 fe 13 bd 4d bb bf 3f 62 f2 46 bf
       0.34146914 -0.036131818 1.4979035 -0.77713597
000120 84 d1 48 3f 52 7e 3a bd 1d cc 26 be 7c 58 ab 3f
       0.78444695 -0.045530625 -0.162888 1.3386378
000130 21 b6 26 be cb 93 83 be c7 17 56 3d 93 f6 c7 be
       -0.16280414 -0.25698695 0.05226877 -0.3905531
000140 3b e2 6b 3e 18 9b 88 3e 4b 90 8c 3f 9d 96 9f bf
       0.23035519 0.26680827 1.0981535 -1.2467839
000150 9b 92 75 bf 5a 47 e7 bf 61 7b 3a 3c c8 e0 e1 bd
       -0.9592683 -1.806865 0.011381955 -0.11029202
000160 6f bd a0 bf 8c 85 22 3f 58 4d 9e 3e cd a2 36 40
       -1.255781 0.63485026 0.30918384 2.8536866
000170 44 72 9b bf 62 13 5b be 26 df 06 bf f1 fb 32 3e
       -1.2144246 -0.21394113 -0.5268425 0.1747892
000180 84 b8 04 3f 58 d5 c1 be ef db 66 be aa 67 c8 bf
       0.5184405 -0.3785808 -0.22544836 -1.5656636
000190 e5 71 f4 3e ac e3 87 bf 19 cc e3 3f 75 78 0c bf
       0.47743145 -1.0616355 1.7796661 -0.548713
0001a0 fe 86 ad 3e 68 37 47 3f 4e 46 f7 3b 63 71 15 bf
       0.33892053 0.7781892 0.007546223 -0.5837614
0001b0 74 51 6a bf 67 8b 57 bd 7a cf e4 3f 83 64 93 3f
       -0.9153054 -0.05262318 1.7875817 1.1515049
0001c0 f1 23 c7 3d 39 4b cc 3f bf a9 1a bf a8 74 b4 3f
       0.09723652 1.5960456 -0.6041526 1.4098101
0001d0 73 c5 f1 3d d3 3a 34 3f c7 95 09 bf 44 76 3c bf
       0.118052386 0.7040226 -0.5374417 -0.7361796
0001e0 17 0f 0c 3f 1d d8 f3 3f e3 e4 cf 3d e4 ea e6 3e
       0.54710525 1.9050328 0.101510786 0.45101082
0001f0 d9 01 cd 3e fa aa 7f bf cd 37 1b 3e da 77 21 bf
       0.40040472 -0.99870265 0.15158005 -0.63073504
000200 c8 88 36 40 03 4c f3 bd d2 10 c5 3e e5 eb 79 3f
       2.8520985 -0.118797325 0.38489395 0.9762557
000210 aa 02 ac bf f8 8a 55 bf bd 59 06 be ec 76 c2 bd
       -1.3438313 -0.83415174 -0.1312017 -0.09495339
000220 7d 43 38 be 3e 5a 8e bf ed 8a ea 3e ad ad 5f be
       -0.17994495 -1.112129 0.45809117 -0.21843596
000230 86 57 0e 3f 09 d7 df bd b1 b5 ff 3f d2 92 03 3e
       0.556023 -0.109296866 1.9977323 0.12848976
000240 f2 00 e0 3c 2a e4 1a 3e 16 48 54 bf 40 95 01 40
       0.0273442 0.151261 -0.82922494 2.0247345
000250 c2 86 79 3e 2a 23 9a 3d 2d 50 90 be b9 bb 9b 3d
       0.24367812 0.07526238 -0.2818617 0.07604165
000260 a6 73 d0 3e 61 8f 81 be 06 de cf 3e 49 80 45 3f
       0.40713233 -0.25304702 0.40599078 0.7714887
000270 ed e5 6c be 06 a6 8d bf 0a 10 94 3d f0 fc 5d bf
       -0.23134585 -1.1066291 0.07229622 -0.86714077
000280 87 c5 96 bf 34 da 0a 3f 45 92 4d be c9 95 18 bf
       -1.177903 0.542392 -0.20075329 -0.59603554
000290 f4 d2 eb 3e 36 ec 9d 3f 50 51 9e 3e fe 11 1b 3f
       0.46059382 1.2337711 0.30921412 0.6057433
0002a0 76 73 19 3f 20 07 9c be 7f 51 9d be 89 34 d2 3f
       0.59941804 -0.30474186 -0.3072624 1.6422282
0002b0 e1 8a 85 3f 04 e6 bd bf c4 b4 24 3f d2 ef e5 3f
       1.0433007 -1.483582 0.64338326 1.7963812
0002c0 8e 29 b3 3c 84 66 f3 bf 09 6c e5 bd be d3 ba 3e
       0.0218704 -1.901566 -0.11202247 0.3648967
0002d0 38 ff a6 bf 27 3a ca bc 1a 1c a7 bf f2 b2 68 be
       -1.3046637 -0.024685932 -1.3055451 -0.22724512
0002e0 3b c6 d9 bd 95 03 8c bf ec 47 92 be 3d 39 db 3f
       -0.106335126 -1.0938593 -0.28570497 1.7126843
0002f0 e4 bf a2 3f 83 c5 81 3f 2c 8a 3d bf 79 2a 84 3e
       1.271481 1.0138401 -0.7403896 0.25813654
000300 d0 92 67 bf 18 9f 13 40 e9 71 4b bf a3 e3 df 3f
       -0.90458393 2.3065853 -0.7947069 1.7491344
000310 ba 7c a6 bd 84 7c 3c be 6d 35 97 bf 6d 48 dd 3e
       -0.081292585 -0.18406874 -1.1813179 0.4321932
000320 e2 9a a3 3f 78 49 45 bf 58 81 dc 3f 3e 3e 62 be
       1.2781641 -0.7706523 1.7226973 -0.22094056
000330 f8 5f 5c 3f fe b0 e8 3f 5f 08 2f 3f 6e 50 85 be
       0.86083937 1.8179014 0.6837215 -0.26037925
000340 a8 f6 f4 3f ef 81 92 3f d3 48 b1 3f 18 62 93 bf
       1.9137774 1.1445903 1.3850349 -1.1514311
000350 23 71 02 3e 7b 3f 5d 3f 13 29 58 3f 46 88 cc bf
       0.1273847 0.8642499 0.84437674 -1.5979087
000360 6a a3 74 3f b9 68 b2 bf 9c 87 7e 3d 88 d4 82 bf
       0.9556185 -1.3938209 0.062141046 -1.0221109
000370 52 1b 0c bf bd 52 8c 3f 7e 9b fd 3d 90 07 cc 3e
       -0.5472919 1.096275 0.123831734 0.3984952
000380 6c 5c a8 3c a3 8a 89 bf 88 e1 88 3d e4 d6 2f 40
       0.020551883 -1.0745434 0.06683642 2.747491
000390 27 b3 56 40 46 1a db 3f 7d af ab bf bc 3b 4a be
       3.3546846 1.7117393 -1.341293 -0.1974935
0003a0 99 37 7a bf 3e 2d 48 3d c2 f5 59 bf b8 c3 19 bf
       -0.97741085 0.04887127 -0.8514062 -0.6006427
0003b0 6d 29 6c bf f2 b1 11 3e 76 b1 fe be 44 0f a5 be
       -0.9225071 0.14228037 -0.49744767 -0.3223821
0003c0 3f 9f ee bf db c8 db 3e b0 58 1d 3f ba 6d 3b 3e
       -1.8642348 0.42926678 0.6146345 0.18303576
0003d0 99 c3 ca 3d ec 41 0b bf 52 10 44 3f b6 ce b0 bf
       0.099005885 -0.54397464 0.765874 -1.3813083
0003e0 c5 48 85 3e ce ad 29 3f ae 5e 3a 3f 30 f0 15 3f
       0.2603208 0.6628083 0.7280072 0.5856962
0003f0 d4 02 74 3e 5b cb a9 3c 17 00 4f bf 50 8c 5b 3f
       0.23829204 0.02072685 -0.8085951 0.85760975

embedding_CNN_distances.weight f4 [7, 8]
000000 d7 2b 85 3f 9e 21 93 bf 5f 35 47 3e 70 f4 b8 3e
       1.0404004 -1.1494634 0.19453953 0.3612399
000010 f6 47 70 3f e4 7f 07 bf ff 0b 3c 3f ea 53 9e 3f
       0.93859804 -0.5292952 0.73455805 1.2369359
000020 84 6e 37 bf 02 1b 37 3f ba 5e 37 c0 6e 64 6e be
       -0.7165301 0.71525586 -2.8651567 -0.23280498
000030 7c 0d 81 bf ac 67 0d c0 58 a0 82 bf 05 3f 7f 3d
       -1.008224 -2.2094526 -1.0205183 0.06231596
000040 53 05 84 3e 3b 50 95 bf b9 17 02 3d dd dc c3 be
       0.25785312 -1.1665109 0.031760905 -0.38254443
000050 b6 89 9d 3f 76 27 63 3f c1 51 f5 3f 5b af cf 3e
       1.2307651 0.8873209 1.9165574 0.40563473
000060 2d 05 f3 bd 3e 86 be 3e 34 1e 0b 3f d5 30 e0 bf
       -0.118662216 0.37211794 0.5434296 -1.7514902
000070 69 0d 70 3f cb e1 45 bf 7d 12 d6 3e 02 61 01 bf
       0.9377046 -0.7729766 0.4181098 -0.5053865
000080 13 b6 8c bf 37 e8 30 be 11 f3 1e 3f 31 47 c6 3f
       -1.0993065 -0.17276083 0.6208964 1.5490476
000090 81 fd 0a 3e 59 6b 37 bf 13 47 6b 3e 3d 07 bb 3e
       0.13573267 -0.71648175 0.22976331 0.3652896
0000a0 30 6c bd 3d 34 eb d2 be e7 6c 51 be 29 48 ab 3f
       0.09249151 -0.4119507 -0.20451699 1.3381397
0000b0 75 8c bb 3e a6 c5 69 bf 36 1b 36 bf f2 c8 89 3f
       0.36630598 -0.9131721 -0.7113527 1.0764449
0000c0 00 00 00 00 00 00 00 00 00 00 00 00 00 00 00 00
       0.0 0.0 0.0 0.0
0000d0 00 00 00 00 00 00 00 00 00 00 00 00 00 00 00 00
       0.0 0.0 0.0 0.0

embedding_CNN_prices.weight f4 [6, 5]
000000 e1 cb f2 3f e2 2d b1 3f 5c e2 a2 bf 56 f8 dc bf
       1.8968469 1.3842127 -1.2725329 -1.7263286
000010 9e f2 80 bf 78 ea e3 be d1 78 8e 3f 06 e0 f8 3f
       -1.0074041 -0.44514823 1.113062 1.9443367
000020 98 02 b2 3e b6 77 7c be 83 63 0b 40 83 10 0f bf
       0.34767604 -0.24655041 2.1779487 -0.5588457
000030 76 8a cd bf 71 3e 34 bf fc ea 93 bf 40 76 99 bf
       -1.605788 -0.7040778 -1.1556087 -1.1989212
000040 34 bb eb 3f 78 7d a5 be fa 2a b5 bf b1 22 57 bf
       1.8416505 -0.32322288 -1.415374 -0.8403731
000050 3d fa 1d bf d0 63 a1 3e ae c8 1d 3d bc 0d 47 bf
       -0.6170996 0.31521463 0.03852146 -0.7775533
000060 8d 46 6d 3f 00 00 00 00 00 00 00 00 00 00 00 00
       0.92685777 0.0 0.0 0.0
000070 00 00 00 00 00 00 00 00
       0.0 0.0
